saved_models/dqn_best_model.pth (torch, 981101 bytes, 32 tensors)

conv1.weight f4 [16, 2, 4, 4]
00000000: 3d96 24be 4f29 c0bd e89f c1be 8fa5 43bf
00000010: eefa 93be c076 12bf b02f dabd 4b62 f7be
00000020: 3e50 89be 89b4 fbbe 0a49 16be 0e32 c6be
00000030: 3371 b8be bf0b 9bbe 52a7 0ebe 2802 68be
00000040: b448 5fbd 653f 9abd 9aef 103e bfcf f93c
00000050: e90c c03d 2d11 c83d 1e5e 2abe d33c 603c
00000060: a3b5 a83d 0290 8fbd 432d cfbd dc08 68be
00000070: 6365 3dbe c945 e6bd c238 153e ca1d ddbd
00000080: 8911 3ebd b7bd 0fbf 6aba dbbe 68ae 04bf
00000090: 97fb 23bd 0fb7 99be 171d d9be c7c6 7fbe
000000a0: ab3c 53be 3a3a dfbe c6d8 28bb a769 4cbe
000000b0: 289a 04be 0292 babe 3d57 2ebe 6fb2 21be
000000c0: 0d9e 42be f91d 03bc f408 f13d 80a6 bfbd
000000d0: c1d1 0c3e 94cc 06be 1148 29be 8c65 11be
000000e0: 75cf f23d aeb0 87be e6b2 96be be65 04be
000000f0: b4b3 d3b9 5a78 c23c 5f08 38be cb13 33be
00000100: f033 dd3d 8fd4 23bc 7ef8 44be 1ca0 333f
00000110: 3a6c 0bbf dbd2 083c ab30 ce3e 6d14 263f
00000120: f3c0 aa3e a7a5 973e bafb e83e dc6d 283f
00000130: de56 86be 28ae a53e 7042 123f 63b1 853f
00000140: 4a43 87bd fe58 dabd 2fbf 673d 5500 08be
00000150: 60ff 41bc 5db9 613d 3c33 45be a8cb c2be
00000160: b9e9 49be 522d 623d 0b7c 29bd f8c0 fcbd
00000170: c5a7 71bd 2295 3fbd fe64 8cbd bc85 943d
00000180: f9b3 493f c9c3 4b3f 210f 243f 3d93 c73f
00000190: 6232 a43e bbc4 9b3e 1ab6 183f acca 183f
000001a0: d260 b13e df79 c53e 1462 4d3d 7808 3d3f
000001b0: e30e 913e 9304 bb3e 55cc 293f 0c03 473f
000001c0: 133f 28b8 147f d0bc 9593 503e 6da9 78bb
000001d0: 01d6 90ba cdec cbbd 249b 60bd 1290 aebc
000001e0: d890 383e 2dd7 51bc 1dd1 bdbc 0e69 86bd
000001f0: 8a57 44bd baee 023e a0df 0d3e 2c69 54be
00000200: 9cc2 1cbd daef e23f 8ac2 db3f 757b d93e
00000210: fbf1 55be 685a 683f 40a7 6e3f c0bd 583f
00000220: bed2 213f 0a65 b33e 7b88 873e b634 fc3e
00000230: eb63 0c3f bf39 003f bbee d5be dbaf b3bc
00000240: 48ff e73d c5b3 b0be 5e22 d63d 4c6b 1f3d
00000250: 963e b43d 7b3b 393e cd75 91bd 04cc 00be
00000260: 96aa 413e 56d6 f3bd 4640 c9bd 067e b43b
00000270: 3aed b83c 6276 b83c 3cca 043e 2a7e 013d
00000280: ce9d 003f d9f5 9bbc ea7a 3fbf 0b08 bf3f
00000290: 863a 8abd 86d3 a5be af67 a23e 5419 673f
000002a0: 59b2 61bd d117 d23d 6d45 7b3d 8798 243f
000002b0: 1c8d e43e da51 133f 8a58 c83e e360 403f
000002c0: cf45 a9bb 4fbb efbc d226 df3d 784b 9bbe
000002d0: 3ca3 2b3d bda8 77be e3ea 0bbd fd37 4dbd
000002e0: 7739 25be 7ecf 07bd 404b 123d 358c 93be
000002f0: 0032 8a3d b5c6 ff3d 3a27 3fbe 0a8f f93c
00000300: 2ca1 efbe 5d29 16bd d7c3 03be 1101 c73b
00000310: 7322 08bf 25e7 b9be d0c9 f5be 708e c8be
00000320: fec6 74be f7fc cabc 455d 38be dcce 983d
00000330: ccaf 9fbe d84a a7be a445 f7be 5d42 fcbc
00000340: 74cb 66bd 8a46 1ebe 10fb 2f3d 5329 4c3c
00000350: e244 febd c7f0 efbd 674f 5abe b7d3 20be
00000360: e321 813d e06e 713e dcdc ef3c 506b 89be
00000370: c130 78be 8792 153e ec60 f4bd 1098 87be
00000380: b73b b6be b4b6 b4be 8666 babe fbbf 1bbe
00000390: de4d b7be 4c3c 3fbe cb27 1d3e 6c87 dfbe
000003a0: cdf8 dbbc 251b 26be 64a2 41be 08f6 46be
000003b0: e87d 7bbe 6f94 d8be 89dd 4cbe 5bf2 eabe
000003c0: 7387 f33d e30a c23c 570d 8a3d bd02 103e
000003d0: 92db 8abd 0508 86be 5125 94be 9cee 38be
000003e0: 06fa 59bd f61d 40bd 3c2e 3e3d f25b 0b3c
000003f0: b528 4abe ce67 00bd 6447 7ebd cfe5 1bbe
-0.16072936 -0.09382879 -0.3781731 -0.764245 -0.28902382 -0.5721245 -0.10653627 -0.4831718
-0.26819032 -0.49161175 -0.146763 -0.38710064 -0.36023864 -0.302824 -0.13931015 -0.22657073
-0.054512694 -0.07531623 0.141539 0.030494569 0.093774624 0.09768901 -0.16637465 0.013686377
0.082377695 -0.07009889 -0.10116055 -0.2265963 -0.18495707 -0.11243779 0.14572433 -0.107966974
-0.04640344 -0.56148857 -0.4291566 -0.5182862 -0.040034857 -0.30022475 -0.42405006 -0.24978171
-0.20628612 -0.4359911 -0.0025763973 -0.19962178 -0.12949431 -0.3643952 -0.17025466 -0.15790723
-0.19005604 -0.0080027515 0.11769286 -0.09357929 0.1375189 -0.13163978 -0.16531397 -0.14198893
0.118559755 -0.26501983 -0.29433364 -0.12929437 -0.00040378945 0.023739029 -0.17971943 -0.17488019
0.10800922 -0.009999408 -0.19235417 0.7016618 -0.54462016 0.008351053 0.40271506 0.6487492
0.33350334 0.2961857 0.45504552 0.6579263 -0.2623815 0.32359433 0.57132626 1.0444759
-0.06604631 -0.10661505 0.05657881 -0.13281377 -0.011840671 0.055108417 -0.19257826 -0.38046002
-0.19718064 0.055219002 -0.041378062 -0.12341493 -0.058997888 -0.046773084 -0.068552 0.0725207
0.7879024 0.7959562 0.64085585 1.5591809 0.3206969 0.3042353 0.59652865 0.5968425
0.3464418 0.38569543 0.050142363 0.7384105 0.2833167 0.36526927 0.6632741 0.77739024
-4.0113064e-05 -0.02545122 0.20368798 -0.0037942783 -0.0011050106 -0.099572755 -0.054835454 -0.021308932
0.18024004 -0.01280765 -0.023171002 -0.06563006 -0.047935046 0.1278638 0.13854837 -0.20743245
-0.03827153 1.7729447 1.7168744 0.42477003 -0.2089309 0.9076295 0.93223953 0.84664536
0.6321219 0.35038024 0.26471314 0.49258965 0.5483996 0.50088114 -0.417837 -0.02193444
0.11327988 -0.34512153 0.10455774 0.038920686 0.08801 0.18089096 -0.07102547 -0.12577826
0.1891273 -0.11906116 -0.09826712 0.005508187 0.022574056 0.022517387 0.12967771 0.03161446
0.5024079 -0.019038128 -0.74796927 1.492433 -0.06749444 -0.32387942 0.3171973 0.9027302
-0.055101726 0.10258449 0.061345506 0.6429524 0.44638908 0.5754677 0.3913005 0.7514784
-0.0051657925 -0.02926412 0.10896076 -0.30331016 0.04190372 -0.24185462 -0.034159552 -0.050102223
-0.16135202 -0.033156864 0.035716295 -0.28817907 0.06747818 0.12489072 -0.18667307 0.030463714
-0.46802652 -0.03666054 -0.12867676 0.006073125 -0.53177565 -0.36309162 -0.48005533 -0.3917117
-0.23904034 -0.024778826 -0.1800433 0.0746133 -0.3118881 -0.3267429 -0.4829532 -0.030793363
-0.05634637 -0.15456596 0.04296404 0.012461024 -0.12415482 -0.117158465 -0.21319352 -0.15705763
0.063052915 0.23577452 0.029280119 -0.26839685 -0.24237348 0.14606677 -0.11932549 -0.26483202
-0.35592434 -0.3529564 -0.36406344 -0.15209953 -0.35801595 -0.18675345 0.15347211 -0.43658006
-0.026852036 -0.16221292 -0.18909603 -0.19429791 -0.24559748 -0.42300746 -0.20006384 -0.45888028
0.11891069 0.023686832 0.067408256 0.14063545 -0.06780161 -0.26177993 -0.2893472 -0.18059772
-0.053216957 -0.046903573 0.04643081 0.008505808 -0.19742091 -0.031348996 -0.062079802 -0.15224384

conv1.bias f4 [16]
00000000: ce26 703e f688 ff3d 08ac 553e b644 c93d
00000010: 1c84 01be c985 703e ba7f 4e3e 9c1b 193e
00000020: 6715 413e 9ed4 b43d 358f ea3d d4ed 1abb
00000030: ab36 843d b099 0cbe 49be 913e 291c 233e
0.23452303 0.12477295 0.20866406 0.09827559 -0.12648052 0.23488535 0.20165911 0.14951938
0.1885582 0.08829616 0.11453096 -0.0023640292 0.064557396 -0.13730502 0.2846549 0.15928711

conv2.weight f4 [32, 16, 4, 4]
00000000: 938f 4bbb 4449 5cbd 4f2b 463d 44d1 6b3d
00000010: e804 373d 81b7 8fbd 5290 6abc 8bd4 083c
00000020: 7666 623c 8533 87bc 6b29 7dbd 880f e0bb
00000030: 58b2 a63d dbab 3b3d 2f17 7ebc 4bf8 9b3d
00000040: ca2f 383d a4d8 7dbd e17a 8dbe 1ca3 363d
00000050: 6dfa bfbc 9ef0 93bd 00b6 45bc d04a f33c
00000060: b604 7e3d 2db3 5dbd 967c be3c 385a 46bd
00000070: 5229 4bbc 2b86 df3c be5c 17bc 4ced 153c
00000080: e215 46bd 61e9 34bd a453 b63c 55f1 f83c
00000090: f08c 853c b540 133d 8112 9dbc c48c 353a
000000a0: 2792 eabc 0300 be3c 2348 553d de2d b1bc
000000b0: 5f2d 873d 667a 6dbd 8b11 e6bd a3e4 5fbd
000000c0: 5114 a2bd 0811 f7bd 701e a9bd b166 78bd
000000d0: 22d1 3ebd 386e 73bd dc5c 18bd 3729 92bd
000000e0: 2c03 d7bb ab72 9a3c 2a4b 8ebc a826 4ebe
000000f0: a325 4f3d 064d 033d f5c2 18bd 671a 8fbe
00000100: a3e2 1cbf 9f32 dbbe f6e6 96be cfd5 08bf
00000110: ef3c 01bf a445 cfbd 6012 10be 0887 03bf
00000120: 0386 edbe 3ace 78bd 7cd1 a7bd 693e b5be
00000130: 8103 88be ae8f 163d 99d4 a73b 8d0d f3be
00000140: e2ff 95bc 1c9e 1f3c 47a0 debb a3e4 15be
00000150: e71c 8b3c 1c9e 913d 9147 b6bc d571 d13c
00000160: acc7 85bd 8a97 55bb 33cf 993d da4e 6639
00000170: 4326 833d a5bf cf3d 6fbb 01bc 3f15 28be
00000180: bcba 503d ecfd 5a3c 27fb f03d c4a5 df3d
00000190: 3eed a83c affa 4d3c 63b0 bfbc c36e 813d
000001a0: 62b0 a13d 3f25 6e3d ef58 1f3d 9ef3 033d
000001b0: d1e8 783d ae2d 17bd c699 83bd 2585 483d
000001c0: ff60 2fbc 8339 0d3d 0adf 573c 80fb 51bc
000001d0: f27a 713d 7bc0 37bc 0c12 64bc 1822 53bd
000001e0: af61 f03d e8a7 ab3c 2e01 c4bb c4b0 d53d
000001f0: 1a9e 833d 52d0 2abc b4f0 22bc 63f0 a2bc
00000200: fd72 abbb d48d 96bb d59a 5a3d d465 353d
00000210: a08a 023d 3f1f 16bc 8ab4 fdbd 9410 56bd
00000220: dc11 8fbd dc61 923d fb10 bb3c cdba a83c
00000230: 19a5 d73d 4573 49bd 9c51 363c 34f8 9b3c
00000240: 532e e6bd 6434 193d 45cb da3c 71c6 b4bc
00000250: b391 50be 2b94 24bd 5652 54bd 8fa0 55bd
00000260: dcd1 38be 4edf 5fbe 6e84 663d 057f 7ebd
00000270: 0a58 1dbe 8855 10be e3f7 183e a0cf a0bd
00000280: 14ee 1c3c 6c9d 113d b7fd 4dbd eb72 fd3d
00000290: 3cab 59bc f756 04be e581 443d 3aae 8a3c
000002a0: db7e 6a3d 6c14 1e3d 44fb abbd 1a29 d439
000002b0: 6ea3 753c 61ae 6b3d fecf a6bd 54f2 61bc
000002c0: 44ec 8b3d 220b 70bd 2e62 9abd b96f 86bd
000002d0: d07a d5bd 6676 d13d a1f3 bbbc c03c b93d
000002e0: 0425 7e3b 097b b3be fc2c 1ebd 44bb 16bd
000002f0: f567 35be 81b8 273d 74e8 323e 3c0d 153d
00000300: 6256 7f3c bb57 fb3c 94f0 ca3d 2c3f 053d
00000310: 0957 09bd b9c4 81bd 775e e13c 7321 a3bd
00000320: 1c16 993d d1eb f83b 4d86 99be 886b 933c
00000330: 0a4f 05be c1d5 39bd 8545 8e3d 2992 ffbc
00000340: c6de 34be c010 87bd bbb9 dcbd 9e61 04bf
00000350: 344c 10bd ae8d d5bd 1b4c 98bd bfbe 9ebe
00000360: 4784 3bbe 0bfe 40bd 9b0e 06be 3189 98be
00000370: dbe1 2fbe 426a 81bc cce9 d3bb 2b2e 28bf
00000380: 3b88 dd3d 2e61 8c3c b562 193d 97b5 b83d
00000390: 07fb b5bb 855c 00bd af9b a73d 9d29 53bc
000003a0: 24e9 aabc c67c 4a3d 6ae3 ca3a 3aa5 da3c
000003b0: f8bb dc3d f6c1 02bd 5a0d 723d 4573 773d
000003c0: a659 5fbc 549a 36bd 54ee 19bb 23d4 11bb
000003d0: 621a 0b3d 8e90 9cbd 2608 763d a9c3 5bba
000003e0: ba6c f93d 2e5f c2bd 852f 35bd 55c8 423d
000003f0: dde2 983d 31b2 d23d 5292 29be 78ee 06be
-0.0031060919 -0.05378081 0.048381146 0.057572618 0.044682413 -0.070174225 -0.014316635 0.008351455
0.013818374 -0.016504059 -0.061807077 -0.006837789 0.08139485 0.04581819 -0.015508457 0.076157175
0.04496745 -0.061974183 -0.27632812 0.044589147 -0.023434842 -0.072236285 -0.012067318 0.02969876
0.06201621 -0.054125953 0.023252767 -0.048425883 -0.012399988 0.027285656 -0.00923842 0.009150814
-0.048360713 -0.04416788 0.02225668 0.030388514 0.016302556 0.03595038 -0.019173862 0.0006925578
-0.028634144 0.023193365 0.052070748 -0.021628316 0.06600451 -0.057978056 -0.11233815 -0.054661404
-0.07914031 -0.12063795 -0.082577586 -0.06064481 -0.046586163 -0.059431285 -0.037197933 -0.07136767
-0.0065616574 0.018853506 -0.017369825 -0.20131934 0.050573003 0.032055877 -0.0372953 -0.2794983
-0.6128332 -0.42812058 -0.29473084 -0.53451246 -0.504836 -0.10120705 -0.1406951 -0.51377916
-0.46391305 -0.060743548 -0.08194253 -0.35399178 -0.26565173 0.036758117 0.005121779 -0.47471276
-0.018310491 0.009742286 -0.006794009 -0.14637999 0.016981555 0.07110235 -0.022250922 0.025566975
-0.06532225 -0.0032591545 0.07510223 0.00021963884 0.06403782 0.10143975 -0.007918223 -0.16414355
0.050959334 0.013366204 0.117666535 0.10920289 0.020620938 0.012571975 -0.023399537 0.06319954
0.078949705 0.05814099 0.038903173 0.032214753 0.060768906 -0.036908798 -0.06425814 0.0489551
-0.010704278 0.034478676 0.013175735 -0.01281631 0.05895514 -0.0112153245 -0.013920318 -0.051546186
0.11737382 0.020954087 -0.005981586 0.10434106 0.0642664 -0.010425644 -0.009945083 -0.019890016
-0.0052322135 -0.004594544 0.053370316 0.044286564 0.031870484 -0.009162723 -0.12387951 -0.052261904
-0.06985828 0.071475714 0.022835245 0.020596886 0.10529537 -0.049182195 0.011127856 0.01903925
-0.112393044 0.03740348 0.026708255 -0.02206728 -0.2036808 -0.040180366 -0.051836334 -0.052155074
-0.18048805 -0.21862528 0.05627864 -0.062132854 -0.15365615 -0.14095128 0.14938311 -0.07852101
0.009578247 0.03555052 -0.05029079 0.123754345 -0.013285454 -0.129238 0.04797544 0.01692878
0.057249885 0.038593695 -0.083975345 0.00040466414 0.014992578 0.057539348 -0.0814514 -0.013790686
0.068321735 -0.058604367 -0.075382575 -0.06564278 -0.10423815 0.10227661 -0.02294332 0.0904479
0.0038779387 -0.35054806 -0.03861712 -0.036799684 -0.17715438 0.04094744 0.17471486 0.036389574
0.01558456 0.030681482 0.09909168 0.03253095 -0.03353027 -0.0633635 0.027510865 -0.07965364
0.0747492 0.007596471 -0.29985276 0.01799561 -0.13018432 -0.045369867 0.069468535 -0.031197624
-0.17663106 -0.06594992 -0.10777613 -0.5171145 -0.035228923 -0.10427414 -0.07436391 -0.31004903
-0.18312179 -0.047117274 -0.13091509 -0.2979217 -0.17176001 -0.015797738 -0.0064670797 -0.65695447
0.108169995 0.017136183 0.03744765 0.090190105 -0.0055536064 -0.031338234 0.08183991 -0.012888339
-0.020863123 0.0494354 0.0015479152 0.026690114 0.1077804 -0.031923257 0.059094764 0.060412664
-0.013632214 -0.044580773 -0.0023488002 -0.0022251687 0.033960707 -0.07644759 0.060066365 -0.00083833426
0.12178941 -0.0949081 -0.04423477 0.047554333 0.07465146 0.102878936 -0.16559723 -0.13176906

conv2.bias f4 [32]
00000000: 88e1 c43d ea83 fb3c a8e4 8dbd c849 d23d
00000010: ce3a 883d 7335 fb3c 816a a7bd 789d 3b3e
00000020: c063 bcbd 0c6a 723b 0253 9fbc 13d6 063e
00000030: 77bb 0a3d fb07 a4bd 11f4 f93d 9244 df3d
00000040: 0cfb 743c 406d d13b 6c7d 883d d533 92bd
00000050: 31c9 f3bc 5f2c e53d c8f4 423b d846 c43d
00000060: e709 dd3d b483 48bb 6b08 173e 89ea 1b3d
00000070: 4a4c 4c3d 5879 2cbd 6b17 073e 69a5 ca3c
0.09613329 0.03070255 -0.06928378 0.10267979 0.06651841 0.030665135 -0.08174611 0.18321788
-0.09198713 0.0036989478 -0.01944876 0.131676 0.033870187 -0.08009335 0.12204755 0.109017506
0.014952432 0.0063911974 0.06664547 -0.071387924 -0.029759021 0.11190104 0.0029747952 0.09583825
0.10792904 -0.003059608 0.14749305 0.038065467 0.049877442 -0.04210791 0.13192527 0.024737077

fc1.weight f4 [64, 800]
00000000: 921f 013c 53b6 b83c 4ee5 20bd f326 603c
00000010: d83a df3d d16c 413c 4bee b33c 03fa 3abc
00000020: 5824 ed39 9b3e c43c c50f b23b b356 4f3c
00000030: 3640 10bd 810f 0d3d 796a 69bb 9ee2 5eb9
00000040: 74e6 383d 2946 34bd 8b14 5cbd 5d9f 993b
00000050: ec66 dbbd 9747 a3bc d0d0 6e3c 4799 933c
00000060: dff9 cb3d 8824 6bbd ebbf 99bd 30c7 18bd
00000070: 1094 653c 6fd8 a23d 94ca 8bbb 6152 f3bc
00000080: 490b d6bc 99bf a7bd 9102 34bc e54d 36be
00000090: 731e 9cbd dbe9 d0bc b17f f63c 1889 1a3d
000000a0: 163d e73c 8138 493c 94c7 aabd 3de5 07bd
000000b0: ac32 d43b b904 b8bd 5eb8 e9bd 76b3 1abe
000000c0: 73a6 1b3c 7b89 0d3d a0a4 683b 899b 753c
000000d0: 0474 913b 5e1e 06bd 0f0e 02bc 9d67 5f3b
000000e0: 2c37 f63b f9e6 a1bc b336 12bd a0b8 f53b
000000f0: abed e03c b1bf 173d a1e9 243d ee34 9e3c
00000100: 6160 d43c 6345 98bc 4eff 25bc b89b 6c3c
00000110: 33e4 0abd 1c64 9a3c 8a36 ad3c 9ef1 593c
00000120: eeee bbbc fcc3 fcbc aae1 96bc ae5f 02bd
00000130: 0282 ba3b 8ca7 503b cc75 87bc a431 7d3d
00000140: 184f 2d3d eb82 883c 2cd0 f9bc 5ef6 a8bd
00000150: f26e d9bb 53c4 fe3c b1ee 17b9 034f 0fbd
00000160: 03ce 28bd b223 0d3d 67a4 9abc b7ce a2bd
00000170: 4163 51bd 0c57 713c 8451 60bc 096e 4e3d
00000180: ab34 27bd 9182 8b3d 6f86 e13c e9a9 633d
00000190: 20e4 39bc 697f 8f3c 7aa0 2dbd 100b e9bc
000001a0: e433 283d 0090 9dbb 13e5 223d 97a0 313c
000001b0: b27a 823b ba00 5bbc f527 bdbd df5b a3bd
000001c0: da1f 54bc dbab 12bc eb8e 38bd 0dcb 0cbd
000001d0: ec31 54bd 2850 dbbd 6d90 563d f50b 40bd
000001e0: 3282 313d 87c8 10bc e8d9 7dbd 375f b0bb
000001f0: a2f1 803d a3ce 5a3d e636 9b3d 9848 033e
00000200: fb2e 2c3e 1f0a f33d 40d3 b3bc 1019 a6b9
00000210: f029 4a3d 91dc 13bc 7715 023e 550f 34be
00000220: e3b5 ccbd be1c 993e 2656 843d 60aa d9bd
00000230: 91c8 dbbe 5de7 c7be df88 bdbe 23f4 79bd
00000240: 61d8 b93d ca78 4cbe 4fac 5bbe d206 67bd
00000250: bff7 513e e6d6 433e 4d64 173d 1ac8 06bd
00000260: d258 c03c b5f5 87bc f83d 9e3c 90c9 d33c
00000270: b532 39b7 bc37 c7bc f2d3 db3c 93d7 6abc
00000280: e8da 2bbd d91d d4bc 834a 4ebd 306a 3cbd
00000290: 689d f53c ac20 40bd 8640 053c e4e6 1cbd
000002a0: c98f 8b3b 805a d43c 20f2 193c 5984 6c3c
000002b0: 6f29 893c a2e8 c93c 53c7 a73b 1a64 e7be
000002c0: d767 a5be 95ce 08be af0c 94be b689 0ebf
000002d0: 5149 10be 5d81 10be ca6d cebd 2d0e 073e
000002e0: 068c e1bd 988a 9abe 032a c9bd d76c 25be
000002f0: 45da 1fbe 2ff6 01be 548e a1be dec8 40be
00000300: 64ba 93bd 4e0a 143e 211b 98be e9dc 9fbd
00000310: a676 66be 8125 fe3d ef46 eebc 09c5 a0be
00000320: a845 033c 5cb5 b13c f3e0 ccbc 378e dbbc
00000330: d6da a63c 9187 003d 9f69 85bc 8e68 ae3c
00000340: b276 e7bc e8c2 02bd 2c27 c13c 8058 c03a
00000350: 4074 4abc 50ad adbc 34cd 2abc 2c59 c6bc
00000360: 1662 82bc a0e6 cbbc d44c 293c 00d8 a037
00000370: 56ac 653c 3413 923c f027 19bb 20f3 2e3b
00000380: 00de 15ba 24cc e0bb 563b 9a3a 503f 65bb
00000390: b255 13ba b465 d2bc 260d ddbc 37d2 cabc
000003a0: d09b da3b 825b 833b 32e0 fd3c de5a bcbc
000003b0: 600c 0abd 58bf d8bb ca2c f73c 007e 883a
000003c0: 900c 763b 7056 cd3c d4b3 c1bc a815 68bc
000003d0: 5a74 173d da9f a83c a0ec 583b b1c2 ca3c
000003e0: 0d05 d8bc 40d1 823c 588e 3e3d 87a4 8bbc
000003f0: bb26 3a3d 92b1 10bd b6f1 223c 8fa5 a63b
0.007881062 0.022547876 -0.039281182 0.013681161 0.108998954 0.011805729 0.021964213 -0.0114121465
0.0004523124 0.023955634 0.005434009 0.012654948 -0.035217486 0.034438614 -0.0035616441 -0.00021255991
0.045141652 -0.044012222 -0.05373053 0.004688187 -0.1071299 -0.019931598 0.014576152 0.018017424
0.099597685 -0.057407886 -0.075073086 -0.037299335 0.014012352 0.07951438 -0.0042660926 -0.029702367
-0.026128428 -0.08190841 -0.01098694 -0.17803152 -0.07622995 -0.025502136 0.030090185 0.0377284
0.02822737 0.012281538 -0.08338848 -0.033177603 0.006475767 -0.08985276 -0.114121184 -0.15107521
0.009500134 0.03455494 0.0035498515 0.014990696 0.004438879 -0.032743804 -0.007937922 0.0034088858
0.007513901 -0.019763457 -0.035696696 0.0074988157 0.027457079 0.037048046 0.04026187 0.019312348
0.025924863 -0.018587774 -0.01013167 0.014441423 -0.033909034 0.018846564 0.02114417 0.013302235
-0.022941079 -0.030855171 -0.018418152 -0.03182953 0.0056917677 0.0031838147 -0.016535662 0.06181492
0.042311758 0.016663989 -0.030494772 -0.08250116 -0.00663554 0.031099474 -0.00014489402 -0.03498746
-0.041212093 0.03445787 -0.018877221 -0.07949584 -0.051120047 0.014730226 -0.01369131 0.050397906
-0.040821712 0.06812013 0.027529923 0.05558196 -0.011345893 0.017516809 -0.04238937 -0.028447658
0.04106511 -0.004808426 0.039769243 0.01084151 0.0039819116 -0.013366872 -0.09236137 -0.079765074
-0.012947047 -0.008952106 -0.045058172 -0.03437333 -0.05180542 -0.10708648 0.05238383 -0.046886403
0.043337055 -0.008836872 -0.06197539 -0.0053824442 0.06296088 0.05341972 0.075788304 0.12820661
0.16814797 0.11867165 -0.021951318 -0.0003168066 0.0493564 -0.009024755 0.127035 -0.17583974
-0.0999563 0.2990474 0.06461744 -0.106281996 -0.42926458 -0.39043704 -0.37018487 -0.061023843
0.09074474 -0.19967952 -0.2145245 -0.05640299 0.20504664 0.19124946 0.03696089 -0.032905675
0.023479853 -0.016596654 0.019316658 0.025852948 -1.1038665e-05 -0.024318568 0.026834462 -0.014333623
-0.041956812 -0.025893139 -0.05036403 -0.045999706 0.029982284 -0.04690616 0.008133059 -0.038306132
0.004259084 0.02592206 0.009396106 0.014435851 0.01674339 0.02464706 0.005120197 -0.4519356
-0.32305786 -0.13360055 -0.28915927 -0.5567888 -0.14090468 -0.14111848 -0.10079534 0.13189001
-0.110130355 -0.30183864 -0.09822466 -0.161548 -0.15610607 -0.12691568 -0.315539 -0.18826625
-0.072132856 0.14457056 -0.29708198 -0.07805807 -0.22506198 0.12409497 -0.029086558 -0.31400326
0.008012213 0.021692924 -0.025009608 -0.026801212 0.020368021 0.031379286 -0.016285716 0.02129009
-0.02825484 -0.03192416 0.023578249 0.0014674813 -0.012356818 -0.021200806 -0.010424901 -0.024212442
-0.015915912 -0.024890244 0.010333259 1.917407e-05 0.014018139 0.017831422 -0.0023369752 0.0026695207
-0.00057169795 -0.006860273 0.0011766951 -0.0034980364 -0.00056203746 -0.025683261 -0.026983809 -0.024758441
0.0066714063 0.0040087113 0.030990694 -0.022992548 -0.033703208 -0.006614607 0.030172724 0.0010413527
0.003754411 0.02506563 -0.023645319 -0.0141653195 0.036976196 0.020584036 0.0033100024 0.02475104
-0.026369596 0.015968919 0.04652247 -0.017046226 0.045447093 -0.035325594 0.009945324 0.005085654

fc1.bias f4 [64]
00000000: 3eb5 a93d 81ff a7bd 1026 48bd cdd3 b33d
00000010: 9ad9 b63d f967 ed3c de18 53bc 7445 843c
00000020: 1994 2dbd 4504 2f3d 11ee 6dbd 6db4 2c3c
00000030: ee74 38bd 5a8b b9bc d932 7fbc 3cee 6fbd
00000040: 7a95 d7bc c7af 1fbb 2f13 6bbd 36b9 13bd
00000050: b845 64bd fe4f 873d 4d6b 963d e4d4 2ebd
00000060: a136 ef3d 0162 53bc 00fb 243d db67 48bc
00000070: 5ea3 79bd 5100 19bc eff0 76bc 9824 843d
00000080: ec72 32bd 3b07 b43d bfe1 e23d 8aa6 22bd
00000090: 6514 a03c 64da a23d 5ca7 65bd c59b c03d
000000a0: 41b2 0fbd fd0a 5fbb 6fa1 4b3a 0d53 9a3d
000000b0: 41f4 34bd 5df9 c23c 3f6d b23c 6c52 893c
000000c0: a2a0 d83c 1353 dabc c65f a23d 1ea9 59bd
000000d0: 9db8 0b3d 2de3 5abc 358b d83d bfcf 4cbd
000000e0: c0a3 4f3c 6597 08bd 69c0 66bd 47f9 813d
000000f0: 79f7 64bd 00b7 71bb 7b1a 8e3d 128a 22bd
0.08286522 -0.082030304 -0.048864424 0.08780632 0.08928223 0.028980242 -0.012884347 0.0161464
-0.042377565 0.04272868 -0.058088366 0.010541064 -0.045033388 -0.022649456 -0.015576088 -0.058576807
-0.026316393 -0.0024366246 -0.05739134 -0.036065303 -0.05573055 0.06607054 0.07344685 -0.042683497
0.116803415 -0.012901784 0.040278435 -0.012231792 -0.060946815 -0.009338454 -0.0150720915 0.06452292
-0.04356663 0.087904416 0.11078214 -0.039709605 0.019540975 0.07951811 -0.05606781 0.09404711
-0.035082106 -0.003403365 0.0007767891 0.07535372 -0.04417825 0.023800546 0.021780608 0.016762935
0.026443783 -0.026650941 0.079284236 -0.0531398 0.034111608 -0.013359827 0.10573427 -0.05000281
0.012673318 -0.033347506 -0.05633584 0.06346374 -0.05590007 -0.0036882758 0.069386445 -0.039682455

fc4.weight f4 [8, 64]
00000000: d078 be3c df71 bd3d 9b6e 323d 86f9 c0be
00000010: d12f b6bd df64 96bd e6af 543c ecb3 f6bd
00000020: b68a a53d 5bf1 193d 250f 1d3d 75ae 8d3e
00000030: 58f6 d33c b79c 383e f8b7 3ebd 5ddc 163d
00000040: ad61 cb3d 55f4 0abd 39bc 9bbd f08a abbd
00000050: d89b f63d 163d 90bd 5563 ccbe 9593 263d
00000060: 84d1 873e c979 13bd 47ef a6be 1cd7 25bc
00000070: 5e9b c1bd 00c1 2c3b 0991 8d3d fd09 4c3c
00000080: 54c4 123d 0b46 92be 470e 223e 805e 03bd
00000090: 5c19 be3d ff00 9c3e 2e10 ccbd a71a 5cbe
000000a0: 7878 a63d 2dd6 d53c e9fb b43d b1dd a63e
000000b0: 2b40 693c 4d83 7dbe de6f 7f3d 9a47 583d
000000c0: 9bd7 903c beb2 a1bd 33eb 5a3e 24ea 9cbd
000000d0: 4e9a 093d 09e8 173d 8144 8d3e eeac 42bc
000000e0: 2489 c03d 9e2c bd3d 601a 8a3d d903 6dbe
000000f0: 60b0 93bd 6cd9 00bd beb2 2ebe c8e9 ea3d
00000100: 4549 a2be f2d3 e0bb 760a f63d cde3 06bc
00000110: 1230 8ebe e98f 2abe c062 33bd 1cbb e33d
00000120: 44a0 e33d ee61 073e 469a b7bd 8303 853e
00000130: 20ba 953c a7b6 a13c e814 58bd 3ba4 383d
00000140: c7b3 703d 20c1 ddbd 0c7f 53bd 6e20 0abe
00000150: 2481 343d 1d5a 343b dbec 87be a848 fcbd
00000160: 10f4 9b3e b384 9a3c 1b79 4b3b 88fe b6bd
00000170: 117a 47bd d835 953d f9fb 153e dec8 b03d
00000180: 5016 17bd f2b4 30bd 9c26 683e 1444 62bd
00000190: adf1 dd3d 644c 18bf a2e2 e93d 65b7 bbbe
000001a0: c924 bfbd 9034 24bd 5fa0 503d 5390 243e
000001b0: 2bb4 753c d5b1 843e b9c3 3e3d 7c23 0f3d
000001c0: a80d f5bc 1381 9ebd cc40 8e3d a2d6 f7bd
000001d0: 78e9 dabe 0fc0 f6bd 7905 d6bd 3c52 9abd
000001e0: dc33 e03c bc14 6d3d 68d2 ef3c 739e 583e
000001f0: 18f6 dc3c 8098 c7bd f160 1a3e bc5e ccbd
00000200: a169 5bbe 98cd 9a3d 3cff 1e3d bc0f a8bd
00000210: 5490 bebe e970 373e 555b 093d 68e7 613d
00000220: 16b3 b73d 2f01 203e 3750 883d efb2 9c3e
00000230: 425d 77bc befb 1ebe 0432 f0bd 0d79 673d
00000240: 1d1f aa3d fbe6 d9bd 0ff1 02be 1220 afbd
00000250: 3058 a0bc 0f48 42be 90cd 38be 4f69 183d
00000260: 054c 66b9 9d8a a93d d022 bbbd 82cf eb3d
00000270: 15e8 a23d b403 ca3d 009c 98be c020 823d
00000280: 1c28 94bd 8829 d1be 3854 f63d f02b 003d
00000290: 6a25 ecbc 9513 1b3d 5808 86bc 8700 febd
000002a0: a07d f5bc d28c ae3d 7bcf 1bbd 8fdb 82be
000002b0: e20e 083d 6ab9 a2be a874 ed3d 1d09 9b3e
000002c0: 89a9 3d3a 8cf2 03bd ea06 553e 80e3 863b
000002d0: 3481 a9bc 15fa ea3c 958c 003e 42ef f83d
000002e0: 9f6e d2bd 2e8a 933d 936d 673d d91b dabe
000002f0: 3281 c0bd deaf d6bd b391 393e a60c 2abd
00000300: fe93 acbe caea 1bbe 3a3c 9abd 51f8 0f3d
00000310: 77cc 62be 38ee 4dbe a634 b4bd b422 d9bd
00000320: d8d6 d13d 98ca 05bc a5a1 5d3d 6c59 a53e
00000330: 1bde e8bd 79ce 84be 94ab 46bd d6e1 853c
00000340: 2adf 7f3d 76e9 c73d 8f48 febd ce26 903b
00000350: d276 533c dab9 5fbe 9526 0fbd 3d89 d43b
00000360: 2dcc 3d3c de6b c0bd 0655 89be edfd 05be
00000370: 2c60 583d 58fe ff3c 59bb b23d ceaf dc3e
00000380: df66 d33d 3d02 e1ba d4af 473d 880a 4abd
00000390: c69e a5bd aed3 cfbd 485a 18bd 2eb9 3cbe
000003a0: 106e 87bc 7ce7 dbbd 7964 7e3c 6654 b33d
000003b0: 232c 953c 2ac1 a03e c2f9 99bd 6eb4 633e
000003c0: 114d db3d 90d7 35bd 24de 4bbe ee84 82bd
000003d0: 89a8 dbbd 08ad b8bc 999c 1c3e cc20 69bd
000003e0: ea2a 01be 5a95 b3bd 4a61 603d 0639 fabd
000003f0: aa23 9ebd ec67 a0bd cc9e ad3c 32b0 6dbd
0.023250967 0.09250235 0.043562513 -0.3769037 -0.08895839 -0.073434584 0.012981391 -0.12046036
0.08083098 0.03758369 0.03834452 0.27672163 0.025874302 0.18028532 -0.046562165 0.03683125
0.099307396 -0.03392442 -0.0760426 -0.083761096 0.120414436 -0.07042901 -0.39919534 0.04066809
0.26527035 -0.036004815 -0.3260443 -0.010122087 -0.09453462 0.0026360154 0.06912429 0.012453553
0.035831764 -0.28569064 0.15825759 -0.032072544 0.09282181 0.3046951 -0.099640235 -0.21494542
0.08128446 0.026103104 0.088371105 0.32591012 0.01423649 -0.24757119 0.062362544 0.05280266
0.017680934 -0.078954205 0.21378784 -0.07661846 0.033594422 0.03708652 0.27591327 -0.01188205
0.094011575 0.09237026 0.06743312 -0.23145999 -0.07211375 -0.03145735 -0.17060372 0.114703715
-0.31696525 -0.0068612034 0.12013714 -0.008233023 -0.2777105 -0.1665646 -0.043795347 0.11119673
0.111145526 0.13220951 -0.08964972 0.25979242 0.018277228 0.019740416 -0.052754313 0.045078497
0.0587652 -0.10827851 -0.051634833 -0.13488933 0.04406847 0.0027519532 -0.26547894 -0.123185456
0.30459642 0.018862104 0.0031047526 -0.08935267 -0.048700396 0.072856605 0.14646901 0.086320624
-0.036886513 -0.043141313 0.22670978 -0.055240706 0.108371116 -0.5949156 0.1142018 -0.36663356
-0.09333188 -0.04008919 0.05093419 0.1607068 0.014996569 0.25916925 0.046573374 0.03494595
-0.029913738 -0.07739463 0.06945953 -0.12101485 -0.42756248 -0.12048351 -0.104502626 -0.07535216
0.027368478 0.057881102 0.029275134 0.21154194 0.026972815 -0.09745884 0.15076043 -0.09979007
-0.21427013 0.07558745 0.03881763 -0.08206126 -0.3721949 0.17914166 0.033534367 0.055152327
0.08969705 0.15625452 0.06655925 0.30605265 -0.015097918 -0.1552572 -0.1172829 0.056511927
0.08306716 -0.10639759 -0.12787269 -0.08551039 -0.019573301 -0.189728 -0.18047166 0.037209805
-0.00021962829 0.082783915 -0.09137499 0.11514188 0.079544224 0.098639876 -0.2980652 0.06353903
-0.07234213 -0.40851998 0.12027782 0.031291902 -0.028826434 0.03786047 -0.0163614 -0.12402444
-0.02996713 0.08522953 -0.038039666 -0.25558135 0.03321732 -0.31782085 0.11594516 0.3028039
0.00072350405 -0.032213733 0.20803419 0.0041164756 -0.020691492 0.028683702 0.12553628 0.1215501
-0.102750055 0.0720409 0.056500982 -0.4259937 -0.09399642 -0.10482763 0.18121986 -0.04151597
-0.3370666 -0.15226284 -0.075310186 0.035148922 -0.2214831 -0.20110404 -0.087991044 -0.10602322
0.10246056 -0.008165978 0.054109234 0.32294786 -0.11370488 -0.25938776 -0.048503473 0.016343039
0.062468685 0.09761326 -0.12416183 0.004399157 0.012906747 -0.2184824 -0.034948904 0.0064860866
0.011584324 -0.09395574 -0.2682268 -0.13085146 0.05282609 0.03124921 0.0872714 0.43102878
0.103223555 -0.0017166805 0.048751667 -0.04932645 -0.08086924 -0.101477966 -0.037195474 -0.18430015
-0.016531974 -0.107375115 0.015526884 0.08756332 0.018209523 0.31397372 -0.07518341 0.22236797
0.107080586 -0.04439503 -0.19908959 -0.063730106 -0.10725505 -0.022543445 0.15294112 -0.056916043
-0.12614027 -0.08768721 0.054780282 -0.122179076 -0.07721646 -0.078323215 0.021193884 -0.05802936

fc4.bias f4 [8]
00000000: a440 f83d 761c d13d 518d 0ebe 899c b5bd
00000010: bf58 71bd fdcb 15bb d60a 263d bf55 e63d
0.12121704 0.102105066 -0.13921095 -0.08867747 -0.058922525 -0.0022857182 0.040537678 0.112468235

conv1.weight f4 [16, 2, 4, 4]
00000000: 7ab2 23be f1b2 afbd c7f8 c0be 8fa5 43bf
00000010: 7dd8 93be c076 12bf a1be f3bd 4b62 f7be
00000020: 9bd3 88be 89b4 fbbe 3656 18be 251b c7be
00000030: e42b b7be 1d41 9bbe b5a2 0bbe 351f 5fbe
00000040: f474 63bd 2d31 9bbd 6553 0f3e 329e f83c
00000050: c937 be3d 9136 c73d 9fb3 2abe c632 573c
00000060: a07b a53d 142f 92bd beec cfbd 515c 68be
00000070: 8032 3ebe db10 e8bd 6e4f 163e 05d4 ddbd
00000080: 0e50 59bd b7bd 0fbf 6aba dbbe 68ae 04bf
00000090: fc92 0bbd d7c8 9abe 171d d9be b4cf 84be
000000a0: 9dfa 55be 3a3a dfbe 6bb9 213b 75d8 4cbe
000000b0: fbb3 04be 0292 babe 00b0 29be 252b 18be
000000c0: 2fca 42be 4917 f9bb bd4d ec3d 11a1 c2bd
000000d0: 8aa2 0c3e 5ba0 06be e2fa 28be 3073 12be
000000e0: ba33 f03d aeb0 87be 0413 97be 08f2 04be
000000f0: 0478 a1ba d1b3 bf3c f2e8 37be cb13 33be
00000100: 54db e53d 7d13 a5bb da34 40be 4fd9 343f
00000110: 3a6c 0bbf 9359 0b3c 01e2 cf3e f034 273f
00000120: be48 a83e 81dc 953e acd5 e73e 9c19 273f
00000130: 5356 87be 84fd a63e c006 113f 6ff3 833f
00000140: 4c45 86bd d5d1 dbbd f089 6b3d 6604 08be
00000150: 7bcc 2cbc a88e 663d 4941 42be e4a2 bfbe
00000160: f6dd 48be 1764 6a3d 5522 27bd dcb3 febd
00000170: 5e17 72bd 343c 3dbd 80b1 8cbd 2033 943d
00000180: 941f 4a3f 687e 4b3f 8071 253f 29e1 c73f
00000190: e5bb a23e 150b 9b3e 996a 193f 6648 1a3f
000001a0: 7835 b03e 0b5c c43e 0f8a 4e3d 28af 3c3f
000001b0: c4bc 903e 5e37 bb3e 482f 293f 693b 453f
000001c0: 5a6c 273a 1581 d3bc d3c4 503e 0d33 46bb
000001d0: 4edb 32ba 9386 c7bd dbe1 5dbd 6e66 a8bc
000001e0: b6d6 383e 848d 36bc a20d b8bc ba86 85bd
000001f0: 87d9 41bd 9ccc 033e bf55 0e3e 1ae1 54be
00000200: 5199 efbc 5b00 e33f f50f dc3f fdbf d83e
00000210: 3c14 63be 2099 673f b4b7 6f3f bc9e 5a3f
00000220: e033 213f ae70 b43e 8d4a 863e df05 fa3e
00000230: 07b7 0c3f 6df4 003f d3cf d0be 47a7 c2bc
00000240: 1af0 e53d 83b0 afbe 6cd7 d83d 057a 283d
00000250: 758f b93d b688 383e c285 8abd b6c3 00be
00000260: 3bb1 423e 5ca2 f9bd 24bc c8bd 846e 043c
00000270: 447a b63c aae9 c33c 66c6 053e 3bae 033d
00000280: c74a 013f 40af a8bc 52f6 3fbf 065e bf3f
00000290: 8701 91bd 20fd a6be 76b3 a43e 3d37 683f
000002a0: 2510 72bd 562d cd3d ed0f 753d 9f1b 243f
000002b0: 92e1 e43e 599a 133f 8ade c63e da2a 3e3f
000002c0: 8e99 9bbb 748a ecbc 1d18 e03d 71db 9bbe
000002d0: c4c7 2d3d 2d2b 76be 4087 06bd 202e 48bd
000002e0: 7d7f 24be 8f5f 00bd f49f 173d e3f4 92be
000002f0: 8574 8a3d c25e 003e 36f9 40be 2b0e fd3c
00000300: 2ca1 efbe b805 02bd 06cb 0fbe 56d1 183c
00000310: 7322 08bf 7eb9 b7be d0c9 f5be ee40 cabe
00000320: 3845 7bbe d507 babc a961 36be 9618 9a3d
00000330: ccaf 9fbe d84a a7be a445 f7be 971e d2bc
00000340: 5877 70bd 37cc 1ebe 2fbc 2f3d f840 3e3c
00000350: 9d0c 00be f91a f0bd 5279 59be f705 21be
00000360: dde3 803d 3718 6e3e 5509 e13c d151 89be
00000370: 376c 79be f613 143e 7ee6 f4bd 4965 87be
00000380: b73b b6be b4b6 b4be 8666 babe 6268 34be
00000390: de4d b7be 3f43 44be 7b54 1a3e 6c87 dfbe
000003a0: e974 c7bc f120 1cbe 301d 3ebe bcaf 42be
000003b0: bcfa 7dbe 6f94 d8be 118f 42be 5bf2 eabe
000003c0: 550e f23d 7b1f c63c 084d 863d e626 0d3e
000003d0: 0407 8cbd e588 87be 5125 94be 5e71 3abe
000003e0: cd48 60bd 44a8 41bd 8b13 3a3d 6f31 193c
000003f0: 2427 4cbe 5370 09bd 51ef 80bd bb11 1bbe
-0.15986052 -0.08579052 -0.37689802 -0.764245 -0.28876105 -0.5721245 -0.11901594 -0.4831718
-0.26723942 -0.49161175 -0.14876637 -0.38887897 -0.35775673 -0.30323115 -0.13636287 -0.21789248
-0.055531457 -0.07577739 0.13996656 0.03034887 0.09287984 0.097272046 -0.16670083 0.013134664
0.0808022 -0.07137886 -0.10152577 -0.22691466 -0.18573952 -0.1133134 0.14678738 -0.10831455
-0.05305486 -0.56148857 -0.4291566 -0.5182862 -0.034075722 -0.30231354 -0.42405006 -0.25939715
-0.20896383 -0.4359911 0.0024677168 -0.20004447 -0.12959282 -0.3643952 -0.16571045 -0.14860208
-0.1902244 -0.0076016528 0.11538265 -0.09503377 0.13733879 -0.13147108 -0.16501954 -0.14301753
0.11728616 -0.26501983 -0.29506695 -0.12982953 -0.0012319093 0.023401173 -0.17959955 -0.17488019
0.11223474 -0.0050377236 -0.18770161 0.70644087 -0.54462016 0.008505243 0.40602115 0.6531515
0.32867998 0.29269794 0.45280206 0.6527345 -0.26433048 0.32615292 0.56650925 1.0308665
-0.06556186 -0.10733382 0.057504594 -0.13282928 -0.010546799 0.05628839 -0.18970217 -0.37428963
-0.19615921 0.05722436 -0.040804226 -0.12436649 -0.059104316 -0.046199992 -0.06869793 0.07236314
0.78954434 0.79489756 0.6462631 1.5615588 0.31783977 0.30281892 0.5992828 0.6026672
0.34415793 0.38351473 0.05042463 0.7370477 0.28269017 0.3656568 0.6608777 0.7704378
0.000638669 -0.025818387 0.20387582 -0.003024283 -0.000682284 -0.09742465 -0.05417047 -0.020556655
0.18050656 -0.011142138 -0.022467438 -0.06519838 -0.04732659 0.12871021 0.13899897 -0.20788994
-0.029247912 1.7734483 1.719237 0.42333975 -0.22175688 0.90468025 0.93639684 0.8539846
0.6296978 0.35242218 0.26228753 0.48832604 0.5496678 0.50372964 -0.40783557 -0.023761405
0.11227436 -0.34314355 0.105879635 0.041131992 0.090605654 0.18020901 -0.067637935 -0.12574658
0.1901292 -0.12189171 -0.0980151 0.00808299 0.022275098 0.02391513 0.13063964 0.03214858
0.50504726 -0.020591378 -0.7498523 1.4950569 -0.070803694 -0.32614994 0.32168168 0.90709287
-0.059097428 0.10018413 0.05982964 0.64104646 0.44703346 0.5765739 0.3884166 0.74284136
-0.0047485298 -0.028874613 0.10942099 -0.30440858 0.04242684 -0.24039908 -0.03284383 -0.048872113
-0.16064258 -0.03134113 0.037017778 -0.2870246 0.067605056 0.12536147 -0.18845066 0.030890545
-0.46802652 -0.031743735 -0.14042291 0.009327253 -0.53177565 -0.35883707 -0.48005533 -0.39502662
-0.24538124 -0.022708813 -0.17810692 0.07524221 -0.3118881 -0.3267429 -0.4829532 -0.025649352
-0.058707565 -0.1550759 0.042904075 0.011612169 -0.12504812 -0.117238946 -0.21237686 -0.15724932
0.062934615 0.23251425 0.02747027 -0.26820233 -0.24357687 0.1446074 -0.119580254 -0.26444462
-0.35592434 -0.3529564 -0.36406344 -0.17617944 -0.35801595 -0.19166277 0.15071289 -0.43658006
-0.02434774 -0.15246941 -0.18565822 -0.1901235 -0.24802679 -0.42300746 -0.18999888 -0.45888028
0.1181914 0.024184933 0.06557661 0.1378437 -0.068372756 -0.2647163 -0.2893472 -0.18207309
-0.05475693 -0.04727961 0.045428794 0.009350165 -0.19936806 -0.033554386 -0.06295646 -0.15143482

conv1.bias f4 [16]
00000000: 9476 6e3e 33b2 fc3d 571c 523e 5ec0 bb3d
00000010: cbb0 00be daa8 6b3e b80c 4e3e 84cc 173e
00000020: 5a22 403e 46df b33d dca2 ec3d 6f16 2abb
00000030: 8ffd 823d 61e5 0dbe fa1e 913e c1f4 223e
0.23287421 0.12338676 0.20518623 0.091675505 -0.12567441 0.2301363 0.2012204 0.1482411
0.18763104 0.087828204 0.115545005 -0.0025953313 0.06396019 -0.13857032 0.28343946 0.15913679

conv2.weight f4 [32, 16, 4, 4]
00000000: 7cca 50bb bae6 5dbd d06b 453d caad 693d
00000010: 7feb 343d a372 90bd 2fa1 6dbc f792 fe3b
00000020: 9fe9 533c c9a6 88bc 7198 7ebd ce38 eebb
00000030: 8985 a63d 0723 3b3d 54f7 80bc 0433 9b3d
00000040: b352 333d 36ca 7bbd 2e6d 8dbe 1ba1 343d
00000050: cbce ccbc 9bc1 92bd 9fbf 43bc cb2e ec3c
00000060: 51fd 7b3d 39de 5dbd c73d ba3c 84f9 4abd
00000070: 5d2d 50bc b67b e43c 9fc2 17bc 8ab1 113c
00000080: f205 44bd bb5d 3abd c5b8 b23c 94b7 f83c
00000090: 56b2 853c 1e97 123d 6365 a0bc 9b0d 473a
000000a0: 4711 eebc b6b1 b83c 167d 543d 483f b4bc
000000b0: 9bd2 853d 5b8d 78bd e74d e6bd e3cb 61bd
000000c0: b0c0 a2bd 06f7 f6bd 4e83 a8bd 8327 7cbd
000000d0: a2b5 42bd b8d6 74bd ef2f 18bd c917 94bd
000000e0: a1ea 06bc 0437 933c 8962 93bc e7d1 4ebe
000000f0: a46c 4a3d 7501 fc3c 809c 1dbd 7dde 8fbe
00000100: 9746 1dbf d914 dbbe 3ce0 96be 7df7 08bf
00000110: 9934 01bf 700e d0bd 966f 11be 663e 04bf
00000120: 16c4 eebe da99 7ebd 2a67 a8bd ea4d b5be
00000130: 4813 88be c59b 143d d283 423b e830 f4be
00000140: 93b2 9bbc df49 1b3c 79f6 e0bb 06fe 15be
00000150: 11f0 843c 6d16 913d 1fb4 bbbc b816 d03c
00000160: f5b5 86bd 7703 86bb 2663 993d c24b 8fba
00000170: cc09 823d ae9a ce3d 658a 0abc 1f8f 28be
00000180: a72d 533d 89c2 533c 1e71 f03d 4eb6 dd3d
00000190: eeca a73c 7b66 453c 17a5 bdbc 5616 803d
000001a0: 173e a13d 0873 6b3d 0bda 1e3d 07ca 013d
000001b0: 0397 783d 26a0 16bd 2001 84bd f032 443d
000001c0: 74a0 37bc 1e4e 0d3d 7234 533c bdf7 60bc
000001d0: d12a 6f3d 400d 3fbc a8dc 61bc 4b74 54bd
000001e0: a277 ef3d 7301 aa3c a3d8 c5bb 3283 d43d
000001f0: 7d8a 823d cc95 28bc 5031 24bc cdc0 a9bc
00000200: e3e8 a9bb 9bc4 b3bb 63b2 593d 696e 343d
00000210: 0021 ff3c 0934 1ebc 4582 ffbd 11b6 54bd
00000220: 3f5e 8fbd 3454 913d 35dc ba3c 0c6b a53c
00000230: c57c d73d e6a0 4cbd 9e4b 353c 40fd 9c3c
00000240: a82c e7bd d973 153d 5e2f d93c 7f25 b3bc
00000250: cd32 51be 4813 28bd dd12 57bd c8fc 58bd
00000260: 98c5 38be b5b1 60be cd41 633d 3751 7fbd
00000270: 20ee 1fbe 4066 0fbe 764a 153e 400a a2bd
00000280: a15e 1a3c efba 103d 75a7 4ebd 126e fc3d
00000290: 0678 62bc c1b5 04be e964 453d bff8 863c
000002a0: 0a7a 683d afb9 1e3d 89c9 acbd 0d5a ad39
000002b0: 038c 753c 723e 6b3d e27d a7bd 507e 68bc
000002c0: dda0 8a3d 5532 72bd e713 9bbd 9e61 86bd
000002d0: 9856 d6bd d9c2 d13d 7011 c3bc 2605 b73d
000002e0: 8f98 c13a 44b9 b3be 9b7b 22bd 49e7 1bbd
000002f0: 4539 36be 2b46 2c3d eb45 2e3e 85c6 0e3d
00000300: f9c4 883c 1d73 f23c 9013 c83d d410 fc3c
00000310: fb10 09bd d99e 84bd c8df e03c ca78 a3bd
00000320: 11a0 983d 5f24 a53b f239 9abe d3c1 903c
00000330: b680 05be 9e6a 37bd 777e 8b3d 147f 05bd
00000340: 34c8 34be 0e76 87bd 49c8 dcbd 7569 04bf
00000350: 4086 11bd 93e7 d4bd 267a 99bd 8e29 9fbe
00000360: e94d 3dbe dd6d 40bd 99d7 07be 5002 99be
00000370: 60f4 30be 7472 83bc bf6b 19bc 2f3a 28bf
00000380: 761a dc3d 5a4a 8a3c e66e 183d 9597 b73d
00000390: dd70 c5bb 9121 01bd 96c5 a63d 7b23 59bc
000003a0: b61e aebc 438c 493d bae8 9c3a ae5b d63c
000003b0: 0b4c dc3d 0b9a 04bd 3467 723d db19 763d
000003c0: 20d4 63bc 4e79 36bd bbe8 38bb a964 ecba
000003d0: 8205 093d a27e 9bbd be11 733d 9941 7dba
000003e0: 6597 f73d 53bb c1bd 2246 35bd 50cb 413d
000003f0: 27f0 973d 1e0e cf3d a22b 29be bd90 07be
-0.0031858971 -0.054175116 0.04819852 0.057050504 0.0441699 -0.07053115 -0.014503761 0.0077689844
0.012934118 -0.016681092 -0.0621571 -0.0072699552 0.081309386 0.0456877 -0.015742935 0.0757809
0.04378004 -0.06147214 -0.2762236 0.044098955 -0.02500095 -0.071658336 -0.0119475415 0.028830906
0.06152088 -0.054167006 0.022734536 -0.049554363 -0.012706128 0.027891021 -0.00926271 0.008892426
-0.047857232 -0.045499545 0.02181662 0.030360974 0.016320389 0.035788648 -0.019579595 0.0007593275
-0.029060973 0.022545677 0.051877104 -0.022002831 0.065343104 -0.060681682 -0.112453274 -0.055126082
-0.079469085 -0.12058835 -0.082281694 -0.06156112 -0.0475365 -0.059775084 -0.037155088 -0.07231099
-0.008234651 0.01797057 -0.017991321 -0.20197259 0.049420014 0.030762414 -0.03847933 -0.28099433
-0.61435837 -0.42789343 -0.29467952 -0.5350264 -0.5047088 -0.10159004 -0.14202723 -0.5165771
-0.46633977 -0.062158443 -0.08222802 -0.35411006 -0.2657721 0.036281366 0.0029680622 -0.47693563
-0.01900605 0.009478061 -0.0068653193 -0.14647684 0.016227754 0.070843555 -0.022913037 0.025401458
-0.06577674 -0.0040897685 0.07489614 -0.0010932612 0.06349525 0.100880966 -0.008455847 -0.16460846
0.05155721 0.012924799 0.117403254 0.108257875 0.020482507 0.012048359 -0.02315001 0.0625426
0.07873171 0.05748275 0.03878216 0.03168681 0.06069089 -0.036773823 -0.06445527 0.04790014
-0.011207689 0.034498326 0.012890922 -0.01373094 0.058390442 -0.011660874 -0.013785519 -0.051868718
0.1169274 0.020752644 -0.006037788 0.10376586 0.06374071 -0.010289621 -0.010021523 -0.020721817
-0.005185233 -0.0054860837 0.05314864 0.044050608 0.031143665 -0.009655961 -0.12476019 -0.051931445
-0.07000398 0.070961386 0.022810081 0.020192645 0.10521845 -0.049958132 0.011065392 0.019163728
-0.112878144 0.036487434 0.026511844 -0.021868465 -0.20429535 -0.041034013 -0.052508224 -0.052975446
-0.18044126 -0.2194279 0.055482674 -0.062333312 -0.15618181 -0.14003849 0.14579186 -0.07912111
0.009421975 0.035334524 -0.05045267 0.12325682 -0.013822561 -0.12959959 0.04819194 0.016476033
0.05675701 0.0387513 -0.08436877 0.00033064224 0.014986995 0.0574326 -0.08178307 -0.0141902715
0.067689635 -0.05913003 -0.075721554 -0.06561588 -0.10465735 0.10242242 -0.023812026 0.08936529
0.0014770197 -0.35102284 -0.03966866 -0.038062368 -0.17795284 0.042059105 0.17018859 0.03485729
0.016695486 0.029595906 0.09769356 0.030769743 -0.03346346 -0.0647561 0.027450457 -0.07982023
0.07452405 0.005039736 -0.30122334 0.017670548 -0.1303738 -0.044779412 0.06811231 -0.032591894
-0.17654496 -0.06614314 -0.10780389 -0.51723415 -0.03552842 -0.10395732 -0.07494001 -0.3108639
-0.18486752 -0.046979774 -0.13265838 -0.29884577 -0.17280722 -0.016045786 -0.009364068 -0.6571378
0.107472345 0.016881157 0.037215136 0.08964459 -0.0060254172 -0.031526152 0.08143155 -0.013253088
-0.021254878 0.04920603 0.0011971213 0.026166763 0.107566915 -0.03237347 0.059180453 0.06008325
-0.013905555 -0.04454928 -0.002821489 -0.001803537 0.03345252 -0.07592513 0.059343092 -0.0009660959
0.12089423 -0.094595574 -0.044256337 0.047313035 0.07418852 0.101101145 -0.16520551 -0.13238807

conv2.bias f4 [32]
00000000: 5be3 c33d 7d37 fd3c a8e4 8dbd 138a d23d
00000010: 35c8 8a3d c7ba ff3c 816a a7bd 289e 3b3e
00000020: c063 bcbd 0c6a 723b 0253 9fbc bb9a 063e
00000030: a11f 0e3d fb07 a4bd a227 fa3d 1f70 de3d
00000040: 0cfb 743c 1240 d23b dfae 883d d533 92bd
00000050: 31c9 f3bc abf3 e53d c8f4 423b 133e c43d
00000060: 929a dc3d 1efd 26bb 43ca 173e 2649 1e3d
00000070: 910d 4c3d 2062 25bd a8ba 073e 69a5 ca3c
0.09564849 0.030910248 -0.06928378 0.10280242 0.06776468 0.031216992 -0.08174611 0.1832205
-0.09198713 0.0036989478 -0.01944876 0.13144962 0.034698132 -0.08009335 0.122145906 0.10861229
0.014952432 0.006416329 0.06673979 -0.071387924 -0.029759021 0.112281166 0.0029747952 0.09582152
0.107716694 -0.002548046 0.1482325 0.03864398 0.049817625 -0.040376782 0.13254797 0.024737077

fc1.weight f4 [64, 800]
00000000: 921f 013c 53b6 b83c 4ee5 20bd f326 603c
00000010: d83a df3d d16c 413c 4bee b33c 03fa 3abc
00000020: 5824 ed39 9b3e c43c c50f b23b b356 4f3c
00000030: 3640 10bd 810f 0d3d 796a 69bb 9ee2 5eb9
00000040: 74e6 383d 2946 34bd 8b14 5cbd 5d9f 993b
00000050: ec66 dbbd 9747 a3bc d0d0 6e3c 4799 933c
00000060: dff9 cb3d 8824 6bbd ebbf 99bd 30c7 18bd
00000070: 1094 653c 6fd8 a23d 94ca 8bbb 6152 f3bc
00000080: 490b d6bc 99bf a7bd 9102 34bc e54d 36be
00000090: 731e 9cbd dbe9 d0bc b17f f63c 1889 1a3d
000000a0: 163d e73c 8138 493c 94c7 aabd 3de5 07bd
000000b0: ac32 d43b b904 b8bd 5eb8 e9bd 76b3 1abe
000000c0: 73a6 1b3c 7b89 0d3d a0a4 683b 899b 753c
000000d0: 0474 913b 5e1e 06bd 0f0e 02bc 9d67 5f3b
000000e0: 2c37 f63b f9e6 a1bc b336 12bd a0b8 f53b
000000f0: abed e03c b1bf 173d a1e9 243d ee34 9e3c
00000100: 6160 d43c 6345 98bc 4eff 25bc b89b 6c3c
00000110: 33e4 0abd 1c64 9a3c 8a36 ad3c 9ef1 593c
00000120: eeee bbbc fcc3 fcbc aae1 96bc ae5f 02bd
00000130: 0282 ba3b 8ca7 503b cc75 87bc a431 7d3d
00000140: 184f 2d3d eb82 883c 2cd0 f9bc 5ef6 a8bd
00000150: f26e d9bb 53c4 fe3c b1ee 17b9 034f 0fbd
00000160: 03ce 28bd b223 0d3d 67a4 9abc b7ce a2bd
00000170: 4163 51bd 0c57 713c 8451 60bc 096e 4e3d
00000180: ab34 27bd 9182 8b3d 6f86 e13c e9a9 633d
00000190: 20e4 39bc 697f 8f3c 7aa0 2dbd 100b e9bc
000001a0: e433 283d 0090 9dbb 13e5 223d 97a0 313c
000001b0: b27a 823b ba00 5bbc f527 bdbd df5b a3bd
000001c0: da1f 54bc dbab 12bc eb8e 38bd 0dcb 0cbd
000001d0: ec31 54bd 2850 dbbd 6d90 563d f50b 40bd
000001e0: 3282 313d 87c8 10bc e8d9 7dbd 375f b0bb
000001f0: a2f1 803d a3ce 5a3d e636 9b3d 9848 033e
00000200: fb2e 2c3e 1f0a f33d 40d3 b3bc 1019 a6b9
00000210: f029 4a3d 91dc 13bc 7715 023e 550f 34be
00000220: e3b5 ccbd be1c 993e 2656 843d 60aa d9bd
00000230: 91c8 dbbe 5de7 c7be df88 bdbe 23f4 79bd
00000240: 61d8 b93d ca78 4cbe 4fac 5bbe d206 67bd
00000250: bff7 513e e6d6 433e 4d64 173d 1ac8 06bd
00000260: d258 c03c b5f5 87bc f83d 9e3c 90c9 d33c
00000270: b532 39b7 bc37 c7bc f2d3 db3c 93d7 6abc
00000280: e8da 2bbd d91d d4bc 834a 4ebd 306a 3cbd
00000290: 689d f53c ac20 40bd 8640 053c e4e6 1cbd
000002a0: c98f 8b3b 805a d43c 20f2 193c 5984 6c3c
000002b0: 6f29 893c a2e8 c93c 53c7 a73b 1a64 e7be
000002c0: d767 a5be 95ce 08be af0c 94be b689 0ebf
000002d0: 5149 10be 5d81 10be ca6d cebd 2d0e 073e
000002e0: 068c e1bd 988a 9abe 032a c9bd d76c 25be
000002f0: 45da 1fbe 2ff6 01be 548e a1be dec8 40be
00000300: 64ba 93bd 4e0a 143e 211b 98be e9dc 9fbd
00000310: a676 66be 8125 fe3d ef46 eebc 09c5 a0be
00000320: a845 033c 5cb5 b13c f3e0 ccbc 378e dbbc
00000330: d6da a63c 9187 003d 9f69 85bc 8e68 ae3c
00000340: b276 e7bc e8c2 02bd 2c27 c13c 8058 c03a
00000350: 4074 4abc 50ad adbc 34cd 2abc 2c59 c6bc
00000360: 1662 82bc a0e6 cbbc d44c 293c 00d8 a037
00000370: 56ac 653c 3413 923c f027 19bb 20f3 2e3b
00000380: 00de 15ba 24cc e0bb 563b 9a3a 503f 65bb
00000390: b255 13ba b465 d2bc 260d ddbc 37d2 cabc
000003a0: d09b da3b 825b 833b 32e0 fd3c de5a bcbc
000003b0: 600c 0abd 58bf d8bb ca2c f73c 007e 883a
000003c0: 900c 763b 7056 cd3c d4b3 c1bc a815 68bc
000003d0: 5a74 173d da9f a83c a0ec 583b b1c2 ca3c
000003e0: 0d05 d8bc 40d1 823c 588e 3e3d 87a4 8bbc
000003f0: bb26 3a3d 92b1 10bd b6f1 223c 8fa5 a63b
0.007881062 0.022547876 -0.039281182 0.013681161 0.108998954 0.011805729 0.021964213 -0.0114121465
0.0004523124 0.023955634 0.005434009 0.012654948 -0.035217486 0.034438614 -0.0035616441 -0.00021255991
0.045141652 -0.044012222 -0.05373053 0.004688187 -0.1071299 -0.019931598 0.014576152 0.018017424
0.099597685 -0.057407886 -0.075073086 -0.037299335 0.014012352 0.07951438 -0.0042660926 -0.029702367
-0.026128428 -0.08190841 -0.01098694 -0.17803152 -0.07622995 -0.025502136 0.030090185 0.0377284
0.02822737 0.012281538 -0.08338848 -0.033177603 0.006475767 -0.08985276 -0.114121184 -0.15107521
0.009500134 0.03455494 0.0035498515 0.014990696 0.004438879 -0.032743804 -0.007937922 0.0034088858
0.007513901 -0.019763457 -0.035696696 0.0074988157 0.027457079 0.037048046 0.04026187 0.019312348
0.025924863 -0.018587774 -0.01013167 0.014441423 -0.033909034 0.018846564 0.02114417 0.013302235
-0.022941079 -0.030855171 -0.018418152 -0.03182953 0.0056917677 0.0031838147 -0.016535662 0.06181492
0.042311758 0.016663989 -0.030494772 -0.08250116 -0.00663554 0.031099474 -0.00014489402 -0.03498746
-0.041212093 0.03445787 -0.018877221 -0.07949584 -0.051120047 0.014730226 -0.01369131 0.050397906
-0.040821712 0.06812013 0.027529923 0.05558196 -0.011345893 0.017516809 -0.04238937 -0.028447658
0.04106511 -0.004808426 0.039769243 0.01084151 0.0039819116 -0.013366872 -0.09236137 -0.079765074
-0.012947047 -0.008952106 -0.045058172 -0.03437333 -0.05180542 -0.10708648 0.05238383 -0.046886403
0.043337055 -0.008836872 -0.06197539 -0.0053824442 0.06296088 0.05341972 0.075788304 0.12820661
0.16814797 0.11867165 -0.021951318 -0.0003168066 0.0493564 -0.009024755 0.127035 -0.17583974
-0.0999563 0.2990474 0.06461744 -0.106281996 -0.42926458 -0.39043704 -0.37018487 -0.061023843
0.09074474 -0.19967952 -0.2145245 -0.05640299 0.20504664 0.19124946 0.03696089 -0.032905675
0.023479853 -0.016596654 0.019316658 0.025852948 -1.1038665e-05 -0.024318568 0.026834462 -0.014333623
-0.041956812 -0.025893139 -0.05036403 -0.045999706 0.029982284 -0.04690616 0.008133059 -0.038306132
0.004259084 0.02592206 0.009396106 0.014435851 0.01674339 0.02464706 0.005120197 -0.4519356
-0.32305786 -0.13360055 -0.28915927 -0.5567888 -0.14090468 -0.14111848 -0.10079534 0.13189001
-0.110130355 -0.30183864 -0.09822466 -0.161548 -0.15610607 -0.12691568 -0.315539 -0.18826625
-0.072132856 0.14457056 -0.29708198 -0.07805807 -0.22506198 0.12409497 -0.029086558 -0.31400326
0.008012213 0.021692924 -0.025009608 -0.026801212 0.020368021 0.031379286 -0.016285716 0.02129009
-0.02825484 -0.03192416 0.023578249 0.0014674813 -0.012356818 -0.021200806 -0.010424901 -0.024212442
-0.015915912 -0.024890244 0.010333259 1.917407e-05 0.014018139 0.017831422 -0.0023369752 0.0026695207
-0.00057169795 -0.006860273 0.0011766951 -0.0034980364 -0.00056203746 -0.025683261 -0.026983809 -0.024758441
0.0066714063 0.0040087113 0.030990694 -0.022992548 -0.033703208 -0.006614607 0.030172724 0.0010413527
0.003754411 0.02506563 -0.023645319 -0.0141653195 0.036976196 0.020584036 0.0033100024 0.02475104
-0.026369596 0.015968919 0.04652247 -0.017046226 0.045447093 -0.035325594 0.009945324 0.005085654

fc1.bias f4 [64]
00000000: 3eb5 a93d 81ff a7bd 1026 48bd cdd3 b33d
00000010: 9ad9 b63d f967 ed3c de18 53bc 7445 843c
00000020: 1994 2dbd b2a0 2f3d 11ee 6dbd d00a 2c3c
00000030: ee74 38bd 5bbf c6bc d932 7fbc 3cee 6fbd
00000040: 7a95 d7bc c7af 1fbb 2f13 6bbd 36b9 13bd
00000050: b845 64bd fe4f 873d 4d6b 963d e4d4 2ebd
00000060: 1cf2 f13d 0162 53bc 00fb 243d db67 48bc
00000070: 5ea3 79bd 5100 19bc eff0 76bc d4eb 833d
00000080: ec72 32bd 3b07 b43d 7ade df3d 8aa6 22bd
00000090: 6514 a03c 64da a23d 5ca7 65bd c59b c03d
000000a0: 41b2 0fbd fd0a 5fbb 6fa1 4b3a 0d53 9a3d
000000b0: 41f4 34bd f18f c33c 3f6d b23c fce5 8a3c
000000c0: a2a0 d83c 1353 dabc c65f a23d 1ea9 59bd
000000d0: 9db8 0b3d 2de3 5abc ca28 db3d bfcf 4cbd
000000e0: c0a3 4f3c 6597 08bd 69c0 66bd 47f9 813d
000000f0: 79f7 64bd 00b7 71bb 0e02 8b3d 128a 22bd
0.08286522 -0.082030304 -0.048864424 0.08780632 0.08928223 0.028980242 -0.012884347 0.0161464
-0.042377565 0.04287786 -0.058088366 0.010500625 -0.045033388 -0.024261167 -0.015576088 -0.058576807
-0.026316393 -0.0024366246 -0.05739134 -0.036065303 -0.05573055 0.06607054 0.07344685 -0.042683497
0.11813757 -0.012901784 0.040278435 -0.012231792 -0.060946815 -0.009338454 -0.0150720915 0.06441465
-0.04356663 0.087904416 0.10931106 -0.039709605 0.019540975 0.07951811 -0.05606781 0.09404711
-0.035082106 -0.003403365 0.0007767891 0.07535372 -0.04417825 0.023872348 0.021780608 0.016955368
0.026443783 -0.026650941 0.079284236 -0.0531398 0.034111608 -0.013359827 0.10701139 -0.05000281
0.012673318 -0.033347506 -0.05633584 0.06346374 -0.05590007 -0.0036882758 0.06787501 -0.039682455
