saved_models/dqn_checkpoint_ep250.pth (torch, 981377 bytes, 32 tensors)

conv1.weight f4 [16, 2, 4, 4]
00000000: 5401 24be c699 c8bd 564a c2be 8fa5 43bf
00000010: a7fb 98be c076 12bf 67ee fbbd 4b62 f7be
00000020: e12d 88be 89b4 fbbe f464 00be ad1a c0be
00000030: 2c79 c1be 3d54 9abe 38ce dabd 0432 36be
00000040: 1af6 77bd 27a2 8fbd 8a73 0c3e 4a7b e43c
00000050: 9a82 b73d 0c10 c03d 2160 27be c1c3 383c
00000060: 85dc 9c3d 1838 9fbd cc0f d5bd 58ae 68be
00000070: e85e 40be 3d4f febd a063 143e c9aa e2bd
00000080: b1f9 3dbd b7bd 0fbf 6aba dbbe 68ae 04bf
00000090: 6953 05bd 9ca7 96be 171d d9be 58cc 7bbe
000000a0: 9c77 4fbe 3a3a dfbe 56d8 763c 4ece 3abe
000000b0: aacc 08be 9292 bdbe 6d37 12be 898d e0bd
000000c0: 557c 41be 5dc3 c0bb e787 f83d 1420 c4bd
000000d0: 2636 093e 8789 08be c72f 2ebe c70b 11be
000000e0: 1d37 f43d 5400 88be d716 93be f1eb 07be
000000f0: 1d78 ccbb 2e44 a83c 2be2 38be cb13 33be
00000100: 7d9a dc3d 8a5d 57bc d57f 42be d96d 313f
00000110: 3a6c 0bbf a048 753b 4427 c83e 4c00 213f
00000120: c0a2 a83e 44ed 983e 9bde e43e c635 213f
00000130: ef03 83be 4f53 a73e 9e36 103f b516 833f
00000140: 660a 86bd 0c7b e2bd 3ea9 5f3d 7c9b 0cbe
00000150: 30d8 5dbc ab48 623d 2a57 4ebe 5a0c c3be
00000160: 1b63 4abe e817 623d 6c44 33bd 3bab 05be
00000170: da18 77bd 0cf2 41bd e8f0 90bd 84a1 923d
00000180: 6a4b 493f e720 4a3f 5850 253f 732f c73f
00000190: ec8a a33e 2392 9a3e 79ee 183f 67fa 153f
000001a0: e933 ae3e db0c c43e 87b4 333d 439d 383f
000001b0: d10e 923e e168 bb3e 1a4b 283f 3132 413f
000001c0: 82d2 10ba 567f e9bc 217c 4e3e fcc2 6ebb
000001d0: 47e8 1abb a846 cabd b32f 80bd 8fbf cbbc
000001e0: fc50 383e c862 4cbc ae51 cfbc da24 8abd
000001f0: 6950 43bd bcaf 033e ea0f 0c3e 8fc0 5bbe
00000200: ac93 20bd 8661 e13f 83ef da3f 41d3 dc3e
00000210: e4f5 35be a1bd 683f ebbd 6e3f 42e4 573f
00000220: 147b 203f f662 b33e 5d9e 843e 32d1 ea3e
00000230: fbd6 0a3f f59f 013f dd62 d9be 87b5 d6bc
00000240: 8414 d63d 1ade aebe 2f04 d93d 68df 1e3d
00000250: 659e ac3d e845 353e cd1a 9bbd 6812 02be
00000260: df6a 403e 08c0 06be e995 debd c667 b63b
00000270: 1519 a93c 474b bf3c b9d8 023e cb45 ee3c
00000280: a0c7 003f 3d59 c1bc a9ce 3bbf fdac bd3f
00000290: 5618 8ebd cc8c a1be 8745 a13e d913 633f
000002a0: 78de 73bd f452 d03d 0f48 6d3d 0876 213f
000002b0: 112d e43e 5fce 133f 4132 c33e 2e88 3b3f
000002c0: 0f31 d7bb f4cd 0abd 1f11 dc3d 81cb 9bbe
000002d0: 2b33 213d 6aba 76be 7305 22bd 12b9 56bd
000002e0: ee5d 24be 6a3c 0cbd 67a4 003d 3f4b 94be
000002f0: 45e9 863d ce59 003e db31 41be b765 eb3c
00000300: 2ca1 efbe 5b01 d5bc 6922 0cbe 645a 413c
00000310: 7322 08bf cde1 bfbe d0c9 f5be 1f8e ccbe
00000320: 0289 74be abf7 09bd b247 2ebe f50e be3d
00000330: ccaf 9fbe d84a a7be 369b f7be fc0d 24bc
00000340: 107c 7bbd 08bf 1cbe a352 2a3d e6b0 673c
00000350: deb3 ffbd 2c78 f1bd e75e 59be b35b 1fbe
00000360: 2d5f 783d a705 703e 2458 e03c 4357 88be
00000370: 3160 71be 12ed 113e c349 efbd c045 86be
00000380: b73b b6be b4b6 b4be 8666 babe f34d 22be
00000390: de4d b7be a129 4bbe 62e4 203e 6c87 dfbe
000003a0: 1a38 d7bc 2bd6 21be 766f 37be f3cd 2cbe
000003b0: ade0 82be 6f94 d8be d2f0 49be 5bf2 eabe
000003c0: 4b1b e93d 04c9 cc3c 774e 743d 7e48 083e
000003d0: f126 91bd 18f4 8abe 5125 94be 0595 3cbe
000003e0: 57f5 6dbd 65f0 33bd 0ea9 313d fade ad3b
000003f0: 3a9e 58be 7823 1ebd feff 68bd 605d 1ebe
-0.16016132 -0.09794955 -0.3794734 -0.764245 -0.29879496 -0.5721245 -0.12301331 -0.4831718
-0.26597503 -0.49161175 -0.1253851 -0.37520352 -0.3778776 -0.30142394 -0.10683864 -0.17792517
-0.060537435 -0.0701335 0.1371595 0.02789082 0.08960457 0.09378061 -0.16345264 0.01127714
0.07659248 -0.07774371 -0.10403404 -0.22722757 -0.18786204 -0.12417457 0.14491129 -0.11067731
-0.046380702 -0.56148857 -0.4291566 -0.5182862 -0.03255025 -0.2942475 -0.42405006 -0.2458967
-0.20260471 -0.4359911 0.015066227 -0.18242761 -0.13359323 -0.37025887 -0.14278956 -0.10964496
-0.18895085 -0.005882664 0.12135296 -0.09576431 0.13399562 -0.13333713 -0.17010413 -0.14164649
0.119245745 -0.2656275 -0.28728363 -0.13273598 -0.0062399046 0.020540323 -0.18055026 -0.17488019
0.10771654 -0.01314486 -0.18994077 0.6930824 -0.54462016 0.003742732 0.39092457 0.6289108
0.32936668 0.2986852 0.44701084 0.62972677 -0.2558894 0.32680747 0.5633334 1.0241305
-0.06544952 -0.110586256 0.05460476 -0.13731188 -0.013540313 0.055245083 -0.20150438 -0.3809536
-0.19764368 0.05519858 -0.043766424 -0.130536 -0.060326435 -0.047349975 -0.07077199 0.07159713
0.786307 0.78956455 0.6457572 1.5561355 0.31941926 0.30189618 0.5973888 0.5858521
0.3402398 0.38291058 0.043873336 0.7211496 0.2852693 0.36603454 0.65739596 0.7546721
-0.0005524532 -0.028503101 0.20164539 -0.0036432138 -0.0023636983 -0.09876758 -0.06259098 -0.024871616
0.17999643 -0.012474723 -0.025307503 -0.0674531 -0.047684107 0.12860006 0.13677946 -0.21460174
-0.03920333 1.7607887 1.7104343 0.43129924 -0.17769581 0.9091435 0.9325854 0.8433267
0.626878 0.3503644 0.25902072 0.45862728 0.54234284 0.506347 -0.4245824 -0.026209606
0.10453132 -0.34153825 0.10596501 0.038787276 0.08428649 0.17702448 -0.07573471 -0.12702334
0.18790768 -0.13159192 -0.10868437 0.00556657 0.020641843 0.023351325 0.12777986 0.029086014
0.50304604 -0.023602122 -0.73362213 1.4818417 -0.069382355 -0.31552732 0.31498358 0.8870216
-0.059538335 0.10172072 0.05793005 0.63070726 0.44565633 0.5773677 0.38124278 0.7325467
-0.0065671275 -0.03388782 0.10745453 -0.304287 0.03935544 -0.24094549 -0.039555978 -0.05242259
-0.16051456 -0.034237303 0.031406786 -0.28963658 0.065874614 0.12534258 -0.18866675 0.028735025
-0.46802652 -0.026001623 -0.13685001 0.011801336 -0.53177565 -0.3747696 -0.48005533 -0.3995218
-0.2388039 -0.03368346 -0.17019537 0.092801966 -0.3118881 -0.3267429 -0.48360604 -0.0100131
-0.061397612 -0.15307248 0.041582715 0.014141297 -0.12485479 -0.11790499 -0.21227609 -0.15562324
0.06063764 0.23439656 0.027385779 -0.26629075 -0.2357185 0.14250591 -0.11683991 -0.2622509
-0.35592434 -0.3529564 -0.36406344 -0.15850048 -0.35801595 -0.19840099 0.15712121 -0.43658006
-0.026271868 -0.15804355 -0.17913613 -0.16875438 -0.2556204 -0.42300746 -0.19720772 -0.45888028
0.11382159 0.024998195 0.059645142 0.13308904 -0.070875056 -0.27139354 -0.2893472 -0.18416221
-0.058095302 -0.04393043 0.043374114 0.005306122 -0.21154109 -0.038608044 -0.05688476 -0.15465307

conv1.bias f4 [16]
00000000: e8d2 6a3e c7d9 fa3d cddd 573e 32c5 d13d
00000010: be87 f8bd a4d8 743e 0c12 4d3e f813 143e
00000020: 4277 3f3e 1a0d b43d 7c2e e33d 48c0 dbba
00000030: 0183 763d 01f7 0cbe 8af4 8e3e 3cc3 1d3e
0.22932017 0.12248569 0.21080704 0.1024269 -0.12135266 0.23910767 0.20026416 0.14460742
0.18697837 0.087915614 0.110928506 -0.0016765678 0.06018353 -0.137661 0.27920943 0.15406507

conv2.weight f4 [32, 16, 4, 4]
00000000: af0c d9bb 6a7a 50bd 60b5 423d 6e10 683d
00000010: 56a8 343d ede1 8ebd 44e6 a3bc 6195 253c
00000020: b90d a43c e1e4 86bc 1e83 75bd e877 c7bb
00000030: 6385 a73d 8b4b 413d 869a 70bc 4342 a13d
00000040: eda5 2e3d ac1f 86bd 32b9 8fbe 90f9 253d
00000050: af04 a8bc e107 98bd 8afc 9bbc e358 ed3c
00000060: 34f6 803d 8386 5dbd 0315 b03c 5bcc 36bd
00000070: cc21 4bbc 8406 d03c 30c8 01bc 8d3b 563c
00000080: ec96 41bd f6e1 11bd 2fc4 b33c 6ce0 e63c
00000090: 4cee 6c3c f3d0 153d 581d b0bc 7592 77ba
000000a0: d46e 00bd 349d a23c 2ed4 303d b41d d5bc
000000b0: 4e22 903d 69dd 14bd b847 e7bd 437e 60bd
000000c0: 3edc a7bd f575 f4bd cf49 abbd 21de 6bbd
000000d0: b837 3bbd ad78 79bd 1e0a 2ebd 87b1 7abd
000000e0: ed3c 29ba 3bce 953c ba4b aabc 9025 51be
000000f0: 5b60 603d 20c1 2c3d 6114 f2bc e3fd 89be
00000100: 2e2b 1dbf 32af dbbe 5ac9 97be 5703 09bf
00000110: 62a2 01bf 7066 e1bd 501d 1cbe 2e4f 00bf
00000120: 3fe5 edbe 7981 80bd a66d a5bd 0293 b4be
00000130: 250f 8abe b0aa 313d 5f4b 1b3c 4a35 e8be
00000140: 08a5 37bc 2b57 f23b aaed c4bb d74c 15be
00000150: 5345 7f3c 197d 8b3d 0e7b cdbc e0f7 d63c
00000160: 83cf 82bd bff6 42ba ee79 903d aec6 983b
00000170: 3f3c 803d f61c e23d 85af d2bb 362e 22be
00000180: 68f8 3d3d 4ffc 933c acfe de3d 025f de3d
00000190: 0ab3 b33c 0c22 5c3c 414a bebc 18f1 903d
000001a0: ee1e a23d 9701 6f3d 4763 0e3d c37f d33c
000001b0: bf3e 703d f59d 1ebd 6029 80bd 1f12 563d
000001c0: 2d3c fcbb 801f f93c de03 133c e07c 56bc
000001d0: 50e3 6e3d d54f 4bbc 9555 33bc 4473 3ebd
000001e0: 2b06 eb3d f6a3 813c 5ad6 73bc e3a3 c53d
000001f0: 3623 8a3d fb8a 1bbc e0fa f5bb 3d68 0fbc
00000200: 3f4c 03bc 0382 5cbb addb 453d 480c 1c3d
00000210: 98ba 1b3d 4d9c 2cbc 3fdd eebd b578 5cbd
00000220: f682 83bd 2f8b 953d 53da b93c 9eef b63c
00000230: f328 d73d fca8 34bd 1cb9 443c d7e8 943c
00000240: b54d e3bd 7402 243d f036 ca3c 9e55 87bc
00000250: 1f8d 46be ea37 1dbd 0596 62bd 9b6f 5cbd
00000260: 9bc2 3bbe 3641 53be e55e 683d 109a 60bd
00000270: d6e9 29be 24f0 17be 7e35 303e b721 a6bd
00000280: ed34 ed3b c467 243d 7288 54bd d6f5 f43d
00000290: 5ec1 5bbc ed06 08be ab6c 253d 2d54 643c
000002a0: e364 6b3d 98c0 0d3d 14a0 a8bd b3dd a1bb
000002b0: 844e 3b3c c092 703d d7f7 a3bd d897 2fbc
000002c0: 5ef2 843d 65a6 6dbd 3b10 8ebd 909e 74bd
000002d0: e80b dcbd 7e56 c23d 9a27 26bd b73d a93d
000002e0: 694f 7c3c 341e afbe 77d7 09bd ee3a 85bc
000002f0: 231a 3bbe 90d7 043d c29e 543e 9638 fe3c
00000300: b58a 1f3c 9d55 1c3d 209d c33d ecc3 0c3d
00000310: f2ae 05bd d029 5dbd 4238 e43c 50e9 a3bd
00000320: 2669 973d 2307 073c 9887 99be 786a 553c
00000330: c471 07be 04f8 48bd f47e bc3d f0cd 09bd
00000340: 1826 39be 6dad 86bd 148a d2bd 0259 04bf
00000350: e34b 1fbd 343a e5bd e7cd 9fbd 1848 9ebe
00000360: d5ca 3cbe d5e9 47bd 7419 edbd a861 97be
00000370: e22a 28be 7f00 51bc 31ae bd3c 94ce 27bf
00000380: a9f1 e13d 190d 8f3c 99f1 1e3d d669 b83d
00000390: 2e49 95bb d33b 00bd 2ec7 a73d e3fc 24bc
000003a0: 47a0 95bc 8e50 493d 5a69 6a3b 5e01 f23c
000003b0: cde9 db3d 4f2c 0ebd 2fbc 6f3d 659e 813d
000003c0: 10b0 81bc c358 24bd b5df 72bb ea91 adbb
000003d0: 16e5 ea3c 4012 a6bd 72d2 5d3d 2d33 82bb
000003e0: 4627 f53d b42f cbbd da0b 2dbd c119 303d
000003f0: 00e1 a33d 1067 f13d 3590 2bbe f12d 01be
-0.0066238265 -0.050897993 0.047536254 0.056656294 0.04410585 -0.06976686 -0.02000726 0.0101064155
0.020026075 -0.01646656 -0.059939496 -0.006087292 0.081797384 0.047191184 -0.014685279 0.078739665
0.042638708 -0.0654901 -0.2807098 0.040521204 -0.020510046 -0.07423378 -0.019041318 0.028973049
0.062969595 -0.05408336 0.021494394 -0.044628482 -0.0123981945 0.025393732 -0.007921264 0.013075721
-0.04726307 -0.035615884 0.021944134 0.028183185 0.014461111 0.036576223 -0.021498367 -0.0009444126
-0.031355694 0.01985035 0.0431711 -0.02601514 0.07037793 -0.036343966 -0.11292976 -0.054807913
-0.08196305 -0.11936561 -0.08363687 -0.057584886 -0.045707434 -0.0609061 -0.042490117 -0.06120446
-0.0006455917 0.018286815 -0.020788062 -0.20424485 0.05477939 0.042176366 -0.029550733 -0.26951513
-0.6139401 -0.429071 -0.29645807 -0.5352072 -0.506384 -0.110058665 -0.15245557 -0.5012082
-0.46463963 -0.06274695 -0.080775544 -0.35268408 -0.2696468 0.04337567 0.009478419 -0.45353156
-0.01120878 0.007395645 -0.006009777 -0.14580093 0.015580493 0.0681097 -0.025083091 0.026241243
-0.06387236 -0.0007437281 0.07054506 0.0046623563 0.06261491 0.1104068 -0.006429615 -0.1583794
0.046379477 0.018064646 0.108884186 0.10857965 0.021935958 0.013435852 -0.023228766 0.07077235
0.079160556 0.058351126 0.034762647 0.025817757 0.05865359 -0.03872486 -0.06257892 0.052263375
-0.007697603 0.030410528 0.00897309 -0.013091296 0.05832225 -0.01240917 -0.010945697 -0.046496645
0.11475786 0.015825253 -0.014882648 0.096503995 0.06744997 -0.009493585 -0.0075067133 -0.00875288
-0.008013784 -0.003364683 0.048305202 0.03809765 0.038019747 -0.010535312 -0.11663293 -0.053826053
-0.06421463 0.07301938 0.022687113 0.022331055 0.10505857 -0.04410647 0.012007024 0.018177433
-0.11098806 0.040041402 0.0246844 -0.016520318 -0.19389771 -0.038383402 -0.05531885 -0.053817373
-0.18335955 -0.20630345 0.056731123 -0.054834425 -0.16593108 -0.148377 0.17207906 -0.08111899
0.0072389753 0.04013802 -0.051887937 0.11960952 -0.013412802 -0.13283892 0.040386837 0.013936085
0.05746926 0.0346075 -0.082336575 -0.0049397587 0.011432294 0.0587337 -0.08006256 -0.010717355
0.0649154 -0.058020014 -0.069366895 -0.05972153 -0.107444584 0.09489153 -0.04056511 0.08263724
0.015399792 -0.3420273 -0.03365275 -0.016263451 -0.18271689 0.03243214 0.20763686 0.031032842
0.00973766 0.038167585 0.095514536 0.034366533 -0.032637544 -0.053994954 0.027858857 -0.08003485
0.07393102 0.008241448 -0.29986262 0.013025872 -0.13226992 -0.04906465 0.09203902 -0.033643663
-0.18080938 -0.06576047 -0.102802426 -0.51698315 -0.03889073 -0.11192742 -0.07802945 -0.30914378
-0.1843675 -0.048806984 -0.115771204 -0.29566693 -0.16422608 -0.012756466 0.02315435 -0.6554959
0.11032421 0.0174623 0.038804624 0.090045616 -0.004555843 -0.031307053 0.081922874 -0.0100700585
-0.018264903 0.04914909 0.003576836 0.029541668 0.10737953 -0.034710225 0.058529075 0.063290395
-0.015831023 -0.040123712 -0.003705961 -0.0052969353 0.02867369 -0.0810895 0.054155774 -0.003973386
0.119703814 -0.09921208 -0.04224763 0.04299331 0.080019 0.11787236 -0.1675423 -0.12615182

conv2.bias f4 [32]
00000000: ac79 c73d 47a9 043d a8e4 8dbd c7bd d03d
00000010: 6d78 883d 20c0 cc3c 816a a7bd 7bdd 3c3e
00000020: c063 bcbd 0c6a 723b 0253 9fbc 88be 063e
00000030: 7b1b 043d fb07 a4bd dfaf f83d 90e5 df3d
00000040: 0cfb 743c ce25 ae3b e208 883d d533 92bd
00000050: 31c9 f3bc ae7f e73d c8f4 423b fede c03d
00000060: 4d24 dd3d a4da 99bb cb00 153e b744 223d
00000070: 7561 483d 93b3 25bd 7b80 053e 69a5 ca3c
0.09740004 0.032387998 -0.06928378 0.10192447 0.066635944 0.024993956 -0.08174611 0.18443863
-0.09198713 0.0036989478 -0.01944876 0.1315862 0.03225277 -0.08009335 0.1214292 0.109324574
0.014952432 0.0053145653 0.06642319 -0.071387924 -0.029759021 0.1130365 0.0029747952 0.094175324
0.107979394 -0.0046952534 0.14551084 0.039616313 0.048921067 -0.04045446 0.13037293 0.024737077

fc1.weight f4 [64, 800]
00000000: 921f 013c 53b6 b83c 4ee5 20bd f326 603c
00000010: d83a df3d d16c 413c 4bee b33c 03fa 3abc
00000020: 5824 ed39 9b3e c43c c50f b23b b356 4f3c
00000030: 3640 10bd 810f 0d3d 796a 69bb 9ee2 5eb9
00000040: 74e6 383d 2946 34bd 8b14 5cbd 5d9f 993b
00000050: ec66 dbbd 9747 a3bc d0d0 6e3c 4799 933c
00000060: dff9 cb3d 8824 6bbd ebbf 99bd 30c7 18bd
00000070: 1094 653c 6fd8 a23d 94ca 8bbb 6152 f3bc
00000080: 490b d6bc 99bf a7bd 9102 34bc e54d 36be
00000090: 731e 9cbd dbe9 d0bc b17f f63c 1889 1a3d
000000a0: 163d e73c 8138 493c 94c7 aabd 3de5 07bd
000000b0: ac32 d43b b904 b8bd 5eb8 e9bd 76b3 1abe
000000c0: 73a6 1b3c 7b89 0d3d a0a4 683b 899b 753c
000000d0: 0474 913b 5e1e 06bd 0f0e 02bc 9d67 5f3b
000000e0: 2c37 f63b f9e6 a1bc b336 12bd a0b8 f53b
000000f0: abed e03c b1bf 173d a1e9 243d ee34 9e3c
00000100: 6160 d43c 6345 98bc 4eff 25bc b89b 6c3c
00000110: 33e4 0abd 1c64 9a3c 8a36 ad3c 9ef1 593c
00000120: eeee bbbc fcc3 fcbc aae1 96bc ae5f 02bd
00000130: 0282 ba3b 8ca7 503b cc75 87bc a431 7d3d
00000140: 184f 2d3d eb82 883c 2cd0 f9bc 5ef6 a8bd
00000150: f26e d9bb 53c4 fe3c b1ee 17b9 034f 0fbd
00000160: 03ce 28bd b223 0d3d 67a4 9abc b7ce a2bd
00000170: 4163 51bd 0c57 713c 8451 60bc 096e 4e3d
00000180: ab34 27bd 9182 8b3d 6f86 e13c e9a9 633d
00000190: 20e4 39bc 697f 8f3c 7aa0 2dbd 100b e9bc
000001a0: e433 283d 0090 9dbb 13e5 223d 97a0 313c
000001b0: b27a 823b ba00 5bbc f527 bdbd df5b a3bd
000001c0: da1f 54bc dbab 12bc eb8e 38bd 0dcb 0cbd
000001d0: ec31 54bd 2850 dbbd 6d90 563d f50b 40bd
000001e0: 3282 313d 87c8 10bc e8d9 7dbd 375f b0bb
000001f0: a2f1 803d a3ce 5a3d e636 9b3d 9848 033e
00000200: fb2e 2c3e 1f0a f33d 40d3 b3bc 1019 a6b9
00000210: f029 4a3d 91dc 13bc 7715 023e 550f 34be
00000220: e3b5 ccbd be1c 993e 2656 843d 60aa d9bd
00000230: 91c8 dbbe 5de7 c7be df88 bdbe 23f4 79bd
00000240: 61d8 b93d ca78 4cbe 4fac 5bbe d206 67bd
00000250: bff7 513e e6d6 433e 4d64 173d 1ac8 06bd
00000260: d258 c03c b5f5 87bc f83d 9e3c 90c9 d33c
00000270: b532 39b7 bc37 c7bc f2d3 db3c 93d7 6abc
00000280: e8da 2bbd d91d d4bc 834a 4ebd 306a 3cbd
00000290: 689d f53c ac20 40bd 8640 053c e4e6 1cbd
000002a0: c98f 8b3b 805a d43c 20f2 193c 5984 6c3c
000002b0: 6f29 893c a2e8 c93c 53c7 a73b 1a64 e7be
000002c0: d767 a5be 95ce 08be af0c 94be b689 0ebf
000002d0: 5149 10be 5d81 10be ca6d cebd 2d0e 073e
000002e0: 068c e1bd 988a 9abe 032a c9bd d76c 25be
000002f0: 45da 1fbe 2ff6 01be 548e a1be dec8 40be
00000300: 64ba 93bd 4e0a 143e 211b 98be e9dc 9fbd
00000310: a676 66be 8125 fe3d ef46 eebc 09c5 a0be
00000320: a845 033c 5cb5 b13c f3e0 ccbc 378e dbbc
00000330: d6da a63c 9187 003d 9f69 85bc 8e68 ae3c
00000340: b276 e7bc e8c2 02bd 2c27 c13c 8058 c03a
00000350: 4074 4abc 50ad adbc 34cd 2abc 2c59 c6bc
00000360: 1662 82bc a0e6 cbbc d44c 293c 00d8 a037
00000370: 56ac 653c 3413 923c f027 19bb 20f3 2e3b
00000380: 00de 15ba 24cc e0bb 563b 9a3a 503f 65bb
00000390: b255 13ba b465 d2bc 260d ddbc 37d2 cabc
000003a0: d09b da3b 825b 833b 32e0 fd3c de5a bcbc
000003b0: 600c 0abd 58bf d8bb ca2c f73c 007e 883a
000003c0: 900c 763b 7056 cd3c d4b3 c1bc a815 68bc
000003d0: 5a74 173d da9f a83c a0ec 583b b1c2 ca3c
000003e0: 0d05 d8bc 40d1 823c 588e 3e3d 87a4 8bbc
000003f0: bb26 3a3d 92b1 10bd b6f1 223c 8fa5 a63b
0.007881062 0.022547876 -0.039281182 0.013681161 0.108998954 0.011805729 0.021964213 -0.0114121465
0.0004523124 0.023955634 0.005434009 0.012654948 -0.035217486 0.034438614 -0.0035616441 -0.00021255991
0.045141652 -0.044012222 -0.05373053 0.004688187 -0.1071299 -0.019931598 0.014576152 0.018017424
0.099597685 -0.057407886 -0.075073086 -0.037299335 0.014012352 0.07951438 -0.0042660926 -0.029702367
-0.026128428 -0.08190841 -0.01098694 -0.17803152 -0.07622995 -0.025502136 0.030090185 0.0377284
0.02822737 0.012281538 -0.08338848 -0.033177603 0.006475767 -0.08985276 -0.114121184 -0.15107521
0.009500134 0.03455494 0.0035498515 0.014990696 0.004438879 -0.032743804 -0.007937922 0.0034088858
0.007513901 -0.019763457 -0.035696696 0.0074988157 0.027457079 0.037048046 0.04026187 0.019312348
0.025924863 -0.018587774 -0.01013167 0.014441423 -0.033909034 0.018846564 0.02114417 0.013302235
-0.022941079 -0.030855171 -0.018418152 -0.03182953 0.0056917677 0.0031838147 -0.016535662 0.06181492
0.042311758 0.016663989 -0.030494772 -0.08250116 -0.00663554 0.031099474 -0.00014489402 -0.03498746
-0.041212093 0.03445787 -0.018877221 -0.07949584 -0.051120047 0.014730226 -0.01369131 0.050397906
-0.040821712 0.06812013 0.027529923 0.05558196 -0.011345893 0.017516809 -0.04238937 -0.028447658
0.04106511 -0.004808426 0.039769243 0.01084151 0.0039819116 -0.013366872 -0.09236137 -0.079765074
-0.012947047 -0.008952106 -0.045058172 -0.03437333 -0.05180542 -0.10708648 0.05238383 -0.046886403
0.043337055 -0.008836872 -0.06197539 -0.0053824442 0.06296088 0.05341972 0.075788304 0.12820661
0.16814797 0.11867165 -0.021951318 -0.0003168066 0.0493564 -0.009024755 0.127035 -0.17583974
-0.0999563 0.2990474 0.06461744 -0.106281996 -0.42926458 -0.39043704 -0.37018487 -0.061023843
0.09074474 -0.19967952 -0.2145245 -0.05640299 0.20504664 0.19124946 0.03696089 -0.032905675
0.023479853 -0.016596654 0.019316658 0.025852948 -1.1038665e-05 -0.024318568 0.026834462 -0.014333623
-0.041956812 -0.025893139 -0.05036403 -0.045999706 0.029982284 -0.04690616 0.008133059 -0.038306132
0.004259084 0.02592206 0.009396106 0.014435851 0.01674339 0.02464706 0.005120197 -0.4519356
-0.32305786 -0.13360055 -0.28915927 -0.5567888 -0.14090468 -0.14111848 -0.10079534 0.13189001
-0.110130355 -0.30183864 -0.09822466 -0.161548 -0.15610607 -0.12691568 -0.315539 -0.18826625
-0.072132856 0.14457056 -0.29708198 -0.07805807 -0.22506198 0.12409497 -0.029086558 -0.31400326
0.008012213 0.021692924 -0.025009608 -0.026801212 0.020368021 0.031379286 -0.016285716 0.02129009
-0.02825484 -0.03192416 0.023578249 0.0014674813 -0.012356818 -0.021200806 -0.010424901 -0.024212442
-0.015915912 -0.024890244 0.010333259 1.917407e-05 0.014018139 0.017831422 -0.0023369752 0.0026695207
-0.00057169795 -0.006860273 0.0011766951 -0.0034980364 -0.00056203746 -0.025683261 -0.026983809 -0.024758441
0.0066714063 0.0040087113 0.030990694 -0.022992548 -0.033703208 -0.006614607 0.030172724 0.0010413527
0.003754411 0.02506563 -0.023645319 -0.0141653195 0.036976196 0.020584036 0.0033100024 0.02475104
-0.026369596 0.015968919 0.04652247 -0.017046226 0.045447093 -0.035325594 0.009945324 0.005085654

fc1.bias f4 [64]
00000000: 3eb5 a93d 81ff a7bd 1026 48bd cdd3 b33d
00000010: 9ad9 b63d f967 ed3c de18 53bc 7445 843c
00000020: 1994 2dbd 58e9 373d 11ee 6dbd 06b9 313c
00000030: ee74 38bd 1cf9 d0bc d932 7fbc 3cee 6fbd
00000040: 7a95 d7bc c7af 1fbb 2f13 6bbd 36b9 13bd
00000050: b845 64bd fe4f 873d 4d6b 963d e4d4 2ebd
00000060: cf3e f13d 0162 53bc 00fb 243d db67 48bc
00000070: 5ea3 79bd 5100 19bc eff0 76bc 152b 873d
00000080: ec72 32bd 3b07 b43d c36c ee3d 8aa6 22bd
00000090: 6514 a03c 64da a23d 5ca7 65bd c59b c03d
000000a0: 41b2 0fbd fd0a 5fbb 6fa1 4b3a d3e4 973d
000000b0: 41f4 34bd bf1d e23c 3f6d b23c ec25 833c
000000c0: a2a0 d83c 1353 dabc c65f a23d 1ea9 59bd
000000d0: 9db8 0b3d 2de3 5abc 871c d73d bfcf 4cbd
000000e0: c0a3 4f3c 6597 08bd 69c0 66bd 47f9 813d
000000f0: 79f7 64bd 00b7 71bb 9a5c 8e3d 128a 22bd
0.08286522 -0.082030304 -0.048864424 0.08780632 0.08928223 0.028980242 -0.012884347 0.0161464
-0.042377565 0.04490027 -0.058088366 0.010847336 -0.045033388 -0.02550941 -0.015576088 -0.058576807
-0.026316393 -0.0024366246 -0.05739134 -0.036065303 -0.05573055 0.06607054 0.07344685 -0.042683497
0.11779558 -0.012901784 0.040278435 -0.012231792 -0.060946815 -0.009338454 -0.0150720915 0.06600014
-0.04356663 0.087904416 0.116418384 -0.039709605 0.019540975 0.07951811 -0.05606781 0.09404711
-0.035082106 -0.003403365 0.0007767891 0.07416692 -0.04417825 0.027602075 0.021780608 0.016009293
0.026443783 -0.026650941 0.079284236 -0.0531398 0.034111608 -0.013359827 0.10503488 -0.05000281
0.012673318 -0.033347506 -0.05633584 0.06346374 -0.05590007 -0.0036882758 0.06951256 -0.039682455

fc4.weight f4 [8, 64]
00000000: d078 be3c df71 bd3d 9b6e 323d 86f9 c0be
00000010: d12f b6bd df64 96bd e6af 543c ecb3 f6bd
00000020: b68a a53d 8b81 1d3d 250f 1d3d b9ae 8c3e
00000030: 58f6 d33c 634d 303e f8b7 3ebd 5ddc 163d
00000040: ad61 cb3d 55f4 0abd 39bc 9bbd f08a abbd
00000050: d89b f63d 163d 90bd 5563 ccbe 9593 263d
00000060: 3495 893e c979 13bd 47ef a6be 1cd7 25bc
00000070: 5e9b c1bd 00c1 2c3b 0991 8d3d 5ee5 403c
00000080: 54c4 123d 0b46 92be cadc 1e3e 805e 03bd
00000090: 5c19 be3d ff00 9c3e 2e10 ccbd a71a 5cbe
000000a0: 7878 a63d 2dd6 d53c e9fb b43d 61db a63e
000000b0: 2b40 693c 0c7b 81be de6f 7f3d 5bc1 743d
000000c0: 9bd7 903c beb2 a1bd 33eb 5a3e 24ea 9cbd
000000d0: 4e9a 093d 09e8 173d 273e 8f3e eeac 42bc
000000e0: 2489 c03d 9e2c bd3d 601a 8a3d d903 6dbe
000000f0: 60b0 93bd 6cd9 00bd a809 1dbe c8e9 ea3d
00000100: 4549 a2be f2d3 e0bb 760a f63d cde3 06bc
00000110: 1230 8ebe e98f 2abe c062 33bd 1cbb e33d
00000120: 44a0 e33d c7bc 0c3e 469a b7bd de25 853e
00000130: 20ba 953c 548d bc3c e814 58bd 3ba4 383d
00000140: c7b3 703d 20c1 ddbd 0c7f 53bd 6e20 0abe
00000150: 2481 343d 1d5a 343b dbec 87be a848 fcbd
00000160: 79e0 9d3e b384 9a3c 1b79 4b3b 88fe b6bd
00000170: 117a 47bd d835 953d f9fb 153e a5f5 9e3d
00000180: 5016 17bd f2b4 30bd 1319 683e 1444 62bd
00000190: adf1 dd3d 644c 18bf a2e2 e93d 65b7 bbbe
000001a0: c924 bfbd 9034 24bd 5fa0 503d 6792 243e
000001b0: 2bb4 753c 5f54 853e b9c3 3e3d d58a 193d
000001c0: a80d f5bc 1381 9ebd cc40 8e3d a2d6 f7bd
000001d0: 78e9 dabe 0fc0 f6bd ce14 c9bd 3c52 9abd
000001e0: dc33 e03c bc14 6d3d 68d2 ef3c 739e 583e
000001f0: 18f6 dc3c 8098 c7bd 453b 1a3e bc5e ccbd
00000200: a169 5bbe 98cd 9a3d 3cff 1e3d bc0f a8bd
00000210: 5490 bebe e970 373e 555b 093d 68e7 613d
00000220: 16b3 b73d ff6e 1f3e 3750 883d b29f 9d3e
00000230: 425d 77bc 109a 11be 0432 f0bd 0d79 673d
00000240: 1d1f aa3d fbe6 d9bd 0ff1 02be 1220 afbd
00000250: 3058 a0bc 0f48 42be 90cd 38be 4f69 183d
00000260: 26b5 d63b 9d8a a93d d022 bbbd 82cf eb3d
00000270: 15e8 a23d b403 ca3d 009c 98be b754 653d
00000280: 1c28 94bd 8829 d1be 66f7 f83d f02b 003d
00000290: 6a25 ecbc 9513 1b3d 5808 86bc 8700 febd
000002a0: a07d f5bc d28c ae3d 7bcf 1bbd 8fdb 82be
000002b0: e20e 083d be2a 93be a874 ed3d dc16 913e
000002c0: 89a9 3d3a 8cf2 03bd ea06 553e 80e3 863b
000002d0: 3481 a9bc 15fa ea3c 8b03 fb3d 42ef f83d
000002e0: 9f6e d2bd 2e8a 933d 936d 673d d91b dabe
000002f0: 3281 c0bd deaf d6bd a609 373e a60c 2abd
00000300: fe93 acbe caea 1bbe 3a3c 9abd 51f8 0f3d
00000310: 77cc 62be 38ee 4dbe a634 b4bd b422 d9bd
00000320: d8d6 d13d 94a3 87bc a5a1 5d3d 7fa1 a63e
00000330: 1bde e8bd 6fbc 84be 94ab 46bd d6e1 853c
00000340: 2adf 7f3d 76e9 c73d 8f48 febd ce26 903b
00000350: d276 533c dab9 5fbe 9526 0fbd 3d89 d43b
00000360: 30bf 873c de6b c0bd 0655 89be edfd 05be
00000370: 2c60 583d 58fe ff3c 59bb b23d e9da d93e
00000380: df66 d33d 3d02 e1ba 3bb9 513d 880a 4abd
00000390: c69e a5bd aed3 cfbd 485a 18bd 2eb9 3cbe
000003a0: 106e 87bc 7ce7 dbbd 7964 7e3c 1452 b33d
000003b0: 232c 953c 314d 9b3e c2f9 99bd 72b7 653e
000003c0: 114d db3d 90d7 35bd 24de 4bbe ee84 82bd
000003d0: 89a8 dbbd 08ad b8bc 6086 1e3e cc20 69bd
000003e0: ea2a 01be 5a95 b3bd 4a61 603d 0639 fabd
000003f0: aa23 9ebd ec67 a0bd ef1f 113d 32b0 6dbd
0.023250967 0.09250235 0.043562513 -0.3769037 -0.08895839 -0.073434584 0.012981391 -0.12046036
0.08083098 0.03845362 0.03834452 0.27477053 0.025874302 0.1721702 -0.046562165 0.03683125
0.099307396 -0.03392442 -0.0760426 -0.083761096 0.120414436 -0.07042901 -0.39919534 0.04066809
0.26871645 -0.036004815 -0.3260443 -0.010122087 -0.09453462 0.0026360154 0.06912429 0.011773435
0.035831764 -0.28569064 0.15513912 -0.032072544 0.09282181 0.3046951 -0.099640235 -0.21494542
0.08128446 0.026103104 0.088371105 0.32589248 0.01423649 -0.2528919 0.062362544 0.05975471
0.017680934 -0.078954205 0.21378784 -0.07661846 0.033594422 0.03708652 0.27977106 -0.01188205
0.094011575 0.09237026 0.06743312 -0.23145999 -0.07211375 -0.03145735 -0.15335715 0.114703715
-0.31696525 -0.0068612034 0.12013714 -0.008233023 -0.2777105 -0.1665646 -0.043795347 0.11119673
0.111145526 0.13743888 -0.08964972 0.26005453 0.018277228 0.02301661 -0.052754313 0.045078497
0.0587652 -0.10827851 -0.051634833 -0.13488933 0.04406847 0.0027519532 -0.26547894 -0.123185456
0.30835322 0.018862104 0.0031047526 -0.08935267 -0.048700396 0.072856605 0.14646901 0.07761697
-0.036886513 -0.043141313 0.22665815 -0.055240706 0.108371116 -0.5949156 0.1142018 -0.36663356
-0.09333188 -0.04008919 0.05093419 0.16071473 0.014996569 0.26040933 0.046573374 0.037485916
-0.029913738 -0.07739463 0.06945953 -0.12101485 -0.42756248 -0.12048351 -0.09818421 -0.07535216
0.027368478 0.057881102 0.029275134 0.21154194 0.026972815 -0.09745884 0.15061672 -0.09979007
-0.21427013 0.07558745 0.03881763 -0.08206126 -0.3721949 0.17914166 0.033534367 0.055152327
0.08969705 0.15569685 0.06655925 0.307859 -0.015097918 -0.14218926 -0.1172829 0.056511927
0.08306716 -0.10639759 -0.12787269 -0.08551039 -0.019573301 -0.189728 -0.18047166 0.037209805
0.0065523563 0.082783915 -0.09137499 0.11514188 0.079544224 0.098639876 -0.2980652 0.055988993
-0.07234213 -0.40851998 0.121565625 0.031291902 -0.028826434 0.03786047 -0.0163614 -0.12402444
-0.02996713 0.08522953 -0.038039666 -0.25558135 0.03321732 -0.28743547 0.11594516 0.28337753
0.00072350405 -0.032213733 0.20803419 0.0041164756 -0.020691492 0.028683702 0.12256535 0.1215501
-0.102750055 0.0720409 0.056500982 -0.4259937 -0.09399642 -0.10482763 0.17874774 -0.04151597
-0.3370666 -0.15226284 -0.075310186 0.035148922 -0.2214831 -0.20110404 -0.087991044 -0.10602322
0.10246056 -0.016557492 0.054109234 0.32545087 -0.11370488 -0.25925013 -0.048503473 0.016343039
0.062468685 0.09761326 -0.12416183 0.004399157 0.012906747 -0.2184824 -0.034948904 0.0064860866
0.016570657 -0.09395574 -0.2682268 -0.13085146 0.05282609 0.03124921 0.0872714 0.42549828
0.103223555 -0.0017166805 0.05120204 -0.04932645 -0.08086924 -0.101477966 -0.037195474 -0.18430015
-0.016531974 -0.107375115 0.015526884 0.087558895 0.018209523 0.3033233 -0.07518341 0.2243326
0.107080586 -0.04439503 -0.19908959 -0.063730106 -0.10725505 -0.022543445 0.15480947 -0.056916043
-0.12614027 -0.08768721 0.054780282 -0.122179076 -0.07721646 -0.078323215 0.035430845 -0.05802936

fc4.bias f4 [8]
00000000: 7667 023e 6a56 de3d ae62 0dbe e903 b1bd
00000010: 5db3 68bd d0d6 773c d799 023d 5a01 d33d
0.1273478 0.10856326 -0.13807175 -0.08643324 -0.05681168 0.015126899 0.031884994 0.10302992

conv1.weight f4 [16, 2, 4, 4]
00000000: c28c 1fbe 9090 c7bd 32fd c4be 8fa5 43bf
00000010: b4da 97be c076 12bf 663b eabd 4b62 f7be
00000020: 83a5 8abe 89b4 fbbe 59ba fcbd 351a c3be
00000030: 217c bfbe 175e 9bbe d558 e7bd cd7f 3ebe
00000040: 3fa0 73bd 9b0d 95bd 0c88 0b3e ef39 e73c
00000050: cd07 b93d e12b c33d 0b4c 27be db7f 3d3c
00000060: b724 9e3d dde8 9abd 6389 d5bd ad0b 68be
00000070: a737 40be 1e59 fabd f29f 143e f553 e0bd
00000080: 8451 40bd b7bd 0fbf 6aba dbbe 68ae 04bf
00000090: 2890 05bd 30cf 95be 171d d9be 6c4c 7bbe
000000a0: 810a 56be 3a3a dfbe b3c2 913c ddf8 36be
000000b0: a070 05be 9292 bdbe caf4 13be 062d 03be
000000c0: 511f 41be f6a1 3fbc bfed f73d d6ba c3bd
000000d0: 75d4 083e d56b 07be 380f 2ebe 6d8c 10be
000000e0: 8f81 f33d 5400 88be 33bd 93be b5ab 07be
000000f0: 5618 b2bb c3fd ac3c d97b 39be cb13 33be
00000100: ff11 d83d c1ee 4bbc 3311 45be 82ba 2f3f
00000110: 3a6c 0bbf 2278 373b 36c3 c63e b09b 1f3f
00000120: 67d8 aa3e 6a16 9a3e 15fa e33e aa9e 213f
00000130: 8cb1 87be 7f45 a93e 55ba 123f 4731 843f
00000140: c8f3 84bd 0d9f e1bd 6d36 633d 0e0e 09be
00000150: 38a8 51bc 0796 633d d04f 50be a44c bfbe
00000160: 0860 4abe c30d 683d 66cb 2ebd 6d45 03be
00000170: dc59 77bd 5ca2 3dbd a39a 8bbd 83a4 933d
00000180: eabe 493f 1127 4a3f 19c2 243f b4a8 c63f
00000190: 0014 a43e dd22 9a3e 3614 183f 495f 143f
000001a0: 11dc af3e b892 c43e 1778 2d3d 1f09 393f
000001b0: e014 933e ef15 bc3e 2933 293f c5e3 423f
000001c0: 36b3 d939 793d e4bc 49cd 4f3e 7691 85ba
000001d0: 959a b5ba be6c cabd 7d95 78bd e284 bfbc
000001e0: fcde 383e e93c 4dbc b736 ccbc 94de 8abd
000001f0: 4ec6 40bd a6dc 043e dbd7 0d3e 9fdd 57be
00000200: 69d4 34bd 60a2 e13f bdc4 da3f 2826 da3e
00000210: 7ca9 45be e13f 683f 995a 6d3f dd93 563f
00000220: 6315 213f 8b98 b23e a277 873e 0165 ed3e
00000230: 85af 0b3f 9b7e 013f dd62 d9be 0e87 0abd
00000240: 4e75 da3d cc1d aebe 9b0e db3d 4452 243d
00000250: 2581 a53d e2a1 353e e724 a1bd c6fa 01be
00000260: 93aa 413e 215a 03be c284 e5bd 5c90 af3b
00000270: a14a b23c 73c0 9b3c 612e 043e 8436 ed3c
00000280: 9f5b 003f 1402 bfbc 333c 3cbf 804b bd3f
00000290: 9e01 8dbd 6176 a0be 122f a03e 15f2 613f
000002a0: fcc6 69bd 3673 d13d c99e 5f3d 28cf 213f
000002b0: 20a1 e63e 8b6d 143f 87e5 c53e c3d9 3c3f
000002c0: eb23 b5bb 3881 07bd 69f9 dd3d 7ff1 98be
000002d0: 8c83 243d 4a5c 78be aa42 1cbd 0b56 51bd
000002e0: 53a5 23be e527 ffbc 9c88 053d 5d2c 94be
000002f0: f30c 883d 0d46 013e 3002 3cbe ebf2 f63c
00000300: 2ca1 efbe ce0f dbbc 147a 02be e341 773c
00000310: 7322 08bf aa88 bbbe d0c9 f5be 464e cebe
00000320: 2b7f 71be 7bdf 0fbd d914 2ebe a7a9 bd3d
00000330: ccaf 9fbe d84a a7be 369b f7be ac0d 72bc
00000340: f6b8 77bd 9f47 1ebe bb15 283d 8cd3 793c
00000350: 0090 febd 23f0 efbd 4bfc 59be b0a9 20be
00000360: 4ae6 773d d7ec 743e fe71 e13c ddc3 85be
00000370: d6a0 71be 602e 123e 01ce efbd cbc5 86be
00000380: b73b b6be b4b6 b4be 8666 babe e784 06be
00000390: de4d b7be 075c 49be 9aad 213e 6c87 dfbe
000003a0: eebe e8bc 8430 23be ba89 32be ecbf 32be
000003b0: 1fbd 84be 6f94 d8be 8f34 52be 5bf2 eabe
000003c0: 085c e73d 3478 b43c 17bb 6f3d 5ef7 083e
000003d0: cf9f 90bd f2b9 89be 5125 94be 076f 3cbe
000003e0: 0ded 70bd bef8 32bd f452 323d 3d1b ed3b
000003f0: 52da 57be 2d2c 18bd 72a2 65bd 2f07 1fbe
-0.15581039 -0.0974437 -0.38474423 -0.764245 -0.29659045 -0.5721245 -0.114371106 -0.4831718
-0.270794 -0.49161175 -0.123402305 -0.38105932 -0.3739939 -0.30345222 -0.1129624 -0.1860344
-0.059478994 -0.07277986 0.13626117 0.028225867 0.09034691 0.095298536 -0.16337602 0.011566128
0.077218466 -0.075639464 -0.10426595 -0.22660704 -0.1877123 -0.12224029 0.1451414 -0.109535135
-0.04695274 -0.56148857 -0.4291566 -0.5182862 -0.03260818 -0.29259634 -0.42405006 -0.24540871
-0.20902444 -0.4359911 0.017793035 -0.17868371 -0.13031244 -0.37025887 -0.14448848 -0.12810144
-0.18859603 -0.011696329 0.12105893 -0.095571205 0.13362296 -0.13224728 -0.16997993 -0.14116068
0.11889946 -0.2656275 -0.28855285 -0.13249095 -0.00543503 0.021117097 -0.1811365 -0.17488019
0.105503075 -0.01244706 -0.19244842 0.68643963 -0.54462016 0.0027995189 0.3882081 0.62346935
0.33368227 0.30095226 0.44526735 0.6313273 -0.26502645 0.33060834 0.5731557 1.0327538
-0.0649181 -0.11016665 0.055471826 -0.13384268 -0.012796454 0.055563 -0.20342946 -0.3736316
-0.19763196 0.05665375 -0.042674445 -0.12819453 -0.06038843 -0.046297416 -0.06816604 0.072091125
0.78806937 0.7896586 0.6435867 1.5520234 0.3204651 0.30104724 0.5940584 0.57957894
0.34347585 0.38393188 0.042350855 0.7227954 0.28726864 0.36735484 0.6609369 0.761288
0.00041522988 -0.027861344 0.20293154 -0.0010190445 -0.0013855273 -0.09884022 -0.060689438 -0.023378793
0.18053812 -0.012526729 -0.024928434 -0.06780735 -0.047064118 0.12974796 0.13851874 -0.21080635
-0.044147883 1.7627678 1.709129 0.42607236 -0.19302934 0.9072247 0.92716366 0.8381937
0.6292326 0.34882006 0.2645846 0.46366122 0.54564697 0.5058381 -0.4245824 -0.033820204
0.10666905 -0.34007108 0.10696145 0.040117517 0.08081273 0.17737535 -0.07868367 -0.12693319
0.18912725 -0.1282735 -0.11206962 0.005357785 0.021764101 0.019012665 0.12908317 0.02895666
0.501398 -0.02331642 -0.73529357 1.4788666 -0.06885074 -0.31340316 0.31285912 0.8826001
-0.057074532 0.10227053 0.05459479 0.6320672 0.45044804 0.5797965 0.38651678 0.7376978
-0.0055279634 -0.033082217 0.10838587 -0.29871747 0.040164515 -0.24253955 -0.038149513 -0.051107448
-0.15981035 -0.031146953 0.032600984 -0.28940096 0.06643095 0.12624379 -0.1836021 0.03014513
-0.46802652 -0.026740935 -0.12741882 0.015091392 -0.53177565 -0.36627704 -0.48005533 -0.40294093
-0.23583667 -0.035125237 -0.1700014 0.09260874 -0.3118881 -0.3267429 -0.48360604 -0.014773767
-0.060479127 -0.15457009 0.04103635 0.015248191 -0.124298096 -0.11715724 -0.21287648 -0.1568973
0.060522355 0.23918472 0.027520176 -0.26125994 -0.2359651 0.14275503 -0.11709214 -0.2632278
-0.35592434 -0.3529564 -0.36406344 -0.13136636 -0.35801595 -0.19664012 0.1578888 -0.43658006
-0.028411355 -0.15936476 -0.17435351 -0.17456025 -0.25925538 -0.42300746 -0.20527862 -0.45888028
0.112968504 0.022029974 0.058528032 0.13375613 -0.07061731 -0.26899678 -0.2893472 -0.18401729
-0.05881982 -0.04369425 0.04353614 0.007235913 -0.21079376 -0.037151504 -0.056063123 -0.15530084

conv1.bias f4 [16]
00000000: b721 6a3e b48f f83d 49ef 553e 32b4 c93d
00000010: fa2c ffbd 071e 713e 7037 4d3e 2a81 133e
00000020: e016 3e3e c6b3 b23d 9158 e43d 36ba 69bb
00000030: cac3 7a3d 4b1f 0ebe 272e 8e3e 7666 203e
0.22864424 0.12136784 0.20892061 0.09848823 -0.124597505 0.23546611 0.20040679 0.14404741
0.18563414 0.08725695 0.11149705 -0.003566397 0.061221875 -0.13879125 0.27769586 0.15664086

conv2.weight f4 [32, 16, 4, 4]
00000000: eede babb 6980 53bd 4ac7 443d 7359 683d
00000010: 723f 333d fa40 8fbd d9cd 9abc a624 263c
00000020: c621 9c3c 1d8c 84bc 4374 75bd 155d cbbb
00000030: 7a38 a93d 6be9 403d 6703 70bc 59e2 a03d
00000040: 1a8e 2c3d bfe4 86bd f64e 8fbe 934f 2b3d
00000050: 5f4f b7bc 8f15 98bd ffb8 8abc d78b e93c
00000060: f9b0 803d cc26 5cbd 609c ae3c 81a2 38bd
00000070: 1341 44bc c83c dc3c 185c ffbb f3fa 503c
00000080: 4259 41bd c964 17bd 21e5 b53c db5b eb3c
00000090: a570 6e3c 09c0 153d 94d3 aabc 540a 5a38
000000a0: 3dc3 01bd 2971 a53c a4af 323d 103c cebc
000000b0: d3c5 8e3d 884d 24bd a9e2 e6bd 27bf 61bd
000000c0: eac5 a6bd c09d f4bd fee2 a7bd 1ec6 6cbd
000000d0: 0128 3fbd 29d8 78bd 03d4 28bd ac3e 7fbd
000000e0: 0a03 a8ba 0978 913c fa22 a9bc ec2f 51be
000000f0: 7a2b 5d3d 1f2e 263d 9bba fabc 5fad 8abe
00000100: 409d 1dbf a9b3 dbbe 3c18 97be 5feb 08bf
00000110: 25ce 01bf 5e1e e1bd 2643 1bbe 0580 00bf
00000120: 3eb5 eebe c26c 80bd 25c3 a4bd 4997 b4be
00000130: 882c 8abe 70f5 243d 4451 0c3c b46b e9be
00000140: 3b63 51bc 0235 033c f141 bfbb 71e5 14be
00000150: 5f4d 803c d195 8b3d ea57 c9bc 5920 d73c
00000160: c622 83bd 2cb3 abba 4277 913d e613 883b
00000170: 6f4f 7f3d 1f48 de3d ec76 c9bb 5f06 23be
00000180: db38 403d ffd3 8b3c 0365 e33d 906b de3d
00000190: 05ad b03c 7e5c 653c 9ce6 bbbc e0d9 8f3d
000001a0: 672e a33d 0684 6a3d 3b21 0e3d 6bf3 d83c
000001b0: c065 733d a182 1abd 87bc 80bd 3525 563d
000001c0: 423c 09bc d8f2 003d 2669 1d3c 5904 54bc
000001d0: 91dd 6f3d 2cad 48bc 33ec 33bc c8b4 3fbd
000001e0: 2c98 eb3d cc3e 7d3c 1de1 61bc 98c3 c63d
000001f0: 02c7 883d 872d 16bc fef2 fabb 5967 1ebc
00000200: f4b0 06bc 0f75 87bb 8568 483d 3e5c 1e3d
00000210: 839b 163d 9372 25bc 08db f1bd 799a 59bd
00000220: f3f5 83bd dfb0 943d 2a10 b93c f74a b43c
00000230: dded d73d cebb 37bd 7ee3 463c 4796 993c
00000240: faf8 e3bd 705d 223d 5db9 ca3c 708c 8ebc
00000250: d7e3 45be 8266 1ebd 126f 65bd 2f9d 59bd
00000260: 81ce 3abe f95b 55be cd41 673d e12b 64bd
00000270: f6db 2bbe 663c 17be aa47 2b3e 8b3e a4bd
00000280: f7dd f63b f84a 203d 80c0 52bd a8b1 f73d
00000290: fddd 77bc 905a 07be 3c4d 2d3d 58c5 723c
000002a0: a572 6b3d 9fc9 103d 9f13 a9bd 66c9 87bb
000002b0: d060 4a3c 98f3 703d b177 a4bd 98ce 2dbc
000002c0: 2a22 893d c41a 6dbd 7861 8ebd c06b 74bd
000002d0: 75cd dbbd c6ba c23d b4a2 20bd 9b52 ab3d
000002e0: d490 4d3c 61ef aebe 2ee1 09bd 33fd 98bc
000002f0: 54c7 3abe dae1 073d f9cc 4e3e 0ed6 f83c
00000300: 4943 333c 488a 1b3d 6e3e c33d 54ce 0a3d
00000310: d09b 04bd a30f 61bd 81ff dc3c 059d a3bd
00000320: 3077 983d 85dc d43b 9942 9abe ff81 613c
00000330: 4f46 06be 884a 47bd 1bc4 b53d 53b7 06bd
00000340: 71b5 38be 86b8 86bd 0932 d3bd 0d5e 04bf
00000350: 8130 1ebd 780a e3bd f76d a0bd 7490 9ebe
00000360: cb85 3ebe de63 44bd 0150 f2bd 39bf 97be
00000370: 0768 2bbe cea4 58bc 53c7 913c 17e1 27bf
00000380: 08ea e03d 3c86 8f3c 8ead 203d 25b1 b83d
00000390: 0641 9ebb 9d5f fdbc 53f0 a83d a2de 28bc
000003a0: e7ad 95bc 0b47 4b3d fd10 633b e9a3 f13c
000003b0: 58c8 dc3d 3288 0bbd 1978 713d 7a9a 803d
000003c0: 705f 85bc f6fd 26bd 1308 45bb c2f2 8ebb
000003d0: 6166 e33c 4960 a4bd 8889 5f3d 632a 29bb
000003e0: b1da f23d 568f cabd 8b6b 2abd b46c 343d
000003f0: b310 a23d ee38 ed3d 63f5 2abe f936 01be
-0.005702845 -0.051636133 0.04804162 0.05672593 0.043761678 -0.06994815 -0.018896984 0.010140574
0.019059073 -0.016180092 -0.05992533 -0.0062061646 0.08262725 0.047097605 -0.014649249 0.078556724
0.042127706 -0.065865986 -0.2798993 0.041823935 -0.022376714 -0.07425987 -0.016933916 0.028509064
0.06283755 -0.053747937 0.0213148 -0.04507685 -0.0119784055 0.026884452 -0.007792961 0.012755143
-0.047204264 -0.03696135 0.022203984 0.028730324 0.014553224 0.036560092 -0.020852841 5.198487e-05
-0.031680334 0.02019556 0.043624535 -0.025175124 0.06971326 -0.040113002 -0.11273701 -0.055113938
-0.08143218 -0.11944151 -0.08197592 -0.057806127 -0.04666901 -0.06075302 -0.041217815 -0.062315628
-0.0012818289 0.017757433 -0.020646561 -0.20428437 0.05399654 0.04057133 -0.030606559 -0.27085397
-0.6156807 -0.42910507 -0.29510677 -0.5348415 -0.50705177 -0.1099212 -0.15162334 -0.5019534
-0.46622652 -0.06270744 -0.08045033 -0.3527167 -0.269871 0.04027313 0.008564297 -0.45589983
-0.012780006 0.0080082435 -0.0058367183 -0.1454065 0.015661893 0.068156846 -0.024578054 0.026260542
-0.06403117 -0.0013099662 0.07102825 0.0041527627 0.062331613 0.108536 -0.00614821 -0.15920399
0.04692922 0.017068861 0.11103251 0.1086036 0.021566877 0.013999103 -0.022937112 0.07023978
0.07967835 0.057254814 0.03469966 0.026483258 0.05942321 -0.037722234 -0.06285959 0.052281577
-0.008376183 0.031481594 0.009607589 -0.01294049 0.05856091 -0.012248319 -0.010981607 -0.046803266
0.11503634 0.0154568665 -0.013786581 0.09705275 0.06678583 -0.009166128 -0.0076583615 -0.009668195
-0.0082209 -0.0041338275 0.048927803 0.038662188 0.0367694 -0.010098117 -0.11809355 -0.053125832
-0.064433955 0.07260298 0.022590715 0.022008402 0.10543416 -0.04485684 0.012139199 0.018748416
-0.11131473 0.03963989 0.024746591 -0.01740095 -0.19325195 -0.038671978 -0.056014128 -0.053128418
-0.18242837 -0.20835866 0.056459237 -0.05570591 -0.16783127 -0.14769134 0.16726556 -0.080197416
0.0075337845 0.039133996 -0.051453114 0.12094432 -0.01512861 -0.1321814 0.042309985 0.014817558
0.05748238 0.03534853 -0.082556956 -0.0041438816 0.012352183 0.05882606 -0.08030642 -0.010608338
0.066959694 -0.057886854 -0.069521844 -0.05967307 -0.10732547 0.095082805 -0.039217666 0.08365365
0.012546737 -0.34167007 -0.033662014 -0.018675422 -0.182401 0.033174373 0.20195378 0.030375507
0.010941335 0.037973672 0.09533392 0.033888176 -0.032375157 -0.054946553 0.026977303 -0.079889335
0.07444608 0.0064960145 -0.30128935 0.013763904 -0.13112758 -0.048655063 0.08875295 -0.032889675
-0.18037964 -0.06578164 -0.10312278 -0.5170601 -0.038620476 -0.11085981 -0.07833474 -0.30969584
-0.18605725 -0.047946803 -0.11831666 -0.2963808 -0.16738902 -0.013222886 0.01779524 -0.65577835
0.10982138 0.017520063 0.039228015 0.09018163 -0.0048295287 -0.030929381 0.08248963 -0.010306986
-0.0182714 0.0496283 0.0034647577 0.029497104 0.107804 -0.034065433 0.058952425 0.06279464
-0.01628086 -0.04076954 -0.0030064627 -0.004362435 0.027758779 -0.080261774 0.05457452 -0.0025812618
0.11858118 -0.098906204 -0.041606467 0.04404898 0.079133414 0.11583124 -0.1669517 -0.12618627

conv2.bias f4 [32]
00000000: 997c c73d fc42 fc3c a8e4 8dbd 541d d23d
00000010: 2f71 893d 1f25 d73c 816a a7bd 5e04 3d3e
00000020: c063 bcbd 0c6a 723b 0253 9fbc fac6 053e
00000030: 90e9 043d fb07 a4bd 2e8e f93d 8b87 de3d
00000040: 0cfb 743c 8adf c43b 2f13 853d d533 92bd
00000050: 31c9 f3bc 06e5 e73d c8f4 423b fede c03d
00000060: ce57 dd3d b804 71bb bfba 163e 1181 1b3d
00000070: 18fa 473d eeb6 2abd 8f20 063e 69a5 ca3c
0.09740562 0.03079366 -0.06928378 0.102595 0.06711041 0.026262818 -0.08174611 0.18458697
-0.09198713 0.0036989478 -0.01944876 0.13064185 0.032449305 -0.08009335 0.12185322 0.108656965
0.014952432 0.0060080932 0.064977996 -0.071387924 -0.029759021 0.1132298 0.0029747952 0.094175324
0.10807763 -0.0036776494 0.14719675 0.037964884 0.048822492 -0.04167836 0.13098358 0.024737077

fc1.weight f4 [64, 800]
00000000: 921f 013c 53b6 b83c 4ee5 20bd f326 603c
00000010: d83a df3d d16c 413c 4bee b33c 03fa 3abc
00000020: 5824 ed39 9b3e c43c c50f b23b b356 4f3c
00000030: 3640 10bd 810f 0d3d 796a 69bb 9ee2 5eb9
00000040: 74e6 383d 2946 34bd 8b14 5cbd 5d9f 993b
00000050: ec66 dbbd 9747 a3bc d0d0 6e3c 4799 933c
00000060: dff9 cb3d 8824 6bbd ebbf 99bd 30c7 18bd
00000070: 1094 653c 6fd8 a23d 94ca 8bbb 6152 f3bc
00000080: 490b d6bc 99bf a7bd 9102 34bc e54d 36be
00000090: 731e 9cbd dbe9 d0bc b17f f63c 1889 1a3d
000000a0: 163d e73c 8138 493c 94c7 aabd 3de5 07bd
000000b0: ac32 d43b b904 b8bd 5eb8 e9bd 76b3 1abe
000000c0: 73a6 1b3c 7b89 0d3d a0a4 683b 899b 753c
000000d0: 0474 913b 5e1e 06bd 0f0e 02bc 9d67 5f3b
000000e0: 2c37 f63b f9e6 a1bc b336 12bd a0b8 f53b
000000f0: abed e03c b1bf 173d a1e9 243d ee34 9e3c
00000100: 6160 d43c 6345 98bc 4eff 25bc b89b 6c3c
00000110: 33e4 0abd 1c64 9a3c 8a36 ad3c 9ef1 593c
00000120: eeee bbbc fcc3 fcbc aae1 96bc ae5f 02bd
00000130: 0282 ba3b 8ca7 503b cc75 87bc a431 7d3d
00000140: 184f 2d3d eb82 883c 2cd0 f9bc 5ef6 a8bd
00000150: f26e d9bb 53c4 fe3c b1ee 17b9 034f 0fbd
00000160: 03ce 28bd b223 0d3d 67a4 9abc b7ce a2bd
00000170: 4163 51bd 0c57 713c 8451 60bc 096e 4e3d
00000180: ab34 27bd 9182 8b3d 6f86 e13c e9a9 633d
00000190: 20e4 39bc 697f 8f3c 7aa0 2dbd 100b e9bc
000001a0: e433 283d 0090 9dbb 13e5 223d 97a0 313c
000001b0: b27a 823b ba00 5bbc f527 bdbd df5b a3bd
000001c0: da1f 54bc dbab 12bc eb8e 38bd 0dcb 0cbd
000001d0: ec31 54bd 2850 dbbd 6d90 563d f50b 40bd
000001e0: 3282 313d 87c8 10bc e8d9 7dbd 375f b0bb
000001f0: a2f1 803d a3ce 5a3d e636 9b3d 9848 033e
00000200: fb2e 2c3e 1f0a f33d 40d3 b3bc 1019 a6b9
00000210: f029 4a3d 91dc 13bc 7715 023e 550f 34be
00000220: e3b5 ccbd be1c 993e 2656 843d 60aa d9bd
00000230: 91c8 dbbe 5de7 c7be df88 bdbe 23f4 79bd
00000240: 61d8 b93d ca78 4cbe 4fac 5bbe d206 67bd
00000250: bff7 513e e6d6 433e 4d64 173d 1ac8 06bd
00000260: d258 c03c b5f5 87bc f83d 9e3c 90c9 d33c
00000270: b532 39b7 bc37 c7bc f2d3 db3c 93d7 6abc
00000280: e8da 2bbd d91d d4bc 834a 4ebd 306a 3cbd
00000290: 689d f53c ac20 40bd 8640 053c e4e6 1cbd
000002a0: c98f 8b3b 805a d43c 20f2 193c 5984 6c3c
000002b0: 6f29 893c a2e8 c93c 53c7 a73b 1a64 e7be
000002c0: d767 a5be 95ce 08be af0c 94be b689 0ebf
000002d0: 5149 10be 5d81 10be ca6d cebd 2d0e 073e
000002e0: 068c e1bd 988a 9abe 032a c9bd d76c 25be
000002f0: 45da 1fbe 2ff6 01be 548e a1be dec8 40be
00000300: 64ba 93bd 4e0a 143e 211b 98be e9dc 9fbd
00000310: a676 66be 8125 fe3d ef46 eebc 09c5 a0be
00000320: a845 033c 5cb5 b13c f3e0 ccbc 378e dbbc
00000330: d6da a63c 9187 003d 9f69 85bc 8e68 ae3c
00000340: b276 e7bc e8c2 02bd 2c27 c13c 8058 c03a
00000350: 4074 4abc 50ad adbc 34cd 2abc 2c59 c6bc
00000360: 1662 82bc a0e6 cbbc d44c 293c 00d8 a037
00000370: 56ac 653c 3413 923c f027 19bb 20f3 2e3b
00000380: 00de 15ba 24cc e0bb 563b 9a3a 503f 65bb
00000390: b255 13ba b465 d2bc 260d ddbc 37d2 cabc
000003a0: d09b da3b 825b 833b 32e0 fd3c de5a bcbc
000003b0: 600c 0abd 58bf d8bb ca2c f73c 007e 883a
000003c0: 900c 763b 7056 cd3c d4b3 c1bc a815 68bc
000003d0: 5a74 173d da9f a83c a0ec 583b b1c2 ca3c
000003e0: 0d05 d8bc 40d1 823c 588e 3e3d 87a4 8bbc
000003f0: bb26 3a3d 92b1 10bd b6f1 223c 8fa5 a63b
0.007881062 0.022547876 -0.039281182 0.013681161 0.108998954 0.011805729 0.021964213 -0.0114121465
0.0004523124 0.023955634 0.005434009 0.012654948 -0.035217486 0.034438614 -0.0035616441 -0.00021255991
0.045141652 -0.044012222 -0.05373053 0.004688187 -0.1071299 -0.019931598 0.014576152 0.018017424
0.099597685 -0.057407886 -0.075073086 -0.037299335 0.014012352 0.07951438 -0.0042660926 -0.029702367
-0.026128428 -0.08190841 -0.01098694 -0.17803152 -0.07622995 -0.025502136 0.030090185 0.0377284
0.02822737 0.012281538 -0.08338848 -0.033177603 0.006475767 -0.08985276 -0.114121184 -0.15107521
0.009500134 0.03455494 0.0035498515 0.014990696 0.004438879 -0.032743804 -0.007937922 0.0034088858
0.007513901 -0.019763457 -0.035696696 0.0074988157 0.027457079 0.037048046 0.04026187 0.019312348
0.025924863 -0.018587774 -0.01013167 0.014441423 -0.033909034 0.018846564 0.02114417 0.013302235
-0.022941079 -0.030855171 -0.018418152 -0.03182953 0.0056917677 0.0031838147 -0.016535662 0.06181492
0.042311758 0.016663989 -0.030494772 -0.08250116 -0.00663554 0.031099474 -0.00014489402 -0.03498746
-0.041212093 0.03445787 -0.018877221 -0.07949584 -0.051120047 0.014730226 -0.01369131 0.050397906
-0.040821712 0.06812013 0.027529923 0.05558196 -0.011345893 0.017516809 -0.04238937 -0.028447658
0.04106511 -0.004808426 0.039769243 0.01084151 0.0039819116 -0.013366872 -0.09236137 -0.079765074
-0.012947047 -0.008952106 -0.045058172 -0.03437333 -0.05180542 -0.10708648 0.05238383 -0.046886403
0.043337055 -0.008836872 -0.06197539 -0.0053824442 0.06296088 0.05341972 0.075788304 0.12820661
0.16814797 0.11867165 -0.021951318 -0.0003168066 0.0493564 -0.009024755 0.127035 -0.17583974
-0.0999563 0.2990474 0.06461744 -0.106281996 -0.42926458 -0.39043704 -0.37018487 -0.061023843
0.09074474 -0.19967952 -0.2145245 -0.05640299 0.20504664 0.19124946 0.03696089 -0.032905675
0.023479853 -0.016596654 0.019316658 0.025852948 -1.1038665e-05 -0.024318568 0.026834462 -0.014333623
-0.041956812 -0.025893139 -0.05036403 -0.045999706 0.029982284 -0.04690616 0.008133059 -0.038306132
0.004259084 0.02592206 0.009396106 0.014435851 0.01674339 0.02464706 0.005120197 -0.4519356
-0.32305786 -0.13360055 -0.28915927 -0.5567888 -0.14090468 -0.14111848 -0.10079534 0.13189001
-0.110130355 -0.30183864 -0.09822466 -0.161548 -0.15610607 -0.12691568 -0.315539 -0.18826625
-0.072132856 0.14457056 -0.29708198 -0.07805807 -0.22506198 0.12409497 -0.029086558 -0.31400326
0.008012213 0.021692924 -0.025009608 -0.026801212 0.020368021 0.031379286 -0.016285716 0.02129009
-0.02825484 -0.03192416 0.023578249 0.0014674813 -0.012356818 -0.021200806 -0.010424901 -0.024212442
-0.015915912 -0.024890244 0.010333259 1.917407e-05 0.014018139 0.017831422 -0.0023369752 0.0026695207
-0.00057169795 -0.006860273 0.0011766951 -0.0034980364 -0.00056203746 -0.025683261 -0.026983809 -0.024758441
0.0066714063 0.0040087113 0.030990694 -0.022992548 -0.033703208 -0.006614607 0.030172724 0.0010413527
0.003754411 0.02506563 -0.023645319 -0.0141653195 0.036976196 0.020584036 0.0033100024 0.02475104
-0.026369596 0.015968919 0.04652247 -0.017046226 0.045447093 -0.035325594 0.009945324 0.005085654

fc1.bias f4 [64]
00000000: 3eb5 a93d 81ff a7bd 1026 48bd cdd3 b33d
00000010: 9ad9 b63d f967 ed3c de18 53bc 7445 843c
00000020: 1994 2dbd 7af0 3b3d 11ee 6dbd 3648 323c
00000030: ee74 38bd fb4b d1bc d932 7fbc 3cee 6fbd
00000040: 7a95 d7bc c7af 1fbb 2f13 6bbd 36b9 13bd
00000050: b845 64bd fe4f 873d 4d6b 963d e4d4 2ebd
00000060: 2d62 f53d 0162 53bc 00fb 243d db67 48bc
00000070: 5ea3 79bd 5100 19bc eff0 76bc 1c75 853d
00000080: ec72 32bd 3b07 b43d c7a2 ed3d 8aa6 22bd
00000090: 6514 a03c 64da a23d 5ca7 65bd c59b c03d
000000a0: 41b2 0fbd fd0a 5fbb 6fa1 4b3a d3e4 973d
000000b0: 41f4 34bd 104a e73c 3f6d b23c a41d 7e3c
000000c0: a2a0 d83c 1353 dabc c65f a23d 1ea9 59bd
000000d0: 9db8 0b3d 2de3 5abc 67bf d33d bfcf 4cbd
000000e0: c0a3 4f3c 6597 08bd 69c0 66bd 47f9 813d
000000f0: 79f7 64bd 00b7 71bb af22 8f3d 128a 22bd
0.08286522 -0.082030304 -0.048864424 0.08780632 0.08928223 0.028980242 -0.012884347 0.0161464
-0.042377565 0.045883633 -0.058088366 0.010881474 -0.045033388 -0.025548926 -0.015576088 -0.058576807
-0.026316393 -0.0024366246 -0.05739134 -0.036065303 -0.05573055 0.06607054 0.07344685 -0.042683497
0.11981616 -0.012901784 0.040278435 -0.012231792 -0.060946815 -0.009338454 -0.0150720915 0.065164775
-0.04356663 0.087904416 0.11603313 -0.039709605 0.019540975 0.07951811 -0.05606781 0.09404711
-0.035082106 -0.003403365 0.0007767891 0.07416692 -0.04417825 0.028233558 0.021780608 0.015509997
0.026443783 -0.026650941 0.079284236 -0.0531398 0.034111608 -0.013359827 0.103392415 -0.05000281
0.012673318 -0.033347506 -0.05633584 0.06346374 -0.05590007 -0.0036882758 0.06989037 -0.039682455
