saved_models/dqn_final_model.pth (torch, 981147 bytes, 32 tensors)

conv1.weight f4 [16, 2, 4, 4]
000000 df ae e0 be 64 da 14 bf ca 1f 3c bd fe 33 fc bd
       -0.43883416 -0.5814574 -0.045928754 -0.12314604
000010 3d ca fe be fe 15 12 bf cf 3c 7d 3e 40 f7 1d bf
       -0.4976367 -0.5706481 0.24730228 -0.617054
000020 1e 13 13 bf 7d 2f 1a be b8 a3 e8 bd 8e 6e b8 3e
       -0.57451046 -0.15057178 -0.11359352 0.36021847
000030 11 6a d8 be ad 3a a6 be c6 63 77 be 29 2c a3 3f
       -0.42268422 -0.3246664 -0.24159154 1.2747852
000040 27 d2 86 bd 4f 1e 8c 3d a3 bf 40 be 7b d7 07 be
       -0.06583052 0.068417184 -0.18823104 -0.13265793
000050 b4 84 53 be f0 70 a7 3c b0 e9 5a bc 62 c0 8d be
       -0.20656091 0.020439595 -0.0133613795 -0.2768584
000060 4f ae bf 3d c0 cf c4 be 7d d5 a2 ba 85 36 87 be
       0.093594186 -0.3843975 -0.0012423244 -0.26408783
000070 aa e4 5f 3d dd c2 0e be 0b b9 86 be 2c 56 8f be
       0.05466143 -0.13941522 -0.26313052 -0.2799543
000080 1f 3a 46 3f 5d 74 02 bf d2 65 6a 3f 81 07 0c 40
       0.77432436 -0.50958806 0.91561615 2.187958
000090 4b 76 5e 3e d8 f7 2a 3f d6 8b 29 3f cc c5 f2 3e
       0.21724813 0.6678443 0.66229 0.47416532
0000a0 6c ab 16 3f 86 4e 86 3c cb c5 4b 3e 33 57 dd 3e
       0.5885532 0.016394865 0.19899671 0.4323059
0000b0 88 90 ed 3e 1f 27 04 3e e6 53 65 3e d9 dd ed 3e
       0.4639933 0.12905549 0.22395286 0.4645832
0000c0 75 3c 7c 3e 04 c4 75 bd 86 82 b3 3e c2 16 6f be
       0.24632438 -0.06000139 0.3506052 -0.23348525
0000d0 98 ef 70 3e 66 c9 83 be 87 ff ce 3e 2b 1c 5a be
       0.23528898 -0.25739592 0.40429327 -0.21299808
0000e0 00 de 59 3c 27 01 89 be 30 aa 09 bc e0 f6 e3 bd
       0.013297558 -0.26758692 -0.008402392 -0.11131072
0000f0 cf 41 d5 bd 7a 6c 98 3d 3e 3a 24 be 31 d9 55 3e
       -0.104129426 0.07442565 -0.16037843 0.20883633
000100 3d 20 0a bd 28 bb 18 3d 51 a3 cb 3e a3 70 d2 3e
       -0.03372215 0.03728786 0.39773038 0.4110156
000110 fd 79 dd 3d 2e 63 a8 bd 1d 00 5f bf 36 cc 4d bf
       0.10814283 -0.08222042 -0.8710955 -0.80389726
000120 ac 64 60 bf 70 ba 2f bf 99 f1 5c bf 0f 70 5e bf
       -0.87653613 -0.68643856 -0.8630615 -0.8688974
000130 41 82 5d bf 02 cf 34 bf e6 56 e6 be 53 ce fa be
       -0.86526877 -0.7062837 -0.44988173 -0.48985538
000140 e4 15 32 be 1f 92 9f 3e 37 55 93 bc 78 61 87 be
       -0.17391163 0.3116617 -0.01798497 -0.2644155
000150 35 0d 23 be 16 c0 cb bd 41 7e 0c be 32 80 53 be
       -0.15923007 -0.09948747 -0.13720037 -0.20654371
000160 bf 36 83 be 02 fe 82 be 0e d2 d1 bd 27 69 86 be
       -0.25627705 -0.25584418 -0.10245143 -0.262521
000170 b2 14 32 3e 0a 9a 6f 3e 3a 85 d1 bc a4 a6 3f 3e
       0.17390707 0.23398605 -0.025576223 0.18715912
000180 57 5a 0e 40 95 db 5a 3e 53 c1 58 be 27 17 7b 3e
       2.224264 0.21372826 -0.21167497 0.2452055
000190 66 67 85 3e a0 5d af be e1 99 8f 3d 82 93 d6 3e
       0.2605545 -0.34251118 0.07011772 0.41909415
0001a0 6c 9b 48 bf 10 b6 2d 3e 4f ce 8e be ba c0 26 bf
       -0.78362155 0.16963983 -0.27891776 -0.6513783
0001b0 20 f8 2f 40 0f 9f ac 3e 71 ac 91 3f 9d 8d 0e 3e
       2.7495193 0.33715102 1.138075 0.13921209
0001c0 7f 27 11 be 78 25 38 be 61 cf ff be 01 e1 48 bf
       -0.14175223 -0.17983043 -0.49962905 -0.7846833
0001d0 fb 9d 2c 3e 48 2d 80 3e 63 65 74 be d4 3e 61 be
       0.1685714 0.25034547 -0.23866801 -0.21996623
0001e0 d1 c5 e0 bc 6a 8e 11 bf e2 23 71 3d c6 fe e9 3c
       -0.027438076 -0.5685793 0.05887211 0.028563868
0001f0 36 0f b9 3c d7 a1 27 bd 54 4d 88 3d 8f 44 20 3c
       0.022590261 -0.040925827 0.06655374 0.009781971
000200 e8 6a 25 3f 13 51 02 bf c5 b9 02 bf 8d ef 01 bf
       0.6461625 -0.5090496 -0.5106471 -0.5075615
000210 d6 28 0f bf 1a 92 0e bf 0b ca 0a bf 97 c6 13 bf
       -0.55921686 -0.55691683 -0.54214543 -0.577249
000220 a3 10 11 bf 12 0c 0c bf 8a 6d fd be 21 6f 17 3f
       -0.5666601 -0.5470592 -0.49497634 0.59153944
000230 d5 69 37 bf 83 2c 85 be 60 ec df be 7b 13 2b 3f
       -0.7164586 -0.26010522 -0.43735027 0.668266
000240 e7 83 9d be 55 34 9b be 36 ca 40 bf d3 b0 f7 bd
       -0.30764696 -0.30313364 -0.7530855 -0.120942734
000250 ca ed 10 be f1 5e f2 bc 99 84 84 be fa d9 26 be
       -0.1415321 -0.029586287 -0.25882414 -0.16294089
000260 fd a7 58 bd 33 1b ac bd 27 70 e5 be 5f 20 c9 bd
       -0.05289458 -0.08403625 -0.44812128 -0.098206274
000270 59 a2 5c bd 55 de fe be 69 2e af be 85 1b 56 be
       -0.053865764 -0.49779 -0.34215096 -0.20908935
000280 0e 2f c5 be e9 26 b1 be fc 74 fd be 23 0e e5 be
       -0.38512462 -0.346 -0.49503314 -0.44737348
000290 91 03 2b 3e db 43 31 3e 29 68 c7 3c 6b 26 3c 3e
       0.16700579 0.17311041 0.02434166 0.1837403
0002a0 4c dd ed be 2f fa e6 be 93 14 cc bd 3e 3d c7 be
       -0.464579 -0.4511275 -0.09964862 -0.38913912
0002b0 49 4e 12 3e 52 52 7b 3d 7a fa df be eb 2a d0 be
       0.14287676 0.061357804 -0.43745786 -0.40657744
0002c0 2e fa e1 be a5 b5 da be f1 f7 7e be a5 a6 17 3c
       -0.44136184 -0.4271671 -0.2489927 0.00925604
0002d0 0c a0 2c bd f2 96 8d be 2f ed 01 bf aa b6 59 be
       -0.04214482 -0.27654225 -0.5075254 -0.21261087
0002e0 da 61 dc bd c3 d0 00 be eb bd 3d be 19 1a ad bd
       -0.10760851 -0.12579636 -0.18529479 -0.08452243
0002f0 8c ee 34 be 34 fd b9 bd 14 ad ec bc 70 0f 80 be
       -0.17669123 -0.09081498 -0.028891124 -0.25011778
000300 d5 ce 27 bf 0b b7 18 bf 42 69 05 3f 0e 48 ee 3d
       -0.65549976 -0.596543 0.52113736 0.11634837
000310 cd 32 1a 3e 5d 03 fe 3c 3e f6 4c bd 0e 79 34 bf
       0.15058441 0.031007463 -0.050039522 -0.70497215
000320 cc ab 26 bf 37 a2 0c bf 94 cc 21 bf c8 e1 21 bf
       -0.6510589 -0.5493502 -0.63202786 -0.6323514
000330 62 42 f5 be b7 d9 45 3d 9b 17 1f bf 58 69 d2 be
       -0.4790221 0.048303332 -0.62145394 -0.41095996
000340 f2 9c 6d bd 4d 4d 04 bd ac 6c 71 be 71 4d a6 be
       -0.058011003 -0.032300282 -0.23576611 -0.32480958
000350 09 6e 8f bd c5 2e a4 be f2 12 5a bd 60 be b8 3c
       -0.070034094 -0.32066932 -0.053240724 0.022551715
000360 98 0b a1 3d 8c e5 3c be ad fb 61 be 20 c8 86 be
       0.078635395 -0.1844694 -0.22068663 -0.26324558
000370 a6 09 23 bb 78 ef 91 be 0e ba 30 3e 64 66 dc bd
       -0.0024877577 -0.28503013 0.17258474 -0.10761717
000380 8f 20 2c be 29 f5 cc bd 84 f7 25 3e b2 ad 91 3f
       -0.16809295 -0.10007698 0.16207701 1.1381133
000390 c8 66 7c 3e 8d ac 05 bf 79 aa 1f be 18 61 04 bf
       0.24648583 -0.52216417 -0.15592374 -0.51710653
0003a0 3d 28 fc be cb fc eb be d7 68 d5 bd 76 cd fb be
       -0.4924945 -0.46091303 -0.10420387 -0.49180192
0003b0 74 eb b0 be 08 21 b4 bd dc 56 fb be 1f 96 04 bf
       -0.34554636 -0.08795363 -0.49089706 -0.51791567
0003c0 9e 60 b9 be 00 10 c9 be 09 25 37 bf 61 d8 68 be
       -0.36206526 -0.3927002 -0.71540886 -0.22738792
0003d0 a3 00 d9 be dd d2 3a bf 17 af af be 72 e6 5f 3d
       -0.42383298 -0.72978 -0.3431327 0.05466313
0003e0 01 03 d3 3d 64 d3 a0 be e9 df 83 be 48 99 25 bf
       0.10303307 -0.31411278 -0.25756767 -0.64687014
0003f0 47 34 2b 3d a1 f3 c3 be 79 60 fd bd 12 7e be be
       0.041797902 -0.38271812 -0.12371916 -0.3720556

conv1.bias f4 [16]
000000 51 a4 79 3c 29 67 dd bd 59 e8 a8 3e bf 76 16 be
       0.01523693 -0.10810692 0.32989767 -0.14693736
000010 44 c8 f9 3d 54 5d 7e be f0 7f 15 3e 3e e5 7e bd
       0.12196401 -0.2484029 0.14599586 -0.06223034
000020 05 c0 ac 3c 98 f1 8a 3c 12 47 ac 3e 85 34 26 3e
       0.021087656 0.016960904 0.33647972 0.16230972
000030 8d c6 d7 3b 74 92 a6 3e fe fb d9 3e 07 11 98 3e
       0.0065849484 0.3253361 0.42575067 0.2970049

conv2.weight f4 [32, 16, 4, 4]
000000 00 c4 ce 3d 86 55 80 3e 9f f3 28 be 03 2c 2b be
       0.10095978 0.2506525 -0.16499184 -0.16716008
000010 76 42 5f bc 2b 5e c1 bd e0 5e 19 3e 62 ad 54 3d
       -0.013626685 -0.09441789 0.14977598 0.051923163
000020 95 f4 5c be e3 4e cb bd 09 8d 21 3d d0 9c 9b be
       -0.21577676 -0.09927156 0.039441142 -0.30393076
000030 4b 8d 11 be 22 84 ad bb 99 5f 17 3d 1e 45 81 be
       -0.14214055 -0.0052952925 0.036956403 -0.25248045
000040 ca 7e 4a bd 27 7f 76 be 26 01 3f 3e 39 cd fd 3f
       -0.04943732 -0.24071942 0.18652782 1.9828254
000050 d9 4f 7f be 93 bf 47 3e c3 1f c9 3d 86 56 93 3e
       -0.24932803 0.19506674 0.09820511 0.2877695
000060 e6 29 bf be 61 cc 05 be 1a c4 f7 3d 70 9f 1a 3f
       -0.37336653 -0.13066246 0.1209795 0.6039953
000070 7f b8 e2 be 40 0f 5b bd db 7e e4 3c 77 7a 99 3d
       -0.44281384 -0.05348134 0.02789252 0.074940614
000080 08 06 49 bc b5 5c b7 bd 21 03 28 bd d2 5e 74 be
       -0.012269504 -0.08953229 -0.04101861 -0.23864296
000090 d1 4f 2d bd 8f e9 22 bc af e8 c6 3c 7f dd 12 be
       -0.042312447 -0.00994338 0.024280874 -0.14342307
0000a0 de 0f d4 be e6 77 a8 be 87 ba 38 be ed 55 87 be
       -0.41418356 -0.32903975 -0.18039905 -0.26432744
0000b0 74 6e 5f bd 97 3c 89 3c b7 23 e1 3b e6 68 74 ba
       -0.054548696 0.016752524 0.0068707126 -0.00093234924
0000c0 c8 67 45 bf 0c e8 55 bf 1f d5 c3 bd ed c8 b6 be
       -0.7711148 -0.835572 -0.09562134 -0.3570017
0000d0 93 7a 1b 3e 21 1d 99 3e d0 a7 d4 be a1 72 2e bd
       0.15183477 0.29905036 -0.4153428 -0.042589787
0000e0 37 1c 25 be 37 c6 3f 3e 09 99 04 3e 83 48 8d be
       -0.16124044 0.18727957 0.12949003 -0.27594385
0000f0 be f9 5e bf 4e 06 c0 3e 1a 82 80 be 5a 64 3f 3c
       -0.87099826 0.3750481 -0.2509926 0.0116816405
000100 2b e5 63 be 60 18 12 bd 5f 1a e3 bd af c4 be be
       -0.2225539 -0.035667777 -0.11089014 -0.37259433
000110 72 1f f5 be 23 b2 29 be 74 9e 81 bd ac 6f db 3c
       -0.47875553 -0.1657186 -0.06329051 0.026786648
000120 26 0c 43 3c 9e 3f 41 bd 78 3f 92 be 68 5a cf bd
       0.011904752 -0.04717981 -0.28564048 -0.101246655
000130 c9 d9 36 bd d4 cb b8 be 5a f4 a7 be fd 6f b1 be
       -0.04464129 -0.3609301 -0.32803613 -0.34655753
000140 99 3d d7 3c ba e8 85 3d a7 31 97 bd d2 18 18 bf
       0.02627449 0.0653853 -0.07382517 -0.5941287
000150 e4 f7 d9 bd 72 fb a8 3d aa 72 c6 bd 7f 57 87 bd
       -0.106429845 0.082510844 -0.09689839 -0.066084854
000160 6e 76 83 be 36 4c 8b be 5e b6 d1 bd b6 96 42 3d
       -0.25676292 -0.27206582 -0.10239862 0.04750701
000170 36 85 60 3e 5a 18 6c 3d 76 a5 b3 bd 52 4b ba 3d
       0.21925816 0.05764041 -0.087717935 0.090963975
000180 5b ec 0c be 57 7a b3 bd 3e a4 29 be 0a f8 a7 be
       -0.13762037 -0.08763569 -0.1656656 -0.32806426
000190 9d 8d 5b bd 5b e8 eb bd 7a ec a2 bd b7 f4 28 3c
       -0.05360185 -0.11518928 -0.079552606 0.010312251
0001a0 61 4d 15 be ec ac d2 bd 89 81 24 be ad 11 09 be
       -0.14580299 -0.102868885 -0.16065039 -0.13385649
0001b0 f7 19 35 bd ab 2e c6 3d 02 ff 0a 3e dc 7e 5d be
       -0.044214215 0.0967687 0.1357384 -0.21630424
0001c0 23 47 17 3e e0 a5 a7 3e 9f 1f 43 3d 7a b1 47 bf
       0.1477323 0.3274374 0.047637578 -0.7800518
0001d0 99 d1 d5 be dc 8e ed be 4f 30 8f bb 5e 79 ba 3d
       -0.41761473 -0.46398056 -0.0043697725 0.0910518
0001e0 de f5 f8 be c6 29 24 be 93 d8 96 3e 4c 2e 7e 3e
       -0.48625082 -0.1603156 0.29462108 0.24822348
0001f0 f9 dd ed bd 63 ad 8f 3e 76 aa f6 3e 42 ab 18 3e
       -0.116146035 0.2806197 0.48176926 0.1490908
000200 b7 64 26 be 18 db 6e 3d 63 1c b4 be ed db 49 bf
       -0.16249357 0.058314413 -0.35177907 -0.78851205
000210 d9 b0 21 be 96 de 8e bd b9 9d fc bb df 00 85 be
       -0.15790118 -0.06976049 -0.0077092317 -0.25977227
000220 93 1a 02 be 23 9f 2e bd 0d 36 e8 bb 84 63 8b bc
       -0.1270545 -0.042632233 -0.0070865215 -0.017015226
000230 c3 66 cf 3c 56 be 62 bd f8 ba fc 3c 45 51 10 3e
       0.025317555 -0.0553573 0.030850872 0.14093502
000240 58 66 e6 bd db 86 cb bc cc 0b d7 bd 60 5d 3b 3f
       -0.11249989 -0.024844578 -0.10500297 0.73189354
000250 b0 69 52 be ae 6f 50 be e5 6c 76 3e e6 0e e1 3c
       -0.20548129 -0.20355102 0.24064977 0.027472924
000260 87 18 88 bd f1 9f 98 bd e2 37 d2 be 04 1f 83 3d
       -0.06645303 -0.074523814 -0.4105826 0.064024
000270 d6 15 83 be 2e 1f 99 be 48 93 60 be 02 5f af bd
       -0.25602597 -0.299066 -0.21931183 -0.08563043
000280 b7 25 11 bd d4 e5 8d be fa b2 18 be 86 57 a1 3d
       -0.03543636 -0.27714407 -0.14912024 0.07878022
000290 16 f5 70 be a9 1e a1 3c 40 e2 28 3e 16 10 04 3e
       -0.23530993 0.01966794 0.16492558 0.12896761
0002a0 b6 47 15 be 31 91 22 3d 3f 75 0f be 50 77 01 3e
       -0.14578137 0.039689247 -0.1400957 0.1264317
0002b0 6b 15 f0 bc d3 a2 fb 3c dd 41 9d ba c4 1a a5 bc
       -0.029307088 0.03071729 -0.0011997778 -0.020154364
0002c0 ca c9 d0 bd fe d4 a4 bc f1 70 de 3e 14 7a 5f 3f
       -0.10194738 -0.020121094 0.43445542 0.8729565
0002d0 37 68 fa bd 20 f5 34 3d d0 34 f1 3d 0d f4 e9 3e
       -0.12226909 0.044179082 0.11777651 0.45694008
0002e0 d7 e5 8d be 02 99 a0 be 75 33 f5 bd ef 5e cc 3e
       -0.27714416 -0.31366736 -0.11972705 0.3991618
0002f0 d4 51 23 be f6 62 35 bd 60 dd 91 3c d0 6b 03 3d
       -0.15949184 -0.04428383 0.017805755 0.03208524
000300 91 5d e6 3c 67 d0 ba 3e ed 86 8d 3e 20 2d 54 3f
       0.028120788 0.36487123 0.27642003 0.82881355
000310 88 5c 71 be 00 7b 56 3e 3a 5b 89 3e d8 21 4e 3f
       -0.23570454 0.20945358 0.26827413 0.8052039
000320 92 20 8f 3b d1 23 22 3d d8 32 ef 3e 50 48 9d 3e
       0.0043678964 0.03958494 0.46718478 0.30719233
000330 e1 88 c1 3e 42 6f 0e 3e 44 f9 c1 bd 95 4c 2d 3e
       0.37799743 0.13909629 -0.09471372 0.16923745
000340 32 48 83 be 6c dd 39 be 69 11 e1 bb 49 4e af be
       -0.25641018 -0.18150872 -0.0068685305 -0.34239414
000350 7b 40 72 be 15 5e 95 be 49 56 81 be 35 66 d8 ba
       -0.2365741 -0.2917334 -0.25261143 -0.0016509952
000360 75 31 12 be 79 20 a0 be 68 fc 12 be 04 0b 18 be
       -0.14276679 -0.31274775 -0.14354098 -0.14847952
000370 25 39 e2 bc 8a 58 53 be ad 95 8f bd b5 76 18 bd
       -0.02761514 -0.20639244 -0.0701097 -0.037222583
000380 8c 9a 1f bc 9d 4a d6 3c 19 1a db 3d e9 e3 4e 3f
       -0.009741437 0.026158625 0.10698337 0.80816513
000390 44 83 c3 3d d6 2d 3b 3e 1a ac da 3d a9 64 73 3e
       0.09546521 0.18279204 0.10677357 0.23768868
0003a0 aa e2 6e 3d 9c 92 7f 3d 0d 66 1b ba 68 6b 5f 3e
       0.058321632 0.062395677 -0.00059279875 0.21818316
0003b0 6a e5 e3 3c 4e 39 16 3e ca f3 82 3d 0b ac ea 3d
       0.027819354 0.14670298 0.06394155 0.11458596
0003c0 43 9f 16 be 0e 36 6a be 89 02 56 be 96 af 1e bd
       -0.14709191 -0.22872183 -0.20899405 -0.03874167
0003d0 ea c8 9d bd b5 8a 13 be 1c 6f 8a bd 34 ab 1e be
       -0.07704337 -0.14408381 -0.06759474 -0.15494996
0003e0 0e c5 10 bd c8 39 5d be 92 65 ea be f8 d2 8a bd
       -0.035344176 -0.21604073 -0.45780617 -0.0677852
0003f0 94 aa b7 bd e7 e8 84 bd fb f2 3e 3c c0 f1 c6 be
       -0.08968082 -0.06489735 0.011654611 -0.38856316

conv2.bias f4 [32]
000000 de d4 44 3e 12 ed 11 3e 95 e6 5b 3e 8a dc a3 3e
       0.19221827 0.14250591 0.21474679 0.32004195
000010 e9 bb 7e bd 38 32 a0 3d 88 8e 9c bd bf 32 7c bd
       -0.062190924 0.078220785 -0.07644373 -0.061571833
000020 d2 d9 18 3e eb 6b a0 bd 96 8b 5a bd cd f2 ff 3d
       0.14926842 -0.07833084 -0.053355776 0.124974824
000030 3f 75 67 3c 2c 19 96 bc a3 57 ba bb c8 e7 65 3c
       0.014127075 -0.01832255 -0.0056867166 0.014032312
000040 cc ee 65 bc 3d 33 33 3e 96 05 95 3d c6 fc 22 bd
       -0.014033984 0.17500015 0.07276456 -0.039791845
000050 60 d2 16 3e cd 3f 88 3e 04 d3 2f bd 21 24 56 3e
       0.14728689 0.26611176 -0.04292585 0.2091222
000060 7b 4c 02 be d7 5f 2d 3d d8 73 66 3e e4 70 88 3e
       -0.12724487 0.042327728 0.22505128 0.2664863
000070 87 d5 b0 bc 44 e9 c8 3c 3d da d7 3d 30 77 1c 3e
       -0.021586193 0.024525292 0.105396725 0.15279841

fc1.weight f4 [64, 800]
000000 93 96 fe bc 38 37 31 3c 68 e2 90 3c d9 fd 1c 3b
       -0.031077659 0.010816388 0.017686084 0.0023955016
000010 fe 34 e1 3c ba 8b a8 3c 1b f5 94 bc 78 99 a9 3c
       0.027491089 0.02057444 -0.018183282 0.020703062
000020 e6 30 ff 3c 9b ee 05 3d b1 d3 1d bd c0 58 25 3b
       0.031151246 0.032698255 -0.038531963 0.00252299
000030 20 d6 e7 3a 78 6a f3 bc ca 20 03 bd 10 e6 f4 3b
       0.0017687716 -0.029713854 -0.032013692 0.0074737146
000040 fa 7e e8 bc 62 90 e4 3c c8 ca 2f 3c 72 f1 f6 3c
       -0.02838086 0.027900878 0.010729499 0.030144427
000050 01 97 3b bb 04 9d ff bc c6 c9 75 bc 2b d9 91 bc
       -0.002862394 -0.0312028 -0.01500172 -0.01780375
000060 00 7a 43 b9 81 e0 60 bd 90 f1 3e bd a4 94 1c 3c
       -0.00018642098 -0.054901604 -0.04661709 0.009556923
000070 d4 38 05 3c 75 8a d8 bc 7c 31 7d bc b9 cf 4e bd
       0.008131225 -0.026433209 -0.0154536925 -0.05049107
000080 a7 cc 87 bc b0 8c 06 bd bf e2 51 bd 69 1b cc bb
       -0.016577078 -0.032849014 -0.051241633 -0.0062288535
000090 b1 a4 63 3a 38 0f 28 bc 15 6c 02 bd d1 2e b2 bc
       0.0008683904 -0.010257535 -0.031841356 -0.02175084
0000a0 e3 8b 01 3d c4 16 3b bc e9 94 71 bc 54 5c a9 bc
       0.031627547 -0.011419002 -0.014744976 -0.020673908
0000b0 c7 a6 41 bd 13 79 34 bc 57 68 52 bd f4 67 62 bb
       -0.047278192 -0.0110151945 -0.051369037 -0.0034546824
0000c0 1f 7d cd bc 4d 67 30 bd 10 d0 e1 bc db 1b 96 bc
       -0.025084076 -0.043067265 -0.027565032 -0.01832383
0000d0 ac c3 76 bd a7 a5 00 3c 4f 2b 05 bc 21 fa 85 3a
       -0.0602452 0.007851995 -0.008128001 0.0010221639
0000e0 6d 8f 96 bc b0 dd 90 b9 ac 42 c8 bc 08 86 79 bd
       -0.018378938 -0.0002763099 -0.024445854 -0.060918838
0000f0 95 a6 14 bd 6d 39 48 bd 65 cb 0e bd 10 11 00 3c
       -0.036291678 -0.04888289 -0.03486194 0.007816568
000100 a3 9b 1e bd 13 b6 a8 3a 51 7b b8 bc 17 93 e6 3b
       -0.038722645 0.0012871645 -0.02251974 0.0070365774
000110 2a c9 10 bd 90 ec 95 bc d2 b5 37 bc 51 cb 54 bd
       -0.035348095 -0.018301278 -0.011212783 -0.05195171
000120 9d 6d 83 bc 61 54 eb bb 49 99 67 bc 6f b0 62 bc
       -0.016043479 -0.0071816896 -0.014135667 -0.01383601
000130 f8 c3 8f 3b 10 3c 72 bd d4 ec 64 bd 3e d7 f6 3b
       0.004387375 -0.05913931 -0.05588992 0.007532983
000140 1d cf 5d bd c6 7c ed bc 50 29 96 bc 5e 2e f9 bb
       -0.054152597 -0.02899016 -0.018330246 -0.0076044044
000150 63 ae a4 bb 05 d6 92 bc f2 73 6f bd 57 79 18 bd
       -0.0050256713 -0.017924318 -0.058460183 -0.037225094
000160 23 13 77 bd 25 65 4f bd 61 85 14 bd 73 01 ec bc
       -0.060320985 -0.05063357 -0.036260013 -0.028809285
000170 ce 05 78 3b 81 8e 7c 39 11 ae 09 b9 84 74 7a bd
       0.0037845257 0.0002408568 -0.00013130183 -0.061146274
000180 8e 9f fe 3a c4 95 6f bd 4a 10 2a bc e5 56 1d 3b
       0.0019426213 -0.058492437 -0.01037986 0.0024008092
000190 f9 a9 0f 3d a0 d2 2f 3c a4 6c fe bb 68 cc 48 bc
       0.035074208 0.010731369 -0.007764416 -0.0122557655
0001a0 11 3c 0a bd 7c 88 fd bb 22 08 5f bc 34 56 85 bc
       -0.03374869 -0.0077372175 -0.013612779 -0.016276456
0001b0 12 02 99 3c 38 6a c3 bb 02 3d 40 bc c0 0c c5 ba
       0.018677745 -0.00596359 -0.011733295 -0.0015033707
0001c0 b4 0c 4c bc 40 4a 74 ba 48 a4 49 bc 60 2a 87 bb
       -0.012454201 -0.00093189254 -0.012307234 -0.0041249245
0001d0 24 96 6c bc 54 ce 08 bd 20 a7 97 3b 06 0a 21 bc
       -0.014440093 -0.033399895 0.004628077 -0.00982905
0001e0 60 65 84 ba a6 ef 9f 3c 40 a9 2f bc 8a 98 b6 3c
       -0.0010101013 0.019523453 -0.010721505 0.022289533
0001f0 93 0f 08 3d 08 14 15 bd 64 a9 4c bd 5d 6a 5a bd
       0.033217978 -0.036396056 -0.04996623 -0.053324092
000200 c2 07 3c bd a6 04 67 3b 10 1b 35 bd 9b 77 d3 bc
       -0.045905836 0.0035250573 -0.044215262 -0.025813868
000210 c0 ca f0 bb 2f e6 8c bc 36 af 65 bd e3 43 3b bc
       -0.0073483884 -0.017199604 -0.056075297 -0.01142976
000220 79 fe ac bc 0b 89 5f bb 2b 8e 20 bd c1 5e 46 bd
       -0.021117436 -0.0034108784 -0.039198082 -0.048430208
000230 bd 5a 9c bc 11 f0 0e bd 07 42 4f 3c 51 52 18 bd
       -0.019086236 -0.034896914 0.0126500195 -0.037187878
000240 b5 db 96 bb c1 c9 a8 bc 99 bd cc bc d5 55 38 3c
       -0.004603828 -0.020604016 -0.024992751 0.011250933
000250 02 48 fa ba 7f 7c ad bb 7f 96 07 bd 4c 13 20 bc
       -0.0019094946 -0.005294382 -0.03310251 -0.009770226
000260 c8 fb 30 3c 10 a8 b7 3c 60 e6 93 ba 95 56 d1 bc
       0.010802217 0.022419006 -0.0011283867 -0.02555398
000270 cd 8d 01 3d b8 c5 2d 3c 6c db b3 3c f7 ea 04 bd
       0.031629372 0.010606222 0.021955214 -0.032450642
000280 40 f2 cb ba 4c 06 8d 3c 00 16 38 b9 5a 6b c2 3c
       -0.0015559867 0.017214917 -0.00017555803 0.02373283
000290 28 ef c1 3c b4 0d a6 bb d4 a4 e3 bc 2c 23 34 3c
       0.023673609 -0.0050675515 -0.027788557 0.010994714
0002a0 43 5e c9 bc 89 4d 8c bc 10 00 35 3b 54 79 7c bc
       -0.02458108 -0.017126815 0.0027618445 -0.015409786
0002b0 20 db 6f 3c d6 f9 ad 3c ba 00 d5 3c 42 24 eb 3c
       0.014639646 0.021237295 0.026001323 0.028703813
0002c0 f4 2d cf 3c e4 af be bc a2 17 86 3c 5c ab ba 3c
       0.025290467 -0.02327723 0.01636869 0.022786789
0002d0 00 13 05 b9 89 94 f1 bc 5b f1 88 bc 90 9b b4 bb
       -0.00012690946 -0.029489772 -0.01671665 -0.0055117086
0002e0 eb a2 04 3d 58 b0 d8 3c 44 e5 70 3c da de e3 bc
       0.032381933 0.026451275 0.014703099 -0.027816225
0002f0 a3 5d f1 bc ac 40 b0 3c 30 6d 51 3c 68 1e ee bc
       -0.029463595 0.021515213 0.01278238 -0.029067233
000300 a0 1d 3a 3c 58 92 ba 3b 30 b3 7a 3b 49 86 86 bc
       0.011359602 0.005693715 0.0038253777 -0.016421454
000310 cf 53 fa bc 3a 3e 28 bc 2c 4e f7 bb ca e9 56 bc
       -0.030557541 -0.010268742 -0.0075471606 -0.013117263
000320 2c b8 bf bc 11 e3 30 bd 65 58 a4 bc 6d ea a5 3b
       -0.02340325 -0.043185297 -0.020061681 0.005063346
000330 89 ac 1f bc 32 cc 14 bd ae f0 04 3c fa 78 4d bd
       -0.009745725 -0.03632755 0.008114023 -0.0501642
000340 34 60 38 bd f9 b5 0f bd 16 82 27 bd ba 9a 4d 3c
       -0.04501362 -0.035085652 -0.040895544 0.012549097
000350 c7 95 92 bc 5c 04 57 bd e1 06 9b bb 7a 43 c8 3c
       -0.017893685 -0.05249439 -0.0047310446 0.024446238
000360 5e 0b fa bc c4 27 34 3a 5a db 38 bc b9 5d 88 bc
       -0.030522998 0.00068723806 -0.011282766 -0.016646253
000370 6b 6c 25 3c 4b 7c 09 bd 85 41 34 bd 91 d3 82 bc
       0.01009665 -0.0335658 -0.044007797 -0.015970023
000380 07 a5 79 bc 4a 83 de 3c b6 ba 02 bc ae fb 01 bd
       -0.0152370995 0.027162213 -0.007979086 -0.03173416
000390 a2 60 c8 bc 6c 59 0b bd 14 71 b9 3c 30 80 b3 bb
       -0.02446014 -0.034020826 0.022636928 -0.0054779276
0003a0 92 d1 cb 3c 50 89 c9 3c 31 3d 03 bd 83 b0 98 bc
       0.024880204 0.024601609 -0.03204078 -0.018638855
0003b0 e0 ed 9b 3c a8 2f d5 3c 30 8c 84 3b 38 24 9d 3b
       0.019034326 0.0260237 0.004045032 0.0047955774
0003c0 c8 07 80 bc 58 43 5b 3c 04 a5 53 bc fb 41 71 ba
       -0.01562871 0.013382755 -0.012917761 -0.0009203252
0003d0 c0 60 0d bb d3 74 0b bd ce 3b fb 3c d4 8a 4b bc
       -0.002157256 -0.03404696 0.030668166 -0.012423236
0003e0 90 c0 72 bb 10 8b 12 bd 34 3b 46 bc 59 fa c7 bc
       -0.0037041046 -0.03577715 -0.012099076 -0.024411367
0003f0 43 ec fa bc 35 0e 00 bd 0c f1 b3 bc 5e b8 9a 3c
       -0.030630236 -0.03126355 -0.021965526 0.018886741

fc1.bias f4 [64]
000000 a3 38 79 bd 0c 4b b8 bc ff 85 13 bd a3 9f 5d bd
       -0.06084503 -0.022496723 -0.03601646 -0.05410732
000010 ac 23 84 bc 7f 81 05 bd 0c 42 90 3b 0b 9e 4a bd
       -0.01613029 -0.0325942 0.0044024047 -0.049467128
000020 ee 2c 22 bc 5d 23 00 bd 79 d9 72 bc 53 86 fb 3b
       -0.009898407 -0.031283725 -0.014822357 0.007675925
000030 f5 1d 8c bd 76 1f 89 3c 93 29 a9 3c 46 9e 2f 3d
       -0.06841651 0.016738635 0.020649707 0.04287555
000040 d7 59 d5 3c cb db 66 3b 4c 8f ac 3b 35 bd 64 3e
       0.026043816 0.0035226222 0.0052661058 0.22337802
000050 8d 58 3d 3e 16 b3 a8 bc 8a e1 d4 3c 35 18 92 3e
       0.1849081 -0.020593207 0.025986452 0.28534093
000060 a9 b2 08 3c f0 b9 a2 bc 9a 58 ef 3c 71 1d 46 3c
       0.008343377 -0.019864053 0.029217053 0.01209198
000070 47 63 3d bd ce 67 97 3c c3 54 2d bd 6e d0 71 bc
       -0.046237256 0.018482115 -0.042317163 -0.014759166
000080 1e ba 12 bd 0f b1 53 3b 4c 46 12 3e ac 6b d7 3b
       -0.035822026 0.003230158 0.14284629 0.006574115
000090 84 a4 2b bd 1a 3f 44 bd 31 6e b8 3c 2d 87 19 bd
       -0.04190494 -0.04791174 0.02251348 -0.03748243
0000a0 95 ea 68 bd 83 e9 e5 bc 56 3f a0 3b be 60 49 bd
       -0.05686434 -0.028065449 0.0048903627 -0.049164526
0000b0 12 5b ef bc fa 80 38 bd a6 a1 1e bd dc 7e 82 bc
       -0.02921823 -0.045044877 -0.03872838 -0.015929632
0000c0 f2 92 73 bc 49 9e 94 3c ee 00 60 bd 13 ba 71 3c
       -0.014866577 0.018141882 -0.054688387 0.014753836
0000d0 9b 39 96 bb 5e a4 13 3e 14 ba 7a bd 15 26 00 be
       -0.004584504 0.1441817 -0.061212614 -0.12514527
0000e0 13 5f 3e bb 90 ee 53 3c 7e 07 16 bd fa a7 bf 3c
       -0.0029048368 0.012935296 -0.03662824 0.023395527
0000f0 95 39 68 3c c3 9a 31 bd 64 c4 52 3d f6 8d 22 bd
       0.014173885 -0.043360483 0.051456824 -0.039686166

fc4.weight f4 [8, 64]
000000 82 3e a1 3d bb d4 90 3c d4 5e da 3d fe 36 63 bd
       0.078732505 0.017679563 0.10662618 -0.055472367
000010 d0 c4 3a 3c f0 e7 71 3d a5 76 0f 3d 90 be 5d bd
       0.011399463 0.059059083 0.035025258 -0.054136813
000020 83 aa f1 3d a1 b5 3d 3d 1a 38 32 3d e8 15 e4 3d
       0.11800101 0.046315793 0.043510534 0.11136991
000030 e1 79 48 bc 30 16 0d 3d 2e e1 64 3e cb ec ff 3d
       -0.012236089 0.034444988 0.22351524 0.124963365
000040 12 fe d2 3d 9c 5f ee bc 1a 3f c2 bc 5f 8f df bd
       0.10302366 -0.029098324 -0.02371173 -0.10916018
000050 fe 1a 8b be 5e f7 e4 bd 62 b1 45 bd 9e a7 c3 3e
       -0.2716903 -0.11179994 -0.04826487 0.3821382
000060 1b 0e a3 3d 40 68 df bc 00 88 1f 3d ef f7 d4 3a
       0.07961675 -0.02727139 0.03894806 0.0016248206
000070 4a b7 9f 3d 4f 00 2e 3d d9 dc a3 3d 0a e0 f9 3b
       0.077986315 0.042480763 0.08001108 0.0076255845
000080 00 00 f9 b8 fc 1c fc 3d 32 86 88 3d db f4 83 3a
       -0.00011873245 0.12310216 0.06666221 0.001006748
000090 cd f0 88 3d f7 a1 0d 3d 51 2e 01 be ae 8b 88 3d
       0.06686554 0.03457829 -0.12615325 0.06667267
0000a0 73 4f 82 bd 90 7a d0 3d 2a a0 9b bc b8 f3 f6 3b
       -0.0636281 0.10179627 -0.01899727 0.0075363778
0000b0 ce cc 26 bf ec 1c b6 bd e3 e1 3e ba 59 2d 83 bd
       -0.6515626 -0.08892235 -0.00072815845 -0.06405134
0000c0 8b ff 92 bc 81 44 3e 3d d7 60 5c 3d 86 37 b9 3b
       -0.017944118 0.04645205 0.05380329 0.005652371
0000d0 bf 97 9e be 45 bb f1 3e 89 70 44 bd 22 21 b3 be
       -0.30975148 0.47213188 -0.047958884 -0.34986216
0000e0 6a 16 f9 bc 4e 24 cb bd b0 11 27 3d b6 07 04 bd
       -0.030406196 -0.09919034 0.040788352 -0.032233916
0000f0 bc 07 65 3e 9d 80 01 bd 12 86 56 3d 73 c2 50 bd
       0.22366232 -0.031616796 0.052373953 -0.05096669
000100 62 7a 88 3d af ee 60 3d f0 71 1b 3d e5 66 b0 be
       0.06663968 0.054915126 0.037950456 -0.34453502
000110 31 e7 cd 3b 30 2d ab 3c 19 fc a7 bd cb df 95 3c
       0.0062836637 0.02089557 -0.08202381 0.01829519
000120 78 9b 4d 3d c4 1b 2e bd ab c8 60 3d 51 3f e2 bd
       0.050197095 -0.042506948 0.054878872 -0.11047233
000130 47 d6 94 3d b8 30 f6 bd 60 2d 01 3e 1e b1 dc 3c
       0.07267433 -0.12021011 0.12614965 0.026939925
000140 5d 48 a1 bd 3a ba 0c 3d e2 5c 03 bc 38 57 7a be
       -0.0787513 0.034357287 -0.00801775 -0.24447334
000150 f7 f6 58 bd 21 da e8 bd 3e 77 62 3d ee d7 c8 3e
       -0.0529699 -0.1136973 0.0552895 0.3922724
000160 bd f1 e9 3e 48 aa 9a bd 36 81 f0 bd 2e 02 1d bd
       0.45692244 -0.0755201 -0.11743395 -0.038332157
000170 ad 4f a6 bc de dc 1d bd 98 6d e4 3c 24 05 b4 bc
       -0.020301664 -0.038540713 0.02788429 -0.021975107
000180 b0 53 c9 bc f0 a0 91 bd 90 38 7a 3e 4f 76 74 3d
       -0.024576038 -0.071107745 0.2443564 0.05968314
000190 84 85 97 bd 4f 4b 54 bc de ad 25 3d 2a 20 b1 bd
       -0.07398513 -0.012957408 0.040449016 -0.08648713
0001a0 9b 76 86 3d a8 44 c6 bd d1 a0 39 bd b2 5f d7 3d
       0.06565591 -0.09681064 -0.045319382 0.10516299
0001b0 6a fa 4e 3e c4 7e 47 bd 73 16 ca bc d6 23 ff bd
       0.20212713 -0.048704877 -0.024668908 -0.12458007
0001c0 30 c7 05 be 87 fa be 3d 7b cd ae bd bf 2a cf bd
       -0.13064265 0.09325128 -0.08535286 -0.10115575
0001d0 1f 6b e9 bc f9 73 57 3e 64 19 7a bc e9 44 24 3e
       -0.028493462 0.21040334 -0.015264843 0.16041912
0001e0 fe 2a 68 3d d3 a7 e2 be 70 b8 8f bd 01 03 46 3d
       0.056681626 -0.44268665 -0.070176005 0.04834271
0001f0 7e a8 d2 3d ca d6 33 bd 76 1e 1e be 0c a3 ad bd
       0.102860436 -0.04390601 -0.15441307 -0.08478364
000200 5c 77 98 bd af 10 85 bd 22 d6 d8 3d f7 f3 31 be
       -0.07444641 -0.06497323 0.105877176 -0.17378221
000210 48 3f e2 3d 4b 49 81 3d 2e d4 98 3d e4 56 b7 3c
       0.11047226 0.06312808 0.07462345 0.0223803
000220 64 f9 8d 3d 52 38 5c bd ad c3 c8 bd 84 12 b0 3d
       0.06932333 -0.05376465 -0.09802947 0.085972816
000230 b8 81 d0 3d 10 47 4e 3c 43 c0 54 3d 10 19 0c 3e
       0.10180992 0.012590185 0.051941168 0.13681436
000240 03 c6 20 3d a5 fb 82 38 01 52 e7 3d a0 29 d6 bd
       0.03925134 6.2457555e-05 0.11294938 -0.10457158
000250 99 96 57 be f8 a5 53 3d c2 bd da bc a0 36 97 3e
       -0.21053542 0.051671952 -0.026701812 0.29533863
000260 b3 0b 43 be a0 bc 78 3c b6 7b 85 3d f6 61 94 3d
       -0.19047432 0.01518169 0.065177366 0.07245247
000270 b1 96 8d 3b da 7f f0 bc 75 a7 33 3d c3 e4 e0 bd
       0.0043209423 -0.02935784 0.04386087 -0.10981133
000280 e0 ae 39 bd f9 47 c4 3d 3d d1 d1 3e 3e 89 80 3d
       -0.04533279 0.0958404 0.4097995 0.06276177
000290 36 86 96 3d 1a d5 d0 bd 41 ce 8f 3d 3c 95 f4 bd
       0.073498175 -0.10196896 0.07021762 -0.11942527
0002a0 35 cc 35 bc 00 ad c4 bc d2 27 5a 3d e0 fb e9 bd
       -0.01109605 -0.024008274 0.05326063 -0.114249945
0002b0 67 49 0e bf 9c 80 41 3d 72 a2 26 bd 94 b8 48 bd
       -0.55580753 0.047241792 -0.040682264 -0.049004152
0002c0 47 52 65 bc e9 27 a8 3d 73 12 e6 bc 78 e3 4d 3d
       -0.013996667 0.08210737 -0.02808497 0.05026576
0002d0 05 0e 05 bf 9c 6a 61 3e 0a e1 59 3c f4 f6 72 bb
       -0.5197452 0.22013324 0.013298282 -0.0037073465
0002e0 0f af d2 3d 38 5d 1a be 6c a8 3f bd b9 23 d9 bb
       0.10287296 -0.15074623 -0.04679148 -0.006626573
0002f0 4b 8b db 3c f4 53 6a bd 2f d4 3e bd 04 79 a1 3c
       0.026799819 -0.05720897 -0.046589073 0.019711025
000300 00 fe 98 bd 12 4e b6 3d ec f0 37 3d 3d 1f bc be
       -0.07470322 0.089016095 0.044907495 -0.36742583
000310 62 ea d9 3d d8 81 38 bd 42 02 4e bd 13 73 ba bd
       0.10640408 -0.045045704 -0.050295122 -0.0910398
000320 b0 c4 17 3c 4e ed 89 bd 51 93 55 bb 2a 91 d3 bd
       0.009263203 -0.067347154 -0.0032589028 -0.10330422
000330 68 1e 46 3d 12 56 d6 3d 67 3a 24 be 80 e7 06 3c
       0.04836884 0.10465635 -0.16037904 0.008233905
000340 49 d5 c2 3c 65 7f 1a 3d 9c 78 e7 3d 3e 04 54 bd
       0.023783343 0.03771915 0.11302301 -0.05176186
000350 35 b5 aa be ad c0 f3 bb f4 1b ce bd 48 c8 8c 3e
       -0.33341375 -0.00743874 -0.100639254 0.27496552
000360 9c 7a 3b 3e 14 86 bf bd c1 7b de 3d 6d ba b8 3d
       0.1830849 -0.09351745 0.10863448 0.09019933
000370 e0 d8 09 3d 82 14 b7 bd 48 15 97 3d 40 55 08 3c
       0.033654094 -0.089394584 0.07377106 0.008321106
000380 48 62 01 bd 10 8a 3e bd c0 3d 84 3e a3 1a 26 3c
       -0.03158787 -0.046518385 0.25828362 0.010138187
000390 54 37 8c 3d 68 0d e9 3d 71 20 35 3d 70 3e 77 3d
       0.068464905 0.1137951 0.04422039 0.06036228
0003a0 11 98 ad bc 20 9a 00 3d 22 fb bb bd a4 58 e8 bd
       -0.021190675 0.031396985 -0.09178759 -0.11345032
0003b0 84 d2 58 3d d8 65 94 bc a5 9b 85 bd 08 b1 0d bd
       0.05293514 -0.01811497 -0.065238275 -0.03459266
0003c0 be 54 af 3d ab 1f 4d bc 29 84 f9 39 7d ed 28 bc
       0.08561085 -0.012519757 0.00047591448 -0.010310528
0003d0 0c a3 10 bc fc 5a e2 3e 45 77 26 bd c3 80 f2 bb
       -0.008827936 0.4421004 -0.040641088 -0.0074006035
0003e0 a1 f3 57 3b 04 d7 81 be 08 55 42 bd f3 3d 59 bc
       0.003295161 -0.25359356 -0.047444373 -0.013259399
0003f0 ca 44 d6 be 2a 87 34 bd 63 16 ee be f7 f8 75 bd
       -0.41849357 -0.044074215 -0.46501455 -0.060051885

fc4.bias f4 [8]
000000 49 17 e7 be bd a6 79 3e b0 35 4c be ed 82 7c 3d
       -0.45134953 0.24380012 -0.19942355 0.061648298
000010 6d b2 47 3f a3 3a 2d be 93 57 26 3f e4 79 e8 3e
       0.7800663 -0.169169 0.6497738 0.45405495

conv1.weight f4 [16, 2, 4, 4]
000000 df ae e0 be 64 da 14 bf 52 de a3 bc 7f bd fa bd
       -0.43883416 -0.5814574 -0.020003472 -0.12243175
000010 3d ca fe be fe 15 12 bf de 52 90 3e 40 f7 1d bf
       -0.4976367 -0.5706481 0.28188223 -0.617054
000020 1e 13 13 bf 7d 2f 1a be 4c a2 e8 bd 2d 46 c7 3e
       -0.57451046 -0.15057178 -0.11359081 0.38920727
000030 11 6a d8 be ad 3a a6 be c6 63 77 be 1b be a3 3f
       -0.42268422 -0.3246664 -0.24159154 1.279239
000040 5a d6 54 bd 6d 5c 9a 3d 47 ab 40 be f1 74 05 be
       -0.051962234 0.0753716 -0.18815337 -0.13032891
000050 e2 33 3f be b2 92 a6 3c 39 f5 65 bc 32 c5 85 be
       -0.18672135 0.020333622 -0.014035516 -0.2612701
000060 7e 9b bb 3d 2a 1d bb be 9c c2 e4 bb 0e 58 7d be
       0.09160517 -0.36545688 -0.006981207 -0.24740621
000070 91 c8 97 3d 71 90 ee bd 4e 85 4f be 83 56 86 be
       0.07411302 -0.11648644 -0.20265695 -0.26237878
000080 0c b2 3f 3f 5d 74 02 bf 84 94 6d 3f ab 4b 0c 40
       0.7488105 -0.50958806 0.9280474 2.1921184
000090 8a 68 3d 3e 92 1a 24 3f e3 27 27 3f a2 ef f9 3e
       0.1849691 0.64103043 0.6529524 0.48815638
0000a0 2a af 13 3f fd f7 d6 3b 85 67 43 3e 4e 75 ed 3e
       0.57689154 0.006560324 0.19082458 0.4637856
0000b0 e1 66 f0 3e 30 59 f5 3d 16 fb 6e 3e 51 80 fb 3e
       0.4695349 0.11979902 0.23337969 0.49121335
0000c0 95 f6 7f 3e 77 2e 65 bd 55 3c b5 3e 66 37 73 be
       0.24996407 -0.055952515 0.35397592 -0.23751602
0000d0 26 49 74 3e 1d c9 8a be b4 ec d0 3e 30 da 72 be
       0.23856029 -0.27106562 0.4080559 -0.23716044
0000e0 69 d0 a1 3c 79 bc 64 be a4 6f 94 3b 8f e7 e8 bd
       0.019752698 -0.22337522 0.00452991 -0.11372291
0000f0 86 c1 c6 bd 46 51 b6 3d f7 b9 23 be ae 16 59 3e
       -0.097048804 0.089022204 -0.15988909 0.21200058
000100 87 95 26 bd 0f b3 27 3d 09 37 d3 3e 5b 72 d7 3e
       -0.040669944 0.040942248 0.41252926 0.42079434
000110 8d e7 00 3e 25 b5 4f bd 1d 00 5f bf 77 ef 49 bf
       0.1258833 -0.050709862 -0.8710955 -0.7888102
000120 ac 64 60 bf f9 dd 1c bf 7b d7 5a bf 0f 70 5e bf
       -0.87653613 -0.61276203 -0.8548505 -0.8688974
000130 41 82 5d bf 73 71 35 bf 2a 97 d0 be 5b fe f1 be
       -0.86526877 -0.70876235 -0.4074033 -0.4726437
000140 ce 23 33 be 00 f6 a0 3e 99 27 cb bc 07 5d 88 be
       -0.17494127 0.31437683 -0.024799155 -0.26633474
000150 30 96 24 be 2b 13 ce bd 73 b8 07 be ea 09 56 be
       -0.16072917 -0.1006225 -0.13253956 -0.2090222
000160 79 d1 82 be f6 75 81 be ec 7e c0 bd cb 80 88 be
       -0.2555044 -0.2528531 -0.093992084 -0.2666076
000170 33 96 2b 3e ff d1 7c 3e 02 bb de bc 0c 0e 3b 3e
       0.16756515 0.24689482 -0.027188782 0.18267077
000180 33 bb 0e 40 ab 58 70 3e 26 a8 61 be cf 03 62 3e
       2.2301757 0.23471324 -0.220368 0.22071765
000190 1b 40 93 3e a0 5d af be 67 46 9c 3d b2 8a e4 3e
       0.28759846 -0.34251118 0.07630616 0.44637066
0001a0 15 39 59 bf a6 8d 51 3e 4f ce 8e be ba c0 26 bf
       -0.84852725 0.20464191 -0.27891776 -0.6513783
0001b0 94 b6 2f 40 79 48 b2 3e 5b a0 91 3f 60 86 e2 3d
       2.7455187 0.34820917 1.1377062 0.11060786
0001c0 03 47 10 be 27 a3 27 be 46 d2 fe be 4c 8b 42 bf
       -0.14089589 -0.16370831 -0.497698 -0.759938
0001d0 ed d8 1f 3e 2a a2 81 3e b8 22 6d be 0d 59 4c be
       0.15610094 0.25319034 -0.23157775 -0.19955845
0001e0 7d 70 71 bb b0 fa 15 bf 5a ff a0 3d a3 af 03 3d
       -0.003684073 -0.58585644 0.078612044 0.032149922
0001f0 fd 35 8a bc e1 79 97 bd cb fb 84 3d 98 5e 3e 3c
       -0.016871447 -0.073962934 0.06493338 0.011619233
000200 02 8c 2c 3f 13 51 02 bf c5 b9 02 bf 8d ef 01 bf
       0.67401135 -0.5090496 -0.5106471 -0.5075615
000210 d6 28 0f bf 1a 92 0e bf 0b ca 0a bf 97 c6 13 bf
       -0.55921686 -0.55691683 -0.54214543 -0.577249
000220 a3 10 11 bf 12 0c 0c bf 8a 6d fd be 49 a8 10 3f
       -0.5666601 -0.5470592 -0.49497634 0.5650678
000230 d5 69 37 bf 37 2b 82 be 60 ec df be 48 10 2a 3f
       -0.7164586 -0.25423595 -0.43735027 0.66431093
000240 e7 83 9d be 55 34 9b be 36 ca 40 bf 9e 5d e8 bd
       -0.30764696 -0.30313364 -0.7530855 -0.11345981
000250 51 73 06 be 43 05 ba bc f1 17 83 be 4c ee 20 be
       -0.13129927 -0.022707587 -0.25604203 -0.15715903
000260 4d 8c 5e bd 4c 22 a9 bd e8 ed ea be bc ca 08 be
       -0.05433302 -0.08258495 -0.45884633 -0.13358587
000270 f2 ca 9d bd c1 06 ff be 5b 87 98 be 61 74 3c be
       -0.07704724 -0.4980984 -0.29790768 -0.1840377
000280 0e 2f c5 be e9 26 b1 be fc 74 fd be 23 0e e5 be
       -0.38512462 -0.346 -0.49503314 -0.44737348
000290 91 03 2b 3e db 43 31 3e 29 68 c7 3c 6b 26 3c 3e
       0.16700579 0.17311041 0.02434166 0.1837403
0002a0 4c dd ed be 2f fa e6 be 93 14 cc bd 3e 3d c7 be
       -0.464579 -0.4511275 -0.09964862 -0.38913912
0002b0 49 4e 12 3e 52 52 7b 3d 7a fa df be eb 2a d0 be
       0.14287676 0.061357804 -0.43745786 -0.40657744
0002c0 2e fa e1 be a5 b5 da be f1 f7 7e be a5 a6 17 3c
       -0.44136184 -0.4271671 -0.2489927 0.00925604
0002d0 0c a0 2c bd f2 96 8d be 2f ed 01 bf aa b6 59 be
       -0.04214482 -0.27654225 -0.5075254 -0.21261087
0002e0 da 61 dc bd c3 d0 00 be eb bd 3d be 19 1a ad bd
       -0.10760851 -0.12579636 -0.18529479 -0.08452243
0002f0 8c ee 34 be 34 fd b9 bd 14 ad ec bc 70 0f 80 be
       -0.17669123 -0.09081498 -0.028891124 -0.25011778
000300 d5 ce 27 bf 0b b7 18 bf c1 d3 01 3f a3 1a fc 3d
       -0.65549976 -0.596543 0.50713736 0.12309768
000310 5b e5 15 3e 84 a0 ef 3c b7 36 91 bd 0e 79 34 bf
       0.14638273 0.029251345 -0.07090514 -0.70497215
000320 cc ab 26 bf 37 a2 0c bf 94 cc 21 bf c8 e1 21 bf
       -0.6510589 -0.5493502 -0.63202786 -0.6323514
000330 62 42 f5 be 45 7d da 3c 9b 17 1f bf 58 69 d2 be
       -0.4790221 0.026671061 -0.62145394 -0.41095996
000340 30 39 81 bd e9 f6 1e bd 7b 1c 72 be a4 31 a2 be
       -0.06309736 -0.03880969 -0.23643677 -0.31678498
000350 08 6c 7a bd c3 e5 b4 be d0 2a 39 bd f9 77 af 3c
       -0.061138183 -0.35331544 -0.045206845 0.021419512
000360 4b 13 9e 3d 68 ac 3d be 1e a9 6a be c1 7a 86 be
       0.077185236 -0.18522799 -0.22916076 -0.2626553
000370 b9 33 8a 39 d2 89 94 be 7a 1e 2d 3e 19 63 f0 bd
       0.00026359948 -0.290114 0.16906157 -0.117376514
000380 8f 20 2c be 29 f5 cc bd 5d 5e f5 3d 65 02 8f 3f
       -0.16809295 -0.10007698 0.11980889 1.1172606
000390 12 64 41 3e 8d ac 05 bf 79 aa 1f be 18 61 04 bf
       0.1888583 -0.52216417 -0.15592374 -0.51710653
0003a0 3d 28 fc be cb fc eb be d7 68 d5 bd 76 cd fb be
       -0.4924945 -0.46091303 -0.10420387 -0.49180192
0003b0 74 eb b0 be 08 21 b4 bd dc 56 fb be 1f 96 04 bf
       -0.34554636 -0.08795363 -0.49089706 -0.51791567
0003c0 e4 d5 bb be 18 4a bf be 22 77 32 bf 36 42 81 be
       -0.36686623 -0.37361217 -0.6971303 -0.25245827
0003d0 bd 1d db be 99 6e 34 bf e5 77 b7 be c1 f5 15 3d
       -0.42796126 -0.7048126 -0.3583366 0.036611322
0003e0 41 99 dc 3d 1e f8 a4 be e9 82 6a be c1 0a 23 bf
       0.10771418 -0.32220548 -0.22901501 -0.63688284
0003f0 47 f5 6b 3d 50 1c c2 be 58 09 0d be 2c 51 c9 be
       0.05760696 -0.37912226 -0.13773096 -0.39319742

conv1.bias f4 [16]
000000 43 18 81 3c 84 eb cf bd 3e 9b a6 3e 0c 4d 1c be
       0.01575864 -0.10152343 0.32540315 -0.15263766
000010 a7 1a f3 3d 54 5d 7e be 6b dd 11 3e 9f d5 7c bd
       0.11870318 -0.2484029 0.1424462 -0.061727162
000020 b7 a7 8b 3c f4 80 ba 3c 2e 56 ae 3e f4 5e 2e 3e
       0.017047746 0.022766568 0.34050125 0.17028409
000030 9d e4 41 3c 84 41 a8 3e bf e6 d9 3e ea 64 95 3e
       0.011834291 0.32862484 0.42558858 0.29178554

conv2.weight f4 [32, 16, 4, 4]
000000 d3 1a a1 3d 8f d8 63 3e 97 a8 31 be 0c b4 3e be
       0.078664444 0.2225058 -0.17349468 -0.1862337
000010 c6 57 5a bd 21 7a e1 bd be cc 26 3e 42 96 d2 3d
       -0.053306364 -0.11009622 0.1628904 0.10282566
000020 4d f5 63 be 1c 57 cb bd 15 7a 21 3d 34 8a 92 be
       -0.22261544 -0.09928724 0.039423067 -0.28621066
000030 47 c7 1e be 3a fc b9 bb 78 80 58 3c 01 c0 81 be
       -0.15505706 -0.0056758197 0.013214223 -0.253418
000040 c9 e8 45 bd 25 7e 7d be 08 16 36 3e 11 3c fe 3f
       -0.048317704 -0.24755152 0.17781842 1.9862081
000050 06 0a 86 be 0a 1b 3c 3e 23 5b 93 3d 1f cb 8e 3e
       -0.26179522 0.1836969 0.07195117 0.27889344
000060 c4 6b cc be dd 20 1c be 4d e9 b6 3d 21 fa 15 3f
       -0.3992597 -0.15246911 0.08931217 0.5858479
000070 7a 63 eb be 5c 3d 99 bd 86 1a 82 3c 14 2c 91 3d
       -0.45974332 -0.074824065 0.015881788 0.07088485
000080 9c d9 48 bc 1f 5a bc bd 67 ed 17 bd c2 83 6e be
       -0.012258913 -0.09196877 -0.03709164 -0.23292449
000090 fb 6f 1b bd e1 58 dc bb 76 ee e6 3c f9 cb 12 be
       -0.03794859 -0.0067244624 0.028189879 -0.14335622
0000a0 52 2a d5 be 6a ff a5 be d5 d9 36 be af 29 8e be
       -0.4163385 -0.32421428 -0.17856534 -0.27766177
0000b0 3d f7 5e bd 64 d9 7a 3c 38 d5 2b 3c ea 0e 55 ba
       -0.054435004 0.015310619 0.010487847 -0.00081275275
0000c0 9a c8 4c bf 66 31 52 bf 29 b7 e2 bd 6a cd bc be
       -0.79993594 -0.82106626 -0.11070091 -0.36875468
0000d0 24 de 1b 3e a0 84 93 3e b9 1d e4 be 59 0e 91 bd
       0.15221459 0.28812122 -0.44553927 -0.07082815
0000e0 64 03 02 be 89 d3 4f 3e f1 46 f0 3d ea a4 91 be
       -0.12696606 0.20295538 0.11732281 -0.28446132
0000f0 7a be 62 bf 3b b5 bf 3e 59 31 81 be 56 d2 07 3a
       -0.88571894 0.37442955 -0.25232962 0.0005181184
000100 9b d4 78 be bf 9b 4d bd 3d 16 b0 bd 17 c0 c6 be
       -0.24299853 -0.05019736 -0.085979916 -0.38818428
000110 ac 81 f8 be f2 33 1c be 37 74 2e bd 97 31 48 3d
       -0.48536432 -0.1525419 -0.0425913 0.048875418
000120 8a 8d ee bb a1 a5 b7 bc 52 41 8c be 59 a4 c4 bd
       -0.0072800564 -0.022417845 -0.27393585 -0.09601659
000130 9f c5 84 bd 90 b4 ad be 10 be ad be 06 b0 bc be
       -0.06483006 -0.3392682 -0.3393407 -0.36853045
000140 99 3d d7 3c ba e8 85 3d a7 31 97 bd d2 18 18 bf
       0.02627449 0.0653853 -0.07382517 -0.5941287
000150 e4 f7 d9 bd 72 fb a8 3d aa 72 c6 bd 7f 57 87 bd
       -0.106429845 0.082510844 -0.09689839 -0.066084854
000160 6e 76 83 be 36 4c 8b be 5e b6 d1 bd b6 96 42 3d
       -0.25676292 -0.27206582 -0.10239862 0.04750701
000170 36 85 60 3e 5a 18 6c 3d 76 a5 b3 bd 52 4b ba 3d
       0.21925816 0.05764041 -0.087717935 0.090963975
000180 0d 94 0a be 8b 9b b7 bd a0 6e 2b be 14 b6 9f be
       -0.1353304 -0.08965214 -0.16741419 -0.31193602
000190 a4 16 4c bd e9 9c d1 bd 8f d4 98 bd 3a 79 25 3c
       -0.04982628 -0.10235006 -0.07462417 0.010099703
0001a0 de 53 16 be df ff da bd b2 1b 27 be 50 68 0d be
       -0.1468043 -0.10693335 -0.16319159 -0.13809323
0001b0 4d 0f 39 bd 7c f0 c2 3d 5a 95 03 3e 0e 55 68 be
       -0.045180608 0.09518525 0.12849942 -0.22688696
0001c0 dd 11 17 3e d6 1c 8d 3e d2 0e 71 3d ff 87 39 bf
       0.14752908 0.27561063 0.058852024 -0.7247314
0001d0 5a f4 d1 be aa 2b f6 be dd 19 9b bc 19 7a bc 3d
       -0.41006738 -0.48080188 -0.018933231 0.09202976
0001e0 72 ca f9 be 24 30 33 be 39 ae 88 3e bf 24 6b 3e
       -0.48787266 -0.17498833 0.2669542 0.22963236
0001f0 21 00 d7 bd b6 19 94 3e e6 1c f3 3e 9a fe 1d 3e
       -0.104980715 0.28925866 0.47482985 0.15429154
000200 92 0c 2e be f0 4b 56 3d 85 4a b6 be ff 1c 46 bf
       -0.16996983 0.052318513 -0.3560373 -0.77387995
000210 52 21 20 be a0 93 88 bd 9f 9e 90 bc c5 db 8a be
       -0.1563771 -0.06668782 -0.017653761 -0.27120796
000220 5f 9d 07 be 9f 58 36 bd f4 06 be bc 7a 02 36 bd
       -0.13243626 -0.04451811 -0.023196675 -0.044435956
000230 bc 7a 8e 3c d4 d2 90 bd 84 90 c4 3c 44 c1 f7 3d
       0.017392509 -0.07071462 0.023994692 0.12097409
000240 c6 cf f8 bd 47 e6 12 bd 08 0a d6 bd 6a f4 33 3f
       -0.12149005 -0.03586414 -0.10451132 0.7029482
000250 2c e8 65 be fd 00 65 be 95 bf 77 3e 2d b9 49 3d
       -0.22451848 -0.22363658 0.24194176 0.049248863
000260 7f 51 a3 bd 62 a4 9f bd fc a3 d5 be 8e 17 35 3d
       -0.079745285 -0.077950254 -0.41726673 0.044211917
000270 2d 07 88 be 4a cf 9b be 0e 4c 72 be f7 e5 c4 bd
       -0.26567975 -0.30431587 -0.23661825 -0.09614175
000280 d3 e6 24 bd 06 2a 92 be fa 02 1f be ea 07 8f 3d
       -0.040259194 -0.28547686 -0.15528479 0.06983931
000290 af 79 8c be b8 d3 8f 3c bc 79 2d 3e 93 c8 0a 3e
       -0.27436587 0.01755701 0.16940969 0.13553075
0002a0 94 52 07 be bc 44 4b 3d 31 fa 0f be e3 95 03 3e
       -0.13215095 0.049626097 -0.14060284 0.12850146
0002b0 58 69 22 bd 62 d2 18 3d 3c 3a 29 bc fb fb b3 bc
       -0.039651245 0.03731001 -0.010328826 -0.02197074
0002c0 b4 e5 e7 bd 51 bb 49 bd 1b 00 d4 3e 32 98 5f 3f
       -0.11323109 -0.049250904 0.4140633 0.87341607
0002d0 07 97 0d be ef 07 01 3d 56 03 be 3d f8 a4 e3 3e
       -0.13827144 0.031501707 0.0927798 0.444618
0002e0 c6 4b 8f be 85 8d a4 be b2 ce 14 be 58 77 c4 3e
       -0.27987498 -0.3213922 -0.14531973 0.38372302
0002f0 ba 53 3e be 6a 18 3c bd a8 77 55 3c 0b 27 0e 3d
       -0.18586627 -0.04592172 0.013029017 0.034705203
000300 5d c4 c1 3c f4 cc a0 3e b2 03 88 3e b0 13 54 3f
       0.023653204 0.31406367 0.2656532 0.8284254
000310 37 09 88 be 8f 4f 2c 3e 7d 22 73 3e d3 cd 4a 3f
       -0.2656953 0.16827224 0.23743625 0.7922031
000320 5f c1 73 bc b1 d5 3d 3c e3 8e e6 3e 11 0f 9c 3e
       -0.014877646 0.0115865925 0.4503089 0.30480245
000330 fc bc b4 3e 50 6d 00 3e d8 d8 b4 bd e0 88 38 3e
       0.35300434 0.125417 -0.08830422 0.18020964
000340 06 ae 86 be d5 2d 42 be 99 2c ad bb 0c c4 b0 be
       -0.26304644 -0.18962796 -0.0052848575 -0.34524572
000350 76 ec 79 be 44 60 97 be 30 0b 78 be aa 79 11 3b
       -0.24406609 -0.29565632 -0.24223018 0.0022197762
000360 01 53 19 be a5 5e 96 be ef 1e 1c be 77 69 1b be
       -0.1497307 -0.29369083 -0.15246175 -0.1517695
000370 5f e4 13 bd 0e b8 4d be 81 5b a0 bd 6c f9 1f bd
       -0.036106464 -0.20089743 -0.07829953 -0.039056227
000380 91 4d bf bb 4e 7b fb 3c 9a 36 e5 3d f2 ed 4f 3f
       -0.005838104 0.030698445 0.11192055 0.8122245
000390 fe e6 c9 3d f1 77 3e 3e 88 4e e0 3d a4 bd 76 3e
       0.098585114 0.18600442 0.10952479 0.2409578
0003a0 bb f4 78 3d d5 05 85 3d 50 47 b9 b6 f3 2b 61 3e
       0.06078027 0.06495253 -5.5217315e-06 0.21989422
0003b0 2f 9b f8 3c a6 87 19 3e 7f 29 86 3d 30 2e f2 3d
       0.030347435 0.14993152 0.065508835 0.11825216
0003c0 f8 fc 17 be 59 4a 67 be 31 04 50 be df 7d 32 bd
       -0.14842594 -0.22586955 -0.20314099 -0.04357707
0003d0 f0 4c d3 bd 21 13 11 be 84 2a 43 bd ea 95 f8 bd
       -0.10317409 -0.14167453 -0.047647968 -0.12137969
0003e0 47 d1 1c bd ff 57 54 be df 4b ec be c2 19 98 bd
       -0.03828552 -0.20736693 -0.46151635 -0.07426788
0003f0 37 7f cb bd 3f 01 46 bd a0 ab d0 ba a6 20 c9 be
       -0.09936374 -0.048341032 -0.0015920289 -0.3928272

conv2.bias f4 [32]
000000 22 f4 47 3e e5 35 12 3e 08 2c 5b 3e 3b b8 a4 3e
       0.19526723 0.14278372 0.21403515 0.32171807
000010 02 bd a4 bd d3 a7 9a 3d 88 8e 9c bd bf 32 7c bd
       -0.08043863 0.07551541 -0.07644373 -0.061571833
000020 d8 eb 15 3e 6a f9 a8 bd 96 8b 5a bd d7 45 fe 3d
       0.14640749 -0.08250697 -0.053355776 0.12415665
000030 c8 70 76 3c 2c 19 96 bc 3e 8f 18 bc c8 e7 65 3c
       0.015041538 -0.01832255 -0.009311495 0.014032312
000040 cc ee 65 bc e2 0e 37 3e 1f cc 9b 3d a2 b9 20 bd
       -0.014033984 0.17876771 0.076072924 -0.039239533
000050 af 57 18 3e 03 59 88 3e 04 d3 2f bd 95 d7 55 3e
       0.14877199 0.2663041 -0.04292585 0.2088302
000060 15 98 03 be 2a 35 1b 3d bb b9 68 3e 60 e7 88 3e
       -0.12850983 0.037892498 0.227271 0.26739025
000070 61 09 b4 bc 19 6f 2a 3d 71 34 d6 3d 91 78 1d 3e
       -0.021977128 0.041609857 0.10459221 0.15378024
