saved_models/dqn_checkpoint_ep100.pth (torch, 981377 bytes, 32 tensors)

conv1.weight f4 [16, 2, 4, 4]
-0.1479363 -0.036025647 -0.3788934 -0.764245 -0.32346666 -0.5721245 -0.18970717 -0.48490703
-0.28409547 -0.48231867 -0.29721028 -0.4193165 -0.3375531 -0.27854735 -0.13441898 -0.2495971
-0.03570513 -0.07043416 0.14801772 0.04953641 0.11407744 0.12059289 -0.17359762 0.022147318
0.08892902 -0.052142754 -0.10142754 -0.23249622 -0.17568007 -0.1012762 0.15843797 -0.1069569
-0.082672484 -0.56148857 -0.4291566 -0.5182862 -0.09702151 -0.31964022 -0.42405006 -0.2872184
-0.18805234 -0.4359911 -0.03238597 -0.20537056 -0.0953082 -0.33431727 -0.19588579 -0.1532002
-0.18988086 0.0048167403 0.12273856 -0.09226797 0.14459597 -0.11522612 -0.18424304 -0.11152639
0.12095113 -0.23725295 -0.3005418 -0.1138532 0.0046890657 0.029656803 -0.17996293 -0.17320105
0.1468852 -0.041345607 -0.1723587 0.7722519 -0.4590098 0.010795516 0.42771992 0.6873234
0.22351125 0.30283946 0.49733675 0.65232223 -0.24434753 0.24137354 0.5593482 0.95929193
-0.055769272 -0.11900668 0.06722922 -0.14105126 -0.0087021245 0.05662754 -0.17543688 -0.34408566
-0.19201472 0.076582275 -0.031557903 -0.13209175 -0.053621005 -0.049881384 -0.0645972 0.084985636
0.70080066 0.7704742 0.6480062 1.5860621 0.333783 0.33315033 0.60617256 0.63240194
0.32388645 0.4026284 0.072953604 0.7367386 0.25001505 0.35768956 0.65307826 0.76315427
0.0023020206 -0.015355349 0.207122 -0.027918026 0.00070926966 -0.107292056 -0.022895444 -0.02731076
0.18569039 -0.00958235 -0.015079088 -0.06049626 -0.039234824 0.12952407 0.14400925 -0.155168
-0.033987433 1.7266521 1.7065018 0.40645522 -0.24479705 0.89674634 0.9036522 0.8619584
0.6853021 0.38157764 0.24944666 0.5133149 0.49165174 0.55156815 -0.2387897 0.0060690637
0.14898899 -0.33527312 0.10625843 0.06681189 0.08320399 0.1897118 -0.0426082 -0.12540555
0.1869061 -0.085642606 -0.075988546 0.0019320555 0.03174453 0.007300817 0.121447764 0.038412273
0.4566225 -0.05748742 -0.78349316 1.533139 -0.018012637 -0.28021675 0.33451936 0.9413815
-0.051690295 0.12544411 0.06802577 0.6289502 0.44675446 0.6241364 0.38986266 0.7093976
0.0035863775 -0.019729301 0.11476936 -0.28786096 0.049871333 -0.23835081 -0.013686 -0.04019807
-0.15879005 -0.010663489 0.047005784 -0.26171365 0.08177027 0.13109106 -0.20233047 0.042598832
-0.41708118 -0.061600093 -0.121375844 -0.020780398 -0.53177565 -0.4091549 -0.48005533 -0.42277616
-0.28730068 -0.022061432 -0.21400535 0.046315406 -0.3118881 -0.32660285 -0.45923188 -0.010378603
-0.049011093 -0.15562305 0.04386799 0.02561122 -0.13062453 -0.12387009 -0.20545095 -0.13868822
0.06512737 0.20623481 0.017553391 -0.28122553 -0.21764913 0.15383115 -0.10132564 -0.26700917
-0.35592434 -0.3529564 -0.36406344 -0.26172143 -0.35801595 -0.16464202 0.1322589 -0.43658006
-0.07806223 -0.17807658 -0.23869884 -0.18217054 -0.3267117 -0.42300746 -0.16985424 -0.45888028
0.12393899 0.032952722 0.06929165 0.14658207 -0.065469444 -0.26574308 -0.2893472 -0.16060486
-0.0581792 -0.051058706 0.03841705 0.019395664 -0.1587611 -0.03266784 -0.017630601 -0.14320342
00000000: 9d7c 17be a18f 13bd 51fe c1be 8fa5 43bf
00000010: 6c9d a5be c076 12bf 9942 42be bc45 f8be
00000020: f674 91be 79f2 f6be f22b 98be a7b0 d6be
00000030: c3d3 acbe c29d 8ebe 21a5 09be 6296 7fbe
00000040: 8b3f 12bd c93f 90bd f591 173e b1e6 4a3d
00000050: 6fa1 e93d 68f9 f63d 93c3 31be 4b6e b53c
00000060: 6b20 b63d a493 55bd 3eb9 cfbd 7d13 6ebe
00000070: 7ae5 33be e569 cfbd 903d 223e 380c dbbd
00000080: 3150 a9bd b7bd 0fbf 6aba dbbe 68ae 04bf
00000090: 37b3 c6bd e2a7 a3be 171d d9be 4a0e 93be
000000a0: cb90 40be 3a3a dfbe 27a7 04bd a94c 52be
000000b0: f230 c3bd a22b abbe 4996 48be 83e0 1cbe
000000c0: 2170 42be bfd5 9d3b 5b5e fb3d fdf6 bcbd
000000d0: f710 143e acfb ebbd 35aa 3cbe f367 e4bd
000000e0: 3ab5 f73d 70f2 72be 9de0 99be de2b e9bd
000000f0: bca6 993b d3f2 f23c 3448 38be 9e5b 31be
00000100: 1369 163e 035a 29bd cd7e 30be 4db2 453f
00000110: 5503 ebbe addf 303c 1bfe da3e 6df4 2f3f
00000120: 22e0 643e c60d 9b3e eca2 fe3e 97fe 263f
00000130: 3d36 7abe a02a 773e 7231 0f3f 2894 753f
00000140: 526e 64bd c6b9 f3bd 79af 893d be6f 10be
00000150: 5b93 0ebc 48f2 673d baa5 33be ff2b b0be
00000160: 829f 44be 2bd7 9c3d dc42 01bd 0f43 07be
00000170: b3a1 5bbd 6c50 4cbd 894b 84bd f30c ae3d
00000180: ac67 333f cc3d 453f bce3 253f 1504 cb3f
00000190: 9be5 aa3e ae92 aa3e 202e 1b3f 18e5 213f
000001a0: 72d4 a53e 4f25 ce3e b368 953d e79a 3c3f
000001b0: f901 803e 1623 b73e 2330 273f 145e 433f
000001c0: 7fdd 163b 0095 7bbc ca17 543e 58b4 e4bc
000001d0: 48ee 393a f0bb dbbd 3a8f bbbc d1ba dfbc
000001e0: 9f25 3e3e 4aff 1cbc 470e 77bc edca 77bd
000001f0: b2b4 20bd f5a1 043e 2977 133e 5ce4 1ebe
00000200: 6836 0bbd f002 dd3f a76e da3f e61a d03e
00000210: 14ac 7abe 2b91 653f c055 673f 4ea9 5c3f
00000220: f56f 2f3f 255e c33e f26e 7f3e 9b68 033f
00000230: c7b9 fb3e 9233 0d3f 4a85 74be ffde c63b
00000240: 9290 183e eba8 abbe 059e d93d acd4 883d
00000250: da66 aa3d cf43 423e f085 2ebd 506a 00be
00000260: 5064 3f3e 6465 afbd e29f 9bbd 063d fd3a
00000270: 8d06 023d b13b ef3b 9bb9 f83d 3056 1d3d
00000280: 6dca e93e ee77 6bbd 0293 48bf e63d c43f
00000290: 3d8f 93bc 9278 8fbe 1f46 ab3e 61fe 703f
000002a0: 34b9 53bd 6c74 003e 1851 8b3d e102 213f
000002b0: 00bd e43e 67c7 1f3f 149c c73e 159b 353f
000002c0: 6e09 6b3b 589f a1bc 330c eb3d 8362 93be
000002d0: e245 4c3d 3c12 74be 3f3b 60bc bba6 24bd
000002e0: dc99 22be eab5 2ebc 2389 403d 55ff 85be
000002f0: 2c77 a73d bc3c 063e b82f 4fbe 1d7c 2e3d
00000300: aa8b d5be 6150 7cbd e693 f8bd a73b aabc
00000310: 7322 08bf c07c d1be d0c9 f5be 1e76 d8be
00000320: 1319 93be 2dba b4bc 3824 5bbe 39b5 3d3d
00000330: ccaf 9fbe 7d38 a7be 7120 ebbe 040b 2abc
00000340: dbbf 48bd a65b 1fbe ecae 333d 9fce d13c
00000350: 70c2 05be 9aaf fdbd bc61 52be 4904 0ebe
00000360: 8061 853d 382f 533e 21cc 8f3c cbfc 8fbe
00000370: 6adf 5ebe ea85 1d3e d183 cfbd 6db5 88be
00000380: b73b b6be b4b6 b4be 8666 babe 5a00 86be
00000390: de4d b7be eb97 28be e16e 073e 6c87 dfbe
000003a0: 17df 9fbd b559 36be 786d 74be ea8a 3abe
000003b0: c246 a7be 6f94 d8be 45ee 2dbe 5bf2 eabe
000003c0: bad3 fd3d 6ff9 063d c8e8 8d3d 9c19 163e
000003d0: d814 86bd 7a0f 88be 5125 94be 9a75 24be
000003e0: 504d 6ebd ef22 51bd 325b 1d3d a8e3 9e3c
000003f0: 4592 22be b7ce 05bd 0d6e 90bc eba3 12be

conv1.bias f4 [16]
0.24360184 0.13776612 0.21364556 0.0779834 -0.13414674 0.22965294 0.21566574 0.14927621
0.20463088 0.080645636 0.109701365 -0.018274488 0.048760414 -0.12758155 0.2902781 0.1645138
00000000: c372 793e 9012 0d3e e7c5 5a3e c3b5 9f3d
00000010: c35d 09be 242a 6b3e 7bd7 5c3e dddb 183e
00000020: c28a 513e 8a29 a53d 1cab e03d 61b4 95bc
00000030: 00b9 473d bda4 02be 559f 943e 4e76 283e

conv2.weight f4 [32, 16, 4, 4]
-0.0052256538 -0.049822673 0.05735614 0.06313777 0.042384077 -0.0668804 -0.017518377 0.01486034
0.024707971 -0.014271174 -0.056129277 -0.0047655664 0.0945667 0.05930285 -0.0074701677 0.08923709
0.036047887 -0.053091154 -0.27170327 0.04882641 -0.034618225 -0.067498565 -0.018917328 0.032420553
0.06981237 -0.048549503 0.012708914 -0.060056783 -0.007996675 0.05196697 -0.0023790984 0.015105011
-0.039043136 -0.03068906 0.03236321 0.035478584 0.028478622 0.057318684 -0.013183698 0.011619383
-0.012563002 0.024047645 0.06561745 -0.023576722 0.059291154 -0.075320736 -0.10055572 -0.043467846
-0.053366944 -0.10677093 -0.07290051 -0.04904207 -0.017270174 -0.0464134 -0.035150632 -0.05561829
0.011055175 0.02882298 -0.0050929626 -0.19923303 0.033924878 0.026989602 -0.035999563 -0.26668373
-0.6192756 -0.42876542 -0.2876116 -0.5442625 -0.50844055 -0.081552535 -0.13879396 -0.50228006
-0.49397764 -0.020064348 -0.067590006 -0.3563866 -0.2641438 0.032430314 -0.048807595 -0.42279255
0.0068794047 0.021159345 0.0021430221 -0.13487984 0.025760617 0.087193504 -0.020867646 0.038663276
-0.05158947 0.0019805487 0.087200776 0.003130194 0.06264504 0.09064868 -0.020153569 -0.15233836
0.033381738 0.029297512 0.12654422 0.10393626 0.023163963 0.008498901 -0.025405506 0.07328733
0.08817469 0.060250696 0.03744108 0.03317607 0.070808284 -0.021732012 -0.058954325 0.05664552
-0.0053953947 0.04053492 0.019576574 -0.011700639 0.06266822 -0.017577391 -0.006015979 -0.04154292
0.1146421 0.023371918 -0.009323655 0.10018027 0.07548471 0.000775609 0.00096236065 -0.011894195
-0.029215297 0.0020363082 0.0503124 0.050721034 0.026447011 -0.007204339 -0.12679397 -0.049728703
-0.052658036 0.07171885 0.026257336 0.03495795 0.10777887 -0.03653329 0.016055623 0.028708959
-0.05558531 0.046803653 0.015297905 -0.0054075704 -0.13462612 -0.05483443 -0.016347239 -0.058370624
-0.17712551 -0.21225217 0.07186335 -0.039111927 -0.16141929 -0.13658191 0.091047056 -0.08515877
-9.258671e-05 0.04221167 -0.03664632 0.1215759 -0.01904118 -0.13337356 0.052578956 0.011004447
0.053746413 0.044639625 -0.099140756 -0.0015600565 0.039548814 0.056260586 -0.07013544 -0.009213104
0.07250954 -0.06115967 -0.06945258 -0.05118678 -0.12364071 0.07243696 0.0065978616 0.08622825
-0.007090495 -0.35191903 -0.038526677 -0.025360225 -0.1285132 0.026106432 0.076079264 0.04012539
-0.0027037498 0.036345504 0.10491275 0.0164726 -0.030893052 -0.081788436 0.039225996 -0.07705576
0.081296474 0.0043033618 -0.3124031 0.020419523 -0.08806996 -0.045624558 0.029253893 -0.025199192
-0.10107156 -0.075593464 -0.10451037 -0.51941013 0.030472197 -0.09812427 -0.058482453 -0.31304
-0.11670214 -0.04734607 -0.11810948 -0.29538453 -0.19712771 -0.033141 -0.021616573 -0.64091134
0.105272375 0.02393552 0.04691472 0.09550175 -0.008243755 -0.018883381 0.081912726 -0.00038404635
-0.010237774 0.053985994 0.012591334 0.031505834 0.11416239 -0.0145220235 0.06816856 0.073565744
-0.0020451834 -0.028813576 -0.0004435103 0.008215208 0.05183892 -0.065724224 0.059862506 -0.0041829413
0.13034655 -0.093481 -0.027636183 0.047123212 0.06890801 0.0778829 -0.14702033 -0.12361704
00000000: f63b abbb dc12 4cbd 46ee 6a3d 604e 813d
00000010: ed9a 2d3d 97f8 88bd b382 8fbc c978 733c
00000020: 5f68 ca3c a4d1 69bc d0e7 65bd 7828 9cbb
00000030: 30ac c13d 8ce7 723d 4fc8 f4bb efc1 b63d
00000040: f3a6 133d 1c76 59bd b11c 8bbe 34fe 473d
00000050: d7cb 0dbd b03c 8abd 83f8 9abc 6acb 043d
00000060: caf9 8e3d d8db 46bd 0c39 503c 1afe 75bd
00000070: 7c04 03bc 51db 543d a6ea 1bbb 027b 773c
00000080: b2eb 1fbd a067 fbbc 498f 043d fe51 113d
00000090: 004c e93c ffc6 6a3d 7000 58bc 395f 3e3c
000000a0: 0dd5 4dbc 91ff c43c 7162 863d f823 c1bc
000000b0: 48db 723d c241 9abd 28f0 cdbd 570b 32bd
000000c0: 4c97 5abd b8aa dabd dd4c 95bd 56e0 48bd
000000d0: 2e7a 8dbc fa1b 3ebd 1cfa 0fbd 01d0 63bd
000000e0: c420 353c 2c1e ec3c dee2 a6bb be03 4cbe
000000f0: d0f4 0a3d 4c19 dd3c 4774 13bd c58a 88be
00000100: d988 1ebf 2487 dbbe d441 93be ca54 0bbf
00000110: 2929 02bf 0405 a7bd 0120 0ebe 6d95 00bf
00000120: a3ea fcbe fd5d a4bc a16c 8abd 4e78 b6be
00000130: db3d 87be a6d5 043d 79ea 47bd 4478 d8be
00000140: a16c e13b 5d56 ad3c f271 0c3b f11d 0abe
00000150: ee07 d33c 8292 b23d a0f2 aabc 625d 1e3d
00000160: 7b4f 53bd 18cc 013b 5296 b23d f123 4d3b
00000170: 0b4c 803d 04a6 b93d 1919 a5bc 96fe 1bbe
00000180: 4abb 083d 5601 f03c cf94 013e 89dc d43d
00000190: 5ac2 bd3c f93e 0b3c 351f d0bc ab17 963d
000001a0: ef94 b43d 6fc9 763d d15b 193d a1e3 073d
000001b0: ef03 913d 5507 b2bc 177a 71bd 2205 683d
000001c0: dacb b0bb f207 263d 0d5f a03c 09b4 3fbc
000001d0: 3258 803d 76fe 8fbc b121 c5bb e928 2abd
000001e0: 7ac9 ea3d 7776 bf3c 3ec2 18bc 502b cd3d
000001f0: ba97 9a3d 3d52 4b3a ee46 7c3a dfdf 42bc
00000200: eb54 efbc 9573 053b 6014 4e3d dcc0 4f3d
00000210: 67a7 d83c 6012 ecbb 47d6 01be 53b0 4bbd
00000220: f4af 57bd 55e1 923d a019 d73c 1130 0f3d
00000230: 2bbb dc3d eea3 15bd 1587 833c 0d2f eb3c
00000240: 6cad 63bd 30b5 3f3d 10a4 7a3c fd31 b1bb
00000250: 6edb 09be 119a 60bd a5ea 85bc 0916 6fbd
00000260: 6460 35be a258 59be 182d 933d d433 20bd
00000270: 194b 25be 21dc 0bbe e176 ba3d b967 aebd
00000280: 1d2b c2b8 25e6 2c3d 741a 16bd c9fc f83d
00000290: 40fc 9bbc 1493 08be 085d 573d ff4b 343c
000002a0: 3325 5c3d 0ad8 363d 4f0a cbbd cf7a ccba
000002b0: f0fd 213d 8071 663d 2ba3 8fbd 8ff2 16bc
000002c0: e27f 943d 9082 7abd 273d 8ebd 3ba9 51bd
000002d0: 5737 fdbd d459 943d e032 d83b 7098 b03d
000002e0: 6257 e8bb bb2e b4be 26ce 1dbd 3fc0 cfbc
000002f0: f798 03be 28dd d53c 72cf 9b3d 855a 243d
00000300: 6531 31bb 06df 143d 7fdc d63d 8cf1 863c
00000310: 6d13 fdbc b280 a7bd 70ab 203d 69cf 9dbd
00000320: c47e a63d 3703 8d3b 4df3 9fbe d846 a73c
00000330: 065e b4bd d1e0 3abd dca5 ef3c 896e cebc
00000340: 9bfe cebd bfd0 9abd 8809 d6bd 10f8 04bf
00000350: d4a0 f93c 61f5 c8bd 4c8b 6fbd c746 a0be
00000360: 8801 efbd f4ed 41bd 62e3 f1bd a43c 97be
00000370: d9db 49be dbbe 07bd 3d15 b1bc c412 24bf
00000380: 0b99 d73d 6c14 c43c a629 403d 6c96 c33d
00000390: d110 07bc 52b1 9abc dcc1 a73d d459 c9b9
000003a0: 56bc 27bc 6b20 5d3d e24b 4e3c 430c 013d
000003b0: f9cd e93d c8ed 6dbc f59b 8b3d a3a9 963d
000003c0: 7c08 06bb 730a ecbc f286 e8b9 1499 063c
000003d0: 0c55 543d 6c9a 86bd 6332 753d 0e11 89bb
000003e0: 9179 053e f772 bfbd 4765 e2bc 4504 413d
000003f0: a51f 8d3d 1281 9f3d 7f8c 16be ee2a fdbd

conv2.bias f4 [32]
0.10332309 0.08944274 -0.06928378 0.10006421 0.05417489 0.022239007 -0.08174611 0.18729152
-0.09198713 0.0036989478 -0.01944876 0.13452756 0.039896414 -0.08009335 0.13190831 0.11385678
0.014952432 0.003379082 0.081383824 -0.071387924 -0.029759021 0.1149574 0.0029747952 0.10377297
0.112821095 0.017545529 0.15847972 0.05239157 0.05026974 -0.031851344 0.14618519 0.024737077
00000000: 0e9b d33d c12d b73d a8e4 8dbd 77ee cc3d
00000010: 7de6 5d3d 942e b63c 816a a7bd 59c9 3f3e
00000020: c063 bcbd 0c6a 723b 0253 9fbc 98c1 093e
00000030: 6c6a 233d fb07 a4bd f912 073e be2d e93d
00000040: 0cfb 743c 9773 5d3b 90ac a63d d533 92bd
00000050: 31c9 f3bc c96e eb3d c8f4 423b ec86 d43d
00000060: bf0e e73d a4bb 8f3c 8248 223e 8b98 563d
00000070: a5e7 4d3d 8e76 02bd 92b1 153e 69a5 ca3c

fc1.weight f4 [64, 800]
0.007881062 0.022547876 -0.039281182 0.013681161 0.108998954 0.011805729 0.021964213 -0.0114121465
0.0004523124 0.023955634 0.005434009 0.012654948 -0.035217486 0.034438614 -0.0035616441 -0.00021255991
0.045141652 -0.044012222 -0.05373053 0.004688187 -0.1071299 -0.019931598 0.014576152 0.018017424
0.099597685 -0.057407886 -0.075073086 -0.037299335 0.014012352 0.07951438 -0.0042660926 -0.029702367
-0.026128428 -0.08190841 -0.01098694 -0.17803152 -0.07622995 -0.025502136 0.030090185 0.0377284
0.02822737 0.012281538 -0.08338848 -0.033177603 0.006475767 -0.08985276 -0.114121184 -0.15107521
0.009500134 0.03455494 0.0035498515 0.014990696 0.004438879 -0.032743804 -0.007937922 0.0034088858
0.007513901 -0.019763457 -0.035696696 0.0074988157 0.027457079 0.037048046 0.04026187 0.019312348
0.025924863 -0.018587774 -0.01013167 0.014441423 -0.033909034 0.018846564 0.02114417 0.013302235
-0.022941079 -0.030855171 -0.018418152 -0.03182953 0.0056917677 0.0031838147 -0.016535662 0.06181492
0.042311758 0.016663989 -0.030494772 -0.08250116 -0.00663554 0.031099474 -0.00014489402 -0.03498746
-0.041212093 0.03445787 -0.018877221 -0.07949584 -0.051120047 0.014730226 -0.01369131 0.050397906
-0.040821712 0.06812013 0.027529923 0.05558196 -0.011345893 0.017516809 -0.04238937 -0.028447658
0.04106511 -0.004808426 0.039769243 0.01084151 0.0039819116 -0.013366872 -0.09236137 -0.079765074
-0.012947047 -0.008952106 -0.045058172 -0.03437333 -0.05180542 -0.10708648 0.05238383 -0.046886403
0.043337055 -0.008836872 -0.06197539 -0.0053824442 0.06296088 0.05341972 0.075788304 0.12820661
0.16814797 0.11867165 -0.021951318 -0.0003168066 0.0493564 -0.009024755 0.127035 -0.17583974
-0.0999563 0.2990474 0.06461744 -0.106281996 -0.42926458 -0.39043704 -0.37018487 -0.061023843
0.09074474 -0.19967952 -0.2145245 -0.05640299 0.20504664 0.19124946 0.03696089 -0.032905675
0.023479853 -0.016596654 0.019316658 0.025852948 -1.1038665e-05 -0.024318568 0.026834462 -0.014333623
-0.041956812 -0.025893139 -0.05036403 -0.045999706 0.029982284 -0.04690616 0.008133059 -0.038306132
0.004259084 0.02592206 0.009396106 0.014435851 0.01674339 0.02464706 0.005120197 -0.4519356
-0.32305786 -0.13360055 -0.28915927 -0.5567888 -0.14090468 -0.14111848 -0.10079534 0.13189001
-0.110130355 -0.30183864 -0.09822466 -0.161548 -0.15610607 -0.12691568 -0.315539 -0.18826625
-0.072132856 0.14457056 -0.29708198 -0.07805807 -0.22506198 0.12409497 -0.029086558 -0.31400326
0.008012213 0.021692924 -0.025009608 -0.026801212 0.020368021 0.031379286 -0.016285716 0.02129009
-0.02825484 -0.03192416 0.023578249 0.0014674813 -0.012356818 -0.021200806 -0.010424901 -0.024212442
-0.015915912 -0.024890244 0.010333259 1.917407e-05 0.014018139 0.017831422 -0.0023369752 0.0026695207
-0.00057169795 -0.006860273 0.0011766951 -0.0034980364 -0.00056203746 -0.025683261 -0.026983809 -0.024758441
0.0066714063 0.0040087113 0.030990694 -0.022992548 -0.033703208 -0.006614607 0.030172724 0.0010413527
0.003754411 0.02506563 -0.023645319 -0.0141653195 0.036976196 0.020584036 0.0033100024 0.02475104
-0.026369596 0.015968919 0.04652247 -0.017046226 0.045447093 -0.035325594 0.009945324 0.005085654
00000000: 921f 013c 53b6 b83c 4ee5 20bd f326 603c
00000010: d83a df3d d16c 413c 4bee b33c 03fa 3abc
00000020: 5824 ed39 9b3e c43c c50f b23b b356 4f3c
00000030: 3640 10bd 810f 0d3d 796a 69bb 9ee2 5eb9
00000040: 74e6 383d 2946 34bd 8b14 5cbd 5d9f 993b
00000050: ec66 dbbd 9747 a3bc d0d0 6e3c 4799 933c
00000060: dff9 cb3d 8824 6bbd ebbf 99bd 30c7 18bd
00000070: 1094 653c 6fd8 a23d 94ca 8bbb 6152 f3bc
00000080: 490b d6bc 99bf a7bd 9102 34bc e54d 36be
00000090: 731e 9cbd dbe9 d0bc b17f f63c 1889 1a3d
000000a0: 163d e73c 8138 493c 94c7 aabd 3de5 07bd
000000b0: ac32 d43b b904 b8bd 5eb8 e9bd 76b3 1abe
000000c0: 73a6 1b3c 7b89 0d3d a0a4 683b 899b 753c
000000d0: 0474 913b 5e1e 06bd 0f0e 02bc 9d67 5f3b
000000e0: 2c37 f63b f9e6 a1bc b336 12bd a0b8 f53b
000000f0: abed e03c b1bf 173d a1e9 243d ee34 9e3c
00000100: 6160 d43c 6345 98bc 4eff 25bc b89b 6c3c
00000110: 33e4 0abd 1c64 9a3c 8a36 ad3c 9ef1 593c
00000120: eeee bbbc fcc3 fcbc aae1 96bc ae5f 02bd
00000130: 0282 ba3b 8ca7 503b cc75 87bc a431 7d3d
00000140: 184f 2d3d eb82 883c 2cd0 f9bc 5ef6 a8bd
00000150: f26e d9bb 53c4 fe3c b1ee 17b9 034f 0fbd
00000160: 03ce 28bd b223 0d3d 67a4 9abc b7ce a2bd
00000170: 4163 51bd 0c57 713c 8451 60bc 096e 4e3d
00000180: ab34 27bd 9182 8b3d 6f86 e13c e9a9 633d
00000190: 20e4 39bc 697f 8f3c 7aa0 2dbd 100b e9bc
000001a0: e433 283d 0090 9dbb 13e5 223d 97a0 313c
000001b0: b27a 823b ba00 5bbc f527 bdbd df5b a3bd
000001c0: da1f 54bc dbab 12bc eb8e 38bd 0dcb 0cbd
000001d0: ec31 54bd 2850 dbbd 6d90 563d f50b 40bd
000001e0: 3282 313d 87c8 10bc e8d9 7dbd 375f b0bb
000001f0: a2f1 803d a3ce 5a3d e636 9b3d 9848 033e
00000200: fb2e 2c3e 1f0a f33d 40d3 b3bc 1019 a6b9
00000210: f029 4a3d 91dc 13bc 7715 023e 550f 34be
00000220: e3b5 ccbd be1c 993e 2656 843d 60aa d9bd
00000230: 91c8 dbbe 5de7 c7be df88 bdbe 23f4 79bd
00000240: 61d8 b93d ca78 4cbe 4fac 5bbe d206 67bd
00000250: bff7 513e e6d6 433e 4d64 173d 1ac8 06bd
00000260: d258 c03c b5f5 87bc f83d 9e3c 90c9 d33c
00000270: b532 39b7 bc37 c7bc f2d3 db3c 93d7 6abc
00000280: e8da 2bbd d91d d4bc 834a 4ebd 306a 3cbd
00000290: 689d f53c ac20 40bd 8640 053c e4e6 1cbd
000002a0: c98f 8b3b 805a d43c 20f2 193c 5984 6c3c
000002b0: 6f29 893c a2e8 c93c 53c7 a73b 1a64 e7be
000002c0: d767 a5be 95ce 08be af0c 94be b689 0ebf
000002d0: 5149 10be 5d81 10be ca6d cebd 2d0e 073e
000002e0: 068c e1bd 988a 9abe 032a c9bd d76c 25be
000002f0: 45da 1fbe 2ff6 01be 548e a1be dec8 40be
00000300: 64ba 93bd 4e0a 143e 211b 98be e9dc 9fbd
00000310: a676 66be 8125 fe3d ef46 eebc 09c5 a0be
00000320: a845 033c 5cb5 b13c f3e0 ccbc 378e dbbc
00000330: d6da a63c 9187 003d 9f69 85bc 8e68 ae3c
00000340: b276 e7bc e8c2 02bd 2c27 c13c 8058 c03a
00000350: 4074 4abc 50ad adbc 34cd 2abc 2c59 c6bc
00000360: 1662 82bc a0e6 cbbc d44c 293c 00d8 a037
00000370: 56ac 653c 3413 923c f027 19bb 20f3 2e3b
00000380: 00de 15ba 24cc e0bb 563b 9a3a 503f 65bb
00000390: b255 13ba b465 d2bc 260d ddbc 37d2 cabc
000003a0: d09b da3b 825b 833b 32e0 fd3c de5a bcbc
000003b0: 600c 0abd 58bf d8bb ca2c f73c 007e 883a
000003c0: 900c 763b 7056 cd3c d4b3 c1bc a815 68bc
000003d0: 5a74 173d da9f a83c a0ec 583b b1c2 ca3c
000003e0: 0d05 d8bc 40d1 823c 588e 3e3d 87a4 8bbc
000003f0: bb26 3a3d 92b1 10bd b6f1 223c 8fa5 a63b

fc1.bias f4 [64]
0.08286522 -0.082030304 -0.048864424 0.08780632 0.08928223 0.028980242 -0.012884347 0.0161464
-0.042377565 0.045784455 -0.058088366 0.010645863 -0.045033388 -0.019157747 -0.015576088 -0.058576807
-0.026316393 -0.0024366246 -0.05739134 -0.036065303 -0.05573055 0.06607054 0.07344685 -0.042683497
0.09728284 -0.012901784 0.040278435 -0.012231792 -0.060946815 -0.009338454 -0.0150720915 0.07155109
-0.04356663 0.087904416 0.1172366 -0.039709605 0.019540975 0.07951811 -0.05606781 0.09404711
-0.035082106 -0.003403365 0.0007767891 0.07780697 -0.012598435 0.009147114 0.021780608 0.02923628
0.026443783 -0.026650941 0.079284236 -0.0531398 0.034111608 0.014564839 0.09680596 -0.05000281
0.012673318 -0.033347506 -0.05633584 0.06346374 -0.05590007 -0.0036882758 0.05646682 -0.008005325
00000000: 3eb5 a93d 81ff a7bd 1026 48bd cdd3 b33d
00000010: 9ad9 b63d f967 ed3c de18 53bc 7445 843c
00000020: 1994 2dbd 7b88 3b3d 11ee 6dbd fc6b 2e3c
00000030: ee74 38bd b5f0 9cbc d932 7fbc 3cee 6fbd
00000040: 7a95 d7bc c7af 1fbb 2f13 6bbd 36b9 13bd
00000050: b845 64bd fe4f 873d 4d6b 963d e4d4 2ebd
00000060: 3a3c c73d 0162 53bc 00fb 243d db67 48bc
00000070: 5ea3 79bd 5100 19bc eff0 76bc 6189 923d
00000080: ec72 32bd 3b07 b43d be19 f03d 8aa6 22bd
00000090: 6514 a03c 64da a23d 5ca7 65bd c59b c03d
000000a0: 41b2 0fbd fd0a 5fbb 6fa1 4b3a 4359 9f3d
000000b0: ab69 4ebc c7dd 153c 3f6d b23c ec80 ef3c
000000c0: a2a0 d83c 1353 dabc c65f a23d 1ea9 59bd
000000d0: 9db8 0b3d 5da1 6e3c 3442 c63d bfcf 4cbd
000000e0: c0a3 4f3c 6597 08bd 69c0 66bd 47f9 813d
000000f0: 79f7 64bd 00b7 71bb c149 673d c428 03bc

fc4.weight f4 [8, 64]
0.023250967 0.09250235 0.043562513 -0.3769037 -0.08895839 -0.073434584 0.012981391 -0.12046036
0.08083098 0.019141415 0.03834452 0.28845733 0.025874302 0.1399841 -0.046562165 0.03683125
0.099307396 -0.03392442 -0.0760426 -0.083761096 0.120414436 -0.07042901 -0.39919534 0.04066809
0.22871341 -0.036004815 -0.3260443 -0.010122087 -0.09453462 0.0026360154 0.06912429 0.023421919
0.035831764 -0.28569064 0.11967394 -0.032072544 0.09282181 0.3046951 -0.099640235 -0.21494542
0.08128446 0.026103104 0.088371105 0.32601222 0.0035001044 -0.28031048 0.062362544 0.060232714
0.017680934 -0.078954205 0.21378784 -0.07661846 0.033594422 0.0614063 0.23997203 -0.01188205
0.094011575 0.09237026 0.06743312 -0.23145999 -0.07211375 -0.03145735 -0.14152756 0.114703715
-0.31696525 -0.0068612034 0.12013714 -0.008233023 -0.2777105 -0.1665646 -0.043795347 0.11119673
0.111145526 0.10807727 -0.08964972 0.26257515 0.018277228 -0.01792464 -0.052754313 0.045078497
0.0587652 -0.10827851 -0.051634833 -0.13488933 0.04406847 0.0027519532 -0.26547894 -0.123185456
0.27140212 0.018862104 0.0031047526 -0.08935267 -0.048700396 0.072856605 0.14646901 0.06995415
-0.036886513 -0.043141313 0.24967183 -0.055240706 0.108371116 -0.5949156 0.1142018 -0.36663356
-0.09333188 -0.04008919 0.05093419 0.16040419 0.014996569 0.2368951 0.046573374 0.04188775
-0.029913738 -0.07739463 0.06945953 -0.12101485 -0.42756248 -0.09680738 -0.10813233 -0.07535216
0.027368478 0.057881102 0.029275134 0.21154194 0.026972815 -0.09745884 0.1688961 -0.09979007
-0.21427013 0.07558745 0.03881763 -0.08206126 -0.3721949 0.17914166 0.033534367 0.055152327
0.08969705 0.16414016 0.06655925 0.28133807 -0.015097918 -0.22726145 -0.1172829 0.056511927
0.08306716 -0.10639759 -0.12787269 -0.08551039 -0.019573301 -0.189728 -0.18047166 0.037209805
-0.007248181 0.082783915 -0.09137499 0.11514188 0.079544224 0.098639876 -0.2980652 0.07959958
-0.07234213 -0.40851998 0.07460597 0.031291902 -0.028826434 0.03786047 -0.0163614 -0.12402444
-0.02996713 0.08522953 -0.038039666 -0.25553 0.042436577 -0.3283454 0.11594516 0.27581975
0.00072350405 -0.032213733 0.20803419 0.0041164756 -0.020691492 0.06448209 0.1270306 0.1215501
-0.102750055 0.0720409 0.056500982 -0.4259937 -0.09399642 -0.10482763 0.16211455 -0.04151597
-0.3370666 -0.15226284 -0.075310186 0.035148922 -0.2214831 -0.20110404 -0.087991044 -0.10602322
0.10246056 -0.029928137 0.054109234 0.29160628 -0.11370488 -0.31110004 -0.048503473 0.016343039
0.062468685 0.09761326 -0.12416183 0.004399157 0.012906747 -0.2184824 -0.034948904 0.0064860866
-0.017094053 -0.09395574 -0.2682268 -0.13085146 0.05282609 0.03124921 0.0872714 0.43916315
0.103223555 -0.0017166805 0.023371277 -0.04932645 -0.08086924 -0.101477966 -0.037195474 -0.18430015
-0.016531974 -0.107375115 0.015526884 0.087885916 0.019076576 0.3298538 -0.07518341 0.26591995
0.107080586 -0.04439503 -0.19908959 -0.063730106 -0.10725505 -0.025443751 0.1251104 -0.056916043
-0.12614027 -0.08768721 0.054780282 -0.122179076 -0.07721646 -0.078323215 0.022631677 -0.05802936
00000000: d078 be3c df71 bd3d 9b6e 323d 86f9 c0be
00000010: d12f b6bd df64 96bd e6af 543c ecb3 f6bd
00000020: b68a a53d 75ce 9c3c 250f 1d3d aeb0 933e
00000030: 58f6 d33c fe57 0f3e f8b7 3ebd 5ddc 163d
00000040: ad61 cb3d 55f4 0abd 39bc 9bbd f08a abbd
00000050: d89b f63d 163d 90bd 5563 ccbe 9593 263d
00000060: d933 6a3e c979 13bd 47ef a6be 1cd7 25bc
00000070: 5e9b c1bd 00c1 2c3b 0991 8d3d 53df bf3c
00000080: 54c4 123d 0b46 92be 9c17 f53d 805e 03bd
00000090: 5c19 be3d ff00 9c3e 2e10 ccbd a71a 5cbe
000000a0: 7878 a63d 2dd6 d53c e9fb b43d 13eb a63e
000000b0: 0262 653b db84 8fbe de6f 7f3d 94b6 763d
000000c0: 9bd7 903c beb2 a1bd 33eb 5a3e 24ea 9cbd
000000d0: 4e9a 093d 2c85 7b3d 3abb 753e eeac 42bc
000000e0: 2489 c03d 9e2c bd3d 601a 8a3d d903 6dbe
000000f0: 60b0 93bd 6cd9 00bd 9aec 10be c8e9 ea3d
00000100: 4549 a2be f2d3 e0bb 760a f63d cde3 06bc
00000110: 1230 8ebe e98f 2abe c062 33bd 1cbb e33d
00000120: 44a0 e33d 9e57 dd3d 469a b7bd 4070 863e
00000130: 20ba 953c b2d6 92bc e814 58bd 3ba4 383d
00000140: c7b3 703d 20c1 ddbd 0c7f 53bd 6e20 0abe
00000150: 2481 343d 1d5a 343b dbec 87be a848 fcbd
00000160: 38f5 8a3e b384 9a3c 1b79 4b3b 88fe b6bd
00000170: 117a 47bd d835 953d f9fb 153e 1f44 8f3d
00000180: 5016 17bd f2b4 30bd f9a9 7f3e 1444 62bd
00000190: adf1 dd3d 644c 18bf a2e2 e93d 65b7 bbbe
000001a0: c924 bfbd 9034 24bd 5fa0 503d ff40 243e
000001b0: 2bb4 753c a194 723e b9c3 3e3d 7d92 2b3d
000001c0: a80d f5bc 1381 9ebd cc40 8e3d a2d6 f7bd
000001d0: 78e9 dabe f342 c6bd 7c74 ddbd 3c52 9abd
000001e0: dc33 e03c bc14 6d3d 68d2 ef3c 739e 583e
000001f0: 18f6 dc3c 8098 c7bd 19f3 2c3e bc5e ccbd
00000200: a169 5bbe 98cd 9a3d 3cff 1e3d bc0f a8bd
00000210: 5490 bebe e970 373e 555b 093d 68e7 613d
00000220: 16b3 b73d 5c14 283e 3750 883d 8b0b 903e
00000230: 425d 77bc 3ab7 68be 0432 f0bd 0d79 673d
00000240: 1d1f aa3d fbe6 d9bd 0ff1 02be 1220 afbd
00000250: 3058 a0bc 0f48 42be 90cd 38be 4f69 183d
00000260: 2682 edbb 9d8a a93d d022 bbbd 82cf eb3d
00000270: 15e8 a23d b403 ca3d 009c 98be 1b05 a33d
00000280: 1c28 94bd 8829 d1be 04cb 983d f02b 003d
00000290: 6a25 ecbc 9513 1b3d 5808 86bc 8700 febd
000002a0: a07d f5bc d28c ae3d 7bcf 1bbd d4d4 82be
000002b0: fad1 2d3d e31c a8be a874 ed3d 3f38 8d3e
000002c0: 89a9 3d3a 8cf2 03bd ea06 553e 80e3 863b
000002d0: 3481 a9bc 300f 843d 4f14 023e 42ef f83d
000002e0: 9f6e d2bd 2e8a 933d 936d 673d d91b dabe
000002f0: 3281 c0bd deaf d6bd 5b01 263e a60c 2abd
00000300: fe93 acbe caea 1bbe 3a3c 9abd 51f8 0f3d
00000310: 77cc 62be 38ee 4dbe a634 b4bd b422 d9bd
00000320: d8d6 d13d da2b f5bc a5a1 5d3d 6b4d 953e
00000330: 1bde e8bd 8148 9fbe 94ab 46bd d6e1 853c
00000340: 2adf 7f3d 76e9 c73d 8f48 febd ce26 903b
00000350: d276 533c dab9 5fbe 9526 0fbd 3d89 d43b
00000360: d408 8cbc de6b c0bd 0655 89be edfd 05be
00000370: 2c60 583d 58fe ff3c 59bb b23d fed9 e03e
00000380: df66 d33d 3d02 e1ba 1f75 bf3c 880a 4abd
00000390: c69e a5bd aed3 cfbd 485a 18bd 2eb9 3cbe
000003a0: 106e 87bc 7ce7 dbbd 7964 7e3c 88fd b33d
000003b0: 7b46 9c3c 99e2 a83e c2f9 99bd a926 883e
000003c0: 114d db3d 90d7 35bd 24de 4bbe ee84 82bd
000003d0: 89a8 dbbd 6a6f d0bc f11c 003e cc20 69bd
000003e0: ea2a 01be 5a95 b3bd 4a61 603d 0639 fabd
000003f0: aa23 9ebd ec67 a0bd 1166 b93c 32b0 6dbd

fc4.bias f4 [8]
0.06564778 0.107678875 -0.08903765 -0.08971437 -0.049178883 -0.046212647 0.023687128 0.1528548
00000000: 5872 863d be86 dc3d 5f59 b6bd 2bbc b7bd
00000010: cc6f 49bd 7949 3dbd 820b c23c f885 1c3e

conv1.weight f4 [16, 2, 4, 4]
-0.18541093 -0.022510277 -0.3804402 -0.764245 -0.3136611 -0.5721245 -0.2565484 -0.4709503
-0.30461508 -0.46095294 -0.2877911 -0.41237932 -0.3248122 -0.26602864 -0.16245863 -0.23501608
-0.034316793 -0.066369034 0.15321921 0.061092038 0.113319345 0.12819456 -0.1684856 0.025391009
0.087571956 -0.044637952 -0.091799974 -0.22825302 -0.17060572 -0.09539337 0.15875348 -0.09869427
-0.015584841 -0.56148857 -0.4291566 -0.5182862 -0.09541542 -0.3274421 -0.42405006 -0.29419425
-0.17923957 -0.4359911 -0.06469627 -0.19587447 -0.090335585 -0.3226377 -0.22667971 -0.14500794
-0.19369252 0.0095299985 0.12217652 -0.06930038 0.14684369 -0.11677469 -0.18661435 -0.090979435
0.123630546 -0.21347731 -0.2914271 -0.10627011 0.0037952699 0.037435316 -0.18180706 -0.16167882
0.14153698 -0.028199472 -0.1890988 0.77257633 -0.40880746 -0.0109171355 0.4296955 0.6830191
0.18553214 0.3098271 0.5138988 0.6481581 -0.23307177 0.21770085 0.58019143 0.9548733
-0.061936207 -0.12360534 0.06485186 -0.14130042 -0.015455325 0.05344005 -0.17564107 -0.33643776
-0.19663727 0.07073272 -0.032322183 -0.13072859 -0.05682468 -0.055002578 -0.055243134 0.08212665
0.706935 0.75792736 0.6430138 1.5854348 0.36457914 0.33695254 0.6025401 0.62660325
0.32346073 0.42081758 0.08342646 0.73126453 0.24713941 0.3591074 0.66893387 0.77781326
0.0009401385 -0.017149229 0.20561583 -0.036952686 -0.0011685872 -0.1095419 -0.023447149 -0.02871679
0.18456286 -0.013028017 -0.014618477 -0.05957383 -0.04152579 0.12823597 0.14379726 -0.15610783
-0.0009184047 1.699561 1.6876949 0.40422642 -0.2517456 0.9150172 0.9034101 0.84735197
0.73221314 0.41750905 0.24574196 0.49670842 0.42676097 0.5689278 -0.3644532 -0.0016941265
0.13908596 -0.32722056 0.10263279 0.09104574 0.083225824 0.19760108 -0.035999604 -0.12118005
0.19041017 -0.086278684 -0.06960886 0.010791652 0.022265708 0.0025673364 0.125547 0.050216053
0.45813584 -0.06061328 -0.747162 1.5289804 0.012667595 -0.27597284 0.32557932 0.935605
-0.043216445 0.15602705 0.084694624 0.63004535 0.44506723 0.65555173 0.4163414 0.7134811
0.001062412 -0.0227552 0.11127936 -0.2736614 0.045519337 -0.2353066 -0.010896822 -0.041073844
-0.15968852 -0.009815846 0.047868498 -0.2476253 0.08124972 0.12565014 -0.20140204 0.0424874
-0.39557377 -0.064045526 -0.085484296 -0.03038191 -0.53177565 -0.4051587 -0.48005533 -0.4371631
-0.26559767 -0.042440027 -0.24852572 0.041861106 -0.3118881 -0.31601512 -0.43973565 -0.01933077
-0.046862334 -0.1578783 0.049017604 0.044238117 -0.1292021 -0.1297429 -0.20419362 -0.12989146
0.07151391 0.20115484 0.018394493 -0.28304806 -0.20960137 0.15577741 -0.1022906 -0.260955
-0.35592434 -0.3529564 -0.36406344 -0.3245169 -0.35801595 -0.18132219 0.14793509 -0.43658006
-0.07818461 -0.17983764 -0.26345158 -0.1735229 -0.36835548 -0.42300746 -0.17901978 -0.45888028
0.12494383 0.042539433 0.071023814 0.15848535 -0.063364215 -0.28003296 -0.2893472 -0.15123256
-0.05415446 -0.039078634 0.037885524 0.019206066 -0.15807126 -0.034121133 -0.016596695 -0.1381457
00000000: 5ddc 3dbe 7967 b8bc 0fc9 c2be 8fa5 43bf
00000010: 3098 a0be c076 12bf 505a 83be 6620 f1be
00000020: 82f6 9bbe 0602 ecbe 5b59 93be 6223 d3be
00000030: c94d a6be e834 88be 8e5b 26be 0ea8 70be
00000040: c48f 0cbd 7dec 87bd 7fe5 1c3e a53b 7a3d
00000050: f913 e83d 6f45 033e 7d87 2cbe ce00 d03c
00000060: ed58 b33d 49d6 36bd a001 bcbd 29bb 69be
00000070: 44b3 2ebe 995d c3bd 4690 223e 3920 cabd
00000080: 9057 7fbc b7bd 0fbf 6aba dbbe 68ae 04bf
00000090: 2969 c3bd 7ea6 a7be 171d d9be a1a0 96be
000000a0: 948a 37be 3a3a dfbe 7a7f 84bd 5193 48be
000000b0: dd01 b9bd c530 a5be ba1e 68be f67c 14be
000000c0: 5557 46be b623 1c3c af37 fa3d 5ced 8dbd
000000d0: 315e 163e 9227 efbd d517 3fbe 6d53 babd
000000e0: 0332 fd3d cc99 5abe ef35 95be 25a4 d9bd
000000f0: 10ba 783b c655 193d a12b 3abe 228f 25be
00000100: 12ef 103e 9402 e7bc 1ea3 41be 90c7 453f
00000110: 364f d1be c9dd 32bc 0c01 dc3e 57da 2e3f
00000120: 23fc 3d3e a8a1 9e3e df8e 033f b0ed 253f
00000130: 5eaa 6ebe f9ec 5e3e 6d87 143f 9472 743f
00000140: d2b0 7dbd cc24 fdbd 0dd1 843d 0fb1 10be
00000150: 5538 7dbc f4e3 5a3d 41db 33be 9241 acbe
00000160: 485b 49be 51dc 903d 4464 04bd b7dd 05be
00000170: ffc0 68bd 624a 61bd a046 62bd 0432 a83d
00000180: b1f9 343f 8707 423f 8d9c 243f 87ef ca3f
00000190: 1eaa ba3e 0b85 ac3e 1140 1a3f 1269 203f
000001a0: a59c a53e 6775 d73e 7edb aa3d 2734 3b3f
000001b0: 1d12 7d3e eddc b73e 403f 2b3f c51e 473f
000001c0: a073 763a 8a7c 8cbc f58c 523e b35b 17bd
000001d0: 482b 99ba 8157 e0bd 3c14 c0bc 793f ebbc
000001e0: 0cfe 3c3e 7773 55bc 5682 6fbc b003 74bd
000001f0: f216 2abd 4a50 033e 973f 133e bbda 1fbe
00000200: 19c1 70ba 378b d93f 6306 d83f c4f6 ce3e
00000210: cde4 80be 913e 6a3f e245 673f 0fec 583f
00000220: 5272 3b3f bfc3 d53e c8a3 7b3e 9150 fe3e
00000230: 6a80 da3e 41a5 113f 9c99 babe 740d deba
00000240: 8d6c 0e3e 7489 a7be 2431 d23d 3076 ba3d
00000250: 4d72 aa3d f057 4a3e 5274 13bd 3f2d f8bd
00000260: e2fa 423e e1b2 b0bd 178f 8ebd 78cf 303c
00000270: 9366 b63c c240 283b 658f 003e 59af 4d3d
00000280: c890 ea3e a145 78bd 0246 3fbf a1b5 c33f
00000290: bf8b 4f3c 504c 8dbe 55b2 a63e cf83 6f3f
000002a0: ba03 31bd 8ec5 1f3e 6074 ad3d a74a 213f
000002b0: dadf e33e 3dd2 273f b32a d53e b3a6 363f
000002c0: a240 8b3a 1d69 babc 6fe6 e33d 591d 8cbe
000002d0: 7c72 3a3d 37f4 70be 9688 32bc 0c3d 28bd
000002e0: 6385 23be a4d2 20bc c211 443d 7d91 7dbe
000002f0: 4166 a63d 6eaa 003e 563c 4ebe 4507 2e3d
00000300: a588 cabe 4d2a 83bd 6412 afbd 7ce3 f8bc
00000310: 7322 08bf f670 cfbe d0c9 f5be d8d3 dfbe
00000320: 6bfc 87be 98d5 2dbd 877d 7ebe 8d76 2b3d
00000330: ccaf 9fbe bccc a1be 0825 e1be 905b 9ebc
00000340: b8f2 3fbd d9aa 21be afc6 483d 0733 353d
00000350: 8e4d 04be 53db 04be 2218 51be 4402 05be
00000360: e375 923d 89fb 4d3e 0cb0 963c adeb 90be
00000370: bea1 56be 1d84 1f3e bc7d d1bd e59b 85be
00000380: b73b b6be b4b6 b4be 8666 babe 1427 a6be
00000390: de4d b7be 86ac 39be 4c7c 173e 6c87 dfbe
000003a0: 411f a0bd 5c27 38be 20e3 86be fdaf 31be
000003b0: 1799 bcbe 6f94 d8be f650 37be 5bf2 eabe
000003c0: 8de2 ff3d d43d 2e3d ef74 913d fc49 223e
000003d0: 19c5 81bd 7b60 8fbe 5125 94be b5dc 1abe
000003e0: 11d1 5dbd eb10 20bd da2d 1b3d 0a56 9d3c
000003f0: 6fdd 21be 9ac2 0bbd cbf5 87bc 1176 0dbe

conv1.bias f4 [16]
0.2514926 0.14152221 0.21041669 0.0807936 -0.1311322 0.23231257 0.21802837 0.1488567
0.2055949 0.073315136 0.11470793 -0.020259248 0.046767343 -0.12619686 0.28257573 0.15823968
00000000: a3c3 803e 33eb 103e 7977 573e 1d77 a53d
00000010: 8547 06be 59e3 6d3e d442 5f3e e46d 183e
00000020: 7887 523e 3f26 963d feeb ea3d b9f6 a5bc
00000030: 1d8f 3f3d c039 01be c4ad 903e 9509 223e

conv2.weight f4 [32, 16, 4, 4]
-0.0012480537 -0.050631646 0.05404553 0.063844934 0.043335076 -0.06815367 -0.016647251 0.007682923
0.022623656 -0.0107778665 -0.057016574 0.0013580065 0.09817136 0.06097933 -0.00111923 0.0921969
0.040337566 -0.05055783 -0.26807556 0.04580889 -0.03324506 -0.071644425 -0.02109423 0.021814143
0.061706968 -0.050309163 0.007557119 -0.06046572 -0.000320178 0.043903 -0.00046135823 0.01904397
-0.041538186 -0.025918242 0.033325363 0.03946928 0.036357626 0.060722362 -0.014300784 0.009571832
-0.011280159 0.028985418 0.053654674 -0.023400342 0.049689054 -0.082364395 -0.096359216 -0.047329593
-0.04517034 -0.10211593 -0.074595645 -0.046860375 -0.011544123 -0.04016075 -0.02747191 -0.05786371
0.005407872 0.03112632 -0.0054753544 -0.1872784 0.020712087 0.010859003 -0.03454432 -0.2659905
-0.6038633 -0.4368837 -0.2878767 -0.55145615 -0.51004153 -0.07458918 -0.1571316 -0.53607297
-0.49177337 -0.008437 -0.06585765 -0.33872205 -0.25763932 -0.005392991 -0.055986483 -0.4297822
0.009290931 0.027086688 0.0009965634 -0.12637344 0.03274681 0.08592512 -0.016356524 0.038295705
-0.05675069 0.004183574 0.08324151 0.005461338 0.059796575 0.06099113 -0.02447949 -0.15164737
0.032547202 0.032044567 0.11595737 0.1039275 0.025297733 0.014601842 -0.022111261 0.07347004
0.08305004 0.060627293 0.032539226 0.036371153 0.07381032 -0.024716325 -0.055027433 0.055034786
-0.0014525662 0.040454853 0.019098615 -0.0105604995 0.06510035 -0.014841444 -0.008680898 -0.039740514
0.10884223 0.0142283635 -0.0137637295 0.094607666 0.080313146 0.004311993 0.0036282782 -0.007346563
-0.034049373 -0.0022424683 0.04338994 0.04449657 0.029910501 -0.0050925566 -0.12637825 -0.051404424
-0.052755143 0.07487931 0.022876067 0.037513375 0.112637885 -0.03800497 0.020236127 0.026276052
-0.04991294 0.047733903 0.019999217 -0.017908096 -0.14395227 -0.050533913 -0.010413025 -0.045282587
-0.16868842 -0.21395965 0.07933295 -0.04053881 -0.16070212 -0.15138341 0.057190217 -0.085349
0.0014565757 0.04051166 -0.033939168 0.11566998 -0.022690589 -0.12802398 0.04239769 0.0056730406
0.053615693 0.037889075 -0.105224885 -0.0049328613 0.03485522 0.060354322 -0.064069346 -0.006401468
0.08158884 -0.05799462 -0.06848418 -0.048390556 -0.12978311 0.056050044 0.004277167 0.08024241
-0.0048569315 -0.34609735 -0.033064775 -0.020963801 -0.12327006 -0.026668537 0.039696924 0.047410302
-0.008980786 0.05089469 0.09778512 0.015780758 -0.030303838 -0.076138504 0.040913492 -0.07432493
0.07786239 0.005608805 -0.29192078 0.017216753 -0.08949944 -0.06668023 0.0005564686 -0.025327839
-0.09650804 -0.08177468 -0.10324803 -0.5198815 0.031023791 -0.09818736 -0.055874635 -0.31158698
-0.10948642 -0.045902636 -0.10623438 -0.2917942 -0.23671392 -0.048263613 -0.021496136 -0.6326655
0.10417431 0.026613293 0.046823673 0.09880237 -0.004305605 -0.020698206 0.0851155 -0.001423195
-0.010516154 0.057899367 0.0117934765 0.03818213 0.11993321 -0.013780418 0.07384503 0.07414148
0.0022416692 -0.029062532 0.0026331758 0.0058059166 0.04919582 -0.07014072 0.05690407 -0.008217924
0.13191476 -0.09724271 -0.03821548 0.046507213 0.053714473 0.0774188 -0.13944182 -0.1204637
00000000: bc95 a3ba 2163 4fbd d85e 5d3d 22c1 823d
00000010: 1f80 313d 2794 8bbd d15f 88bc 08c1 fb3b
00000020: 3f55 b93c a695 30bc 368a 69bd 23ff b13a
00000030: 110e c93d 76c5 793d 20b3 92ba bad1 bc3d
00000040: 0139 253d ba15 4fbd 3341 89be 1aa2 3b3d
00000050: f92b 08bd 50ba 92bd cecd acbc 93b3 b23c
00000060: 72c0 7c3d fb10 4ebd b5a1 f73b e7aa 77bd
00000070: 90dd a7b9 a2d3 333d 74e2 f1b9 1a02 9c3c
00000080: f223 2abd 7e52 d4bc 2d80 083d 8aaa 213d
00000090: bceb 143d 03b8 783d d64d 6abc 2cd3 1c3c
000000a0: 6ad0 38bc d472 ed3c 01c5 5b3d 13b2 bfbc
000000b0: c086 4b3d aaae a8bd fb57 c5bd addc 41bd
000000c0: 8904 39bd 2822 d1bd 9ac5 98bd aaf0 3fbd
000000d0: 9023 3dbc 997f 24bd c50c e1bc 7f02 6dbd
000000e0: 8534 b13b a0fc fe3c 9a6a b3bb e9c5 3fbe
000000f0: 65ac a93c f6e9 313c 587e 0dbd e82f 88be
00000100: c996 1abf 38af dfbe 9364 93be 3b2c 0dbf
00000110: 1592 02bf 36c2 98bd 1be7 20be 143c 09bf
00000120: b8c9 fbbe 583b 0abc 60e0 86bd fa6c adbe
00000130: 4de9 83be b0b7 b0bb 1552 65bd 6a0c dcbe
00000140: fd38 183c e7e4 dd3c 1e9f 823a 0a68 01be
00000150: 8521 063d 82f9 af3d 1efe 85bc f5db 1c3d
00000160: 6973 68bd 5d16 893b 867a aa3d 06f5 b23b
00000170: 41ed 743d d6d1 793d 3689 c8bc 7349 1bbe
00000180: 3750 053d 2a41 033d 0f7b ed3d f1d7 d43d
00000190: 313d cf3c 903c 6f3c ad22 b5bc 7677 963d
000001a0: 2416 aa3d 5354 783d da47 053d ebf9 143d
000001b0: dd29 973d e479 cabc 7264 61bd 286c 613d
000001c0: 0964 beba fdb3 253d b374 9c3c f205 2dbc
000001d0: 5553 853d 8729 73bc 533a 0ebc f3c6 22bd
000001e0: ade8 de3d 151e 693c 4481 61bc aac1 c13d
000001f0: 387b a43d 9e4b 8d3b 68c8 6d3b 70bb f0bb
00000200: 5b77 0bbd 60f6 12bb a6b9 313d 0942 363d
00000210: de06 f53c 76df a6bb 4d69 01be 728d 52bd
00000220: c715 58bd 535a 993d 9766 bb3c a0a7 193d
00000230: b1ae e63d 19ab 1bbd 3cc6 a53c e040 d73c
00000240: 8371 4cbd a084 433d 66d5 a33c 00b4 92bc
00000250: 3968 13be a6fc 4ebd 649b 2abc 3c7a 39bd
00000260: a8bc 2cbe 3d18 5bbe 5079 a23d 060c 26bd
00000270: 198f 24be 4104 1bbe 4a40 6a3d 75cb aebd
00000280: 92ea be3a 8eef 253d cc03 0bbd 62e4 ec3d
00000290: 9de1 b9bc b818 03be 33a9 2d3d eae4 b93b
000002a0: 219c 5b3d 9331 1b3d 2580 d7bd d7a3 a1bb
000002b0: 59c4 0e3d 1836 773d ca36 83bd 68c3 d1bb
000002c0: 0d18 a73d c48b 6dbd 6f41 8cbd 2d35 46bd
000002d0: dde5 04be bb94 653d 7a27 8c3b 2256 a43d
000002e0: e526 9fbb ac33 b1be ee6e 07bd 47bc abbc
000002f0: 0375 fcbd fa77 dabc 3e99 223d 4e31 423d
00000300: 2624 13bc f376 503d 9143 c83d a646 813c
00000310: c13f f8bc 81ee 9bbd e894 273d ab37 98bd
00000320: 5176 9f3d 11ca b73b a476 95be 260a 8d3c
00000330: 7b4b b7bd a58f 88bd fadf 113a 547c cfbc
00000340: 02a6 c5bd 7c79 a7bd b473 d3bd f416 05bf
00000350: 9b25 fe3c 7416 c9bd cddc 64bd 5488 9fbe
00000360: 6b3a e0bd 6704 3cbd 6991 d9bd 0d66 95be
00000370: 2265 72be 11b0 45bd aa18 b0bc 5ef6 21bf
00000380: 5759 d53d 1f04 da3c 2eca 3f3d e658 ca3d
00000390: 0816 8dbb 498f a9bc 0951 ae3d 808a baba
000003a0: f24b 2cbc e327 6d3d 6d39 413c dd64 1c3d
000003b0: 8b9f f53d 43c7 61bc 103c 973d 7dd7 973d
000003c0: f8e8 123b 8c14 eebc 5c91 2c3b 8f3f be3b
000003d0: 8e81 493d f0a5 8fbd 3e14 693d 79a4 06bc
000003e0: aa14 073e 3027 c7bd d687 1cbd 597e 3e3d
000003f0: b503 5c3d bf8d 9e3d d6c9 0ebe acb5 f6bd

conv2.bias f4 [32]
0.1014317 0.09777004 -0.06928378 0.090409495 0.06020467 0.02594107 -0.08174611 0.1850356
-0.09198713 0.0036989478 -0.01944876 0.12808447 0.04023801 -0.08009335 0.12591906 0.112432644
0.032746375 0.0055963155 0.081767276 -0.071387924 -0.029759021 0.10957159 0.0029747952 0.10359106
0.10742593 0.016280022 0.15389828 0.04846015 0.051768955 -0.031443853 0.13952813 0.024737077
00000000: 6cbb cf3d a93b c83d a8e4 8dbd 9d28 b93d
00000010: 2c99 763d 5e82 d43c 816a a7bd f979 3d3e
00000020: c063 bcbd 0c6a 723b 0253 9fbc 9328 033e
00000030: 9dd0 243d fb07 a4bd edf0 003e 1643 e63d
00000040: 1021 063d 4c61 b73b 9a75 a73d d533 92bd
00000050: 31c9 f3bc 1267 e03d c8f4 423b 8d27 d43d
00000060: 2002 dc3d ae5d 853c 8397 1d3e 267e 463d
00000070: af0b 543d 45cb 00bd 76e0 0e3e 69a5 ca3c

fc1.weight f4 [64, 800]
0.007881062 0.022547876 -0.039281182 0.013681161 0.108998954 0.011805729 0.021964213 -0.0114121465
0.0004523124 0.023955634 0.005434009 0.012654948 -0.035217486 0.034438614 -0.0035616441 -0.00021255991
0.045141652 -0.044012222 -0.05373053 0.004688187 -0.1071299 -0.019931598 0.014576152 0.018017424
0.099597685 -0.057407886 -0.075073086 -0.037299335 0.014012352 0.07951438 -0.0042660926 -0.029702367
-0.026128428 -0.08190841 -0.01098694 -0.17803152 -0.07622995 -0.025502136 0.030090185 0.0377284
0.02822737 0.012281538 -0.08338848 -0.033177603 0.006475767 -0.08985276 -0.114121184 -0.15107521
0.009500134 0.03455494 0.0035498515 0.014990696 0.004438879 -0.032743804 -0.007937922 0.0034088858
0.007513901 -0.019763457 -0.035696696 0.0074988157 0.027457079 0.037048046 0.04026187 0.019312348
0.025924863 -0.018587774 -0.01013167 0.014441423 -0.033909034 0.018846564 0.02114417 0.013302235
-0.022941079 -0.030855171 -0.018418152 -0.03182953 0.0056917677 0.0031838147 -0.016535662 0.06181492
0.042311758 0.016663989 -0.030494772 -0.08250116 -0.00663554 0.031099474 -0.00014489402 -0.03498746
-0.041212093 0.03445787 -0.018877221 -0.07949584 -0.051120047 0.014730226 -0.01369131 0.050397906
-0.040821712 0.06812013 0.027529923 0.05558196 -0.011345893 0.017516809 -0.04238937 -0.028447658
0.04106511 -0.004808426 0.039769243 0.01084151 0.0039819116 -0.013366872 -0.09236137 -0.079765074
-0.012947047 -0.008952106 -0.045058172 -0.03437333 -0.05180542 -0.10708648 0.05238383 -0.046886403
0.043337055 -0.008836872 -0.06197539 -0.0053824442 0.06296088 0.05341972 0.075788304 0.12820661
0.16814797 0.11867165 -0.021951318 -0.0003168066 0.0493564 -0.009024755 0.127035 -0.17583974
-0.0999563 0.2990474 0.06461744 -0.106281996 -0.42926458 -0.39043704 -0.37018487 -0.061023843
0.09074474 -0.19967952 -0.2145245 -0.05640299 0.20504664 0.19124946 0.03696089 -0.032905675
0.023479853 -0.016596654 0.019316658 0.025852948 -1.1038665e-05 -0.024318568 0.026834462 -0.014333623
-0.041956812 -0.025893139 -0.05036403 -0.045999706 0.029982284 -0.04690616 0.008133059 -0.038306132
0.004259084 0.02592206 0.009396106 0.014435851 0.01674339 0.02464706 0.005120197 -0.4519356
-0.32305786 -0.13360055 -0.28915927 -0.5567888 -0.14090468 -0.14111848 -0.10079534 0.13189001
-0.110130355 -0.30183864 -0.09822466 -0.161548 -0.15610607 -0.12691568 -0.315539 -0.18826625
-0.072132856 0.14457056 -0.29708198 -0.07805807 -0.22506198 0.12409497 -0.029086558 -0.31400326
0.008012213 0.021692924 -0.025009608 -0.026801212 0.020368021 0.031379286 -0.016285716 0.02129009
-0.02825484 -0.03192416 0.023578249 0.0014674813 -0.012356818 -0.021200806 -0.010424901 -0.024212442
-0.015915912 -0.024890244 0.010333259 1.917407e-05 0.014018139 0.017831422 -0.0023369752 0.0026695207
-0.00057169795 -0.006860273 0.0011766951 -0.0034980364 -0.00056203746 -0.025683261 -0.026983809 -0.024758441
0.0066714063 0.0040087113 0.030990694 -0.022992548 -0.033703208 -0.006614607 0.030172724 0.0010413527
0.003754411 0.02506563 -0.023645319 -0.0141653195 0.036976196 0.020584036 0.0033100024 0.02475104
-0.026369596 0.015968919 0.04652247 -0.017046226 0.045447093 -0.035325594 0.009945324 0.005085654
00000000: 921f 013c 53b6 b83c 4ee5 20bd f326 603c
00000010: d83a df3d d16c 413c 4bee b33c 03fa 3abc
00000020: 5824 ed39 9b3e c43c c50f b23b b356 4f3c
00000030: 3640 10bd 810f 0d3d 796a 69bb 9ee2 5eb9
00000040: 74e6 383d 2946 34bd 8b14 5cbd 5d9f 993b
00000050: ec66 dbbd 9747 a3bc d0d0 6e3c 4799 933c
00000060: dff9 cb3d 8824 6bbd ebbf 99bd 30c7 18bd
00000070: 1094 653c 6fd8 a23d 94ca 8bbb 6152 f3bc
00000080: 490b d6bc 99bf a7bd 9102 34bc e54d 36be
00000090: 731e 9cbd dbe9 d0bc b17f f63c 1889 1a3d
000000a0: 163d e73c 8138 493c 94c7 aabd 3de5 07bd
000000b0: ac32 d43b b904 b8bd 5eb8 e9bd 76b3 1abe
000000c0: 73a6 1b3c 7b89 0d3d a0a4 683b 899b 753c
000000d0: 0474 913b 5e1e 06bd 0f0e 02bc 9d67 5f3b
000000e0: 2c37 f63b f9e6 a1bc b336 12bd a0b8 f53b
000000f0: abed e03c b1bf 173d a1e9 243d ee34 9e3c
00000100: 6160 d43c 6345 98bc 4eff 25bc b89b 6c3c
00000110: 33e4 0abd 1c64 9a3c 8a36 ad3c 9ef1 593c
00000120: eeee bbbc fcc3 fcbc aae1 96bc ae5f 02bd
00000130: 0282 ba3b 8ca7 503b cc75 87bc a431 7d3d
00000140: 184f 2d3d eb82 883c 2cd0 f9bc 5ef6 a8bd
00000150: f26e d9bb 53c4 fe3c b1ee 17b9 034f 0fbd
00000160: 03ce 28bd b223 0d3d 67a4 9abc b7ce a2bd
00000170: 4163 51bd 0c57 713c 8451 60bc 096e 4e3d
00000180: ab34 27bd 9182 8b3d 6f86 e13c e9a9 633d
00000190: 20e4 39bc 697f 8f3c 7aa0 2dbd 100b e9bc
000001a0: e433 283d 0090 9dbb 13e5 223d 97a0 313c
000001b0: b27a 823b ba00 5bbc f527 bdbd df5b a3bd
000001c0: da1f 54bc dbab 12bc eb8e 38bd 0dcb 0cbd
000001d0: ec31 54bd 2850 dbbd 6d90 563d f50b 40bd
000001e0: 3282 313d 87c8 10bc e8d9 7dbd 375f b0bb
000001f0: a2f1 803d a3ce 5a3d e636 9b3d 9848 033e
00000200: fb2e 2c3e 1f0a f33d 40d3 b3bc 1019 a6b9
00000210: f029 4a3d 91dc 13bc 7715 023e 550f 34be
00000220: e3b5 ccbd be1c 993e 2656 843d 60aa d9bd
00000230: 91c8 dbbe 5de7 c7be df88 bdbe 23f4 79bd
00000240: 61d8 b93d ca78 4cbe 4fac 5bbe d206 67bd
00000250: bff7 513e e6d6 433e 4d64 173d 1ac8 06bd
00000260: d258 c03c b5f5 87bc f83d 9e3c 90c9 d33c
00000270: b532 39b7 bc37 c7bc f2d3 db3c 93d7 6abc
00000280: e8da 2bbd d91d d4bc 834a 4ebd 306a 3cbd
00000290: 689d f53c ac20 40bd 8640 053c e4e6 1cbd
000002a0: c98f 8b3b 805a d43c 20f2 193c 5984 6c3c
000002b0: 6f29 893c a2e8 c93c 53c7 a73b 1a64 e7be
000002c0: d767 a5be 95ce 08be af0c 94be b689 0ebf
000002d0: 5149 10be 5d81 10be ca6d cebd 2d0e 073e
000002e0: 068c e1bd 988a 9abe 032a c9bd d76c 25be
000002f0: 45da 1fbe 2ff6 01be 548e a1be dec8 40be
00000300: 64ba 93bd 4e0a 143e 211b 98be e9dc 9fbd
00000310: a676 66be 8125 fe3d ef46 eebc 09c5 a0be
00000320: a845 033c 5cb5 b13c f3e0 ccbc 378e dbbc
00000330: d6da a63c 9187 003d 9f69 85bc 8e68 ae3c
00000340: b276 e7bc e8c2 02bd 2c27 c13c 8058 c03a
00000350: 4074 4abc 50ad adbc 34cd 2abc 2c59 c6bc
00000360: 1662 82bc a0e6 cbbc d44c 293c 00d8 a037
00000370: 56ac 653c 3413 923c f027 19bb 20f3 2e3b
00000380: 00de 15ba 24cc e0bb 563b 9a3a 503f 65bb
00000390: b255 13ba b465 d2bc 260d ddbc 37d2 cabc
000003a0: d09b da3b 825b 833b 32e0 fd3c de5a bcbc
000003b0: 600c 0abd 58bf d8bb ca2c f73c 007e 883a
000003c0: 900c 763b 7056 cd3c d4b3 c1bc a815 68bc
000003d0: 5a74 173d da9f a83c a0ec 583b b1c2 ca3c
000003e0: 0d05 d8bc 40d1 823c 588e 3e3d 87a4 8bbc
000003f0: bb26 3a3d 92b1 10bd b6f1 223c 8fa5 a63b

fc1.bias f4 [64]
0.08286522 -0.082030304 -0.048864424 0.08780632 0.08928223 0.028980242 -0.012884347 0.0161464
-0.042377565 0.04955784 -0.058088366 0.015076246 -0.018346071 -0.014757622 -0.015576088 -0.058576807
-0.026316393 -0.0024366246 -0.05739134 -0.036065303 -0.05573055 0.06607054 0.07344685 -0.042683497
0.093711905 -0.012901784 0.040278435 -0.012231792 -0.060946815 -0.009338454 -0.0150720915 0.07236694
-0.04356663 0.087904416 0.12453739 -0.039709605 0.019540975 0.07951811 -0.05606781 0.09404711
-0.035082106 -0.003403365 0.0007767891 0.08795698 -0.012598435 0.008058512 0.021780608 0.039560433
0.026443783 -0.026650941 0.079284236 -0.0531398 0.034111608 0.014564839 0.08769057 -0.05000281
0.012673318 -0.033347506 -0.052812707 0.06346374 -0.05590007 -0.0036882758 0.047711432 -0.008005325
00000000: 3eb5 a93d 81ff a7bd 1026 48bd cdd3 b33d
00000010: 9ad9 b63d f967 ed3c de18 53bc 7445 843c
00000020: 1994 2dbd 29fd 4a3d 11ee 6dbd 5c02 773c
00000030: 804a 96bc f4c9 71bc d932 7fbc 3cee 6fbd
00000040: 7a95 d7bc c7af 1fbb 2f13 6bbd 36b9 13bd
00000050: b845 64bd fe4f 873d 4d6b 963d e4d4 2ebd
00000060: 07ec bf3d 0162 53bc 00fb 243d db67 48bc
00000070: 5ea3 79bd 5100 19bc eff0 76bc 1e35 943d
00000080: ec72 32bd 3b07 b43d 760d ff3d 8aa6 22bd
00000090: 6514 a03c 64da a23d 5ca7 65bd c59b c03d
000000a0: 41b2 0fbd fd0a 5fbb 6fa1 4b3a ca22 b43d
000000b0: ab69 4ebc d907 043c 3f6d b23c 1f0a 223d
000000c0: a2a0 d83c 1353 dabc c65f a23d 1ea9 59bd
000000d0: 9db8 0b3d 5da1 6e3c 1d97 b33d bfcf 4cbd
000000e0: c0a3 4f3c 6597 08bd 2352 58bd 47f9 813d
000000f0: 79f7 64bd 00b7 71bb 106d 433d c428 03bc
