saved_models/dqn_best_model.pth (torch, 981101 bytes, 32 tensors)

conv1.weight f4 [16, 2, 4, 4]
00000000: 995c a03f 9af3 023f 2ca2 253f e5e8 4e3f
00000010: 809e 883f bf02 d6be ce51 793f 0581 003f
00000020: 9b87 bdbd 6ec1 a6bc 18eb 8fbd ea06 f13e
00000030: df05 e8be 89ba f63c 25f1 bcbe 9f91 01bf
00000040: aa30 e6bd a9fa d9bc 0f9e 3d3d 2379 64be
00000050: c730 17be 6d6a 77be 99a4 22bf f3e2 00be
00000060: d6ab 063b e22a b1be e4b2 c0be bc7e b5be
00000070: cbbf 39be 0db9 7cbe 77db edbe caeb 40bf
00000080: 2585 193f 12f2 0d3f 7517 10be faa9 cc3f
00000090: 4148 f43e 4375 2f3e e763 25bf 4410 043f
000000a0: 875a d63e 19b5 37bf 30ec 853e ce9d 083f
000000b0: 04d5 53be 82fa 163f 8613 36bf c3c7 c13f
000000c0: 0670 ec3d d574 183e c690 6a3e 4238 17bd
000000d0: d8a0 633d 094f 4bbe 7522 003c 917d b3bd
000000e0: 7aae 1a3e 6722 34be 9797 cfba 9388 e53c
000000f0: b6d7 893d 0068 3dbd 732c ac3d 828c 12bb
00000100: 557f 193e e38a 96be 9307 ad3e 84be fb3f
00000110: a813 c13a a20f d7bd 2e3a 38be 4b55 20bf
00000120: 6289 33bf cf50 bcbe 813e b33e d212 093f
00000130: 29c5 7d3f 1060 2b3e d8f1 63be 6c3e 39bf
00000140: bbe5 693e 0d51 063e 8746 e93d 7764 50bf
00000150: 6bd3 7d3e f847 593e 9c03 843d 3291 c5bc
00000160: 9d09 193e 75b8 a8bd 9b83 463c 10be 5bbe
00000170: 047f 933d 437c 83bd 43aa 673e 3585 3e3d
00000180: 0ab3 e03f cd17 d5be a577 78be ffa7 75bf
00000190: 33ab 363f 9ca7 3a3d d011 bcbe 339f f5be
000001a0: f332 363f e401 8c3e ccb6 c1be 98e6 f7be
000001b0: 6f98 ee3e 6c24 d53c f7a3 98be 3a43 c9be
000001c0: d16a 3a3e 0603 09bd 23ad b33d 95e5 943e
000001d0: 3045 2bbe 84f8 57be fe4f 13bf 56ca d3be
000001e0: 3bd6 ffbd c8c4 7b3e 4b1f 953d 75b9 763e
000001f0: 0070 fd3e a9e6 153d 297f db3e d952 82be
00000200: fcc8 ee3f 31ab 4ebf 1571 94be 7555 69bf
00000210: 99c6 323e de0c 5f3e 3587 25bf 6391 e6be
00000220: 3842 40bf 11ab 873f f0c5 683e 71f0 74be
00000230: ad2e e03f bbd7 0e3f a027 643f 493f 99bf
00000240: 4953 fdbd 7aeb 26be 907f be3d 4b0f 4f3e
00000250: 7723 80be 5170 293e 6f3d 533e 50d3 aa3d
00000260: 121b 9bbe 29cc 253e 2d7b 06be f987 203e
00000270: 764a c0bd 6585 bb3e e26d 2f3e 2633 8a3e
00000280: d39a 66be a0b9 69be e2ad 2d3f 39eb 0ebf
00000290: a930 bcbe 7e6b 6bbe 9065 02bd 7417 113e
000002a0: 7aca 3fbf 1813 03be 7988 1a3f 36e0 893f
000002b0: a631 ccbe 1136 e23d 426c eebe ab15 a3be
000002c0: 685c 8c3c 7fd7 1dbd eb76 e73d 4766 9bbe
000002d0: 9f3f 99be abfa 1fbe b5f4 3e3d 7ecf 6b3e
000002e0: 6db4 713e 2ab9 713e 50c2 69be 59c7 c23d
000002f0: 6535 6b3e 46a0 533e a29b 7abe c890 133e
00000300: baa2 f83e 55dd 403f e6cc 103f 5836 883e
00000310: e151 323e 3795 9d3f b9c5 6f3f 7ef4 243f
00000320: 0100 a23e 4529 433f 5b92 633f e97f 253f
00000330: c994 cc3e 5f48 d83e 9ee5 853e 4aba 8d3f
00000340: 7dde 9b3e af8d 3e3d b2fb 9b3e e2e9 b23d
00000350: bcb2 e33c bee3 3ebd 2903 5cbe d071 4dbe
00000360: ed3b b13e be8d bcbd 7069 99be b1bd 793c
00000370: a816 9d3c 4bda afbc 89e6 113e e46e 253e
00000380: 1906 a4be 14a4 9fbe 29ec aa3d 47bb a13e
00000390: 9d81 dbbe 0982 4fbe 7a7f e6be 6c0c 0ebf
000003a0: fb8e 10bf ade1 26bf 1132 c5be 675e 19bf
000003b0: 455a 15be b36f 00bf db83 adbe 1423 0ebf
000003c0: d23a a4bd 0dd7 d8bd f79f 2c3d 2770 a2bd
000003d0: a7e1 a93d 1ad2 253d 5b31 043c 15d3 eabc
000003e0: 6d7d 3bbc 6b82 d8bc e82a 21be 83de ef3d
000003f0: 5657 123e 939c bd3d d383 0dbe 6abc 14bd
1.2528259 0.51152956 0.6470058 0.8082412 1.067337 -0.4179897 0.9739045 0.5019687
-0.0925438 -0.020355906 -0.070272624 0.47075588 -0.4531698 0.030118244 -0.3690273 -0.50612825
-0.11239751 -0.026608782 0.046293315 -0.22311835 -0.14764701 -0.24161692 -0.63532406 -0.12586574
0.00205492 -0.3460303 -0.37636483 -0.35448253 -0.1813957 -0.24679966 -0.464565 -0.75359786
0.5996879 0.55447495 -0.14071448 1.5989373 0.47711375 0.17134576 -0.64605564 0.5158732
0.41865942 -0.7176071 0.2615676 0.5336579 -0.20686728 0.58975995 -0.7112354 1.5139087
0.11544804 0.14888318 0.22906789 -0.036918886 0.055573314 -0.19854368 0.007820715 -0.08764184
0.1510562 -0.17591248 -0.0015838024 0.028019225 0.06730597 -0.04624176 0.084069155 -0.0022361581
0.1498998 -0.29402837 0.3379484 1.9667516 0.001473059 -0.105010286 -0.17990944 -0.62630147
-0.70131505 -0.36780402 0.35008624 0.5354434 0.9912897 0.16735864 -0.22260225 -0.72360873
0.22841541 0.13116856 0.11390405 -0.814033 0.24787681 0.2121886 0.06446001 -0.024117086
0.14945073 -0.082383074 0.012116338 -0.21459222 0.07201961 -0.064201854 0.22623543 0.046513755
1.7554638 -0.4161972 -0.24264391 -0.95959467 0.7135498 0.04557 -0.3673234 -0.47973022
0.7117149 0.27345192 -0.37834775 -0.48418117 0.46600673 0.026018344 -0.29812595 -0.39309102
0.1820481 -0.03345015 0.087732576 0.29081407 -0.16725612 -0.21090895 -0.57543933 -0.41365308
-0.12492033 0.24586785 0.07281359 0.24094184 0.49499512 0.036596928 0.42870453 -0.25453833
1.8655086 -0.8072997 -0.28992525 -0.9114602 0.17458571 0.21782252 -0.64659435 -0.45032796
-0.7510104 1.059908 0.22731757 -0.23919846 1.7514244 0.5579793 0.8912296 -1.1972438
-0.12369401 -0.16300765 0.09301674 0.20220678 -0.25027058 0.16546752 0.20628904 0.08341086
-0.3029409 0.16191162 -0.13132925 0.1567687 -0.09389202 0.3662521 0.1713176 0.26992148
-0.22519998 -0.22824717 0.6784345 -0.5582767 -0.36755875 -0.22990224 -0.03183514 0.14169103
-0.7491833 -0.12800252 0.6036449 1.0771549 -0.3988163 0.110454686 -0.4656697 -0.3185247
0.017133906 -0.03853559 0.11301979 -0.3035147 -0.29931352 -0.15622966 0.04662009 0.2302837
0.23603983 0.2360579 -0.2282803 0.09510679 0.22969587 0.20666608 -0.24473432 0.14410698
0.4856165 0.75337726 0.5656265 0.2660396 0.17414047 1.2311162 0.93661076 0.64435565
0.31640628 0.7623485 0.88895196 0.646483 0.39957264 0.42242715 0.26151747 1.1072476
0.30443183 0.04652184 0.30465466 0.08736016 0.027795188 -0.04660391 -0.2148558 -0.20062947
0.34616032 -0.09206723 -0.29963255 0.01524298 0.019175842 -0.021466395 0.14248098 0.16155583
-0.32035902 -0.3117987 0.08345825 0.31588194 -0.42872325 -0.20264448 -0.45019132 -0.55487704
-0.5646817 -0.65188104 -0.3851476 -0.5990967 -0.14585216 -0.5017044 -0.3388966 -0.55522275
-0.080190316 -0.10587893 0.042144742 -0.079315476 0.08294993 0.04048357 0.008068408 -0.028665105
-0.011443478 -0.026429376 -0.15739024 0.117123626 0.14291129 0.0925838 -0.13819818 -0.0363125

conv1.bias f4 [16]
00000000: c510 26bc 3da2 0bbd b17a 893c 0777 f73d
00000010: 53ad 503e eeda 483e 3603 8f3c 15c3 bebd
00000020: 8399 343e ef87 d1bd fb68 933e daec 31bc
00000030: c4bd f63d 5065 a3bd 3848 02be be22 d83c
-0.010135834 -0.03409027 0.016782137 0.120832495 0.20378618 0.19614765 0.017457586 -0.09314553
0.17636685 -0.102310054 0.2879103 -0.0108596925 0.12047914 -0.07978308 -0.12722862 0.026383754

conv2.weight f4 [32, 16, 4, 4]
00000000: 8643 fabd 2b5b 09be 8a70 26bd 3f68 9dbc
00000010: 205b dabe 494d c6be c72b 50ba ab78 96be
00000020: e6a3 0cbf cd9b 72be 952d 403d 64d4 42be
00000030: 5fbe 54be addf 9a3d 925c 353d 38d3 08be
00000040: 8aa9 00bc 64e3 10bd 705d 31be d161 0a3e
00000050: 53e0 a3be aa3e 9abe 458b 0e3e c132 31bf
00000060: f918 26bc 5a99 823e 2e36 0e3e 184a 07bf
00000070: 580d 453e a51b f43e e376 52be 29a6 c8be
00000080: b38c 01bf 539d a8be 9eab 00bf 1506 803f
00000090: 3e80 a5bd d681 023e a637 8e3e 505f 94be
000000a0: 23eb a3bd 0a0d 31bf 1808 a43e 9355 0b3e
000000b0: 89e2 b2be 228c 413e c019 8dbd e27d 1e3d
000000c0: 70ad bc3e e808 0d3f c44e 4abe c444 1d3e
000000d0: 7568 7c3c 6e24 1c3e a351 18bf a42f 08be
000000e0: d644 c83e 4934 aa3e 9d4c a1be 5e5b f73d
000000f0: e30b 8d3e f126 9c3e 5194 84be 9589 9c3d
00000100: df52 043f 9399 07be 132a eabc be2a 983d
00000110: c9c9 b73e 92c4 77be 6bde 9bbd f172 003e
00000120: 7f93 e13e 9510 09be e59c 1ebe 6a0c 1cbe
00000130: 5819 373e 53ec 483c 4288 9abe c472 06be
00000140: ca5e b6be 8041 e8be 97a9 c63e ef61 423d
00000150: 1f94 92be f171 acbc c0f4 8e3e 52cb 82bd
00000160: 483c 9bbe e827 aabc 8910 95bd 5630 de3c
00000170: 8338 11bf 2f43 72be 7f31 aebc 1df6 15be
00000180: 71a1 083f c987 43bf f078 b4bd f611 6bbd
00000190: 2033 333e 85f5 38bf 2b57 67be f516 1b3e
000001a0: 541c ea3e ed08 84be 3a58 13be dbc5 79bd
000001b0: 7b3c 413f d6ff 06bf a743 b7be f2e0 80be
000001c0: 8a33 16be 405d 49be 25e6 8c3e 4049 d7bc
000001d0: 7948 043d 5ec8 54be bbc2 cbbc f854 223e
000001e0: 7d8a abbe 1f23 54be 711c 493d aa1f 123e
000001f0: 21bd b9bd 4272 a33b a7a7 ccbc 69fe 483e
00000200: c8f2 b4bd 1762 07bf 88ab 983e 1211 62bc
00000210: a3c1 1a3e 8235 b5be f2bc 773e 6866 3eba
00000220: c61e d0be 2016 4ebd a86c 1a3d 5603 fabd
00000230: 7787 cbbe f8e1 28be 58d3 263e 56ec 05be
00000240: bff1 fabd bc18 e2bd e0f4 203c e7f5 b93d
00000250: 9060 5d3d 6469 6abe 23cf 5a3e 6182 a93d
00000260: c12f 1fbe b5ef 9b3c 864e 343d e6f6 db3c
00000270: 1e60 0abf 252c d8bd b94f ec3c 27b3 3a3d
00000280: 7f7c d6be 08b4 2fbf 3b78 3b3d d93d 773d
00000290: 94eb 97be 35f1 fcbe f6a9 1c3e dfd8 44bc
000002a0: a4b2 7fbe 5ba4 fcbe 520a c03d 86c4 173e
000002b0: 00f5 c4be 508c 58be 5da3 8bbd 1ac8 10be
000002c0: 782b 55bd 9c20 30bf dae8 cfbd cbee c9be
000002d0: 0461 04be fc18 05be 8710 8abe df41 093e
000002e0: d2f2 023f 0fa9 123e bc55 ddbe cbc5 8e3e
000002f0: deda 623f 951a 45be b877 cbbe b8ee e2be
00000300: 0ebf 173f 0ec3 2cbf 787c b23b 471b 06bf
00000310: 8c99 13bd 3714 11bf 9812 4a3e 52e3 96be
00000320: f18c 0e3c b678 693e 6f48 febe bf95 10bf
00000330: 9f5a 613f f0b8 a03e e4d9 3abd 015f 0a3f
00000340: 124c 01be 6baa 08bf 6eeb b3be 15c6 393f
00000350: 6316 aebe 0ea3 6fbe c0ca b2bd 0162 9dbd
00000360: 9443 793e dd34 cdbe 54e2 e93e 37bf acbe
00000370: c3f3 653d cb52 123e 4709 4fbf bdd1 e9be
00000380: f2c4 97be 1b88 5cbe c87e e73d 6440 2d3e
00000390: 137e b6bd 301d 973a fa1d 53bd 905b e4bd
000003a0: d7be 51bd 4dd7 a1bb 8531 c73d 6a09 ea3d
000003b0: f2b4 53be 5388 9dbc 9307 383e 918a 6c3c
000003c0: 0d37 5a3f dbdd dabe 0348 34bf 5e97 5bbe
000003d0: b7ed b93e 6a7a acbe 3951 07bf 650d 523c
000003e0: b73e e03e e016 943e 3fe2 96be 8d58 b7bd
000003f0: 5134 543f 77a4 2bbe 048a 68be 2c7e 75be
-0.1221991 -0.13413684 -0.04063467 -0.019214747 -0.42647648 -0.3873084 -0.00079410936 -0.29388937
-0.5493759 -0.23692246 0.04691847 -0.19026333 -0.20775746 0.07562194 0.044277735 -0.13361824
-0.007852921 -0.035373107 -0.173208 0.13513876 -0.32007083 -0.30125934 0.13920315 -0.6921807
-0.01013779 0.25507623 0.13887855 -0.52847433 0.19243371 0.4767734 -0.20553164 -0.3918927
-0.50605315 -0.3293253 -0.5026187 1.0001856 -0.08081101 0.12744841 0.2777683 -0.28978968
-0.08003833 -0.6916052 0.32037425 0.13606863 -0.34938458 0.18901113 -0.06889677 0.03869427
0.36851072 0.55091715 -0.19756609 0.15358263 0.015405764 0.15248272 -0.5949957 -0.13299423
0.39115018 0.33243015 -0.31503764 0.12077974 0.2754813 0.3049846 -0.25894406 0.07643429
0.5168895 -0.13242178 -0.028584516 0.074300274 0.35896137 -0.2419608 -0.07610782 0.12543847
0.44057843 -0.13385232 -0.15489538 -0.1523911 0.17880762 0.012263375 -0.3018208 -0.13129717
-0.35619193 -0.45362473 0.38801262 0.047456678 -0.28628632 -0.021050425 0.27921104 -0.063864365
-0.30319428 -0.020770982 -0.072785445 0.027122658 -0.56726855 -0.23658441 -0.021263836 -0.14644666
0.5337134 -0.76379067 -0.088121295 -0.057390176 0.17499971 -0.72249633 -0.22591846 0.15145476
0.45724738 -0.2578806 -0.14389125 -0.060979705 0.7548291 -0.52734125 -0.35793802 -0.2517162
-0.14668098 -0.19664478 0.27519336 -0.026280046 0.032295678 -0.20779559 -0.024873128 0.15852726
-0.33504096 -0.20716523 0.04909939 0.14269891 -0.090692766 0.004987986 -0.024982287 0.196283
-0.08835369 -0.5288405 0.29818368 -0.013798015 0.15112929 -0.35392386 0.2419317 -0.00072631845
-0.40648478 -0.05031407 0.03770128 -0.122076675 -0.3975179 -0.1649245 0.16291559 -0.13078436
-0.12253141 -0.11039874 0.009824008 0.09080105 0.054047167 -0.22891766 0.21368079 0.08276821
-0.1554556 0.0190352 0.0440202 0.026851129 -0.54052913 -0.10555295 0.028846608 0.04558101
-0.41891858 -0.6863408 0.045768958 0.060361717 -0.2967192 -0.49402776 0.1529921 -0.012014597
-0.2497049 -0.49344143 0.093769684 0.14821061 -0.3846817 -0.21147275 -0.068182684 -0.14138833
-0.05204341 -0.6879976 -0.10151835 -0.39439997 -0.12927634 -0.12997812 -0.26965734 0.13404034
0.51151764 0.14322303 -0.43229473 0.2788528 0.88615215 -0.19248421 -0.39739776 -0.44322753
0.592759 -0.6748513 0.0054469667 -0.5238537 -0.036035106 -0.5667147 0.19733655 -0.29470307
0.008700595 0.22799954 -0.49664637 -0.56478494 0.880289 0.31391096 -0.045617953 0.54051214
-0.12626675 -0.5338504 -0.35140556 0.72567874 -0.34001455 -0.23402044 -0.08730078 -0.076847084
0.24342185 -0.40079394 0.45680487 -0.33739635 0.056140672 0.14289396 -0.8087353 -0.4566783
-0.29642445 -0.21536295 0.113034785 0.16919094 -0.089107655 0.0011529084 -0.05154226 -0.11150277
-0.05120739 -0.004938996 0.09726242 0.11427577 -0.20674494 -0.019230044 0.1797164 0.014437334
0.8524025 -0.42747387 -0.7042238 -0.21444461 0.36314175 -0.33687145 -0.5285831 0.012820576
0.43797848 0.28923702 -0.29469487 -0.089524366 0.8289233 -0.16761957 -0.22708899 -0.23973912

conv2.bias f4 [32]
00000000: 49a8 a23d 3197 883e e234 b2bd 05c7 243a
00000010: 9197 22bd 0331 993e 3b2f 6cbd 52bb eabd
00000020: ba86 0d3e af77 59be 0ca8 91bd 7857 983e
00000030: 0ad6 ebbd 18b3 a83e 4ccd 73bd 4694 053e
00000040: 86ab 11bd 60a1 833d e6fe b6bb 29ed cd3c
00000050: be7b 28be fe99 663b 32c0 2a3e dc40 73bd
00000060: 794b bb3d b7e4 0fbe de97 a83e 3f38 50bd
00000070: ebc3 063e df67 993e 4658 173d 696a edbc
0.07942254 0.2667785 -0.08701493 0.000628576 -0.039695326 0.29920205 -0.05766223 -0.1146151
0.13820925 -0.21237062 -0.071121305 0.29754233 -0.11515434 0.32949138 -0.05952196 0.13044843
-0.035563968 0.06427264 -0.0055845855 0.0251375 -0.16453454 0.0035187001 0.16674879 -0.059388027
0.09145255 -0.14052092 0.32928365 -0.05083489 0.13160674 0.2996206 0.03694942 -0.028981404

fc1.weight f4 [64, 800]
00000000: 791e 26bf 6763 aabd e110 bebd 274d 9e3d
00000010: adef 7b3d 4ce5 c7be 9a8d 68bb b4d0 9bbd
00000020: 910b 063e 95e3 d33d 3041 90be 4d3b 113d
00000030: ced5 303e c02c f23d 4346 fc3d f808 c1bd
00000040: 5293 86be 584d 953d 843d 8ebd 29e7 c33e
00000050: 74eb dc3e d7e1 4dbf e8bd abbe 0d43 bf3e
00000060: 650c bfbe 9853 ab3e 1d48 3a3e ca7f 933d
00000070: 98cb f0bb e554 9f3d f5ad 5a3b b654 683d
00000080: acd0 173d 21b6 a63d b142 673d c5fa b0bb
00000090: 7053 933d bf10 283d bdb9 6e3d 3e36 70bb
000000a0: c30d a8bc 4558 bf3d 95f5 ef3d 8a6b db3d
000000b0: eb39 14be dd4b 64be 9d60 9f3d 3dc8 be3e
000000c0: 9d33 833e 4dc8 4bbe 15a0 583c 3fd3 11bc
000000d0: 22e3 313c ecb1 fdbc e484 9c3c 9553 0c3d
000000e0: a109 003d 1521 d0bc c0c1 403c 8ad9 93bb
000000f0: 64e8 573c 2b9d 5f3c 708d 98bb 9e05 42bc
00000100: 3290 c63c cae6 573c 5646 af3c 9257 773c
00000110: 901a d3bc d047 be3c 70c3 983c 46a1 81bc
00000120: 2221 283c a45b 563c c271 df3c 743a 00be
00000130: 9f63 cf3d 6e22 26bd 71f8 b1bd feb0 8abf
00000140: be17 7abe c5d1 ac3d 7f22 833e 730a 393e
00000150: d979 66bf c4fc c33b 6184 a83e 87ff 8d3e
00000160: 3471 1dbf 4dbd b7be e301 be3c e8b1 203e
00000170: 7cfa a93d e3a9 083c 9983 50be 09cc f7be
00000180: 190e c53b 0f9f adbe a0b9 9ebe 57d8 d7be
00000190: 070f 87bc 807f 8cbd 077e d1be d2f2 a03d
000001a0: 118a 25bf 21db bebe 9040 803d 7f34 5dbc
000001b0: 7dd6 503d 0689 f4bc 1235 57bd 31fa c9bd
000001c0: b568 493d 9d86 51ba 756d 9abd 3b43 1f3c
000001d0: 375b 0c3c 716e 20bd b5df 333e 0d66 afbe
000001e0: 39ba c43e e4f2 8a3e 9532 07be 8626 853e
000001f0: 0322 933f 706b b73e cd71 3f3d c495 3a3d
00000200: dd3b 3bbc abe4 7e3c 464f b03d e950 1d3d
00000210: 647e 313d 3998 273d c7a7 aa3d 4187 dc3d
00000220: 0c08 433d 8655 453d fc9a d83c b3b0 8b3d
00000230: 0b3c 133e 9aeb b93d 621a 0cbe b751 abbd
00000240: bf4d 3a3d b9b1 083e 85fa 093d 46f0 53be
00000250: 6b5f 4cbd 0a97 083e 1b8a e8bb 635b 03bd
00000260: c788 413d c580 fbbc 5582 49bb 6c76 113c
00000270: 8325 953a caef db3c 3815 a0bc dc43 8cbc
00000280: 03b5 e03b 3517 6c3b 1361 013c 86fb e3bc
00000290: 3d78 c23c 092d c43c 7eac f0bc 2c13 a33c
000002a0: e109 ed3c 085a 793c 78f5 963c 261c 26bd
000002b0: 0499 06bc 483d 5cb8 f569 aebc 0447 40bf
000002c0: 5ff7 d7be bf61 2abe 5412 fc3d dde8 c0be
000002d0: a5a0 10bf 5a57 f03a 8129 8f3e 03d0 f2be
000002e0: da2f 2a3e ae7d 50bf 0e3a 9fbe 5c33 50bf
000002f0: 728d f1bc d103 11be 07f4 1fbf a4dd 6fbf
00000300: cba0 3ebe faa6 a23e cbff 563e 79b2 41be
00000310: 7eee 83bf 1a21 aebe 17c2 913e 0634 053f
00000320: 02b8 40bf 0a78 83bd d5ec c13d 35cc 7d3d
00000330: a638 653d 9d0b 9dbd 8fe7 7f3d d8ef b9bc
00000340: 39b6 f6bd fb2a 3d3d 8711 00be 7d62 81be
00000350: b4fb cebc 4eff 18bf 1729 71be e106 04be
00000360: 9ad7 d73d a6ce 20bd b135 69be 5952 04bd
00000370: e65c 013f a9a4 053e f871 173d 3f5e 133f
00000380: f970 063f b4d1 b5be 7baf b63e 1f07 1abe
00000390: 40de 60be fcf9 2dbe c774 6e3d 54b0 d83d
000003a0: 1dac f13d 0c78 093f 490f 183e d96c edbe
000003b0: 2cb7 5b3d 781b 3cbe 44dc a1be e3f2 ecbf
000003c0: a42e d0be 12a3 40be 8b0e 2c3f 28e8 043f
000003d0: a0cc 97be 43d0 e3be 9009 42bf 35cc 3e3c
000003e0: 604e 123f 3cea 393e 7186 e0be f6c2 03be
000003f0: e35f 3bbd 09cc 883d 32a1 2f3c 8b38 6fbe
-0.6489025 -0.08319741 -0.09280563 0.077295594 0.06150787 -0.39042127 -0.0035484792 -0.07608166
0.1309035 0.10346142 -0.28174734 0.035456944 0.1726906 0.11824942 0.12318089 -0.09425539
-0.2628427 0.07290143 -0.06945327 0.382623 0.43148386 -0.8042273 -0.33543324 0.37355843
-0.37314144 0.33462214 0.18191572 0.07202108 -0.007348489 0.07779864 0.0033367847 0.05672141
0.03706424 0.08140207 0.056460086 -0.005400988 0.07193649 0.041031595 0.058282603 -0.0036653425
-0.020514375 0.09343008 0.11716763 0.10713871 -0.14475219 -0.22294565 0.077820994 0.37262145
0.25625315 -0.19900627 0.01322176 -0.008900463 0.010857375 -0.030968629 0.019106336 0.034259398
0.031259183 -0.0254064 0.011764944 -0.0045120167 0.013177965 0.013648312 -0.0046555325 -0.01184216
0.02423868 0.013177583 0.021395843 0.015096562 -0.025769502 0.023227602 0.01864788 -0.015823971
0.010261806 0.013083372 0.027275924 -0.12522298 0.10126423 -0.04056018 -0.086899646 -1.0835264
-0.2442312 0.08438448 0.25612256 0.18070392 -0.90029675 0.0059810597 0.32913497 0.27734014
-0.6150086 -0.35886613 0.023194259 0.15692866 0.08299729 0.008341285 -0.203627 -0.48397854
0.0060136435 -0.33910415 -0.31000996 -0.42157242 -0.016486658 -0.06860256 -0.40916464 0.07858814
-0.646638 -0.37276557 0.06262314 -0.013501286 0.050985802 -0.029850494 -0.052540846 -0.09862173
0.049172122 -0.0007992776 -0.075404085 0.009720619 0.008566669 -0.039167825 0.17565806 -0.34257546
0.38423327 0.27138436 -0.1320289 0.26005954 1.1494755 0.35824156 0.04673939 0.045552984
-0.011427847 0.015557448 0.0860887 0.03840724 0.043333426 0.040916655 0.08332782 0.10767985
0.047615096 0.048177265 0.02644109 0.06820812 0.14378373 0.090781406 -0.13681939 -0.08365195
0.0454843 0.13349046 0.03368618 -0.20697126 -0.049895685 0.13338867 -0.0070965416 -0.032069575
0.04724958 -0.03070105 -0.003074785 0.008878332 0.0011378977 0.026847739 -0.019541368 -0.017122202
0.006857516 0.0036024575 0.007896679 -0.027829897 0.023738975 0.023947256 -0.029379126 0.019906603
0.028935375 0.015219219 0.018427595 -0.04055419 -0.008215193 -5.250916e-05 -0.021290759 -0.7510836
-0.42180917 -0.1663885 0.12308183 -0.3767766 -0.56495124 0.001833658 0.27961352 -0.47424325
0.16619816 -0.8144177 -0.3109898 -0.8132837 -0.029486392 -0.14161612 -0.6248173 -0.9369757
-0.18616025 0.31768018 0.20996015 -0.18915738 -1.0307157 -0.3400963 0.2846839 0.52032506
-0.75280774 -0.0641938 0.09469 0.061962325 0.055962227 -0.07668231 0.06247669 -0.022697374
-0.12046475 0.046183567 -0.12506686 -0.25270453 -0.025266506 -0.59764564 -0.23550831 -0.12893249
0.105391696 -0.039259575 -0.22774388 -0.032305095 0.50532377 0.13051094 0.036973923 0.57565683
0.5251613 -0.35511553 0.35680756 -0.15041779 -0.21959782 -0.16989893 0.058216836 0.10580507
0.11800406 0.536988 0.14849581 -0.46372107 0.053641483 -0.18369853 -0.31613362 -1.8511623
-0.40660584 -0.18812206 0.6720969 0.5191674 -0.29648304 -0.4449483 -0.7579584 0.011645366
0.5715084 0.1815576 -0.4385257 -0.1286734 -0.04574574 0.066795416 0.010719584 -0.23361413

fc1.bias f4 [64]
00000000: 64b3 913d 93dd b8bc 4f72 27bd f309 f93c
00000010: 585a a13d 9286 ddbc 0b75 4ebd 2b5e 483e
00000020: cd60 9e3d e659 1e3e 7a08 de3c f246 b43d
00000030: 0bd3 87bd b479 68bd 8796 dfba 0331 553e
00000040: ce40 e13c fc5f 32bc f341 733d 620b db3d
00000050: d64c 13bc dca8 dd3d ea35 82bd d3ae 7bbd
00000060: fbc6 bb3d 7219 cebc a0d0 203d ecda 6fbd
00000070: 33dd 1b3e feea 5abd a097 07bd 85bd 113e
00000080: 7eb8 aebc bde8 1bbd 4491 b13c d053 20bd
00000090: 3bb9 4c3d 657c 40bd 5568 46bd 7b53 0ebd
000000a0: c1fa 32bd db25 60bc 88a9 c13b 5009 29bd
000000b0: 9b70 103e 3278 073b d511 09bd 4165 213d
000000c0: ec03 aabd e1cf e0bb 48bc 573d ed4d 153d
000000d0: a6d9 2bbd ac06 52bd 938b 80bc ab52 6d3d
000000e0: dd84 e0bc e119 e6bc 08dd 56bc bb61 28bd
000000f0: 5689 71bc c6d1 64bd 91c2 c63c 526b aabc
0.07114294 -0.022566592 -0.040880498 0.030400252 0.0787856 -0.027041707 -0.05040459 0.19567172
0.07733307 0.15463981 0.027103651 0.08802594 -0.0663205 -0.05675669 -0.001705841 0.20819478
0.027496722 -0.010887142 0.059389066 0.106955305 -0.008990487 0.10823223 -0.063579395 -0.061446022
0.09168812 -0.025158618 0.03926146 -0.05855839 0.152211 -0.053446762 -0.033103585 0.14232452
-0.021328207 -0.038063753 0.021675713 -0.03914243 0.049981337 -0.046993632 -0.048439343 -0.034747582
-0.04369617 -0.0136809 0.0059101023 -0.041268647 0.14105456 0.0020671007 -0.03346427 0.039403204
-0.08301529 -0.0068607186 0.052669793 0.03645127 -0.041955613 -0.051275894 -0.015691554 0.057940166
-0.027407104 -0.028088512 -0.013114221 -0.041108828 -0.014742216 -0.055864118 0.024262698 -0.020803127

fc4.weight f4 [8, 64]
00000000: bba4 78bc 4d29 aabd d4f5 18bd 2700 843e
00000010: d426 5a3e a421 ecbd 747c d7bd 6801 a73e
00000020: f954 f93e efd5 8c3d 9e4b 953d c70c 833c
00000030: 6a40 783d 1380 8f3d a374 563c 2d63 b63e
00000040: 33ab 283c 2516 d63d 9770 1d3e 4a1c c6be
00000050: 566b a1bd 567b 083d c3c1 183d c63f b9bd
00000060: 9178 5fbe 77e0 adbd e4c7 55bc cdce b7bd
00000070: 9ffe 8b3e 08eb b9bc a0d2 e63b c783 133e
00000080: 1c95 963d 4455 88bd 9717 273c a4a1 733d
00000090: 5ccd 583e e071 07bd aec9 fabc 3d16 a9ba
000000a0: da8a cd3c ee57 14bd a8e4 2f3d 30bc a03d
000000b0: 2f0a e63e 33fc adbc 6330 ae3c b65a 66be
000000c0: d763 81bd bb6f b83c a57a 66be 8c25 3cbe
000000d0: 0a7c 78bd 4e32 14bc a47d 66bd 9104 273e
000000e0: fb30 6bbc 8f87 a93d f02c 2d3d ea22 263e
000000f0: 8ba6 1f3d 4bda 8c3d 7b5f c63b fa99 b13d
00000100: 35f0 03bf 950d e53a 0ed6 c73d dbdd 893e
00000110: 8ec2 733d 3629 9abd 249e 003d 50a6 853e
00000120: f840 313f ddc0 bb3d 5163 b73d 3806 a43c
00000130: c391 843d bcc2 dcbd 2b38 823c 585c a93e
00000140: a5ee c03c 878d 943d 70eb af3d d831 f83d
00000150: eb6f 5b3d 3843 893e 5245 bf3d 8179 97bd
00000160: 5253 8bbe 3543 cbbd 5d4c d53d e2fb 2bbc
00000170: 01a6 3e3e 6eed e9bd 3e2a a23c 41fc b33e
00000180: 0844 9c3c f56a ac3d 107b 19ba 8fb6 9f3d
00000190: cbc8 0fbf 114f dcbd 6db7 5bbd 2447 6fbd
000001a0: a279 2ebd 7caa d43d a4b2 c33d dc58 913d
000001b0: 835d 973e 3ad6 7d3d 0d0e b9bd ad42 223f
000001c0: d719 143c 5bad 9f3d da7d e73d 7560 69bc
000001d0: a7ad 7fbd 5f2f eabd edd1 a0bd 6b7e 7e3e
000001e0: 37a9 373a 0082 95bd b8bb f23d fe62 fc3d
000001f0: d314 f0bc c663 8ebd 18ed e1bd ac85 9c3d
00000200: d317 debe ede8 613a 24b7 ccbc 27ff a73e
00000210: 2546 783c e21d 5dbd 8927 26bd 41b9 453e
00000220: 1298 a93d 98a9 8c3e 0e1d d6bd 9c97 953e
00000230: 21f2 34bd 9838 003e b996 24bc c2f6 663e
00000240: e325 283a 13e8 2f3c 1b10 9e3e fde3 42bf
00000250: 9ae8 e63d c78a 0d3e 2829 5abc d18b a9bd
00000260: fec8 b3bd c112 72bc 42b7 57bd 1ecd a63d
00000270: 5369 ee3e 44e1 f73d 5a8d e73d 75c9 743e
00000280: ccd5 9d3a 40f7 99bd 4a7b 99bd 8c4c 99bd
00000290: f9cc 06bf 072c f7bc 31d8 2bbc ea7a 31bc
000002a0: cbfe 643c 2eb7 b03d 2ecb 00be dc1a 843d
000002b0: cc27 133e 5674 cdbc ac08 3dbd 4d4f c6bd
000002c0: fc48 223d 270a e23c 230d c03e f8a5 833d
000002d0: 4d96 b1bd ea32 823c 46d2 95bd 35eb 383e
000002e0: a5bd 603d 1cba 2d3c 48fc 923c b2bd 45bd
000002f0: f265 10bd 1234 983b 4272 4abd b699 273d
00000300: 3fe7 a93e 9900 cf3d d6a0 b1bd b810 de3e
00000310: ceed 843e 84cf 02bd 5c71 8e3d c3bd 3e3e
00000320: 0ba8 c23d 06c1 193e f0d4 c63d e57c e33c
00000330: 12f4 51bc 0b13 3ebd f108 e23b 6bc7 8a3e
00000340: a643 b73d febb 903c 77ff ca3e a3a5 06be
00000350: c2b7 563d 2592 4d3e 19bf b7bc 1af4 3abc
00000360: bd14 a3be de85 173c cab3 20bd d4bb 9e3d
00000370: 98f2 f33e 8ca3 a83d d6cc c43d 622f c33d
00000380: 9adb 8dbd 127d 05bd 4758 dbbc 02c4 323d
00000390: bd3d 92be 80a9 c83d 0f0a 2f3d cd1c f13c
000003a0: baa1 aabd 82db b8bd c741 ecbd a8e4 b03d
000003b0: f04d be3e 7c06 34bc e408 eabd 2822 8b3e
000003c0: a1c1 9c39 3688 31bd e885 ccbe 0697 8e3e
000003d0: c316 6ebd 4427 543d f1fa eb3c 182a 403e
000003e0: a1ec 7e3c 88d8 533d 0012 713a dd90 64bd
000003f0: bfe8 febc 4c8d 7f3b c591 88bd e061 713d
-0.015175994 -0.08308659 -0.037343815 0.25781366 0.21303874 -0.11529854 -0.105217844 0.3261826
0.48697641 0.06876742 0.072898135 0.015997304 0.060608305 0.0700685 0.013089332 0.3562254
0.010294723 0.104534425 0.15374981 -0.38693458 -0.07881801 0.033320747 0.03729416 -0.09045367
-0.21823336 -0.08490079 -0.013048146 -0.08974991 0.27342698 -0.02269508 0.0070441514 0.14405738
0.07352659 -0.06656888 0.010198495 0.059480324 0.21172088 -0.033067584 -0.030613746 -0.0012900304
0.025090624 -0.03621667 0.042942673 0.07848394 0.44929644 -0.021238422 0.021263307 -0.22495541
-0.06317871 0.022514215 -0.22507723 -0.18373698 -0.060665168 -0.009045197 -0.056272164 0.16310336
-0.01435494 0.08277809 0.042279184 0.16224256 0.038977187 0.068775736 0.0060538626 0.08671947
-0.515384 0.0017475361 0.097576246 0.26927075 0.059511714 -0.075273916 0.031400815 0.2610345
0.6923976 0.09167645 0.0895449 0.020022497 0.06473114 -0.1077933 0.015895924 0.33078265
0.023551295 0.07253557 0.08589828 0.12118882 0.05357353 0.26809096 0.09339394 -0.07396222
-0.27212006 -0.09924928 0.10414956 -0.010497065 0.18618013 -0.11422239 0.019795533 0.35153392
0.019075409 0.08418838 -0.00058548246 0.07798492 -0.5616576 -0.10757268 -0.053641725 -0.058417454
-0.042596467 0.1038408 0.09555557 0.07097027 0.2956353 0.06197188 -0.09035883 0.6338299
0.009039364 0.07796737 0.11303301 -0.014244189 -0.062421467 -0.114348166 -0.0785254 0.24852912
0.0007006111 -0.07300186 0.11852211 0.12323569 -0.029306805 -0.06952624 -0.1103155 0.076426834
-0.4337755 0.00086177775 -0.024989672 0.32811853 0.0151534425 -0.053983577 -0.040565047 0.1930895
0.08280958 0.2747314 -0.104547605 0.2921723 -0.044176225 0.12521589 -0.010045701 0.22555068
0.0006414337 0.010736483 0.30871662 -0.7612913 0.11274834 0.1382247 -0.0133154765 -0.08278621
-0.087785706 -0.014774979 -0.052665003 0.08144592 0.4656473 0.12103513 0.113062575 0.23904975
0.0012041866 -0.07517862 -0.07494219 -0.07485303 -0.52656513 -0.030172361 -0.010488556 -0.010832528
0.013976763 0.08628689 -0.12577507 0.064504355 0.1437065 -0.025079887 -0.04615085 -0.09683094
0.039620385 0.027592732 0.37510023 0.064281404 -0.08671246 0.015893418 -0.07315497 0.18058474
0.05486836 0.010603454 0.017942563 -0.04827661 -0.035253473 0.004644879 -0.04942537 0.040918075
0.3318424 0.10107536 -0.08673255 0.4337213 0.2596268 -0.031936184 0.06955215 0.18627076
0.09504708 0.15015039 0.09708583 0.027769515 -0.012814539 -0.04640488 0.0068980386 0.2710527
0.0894845 0.017667767 0.3964803 -0.13149123 0.05242134 0.20075281 -0.02242999 -0.011410737
-0.3185176 0.009248225 -0.03923396 0.07750669 0.47646022 0.08234319 0.09609382 0.09530522
-0.06926651 -0.03258998 -0.026775492 0.04364396 -0.28562728 0.097979546 0.042734202 0.029432679
-0.08331628 -0.09026243 -0.115359835 0.08637363 0.37168837 -0.010987874 -0.11427477 0.27174497
0.00029898903 -0.04334279 -0.39945912 0.27849597 -0.058127176 0.05179526 0.028806182 0.18766057
0.015559346 0.051720172 0.00091961026 -0.055802215 -0.031116841 0.0038994132 -0.06668428 0.05893123

fc4.bias f4 [8]
00000000: accf 493d 77e8 823e a6a0 e23e 0106 b7bc
00000010: c9e6 7abe 1558 963d f553 583e fc46 7bbd
0.049270317 0.25567982 0.4426319 -0.02234173 -0.245021 0.07341019 0.21125777 -0.061346993

conv1.weight f4 [16, 2, 4, 4]
00000000: a13d a13f f2cb 143f 2151 2e3f 99e5 583f
00000010: 40cf 853f bf02 d6be 1d0f 813f f13a 093f
00000020: e09f 29bd 0dbc 24bd e2dd a2bd 2d61 053f
00000030: 0b5e 9abe 0481 ae3c 25f1 bcbe 9f91 01bf
00000040: fc90 bfbd 69c1 633d 2073 913d 16cf 5bbe
00000050: 205a 0abe 71c1 5abe 883d 0ebf c54d 66bd
00000060: 6194 d93c 9b05 b1be f56b 99be 8726 8fbe
00000070: 49c1 16be 6a6d 7abe 2069 dbbe c0b2 2bbf
00000080: 17a7 1d3f 11d1 163f ddec 1dbe d29d d23f
00000090: 6e4c fa3e 4ecb 373e e763 25bf 494b 0b3f
000000a0: 340e db3e 19b5 37bf bea3 8a3e c1b7 0b3f
000000b0: 3b26 2bbe 7227 153f 8613 36bf 4716 c33f
000000c0: 581b c43d 9632 253e 6f3d 603e d622 b8bc
000000d0: 39f7 9b3d 60ae 3bbe 1334 d03c 5d34 95bd
000000e0: ad2f 2d3e 789e 14be 7a2d 943c 7549 4b3d
000000f0: d477 4f3d 7d59 b73c eb2d d13d 7153 923c
00000100: d047 133e d324 8fbe 276c aa3e e758 0040
00000110: ae7a 6fbc 0a36 aebd 004b 37be 2470 1abf
00000120: 4abb 16bf 9ba5 a2be 3aaa bb3e cba6 173f
00000130: b031 7e3f 49d4 103e 1d04 82be 4811 33bf
00000140: 005e 5d3e 96e2 f73d a8dd e13d 7652 41bf
00000150: 2c37 783e b1a4 633e 48a0 db3d 45a1 573a
00000160: 39a3 233e 61d9 89bd da9b 7f3c db49 80be
00000170: 2694 6b3d 93e6 66bd 10bb 863e 69a4 353d
00000180: d9ec e33f 9c4f d4be 1a69 84be e9e6 6ebf
00000190: 6525 383f 9dc5 603d 8846 c2be 4a65 e6be
000001a0: d604 383f 0cbe 903e 4877 dfbe e1a5 febe
000001b0: 172d f73e 81f8 493d 877a 9bbe 5820 a3be
000001c0: fed3 383e 4692 60bd 7d1b c13d 5881 ab3e
000001d0: 8d19 2ebe 9b98 4abe fa6f 10bf 9b07 bebe
000001e0: 0e96 d8bd afee 693e e429 aa3d cdac 873e
000001f0: 028b f63e cb18 de3c d985 e23e b0b1 84be
00000200: 3bea f13f a352 51bf 349d 94be 8dd8 78bf
00000210: 9ac6 343e f3dd 6c3e 8c59 26bf 5522 cbbe
00000220: 4516 45bf 1d0b 893f 2ee0 533e 20eb 65be
00000230: 132c e03f 8723 0c3f 03d0 643f 8639 9abf
00000240: b3d0 f3bd 38a9 2abe ef3d a73d f939 543e
00000250: 8013 5bbe 5939 4f3e da25 523e 6e81 9d3d
00000260: cb74 92be 74c4 293e d020 0ebe c060 2e3e
00000270: 1699 c1bd 2f5c b13e 080b 3d3e d8b4 923e
00000280: ceb3 58be e8c7 77be 81b5 2a3f f1fa 09bf
00000290: 982f bbbe 0518 6cbe a8f7 4ebd e22b fd3d
000002a0: 49d7 35bf 4d7b 0cbe d36f 213f 40a0 8a3f
000002b0: 55df babe 5ec7 d33d a601 f4be ba0e b4be
000002c0: 37bc a83b 71ee 09bd ad37 043e 4571 92be
000002d0: 30c4 88be 738f 15be 4adc de3d b755 773e
000002e0: fa46 6b3e a447 7b3e b87f 62be 9f58 a63d
000002f0: 2521 6d3e a23f 623e fe1a 68be fb3d 053e
00000300: c3d8 fe3e 11d8 473f 44f5 143f f65e 973e
00000310: 7a2d 193e 52c7 9f3f ffa3 743f 2b1b 303f
00000320: 5cca a73e 2c3d 443f 1dec 633f 73b4 273f
00000330: 9a30 cd3e 5755 d83e c272 893e 097f 8d3f
00000340: 0744 913e 5aab b73c 18b7 9b3e 028d aa3d
00000350: 55c1 583d 7c13 25bc e9ce 50be 9a9b 54be
00000360: 67eb c13e 6ba3 a2bd 4d88 96be a75a 193d
00000370: b57f ee3c c332 74bc 326a 3d3e 3d60 463e
00000380: 1906 a4be 14a4 9fbe 0082 973d b56e a13e
00000390: 9d81 dbbe 0982 4fbe 7a7f e6be 6c0c 0ebf
000003a0: fb8e 10bf ade1 26bf 1132 c5be 675e 19bf
000003b0: b005 40be b36f 00bf db83 adbe 1423 0ebf
000003c0: 033a c4bd 833f 84bd 3cd5 583d 2770 a2bd
000003d0: e33a c93d 0d2e 753d 309a 8b3c 5e10 39bd
000003e0: 132a 30bd 1668 9dbc a1bc 8dbd 71c4 df3d
000003f0: 3f7a 133e 3f34 943d 7705 19be e33f 75bd
1.2596933 0.58123696 0.6809254 0.8472534 1.0453873 -0.4179897 1.0082737 0.5360556
-0.041412234 -0.0402184 -0.07952477 0.52101403 -0.30149874 0.021301754 -0.3690273 -0.50612825
-0.093538254 0.055604372 0.071020365 -0.21465716 -0.13510942 -0.21362855 -0.5556264 -0.05622651
0.02656001 -0.3457459 -0.29965177 -0.27959082 -0.1472217 -0.244558 -0.42853642 -0.67069626
0.61583084 0.5891276 -0.15422387 1.6454413 0.48886436 0.17948648 -0.64605564 0.5441175
0.42784274 -0.7176071 0.2707805 0.5457726 -0.16713803 0.58263314 -0.7112354 1.5241174
0.09575528 0.16132578 0.21898435 -0.022477549 0.07615513 -0.18328238 0.025415456 -0.07285378
0.16912718 -0.14513576 0.018088091 0.0496306 0.050651386 0.022381539 0.10213836 0.017862054
0.14382863 -0.27957782 0.3328564 2.0054262 -0.014616651 -0.08506401 -0.17899704 -0.60327363
-0.5887953 -0.31766972 0.3665331 0.5923888 0.9929457 0.1414348 -0.25393763 -0.69948244
0.2161789 0.12103765 0.11028606 -0.7551645 0.24239796 0.22230794 0.107239306 0.000822563
0.15980233 -0.06730915 0.015601123 -0.25056347 0.057514332 -0.056372236 0.26314592 0.044346247
1.7806655 -0.41466987 -0.25861436 -0.9332109 0.7193206 0.05487596 -0.37944436 -0.44999152
0.7188238 0.28269994 -0.43645692 -0.4973593 0.48276588 0.049309257 -0.30366918 -0.31860614
0.18049619 -0.054826997 0.09429071 0.3349712 -0.17001934 -0.19784777 -0.5642086 -0.37115178
-0.10575496 0.22844957 0.08308771 0.26499024 0.4815293 0.027111432 0.44242743 -0.25916815
1.8899606 -0.8176672 -0.29026186 -0.9720543 0.17653885 0.23131542 -0.6498039 -0.3967463
-0.76987106 1.0706517 0.20690987 -0.22452974 1.751345 0.5474171 0.893799 -1.2048805
-0.119050406 -0.16666114 0.0816611 0.2072524 -0.21394157 0.2023672 0.20522252 0.076907024
-0.2860473 0.16578847 -0.13879704 0.17029095 -0.09453027 0.34640643 0.1846124 0.28653598
-0.2116234 -0.24197352 0.66683203 -0.5389853 -0.3655975 -0.23056038 -0.050529152 0.123618856
-0.71031624 -0.1371891 0.63061255 1.0830154 -0.36498514 0.10340761 -0.47657508 -0.35167485
0.00514939 -0.03367466 0.12911864 -0.28602043 -0.2671218 -0.14605503 0.108818606 0.24153791
0.22976294 0.24539047 -0.22119033 0.08122372 0.23157175 0.22094586 -0.22666547 0.13011925
0.4977475 0.78064066 0.58186746 0.29564637 0.14958754 1.2482703 0.9556274 0.68791455
0.32771575 0.7665584 0.89032155 0.6550972 0.40076143 0.4225261 0.26845366 1.1054393
0.28372213 0.022420574 0.30413127 0.08327676 0.05291875 -0.010075446 -0.2039143 -0.20762482
0.3787491 -0.07941326 -0.29400864 0.03743997 0.02911363 -0.014904681 0.18497542 0.1937265
-0.32035902 -0.3117987 0.073978424 0.31529775 -0.42872325 -0.20264448 -0.45019132 -0.55487704
-0.5646817 -0.65188104 -0.3851476 -0.5990967 -0.1875217 -0.5017044 -0.3388966 -0.55522275
-0.09581377 -0.064574264 0.05293773 -0.079315476 0.09825685 0.05985837 0.017041296 -0.045181625
-0.043008875 -0.019214671 -0.06920744 0.1092614 0.14402102 0.07236528 -0.14943491 -0.05987538

conv1.bias f4 [16]
00000000: a895 153d 3cb4 64bc d1b0 e9bc ed6c 583e
00000010: 30e1 973e f8c2 573e b0d3 093c 59bf bcbd
00000020: d02d 503e 91fb b2bd 8ef0 af3e 0e29 2d3c
00000030: f619 803d 5b5e ecbd 65c3 ddbd 7530 de3c
0.036519676 -0.013958987 -0.028526695 0.21135302 0.29663992 0.21070468 0.008412287 -0.09216184
0.20329976 -0.08739389 0.34363216 0.01056887 0.06254952 -0.115414344 -0.10828284 0.027122715

conv2.weight f4 [32, 16, 4, 4]
00000000: f011 eabd 7aa5 09be 0514 26bd 3c75 e9bc
00000010: 3d4b cdbe 52cf d7be bf7c d33c 3fe8 68be
00000020: 0a83 07bf af38 1ebe dc3c e93d 7c46 0cbe
00000030: 07f6 6ebe 15c5 033e 3b15 273d b2a8 c6bd
00000040: 5919 4e3c e903 1fbd 190e 34be d734 293e
00000050: 1c54 9bbe f0f4 81be 81a8 003e e267 2fbf
00000060: ec02 01bc 53a0 913e c922 3c3e 48ce 03bf
00000070: a9e8 303e b647 f83e 6992 62be d008 bbbe
00000080: 3ab1 f5be db22 9fbe d13f e3be eec2 833f
00000090: ebd0 88bd b7c6 2d3e 53e0 7d3e 1a1f 8bbe
000000a0: 30c0 94bd b325 33bf 1649 ad3e 4950 0f3e
000000b0: be9a 97be 440e 4c3e a085 9abd 8e30 1d3c
000000c0: 9efa be3e 16db 0b3f 362c 4ebe 37cd 1f3e
000000d0: 16e0 eb3c c444 263e f75d 0dbf 8f86 e8bd
000000e0: f7e4 d63e f27a ba3e c882 9ebe 7ead 023e
000000f0: 8072 8a3e e1f4 a33e 0fe8 7cbe e581 9e3d
00000100: ad5b 043f db64 03be 4994 95bc 1c5d c93d
00000110: fbe9 c33e 092a 6abe fec6 73bd 80de 093e
00000120: 8941 e73e 70c8 0fbe 962e 1dbe 77f7 0dbe
00000130: 7610 403e 2be7 0f3d 6679 8fbe 5e44 02be
00000140: 13cd a1be 616a e2be 30f2 cd3e 5d75 473d
00000150: 87f3 8ebe 535f 03bc 2585 913e 2bbe 8cbd
00000160: 66b7 9fbe 6ed1 84bb d144 dcbc 030c 533d
00000170: 1c35 10bf 5c04 70be ce0c 4bbc c705 04be
00000180: 3459 083f ac4b 42bf 4374 97bd 3572 56bd
00000190: b71f 5d3e 5795 2ebf f261 5dbe f5f0 1d3e
000001a0: 2b45 f93e 085e 73be 4eb0 febd 7bb4 2ebd
000001b0: a6ef 3e3f 7d19 09bf 4b19 b7be fbcf 7abe
000001c0: 485a fbbd efc3 61be a041 7d3e a321 5f3d
000001d0: a010 2dbc 0daa cbbd 567c 9d3d 0542 ec3d
000001e0: 47d9 89be c3d9 52be 3ef4 423d 7f6f bf3d
000001f0: c62f c8bd 9048 26bd 2302 d7bb 0da0 333e
00000200: 39dc 3dbd d890 01bf 2450 a43e 8be8 21bc
00000210: 5bb5 1d3e 3e68 b3be 6393 923e 1d7f 993b
00000220: c79d dabe 2f5a 7cbd 1965 4b3d 305c bdbd
00000230: 6007 cebe 159b 44be 4ab6 1b3e a8ac debd
00000240: 80ea e2bb 79ff f2bd 5e7a 863d 33c1 773d
00000250: 9069 823d 6df6 74be 5c43 5e3e aba2 b03d
00000260: 1e0c 2bbe cc0c 81bc ae03 4e3d 55d5 c43d
00000270: 53c4 ebbe 518e 0bbe 8b34 543c 3065 f7bb
00000280: 495c cbbe d469 2bbf b201 933d edba b93d
00000290: a96f 8ebe 5a59 f2be 76a6 2a3e 7fbb a1bb
000002a0: 32be 82be 80b7 ecbe f67e 143e b92c 2b3e
000002b0: bd69 b1be 7691 54be 4dfa 5cbd 8803 08be
000002c0: 501c 4cbd 4a0a 2fbf 1fa6 e0bd 8522 c5be
000002d0: f1f7 e9bd 2efa 53bd 370e 47be a220 0a3e
000002e0: db36 0d3f b347 233e f6ec d6be 546a 9a3e
000002f0: 694b 623f 72b4 5bbe 87f7 c4be d47c e1be
00000300: e7d6 183f ab66 21bf 8064 a5bc 553a 05bf
00000310: a6de 3bbd 1ba2 01bf 4884 6d3e 03e6 9dbe
00000320: ea15 54bd e3e0 943e 0d99 efbe 2da2 fdbe
00000330: a964 733f bced a53e 3a77 a2bc 39a4 093f
00000340: 7060 04be 9c18 08bf e0bb b7be e727 423f
00000350: 50f0 8dbe b415 29be e609 d6bd 604f 0fbd
00000360: 6f8f 873e 0ae7 c9be 3e39 f13e 23df abbe
00000370: f297 2a3d 0543 de3d cd66 47bf 2b84 05bf
00000380: a6fb 47be bcfb 78be 5b76 c13d 9568 193e
00000390: c296 b2bd 2d1e debb fb31 8abd 5dbe 63bd
000003a0: b6f7 893c 512a 183d 078f d63d 2569 e13d
000003b0: f80e 47be 1866 c2bc 29c1 253e eba7 053d
000003c0: 7800 5d3f 174e dabe cfae 31bf 3b86 5cbe
000003d0: 6b34 bf3e d529 82be ee66 f8be c2ef 803b
000003e0: b33c ef3e b186 9f3e b832 91be 948d 91bd
000003f0: f00d 543f bee4 16be 64ba 38be 4bb7 5ebe
-0.114292026 -0.1344203 -0.040546436 -0.028498285 -0.40096465 -0.4215036 0.02581632 -0.22744845
-0.52934325 -0.1545131 0.11388561 -0.13698763 -0.2333604 0.1286815 0.04079173 -0.09700145
0.012579286 -0.03882209 -0.17583503 0.16524063 -0.30337608 -0.25382185 0.12564279 -0.6851789
-0.007874232 0.2844263 0.18372644 -0.51486635 0.17276253 0.4849221 -0.22126164 -0.3653016
-0.47986776 -0.3108128 -0.44384626 1.0293863 -0.06680473 0.16970335 0.24792604 -0.27172166
-0.07263219 -0.699794 0.33844823 0.1399547 -0.29610246 0.19927317 -0.07545018 0.009594096
0.3730058 0.54631174 -0.20134053 0.15605627 0.028793376 0.1623717 -0.55221504 -0.1135379
0.4197156 0.36421925 -0.30959153 0.12761495 0.27040482 0.32022765 -0.24697898 0.07739619
0.51702386 -0.12831442 -0.018259184 0.09832212 0.3826445 -0.22867598 -0.059515946 0.13463783
0.45167187 -0.14041305 -0.15349802 -0.13863932 0.1875628 0.03513257 -0.28022307 -0.12721393
-0.31601772 -0.44221786 0.40223837 0.04869591 -0.27920172 -0.0080183325 0.28421894 -0.06872209
-0.3119461 -0.0040532863 -0.026888283 0.051525127 -0.5633104 -0.23439163 -0.01239319 -0.12892829
0.53261113 -0.75896716 -0.07395222 -0.05235501 0.2159413 -0.68196625 -0.21619394 0.15423949
0.48685583 -0.23766339 -0.12435971 -0.04265259 0.74584424 -0.5355452 -0.35761485 -0.24493401
-0.12273079 -0.22047399 0.24732065 0.054475438 -0.010563046 -0.09944544 0.07689731 0.1153603
-0.26923582 -0.20590882 0.04759621 0.09347438 -0.09774737 -0.040596545 -0.006561534 0.17541523
-0.0463526 -0.5061164 0.32092392 -0.009882103 0.15401213 -0.35040468 0.28628072 0.0046843425
-0.426985 -0.061609443 0.04965696 -0.09246099 -0.40240002 -0.19199784 0.15206257 -0.10872775
-0.0069249272 -0.11865134 0.065663084 0.060486984 0.06367791 -0.23922129 0.21705383 0.086247765
-0.16703841 -0.015753172 0.050296478 0.09611002 -0.4604822 -0.13628508 0.01295198 -0.0075499043
-0.39718845 -0.66958356 0.07178058 0.090688564 -0.27819565 -0.47333795 0.16665062 -0.0049356814
-0.25535733 -0.4623375 0.14501557 0.16716279 -0.34650984 -0.20758614 -0.053949643 -0.13282597
-0.04983169 -0.68375075 -0.10969185 -0.385029 -0.11424244 -0.05175226 -0.19439016 0.13489011
0.5516183 0.1594532 -0.41977662 0.30159247 0.88396317 -0.21455553 -0.38470098 -0.4404055
0.59702915 -0.63047284 -0.020189524 -0.5204213 -0.04586663 -0.5063798 0.23194993 -0.30839548
-0.05177871 0.29077825 -0.46796456 -0.49537793 0.9507547 0.3240794 -0.019832242 0.5376621
-0.12927413 -0.5316255 -0.35885525 0.75842136 -0.27722406 -0.16512185 -0.10451107 -0.034987807
0.2647662 -0.3943408 0.47113985 -0.33568677 0.041648813 0.10852627 -0.77891237 -0.521548
-0.1952959 -0.24314779 0.09446403 0.14981301 -0.08720161 -0.0067784996 -0.06747814 -0.055601466
0.01684175 0.03714973 0.10476499 0.11006383 -0.19439304 -0.023730323 0.16186966 0.032630842
0.8632884 -0.42637703 -0.6940736 -0.2153558 0.3734468 -0.2542254 -0.4851603 0.0039348314
0.46725997 0.3115745 -0.28359008 -0.07107082 0.82833767 -0.14735696 -0.18039852 -0.21749608

conv2.bias f4 [32]
00000000: 5f28 ac3d 95c0 853e e234 b2bd e2a1 ee3a
00000010: 4071 91bc 8918 a43e 3b2f 6cbd b106 acbd
00000020: 59d5 0b3e 0879 4dbe e1fe 91bd 98cf a13e
00000030: 35c8 e7bd 052f aa3e 4ccd 73bd 8605 1d3e
00000040: 6bb5 0fbd c042 6e3d d47c b93c d888 2f3d
00000050: cc0f 24be 78e5 bf3c 1595 1c3e 04bd 7bbd
00000060: 05b5 c43d 661f e0bd 9713 a43e 3f38 50bd
00000070: e60d 2d3e f90a a33e 46f8 643d 696a edbc
0.08406138 0.2612349 -0.08701493 0.0018206204 -0.017754197 0.3204997 -0.05766223 -0.08399714
0.13655604 -0.20065701 -0.071286924 0.31603694 -0.11317483 0.33238998 -0.05952196 0.15334138
-0.035085123 0.058169127 0.02264253 0.042855114 -0.16021651 0.023424849 0.15291245 -0.061459556
0.09604839 -0.10943489 0.32046196 -0.05083489 0.16899833 0.3184431 0.055900835 -0.028981404

fc1.weight f4 [64, 800]
00000000: 791e 26bf 6763 aabd e110 bebd 274d 9e3d
00000010: adef 7b3d 4ce5 c7be 9a8d 68bb b4d0 9bbd
00000020: 910b 063e 95e3 d33d 3041 90be 4d3b 113d
00000030: ced5 303e c02c f23d 7e33 013e f808 c1bd
00000040: 5293 86be 584d 953d 843d 8ebd 29e7 c33e
00000050: 74eb dc3e d7e1 4dbf e8bd abbe 0d43 bf3e
00000060: 0be8 bbbe 526a af3e e471 423e 7fa8 a43d
00000070: ceee 903b e554 9f3d 5e19 3c3c 988b 833d
00000080: c87f 383d 8bf7 b53d aa19 7a3d 21cc 0e3b
00000090: 48a8 a23d 2f1b 463d 6b96 863d eb8c 533b
000000a0: 5b36 47bc cff4 cd3d a95f f83d b579 db3d
000000b0: 8e4e 0fbe 3bcd 5cbe 9d60 9f3d 8477 c23e
000000c0: 58bc 853e 4dc8 4bbe 15a0 583c 3fd3 11bc
000000d0: 22e3 313c ecb1 fdbc e484 9c3c 9553 0c3d
000000e0: a109 003d 1521 d0bc c0c1 403c 8ad9 93bb
000000f0: 64e8 573c 2b9d 5f3c 708d 98bb 9e05 42bc
00000100: 3290 c63c cae6 573c 5646 af3c 9257 773c
00000110: 901a d3bc d047 be3c 70c3 983c 46a1 81bc
00000120: 2221 283c a45b 563c c271 df3c 743a 00be
00000130: 9f63 cf3d e641 15bd 71f8 b1bd d1ab 89bf
00000140: be17 7abe c5d1 ac3d 7f22 833e 730a 393e
00000150: d979 66bf c4fc c33b 6184 a83e 87ff 8d3e
00000160: 3471 1dbf 4dbd b7be e301 be3c e8b1 203e
00000170: 7cfa a93d 5ef1 8c3c 992e 48be 09cc f7be
00000180: 190e c53b 0f9f adbe a0b9 9ebe 57d8 d7be
00000190: 070f 87bc 807f 8cbd 077e d1be d2f2 a03d
000001a0: 118a 25bf 21db bebe 9040 803d 7f34 5dbc
000001b0: 7dd6 503d 0689 f4bc 1235 57bd 31fa c9bd
000001c0: b568 493d 9d86 51ba 756d 9abd 3b43 1f3c
000001d0: 375b 0c3c 716e 20bd b5df 333e 0d66 afbe
000001e0: 39ba c43e c99f 8b3e 56a1 02be eab9 843e
000001f0: 0322 933f d68f bb3e 77d1 613d eaec 5a3d
00000200: e084 8bbb ea9d bc3c 880d c13d ea3d 3e3d
00000210: 774a 503d ead9 443d bddc b73d 8b36 ec3d
00000220: 94a1 623d 86e7 643d 58ac 0a3d 0a85 9a3d
00000230: 6b9e 1b3e c32c c83d d538 03be b2ec 99bd
00000240: 2512 583d 511f 103e 02c2 283d 22a9 4dbe
00000250: 6b5f 4cbd 0a97 083e 1b8a e8bb 635b 03bd
00000260: c788 413d c580 fbbc 5582 49bb 6c76 113c
00000270: 8325 953a caef db3c 3815 a0bc dc43 8cbc
00000280: 03b5 e03b 3517 6c3b 1361 013c 86fb e3bc
00000290: 3d78 c23c 092d c43c 7eac f0bc 2c13 a33c
000002a0: e109 ed3c 085a 793c 78f5 963c 261c 26bd
000002b0: 0499 06bc 483d 5cb8 f569 aebc 0447 40bf
000002c0: 5ff7 d7be bf61 2abe 5412 fc3d dde8 c0be
000002d0: a5a0 10bf 5a57 f03a 8129 8f3e 03d0 f2be
000002e0: da2f 2a3e ae7d 50bf 0e3a 9fbe 5c33 50bf
000002f0: 728d f1bc d103 11be 07f4 1fbf a4dd 6fbf
00000300: cba0 3ebe faa6 a23e cbff 563e 79b2 41be
00000310: 7eee 83bf 1a21 aebe 824c 953e 596c 073f
00000320: 02b8 40bf 0a78 83bd d5ec c13d 35cc 7d3d
00000330: a638 653d 9d0b 9dbd 2649 8d3d d8ef b9bc
00000340: 39b6 f6bd bce2 523d 9080 fabd 0468 7ebe
00000350: b4fb cebc 4eff 18bf 1729 71be e106 04be
00000360: f45c d93d a6ce 20bd b135 69be 5952 04bd
00000370: e65c 013f 4379 0d3e f871 173d 3f5e 133f
00000380: ec91 083f b4d1 b5be 7baf b63e 1f07 1abe
00000390: 40de 60be 3d87 28be c774 6e3d 54b0 d83d
000003a0: 1dac f13d 0c78 093f 490f 183e d96c edbe
000003b0: 2cb7 5b3d 781b 3cbe 44dc a1be e3f2 ecbf
000003c0: a42e d0be 12a3 40be 8b0e 2c3f 28e8 043f
000003d0: a0cc 97be 43d0 e3be 9009 42bf 79f2 a93c
000003e0: 1aae 143f 7069 423e 7186 e0be f6c2 03be
000003f0: e35f 3bbd 09cc 883d 32a1 2f3c 8b38 6fbe
-0.6489025 -0.08319741 -0.09280563 0.077295594 0.06150787 -0.39042127 -0.0035484792 -0.07608166
0.1309035 0.10346142 -0.28174734 0.035456944 0.1726906 0.11824942 0.12617299 -0.09425539
-0.2628427 0.07290143 -0.06945327 0.382623 0.43148386 -0.8042273 -0.33543324 0.37355843
-0.36700472 0.34260803 0.18988758 0.080399506 0.004422999 0.07779864 0.011480657 0.0642311
0.045043737 0.08885106 0.06105963 0.002178915 0.07942253 0.048365768 0.06571659 0.0032280039
-0.012158955 0.10056459 0.12127621 0.10716573 -0.1399481 -0.21562664 0.077820994 0.37981808
0.26120257 -0.19900627 0.01322176 -0.008900463 0.010857375 -0.030968629 0.019106336 0.034259398
0.031259183 -0.0254064 0.011764944 -0.0045120167 0.013177965 0.013648312 -0.0046555325 -0.01184216
0.02423868 0.013177583 0.021395843 0.015096562 -0.025769502 0.023227602 0.01864788 -0.015823971
0.010261806 0.013083372 0.027275924 -0.12522298 0.10126423 -0.0364398 -0.086899646 -1.0755559
-0.2442312 0.08438448 0.25612256 0.18070392 -0.90029675 0.0059810597 0.32913497 0.27734014
-0.6150086 -0.35886613 0.023194259 0.15692866 0.08299729 0.017204937 -0.19549026 -0.48397854
0.0060136435 -0.33910415 -0.31000996 -0.42157242 -0.016486658 -0.06860256 -0.40916464 0.07858814
-0.646638 -0.37276557 0.06262314 -0.013501286 0.050985802 -0.029850494 -0.052540846 -0.09862173
0.049172122 -0.0007992776 -0.075404085 0.009720619 0.008566669 -0.039167825 0.17565806 -0.34257546
0.38423327 0.27270344 -0.12756857 0.2592309 1.1494755 0.36633176 0.055131402 0.053448595
-0.0042577833 0.023024518 0.09426409 0.046445765 0.050852265 0.04805938 0.08977649 0.11533841
0.055329874 0.05588486 0.033855766 0.075449064 0.1519715 0.097741626 -0.12814648 -0.07515849
0.05275168 0.14074446 0.041200645 -0.2008405 -0.049895685 0.13338867 -0.0070965416 -0.032069575
0.04724958 -0.03070105 -0.003074785 0.008878332 0.0011378977 0.026847739 -0.019541368 -0.017122202
0.006857516 0.0036024575 0.007896679 -0.027829897 0.023738975 0.023947256 -0.029379126 0.019906603
0.028935375 0.015219219 0.018427595 -0.04055419 -0.008215193 -5.250916e-05 -0.021290759 -0.7510836
-0.42180917 -0.1663885 0.12308183 -0.3767766 -0.56495124 0.001833658 0.27961352 -0.47424325
0.16619816 -0.8144177 -0.3109898 -0.8132837 -0.029486392 -0.14161612 -0.6248173 -0.9369757
-0.18616025 0.31768018 0.20996015 -0.18915738 -1.0307157 -0.3400963 0.29159933 0.528997
-0.75280774 -0.0641938 0.09469 0.061962325 0.055962227 -0.07668231 0.068987176 -0.022697374
-0.12046475 0.051485762 -0.122315526 -0.24844366 -0.025266506 -0.59764564 -0.23550831 -0.12893249
0.106134325 -0.039259575 -0.22774388 -0.032305095 0.50532377 0.13815789 0.036973923 0.57565683
0.5334766 -0.35511553 0.35680756 -0.15041779 -0.21959782 -0.1645784 0.058216836 0.10580507
0.11800406 0.536988 0.14849581 -0.46372107 0.053641483 -0.18369853 -0.31613362 -1.8511623
-0.40660584 -0.18812206 0.6720969 0.5191674 -0.29648304 -0.4449483 -0.7579584 0.020745503
0.5807816 0.18985534 -0.4385257 -0.1286734 -0.04574574 0.066795416 0.010719584 -0.23361413

fc1.bias f4 [64]
00000000: 9dd7 a03d 93dd b8bc 4f72 27bd 52ae fc3c
00000010: 0e8c 923d 9286 ddbc 0b75 4ebd 2010 3f3e
00000020: 910d b73d 63ca e83d 7a08 de3c b05c 983d
00000030: 0bd3 87bd b479 68bd 8796 dfba 1bc4 473e
00000040: ce40 e13c 30d3 8e3c 93d1 5a3d 620b db3d
00000050: d64c 13bc c86a dd3d 8ce4 0bbd d3ae 7bbd
00000060: fbc6 bb3d 7219 cebc a0d0 203d ecda 6fbd
00000070: 1889 143e feea 5abd a097 07bd ba20 fc3d
00000080: 7eb8 aebc bde8 1bbd 2ab2 e33c d053 20bd
00000090: 3bb9 4c3d 657c 40bd 5568 46bd 7b53 0ebd
000000a0: c1fa 32bd db25 60bc 88a9 c13b 5009 29bd
000000b0: 1677 043e c127 e83c d511 09bd 4ee3 6f3d
000000c0: ec03 aabd e1cf e0bb 0eb4 ac3d ed4d 153d
000000d0: 1315 0cbc ac06 52bd 938b 80bc 5770 773d
000000e0: dd84 e0bc e119 e6bc 08dd 56bc 5cda 28bd
000000f0: 5689 71bc c6d1 64bd 91c2 c63c 526b aabc
0.07853625 -0.022566592 -0.040880498 0.030844841 0.071556196 -0.027041707 -0.05040459 0.18658495
0.089381345 0.11366727 0.027103651 0.07439554 -0.0663205 -0.05675669 -0.001705841 0.19508402
0.027496722 0.017434686 0.05342252 0.106955305 -0.008990487 0.108113825 -0.034153506 -0.061446022
0.09168812 -0.025158618 0.03926146 -0.05855839 0.14505422 -0.053446762 -0.033103585 0.123109296
-0.021328207 -0.038063753 0.027794916 -0.03914243 0.049981337 -0.046993632 -0.048439343 -0.034747582
-0.04369617 -0.0136809 0.0059101023 -0.041268647 0.12936053 0.028339269 -0.03346427 0.058566384
-0.08301529 -0.0068607186 0.0843278 0.03645127 -0.008549946 -0.051275894 -0.015691554 0.06040987
-0.027407104 -0.028088512 -0.013114221 -0.04122387 -0.014742216 -0.055864118 0.024262698 -0.020803127
