saved_models/dqn_checkpoint_ep150.pth (torch, 981377 bytes, 32 tensors)

conv1.weight f4 [16, 2, 4, 4]
00000000: dfae e0be 64da 14bf 13de 773e 24c8 623e
00000010: 3dca febe fe15 12bf 46c4 573e 40f7 1dbf
00000020: 1e13 13bf 7d50 95bd e75e 033e 90fc 8d3e
00000030: 6551 cbbe af04 9cbe 8a01 2bbe d6fc 8b3f
00000040: 5b5f a4bd 24b8 71bc 85fe 90be 5008 98be
00000050: 0904 b9be 90e7 b5bd 8722 313e defd 40bd
00000060: 5d51 803d 9477 82be 2618 5c3d deeb c93b
00000070: d83a 133d 7a70 5fbe b6a3 763e f895 5dbe
00000080: 96f7 4b3f 5d74 02bf dbaa 943f 0ad8 0040
00000090: 7a1e 2e3e 9caa 1c3f e776 ff3e fee3 e83e
000000a0: 1b31 1e3f 27f9 92bd 4dcf 023e aa6f 933e
000000b0: 06e2 783e ec10 cd3d 3fe3 93bd b779 ae3e
000000c0: fe7e 4e3e 7da3 a83d 667c 683e c1ec 64bd
000000d0: eac4 2e3e b981 343c a5e5 a43e f466 093e
000000e0: 4be1 0a3d 378b 4f3d f75f 2d3d d07f 2c3c
000000f0: 7b6f 9cbd bd9f dc3d ba0b 9bbd 8e18 ec3d
00000100: 78ef 3abe 2ad4 013e 969f a13e fbc4 9e3e
00000110: 321f c83e 3317 eb3d 71f0 54bf 643c e5be
00000120: 5891 50bf de1b 0abf 8653 4cbf a0c0 56bf
00000130: 03e8 50bf eb8a afbe d6c2 96be d1cf d5be
00000140: fa38 923c 610e 783e e181 eb3d d260 a7bd
00000150: ccae 85bd d25d 313d 5a2e 333e 5943 01bd
00000160: c8af bdbd c491 e7bd a044 89bc 84be 2bbe
00000170: c1bb 463e 009d 6a3e 290e 7cbd 821a 6a3e
00000180: c0ee 1c40 ecad 09be 07aa 9a3d 0fc0 483f
00000190: fa2a cc3e f57d a6be d3e3 95be 1d7d 003f
000001a0: cca5 b4be 2b2a d6be 7e87 383c bac0 26bf
000001b0: 688b 3340 7b9f c63e 1777 aa3f 7a47 6d3d
000001c0: daad bf3c 77f0 da3d 2804 93be 6715 f0be
000001d0: 237e 843e 581b 873e 6bef 66be 0df4 b43c
000001e0: 9527 4e3d c9b8 0cbf 3a27 8fbc 808c 6b3d
000001f0: e3c3 c93d 4260 60be eafc 993d e3c9 4c3d
00000200: 3cb3 ff3e 1351 02bf c5b9 02bf 8def 01bf
00000210: d628 0fbf 1a92 0ebf 0bca 0abf 97c6 13bf
00000220: a310 11bf 120c 0cbf 64e7 f7be 2ffa 1f3f
00000230: d569 37bf 5f20 d9be b356 05be ab66 203f
00000240: ad21 b3bd 53b7 2fbd 9080 27bf 9d0f 86bd
00000250: a7c0 ce3b e609 383e 2b42 9fbe 4714 2d3d
00000260: 8983 2f3e a08a 613d bec7 b3be 4e9f 7cbe
00000270: 93cb 093e da23 8abe 8fc3 e5bd a43c 56be
00000280: 0e2f c5be e926 b1be fc74 fdbe 230e e5be
00000290: 3b67 023f b864 8e3e 8a1d 043e a4af b53e
000002a0: 4cdd edbe 2ffa e6be e563 17bc 3e3d c7be
000002b0: 0884 1d3d d1c0 afbd 7afa dfbe eb2a d0be
000002c0: 3f68 d5be 55e0 6fbe 3425 18be 978d c73d
000002d0: 9d0d b0bc 9d1f 78be 5685 f1be 6b62 4abd
000002e0: fb30 cdbb 046a 77bd b327 73be 578c a7bd
000002f0: f12d d8bd 0565 163d b39e c53d 986c a53d
00000300: d5ce 27bf 35c7 0cbf 2efb 8e3e b23c c53d
00000310: 0ce9 1d3e a959 563e cb3e a03e 0e79 34bf
00000320: ccab 26bf d30a febe 94cc 21bf c8e1 21bf
00000330: d629 54be 4d81 3a3d 45b7 07bf 7000 82be
00000340: 2377 2dbd 3fea 973e 5ac9 46bd 0db8 243c
00000350: a821 233e 7f8e 06be f123 843e 3d27 4e3e
00000360: 1a01 153e 1441 91bd 039e 18be 9ac8 6dbe
00000370: f48f 203e 2908 19bd 8e05 513e b183 7c3c
00000380: 8f20 2cbe 4aac b03d 07be 2f3e 477e 803e
00000390: 7eed c03e 8dac 05bf c589 23be 1861 04bf
000003a0: 3d28 fcbe cbfc ebbe 8e8a 9f3c 76cd fbbe
000003b0: 74eb b0be 6a41 3fbd dc56 fbbe 1f96 04bf
000003c0: 207c 633d db82 953d a33c 35be a815 51bd
000003d0: ded4 12bd 12e2 adbd fcb9 f5bd 5231 aabd
000003e0: 7787 7cbd 434f 0abe 1772 afbe 8465 05bf
000003f0: 69c1 9abd 18b0 0abf 6cfb 14be 3316 203d
-0.43883416 -0.5814574 0.24205808 0.2214666 -0.4976367 -0.5706481 0.21070966 -0.617054
-0.57451046 -0.072907425 0.12829171 0.27731752 -0.39710537 -0.30472323 -0.16699806 1.0936534
-0.08026 -0.014753375 -0.28319183 -0.29693842 -0.3613589 -0.08882058 0.17298327 -0.047117107
0.06265519 -0.25481856 0.053733967 0.0061621508 0.03594479 -0.2182025 0.24085888 -0.2163924
0.7967466 -0.50958806 1.1614641 2.013186 0.17003813 0.6119783 0.49895403 0.45486444
0.6179368 -0.07176428 0.12774391 0.2879613 0.24304971 0.10012993 -0.07221078 0.34077236
0.20165631 0.08234308 0.22703704 -0.05588985 0.17067304 0.011017256 0.32206455 0.1341818
0.033906262 0.050669875 0.042327847 0.01052852 -0.07638451 0.10772655 -0.07570596 0.11528121
-0.18255413 0.1267859 0.31567067 0.3100966 0.390863 0.11479034 -0.83179384 -0.44772637
-0.81471777 -0.5394877 -0.79814947 -0.8388767 -0.8160402 -0.34285673 -0.29445523 -0.41760114
0.017849434 0.24224235 0.11499382 -0.08172764 -0.065274805 0.043302365 0.1749815 -0.03155837
-0.09262043 -0.113070995 -0.016756356 -0.16771895 0.1940756 0.22911453 -0.06153694 0.22861674
2.4520721 -0.13445252 0.075519614 0.7841806 0.3987654 -0.32517973 -0.2927538 0.5019091
-0.35282743 -0.41829047 0.011262773 -0.6513783 2.8053837 0.3879355 1.3317593 0.057929493
0.023398329 0.10690396 -0.28714108 -0.4689133 0.25877485 0.2638805 -0.22552268 0.022089029
0.050330717 -0.5496946 -0.01747476 0.057507038 0.098518156 -0.2191172 0.07518943 0.04999722
0.49941432 -0.5090496 -0.5106471 -0.5075615 -0.55921686 -0.55691683 -0.54214543 -0.577249
-0.5666601 -0.5470592 -0.48418725 0.62491125 -0.7164586 -0.4240751 -0.13021354 0.6265666
-0.087466575 -0.04289944 -0.65430546 -0.06545947 0.006309587 0.17972526 -0.3110517 0.042255666
0.1714002 0.055063844 -0.3511333 -0.24670145 0.13456564 -0.26980478 -0.112189405 -0.2092157
-0.38512462 -0.346 -0.49503314 -0.44737348 0.5093877 0.27811217 0.12901893 0.35485566
-0.464579 -0.4511275 -0.009240125 -0.38913912 0.038455993 -0.08581699 -0.43745786 -0.40657744
-0.41681096 -0.2342542 -0.14857942 0.09743803 -0.021490866 -0.2423081 -0.4717204 -0.049410265
-0.0062619424 -0.06040384 -0.23745613 -0.081810646 -0.10555638 0.036717433 0.0964941 0.08077353
-0.65549976 -0.54991466 0.2792601 0.09630717 0.15420932 0.2093264 0.31297907 -0.70497215
-0.6510589 -0.49617633 -0.63202786 -0.6323514 -0.20719084 0.045533467 -0.5301402 -0.2539096
-0.042349946 0.29670903 -0.048531868 0.010053647 0.15930808 -0.13140295 0.2580867 0.20132156
0.14551201 -0.07092491 -0.14904027 -0.23221055 0.15679914 -0.037361298 0.20412275 0.015412257
-0.16809295 0.086266115 0.17162333 0.25096342 0.37681192 -0.52216417 -0.15970524 -0.51710653
-0.4924945 -0.46091303 0.019475248 -0.49180192 -0.34554636 -0.046693243 -0.49089706 -0.51791567
0.055538297 0.07300349 -0.17698912 -0.051046044 -0.035847537 -0.08490385 -0.11998364 -0.08310188
-0.061652627 -0.13506798 -0.3426673 -0.52108026 -0.07556421 -0.5417495 -0.14549035 0.03908367

conv1.bias f4 [16]
00000000: 2838 343e 569e babd 2608 983e 92a7 d13c
00000010: 8544 7c3e d7d7 043d 013c 263e 60e8 c73d
00000020: add6 a13d b1b8 d43c 1ed4 663e c64e 233e
00000030: 42d4 8a3b e141 733e 0ade 943e 0220 903e
0.17599547 -0.091122314 0.29693717 0.025592599 0.24635513 0.032432403 0.16233827 0.09761119
0.07902274 0.025966974 0.22541854 0.15948018 0.004236729 0.237556 0.29075652 0.2814942

conv2.weight f4 [32, 16, 4, 4]
00000000: 4e22 0cbe 2f9c 99bd ab40 38be c406 bbbe
00000010: b69e 13bd 3609 81bc 527f f5bc 5692 26be
00000020: e1df d93c 220a 353d 90cc 41bc 7b72 f3be
00000030: c894 f7bd c72d 38bc c961 e6bd cc21 f9be
00000040: a097 e5bd e56e 4abe c2d8 103e 3b1a 0440
00000050: 5667 1abd 3d84 ab3e 6515 8f3d 4de6 aa3e
00000060: 409f 19be 21bd d9bd d08a 893c ce5d 163f
00000070: b0ee 8abe 9b9d 90bd 4f10 973d 9991 d13d
00000080: df2f 983d 5533 eabc 3cd2 783b f7f8 59be
00000090: 7a62 ee3c fcdd 573c 1b38 803d 2e19 63bd
000000a0: 3cf5 bfbd 4590 e1bd 16f8 383d 11d2 22be
000000b0: de14 7eb9 8d67 013c 82fe dc3c b5e7 593d
000000c0: de0c 05bf 935b 45bf c67f 7abd 6bfa f1be
000000d0: 7169 b83e 8070 dc3e d914 95be 2405 cfbd
000000e0: 333d 803d 9bb0 db3e 467b b83d 3473 59be
000000f0: a7cd bebe e32a b03e 95d4 49be 7ce5 f7ba
00000100: e096 33be ca31 f6bd 6643 31bc 57c9 7bbe
00000110: 9575 22be 2125 58bd b2ba 01bd 2d50 a63d
00000120: a7ed fa3c ae72 b2bc 9d0e 68be 8ccf 8abd
00000130: c605 b6bc 9921 41be 4034 85be 0663 64be
00000140: 149d 1d3a fa81 82bd c6b9 86bd bb9f 0abf
00000150: bc43 cfbd 37b7 8a3d b9cd 91bd e4f1 213c
00000160: 311d bdbe c480 afbe 9758 1ebe c10c 723a
00000170: 2600 d53d 8068 05bc 4bc3 37be dc79 b73c
00000180: 8292 1dbd 746c 503d 43cb 9bbc 0e65 7fbe
00000190: 1934 3e3c 5a71 8dbd dc6d 34bc 2793 9d3c
000001a0: 9ecf adbd e2c3 80bd ef71 55bd edf2 efbd
000001b0: eaff 16bc 4a93 cf3d e925 cc3d e717 cebd
000001c0: 56c7 f1bb 476c 763c 7a37 99bd 2311 b1be
000001d0: 9581 d3bd 012d 48bc 4fe3 53be 5966 0fbe
000001e0: 1157 c9bd 98c8 15bd 2008 4cbe 9bb6 12be
000001f0: 389b 3ebc 4a9b 08bd 69de 0bbe a7f3 df3b
00000200: 45c3 9abd 6fc4 e13d 7610 dbbd 17b5 c5be
00000210: f185 06bd 9348 e53b 26e3 923d a13d 73be
00000220: 75cd 68bd 0db0 0bbc 9946 853c a25a 8fbd
00000230: 5a42 70bd 1952 92bd 2e07 a23c 0109 32bd
00000240: e17c abbd f7e8 09bc 05bb 82bd c860 cd3e
00000250: 1d24 01be eb9b f4bc 9845 c63e 98d4 a33d
00000260: 1d21 ac3d 9535 da3c 6291 c5be 80da f3bd
00000270: 92c3 0dbe 9887 b8bd ea01 7ebe c68f cfbd
00000280: ae38 37bc 9c69 38be b25d c3bd cf4b 0bbe
00000290: f2b4 133b 0e29 0a3e 8ca2 223e 8eec 483e
000002a0: 8300 183e b006 003e 575c d0bd d639 e73d
000002b0: 44e3 d63d 8978 013d eaad 8ebc 2d8c db3b
000002c0: 6452 42bd f4d1 1bbe 7d23 a03e c776 673f
000002d0: ad39 a63d ac57 223e e21e 773e e5d7 ed3e
000002e0: b003 53bd aa15 c6bd a03c 9fbd c179 de3e
000002f0: 9258 183d df62 55bc 23be 053d fabe 443d
00000300: 3006 c83a d1c8 923e 22cf 913e bc8b 5e3f
00000310: ad62 42be 4bea 7e3e 2244 403e 76bb 4a3f
00000320: 7ddc 29bd cb05 e7bc 8741 e73e ef6a 9b3e
00000330: d893 6c3e 9fb3 1f3e 538f 81bd 0c46 4f3e
00000340: cc36 0cbe 8319 e9bd cac0 963d e6f3 9cbe
00000350: 8c54 15be e93f 16be 882c afbd 06e8 c93d
00000360: 0893 f6bd 7a72 a9bd ceed 5cbd 69cf 47be
00000370: 06aa 9c3c ab5e 2dbe 91f7 80bd 6c26 75bd
00000380: d5a2 13bc aaa4 cd3c e79e e43d 65ea 4b3f
00000390: bab0 903d 0762 363e 4b23 033e cf94 813e
000003a0: d626 6d3d 6331 893d 139a 653c 599f 483e
000003b0: a7c1 253c b09c 083e 28e6 2a3d b184 b63d
000003c0: 0786 09bd 0666 97bd bd1b 66bd 1669 b9bd
000003d0: 551e 01bc 1daf c93d 20aa 903d 3f04 a0bd
000003e0: d232 1fb9 3859 0e3d 4fd7 56be 3507 96bd
000003f0: 9e0f 7c3c edf4 2f3c 5691 97bc 70a9 e9bd
-0.13684961 -0.07500493 -0.17993419 -0.365286 -0.03604003 -0.015751462 -0.029967938 -0.1626676
0.026596012 0.044199117 -0.011828557 -0.4754828 -0.12088925 -0.011241383 -0.1124912 -0.48658597
-0.11210561 -0.19768865 0.14145187 2.064101 -0.037696205 0.33499327 0.069865026 0.3337883
-0.15002155 -0.106317766 0.016789824 0.58736885 -0.2713523 -0.07061311 0.073761575 0.10232849
0.07431006 -0.02858893 0.0037967106 -0.21286379 0.029099692 0.013175484 0.06260701 -0.055443935
-0.093729466 -0.11013845 0.04515847 -0.15900446 -0.00024231101 0.007898224 0.026976828 0.05319949
-0.5197276 -0.77092856 -0.06115701 -0.47261366 0.36017945 0.4305458 -0.29117468 -0.10108402
0.06261673 0.42908177 0.090078875 -0.21235353 -0.37266275 0.3440772 -0.1971 -0.0018912996
-0.17538023 -0.12021215 -0.010819292 -0.24588524 -0.15865166 -0.052769784 -0.031672187 0.08120761
0.0306309 -0.0217832 -0.22661825 -0.06777868 -0.02221955 -0.18860473 -0.26016426 -0.223034
0.0006012481 -0.06372447 -0.06578402 -0.5414998 -0.10120341 0.06773227 -0.071193166 0.009884331
-0.36936334 -0.34277928 -0.15463482 0.0009233468 0.10400419 -0.0081425905 -0.17945592 0.022396974
-0.0384698 0.05088468 -0.019017821 -0.24940893 0.011609101 -0.06906386 -0.011012521 0.019235207
-0.084868655 -0.06287362 -0.05211061 -0.11716256 -0.009216288 0.10135515 0.09968168 -0.10063153
-0.007378499 0.015040464 -0.074812844 -0.34583387 -0.1032745 -0.012217761 -0.2069218 -0.14003886
-0.0983106 -0.036568254 -0.19924974 -0.14327471 -0.011633687 -0.03335122 -0.13659061 0.0068344655
-0.07556776 0.11023795 -0.10696499 -0.38614723 -0.03284258 0.006997177 0.071722314 -0.23753978
-0.056836564 -0.0085258605 0.016269015 -0.06999709 -0.058657028 -0.07144565 0.019778814 -0.043465618
-0.08373428 -0.00841736 -0.063833274 0.401129 -0.12611432 -0.029859504 0.3872497 0.079995334
0.08404753 0.026636878 -0.3858748 -0.1190691 -0.13844135 -0.090102375 -0.24805418 -0.101348445
-0.011182947 -0.18009037 -0.09539355 -0.13603137 0.0022538272 0.13492224 0.15882319 0.19621488
0.14843945 0.12502551 -0.101738624 0.11290328 0.10492566 0.031609092 -0.017416913 0.00670006
-0.047441855 -0.1521681 0.31277075 0.90415615 0.081164695 0.15853757 0.24132875 0.46453777
-0.05151719 -0.09672101 -0.07775235 0.43452266 0.037193842 -0.013024061 0.03265203 0.048033692
0.0015260633 0.28668836 0.28478342 0.8693197 -0.18982954 0.24894063 0.1877599 0.7919229
-0.04147004 -0.028201004 0.4516718 0.3035502 0.23103273 0.15595864 -0.06326165 0.20241565
-0.13692778 -0.11381819 0.0736099 -0.3065483 -0.14583033 -0.14672817 -0.085534155 0.09858708
-0.12039763 -0.08273788 -0.053937726 -0.19512714 0.019124042 -0.16930644 -0.062972195 -0.059851095
-0.00901099 0.025102932 0.11163121 0.7965453 0.07064958 0.17810832 0.12806432 0.25308844
0.057898365 0.06698873 0.014013785 0.19592036 0.010116971 0.13341022 0.0417234 0.089120276
-0.033575084 -0.07392506 -0.056178797 -0.09053247 -0.007880767 0.09847853 0.07063699 -0.0781331
-0.00015182354 0.034753054 -0.20980571 -0.073255934 0.015384583 0.010739547 -0.018501919 -0.11409271

conv2.bias f4 [32]
00000000: 52cb 2b3e 08a3 283e b8de 353e 8576 863e
00000010: 957a 28bd 8461 9f3d f69d 21bd bf32 7cbd
00000020: a953 1a3e 25d8 033c 968b 5abd 135a c63d
00000030: 644d e13c 2c19 96bc a2a9 2c3d c8e7 653c
00000040: 32b3 303d ad77 003e 74f5 993d b823 cc3d
00000050: 6d67 d83d b480 753e 04d3 2fbd c3ab 153e
00000060: 6fc0 e0bd 655b 893d d873 ec3d c791 5e3e
00000070: 8069 6d3d a140 d13d fec8 eb3d c300 513e
0.1677678 0.16468441 0.17760742 0.26262298 -0.04113253 0.077822715 -0.039457284 -0.061571833
0.15070976 0.008047138 -0.053355776 0.09685149 0.027502723 -0.01832255 0.042153962 0.014032312
0.043139644 0.12545653 0.075175196 0.0996775 0.10566602 0.23974878 -0.04292585 0.14616303
-0.10974204 0.06706885 0.11545533 0.21735297 0.05796194 0.10217405 0.115129456 0.20410447

fc1.weight f4 [64, 800]
00000000: 9396 febc 3837 313c 68e2 903c d9fd 1c3b
00000010: fe34 e13c ba8b a83c 1bf5 94bc 7899 a93c
00000020: e630 ff3c 9bee 053d b1d3 1dbd c058 253b
00000030: 20d6 e73a 786a f3bc ca20 03bd 10e6 f43b
00000040: fa7e e8bc 6290 e43c c8ca 2f3c 72f1 f63c
00000050: 0197 3bbb 049d ffbc c6c9 75bc 2bd9 91bc
00000060: 007a 43b9 81e0 60bd 90f1 3ebd a494 1c3c
00000070: d438 053c 758a d8bc 7c31 7dbc b9cf 4ebd
00000080: a7cc 87bc b08c 06bd bfe2 51bd 691b ccbb
00000090: b1a4 633a 380f 28bc 156c 02bd d12e b2bc
000000a0: e38b 013d c416 3bbc e994 71bc 545c a9bc
000000b0: c7a6 41bd 1379 34bc 5768 52bd f467 62bb
000000c0: 1f7d cdbc 4d67 30bd 10d0 e1bc db1b 96bc
000000d0: acc3 76bd a7a5 003c 4f2b 05bc 21fa 853a
000000e0: 6d8f 96bc b0dd 90b9 ac42 c8bc 0886 79bd
000000f0: 95a6 14bd 6d39 48bd 65cb 0ebd 1011 003c
00000100: a39b 1ebd 13b6 a83a 517b b8bc 1793 e63b
00000110: 2ac9 10bd 90ec 95bc d2b5 37bc 51cb 54bd
00000120: 9d6d 83bc 6154 ebbb 4999 67bc 6fb0 62bc
00000130: f8c3 8f3b 103c 72bd d4ec 64bd 3ed7 f63b
00000140: 1dcf 5dbd c67c edbc 5029 96bc 5e2e f9bb
00000150: 63ae a4bb 05d6 92bc f273 6fbd 5779 18bd
00000160: 2313 77bd 2565 4fbd 6185 14bd 7301 ecbc
00000170: ce05 783b 818e 7c39 11ae 09b9 8474 7abd
00000180: 8e9f fe3a c495 6fbd 4a10 2abc e556 1d3b
00000190: f9a9 0f3d a0d2 2f3c a46c febb 68cc 48bc
000001a0: 113c 0abd 7c88 fdbb 2208 5fbc 3456 85bc
000001b0: 1202 993c 386a c3bb 023d 40bc c00c c5ba
000001c0: b40c 4cbc 404a 74ba 48a4 49bc 602a 87bb
000001d0: 2496 6cbc 54ce 08bd 20a7 973b 060a 21bc
000001e0: 6065 84ba a6ef 9f3c 40a9 2fbc 8a98 b63c
000001f0: 930f 083d 0814 15bd 64a9 4cbd 5d6a 5abd
00000200: c207 3cbd a604 673b 101b 35bd 9b77 d3bc
00000210: c0ca f0bb 2fe6 8cbc 36af 65bd e343 3bbc
00000220: 79fe acbc 0b89 5fbb 2b8e 20bd c15e 46bd
00000230: bd5a 9cbc 11f0 0ebd 0742 4f3c 5152 18bd
00000240: b5db 96bb c1c9 a8bc 99bd ccbc d555 383c
00000250: 0248 faba 7f7c adbb 7f96 07bd 4c13 20bc
00000260: c8fb 303c 10a8 b73c 60e6 93ba 9556 d1bc
00000270: cd8d 013d b8c5 2d3c 6cdb b33c f7ea 04bd
00000280: 40f2 cbba 4c06 8d3c 0016 38b9 5a6b c23c
00000290: 28ef c13c b40d a6bb d4a4 e3bc 2c23 343c
000002a0: 435e c9bc 894d 8cbc 1000 353b 5479 7cbc
000002b0: 20db 6f3c d6f9 ad3c ba00 d53c 4224 eb3c
000002c0: f42d cf3c e4af bebc a217 863c 5cab ba3c
000002d0: 0013 05b9 8994 f1bc 5bf1 88bc 909b b4bb
000002e0: eba2 043d 58b0 d83c 44e5 703c dade e3bc
000002f0: a35d f1bc ac40 b03c 306d 513c 681e eebc
00000300: a01d 3a3c 5892 ba3b 30b3 7a3b 4986 86bc
00000310: cf53 fabc 3a3e 28bc 2c4e f7bb cae9 56bc
00000320: 2cb8 bfbc 11e3 30bd 6558 a4bc 6dea a53b
00000330: 89ac 1fbc 32cc 14bd aef0 043c fa78 4dbd
00000340: 3460 38bd f9b5 0fbd 1682 27bd ba9a 4d3c
00000350: c795 92bc 5c04 57bd e106 9bbb 7a43 c83c
00000360: 5e0b fabc c427 343a 5adb 38bc b95d 88bc
00000370: 6b6c 253c 4b7c 09bd 8541 34bd 91d3 82bc
00000380: 07a5 79bc 4a83 de3c b6ba 02bc aefb 01bd
00000390: a260 c8bc 6c59 0bbd 1471 b93c 3080 b3bb
000003a0: 92d1 cb3c 5089 c93c 313d 03bd 83b0 98bc
000003b0: e0ed 9b3c a82f d53c 308c 843b 3824 9d3b
000003c0: c807 80bc 5843 5b3c 04a5 53bc fb41 71ba
000003d0: c060 0dbb d374 0bbd ce3b fb3c d48a 4bbc
000003e0: 90c0 72bb 108b 12bd 343b 46bc 59fa c7bc
000003f0: 43ec fabc 350e 00bd 0cf1 b3bc 5eb8 9a3c
-0.031077659 0.010816388 0.017686084 0.0023955016 0.027491089 0.02057444 -0.018183282 0.020703062
0.031151246 0.032698255 -0.038531963 0.00252299 0.0017687716 -0.029713854 -0.032013692 0.0074737146
-0.02838086 0.027900878 0.010729499 0.030144427 -0.002862394 -0.0312028 -0.01500172 -0.01780375
-0.00018642098 -0.054901604 -0.04661709 0.009556923 0.008131225 -0.026433209 -0.0154536925 -0.05049107
-0.016577078 -0.032849014 -0.051241633 -0.0062288535 0.0008683904 -0.010257535 -0.031841356 -0.02175084
0.031627547 -0.011419002 -0.014744976 -0.020673908 -0.047278192 -0.0110151945 -0.051369037 -0.0034546824
-0.025084076 -0.043067265 -0.027565032 -0.01832383 -0.0602452 0.007851995 -0.008128001 0.0010221639
-0.018378938 -0.0002763099 -0.024445854 -0.060918838 -0.036291678 -0.04888289 -0.03486194 0.007816568
-0.038722645 0.0012871645 -0.02251974 0.0070365774 -0.035348095 -0.018301278 -0.011212783 -0.05195171
-0.016043479 -0.0071816896 -0.014135667 -0.01383601 0.004387375 -0.05913931 -0.05588992 0.007532983
-0.054152597 -0.02899016 -0.018330246 -0.0076044044 -0.0050256713 -0.017924318 -0.058460183 -0.037225094
-0.060320985 -0.05063357 -0.036260013 -0.028809285 0.0037845257 0.0002408568 -0.00013130183 -0.061146274
0.0019426213 -0.058492437 -0.01037986 0.0024008092 0.035074208 0.010731369 -0.007764416 -0.0122557655
-0.03374869 -0.0077372175 -0.013612779 -0.016276456 0.018677745 -0.00596359 -0.011733295 -0.0015033707
-0.012454201 -0.00093189254 -0.012307234 -0.0041249245 -0.014440093 -0.033399895 0.004628077 -0.00982905
-0.0010101013 0.019523453 -0.010721505 0.022289533 0.033217978 -0.036396056 -0.04996623 -0.053324092
-0.045905836 0.0035250573 -0.044215262 -0.025813868 -0.0073483884 -0.017199604 -0.056075297 -0.01142976
-0.021117436 -0.0034108784 -0.039198082 -0.048430208 -0.019086236 -0.034896914 0.0126500195 -0.037187878
-0.004603828 -0.020604016 -0.024992751 0.011250933 -0.0019094946 -0.005294382 -0.03310251 -0.009770226
0.010802217 0.022419006 -0.0011283867 -0.02555398 0.031629372 0.010606222 0.021955214 -0.032450642
-0.0015559867 0.017214917 -0.00017555803 0.02373283 0.023673609 -0.0050675515 -0.027788557 0.010994714
-0.02458108 -0.017126815 0.0027618445 -0.015409786 0.014639646 0.021237295 0.026001323 0.028703813
0.025290467 -0.02327723 0.01636869 0.022786789 -0.00012690946 -0.029489772 -0.01671665 -0.0055117086
0.032381933 0.026451275 0.014703099 -0.027816225 -0.029463595 0.021515213 0.01278238 -0.029067233
0.011359602 0.005693715 0.0038253777 -0.016421454 -0.030557541 -0.010268742 -0.0075471606 -0.013117263
-0.02340325 -0.043185297 -0.020061681 0.005063346 -0.009745725 -0.03632755 0.008114023 -0.0501642
-0.04501362 -0.035085652 -0.040895544 0.012549097 -0.017893685 -0.05249439 -0.0047310446 0.024446238
-0.030522998 0.00068723806 -0.011282766 -0.016646253 0.01009665 -0.0335658 -0.044007797 -0.015970023
-0.0152370995 0.027162213 -0.007979086 -0.03173416 -0.02446014 -0.034020826 0.022636928 -0.0054779276
0.024880204 0.024601609 -0.03204078 -0.018638855 0.019034326 0.0260237 0.004045032 0.0047955774
-0.01562871 0.013382755 -0.012917761 -0.0009203252 -0.002157256 -0.03404696 0.030668166 -0.012423236
-0.0037041046 -0.03577715 -0.012099076 -0.024411367 -0.030630236 -0.03126355 -0.021965526 0.018886741

fc1.bias f4 [64]
00000000: a338 79bd 0c4b b8bc ff85 13bd a39f 5dbd
00000010: ac23 84bc 7f81 05bd 0c42 903b 0b9e 4abd
00000020: ee2c 22bc 5d23 00bd 79d9 72bc 5386 fb3b
00000030: e17c 18bd 761f 893c c6af 013c 55f7 dc3c
00000040: d759 d53c d8ad 87bc 4c8f ac3b 3539 f73d
00000050: ba98 c33d 16b3 a8bc 8ae1 d43c 72d5 623e
00000060: 6bc2 fa3c f0b9 a2bc 9a58 ef3c 711d 463c
00000070: 4763 3dbd ce67 973c c354 2dbd 6ed0 71bc
00000080: 1eba 12bd 0fb1 533b 248b 893d ac6b d73b
00000090: 94d3 26bc d72d 85bc 316e b83c 2d87 19bd
000000a0: 95ea 68bd 83e9 e5bc 563f a03b be60 49bd
000000b0: 125b efbc fa80 38bd a6a1 1ebd dc7e 82bc
000000c0: f292 73bc 499e 943c ee00 60bd 13ba 713c
000000d0: 9b39 96bb 06fa 183e 14ba 7abd 8bd0 cabd
000000e0: 135f 3ebb 90ee 533c 7e07 16bd faa7 bf3c
000000f0: 9539 683c c39a 31bd 64c4 523d f68d 22bd
-0.06084503 -0.022496723 -0.03601646 -0.05410732 -0.01613029 -0.0325942 0.0044024047 -0.049467128
-0.009898407 -0.031283725 -0.014822357 0.007675925 -0.03722847 0.016738635 0.007915443 0.026973406
0.026043816 -0.016562387 0.0052661058 0.12071458 0.09550615 -0.020593207 0.025986452 0.22151735
0.030610284 -0.019864053 0.029217053 0.01209198 -0.046237256 0.018482115 -0.042317163 -0.014759166
-0.035822026 0.003230158 0.06715992 0.006574115 -0.01018228 -0.01625721 0.02251348 -0.03748243
-0.05686434 -0.028065449 0.0048903627 -0.049164526 -0.02921823 -0.045044877 -0.03872838 -0.015929632
-0.014866577 0.018141882 -0.054688387 0.014753836 -0.004584504 0.14939126 -0.061212614 -0.09903058
-0.0029048368 0.012935296 -0.03662824 0.023395527 0.014173885 -0.043360483 0.051456824 -0.039686166

fc4.weight f4 [8, 64]
00000000: 823e a13d bbd4 903c d45e da3d fe36 63bd
00000010: d0c4 3a3c f0e7 713d a576 0f3d 90be 5dbd
00000020: 83aa f13d a1b5 3d3d 1a38 323d e815 e43d
00000030: 8a5e b1bc 3016 0d3d aa2b 2aba d9e4 8cbd
00000040: 12fe d23d 4640 c93e 1a3f c2bc ead2 c43d
00000050: fdea 8b3e 5ef7 e4bd 62b1 45bd 2c9e ba3e
00000060: 0b1b e43d 4068 dfbc 0088 1f3d eff7 d43a
00000070: 4ab7 9f3d 4f00 2e3d d9dc a33d 0ae0 f93b
00000080: 0000 f9b8 fc1c fc3d e597 edbd dbf4 833a
00000090: 2ddb c33d f7a1 0d3d 512e 01be ae8b 883d
000000a0: 734f 82bd 907a d03d 2aa0 9bbc b8f3 f63b
000000b0: cecc 26bf ec1c b6bd e3e1 3eba 592d 83bd
000000c0: 8bff 92bc 8144 3e3d d760 5c3d 8637 b93b
000000d0: bf97 9ebe 7463 d93e 8970 44bd 5b37 89be
000000e0: 6a16 f9bc 4e24 cbbd b011 273d b607 04bd
000000f0: bc07 653e 9d80 01bd 1286 563d 73c2 50bd
00000100: 627a 883d afee 603d f071 1b3d e566 b0be
00000110: 31e7 cd3b 302d ab3c 19fc a7bd cbdf 953c
00000120: 789b 4d3d c41b 2ebd abc8 603d 513f e2bd
00000130: 47d6 943d b830 f6bd f54e 513d c5a5 07be
00000140: 5d48 a1bd 1e32 313e e25c 03bc 283f a73e
00000150: 88a6 aebd 21da e8bd 3e77 623d b449 9f3e
00000160: 0ce4 f33e 48aa 9abd 3681 f0bd 2e02 1dbd
00000170: ad4f a6bc dedc 1dbd 986d e43c 2405 b4bc
00000180: b053 c9bc f0a0 91bd 671f 6f3e 4f76 743d
00000190: 8485 97bd 4f4b 54bc dead 253d 2a20 b1bd
000001a0: 9b76 863d a844 c6bd d1a0 39bd b25f d73d
000001b0: 6afa 4e3e c47e 47bd 7316 cabc d623 ffbd
000001c0: 30c7 05be 87fa be3d 7bcd aebd bf2a cfbd
000001d0: 1f6b e9bc 1696 353e 6419 7abc 7ca4 cd3c
000001e0: fe2a 683d d3a7 e2be 70b8 8fbd 0103 463d
000001f0: 7ea8 d23d cad6 33bd 761e 1ebe 0ca3 adbd
00000200: 5c77 98bd af10 85bd 22d6 d83d f7f3 31be
00000210: 483f e23d 4b49 813d 2ed4 983d e456 b73c
00000220: 64f9 8d3d 5238 5cbd adc3 c8bd 8412 b03d
00000230: b881 d03d 1047 4e3c 35a7 cb3d 131f 913d
00000240: 03c6 203d 8d8b 80bc 0152 e73d d204 873d
00000250: ce36 533e f8a5 533d c2bd dabc aeba 7d3e
00000260: e1d3 7abe a0bc 783c b67b 853d f661 943d
00000270: b196 8d3b da7f f0bc 75a7 333d c3e4 e0bd
00000280: e0ae 39bd f947 c43d 0d8b 993e 3e89 803d
00000290: 3686 963d 1ad5 d0bd 41ce 8f3d 3c95 f4bd
000002a0: 35cc 35bc 00ad c4bc d227 5a3d e0fb e9bd
000002b0: 6749 0ebf 9c80 413d 72a2 26bd 94b8 48bd
000002c0: 4752 65bc e927 a83d 7312 e6bc 78e3 4d3d
000002d0: 050e 05bf e4f4 473e 0ae1 593c 606e 8bbc
000002e0: 0faf d23d 385d 1abe 6ca8 3fbd b923 d9bb
000002f0: 4b8b db3c f453 6abd 2fd4 3ebd 0479 a13c
00000300: 00fe 98bd 124e b63d ecf0 373d 3d1f bcbe
00000310: 62ea d93d d881 38bd 4202 4ebd 1373 babd
00000320: b0c4 173c 4eed 89bd 5193 55bb 2a91 d3bd
00000330: 681e 463d 1256 d63d 2a51 87bd 094a aebd
00000340: 49d5 c23c 83a3 513e 9c78 e73d ceb2 c53d
00000350: bae5 663e adc0 f3bb f41b cebd 159e 433e
00000360: c25c 4f3e 1486 bfbd c17b de3d 6dba b83d
00000370: e0d8 093d 8214 b7bd 4815 973d 4055 083c
00000380: 4862 01bd 108a 3ebd 9c2c 863e a31a 263c
00000390: 5437 8c3d 680d e93d 7120 353d 703e 773d
000003a0: 1198 adbc 209a 003d 22fb bbbd a458 e8bd
000003b0: 84d2 583d d865 94bc a59b 85bd 08b1 0dbd
000003c0: be54 af3d ab1f 4dbc 2984 f939 7ded 28bc
000003d0: 0ca3 10bc 3460 a13e 4577 26bd b004 26ba
000003e0: a1f3 573b 04d7 81be 0855 42bd f33d 59bc
000003f0: ca44 d6be 2a87 34bd 6316 eebe f7f8 75bd
0.078732505 0.017679563 0.10662618 -0.055472367 0.011399463 0.059059083 0.035025258 -0.054136813
0.11800101 0.046315793 0.043510534 0.11136991 -0.021651525 0.034444988 -0.0006491492 -0.06879587
0.10302366 0.3930685 -0.02371173 0.09610541 0.2732772 -0.11179994 -0.04826487 0.364488
0.111379705 -0.02727139 0.03894806 0.0016248206 0.077986315 0.042480763 0.08001108 0.0076255845
-0.00011873245 0.12310216 -0.11601237 0.001006748 0.09563289 0.03457829 -0.12615325 0.06667267
-0.0636281 0.10179627 -0.01899727 0.0075363778 -0.6515626 -0.08892235 -0.00072815845 -0.06405134
-0.017944118 0.04645205 0.05380329 0.005652371 -0.30975148 0.4245869 -0.047958884 -0.26800045
-0.030406196 -0.09919034 0.040788352 -0.032233916 0.22366232 -0.031616796 0.052373953 -0.05096669
0.06663968 0.054915126 0.037950456 -0.34453502 0.0062836637 0.02089557 -0.08202381 0.01829519
0.050197095 -0.042506948 0.054878872 -0.11047233 0.07267433 -0.12021011 0.05110069 -0.1324683
-0.0787513 0.17304274 -0.00801775 0.32665372 -0.08527857 -0.1136973 0.0552895 0.3111092
0.47634923 -0.0755201 -0.11743395 -0.038332157 -0.020301664 -0.038540713 0.02788429 -0.021975107
-0.024576038 -0.071107745 0.23351823 0.05968314 -0.07398513 -0.012957408 0.040449016 -0.08648713
0.06565591 -0.09681064 -0.045319382 0.10516299 0.20212713 -0.048704877 -0.024668908 -0.12458007
-0.13064265 0.09325128 -0.08535286 -0.10115575 -0.028493462 0.17733034 -0.015264843 0.025102846
0.056681626 -0.44268665 -0.070176005 0.04834271 0.102860436 -0.04390601 -0.15441307 -0.08478364
-0.07444641 -0.06497323 0.105877176 -0.17378221 0.11047226 0.06312808 0.07462345 0.0223803
0.06932333 -0.05376465 -0.09802947 0.085972816 0.10180992 0.012590185 0.099440016 0.07086005
0.03925134 -0.015691543 0.11294938 0.06592716 0.20626375 0.051671952 -0.026701812 0.24778244
-0.24494888 0.01518169 0.065177366 0.07245247 0.0043209423 -0.02935784 0.04386087 -0.10981133
-0.04533279 0.0958404 0.299889 0.06276177 0.073498175 -0.10196896 0.07021762 -0.11942527
-0.01109605 -0.024008274 0.05326063 -0.114249945 -0.55580753 0.047241792 -0.040682264 -0.049004152
-0.013996667 0.08210737 -0.02808497 0.05026576 -0.5197452 0.19527012 0.013298282 -0.017020404
0.10287296 -0.15074623 -0.04679148 -0.006626573 0.026799819 -0.05720897 -0.046589073 0.019711025
-0.07470322 0.089016095 0.044907495 -0.36742583 0.10640408 -0.045045704 -0.050295122 -0.0910398
0.009263203 -0.067347154 -0.0032589028 -0.10330422 0.04836884 0.10465635 -0.06607278 -0.08510215
0.023783343 0.20472531 0.11302301 0.09653245 0.22548571 -0.00743874 -0.100639254 0.19103272
0.20250228 -0.09351745 0.10863448 0.09019933 0.033654094 -0.089394584 0.07377106 0.008321106
-0.03158787 -0.046518385 0.2620591 0.010138187 0.068464905 0.1137951 0.04422039 0.06036228
-0.021190675 0.031396985 -0.09178759 -0.11345032 0.05293514 -0.01811497 -0.065238275 -0.03459266
0.08561085 -0.012519757 0.00047591448 -0.010310528 -0.008827936 0.3151871 -0.040641088 -0.0006333096
0.003295161 -0.25359356 -0.047444373 -0.013259399 -0.41849357 -0.044074215 -0.46501455 -0.060051885

fc4.bias f4 [8]
00000000: 06b5 0c3d bd93 72be a930 113e 0f2a 36bd
00000010: bb31 c33e d72e 553c 04c9 013f 9d0e 2d3c
0.034352325 -0.2368917 0.14178719 -0.044473704 0.3812388 0.013011656 0.5069735 0.010562566

conv1.weight f4 [16, 2, 4, 4]
00000000: dfae e0be 64da 14bf 4ebd 783e 5726 5c3e
00000010: 3dca febe fe15 12bf 5ba4 5d3e 40f7 1dbf
00000020: 1e13 13bf 1675 97bd 5af1 003e 6589 8b3e
00000030: 6da0 cbbe aa63 9abe 413e 2fbe a92c 8b3f
00000040: 7af0 97bd 3002 6abc 0fe6 8fbe e9e4 9dbe
00000050: b0b9 bcbe e8c5 aabd 08f0 343e 9c48 32bd
00000060: 81b8 813d 28ea 84be db94 793d b113 223c
00000070: 6b69 283d cf5c 61be 987a 773e a84c 51be
00000080: f2f1 4b3f 5d74 02bf 8cf0 953f a55c 0040
00000090: bc20 2a3e 2eb1 1c3f f90f fd3e 00a8 eb3e
000000a0: d74c 1e3f ef9c 95bd ba11 ff3d daa7 903e
000000b0: 21ab 7c3e 0ee4 d13d 037e 97bd 32a0 ae3e
000000c0: 1178 4c3e 1d9a a93d ca81 683e 9895 47bd
000000d0: 73a7 323e 2493 733c 9387 a53e c5b1 113e
000000e0: 4a49 133d 1cad 213d 72ba 0f3d 12ff 283b
000000f0: 4b80 9ebd b969 da3d 47c1 adbd 3b3c fd3d
00000100: 4154 3dbe 9024 013e 634a 9c3e 948c 9e3e
00000110: b6b8 cb3e 0090 e43d 71f0 54bf 7759 ecbe
00000120: 5891 50bf 8cf0 0bbf 8653 4cbf a0c0 56bf
00000130: 02e3 48bf 0b9f aabe b653 93be 5fc6 d7be
00000140: 1319 753c 97ea 743e f6da e73d c26e adbd
00000150: c945 89bd e96c 283d 685b 313e a7f6 07bd
00000160: 6fa6 c0bd 18cc edbd ea48 a1bc f16f 2ebe
00000170: c975 443e 4ed8 663e 761d 87bd 02cf 663e
00000180: 8e26 1d40 8185 e9bd 2859 9d3d 740c 403f
00000190: 34ae cd3e f37e a9be c20c 98be 7d47 ff3e
000001a0: 544d b7be cceb d1be 35b6 673c bac0 26bf
000001b0: 45fe 3340 a469 c43e 166c a93f 8863 533d
000001c0: 3e96 d43c 4cd7 db3d 430a 90be fc34 efbe
000001d0: 2159 873e 7161 863e ee0e 6cbe 02d9 d23c
000001e0: 5a57 4f3d f92c 0ebf 6962 76bc 46e1 7c3d
000001f0: 5cb9 c43d e345 5fbe 66b9 a33d 514d 533d
00000200: 2250 053f 1351 02bf c5b9 02bf 8def 01bf
00000210: d628 0fbf 1a92 0ebf 0bca 0abf 97c6 13bf
00000220: a310 11bf 120c 0cbf 64e7 f7be 1ccc 203f
00000230: d569 37bf 07ca dbbe 5d26 f5bd d772 1c3f
00000240: 1861 b2bd 261c 2ebd 07bf 24bf 0c45 81bd
00000250: 299c 533b 59c2 3b3e 6a66 a0be 0d10 303d
00000260: 9f8b 2f3e 8889 5f3d ab49 b3be 0673 7cbe
00000270: d667 093e ad92 8cbe 21cc e0bd 4674 53be
00000280: 0e2f c5be e926 b1be fc74 fdbe 230e e5be
00000290: 816b 013f a642 8b3e c1e1 003e 83db b43e
000002a0: 4cdd edbe 2ffa e6be 172e fc3b 3e3d c7be
000002b0: 7df8 9d3c b5dd c0bd 7afa dfbe eb2a d0be
000002c0: 5ccc cebe 5f38 69be 35d1 1ebe e0a4 ca3d
000002d0: 9fc1 b4bc 4431 78be 010b efbe 65ad 47bd
000002e0: f354 55bb 7f23 84bd 6781 76be 47d0 b0bd
000002f0: 8a9a e6bd bf83 1d3d 93e9 c73d 4dd1 ad3d
00000300: d5ce 27bf 22e7 08bf 7a9d 8c3e 81b0 b53d
00000310: a422 193e a047 533e f5b7 a03e 0e79 34bf
00000320: ccab 26bf 969f febe 94cc 21bf c8e1 21bf
00000330: 831d 57be 82a1 1d3d 9d04 08bf 5c43 84be
00000340: 1637 2fbd 711b 973e 6a34 4abd 332e 0c3c
00000350: 5fac 203e bfc5 08be f6c1 823e 29b9 4b3e
00000360: e6f5 123e 0f3f 98bd eb8a 16be bd61 6cbe
00000370: a019 1f3e 57ec 1cbd 674d 4e3e 37b5 4d3c
00000380: 8f20 2cbe 9ab7 993d 825a 293e 4fdc 7e3e
00000390: 3341 c03e 8dac 05bf 38cd 17be 1861 04bf
000003a0: 3d28 fcbe cbfc ebbe 6bde 863c 76cd fbbe
000003b0: 74eb b0be 2308 5abd dc56 fbbe 1f96 04bf
000003c0: a8fe 6d3d 0d10 983d 9b83 39be ff39 4fbd
000003d0: 413a 13bd eb0b aabd 7d7c f4bd 289f adbd
000003e0: bb50 82bd 9c14 0ebe 76ac acbe 8465 05bf
000003f0: ab31 a0bd 18b0 0abf cc45 1cbe 8622 2e3d
-0.43883416 -0.5814574 0.24290964 0.21499 -0.4976367 -0.5706481 0.21644728 -0.617054
-0.57451046 -0.07395379 0.12592068 0.2725326 -0.39770833 -0.30154163 -0.17113592 1.0873004
-0.07418914 -0.014282748 -0.28105208 -0.30838707 -0.36860418 -0.08338529 0.1766969 -0.043526277
0.063340195 -0.25959897 0.060932975 0.00989239 0.04111616 -0.2200806 0.2416786 -0.20439398
0.79666054 -0.50958806 1.1714034 2.0056546 0.1661405 0.61207855 0.4942625 0.4602661
0.61836 -0.07305323 0.12454553 0.2825306 0.24674655 0.10248576 -0.07397082 0.34106594
0.19967677 0.08281348 0.2270576 -0.048726648 0.1744669 0.014866624 0.32329997 0.1422797
0.035958566 0.03947173 0.035089917 0.00257868 -0.07739314 0.10664696 -0.0848413 0.12365004
-0.18489172 0.12611604 0.30525503 0.30966628 0.3978936 0.11160278 -0.83179384 -0.46162006
-0.81471777 -0.5466392 -0.79814947 -0.8388767 -0.78471386 -0.33324465 -0.28774804 -0.42143533
0.014959591 0.23917614 0.1132106 -0.08468391 -0.067027636 0.04111949 0.17320025 -0.03319421
-0.09406745 -0.116111934 -0.019688088 -0.1703489 0.19185556 0.22543451 -0.06597416 0.22539905
2.4554782 -0.11402417 0.07683021 0.75019 0.4017197 -0.33104667 -0.29697233 0.4985923
-0.35801184 -0.4100021 0.014142563 -0.6513783 2.8123944 0.38361847 1.323611 0.051608592
0.025950547 0.10734424 -0.2813283 -0.4672011 0.26435187 0.26246217 -0.2305257 0.025738243
0.050620414 -0.5553737 -0.015038111 0.061738275 0.09605667 -0.21804003 0.07994346 0.051587407
0.520754 -0.5090496 -0.5106471 -0.5075615 -0.55921686 -0.55691683 -0.54214543 -0.577249
-0.5666601 -0.5470592 -0.48418725 0.62811446 -0.7164586 -0.42927572 -0.11970208 0.6111273
-0.087099254 -0.042507313 -0.64353985 -0.06311998 0.0032289124 0.18335856 -0.31328136 0.042984057
0.17143105 0.05457452 -0.35017142 -0.24653253 0.13418517 -0.27455655 -0.109764345 -0.20649824
-0.38512462 -0.346 -0.49503314 -0.44737348 0.5055466 0.27199286 0.12586118 0.35323724
-0.464579 -0.4511275 0.007695924 -0.38913912 0.019283528 -0.09417287 -0.43745786 -0.40657744
-0.4039029 -0.2277541 -0.15509494 0.09894729 -0.022064982 -0.24237543 -0.46688083 -0.048749346
-0.0032551854 -0.06452083 -0.240728 -0.08633476 -0.11259945 0.03845572 0.097613476 0.084871866
-0.65549976 -0.5347768 0.27463895 0.08871556 0.1495462 0.20632792 0.31390348 -0.70497215
-0.6510589 -0.4973113 -0.63202786 -0.6323514 -0.21007352 0.038484104 -0.5313204 -0.2583264
-0.042777143 0.29513124 -0.049366392 0.008555937 0.15690754 -0.13356684 0.25538605 0.19894852
0.14351615 -0.074339025 -0.1470143 -0.23084159 0.15537119 -0.03831133 0.20146714 0.012555412
-0.16809295 0.07505722 0.16538432 0.24888729 0.37549743 -0.52216417 -0.14824378 -0.51710653
-0.4924945 -0.46091303 0.016463479 -0.49180192 -0.34554636 -0.053230416 -0.49089706 -0.51791567
0.058104187 0.074249364 -0.1811661 -0.05059242 -0.035944227 -0.083030544 -0.11937807 -0.08477622
-0.06363054 -0.1387505 -0.33725327 -0.52108026 -0.078219734 -0.5417495 -0.15261 0.042513393

conv1.bias f4 [16]
00000000: 9092 2e3e 4830 a5bd 5e97 953e 8021 ce3c
00000010: b439 783e 68f6 de3c 5c6d 263e aaca c03d
00000020: e778 a53d 6c17 2f3d bc29 643e 9f82 2c3e
00000030: 79ae 8e3b ba51 713e 2b6e 933e bb66 8e3e
0.17048097 -0.080658495 0.29217046 0.025162458 0.24240762 0.027217105 0.16252655 0.09413655
0.08079701 0.042746946 0.22281545 0.16846703 0.004354295 0.23566332 0.2879499 0.27812752

conv2.weight f4 [32, 16, 4, 4]
00000000: f872 0cbe 7bfe 94bd 29d2 33be cda7 bbbe
00000010: d846 04bd ea11 59bc 6e3c f1bc f1e8 25be
00000020: 4866 013d 744c 3b3d eddc 26bc fe1f f2be
00000030: 76ea f5bd 9716 cbbb 1288 e1bd cd8f 00bf
00000040: 50e2 eabd 0031 49be e650 153e 8414 0440
00000050: 80b3 0fbd 1269 ad3e f59b 8d3d 0cb8 ab3e
00000060: 0444 19be 8ed3 d6bd a32c 5b3c a2e4 153f
00000070: 3bd6 8abe a618 93bd 4034 8e3d 6c62 ce3d
00000080: cb27 973d b1f4 f8bc 836d 1a3b 6509 5dbe
00000090: 2a73 ed3c a8ad 253c a947 763d 87bd 60bd
000000a0: d035 c2bd ac0d e1bd c026 3b3d 81ab 21be
000000b0: 6f54 a7ba a7c1 d83b 5d0c c13c a145 583d
000000c0: d327 04bf ad89 44bf efc3 8abd 23fe f2be
000000d0: 60d0 b93e 472b de3e cf31 95be 62ff c8bd
000000e0: 9d24 863d 49c3 dc3e d2bb b03d 9fa3 57be
000000f0: 9550 bebe 9f0c b03e 2dce 4abe 8542 a1bb
00000100: 32a8 32be 5e15 edbd 74d4 39bc ee0e 78be
00000110: 5376 1ebe 0f34 5ebd d186 f8bc 7b27 ab3d
00000120: 3662 163d 96bd 9abc 6316 66be 9f9d 8bbd
00000130: 443d aebc ee4e 3fbe cbc4 83be 02c7 63be
00000140: 9b31 c73b fd1c 71bd e262 7fbd 2219 09bf
00000150: 9b4f c7bd e475 903d 53d8 96bd ee2a b63c
00000160: 87e7 babe b53a b1be f48c 25be 98d6 a23a
00000170: 456c e13d c0f2 45bc 0ee4 36be bb65 dc3c
00000180: b670 1cbd c995 543d fa0a 83bc b8ad 7dbe
00000190: 0b06 313c a6f7 8bbd 1570 31bc 589f b33c
000001a0: 3157 abbd beb5 7abd 4290 4dbd a146 efbd
000001b0: 233f 4cbc 50f2 cc3d b5a7 c83d 9da6 ccbd
000001c0: bafd e5bb b0d1 5a3c 52fb 8abd 2f5a afbe
000001d0: 764a cbbd a3b8 a5bb 058d 53be d4e4 07be
000001e0: 7516 cfbd 253e 03bd 5ddb 48be 10ef 0dbe
000001f0: 3fe4 26bc 1f50 01bd 0539 0bbe 7b5d 243c
00000200: 0791 97bd 392e e13d 3427 d5bd 24a6 c4be
00000210: a23c 0cbd 3f0d d83b ddf0 943d bf00 6ebe
00000220: a889 6dbd 39c8 1cbc 81c2 803c 505c 8ebd
00000230: 4a59 7bbd b710 98bd cd37 8d3c da7e 31bd
00000240: d5ff aabd 86d8 18bc e442 8dbd 9f3f cf3e
00000250: ce2c fcbd f50c d7bc d346 c73e b407 a43d
00000260: 1bc7 b83d 8212 e83c 76de c6be b977 f3bd
00000270: 3f3f 0cbe 6c83 b2bd 8498 7ebe 33ab d3bd
00000280: 439f 1fbc c640 35be 4b4e d9bd b830 08be
00000290: a2a9 b23b 19f1 0c3e dd86 213e ceab 473e
000002a0: a933 1b3e 0ffe fc3d aba8 d0bd db50 e53d
000002b0: 14dc d83d 918b 103d d2cf 88bc 1e1d a03b
000002c0: f672 46bd 7327 1dbe 992d 9f3e 2d1e 683f
000002d0: 1f5d ac3d 19ea 233e 0e8a 773e 3295 ec3e
000002e0: 6b7d 48bd 9fa7 bfbd 664a 9abd 5705 de3e
000002f0: db35 223d 67b5 24bc 88ed f93c dbe8 343d
00000300: a2f9 fb3a 0699 943e 1a32 943e e584 5d3f
00000310: 03b4 45be b4c7 823e c129 3d3e 96f6 4a3f
00000320: a033 2cbd a174 d5bc 1e55 e53e 4657 9a3e
00000330: cb63 6c3e 56ae 203e 54e6 88bd bddc 4e3e
00000340: 7dd4 08be c4ac e5bd 5705 8f3d 1cb8 9dbe
00000350: 05f0 13be 1cf8 12be 5db9 aebd 6820 d13d
00000360: 8706 e5bd 37f9 9dbd fc76 5cbd 0b67 46be
00000370: 4d9a b53c 29b4 2abe 2772 81bd e5d1 77bd
00000380: 2dd3 5cbc c635 a33c 7d65 d93d 8eca 4a3f
00000390: 6c80 893d 4881 333e 4416 fd3d 815b 7e3e
000003a0: ee5a 5d3d 5d5a 803d 695c 163c 473b 443e
000003b0: bcc6 c83b 4afa 043e 3db0 193d 5abf aa3d
000003c0: e94d febc 601d 8fbd 6064 7abd ce03 b9bd
000003d0: 65b8 d2bb 77e3 ce3d 589d 913d f805 9ebd
000003e0: f1cf 0f3b 1efb 153d 38f4 54be 3867 93bd
000003f0: dcce 873c d0c1 593c a30f 82bc 6dde e6bd
-0.13715732 -0.07275101 -0.17560638 -0.3665146 -0.032294124 -0.0132489 -0.02944776 -0.16202141
0.031591684 0.04572721 -0.010184509 -0.47290033 -0.120076105 -0.0061977613 -0.110122815 -0.5021942
-0.11468947 -0.19647598 0.14581642 2.0637522 -0.035083294 0.33869225 0.06914512 0.33538854
-0.14967352 -0.104895696 0.013377341 0.5855199 -0.2711657 -0.07182436 0.0694356 0.10077366
0.07380637 -0.030390115 0.002356381 -0.21585615 0.028985579 0.010112204 0.060126934 -0.054868247
-0.0948292 -0.10988936 0.04569125 -0.1578808 -0.0012766252 0.006614882 0.023565466 0.05280078
-0.51623267 -0.76772577 -0.067756526 -0.47459516 0.3629179 0.43392393 -0.29139563 -0.098143354
0.06549952 0.4311774 0.08629574 -0.2105851 -0.37170854 0.3438463 -0.19805212 -0.00492126
-0.17446974 -0.11576341 -0.011342157 -0.24224445 -0.15474825 -0.054248866 -0.030337723 0.0835714
0.036714755 -0.01888923 -0.22469477 -0.06817173 -0.021269448 -0.18682453 -0.2573608 -0.22243884
0.0060789115 -0.058865536 -0.06235016 -0.53553975 -0.097319804 0.07053736 -0.07365479 0.022237267
-0.36504766 -0.34615102 -0.1616705 0.0012423573 0.11006979 -0.012081802 -0.17860433 0.026903978
-0.038193427 0.05190066 -0.015996445 -0.247733 0.010804663 -0.068343446 -0.010829945 0.021926567
-0.0836624 -0.06120848 -0.050186403 -0.11683393 -0.012466225 0.10007155 0.097976126 -0.099927165
-0.007018772 0.013355657 -0.06786217 -0.34248492 -0.09926312 -0.005057411 -0.20659263 -0.13270885
-0.10111705 -0.032041688 -0.1961493 -0.13860726 -0.010186254 -0.03157055 -0.1359597 0.010032053
-0.07400709 0.109951444 -0.10407868 -0.38408005 -0.03423751 0.006593376 0.072725035 -0.23242472
-0.057992607 -0.009569221 0.015717747 -0.06951201 -0.06136445 -0.07425063 0.017238522 -0.043333866
-0.08349577 -0.009328967 -0.06897524 0.40478227 -0.12313233 -0.026251296 0.38921222 0.08009282
0.09022351 0.028329138 -0.388416 -0.1188807 -0.13696001 -0.08716473 -0.24862868 -0.10335388
-0.009742561 -0.1770049 -0.10610636 -0.13299835 0.0054523507 0.13763846 0.15774103 0.19499132
0.15156426 0.12353145 -0.10188421 0.111970626 0.105888516 0.03528935 -0.016700659 0.0048862835
-0.04844948 -0.1534708 0.31089476 0.90671045 0.08416199 0.1600727 0.24173757 0.46207577
-0.048947733 -0.09358143 -0.075337216 0.4336345 0.03960214 -0.010053015 0.030508772 0.04416738
0.0019224177 0.29022998 0.28944474 0.86530906 -0.1930695 0.25542986 0.18472959 0.7928251
-0.04204142 -0.02605659 0.44791502 0.3014471 0.23084943 0.15691504 -0.066845566 0.20201392
-0.13362308 -0.11214593 0.0698344 -0.30804527 -0.14447029 -0.14352459 -0.08531449 0.10211259
-0.111828856 -0.077135496 -0.05382441 -0.19375245 0.022168303 -0.16670288 -0.06320601 -0.060502905
-0.013478083 0.019923102 0.106150605 0.79215324 0.06713948 0.17529786 0.123577625 0.24839593
0.054041795 0.062672354 0.009177306 0.19163238 0.0061272066 0.12986103 0.03752159 0.08337279
-0.03104301 -0.06988025 -0.06113088 -0.09033929 -0.006430673 0.10101979 0.07110089 -0.07715982
0.002194401 0.036616437 -0.20796287 -0.07197422 0.01657813 0.013290837 -0.015876597 -0.11272893

conv2.bias f4 [32]
00000000: e0a6 263e f873 243e f1ca 313e 769b 843e
00000010: b473 27bd 944b 953d f69d 21bd bf32 7cbd
00000020: aafb 1a3e 582c 243c 968b 5abd 3ab9 bb3d
00000030: 1133 d23c 2c19 96bc 1994 1d3d c8e7 653c
00000040: 85d4 353d 74a1 f93d 1987 913d 0b11 d13d
00000050: c526 ce3d 252c 703e 04d3 2fbd 7f3b 113e
00000060: 865f dfbd 7e09 7d3d 46c3 e53d f1c6 5a3e
00000070: d030 613d 1425 cb3d 9066 e63d bc53 4c3e
0.16274595 0.16059864 0.17362572 0.25899857 -0.040881827 0.07289806 -0.039457284 -0.061571833
0.15135065 0.010020338 -0.053355776 0.091661885 0.025659116 -0.01832255 0.038471315 0.014032312
0.044392128 0.12188998 0.07105846 0.10208329 0.100659885 0.2345434 -0.04292585 0.14182852
-0.109068915 0.06177663 0.11218886 0.21364953 0.05497819 0.099191815 0.11250031 0.19953817

fc1.weight f4 [64, 800]
00000000: 9396 febc 3837 313c 68e2 903c d9fd 1c3b
00000010: fe34 e13c ba8b a83c 1bf5 94bc 7899 a93c
00000020: e630 ff3c 9bee 053d b1d3 1dbd c058 253b
00000030: 20d6 e73a 786a f3bc ca20 03bd 10e6 f43b
00000040: fa7e e8bc 6290 e43c c8ca 2f3c 72f1 f63c
00000050: 0197 3bbb 049d ffbc c6c9 75bc 2bd9 91bc
00000060: 007a 43b9 81e0 60bd 90f1 3ebd a494 1c3c
00000070: d438 053c 758a d8bc 7c31 7dbc b9cf 4ebd
00000080: a7cc 87bc b08c 06bd bfe2 51bd 691b ccbb
00000090: b1a4 633a 380f 28bc 156c 02bd d12e b2bc
000000a0: e38b 013d c416 3bbc e994 71bc 545c a9bc
000000b0: c7a6 41bd 1379 34bc 5768 52bd f467 62bb
000000c0: 1f7d cdbc 4d67 30bd 10d0 e1bc db1b 96bc
000000d0: acc3 76bd a7a5 003c 4f2b 05bc 21fa 853a
000000e0: 6d8f 96bc b0dd 90b9 ac42 c8bc 0886 79bd
000000f0: 95a6 14bd 6d39 48bd 65cb 0ebd 1011 003c
00000100: a39b 1ebd 13b6 a83a 517b b8bc 1793 e63b
00000110: 2ac9 10bd 90ec 95bc d2b5 37bc 51cb 54bd
00000120: 9d6d 83bc 6154 ebbb 4999 67bc 6fb0 62bc
00000130: f8c3 8f3b 103c 72bd d4ec 64bd 3ed7 f63b
00000140: 1dcf 5dbd c67c edbc 5029 96bc 5e2e f9bb
00000150: 63ae a4bb 05d6 92bc f273 6fbd 5779 18bd
00000160: 2313 77bd 2565 4fbd 6185 14bd 7301 ecbc
00000170: ce05 783b 818e 7c39 11ae 09b9 8474 7abd
00000180: 8e9f fe3a c495 6fbd 4a10 2abc e556 1d3b
00000190: f9a9 0f3d a0d2 2f3c a46c febb 68cc 48bc
000001a0: 113c 0abd 7c88 fdbb 2208 5fbc 3456 85bc
000001b0: 1202 993c 386a c3bb 023d 40bc c00c c5ba
000001c0: b40c 4cbc 404a 74ba 48a4 49bc 602a 87bb
000001d0: 2496 6cbc 54ce 08bd 20a7 973b 060a 21bc
000001e0: 6065 84ba a6ef 9f3c 40a9 2fbc 8a98 b63c
000001f0: 930f 083d 0814 15bd 64a9 4cbd 5d6a 5abd
00000200: c207 3cbd a604 673b 101b 35bd 9b77 d3bc
00000210: c0ca f0bb 2fe6 8cbc 36af 65bd e343 3bbc
00000220: 79fe acbc 0b89 5fbb 2b8e 20bd c15e 46bd
00000230: bd5a 9cbc 11f0 0ebd 0742 4f3c 5152 18bd
00000240: b5db 96bb c1c9 a8bc 99bd ccbc d555 383c
00000250: 0248 faba 7f7c adbb 7f96 07bd 4c13 20bc
00000260: c8fb 303c 10a8 b73c 60e6 93ba 9556 d1bc
00000270: cd8d 013d b8c5 2d3c 6cdb b33c f7ea 04bd
00000280: 40f2 cbba 4c06 8d3c 0016 38b9 5a6b c23c
00000290: 28ef c13c b40d a6bb d4a4 e3bc 2c23 343c
000002a0: 435e c9bc 894d 8cbc 1000 353b 5479 7cbc
000002b0: 20db 6f3c d6f9 ad3c ba00 d53c 4224 eb3c
000002c0: f42d cf3c e4af bebc a217 863c 5cab ba3c
000002d0: 0013 05b9 8994 f1bc 5bf1 88bc 909b b4bb
000002e0: eba2 043d 58b0 d83c 44e5 703c dade e3bc
000002f0: a35d f1bc ac40 b03c 306d 513c 681e eebc
00000300: a01d 3a3c 5892 ba3b 30b3 7a3b 4986 86bc
00000310: cf53 fabc 3a3e 28bc 2c4e f7bb cae9 56bc
00000320: 2cb8 bfbc 11e3 30bd 6558 a4bc 6dea a53b
00000330: 89ac 1fbc 32cc 14bd aef0 043c fa78 4dbd
00000340: 3460 38bd f9b5 0fbd 1682 27bd ba9a 4d3c
00000350: c795 92bc 5c04 57bd e106 9bbb 7a43 c83c
00000360: 5e0b fabc c427 343a 5adb 38bc b95d 88bc
00000370: 6b6c 253c 4b7c 09bd 8541 34bd 91d3 82bc
00000380: 07a5 79bc 4a83 de3c b6ba 02bc aefb 01bd
00000390: a260 c8bc 6c59 0bbd 1471 b93c 3080 b3bb
000003a0: 92d1 cb3c 5089 c93c 313d 03bd 83b0 98bc
000003b0: e0ed 9b3c a82f d53c 308c 843b 3824 9d3b
000003c0: c807 80bc 5843 5b3c 04a5 53bc fb41 71ba
000003d0: c060 0dbb d374 0bbd ce3b fb3c d48a 4bbc
000003e0: 90c0 72bb 108b 12bd 343b 46bc 59fa c7bc
000003f0: 43ec fabc 350e 00bd 0cf1 b3bc 5eb8 9a3c
-0.031077659 0.010816388 0.017686084 0.0023955016 0.027491089 0.02057444 -0.018183282 0.020703062
0.031151246 0.032698255 -0.038531963 0.00252299 0.0017687716 -0.029713854 -0.032013692 0.0074737146
-0.02838086 0.027900878 0.010729499 0.030144427 -0.002862394 -0.0312028 -0.01500172 -0.01780375
-0.00018642098 -0.054901604 -0.04661709 0.009556923 0.008131225 -0.026433209 -0.0154536925 -0.05049107
-0.016577078 -0.032849014 -0.051241633 -0.0062288535 0.0008683904 -0.010257535 -0.031841356 -0.02175084
0.031627547 -0.011419002 -0.014744976 -0.020673908 -0.047278192 -0.0110151945 -0.051369037 -0.0034546824
-0.025084076 -0.043067265 -0.027565032 -0.01832383 -0.0602452 0.007851995 -0.008128001 0.0010221639
-0.018378938 -0.0002763099 -0.024445854 -0.060918838 -0.036291678 -0.04888289 -0.03486194 0.007816568
-0.038722645 0.0012871645 -0.02251974 0.0070365774 -0.035348095 -0.018301278 -0.011212783 -0.05195171
-0.016043479 -0.0071816896 -0.014135667 -0.01383601 0.004387375 -0.05913931 -0.05588992 0.007532983
-0.054152597 -0.02899016 -0.018330246 -0.0076044044 -0.0050256713 -0.017924318 -0.058460183 -0.037225094
-0.060320985 -0.05063357 -0.036260013 -0.028809285 0.0037845257 0.0002408568 -0.00013130183 -0.061146274
0.0019426213 -0.058492437 -0.01037986 0.0024008092 0.035074208 0.010731369 -0.007764416 -0.0122557655
-0.03374869 -0.0077372175 -0.013612779 -0.016276456 0.018677745 -0.00596359 -0.011733295 -0.0015033707
-0.012454201 -0.00093189254 -0.012307234 -0.0041249245 -0.014440093 -0.033399895 0.004628077 -0.00982905
-0.0010101013 0.019523453 -0.010721505 0.022289533 0.033217978 -0.036396056 -0.04996623 -0.053324092
-0.045905836 0.0035250573 -0.044215262 -0.025813868 -0.0073483884 -0.017199604 -0.056075297 -0.01142976
-0.021117436 -0.0034108784 -0.039198082 -0.048430208 -0.019086236 -0.034896914 0.0126500195 -0.037187878
-0.004603828 -0.020604016 -0.024992751 0.011250933 -0.0019094946 -0.005294382 -0.03310251 -0.009770226
0.010802217 0.022419006 -0.0011283867 -0.02555398 0.031629372 0.010606222 0.021955214 -0.032450642
-0.0015559867 0.017214917 -0.00017555803 0.02373283 0.023673609 -0.0050675515 -0.027788557 0.010994714
-0.02458108 -0.017126815 0.0027618445 -0.015409786 0.014639646 0.021237295 0.026001323 0.028703813
0.025290467 -0.02327723 0.01636869 0.022786789 -0.00012690946 -0.029489772 -0.01671665 -0.0055117086
0.032381933 0.026451275 0.014703099 -0.027816225 -0.029463595 0.021515213 0.01278238 -0.029067233
0.011359602 0.005693715 0.0038253777 -0.016421454 -0.030557541 -0.010268742 -0.0075471606 -0.013117263
-0.02340325 -0.043185297 -0.020061681 0.005063346 -0.009745725 -0.03632755 0.008114023 -0.0501642
-0.04501362 -0.035085652 -0.040895544 0.012549097 -0.017893685 -0.05249439 -0.0047310446 0.024446238
-0.030522998 0.00068723806 -0.011282766 -0.016646253 0.01009665 -0.0335658 -0.044007797 -0.015970023
-0.0152370995 0.027162213 -0.007979086 -0.03173416 -0.02446014 -0.034020826 0.022636928 -0.0054779276
0.024880204 0.024601609 -0.03204078 -0.018638855 0.019034326 0.0260237 0.004045032 0.0047955774
-0.01562871 0.013382755 -0.012917761 -0.0009203252 -0.002157256 -0.03404696 0.030668166 -0.012423236
-0.0037041046 -0.03577715 -0.012099076 -0.024411367 -0.030630236 -0.03126355 -0.021965526 0.018886741

fc1.bias f4 [64]
00000000: a338 79bd 0c4b b8bc ff85 13bd a39f 5dbd
00000010: ac23 84bc 7f81 05bd 0c42 903b 0b9e 4abd
00000020: ee2c 22bc 5d23 00bd 79d9 72bc 5386 fb3b
00000030: e17c 18bd 761f 893c c6af 013c 4214 e03c
00000040: d759 d53c 3622 7bbc 4c8f ac3b 1e67 fc3d
00000050: f703 c83d 16b3 a8bc 8ae1 d43c 38dc 643e
00000060: 6bc2 fa3c f0b9 a2bc 9a58 ef3c 711d 463c
00000070: 4763 3dbd ce67 973c c354 2dbd 6ed0 71bc
00000080: 1eba 12bd 0fb1 533b a19a 943d ac6b d73b
00000090: 94d3 26bc d72d 85bc 316e b83c 2d87 19bd
000000a0: 95ea 68bd 83e9 e5bc 563f a03b be60 49bd
000000b0: 125b efbc fa80 38bd a6a1 1ebd dc7e 82bc
000000c0: f292 73bc 499e 943c ee00 60bd 13ba 713c
000000d0: 9b39 96bb 4d8d 1a3e 14ba 7abd 3201 c3bd
000000e0: 135f 3ebb 90ee 533c 7e07 16bd faa7 bf3c
000000f0: 5228 293d c39a 31bd 64c4 523d f68d 22bd
-0.06084503 -0.022496723 -0.03601646 -0.05410732 -0.01613029 -0.0325942 0.0044024047 -0.049467128
-0.009898407 -0.031283725 -0.014822357 0.007675925 -0.03722847 0.016738635 0.007915443 0.02735341
0.026043816 -0.015327981 0.0052661058 0.123243555 0.09766381 -0.020593207 0.025986452 0.22349632
0.030610284 -0.019864053 0.029217053 0.01209198 -0.046237256 0.018482115 -0.042317163 -0.014759166
-0.035822026 0.003230158 0.072560556 0.006574115 -0.01018228 -0.01625721 0.02251348 -0.03748243
-0.05686434 -0.028065449 0.0048903627 -0.049164526 -0.02921823 -0.045044877 -0.03872838 -0.015929632
-0.014866577 0.018141882 -0.054688387 0.014753836 -0.004584504 0.15092964 -0.061212614 -0.09521712
-0.0029048368 0.012935296 -0.03662824 0.023395527 0.041298218 -0.043360483 0.051456824 -0.039686166
