saved_models/dqn_checkpoint_ep200.pth (torch, 981377 bytes, 32 tensors)

conv1.weight f4 [16, 2, 4, 4]
0	0xbe219902	-0.15781024
1	0xbdb2e3cb	-0.08734854
2	0xbec2eaee	-0.38069862
3	0xbf43a58f	-0.764245
4	0xbe98e2fd	-0.29860678
5	0xbf1276c0	-0.5721245
6	0xbdcb8aaf	-0.09938561
7	0xbef7624b	-0.4831718
8	0xbe9353f4	-0.2877499
9	0xbefbb489	-0.49161175
10	0xbdfadb66	-0.12248878
11	0xbec566b5	-0.38554922
12	0xbebc2216	-0.36744756
13	0xbe94966e	-0.2902102
14	0xbe038fb5	-0.12847789
15	0xbe612488	-0.21986592
16	0xbd5bf3fe	-0.053699486
17	0xbd988695	-0.074475445
18	0x3e0d66bb	0.1380872
19	0x3cfc4726	0.030795645
20	0x3dc0ee2b	0.09420427
21	0x3dc7b4e6	0.097513005
22	0xbe29c3ee	-0.16578647
23	0x3c5d2ed8	0.013499938
24	0x3da073e6	0.07834606
25	0xbd92a76f	-0.07160842
26	0xbdd07b6d	-0.101797916
27	0xbe6643fc	-0.22486871
28	0xbe3d11cb	-0.18463819
29	0xbdf058df	-0.11735701
30	0x3e15a41a	0.14613381
31	0xbddee86a	-0.10884173
32	0xbd55366d	-0.052053858
33	0xbf0fbdb7	-0.56148857
34	0xbedbba6a	-0.4291566
35	0xbf04ae68	-0.5182862
36	0xbd181f04	-0.037138954
37	0xbe9824c4	-0.2971555
38	0xbed91d17	-0.42405006
39	0xbe8079da	-0.25092965
40	0xbe52c9a9	-0.2058474
41	0xbedf3a3a	-0.4359911
42	0x3ca2374f	0.019801764
43	0xbe37af7a	-0.17938033
44	0xbe050a08	-0.12992108
45	0xbebc018b	-0.36719927
46	0xbe225c95	-0.1585563
47	0xbe0d3dd5	-0.13793118
48	0xbe42b8d6	-0.19015822
49	0xbc35a240	-0.011086047
50	0x3df33a3d	0.118763424
51	0xbdc41cca	-0.095758036
52	0x3e0bd7bf	0.1365652
53	0xbe05674d	-0.13027687
54	0xbe2a13f1	-0.1660917
55	0xbe0e1827	-0.13876401
56	0x3df276de	0.11839078
57	0xbe87b0ae	-0.26501983
58	0xbe950414	-0.29104674
59	0xbe059d88	-0.13048375
60	0xbb0da138	-0.0021610986
61	0x3cc5fc9d	0.024168307
62	0xbe374b16	-0.17899737
63	0xbe3313cb	-0.17488019
64	0x3de22920	0.11043
65	0xbc101a11	-0.008795277
66	0xbe48d582	-0.19612697
67	0x3f31e9b4	0.6949723
68	0xbf0b6c3a	-0.54462016
69	0x3bf53b5c	0.007483883
70	0x3eca1757	0.39470932
71	0x3f21df9c	0.63231826
72	0x3ea99fc6	0.3312971
73	0x3e98ed80	0.29868698
74	0x3ee6dc21	0.4508982
75	0x3f24d994	0.643945
76	0xbe8500d3	-0.2597719
77	0x3eab3dd5	0.33445612
78	0x3f156fc6	0.5837368
79	0x3f87aaba	1.0598977
80	0xbd87ac37	-0.06624644
81	0xbdd56639	-0.10419888
82	0x3d65d0be	0.056107275
83	0xbe07e1a1	-0.13269664
84	0xbc53fba1	-0.012938411
85	0x3d6839e2	0.056695826
86	0xbe4c88cf	-0.19974063
87	0xbebd23aa	-0.36941272
88	0xbe49b14f	-0.19696544
89	0x3d6dab06	0.05802443
90	0xbd2ae24d	-0.041719723
91	0xbdffddd3	-0.124934815
92	0xbd78c53e	-0.06073498
93	0xbd3de98c	-0.046365306
94	0xbd8b0e86	-0.067898795
95	0x3d92ad58	0.07161969
96	0x3f4a7640	0.79086685
97	0x3f4b4f8e	0.79418266
98	0x3f255584	0.6458361
99	0x3fc71827	1.5554246
100	0x3ea4dbd1	0.32198957
101	0x3e9ba544	0.30399525
102	0x3f188961	0.59584624
103	0x3f15bb58	0.5848899
104	0x3eb1387f	0.34613416
105	0x3ec69345	0.38784233
106	0x3d3d69ed	0.046243597
107	0x3f3a1bf9	0.7269893
108	0x3e94b70a	0.29045898
109	0x3ebe3eef	0.3715739
110	0x3f2a7a7a	0.66593134
111	0x3f4792db	0.7795846
112	0x39d85496	0.00041261752
113	0xbcd28ec2	-0.025702838
114	0x3e50f85f	0.20407246
115	0xbb218929	-0.0024648404
116	0xbaadef70	-0.001327021
117	0xbdcbf390	-0.09958565
118	0xbd6942e5	-0.05694856
119	0xbca05d1a	-0.019575644
120	0x3e38a868	0.18032992
121	0xbc3b89a0	-0.011446387
122	0xbcc7fd02	-0.024412636
123	0xbd89dd81	-0.06731702
124	0xbd44e537	-0.04807016
125	0x3e049808	0.1294862
126	0x3e0f01d3	0.1396554
127	0xbe54f1bc	-0.2079534
128	0xbd090ccc	-0.03345947
129	0x3fe2de8c	1.7724166
130	0x3fdb1a01	1.7117311
131	0x3ed440ae	0.41455597
132	0xbe4b0593	-0.19826345
133	0x3f68e239	0.9097019
134	0x3f6e308f	0.93042845
135	0x3f56f8f1	0.83973604
136	0x3f21494b	0.6300246
137	0x3eb8f05a	0.36120874
138	0x3e87c86a	0.2652009
139	0x3ef28ca1	0.47372916
140	0x3f0cb1bd	0.5495871
141	0x3f011375	0.50420314
142	0xbed96291	-0.42458013
143	0xbd285fa5	-0.04110684
144	0x3de41414	0.11136642
145	0xbead4e17	-0.3384864
146	0x3dd7e2d6	0.105413124
147	0x3d38c043	0.04510523
148	0x3db290df	0.08719038
149	0x3e384b0a	0.17997375
150	0xbd937484	-0.07199958
151	0xbe00d4d2	-0.12581185
152	0x3e41b25e	0.18915698
153	0xbdfbb07e	-0.122895226
154	0xbdd84714	-0.10560432
155	0x3c08d7f3	0.008352268
156	0x3caea02c	0.02131661
157	0x3ca22501	0.019793035
158	0x3e0c2053	0.13684206
159	0x3d05fb4c	0.03271036
160	0x3f01d09e	0.5070895
161	0xbcc2c2a4	-0.023774453
162	0xbf3e01bd	-0.742214
163	0x3fbe2ea7	1.4857987
164	0xbd861afb	-0.06548115
165	0xbea23195	-0.31678453
166	0x3ea14c98	0.3150375
167	0x3f646903	0.89222735
168	0xbd5bccc2	-0.05366207
169	0x3dd0c67b	0.10194107
170	0x3d7294ee	0.05922406
171	0x3f232a20	0.6373615
172	0x3ee961ac	0.4558233
173	0x3f1582f2	0.5840293
174	0x3eca318c	0.39490926
175	0x3f41c38b	0.75689
176	0xbbbc84c9	-0.005753134
177	0xbcfa05cb	-0.03052034
178	0x3ddffdb9	0.10937066
179	0xbe99f534	-0.30069888
180	0x3d287c48	0.04113415
181	0xbe77f8f8	-0.24216068
182	0xbd112839	-0.03543875
183	0xbd48a3df	-0.048984405
184	0xbe241c6e	-0.1602647
185	0xbce344f4	-0.02774284
186	0x3d10aeb4	0.03532286
187	0xbe93368c	-0.28752553
188	0x3d87da5a	0.06633444
189	0x3e00acf3	0.12565975
190	0xbe406c00	-0.18791199
191	0x3cf9fd8a	0.030516405
192	0xbeefa12c	-0.46802652
193	0xbcaba24c	-0.020951413
194	0xbdf64f15	-0.120268025
195	0x3c65a9b6	0.014017513
196	0xbf082273	-0.53177565
197	0xbebc2a46	-0.36751002
198	0xbef5c9d0	-0.48005533
199	0xbecb183c	-0.39666927
200	0xbe74e113	-0.23913984
201	0xbd210e37	-0.039320197
202	0xbe3dc7d4	-0.1853326
203	0x3db29f93	0.087218426
204	0xbe9fafcc	-0.3118881
205	0xbea74ad8	-0.3267429
206	0xbef79b36	-0.48360604
207	0xbd13d444	-0.036091104
208	0xbd6a7eac	-0.05724971
209	0xbe2066da	-0.15664235
210	0x3d344c8f	0.044018324
211	0x3c805e71	0.015670033
212	0xbdfcef7e	-0.12350367
213	0xbdf007a7	-0.117202096
214	0xbe59b366	-0.21259841
215	0xbe217306	-0.15766534
216	0x3d8171df	0.06320547
217	0x3e70e1cb	0.23523633
218	0x3cee3aff	0.029080866
219	0xbe866633	-0.26249847
220	0xbe74b2ab	-0.23896281
221	0x3e14534e	0.14484903
222	0xbdf48dd5	-0.11941115
223	0xbe87b8a0	-0.26508045
224	0xbeb63bb7	-0.35592434
225	0xbeb4b6b4	-0.3529564
226	0xbeba6686	-0.36406344
227	0xbe35c16e	-0.17749569
228	0xbeb74dde	-0.35801595
229	0xbe48210c	-0.19543856
230	0x3e1d4a8c	0.15360469
231	0xbedf876c	-0.43658006
232	0xbce6b253	-0.028161203
233	0xbe29d435	-0.16584857
234	0xbe35267e	-0.17690465
235	0xbe352477	-0.17689691
236	0xbe8407de	-0.25787252
237	0xbed8946f	-0.42300746
238	0xbe517505	-0.20454796
239	0xbeeaf25b	-0.45888028
240	0x3dedec68	0.116173565
241	0x3cacb36e	0.021081652
242	0x3d8007e4	0.06251505
243	0x3e106a84	0.14103132
244	0xbd8c4f9c	-0.06851122
245	0xbe8ebd2d	-0.27878705
246	0xbe942551	-0.2893472
247	0xbe3ab912	-0.18234661
248	0xbd60eef0	-0.05491537
249	0xbd3ab7e9	-0.045585547
250	0x3d3c9108	0.04603675
251	0x3c13adfa	0.009013647
252	0xbe4fa6db	-0.20278494
253	0xbd08860d	-0.033330966
254	0xbd7413a4	-0.059589043
255	0xbe1d592a	-0.15366045

conv1.bias f4 [16]
0	0x3e6e18e8	0.23251688
1	0x3dfd31ce	0.12363015
2	0x3e55b974	0.20871526
3	0x3dbde73a	0.092726186
4	0xbe02497c	-0.12723345
5	0x3e6cee9e	0.231379
6	0x3e4da239	0.20081414
7	0x3e167dd6	0.1469644
8	0x3e3fa4f4	0.18715268
9	0x3db7f5e7	0.08982449
10	0x3de3f85b	0.111313544
11	0xbb7b0776	-0.0038304008
12	0x3d8067a7	0.0626977
13	0xbe0a9ca9	-0.13536324
14	0x3e902134	0.28150332
15	0x3e21898c	0.15775126

conv2.weight f4 [32, 16, 4, 4]
0	0xbb7c7322	-0.0038520773
1	0xbd5a5725	-0.053305764
2	0x3d4109b1	0.047128383
3	0x3d6bf0fe	0.057602875
4	0x3d3481b8	0.044069022
5	0xbd9038d4	-0.07042089
6	0xbc7c8839	-0.015413337
7	0x3c03032b	0.007996361
8	0x3c70c557	0.014695487
9	0xbc8d37d3	-0.017238533
10	0xbd7c3345	-0.061572332
11	0xbbe3b367	-0.0069488767
12	0x3da57c2f	0.08080327
13	0x3d3b02c1	0.045656923
14	0xbc836c82	-0.016042951
15	0x3d9db655	0.07700793
16	0x3d3aa3d1	0.045566384
17	0xbd838956	-0.06422679
18	0xbe8de522	-0.27713877
19	0x3d32e19e	0.043672197
20	0xbcbc9098	-0.023018166
21	0xbd988b70	-0.074484706
22	0xbc5c361a	-0.013440633
23	0x3cf7db43	0.03025592
24	0x3d7a5d7f	0.06112432
25	0xbd5f245b	-0.05447803
26	0x3cb1f9a7	0.021725489
27	0xbd3daeab	-0.046309154
28	0xbc57e535	-0.013177206
29	0x3cd26a45	0.025685439
30	0xbc194811	-0.009355561
31	0x3c1cc0c8	0.009567447
32	0xbd47fa97	-0.048822965
33	0xbd2eac4d	-0.042644788
34	0x3cb12dfb	0.02162837
35	0x3cf7e475	0.030260304
36	0x3c7a4422	0.015275033
37	0x3d156025	0.036468644
38	0xbca7b057	-0.020469828
39	0xb691b720	-4.3426553e-06
40	0xbcf5cb66	-0.030004214
41	0x3cb50ad3	0.022099888
42	0x3d4ad516	0.04951962
43	0xbcb6b00d	-0.022300744
44	0x3d878c43	0.0661855
45	0xbd554839	-0.05207083
46	0xbde84143	-0.11340573
47	0xbd5f799b	-0.05455933
48	0xbda3989c	-0.07988092
49	0xbdf5fd16	-0.12011163
50	0xbdaae984	-0.08345321
51	0xbd762060	-0.06008947
52	0xbd3dfee1	-0.04638565
53	0xbd7601f6	-0.060060464
54	0xbd19089f	-0.037361737
55	0xbd8d569f	-0.06901287
56	0xbbd363e7	-0.0064511183
57	0x3c926c81	0.017874004
58	0xbc95a53c	-0.018267266
59	0xbe4e0e6b	-0.20122688
60	0x3d576f84	0.052596584
61	0x3d0bd092	0.034134455
62	0xbd1513b7	-0.036395755
63	0xbe8dbbb7	-0.27682278
64	0xbf1c8b4e	-0.6115006
65	0xbedc62fb	-0.43044266
66	0xbe979c50	-0.29611444
67	0xbf08a6b7	-0.53379387
68	0xbf018b62	-0.50603306
69	0xbdcfcb1d	-0.10146163
70	0xbe0fbee9	-0.1403767
71	0xbf0220b6	-0.5083116
72	0xbeee0c6e	-0.46493858
73	0xbd7fabbd	-0.06241964
74	0xbda7660b	-0.0817376
75	0xbeb4ec5a	-0.35336572
76	0xbe884715	-0.2661673
77	0x3d18bc29	0.03728882
78	0x3be064e5	0.006847965
79	0xbeeee162	-0.46656328
80	0xbc8ee025	-0.017440865
81	0x3c158ec0	0.0091282725
82	0xbbdbf8c9	-0.006713007
83	0xbe15a21d	-0.14612623
84	0x3c85c3d2	0.016328726
85	0x3d8f1dec	0.06988129
86	0xbcbcb16a	-0.023033816
87	0x3cd2a088	0.025711313
88	0xbd85edd3	-0.06539502
89	0xbb6bf069	-0.003600145
90	0x3d95711e	0.07296966
91	0x3b272da7	0.0025509389
92	0x3d81df6e	0.06341444
93	0x3dd2ec64	0.10298994
94	0xbc0406e9	-0.008058288
95	0xbe2775ba	-0.16353503
96	0x3d4a0e9f	0.04933035
97	0x3c7c39f2	0.015394675
98	0x3dec0484	0.11524299
99	0x3ddf3e56	0.109005615
100	0x3ca6d99a	0.020367432
101	0x3c4fdd2d	0.01268701
102	0xbcc250dc	-0.023720197
103	0x3d858615	0.06519715
104	0x3da09f4e	0.07842885
105	0x3d6c20d5	0.0576485
106	0x3d19a858	0.03751406
107	0x3cff8337	0.031190498
108	0x3d7451ae	0.05964821
109	0xbd1d8d81	-0.038465027
110	0xbd83f690	-0.064435124
111	0x3d4b7f35	0.04968186
112	0xbc173416	-0.009228727
113	0x3d0951df	0.033525344
114	0x3c4b5a39	0.0124116475
115	0xbc5c8b3e	-0.013460932
116	0x3d6f1c38	0.05837652
117	0xbc411797	-0.011785409
118	0xbc65cd0f	-0.014025941
119	0xbd4d637c	-0.050143704
120	0x3dee3dad	0.116328575
121	0x3c9c6cb6	0.019094806
122	0xbc01a2fa	-0.007912392
123	0x3dd0958c	0.10184774
124	0x3d846c40	0.064659595
125	0xbc3778e8	-0.01119826
126	0xbc24d832	-0.010061311
127	0xbc8e4abc	-0.01736962
128	0xbbe0183d	-0.006838827
129	0xbb6a85fa	-0.0035785423
130	0x3d5420bf	0.05178904
131	0x3d2e4154	0.04254277
132	0x3d068212	0.03283889
133	0xbc251ffd	-0.010078427
134	0xbdf8e4a4	-0.12152985
135	0xbd5d7719	-0.05406866
136	0xbd8dabf0	-0.0691756
137	0x3d922ac1	0.07137061
138	0x3cb1984c	0.021679066
139	0x3cb2f97d	0.02184748
140	0x3dd61fa5	0.104552545
141	0xbd42cb6c	-0.04755728
142	0x3c368009	0.011138924
143	0x3c971b38	0.018445596
144	0xbde7f38d	-0.113257505
145	0x3d1b0801	0.03784943
146	0x3cd47d77	0.025938733
147	0xbcaf2fe3	-0.021385139
148	0xbe4cc76e	-0.19997951
149	0xbd262f76	-0.040572606
150	0xbd54502e	-0.051834278
151	0xbd57bd9b	-0.052671056
152	0xbe399011	-0.18121363
153	0xbe5d1996	-0.21591792
154	0x3d61767a	0.05504463
155	0xbd75f2d1	-0.06004602
156	0xbe1bc815	-0.15213044
157	0xbe135f80	-0.14391899
158	0x3e204815	0.15652497
159	0xbda303ff	-0.079597466
160	0x3c178b3c	0.009249505
161	0x3d106bc6	0.03525903
162	0xbd4f4919	-0.05060682
163	0x3dfbf65f	0.12302851
164	0xbc6945a2	-0.014237793
165	0xbe055182	-0.13019374
166	0x3d39167d	0.045187462
167	0x3c82bae9	0.015958266
168	0x3d64ec17	0.055889215
169	0x3d1718c8	0.036888868
170	0xbdab3fd5	-0.08361784
171	0xbac05368	-0.0014673294
172	0x3c595a87	0.013266212
173	0x3d6a434c	0.057193086
174	0xbda86e75	-0.08224193
175	0xbc5812f8	-0.013188116
176	0x3d8a5c2f	0.06755864
177	0xbd72460e	-0.05914884
178	0xbd99e88c	-0.07515058
179	0xbd83f006	-0.06442265
180	0xbdd5723e	-0.104221806
181	0x3dccd26b	0.100010715
182	0xbcc1e6b1	-0.023669573
183	0x3db6f098	0.08932608
184	0x3bf14c58	0.007363837
185	0xbeb30e3f	-0.34971806
186	0xbd1f8fab	-0.03895537
187	0xbcfea680	-0.031085253
188	0xbe363df5	-0.17797072
189	0x3d18b380	0.03728056
190	0x3e3e5cfb	0.18590157
191	0x3d132172	0.035920568
192	0x3c55cd6e	0.013049467
193	0x3d0f71da	0.035020687
194	0x3dc8bcfd	0.09801672
195	0x3d027193	0.031846594
196	0xbd0c4c19	-0.03425226
197	0xbd72c4f0	-0.059269845
198	0x3cde19b8	0.027111873
199	0xbda2d2a1	-0.079503305
200	0x3d991c4e	0.07476102
201	0x3bf4c12a	0.007469316
202	0xbe9a4190	-0.30128145
203	0x3c808ccd	0.015692139
204	0xbe066e21	-0.13127948
205	0xbd43da86	-0.047815822
206	0x3d9abb8c	0.07555303
207	0xbd03eb71	-0.032206956
208	0xbe36c974	-0.17850286
209	0xbd873974	-0.06602755
210	0xbdda5c8c	-0.10662183
211	0xbf0459d7	-0.51699585
212	0xbd107a15	-0.035272676
213	0xbdd6f23b	-0.104954205
214	0xbd97be35	-0.07409326
215	0xbe9eddac	-0.31028497
216	0xbe3c36df	-0.18380307
217	0xbd4770c8	-0.04869154
218	0xbe02f50f	-0.12788795
219	0xbe9896b2	-0.2980247
220	0xbe2e0aa2	-0.16996244
221	0xbc7b09bb	-0.015322144
222	0x3b8bf46e	0.0042710816
223	0xbf283ebc	-0.65720725
224	0x3dde590a	0.108568266
225	0x3c889de5	0.016676852
226	0x3d199219	0.037492845
227	0x3db8e392	0.090277806
228	0xbbc32e05	-0.0059564137
229	0xbd01a252	-0.03164894
230	0x3da7592f	0.08171307
231	0xbc4e0c29	-0.012576141
232	0xbca76ce8	-0.020437673
233	0x3d496628	0.04916969
234	0x3b01a7ba	0.001978381
235	0x3ce077a1	0.027400794
236	0x3ddb4d60	0.107081175
237	0xbd07e3f1	-0.033176366
238	0x3d6fafd3	0.05851729
239	0x3d79cc9c	0.060986146
240	0xbc6e3253	-0.014538365
241	0xbd347b49	-0.044062886
242	0xbb43c92a	-0.0029874542
243	0xbb20e595	-0.0024550904
244	0x3d04a1e9	0.032380972
245	0xbda027e4	-0.078201085
246	0x3d701e73	0.05862279
247	0xbafbf79b	-0.0019223572
248	0x3df5a478	0.119942605
249	0xbdc7dece	-0.097592935
250	0xbd376161	-0.044770602
251	0x3d3f68be	0.04673075
252	0x3d990ecf	0.07473528
253	0x3ddc14cb	0.107461534
254	0xbe2b1d9b	-0.16710512
255	0xbe04a678	-0.12954128

conv2.bias f4 [32]
0	0x3dc4d198	0.09610289
1	0x3cf4d792	0.029887948
2	0xbd8de4a8	-0.06928378
3	0x3dd397a2	0.10331656
4	0x3d80f036	0.062958166
5	0x3cd30a0b	0.025761625
6	0xbda76a81	-0.08174611
7	0x3e3c5755	0.1839269
8	0xbdbc63c0	-0.09198713
9	0x3b726a0c	0.0036989478
10	0xbc9f5302	-0.01944876
11	0x3e0551b1	0.13019444
12	0x3d0604b2	0.03271932
13	0xbda407fb	-0.08009335
14	0x3df8818b	0.12134083
15	0x3dde94ab	0.108682
16	0x3c74fb0c	0.014952432
17	0x3bf3b2dd	0.0074370936
18	0x3d853313	0.06503882
19	0xbd9233d5	-0.071387924
20	0xbcf3c931	-0.029759021
21	0x3de5cf0c	0.11221132
22	0x3b42f4c8	0.0029747952
23	0x3dc28d87	0.094996504
24	0x3ddcb1f8	0.10776132
25	0xba652ff5	-0.0008742803
26	0x3e18e4e5	0.14931066
27	0x3d1c1db1	0.038114253
28	0x3d4c18e8	0.04982844
29	0xbd316a0a	-0.043314017
30	0x3e061c48	0.13096726
31	0x3ccaa569	0.024737077

fc1.weight f4 [64, 800]
0	0x3c011f92	0.007881062
1	0x3cb8b653	0.022547876
2	0xbd20e54e	-0.039281182
3	0x3c6026f3	0.013681161
4	0x3ddf3ad8	0.108998954
5	0x3c416cd1	0.011805729
6	0x3cb3ee4b	0.021964213
7	0xbc3afa03	-0.0114121465
8	0x39ed2458	0.0004523124
9	0x3cc43e9b	0.023955634
10	0x3bb20fc5	0.005434009
11	0x3c4f56b3	0.012654948
12	0xbd104036	-0.035217486
13	0x3d0d0f81	0.034438614
14	0xbb696a79	-0.0035616441
15	0xb95ee29e	-0.00021255991
16	0x3d38e674	0.045141652
17	0xbd344629	-0.044012222
18	0xbd5c148b	-0.05373053
19	0x3b999f5d	0.004688187
20	0xbddb66ec	-0.1071299
21	0xbca34797	-0.019931598
22	0x3c6ed0d0	0.014576152
23	0x3c939947	0.018017424
24	0x3dcbf9df	0.099597685
25	0xbd6b2488	-0.057407886
26	0xbd99bfeb	-0.075073086
27	0xbd18c730	-0.037299335
28	0x3c659410	0.014012352
29	0x3da2d86f	0.07951438
30	0xbb8bca94	-0.0042660926
31	0xbcf35261	-0.029702367
32	0xbcd60b49	-0.026128428
33	0xbda7bf99	-0.08190841
34	0xbc340291	-0.01098694
35	0xbe364de5	-0.17803152
36	0xbd9c1e73	-0.07622995
37	0xbcd0e9db	-0.025502136
38	0x3cf67fb1	0.030090185
39	0x3d1a8918	0.0377284
40	0x3ce73d16	0.02822737
41	0x3c493881	0.012281538
42	0xbdaac794	-0.08338848
43	0xbd07e53d	-0.033177603
44	0x3bd432ac	0.006475767
45	0xbdb804b9	-0.08985276
46	0xbde9b85e	-0.114121184
47	0xbe1ab376	-0.15107521
48	0x3c1ba673	0.009500134
49	0x3d0d897b	0.03455494
50	0x3b68a4a0	0.0035498515
51	0x3c759b89	0.014990696
52	0x3b917404	0.004438879
53	0xbd061e5e	-0.032743804
54	0xbc020e0f	-0.007937922
55	0x3b5f679d	0.0034088858
56	0x3bf6372c	0.007513901
57	0xbca1e6f9	-0.019763457
58	0xbd1236b3	-0.035696696
59	0x3bf5b8a0	0.0074988157
60	0x3ce0edab	0.027457079
61	0x3d17bfb1	0.037048046
62	0x3d24e9a1	0.04026187
63	0x3c9e34ee	0.019312348
64	0x3cd46061	0.025924863
65	0xbc984563	-0.018587774
66	0xbc25ff4e	-0.01013167
67	0x3c6c9bb8	0.014441423
68	0xbd0ae433	-0.033909034
69	0x3c9a641c	0.018846564
70	0x3cad368a	0.02114417
71	0x3c59f19e	0.013302235
72	0xbcbbeeee	-0.022941079
73	0xbcfcc3fc	-0.030855171
74	0xbc96e1aa	-0.018418152
75	0xbd025fae	-0.03182953
76	0x3bba8202	0.0056917677
77	0x3b50a78c	0.0031838147
78	0xbc8775cc	-0.016535662
79	0x3d7d31a4	0.06181492
80	0x3d2d4f18	0.042311758
81	0x3c8882eb	0.016663989
82	0xbcf9d02c	-0.030494772
83	0xbda8f65e	-0.08250116
84	0xbbd96ef2	-0.00663554
85	0x3cfec453	0.031099474
86	0xb917eeb1	-0.00014489402
87	0xbd0f4f03	-0.03498746
88	0xbd28ce03	-0.041212093
89	0x3d0d23b2	0.03445787
90	0xbc9aa467	-0.018877221
91	0xbda2ceb7	-0.07949584
92	0xbd516341	-0.051120047
93	0x3c71570c	0.014730226
94	0xbc605184	-0.01369131
95	0x3d4e6e09	0.050397906
96	0xbd2734ab	-0.040821712
97	0x3d8b8291	0.06812013
98	0x3ce1866f	0.027529923
99	0x3d63a9e9	0.05558196
100	0xbc39e420	-0.011345893
101	0x3c8f7f69	0.017516809
102	0xbd2da07a	-0.04238937
103	0xbce90b10	-0.028447658
104	0x3d2833e4	0.04106511
105	0xbb9d9000	-0.004808426
106	0x3d22e513	0.039769243
107	0x3c31a097	0.01084151
108	0x3b827ab2	0.0039819116
109	0xbc5b00ba	-0.013366872
110	0xbdbd27f5	-0.09236137
111	0xbda35bdf	-0.079765074
112	0xbc541fda	-0.012947047
113	0xbc12abdb	-0.008952106
114	0xbd388eeb	-0.045058172
115	0xbd0ccb0d	-0.03437333
116	0xbd5431ec	-0.05180542
117	0xbddb5028	-0.10708648
118	0x3d56906d	0.05238383
119	0xbd400bf5	-0.046886403
120	0x3d318232	0.043337055
121	0xbc10c887	-0.008836872
122	0xbd7dd9e8	-0.06197539
123	0xbbb05f37	-0.0053824442
124	0x3d80f1a2	0.06296088
125	0x3d5acea3	0.05341972
126	0x3d9b36e6	0.075788304
127	0x3e034898	0.12820661
128	0x3e2c2efb	0.16814797
129	0x3df30a1f	0.11867165
130	0xbcb3d340	-0.021951318
131	0xb9a61910	-0.0003168066
132	0x3d4a29f0	0.0493564
133	0xbc13dc91	-0.009024755
134	0x3e021577	0.127035
135	0xbe340f55	-0.17583974
136	0xbdccb5e3	-0.0999563
137	0x3e991cbe	0.2990474
138	0x3d845626	0.06461744
139	0xbdd9aa60	-0.106281996
140	0xbedbc891	-0.42926458
141	0xbec7e75d	-0.39043704
142	0xbebd88df	-0.37018487
143	0xbd79f423	-0.061023843
144	0x3db9d861	0.09074474
145	0xbe4c78ca	-0.19967952
146	0xbe5bac4f	-0.2145245
147	0xbd6706d2	-0.05640299
148	0x3e51f7bf	0.20504664
149	0x3e43d6e6	0.19124946
150	0x3d17644d	0.03696089
151	0xbd06c81a	-0.032905675
152	0x3cc058d2	0.023479853
153	0xbc87f5b5	-0.016596654
154	0x3c9e3df8	0.019316658
155	0x3cd3c990	0.025852948
156	0xb73932b5	-1.1038665e-05
157	0xbcc737bc	-0.024318568
158	0x3cdbd3f2	0.026834462
159	0xbc6ad793	-0.014333623
160	0xbd2bdae8	-0.041956812
161	0xbcd41dd9	-0.025893139
162	0xbd4e4a83	-0.05036403
163	0xbd3c6a30	-0.045999706
164	0x3cf59d68	0.029982284
165	0xbd4020ac	-0.04690616
166	0x3c054086	0.008133059
167	0xbd1ce6e4	-0.038306132
168	0x3b8b8fc9	0.004259084
169	0x3cd45a80	0.02592206
170	0x3c19f220	0.009396106
171	0x3c6c8459	0.014435851
172	0x3c89296f	0.01674339
173	0x3cc9e8a2	0.02464706
174	0x3ba7c753	0.005120197
175	0xbee7641a	-0.4519356
176	0xbea567d7	-0.32305786
177	0xbe08ce95	-0.13360055
178	0xbe940caf	-0.28915927
179	0xbf0e89b6	-0.5567888
180	0xbe104951	-0.14090468
181	0xbe10815d	-0.14111848
182	0xbdce6dca	-0.10079534
183	0x3e070e2d	0.13189001
184	0xbde18c06	-0.110130355
185	0xbe9a8a98	-0.30183864
186	0xbdc92a03	-0.09822466
187	0xbe256cd7	-0.161548
188	0xbe1fda45	-0.15610607
189	0xbe01f62f	-0.12691568
190	0xbea18e54	-0.315539
191	0xbe40c8de	-0.18826625
192	0xbd93ba64	-0.072132856
193	0x3e140a4e	0.14457056
194	0xbe981b21	-0.29708198
195	0xbd9fdce9	-0.07805807
196	0xbe6676a6	-0.22506198
197	0x3dfe2581	0.12409497
198	0xbcee46ef	-0.029086558
199	0xbea0c509	-0.31400326
200	0x3c0345a8	0.008012213
201	0x3cb1b55c	0.021692924
202	0xbccce0f3	-0.025009608
203	0xbcdb8e37	-0.026801212
204	0x3ca6dad6	0.020368021
205	0x3d008791	0.031379286
206	0xbc85699f	-0.016285716
207	0x3cae688e	0.02129009
208	0xbce776b2	-0.02825484
209	0xbd02c2e8	-0.03192416
210	0x3cc1272c	0.023578249
211	0x3ac05880	0.0014674813
212	0xbc4a7440	-0.012356818
213	0xbcadad50	-0.021200806
214	0xbc2acd34	-0.010424901
215	0xbcc6592c	-0.024212442
216	0xbc826216	-0.015915912
217	0xbccbe6a0	-0.024890244
218	0x3c294cd4	0.010333259
219	0x37a0d800	1.917407e-05
220	0x3c65ac56	0.014018139
221	0x3c921334	0.017831422
222	0xbb1927f0	-0.0023369752
223	0x3b2ef320	0.0026695207
224	0xba15de00	-0.00057169795
225	0xbbe0cc24	-0.006860273
226	0x3a9a3b56	0.0011766951
227	0xbb653f50	-0.0034980364
228	0xba1355b2	-0.00056203746
229	0xbcd265b4	-0.025683261
230	0xbcdd0d26	-0.026983809
231	0xbccad237	-0.024758441
232	0x3bda9bd0	0.0066714063
233	0x3b835b82	0.0040087113
234	0x3cfde032	0.030990694
235	0xbcbc5ade	-0.022992548
236	0xbd0a0c60	-0.033703208
237	0xbbd8bf58	-0.006614607
238	0x3cf72cca	0.030172724
239	0x3a887e00	0.0010413527
240	0x3b760c90	0.003754411
241	0x3ccd5670	0.02506563
242	0xbcc1b3d4	-0.023645319
243	0xbc6815a8	-0.0141653195
244	0x3d17745a	0.036976196
245	0x3ca89fda	0.020584036
246	0x3b58eca0	0.0033100024
247	0x3ccac2b1	0.02475104
248	0xbcd8050d	-0.026369596
249	0x3c82d140	0.015968919
250	0x3d3e8e58	0.04652247
251	0xbc8ba487	-0.017046226
252	0x3d3a26bb	0.045447093
253	0xbd10b192	-0.035325594
254	0x3c22f1b6	0.009945324
255	0x3ba6a58f	0.005085654

fc1.bias f4 [64]
0	0x3da9b53e	0.08286522
1	0xbda7ff81	-0.082030304
2	0xbd482610	-0.048864424
3	0x3db3d3cd	0.08780632
4	0x3db6d99a	0.08928223
5	0x3ced67f9	0.028980242
6	0xbc5318de	-0.012884347
7	0x3c844574	0.0161464
8	0xbd2d9419	-0.042377565
9	0x3d303388	0.043017894
10	0xbd6dee11	-0.058088366
11	0x3c28cb3e	0.010302363
12	0xbd3874ee	-0.045033388
13	0xbcdcaf07	-0.026938928
14	0xbc7f32d9	-0.015576088
15	0xbd6fee3c	-0.058576807
16	0xbcd7957a	-0.026316393
17	0xbb1fafc7	-0.0024366246
18	0xbd6b132f	-0.05739134
19	0xbd13b936	-0.036065303
20	0xbd6445b8	-0.05573055
21	0x3d874ffe	0.06607054
22	0x3d966b4d	0.07344685
23	0xbd2ed4e4	-0.042683497
24	0x3df1a745	0.11799482
25	0xbc536201	-0.012901784
26	0x3d24fb00	0.040278435
27	0xbc4867db	-0.012231792
28	0xbd79a35e	-0.060946815
29	0xbc190051	-0.009338454
30	0xbc76f0ef	-0.0150720915
31	0x3d813b85	0.063101806
32	0xbd3272ec	-0.04356663
33	0x3db4073b	0.087904416
34	0x3de3e21b	0.111271106
35	0xbd22a68a	-0.039709605
36	0x3ca01465	0.019540975
37	0x3da2da64	0.07951811
38	0xbd65a75c	-0.05606781
39	0x3dc09bc5	0.09404711
40	0xbd0fb241	-0.035082106
41	0xbb5f0afd	-0.003403365
42	0x3a4ba16f	0.0007767891
43	0x3d9a530d	0.07535372
44	0xbd34f441	-0.04417825
45	0x3cd78b0a	0.026311416
46	0x3cb26d3f	0.021780608
47	0x3c7c7460	0.015408605
48	0x3cd8a0a2	0.026443783
49	0xbcda5313	-0.026650941
50	0x3da25fc6	0.079284236
51	0xbd59a91e	-0.0531398
52	0x3d0bb89d	0.034111608
53	0xbc5ae32d	-0.013359827
54	0x3dd48f33	0.103788756
55	0xbd4ccfbf	-0.05000281
56	0x3c4fa3c0	0.012673318
57	0xbd089765	-0.033347506
58	0xbd66c069	-0.05633584
59	0x3d81f947	0.06346374
60	0xbd64f779	-0.05590007
61	0xbb71b700	-0.0036882758
62	0x3d904877	0.070450716
63	0xbd228a12	-0.039682455

fc4.weight f4 [8, 64]
0	0x3cbe78d0	0.023250967
1	0x3dbd71df	0.09250235
2	0x3d326e9b	0.043562513
3	0xbec0f986	-0.3769037
4	0xbdb62fd1	-0.08895839
5	0xbd9664df	-0.073434584
6	0x3c54afe6	0.012981391
7	0xbdf6b3ec	-0.12046036
8	0x3da58ab6	0.08083098
9	0x3d23a325	0.03995051
10	0x3d1d0f25	0.03834452
11	0x3e8f3312	0.2796865
12	0x3cd3f658	0.025874302
13	0x3e34f629	0.17672028
14	0xbd3eb7f8	-0.046562165
15	0x3d16dc5d	0.03683125
16	0x3dcb61ad	0.099307396
17	0xbd0af455	-0.03392442
18	0xbd9bbc39	-0.0760426
19	0xbdab8af0	-0.083761096
20	0x3df69bd8	0.120414436
21	0xbd903d16	-0.07042901
22	0xbecc6355	-0.39919534
23	0x3d269395	0.04066809
24	0x3e8a363c	0.26994503
25	0xbd1379c9	-0.036004815
26	0xbea6ef47	-0.3260443
27	0xbc25d71c	-0.010122087
28	0xbdc19b5e	-0.09453462
29	0x3b2cc100	0.0026360154
30	0x3d8d9109	0.06912429
31	0x3c3b8cbe	0.01144713
32	0x3d12c454	0.035831764
33	0xbe92460b	-0.28569064
34	0x3e2328be	0.1593351
35	0xbd035e80	-0.032072544
36	0x3dbe195c	0.09282181
37	0x3e9c00ff	0.3046951
38	0xbdcc102e	-0.099640235
39	0xbe5c1aa7	-0.21494542
40	0x3da67878	0.08128446
41	0x3cd5d62d	0.026103104
42	0x3db4fbe9	0.088371105
43	0x3ea6ddb1	0.32591012
44	0x3c69402b	0.01423649
45	0xbe812bbd	-0.25228682
46	0x3d7f6fde	0.062362544
47	0x3d5ac8ce	0.05341416
48	0x3c90d79b	0.017680934
49	0xbda1b2be	-0.078954205
50	0x3e5aeb33	0.21378784
51	0xbd9cea24	-0.07661846
52	0x3d099a4e	0.033594422
53	0x3d17e809	0.03708652
54	0x3e8f4aa4	0.27986634
55	0xbc42acee	-0.01188205
56	0x3dc08924	0.094011575
57	0x3dbd2c9e	0.09237026
58	0x3d8a1a60	0.06743312
59	0xbe6d03d9	-0.23145999
60	0xbd93b060	-0.07211375
61	0xbd00d96c	-0.03145735
62	0xbe26ba9b	-0.16282122
63	0x3deae9c8	0.114703715
64	0xbea24945	-0.31696525
65	0xbbe0d3f2	-0.0068612034
66	0x3df60a76	0.12013714
67	0xbc06e3cd	-0.008233023
68	0xbe8e3012	-0.2777105
69	0xbe2a8fe9	-0.1665646
70	0xbd3362c0	-0.043795347
71	0x3de3bb1c	0.11119673
72	0x3de3a044	0.111145526
73	0x3e07ac3f	0.132493
74	0xbdb79a46	-0.08964972
75	0x3e877b0e	0.2646107
76	0x3c95ba20	0.018277228
77	0x3c49c414	0.012314815
78	0xbd5814e8	-0.052754313
79	0x3d38a43b	0.045078497
80	0x3d70b3c7	0.0587652
81	0xbdddc120	-0.10827851
82	0xbd537f0c	-0.051634833
83	0xbe0a206e	-0.13488933
84	0x3d348124	0.04406847
85	0x3b345a1d	0.0027519532
86	0xbe87ecdb	-0.26547894
87	0xbdfc48a8	-0.123185456
88	0x3e9d3aec	0.30709016
89	0x3c9a84b3	0.018862104
90	0x3b4b791b	0.0031047526
91	0xbdb6fe88	-0.08935267
92	0xbd477a11	-0.048700396
93	0x3d9535d8	0.072856605
94	0x3e15fbf9	0.14646901
95	0x3daae6c5	0.08344797
96	0xbd171650	-0.036886513
97	0xbd30b4f2	-0.043141313
98	0x3e679f56	0.22619376
99	0xbd624414	-0.055240706
100	0x3dddf1ad	0.108371116
101	0xbf184c64	-0.5949156
102	0x3de9e2a2	0.1142018
103	0xbebbb765	-0.36663356
104	0xbdbf24c9	-0.09333188
105	0xbd243490	-0.04008919
106	0x3d50a05f	0.05093419
107	0x3e249053	0.1607068
108	0x3c75b42b	0.014996569
109	0x3e85a15c	0.2609967
110	0x3d3ec3b9	0.046573374
111	0x3d1a75be	0.037709944
112	0xbcf50da8	-0.029913738
113	0xbd9e8113	-0.07739463
114	0x3d8e40cc	0.06945953
115	0xbdf7d6a2	-0.12101485
116	0xbedae978	-0.42756248
117	0xbdf6c00f	-0.12048351
118	0xbdd156de	-0.10221647
119	0xbd9a523c	-0.07535216
120	0x3ce033dc	0.027368478
121	0x3d6d14bc	0.057881102
122	0x3cefd268	0.029275134
123	0x3e589e73	0.21154194
124	0x3cdcf618	0.026972815
125	0xbdc79880	-0.09745884
126	0x3e194d00	0.1497078
127	0xbdcc5ebc	-0.09979007
128	0xbe5b69a1	-0.21427013
129	0x3d9acd98	0.07558745
130	0x3d1eff3c	0.03881763
131	0xbda80fbc	-0.08206126
132	0xbebe9054	-0.3721949
133	0x3e3770e9	0.17914166
134	0x3d095b55	0.033534367
135	0x3d61e768	0.055152327
136	0x3db7b316	0.08969705
137	0x3e24bc76	0.16087517
138	0x3d885037	0.06655925
139	0x3e9e28eb	0.30890593
140	0xbc775d42	-0.015097918
141	0xbe163365	-0.14668043
142	0xbdf03204	-0.1172829
143	0x3d67790d	0.056511927
144	0x3daa1f1d	0.08306716
145	0xbdd9e6fb	-0.10639759
146	0xbe02f10f	-0.12787269
147	0xbdaf2012	-0.08551039
148	0xbca05830	-0.019573301
149	0xbe42480f	-0.189728
150	0xbe38cd90	-0.18047166
151	0x3d18694f	0.037209805
152	0x3a76dc8a	0.0009417018
153	0x3da98a9d	0.082783915
154	0xbdbb22d0	-0.09137499
155	0x3debcf82	0.11514188
156	0x3da2e815	0.079544224
157	0x3dca03b4	0.098639876
158	0xbe989c00	-0.2980652
159	0x3d7c5977	0.061608758
160	0xbd94281c	-0.07234213
161	0xbed12988	-0.40851998
162	0x3dfbcf17	0.12295359
163	0x3d002bf0	0.031291902
164	0xbcec256a	-0.028826434
165	0x3d1b1395	0.03786047
166	0xbc860858	-0.0163614
167	0xbdfe0087	-0.12402444
168	0xbcf57da0	-0.02996713
169	0x3dae8cd2	0.08522953
170	0xbd1bcf7b	-0.038039666
171	0xbe82db8f	-0.25558135
172	0x3d080ee2	0.03321732
173	0xbe9ebb45	-0.3100225
174	0x3ded74a8	0.11594516
175	0x3e98f06f	0.29870936
176	0x3a3da989	0.00072350405
177	0xbd03f28c	-0.032213733
178	0x3e5506ea	0.20803419
179	0x3b86e380	0.0041164756
180	0xbca98134	-0.020691492
181	0x3ceafa15	0.028683702
182	0x3e055bc1	0.13023283
183	0x3df8ef42	0.1215501
184	0xbdd26e9f	-0.102750055
185	0x3d938a2e	0.0720409
186	0x3d676d93	0.056500982
187	0xbeda1bd9	-0.4259937
188	0xbdc08132	-0.09399642
189	0xbdd6afde	-0.10482763
190	0x3e377e89	0.17919363
191	0xbd2a0ca6	-0.04151597
192	0xbeac93fe	-0.3370666
193	0xbe1beaca	-0.15226284
194	0xbd9a3c3a	-0.075310186
195	0x3d0ff851	0.035148922
196	0xbe62cc77	-0.2214831
197	0xbe4dee38	-0.20110404
198	0xbdb434a6	-0.087991044
199	0xbdd922b4	-0.10602322
200	0x3dd1d6d8	0.10246056
201	0xbc0b3d2f	-0.008498474
202	0x3d5da1a5	0.054109234
203	0x3ea68eca	0.32530814
204	0xbde8de1b	-0.11370488
205	0xbe877a3d	-0.26460448
206	0xbd46ab94	-0.048503473
207	0x3c85e1d6	0.016343039
208	0x3d7fdf2a	0.062468685
209	0x3dc7e976	0.09761326
210	0xbdfe488f	-0.12416183
211	0x3b9026ce	0.004399157
212	0x3c5376d2	0.012906747
213	0xbe5fb9da	-0.2184824
214	0xbd0f2695	-0.034948904
215	0x3bd4893d	0.0064860866
216	0x3c9cb06b	0.019127091
217	0xbdc06bde	-0.09395574
218	0xbe895506	-0.2682268
219	0xbe05fded	-0.13085146
220	0x3d58602c	0.05282609
221	0x3cfffe58	0.03124921
222	0x3db2bb59	0.0872714
223	0x3eddb863	0.43304738
224	0x3dd366df	0.103223555
225	0xbae1023d	-0.0017166805
226	0x3d3e7ba5	0.046504635
227	0xbd4a0a88	-0.04932645
228	0xbda59ec6	-0.08086924
229	0xbdcfd3ae	-0.101477966
230	0xbd185a48	-0.037195474
231	0xbe3cb92e	-0.18430015
232	0xbc876e10	-0.016531974
233	0xbddbe77c	-0.107375115
234	0x3c7e6479	0.015526884
235	0x3db35466	0.08756332
236	0x3c952c23	0.018209523
237	0x3e9fef22	0.3123713
238	0xbd99f9c2	-0.07518341
239	0x3e623c10	0.22093225
240	0x3ddb4d11	0.107080586
241	0xbd35d790	-0.04439503
242	0xbe4bde24	-0.19908959
243	0xbd8284ee	-0.063730106
244	0xbddba889	-0.10725505
245	0xbcb8ad08	-0.022543445
246	0x3e22ce36	0.15898976
247	0xbd6920cc	-0.056916043
248	0xbe012aea	-0.12614027
249	0xbdb3955a	-0.08768721
250	0x3d60614a	0.054780282
251	0xbdfa3906	-0.122179076
252	0xbd9e23aa	-0.07721646
253	0xbda067ec	-0.078323215
254	0x3cac9b1a	0.021070052
255	0xbd6db032	-0.05802936

fc4.bias f4 [8]
0	0x3dfcd2a5	0.12344865
1	0x3dd59fec	0.10430893
2	0xbe13a6eb	-0.14419143
3	0xbdba3d72	-0.09093751
4	0xbd6d1844	-0.05788447
5	0x3b368e9e	0.0027856003
6	0x3d22eafb	0.039774876
7	0x3de02284	0.10944083

conv1.weight f4 [16, 2, 4, 4]
0	0xbe26387d	-0.16232486
1	0xbdc2938c	-0.095007986
2	0xbec48ae9	-0.3838723
3	0xbf43a58f	-0.764245
4	0xbe96e2d4	-0.2946993
5	0xbf1276c0	-0.5721245
6	0xbdcd545a	-0.100258544
7	0xbef7624b	-0.4831718
8	0xbe8eecd3	-0.27915058
9	0xbefbb489	-0.49161175
10	0xbe0111de	-0.12604472
11	0xbec5fea1	-0.3867083
12	0xbeba2b77	-0.36361286
13	0xbe982960	-0.29719067
14	0xbe083e52	-0.13305023
15	0xbe64f7e0	-0.22360182
16	0xbd5d63dd	-0.054050315
17	0xbd9ac80e	-0.07557689
18	0x3e0eeb95	0.13957055
19	0x3cfc1ecc	0.030776404
20	0x3dc24d5f	0.094874136
21	0x3dc8d3c7	0.09806018
22	0xbe2a287a	-0.16617003
23	0x3c5c71fe	0.013454912
24	0x3da1c7cc	0.07899436
25	0xbd8f64e8	-0.07001668
26	0xbdced38e	-0.100989446
27	0xbe6676dc	-0.22506279
28	0xbe3c2ad6	-0.18375716
29	0xbded2bf4	-0.11580649
30	0x3e157110	0.14593911
31	0xbdde3502	-0.10849954
32	0xbd5627b8	-0.052283973
33	0xbf0fbdb7	-0.56148857
34	0xbedbba6a	-0.4291566
35	0xbf04ae68	-0.5182862
36	0xbd13161f	-0.03590977
37	0xbe96da55	-0.2946345
38	0xbed91d17	-0.42405006
39	0xbe80796b	-0.25092635
40	0xbe5115ac	-0.20418423
41	0xbedf3a3a	-0.4359911
42	0x3c6be6dc	0.014398303
43	0xbe3b0052	-0.18261841
44	0xbe02d646	-0.12777051
45	0xbebc018b	-0.36719927
46	0xbe293dfe	-0.16527554
47	0xbe1d0c99	-0.15336837
48	0xbe431129	-0.19049515
49	0xbc330ac8	-0.010927863
50	0x3df49fb8	0.119445264
51	0xbdc0e751	-0.0941912
52	0x3e0d1cfc	0.13780588
53	0xbe061d85	-0.13097198
54	0xbe28dc5b	-0.16490309
55	0xbe0e1e5a	-0.13878766
56	0x3df3e003	0.11907961
57	0xbe87b0ae	-0.26501983
58	0xbe957272	-0.29188877
59	0xbe037e2b	-0.12841098
60	0xba8fcbaf	-0.0010970737
61	0x3cc99d4c	0.024611138
62	0xbe37bf7f	-0.17944144
63	0xbe3313cb	-0.17488019
64	0x3de31e5a	0.110897735
65	0xbc1e2a97	-0.009653709
66	0xbe4fe063	-0.2030044
67	0x3f30d5a0	0.69075966
68	0xbf0b6c3a	-0.54462016
69	0x3bbd284a	0.005772625
70	0x3ecbf2d9	0.39833716
71	0x3f225071	0.63403994
72	0x3eaa839b	0.33303532
73	0x3e98a9b7	0.29816982
74	0x3ee788bd	0.4522151
75	0x3f263e12	0.6493846
76	0xbe82bd35	-0.25534979
77	0x3ea9f018	0.3319099
78	0x3f150608	0.5821233
79	0x3f87dad4	1.0613656
80	0xbd87af84	-0.06625274
81	0xbdd6dc66	-0.104912564
82	0x3d67fa8e	0.056635432
83	0xbe07488f	-0.13211273
84	0xbc55f130	-0.013057992
85	0x3d6412aa	0.055681862
86	0xbe4bdb0d	-0.1990778
87	0xbebdd30d	-0.3707508
88	0xbe4953e7	-0.19660912
89	0x3d5d51af	0.054032978
90	0xbd2baf51	-0.04191524
91	0xbdfe7ff5	-0.124267496
92	0xbd75bf2a	-0.05999676
93	0xbd3dd3aa	-0.046344437
94	0xbd8c5ba5	-0.06853417
95	0x3d93246f	0.071846835
96	0x3f4a8105	0.7910312
97	0x3f4b4df6	0.79415834
98	0x3f25694c	0.64613795
99	0x3fc6f762	1.5544245
100	0x3ea44f91	0.32091954
101	0x3e9b5281	0.30336383
102	0x3f18d2a0	0.5969639
103	0x3f16103c	0.5861852
104	0x3eb14a99	0.34627226
105	0x3ec683a7	0.38772318
106	0x3d41299e	0.04715883
107	0x3f3afa33	0.73038024
108	0x3e94178a	0.2892421
109	0x3ebdb221	0.37049964
110	0x3f2a725b	0.6658074
111	0x3f489638	0.78354216
112	0x399f90d0	0.00030434737
113	0xbccf864e	-0.025332596
114	0x3e5125a3	0.20424514
115	0xbba128c1	-0.0049181883
116	0xbabc3519	-0.0014359086
117	0xbdcf91ef	-0.101352565
118	0xbd662fea	-0.05619804
119	0xbcb057a3	-0.021526163
120	0x3e392fa7	0.18084584
121	0xbc57dbbd	-0.013174948
122	0xbcc6da04	-0.02427388
123	0xbd89e3b6	-0.067328855
124	0xbd44beff	-0.04803371
125	0x3e038f1b	0.12847559
126	0x3e0e707c	0.13910097
127	0xbe563bb8	-0.20921218
128	0xbd05d5a8	-0.03267446
129	0x3fe29ba8	1.7703753
130	0x3fdbfbb4	1.7186189
131	0x3ed74017	0.42041084
132	0xbe4b77a8	-0.19869864
133	0x3f6825ab	0.90682477
134	0x3f6efdd4	0.9335606
135	0x3f578aa8	0.8419595
136	0x3f21d5a3	0.6321661
137	0x3eb64007	0.35595724
138	0x3e86b772	0.26311833
139	0x3ef5c112	0.47998863
140	0x3f0d0c4c	0.5509689
141	0x3f00e9d7	0.5035681
142	0xbed7bec8	-0.42137742
143	0xbd181f35	-0.037139136
144	0x3de8669c	0.11347696
145	0xbead806f	-0.3388705
146	0x3dd8d7d1	0.10588039
147	0x3d2ef35c	0.042712554
148	0x3db12d44	0.08651212
149	0x3e38bccf	0.18040775
150	0xbd90bcb0	-0.07067239
151	0xbe014c03	-0.12626652
152	0x3e42589e	0.18979117
153	0xbdf2bb79	-0.11852164
154	0xbdd3f7b6	-0.103499815
155	0x3bcf5e14	0.0063283537
156	0x3caf6138	0.021408662
157	0x3ca189a1	0.019718947
158	0x3e0a8273	0.13526325
159	0x3d07285e	0.03299748
160	0x3f021688	0.5081563
161	0xbca9657d	-0.020678276
162	0xbf3e9555	-0.7444661
163	0x3fbe2593	1.4855217
164	0xbd8965bf	-0.0670886
165	0xbea28efd	-0.31749716
166	0x3ea2acd3	0.3177248
167	0x3f64996e	0.89296615
168	0xbd5cbd18	-0.05389127
169	0x3dd41cdd	0.10357068
170	0x3d6fcc54	0.05854447
171	0x3f2343d8	0.63775396
172	0x3ee863c4	0.45388615
173	0x3f150b14	0.5822003
174	0x3ec9ab79	0.39388636
175	0x3f4224cb	0.7583739
176	0xbbad4175	-0.005287344
177	0xbcf66260	-0.030076206
178	0x3de06738	0.109571874
179	0xbe99968e	-0.29997677
180	0x3d2836a8	0.04106775
181	0xbe78d201	-0.2429886
182	0xbd124527	-0.03571048
183	0xbd4d4b2e	-0.050120525
184	0xbe243ba8	-0.16038382
185	0xbd03206c	-0.03201334
186	0x3d11d4c4	0.0356033
187	0xbe935efd	-0.28783408
188	0x3d8836c7	0.06651073
189	0x3e00232b	0.12513416
190	0xbe40ba4f	-0.18821071
191	0x3cf8cecc	0.030372046
192	0xbeefa12c	-0.46802652
193	0xbcf2b388	-0.029626623
194	0xbdf567a4	-0.119826585
195	0x3c3cffa6	0.011535561
196	0xbf082273	-0.53177565
197	0xbebb0c66	-0.36532897
198	0xbef5c9d0	-0.48005533
199	0xbed12299	-0.40846708
200	0xbe6fa210	-0.23401666
201	0xbd103ffb	-0.035217267
202	0xbe3c9231	-0.18415143
203	0x3daecca2	0.08535124
204	0xbe9fafcc	-0.3118881
205	0xbea74ad8	-0.3267429
206	0xbef79b36	-0.48360604
207	0xbd0994c4	-0.03358914
208	0xbd642fc1	-0.055709604
209	0xbe203a2b	-0.1564719
210	0x3d3267f8	0.043556184
211	0x3c653b60	0.013991207
212	0xbdfb0b6a	-0.122580364
213	0xbdedad07	-0.11605268
214	0xbe588c64	-0.21147305
215	0xbe2048a6	-0.15652713
216	0x3d813de3	0.06310632
217	0x3e7159c8	0.23569405
218	0x3cf68a3d	0.030095214
219	0xbe868cc5	-0.26279274
220	0xbe74f520	-0.23921633
221	0x3e15a82f	0.14614938
222	0xbdf2b039	-0.11850018
223	0xbe87d61c	-0.2653054
224	0xbeb63bb7	-0.35592434
225	0xbeb4b6b4	-0.3529564
226	0xbeba6686	-0.36406344
227	0xbe2fcb7b	-0.17167465
228	0xbeb74dde	-0.35801595
229	0xbe468261	-0.19385673
230	0x3e1abc02	0.15110782
231	0xbedf876c	-0.43658006
232	0xbce013c6	-0.027353179
233	0xbe2a21e0	-0.16614485
234	0xbe3c082b	-0.18362491
235	0xbe41f000	-0.18939209
236	0xbe7f8995	-0.24954827
237	0xbed8946f	-0.42300746
238	0xbe5a74eb	-0.21333663
239	0xbeeaf25b	-0.45888028
240	0x3dee9ecb	0.11651381
241	0x3ca867a4	0.020557232
242	0x3d82a519	0.06379146
243	0x3e11e8a5	0.14248903
244	0xbd8a1084	-0.06741431
245	0xbe8b4011	-0.27197316
246	0xbe942551	-0.2893472
247	0xbe393210	-0.18085504
248	0xbd629029	-0.055313263
249	0xbd3f564e	-0.046713166
250	0x3d3ce360	0.04611528
251	0x3c3d0304	0.0115363635
252	0xbe4b0d01	-0.1982918
253	0xbcfdd1ed	-0.03098389
254	0xbd720eae	-0.05909603
255	0xbe1dbda2	-0.1540437

conv1.bias f4 [16]
0	0x3e6f217c	0.23352617
1	0x3dffc83e	0.12489365
2	0x3e5450ad	0.207339
3	0x3dbf7fc4	0.09350541
4	0xbe016f13	-0.12640028
5	0x3e6d0334	0.23145753
6	0x3e4e4ba3	0.2014604
7	0x3e178a62	0.14798883
8	0x3e40bdf0	0.18822455
9	0x3db59696	0.088666126
10	0x3de68558	0.11255902
11	0xbb59fd9e	-0.003326274
12	0x3d8281e2	0.063724294
13	0xbe0b4614	-0.13600951
14	0x3e9104ca	0.28323966
15	0x3e230db0	0.1592319

conv2.weight f4 [32, 16, 4, 4]
0	0xbb661da9	-0.0035112894
1	0xbd5b8e74	-0.05360265
2	0x3d408441	0.047001127
3	0x3d6b116a	0.057389654
4	0x3d35be21	0.044370774
5	0xbd907178	-0.070528924
6	0xbc765556	-0.015034994
7	0x3bf0afdc	0.007345183
8	0x3c6635be	0.014050899
9	0xbc8aa84d	-0.016925955
10	0xbd7d61e2	-0.061860926
11	0xbbde3b4b	-0.0067819706
12	0x3da55573	0.08072939
13	0x3d3ac884	0.045601383
14	0xbc822186	-0.015885126
15	0x3d9cd745	0.07658247
16	0x3d3c12d8	0.04591641
17	0xbd821c0a	-0.06353004
18	0xbe8dc6a1	-0.27690604
19	0x3d300219	0.04297075
20	0xbcb6acb0	-0.02229914
21	0xbd978600	-0.07398605
22	0xbc56df1a	-0.013114715
23	0x3ceca1c2	0.028885726
24	0x3d79d496	0.060993753
25	0xbd603c4c	-0.054745004
26	0x3cb750d4	0.022377409
27	0xbd40eb23	-0.047099244
28	0xbc52c659	-0.012864673
29	0x3cd390dd	0.025825912
30	0xbc1b2a44	-0.009470526
31	0x3c1d4bac	0.009600561
32	0xbd47395d	-0.04863869
33	0xbd325513	-0.043538164
34	0x3cafe3b5	0.021470884
35	0x3cfb8bdc	0.030706339
36	0x3c805e8a	0.01567008
37	0x3d1220c2	0.03567577
38	0xbca689d7	-0.020329399
39	0xb920f73a	-0.00015350888
40	0xbcf5c862	-0.030002777
41	0x3cb53cf6	0.022123795
42	0x3d4b9a00	0.049707413
43	0xbcb4f128	-0.022087649
44	0x3d86e8a1	0.06587339
45	0xbd5c3e8c	-0.053770587
46	0xbde7cfc2	-0.113189235
47	0xbd61ab26	-0.05509486
48	0xbda29f7a	-0.07940574
49	0xbdf6ac0c	-0.12044534
50	0xbdabe412	-0.0839311
51	0xbd795adf	-0.060877677
52	0xbd3fa930	-0.04679221
53	0xbd764e9a	-0.060133554
54	0xbd170960	-0.036874175
55	0xbd910b92	-0.07082285
56	0xbbf8319e	-0.007574274
57	0x3c8f8371	0.01751873
58	0xbc975e80	-0.018477678
59	0xbe4df628	-0.20113432
60	0x3d54e94b	0.051980298
61	0x3d05e747	0.032691266
62	0xbd161f16	-0.03665074
63	0xbe8e4dd8	-0.27793765
64	0xbf1c4c87	-0.6105427
65	0xbedbf3e8	-0.42959523
66	0xbe979c00	-0.29611206
67	0xbf08d9f0	-0.53457546
68	0xbf016383	-0.5054247
69	0xbdd3c8d3	-0.103410386
70	0xbe12ce07	-0.14336406
71	0xbf033382	-0.5125047
72	0xbeee9211	-0.46595815
73	0xbd80a224	-0.06280926
74	0xbdaad204	-0.083408386
75	0xbeb4d3a5	-0.35317722
76	0xbe88b2e2	-0.26698977
77	0x3d1108c5	0.035408754
78	0x3c089c41	0.008338035
79	0xbef120e4	-0.47095406
80	0xbc919372	-0.017770503
81	0x3c176262	0.009239765
82	0xbbe9d61e	-0.0071361205
83	0xbe15ff08	-0.14648068
84	0x3c852b09	0.016255872
85	0x3d8e87d9	0.06959505
86	0xbcb9b928	-0.022671297
87	0x3ccd8f04	0.02509261
88	0xbd866ec4	-0.065640956
89	0xbb8060ea	-0.003917803
90	0x3d965d7b	0.07342049
91	0x3a997f78	0.0011710962
92	0x3d829778	0.063765466
93	0x3dd1408b	0.10217389
94	0xbbfbdf2d	-0.0076865167
95	0xbe27e5bd	-0.16396232
96	0x3d4cd904	0.05001165
97	0x3c61188b	0.013738762
98	0x3deaad67	0.11458855
99	0x3ddf3953	0.108996056
100	0x3ca80a69	0.020512776
101	0x3c4f7852	0.012662964
102	0xbcbe03ec	-0.02319523
103	0x3d8375e8	0.06418973
104	0x3d9f7cb6	0.077874586
105	0x3d6dbe01	0.05804253
106	0x3d1ac424	0.03778471
107	0x3d00069a	0.031256296
108	0x3d732e4d	0.059370328
109	0xbd1cdd33	-0.03829689
110	0xbd8379fa	-0.064197496
111	0x3d484f33	0.048903655
112	0xbc23753b	-0.00997668
113	0x3d07aa60	0.033121467
114	0x3c44d335	0.012013246
115	0xbc60782c	-0.013700526
116	0x3d6f9949	0.058495793
117	0xbc34b332	-0.011029052
118	0xbc67c6b6	-0.0141464975
119	0xbd505e0d	-0.050870944
120	0x3dee011b	0.116213046
121	0x3ca04c1f	0.019567547
122	0xbc037aee	-0.008024914
123	0x3dd12d6b	0.10213741
124	0x3d83da3a	0.06438108
125	0xbc336330	-0.010948941
126	0xbc205de8	-0.009788014
127	0xbc95c460	-0.018282115
128	0xbbcd98e5	-0.00627433
129	0xbb8dd8ba	-0.0043288143
130	0x3d531a59	0.0515388
131	0x3d2f02e4	0.042727366
132	0x3d04aac1	0.032389406
133	0xbc1e5c08	-0.009665497
134	0xbdf9f5ea	-0.122051075
135	0xbd5b7ac2	-0.053583868
136	0xbd8edf7d	-0.06976221
137	0x3d926e0c	0.07149896
138	0x3cb63403	0.022241598
139	0x3cae35b8	0.02126585
140	0x3dd5da32	0.10442008
141	0xbd44e0a5	-0.0480658
142	0x3c33b4c5	0.010968392
143	0x3c94fe21	0.018187584
144	0xbde79186	-0.11307053
145	0x3d1a2643	0.037634145
146	0x3cde86fb	0.027163973
147	0xbcb7fad9	-0.02245848
148	0xbe4feebb	-0.20305912
149	0xbd261d96	-0.04055556
150	0xbd59094b	-0.052987378
151	0xbd55b57c	-0.05217503
152	0xbe38d727	-0.18050824
153	0xbe5e2bdf	-0.21696423
154	0x3d614de7	0.055005934
155	0xbd7afffa	-0.061279275
156	0xbe1a2cc8	-0.15056145
157	0xbe133bb6	-0.14378247
158	0x3e1e7fcc	0.15478438
159	0xbda27f8f	-0.07934486
160	0x3c1e0d2a	0.009646693
161	0x3d103e40	0.035215616
162	0xbd50b34a	-0.050952233
163	0x3dfaf60d	0.12253962
164	0xbc5ef51e	-0.013608245
165	0xbe04c93d	-0.12967391
166	0x3d392831	0.045204345
167	0x3c83e6a9	0.016101198
168	0x3d6606f5	0.05615898
169	0x3d18d321	0.037310723
170	0xbdac57af	-0.08415162
171	0xba841293	-0.0010076336
172	0x3c5f93fb	0.013646121
173	0x3d69af8a	0.057052173
174	0xbda70edf	-0.08157133
175	0xbc5e2086	-0.013557559
176	0x3d89fea2	0.067380205
177	0xbd6ec5a6	-0.05829396
178	0xbd99f9f9	-0.075183816
179	0xbd856fca	-0.06515463
180	0xbdd58fd0	-0.10427821
181	0x3dcce3a9	0.1000436
182	0xbcd9bd13	-0.026579415
183	0x3db4f8cf	0.08836519
184	0x3c041f5e	0.008064119
185	0xbeb33984	-0.35004818
186	0xbd1e9e5d	-0.038725246
187	0xbd08707b	-0.033310395
188	0xbe355cda	-0.17711201
189	0x3d1920cf	0.037384804
190	0x3e3ca2f1	0.18421532
191	0x3d14846e	0.036259107
192	0x3c5d6cbe	0.013514696
193	0x3d0418ba	0.032250144
194	0x3dc7cc7c	0.09755799
195	0x3d06f5a5	0.03294911
196	0xbd0be7ef	-0.034156736
197	0xbd76507c	-0.06013535
198	0x3cd987b8	0.026553974
199	0xbda26bde	-0.0793073
200	0x3d96d51a	0.07364865
201	0x3c079748	0.008275814
202	0xbe99a9e1	-0.3001242
203	0x3c836624	0.016039915
204	0xbe07072a	-0.13186327
205	0xbd42a1f6	-0.04751774
206	0x3d96ed02	0.073694244
207	0xbd061032	-0.03273029
208	0xbe3675b0	-0.17818332
209	0xbd86c52c	-0.06580576
210	0xbddbde0b	-0.10735711
211	0xbf045986	-0.516991
212	0xbd14bb6a	-0.036311544
213	0xbdd8f233	-0.10593071
214	0xbd9ad44a	-0.07560022
215	0xbe9ed13e	-0.31019014
216	0xbe3d1821	-0.18466236
217	0xbd451cb3	-0.048123073
218	0xbe0472dd	-0.12934442
219	0xbe9890ed	-0.2979807
220	0xbe2eb278	-0.17060268
221	0xbc798a93	-0.015230793
222	0x384844a7	4.7747653e-05
223	0xbf282650	-0.6568346
224	0x3dddeeb4	0.10836545
225	0x3c891659	0.016734289
226	0x3d177922	0.036980756
227	0x3db887a3	0.09010246
228	0xbbba59bf	-0.005686968
229	0xbd03193f	-0.0320065
230	0x3da774a5	0.08176545
231	0xbc571204	-0.013126854
232	0xbcaae495	-0.02086095
233	0x3d48bb29	0.049006615
234	0x3ade713b	0.0016971001
235	0x3cdd9fe2	0.027053777
236	0x3ddbb52c	0.10727915
237	0xbd080697	-0.03320941
238	0x3d6f33b5	0.05839892
239	0x3d776705	0.06040098
240	0xbc60ab8f	-0.013712778
241	0xbd360526	-0.044438504
242	0xbb44817c	-0.0029984405
243	0xbb2cfe31	-0.0026396627
244	0x3d052022	0.032501347
245	0xbda0ba19	-0.07847995
246	0x3d702091	0.058624808
247	0xbaf8f0df	-0.0018992684
248	0x3df6dde2	0.120540395
249	0xbdc64398	-0.09680861
250	0xbd3abae4	-0.04558839
251	0x3d3f6acb	0.046732705
252	0x3d98806b	0.07446369
253	0x3ddaa614	0.10676208
254	0xbe2ac994	-0.16678458
255	0xbe059614	-0.13045532

conv2.bias f4 [32]
0	0x3dc45f89	0.095885344
1	0x3cfd6266	0.03093071
2	0xbd8de4a8	-0.06928378
3	0x3dd35f92	0.10320963
4	0x3d82a4c8	0.06379086
5	0x3cdfec90	0.027334481
6	0xbda76a81	-0.08174611
7	0x3e3bface	0.18357393
8	0xbdbc63c0	-0.09198713
9	0x3b726a0c	0.0036989478
10	0xbc9f5302	-0.01944876
11	0x3e060244	0.13086802
12	0x3d048c87	0.03236058
13	0xbda407fb	-0.08009335
14	0x3df8f919	0.121568866
15	0x3dde9e13	0.10869994
16	0x3c74fb0c	0.014952432
17	0x3bdac663	0.0066764816
18	0x3d85d894	0.065354496
19	0xbd9233d5	-0.071387924
20	0xbcf3c931	-0.029759021
21	0x3de5596d	0.11198697
22	0x3b42f4c8	0.0029747952
23	0x3dc2dc98	0.09514731
24	0x3ddca7b6	0.10774176
25	0xbb00dfe7	-0.0019664706
26	0x3e183221	0.14862873
27	0x3d182cf2	0.03715224
28	0x3d481d85	0.048856277
29	0xbd2d3db9	-0.04229519
30	0x3e069fff	0.13146971
31	0x3ccaa569	0.024737077
