saved_models/dqn_checkpoint_ep50.pth (torch, 981331 bytes, 32 tensors)

conv1.weight f4 [16, 2, 4, 4]
0	0x3fa5621e	1.2920568
1	0x3f8e0954	1.1096597
2	0x3f718ad6	0.9435247
3	0x3f97d721	1.1862527
4	0x3f7c8dda	0.9865395
5	0xbed602bf	-0.4179897
6	0x3f8f3144	1.118691
7	0x3f5db51f	0.86604494
8	0xbe222ed9	-0.15838183
9	0xbc66526e	-0.014057739
10	0x3c976b57	0.0184838
11	0x3f151b51	0.58244807
12	0xbcba73d1	-0.022760304
13	0xbc94f3f5	-0.018182734
14	0xbe5765d2	-0.21034935
15	0xbef2e8df	-0.47443292
16	0xbd85f8da	-0.06541605
17	0x3d54b0e2	0.0519265
18	0x3dcadc1e	0.09905265
19	0xbccb9c0e	-0.024854686
20	0xbbbdb153	-0.005788961
21	0xbd9da53f	-0.07697534
22	0xbe02f8a7	-0.12790166
23	0xbdd32bbe	-0.103110775
24	0x3d992cc5	0.07479242
25	0xbe928fdf	-0.2862539
26	0xbca305b2	-0.019900177
27	0xbdda0627	-0.10645705
28	0xbdd0d419	-0.101967044
29	0xbe0175b8	-0.12642562
30	0xbd83895a	-0.06422682
31	0xbe46fe0a	-0.19432846
32	0x3f27706d	0.65405923
33	0x3f33097c	0.69936347
34	0xbcbc377f	-0.022975681
35	0x3fecfcc3	1.8514637
36	0x3f0e3285	0.55545837
37	0x3e626a4a	0.22110859
38	0xbf1e93f1	-0.6194449
39	0x3f2ede55	0.68308
40	0x3ed0c2a3	0.40773496
41	0xbef50489	-0.47855023
42	0x3e9ad4d5	0.30240503
43	0x3f051852	0.51990235
44	0xbe88dda9	-0.26731613
45	0x3ec4b0a4	0.38416016
46	0xbec3979e	-0.38201612
47	0x3f25d514	0.64778256
48	0x3dec6890	0.11543381
49	0x3e793153	0.24335222
50	0x3e5b11b0	0.21393466
51	0x3e42cc49	0.19023241
52	0x3c80b307	0.015710367
53	0xbea05a3d	-0.31318846
54	0x3e3edefc	0.1863975
55	0x3d9e73c4	0.07736924
56	0x3e2acac8	0.16678917
57	0x3be1df61	0.006893084
58	0xbb5ab7d8	-0.003337374
59	0x3dcb8945	0.099382915
60	0x3cf22753	0.029559767
61	0x3de9cec6	0.11416392
62	0x3d55f579	0.052236054
63	0x3d742007	0.059600856
64	0x3de10d66	0.10988884
65	0xbebf92e3	-0.37416753
66	0x3ecbb7e6	0.3978874
67	0x4008e4db	2.1389682
68	0xbc700298	-0.014649056
69	0xbd1e857b	-0.038701516
70	0xbe595639	-0.21224298
71	0xbe2fd6dd	-0.17171808
72	0xbebfd466	-0.37466735
73	0xbe38d686	-0.18050584
74	0x3ea9c5bd	0.33158675
75	0x3f1fd427	0.62433094
76	0x3ef3e741	0.4763737
77	0x3e1da4c5	0.15394886
78	0xbe4b1d73	-0.19835453
79	0xbd477a4d	-0.04870062
80	0x3dd626cf	0.10456621
81	0x3d296bb7	0.04136249
82	0xbd5d4ca3	-0.054028165
83	0xbf39280c	-0.7232673
84	0x3d2c6cc0	0.0420959
85	0x3e4ae802	0.19815066
86	0x3c33e11e	0.010978965
87	0x3d94e87c	0.072709054
88	0x3dd72601	0.105052955
89	0x3c611223	0.013737234
90	0x3d919924	0.071092874
91	0xbd9ccfa5	-0.076567926
92	0xbd16bb5a	-0.036799766
93	0xbd11b31f	-0.035571214
94	0x3e16b506	0.14717492
95	0x3e0800d7	0.1328157
96	0x3ff9d8e9	1.9519321
97	0xbf1f0db7	-0.621303
98	0xbea517e8	-0.32244802
99	0xbf41caa8	-0.75699854
100	0x3f336424	0.7007468
101	0x3e12aec5	0.14324482
102	0xbe80149e	-0.2501573
103	0xbeab297b	-0.33430085
104	0x3f4cd4fa	0.80012476
105	0x3ed66a8b	0.4187816
106	0xbe8b41d0	-0.27198648
107	0xbd6fc18e	-0.058534198
108	0x3ea32180	0.31861496
109	0xbc96ce42	-0.018408898
110	0xbe0760b1	-0.13220479
111	0xbe9dbb75	-0.3080708
112	0x3dd4a0b5	0.10382215
113	0xbd9bed6d	-0.07613645
114	0xbd98a025	-0.0745242
115	0x3e649fe8	0.22326624
116	0xbd403a4f	-0.046930607
117	0xbe9e313b	-0.30896935
118	0xbee07d54	-0.43845618
119	0xbf184f7d	-0.5949629
120	0xbc645a38	-0.013937525
121	0x3e44c1ea	0.19214597
122	0xbcc4d9f9	-0.024029719
123	0x3e3a7a5c	0.18210739
124	0x3ea9c1e5	0.33155742
125	0xbe73b199	-0.23798217
126	0x3e8410ca	0.2579406
127	0xbe92cc3a	-0.28671438
128	0x400873fb	2.132079
129	0xbf7aa29e	-0.97904384
130	0xbe68a88d	-0.22720547
131	0xbf919f81	-1.1376802
132	0x3e185725	0.14876993
133	0x3ec1c14a	0.3784278
134	0xbedad8c2	-0.42743498
135	0xbe986f35	-0.29772344
136	0xbf41d00c	-0.7570808
137	0x3f99365b	1.1969713
138	0x3e8194af	0.2530875
139	0xbdef219a	-0.11676331
140	0x3f5d3742	0.8641244
141	0x3f1c2072	0.6098701
142	0x3f2ebe39	0.68259007
143	0xbf2d1bcd	-0.67620546
144	0xbd3ccb49	-0.046092305
145	0xbdcf4624	-0.101208
146	0xbd96c38e	-0.07361518
147	0x3dbc6c88	0.09200388
148	0xbc1558fb	-0.009115453
149	0x3e40e4dc	0.18837303
150	0x3df7b5dd	0.120952345
151	0xbe00574c	-0.12533301
152	0x3cdde00e	0.027084377
153	0x3dc8b284	0.09799674
154	0xbe8626d3	-0.26201496
155	0x3c724ccd	0.014788819
156	0xbd9afc77	-0.07567685
157	0x3e46ba22	0.19406942
158	0x3dd3d2a5	0.10342912
159	0x3df594e0	0.11991286
160	0xbed22a7e	-0.41048044
161	0xbf1dfcd0	-0.61713886
162	0x3f2ffabd	0.6874197
163	0xbe2f6e98	-0.17132032
164	0xbea47901	-0.3212357
165	0xbee70bf6	-0.45126313
166	0xbc7966cd	-0.0152222635
167	0x3f189b57	0.5961203
168	0xbf01a72c	-0.5064571
169	0xbdd6b35c	-0.10483429
170	0x3f387155	0.7204793
171	0x3f89025d	1.0703846
172	0xbe5d3e60	-0.21605825
173	0x3e2a6213	0.16638975
174	0xbe573218	-0.21015203
175	0xbe9f4b3a	-0.3111208
176	0xbdad99a6	-0.08476572
177	0xbd9febfc	-0.07808682
178	0x3c930c4a	0.017950196
179	0xbdae7e0a	-0.08520134
180	0xbe2015b3	-0.15633278
181	0xbd71c8b2	-0.05902929
182	0x3e561814	0.20907623
183	0x3e245ef7	0.16051851
184	0x3e7f677d	0.24941821
185	0x3e62e163	0.2215629
186	0xbe032730	-0.12807918
187	0x3ce40396	0.027833741
188	0x3e837b6b	0.25680098
189	0x3e331dda	0.17491856
190	0xbe08fcd5	-0.13377698
191	0x3dcf42ff	0.101202
192	0x3f3dff56	0.74217737
193	0x3f671edc	0.9028146
194	0x3f28fe06	0.6601261
195	0x3ee48a22	0.44636637
196	0xbc857e58	-0.016295597
197	0x3fa4894a	1.2854397
198	0x3f8106b9	1.0080177
199	0x3f5cedda	0.8630043
200	0x3e88ab57	0.26693222
201	0x3f476a36	0.7789644
202	0x3f5b84f1	0.8574973
203	0x3f1ee5a8	0.6206918
204	0x3e575c48	0.21031296
205	0x3ebad842	0.36493117
206	0x3e16d7fa	0.14730826
207	0x3ece9c73	0.40353736
208	0x3e641b70	0.22276092
209	0xbc53d369	-0.012928822
210	0x3e7112c3	0.23542313
211	0x3d2d98a5	0.0423819
212	0x3d9a2bea	0.07527907
213	0xbc706c5e	-0.014674274
214	0xbe149916	-0.14511523
215	0xbe43b692	-0.19112614
216	0x3eb2f92c	0.34955728
217	0x3b6b7416	0.0035927347
218	0xbe791797	-0.24325405
219	0x3cc260d5	0.023727814
220	0x3beffa81	0.0073235636
221	0x3c102f37	0.008800319
222	0x3e7bf034	0.24603349
223	0x3e41522c	0.18879002
224	0xbeca3e4f	-0.39500663
225	0xbeca1602	-0.39469916
226	0x3d807c08	0.06273657
227	0x3e57093f	0.20999621
228	0xbed78971	-0.42097047
229	0xbe4c9e01	-0.19982149
230	0xbedc7473	-0.43057594
231	0xbf0f6e1d	-0.56027395
232	0xbf103401	-0.5632935
233	0xbf26e1ad	-0.65188104
234	0xbe8e6ab5	-0.27815786
235	0xbf195e67	-0.5990967
236	0xbe4529c7	-0.19254218
237	0xbebd9f19	-0.37035444
238	0xbdfde2e8	-0.123967946
239	0xbf0e2314	-0.55522275
240	0xbe44a934	-0.19205171
241	0xbd3da8c3	-0.04630352
242	0xbe30db4e	-0.17271158
243	0xbd1923c9	-0.037387643
244	0x3e283f13	0.16430311
245	0x3e2a9a80	0.166605
246	0x3e27b4c0	0.16377544
247	0xbd0c9612	-0.034322806
248	0x3cffbd0b	0.031218072
249	0x3e456c0e	0.19279501
250	0x3dccbaf0	0.09996593
251	0x3e111a6f	0.1417024
252	0x3e7f0218	0.24903142
253	0x3e4fed19	0.2030529
254	0xbd9168f8	-0.07100099
255	0x3d9877a9	0.07444698

conv1.bias f4 [16]
0	0x3e90c191	0.2827268
1	0xbc5cbfbd	-0.013473448
2	0xbd25faf4	-0.04052253
3	0x3def2b3b	0.116781674
4	0x3e57d429	0.21077026
5	0x3e724854	0.23660403
6	0xbd0057c8	-0.031333715
7	0x3e2d2769	0.16909565
8	0x3e311d7a	0.172964
9	0x3e22d203	0.15900426
10	0x3e9fedd1	0.31236127
11	0x3d2d0147	0.042237546
12	0xbb07c42d	-0.0020716295
13	0xbe17f24e	-0.14838526
14	0x3d8c12b7	0.06839507
15	0xbbf4c71d	-0.007470025

conv2.weight f4 [32, 16, 4, 4]
0	0xbce73310	-0.02822259
1	0xbd48fefc	-0.049071297
2	0x3d2fee19	0.042951677
3	0x3db5623a	0.08856626
4	0xbe941a7d	-0.2892646
5	0xbeaaa502	-0.33329016
6	0x3e1f1cdf	0.15538357
7	0xbdcb8f61	-0.09939457
8	0xbecb04ab	-0.39652
9	0x3c3ca69a	0.01151433
10	0x3ea40d7f	0.32041547
11	0xbd8a3ac6	-0.067494914
12	0xbe1eae3a	-0.1549615
13	0x3eb004c9	0.3437865
14	0x3e0e1233	0.1387413
15	0x3d8480c3	0.06469872
16	0x3e335c1d	0.17515607
17	0x3e1ebccd	0.1550171
18	0xbddc51ed	-0.107578136
19	0x3e4b2986	0.19840059
20	0xbe622c5b	-0.22087233
21	0xbd912abb	-0.07088228
22	0x3e6afc97	0.22947918
23	0xbf3415ad	-0.70345575
24	0xbdb9bedd	-0.090696074
25	0x3ed927bb	0.42413124
26	0x3e59710f	0.21234535
27	0xbec5b2a1	-0.38612846
28	0x3e789a7e	0.24277684
29	0x3f1c396a	0.61025107
30	0xbddb86e0	-0.10719085
31	0xbdc855e2	-0.09782006
32	0xbeb749df	-0.35798547
33	0xbd808ad5	-0.0627648
34	0xbf070955	-0.52748615
35	0x3f6a0c27	0.91424793
36	0xbdff4170	-0.12463653
37	0x3eba915d	0.36439028
38	0x3e9ab06f	0.30212733
39	0xbe849668	-0.25896
40	0xbdc1bad5	-0.094594635
41	0xbf678e68	-0.9045167
42	0x3ee4aea8	0.44664502
43	0x3d8e79b3	0.06956806
44	0xbeb298d2	-0.34882218
45	0x3e9907c7	0.29888746
46	0xbdd60ac5	-0.10451273
47	0xbd70ad0f	-0.05875879
48	0x3ec05f33	0.3757263
49	0x3f2393a9	0.63897187
50	0xbe3d4ad9	-0.18485583
51	0x3e67ff69	0.22656025
52	0x3d381114	0.044938162
53	0x3e983b8f	0.2973294
54	0xbef519ca	-0.47871238
55	0xbd81badf	-0.06334471
56	0x3ed919ab	0.42402396
57	0x3ee89fd0	0.45434427
58	0xbea76085	-0.32690826
59	0x3e3248a6	0.17410526
60	0x3e670f3c	0.22564405
61	0x3ec73ce4	0.38913643
62	0xbe01df40	-0.1268282
63	0xbc2b711b	-0.010463978
64	0x3f143f1f	0.57908815
65	0xbcabd772	-0.020976756
66	0x3cdcd07b	0.02695488
67	0x3e4a3ebc	0.19750494
68	0x3ed3acd0	0.41342783
69	0xbe12d7f8	-0.14340198
70	0xbc3c7d9c	-0.011504557
71	0x3e4d699e	0.20059821
72	0x3ef45984	0.47724545
73	0xbe47ab5d	-0.19498964
74	0xbde7f2be	-0.11325596
75	0xbe030ff8	-0.1279906
76	0x3d022b05	0.031779308
77	0x3dacd42f	0.08438908
78	0xbe5b8804	-0.21438605
79	0xbdfdee12	-0.12398924
80	0xbe69a12f	-0.22815393
81	0xbec714da	-0.38883096
82	0x3ee70e37	0.45128033
83	0x3dafa8c7	0.085771136
84	0xbe645170	-0.22296691
85	0x3d719178	0.05897662
86	0x3eb1b2fe	0.34706873
87	0xbd155dde	-0.03646647
88	0xbea06e48	-0.31334138
89	0x3cdd1a5c	0.026990108
90	0x3cf793dd	0.030221874
91	0x3da01218	0.07815951
92	0xbee5dd61	-0.4489546
93	0xbe2f8cfc	-0.17143625
94	0x3c9de1ca	0.019272704
95	0x3d58df95	0.0529476
96	0x3f2537bd	0.64538175
97	0xbf177235	-0.5915864
98	0x3a8481be	0.0010109467
99	0x3c9dc4a1	0.019258799
100	0x3ea9c943	0.33161363
101	0xbef46665	-0.4773437
102	0xbdd3e954	-0.10347238
103	0x3e7d648c	0.24745387
104	0x3f05879a	0.52160037
105	0xbe322490	-0.1739676
106	0xbdd35d49	-0.10320527
107	0x3d9b97e1	0.07597328
108	0x3f3a9c54	0.7289479
109	0xbedad62b	-0.42741522
110	0xbe79c25d	-0.2439055
111	0x3c95c5e8	0.018282846
112	0xbc6f6f05	-0.014613871
113	0xbe0d48a1	-0.13797237
114	0x3e4fcb3f	0.20292376
115	0x3dbae23c	0.09125182
116	0x3c96f620	0.018427908
117	0xbe4bcf1a	-0.19903222
118	0x3dd58d05	0.10427288
119	0x3d7ccd3f	0.061719175
120	0xbe1689e8	-0.14701045
121	0xbe6e0dfd	-0.23247524
122	0x3d5231c7	0.051317003
123	0x3da4db42	0.080496326
124	0xbd669873	-0.05629773
125	0xbb7f47cb	-0.0038952704
126	0x3d48a20d	0.04898267
127	0x3d8d48a5	0.068986215
128	0x3dd6150d	0.10453234
129	0xbee978cb	-0.4559997
130	0x3ec7ce7c	0.39024723
131	0x3d88eea5	0.06686143
132	0x3e79aeb2	0.24383047
133	0xbe9fb0bd	-0.31189528
134	0x3ea480ed	0.32129613
135	0x3d84a8c7	0.06477504
136	0xbf082fac	-0.5319774
137	0xbd845613	-0.0646173
138	0x3dac75f1	0.08420933
139	0xbd73dd2a	-0.05953709
140	0xbedf6eea	-0.43639308
141	0xbdff8bef	-0.12477862
142	0x3dfaae81	0.12240315
143	0xbd9830ab	-0.07431158
144	0x3c204a47	0.009783334
145	0xbe1512b0	-0.1455791
146	0x3e0acd70	0.1355493
147	0x3c114c17	0.008868239
148	0x3d4215c2	0.04738403
149	0xbe832af3	-0.25618705
150	0x3e239709	0.15975584
151	0x3e0679b3	0.13132362
152	0xbdfa6320	-0.12225938
153	0xbca8f9a1	-0.020626845
154	0x3d5a1ea3	0.053251874
155	0x3c97b1c3	0.01851738
156	0xbe50ebdd	-0.20402475
157	0xbd8e9162	-0.06961323
158	0x3c4a7b82	0.012358548
159	0x3cfc3479	0.03078674
160	0xbea7bf36	-0.3276307
161	0xbf12114f	-0.5705766
162	0x3e430bbb	0.19047444
163	0x3e270c18	0.16313207
164	0xbe646575	-0.22304328
165	0xbed0a910	-0.40753984
166	0x3e7bd13d	0.24591537
167	0x3dbd1186	0.09231858
168	0xbe1501f2	-0.14551523
169	0xbea2232e	-0.31667465
170	0x3e8ddf65	0.277095
171	0x3e717b86	0.23582277
172	0xbe0a5cf5	-0.13512023
173	0xbdbc9255	-0.09207598
174	0x3d7604b0	0.060063064
175	0x3c9466fa	0.01811551
176	0x3c4f608e	0.012657298
177	0xbefa264d	-0.48857346
178	0xbcac69c7	-0.021046532
179	0xbe85b140	-0.26111794
180	0xbdc10069	-0.09423906
181	0x3e19aada	0.15006581
182	0xbd3ec6e9	-0.046576414
183	0x3e530152	0.20605972
184	0x3f272236	0.65286577
185	0x3e5284ff	0.20558546
186	0xbea766b0	-0.32695532
187	0x3ee5bc4a	0.44870216
188	0x3f39f66d	0.7264164
189	0xbe82e388	-0.25564218
190	0xbe0d1ea5	-0.13781221
191	0xbe0800bc	-0.1328153
192	0x3f4e125f	0.8049678
193	0xbf03b37d	-0.5144575
194	0x3dd18672	0.102307215
195	0xbed49525	-0.41520038
196	0x3dcab771	0.0989827
197	0xbe36b5f9	-0.17842855
198	0x3ea0f321	0.31435493
199	0xbe920d27	-0.2852566
200	0xbd979760	-0.07401919
201	0x3f22b1d6	0.63552606
202	0xbe02b47c	-0.12764162
203	0xbf229acd	-0.6351746
204	0x3f8d7f3f	1.1054457
205	0xbca68a91	-0.020329745
206	0x3d02f844	0.031975046
207	0x3f003e3c	0.5009496
208	0xbbb57688	-0.0055378117
209	0xbea01d0f	-0.3127217
210	0xbe86298b	-0.2620357
211	0x3f4176cb	0.7557189
212	0xbe81f381	-0.2538109
213	0x3cfd16c0	0.030894637
214	0xbc7a5f69	-0.015281537
215	0x3d3541d7	0.044252243
216	0x3e9302c1	0.2871304
217	0xbee97080	-0.45593643
218	0x3f11b784	0.5692065
219	0xbe61247f	-0.21986578
220	0xbc9f5183	-0.019448048
221	0x3d99f3c6	0.07517199
222	0xbed7e360	-0.4216566
223	0xbe1620a0	-0.14660883
224	0xbd851b30	-0.06499326
225	0xbe249cc0	-0.1607542
226	0x3d0b6134	0.034028247
227	0x3e002618	0.12514532
228	0xbe1863b5	-0.14881785
229	0x3c1a62c8	0.009422965
230	0xbd8e2977	-0.069415025
231	0x3d5be284	0.05368282
232	0x3da2441d	0.07923148
233	0xbd0f79a3	-0.03502811
234	0x3d87abd3	0.0662457
235	0x3d0e662e	0.034765415
236	0x3d594be6	0.053050898
237	0xbda25bed	-0.0792769
238	0x3e0e1318	0.13874471
239	0x3d85ab44	0.06526807
240	0x3f82276d	1.0168282
241	0xbe795dad	-0.2435214
242	0xbf2fc09f	-0.6865329
243	0xbe364afb	-0.1780204
244	0x3ee974e7	0.45597002
245	0xbdb2611c	-0.087099284
246	0xbedf0f97	-0.43566582
247	0x3dbd1aea	0.09233649
248	0x3f01b756	0.50670373
249	0x3ed9b5ef	0.42521617
250	0xbea1d91f	-0.31610963
251	0x3df4abc7	0.119468264
252	0x3f53fb05	0.828049
253	0xbe178800	-0.14797974
254	0x3d7314d5	0.05934604
255	0x3d8b7829	0.06810028

conv2.bias f4 [32]
0	0x3d736355	0.059420902
1	0x3de39d55	0.11113993
2	0xbd65f00a	-0.056137122
3	0x3ab5c516	0.001386794
4	0x3dc60241	0.09668399
5	0x3e2cd0b9	0.16876496
6	0xbd6c2f3b	-0.05766223
7	0x39f93f1b	0.00047539998
8	0x3dd0bec7	0.10192638
9	0xbdcd186e	-0.10014425
10	0x3c5f395a	0.0136245135
11	0x3e1e95c5	0.1548682
12	0x3ca4e4b8	0.020128593
13	0x3e190b79	0.14945783
14	0xbd73cd4c	-0.05952196
15	0x3e04bd0b	0.12962739
16	0xbb91599f	-0.0044357325
17	0x3dd4a718	0.10383433
18	0x3d3046e3	0.043036353
19	0x3dbd27a7	0.09236079
20	0xbc44ef5e	-0.01201996
21	0x3d9967d0	0.07490504
22	0x3dfde202	0.12396623
23	0xbcac1df8	-0.021010384
24	0x3dadb4a6	0.084817216
25	0x3c8158c2	0.015789393
26	0x3e1d1d9e	0.1534333
27	0xbccc879c	-0.024967007
28	0x3dad0d5e	0.08449815
29	0x3e2e1dba	0.17003527
30	0x3dda4e62	0.106594816
31	0x3b02d2e8	0.0019962136

fc1.weight f4 [64, 800]
0	0xbeb9501c	-0.3619393
1	0xbe469087	-0.1939107
2	0xbe17fb79	-0.14842023
3	0x3d44d17c	0.048051342
4	0x3d8fa134	0.07013169
5	0xbd1bc439	-0.03802893
6	0xbd828b05	-0.06374172
7	0xbd9bd0b4	-0.07608166
8	0x3e43f65f	0.19136952
9	0x3d89c0c7	0.067262225
10	0xbe338d56	-0.17534384
11	0x3c3d476d	0.011552674
12	0x3d19843d	0.037479628
13	0xbc043870	-0.008070096
14	0x3e045155	0.1292165
15	0xbde73d94	-0.11291042
16	0xbe3c1695	-0.1836799
17	0x3db9f615	0.090801395
18	0xbe83f494	-0.25772536
19	0xbbfbc247	-0.007683072
20	0x3d4bb99d	0.04973756
21	0xbec41fb4	-0.38305438
22	0xbe213dc1	-0.15746213
23	0x3dd276e3	0.10276582
24	0xbea16ec3	-0.31529817
25	0x3e85596e	0.26044792
26	0x3e7e461c	0.24831432
27	0x3e09964f	0.13436244
28	0x3dcdc665	0.100476064
29	0x3dfbedbe	0.12301205
30	0x3c3110c0	0.010807216
31	0x3de71cc0	0.112847805
32	0x3dc99058	0.098419845
33	0x3e0b370c	0.13595217
34	0x3e0a08ec	0.13479966
35	0x3d376fcc	0.044784352
36	0x3e051e22	0.12999776
37	0x3dbb8b03	0.09157374
38	0x3df0bacc	0.11754379
39	0x3d8fb023	0.07016017
40	0x3d6fedcb	0.058576386
41	0x3e0d3eca	0.13793483
42	0x3d82b3d1	0.063819535
43	0x3da74dfc	0.08169171
44	0x3db6b7c9	0.08921773
45	0x3cbcab91	0.023031028
46	0x3dd2313d	0.10263298
47	0x3e1001be	0.14063165
48	0xba834986	-0.0010016419
49	0xbd0357da	-0.032066204
50	0x3c58a015	0.01322176
51	0xbc11d33f	-0.008900463
52	0x3c31e322	0.010857375
53	0xbcfdb1ec	-0.030968629
54	0x3c9c84e4	0.019106336
55	0x3d0c5395	0.034259398
56	0x3d0009a1	0.031259183
57	0xbcd02115	-0.0254064
58	0x3c40c1c0	0.011764944
59	0xbb93d98a	-0.0045120167
60	0x3c57e864	0.013177965
61	0x3c5f9d2b	0.013648312
62	0xbb988d70	-0.0046555325
63	0xbc42059e	-0.01184216
64	0x3cc69032	0.02423868
65	0x3c57e6ca	0.013177583
66	0x3caf4656	0.021395843
67	0x3c775792	0.015096562
68	0xbcd31a90	-0.025769502
69	0x3cbe47d0	0.023227602
70	0x3c98c370	0.01864788
71	0xbc81a146	-0.015823971
72	0x3c282122	0.010261806
73	0x3c565ba4	0.013083372
74	0x3cdf71c2	0.027275924
75	0xbe16d671	-0.1473024
76	0x3d691430	0.056904018
77	0xbda98024	-0.08276394
78	0xbe130d8c	-0.14360636
79	0xbf8fb7f0	-1.1228008
80	0xbe8b3f87	-0.27196905
81	0x3c9a34b5	0.01882396
82	0xbab996ac	-0.0014159284
83	0xbd5cb90d	-0.053887416
84	0xbf94a44c	-1.161264
85	0xbea23223	-0.31678876
86	0xbd20a4c4	-0.039219633
87	0x3d22509e	0.039627664
88	0xbf3d8fa6	-0.74047315
89	0xbef14984	-0.471264
90	0xbe9b1a00	-0.30293274
91	0xbe55f68a	-0.20894828
92	0x3dc2e54a	0.0951639
93	0xbc4a7eb3	-0.012359309
94	0xbe6d88a8	-0.23196661
95	0xbf2c1377	-0.672172
96	0xbe32b7e5	-0.17452963
97	0xbdb6da64	-0.089283735
98	0x3e328482	0.1743336
99	0xbe58c2a3	-0.21167998
100	0xbd5fab2b	-0.054606598
101	0xbdab6775	-0.08369342
102	0xbed17e07	-0.40916464
103	0x3d2296a5	0.039694447
104	0xbf0eb164	-0.55739427
105	0xbe68d54d	-0.22737618
106	0x3d804090	0.06262314
107	0x3b780020	0.0037841871
108	0x3dfaa2c1	0.12238074
109	0x3ca87e8a	0.020568151
110	0xbccbc5a2	-0.024874512
111	0xbcdb754c	-0.02678933
112	0x3d01effe	0.031723015
113	0x3d8affc4	0.06787065
114	0xbd02a961	-0.031899814
115	0x3b7449f3	0.0037275522
116	0xbe59d1b9	-0.21271409
117	0xbc2eccc1	-0.010668934
118	0x3c863967	0.016384793
119	0xbe0fdef5	-0.14049895
120	0xbd953268	-0.07285005
121	0xbd0924d6	-0.033482395
122	0xbe3cbb41	-0.18430807
123	0x3e0b595a	0.13608304
124	0x3d895000	0.06704712
125	0x3e9c514e	0.3053078
126	0x3df56c4c	0.119835466
127	0x3de3b38c	0.1111823
128	0x3d801435	0.06253854
129	0x3e01d69c	0.12679523
130	0x3ddf32ee	0.10898386
131	0x3dd24cf1	0.10268582
132	0x3dce309f	0.100678675
133	0x3dca477b	0.09876915
134	0x3e22b9dd	0.15891214
135	0x3e1dbe81	0.15404703
136	0x3df00ea2	0.11721541
137	0x3deb0b56	0.114767715
138	0x3db739ff	0.08946609
139	0x3e0f4778	0.13992107
140	0x3e4e1127	0.2012373
141	0x3e1fadf0	0.15593696
142	0x3c1678c4	0.009184066
143	0x3dae92da	0.085241035
144	0x3e0fd115	0.14044602
145	0x3e2f248c	0.17103785
146	0x3ddc5e96	0.10760228
147	0x3e0c21f1	0.13684823
148	0x3e0ad2b2	0.13556936
149	0x3e27ec3d	0.16398712
150	0xbbe88a1b	-0.0070965416
151	0xbd035b63	-0.032069575
152	0x3d4188c7	0.04724958
153	0xbcfb80c5	-0.03070105
154	0xbb498255	-0.003074785
155	0x3c11766c	0.008878332
156	0x3a952583	0.0011378977
157	0x3cdbefca	0.026847739
158	0xbca01538	-0.019541368
159	0xbc8c43dc	-0.017122202
160	0x3be0b503	0.006857516
161	0x3b6c1735	0.0036024575
162	0x3c016113	0.007896679
163	0xbce3fb86	-0.027829897
164	0x3cc2783d	0.023738975
165	0x3cc42d09	0.023947256
166	0xbcf0ac7e	-0.029379126
167	0x3ca3132c	0.019906603
168	0x3ced09e1	0.028935375
169	0x3c795a08	0.015219219
170	0x3c96f578	0.018427595
171	0xbd261c26	-0.04055419
172	0xbc069904	-0.008215193
173	0xb85c3d48	-5.250916e-05
174	0xbcae69f5	-0.021290759
175	0xbee843cd	-0.45364228
176	0xbeeaf7e3	-0.45892248
177	0xbe5aa09c	-0.2135033
178	0x3d492d94	0.049115732
179	0xbefe233f	-0.49636266
180	0xbe4af498	-0.19819868
181	0xbe10f194	-0.14154655
182	0x3d2bae6b	0.041914385
183	0xbee3859a	-0.44437867
184	0x3db602d4	0.08887258
185	0xbf29dd4f	-0.66353315
186	0xbefc85cb	-0.49320826
187	0xbf4e18ed	-0.80506784
188	0xbdbba68a	-0.09162624
189	0xbe15a311	-0.14612986
190	0xbf17de45	-0.5932353
191	0xbf715d2d	-0.942828
192	0xbe403a72	-0.18772295
193	0xbc9afe8b	-0.018920204
194	0xbe20bcbb	-0.15696995
195	0xbedaedd8	-0.42759585
196	0xbf8ec0eb	-1.1152624
197	0xbea00dd5	-0.31260553
198	0xbd8a9dc4	-0.06768373
199	0x3c9a1b6c	0.018811904
200	0xbe92c3ff	-0.28665158
201	0xbd934c6e	-0.07192312
202	0x3db66fc2	0.08908035
203	0x3d756daf	0.059919056
204	0x3de1cf55	0.110258736
205	0x3e3f0a82	0.18656352
206	0x3dc39de5	0.095516
207	0x3d599485	0.053120155
208	0xbcea38ec	-0.028591596
209	0x3dde89f5	0.10866157
210	0xbdb60aa6	-0.0888875
211	0xbe6ba5e5	-0.23012502
212	0x3d5f4718	0.05451116
213	0xbeaa902a	-0.33313113
214	0xbe88d56f	-0.26725337
215	0xbe2689f3	-0.16263561
216	0xbcf7bc7b	-0.030241242
217	0xbcee1f27	-0.029067589
218	0xbda58c38	-0.08083385
219	0x3ca5a019	0.020217942
220	0x3e3cea53	0.18448763
221	0x3daa9f55	0.083311714
222	0x3e73f33d	0.23823257
223	0x3dd15283	0.10220816
224	0x3dbe34c9	0.09287412
225	0xbe478577	-0.19484507
226	0x3ea01201	0.31263736
227	0xbe4f0924	-0.2021833
228	0xbeaebe69	-0.34129646
229	0xbe4b41d8	-0.19849336
230	0x3da3659d	0.079783656
231	0x3d23f9b2	0.04003305
232	0x3c818a05	0.015812883
233	0x3e298436	0.1655434
234	0xbcd8ff52	-0.026488934
235	0xbed6f125	-0.41980854
236	0x3d5bb72c	0.053641483
237	0xbe3c1b78	-0.18369853
238	0xbe21cdf1	-0.15801217
239	0xbf9f9dd6	-1.2470043
240	0xbe995769	-0.299495
241	0xbea02715	-0.31279817
242	0x3f29c7a4	0.6632025
243	0x3e10aaa4	0.14127594
244	0xbedd69ef	-0.43244883
245	0xbe8d0d8a	-0.27549392
246	0xbf438078	-0.763679
247	0xbe0b3d5c	-0.13597625
248	0x3d0ef048	0.03489712
249	0xbda09bc5	-0.07842211
250	0xbe9634cd	-0.2933716
251	0xbe1e2210	-0.15442681
252	0xbda27149	-0.07931764
253	0x3cb3d560	0.021952331
254	0x3c5d2469	0.01349745
255	0xbd97892e	-0.07399212

fc1.bias f4 [64]
0	0x3de589a8	0.112078965
1	0xbcb8dd93	-0.022566592
2	0xbd27724f	-0.040880498
3	0xbc1da42b	-0.00962166
4	0x3d2a96e5	0.04164781
5	0xbcdd8692	-0.027041707
6	0xbd4e750b	-0.05040459
7	0x3df82719	0.12116832
8	0x3dba6bcb	0.09102591
9	0x3dc9bb40	0.09850168
10	0x3cde087a	0.027103651
11	0x3ceeda31	0.029156776
12	0xbd87d30b	-0.0663205
13	0xbd6879b4	-0.05675669
14	0xbadf9687	-0.001705841
15	0x3e07af01	0.13250352
16	0x3ce140ce	0.027496722
17	0x3c8ed330	0.017434686
18	0x3d164d4c	0.03669481
19	0x3df5c952	0.120012894
20	0xbc134cd6	-0.008990487
21	0x3a87bd0c	0.0010356023
22	0xbd0be48c	-0.034153506
23	0xbd7baed3	-0.061446022
24	0x3dc025fa	0.093822435
25	0xbcce1972	-0.025158618
26	0x3d20d0a0	0.03926146
27	0xbcdcbfd1	-0.026946934
28	0x3d3acb26	0.045603894
29	0xbd5aeafe	-0.053446762
30	0x3c4bb476	0.012433162
31	0x3d154855	0.036445934
32	0xbcaeb87e	-0.021328207
33	0xbc037f42	-0.008025946
34	0x3ca17ab2	0.019711826
35	0xbc7c0984	-0.015383128
36	0x3d91910f	0.07107746
37	0xbd407c65	-0.046993632
38	0xbc285c15	-0.01027586
39	0xbb47f47b	-0.0030510712
40	0xbd32fac1	-0.04369617
41	0x3c93ee9f	0.01805812
42	0x3bc1a988	0.0059101023
43	0xbd290950	-0.041268647
44	0x3c6d524e	0.014484955
45	0x3ce827c1	0.028339269
46	0xbd0911d5	-0.03346427
47	0x3d0a4dc3	0.033765566
48	0xbd1a23e8	-0.0376319
49	0x3cc03196	0.023461144
50	0x3deb41c2	0.11487152
51	0x3d1453dd	0.03621279
52	0xbc0c1513	-0.008549946
53	0xbcfe3539	-0.031031238
54	0x3cabdc8e	0.020979192
55	0x3bc5fe75	0.0060422965
56	0xbbeaf42d	-0.0071702213
57	0xbce619e1	-0.028088512
58	0xbc56dd08	-0.013114221
59	0xbd3b35ed	-0.045705725
60	0x3cd24d2a	0.02567156
61	0xbd64d1c6	-0.055864118
62	0x3cc6c291	0.024262698
63	0xbcaa6b52	-0.020803127

fc4.weight f4 [8, 64]
0	0xbe0bee5f	-0.1366515
1	0xbdaa294d	-0.08308659
2	0xbd18f5d4	-0.037343815
3	0x3e37b046	0.17938337
4	0xbdf46893	-0.119340084
5	0xbdec21a4	-0.11529854
6	0xbdd77c74	-0.105217844
7	0x3e092287	0.13392077
8	0xbda3be34	-0.07995263
9	0x3d7dca9e	0.06196081
10	0x3d954b9e	0.072898135
11	0x3e83b958	0.25727344
12	0x3d78406a	0.060608305
13	0x3d8f8013	0.0700685
14	0x3c5674a3	0.013089332
15	0x3e43f1e7	0.19135247
16	0x3c28ab33	0.010294723
17	0x3dd61625	0.104534425
18	0x3e645881	0.22299387
19	0xbf1d32a4	-0.61405396
20	0xbda16b56	-0.07881801
21	0x3d076c54	0.033062294
22	0x3d18c1c3	0.03729416
23	0xbdb93fc6	-0.09045367
24	0x3db02a12	0.08601774
25	0xbdade077	-0.08490079
26	0xbc55c7e4	-0.013048146
27	0xbdb7cecd	-0.08974991
28	0x3d22a861	0.03971136
29	0xbcb9eb08	-0.02269508
30	0x3d7ada1b	0.061243158
31	0x3d771579	0.060323212
32	0x3d96951c	0.07352659
33	0xbd19b47f	-0.03752565
34	0x3e906711	0.28203633
35	0x3d264d90	0.040601313
36	0x3cbdef15	0.023185292
37	0xbd0771e0	-0.033067584
38	0xbd9de8bb	-0.077104054
39	0xbaa9163d	-0.0012900304
40	0x3ccd8ada	0.025090624
41	0xbc1e81bf	-0.009674489
42	0x3d2fe4a8	0.042942673
43	0x3da0bc30	0.07848394
44	0x3e2a0037	0.16601644
45	0xbcd3bf58	-0.025848076
46	0x3cae3063	0.021263307
47	0xbef5f131	-0.48035577
48	0xbbcca08d	-0.006244725
49	0xbc1791d0	-0.009251073
50	0xbee6175f	-0.44939706
51	0xbd46af6e	-0.048507147
52	0xbdb8586e	-0.090012416
53	0x3ccc78c8	0.024959937
54	0xbcc8dc47	-0.024519099
55	0x3d7ba3e3	0.06143559
56	0xbca5d6f3	-0.020244097
57	0x3da9878f	0.08277809
58	0x3d2d2cf0	0.042279184
59	0x3e9031a6	0.2816288
60	0x3dae1813	0.085006855
61	0x3d8cda4b	0.068775736
62	0x3bc65f7b	0.0060538626
63	0x3db199fa	0.08671947
64	0xbf36382e	-0.71179473
65	0x3ae50d95	0.0017475361
66	0x3dc7d60e	0.097576246
67	0x3e8ef811	0.27923635
68	0x3ce66518	0.028124377
69	0xbd9a2936	-0.075273916
70	0x3d009e24	0.031400815
71	0x3dc69fd1	0.09698451
72	0x3f17fb3b	0.5936772
73	0x3e2935b4	0.16524392
74	0x3db76351	0.0895449
75	0xbe23e4cd	-0.1600525
76	0x3d8491c3	0.06473114
77	0xbddcc2bc	-0.1077933
78	0x3c82382b	0.015895924
79	0x3e149415	0.14509614
80	0x3cc0eea5	0.023551295
81	0x3d948d87	0.07253557
82	0x3ba79ab2	0.0051148767
83	0x3d561cb8	0.052273482
84	0x3d5b6feb	0.05357353
85	0x3e459d8c	0.1929838
86	0x3dbf4552	0.09339394
87	0xbd977981	-0.07396222
88	0xbea0603d	-0.31323424
89	0xbdcb4335	-0.09924928
90	0x3dd54c5d	0.10414956
91	0xbc2bfbe2	-0.010497065
92	0x3d91b5b5	0.07114736
93	0xbde9ed6e	-0.11422239
94	0x3da10de3	0.07863977
95	0x3dd65d1f	0.1046698
96	0x3c9c4408	0.019075409
97	0x3db9948f	0.090615384
98	0x3c7b816e	0.015350683
99	0x3d15e294	0.036593035
100	0xbefe9e6b	-0.49730238
101	0xbddc4f11	-0.10757268
102	0xbde5cca7	-0.11220675
103	0xbd6f4724	-0.058417454
104	0xbd2e79a2	-0.042596467
105	0x3dd4aa7c	0.1038408
106	0x3dc3b2a4	0.09555557
107	0x3d9158dc	0.07097027
108	0x3e386ea1	0.18010952
109	0x3de88ca0	0.11354947
110	0xbdb90e0d	-0.09035883
111	0x3dca1d04	0.098688155
112	0x3d80e148	0.06292969
113	0x3d299608	0.041402847
114	0x3d0524fb	0.03250597
115	0xbe0cb103	-0.137394
116	0xbdc0e356	-0.09418361
117	0xbdc22f46	-0.09481673
118	0xbdf0e0b9	-0.117616124
119	0x3e978395	0.29592577
120	0xbc05076d	-0.008119446
121	0xbd958200	-0.07300186
122	0x3df2bbb8	0.11852211
123	0x3ea1bc8f	0.3158917
124	0x3c3a2619	0.011361622
125	0xbd8e63c6	-0.06952624
126	0xbde1ed18	-0.1103155
127	0x3d9c85ac	0.076426834
128	0xbe601821	-0.21884204
129	0x3a61e8ed	0.00086177775
130	0xbcccb724	-0.024989672
131	0x3e78eab7	0.24308287
132	0xbd98f8ad	-0.07469306
133	0xbd5d1de2	-0.053983577
134	0xbd262789	-0.040565047
135	0x3d518c7c	0.051159367
136	0xbec6ee27	-0.3885357
137	0x3e964af8	0.29354072
138	0xbdd61d0e	-0.104547605
139	0x3ead98ea	0.33905727
140	0xbd34f221	-0.044176225
141	0x3e003898	0.12521589
142	0xbc2496b9	-0.010045701
143	0x3d89ab56	0.06722133
144	0x3a2825e3	0.0006414337
145	0x3d04bb68	0.032405287
146	0x3e2f1407	0.17097484
147	0xbee67f73	-0.4501911
148	0x3de6e89a	0.11274834
149	0xbe0b88e0	-0.13626432
150	0xbc5a2928	-0.0133154765
151	0xbda98bd1	-0.08278621
152	0xbe12e84c	-0.14346427
153	0xbc7212c1	-0.014774979
154	0xbd57b742	-0.052665003
155	0x3ddee6b2	0.108838454
156	0x3eb48afa	0.3526228
157	0x3df7e144	0.12103513
158	0x3df41d32	0.11919631
159	0x3e0a4b85	0.13505371
160	0x3a9dd5cc	0.0012041866
161	0xbd875e04	-0.06609729
162	0xbe40a288	-0.18812001
163	0xbdde2402	-0.10846712
164	0xbe4dadef	-0.20085882
165	0xbcf72c07	-0.030172361
166	0xbd5b37a1	-0.05351985
167	0x3ca771d9	0.020440029
168	0x3c64fecb	0.013976763
169	0x3deef83a	0.11668439
170	0xbe00cb2e	-0.12577507
171	0x3d841adc	0.064504355
172	0x3c444e9c	0.011981633
173	0x3b802241	0.0039103334
174	0xbd3d08ac	-0.04615085
175	0xbd186b82	-0.037211902
176	0x3db9d344	0.09073499
177	0xbbf1c2a0	-0.0073779374
178	0x3e8caf4e	0.27477497
179	0xbeced91d	-0.4040002
180	0xbdf2a2c6	-0.11847453
181	0x3d590756	0.05298551
182	0xbd4de00c	-0.050262496
183	0x3d97e0b4	0.074159056
184	0x3d7f6596	0.06235274
185	0x3c2dba1c	0.010603454
186	0x3c92fc48	0.017942563
187	0x3df5b300	0.11997032
188	0xbc9252bf	-0.017861722
189	0x3b983412	0.004644879
190	0xbd4a7242	-0.04942537
191	0x3d2799b6	0.040918075
192	0xbc568837	-0.013094
193	0x3dcf0099	0.10107536
194	0xbdb1a0d6	-0.08673255
195	0x3edab482	0.42715842
196	0x3eb74625	0.35795704
197	0xbd02cf84	-0.031936184
198	0x3d8e715c	0.06955215
199	0xbbb5428b	-0.005531614
200	0xbe40e460	-0.18837118
201	0xbe95be29	-0.29246643
202	0x3dc6d4f0	0.09708583
203	0xbe220001	-0.15820314
204	0xbc51f412	-0.012814539
205	0xbd3e130b	-0.04640488
206	0x3be208f1	0.0068980386
207	0x3d93dc83	0.07219794
208	0x3db743a6	0.0894845
209	0x3c90bbfe	0.017667767
210	0x3ee165c0	0.44022942
211	0x3d731e4b	0.05935506
212	0x3d56b7c2	0.05242134
213	0x3dc39c65	0.09551314
214	0xbcb7bf19	-0.02242999
215	0xbc3af41a	-0.011410737
216	0xbee27368	-0.44228673
217	0x3c1785de	0.009248225
218	0xbd20b3ca	-0.03923396
219	0x3d9ebbd4	0.07750669
220	0x3ed0bad7	0.40767547
221	0x3da8a38c	0.08234319
222	0x3d92e48e	0.071724996
223	0xbe00fb72	-0.12595919
224	0xbd8ddb9a	-0.06926651
225	0xbc0465d9	-0.008080923
226	0x3dee0eb2	0.11623897
227	0x39f88db4	0.00047407823
228	0xbead13db	-0.3380421
229	0x3dc8a980	0.097979546
230	0x3d118dab	0.035535496
231	0x3cf11ccd	0.029432679
232	0xbdaaa1ba	-0.08331628
233	0xbd819b21	-0.063284166
234	0xbdec41c7	-0.115359835
235	0x3db0e4a8	0.08637363
236	0x3ea8b082	0.32947165
237	0x3c15bbb3	0.009138989
238	0xbdea08e4	-0.11427477
239	0xbb0f0341	-0.0021822008
240	0xbd8ac040	-0.0677495
241	0xbd99d26a	-0.075108364
242	0xbe93e2ee	-0.2888407
243	0x3df2707a	0.118378595
244	0xbd9ba583	-0.07599928
245	0x3daab92c	0.083361
246	0x3c226c5e	0.009913532
247	0x3e9b88bb	0.30377755
248	0xbd157fb9	-0.03649876
249	0x3d53d888	0.051720172
250	0x3a711200	0.00091961026
251	0x3a83189a	0.0010001839
252	0xbc8651dd	-0.016396457
253	0x3b7f8d4c	0.0038994132
254	0xbd8891c5	-0.06668428
255	0x3d7161e0	0.05893123

fc4.bias f4 [8]
0	0x3dad7101	0.084688194
1	0xbcd559bd	-0.026043767
2	0x3e01d410	0.12678552
3	0xbd0e7798	-0.034782022
4	0xbe35e6bc	-0.177638
5	0xbb48696a	-0.003058041
6	0x3e789860	0.24276876
7	0xbe3fa9f2	-0.18717173

conv1.weight f4 [16, 2, 4, 4]
0	0x3f48d2df	0.78446764
1	0x3fa13a04	1.259583
2	0x3f7407c2	0.9532434
3	0x3fa59386	1.2935646
4	0x3f43548f	0.763009
5	0xbed602bf	-0.4179897
6	0x3f88221b	1.0635408
7	0x3f62364b	0.88364094
8	0xbe4b62f1	-0.19861962
9	0x3cc58188	0.024109617
10	0x3d259491	0.040424887
11	0x3f0bedb4	0.5465958
12	0xbc8e5ed1	-0.017379196
13	0xbd14b4f3	-0.03630538
14	0xbdcf0c00	-0.10109711
15	0xbef0f5d6	-0.47062558
16	0xbd97f647	-0.074200206
17	0x3d66be8d	0.056334067
18	0x3dc0aab1	0.09407557
19	0xbc9f87db	-0.01947396
20	0xbbcdbd34	-0.0062786583
21	0xbd7468f4	-0.059670404
22	0xbde24cb5	-0.11049787
23	0xbe126113	-0.14294843
24	0x3d96e20f	0.07367336
25	0xbe604268	-0.21900332
26	0x3c6a42eb	0.014298181
27	0xbdee5d88	-0.116389334
28	0xbdcc56ff	-0.09977531
29	0xbdc31640	-0.09525728
30	0xbd9a3f2d	-0.07531581
31	0xbe1f32a2	-0.15546659
32	0x3f060403	0.5234987
33	0x3f3d04d2	0.7383548
34	0xbd1e94ed	-0.038716245
35	0x3ff263cc	1.8936706
36	0x3f02a89f	0.51038545
37	0x3e80c64d	0.2515129
38	0xbf1e93f1	-0.6194449
39	0x3f2cbaf6	0.6747278
40	0x3e9b4c30	0.30331564
41	0xbef082c6	-0.46974772
42	0x3e903ac1	0.28169826
43	0x3f00814a	0.5019728
44	0xbeb1b54a	-0.34708625
45	0x3e8d6acb	0.2762054
46	0xbe787f6e	-0.2426736
47	0x3ef6ed5e	0.48227972
48	0x3dfe824c	0.12427196
49	0x3e79bea0	0.24389124
50	0x3e556899	0.20840682
51	0x3e3bed12	0.18352154
52	0x3c1db367	0.009625292
53	0xbe98b291	-0.29823735
54	0x3e15f0f0	0.14642692
55	0x3da7c702	0.081922546
56	0x3e2651b0	0.16242099
57	0x3cb3b660	0.02193755
58	0xbbd79b1b	-0.0065797693
59	0x3dbf5f37	0.09344333
60	0x3cc1e89d	0.023670489
61	0x3df204ee	0.118173465
62	0x3d2d13fa	0.04225538
63	0x3d3ac915	0.045601923
64	0x3d541875	0.051781137
65	0xbea05930	-0.31318045
66	0x3ec9fea3	0.39452085
67	0x400b9306	2.1808486
68	0x3c313202	0.010815145
69	0xbc6a1b2f	-0.014288708
70	0xbe595639	-0.21224298
71	0xbdd1bc16	-0.10240953
72	0xbe06c539	-0.13161172
73	0xbe49be33	-0.19701461
74	0x3ea542ca	0.3227752
75	0x3f0073c5	0.5017665
76	0x3ea76756	0.32696027
77	0x3d822e96	0.06356542
78	0xbe43900f	-0.19097923
79	0xbe8da06b	-0.27661452
80	0x3d8c8a08	0.06862265
81	0x3d2c04cc	0.041996762
82	0xbd7311c4	-0.059343114
83	0xbf361d6b	-0.7113864
84	0x3d3cea32	0.046121784
85	0x3e4e95cf	0.20174335
86	0x3cfc2ac3	0.03078211
87	0x3d99933c	0.07498786
88	0x3dbd0176	0.09228794
89	0x3d814d70	0.06313598
90	0x3d0a1bfb	0.03371809
91	0xbd74ef07	-0.059798267
92	0xbd4bb6a5	-0.04973473
93	0xbcae3dd9	-0.021269726
94	0x3e1893ae	0.14900085
95	0x3dc51383	0.09622862
96	0x3fdaedaa	1.7103779
97	0xbf17fcc2	-0.5937005
98	0xbe58fd58	-0.21190393
99	0xbf25a16e	-0.6469945
100	0x3f4cae0b	0.7995307
101	0x3e09507e	0.13409612
102	0xbe6347fb	-0.22195427
103	0xbe790fdb	-0.24322455
104	0x3f4c214e	0.7973832
105	0x3eb7561f	0.35807893
106	0xbe82289b	-0.25421605
107	0xbd860ded	-0.06545625
108	0x3e84faf2	0.25972706
109	0xbd1f1bf4	-0.038845018
110	0xbde18afd	-0.11012838
111	0xbe7548de	-0.23953578
112	0x3e1d3e08	0.15355694
113	0xbda895fb	-0.082317315
114	0xbdc6fe00	-0.097164154
115	0x3e5884e6	0.21144447
116	0xbced3317	-0.028955026
117	0xbef37b76	-0.4755513
118	0xbf06962b	-0.5257289
119	0xbf42f82d	-0.76159936
120	0xbc72ea21	-0.0148263285
121	0x3e3c5b83	0.18394284
122	0xbc978ad3	-0.018498814
123	0x3e4376a3	0.19088225
124	0x3eaf46a2	0.34233576
125	0xbeacb3d8	-0.3373096
126	0x3e913e8f	0.2836804
127	0xbe8cecb3	-0.27524337
128	0x3fcf00ed	1.6172158
129	0xbf5a05cf	-0.85165113
130	0xbe8ae14f	-0.27125022
131	0xbf5e97cb	-0.8695037
132	0x3d99f396	0.075171635
133	0x3edd6a8f	0.4324536
134	0xbe99c59d	-0.3003358
135	0xbe68a056	-0.22717413
136	0xbf1e48b1	-0.6182967
137	0x3f93c352	1.1543982
138	0x3e9c6d91	0.30552343
139	0xbe071590	-0.13191819
140	0x3f0e3169	0.55544144
141	0x3f14730c	0.5798805
142	0x3f12e6bb	0.57383317
143	0xbee92367	-0.45534822
144	0xbc8f3ad0	-0.017484099
145	0xbdac7dce	-0.08422433
146	0xbd9c7ac2	-0.07640602
147	0x3d99a315	0.075018086
148	0x3cd2a62e	0.025714006
149	0x3e44c73b	0.19216625
150	0x3de837c4	0.113387614
151	0xbdef58b0	-0.11686838
152	0x3b0923b9	0.0020925833
153	0x3dfeefaf	0.1244806
154	0xbeb0c6e3	-0.3452674
155	0xbd1cf2c4	-0.038317457
156	0xbc4394e7	-0.011937357
157	0x3e1164ae	0.14198563
158	0x3e0d285e	0.1378493
159	0x3e20f12a	0.15716997
160	0xbf149dc2	-0.5805322
161	0xbf26b14f	-0.651143
162	0x3f2175d3	0.6307041
163	0xbe124866	-0.1428543
164	0xbeb6d849	-0.35711887
165	0xbf034460	-0.51276207
166	0xbceb3b79	-0.028714882
167	0x3f420c60	0.7580013
168	0xbee1b074	-0.44079936
169	0xbd989d85	-0.074519195
170	0x3f2fe545	0.6870921
171	0x3f65e9f4	0.8981011
172	0xbe866211	-0.26246694
173	0x3e4f561c	0.20247692
174	0xbd7871a9	-0.06065527
175	0xbe7943d1	-0.24342276
176	0xbde90b28	-0.11379081
177	0xbdfb1dfd	-0.12261579
178	0xbd1124b9	-0.035435412
179	0xbd4ca51a	-0.04996214
180	0xbe1caf4f	-0.1530125
181	0xbd9273b4	-0.07150975
182	0x3e200759	0.15627803
183	0x3e129bb9	0.14317216
184	0x3e62e501	0.2215767
185	0x3e4ec7ea	0.20193449
186	0xbe1bd9d7	-0.15219818
187	0x3cf2b3b6	0.029626708
188	0x3e81dfb1	0.25365975
189	0x3e262218	0.16223943
190	0xbdea723e	-0.11447571
191	0x3dddb5c9	0.108256884
192	0x3ee22142	0.44166
193	0x3f707405	0.9392703
194	0x3f2ddc2c	0.6791408
195	0x3f04db40	0.5189705
196	0xbe9c26ae	-0.3049826
197	0x3fa5e708	1.296113
198	0x3f807133	1.0034546
199	0x3f6626b0	0.8990278
200	0x3e2ef892	0.1708701
201	0x3f45b71c	0.7723253
202	0x3f574d41	0.84102255
203	0x3f1b30c4	0.60621285
204	0x3e4c6b0a	0.19962707
205	0x3ecfeeca	0.4061187
206	0x3e4d9e1a	0.20079842
207	0x3ea0f69a	0.31438142
208	0x3e59bee1	0.21264221
209	0xbcbc9246	-0.023018967
210	0x3e6ef1ce	0.23334429
211	0x3d27f1a7	0.041001942
212	0x3dcd8011	0.10034192
213	0xbe80b9a6	-0.2514164
214	0xbe1665e0	-0.146873
215	0xbe228de4	-0.1587444
216	0x3eaf05a8	0.34184003
217	0x3c39a24b	0.011330198
218	0xbe89c486	-0.26907748
219	0x3cfbb650	0.030726582
220	0x3cd2d16a	0.025734622
221	0x3c66d47a	0.014088744
222	0x3e6d1487	0.23152362
223	0x3e3af754	0.1825841
224	0xbed5c0a7	-0.41748545
225	0xbedc6bb0	-0.4305091
226	0x3d0a7291	0.033800665
227	0x3e25f04e	0.1620495
228	0xbeca6b45	-0.39534965
229	0xbe7be83a	-0.24600306
230	0xbec98f57	-0.39367172
231	0xbf10f74b	-0.5662734
232	0xbec63680	-0.38713455
233	0xbf26e1ad	-0.65188104
234	0xbe8962fc	-0.26833332
235	0xbf07f939	-0.5311466
236	0xbe59c4c3	-0.21266465
237	0xbe8c056c	-0.27347887
238	0xbdc19999	-0.094531246
239	0xbf04dc0b	-0.5189826
240	0xbe5e82b0	-0.21729541
241	0xbd9c00d0	-0.076173425
242	0xbe73d5a0	-0.2381196
243	0xbd2833c2	-0.041064985
244	0x3e11a1ee	0.14221928
245	0x3e13461d	0.14382215
246	0x3e1333c0	0.1437521
247	0xbccf6086	-0.02531458
248	0x3cd779bf	0.02630317
249	0x3e3d6b61	0.18497993
250	0x3dde13b4	0.10843602
251	0x3e0e514b	0.13898198
252	0x3e7aedd1	0.24504782
253	0x3e3914f8	0.18074405
254	0xbd77e5df	-0.060521957
255	0x3db9c41e	0.090706095

conv1.bias f4 [16]
0	0x3e9c2244	0.30494893
1	0xbaaf548e	-0.001337664
2	0xbd663f41	-0.056212667
3	0x3e05f918	0.13083303
4	0x3e5a9131	0.21344449
5	0x3e86e569	0.263469
6	0x3b375337	0.0027973184
7	0x3e64a8c2	0.22330001
8	0x3e05a383	0.13050656
9	0x3e49c759	0.19704951
10	0x3ea6e7b2	0.32598644
11	0x3d8b2a61	0.067951925
12	0xbc6e1ff2	-0.014533984
13	0xbe0aed65	-0.13567121
14	0x3dea7a52	0.11449112
15	0xbc1193c9	-0.008885332

conv2.weight f4 [32, 16, 4, 4]
0	0xbd87f3f3	-0.066383265
1	0xbd16500a	-0.036697425
2	0x3d5c0bf5	0.05372234
3	0x3de4fa07	0.111805014
4	0xbe68ed7e	-0.22746846
5	0xbeb2c16b	-0.3491319
6	0x3e2905c3	0.16506104
7	0xbda5565e	-0.08073114
8	0xbebf4649	-0.3735831
9	0x3d19602a	0.037445225
10	0x3e90bab9	0.28267458
11	0xbcf88f4f	-0.030341772
12	0xbe0a8f69	-0.13531269
13	0x3eab07d2	0.33404404
14	0x3e03a2df	0.12855099
15	0x3d32e7c4	0.04367806
16	0x3e12b91c	0.14328426
17	0x3e1084f3	0.14113216
18	0xbd81751b	-0.06321164
19	0x3e4b98e3	0.1988254
20	0xbe157efd	-0.14599223
21	0xbd856711	-0.06513799
22	0x3e5db535	0.21651156
23	0xbf23d91b	-0.6400315
24	0xbbd050b8	-0.0063572787
25	0x3edb9f0b	0.42894778
26	0x3e55fde7	0.20897637
27	0xbea47296	-0.32118672
28	0x3e5a63ef	0.21327184
29	0x3f06667d	0.52500135
30	0xbddb935b	-0.10721465
31	0xbd7dcf98	-0.061965555
32	0xbebd0be4	-0.36923134
33	0x3db8955d	0.09012864
34	0xbf09fefa	-0.5390469
35	0x3f827f52	1.0195105
36	0xbdc0272b	-0.09382471
37	0x3de85cd5	0.11345831
38	0x3e97e112	0.29663903
39	0xbe4db5e2	-0.20088914
40	0xbe2448bc	-0.16043371
41	0xbf401d17	-0.7504439
42	0x3eed61fd	0.46363822
43	0x3e1bc55e	0.15212008
44	0xbf08439e	-0.53228176
45	0x3e2be62e	0.16787025
46	0xbd8fc42b	-0.07019838
47	0xbe0ce615	-0.13759644
48	0x3e69a8ad	0.22818251
49	0x3f271a12	0.65274155
50	0xbe28156c	-0.16414422
51	0x3e555ef6	0.20837006
52	0x3e073372	0.13203219
53	0x3e9d203c	0.30688655
54	0xbef67f08	-0.48143792
55	0xbd2509a8	-0.040292412
56	0x3ed90139	0.42383745
57	0x3ee0fbd2	0.43942124
58	0xbea10b52	-0.3145395
59	0x3e2f3bff	0.1711273
60	0x3e2f2ebd	0.17107673
61	0x3ecd33a7	0.4007847
62	0xbe273753	-0.16329698
63	0xbbf7a056	-0.0075569553
64	0x3ee605a5	0.4492618
65	0x3caa00d5	0.02075235
66	0x3c90ec21	0.01769072
67	0x3e3c65f4	0.18398267
68	0x3f053c81	0.52045447
69	0xbe38e1a0	-0.18054819
70	0x3ae55dad	0.0017499231
71	0x3e31293f	0.1730089
72	0x3eddbc0c	0.4330753
73	0xbe53ac80	-0.20671272
74	0xbddf0133	-0.108889006
75	0xbdf9e92a	-0.12202676
76	0x3b4f009e	0.0031586061
77	0x3dc9f0c2	0.09860374
78	0xbe5715ef	-0.21004461
79	0xbdc29c33	-0.09502449
80	0xbe4ab973	-0.19797306
81	0xbec7cd2a	-0.39023715
82	0x3ee76bce	0.45199436
83	0x3db8c75a	0.09022398
84	0xbe68a118	-0.22717702
85	0x3cbb8c37	0.022894008
86	0x3eae6025	0.34057727
87	0xbca02adc	-0.019551687
88	0xbe9a9129	-0.30188873
89	0x3c875c22	0.016523425
90	0x3d1d4c81	0.038403038
91	0x3d971fa5	0.073790826
92	0xbecb0813	-0.39654598
93	0xbe215ad3	-0.15757303
94	0x3c7f7fd1	0.015594439
95	0x3dc59ccf	0.096490495
96	0x3f0f9059	0.5607963
97	0xbf11c075	-0.5693429
98	0x3c6f8b2b	0.014620583
99	0x3d173c36	0.036922656
100	0x3ed4c049	0.41552952
101	0xbf008832	-0.5020782
102	0xbdfed0e4	-0.124421865
103	0x3e81fcbd	0.25388137
104	0x3f0d5e24	0.5522177
105	0xbe4217e9	-0.18954434
106	0xbdffd817	-0.12492388
107	0x3d6b0092	0.05737359
108	0x3f22bf75	0.6357339
109	0xbed08d34	-0.4073273
110	0xbe6624a7	-0.2247492
111	0x3d874029	0.066040345
112	0x3b97fe0f	0.0046384404
113	0xbe135821	-0.14389087
114	0x3e47f94f	0.19528697
115	0x3db085be	0.08619259
116	0x3cd77958	0.026302978
117	0xbe4648d9	-0.19363727
118	0x3def98bc	0.11699054
119	0x3d845b51	0.0646273
120	0xbdf7fc15	-0.12108628
121	0xbe6b20b8	-0.229617
122	0x3d7550ea	0.05989162
123	0x3d949e36	0.07256739
124	0xbd039049	-0.032120023
125	0xbc8014b2	-0.015634868
126	0x3d58c46e	0.052921705
127	0x3d922308	0.07135588
128	0x3e10b499	0.14131393
129	0xbee4db97	-0.44698784
130	0x3eba5938	0.36396194
131	0x3cf9d9a1	0.030499281
132	0x3e365668	0.17806399
133	0xbe9ac211	-0.30226186
134	0x3eaa198e	0.33222622
135	0x3db53632	0.088482276
136	0xbf08ebf1	-0.5348502
137	0xbd97ca48	-0.07411629
138	0x3d417ca5	0.04723801
139	0xbd2e2f0e	-0.042525344
140	0xbeb73200	-0.35780334
141	0xbdd51a4b	-0.104054056
142	0x3d7405e3	0.059575927
143	0xbd580476	-0.05273863
144	0x3cb6e7e9	0.02232738
145	0xbe13f223	-0.14447837
146	0x3e11ddca	0.14244762
147	0x3c9ea9ee	0.019368138
148	0x3d60e461	0.0549053
149	0xbe7add6c	-0.24498528
150	0x3e26db58	0.1629461
151	0x3e096eb2	0.13421133
152	0xbde71a84	-0.11284354
153	0xbcc1a50f	-0.023638276
154	0x3d533d8a	0.05157236
155	0x3c0eedd3	0.008723694
156	0xbe2eb00b	-0.17059343
157	0xbd951fe7	-0.072814755
158	0x3cd4e2fd	0.025987143
159	0x3cd9f58c	0.026606344
160	0xbe9643e0	-0.2934866
161	0xbf13c4ad	-0.5772198
162	0x3e4597f8	0.19296253
163	0x3e351a04	0.17685705
164	0xbe620ed0	-0.22075963
165	0xbed548d5	-0.4165713
166	0x3e7c0246	0.24610242
167	0x3dd3bf75	0.10339252
168	0xbe0fce20	-0.14043474
169	0xbea4ecdb	-0.32211956
170	0x3e8e9379	0.27846888
171	0x3e740009	0.23828138
172	0xbdeacfd1	-0.11465419
173	0xbe08d808	-0.1336366
174	0x3d261e43	0.040556204
175	0x3ccaf792	0.024776254
176	0xbd1f563c	-0.0389006
177	0xbef71f25	-0.4826595
178	0xbc48d9b9	-0.01225894
179	0xbe697a62	-0.22800592
180	0x3cde760c	0.027155899
181	0x3def10d9	0.11673135
182	0xbd7063b0	-0.05868882
183	0x3e685313	0.2268794
184	0x3f1e1b6f	0.6176061
185	0x3e272d0a	0.16325775
186	0xbeaddcd6	-0.33957547
187	0x3ed7504f	0.42053458
188	0x3f0409b9	0.51577336
189	0xbe4ee1e1	-0.20203353
190	0xbe2409d3	-0.16019373
191	0xbd000594	-0.03125532
192	0x3f665e4c	0.89987636
193	0xbee9cf0a	-0.4566577
194	0x3ded1929	0.115770645
195	0xbeb5b51d	-0.3548974
196	0x3d22300b	0.0395966
197	0xbd631154	-0.055436447
198	0x3ebf2db5	0.3733956
199	0xbe5db4e1	-0.21651031
200	0xbd3c0095	-0.045898993
201	0x3edc85ce	0.43070835
202	0xbe14904c	-0.1450817
203	0xbf0abdf3	-0.5419609
204	0x3f8b6d8c	1.0892806
205	0x3c48e6ba	0.012262041
206	0xbe0b19a7	-0.13584004
207	0x3eb46ee9	0.35240868
208	0xbe4c5446	-0.19954023
209	0xbeb569c9	-0.3543227
210	0xbe88fcc4	-0.26755345
211	0x3f47c5bd	0.780361
212	0xbdab68cf	-0.083696
213	0xbd2b8832	-0.041877933
214	0xbc8eeefc	-0.017447941
215	0x3d8969c8	0.06709629
216	0x3e450a64	0.19242245
217	0xbf0707ce	-0.52746284
218	0x3f09e537	0.5386538
219	0xbe189f28	-0.14904463
220	0xbdefcc9c	-0.11708948
221	0x3c9cd0af	0.019142477
222	0xbe683c5e	-0.22679278
223	0xbe169d65	-0.14708479
224	0xbd38b5b4	-0.04509516
225	0xbe17ec16	-0.14836153
226	0x3d15583c	0.0364611
227	0x3e06b303	0.13154225
228	0xbde21557	-0.110392265
229	0x3bf5f461	0.007505939
230	0xbd7488cb	-0.05970077
231	0x3d5d587c	0.054039463
232	0x3dc6a9d5	0.09700362
233	0xbd28eb19	-0.04123983
234	0x3d84f07a	0.0649118
235	0x3cec724d	0.028863097
236	0x3d924faa	0.07144101
237	0xbdbf09d2	-0.09328045
238	0x3e15c954	0.14627582
239	0x3d9628e0	0.07332015
240	0x3f8053de	1.0025594
241	0xbe894cbe	-0.26816362
242	0xbf2a121c	-0.6643388
243	0xbe46caec	-0.19413346
244	0x3eff759b	0.49894413
245	0x3c9a41e3	0.018830245
246	0xbeddf775	-0.43352857
247	0x3df39f6d	0.118956424
248	0x3f0a2bc1	0.53973013
249	0x3ecc07ad	0.39849606
250	0xbe966cdd	-0.2937993
251	0x3de8b1ea	0.113620594
252	0x3f4aa230	0.7915373
253	0xbe3631a6	-0.17792377
254	0x3c9f2501	0.019426825
255	0x3cdaf48f	0.026727943

conv2.bias f4 [32]
0	0x3dc0c6c7	0.09412914
1	0x3d9ef38b	0.07761296
2	0xbd65f00a	-0.056137122
3	0xbbb21f9b	-0.0054358966
4	0x3dad5b2c	0.08464655
5	0x3e162963	0.14664225
6	0xbd6c2f3b	-0.05766223
7	0x3a6edade	0.0009111593
8	0x3deb5f52	0.1149279
9	0xbdd2c4bd	-0.10291431
10	0x3c4f8e5c	0.012668218
11	0x3e07004e	0.1318371
12	0x3d4056ad	0.04695766
13	0x3e003e94	0.12523872
14	0xbd73cd4c	-0.05952196
15	0x3e027bea	0.12742582
16	0x3c825c3a	0.015913118
17	0x3dcc1f46	0.099669024
18	0x3ce9ae26	0.028525423
19	0x3d8be978	0.0683164
20	0xbc51b09e	-0.0127984565
21	0x3d944f62	0.072417036
22	0x3dea5264	0.11441496
23	0xbc23cf15	-0.009998103
24	0x3d9c3351	0.07626975
25	0x3cadc6f4	0.021213032
26	0x3e0709d3	0.13187341
27	0xbccc879c	-0.024967007
28	0x3dad45da	0.08460589
29	0x3e0543af	0.130141
30	0x3dd0a677	0.10188001
31	0x3b02d2e8	0.0019962136
