saved_models/dqn_checkpoint_ep300.pth (torch, 981377 bytes, 32 tensors)

conv1.weight f4 [16, 2, 4, 4]
000000 6f a5 1d be c5 bb da bd 6c b7 c8 be 8f a5 43 bf
       -0.15395139 -0.106803454 -0.3920244 -0.764245
000010 92 8b 96 be c0 76 12 bf a9 31 01 be 4b 62 f7 be
       -0.2940336 -0.5721245 -0.126166 -0.4831718
000020 93 74 7c be 89 b4 fb be 2d b6 05 be 9c 9c bf be
       -0.24653845 -0.49161175 -0.13057776 -0.3742417
000030 aa db c1 be 46 f3 a0 be 56 31 de bd 0a cc 21 be
       -0.37862903 -0.31435603 -0.10849254 -0.15800491
000040 cf 34 7a bd 12 d9 88 bd 86 8f 10 3e 8a e5 e6 3c
       -0.06108552 -0.06682028 0.1411725 0.028185625
000050 1e a6 b7 3d 69 ae b9 3d 6c 72 20 be 79 3b 05 3c
       0.08967231 0.09066469 -0.15668648 0.008131855
000060 c2 6e 9d 3d d6 c3 a3 bd d6 c0 d2 bd 2d 2f 68 be
       0.07687141 -0.07996337 -0.10290687 -0.22674246
000070 52 d1 3d be 64 08 fe bd 0b 75 13 3e c5 f9 e1 bd
       -0.1853688 -0.12403944 0.14400117 -0.11033968
000080 17 fb 29 bd b7 bd 0f bf 6a ba db be 68 ae 04 bf
       -0.041499224 -0.56148857 -0.4291566 -0.5182862
000090 06 7a 0e bd 2b d7 99 be 17 1d d9 be 49 f0 7a be
       -0.03478434 -0.30046973 -0.42405006 -0.24505724
0000a0 28 2c 4e be 3a 3a df be 51 f3 1a 3b 06 7a 40 be
       -0.20134032 -0.4359911 0.0023643563 -0.18796548
0000b0 65 90 09 be 0a 08 bf be b7 c9 1a be 29 55 10 be
       -0.13433988 -0.3731082 -0.1511601 -0.14094986
0000c0 d4 6d 3a be 8d 14 20 bb 7c de fe 3d 2a 67 c4 bd
       -0.18205959 -0.0024426312 0.12444779 -0.095899895
0000d0 c8 b4 08 3e ae 72 0c be 05 d0 36 be 47 b4 12 be
       0.13350213 -0.13715622 -0.1785279 -0.14326583
0000e0 a3 f5 f4 3d 54 00 88 be 34 10 95 be 92 61 04 be
       0.11960914 -0.2656275 -0.29113925 -0.12927845
0000f0 75 7c 93 bb 4e eb 97 3c 5f 22 3b be cb 13 33 be
       -0.0045009204 0.01854482 -0.1827483 -0.17488019
000100 bb 0b d9 3d d7 ae 3a bc 0e 8d 3b be a1 de 2e 3f
       0.105979405 -0.011394224 -0.18315527 0.68308455
000110 74 6c 0f bf a0 4b 90 3b ff 9b c6 3e 20 60 22 3f
       -0.5602486 0.0044035465 0.3879089 0.63427925
000120 b0 19 aa 3e 52 b4 99 3e 38 55 e4 3e 07 da 22 3f
       0.33222723 0.30020386 0.44596267 0.63613933
000130 92 38 81 be ae e4 a7 3e 43 f1 10 3f d3 13 83 3f
       -0.25238472 0.32791656 0.56618136 1.0240425
000140 fc 70 8b bd 36 df e6 bd cd 9d 53 3d 59 b2 10 be
       -0.068086594 -0.11273043 0.051664162 -0.14130534
000150 bd a7 84 bc 82 e1 4f 3d 7f 5c 49 be 78 71 c6 be
       -0.016193265 0.05075217 -0.1966419 -0.38758445
000160 21 fd 4d be e0 1a 39 3d 57 8e 45 bd 79 b2 04 be
       -0.20116092 0.045191646 -0.04823145 -0.12958707
000170 44 3c 7c bd 97 35 49 bd f5 46 9a bd e6 10 8f 3d
       -0.06158091 -0.049123373 -0.07533065 0.06985645
000180 cd 7a 49 3f 04 40 49 3f d6 a3 23 3f 42 37 c6 3f
       0.78703004 0.78613305 0.6392187 1.5485613
000190 40 6b a4 3e f6 b6 9a 3e cd df 18 3f b5 a4 16 3f
       0.32113075 0.30217713 0.5971649 0.58845073
0001a0 09 ef ac 3e 4d ad c4 3e 1e 60 35 3d fa 55 3b 3f
       0.3377612 0.38413468 0.044281118 0.73178065
0001b0 54 93 90 3e 72 16 bb 3e 25 62 29 3f b9 48 42 3f
       0.28237402 0.36540562 0.6616538 0.75892216
0001c0 c2 c3 4f bb 33 54 d3 bc 6a 12 4f 3e 19 28 36 bc
       -0.0031702374 -0.025796985 0.20221868 -0.011117958
0001d0 02 b0 ac bb 2d e2 d6 bd d9 eb 8b bd 1a b0 04 bd
       -0.005270005 -0.10492358 -0.06832094 -0.032394506
0001e0 25 99 38 3e d2 68 88 bc c6 1f e3 bc 3d 80 93 bd
       0.1802717 -0.016651545 -0.027725112 -0.07202194
0001f0 8d 8c 4c bd 28 2f ff 3d 29 c5 06 3e 9a c2 64 be
       -0.049938727 0.12460166 0.13161148 -0.2233986
000200 c0 c2 3e bd b9 af e0 3f cb 11 da 3f 14 a6 de 3e
       -0.046572447 1.7553626 1.703668 0.43486083
000210 52 30 22 be 0e ef 68 3f 65 a3 6f 3f 7f e9 58 3f
       -0.15838745 0.9098977 0.93608695 0.84731287
000220 3a 9b 1f 3f bb c2 b3 3e 04 ec 87 3e bc 04 f0 3e
       0.6234623 0.35109505 0.26547253 0.46878612
000230 8b f2 08 3f 4d 3f 02 3f 6f 28 da be 5f 59 23 bc
       0.5349509 0.5087784 -0.42608973 -0.009970038
000240 61 c9 d6 3d 71 b6 b5 be da 06 d7 3d 28 92 05 3d
       0.10487629 -0.35490754 0.10499354 0.03261009
000250 93 d3 a8 3d 7e 4a 31 3e 4b db a9 bd 4b 3a 02 be
       0.082434796 0.17313573 -0.0829378 -0.1271755
000260 5e 77 3e 3e 18 e2 04 be d4 5e e7 bd 33 2d 3b 3b
       0.18600222 -0.12976873 -0.11297384 0.0028560876
000270 4b 8f a3 3c 2f 70 cd 3c 0a d0 f6 3d 0c 17 da 3c
       0.019965788 0.025077907 0.12051399 0.026622318
000280 c2 4a ff 3e 2c e4 9f bc 2d ad 3b bf c6 75 bc 3f
       0.49861723 -0.01951798 -0.7331112 1.4723442
000290 0a fb 8e bd a9 94 9f be 46 49 a1 3e 35 2e 63 3f
       -0.06981476 -0.31168106 0.31501216 0.8874238
0002a0 50 bf 74 bd 11 44 d4 3d 07 e8 75 3d c1 a0 23 3f
       -0.059752762 0.10364545 0.06003573 0.63917166
0002b0 10 52 e3 3e a9 77 14 3f 5b af c4 3e 70 a1 3b 3f
       0.44398546 0.57995087 0.38415036 0.7329321
0002c0 21 1d 1c bc 4e 55 0c bd 23 56 d8 3d d6 aa 9c be
       -0.009528429 -0.03426104 0.10563304 -0.30599087
0002d0 da 9f 16 3d 89 5a 7c be 8c 83 32 bd e7 ec 6e bd
       0.03677354 -0.24643911 -0.043582484 -0.058331396
0002e0 5a b0 27 be 52 22 4a bd 0e 88 de 3c 91 3e 96 be
       -0.16375867 -0.049349137 0.027164485 -0.2934461
0002f0 a4 21 82 3d cd d2 fa 3d 04 77 48 be 51 a1 cf 3c
       0.06354073 0.12247238 -0.19576651 0.025345476
000300 2c a1 ef be b5 ba cd bc 14 97 15 be b3 1b 5c 3c
       -0.46802652 -0.025113443 -0.14608413 0.013434338
000310 73 22 08 bf ed 9c bb be d0 c9 f5 be c3 c2 cf be
       -0.53177565 -0.36643162 -0.48005533 -0.4057828
000320 41 8b 75 be 8e fc 1c bd 08 75 20 be 0c 73 b3 3d
       -0.23978902 -0.038326792 -0.15669644 0.08762178
000330 cc af 9f be d8 4a a7 be 36 9b f7 be 01 4e 89 ba
       -0.3118881 -0.3267429 -0.48360604 -0.0010475517
000340 50 b9 6f bd 28 07 1c be 50 df 2a 3d 1a e0 7d 3c
       -0.058526337 -0.15237105 0.041716874 0.0154953245
000350 2f 2b fb bd d6 5e ef bd c3 77 59 be b4 8c 21 be
       -0.12264096 -0.116880104 -0.21237092 -0.1577633
000360 48 b4 7b 3d c5 1f 74 3e cb 90 ec 3c 21 cc 89 be
       0.061451226 0.23840244 0.028877636 -0.2691355
000370 2d 35 6e be 16 59 14 3e b9 aa e7 bd 8c 3d 85 be
       -0.23262472 0.14487109 -0.1131186 -0.2602352
000380 b7 3b b6 be b4 b6 b4 be 86 66 ba be 2a 27 0b be
       -0.35592434 -0.3529564 -0.36406344 -0.13589159
000390 de 4d b7 be c5 02 4e be 22 2a 1c 3e 6c 87 df be
       -0.35801595 -0.20118244 0.15250447 -0.43658006
0003a0 d8 09 ed bc eb 6d 24 be ab 2c 3f be 29 f7 34 be
       -0.028935358 -0.16057555 -0.18669383 -0.17672409
0003b0 8a a4 83 be 6f 94 d8 be 38 93 61 be 5b f2 ea be
       -0.2571147 -0.42300746 -0.22028816 -0.45888028
0003c0 b3 30 e7 3d 18 61 d6 3c a4 67 7d 3d f0 be 06 3e
       0.112885855 0.026169345 0.061866418 0.13158774
0003d0 9e 71 8c bd d1 06 86 be 51 25 94 be 9c 7e 3b be
       -0.06857608 -0.26177076 -0.2893472 -0.18310016
0003e0 1e cc 67 bd 67 ba 30 bd f2 d8 2e 3d e2 63 0c 3c
       -0.056591146 -0.043146517 0.042687364 0.008568736
0003f0 44 3a 55 be ee bc 0d bd de 93 56 bd c6 60 1e be
       -0.20823008 -0.034604006 -0.05238711 -0.15466604

conv1.bias f4 [16]
000000 49 f5 6c 3e d5 8e fc 3d 43 c8 66 3e 68 a9 e3 3d
       0.23140444 0.123319305 0.22537331 0.11116296
000010 c0 33 e7 bd d9 6a 81 3e 09 aa 48 3e f5 86 13 3e
       -0.112891674 0.2527683 0.19596113 0.14406951
000020 c3 fd 3e 3e 70 27 c5 3d 61 2a c7 3d c6 83 b5 ba
       0.1865149 0.09626663 0.0972488 -0.0013848476
000030 9c 89 76 3d bf 2d 03 be a0 b4 8f 3e 7a 53 1a 3e
       0.06018983 -0.1281042 0.28067493 0.15070906

conv2.weight f4 [32, 16, 4, 4]
000000 66 f6 01 bc 1f ae 4d bd e4 36 41 3d a5 8b 6a 3d
       -0.007932281 -0.050214883 0.04717149 0.05726208
000010 d8 3a 32 3d ce 47 8e bd 2e e6 a5 bc ac 8b 32 3c
       0.04351315 -0.069472894 -0.02025136 0.010897558
000020 5b 9d ad 3c b1 e9 89 bc 51 a9 75 bd 83 f1 c3 bb
       0.021193197 -0.016835066 -0.059975926 -0.005979718
000030 bc 87 a9 3d 2b 75 3f 3d 60 a2 77 bc b9 45 a2 3d
       0.082778424 0.0467426 -0.015114397 0.07923455
000040 71 bb 28 3d 04 63 8b bd 8c 2b 90 be d2 fe 26 3d
       0.041194383 -0.06805995 -0.28158224 0.04077036
000050 15 39 a8 bc 8d 1e 99 bd 9c 8c ac bc 61 a7 fc 3c
       -0.020535031 -0.0747653 -0.021063142 0.030841531
000060 16 c8 82 3d 39 ba 60 bd bd 71 b2 3c a7 38 30 bd
       0.063858196 -0.054865096 0.02178275 -0.043022778
000070 6e 37 56 bc f5 5f d2 3c 4e 0e 11 bc 30 c2 80 3c
       -0.013074739 0.025680522 -0.008853508 0.015717596
000080 55 a4 37 bd dd 3b 0d bd e5 b3 aa 3c 19 41 dd 3c
       -0.044834454 -0.03448092 0.020837734 0.02700858
000090 61 66 55 3c b9 b3 15 3d 9b ad c0 bc c3 01 9a ba
       0.013024897 0.03654835 -0.023520282 -0.0011749793
0000a0 2e 92 04 bd ed f6 96 3c 21 5c 25 3d 77 2e db bc
       -0.03236597 0.01842829 0.040371064 -0.026755555
0000b0 89 45 94 3d 8a af 00 bd ea 51 e7 bd 54 f8 5c bd
       0.07239825 -0.031417407 -0.11294921 -0.05394776
0000c0 67 4b ab bd a8 ef f5 bd 70 e1 ab bd 72 4a 67 bd
       -0.08363991 -0.120086014 -0.08392608 -0.05646748
0000d0 65 9b 42 bd 97 3f 81 bd 5b 6f 34 bd ec e6 6d bd
       -0.047511477 -0.06310957 -0.04405151 -0.058081552
0000e0 c9 4f 3d 3b e1 df 91 3c 61 37 bc bc 3a c0 52 be
       0.0028886667 0.01780695 -0.022975625 -0.20581141
0000f0 9b 97 6b 3d b2 77 3e 3d 47 c8 db bc 67 50 88 be
       0.05751763 0.04650087 -0.026828898 -0.26623842
000100 91 3d 1d bf e3 96 dc be 56 a1 98 be 76 04 08 bf
       -0.6142207 -0.43083867 -0.2981059 -0.53131807
000110 2d d7 01 bf ad 23 ec bd b2 c5 1d be 66 ee ff be
       -0.5071896 -0.11530242 -0.15407446 -0.4998657
000120 46 1a f0 be 4c e1 7d bd 2e 7a aa bd 98 a8 b4 be
       -0.46895045 -0.061982438 -0.08324085 -0.35284877
000130 fa d1 8a be d5 64 38 3d 6c ad 7d 3c 2c 7c e4 be
       -0.27113324 0.045018036 0.0154832415 -0.44625986
000140 18 c0 15 bc 5e 79 b0 3b 55 cc e1 bb 73 c2 15 be
       -0.009140037 0.005385562 -0.0068908134 -0.14624958
000150 54 e3 68 3c f2 01 88 3d 2b 49 db bc df 36 e2 3c
       0.0142143555 0.06640996 -0.026768288 0.027614055
000160 e9 f8 7e bd 34 e4 0c ba 17 1c 92 3d 8a 93 b7 3b
       -0.062249098 -0.0005374581 0.07134264 0.005602305
000170 92 e0 7c 3d c2 88 eb 3d cc 08 c8 bb f0 3c 1f be
       0.061737604 0.11500694 -0.0061045643 -0.1555059
000180 f1 17 38 3d 20 e1 ba 3c 30 9b dc 3d c9 e8 df 3d
       0.044944707 0.022812426 0.10771787 0.10933072
000190 3b ae ae 3c a0 02 4f 3c f3 81 bb bc fc 11 97 3d
       0.021323314 0.012634903 -0.022889113 0.07376477
0001a0 9a 1b a2 3d 05 d0 6e 3d 28 3d 06 3d 5c cc c4 3c
       0.07915421 0.05830385 0.032773167 0.024023227
0001b0 57 fa 71 3d 93 59 22 bd 0c 59 7f bd ff 9d 5c 3d
       0.059076633 -0.039636206 -0.06234078 0.053861614
0001c0 30 ec 04 bc 74 b8 f8 3c a8 3b 00 3c 6a 6f 5f bc
       -0.008112952 0.030361392 0.007826723 -0.013637403
0001d0 a3 28 6b 3d ce 1e 5e bc ad d3 1b bc c5 51 37 bd
       0.0574118 -0.013557149 -0.009510917 -0.044755716
0001e0 f3 42 ea 3d 1c 5e 73 3c ce 4a 88 bc 18 84 c2 3d
       0.11438551 0.01485398 -0.016637232 0.09497851
0001f0 67 6b 8a 3d 6c f9 22 bc 13 46 d6 bb e1 1b b3 bb
       0.067587666 -0.009947162 -0.006539115 -0.00546597
000200 28 39 f6 bb c6 80 88 ba 7a 90 41 3d 68 97 17 3d
       -0.007514138 -0.0010414354 0.047256924 0.037009627
000210 be 87 1e 3d 0f b6 32 bc 30 0a ec bd d4 57 5c bd
       0.038703673 -0.010907664 -0.115253806 -0.053794697
000220 df 77 7f bd 18 b1 93 3d a0 0d be 3c 51 57 bf 3c
       -0.062370177 0.07211512 0.023199856 0.023357065
000230 9e ce d7 3d 89 d7 2d bd d2 7b 33 3c ec c6 92 3c
       0.10537456 -0.04244188 0.010954814 0.017917119
000240 f3 45 e2 bd 42 9d 23 3d 31 ac c1 3c 84 36 6d bc
       -0.11048498 0.039944895 0.023641678 -0.01447833
000250 4d f2 41 be 64 ec 1e bd 50 f3 70 bd b3 02 63 bd
       -0.18940087 -0.03879966 -0.05882579 -0.055422496
000260 f8 58 3c be 3c df 4f be d8 5d 68 3d b0 0b 57 bd
       -0.18393314 -0.20300001 0.05673012 -0.05250138
000270 5b b7 2f be 88 8c 1a be 24 64 39 3e a7 ac a8 bd
       -0.17159788 -0.15092671 0.18104607 -0.08236056
000280 7d 99 bc 3b 88 47 2a 3d ff 59 58 bd 1a 10 f5 3d
       0.005755602 0.041572124 -0.052820202 0.11965962
000290 e3 c0 6a bc a8 eb 09 be a2 ab 1f 3d 67 ad 64 3c
       -0.014328214 -0.13468802 0.03898204 0.013957358
0002a0 ba d2 68 3d b8 2c 0c 3d 00 85 a8 bd 72 08 90 bb
       0.05684159 0.034222335 -0.08228493 -0.004395538
0002b0 3e f4 43 3c ed 1d 6e 3d 06 26 a2 bd 9f 1c 30 bc
       0.011960087 0.05813401 -0.07917409 -0.010749011
0002c0 6e ec 81 3d 1a 86 73 bd 6f fe 8a bd d0 4b 6c bd
       0.063439235 -0.05945406 -0.067868106 -0.057689488
0002d0 32 e6 dc bd 52 df c1 3d be 78 3a bd 54 79 a6 3d
       -0.10786094 0.09466423 -0.045525305 0.0812861
0002e0 7b 71 99 3c 0c fa ad be c2 76 fa bc b8 4c 27 bc
       0.01873087 -0.33979833 -0.030574206 -0.010211162
0002f0 33 d4 3d be 4c 46 f5 3c 58 78 60 3e 45 a7 ff 3c
       -0.18537979 0.029940747 0.21920907 0.03120769
000300 be a2 e4 3b 92 92 37 3d c4 3c c5 3d 13 39 0d 3d
       0.006977408 0.044817515 0.09630731 0.03447826
000310 33 45 06 bd 67 cd 4f bd c8 1d da 3c 4f 9d a4 bd
       -0.032780837 -0.050732996 0.026625529 -0.08037817
000320 af 11 95 3d 8a a8 1d 3c ca 5b 98 be 5a 13 33 3c
       0.072787635 0.009622702 -0.2975753 0.010929907
000330 e3 d0 07 be cf 43 50 bd 8c 3f ca 3d e7 ab 11 bd
       -0.13263278 -0.050845917 0.09875402 -0.03556433
000340 f7 60 3a be ad 5f 89 bd 22 1e d1 bd 8b 8f 04 bf
       -0.18201052 -0.06707702 -0.102108255 -0.5178153
000350 85 91 29 bd 75 85 eb bd 4f fa a3 bd b4 be 9d be
       -0.041398544 -0.11500064 -0.08006727 -0.30809557
000360 80 00 3c be 08 86 3e bd a0 35 df bd 48 80 97 be
       -0.18359566 -0.04651454 -0.108989 -0.29590058
000370 bb 4a 24 be 3b 47 26 bc e6 47 04 3d de 27 28 bf
       -0.16044132 -0.010148819 0.03229513 -0.6568583
000380 e1 1c e3 3d 1d 16 8a 3c 2c d1 20 3d 0d d9 b7 3d
       0.110894926 0.016856248 0.03926198 0.08976946
000390 4f 5a 8b bb be 6c 00 bd 3f a3 a7 3d 9b c7 14 bc
       -0.004252709 -0.031353705 0.081854336 -0.009080793
0003a0 a4 19 93 bc ab 51 46 3d 87 5b 83 3b c2 78 f7 3c
       -0.017956562 0.04841773 0.0040087136 0.030208949
0003b0 ff 03 db 3d 2f 9c 10 bd c9 e8 6a 3d 77 2a 84 3d
       0.106941216 -0.0353052 0.057350907 0.06453412
0003c0 0b 61 7a bc 02 b1 1f bd 83 b8 b7 bb 5f 03 e3 bb
       -0.015281926 -0.038987167 -0.0056067123 -0.006927892
0003d0 54 43 d4 3c 70 4b a7 bd a7 83 5f 3d a6 e2 8f bb
       0.02591101 -0.081686854 0.054568913 -0.0043910323
0003e0 17 21 f4 3d bc d2 ca bd 2a 36 25 bd 74 ae 31 3d
       0.11920374 -0.09903476 -0.040334858 0.043379262
0003f0 ff 38 a8 3d e4 96 f9 3d 7c c7 2a be 28 a7 fe bd
       0.08213996 0.12186983 -0.1667766 -0.12434226

conv2.bias f4 [32]
000000 3a a6 c7 3d d1 8a 20 3d a8 e4 8d bd e3 71 d1 3d
       0.09748502 0.039194886 -0.06928378 0.102268
000010 22 63 86 3d 0a 25 85 3c 81 6a a7 bd d1 c7 43 3e
       0.06561877 0.016253013 -0.08174611 0.19119193
000020 c0 63 bc bd 0c 6a 72 3b 02 53 9f bc 0d f0 06 3e
       -0.09198713 0.0036989478 -0.01944876 0.1317751
000030 e5 d6 f6 3c fb 07 a4 bd 27 e0 f7 3d 80 0a de 3d
       0.030131767 -0.08009335 0.121033005 0.108418465
000040 0c fb 74 3c 4c 38 c4 3b 25 e3 87 3d d5 33 92 bd
       0.014952432 0.0059881564 0.06635121 -0.071387924
000050 31 c9 f3 bc 98 44 e5 3d c8 f4 42 3b fe de c0 3d
       -0.029759021 0.11194724 0.0029747952 0.094175324
000060 83 3a dc 3d 1b 0e 23 bc c1 60 12 3e ed f4 14 3d
       0.10753348 -0.0099520935 0.14294721 0.036366392
000070 d2 12 45 3d 15 19 31 bd 92 f2 04 3e 69 a5 ca 3c
       0.04811365 -0.04323681 0.12983158 0.024737077

fc1.weight f4 [64, 800]
000000 92 1f 01 3c 53 b6 b8 3c 4e e5 20 bd f3 26 60 3c
       0.007881062 0.022547876 -0.039281182 0.013681161
000010 d8 3a df 3d d1 6c 41 3c 4b ee b3 3c 03 fa 3a bc
       0.108998954 0.011805729 0.021964213 -0.0114121465
000020 58 24 ed 39 9b 3e c4 3c c5 0f b2 3b b3 56 4f 3c
       0.0004523124 0.023955634 0.005434009 0.012654948
000030 36 40 10 bd 81 0f 0d 3d 79 6a 69 bb 9e e2 5e b9
       -0.035217486 0.034438614 -0.0035616441 -0.00021255991
000040 74 e6 38 3d 29 46 34 bd 8b 14 5c bd 5d 9f 99 3b
       0.045141652 -0.044012222 -0.05373053 0.004688187
000050 ec 66 db bd 97 47 a3 bc d0 d0 6e 3c 47 99 93 3c
       -0.1071299 -0.019931598 0.014576152 0.018017424
000060 df f9 cb 3d 88 24 6b bd eb bf 99 bd 30 c7 18 bd
       0.099597685 -0.057407886 -0.075073086 -0.037299335
000070 10 94 65 3c 6f d8 a2 3d 94 ca 8b bb 61 52 f3 bc
       0.014012352 0.07951438 -0.0042660926 -0.029702367
000080 49 0b d6 bc 99 bf a7 bd 91 02 34 bc e5 4d 36 be
       -0.026128428 -0.08190841 -0.01098694 -0.17803152
000090 73 1e 9c bd db e9 d0 bc b1 7f f6 3c 18 89 1a 3d
       -0.07622995 -0.025502136 0.030090185 0.0377284
0000a0 16 3d e7 3c 81 38 49 3c 94 c7 aa bd 3d e5 07 bd
       0.02822737 0.012281538 -0.08338848 -0.033177603
0000b0 ac 32 d4 3b b9 04 b8 bd 5e b8 e9 bd 76 b3 1a be
       0.006475767 -0.08985276 -0.114121184 -0.15107521
0000c0 73 a6 1b 3c 7b 89 0d 3d a0 a4 68 3b 89 9b 75 3c
       0.009500134 0.03455494 0.0035498515 0.014990696
0000d0 04 74 91 3b 5e 1e 06 bd 0f 0e 02 bc 9d 67 5f 3b
       0.004438879 -0.032743804 -0.007937922 0.0034088858
0000e0 2c 37 f6 3b f9 e6 a1 bc b3 36 12 bd a0 b8 f5 3b
       0.007513901 -0.019763457 -0.035696696 0.0074988157
0000f0 ab ed e0 3c b1 bf 17 3d a1 e9 24 3d ee 34 9e 3c
       0.027457079 0.037048046 0.04026187 0.019312348
000100 61 60 d4 3c 63 45 98 bc 4e ff 25 bc b8 9b 6c 3c
       0.025924863 -0.018587774 -0.01013167 0.014441423
000110 33 e4 0a bd 1c 64 9a 3c 8a 36 ad 3c 9e f1 59 3c
       -0.033909034 0.018846564 0.02114417 0.013302235
000120 ee ee bb bc fc c3 fc bc aa e1 96 bc ae 5f 02 bd
       -0.022941079 -0.030855171 -0.018418152 -0.03182953
000130 02 82 ba 3b 8c a7 50 3b cc 75 87 bc a4 31 7d 3d
       0.0056917677 0.0031838147 -0.016535662 0.06181492
000140 18 4f 2d 3d eb 82 88 3c 2c d0 f9 bc 5e f6 a8 bd
       0.042311758 0.016663989 -0.030494772 -0.08250116
000150 f2 6e d9 bb 53 c4 fe 3c b1 ee 17 b9 03 4f 0f bd
       -0.00663554 0.031099474 -0.00014489402 -0.03498746
000160 03 ce 28 bd b2 23 0d 3d 67 a4 9a bc b7 ce a2 bd
       -0.041212093 0.03445787 -0.018877221 -0.07949584
000170 41 63 51 bd 0c 57 71 3c 84 51 60 bc 09 6e 4e 3d
       -0.051120047 0.014730226 -0.01369131 0.050397906
000180 ab 34 27 bd 91 82 8b 3d 6f 86 e1 3c e9 a9 63 3d
       -0.040821712 0.06812013 0.027529923 0.05558196
000190 20 e4 39 bc 69 7f 8f 3c 7a a0 2d bd 10 0b e9 bc
       -0.011345893 0.017516809 -0.04238937 -0.028447658
0001a0 e4 33 28 3d 00 90 9d bb 13 e5 22 3d 97 a0 31 3c
       0.04106511 -0.004808426 0.039769243 0.01084151
0001b0 b2 7a 82 3b ba 00 5b bc f5 27 bd bd df 5b a3 bd
       0.0039819116 -0.013366872 -0.09236137 -0.079765074
0001c0 da 1f 54 bc db ab 12 bc eb 8e 38 bd 0d cb 0c bd
       -0.012947047 -0.008952106 -0.045058172 -0.03437333
0001d0 ec 31 54 bd 28 50 db bd 6d 90 56 3d f5 0b 40 bd
       -0.05180542 -0.10708648 0.05238383 -0.046886403
0001e0 32 82 31 3d 87 c8 10 bc e8 d9 7d bd 37 5f b0 bb
       0.043337055 -0.008836872 -0.06197539 -0.0053824442
0001f0 a2 f1 80 3d a3 ce 5a 3d e6 36 9b 3d 98 48 03 3e
       0.06296088 0.05341972 0.075788304 0.12820661
000200 fb 2e 2c 3e 1f 0a f3 3d 40 d3 b3 bc 10 19 a6 b9
       0.16814797 0.11867165 -0.021951318 -0.0003168066
000210 f0 29 4a 3d 91 dc 13 bc 77 15 02 3e 55 0f 34 be
       0.0493564 -0.009024755 0.127035 -0.17583974
000220 e3 b5 cc bd be 1c 99 3e 26 56 84 3d 60 aa d9 bd
       -0.0999563 0.2990474 0.06461744 -0.106281996
000230 91 c8 db be 5d e7 c7 be df 88 bd be 23 f4 79 bd
       -0.42926458 -0.39043704 -0.37018487 -0.061023843
000240 61 d8 b9 3d ca 78 4c be 4f ac 5b be d2 06 67 bd
       0.09074474 -0.19967952 -0.2145245 -0.05640299
000250 bf f7 51 3e e6 d6 43 3e 4d 64 17 3d 1a c8 06 bd
       0.20504664 0.19124946 0.03696089 -0.032905675
000260 d2 58 c0 3c b5 f5 87 bc f8 3d 9e 3c 90 c9 d3 3c
       0.023479853 -0.016596654 0.019316658 0.025852948
000270 b5 32 39 b7 bc 37 c7 bc f2 d3 db 3c 93 d7 6a bc
       -1.1038665e-05 -0.024318568 0.026834462 -0.014333623
000280 e8 da 2b bd d9 1d d4 bc 83 4a 4e bd 30 6a 3c bd
       -0.041956812 -0.025893139 -0.05036403 -0.045999706
000290 68 9d f5 3c ac 20 40 bd 86 40 05 3c e4 e6 1c bd
       0.029982284 -0.04690616 0.008133059 -0.038306132
0002a0 c9 8f 8b 3b 80 5a d4 3c 20 f2 19 3c 59 84 6c 3c
       0.004259084 0.02592206 0.009396106 0.014435851
0002b0 6f 29 89 3c a2 e8 c9 3c 53 c7 a7 3b 1a 64 e7 be
       0.01674339 0.02464706 0.005120197 -0.4519356
0002c0 d7 67 a5 be 95 ce 08 be af 0c 94 be b6 89 0e bf
       -0.32305786 -0.13360055 -0.28915927 -0.5567888
0002d0 51 49 10 be 5d 81 10 be ca 6d ce bd 2d 0e 07 3e
       -0.14090468 -0.14111848 -0.10079534 0.13189001
0002e0 06 8c e1 bd 98 8a 9a be 03 2a c9 bd d7 6c 25 be
       -0.110130355 -0.30183864 -0.09822466 -0.161548
0002f0 45 da 1f be 2f f6 01 be 54 8e a1 be de c8 40 be
       -0.15610607 -0.12691568 -0.315539 -0.18826625
000300 64 ba 93 bd 4e 0a 14 3e 21 1b 98 be e9 dc 9f bd
       -0.072132856 0.14457056 -0.29708198 -0.07805807
000310 a6 76 66 be 81 25 fe 3d ef 46 ee bc 09 c5 a0 be
       -0.22506198 0.12409497 -0.029086558 -0.31400326
000320 a8 45 03 3c 5c b5 b1 3c f3 e0 cc bc 37 8e db bc
       0.008012213 0.021692924 -0.025009608 -0.026801212
000330 d6 da a6 3c 91 87 00 3d 9f 69 85 bc 8e 68 ae 3c
       0.020368021 0.031379286 -0.016285716 0.02129009
000340 b2 76 e7 bc e8 c2 02 bd 2c 27 c1 3c 80 58 c0 3a
       -0.02825484 -0.03192416 0.023578249 0.0014674813
000350 40 74 4a bc 50 ad ad bc 34 cd 2a bc 2c 59 c6 bc
       -0.012356818 -0.021200806 -0.010424901 -0.024212442
000360 16 62 82 bc a0 e6 cb bc d4 4c 29 3c 00 d8 a0 37
       -0.015915912 -0.024890244 0.010333259 1.917407e-05
000370 56 ac 65 3c 34 13 92 3c f0 27 19 bb 20 f3 2e 3b
       0.014018139 0.017831422 -0.0023369752 0.0026695207
000380 00 de 15 ba 24 cc e0 bb 56 3b 9a 3a 50 3f 65 bb
       -0.00057169795 -0.006860273 0.0011766951 -0.0034980364
000390 b2 55 13 ba b4 65 d2 bc 26 0d dd bc 37 d2 ca bc
       -0.00056203746 -0.025683261 -0.026983809 -0.024758441
0003a0 d0 9b da 3b 82 5b 83 3b 32 e0 fd 3c de 5a bc bc
       0.0066714063 0.0040087113 0.030990694 -0.022992548
0003b0 60 0c 0a bd 58 bf d8 bb ca 2c f7 3c 00 7e 88 3a
       -0.033703208 -0.006614607 0.030172724 0.0010413527
0003c0 90 0c 76 3b 70 56 cd 3c d4 b3 c1 bc a8 15 68 bc
       0.003754411 0.02506563 -0.023645319 -0.0141653195
0003d0 5a 74 17 3d da 9f a8 3c a0 ec 58 3b b1 c2 ca 3c
       0.036976196 0.020584036 0.0033100024 0.02475104
0003e0 0d 05 d8 bc 40 d1 82 3c 58 8e 3e 3d 87 a4 8b bc
       -0.026369596 0.015968919 0.04652247 -0.017046226
0003f0 bb 26 3a 3d 92 b1 10 bd b6 f1 22 3c 8f a5 a6 3b
       0.045447093 -0.035325594 0.009945324 0.005085654

fc1.bias f4 [64]
000000 3e b5 a9 3d 81 ff a7 bd 10 26 48 bd cd d3 b3 3d
       0.08286522 -0.082030304 -0.048864424 0.08780632
000010 9a d9 b6 3d f9 67 ed 3c de 18 53 bc 74 45 84 3c
       0.08928223 0.028980242 -0.012884347 0.0161464
000020 19 94 2d bd ad ff 3e 3d 11 ee 6d bd 52 4f 1e 3c
       -0.042377565 0.04663055 -0.058088366 0.009662466
000030 ee 74 38 bd 60 09 de bc d9 32 7f bc 3c ee 6f bd
       -0.045033388 -0.02710408 -0.015576088 -0.058576807
000040 7a 95 d7 bc c7 af 1f bb 2f 13 6b bd 36 b9 13 bd
       -0.026316393 -0.0024366246 -0.05739134 -0.036065303
000050 b8 45 64 bd fe 4f 87 3d 4d 6b 96 3d e4 d4 2e bd
       -0.05573055 0.06607054 0.07344685 -0.042683497
000060 a2 9b f4 3d 01 62 53 bc 00 fb 24 3d db 67 48 bc
       0.11943747 -0.012901784 0.040278435 -0.012231792
000070 5e a3 79 bd 51 00 19 bc ef f0 76 bc 33 30 87 3d
       -0.060946815 -0.009338454 -0.0150720915 0.0660099
000080 ec 72 32 bd 3b 07 b4 3d e8 71 f5 3d 8a a6 22 bd
       -0.04356663 0.087904416 0.119846165 -0.039709605
000090 65 14 a0 3c 64 da a2 3d 5c a7 65 bd c5 9b c0 3d
       0.019540975 0.07951811 -0.05606781 0.09404711
0000a0 41 b2 0f bd fd 0a 5f bb 6f a1 4b 3a d3 e4 97 3d
       -0.035082106 -0.003403365 0.0007767891 0.07416692
0000b0 41 f4 34 bd a4 18 fa 3c 3f 6d b2 3c 8f 6a 3e 3c
       -0.04417825 0.030529328 0.021780608 0.011622085
0000c0 a2 a0 d8 3c 13 53 da bc c6 5f a2 3d 1e a9 59 bd
       0.026443783 -0.026650941 0.079284236 -0.0531398
0000d0 9d b8 0b 3d 2d e3 5a bc 0f 49 db 3d bf cf 4c bd
       0.034111608 -0.013359827 0.10707294 -0.05000281
0000e0 c0 a3 4f 3c 65 97 08 bd 69 c0 66 bd 47 f9 81 3d
       0.012673318 -0.033347506 -0.05633584 0.06346374
0000f0 79 f7 64 bd 00 b7 71 bb 80 d1 8b 3d 12 8a 22 bd
       -0.05590007 -0.0036882758 0.06827068 -0.039682455

fc4.weight f4 [8, 64]
000000 d0 78 be 3c df 71 bd 3d 9b 6e 32 3d 86 f9 c0 be
       0.023250967 0.09250235 0.043562513 -0.3769037
000010 d1 2f b6 bd df 64 96 bd e6 af 54 3c ec b3 f6 bd
       -0.08895839 -0.073434584 0.012981391 -0.12046036
000020 b6 8a a5 3d 86 a7 07 3d 25 0f 1d 3d 16 54 8e 3e
       0.08083098 0.033118747 0.03834452 0.27798527
000030 58 f6 d3 3c 27 84 32 3e f8 b7 3e bd 5d dc 16 3d
       0.025874302 0.17433225 -0.046562165 0.03683125
000040 ad 61 cb 3d 55 f4 0a bd 39 bc 9b bd f0 8a ab bd
       0.099307396 -0.03392442 -0.0760426 -0.083761096
000050 d8 9b f6 3d 16 3d 90 bd 55 63 cc be 95 93 26 3d
       0.120414436 -0.07042901 -0.39919534 0.04066809
000060 9d 48 88 3e c9 79 13 bd 47 ef a6 be 1c d7 25 bc
       0.266179 -0.036004815 -0.3260443 -0.010122087
000070 5e 9b c1 bd 00 c1 2c 3b 09 91 8d 3d b4 8e 7a 3c
       -0.09453462 0.0026360154 0.06912429 0.015292812
000080 54 c4 12 3d 0b 46 92 be bb 70 17 3e 80 5e 03 bd
       0.035831764 -0.28569064 0.14789097 -0.032072544
000090 5c 19 be 3d ff 00 9c 3e 2e 10 cc bd a7 1a 5c be
       0.09282181 0.3046951 -0.099640235 -0.21494542
0000a0 78 78 a6 3d 2d d6 d5 3c e9 fb b4 3d 61 db a6 3e
       0.08128446 0.026103104 0.088371105 0.32589248
0000b0 2b 40 69 3c 9b 3d 7c be de 6f 7f 3d b1 60 70 3d
       0.01423649 -0.24632876 0.062362544 0.058685962
0000c0 9b d7 90 3c be b2 a1 bd 33 eb 5a 3e 24 ea 9c bd
       0.017680934 -0.078954205 0.21378784 -0.07661846
0000d0 4e 9a 09 3d 09 e8 17 3d 25 8a 8e 3e ee ac 42 bc
       0.033594422 0.03708652 0.2783977 -0.01188205
0000e0 24 89 c0 3d 9e 2c bd 3d 60 1a 8a 3d d9 03 6d be
       0.094011575 0.09237026 0.06743312 -0.23145999
0000f0 60 b0 93 bd 6c d9 00 bd 5b 5e 1a be c8 e9 ea 3d
       -0.07211375 -0.03145735 -0.15075056 0.114703715
000100 45 49 a2 be f2 d3 e0 bb 76 0a f6 3d cd e3 06 bc
       -0.31696525 -0.0068612034 0.12013714 -0.008233023
000110 12 30 8e be e9 8f 2a be c0 62 33 bd 1c bb e3 3d
       -0.2777105 -0.1665646 -0.043795347 0.11119673
000120 44 a0 e3 3d 67 f1 0b 3e 46 9a b7 bd 21 58 83 3e
       0.111145526 0.13666306 -0.08964972 0.25653175
000130 20 ba 95 3c 0f 65 0f 3d e8 14 58 bd 3b a4 38 3d
       0.018277228 0.035008486 -0.052754313 0.045078497
000140 c7 b3 70 3d 20 c1 dd bd 0c 7f 53 bd 6e 20 0a be
       0.0587652 -0.10827851 -0.051634833 -0.13488933
000150 24 81 34 3d 1d 5a 34 3b db ec 87 be a8 48 fc bd
       0.04406847 0.0027519532 -0.26547894 -0.123185456
000160 44 70 a0 3e b3 84 9a 3c 1b 79 4b 3b 88 fe b6 bd
       0.31335652 0.018862104 0.0031047526 -0.08935267
000170 11 7a 47 bd d8 35 95 3d f9 fb 15 3e 86 1d a3 3d
       -0.048700396 0.072856605 0.14646901 0.079646155
000180 50 16 17 bd f2 b4 30 bd cd a4 6b 3e 14 44 62 bd
       -0.036886513 -0.043141313 0.23012085 -0.055240706
000190 ad f1 dd 3d 64 4c 18 bf a2 e2 e9 3d 65 b7 bb be
       0.108371116 -0.5949156 0.1142018 -0.36663356
0001a0 c9 24 bf bd 90 34 24 bd 5f a0 50 3d 67 92 24 3e
       -0.09333188 -0.04008919 0.05093419 0.16071473
0001b0 2b b4 75 3c ab b9 85 3e b9 c3 3e 3d 6c 66 04 3d
       0.014996569 0.26118216 0.046573374 0.03232424
0001c0 a8 0d f5 bc 13 81 9e bd cc 40 8e 3d a2 d6 f7 bd
       -0.029913738 -0.07739463 0.06945953 -0.12101485
0001d0 78 e9 da be 0f c0 f6 bd af 7a c9 bd 3c 52 9a bd
       -0.42756248 -0.12048351 -0.09837853 -0.07535216
0001e0 dc 33 e0 3c bc 14 6d 3d 68 d2 ef 3c 73 9e 58 3e
       0.027368478 0.057881102 0.029275134 0.21154194
0001f0 18 f6 dc 3c 80 98 c7 bd 19 df 1a 3e bc 5e cc bd
       0.026972815 -0.09745884 0.15124168 -0.09979007
000200 a1 69 5b be 98 cd 9a 3d 3c ff 1e 3d bc 0f a8 bd
       -0.21427013 0.07558745 0.03881763 -0.08206126
000210 54 90 be be e9 70 37 3e 55 5b 09 3d 68 e7 61 3d
       -0.3721949 0.17914166 0.033534367 0.055152327
000220 16 b3 b7 3d 25 7e 25 3e 37 50 88 3d 56 03 9f 3e
       0.08969705 0.16161402 0.06655925 0.31057233
000230 42 5d 77 bc ef de 06 be 04 32 f0 bd 0d 79 67 3d
       -0.015097918 -0.1317098 -0.1172829 0.056511927
000240 1d 1f aa 3d fb e6 d9 bd 0f f1 02 be 12 20 af bd
       0.08306716 -0.10639759 -0.12787269 -0.08551039
000250 30 58 a0 bc 0f 48 42 be 90 cd 38 be 4f 69 18 3d
       -0.019573301 -0.189728 -0.18047166 0.037209805
000260 3c 43 fc 3b 9d 8a a9 3d d0 22 bb bd 82 cf eb 3d
       0.0076984446 0.082783915 -0.09137499 0.11514188
000270 15 e8 a2 3d b4 03 ca 3d 00 9c 98 be 66 73 41 3d
       0.079544224 0.098639876 -0.2980652 0.047229193
000280 1c 28 94 bd 88 29 d1 be cf 64 00 3e f0 2b 00 3d
       -0.07234213 -0.40851998 0.12538455 0.031291902
000290 6a 25 ec bc 95 13 1b 3d 58 08 86 bc 87 00 fe bd
       -0.028826434 0.03786047 -0.0163614 -0.12402444
0002a0 a0 7d f5 bc d2 8c ae 3d 7b cf 1b bd 8f db 82 be
       -0.02996713 0.08522953 -0.038039666 -0.25558135
0002b0 e2 0e 08 3d a5 7e 90 be a8 74 ed 3d 93 56 8f 3e
       0.03321732 -0.28221622 0.11594516 0.27995738
0002c0 89 a9 3d 3a 8c f2 03 bd ea 06 55 3e 80 e3 86 3b
       0.00072350405 -0.032213733 0.20803419 0.0041164756
0002d0 34 81 a9 bc 15 fa ea 3c a3 d4 f7 3d 42 ef f8 3d
       -0.020691492 0.028683702 0.12101104 0.1215501
0002e0 9f 6e d2 bd 2e 8a 93 3d 93 6d 67 3d d9 1b da be
       -0.102750055 0.0720409 0.056500982 -0.4259937
0002f0 32 81 c0 bd de af d6 bd 03 8e 39 3e a6 0c 2a bd
       -0.09399642 -0.10482763 0.1812058 -0.04151597
000300 fe 93 ac be ca ea 1b be 3a 3c 9a bd 51 f8 0f 3d
       -0.3370666 -0.15226284 -0.075310186 0.035148922
000310 77 cc 62 be 38 ee 4d be a6 34 b4 bd b4 22 d9 bd
       -0.2214831 -0.20110404 -0.087991044 -0.10602322
000320 d8 d6 d1 3d ca 91 a0 bc a5 a1 5d 3d ec 75 a6 3e
       0.10246056 -0.019600768 0.054109234 0.32511842
000330 1b de e8 bd 19 0f 83 be 94 ab 46 bd d6 e1 85 3c
       -0.11370488 -0.25597456 -0.048503473 0.016343039
000340 2a df 7f 3d 76 e9 c7 3d 8f 48 fe bd ce 26 90 3b
       0.062468685 0.09761326 -0.12416183 0.004399157
000350 d2 76 53 3c da b9 5f be 95 26 0f bd 3d 89 d4 3b
       0.012906747 -0.2184824 -0.034948904 0.0064860866
000360 29 61 bb 3c de 6b c0 bd 06 55 89 be ed fd 05 be
       0.022873478 -0.09395574 -0.2682268 -0.13085146
000370 2c 60 58 3d 58 fe ff 3c 59 bb b2 3d 7a 7a d7 3e
       0.05282609 0.03124921 0.0872714 0.4208563
000380 df 66 d3 3d 3d 02 e1 ba 98 88 4c 3d 88 0a 4a bd
       0.103223555 -0.0017166805 0.049934953 -0.04932645
000390 c6 9e a5 bd ae d3 cf bd 48 5a 18 bd 2e b9 3c be
       -0.08086924 -0.101477966 -0.037195474 -0.18430015
0003a0 10 6e 87 bc 7c e7 db bd 79 64 7e 3c 14 52 b3 3d
       -0.016531974 -0.107375115 0.015526884 0.087558895
0003b0 23 2c 95 3c 15 6c 9a 3e c2 f9 99 bd 23 ec 65 3e
       0.018209523 0.30160585 -0.07518341 0.2245336
0003c0 11 4d db 3d 90 d7 35 bd 24 de 4b be ee 84 82 bd
       0.107080586 -0.04439503 -0.19908959 -0.063730106
0003d0 89 a8 db bd 08 ad b8 bc 6f d7 1f 3e cc 20 69 bd
       -0.10725505 -0.022543445 0.15609525 -0.056916043
0003e0 ea 2a 01 be 5a 95 b3 bd 4a 61 60 3d 06 39 fa bd
       -0.12614027 -0.08768721 0.054780282 -0.122179076
0003f0 aa 23 9e bd ec 67 a0 bd 70 6a 0a 3d 32 b0 6d bd
       -0.07721646 -0.078323215 0.033792913 -0.05802936

fc4.bias f4 [8]
000000 78 c3 07 3e 25 5e e7 3d 8d 58 05 be 6d 94 ae bd
       0.13258159 0.112972535 -0.1302206 -0.08524404
000010 f5 29 80 bd 2e 73 d8 3c f1 0e df 3c 92 e2 ce 3d
       -0.06258003 0.02642211 0.027228804 0.101018086

conv1.weight f4 [16, 2, 4, 4]
000000 ea 31 1f be 27 b2 d6 bd ad 9e c9 be 8f a5 43 bf
       -0.15546384 -0.104831986 -0.39378873 -0.764245
000010 95 66 97 be c0 76 12 bf 00 87 f6 bd 4b 62 f7 be
       -0.2957045 -0.5721245 -0.12037468 -0.4831718
000020 bd c5 83 be 89 b4 fb be e0 39 02 be 66 48 be be
       -0.257368 -0.49161175 -0.1271739 -0.3716461
000030 d3 5e c0 be 4c 7b 9d be 13 a7 d4 bd ae 6d 24 be
       -0.37572345 -0.3075813 -0.103834294 -0.16057464
000040 f4 f9 77 bd 11 41 8a bd 03 d8 0f 3e 00 12 f0 3c
       -0.06054111 -0.06750692 0.14047246 0.029305458
000050 44 8f b8 3d 85 8c bb 3d 1f ae 1f be e6 3e 04 3c
       0.09011701 0.09157661 -0.15593766 0.008071637
000060 f2 92 9d 3d 71 a6 a2 bd 43 55 d2 bd 54 96 68 be
       0.07694043 -0.079419024 -0.10270169 -0.22713596
000070 51 03 3e be 2a 2b fe bd db b1 15 3e c8 fd e1 bd
       -0.18555953 -0.12410577 0.14618628 -0.11034733
000080 f6 41 2d bd b7 bd 0f bf 6a ba db be 68 ae 04 bf
       -0.042299233 -0.56148857 -0.4291566 -0.5182862
000090 9d 8f 08 bd d0 af 97 be 17 1d d9 be 23 71 80 be
       -0.033340085 -0.29626322 -0.42405006 -0.25086316
0000a0 c9 05 53 be 3a 3a df be 1f 14 31 3c 36 6f 3c be
       -0.20607676 -0.4359911 0.01080802 -0.18401799
0000b0 f7 99 0c be 0a 08 bf be 9f 4d 15 be 32 23 0a be
       -0.13730608 -0.3731082 -0.14580391 -0.13489988
0000c0 36 68 3b be 17 ea 9b bb c6 bf fc 3d aa e2 c2 bd
       -0.18301472 -0.0047581303 0.123412654 -0.09515889
0000d0 ef 7f 08 3e 39 b2 0b be 71 f4 34 be 77 61 13 be
       0.13330053 -0.13642205 -0.17671372 -0.14392649
0000e0 f3 5c f4 3d 54 00 88 be 1a 0b 94 be b2 33 06 be
       0.11931791 -0.2656275 -0.2891472 -0.13105658
0000f0 e9 5c a5 bb 6d de 9f 3c fe 24 3b be cb 13 33 be
       -0.005046476 0.01951524 -0.1827583 -0.17488019
000100 eb 45 e0 3d 2a ca 3f bc 08 7a 35 be 76 b4 2e 3f
       0.10950836 -0.0117059145 -0.17722332 0.6824411
000110 74 6c 0f bf 21 af ea 3a 21 e2 c4 3e 1f d1 21 3f
       -0.5602486 0.0017904976 0.38453773 0.6320972
000120 a1 1a a9 3e 17 6f 9a 3e ec d8 e3 3e fe ab 21 3f
       0.3302813 0.3016288 0.44501436 0.63153064
000130 2c a8 7f be 87 1f a9 3e 4f bb 11 3f 15 57 83 3f
       -0.24966496 0.33031866 0.56926435 1.026095
000140 8d 65 8a bd f2 7a e4 bd 21 8d 54 3d 39 b8 0e be
       -0.067576505 -0.111562625 0.051892404 -0.13937463
000150 73 ca 81 bc 39 d8 54 3d f9 07 4b be 2f 3b c2 be
       -0.015843606 0.05196402 -0.1982726 -0.37935778
000160 7f c1 4d be f1 c5 45 3d 84 0b 43 bd f5 3f 06 be
       -0.20093344 0.048284475 -0.047618404 -0.13110335
000170 d9 01 7e bd 46 e8 48 bd 32 f7 98 bd d2 b1 8f 3d
       -0.06201348 -0.04904964 -0.07469024 0.070163384
000180 5f 24 4a 3f 69 2f 49 3f 6c 19 24 3f 88 5c c6 3f
       0.7896175 0.7858797 0.6410129 1.5496988
000190 79 c8 a4 3e 63 a4 99 3e e3 7c 18 3f 07 6a 16 3f
       0.32184198 0.3000823 0.5956556 0.58755535
0001a0 43 5c ae 3e 90 37 c5 3e e2 11 30 3d 45 21 3a 3f
       0.34054765 0.38518953 0.042985804 0.72707015
0001b0 73 c8 91 3e ff 85 bb 3e 1c 10 29 3f 21 8d 41 3f
       0.28473243 0.36625668 0.66040206 0.7560597
0001c0 33 93 48 bb ed fd d9 bc 1b 09 4f 3e 1f e4 d2 bb
       -0.0030605316 -0.026610339 0.20218317 -0.0064358856
0001d0 23 64 98 bb 88 57 d5 bd c8 17 8a bd a5 ee f7 bc
       -0.004650609 -0.10417086 -0.06742817 -0.030265162
0001e0 94 23 38 3e 1b ae 77 bc c1 7c e4 bc 12 a8 91 bd
       0.17982322 -0.015117194 -0.027891519 -0.07112135
0001f0 b3 b3 4a bd e5 4a 00 3e 87 aa 07 3e 7a af 63 be
       -0.04948778 0.1252857 0.13248645 -0.22234908
000200 5e c0 33 bd 93 c1 e0 3f 8a ea d9 3f 64 73 de 3e
       -0.043884628 1.7559074 1.7024701 0.4344741
000210 35 00 24 be fe 63 68 3f 9d bf 6e 3f c1 ed 58 3f
       -0.16015704 0.90777576 0.9326113 0.84737784
000220 96 04 21 3f de c0 b5 3e b1 ad 88 3e e1 11 ed 3e
       0.6289762 0.35498708 0.26695016 0.46302703
000230 ff bd 08 3f ff 3f 02 3f 6f 28 da be 5b f5 96 bc
       0.5341491 0.508789 -0.42608973 -0.018427541
000240 58 ee d7 3d 21 34 b3 be 39 4e d8 3d bf b5 09 3d
       0.10543507 -0.3500071 0.10561795 0.033620592
000250 45 7c aa 3d 94 98 31 3e ed e4 ae bd f6 4d 02 be
       0.08324484 0.1734336 -0.08539758 -0.12725052
000260 13 5a 3f 3e cf 49 07 be 07 f0 e7 bd 69 71 61 3b
       0.18686704 -0.1321175 -0.113250785 0.0034399873
000270 d1 84 a8 3c 3e 50 c5 3c 31 4e f9 3d b7 ff d6 3c
       0.020571144 0.024086114 0.12173117 0.026244981
000280 40 75 00 3f 6f 48 bf bc 0e d2 3c bf 4e 6a bc 3f
       0.5017891 -0.023349969 -0.7375802 1.4719942
000290 c4 cb 8e bd d8 dc 9f be 85 19 a0 3e f5 59 63 3f
       -0.06972459 -0.31223178 0.3126947 0.8880914
0002a0 4c b2 6e bd 93 49 d2 3d 08 54 70 3d 69 bf 22 3f
       -0.058275506 0.102679394 0.05867389 0.6357332
0002b0 40 a4 e4 3e 24 e4 14 3f 65 2d c5 3e f9 ae 3b 3f
       0.44656563 0.58160615 0.38511196 0.7331386
0002c0 92 36 1d bc aa 93 0c bd 29 ca d7 3d a0 40 9c be
       -0.00959553 -0.03432051 0.10536606 -0.30518055
0002d0 cc d8 17 3d ad 88 7b be d5 9f 2d bd 61 c8 68 bd
       0.037071988 -0.24563856 -0.042388756 -0.05683172
0002e0 56 d8 26 be 35 bd 41 bd 8d d6 e0 3c fe 7a 96 be
       -0.16293463 -0.047299583 0.027446056 -0.2939071
0002f0 e0 39 82 3d 7b 3c fc 3d ee a7 48 be 42 0c d6 3c
       0.06358695 0.12316223 -0.1959531 0.026128892
000300 2c a1 ef be 0c 9f b9 bc b1 89 15 be bd 73 48 3c
       -0.46802652 -0.022658847 -0.14603306 0.012234625
000310 73 22 08 bf 61 2b bc be d0 c9 f5 be 53 93 cf be
       -0.53177565 -0.36751845 -0.48005533 -0.40542087
000320 08 32 7a be ad 56 29 bd 85 70 21 be b0 2b be 3d
       -0.24433148 -0.041342426 -0.15765579 0.092856765
000330 cc af 9f be d8 4a a7 be 36 9b f7 be bb f9 80 bb
       -0.3118881 -0.3267429 -0.48360604 -0.00393602
000340 8a c3 6b bd 5f 3f 1c be be 02 2e 3d fa 3c 81 3c
       -0.057559527 -0.15258549 0.042483084 0.015776146
000350 de 17 fc bd d3 ba f0 bd fe 4e 5b be ae 24 22 be
       -0.1230924 -0.11754384 -0.21416852 -0.15834305
000360 49 e6 7c 3d 80 b2 75 3e 11 3d e8 3c fe 09 89 be
       0.061743055 0.23993874 0.028349431 -0.26765436
000370 b0 13 71 be 87 26 13 3e fb f7 e7 bd 69 8b 85 be
       -0.23542666 0.14370166 -0.113265954 -0.26082924
000380 b7 3b b6 be b4 b6 b4 be 86 66 ba be db 3e 09 be
       -0.35592434 -0.3529564 -0.36406344 -0.13402884
000390 de 4d b7 be d2 97 48 be 97 f0 1e 3e 6c 87 df be
       -0.35801595 -0.19589165 0.15521465 -0.43658006
0003a0 08 f4 00 bd 5b 58 23 be b3 76 39 be 31 43 2f be
       -0.031482726 -0.15951674 -0.18111686 -0.17115475
0003b0 23 7e 88 be 6f 94 d8 be d8 cf 5a be 5b f2 ea be
       -0.26658735 -0.42300746 -0.21368349 -0.45888028
0003c0 be 9d e6 3d 16 c6 c7 3c 4c 3e 7d 3d aa 9e 06 3e
       0.11260556 0.024386447 0.06182699 0.13146463
0003d0 5e b1 8e bd 16 70 84 be 51 25 94 be 5f 86 3c be
       -0.06967424 -0.25866765 -0.2893472 -0.18410634
0003e0 c5 b1 66 bd 39 06 30 bd 5b 8a 30 3d 8f 56 c3 3b
       -0.056321878 -0.042974684 0.043100696 0.0059612463
0003f0 ed 7f 54 be 2d d7 0e bd 92 50 56 bd 1a 2b 1f be
       -0.20751925 -0.034873176 -0.05232293 -0.15543786

conv1.bias f4 [16]
000000 87 ac 6c 3e 40 c7 fa 3d 1c ab 65 3e 6b 74 e2 3d
       0.23112689 0.12245035 0.22428554 0.11057361
000010 db 1a e5 bd aa 07 81 3e ae f0 48 3e a3 a9 13 3e
       -0.11186763 0.2520116 0.19623062 0.1442018
000020 51 44 3f 3e fc eb c3 3d 67 ad c8 3d 6c 27 2f bb
       0.18678404 0.09566495 0.09798699 -0.0026726378
000030 bf 6b 73 3d fd b4 01 be 41 0f 8f 3e fc 84 1a 3e
       0.059428927 -0.12666698 0.27941325 0.15089792

conv2.weight f4 [32, 16, 4, 4]
000000 e3 1f 0f bc 39 39 4f bd 89 73 3f 3d 1d 98 67 3d
       -0.00873563 -0.05059168 0.046741042 0.05654155
000010 c4 fe 2f 3d 13 f5 8f bd b4 87 ae bc 40 fc 31 3c
       0.042967573 -0.07029166 -0.021304943 0.010863364
000020 60 13 a7 3c dd a6 90 bc f2 bb 76 bd cb 33 e4 bb
       0.02039498 -0.017657692 -0.060237832 -0.006964182
000030 87 c9 a7 3d d9 45 3f 3d b4 54 7b bc a1 12 a1 3d
       0.08192735 0.04669747 -0.015340019 0.07864881
000040 fe d1 23 3d d8 cf 8c bd 56 94 90 be 71 54 27 3d
       0.039995186 -0.068755805 -0.2823817 0.040852014
000050 83 d0 b4 bc ec 0b 9b bd 6a 17 ae bc 93 08 fd 3c
       -0.022072082 -0.07570633 -0.0212514 0.030887878
000060 43 a8 80 3d 1c f2 61 bd 57 1e a9 3c 4e 8a 32 bd
       0.062820934 -0.055162534 0.02064435 -0.04358893
000070 55 c9 60 bc 62 fa d2 3c ca 64 12 bc 0e 5a 6e 3c
       -0.013719876 0.025754157 -0.008935163 0.014547838
000080 35 f0 3c bd 0c 24 10 bd 17 0f a7 3c ea 73 d5 3c
       -0.046127517 -0.035190627 0.020392938 0.026056249
000090 b6 08 4d 3c 55 26 15 3d c3 26 c4 bc ed 46 c7 ba
       0.012514284 0.03641351 -0.023944264 -0.0015203633
0000a0 9e f5 07 bd 80 c2 94 3c 4e 0b 20 3d e0 f3 db bc
       -0.033193223 0.018159151 0.03907328 -0.026849687
0000b0 a6 18 91 3d ab 61 08 bd 4d 6f e8 bd 2c 17 5e bd
       0.070847794 -0.03329627 -0.11349354 -0.054221317
0000c0 00 52 ac bd d2 4d f6 bd b6 34 ac bd f0 77 69 bd
       -0.08414078 -0.12026562 -0.08408491 -0.056999147
0000d0 31 d8 44 bd 3e 35 82 bd 3c 04 38 bd c1 c8 6a bd
       -0.04805774 -0.063578114 -0.044925913 -0.05732036
0000e0 62 80 0b 3b 58 79 8b 3c b2 fc bc bc bf a6 53 be
       0.002128624 0.017025635 -0.023069713 -0.20669077
0000f0 98 03 60 3d b6 e7 38 3d ab f5 ea bc c0 d2 88 be
       0.054690927 0.04514285 -0.028681597 -0.2672329
000100 e3 c7 1d bf f7 f9 dc be 0c cc 98 be ef 6f 08 bf
       -0.6163313 -0.43159458 -0.29843175 -0.532958
000110 b7 0b 02 bf 2e 32 ec bd 6e a3 1d be 15 73 fe be
       -0.50799125 -0.115330085 -0.15394375 -0.49697176
000120 c0 80 f1 be 6c 8b 80 bd 97 dd a8 bd ab fe b4 be
       -0.4716854 -0.062765926 -0.0824539 -0.35350546
000130 09 d8 8a be 0c b9 32 3d fb 4e 15 3c a2 f6 e2 be
       -0.27117947 0.043633506 0.009113069 -0.4432879
000140 14 e7 1f bc eb 8f 8c 3b 7d e2 d8 bb dc 23 16 be
       -0.009759683 0.0042896173 -0.0066187964 -0.14662117
000150 75 7b 5a 3c 9b 29 87 3d dd 7c e5 bc ed 62 e1 3c
       0.0133350985 0.065997325 -0.028013641 0.027512992
000160 23 36 81 bd 3e ed 28 ba 86 c6 8e 3d 60 be c8 3b
       -0.06309154 -0.0006444043 0.06971459 0.00612621
000170 ae 05 79 3d 44 7f e6 3d ad 36 f6 bb 97 26 20 be
       0.060796432 0.11254743 -0.007513842 -0.15639721
000180 41 a1 37 3d b9 d8 bb 3c 80 10 dc 3d 93 37 de 3d
       0.044831518 0.02293049 0.107453346 0.10850444
000190 21 8e a9 3c d6 14 43 3c 77 cc c2 bc 76 be 96 3d
       0.020697655 0.011906823 -0.023779137 0.07360546
0001a0 58 99 a1 3d e3 91 69 3d f9 40 06 3d 82 e9 c0 3c
       0.07890576 0.057023894 0.032776807 0.023548845
0001b0 dc 88 71 3d 11 8d 24 bd 1d 89 80 bd 5a d9 58 3d
       0.05896841 -0.040173594 -0.06276152 0.052941658
0001c0 9a ab 01 bc dc 92 f7 3c a4 af f7 3b 75 4c 68 bc
       -0.007914448 0.030221395 0.00755878 -0.014178385
0001d0 15 61 67 3d 7f 61 70 bc 9f 6a 21 bc 5a 80 38 bd
       0.05648907 -0.014671682 -0.009852081 -0.04504428
0001e0 e9 66 e9 3d a8 10 65 3c cc 65 88 bc 48 5d c1 3d
       0.11396582 0.013981022 -0.016650103 0.0944162
0001f0 ef 35 88 3d 89 3b 2c bc 80 d7 ed bb 4a f8 ce bb
       0.06650912 -0.010512241 -0.0072583556 -0.0063162195
000200 14 76 08 bc 3a bc c8 ba 18 cf 42 3d 71 d4 14 3d
       -0.008328933 -0.0015314885 0.04756078 0.036335412
000210 4e 1d 1d 3d 27 1f 48 bc a2 6b ee bd d9 b4 5f bd
       0.038358025 -0.012214459 -0.11641623 -0.05461583
000220 a4 1d 81 bd 8c d4 92 3d 39 ab b4 3c 62 11 bd 3c
       -0.063044816 0.07169446 0.022054302 0.023079578
000230 1d c4 d7 3d 58 d6 2f bd 15 ba 38 3c 5c 22 91 3c
       0.105354525 -0.042929024 0.011274834 0.01771658
000240 7a d0 e3 bd aa c3 20 3d cb 0e b6 3c ed 4a 63 bc
       -0.11123748 0.0392491 0.02222385 -0.013872844
000250 2f 8f 40 be e0 1f 21 bd b7 e0 72 bd 59 e9 66 bd
       -0.1880462 -0.03933704 -0.059296336 -0.05637488
000260 a9 8a 3d be 33 0f 50 be 18 12 66 3d 33 a7 58 bd
       -0.18509926 -0.20318298 0.0561696 -0.05289383
000270 e4 07 2f be 16 73 19 be 0f 0b 33 3e 22 c1 a7 bd
       -0.17092854 -0.14985308 0.17484687 -0.08191134
000280 c3 f9 b7 3b 20 6e 28 3d 98 82 5b bd 80 47 f5 3d
       0.0056144907 0.04112065 -0.05359134 0.11976528
000290 69 0a 81 bc 89 35 0b be d1 cb 1f 3d 58 02 4f 3c
       -0.015752034 -0.13594641 0.039012734 0.012634836
0002a0 a9 9b 65 3d c7 7c 08 3d d7 62 a8 bd 98 13 ab bb
       0.056056652 0.033322122 -0.08221977 -0.0052208416
0002b0 4c 82 38 3c 07 60 6d 3d fe ee a3 bd 49 c8 36 bc
       0.011261534 0.057952907 -0.080045685 -0.01115615
0002c0 19 42 7e 3d 1b 7e 7a bd 54 75 8c bd d9 31 6d bd
       0.062074754 -0.06115542 -0.06858316 -0.057908867
0002d0 d7 2b dc bd cd e5 c1 3d 6b 5d 38 bd 37 1f a8 3d
       -0.10750549 0.09467659 -0.045010965 0.08209079
0002e0 0f 20 70 3c 17 73 ae be 3d 8c 01 bd 53 34 29 bc
       0.014656081 -0.34072182 -0.031627882 -0.0103274165
0002f0 f9 c7 3d be 75 35 01 3d 12 24 59 3e db 99 fd 3c
       -0.18533315 0.03154512 0.21205166 0.030957153
000300 e2 91 e7 3b 85 59 38 3d ab 2a c3 3d f8 e0 04 3d
       0.007066951 0.045007247 0.09529623 0.03244111
000310 58 e9 08 bd 59 ca 50 bd 26 46 d7 3c 3c 9e a5 bd
       -0.03342566 -0.050974224 0.026278567 -0.080868214
000320 64 9d 95 3d 0c ed d6 3b 56 72 99 be 03 a3 2a 3c
       0.073054105 0.00655902 -0.29970044 0.010414842
000330 b6 48 07 be cc 6f 50 bd 9c 5b c5 3d 7e ac 16 bd
       -0.13211331 -0.050887868 0.09636614 -0.036785595
000340 d3 74 3a be f3 5f 8a bd 63 e5 d0 bd 23 9c 04 bf
       -0.18208627 -0.06756582 -0.10200002 -0.51800746
000350 b6 5c 26 bd 46 b1 ea bd c4 81 a2 bd 63 24 9e be
       -0.04061576 -0.114595935 -0.07934907 -0.30887136
000360 50 b3 3c be b6 3e 42 bd 96 89 de bd d3 fd 97 be
       -0.18427777 -0.047423087 -0.10866086 -0.2968584
000370 64 17 26 be b1 ab 4d bc 46 4a f3 3c 2c 51 28 bf
       -0.1621986 -0.012553141 0.029698502 -0.6574886
000380 f7 2e e1 3d 82 98 85 3c e4 e9 1f 3d d7 88 b6 3d
       0.10995286 0.016308073 0.039041415 0.08912819
000390 16 b7 a9 bb ff d0 01 bd b4 7a a6 3d 6e fa 19 bc
       -0.0051792962 -0.031693455 0.081288725 -0.009398086
0003a0 11 bc 96 bc 43 ea 44 3d 59 f3 5e 3b 87 87 f4 3c
       -0.018400224 0.048074972 0.0034019558 0.02984978
0003b0 01 07 da 3d 9a d7 10 bd f5 c5 6a 3d 0e 53 83 3d
       0.10645867 -0.035361864 0.057317693 0.06412326
0003c0 76 ad 88 bc e3 c4 1f bd 3e 3b be bb 33 34 d8 bb
       -0.016684275 -0.039006125 -0.005805402 -0.0065980195
0003d0 98 ee cd 3c a9 d0 a7 bd 9c b5 5c 3d c8 eb 99 bb
       0.025138184 -0.08194096 0.053884134 -0.004697297
0003e0 ec 36 f1 3d c7 5c cc bd cb 03 24 bd 9c 98 2e 3d
       0.11778054 -0.099786334 -0.04004268 0.04262601
0003f0 4b 94 a4 3d c3 f9 f4 3d 22 33 2b be bd 37 fe bd
       0.08036097 0.11961701 -0.16718724 -0.12412975

conv2.bias f4 [32]
000000 7c 5c c6 3d 2a f1 0a 3d a8 e4 8d bd d0 22 d2 3d
       0.09685609 0.0339214 -0.06928378 0.10260546
000010 56 e3 86 3d a6 e7 88 3c 81 6a a7 bd 00 fb 41 3e
       0.0658633 0.016712021 -0.08174611 0.18943405
000020 c0 63 bc bd 0c 6a 72 3b 02 53 9f bc 57 96 05 3e
       -0.09198713 0.0036989478 -0.01944876 0.13045631
000030 7a d8 f5 3c fb 07 a4 bd 0e 62 f7 3d a4 52 dd 3d
       0.03001045 -0.08009335 0.12079249 0.10806778
000040 0c fb 74 3c d7 14 c0 3b 97 23 85 3d d5 33 92 bd
       0.014952432 0.0058618593 0.06500929 -0.071387924
000050 31 c9 f3 bc 3d c5 e5 3d c8 f4 42 3b fe de c0 3d
       -0.029759021 0.11219261 0.0029747952 0.094175324
000060 7a 26 dc 3d 00 6d 19 bc f6 29 13 3e 40 a1 18 3d
       0.10749526 -0.0093643665 0.14371476 0.037263155
000070 ae 34 48 3d 39 3b 31 bd b8 02 05 3e 69 a5 ca 3c
       0.048878364 -0.04326937 0.12989318 0.024737077
