saved_models/dqn_checkpoint_ep150.pth (torch, 981377 bytes, 32 tensors)

conv1.weight f4 [16, 2, 4, 4]
-0.14783305 -0.089307256 -0.36708638 -0.764245 -0.28700274 -0.5721245 -0.10165372 -0.4831718
-0.26568943 -0.49161175 -0.1530212 -0.39131418 -0.3610102 -0.29475105 -0.13364474 -0.23111354
-0.055639144 -0.07926984 0.13779896 0.030894948 0.09100945 0.103162356 -0.16983742 0.014611807
0.07790127 -0.06779855 -0.104669005 -0.23086563 -0.18685772 -0.10892218 0.14229468 -0.106996536
-0.036691297 -0.56148857 -0.4291566 -0.5182862 -0.04595993 -0.29408613 -0.42405006 -0.25854507
-0.20313977 -0.4359911 -0.0034742 -0.21844383 -0.12947783 -0.36049128 -0.17527825 -0.16881247
-0.19167066 -0.010721821 0.1134388 -0.09417534 0.1374434 -0.12580718 -0.1641143 -0.14596397
0.11744523 -0.26501983 -0.29623565 -0.13038841 -0.0010312548 0.026182055 -0.17961453 -0.17488019
0.11902182 -0.012934657 -0.19244525 0.71198833 -0.54462016 0.005299954 0.4104583 0.6495366
0.32882252 0.29314253 0.4535581 0.65460086 -0.28801274 0.3169576 0.5640783 1.0299349
-0.064195 -0.1100569 0.06032764 -0.13394958 -0.010604945 0.055002056 -0.1935547 -0.37700674
-0.19276918 0.058664702 -0.03803312 -0.12099017 -0.057665195 -0.04579001 -0.06745894 0.0721237
0.786772 0.79479283 0.64921486 1.5668123 0.31905925 0.303164 0.5989292 0.5982013
0.3448633 0.3840518 0.053679027 0.7380976 0.27926964 0.35989323 0.6597604 0.7779674
-0.0004055318 -0.02868474 0.20155019 -0.0067079063 -0.0029220397 -0.100817926 -0.04764862 -0.019432984
0.17847517 -0.012970085 -0.02156036 -0.06456376 -0.0465861 0.12787497 0.14023806 -0.2051089
-0.031211676 1.7781589 1.7258881 0.4171406 -0.27714097 0.90384495 0.93371147 0.84736544
0.62661666 0.35142457 0.25764054 0.5019135 0.5493922 0.4951618 -0.38886753 -0.014691849
0.12377639 -0.35426718 0.10815808 0.05553793 0.0936935 0.18490095 -0.07093842 -0.12276643
0.19082905 -0.10745428 -0.09709774 0.0062272814 0.025245734 0.022848845 0.13124274 0.035919752
0.5058892 -0.022098875 -0.756673 1.5033566 -0.06737276 -0.32960784 0.32588303 0.9030214
-0.05199445 0.10256655 0.054895353 0.6386774 0.4420519 0.56853235 0.38499832 0.7474283
-0.0048503694 -0.026487926 0.10733323 -0.30733234 0.04363883 -0.24159802 -0.028010977 -0.04868739
-0.15969639 -0.030299332 0.03971882 -0.28537086 0.06876379 0.12710913 -0.19010326 0.03148437
-0.46802652 -0.04136536 -0.12889546 -0.00031208782 -0.53177565 -0.36522514 -0.48005533 -0.39663675
-0.24378921 -0.01979016 -0.19255146 0.073945746 -0.3118881 -0.3267429 -0.4829532 -0.03396191
-0.054765657 -0.15608536 0.040759247 0.014267916 -0.12634745 -0.117194235 -0.20802808 -0.15122406
0.060479973 0.23173748 0.025079245 -0.26668695 -0.24347094 0.14409663 -0.11837893 -0.26460922
-0.35592434 -0.3529564 -0.36406344 -0.17540173 -0.35801595 -0.19003458 0.1542707 -0.43658006
-0.028661791 -0.15706323 -0.19201379 -0.19478409 -0.24851686 -0.42300746 -0.20499659 -0.45888028
0.117748156 0.024355268 0.063775375 0.14237407 -0.06862837 -0.25037763 -0.2893472 -0.1819892
-0.056238294 -0.04638868 0.042425923 0.00621597 -0.19220607 -0.032339133 -0.061443824 -0.15329067
00000000: 8c61 17be b9e6 b6bd bff2 bbbe 8fa5 43bf
00000010: 06f2 92be c076 12bf d32f d0bd 4b62 f7be
00000020: 7208 88be 89b4 fbbe 97b1 1cbe 555a c8be
00000030: 54d6 b8be 9ce9 96be 2bda 08be 07a9 6cbe
00000040: dfe5 63bd 3a58 a2bd 2c1b 0d3e 6717 fd3c
00000050: 2a63 ba3d c946 d33d dce9 2dbe 5c66 6f3c
00000060: b38a 9f3d f7d9 8abd b45c d6bd 0a68 6cbe
00000070: a157 3fbe 9812 dfbd b2b5 113e 0021 dbbd
00000080: 9d49 16bd b7bd 0fbf 6aba dbbe 68ae 04bf
00000090: 7b40 3cbd 7592 96be 171d d9be 0560 84be
000000a0: df03 50be 3a3a dfbe 67af 63bb bdaf 5fbe
000000b0: d695 04be 5092 b8be 247c 33be 2ddd 2cbe
000000c0: 5045 44be 94aa 2fbc 9a52 e83d 00df c0bd
000000d0: f6bd 0c3e 99d3 00be 940d 28be 9477 15be
000000e0: 2087 f03d aeb0 87be 33ac 97be 8a84 05be
000000f0: 2b2b 87ba c07b d63c dfec 37be cb13 33be
00000100: b6c1 f33d e2eb 53bc 5e10 45be de44 363f
00000110: 3a6c 0bbf 3dab ad3b 9727 d23e 0848 263f
00000120: 6d5b a83e c716 963e c438 e83e ec93 273f
00000130: 6876 93be 4448 a23e 6f67 103f e8d4 833f
00000140: ab78 83bd 8365 e1bd 1e1a 773d 142a 09be
00000150: 5dc0 2dbc d649 613d 3433 46be 0707 c1be
00000160: 4965 45be 664a 703d 9ec8 1bbd b2c9 f7bd
00000170: 5732 6cbd 4e8e 3bbd ea27 8abd 97b5 933d
00000180: e469 493f 8b77 4b3f f232 263f 4e8d c83f
00000190: bc5b a33e 5038 9b3e 6d53 193f b823 193f
000001a0: ec91 b03e 70a2 c43e 8ade 5b3d f7f3 3c3f
000001b0: 6efc 8e3e ed43 b83e 0fe6 283f df28 473f
000001c0: 8f9d d4b9 43fc eabc 2c63 4e3e ffcd dbbb
000001d0: b17f 3fbb a179 cebd 332b 43bd ec31 9fbc
000001e0: 32c2 363e 7b80 54bc 5a9f b0bc 013a 84bd
000001f0: 11d1 3ebd a8f1 023e 919a 0f3e 1108 52be
00000200: a1af ffbc b69a e33f e7e9 dc3f 7493 d53e
00000210: 6ce5 8dbe 6262 673f b707 6f3f f1ec 583f
00000220: f369 203f eced b33e 76e9 833e 677d 003f
00000230: f8a4 0c3f d985 fd3e a519 c7be 15b6 70bc
00000240: 7a7e fd3d 8262 b5be fc81 dd3d be7b 633d
00000250: 61e2 bf3d ad56 3d3e 2a48 91bd f76c fbbd
00000260: b168 433e fd10 dcbd 2edb c6bd 390e cc3b
00000270: 24d0 ce3c 802d bb3c 7f64 063e 9720 133d
00000280: f481 013f b308 b5bc 52b5 41bf fd6d c03f
00000290: bbfa 89bd 5cc2 a8be 24da a63e 692c 673f
000002a0: 22f8 54bd 690e d23d f3d9 603d 5d80 233f
000002b0: a054 e23e 568b 113f 801e c53e 7657 3f3f
000002c0: d9ef 9ebb 35fd d8bc 86d1 db3d aa5a 9dbe
000002d0: a1be 323d 7965 77be 4777 e5bc 6e6c 47bd
000002e0: 7387 23be 4e36 f8bc 34b0 223d 211c 92be
000002f0: 08d4 8c3d e528 023e 6eaa 42be c1f5 003d
00000300: 2ca1 efbe b96e 29bd 2cfd 03be b89f a3b9
00000310: 7322 08bf cafe babe d0c9 f5be f913 cbbe
00000320: e1a3 79be f91e a2bc 362c 45be de70 973d
00000330: ccaf 9fbe d84a a7be a445 f7be a51b 0bbd
00000340: f451 60bd d7d4 1fbe 2bf3 263d fac3 693c
00000350: 3a61 01be 8803 f0bd 5005 55be 7bda 1abe
00000360: d9b9 773d 974c 6d3e fd72 cd3c 318b 88be
00000370: 7250 79be 118e 133e a770 f2bd dc7a 87be
00000380: b73b b6be b4b6 b4be 8666 babe 839c 33be
00000390: de4d b7be 6d98 42be 23f9 1d3e 6c87 dfbe
000003a0: 22cc eabc 2fd5 20be 439f 44be 7b75 47be
000003b0: 347b 7ebe 6f94 d8be a0ea 51be 5bf2 eabe
000003c0: f225 f13d b384 c73c aa9c 823d 82ca 113e
000003d0: 088d 8cbd 7f31 80be 5125 94be 605b 3abe
000003e0: 205a 66bd 0e02 3ebd cec6 2d3d 56af cb3b
000003f0: abd1 44be 0a76 04bd 85ac 7bbd 3bf8 1cbe

conv1.bias f4 [16]
0.23390141 0.12467074 0.19932623 0.08493785 -0.12937562 0.22182357 0.2047771 0.14935362
0.19115666 0.08638965 0.119628035 -0.0014485475 0.065967515 -0.14413233 0.2824302 0.15994619
00000000: da83 6f3e 5f53 ff3d 2d1c 4c3e e5f3 ad3d
00000010: 0b7b 04be b825 633e 17b1 513e 28f0 183e
00000020: 92be 433e 0fed b03d 8bff f43d 30dd bdba
00000030: fa19 873d 6d97 13be b19a 903e efc8 233e

conv2.weight f4 [32, 16, 4, 4]
-0.0025945418 -0.053279866 0.04800654 0.056144007 0.045545373 -0.069110684 -0.013207057 0.008398364
0.0125855785 -0.017262092 -0.06145777 -0.006612454 0.078328684 0.04296011 -0.016118053 0.07578347
0.046426453 -0.0581874 -0.27627242 0.041885354 -0.02292783 -0.07037351 -0.011187667 0.030577933
0.06312414 -0.05779379 0.025491554 -0.04731726 -0.014539998 0.024155544 -0.008392694 0.008440818
-0.04530555 -0.047242686 0.020359637 0.030504439 0.01744444 0.03605875 -0.020307148 -0.00031277206
-0.026842082 0.023716226 0.05611982 -0.021623492 0.068210974 -0.06388519 -0.110531926 -0.05150654
-0.07843127 -0.11989438 -0.083770745 -0.06334582 -0.04760052 -0.06003779 -0.036712203 -0.07281724
-0.0070353732 0.018185303 -0.015338482 -0.20068091 0.05472742 0.035044335 -0.03930067 -0.28187826
-0.6119196 -0.4261784 -0.29603443 -0.53780425 -0.50130993 -0.10314307 -0.1457087 -0.52423185
-0.46965882 -0.059987605 -0.0799387 -0.3545011 -0.25548786 0.047674753 0.004679425 -0.47864282
-0.017787434 0.008777334 -0.006318164 -0.14777873 0.015707163 0.07157149 -0.022722889 0.026274467
-0.0636168 -0.0035968164 0.078330845 -0.0023769105 0.0689105 0.107873335 -0.008466362 -0.16388917
0.054206476 0.014706601 0.11644772 0.108607434 0.019823397 0.011691554 -0.02237472 0.061418556
0.07645431 0.059305772 0.042176366 0.034174487 0.05692786 -0.038376715 -0.06436518 0.047436368
-0.011379589 0.033887923 0.012491043 -0.014737248 0.05793695 -0.0108161885 -0.013704495 -0.053679116
0.11805046 0.025557565 -0.0039120447 0.10810836 0.06125743 -0.011777926 -0.010650633 -0.023043312
-0.0017753494 -0.0038140304 0.053694773 0.04791563 0.031269368 -0.0089101475 -0.1235167 -0.051123988
-0.071889974 0.07103384 0.023635319 0.019597076 0.10359654 -0.05183021 0.010665792 0.018891864
-0.11311514 0.0364617 0.028437393 -0.018855078 -0.20792632 -0.042069476 -0.051918745 -0.05431345
-0.17989828 -0.21868595 0.05661791 -0.063946545 -0.14689668 -0.12622929 0.14675926 -0.08002211
0.009523787 0.037341546 -0.05258101 0.12119419 -0.009738146 -0.13027032 0.04895999 0.01643088
0.056529876 0.040340632 -0.08381981 0.0034880172 0.011246514 0.054032896 -0.08161635 -0.01364302
0.06566565 -0.059959427 -0.07779985 -0.06866051 -0.10183396 0.10740915 -0.023466375 0.08860629
-1.2606619e-05 -0.35599294 -0.03856546 -0.042012073 -0.17493413 0.05814677 0.16698018 0.03898865
0.019013712 0.026900858 0.099006906 0.031564023 -0.03530403 -0.06510137 0.029622078 -0.080097444
0.07009667 0.009262599 -0.29641846 0.020496815 -0.13473833 -0.035443816 0.06494436 -0.033792093
-0.1752379 -0.06625341 -0.10918554 -0.5172269 -0.03665186 -0.10327879 -0.07585624 -0.31029883
-0.18049288 -0.045163043 -0.13175313 -0.2986266 -0.15888812 -0.008215954 -0.0112754535 -0.65690875
0.1086833 0.01660131 0.03622299 0.089444004 -0.0052797175 -0.031713687 0.08049261 -0.012833651
-0.021906847 0.047918662 0.0016637349 0.0248575 0.10508024 -0.035473507 0.059008595 0.060677644
-0.011826302 -0.044859756 -0.0032462263 -0.002573634 0.037871335 -0.075218715 0.06206071 -0.0018748019
0.12529485 -0.09125162 -0.042210214 0.048809774 0.07889241 0.09809376 -0.16361828 -0.13329741
00000000: 3009 2abb fd3b 5abd 81a2 443d 42f7 653d
00000010: c98d 3a3d e789 8dbd 6962 58bc 4b99 093c
00000020: be33 4e3c 3b69 8dbc 25bb 7bbd 49ad d8bb
00000030: ca6a a03d f1f6 2f3d 020a 84bc 5d34 9b3d
00000040: aa29 3e3d e955 6ebd 9473 8dbe fa8f 2b3d
00000050: 25d3 bbbc fd1f 90bd 7a4c 37bc 937e fa3c
00000060: 3b47 813d 2eb9 6cbd aad3 d03c becf 41bd
00000070: 2c39 6ebc d9e1 c53c 8381 09bc 5b4b 0a3c
00000080: 5092 39bd 8c81 41bd 41c9 a63c 72e4 f93c
00000090: a4e7 8e3c 57b2 133d 2d5b a6bc 8efb a3b9
000000a0: ede3 dbbc 8848 c23c e5dd 653d c023 b1bc
000000b0: 32b2 8b3d 3dd6 82bd 905e e2bd 86f8 52bd
000000c0: 93a0 a0bd 2f8b f5bd ff8f abbd 74bb 81bd
000000d0: c3f8 42bd 30ea 75bd 895f 16bd 3521 95bd
000000e0: fd88 e6bb 58f9 943c 424e 7bbc 4c7f 4dbe
000000f0: dc29 603d a68a 0f3d bdf9 20bd 5952 90be
00000100: c3a6 1cbf 0e34 dabe d391 97be 8aad 09bf
00000110: d955 00bf ad3c d3bd a934 15be 0f34 06bf
00000120: 1f77 f0be 90b5 75bd e7b6 a3bd 2b81 b5be
00000130: 4ecf 82be 9a46 433d dd55 993b ac10 f5be
00000140: f4b6 91bc cfce 0f3c 9a08 cfbb 4f53 17be
00000150: 4fac 803c 1394 923d 5a25 babc 8d3d d73c
00000160: 8649 82bd 91b8 6bbb ec6b a03d f1c5 1bbb
00000170: f320 8d3d b2ec dc3d 7fb6 0abc 90d2 27be
00000180: 9c07 5e3d f5f3 703c 247c ee3d 936d de3d
00000190: ad64 a23c ef8d 3f3c 304b b7bc 0692 7b3d
000001a0: 1494 9c3d 9cea 723d 20c1 2c3d 8cfa 0b3d
000001b0: 302d 693d e730 1dbd e4d1 83bd a34c 423d
000001c0: 7571 3abc 10ce 0a3d 3ba7 4c3c 8074 71bc
000001d0: 4c4f 6d3d 6236 31bc d188 60bc a2de 5bbd
000001e0: 71c4 f13d 195e d13c 9c30 80bb ea67 dd3d
000001f0: 12e9 7a3d 34f8 40bc fe7f 2ebc 54c5 bcbc
00000200: d7b2 e8ba d0f4 79bb 0def 5b3d 2e43 443d
00000210: 4f14 003d defb 11bc 53f6 fcbd 6367 51bd
00000220: 0d3b 93bd 317a 913d db9e c13c 0c8a a03c
00000230: 6c2a d43d ea4b 54bd 93bf 2e3c 1cc3 9a3c
00000240: e9a8 e7bd dd58 153d 89f5 e83c f775 9abc
00000250: a3ea 54be 0b51 2cbd c0a8 54bd c877 5ebd
00000260: 4137 38be 36ef 5fbe 2ee8 673d 68f6 82bd
00000270: 156c 16be 4042 01be 0f48 163e a2e2 a3bd
00000280: a809 1c3c 73f3 183d 2f5f 57bd a934 f83d
00000290: bf8c 1fbc 9565 05be 458a 483d 0e9a 863c
000002a0: df8b 673d 383c 253d b8a9 abbd 3897 643b
000002b0: 4c43 383c 9951 5d3d 7926 a7bd f986 5fbc
000002c0: b67b 863d 0498 75bd 8755 9fbd e29d 8cbd
000002d0: 538e d0bd 54f9 db3d 8e3c c0bc 3777 b53d
000002e0: 0481 53b7 b544 b6be d1f6 1dbd da14 2cbd
000002f0: ef21 33be 4f2b 6e3d dafc 2a3e 90b2 1f3d
00000300: a5c2 9b3c 305f dc3c 22c4 ca3d 4749 013d
00000310: f59a 10bd de53 85bd 00aa f23c 210a a4bd
00000320: d88e 8f3d 28c2 173c 29c4 97be f0e8 a73c
00000330: d8f8 09be 892d 11bd 8c01 853d 9469 0abd
00000340: 9071 33be deaf 87bd ab9c dfbd fb68 04bf
00000350: 4320 16bd d583 d3bd 845a 9bbd 7ddf 9ebe
00000360: 20d3 38be e2fc 38bd 4bea 06be 96e5 98be
00000370: 91b3 22be 359c 06bc aebc 38bc 2c2b 28bf
00000380: 5a95 de3d 78ff 873c 8f5e 143d 6b2e b73d
00000390: 7b01 adbb 36e6 01bd 4fd9 a43d 3c44 52bc
000003a0: fd75 b3bc 5c46 443d ae11 da3a f5a1 cb3c
000003b0: 4f34 d73d ab4c 11bd ffb2 713d 1f89 783d
000003c0: 1bc3 41bc ddbe 37bd a4be 54bb 6aaa 28bb
000003d0: f91e 1b3d 450c 9abd 5f33 7e3d eabb f5ba
000003e0: 4b4d 003e 21e2 babd 9ee4 2cbd c2ec 473d
000003f0: 5892 a13d 62e5 c83d 8d8b 27be 1e7f 08be

conv2.bias f4 [32]
0.09549836 0.03401535 -0.06928378 0.10287772 0.06844428 0.03242985 -0.08174611 0.17924705
-0.09198713 0.0036989478 -0.01944876 0.13063252 0.035886247 -0.08009335 0.12411506 0.107820846
0.014952432 0.0068688514 0.067348056 -0.071387924 -0.029759021 0.11348566 0.0029747952 0.09665163
0.1069641 -0.000116587406 0.15013038 0.03884853 0.04484316 -0.040820234 0.13154534 0.024737077
00000000: a594 c33d ae53 0b3d a8e4 8dbd 8eb1 d23d
00000010: 842c 8c3d 2ad5 043d 816a a7bd 8a8c 373e
00000020: c063 bcbd 0c6a 723b 0253 9fbc 88c4 053e
00000030: 75fd 123d fb07 a4bd 0930 fe3d 2dd1 dc3d
00000040: 0cfb 743c 1a14 e13b c7ed 893d d533 92bd
00000050: 31c9 f3bc 2b6b e83d c8f4 423b 4af1 c53d
00000060: fe0f db3d 6380 f4b8 c7bb 193e a31f 1f3d
00000070: 76ad 373d 1e33 27bd d2b3 063e 69a5 ca3c

fc1.weight f4 [64, 800]
0.007881062 0.022547876 -0.039281182 0.013681161 0.108998954 0.011805729 0.021964213 -0.0114121465
0.0004523124 0.023955634 0.005434009 0.012654948 -0.035217486 0.034438614 -0.0035616441 -0.00021255991
0.045141652 -0.044012222 -0.05373053 0.004688187 -0.1071299 -0.019931598 0.014576152 0.018017424
0.099597685 -0.057407886 -0.075073086 -0.037299335 0.014012352 0.07951438 -0.0042660926 -0.029702367
-0.026128428 -0.08190841 -0.01098694 -0.17803152 -0.07622995 -0.025502136 0.030090185 0.0377284
0.02822737 0.012281538 -0.08338848 -0.033177603 0.006475767 -0.08985276 -0.114121184 -0.15107521
0.009500134 0.03455494 0.0035498515 0.014990696 0.004438879 -0.032743804 -0.007937922 0.0034088858
0.007513901 -0.019763457 -0.035696696 0.0074988157 0.027457079 0.037048046 0.04026187 0.019312348
0.025924863 -0.018587774 -0.01013167 0.014441423 -0.033909034 0.018846564 0.02114417 0.013302235
-0.022941079 -0.030855171 -0.018418152 -0.03182953 0.0056917677 0.0031838147 -0.016535662 0.06181492
0.042311758 0.016663989 -0.030494772 -0.08250116 -0.00663554 0.031099474 -0.00014489402 -0.03498746
-0.041212093 0.03445787 -0.018877221 -0.07949584 -0.051120047 0.014730226 -0.01369131 0.050397906
-0.040821712 0.06812013 0.027529923 0.05558196 -0.011345893 0.017516809 -0.04238937 -0.028447658
0.04106511 -0.004808426 0.039769243 0.01084151 0.0039819116 -0.013366872 -0.09236137 -0.079765074
-0.012947047 -0.008952106 -0.045058172 -0.03437333 -0.05180542 -0.10708648 0.05238383 -0.046886403
0.043337055 -0.008836872 -0.06197539 -0.0053824442 0.06296088 0.05341972 0.075788304 0.12820661
0.16814797 0.11867165 -0.021951318 -0.0003168066 0.0493564 -0.009024755 0.127035 -0.17583974
-0.0999563 0.2990474 0.06461744 -0.106281996 -0.42926458 -0.39043704 -0.37018487 -0.061023843
0.09074474 -0.19967952 -0.2145245 -0.05640299 0.20504664 0.19124946 0.03696089 -0.032905675
0.023479853 -0.016596654 0.019316658 0.025852948 -1.1038665e-05 -0.024318568 0.026834462 -0.014333623
-0.041956812 -0.025893139 -0.05036403 -0.045999706 0.029982284 -0.04690616 0.008133059 -0.038306132
0.004259084 0.02592206 0.009396106 0.014435851 0.01674339 0.02464706 0.005120197 -0.4519356
-0.32305786 -0.13360055 -0.28915927 -0.5567888 -0.14090468 -0.14111848 -0.10079534 0.13189001
-0.110130355 -0.30183864 -0.09822466 -0.161548 -0.15610607 -0.12691568 -0.315539 -0.18826625
-0.072132856 0.14457056 -0.29708198 -0.07805807 -0.22506198 0.12409497 -0.029086558 -0.31400326
0.008012213 0.021692924 -0.025009608 -0.026801212 0.020368021 0.031379286 -0.016285716 0.02129009
-0.02825484 -0.03192416 0.023578249 0.0014674813 -0.012356818 -0.021200806 -0.010424901 -0.024212442
-0.015915912 -0.024890244 0.010333259 1.917407e-05 0.014018139 0.017831422 -0.0023369752 0.0026695207
-0.00057169795 -0.006860273 0.0011766951 -0.0034980364 -0.00056203746 -0.025683261 -0.026983809 -0.024758441
0.0066714063 0.0040087113 0.030990694 -0.022992548 -0.033703208 -0.006614607 0.030172724 0.0010413527
0.003754411 0.02506563 -0.023645319 -0.0141653195 0.036976196 0.020584036 0.0033100024 0.02475104
-0.026369596 0.015968919 0.04652247 -0.017046226 0.045447093 -0.035325594 0.009945324 0.005085654
00000000: 921f 013c 53b6 b83c 4ee5 20bd f326 603c
00000010: d83a df3d d16c 413c 4bee b33c 03fa 3abc
00000020: 5824 ed39 9b3e c43c c50f b23b b356 4f3c
00000030: 3640 10bd 810f 0d3d 796a 69bb 9ee2 5eb9
00000040: 74e6 383d 2946 34bd 8b14 5cbd 5d9f 993b
00000050: ec66 dbbd 9747 a3bc d0d0 6e3c 4799 933c
00000060: dff9 cb3d 8824 6bbd ebbf 99bd 30c7 18bd
00000070: 1094 653c 6fd8 a23d 94ca 8bbb 6152 f3bc
00000080: 490b d6bc 99bf a7bd 9102 34bc e54d 36be
00000090: 731e 9cbd dbe9 d0bc b17f f63c 1889 1a3d
000000a0: 163d e73c 8138 493c 94c7 aabd 3de5 07bd
000000b0: ac32 d43b b904 b8bd 5eb8 e9bd 76b3 1abe
000000c0: 73a6 1b3c 7b89 0d3d a0a4 683b 899b 753c
000000d0: 0474 913b 5e1e 06bd 0f0e 02bc 9d67 5f3b
000000e0: 2c37 f63b f9e6 a1bc b336 12bd a0b8 f53b
000000f0: abed e03c b1bf 173d a1e9 243d ee34 9e3c
00000100: 6160 d43c 6345 98bc 4eff 25bc b89b 6c3c
00000110: 33e4 0abd 1c64 9a3c 8a36 ad3c 9ef1 593c
00000120: eeee bbbc fcc3 fcbc aae1 96bc ae5f 02bd
00000130: 0282 ba3b 8ca7 503b cc75 87bc a431 7d3d
00000140: 184f 2d3d eb82 883c 2cd0 f9bc 5ef6 a8bd
00000150: f26e d9bb 53c4 fe3c b1ee 17b9 034f 0fbd
00000160: 03ce 28bd b223 0d3d 67a4 9abc b7ce a2bd
00000170: 4163 51bd 0c57 713c 8451 60bc 096e 4e3d
00000180: ab34 27bd 9182 8b3d 6f86 e13c e9a9 633d
00000190: 20e4 39bc 697f 8f3c 7aa0 2dbd 100b e9bc
000001a0: e433 283d 0090 9dbb 13e5 223d 97a0 313c
000001b0: b27a 823b ba00 5bbc f527 bdbd df5b a3bd
000001c0: da1f 54bc dbab 12bc eb8e 38bd 0dcb 0cbd
000001d0: ec31 54bd 2850 dbbd 6d90 563d f50b 40bd
000001e0: 3282 313d 87c8 10bc e8d9 7dbd 375f b0bb
000001f0: a2f1 803d a3ce 5a3d e636 9b3d 9848 033e
00000200: fb2e 2c3e 1f0a f33d 40d3 b3bc 1019 a6b9
00000210: f029 4a3d 91dc 13bc 7715 023e 550f 34be
00000220: e3b5 ccbd be1c 993e 2656 843d 60aa d9bd
00000230: 91c8 dbbe 5de7 c7be df88 bdbe 23f4 79bd
00000240: 61d8 b93d ca78 4cbe 4fac 5bbe d206 67bd
00000250: bff7 513e e6d6 433e 4d64 173d 1ac8 06bd
00000260: d258 c03c b5f5 87bc f83d 9e3c 90c9 d33c
00000270: b532 39b7 bc37 c7bc f2d3 db3c 93d7 6abc
00000280: e8da 2bbd d91d d4bc 834a 4ebd 306a 3cbd
00000290: 689d f53c ac20 40bd 8640 053c e4e6 1cbd
000002a0: c98f 8b3b 805a d43c 20f2 193c 5984 6c3c
000002b0: 6f29 893c a2e8 c93c 53c7 a73b 1a64 e7be
000002c0: d767 a5be 95ce 08be af0c 94be b689 0ebf
000002d0: 5149 10be 5d81 10be ca6d cebd 2d0e 073e
000002e0: 068c e1bd 988a 9abe 032a c9bd d76c 25be
000002f0: 45da 1fbe 2ff6 01be 548e a1be dec8 40be
00000300: 64ba 93bd 4e0a 143e 211b 98be e9dc 9fbd
00000310: a676 66be 8125 fe3d ef46 eebc 09c5 a0be
00000320: a845 033c 5cb5 b13c f3e0 ccbc 378e dbbc
00000330: d6da a63c 9187 003d 9f69 85bc 8e68 ae3c
00000340: b276 e7bc e8c2 02bd 2c27 c13c 8058 c03a
00000350: 4074 4abc 50ad adbc 34cd 2abc 2c59 c6bc
00000360: 1662 82bc a0e6 cbbc d44c 293c 00d8 a037
00000370: 56ac 653c 3413 923c f027 19bb 20f3 2e3b
00000380: 00de 15ba 24cc e0bb 563b 9a3a 503f 65bb
00000390: b255 13ba b465 d2bc 260d ddbc 37d2 cabc
000003a0: d09b da3b 825b 833b 32e0 fd3c de5a bcbc
000003b0: 600c 0abd 58bf d8bb ca2c f73c 007e 883a
000003c0: 900c 763b 7056 cd3c d4b3 c1bc a815 68bc
000003d0: 5a74 173d da9f a83c a0ec 583b b1c2 ca3c
000003e0: 0d05 d8bc 40d1 823c 588e 3e3d 87a4 8bbc
000003f0: bb26 3a3d 92b1 10bd b6f1 223c 8fa5 a63b

fc1.bias f4 [64]
0.08286522 -0.082030304 -0.048864424 0.08780632 0.08928223 0.028980242 -0.012884347 0.0161464
-0.042377565 0.040338937 -0.058088366 0.011463462 -0.045033388 -0.020456202 -0.015576088 -0.058576807
-0.026316393 -0.0024366246 -0.05739134 -0.036065303 -0.05573055 0.06607054 0.07344685 -0.042683497
0.11557674 -0.012901784 0.040278435 -0.012231792 -0.060946815 -0.009338454 -0.0150720915 0.06385941
-0.04356663 0.087904416 0.10919607 -0.039709605 0.019540975 0.07951811 -0.05606781 0.09404711
-0.035082106 -0.003403365 0.0007767891 0.077349484 -0.012598435 0.021653965 0.021780608 0.018479867
0.026443783 -0.026650941 0.079284236 -0.0531398 0.034111608 -0.013359827 0.10888509 -0.05000281
0.012673318 -0.033347506 -0.05633584 0.06346374 -0.05590007 -0.0036882758 0.06830428 -0.039682455
00000000: 3eb5 a93d 81ff a7bd 1026 48bd cdd3 b33d
00000010: 9ad9 b63d f967 ed3c de18 53bc 7445 843c
00000020: 1994 2dbd 713a 253d 11ee 6dbd 3fd1 3b3c
00000030: ee74 38bd c493 a7bc d932 7fbc 3cee 6fbd
00000040: 7a95 d7bc c7af 1fbb 2f13 6bbd 36b9 13bd
00000050: b845 64bd fe4f 873d 4d6b 963d e4d4 2ebd
00000060: 7fb3 ec3d 0162 53bc 00fb 243d db67 48bc
00000070: 5ea3 79bd 5100 19bc eff0 76bc b9c8 823d
00000080: ec72 32bd 3b07 b43d 30a2 df3d 8aa6 22bd
00000090: 6514 a03c 64da a23d 5ca7 65bd c59b c03d
000000a0: 41b2 0fbd fd0a 5fbb 6fa1 4b3a 6869 9e3d
000000b0: ab69 4ebc a863 b13c 3f6d b23c 1763 973c
000000c0: a2a0 d83c 1353 dabc c65f a23d 1ea9 59bd
000000d0: 9db8 0b3d 2de3 5abc 25ff de3d bfcf 4cbd
000000e0: c0a3 4f3c 6597 08bd 69c0 66bd 47f9 813d
000000f0: 79f7 64bd 00b7 71bb 1de3 8b3d 128a 22bd

fc4.weight f4 [8, 64]
0.023250967 0.09250235 0.043562513 -0.3769037 -0.08895839 -0.073434584 0.012981391 -0.12046036
0.08083098 0.03294915 0.03834452 0.27668795 0.025874302 0.17779447 -0.046562165 0.03683125
0.099307396 -0.03392442 -0.0760426 -0.083761096 0.120414436 -0.07042901 -0.39919534 0.04066809
0.2585109 -0.036004815 -0.3260443 -0.010122087 -0.09453462 0.0026360154 0.06912429 0.01506807
0.035831764 -0.28569064 0.15608118 -0.032072544 0.09282181 0.3046951 -0.099640235 -0.21494542
0.08128446 0.026103104 0.088371105 0.3259972 0.0035001044 -0.23766524 0.062362544 0.050171945
0.017680934 -0.078954205 0.21378784 -0.07661846 0.033594422 0.03708652 0.265715 -0.01188205
0.094011575 0.09237026 0.06743312 -0.23145999 -0.07211375 -0.03145735 -0.16789103 0.114703715
-0.31696525 -0.0068612034 0.12013714 -0.008233023 -0.2777105 -0.1665646 -0.043795347 0.11119673
0.111145526 0.12826963 -0.08964972 0.2663333 0.018277228 0.018511984 -0.052754313 0.045078497
0.0587652 -0.10827851 -0.051634833 -0.13488933 0.04406847 0.0027519532 -0.26547894 -0.123185456
0.30244 0.018862104 0.0031047526 -0.08935267 -0.048700396 0.072856605 0.14646901 0.083883926
-0.036886513 -0.043141313 0.2308844 -0.055240706 0.108371116 -0.5949156 0.1142018 -0.36663356
-0.09333188 -0.04008919 0.05093419 0.16040419 0.014996569 0.25762725 0.046573374 0.034337487
-0.029913738 -0.07739463 0.06945953 -0.12101485 -0.42756248 -0.12048351 -0.10223996 -0.07535216
0.027368478 0.057881102 0.029275134 0.21154194 0.026972815 -0.09745884 0.15488558 -0.09979007
-0.21427013 0.07558745 0.03881763 -0.08206126 -0.3721949 0.17914166 0.033534367 0.055152327
0.08969705 0.15246475 0.06655925 0.3079855 -0.015097918 -0.16231307 -0.1172829 0.056511927
0.08306716 -0.10639759 -0.12787269 -0.08551039 -0.019573301 -0.189728 -0.18047166 0.037209805
-0.004653103 0.082783915 -0.09137499 0.11514188 0.079544224 0.098639876 -0.2980652 0.07689111
-0.07234213 -0.40851998 0.11415152 0.031291902 -0.028826434 0.03786047 -0.0163614 -0.12402444
-0.02996713 0.08522953 -0.038039666 -0.25554636 0.042436577 -0.32085553 0.11594516 0.30796188
0.00072350405 -0.032213733 0.20803419 0.0041164756 -0.020691492 0.028683702 0.118204854 0.1215501
-0.102750055 0.0720409 0.056500982 -0.4259937 -0.09399642 -0.10482763 0.17286576 -0.04151597
-0.3370666 -0.15226284 -0.075310186 0.035148922 -0.2214831 -0.20110404 -0.087991044 -0.10602322
0.10246056 -0.0020361666 0.054109234 0.31392324 -0.11370488 -0.26443738 -0.048503473 0.016343039
0.062468685 0.09761326 -0.12416183 0.004399157 0.012906747 -0.2184824 -0.034948904 0.0064860866
0.012699241 -0.09395574 -0.2682268 -0.13085146 0.05282609 0.03124921 0.0872714 0.43427193
0.103223555 -0.0017166805 0.045079216 -0.04932645 -0.08086924 -0.101477966 -0.037195474 -0.18430015
-0.016531974 -0.107375115 0.015526884 0.087885916 0.019076576 0.31805602 -0.07518341 0.2230421
0.107080586 -0.04439503 -0.19908959 -0.063730106 -0.10725505 -0.022543445 0.14750722 -0.056916043
-0.12614027 -0.08768721 0.054780282 -0.122179076 -0.07721646 -0.078323215 0.01861126 -0.05802936
00000000: d078 be3c df71 bd3d 9b6e 323d 86f9 c0be
00000010: d12f b6bd df64 96bd e6af 543c ecb3 f6bd
00000020: b68a a53d b0f5 063d 250f 1d3d 0baa 8d3e
00000030: 58f6 d33c c10f 363e f8b7 3ebd 5ddc 163d
00000040: ad61 cb3d 55f4 0abd 39bc 9bbd f08a abbd
00000050: d89b f63d 163d 90bd 5563 ccbe 9593 263d
00000060: 8a5b 843e c979 13bd 47ef a6be 1cd7 25bc
00000070: 5e9b c1bd 00c1 2c3b 0991 8d3d 11e0 763c
00000080: 54c4 123d 0b46 92be bfd3 1f3e 805e 03bd
00000090: 5c19 be3d ff00 9c3e 2e10 ccbd a71a 5cbe
000000a0: 7878 a63d 2dd6 d53c e9fb b43d 1be9 a63e
000000b0: 0262 653b 845e 73be de6f 7f3d 1981 4d3d
000000c0: 9bd7 903c beb2 a1bd 33eb 5a3e 24ea 9cbd
000000d0: 4e9a 093d 09e8 173d cc0b 883e eeac 42bc
000000e0: 2489 c03d 9e2c bd3d 601a 8a3d d903 6dbe
000000f0: 60b0 93bd 6cd9 00bd a0eb 2bbe c8e9 ea3d
00000100: 4549 a2be f2d3 e0bb 760a f63d cde3 06bc
00000110: 1230 8ebe e98f 2abe c062 33bd 1cbb e33d
00000120: 44a0 e33d 1d59 033e 469a b7bd d75c 883e
00000130: 20ba 953c 72a6 973c e814 58bd 3ba4 383d
00000140: c7b3 703d 20c1 ddbd 0c7f 53bd 6e20 0abe
00000150: 2481 343d 1d5a 343b dbec 87be a848 fcbd
00000160: 6ad9 9a3e b384 9a3c 1b79 4b3b 88fe b6bd
00000170: 117a 47bd d835 953d f9fb 153e 56cb ab3d
00000180: 5016 17bd f2b4 30bd f66c 6c3e 1444 62bd
00000190: adf1 dd3d 644c 18bf a2e2 e93d 65b7 bbbe
000001a0: c924 bfbd 9034 24bd 5fa0 503d ff40 243e
000001b0: 2bb4 753c b8e7 833e b9c3 3e3d 77a5 0c3d
000001c0: a80d f5bc 1381 9ebd cc40 8e3d a2d6 f7bd
000001d0: 78e9 dabe 0fc0 f6bd 2f63 d1bd 3c52 9abd
000001e0: dc33 e03c bc14 6d3d 68d2 ef3c 739e 583e
000001f0: 18f6 dc3c 8098 c7bd 539a 1e3e bc5e ccbd
00000200: a169 5bbe 98cd 9a3d 3cff 1e3d bc0f a8bd
00000210: 5490 bebe e970 373e 555b 093d 68e7 613d
00000220: 16b3 b73d b81f 1c3e 3750 883d 47b0 9d3e
00000230: 425d 77bc 6635 26be 0432 f0bd 0d79 673d
00000240: 1d1f aa3d fbe6 d9bd 0ff1 02be 1220 afbd
00000250: 3058 a0bc 0f48 42be 90cd 38be 4f69 183d
00000260: 0f79 98bb 9d8a a93d d022 bbbd 82cf eb3d
00000270: 15e8 a23d b403 ca3d 009c 98be 1679 9d3d
00000280: 1c28 94bd 8829 d1be 46c8 e93d f02b 003d
00000290: 6a25 ecbc 9513 1b3d 5808 86bc 8700 febd
000002a0: a07d f5bc d28c ae3d 7bcf 1bbd f9d6 82be
000002b0: fad1 2d3d 2d47 a4be a874 ed3d 2ead 9d3e
000002c0: 89a9 3d3a 8cf2 03bd ea06 553e 80e3 863b
000002d0: 3481 a9bc 15fa ea3c 6315 f23d 42ef f83d
000002e0: 9f6e d2bd 2e8a 933d 936d 673d d91b dabe
000002f0: 3281 c0bd deaf d6bd b903 313e a60c 2abd
00000300: fe93 acbe caea 1bbe 3a3c 9abd 51f8 0f3d
00000310: 77cc 62be 38ee 4dbe a634 b4bd b422 d9bd
00000320: d8d6 d13d 3571 05bb a5a1 5d3d 8cba a03e
00000330: 1bde e8bd 5664 87be 94ab 46bd d6e1 853c
00000340: 2adf 7f3d 76e9 c73d 8f48 febd ce26 903b
00000350: d276 533c dab9 5fbe 9526 0fbd 3d89 d43b
00000360: 7a10 503c de6b c0bd 0655 89be edfd 05be
00000370: 2c60 583d 58fe ff3c 59bb b23d e458 de3e
00000380: df66 d33d 3d02 e1ba fca4 383d 880a 4abd
00000390: c69e a5bd aed3 cfbd 485a 18bd 2eb9 3cbe
000003a0: 106e 87bc 7ce7 dbbd 7964 7e3c 88fd b33d
000003b0: 7b46 9c3c 3dd8 a23e c2f9 99bd 2665 643e
000003c0: 114d db3d 90d7 35bd 24de 4bbe ee84 82bd
000003d0: 89a8 dbbd 08ad b8bc 220c 173e cc20 69bd
000003e0: ea2a 01be 5a95 b3bd 4a61 603d 0639 fabd
000003f0: aa23 9ebd ec67 a0bd a476 983c 32b0 6dbd

fc4.bias f4 [8]
0.11312681 0.09833943 -0.13150615 -0.09072758 -0.05956596 -0.02465812 0.045114238 0.13418621
00000000: 07af e73d 2f66 c93d 8ca9 06be 62cf b9bd
00000010: 70fb 73bd d3ff c9bc b5c9 383d 1c68 093e

conv1.weight f4 [16, 2, 4, 4]
-0.15937926 -0.081107356 -0.37498614 -0.764245 -0.28598824 -0.5721245 -0.10319844 -0.4831718
-0.2624788 -0.49161175 -0.15522498 -0.39570457 -0.35688615 -0.2936902 -0.13092606 -0.23052451
-0.05548613 -0.07832229 0.13611211 0.031714085 0.09095049 0.10341833 -0.17044048 0.014055668
0.07934285 -0.070250966 -0.10596376 -0.23026945 -0.18840604 -0.107720524 0.1418931 -0.10831822
-0.03361851 -0.56148857 -0.4291566 -0.5182862 -0.05263913 -0.30431476 -0.42405006 -0.27763057
-0.20537041 -0.4359911 -0.0005731451 -0.21876107 -0.12790518 -0.36049128 -0.17146674 -0.15067214
-0.19403888 -0.009745811 0.11298834 -0.09483004 0.13807268 -0.12504925 -0.16540109 -0.14683837
0.11785193 -0.26501983 -0.29740304 -0.12935713 -0.0013954706 0.027267726 -0.17877974 -0.17488019
0.11536517 -0.010353129 -0.18643129 0.7195008 -0.54462016 0.006064594 0.4103429 0.65424764
0.32438532 0.28552023 0.45027202 0.65169 -0.29453188 0.3201534 0.5618102 1.0185177
-0.06458898 -0.11177259 0.060100168 -0.13112308 -0.011679898 0.053904366 -0.19394961 -0.37260932
-0.19341888 0.05916025 -0.03757172 -0.122983605 -0.05862558 -0.0467801 -0.066458106 0.07212632
0.79555434 0.7959417 0.6497812 1.5707371 0.32801872 0.30269778 0.5978847 0.60447764
0.34671187 0.3773103 0.050059516 0.7353382 0.2785733 0.35700652 0.65533 0.768929
-0.00013113997 -0.027584746 0.20408882 -0.0038861593 -0.0019395727 -0.103125036 -0.047651485 -0.018293886
0.18006039 -0.012200559 -0.021164533 -0.06437458 -0.04568238 0.1284224 0.14090088 -0.20425749
-0.032728326 1.7789747 1.7244896 0.4208245 -0.3256049 0.90557384 0.93307054 0.8558931
0.6247173 0.35067815 0.25876844 0.49514034 0.54298574 0.49838307 -0.36535963 -0.007124215
0.122285366 -0.36446953 0.108901255 0.05946699 0.09514415 0.18307719 -0.067905724 -0.12167559
0.1914249 -0.11196598 -0.095659204 0.00825134 0.025143512 0.028747274 0.1318997 0.038200844
0.50802904 -0.026306799 -0.76001036 1.5088724 -0.062402822 -0.3323979 0.32681286 0.9071799
-0.052221477 0.093460806 0.049274683 0.6383291 0.44618392 0.5703699 0.38039476 0.73878926
-0.0045145373 -0.027351663 0.10916648 -0.30767402 0.04299643 -0.24349616 -0.02812361 -0.046506036
-0.15908897 -0.03055963 0.040454555 -0.2851932 0.06828582 0.12611535 -0.18971193 0.032309856
-0.46802652 -0.037629724 -0.13725848 0.0019424772 -0.53177565 -0.36661342 -0.48005533 -0.39427263
-0.2559884 -0.011063266 -0.18517333 0.079374544 -0.3118881 -0.3267429 -0.4829532 -0.028436858
-0.052980337 -0.15544541 0.040864233 0.014702792 -0.1243355 -0.11557171 -0.20871799 -0.1519733
0.06074152 0.2298863 0.025704658 -0.26931962 -0.24570997 0.14705591 -0.11874609 -0.26431078
-0.35592434 -0.3529564 -0.36406344 -0.19223736 -0.35801595 -0.19841631 0.15340921 -0.43658006
-0.03248929 -0.15720145 -0.18735729 -0.17948498 -0.264142 -0.42300746 -0.18515263 -0.45888028
0.11815593 0.024493555 0.063444786 0.13883066 -0.06794931 -0.25327936 -0.2893472 -0.18218985
-0.05594482 -0.0455534 0.042350695 0.006370942 -0.19468452 -0.031183546 -0.063106336 -0.15320997
00000000: 5134 23be 9d1b a6bd 2ffe bfbe 8fa5 43bf
00000010: 0d6d 92be c076 12bf b459 d3bd 4b62 f7be
00000020: 9f63 86be 89b4 fbbe 4cf3 1ebe ca99 cabe
00000030: c8b9 b6be 905e 96be 7b11 06be 9e0e 6cbe
00000040: 6d45 63bd 7067 a0bd f960 0b3e a1e6 013d
00000050: 4044 ba3d fdcc d33d f387 2ebe bf49 663c
00000060: 817e a23d bddf 8fbd 8703 d9bd c1cb 6bbe
00000070: 83ed 40be 949c dcbd 6d4c 113e f1d5 ddbd
00000080: 90b3 09bd b7bd 0fbf 6aba dbbe 68ae 04bf
00000090: 219c 57bd 25cf 9bbe 171d d9be 9825 8ebe
000000a0: 9f4c 52be 3a3a dfbe 1e3f 16ba e702 60be
000000b0: 93f9 02be 5092 b8be fa94 2fbe cc49 1abe
000000c0: 21b2 46be e5ac 1fbc 6e66 e73d 4136 c2bd
000000d0: ed62 0d3e e90c 00be e75e 29be cc5c 16be
000000e0: 5a5c f13d aeb0 87be 3645 98be 3276 04be
000000f0: 39e8 b6ba 9160 df3c 0912 37be cb13 33be
00000100: 9344 ec3d 2ca0 29bc d8e7 3ebe 3431 383f
00000110: 3a6c 0bbf 80b9 c63b 7718 d23e c67c 273f
00000120: d515 a63e b52f 923e 0e8a e63e 28d5 263f
00000130: e2cc 96be 25eb a33e cbd2 0f3f ca5e 823f
00000140: 3a47 84bd 07e9 e4bd 982b 763d 2145 06be
00000150: 0b5d 3fbc d3ca 5c3d ba9a 46be a6c6 bebe
00000160: 990f 46be 0552 723d cee4 19bd d4de fbbd
00000170: 6021 70bd 7d9c 3fbd 301b 88bd f7b6 933d
00000180: 73a9 4b3f d6c2 4b3f 1058 263f ea0d c93f
00000190: 12f2 a73e 34fb 9a3e f90e 193f 0cbf 1a3f
000001a0: 3884 b13e d12e c13e 350b 4d3d 203f 3c3f
000001b0: 29a1 8e3e 8fc9 b63e b5c3 273f 88d8 443f
000001c0: 9e82 09b9 68f9 e1bc a9fc 503e efae 7ebb
000001d0: 4339 feba 3833 d3bd 342e 43bd 0fdd 95bc
000001e0: c061 383e dae4 47bc 3e61 adbc d2d6 83bd
000001f0: 731d 3bbd 2981 033e 5248 103e e028 51be
00000200: 230e 06bd 71b5 e33f 13bc dc3f 4f76 d73e
00000210: afb5 a6be b0d3 673f b6dd 6e3f cf1b 5b3f
00000220: 79ed 1f3f 168c b33e 4c7d 843e 0983 fd3e
00000230: 1d01 0b3f 112c ff3e 6b10 bbbe 3f72 e9bb
00000240: c070 fa3d c09b babe 9f07 df3d a993 733d
00000250: f0da c23d 9678 3b3e 2812 8bbd 0d31 f9bd
00000260: e404 443e 6b4e e5bd f9e8 c3bd a130 073c
00000270: c4f9 cd3c 677f eb3c b710 073e 7d78 1c3d
00000280: 310e 023f 5b81 d7bc 0a90 42bf bb22 c13f
00000290: 1a9a 7fbd 0f30 aabe 0454 a73e f13c 683f
000002a0: 30e6 55bd 6168 bf3d 40d4 493d 8969 233f
000002b0: 3872 e43e c303 123f 1ac3 c23e 4b21 3d3f
000002c0: afee 93bb 9810 e0bc ad92 df3d 7387 9dbe
000002d0: 061d 303d 0f57 79be 7c63 e6bc 1d7d 3ebd
000002e0: 38e8 22be 3058 fabc adb3 253d d804 92be
000002f0: 70d9 8b3d 6224 013e d843 42be 5757 043d
00000300: 2ca1 efbe a021 1abd 7d8d 0cbe b89a fe3a
00000310: 7322 08bf c1b4 bbbe d0c9 f5be 1ade c9be
00000320: e910 83be b342 35bc 149e 3dbe 1f8f a23d
00000330: ccaf 9fbe d84a a7be a445 f7be 6af4 e8bc
00000340: e901 59bd 152d 1fbe 4161 273d fbe3 703c
00000350: 9ca3 febd dcb0 ecbd 2bba 55be e49e 1bbe
00000360: 1acc 783d 5067 6b3e 9392 d23c 43e4 89be
00000370: 659b 7bbe d395 163e 2631 f3bd be53 87be
00000380: b73b b6be b4b6 b4be 8666 babe dfd9 44be
00000390: de4d b7be a52d 4bbe 4e17 1d3e 6c87 dfbe
000003a0: 7d13 05bd 6bf9 20be 97da 3fbe e9ca 37be
000003b0: 9f3d 87be 6f94 d8be a798 3dbe 5bf2 eabe
000003c0: bcfb f13d b5a6 c83c 57ef 813d a029 0e3e
000003d0: 0229 8bbd d5ad 81be 5125 94be fa8f 3abe
000003e0: 6526 65bd 3496 3abd ec77 2d3d 56c3 d03b
000003f0: 615b 47be a374 ffbc e53d 81bd 13e3 1cbe

conv1.bias f4 [16]
0.23313116 0.12394911 0.19996096 0.08390259 -0.12704392 0.22158076 0.20225479 0.14643075
0.1885673 0.09037024 0.11806143 -0.003921386 0.06560347 -0.13898206 0.28253168 0.15841907
00000000: efb9 6e3e 08d9 fd3d 91c2 4c3e 1fd5 ab3d
00000010: cd17 02be 11e6 623e e11b 4f3e f1f1 153e
00000020: c917 413e 0814 b93d 31ca f13d f87e 80bb
00000030: 1d5b 863d 5051 0ebe fea7 903e 9c38 223e

conv2.weight f4 [32, 16, 4, 4]
-0.0034316424 -0.054090485 0.047639985 0.054591462 0.043719158 -0.070370376 -0.014552524 0.007302879
0.009975576 -0.019277742 -0.06306718 -0.008494592 0.07737477 0.041639525 -0.017082892 0.07477711
0.04401208 -0.05724649 -0.27667403 0.04219198 -0.026934823 -0.06952476 -0.011325464 0.031730384
0.061208397 -0.060552638 0.023058096 -0.05110702 -0.01585969 0.024406448 -0.008980795 0.005054806
-0.04476844 -0.049360324 0.019149778 0.028607778 0.017023899 0.037422076 -0.021170309 -0.0010607373
-0.028912794 0.021768348 0.05547594 -0.023464436 0.06599095 -0.071181595 -0.11141047 -0.05236393
-0.07961246 -0.11953038 -0.08436854 -0.065330304 -0.049792808 -0.06106519 -0.03743911 -0.07195728
-0.00953957 0.015967745 -0.017482335 -0.2031155 0.051697806 0.03197636 -0.042927638 -0.28453717
-0.6153883 -0.42577204 -0.29560918 -0.537498 -0.5008841 -0.10367231 -0.14567035 -0.53139484
-0.47285685 -0.061522797 -0.0796417 -0.35698378 -0.25294152 0.046836387 -0.0049612126 -0.4765181
-0.018776948 0.00811784 -0.0070756585 -0.14895146 0.013230833 0.07143278 -0.025399193 0.02728183
-0.06496195 -0.0057435227 0.07692558 -0.0065817176 0.06704319 0.10590626 -0.011787945 -0.16545053
0.05417984 0.016276367 0.11534561 0.105281666 0.018103372 0.010417979 -0.022404369 0.06116792
0.075356774 0.05669006 0.040518478 0.0340199 0.055545393 -0.04011452 -0.065379724 0.045066033
-0.012069124 0.03318071 0.0100563485 -0.017426476 0.056648914 -0.01225522 -0.012708349 -0.053692285
0.11606812 0.022981865 -0.0071752733 0.106231734 0.058641393 -0.012719675 -0.011310529 -0.025689771
-0.0018411748 -0.005262482 0.053127944 0.04710204 0.028590841 -0.010261842 -0.12678285 -0.05129208
-0.07289602 0.06910828 0.022665411 0.018802451 0.10307496 -0.053791296 0.010368447 0.018692156
-0.11481882 0.034436077 0.026014797 -0.016432302 -0.20836087 -0.04524305 -0.054370575 -0.058686096
-0.18041585 -0.21870609 0.055338062 -0.063988134 -0.15444732 -0.12283604 0.13680081 -0.08269005
0.007824761 0.038013592 -0.05256557 0.11948471 -0.011283309 -0.13300951 0.050762936 0.013898345
0.05432022 0.039200343 -0.08750664 0.0021028526 0.009927632 0.051791135 -0.08278735 -0.014838709
0.065595776 -0.06146458 -0.07816575 -0.06805435 -0.103160106 0.108062446 -0.02494769 0.08491549
-0.006552793 -0.3581064 -0.040639505 -0.043321624 -0.17771964 0.06259376 0.15327774 0.03785864
0.019062243 0.025157692 0.09812162 0.026148316 -0.036285546 -0.06750299 0.030887676 -0.08146996
0.06903392 0.0005004421 -0.30147 0.021306444 -0.1352922 -0.033436455 0.059533924 -0.03714694
-0.17452471 -0.06701637 -0.10892679 -0.5179613 -0.036845706 -0.10291624 -0.07748921 -0.31269798
-0.18260948 -0.046291575 -0.13471243 -0.30123115 -0.16170844 -0.009736364 -0.0161101 -0.65785843
0.10712446 0.015399033 0.03534158 0.08757123 -0.0069179516 -0.032263238 0.078244545 -0.013686185
-0.023436485 0.046990816 0.00033598876 0.023060093 0.103750914 -0.03680917 0.058580097 0.060121093
-0.012625765 -0.04463905 -0.0037198432 -0.0031160356 0.037698157 -0.074236974 0.062298674 -0.0037797813
0.12273129 -0.09221591 -0.042861484 0.046703577 0.077378035 0.09200676 -0.16408427 -0.13535455
00000000: 68e5 60bb fc8d 5dbd 2522 433d 4c9b 5f3d
00000010: dc12 333d 581e 90bd b66d 6ebc fd4c ef3b
00000020: 9970 233c 5bec 9dbc 5e29 81bd e72c 0bbc
00000030: aa76 9e3d 358e 2a3d 6cf1 8bbc be24 993d
00000040: 0346 343d 4c7b 6abd 38a8 8dbe 7fd1 2c3d
00000050: 6ba6 dcbc ff62 8ebd 708e 39bc b8f7 013d
00000060: a8b5 7a3d 0b06 78bd 55e4 bc3c 9855 51bd
00000070: 2eec 81bc 08f0 c73c 2f24 13bc c9a2 a53b
00000080: 1d5f 37bd 0d2e 4abd ffdf 9c3c dc5a ea3c
00000090: b475 8b3c e447 193d 5b6d adbc 7008 8bba
000000a0: 86da ecbc 8953 b23c bd3a 633d 7d38 c0bc
000000b0: 4326 873d a8c7 91bd 2c2b e4bd 8f7b 56bd
000000c0: dc0b a3bd 58cc f4bd 6ac9 acbd e5cb 85bd
000000d0: 8bf3 4bbd 7e1f 7abd c159 19bd 575e 93bd
000000e0: db4b 1cbc cace 823c 1d37 8fbc 82fd 4fbe
000000f0: 14c1 533d a5f9 023d e4d4 2fbd dbae 91be
00000100: 168a 1dbf cbfe d9be 165a 97be 7899 09bf
00000110: f139 00bf 2652 d4bd 9c2a 15be 7e09 08bf
00000120: 4b1a f2be 54ff 7bbd 301b a3bd 94c6 b6be
00000130: 8d81 81be 83d7 3f3d ab91 a2bb 2efa f3be
00000140: 1dd2 99bc b000 053c edda e7bb bb86 18be
00000150: 23c6 583c 594b 923d f811 d0bc 257e df3c
00000160: c50a 85bd 2934 bcbb 298b 9d3d 73ab d7bb
00000170: f14d 893d 62e5 d83d 3a22 41bc dd6b 29be
00000180: aeeb 5d3d 0456 853c 523a ec3d ea9d d73d
00000190: 864d 943c 2cb0 2a3c 5e89 b7bc 368b 7a3d
000001a0: a754 9a3d d633 683d b4f6 253d 7358 0b3d
000001b0: 9183 633d 1f4f 24bd cee5 85bd 2997 383d
000001c0: 93bd 45bc 7fe8 073d 62c3 243c f8c1 8ebc
000001d0: b108 683d 1eca 48bc ae36 50bc 71ec 5bbd
000001e0: 1fb5 ed3d 7744 bc3c 8e1e ebbb 0690 d93d
000001f0: f531 703d 2f66 50bc cc4f 39bc 5b73 d2bc
00000200: 9353 f1ba e670 acbb b09c 593d 12ee 403d
00000210: 5737 ea3c 4921 28bc 5dd3 01be a517 52bd
00000220: 824a 95bd a488 8d3d d0ac b93c 9907 9a3c
00000230: f718 d33d 4354 5cbd 6be0 293c 4b20 993c
00000240: 2126 ebbd d80c 0d3d fc1c d53c 099d 86bc
00000250: 8d5c 55be c750 39bd aeb3 5ebd d560 70bd
00000260: efbe 38be 7df4 5fbe 2aaa 623d 360c 83bd
00000270: 7027 1ebe 7691 fbbd 8315 0c3e 6759 a9bd
00000280: 6d33 003c 24b4 1b3d ff4e 57bd 66b4 f43d
00000290: a1dd 38bc a533 08be ccec 4f3d e2b5 633c
000002a0: e17e 5e3d 8a90 203d ae36 b3bd 03d0 093b
000002b0: 82a7 223c f122 543d 6a8c a9bd 0e1e 73bc
000002c0: 1457 863d 49c2 7bbd 5d15 a0bd 1460 8bbd
000002d0: 9b45 d3bd d84f dd3d 195f ccbc 2ce8 ad3d
000002e0: d0b8 d6bb b959 b7be 9c75 26bd 0472 31bd
000002f0: 23fc 35be 2831 803d d7f4 1c3e a911 1b3d
00000300: 6c28 9c3c 8117 ce3c fdf3 c83d fe34 d63c
00000310: 27a0 14bd 023f 8abd 2708 fd3c b9d9 a6bd
00000320: a861 8d3d 1a30 033a 475a 9abe da8a ae3c
00000330: 0a8a 0abe aaf4 08bd d8d9 733d 6427 18bd
00000340: 9bb6 32be e13f 89bd 0215 dfbd 1d99 04bf
00000350: 86eb 16bd c0c5 d2bd aab2 9ebd f319 a0be
00000360: fbfd 3abe 3c9c 3dbd 0ef2 09be f83a 9abe
00000370: e696 25be 4585 1fbc 54f9 83bc 6969 28bf
00000380: 1264 db3d 3a4c 7c3c 55c2 103d 8c58 b33d
00000390: fcaf e2bb 7526 04bd ad3e a03d 053c 60bc
000003a0: dffd bfbc 7179 403d a627 b039 85e8 bc3c
000003b0: 5c7b d43d 36c5 16bd aff1 6f3d 8941 763d
000003c0: 4cdc 4ebc 70d7 36bd 9dc8 73bb 6736 4cbb
000003d0: 6269 1a3d 8e09 98bd e52c 7f3d 35b6 77bb
000003e0: 8b5a fb3d b2db bcbd 868f 2fbd 404c 3f3d
000003f0: 6078 9e3d 0a6e bc3d b505 28be 629a 0abe

conv2.bias f4 [32]
0.093877204 0.034857593 -0.06928378 0.102547064 0.071258366 0.036833297 -0.08174611 0.1803912
-0.09198713 0.0036989478 -0.01944876 0.1280084 0.034136735 -0.08009335 0.124616876 0.10701628
0.014952432 0.008445817 0.069057055 -0.071387924 -0.029759021 0.11317136 0.0029747952 0.0963588
0.10633848 0.0002922946 0.14943013 0.03853316 0.043288574 -0.040308237 0.13135919 0.024737077
00000000: b142 c03d d6c6 0e3d a8e4 8dbd 3204 d23d
00000010: e8ef 913d 83de 163d 816a a7bd 79b8 383e
00000020: c063 bcbd 0c6a 723b 0253 9fbc a214 033e
00000030: f6d2 0b3d fb07 a4bd 2237 ff3d 5a2b db3d
00000040: 0cfb 743c 5360 0a3c c96d 8d3d d533 92bd
00000050: 31c9 f3bc 63c6 e73d c8f4 423b c357 c53d
00000060: fdc7 d93d 1e3f 9939 3604 193e f2d4 1d3d
00000070: 5c4f 313d 401a 25bd 0683 063e 69a5 ca3c

fc1.weight f4 [64, 800]
0.007881062 0.022547876 -0.039281182 0.013681161 0.108998954 0.011805729 0.021964213 -0.0114121465
0.0004523124 0.023955634 0.005434009 0.012654948 -0.035217486 0.034438614 -0.0035616441 -0.00021255991
0.045141652 -0.044012222 -0.05373053 0.004688187 -0.1071299 -0.019931598 0.014576152 0.018017424
0.099597685 -0.057407886 -0.075073086 -0.037299335 0.014012352 0.07951438 -0.0042660926 -0.029702367
-0.026128428 -0.08190841 -0.01098694 -0.17803152 -0.07622995 -0.025502136 0.030090185 0.0377284
0.02822737 0.012281538 -0.08338848 -0.033177603 0.006475767 -0.08985276 -0.114121184 -0.15107521
0.009500134 0.03455494 0.0035498515 0.014990696 0.004438879 -0.032743804 -0.007937922 0.0034088858
0.007513901 -0.019763457 -0.035696696 0.0074988157 0.027457079 0.037048046 0.04026187 0.019312348
0.025924863 -0.018587774 -0.01013167 0.014441423 -0.033909034 0.018846564 0.02114417 0.013302235
-0.022941079 -0.030855171 -0.018418152 -0.03182953 0.0056917677 0.0031838147 -0.016535662 0.06181492
0.042311758 0.016663989 -0.030494772 -0.08250116 -0.00663554 0.031099474 -0.00014489402 -0.03498746
-0.041212093 0.03445787 -0.018877221 -0.07949584 -0.051120047 0.014730226 -0.01369131 0.050397906
-0.040821712 0.06812013 0.027529923 0.05558196 -0.011345893 0.017516809 -0.04238937 -0.028447658
0.04106511 -0.004808426 0.039769243 0.01084151 0.0039819116 -0.013366872 -0.09236137 -0.079765074
-0.012947047 -0.008952106 -0.045058172 -0.03437333 -0.05180542 -0.10708648 0.05238383 -0.046886403
0.043337055 -0.008836872 -0.06197539 -0.0053824442 0.06296088 0.05341972 0.075788304 0.12820661
0.16814797 0.11867165 -0.021951318 -0.0003168066 0.0493564 -0.009024755 0.127035 -0.17583974
-0.0999563 0.2990474 0.06461744 -0.106281996 -0.42926458 -0.39043704 -0.37018487 -0.061023843
0.09074474 -0.19967952 -0.2145245 -0.05640299 0.20504664 0.19124946 0.03696089 -0.032905675
0.023479853 -0.016596654 0.019316658 0.025852948 -1.1038665e-05 -0.024318568 0.026834462 -0.014333623
-0.041956812 -0.025893139 -0.05036403 -0.045999706 0.029982284 -0.04690616 0.008133059 -0.038306132
0.004259084 0.02592206 0.009396106 0.014435851 0.01674339 0.02464706 0.005120197 -0.4519356
-0.32305786 -0.13360055 -0.28915927 -0.5567888 -0.14090468 -0.14111848 -0.10079534 0.13189001
-0.110130355 -0.30183864 -0.09822466 -0.161548 -0.15610607 -0.12691568 -0.315539 -0.18826625
-0.072132856 0.14457056 -0.29708198 -0.07805807 -0.22506198 0.12409497 -0.029086558 -0.31400326
0.008012213 0.021692924 -0.025009608 -0.026801212 0.020368021 0.031379286 -0.016285716 0.02129009
-0.02825484 -0.03192416 0.023578249 0.0014674813 -0.012356818 -0.021200806 -0.010424901 -0.024212442
-0.015915912 -0.024890244 0.010333259 1.917407e-05 0.014018139 0.017831422 -0.0023369752 0.0026695207
-0.00057169795 -0.006860273 0.0011766951 -0.0034980364 -0.00056203746 -0.025683261 -0.026983809 -0.024758441
0.0066714063 0.0040087113 0.030990694 -0.022992548 -0.033703208 -0.006614607 0.030172724 0.0010413527
0.003754411 0.02506563 -0.023645319 -0.0141653195 0.036976196 0.020584036 0.0033100024 0.02475104
-0.026369596 0.015968919 0.04652247 -0.017046226 0.045447093 -0.035325594 0.009945324 0.005085654
00000000: 921f 013c 53b6 b83c 4ee5 20bd f326 603c
00000010: d83a df3d d16c 413c 4bee b33c 03fa 3abc
00000020: 5824 ed39 9b3e c43c c50f b23b b356 4f3c
00000030: 3640 10bd 810f 0d3d 796a 69bb 9ee2 5eb9
00000040: 74e6 383d 2946 34bd 8b14 5cbd 5d9f 993b
00000050: ec66 dbbd 9747 a3bc d0d0 6e3c 4799 933c
00000060: dff9 cb3d 8824 6bbd ebbf 99bd 30c7 18bd
00000070: 1094 653c 6fd8 a23d 94ca 8bbb 6152 f3bc
00000080: 490b d6bc 99bf a7bd 9102 34bc e54d 36be
00000090: 731e 9cbd dbe9 d0bc b17f f63c 1889 1a3d
000000a0: 163d e73c 8138 493c 94c7 aabd 3de5 07bd
000000b0: ac32 d43b b904 b8bd 5eb8 e9bd 76b3 1abe
000000c0: 73a6 1b3c 7b89 0d3d a0a4 683b 899b 753c
000000d0: 0474 913b 5e1e 06bd 0f0e 02bc 9d67 5f3b
000000e0: 2c37 f63b f9e6 a1bc b336 12bd a0b8 f53b
000000f0: abed e03c b1bf 173d a1e9 243d ee34 9e3c
00000100: 6160 d43c 6345 98bc 4eff 25bc b89b 6c3c
00000110: 33e4 0abd 1c64 9a3c 8a36 ad3c 9ef1 593c
00000120: eeee bbbc fcc3 fcbc aae1 96bc ae5f 02bd
00000130: 0282 ba3b 8ca7 503b cc75 87bc a431 7d3d
00000140: 184f 2d3d eb82 883c 2cd0 f9bc 5ef6 a8bd
00000150: f26e d9bb 53c4 fe3c b1ee 17b9 034f 0fbd
00000160: 03ce 28bd b223 0d3d 67a4 9abc b7ce a2bd
00000170: 4163 51bd 0c57 713c 8451 60bc 096e 4e3d
00000180: ab34 27bd 9182 8b3d 6f86 e13c e9a9 633d
00000190: 20e4 39bc 697f 8f3c 7aa0 2dbd 100b e9bc
000001a0: e433 283d 0090 9dbb 13e5 223d 97a0 313c
000001b0: b27a 823b ba00 5bbc f527 bdbd df5b a3bd
000001c0: da1f 54bc dbab 12bc eb8e 38bd 0dcb 0cbd
000001d0: ec31 54bd 2850 dbbd 6d90 563d f50b 40bd
000001e0: 3282 313d 87c8 10bc e8d9 7dbd 375f b0bb
000001f0: a2f1 803d a3ce 5a3d e636 9b3d 9848 033e
00000200: fb2e 2c3e 1f0a f33d 40d3 b3bc 1019 a6b9
00000210: f029 4a3d 91dc 13bc 7715 023e 550f 34be
00000220: e3b5 ccbd be1c 993e 2656 843d 60aa d9bd
00000230: 91c8 dbbe 5de7 c7be df88 bdbe 23f4 79bd
00000240: 61d8 b93d ca78 4cbe 4fac 5bbe d206 67bd
00000250: bff7 513e e6d6 433e 4d64 173d 1ac8 06bd
00000260: d258 c03c b5f5 87bc f83d 9e3c 90c9 d33c
00000270: b532 39b7 bc37 c7bc f2d3 db3c 93d7 6abc
00000280: e8da 2bbd d91d d4bc 834a 4ebd 306a 3cbd
00000290: 689d f53c ac20 40bd 8640 053c e4e6 1cbd
000002a0: c98f 8b3b 805a d43c 20f2 193c 5984 6c3c
000002b0: 6f29 893c a2e8 c93c 53c7 a73b 1a64 e7be
000002c0: d767 a5be 95ce 08be af0c 94be b689 0ebf
000002d0: 5149 10be 5d81 10be ca6d cebd 2d0e 073e
000002e0: 068c e1bd 988a 9abe 032a c9bd d76c 25be
000002f0: 45da 1fbe 2ff6 01be 548e a1be dec8 40be
00000300: 64ba 93bd 4e0a 143e 211b 98be e9dc 9fbd
00000310: a676 66be 8125 fe3d ef46 eebc 09c5 a0be
00000320: a845 033c 5cb5 b13c f3e0 ccbc 378e dbbc
00000330: d6da a63c 9187 003d 9f69 85bc 8e68 ae3c
00000340: b276 e7bc e8c2 02bd 2c27 c13c 8058 c03a
00000350: 4074 4abc 50ad adbc 34cd 2abc 2c59 c6bc
00000360: 1662 82bc a0e6 cbbc d44c 293c 00d8 a037
00000370: 56ac 653c 3413 923c f027 19bb 20f3 2e3b
00000380: 00de 15ba 24cc e0bb 563b 9a3a 503f 65bb
00000390: b255 13ba b465 d2bc 260d ddbc 37d2 cabc
000003a0: d09b da3b 825b 833b 32e0 fd3c de5a bcbc
000003b0: 600c 0abd 58bf d8bb ca2c f73c 007e 883a
000003c0: 900c 763b 7056 cd3c d4b3 c1bc a815 68bc
000003d0: 5a74 173d da9f a83c a0ec 583b b1c2 ca3c
000003e0: 0d05 d8bc 40d1 823c 588e 3e3d 87a4 8bbc
000003f0: bb26 3a3d 92b1 10bd b6f1 223c 8fa5 a63b

fc1.bias f4 [64]
0.08286522 -0.082030304 -0.048864424 0.08780632 0.08928223 0.028980242 -0.012884347 0.0161464
-0.042377565 0.040570512 -0.058088366 0.010283191 -0.045033388 -0.02243843 -0.015576088 -0.058576807
-0.026316393 -0.0024366246 -0.05739134 -0.036065303 -0.05573055 0.06607054 0.07344685 -0.042683497
0.1175047 -0.012901784 0.040278435 -0.012231792 -0.060946815 -0.009338454 -0.0150720915 0.06345172
-0.04356663 0.087904416 0.10691797 -0.039709605 0.019540975 0.07951811 -0.05606781 0.09404711
-0.035082106 -0.003403365 0.0007767891 0.077349484 -0.012598435 0.02110159 0.021780608 0.017307416
0.026443783 -0.026650941 0.079284236 -0.0531398 0.034111608 -0.013359827 0.10816607 -0.05000281
0.012673318 -0.033347506 -0.05633584 0.06346374 -0.05590007 -0.0036882758 0.064926006 -0.039682455
00000000: 3eb5 a93d 81ff a7bd 1026 48bd cdd3 b33d
00000010: 9ad9 b63d f967 ed3c de18 53bc 7445 843c
00000020: 1994 2dbd 442d 263d 11ee 6dbd d47a 283c
00000030: ee74 38bd ccd0 b7bc d932 7fbc 3cee 6fbd
00000040: 7a95 d7bc c7af 1fbb 2f13 6bbd 36b9 13bd
00000050: b845 64bd fe4f 873d 4d6b 963d e4d4 2ebd
00000060: 4ea6 f03d 0162 53bc 00fb 243d db67 48bc
00000070: 5ea3 79bd 5100 19bc eff0 76bc faf2 813d
00000080: ec72 32bd 3b07 b43d cff7 da3d 8aa6 22bd
00000090: 6514 a03c 64da a23d 5ca7 65bd c59b c03d
000000a0: 41b2 0fbd fd0a 5fbb 6fa1 4b3a 6869 9e3d
000000b0: ab69 4ebc 3edd ac3c 3f6d b23c 48c8 8d3c
000000c0: a2a0 d83c 1353 dabc c65f a23d 1ea9 59bd
000000d0: 9db8 0b3d 2de3 5abc 2c86 dd3d bfcf 4cbd
000000e0: c0a3 4f3c 6597 08bd 69c0 66bd 47f9 813d
000000f0: 79f7 64bd 00b7 71bb edf7 843d 128a 22bd
