saved_models/dqn_checkpoint_ep50.pth (torch, 981331 bytes, 32 tensors)

conv1.weight f4 [16, 2, 4, 4]
0	0xbeb78878	-0.35846305
1	0xbddac961	-0.10682941
2	0xbe52775e	-0.20553347
3	0xbf1f71fa	-0.6228329
4	0xbd6f04be	-0.058354132
5	0xbf1276c0	-0.5721245
6	0xbeaa0cf4	-0.33213007
7	0xbef64b77	-0.4810445
8	0xbda9eb14	-0.08296791
9	0xbe912b05	-0.28353134
10	0xbe7518f6	-0.23935303
11	0xbed480c7	-0.415045
12	0xbdc77341	-0.0973878
13	0xbd85150a	-0.064981535
14	0x3e1a3aef	0.15061544
15	0x3d274846	0.04084041
16	0x3c8e4939	0.0173689
17	0xbd390568	-0.04517117
18	0x3e2d8a3c	0.16947263
19	0x3db11fda	0.08648653
20	0x3e054690	0.13015199
21	0x3e0e911c	0.13922542
22	0xbe1ac7b5	-0.15115245
23	0x3d8196fd	0.06327627
24	0x3dcd5277	0.100254945
25	0xbcd4754a	-0.025934834
26	0xbd94d0ce	-0.07266389
27	0xbe4c31eb	-0.19940917
28	0xbe0e7476	-0.13911614
29	0xbdbdc312	-0.09265722
30	0x3e3deda5	0.18547685
31	0xbdce7af4	-0.10082045
32	0x3d7bdbdc	0.06148897
33	0xbf0fbdb7	-0.56148857
34	0xbedbba6a	-0.4291566
35	0xbf04ae68	-0.5182862
36	0xbca54442	-0.02017415
37	0xbdf6969e	-0.12040447
38	0xbeaebfac	-0.3413061
39	0xbe92299f	-0.2854738
40	0x3dd4b122	0.10385348
41	0xbead4b47	-0.33846495
42	0x3d4ab792	0.049491473
43	0xbe456e64	-0.19280392
44	0x3dd6c88f	0.10487472
45	0xbe032cdb	-0.1281008
46	0x3dce3695	0.100690044
47	0xbe871785	-0.2638513
48	0xbe55fe98	-0.20897901
49	0x3d28b078	0.04118392
50	0x3e2f50b6	0.17120633
51	0xbcd2dcac	-0.02573999
52	0x3e376571	0.1790979
53	0xbe12714b	-0.1430103
54	0xbdb5f87b	-0.088852845
55	0xbcffab04	-0.031209476
56	0x3e017bd1	0.12644888
57	0xbe9c2eeb	-0.30504546
58	0xbe7f733d	-0.24946304
59	0xbdc15dc4	-0.094417125
60	0x3c228198	0.009918593
61	0x3d2cbaaa	0.042170204
62	0xbe047e7d	-0.12938876
63	0xbe1468f8	-0.14493167
64	0x3e1f92ae	0.15583298
65	0x3e07a1f4	0.13245374
66	0xbe8a8bb2	-0.27059704
67	0x3fb317bd	1.3991619
68	0xbe1ee871	-0.15518357
69	0xbd5bcbf7	-0.053661313
70	0x3f339938	0.7015567
71	0x3f7e97e3	0.9945051
72	0x3e37e92e	0.17960045
73	0xbda43644	-0.08018163
74	0x3e496b17	0.19669758
75	0x3f1715d9	0.5901771
76	0xbe52e3e4	-0.20594746
77	0xbe6c553d	-0.23079391
78	0xbdd5791f	-0.10423493
79	0x3e1b9e16	0.15197024
80	0xbd4fd839	-0.050743315
81	0xbdea6117	-0.114443
82	0x3d832998	0.06404418
83	0xbda172c1	-0.07883216
84	0x3d369948	0.044579774
85	0x3d4d4374	0.050113156
86	0xbe4830aa	-0.19549814
87	0xbe90a63e	-0.28251833
88	0xbe483e77	-0.19555078
89	0x3d9e0ef8	0.07717699
90	0xbd673ce7	-0.056454565
91	0xbd8f569c	-0.06998941
92	0x3cfa7dd8	0.030577585
93	0xbd5373a4	-0.051623955
94	0x3ced61c4	0.028977282
95	0x3d485331	0.048907463
96	0x3ee0b955	0.43891397
97	0x3f4d038a	0.80083525
98	0x3f5ba94f	0.8580522
99	0x3fe6e54f	1.803873
100	0x3e97a900	0.29621124
101	0x3e7a59aa	0.24448267
102	0x3f3470d5	0.7048467
103	0x3f4bd726	0.79625165
104	0x3e4c3296	0.19941172
105	0x3e8ba067	0.27270815
106	0x3ce40262	0.027833167
107	0x3f460367	0.7734894
108	0x3c24966c	0.010045629
109	0xbce98438	-0.02850543
110	0x3e7dd9df	0.24790142
111	0x3e806f15	0.2508475
112	0x3c9bf2d9	0.019036697
113	0xbc98cc85	-0.01865221
114	0x3e39dfca	0.18151775
115	0xbd0195a6	-0.031636856
116	0xbb53e498	-0.0032332297
117	0xbda38127	-0.07983618
118	0xbc8e118b	-0.01734235
119	0x3d4b8d46	0.049695276
120	0x3e1f65ca	0.15566173
121	0xbc41292e	-0.011789603
122	0xbcfe5446	-0.031046044
123	0xbd85638f	-0.0651313
124	0xbd27885e	-0.040901534
125	0x3e13d572	0.14436892
126	0x3e053733	0.13009338
127	0xbdbd52a1	-0.09244276
128	0x3d8ab3df	0.06772589
129	0x3fd40030	1.6562557
130	0x400194d3	2.0247085
131	0x3f22a7f1	0.6353751
132	0xbe036ffb	-0.12835686
133	0x3f2829dc	0.6568887
134	0x3f5ca20c	0.86184764
135	0x3f3e9fdb	0.7446267
136	0x3eba2ee7	0.3636391
137	0x3e8a1d34	0.26975405
138	0xbe1b914a	-0.15192142
139	0x3eb060bb	0.344488
140	0x3e2e066c	0.16994637
141	0x3e79c041	0.24389745
142	0xbdb0e38a	-0.0863715
143	0xbe025472	-0.12727526
144	0x3d98808a	0.07446392
145	0xbedd70a0	-0.4324999
146	0x3db59066	0.088654324
147	0x3db639e5	0.08897761
148	0x3ddc9f83	0.10772612
149	0x3e047a4d	0.12937279
150	0xbe6ce982	-0.23135951
151	0xbdcb44b0	-0.099252105
152	0x3e3b2b26	0.18278179
153	0x3c60fb8a	0.013731847
154	0xbe384bd3	-0.17997675
155	0x3d99164d	0.07474957
156	0xbe6de16c	-0.23230523
157	0x3d9f360f	0.07773983
158	0x3defcb32	0.11708678
159	0x3db5c7a4	0.08875969
160	0x3ebadc2b	0.364961
161	0x3e663606	0.22481546
162	0xbeefcd78	-0.46836448
163	0x3fef8592	1.8712637
164	0x3e02d35c	0.1277594
165	0xbd9bdeb9	-0.0761084
166	0x3f034bb4	0.5128739
167	0x3f90ba71	1.1306897
168	0x3d33b411	0.043872897
169	0x3de06a42	0.10957767
170	0xbb750c29	-0.0037391281
171	0x3f17577a	0.59117854
172	0xbdc218f7	-0.09477418
173	0x3e574471	0.21022202
174	0x3cc7bdca	0.02438249
175	0x3dfabb4f	0.122427575
176	0xb9c2af04	-0.0003713296
177	0xbcb6e611	-0.022326501
178	0x3dbbedd5	0.09176222
179	0xbe4f0663	-0.2021728
180	0x3d12493f	0.035714384
181	0xbe58ad1d	-0.21159787
182	0xbcba3a92	-0.022733007
183	0xbc34e303	-0.011040452
184	0xbe2e6b90	-0.1703322
185	0x3c2b5b15	0.010458727
186	0x3cbc49af	0.022984354
187	0xbe144100	-0.1447792
188	0x3d957f47	0.07299667
189	0x3e0b4003	0.13598637
190	0xbd85d043	-0.065338634
191	0x3d9e71f7	0.07736581
192	0xbe376163	-0.17908244
193	0xbe9bfef5	-0.30467954
194	0xbe7a2bb7	-0.24430738
195	0xbee74433	-0.4516922
196	0xbe96b424	-0.2943431
197	0xbe3bf217	-0.18354069
198	0xbf046f73	-0.5173256
199	0xbf046a42	-0.51724637
200	0xbdc34ddf	-0.09536337
201	0xbd0b279b	-0.033973318
202	0xbdc396fe	-0.09550284
203	0xbe9a54bd	-0.30142775
204	0xbe2fa8c3	-0.17154221
205	0xbe2dd2c6	-0.16974935
206	0xbe4cf9f0	-0.20017219
207	0xbe7425e4	-0.23842579
208	0xbbd59ad8	-0.006518703
209	0xbe13731a	-0.14399377
210	0x3d7bb04e	0.061447434
211	0x3dad4e46	0.08462195
212	0xbdd25ce4	-0.10271624
213	0xbe18528c	-0.14875239
214	0xbe02cbaf	-0.12773012
215	0xbdd1d170	-0.10245025
216	0x3dc401f9	0.09570689
217	0x3e42cdaa	0.19023767
218	0x3d3f01f0	0.046632707
219	0xbe93bbad	-0.28854123
220	0xbe737b50	-0.23777509
221	0x3e1b7a2f	0.15183328
222	0xbdcc8785	-0.09986786
223	0xbe728441	-0.23683263
224	0xbe5e0b35	-0.21683963
225	0xbeb55455	-0.35415903
226	0xbeba6686	-0.36406344
227	0xbe994376	-0.2993428
228	0xbe64fd38	-0.2236222
229	0xbe24918f	-0.16071151
230	0xbe91b10b	-0.28455386
231	0xbedf876c	-0.43658006
232	0x3d67ed61	0.056622867
233	0xbded877f	-0.115981095
234	0xbe579637	-0.21053396
235	0xbe845817	-0.25848457
236	0xbe577e82	-0.21044353
237	0xbe4f6620	-0.20253801
238	0xbd6f5179	-0.058427308
239	0xbe8d89da	-0.27644235
240	0x3e13d7c1	0.14437772
241	0x3d8e319e	0.069430575
242	0x3de842b4	0.113408476
243	0x3e382dc3	0.17986207
244	0xbd250066	-0.040283583
245	0xbe8dbc93	-0.27682933
246	0xbe774f75	-0.24151404
247	0xbdaad9d3	-0.08342328
248	0xbc9f3012	-0.019432101
249	0xbd010ae4	-0.031504527
250	0x3d98b9bd	0.07457302
251	0x3c42730b	0.011868249
252	0xbe30f042	-0.17279151
253	0xbc4a3c95	-0.012343545
254	0x3c8004f4	0.015627362
255	0xbde5f031	-0.112274535

conv1.bias f4 [16]
0	0x3e6a42d8	0.22877061
1	0x3e1aea79	0.15128507
2	0x3e5788c7	0.2104827
3	0x3db2f675	0.08738414
4	0xbe487d7f	-0.19579123
5	0x3e6b287c	0.22964662
6	0x3e6ab29c	0.22919697
7	0x3e2a5b82	0.1663647
8	0x3e5e8276	0.21729454
9	0x3d7cbaaf	0.061701473
10	0x3df5797b	0.11986061
11	0xbd2a70f3	-0.041611623
12	0x3b3fc54d	0.0029261888
13	0xbdcea70c	-0.100904554
14	0x3e7d4183	0.24732022
15	0x3e0513d3	0.12995844

conv2.weight f4 [32, 16, 4, 4]
0	0x3c5191c0	0.012791097
1	0xbce6ccea	-0.028173883
2	0x3d89d33b	0.06729742
3	0x3d9d0f94	0.07668987
4	0x3d51e50a	0.05124382
5	0xbd3a0352	-0.045413323
6	0xba8e877f	-0.0010874121
7	0x3c5d787c	0.013517495
8	0x3c8c7bd7	0.017148895
9	0x3b6af5e8	0.0035852138
10	0xbcfd2bef	-0.030904738
11	0x3cb227c3	0.021747475
12	0x3d957794	0.07298198
13	0x3d9df719	0.07713146
14	0x3c78a34b	0.015175651
15	0x3dcd06e6	0.100110814
16	0x3d988f9b	0.074492656
17	0xbcf4bc2f	-0.02987489
18	0xbe919585	-0.28434387
19	0x3d926978	0.07149023
20	0xbc1fafdc	-0.009746518
21	0xbd9a6db0	-0.075404525
22	0xbb6657a6	-0.0035147457
23	0x3d287c41	0.041134123
24	0x3d8427b9	0.06452889
25	0xbc9114c6	-0.0177101
26	0x3ce2caba	0.027684558
27	0xbd64146c	-0.05568354
28	0xbc96496c	-0.018345557
29	0x3d469cfe	0.048489563
30	0x3be91b43	0.0071138456
31	0x3bffc063	0.0078049167
32	0xbc947838	-0.018123731
33	0x3c12f3b7	0.008969239
34	0x3d61c60a	0.055120505
35	0x3d98bf06	0.0745831
36	0x3cedcbcf	0.029027848
37	0x3d839979	0.06425757
38	0x3ba21cd4	0.0049472842
39	0x3d03c74e	0.032172494
40	0x3be31189	0.0069295806
41	0x3d688c98	0.056774706
42	0x3da6be09	0.08141715
43	0x3c3000cc	0.0107423775
44	0x3cf51b5e	0.029920276
45	0xbd5d5a44	-0.054041162
46	0x3bffeccf	0.007810212
47	0x3d458901	0.04822636
48	0xbbdc6163	-0.0067254766
49	0xbda79ce3	-0.08184221
50	0xbd64817d	-0.055787552
51	0xbd007b67	-0.031367686
52	0x3cac6e7a	0.021048773
53	0xbc2447a5	-0.010026847
54	0x39a1821e	0.00030805258
55	0xbd163a3e	-0.036676638
56	0x3d9f9273	0.07791605
57	0x3d81c844	0.06337026
58	0x3d19a438	0.037510127
59	0xbe044da7	-0.12920247
60	0x3da40cbc	0.080102414
61	0x3d0adf9f	0.033904668
62	0x3cb3d285	0.02195097
63	0xbe0a5637	-0.13509451
64	0xbf11943d	-0.5686682
65	0xbedc6ef6	-0.43053406
66	0xbe879a5e	-0.2648496
67	0xbf02269a	-0.5084015
68	0xbe91ffb8	-0.2851541
69	0xbd4b0453	-0.04956467
70	0xbe0190d3	-0.12652902
71	0xbf028354	-0.5098164
72	0xbe2bf0d0	-0.16791081
73	0x3d3d0c60	0.04615438
74	0xbd85d111	-0.06534017
75	0xbeb20bb7	-0.34774563
76	0xbcccfac5	-0.02502192
77	0xbcab42c5	-0.020905862
78	0xbdff6043	-0.12469532
79	0xbe9fe0cd	-0.31226197
80	0x3ce470fc	0.027885906
81	0x3d5e0da0	0.054212213
82	0x3cae956e	0.021311488
83	0xbdcb7d9d	-0.09936068
84	0x3d63eaa9	0.05564371
85	0x3dc3c6b4	0.09559384
86	0x3c654929	0.0139944935
87	0x3d53c4dc	0.05170141
88	0xbc20502b	-0.0097847385
89	0x3d07808d	0.03308158
90	0x3dca7983	0.09886458
91	0x3d27bb2a	0.040949978
92	0x3dae5d1f	0.08513855
93	0x3d876dd7	0.06612747
94	0x3b854b8f	0.004067845
95	0xbd9967cc	-0.07490501
96	0x3d752c74	0.059856847
97	0x3d44b4fe	0.04802417
98	0x3e03941f	0.12849472
99	0x3ded0d3a	0.115747884
100	0x3d2796ff	0.040915485
101	0x3d4c5db8	0.049894065
102	0xbcfb15b7	-0.030650003
103	0x3dc3a2d1	0.09552539
104	0x3d87b01c	0.06625387
105	0x3d956d9d	0.07296298
106	0x3d49ccda	0.049267627
107	0x3d492503	0.049107563
108	0x3d789247	0.060686376
109	0xbc19fbd7	-0.009398422
110	0xbd5184eb	-0.05115215
111	0x3d905f1c	0.07049391
112	0x3ce2d1c0	0.027687907
113	0x3d7991dc	0.060930118
114	0x3d3055d4	0.043050602
115	0x3c59f5cb	0.0133032305
116	0x3da89c9a	0.082329944
117	0x3c666b96	0.014063736
118	0xbce552c6	-0.027993571
119	0xbcceeba6	-0.02525885
120	0x3dd71474	0.10501948
121	0x3cbfe253	0.02342335
122	0xbbb7c8aa	-0.005608638
123	0x3dcf2ae8	0.101156056
124	0x3d90717e	0.07052897
125	0x3c88e5aa	0.016711075
126	0x3c0d5c71	0.008627997
127	0xbc837690	-0.016047746
128	0xbcb96495	-0.022630969
129	0x3cdd444e	0.02701011
130	0x3d78471e	0.060614698
131	0x3d90b5d7	0.07065933
132	0x3d4793de	0.048725
133	0x3c8c42d6	0.017121714
134	0xbdaf39fd	-0.08555982
135	0xbd280239	-0.041017745
136	0xbd910950	-0.07081854
137	0x3dcae9e5	0.09907893
138	0x3cce0b0a	0.025151748
139	0x3d803798	0.06260604
140	0x3dc033ba	0.09384866
141	0xbca2112d	-0.01978358
142	0x3cb3ad51	0.02193323
143	0x3c977710	0.01848939
144	0xbc174f0b	-0.009235154
145	0x3da006f8	0.07813829
146	0x3d2b09ed	0.041757513
147	0xbd248ed8	-0.04017529
148	0xbd41dc5b	-0.047329288
149	0xbca8d73c	-0.020610444
150	0x3cd01bd8	0.025403902
151	0xbb016abd	-0.001974746
152	0xbb9159d0	-0.0044357553
153	0xbdc48194	-0.095950276
154	0x3dcde40b	0.10053261
155	0x3b5af817	0.0033412033
156	0x3d8e659f	0.069529764
157	0xbc05d9df	-0.00816962
158	0x3dba3df4	0.09093848
159	0xbcd7900c	-0.026313804
160	0x3cfc3c8c	0.03079059
161	0x3cd866dd	0.026416237
162	0xbc019cc8	-0.007910915
163	0x3e125aac	0.14292401
164	0xbb9bc65f	-0.0047538723
165	0xbdb37048	-0.0876165
166	0x3d6c302c	0.057663128
167	0x3d15f3f5	0.03660961
168	0x3d04c11a	0.03241072
169	0x3d44ee13	0.048078608
170	0xbda2b2d0	-0.07944262
171	0x3bc375d6	0.005964975
172	0xbaf9b0f9	-0.0019049934
173	0x3db3cf00	0.087797165
174	0xbd696241	-0.056978468
175	0xbc0eccda	-0.008715833
176	0x3de207eb	0.110366665
177	0xbc9d10d4	-0.019173063
178	0xbd77ebca	-0.0605276
179	0xbd13bab2	-0.03606672
180	0xbcfd3041	-0.030906798
181	0x3dae21a9	0.08502514
182	0x3d15db44	0.03658606
183	0x3de65b0f	0.11247837
184	0x3da2a695	0.07941929
185	0xbe59785b	-0.21237318
186	0xbbcf8c77	-0.0063338834
187	0x3c992217	0.018693013
188	0x3cd79cf7	0.026319964
189	0x3bd80d9a	0.0065934183
190	0x3d22f877	0.039787736
191	0x3d95988b	0.07304486
192	0x3d3d176e	0.046164922
193	0x3da1e914	0.07905784
194	0x3e0780c8	0.1323272
195	0x3d3ba622	0.045812733
196	0x3d601732	0.05470962
197	0xbca8bec0	-0.02059877
198	0xbce3d938	-0.027813539
199	0xbd455452	-0.048176117
200	0x3e0c15e6	0.13680229
201	0x3dafe919	0.08589382
202	0xbe20b345	-0.15693386
203	0x3d3d67b2	0.04624147
204	0x3d78ad34	0.060712054
205	0xbcdb67f0	-0.02678296
206	0xbd5b1ba1	-0.053493146
207	0xbb1265c7	-0.0022338496
208	0xbd7fd1b3	-0.062455844
209	0xbd8185b7	-0.06324332
210	0xbdb9fcd3	-0.090814255
211	0xbefd57a7	-0.49480936
212	0x3d8735c6	0.06602053
213	0xbda522bb	-0.08063265
214	0xbd3dc375	-0.04632898
215	0xbe9ad9af	-0.30244204
216	0x3ccf5dea	0.025313336
217	0x3bfbac57	0.0076804566
218	0xbd93f04c	-0.07223567
219	0xbe5cf663	-0.21578364
220	0xbd9fe8c0	-0.078080654
221	0xbbb62765	-0.0055588954
222	0x3cda2a4a	0.026631493
223	0xbeb90546	-0.36136836
224	0x3ddcc745	0.10780195
225	0x3d13abd7	0.03605255
226	0x3d5a9960	0.053368926
227	0x3de43f7b	0.111449204
228	0xbb1e97c3	-0.0024199344
229	0xbc653ced	-0.013991577
230	0x3dc26bd6	0.09493224
231	0x3b8b870d	0.0042580427
232	0xbcb3ab7c	-0.021932356
233	0x3d833712	0.06406988
234	0x3c9e73ef	0.01934239
235	0x3d50c838	0.050972193
236	0x3dccbbcf	0.09996759
237	0xbbac6eb4	-0.0052622203
238	0x3d9e48a7	0.07728701
239	0x3d7f7314	0.062365606
240	0x3ccbc3b7	0.024873598
241	0xbd4db74d	-0.050223637
242	0x3d2c19b3	0.042016696
243	0x3d05331b	0.03251944
244	0x3d59a8b9	0.053139422
245	0xbd84e10d	-0.064882375
246	0x3dad5d49	0.08465058
247	0x3c7fd8d3	0.01561566
248	0x3de3a6a7	0.11115771
249	0xbdddf6d9	-0.10838098
250	0xbb9d354c	-0.0047976132
251	0x3d902118	0.07037562
252	0x3c0dd201	0.008656026
253	0x3db56d10	0.08858693
254	0xbd06f207	-0.03294566
255	0xbc74d43e	-0.014943181

conv2.bias f4 [32]
0	0x3dc2f055	0.09518496
1	0x3db9c9d5	0.090716995
2	0xbd8de4a8	-0.06928378
3	0x3d8f63bc	0.07001445
4	0x3dada6bd	0.084790684
5	0x3c578a14	0.013155479
6	0xbda76a81	-0.08174611
7	0x3dfc5ac6	0.12322001
8	0xbdbc63c0	-0.09198713
9	0x3b726a0c	0.0036989478
10	0xbc9f5302	-0.01944876
11	0x3df78ec8	0.1208778
12	0x3cb19b9a	0.021680642
13	0xbda407fb	-0.08009335
14	0x3de6556c	0.11246762
15	0x3de29880	0.11064243
16	0x3d062110	0.032746375
17	0xbc1aa975	-0.009439816
18	0x3da60608	0.08106619
19	0xbd9233d5	-0.071387924
20	0xbcc46c78	-0.023977503
21	0xbb1754be	-0.0023091282
22	0x3b42f4c8	0.0029747952
23	0x3dd47082	0.10373022
24	0x3debeb23	0.11519458
25	0xbbe71d92	-0.0070530856
26	0x3e003c9d	0.12523122
27	0x3c2fbacc	0.010725688
28	0x3d840545	0.064463176
29	0xbd3b92c5	-0.045794267
30	0x3ddda760	0.1082294
31	0x3ccaa569	0.024737077

fc1.weight f4 [64, 800]
0	0x3c8db908	0.017300144
1	0x3d184c3a	0.03718207
2	0x3bcc1b9a	0.0062288763
3	0x3d0710c2	0.032974966
4	0x3df7195b	0.12065383
5	0x3b4fec28	0.0031726453
6	0x3d23dc73	0.04000516
7	0x3d02f2fd	0.031970013
8	0x3cbe8960	0.023258865
9	0x3d458477	0.04822203
10	0xbb790142	-0.0037995134
11	0x3c6d3726	0.01447848
12	0x3bf1cb18	0.007378947
13	0x3d73f53d	0.05956005
14	0x3c799272	0.015232669
15	0x3cb8cc81	0.022558453
16	0x3d3d9f18	0.0462943
17	0xbc0df87a	-0.008665198
18	0x3c471f9d	0.012153533
19	0x3ceb626b	0.028733453
20	0xbd127a39	-0.03576109
21	0xbcd57c40	-0.026060224
22	0xbcb106b4	-0.021609642
23	0x3c151129	0.00909833
24	0x3cf560d6	0.029953402
25	0xbacd1274	-0.0015645758
26	0xbd4bf2a5	-0.04979195
27	0xbd0d4d78	-0.034497708
28	0x3cc6d216	0.024270099
29	0x3dc057d1	0.0939175
30	0x3d31bdd9	0.043393943
31	0x3b2a5532	0.0025990722
32	0xbc393bee	-0.011305792
33	0xbd886f97	-0.06661909
34	0x3c68b51c	0.014203336
35	0x3d34a834	0.044105724
36	0xbd24fc43	-0.040279638
37	0xbbf4374c	-0.007452881
38	0x3d60d492	0.054890223
39	0x3d4af895	0.049553473
40	0xbd2d689b	-0.042336088
41	0x3ca74b51	0.020421656
42	0xbd40287e	-0.046913616
43	0x3d50dcdd	0.05099188
44	0x3d2278ef	0.039666113
45	0x3d58de72	0.052946515
46	0xbc8dc7a8	-0.017307118
47	0xbd568184	-0.05236961
48	0x3c214310	0.009842649
49	0x3cb61bc0	0.02223003
50	0x3b68a4a0	0.0035498515
51	0x3c759b89	0.014990696
52	0x3b917404	0.004438879
53	0xbd061e5e	-0.032743804
54	0xbc020e0f	-0.007937922
55	0x3b5f679d	0.0034088858
56	0x3bf6372c	0.007513901
57	0xbca1e6f9	-0.019763457
58	0xbd1236b3	-0.035696696
59	0x3bf5b8a0	0.0074988157
60	0x3ce0edab	0.027457079
61	0x3d17bfb1	0.037048046
62	0x3d24e9a1	0.04026187
63	0x3c9e34ee	0.019312348
64	0x3cd46061	0.025924863
65	0xbc984563	-0.018587774
66	0xbc25ff4e	-0.01013167
67	0x3c6c9bb8	0.014441423
68	0xbd0ae433	-0.033909034
69	0x3c9a641c	0.018846564
70	0x3cad368a	0.02114417
71	0x3c59f19e	0.013302235
72	0xbcbbeeee	-0.022941079
73	0xbcfcc3fc	-0.030855171
74	0xbc96e1aa	-0.018418152
75	0xbbb3b2de	-0.005483969
76	0x3cf3eabf	0.029775022
77	0x3d0759ad	0.033044506
78	0x3bb07c68	0.005385924
79	0x3da10eb6	0.07864134
80	0x3d43fe43	0.047849905
81	0x3d0104a0	0.03149855
82	0x3c2bf867	0.010496235
83	0xbd001c82	-0.031277187
84	0x3c87a830	0.01655969
85	0x3d10cf39	0.035353873
86	0x3c97b651	0.018519552
87	0x37975050	1.8038001e-05
88	0x3c3fe12e	0.011711402
89	0x3d5f9db4	0.054593757
90	0x3be340c6	0.006935212
91	0xbd18a035	-0.03726216
92	0xbc94b0c6	-0.018150698
93	0x3d705cdb	0.058682304
94	0x3cc97713	0.024592912
95	0x3d78b905	0.060723323
96	0xbd024aec	-0.031809732
97	0x3ca8b0b3	0.02059207
98	0x3c52efe3	0.012874576
99	0x3c74e6a8	0.014947571
100	0x3c6bb357	0.01438602
101	0x3ceeaec3	0.029136067
102	0xbd0bf805	-0.034172077
103	0xbc9f0603	-0.019412046
104	0x3d513ee2	0.05108536
105	0x3d15ce2e	0.03657358
106	0x3d7ba14a	0.061433114
107	0x3cbdf3e7	0.02318759
108	0x3c5a9b57	0.0133427
109	0x3a0fc037	0.00054836593
110	0xbc8669f8	-0.016407952
111	0xbd3c06a0	-0.045904756
112	0x3987ee33	0.0002592668
113	0x3bc0b708	0.005881194
114	0xbd26d6f0	-0.040732324
115	0x3ccc7b60	0.024961174
116	0xbcd7d68d	-0.026347423
117	0xbd8c8e97	-0.06863134
118	0x3d9532a8	0.072850525
119	0xbc75b5ab	-0.014996926
120	0x3b75fbba	0.0037534074
121	0x3c44b9fd	0.012007234
122	0xbbc37496	-0.005964826
123	0x38d77ef8	0.00010275649
124	0x3d638657	0.05554804
125	0x3d953a6a	0.07286532
126	0x3d8d8fa0	0.0691216
127	0x3d8c2c06	0.06844334
128	0x3e17e91f	0.14835022
129	0x3d5b00c3	0.053467523
130	0x3dcd086e	0.100113735
131	0xba928d6b	-0.0011181062
132	0x3aeb8aee	0.0017970481
133	0xbdb27e30	-0.087154746
134	0x3d866e6e	0.065640315
135	0xbcf2649a	-0.029588986
136	0x3dc36a05	0.09541706
137	0x3e92db96	0.28683156
138	0x3d2b8d54	0.041882828
139	0xbe0388c6	-0.12845144
140	0xbdead113	-0.11465659
141	0xbe9f34d9	-0.31095007
142	0xbed47d25	-0.41501728
143	0xbd517d51	-0.0511449
144	0x3ce1c058	0.027557537
145	0x3be3f1dc	0.006956322
146	0xbc3849e9	-0.01124809
147	0xbd11c4ad	-0.035587955
148	0x3dd3f7b8	0.10349983
149	0x3dfd16f5	0.12357894
150	0x3d17644d	0.03696089
151	0xbd06c81a	-0.032905675
152	0x3cc058d2	0.023479853
153	0xbc87f5b5	-0.016596654
154	0x3c9e3df8	0.019316658
155	0x3cd3c990	0.025852948
156	0xb73932b5	-1.1038665e-05
157	0xbcc737bc	-0.024318568
158	0x3cdbd3f2	0.026834462
159	0xbc6ad793	-0.014333623
160	0xbd2bdae8	-0.041956812
161	0xbcd41dd9	-0.025893139
162	0xbd4e4a83	-0.05036403
163	0xbd3c6a30	-0.045999706
164	0x3cf59d68	0.029982284
165	0xbd4020ac	-0.04690616
166	0x3c054086	0.008133059
167	0xbd1ce6e4	-0.038306132
168	0x3b8b8fc9	0.004259084
169	0x3cd45a80	0.02592206
170	0x3c19f220	0.009396106
171	0x3c6c8459	0.014435851
172	0x3c89296f	0.01674339
173	0x3cc9e8a2	0.02464706
174	0x3ba7c753	0.005120197
175	0xbdae8e14	-0.08523193
176	0xbe6922b0	-0.22767138
177	0xbd875272	-0.06607522
178	0xbe686b0c	-0.22697085
179	0xbef0e905	-0.4705278
180	0x3d4be54b	0.049779218
181	0xbe11b080	-0.14227486
182	0xbdefb38d	-0.117041685
183	0x3e4329a2	0.1905885
184	0xbdd445fe	-0.103649125
185	0x3b07c5a7	0.0020717175
186	0x3a0b8675	0.0005322465
187	0xbe5e55f2	-0.21712473
188	0xbe07aec4	-0.13250262
189	0xbe7776eb	-0.24166457
190	0xbd247334	-0.04014893
191	0xbd95493c	-0.07289359
192	0xbe0bb54f	-0.13643382
193	0x3d937f09	0.072019644
194	0xbe6e6702	-0.23281482
195	0x3cb87621	0.022517266
196	0xbe3d608e	-0.18493864
197	0x3db68f68	0.08914071
198	0xbd505d53	-0.05087025
199	0xbe50a684	-0.2037602
200	0x3c0345a8	0.008012213
201	0x3cb1b55c	0.021692924
202	0xbccce0f3	-0.025009608
203	0xbcdb8e37	-0.026801212
204	0x3ca6dad6	0.020368021
205	0x3d008791	0.031379286
206	0xbc85699f	-0.016285716
207	0x3cae688e	0.02129009
208	0xbce776b2	-0.02825484
209	0xbd02c2e8	-0.03192416
210	0x3cc1272c	0.023578249
211	0x3ac05880	0.0014674813
212	0xbc4a7440	-0.012356818
213	0xbcadad50	-0.021200806
214	0xbc2acd34	-0.010424901
215	0xbcc6592c	-0.024212442
216	0xbc826216	-0.015915912
217	0xbccbe6a0	-0.024890244
218	0x3c294cd4	0.010333259
219	0x37a0d800	1.917407e-05
220	0x3c65ac56	0.014018139
221	0x3c921334	0.017831422
222	0xbb1927f0	-0.0023369752
223	0x3b2ef320	0.0026695207
224	0xba15de00	-0.00057169795
225	0xbbe0cc24	-0.006860273
226	0x3a9a3b56	0.0011766951
227	0xbb653f50	-0.0034980364
228	0xba1355b2	-0.00056203746
229	0xbcd265b4	-0.025683261
230	0xbcdd0d26	-0.026983809
231	0xbccad237	-0.024758441
232	0x3bda9bd0	0.0066714063
233	0x3b835b82	0.0040087113
234	0x3cfde032	0.030990694
235	0xbcbc5ade	-0.022992548
236	0xbd0a0c60	-0.033703208
237	0xbbd8bf58	-0.006614607
238	0x3cf72cca	0.030172724
239	0x3a887e00	0.0010413527
240	0x3b760c90	0.003754411
241	0x3ccd5670	0.02506563
242	0xbcc1b3d4	-0.023645319
243	0xbc6815a8	-0.0141653195
244	0x3d17745a	0.036976196
245	0x3ca89fda	0.020584036
246	0x3b58eca0	0.0033100024
247	0x3ccac2b1	0.02475104
248	0xbcd8050d	-0.026369596
249	0x3c82d140	0.015968919
250	0x3d3e8e58	0.04652247
251	0xbc8ba487	-0.017046226
252	0x3d3a26bb	0.045447093
253	0xbd10b192	-0.035325594
254	0x3c22f1b6	0.009945324
255	0x3ba6a58f	0.005085654

fc1.bias f4 [64]
0	0x3dc647d1	0.09681667
1	0xbd4e4fd7	-0.05036911
2	0xbd482610	-0.048864424
3	0x3ddefb24	0.10887745
4	0x3de10ac0	0.109883785
5	0x3d76e8ff	0.060280796
6	0xbc5318de	-0.012884347
7	0x3c844574	0.0161464
8	0xbd2d9419	-0.042377565
9	0x3cf902cf	0.030396847
10	0xbd6dee11	-0.058088366
11	0xbbe97c74	-0.0071254317
12	0xbc964a80	-0.018346071
13	0xbcd7cfee	-0.026344266
14	0xbc7f32d9	-0.015576088
15	0xbd6fee3c	-0.058576807
16	0xbcd7957a	-0.026316393
17	0xbb1fafc7	-0.0024366246
18	0xbd6b132f	-0.05739134
19	0xbd13b936	-0.036065303
20	0xbd6445b8	-0.05573055
21	0x3dbb52c1	0.091466434
22	0x3dccbfb4	0.09997502
23	0xbb973aa8	-0.0046151467
24	0x3d7bed7a	0.061505772
25	0xbc536201	-0.012901784
26	0x3d6a73ba	0.05723927
27	0x3c9feca5	0.01952202
28	0xbd79a35e	-0.060946815
29	0xbc190051	-0.009338454
30	0x3c824ec5	0.0159067
31	0x3b8dcc5e	0.004327341
32	0xbb3b343e	-0.0028565074
33	0x3dd11f15	0.102110066
34	0x3dc5d24c	0.096592516
35	0xbd22a68a	-0.039709605
36	0x3ca01465	0.019540975
37	0x3dc9b4fc	0.09848973
38	0xbd65a75c	-0.05606781
39	0x3ddfcce4	0.10927752
40	0xbd0fb241	-0.035082106
41	0x3cc6c673	0.02426455
42	0x3a4ba16f	0.0007767891
43	0x3df48a02	0.119403854
44	0xbc4e69ab	-0.012598435
45	0x3bae6a16	0.005322705
46	0x3cb26d3f	0.021780608
47	0x3d2e37a0	0.042533517
48	0x3cd8a0a2	0.026443783
49	0xbcda5313	-0.026650941
50	0x3dc23287	0.094822936
51	0xbd59a91e	-0.0531398
52	0x3d3a162d	0.045431305
53	0x3c6ea15d	0.014564839
54	0x3d50e86a	0.051002897
55	0xbd4ccfbf	-0.05000281
56	0x3c4fa3c0	0.012673318
57	0xbd089765	-0.033347506
58	0xbbff4dc5	-0.0077912533
59	0x3dbfe5bb	0.093699895
60	0xbd64f779	-0.05590007
61	0xbb71b700	-0.0036882758
62	0x3dcb6e06	0.09933095
63	0xbc0328c4	-0.008005325

fc4.weight f4 [8, 64]
0	0xbb09b600	-0.0021013021
1	0x3dbd71df	0.09250235
2	0x3d326e9b	0.043562513
3	0xbe5efe4e	-0.21776697
4	0xbd57b11e	-0.052659146
5	0xbc157cca	-0.00912399
6	0x3c54afe6	0.012981391
7	0xbdf6b3ec	-0.12046036
8	0x3da58ab6	0.08083098
9	0x3d006209	0.031343494
10	0x3d1d0f25	0.03834452
11	0x3e5757f5	0.21029647
12	0x3d6c0d38	0.057629794
13	0x3df79fe5	0.12091044
14	0xbd3eb7f8	-0.046562165
15	0x3d16dc5d	0.03683125
16	0x3dcb61ad	0.099307396
17	0xbd0af455	-0.03392442
18	0xbd9bbc39	-0.0760426
19	0xbdab8af0	-0.083761096
20	0x3df69bd8	0.120414436
21	0xbd8a2545	-0.0674539
22	0xbe75124b	-0.2393276
23	0x3d538853	0.05164368
24	0x3e2e9fb7	0.17053114
25	0xbd1379c9	-0.036004815
26	0xbe5bc77f	-0.2146282
27	0xbc25d71c	-0.010122087
28	0xbdc19b5e	-0.09453462
29	0x3b2cc100	0.0026360154
30	0x3e134126	0.14380321
31	0x3dc90360	0.09815097
32	0x3d9f9d44	0.07793668
33	0xbe66e36a	-0.22547689
34	0x3e0ea97d	0.13931842
35	0xbd035e80	-0.032072544
36	0x3dbe195c	0.09282181
37	0x3dcee814	0.10102859
38	0xbdcc102e	-0.099640235
39	0xbe281602	-0.16414645
40	0x3da67878	0.08128446
41	0x3d7f789c	0.06237088
42	0x3db4fbe9	0.088371105
43	0x3e1720e5	0.14758642
44	0x3b656202	0.0035001044
45	0xbe89f42b	-0.26944098
46	0x3d7f6fde	0.062362544
47	0x3e1e1f62	0.15441659
48	0x3c90d79b	0.017680934
49	0xbda1b2be	-0.078954205
50	0x3d303b0b	0.043025058
51	0xbd9cea24	-0.07661846
52	0x3da47959	0.08030958
53	0x3d7b852c	0.0614063
54	0x3e6d062b	0.23146884
55	0xbc42acee	-0.01188205
56	0x3dc08924	0.094011575
57	0x3dbd2c9e	0.09237026
58	0x3de87c64	0.11351851
59	0xbe78accb	-0.24284665
60	0xbd93b060	-0.07211375
61	0xbd00d96c	-0.03145735
62	0xbe44cd67	-0.1921898
63	0x3deae9c8	0.114703715
64	0xbea2e5f6	-0.3181607
65	0xbbe0d3f2	-0.0068612034
66	0x3df60a76	0.12013714
67	0xbcf3a120	-0.029739916
68	0xbe8b8036	-0.27246255
69	0xbd89eb44	-0.067343265
70	0xbd3362c0	-0.043795347
71	0x3de3bb1c	0.11119673
72	0x3de3a044	0.111145526
73	0x3d682c03	0.056682598
74	0xbdb79a46	-0.08964972
75	0x3e5d23b8	0.21595657
76	0x3d4cf4fc	0.050038323
77	0xbc9cd301	-0.019143583
78	0xbd5814e8	-0.052754313
79	0x3d38a43b	0.045078497
80	0x3d70b3c7	0.0587652
81	0xbdddc120	-0.10827851
82	0xbd537f0c	-0.051634833
83	0xbe0a206e	-0.13488933
84	0x3d348124	0.04406847
85	0xbcf20f6a	-0.029548366
86	0xbe659e8f	-0.22423767
87	0xbd69667f	-0.056982514
88	0x3e83756a	0.25675517
89	0x3c9a84b3	0.018862104
90	0xbd83ac70	-0.06429374
91	0xbdf78132	-0.12085189
92	0xbd477a11	-0.048700396
93	0x3d9535d8	0.072856605
94	0xbdcdc05a	-0.10046454
95	0xbc08d3fe	-0.008351324
96	0xbd926de8	-0.07149869
97	0xbe02923a	-0.12751094
98	0x3e5fedf7	0.2186812
99	0xbd624414	-0.055240706
100	0x3dddf1ad	0.108371116
101	0xbec6ff2c	-0.38866556
102	0x3de9e2a2	0.1142018
103	0xbe9574d6	-0.291907
104	0xbdbf24c9	-0.09333188
105	0xbce8ce30	-0.02841863
106	0x3d50a05f	0.05093419
107	0xbc6e1e5e	-0.014533607
108	0x3c75b42b	0.014996569
109	0x3e22851f	0.15871094
110	0x3d3ec3b9	0.046573374
111	0x3bc6ad09	0.006063108
112	0xbcf50da8	-0.029913738
113	0xbd9e8113	-0.07739463
114	0x3de86980	0.113482475
115	0xbdf7d6a2	-0.12101485
116	0xbec51996	-0.38496083
117	0xbdc642f3	-0.09680738
118	0xbdc02159	-0.093813606
119	0xbd9a523c	-0.07535216
120	0x3ce033dc	0.027368478
121	0x3d6d14bc	0.057881102
122	0x3dd1875a	0.102308944
123	0x3de4c1cf	0.111697786
124	0x3cdcf618	0.026972815
125	0xbdc79880	-0.09745884
126	0x3e0f3aeb	0.13987319
127	0xbdcc5ebc	-0.09979007
128	0xbdcae5a8	-0.09907085
129	0x3d9acd98	0.07558745
130	0x3d1eff3c	0.03881763
131	0xbd4a9a20	-0.04946339
132	0xbe99399f	-0.29926774
133	0x3e767314	0.24067336
134	0x3d095b55	0.033534367
135	0x3d61e768	0.055152327
136	0x3db7b316	0.08969705
137	0x3dc642d1	0.09680713
138	0x3d885037	0.06655925
139	0x3d9a33dd	0.075294234
140	0x3c8510c8	0.016243353
141	0xbdae6efb	-0.085172616
142	0xbdf03204	-0.1172829
143	0x3d67790d	0.056511927
144	0x3daa1f1d	0.08306716
145	0xbdd9e6fb	-0.10639759
146	0xbe02f10f	-0.12787269
147	0xbdaf2012	-0.08551039
148	0xbca05830	-0.019573301
149	0xbe1936ff	-0.14962386
150	0xbde0d12e	-0.10977398
151	0x3d97d0d5	0.074128784
152	0x3daa5d6b	0.08318599
153	0x3da98a9d	0.082783915
154	0xbd99c6bd	-0.075086094
155	0x3debcf82	0.11514188
156	0x3da2e815	0.079544224
157	0x3dca03b4	0.098639876
158	0xbe3a5bad	-0.18199034
159	0x3d431e9f	0.047636624
160	0xbdcd5456	-0.100258514
161	0xbe960673	-0.29301795
162	0x3cf47515	0.029840985
163	0x3d002bf0	0.031291902
164	0xbcec256a	-0.028826434
165	0x3ceefd31	0.029173465
166	0xbc860858	-0.0163614
167	0xbd3f2e68	-0.046675116
168	0xbcf57da0	-0.02996713
169	0x3ddd5440	0.10807085
170	0xbd1bcf7b	-0.038039666
171	0xbe05c733	-0.1306427
172	0x3d2dd1fa	0.042436577
173	0xbe8a5cad	-0.2702383
174	0x3ded74a8	0.11594516
175	0x3e81b3bb	0.25332436
176	0x3a3da989	0.00072350405
177	0xbd03f28c	-0.032213733
178	0x3db2e8b2	0.08735789
179	0x3b86e380	0.0041164756
180	0x3d89a183	0.06720259
181	0x3d840f30	0.06448209
182	0x3e0bfa06	0.13669595
183	0x3df8ef42	0.1215501
184	0xbdd26e9f	-0.102750055
185	0x3d938a2e	0.0720409
186	0x3d3af14c	0.045640275
187	0xbeab8fc4	-0.33508122
188	0xbdc08132	-0.09399642
189	0xbdd6afde	-0.10482763
190	0x3e2b6811	0.16738917
191	0xbd2a0ca6	-0.04151597
192	0xbe731081	-0.23736764
193	0xbe1beaca	-0.15226284
194	0xbd9a3c3a	-0.075310186
195	0x3d31929f	0.04335272
196	0xbe40035f	-0.18751286
197	0xbd95d6ae	-0.073163375
198	0xbdb434a6	-0.087991044
199	0xbdd922b4	-0.10602322
200	0x3dd1d6d8	0.10246056
201	0x3d00b0ab	0.031418484
202	0x3d5da1a5	0.054109234
203	0x3e3a3d27	0.1818739
204	0xbda7dd34	-0.08196488
205	0xbeae0fab	-0.3399633
206	0xbd46ab94	-0.048503473
207	0x3c85e1d6	0.016343039
208	0x3d7fdf2a	0.062468685
209	0x3dc7e976	0.09761326
210	0xbdfe488f	-0.12416183
211	0x3b9026ce	0.004399157
212	0x3c5376d2	0.012906747
213	0xbe023eae	-0.12719223
214	0x3d2e270d	0.04251771
215	0xbccf8552	-0.025332127
216	0xbda51703	-0.0806103
217	0xbdc06bde	-0.09395574
218	0xbe2c5b99	-0.16831817
219	0xbe05fded	-0.13085146
220	0x3d58602c	0.05282609
221	0x3cfffe58	0.03124921
222	0xbca5a670	-0.020220965
223	0x3ec05766	0.3756668
224	0x3dd276c4	0.10276559
225	0x3d96d7c2	0.07365371
226	0xbbab445a	-0.005226654
227	0xbd4a0a88	-0.04932645
228	0xbda59ec6	-0.08086924
229	0xbd3dc1ec	-0.046327516
230	0xbd185a48	-0.037195474
231	0xbd21e85f	-0.039528247
232	0xbc876e10	-0.016531974
233	0xbde9f4d6	-0.11423652
234	0x3c7e6479	0.015526884
235	0xbe596958	-0.21231592
236	0x3c9c467b	0.019076576
237	0x3e3bec98	0.18351972
238	0xbd99f9c2	-0.07518341
239	0x3e9d465c	0.30717742
240	0x3ddb4d11	0.107080586
241	0xbd35d790	-0.04439503
242	0xbe70f0ab	-0.23529308
243	0xbd8284ee	-0.063730106
244	0xbd56d25a	-0.0524467
245	0xbcd06f6a	-0.025443751
246	0x3e1637a1	0.14669658
247	0xbd6920cc	-0.056916043
248	0xbe012aea	-0.12614027
249	0xbdb3955a	-0.08768721
250	0x3cc42650	0.02394405
251	0xbd02dab0	-0.031946838
252	0xbd9e23aa	-0.07721646
253	0xbda067ec	-0.078323215
254	0xbcf6eba4	-0.03014166
255	0xbd6db032	-0.05802936

fc4.bias f4 [8]
0	0xbc5573b9	-0.013028079
1	0x3db50299	0.08838386
2	0xbd07b65e	-0.033132903
3	0xbe19e4e4	-0.15028721
4	0xbd8d4219	-0.06897373
5	0xbca708e6	-0.020389985
6	0xbd83a5c0	-0.06428099
7	0x3d58d300	0.0529356

conv1.weight f4 [16, 2, 4, 4]
0	0xbea64855	-0.3247706
1	0xbdfe4be2	-0.12416817
2	0xbe796979	-0.24356641
3	0xbf11e6b6	-0.5699266
4	0xbd2a1eb9	-0.041533206
5	0xbf1276c0	-0.5721245
6	0xbea9ff27	-0.33202478
7	0xbee7848f	-0.45218322
8	0xbdf96144	-0.12176755
9	0xbe8aaa8f	-0.2708325
10	0xbe722c83	-0.23649792
11	0xbe98e042	-0.29858595
12	0xbe08e82c	-0.13369817
13	0xbdc973c3	-0.09836533
14	0x3e3243f5	0.17408736
15	0x3e1762f6	0.14783844
16	0x3cc89da7	0.024489237
17	0xbd55f7dd	-0.052238334
18	0x3e3136b4	0.17306024
19	0x3db854f7	0.09000581
20	0x3e0c7524	0.1371656
21	0x3e12891d	0.14310117
22	0xbe0d43a8	-0.1379534
23	0x3d914823	0.07093837
24	0x3dd5073e	0.10401772
25	0xbcc5ccbe	-0.02414548
26	0xbd872679	-0.06599135
27	0xbe43593a	-0.19077006
28	0xbe0b86a5	-0.13625582
29	0xbdafb47a	-0.08579345
30	0x3e44a423	0.19203238
31	0xbdc35de8	-0.095393956
32	0x3dec36c2	0.11533882
33	0xbf0fbdb7	-0.56148857
34	0xbedbba6a	-0.4291566
35	0xbf033c14	-0.51263547
36	0xbd5b8903	-0.05359746
37	0xbe0904e7	-0.13380776
38	0xbea08caa	-0.31357318
39	0xbe80e6fa	-0.2517622
40	0x3dd69443	0.104774974
41	0xbea7d4cc	-0.3277954
42	0x3de55726	0.11198263
43	0x3bad4113	0.0052872985
44	0x3e05397b	0.13010208
45	0xbb9364a4	-0.0044980813
46	0xbdac4fd4	-0.084136635
47	0xbe99752e	-0.29972214
48	0xbe61a0dc	-0.22034019
49	0x3d925895	0.07145802
50	0x3e319cd4	0.17344981
51	0xbcf6bf4e	-0.030120518
52	0x3e36ff00	0.17870712
53	0xbe3ea81c	-0.18618816
54	0xbd9df7aa	-0.07713254
55	0xbd0c0a49	-0.034189496
56	0x3e0576b5	0.13033564
57	0xbeb4f348	-0.3534186
58	0xbe7eb4e5	-0.24873693
59	0xbdb5bbde	-0.088737234
60	0x3b8c6097	0.0042839753
61	0x3d2d3d5c	0.042294845
62	0xbe07ecd8	-0.13273942
63	0xbe199a00	-0.15000153
64	0x3d6bb4a9	0.057545338
65	0x3e32bdd4	0.17455226
66	0xbe861044	-0.26184285
67	0x3fbca9c5	1.473931
68	0xbdcd8b96	-0.100363895
69	0xbd8657ab	-0.0655969
70	0x3f24e2f2	0.6440879
71	0x3f5a9e5b	0.8539788
72	0x3e2d0d97	0.16899715
73	0xbd06a547	-0.032872465
74	0x3de3b783	0.111189865
75	0x3ec618e8	0.38690877
76	0xbe3bc8b3	-0.1833828
77	0xbde7884d	-0.11305294
78	0xbe02247a	-0.12709227
79	0x3db50fbd	0.088408925
80	0xbd500c54	-0.050793007
81	0xbe1a190a	-0.15048614
82	0x3d995bda	0.074882224
83	0xbda8af30	-0.08236539
84	0x3d567499	0.05235729
85	0x3c5d64b9	0.013512784
86	0xbe6104a0	-0.2197442
87	0xbe8d2808	-0.27569604
88	0xbe4752a2	-0.19465116
89	0x3d62c276	0.055361234
90	0xbd144694	-0.03620012
91	0xbd6bc417	-0.057560053
92	0x3d6e25ea	0.058141626
93	0xbd8cb9d2	-0.0687138
94	0x3d3c3a12	0.045953818
95	0x3d6bf8bc	0.05761026
96	0x3ecde709	0.40215328
97	0x3f484c68	0.78241587
98	0x3f5e7265	0.868933
99	0x3feeca01	1.8655397
100	0x3e741c17	0.2383884
101	0x3e64c675	0.2234133
102	0x3f2a2dff	0.66476434
103	0x3f3b3527	0.7312798
104	0x3e2a5ef4	0.16637784
105	0x3e8974f1	0.26847032
106	0xbc6c45da	-0.014420951
107	0x3f24a450	0.6431322
108	0x3b9442e5	0.004524576
109	0xbdbc9cf3	-0.09209623
110	0x3e65ff1d	0.22460599
111	0x3e28b0d9	0.16473712
112	0x3c6a7db1	0.014312194
113	0xbc80becd	-0.01571598
114	0x3e2cd3ad	0.16877623
115	0xbcd36478	-0.025804743
116	0xbb779d4a	-0.003778296
117	0xbda442ae	-0.08020531
118	0xbcab1304	-0.02088309
119	0x3d919fc8	0.07110554
120	0x3e132652	0.14370087
121	0xbc438870	-0.011934385
122	0xbce7fb46	-0.028318059
123	0xbd860604	-0.06544116
124	0xbd338402	-0.043827064
125	0x3e0c6b19	0.1371273
126	0x3e009295	0.12555917
127	0xbda9accc	-0.082849115
128	0x3dca1ed0	0.09869158
129	0x3fcf1214	1.6177392
130	0x3ffe2f66	1.9858215
131	0x3f25c62a	0.647555
132	0xbe036ffb	-0.12835686
133	0x3f1a86f9	0.603622
134	0x3f4f1a5d	0.808996
135	0x3f24daad	0.6439617
136	0x3eac9da8	0.33714032
137	0x3e927914	0.28608
138	0xbe1b914a	-0.15192142
139	0x3e97d7a0	0.29656696
140	0x3e429994	0.19003898
141	0x3e8bcc75	0.27304426
142	0xbdb0e38a	-0.0863715
143	0xbe025472	-0.12727526
144	0x3d4d5d65	0.050137896
145	0xbeecc0ea	-0.46240932
146	0x3d9555b8	0.0729174
147	0x3dc213cc	0.09476432
148	0x3ddc703f	0.10763597
149	0x3e0953f7	0.13410936
150	0xbe7503f4	-0.23927289
151	0xbe0ed486	-0.13948259
152	0x3e297a89	0.1655065
153	0x3d32ea42	0.043680437
154	0xbe4c4b68	-0.1995064
155	0x3db3b20b	0.087741934
156	0xbe8eae77	-0.2786748
157	0x3daa276f	0.083083026
158	0x3de97e7b	0.11401077
159	0x3d8e1510	0.06937611
160	0x3e902acc	0.2815765
161	0x3e6cbcdd	0.2311892
162	0xbeefcd78	-0.46836448
163	0x3ff7d62b	1.9362234
164	0x3c6eb62c	0.0145698
165	0xbdb82fdf	-0.08993506
166	0x3ef353a7	0.4752476
167	0x3f8286e9	1.0197421
168	0x3d3b0e92	0.045668192
169	0x3e01d7b8	0.12679946
170	0xbd4e1a7c	-0.050318226
171	0x3eda6583	0.42655572
172	0xbdd25379	-0.102698274
173	0x3e64f451	0.22358824
174	0xbb507193	-0.0031805977
175	0x3d5d7e31	0.054075424
176	0xbaf6252f	-0.0018779392
177	0xbd251754	-0.04030545
178	0x3db82715	0.08991829
179	0xbe4e3de3	-0.20140795
180	0x3d0b4f14	0.03401096
181	0xbe65a92c	-0.22427815
182	0xbc68242f	-0.014168783
183	0xbc13a8b5	-0.009012391
184	0xbe300966	-0.17191085
185	0xbaaa2b5f	-0.0012982896
186	0x3c90a48f	0.017656593
187	0xbdd69186	-0.10476975
188	0x3da3f2e3	0.08005311
189	0x3dfaf63e	0.12253998
190	0xbd45074f	-0.048102673
191	0x3dacb247	0.08432441
192	0xbe4560ce	-0.1927521
193	0xbe8bfb19	-0.2734001
194	0xbe67bc6e	-0.22630474
195	0xbeed2789	-0.46319225
196	0xbe765afa	-0.24058142
197	0xbe16bacd	-0.14719696
198	0xbf046f6c	-0.51732516
199	0xbf046a42	-0.51724637
200	0xbdf246cc	-0.1182991
201	0xbd4403bb	-0.04785512
202	0xbe06c7a2	-0.13162091
203	0xbe8060fe	-0.25074
204	0xbe09afbe	-0.13445947
205	0xbe1e8eac	-0.15484113
206	0xbe1bed84	-0.15227324
207	0xbe91d387	-0.28481695
208	0xb888d243	-6.52415e-05
209	0xbe191209	-0.14948286
210	0x3d8b2d4c	0.06795749
211	0x3dbd1d87	0.092341475
212	0xbdc46a49	-0.09590585
213	0xbe1b68db	-0.15176718
214	0xbe11fdac	-0.14256924
215	0xbdd7376b	-0.10508617
216	0x3dd0e762	0.10200383
217	0x3e434850	0.19070554
218	0x3d52f753	0.051505398
219	0xbe86bf7a	-0.2631796
220	0xbe840fa4	-0.25793183
221	0x3e1cfb90	0.15330338
222	0xbdc464e4	-0.09589556
223	0xbe74366b	-0.23848884
224	0xbe4a1ffe	-0.19738767
225	0xbeb47334	-0.35244143
226	0xbeba6686	-0.36406344
227	0xbe8c8eed	-0.27452794
228	0xbe1f4e20	-0.15557146
229	0xbe1c9a85	-0.1529332
230	0xbe974e10	-0.29551744
231	0xbedf876c	-0.43658006
232	0x3dbfa94e	0.09358464
233	0xbe12084e	-0.1426098
234	0xbdf75017	-0.12075823
235	0xbe085164	-0.13312298
236	0xbe173dbe	-0.14769647
237	0xbe2d12a8	-0.16901648
238	0xbdadc480	-0.08484745
239	0xbe93f882	-0.28900534
240	0x3e17a51c	0.14809078
241	0x3d9632b6	0.07333891
242	0x3df725cc	0.12067756
243	0x3e3f3a45	0.18674572
244	0xbd0631b4	-0.032762244
245	0xbe90f311	-0.28310445
246	0xbe6d62e7	-0.2318226
247	0xbdba1510	-0.090860486
248	0xbc20f487	-0.009823925
249	0xbd008cd1	-0.031384293
250	0x3da38b3a	0.0798554
251	0x3cbebd5f	0.023283659
252	0xbe31894a	-0.17337528
253	0xbba2499c	-0.0049526226
254	0x3cb65dc2	0.022261504
255	0xbde033ff	-0.109474175

conv1.bias f4 [16]
0	0x3e685a0a	0.22690597
1	0x3e184268	0.14869082
2	0x3e5531fd	0.2081985
3	0x3db6f9cb	0.08934363
4	0xbe47d8ab	-0.19516246
5	0x3e644e03	0.22295384
6	0x3e68347b	0.2267627
7	0x3e293943	0.1652575
8	0x3e5b9881	0.21444894
9	0x3d70502d	0.05867021
10	0x3dec2813	0.11531081
11	0xbd41c113	-0.04730327
12	0x3bc05b98	0.005870294
13	0xbdc05575	-0.093913
14	0x3e7c2731	0.24624325
15	0x3de1d9fa	0.11027904

conv2.weight f4 [32, 16, 4, 4]
0	0x3c33b9af	0.010969563
1	0xbced35a9	-0.028956251
2	0x3d875031	0.06607092
3	0x3d9c6018	0.07635516
4	0x3d480487	0.048832443
5	0xbd338cca	-0.04383544
6	0xbb56c05a	-0.003276846
7	0x3c520aae	0.012819929
8	0x3c85fe83	0.016356712
9	0x3b11ee8d	0.0022267431
10	0xbd08c472	-0.03339047
11	0x3c8dddf1	0.017317744
12	0x3d938c5f	0.07204508
13	0x3d994256	0.07483356
14	0x3c61d416	0.013783475
15	0x3dc5e9e3	0.09663751
16	0x3d90e76a	0.07075389
17	0xbcf93ab1	-0.030423494
18	0xbe8b5726	-0.27214926
19	0x3d8c9e8a	0.068661764
20	0xbc4d257d	-0.012521145
21	0xbd927caa	-0.07152684
22	0xbba65a76	-0.0050767018
23	0x3d1a710b	0.037705462
24	0x3d82cdfe	0.06386946
25	0xbc99fc56	-0.018797081
26	0x3ce06b83	0.027395016
27	0xbd542741	-0.051795248
28	0xbc98e112	-0.01866201
29	0x3d3ad680	0.04561472
30	0x3bd28b74	0.0064253155
31	0x3bc66326	0.0060543
32	0xbc9f7607	-0.01946546
33	0x3c0a7680	0.008451104
34	0x3d59aafc	0.05314158
35	0x3d97bd34	0.074091345
36	0x3cdb734e	0.02678838
37	0x3d80c1b9	0.0628695
38	0x3b7429b7	0.003725631
39	0x3d068198	0.032838434
40	0x3b63cab0	0.0034758262
41	0x3d65b948	0.0560849
42	0x3da8e0f2	0.0824603
43	0x3c6d5266	0.014484977
44	0x3cdb848c	0.026796602
45	0xbd4ebefa	-0.0504751
46	0x3c2a1494	0.010380883
47	0x3d79584f	0.060875233
48	0xbc16543d	-0.009175357
49	0xbda76436	-0.081734106
50	0xbd60a2b6	-0.054842673
51	0xbd0b1b52	-0.0339616
52	0x3c99d11b	0.018776467
53	0xbc1c92f9	-0.009556525
54	0xbabd2d33	-0.0014433026
55	0xbd094571	-0.03351349
56	0x3da0cc9c	0.07851526
57	0x3d80c0f3	0.06286802
58	0x3d1c4451	0.03815109
59	0xbdf22c55	-0.11824862
60	0x3da0f2ce	0.07858811
61	0x3d06fe6a	0.032957472
62	0x3cb1e55f	0.021715818
63	0xbdeaff97	-0.11474531
64	0xbf0b7949	-0.5448194
65	0xbeda8db1	-0.42686227
66	0xbe8365c5	-0.25663581
67	0xbf00c2cb	-0.5029723
68	0xbe851bf3	-0.25997886
69	0xbd5a168f	-0.05324417
70	0xbe0de41b	-0.13856547
71	0xbf00cf9d	-0.5031679
72	0xbe0c6dc6	-0.1371375
73	0x3d373c98	0.04473552
74	0xbd357aac	-0.044306442
75	0xbea5949d	-0.32339945
76	0xbd4f1db9	-0.050565455
77	0xbcd324e7	-0.025774432
78	0xbdb90498	-0.09034079
79	0xbe8287c8	-0.25494218
80	0x3cd7d44c	0.026346348
81	0x3d54224b	0.051790517
82	0x3ca40bb6	0.020025115
83	0xbdcb04f0	-0.09913051
84	0x3d5847bd	0.05280279
85	0x3dbe7135	0.09298936
86	0x3c5b4031	0.013382004
87	0x3d5403cc	0.051761433
88	0xbc4ded2a	-0.012568751
89	0x3d07e1d3	0.033174347
90	0x3dc9eb1b	0.09859296
91	0x3d3482c1	0.04407001
92	0x3da9a110	0.08282673
93	0x3d911be1	0.070853956
94	0x3b1e9be7	0.0024201812
95	0xbd753072	-0.059860654
96	0x3d718f02	0.058974274
97	0x3d3c479b	0.045966726
98	0x3e0144d4	0.12623912
99	0x3de9251a	0.1138403
100	0x3d22a585	0.039708633
101	0x3d42cf9e	0.04756128
102	0xbd082037	-0.033233847
103	0x3db9d1fe	0.09073256
104	0x3d814c1b	0.06313344
105	0x3d8e6fc1	0.06954909
106	0x3d42176b	0.047385614
107	0x3d343c60	0.04400289
108	0x3d6f6726	0.05844798
109	0xbc2bce1a	-0.01048615
110	0xbd57519a	-0.052568056
111	0x3d80344d	0.062599756
112	0x3cd5404a	0.026031632
113	0x3d74f4ef	0.0598039
114	0x3d29e2e0	0.04147613
115	0x3c381460	0.0112353265
116	0x3da3f678	0.080059946
117	0x3c47d2e5	0.012196277
118	0xbcf290d0	-0.029610068
119	0xbcec446b	-0.028841218
120	0x3dd1ae85	0.10238365
121	0x3caf3f59	0.021392511
122	0xbbf3009b	-0.0074158437
123	0x3dc686c4	0.09693673
124	0x3d92cde1	0.071681745
125	0x3c76e311	0.015068785
126	0x3bde4195	0.0067827203
127	0xbc90cdf0	-0.017676324
128	0xbcc48903	-0.023991114
129	0x3cc3958d	0.023875022
130	0x3d6fdcbc	0.058560118
131	0x3d8c521b	0.06851598
132	0x3d43a9d0	0.047769368
133	0x3c70b7d4	0.014692266
134	0xbdae31be	-0.08505581
135	0xbd39997f	-0.0453124
136	0xbd90f263	-0.070774816
137	0x3dc601ac	0.09668288
138	0x3cc8200a	0.02442934
139	0x3d69c0bf	0.057068583
140	0x3dbb5e0c	0.091487974
141	0xbca49e77	-0.020095093
142	0x3c9bc8fb	0.019016733
143	0x3c5625e3	0.013070556
144	0xbc416bea	-0.011805514
145	0x3d9fc96f	0.07802092
146	0x3d1c0196	0.03808745
147	0xbd1a77b3	-0.03771181
148	0xbd338ffe	-0.043838494
149	0xbca6f016	-0.020378154
150	0x3ce9df92	0.02854899
151	0x3c8c7bd5	0.017148891
152	0xbb887764	-0.004164623
153	0xbdced0ba	-0.10098405
154	0x3dc386cf	0.09547197
155	0x3c3ba664	0.011453245
156	0x3d7402ef	0.05957311
157	0xbb0d2052	-0.0021534157
158	0x3dbc9ee7	0.09209996
159	0xbc89363e	-0.016749498
160	0x3cebe7de	0.028797086
161	0x3cfba35a	0.03071754
162	0xbc23a2ef	-0.009987577
163	0x3e0fc26a	0.14039007
164	0xbb929bd4	-0.0044741426
165	0xbdb140a7	-0.086549096
166	0x3d637cd9	0.055538986
167	0x3d05da31	0.032678787
168	0x3cfe891f	0.031071244
169	0x3d3cbde2	0.046079524
170	0xbda16dfa	-0.078823045
171	0xba71e23c	-0.0009227132
172	0xbabd6935	-0.001445091
173	0x3dad7990	0.08470452
174	0xbd623ad8	-0.0552319
175	0xbc97feea	-0.01855417
176	0x3ddc7254	0.10763994
177	0xbcac126d	-0.02100488
178	0xbd810b22	-0.063009515
179	0xbd13c749	-0.036078725
180	0xbd0b329b	-0.033983808
181	0x3da6876a	0.08131297
182	0x3d09ba45	0.033624906
183	0x3dded9ed	0.1088141
184	0x3d9cbc25	0.07653073
185	0xbe42beaa	-0.19018045
186	0xbc121b30	-0.008917615
187	0x3c67e5f4	0.014153946
188	0x3c599c59	0.013281905
189	0x3c1fd8af	0.009756251
190	0x3d00bf87	0.031432655
191	0x3d856a1a	0.06514378
192	0x3d45efb3	0.048324298
193	0x3d9a12f6	0.07523148
194	0x3e049bf4	0.12950116
195	0x3d31f760	0.043448806
196	0x3d5e9d50	0.054349244
197	0xbcd12d78	-0.025534377
198	0xbcf6a371	-0.030107232
199	0xbd64d735	-0.0558693
200	0x3e088616	0.133324
201	0x3dabc69b	0.0838749
202	0xbe0bd918	-0.13657033
203	0x3d2da763	0.04239596
204	0x3d6c85a8	0.057744652
205	0xbceeba64	-0.029141612
206	0xbd57febe	-0.052733175
207	0xbc0cb114	-0.008587141
208	0xbd802664	-0.062573224
209	0xbd7da207	-0.0619221
210	0xbdbe5cb0	-0.092950225
211	0xbefd5f49	-0.4948676
212	0x3d7412dc	0.0595883
213	0xbda59ea4	-0.08086899
214	0xbd385e5c	-0.045011863
215	0xbe8d1ebc	-0.2756251
216	0x3cc9666d	0.024584973
217	0x3c24fa49	0.010069438
218	0xbd95249b	-0.072823726
219	0xbe4cd2ff	-0.20002364
220	0xbd7e503d	-0.06208824
221	0xbbe7de86	-0.0070760874
222	0x3ca7baa8	0.020474747
223	0xbeb0472d	-0.34429303
224	0x3ddf8e35	0.10915796
225	0x3d13cb9d	0.036082853
226	0x3d58cb8b	0.05292849
227	0x3de5b2d5	0.1121575
228	0xbb97204e	-0.0046120053
229	0xbc4f5586	-0.012654668
230	0x3dc2ac58	0.09505528
231	0x3b5d3619	0.0033754169
232	0xbcc026d3	-0.023456013
233	0x3d83b0b1	0.064301856
234	0x3c9eb33e	0.019372579
235	0x3d46a7eb	0.048499983
236	0x3dcaefd9	0.099090286
237	0xbbaa6239	-0.0051996973
238	0x3d9e3094	0.07724109
239	0x3d72ab15	0.059245188
240	0x3cb54a67	0.022130204
241	0xbd39dc42	-0.04537607
242	0x3d251067	0.040298846
243	0x3d03e493	0.032200407
244	0x3d4651b4	0.048417762
245	0xbd6da8f7	-0.058022466
246	0x3da796e2	0.081830755
247	0x3c42a9fd	0.011881349
248	0x3dd011e2	0.10159661
249	0xbdbeeba9	-0.09322292
250	0x3b829d31	0.003986024
251	0x3d91bd55	0.0711619
252	0x3b7d3a2d	0.0038639412
253	0x3db53f46	0.08849959
254	0xbc83e450	-0.016100079
255	0xbb8acae3	-0.0042356118

conv2.bias f4 [32]
0	0x3dcca292	0.09991945
1	0x3db84c78	0.0899896
2	0xbd8de4a8	-0.06928378
3	0x3d96b4e7	0.07358723
4	0x3db22b69	0.08699686
5	0xbbf3208d	-0.007419652
6	0xbda76a81	-0.08174611
7	0x3dead2ac	0.11465964
8	0xbdbc63c0	-0.09198713
9	0x3b726a0c	0.0036989478
10	0xbc9f5302	-0.01944876
11	0x3df908aa	0.12159856
12	0x3b0faa6b	0.0021921645
13	0xbda407fb	-0.08009335
14	0x3de80cea	0.11330588
15	0x3de8ec8d	0.113732435
16	0x3d062110	0.032746375
17	0xbc3aa150	-0.011390999
18	0x3db1dbfc	0.08684537
19	0xbd9233d5	-0.071387924
20	0xbcc46c78	-0.023977503
21	0xbcd6e1df	-0.02623075
22	0x3b42f4c8	0.0029747952
23	0x3ddb1137	0.10696643
24	0x3df16dfa	0.117885545
25	0xbc817d52	-0.015806828
26	0x3dafd5ae	0.08585678
27	0x3bd525ef	0.006504766
28	0x3d8af3cc	0.06784782
29	0xbd9fc3e2	-0.078010336
30	0x3ddbf3c7	0.10739856
31	0x3ccaa569	0.024737077
