saved_models/dqn_final_model.pth (torch, 981147 bytes, 32 tensors)

conv1.weight f4 [16, 2, 4, 4]
-0.14905906 -0.113874055 -0.40099186 -0.764245 -0.29145074 -0.5721245 -0.11952773 -0.4831718
-0.24711922 -0.49161175 -0.12745164 -0.3773005 -0.37965038 -0.29731706 -0.12021438 -0.171718
-0.05999347 -0.07072983 0.13926873 0.024179915 0.09030555 0.08183064 -0.15969248 0.0023792535
0.07624648 -0.08738291 -0.10897334 -0.2279494 -0.18659215 -0.12902212 0.13862436 -0.1134202
-0.038908202 -0.56148857 -0.4291566 -0.5182862 -0.03740413 -0.29649732 -0.42405006 -0.25475463
-0.20131692 -0.4359911 0.0021931042 -0.1945856 -0.13467397 -0.3731082 -0.15676694 -0.14539061
-0.18600558 -0.004161824 0.11817514 -0.0964707 0.13501357 -0.1422159 -0.180878 -0.14274123
0.11632377 -0.2662285 -0.30064395 -0.13087359 -0.008913181 0.017320996 -0.18099298 -0.17488019
0.103300445 -0.010184433 -0.18633829 0.67592937 -0.5630318 0.007386134 0.3837511 0.62516934
0.33218652 0.3062693 0.44479403 0.64612365 -0.24448735 0.33577487 0.58723086 1.0699016
-0.0695631 -0.107234426 0.05189795 -0.14696184 -0.0173677 0.04938713 -0.19370824 -0.39439487
-0.20136715 0.04219893 -0.050275695 -0.13795745 -0.061610166 -0.049585827 -0.07833921 0.06811673
0.78237724 0.7873776 0.6382548 1.5493866 0.31971985 0.30460337 0.59791833 0.58304155
0.33713615 0.3895248 0.041979264 0.7352537 0.2818973 0.36947188 0.6692484 0.778714
-0.0035231253 -0.027728476 0.19992083 -0.015482464 -0.0045046555 -0.10364279 -0.06712376 -0.037415747
0.17864123 -0.014051731 -0.026934693 -0.07625315 -0.049520843 0.12542915 0.1311894 -0.22810099
-0.04421075 1.7552257 1.7010312 0.44698152 -0.15653695 0.9090587 0.93664616 0.84743845
0.6173972 0.3498067 0.2690219 0.47818002 0.53390205 0.50629824 -0.42608973 -0.028599782
0.11071788 -0.35797307 0.10855589 0.0260163 0.08394304 0.176121 -0.08968614 -0.12513591
0.1880876 -0.12996382 -0.11310644 0.0015827108 0.018504124 0.025686603 0.11904954 0.022751864
0.49951544 -0.015751066 -0.7396689 1.4710541 -0.06843595 -0.3119715 0.31449047 0.883463
-0.05629546 0.10835705 0.06086833 0.6465663 0.44160593 0.58312565 0.3943614 0.7588582
-0.010735259 -0.031795114 0.10441358 -0.31040484 0.036682785 -0.24574368 -0.045980915 -0.06278968
-0.16185305 -0.04701683 0.026257774 -0.2965506 0.06350881 0.121757224 -0.19593072 0.02190118
-0.46802652 -0.027997969 -0.14050196 0.0072000274 -0.53177565 -0.38148832 -0.48005533 -0.40439567
-0.24947934 -0.050056472 -0.15460518 0.08168647 -0.3118881 -0.3267429 -0.48360604 -0.014648378
-0.05803923 -0.15472451 0.04131075 0.011100946 -0.12192205 -0.11749398 -0.21225843 -0.15931284
0.061138432 0.23254167 0.028089313 -0.27022102 -0.2298783 0.14344724 -0.11599718 -0.26131287
-0.35592434 -0.3529564 -0.36406344 -0.13811809 -0.35801595 -0.19252655 0.15193672 -0.43658006
-0.032969628 -0.17483355 -0.18810779 -0.18367696 -0.2547846 -0.42300746 -0.21103433 -0.45888028
0.1125904 0.022870535 0.060463242 0.13142337 -0.066783175 -0.25296986 -0.2893472 -0.17973031
-0.0546606 -0.049905784 0.041681472 0.006899898 -0.21790385 -0.034815863 -0.056162987 -0.15652433
00000000: f0a2 18be cd36 e9bd ce4e cdbe 8fa5 43bf
00000010: 0839 95be c076 12bf f4ca f4bd 4b62 f7be
00000020: d20c 7dbe 89b4 fbbe af82 02be 882d c1be
00000030: 8961 c2be f139 98be f532 f6bd d8d6 2fbe
00000040: b6bb 75bd cdda 90bd 769c 0e3e f514 c63c
00000050: 1ef2 b83d d396 a73d 6d86 23be 40ed 1b3b
00000060: 1d27 9c3d d0f5 b2bd 6a2d dfbd 916b 69be
00000070: 0312 3fbe 601e 04be 8bf3 0d3e da48 e8bd
00000080: 355e 1fbd b7bd 0fbf 6aba dbbe 68ae 04bf
00000090: 1335 19bd 7fce 97be 171d d9be 336f 82be
000000a0: 0626 4ebe 3a3a dfbe 2fba 0f3b 7341 47be
000000b0: f9e7 09be 0a08 bfbe 8387 20be 47e1 14be
000000c0: 3f78 3ebe e95f 88bb cf05 f23d 6e92 c5bd
000000d0: ff40 0a3e 0ba1 11be 1538 39be c22a 12be
000000e0: 283b ee3d 1a4f 88be 01ee 99be ba03 06be
000000f0: 9708 12bc c3e4 8d3c 3956 39be cb13 33be
00000100: 2f8f d33d 9cdc 26bc 77cf 3ebe b509 2d3f
00000110: da22 10bf 6207 f23b 067b c43e 190b 203f
00000120: 5a14 aa3e 54cf 9c3e 0bbc e33e 5c68 253f
00000130: e45a 7abe afea ab3e c354 163f 89f2 883f
00000140: 1977 8ebd b99d dbbd f292 543d 2a7d 16be
00000150: b546 8ebc 294a 4a3d 745b 46be 20ee c9be
00000160: 3133 4ebe c9d8 2c3d e3ed 4dbd b844 0dbe
00000170: f15a 7cbd 821a 4bbd 4f70 a0bd c980 8b3d
00000180: e049 483f 9491 493f ab64 233f 4d52 c63f
00000190: 52b2 a33e f9f4 9b3e 2d11 193f 3642 153f
000001a0: 1c9d ac3e cb6f c73e 73f2 2b3d 9639 3c3f
000001b0: d854 903e 6b2b bd3e dd53 2b3f cd59 473f
000001c0: 3ce4 66bb d426 e3bc 0cb8 4c3e 29aa 7dbc
000001d0: ca9b 93bb ac42 d4bd 2f78 89bd 4141 19bd
000001e0: baed 363e 3b39 66bc 25a6 dcbc 9d2a 9cbd
000001f0: 5ed6 4abd 8070 003e 8456 063e 4e93 69be
00000200: 5516 35bd 3cab e03f 64bb d93f c3da e43e
00000210: 394b 20be 12b8 683f 0bc8 6f3f baf1 583f
00000220: be0d 1e3f dd19 b33e 3dbd 893e 03d4 f43e
00000230: cead 083f c39c 013f 6f28 dabe 174a eabc
00000240: 0ec0 e23d 3f48 b7be 8d52 de3d 2320 d53c
00000250: 54ea ab3d 1059 343e 5ead b7bd a123 00be
00000260: 099a 403e 3c15 05be 59a4 e7bd f672 cf3a
00000270: f695 973c b66c d23c 3fd0 f33d 1e62 ba3c
00000280: 7dc0 ff3e 6108 81bc f15a 3dbf 804b bc3f
00000290: 2628 8cbd baba 9fbe e504 a13e a22a 623f
000002a0: 1196 66bd 4dea dd3d 1251 793d 5e85 253f
000002b0: 2c1a e23e b947 153f bde9 c93e 8844 423f
000002c0: f1e2 2fbc 983b 02bd c9d6 d53d 62ed 9ebe
000002d0: b040 163d 3ba4 7bbe 7c56 3cbd e097 80bd
000002e0: cebc 25be b894 40bd 8b1a d73c 7bd5 97be
000002f0: e810 823d da5b f93d 10a2 48be 1a6a b33c
00000300: 2ca1 efbe ff5b e5bc bfdf 0fbe 35ee eb3b
00000310: 7322 08bf 7052 c3be d0c9 f5be f30c cfbe
00000320: 8377 7fbe 0408 4dbd d250 1ebe 3c4b a73d
00000330: ccaf 9fbe d84a a7be 369b f7be c0ff 6fbc
00000340: 8bba 6dbd 1a70 1ebe 7635 293d bee0 353c
00000350: 45b2 f9bd afa0 f0bd 465a 59be e822 23be
00000360: 4b6c 7a3d 671f 6e3e 8f1b e63c 695a 8abe
00000370: 3865 6bbe d5e3 123e ee8f edbd cdca 85be
00000380: b73b b6be b4b6 b4be 8666 babe d46e 0dbe
00000390: de4d b7be ae25 45be 4d95 1b3e 6c87 dfbe
000003a0: 290b 07bd 9107 33be 549f 40be d015 3cbe
000003b0: 2173 82be 6f94 d8be 6219 58be 5bf2 eabe
000003c0: cc95 e63d fd5a bb3c 4ea8 773d d993 063e
000003d0: 9ec5 88bd 4485 81be 5125 94be 390b 38be
000003e0: cbe3 5fbd 026a 4cbd 31ba 2a3d 8a18 e23b
000003f0: 3022 5fbe 149b 0ebd 290b 66bd ea47 20be

conv1.bias f4 [16]
0.22682884 0.1233216 0.22032946 0.10472023 -0.113858774 0.24775669 0.20018318 0.14868836
0.18638785 0.09188694 0.10410277 -0.005795406 0.056304265 -0.129957 0.27145842 0.15032575
00000000: d245 683e 0990 fc3d 0c9e 613e 8f77 d63d
00000010: ca2e e9bd eeb3 7d3e d2fc 4c3e c341 183e
00000020: 75dc 3e3e 382f bc3d d533 d53d 64e7 bdbb
00000030: 4d9f 663d 7313 05be 99fc 8a3e feee 193e

conv2.weight f4 [32, 16, 4, 4]
-0.010298209 -0.052658103 0.04552757 0.058200315 0.042481765 -0.07017055 -0.023977406 0.009982606
0.02021245 -0.018500283 -0.06120284 -0.009574987 0.08029759 0.045359105 -0.016435307 0.07814136
0.04422038 -0.06783004 -0.2825252 0.041041937 -0.017854912 -0.074751824 -0.02299659 0.031857856
0.064411625 -0.054631714 0.019640472 -0.04407026 -0.016655114 0.027182592 -0.011031676 0.014949802
-0.047374472 -0.037713658 0.01963215 0.026624313 0.010941487 0.034438252 -0.026436534 9.3497605e-05
-0.034153152 0.015957704 0.035899784 -0.028527763 0.06856986 -0.03492562 -0.11783935 -0.05451082
-0.085503906 -0.12347112 -0.08777684 -0.05804848 -0.047758255 -0.06499708 -0.04934054 -0.06028443
-0.00020274616 0.015380793 -0.024368381 -0.20824252 0.05220559 0.04241606 -0.031866197 -0.26726735
-0.61434734 -0.43354055 -0.2986062 -0.5307863 -0.5048197 -0.11852127 -0.15633646 -0.49864402
-0.4722678 -0.06911494 -0.08667751 -0.3576016 -0.2737565 0.04311897 0.008295312 -0.44989735
-0.008934278 0.0017932386 -0.0067829066 -0.14955446 0.012245489 0.064705834 -0.030374235 0.026058618
-0.0645106 -0.003072625 0.06815367 0.0060899854 0.059594158 0.11296987 -0.01014049 -0.15734148
0.04396196 0.022012595 0.103442796 0.11041644 0.021384548 0.009604449 -0.027326055 0.07223917
0.07891069 0.058945425 0.032136973 0.022636412 0.057498492 -0.03944862 -0.06324877 0.05227822
-0.00971071 0.030374497 0.008335195 -0.014435267 0.055261705 -0.01594091 -0.010399146 -0.04668441
0.11340259 0.015783131 -0.017883312 0.09116921 0.06458756 -0.012254793 -0.0079726 -0.0084256455
-0.009240319 -0.0011440361 0.046629455 0.037864074 0.03706051 -0.014091217 -0.11452454 -0.056541428
-0.063460395 0.070458144 0.022798846 0.022049518 0.10411887 -0.04198417 0.010097323 0.018471615
-0.11335028 0.03855908 0.019895343 -0.014006684 -0.19312368 -0.04012811 -0.060994785 -0.05865493
-0.18827026 -0.20712107 0.051922623 -0.049311016 -0.17238398 -0.14776193 0.17273635 -0.08653976
0.0033184001 0.042487994 -0.053518042 0.12189734 -0.012683676 -0.13510263 0.038859904 0.013653117
0.055507544 0.034230493 -0.082893476 -0.008683212 0.01164398 0.056317933 -0.07942917 -0.014196066
0.058681585 -0.06446988 -0.06891347 -0.058603104 -0.107502215 0.09722879 -0.047784224 0.07974994
0.021105673 -0.34366256 -0.037082747 -0.011604612 -0.1853781 0.03381702 0.21485406 0.025718013
0.0056291544 0.041724082 0.09297026 0.03534142 -0.03452024 -0.052856505 0.022749612 -0.0806466
0.07220136 0.011593616 -0.30328494 0.008298671 -0.13280742 -0.050735947 0.09880735 -0.042033233
-0.1852484 -0.06882881 -0.101627044 -0.51893 -0.04358492 -0.11757642 -0.08296956 -0.31022897
-0.19261979 -0.052441534 -0.11406384 -0.30078712 -0.16243921 -0.011708668 0.024063746 -0.6647495
0.110075586 0.0147135565 0.038091585 0.08657005 -0.0053815306 -0.032772128 0.07928046 -0.0110696545
-0.018779654 0.046428483 0.0022364676 0.02786813 0.105252974 -0.036194354 0.054971796 0.06378828
-0.015266204 -0.040863458 -0.0076709925 -0.0068261484 0.024962876 -0.08231743 0.05349287 -0.0060934764
0.116861224 -0.10148598 -0.04270851 0.038446374 0.07994423 0.11877681 -0.17061178 -0.12802294
00000000: d2b9 28bc 06b0 57bd 1e7b 3a3d 7463 6e3d
00000010: 5c01 2e3d 94b5 8fbd 446c c4bc 168e 233c
00000020: 9494 a53c e88d 97bc d4af 7abd 68e0 1cbc
00000030: 1073 a43d 78ca 393d 56a3 86bc 9408 a03d
00000040: 6e20 353d 7aea 8abd 25a7 90be 971b 283d
00000050: 7744 92bc 7c17 99bd 5863 bcbc 627d 023d
00000060: 3eea 833d 81c5 5fbd 0ee5 a03c 0483 34bd
00000070: 4e70 88bc 07ae de3c 34be 34bc 04f0 743c
00000080: bc0b 42bd a379 1abd 9ad3 a03c 3b1b da3c
00000090: ec43 333c 200f 0d3d 6e91 d8bc 2514 c438
000000a0: 2de4 0bbd bbb9 823c a70b 133d 0eb3 e9bc
000000b0: 5b6e 8c3d 2b0e 0fbd c255 f1bd bd46 5fbd
000000c0: ac1c afbd 6dde fcbd 58c4 b3bd 3ec4 6dbd
000000d0: 299e 43bd 301d 85bd 4e19 4abd ceec 76bd
000000e0: 4298 54b9 b9ff 7b3c 33a0 c7bc 873d 55be
000000f0: 87d5 553d 76bc 2d3d 2186 02bd 44d7 88be
00000100: de45 1dbf 07f9 ddbe e9e2 98be 9ce1 07bf
00000110: dd3b 01bf 48bb f2bd aa16 20be 454e ffbe
00000120: 16cd f1be 228c 8dbd fa83 b1bd 8f17 b7be
00000130: d029 8cbe 849d 303d 0fe9 073c f258 e6be
00000140: 1461 12bc 1a0b eb3a 2543 debb ce24 19be
00000150: 4ea1 483c 7e84 843d 63d3 f8bc e278 d53c
00000160: 221e 84bd 185e 49bb 2794 8b3d 808e c73b
00000170: 0119 743d bf5c e73d 4c24 26bc 201e 21be
00000180: 7511 343d c253 b43c d1d9 d33d 0422 e23d
00000190: a62e af3c fb5b 1d3c e4da dfbc 21f2 933d
000001a0: ee9b a13d c270 713d 0fa2 033d ff6f b93c
000001b0: 8a83 6b3d e094 21bd 9288 81bd b021 563d
000001c0: ab19 1fbc f0d3 f83c 5790 083c e681 6cbc
000001d0: 195a 623d 8396 82bc 2e61 2abc 2738 3fbd
000001e0: 9e3f e83d a04b 813c 0680 92bc ecb6 ba3d
000001f0: 7c46 843d 54c8 48bc 829f 02bc b80b 0abc
00000200: b564 17bc 7bf3 95ba 87fe 3e3d 5c17 1b3d
00000210: c3cc 173d d9de 66bc d88b eabd fc97 67bd
00000220: 86f7 81bd 5c4c 903d a5c4 ba3c 31a1 b43c
00000230: 463c d53d 98f7 2bbd 3e6f 253c c951 973c
00000240: 3124 e8bd 20f0 1d3d 8ffb a23c 4a7c 65bc
00000250: 37c2 45be 605d 24bd abd5 79bd 2740 70bd
00000260: ebc9 40be 8c17 54be d1ac 543d 59fa 49bd
00000270: 6d85 30be e74e 17be cce1 303e c23b b1bd
00000280: 8479 593b e407 2e3d bc35 5bbd 50a5 f93d
00000290: 31cf 4fbc 5858 0abe 902b 1f3d 53b1 5f3c
000002a0: e15b 633d 4635 0c3d 0ec4 a9bd 0844 0ebc
000002b0: 64c6 3e3c a2ad 663d c3ab a2bd 9e96 68bc
000002c0: 1a5c 703d c908 84bd 8122 8dbd cf09 70bd
000002d0: 1f2a dcbd e31f c73d 64b9 43bd f053 a33d
000002e0: cee5 ac3c 8af4 afbe 14e4 17bd 4521 3ebc
000002f0: c2d3 3dbe b783 0a3d b402 5c3e 95ae d23c
00000300: c574 b83b dfe6 2a3d 3167 be3d 2ac2 103d
00000310: 1865 0dbd 1080 58bd 655d ba3c 0b2a a5bd
00000320: 4ede 933d 26f3 3d3c 2a48 9bbe 26f7 073c
00000330: abfe 07be 7fd0 4fbd 825b ca3d 0a2b 2cbd
00000340: c2b1 3dbe 1ef6 8cbd d721 d0bd 99d8 04bf
00000350: 1a86 32bd e8cb f0bd f2eb a9bd 55d6 9ebe
00000360: 1f3e 45be efcc 56bd 4d9a e9bd c500 9abe
00000370: 7756 26be b7d5 3fbc 5521 c53c 062d 2abf
00000380: 4f6f e13d 2111 713c ec05 1c3d a34b b13d
00000390: 8d57 b0bb 113c 06bd cb5d a23d 7f5d 35bc
000003a0: cad7 99bc cb2b 3e3d b391 123b b44b e43c
000003b0: df8e d73d 8840 14bd 1b2a 613d 6ea3 823d
000003c0: 1a1f 7abc 7160 27bd f35c fbbb e2ad dfbb
000003d0: f27e cc3c 0a96 a8bd 571b 5b3d c9ab c7bb
000003e0: f054 ef3d e2d7 cfbd 1eef 2ebd f279 1d3d
000003f0: cdb9 a33d 4241 f33d dbb4 2ebe 7218 03be

conv2.bias f4 [32]
0.0953167 0.033676594 -0.06928378 0.10113954 0.06216817 0.015104279 -0.08174611 0.18746117
-0.09198713 0.0036989478 -0.01944876 0.130351 0.03126106 -0.08009335 0.11877939 0.10921779
0.014952432 0.005549792 0.06335654 -0.071387924 -0.029759021 0.11043857 0.0029747952 0.094175324
0.106962055 -0.006983966 0.14284009 0.03483756 0.045703482 -0.046623472 0.12850162 0.024737077
00000000: 6735 c33d 78f0 093d a8e4 8dbd 3f22 cf3d
00000010: 0da4 7e3d f077 773c 816a a7bd d2f5 3f3e
00000020: c063 bcbd 0c6a 723b 0253 9fbc bc7a 053e
00000030: 990b 003d fb07 a4bd 9c42 f33d 94ad df3d
00000040: 0cfb 743c 08db b53b 13c1 813d d533 92bd
00000050: 31c9 f3bc 9e2d e23d c8f4 423b fede c03d
00000060: ec0e db3d c1d9 e4bb ac44 123e d4b1 0e3d
00000070: 9333 3b3d 41f8 3ebd ee95 033e 69a5 ca3c

fc1.weight f4 [64, 800]
0.007881062 0.022547876 -0.039281182 0.013681161 0.108998954 0.011805729 0.021964213 -0.0114121465
0.0004523124 0.023955634 0.005434009 0.012654948 -0.035217486 0.034438614 -0.0035616441 -0.00021255991
0.045141652 -0.044012222 -0.05373053 0.004688187 -0.1071299 -0.019931598 0.014576152 0.018017424
0.099597685 -0.057407886 -0.075073086 -0.037299335 0.014012352 0.07951438 -0.0042660926 -0.029702367
-0.026128428 -0.08190841 -0.01098694 -0.17803152 -0.07622995 -0.025502136 0.030090185 0.0377284
0.02822737 0.012281538 -0.08338848 -0.033177603 0.006475767 -0.08985276 -0.114121184 -0.15107521
0.009500134 0.03455494 0.0035498515 0.014990696 0.004438879 -0.032743804 -0.007937922 0.0034088858
0.007513901 -0.019763457 -0.035696696 0.0074988157 0.027457079 0.037048046 0.04026187 0.019312348
0.025924863 -0.018587774 -0.01013167 0.014441423 -0.033909034 0.018846564 0.02114417 0.013302235
-0.022941079 -0.030855171 -0.018418152 -0.03182953 0.0056917677 0.0031838147 -0.016535662 0.06181492
0.042311758 0.016663989 -0.030494772 -0.08250116 -0.00663554 0.031099474 -0.00014489402 -0.03498746
-0.041212093 0.03445787 -0.018877221 -0.07949584 -0.051120047 0.014730226 -0.01369131 0.050397906
-0.040821712 0.06812013 0.027529923 0.05558196 -0.011345893 0.017516809 -0.04238937 -0.028447658
0.04106511 -0.004808426 0.039769243 0.01084151 0.0039819116 -0.013366872 -0.09236137 -0.079765074
-0.012947047 -0.008952106 -0.045058172 -0.03437333 -0.05180542 -0.10708648 0.05238383 -0.046886403
0.043337055 -0.008836872 -0.06197539 -0.0053824442 0.06296088 0.05341972 0.075788304 0.12820661
0.16814797 0.11867165 -0.021951318 -0.0003168066 0.0493564 -0.009024755 0.127035 -0.17583974
-0.0999563 0.2990474 0.06461744 -0.106281996 -0.42926458 -0.39043704 -0.37018487 -0.061023843
0.09074474 -0.19967952 -0.2145245 -0.05640299 0.20504664 0.19124946 0.03696089 -0.032905675
0.023479853 -0.016596654 0.019316658 0.025852948 -1.1038665e-05 -0.024318568 0.026834462 -0.014333623
-0.041956812 -0.025893139 -0.05036403 -0.045999706 0.029982284 -0.04690616 0.008133059 -0.038306132
0.004259084 0.02592206 0.009396106 0.014435851 0.01674339 0.02464706 0.005120197 -0.4519356
-0.32305786 -0.13360055 -0.28915927 -0.5567888 -0.14090468 -0.14111848 -0.10079534 0.13189001
-0.110130355 -0.30183864 -0.09822466 -0.161548 -0.15610607 -0.12691568 -0.315539 -0.18826625
-0.072132856 0.14457056 -0.29708198 -0.07805807 -0.22506198 0.12409497 -0.029086558 -0.31400326
0.008012213 0.021692924 -0.025009608 -0.026801212 0.020368021 0.031379286 -0.016285716 0.02129009
-0.02825484 -0.03192416 0.023578249 0.0014674813 -0.012356818 -0.021200806 -0.010424901 -0.024212442
-0.015915912 -0.024890244 0.010333259 1.917407e-05 0.014018139 0.017831422 -0.0023369752 0.0026695207
-0.00057169795 -0.006860273 0.0011766951 -0.0034980364 -0.00056203746 -0.025683261 -0.026983809 -0.024758441
0.0066714063 0.0040087113 0.030990694 -0.022992548 -0.033703208 -0.006614607 0.030172724 0.0010413527
0.003754411 0.02506563 -0.023645319 -0.0141653195 0.036976196 0.020584036 0.0033100024 0.02475104
-0.026369596 0.015968919 0.04652247 -0.017046226 0.045447093 -0.035325594 0.009945324 0.005085654
00000000: 921f 013c 53b6 b83c 4ee5 20bd f326 603c
00000010: d83a df3d d16c 413c 4bee b33c 03fa 3abc
00000020: 5824 ed39 9b3e c43c c50f b23b b356 4f3c
00000030: 3640 10bd 810f 0d3d 796a 69bb 9ee2 5eb9
00000040: 74e6 383d 2946 34bd 8b14 5cbd 5d9f 993b
00000050: ec66 dbbd 9747 a3bc d0d0 6e3c 4799 933c
00000060: dff9 cb3d 8824 6bbd ebbf 99bd 30c7 18bd
00000070: 1094 653c 6fd8 a23d 94ca 8bbb 6152 f3bc
00000080: 490b d6bc 99bf a7bd 9102 34bc e54d 36be
00000090: 731e 9cbd dbe9 d0bc b17f f63c 1889 1a3d
000000a0: 163d e73c 8138 493c 94c7 aabd 3de5 07bd
000000b0: ac32 d43b b904 b8bd 5eb8 e9bd 76b3 1abe
000000c0: 73a6 1b3c 7b89 0d3d a0a4 683b 899b 753c
000000d0: 0474 913b 5e1e 06bd 0f0e 02bc 9d67 5f3b
000000e0: 2c37 f63b f9e6 a1bc b336 12bd a0b8 f53b
000000f0: abed e03c b1bf 173d a1e9 243d ee34 9e3c
00000100: 6160 d43c 6345 98bc 4eff 25bc b89b 6c3c
00000110: 33e4 0abd 1c64 9a3c 8a36 ad3c 9ef1 593c
00000120: eeee bbbc fcc3 fcbc aae1 96bc ae5f 02bd
00000130: 0282 ba3b 8ca7 503b cc75 87bc a431 7d3d
00000140: 184f 2d3d eb82 883c 2cd0 f9bc 5ef6 a8bd
00000150: f26e d9bb 53c4 fe3c b1ee 17b9 034f 0fbd
00000160: 03ce 28bd b223 0d3d 67a4 9abc b7ce a2bd
00000170: 4163 51bd 0c57 713c 8451 60bc 096e 4e3d
00000180: ab34 27bd 9182 8b3d 6f86 e13c e9a9 633d
00000190: 20e4 39bc 697f 8f3c 7aa0 2dbd 100b e9bc
000001a0: e433 283d 0090 9dbb 13e5 223d 97a0 313c
000001b0: b27a 823b ba00 5bbc f527 bdbd df5b a3bd
000001c0: da1f 54bc dbab 12bc eb8e 38bd 0dcb 0cbd
000001d0: ec31 54bd 2850 dbbd 6d90 563d f50b 40bd
000001e0: 3282 313d 87c8 10bc e8d9 7dbd 375f b0bb
000001f0: a2f1 803d a3ce 5a3d e636 9b3d 9848 033e
00000200: fb2e 2c3e 1f0a f33d 40d3 b3bc 1019 a6b9
00000210: f029 4a3d 91dc 13bc 7715 023e 550f 34be
00000220: e3b5 ccbd be1c 993e 2656 843d 60aa d9bd
00000230: 91c8 dbbe 5de7 c7be df88 bdbe 23f4 79bd
00000240: 61d8 b93d ca78 4cbe 4fac 5bbe d206 67bd
00000250: bff7 513e e6d6 433e 4d64 173d 1ac8 06bd
00000260: d258 c03c b5f5 87bc f83d 9e3c 90c9 d33c
00000270: b532 39b7 bc37 c7bc f2d3 db3c 93d7 6abc
00000280: e8da 2bbd d91d d4bc 834a 4ebd 306a 3cbd
00000290: 689d f53c ac20 40bd 8640 053c e4e6 1cbd
000002a0: c98f 8b3b 805a d43c 20f2 193c 5984 6c3c
000002b0: 6f29 893c a2e8 c93c 53c7 a73b 1a64 e7be
000002c0: d767 a5be 95ce 08be af0c 94be b689 0ebf
000002d0: 5149 10be 5d81 10be ca6d cebd 2d0e 073e
000002e0: 068c e1bd 988a 9abe 032a c9bd d76c 25be
000002f0: 45da 1fbe 2ff6 01be 548e a1be dec8 40be
00000300: 64ba 93bd 4e0a 143e 211b 98be e9dc 9fbd
00000310: a676 66be 8125 fe3d ef46 eebc 09c5 a0be
00000320: a845 033c 5cb5 b13c f3e0 ccbc 378e dbbc
00000330: d6da a63c 9187 003d 9f69 85bc 8e68 ae3c
00000340: b276 e7bc e8c2 02bd 2c27 c13c 8058 c03a
00000350: 4074 4abc 50ad adbc 34cd 2abc 2c59 c6bc
00000360: 1662 82bc a0e6 cbbc d44c 293c 00d8 a037
00000370: 56ac 653c 3413 923c f027 19bb 20f3 2e3b
00000380: 00de 15ba 24cc e0bb 563b 9a3a 503f 65bb
00000390: b255 13ba b465 d2bc 260d ddbc 37d2 cabc
000003a0: d09b da3b 825b 833b 32e0 fd3c de5a bcbc
000003b0: 600c 0abd 58bf d8bb ca2c f73c 007e 883a
000003c0: 900c 763b 7056 cd3c d4b3 c1bc a815 68bc
000003d0: 5a74 173d da9f a83c a0ec 583b b1c2 ca3c
000003e0: 0d05 d8bc 40d1 823c 588e 3e3d 87a4 8bbc
000003f0: bb26 3a3d 92b1 10bd b6f1 223c 8fa5 a63b

fc1.bias f4 [64]
0.08286522 -0.082030304 -0.048864424 0.08780632 0.08928223 0.028980242 -0.012884347 0.0161464
-0.042377565 0.043611355 -0.058088366 0.010912722 -0.045033388 -0.029845757 -0.015576088 -0.058576807
-0.026316393 -0.0024366246 -0.05739134 -0.036065303 -0.05573055 0.06607054 0.07344685 -0.042683497
0.11954772 -0.012901784 0.040278435 -0.012231792 -0.060946815 -0.009338454 -0.0150720915 0.065460704
-0.04356663 0.087904416 0.1201309 -0.039709605 0.019540975 0.07951811 -0.05606781 0.09404711
-0.035082106 -0.003403365 0.0007767891 0.07416692 -0.04417825 0.030593917 0.021780608 0.0115721915
0.026443783 -0.026650941 0.079284236 -0.0531398 0.034111608 -0.013359827 0.110274956 -0.05000281
0.012673318 -0.033347506 -0.05633584 0.06346374 -0.05590007 -0.0036882758 0.06952946 -0.039682455
00000000: 3eb5 a93d 81ff a7bd 1026 48bd cdd3 b33d
00000010: 9ad9 b63d f967 ed3c de18 53bc 7445 843c
00000020: 1994 2dbd d2a1 323d 11ee 6dbd 46cb 323c
00000030: ee74 38bd 177f f4bc d932 7fbc 3cee 6fbd
00000040: 7a95 d7bc c7af 1fbb 2f13 6bbd 36b9 13bd
00000050: b845 64bd fe4f 873d 4d6b 963d e4d4 2ebd
00000060: 6fd5 f43d 0162 53bc 00fb 243d db67 48bc
00000070: 5ea3 79bd 5100 19bc eff0 76bc 4310 863d
00000080: ec72 32bd 3b07 b43d 3007 f63d 8aa6 22bd
00000090: 6514 a03c 64da a23d 5ca7 65bd c59b c03d
000000a0: 41b2 0fbd fd0a 5fbb 6fa1 4b3a d3e4 973d
000000b0: 41f4 34bd 18a0 fa3c 3f6d b23c 4a99 3d3c
000000c0: a2a0 d83c 1353 dabc c65f a23d 1ea9 59bd
000000d0: 9db8 0b3d 2de3 5abc d6d7 e13d bfcf 4cbd
000000e0: c0a3 4f3c 6597 08bd 69c0 66bd 47f9 813d
000000f0: 79f7 64bd 00b7 71bb 7665 8e3d 128a 22bd

fc4.weight f4 [8, 64]
0.023250967 0.09250235 0.043562513 -0.3769037 -0.08895839 -0.073434584 0.012981391 -0.12046036
0.08083098 0.031768907 0.03834452 0.2907463 0.025874302 0.16932833 -0.046562165 0.03683125
0.099307396 -0.03392442 -0.0760426 -0.083761096 0.120414436 -0.07042901 -0.39919534 0.04066809
0.26531026 -0.036004815 -0.3260443 -0.010122087 -0.09453462 0.0026360154 0.06912429 0.023029173
0.035831764 -0.28569064 0.14471361 -0.032072544 0.09282181 0.3046951 -0.099640235 -0.21494542
0.08128446 0.026103104 0.088371105 0.32589248 0.01423649 -0.24785554 0.062362544 0.06558729
0.017680934 -0.078954205 0.21378784 -0.07661846 0.033594422 0.03708652 0.2715159 -0.01188205
0.094011575 0.09237026 0.06743312 -0.23145999 -0.07211375 -0.03145735 -0.15186255 0.114703715
-0.31696525 -0.0068612034 0.12013714 -0.008233023 -0.2777105 -0.1665646 -0.043795347 0.11119673
0.111145526 0.14437094 -0.08964972 0.25802708 0.018277228 0.030827874 -0.052754313 0.045078497
0.0587652 -0.10827851 -0.051634833 -0.13488933 0.04406847 0.0027519532 -0.26547894 -0.123185456
0.32047603 0.018862104 0.0031047526 -0.08935267 -0.048700396 0.072856605 0.14646901 0.07466916
-0.036886513 -0.043141313 0.23176602 -0.055240706 0.108371116 -0.5949156 0.1142018 -0.36663356
-0.09333188 -0.04008919 0.05093419 0.16071473 0.014996569 0.25912717 0.046573374 0.025146773
-0.029913738 -0.07739463 0.06945953 -0.12101485 -0.42756248 -0.12048351 -0.08939078 -0.07535216
0.027368478 0.057881102 0.029275134 0.21154194 0.026972815 -0.09745884 0.14301081 -0.09979007
-0.21427013 0.07558745 0.03881763 -0.08206126 -0.3721949 0.17914166 0.033534367 0.055152327
0.08969705 0.15807807 0.06655925 0.32026324 -0.015097918 -0.10806302 -0.1172829 0.056511927
0.08306716 -0.10639759 -0.12787269 -0.08551039 -0.019573301 -0.189728 -0.18047166 0.037209805
0.002438509 0.082783915 -0.09137499 0.11514188 0.079544224 0.098639876 -0.2980652 0.040529747
-0.07234213 -0.40851998 0.12958449 0.031291902 -0.028826434 0.03786047 -0.0163614 -0.12402444
-0.02996713 0.08522953 -0.038039666 -0.25558135 0.03321732 -0.27523747 0.11594516 0.2763422
0.00072350405 -0.032213733 0.20803419 0.0041164756 -0.020691492 0.028683702 0.11099669 0.1215501
-0.102750055 0.0720409 0.056500982 -0.4259937 -0.09399642 -0.10482763 0.18844987 -0.04151597
-0.3370666 -0.15226284 -0.075310186 0.035148922 -0.2214831 -0.20110404 -0.087991044 -0.10602322
0.10246056 -0.02640475 0.054109234 0.32690132 -0.11370488 -0.24858518 -0.048503473 0.016343039
0.062468685 0.09761326 -0.12416183 0.004399157 0.012906747 -0.2184824 -0.034948904 0.0064860866
0.024613904 -0.09395574 -0.2682268 -0.13085146 0.05282609 0.03124921 0.0872714 0.42175433
0.103223555 -0.0017166805 0.054707117 -0.04932645 -0.08086924 -0.101477966 -0.037195474 -0.18430015
-0.016531974 -0.107375115 0.015526884 0.087558895 0.018209523 0.30311826 -0.07518341 0.2221922
0.107080586 -0.04439503 -0.19908959 -0.063730106 -0.10725505 -0.022543445 0.15206346 -0.056916043
-0.12614027 -0.08768721 0.054780282 -0.122179076 -0.07721646 -0.078323215 0.04084432 -0.05802936
00000000: d078 be3c df71 bd3d 9b6e 323d 86f9 c0be
00000010: d12f b6bd df64 96bd e6af 543c ecb3 f6bd
00000020: b68a a53d 1d20 023d 250f 1d3d b3dc 943e
00000030: 58f6 d33c 6864 2d3e f8b7 3ebd 5ddc 163d
00000040: ad61 cb3d 55f4 0abd 39bc 9bbd f08a abbd
00000050: d89b f63d 163d 90bd 5563 ccbe 9593 263d
00000060: bfd6 873e c979 13bd 47ef a6be 1cd7 25bc
00000070: 5e9b c1bd 00c1 2c3b 0991 8d3d ada7 bc3c
00000080: 54c4 123d 0b46 92be ce2f 143e 805e 03bd
00000090: 5c19 be3d ff00 9c3e 2e10 ccbd a71a 5cbe
000000a0: 7878 a63d 2dd6 d53c e9fb b43d 61db a63e
000000b0: 2b40 693c d8cd 7dbe de6f 7f3d a152 863d
000000c0: 9bd7 903c beb2 a1bd 33eb 5a3e 24ea 9cbd
000000d0: 4e9a 093d 09e8 173d 2204 8b3e eeac 42bc
000000e0: 2489 c03d 9e2c bd3d 601a 8a3d d903 6dbe
000000f0: 60b0 93bd 6cd9 00bd db81 1bbe c8e9 ea3d
00000100: 4549 a2be f2d3 e0bb 760a f63d cde3 06bc
00000110: 1230 8ebe e98f 2abe c062 33bd 1cbb e33d
00000120: 44a0 e33d fad5 133e 469a b7bd 201c 843e
00000130: 20ba 953c bd8a fc3c e814 58bd 3ba4 383d
00000140: c7b3 703d 20c1 ddbd 0c7f 53bd 6e20 0abe
00000150: 2481 343d 1d5a 343b dbec 87be a848 fcbd
00000160: 6f15 a43e b384 9a3c 1b79 4b3b 88fe b6bd
00000170: 117a 47bd d835 953d f9fb 153e 25ec 983d
00000180: 5016 17bd f2b4 30bd 1254 6d3e 1444 62bd
00000190: adf1 dd3d 644c 18bf a2e2 e93d 65b7 bbbe
000001a0: c924 bfbd 9034 24bd 5fa0 503d 6792 243e
000001b0: 2bb4 753c 51ac 843e b9c3 3e3d 9b00 ce3c
000001c0: a80d f5bc 1381 9ebd cc40 8e3d a2d6 f7bd
000001d0: 78e9 dabe 0fc0 f6bd 8312 b7bd 3c52 9abd
000001e0: dc33 e03c bc14 6d3d 68d2 ef3c 739e 583e
000001f0: 18f6 dc3c 8098 c7bd 6d71 123e bc5e ccbd
00000200: a169 5bbe 98cd 9a3d 3cff 1e3d bc0f a8bd
00000210: 5490 bebe e970 373e 555b 093d 68e7 613d
00000220: 16b3 b73d 38df 213e 3750 883d 8bf9 a33e
00000230: 425d 77bc 2550 ddbd 0432 f0bd 0d79 673d
00000240: 1d1f aa3d fbe6 d9bd 0ff1 02be 1220 afbd
00000250: 3058 a0bc 0f48 42be 90cd 38be 4f69 183d
00000260: 64cf 1f3b 9d8a a93d d022 bbbd 82cf eb3d
00000270: 15e8 a23d b403 ca3d 009c 98be 8502 263d
00000280: 1c28 94bd 8829 d1be ccb1 043e f02b 003d
00000290: 6a25 ecbc 9513 1b3d 5808 86bc 8700 febd
000002a0: a07d f5bc d28c ae3d 7bcf 1bbd 8fdb 82be
000002b0: e20e 083d edeb 8cbe a874 ed3d ba7c 8d3e
000002c0: 89a9 3d3a 8cf2 03bd ea06 553e 80e3 863b
000002d0: 3481 a9bc 15fa ea3c 3c52 e33d 42ef f83d
000002e0: 9f6e d2bd 2e8a 933d 936d 673d d91b dabe
000002f0: 3281 c0bd deaf d6bd 01f9 403e a60c 2abd
00000300: fe93 acbe caea 1bbe 3a3c 9abd 51f8 0f3d
00000310: 77cc 62be 38ee 4dbe a634 b4bd b422 d9bd
00000320: d8d6 d13d c64e d8bc a5a1 5d3d 9c5f a73e
00000330: 1bde e8bd 1d8d 7ebe 94ab 46bd d6e1 853c
00000340: 2adf 7f3d 76e9 c73d 8f48 febd ce26 903b
00000350: d276 533c dab9 5fbe 9526 0fbd 3d89 d43b
00000360: 19a3 c93c de6b c0bd 0655 89be edfd 05be
00000370: 2c60 583d 58fe ff3c 59bb b23d 2ff0 d73e
00000380: df66 d33d 3d02 e1ba 9214 603d 880a 4abd
00000390: c69e a5bd aed3 cfbd 485a 18bd 2eb9 3cbe
000003a0: 106e 87bc 7ce7 dbbd 7964 7e3c 1452 b33d
000003b0: 232c 953c 5132 9b3e c2f9 99bd 5a86 633e
000003c0: 114d db3d 90d7 35bd 24de 4bbe ee84 82bd
000003d0: 89a8 dbbd 08ad b8bc 86b6 1b3e cc20 69bd
000003e0: ea2a 01be 5a95 b3bd 4a61 603d 0639 fabd
000003f0: aa23 9ebd ec67 a0bd 604c 273d 32b0 6dbd

fc4.bias f4 [8]
0.13786764 0.11474761 -0.11321442 -0.09075075 -0.08629601 0.033817798 0.018926298 0.10835766
00000000: 2d2d 0d3e cc00 eb3d f6dc e7bd 87db b9bd
00000010: f6bb b0bd 8884 0a3d 530b 9b3c 9fea dd3d

conv1.weight f4 [16, 2, 4, 4]
-0.15307006 -0.11160116 -0.4009358 -0.764245 -0.29096955 -0.5721245 -0.12388692 -0.4831718
-0.23816852 -0.49161175 -0.13062596 -0.37580204 -0.37883702 -0.3000751 -0.119721115 -0.16603218
-0.06127769 -0.06912022 0.14025073 0.023843277 0.08923029 0.08290888 -0.15692905 0.0019032995
0.076433465 -0.087194465 -0.107829794 -0.22811434 -0.18630196 -0.12908946 0.13893387 -0.11330588
-0.0396498 -0.56148857 -0.4291566 -0.5182862 -0.033725366 -0.29633594 -0.42405006 -0.25737017
-0.2010172 -0.4359911 0.002826665 -0.19086781 -0.13661651 -0.3731082 -0.1568962 -0.13944921
-0.18607256 -0.003168322 0.118508205 -0.0967217 0.13428771 -0.14172034 -0.18019058 -0.14448759
0.11654329 -0.2662285 -0.29760003 -0.1318344 -0.009361035 0.017290583 -0.18208653 -0.17488019
0.10329497 -0.011405672 -0.1815802 0.6809069 -0.5630318 0.004066452 0.3844228 0.6286599
0.3327133 0.30299205 0.44657043 0.6418584 -0.24516292 0.33093467 0.57968134 1.0526124
-0.06892315 -0.10971338 0.05166336 -0.14818272 -0.016986728 0.04932648 -0.19426587 -0.39744422
-0.20126697 0.0435916 -0.050289474 -0.13705473 -0.06109854 -0.049617738 -0.07718283 0.068831265
0.7842629 0.78573024 0.63759357 1.5502267 0.31854728 0.30231383 0.5978404 0.5849368
0.33591178 0.38699028 0.043168176 0.7327316 0.28067783 0.36594146 0.66642094 0.7700404
-0.0034894964 -0.028144013 0.19951643 -0.0160774 -0.0047762566 -0.104181305 -0.068731375 -0.037088916
0.17830369 -0.014244514 -0.027183466 -0.075405814 -0.049629524 0.12607267 0.13129042 -0.227826
-0.04394458 1.7534251 1.6990776 0.446925 -0.15720433 0.9072912 0.93556845 0.8483361
0.61969274 0.3497876 0.2688249 0.47340053 0.5324711 0.50522137 -0.42608973 -0.024952669
0.109444775 -0.35864985 0.108015396 0.024218738 0.08362011 0.17559569 -0.08795631 -0.12466009
0.18756498 -0.13661458 -0.113235734 0.00096838485 0.019037304 0.025920786 0.11661538 0.023027493
0.49958912 -0.018520983 -0.73557204 1.4737805 -0.071175486 -0.31733522 0.31427458 0.8857157
-0.06078508 0.10558144 0.06365718 0.643508 0.440933 0.57853866 0.39040875 0.74807197
-0.010344626 -0.032961708 0.1043232 -0.3108024 0.03650427 -0.24606358 -0.046967752 -0.0630831
-0.16205364 -0.048234437 0.02598345 -0.2975018 0.06359485 0.12188315 -0.19752088 0.022487402
-0.46802652 -0.028092632 -0.1458836 0.005980537 -0.53177565 -0.37823126 -0.48005533 -0.40494853
-0.24876837 -0.043730877 -0.15377456 0.08494472 -0.3118881 -0.3267429 -0.48360604 -0.008792335
-0.05827859 -0.1533068 0.041326206 0.011368428 -0.12246865 -0.11754446 -0.21195248 -0.15793818
0.06117051 0.23274197 0.02857067 -0.27115867 -0.23046382 0.14306197 -0.11553045 -0.26023296
-0.35592434 -0.3529564 -0.36406344 -0.14360192 -0.35801595 -0.19530855 0.15145384 -0.43658006
-0.030349573 -0.16431881 -0.18601187 -0.17739114 -0.25877866 -0.42300746 -0.21481021 -0.45888028
0.111948535 0.023800237 0.06079179 0.12959994 -0.068084896 -0.25441766 -0.2893472 -0.18078151
-0.055262014 -0.0489978 0.041069675 0.0049519353 -0.21843658 -0.035777587 -0.055402018 -0.15800066
00000000: 66be 1cbe 268f e4bd 7547 cdbe 8fa5 43bf
00000010: f6f9 94be c076 12bf 6db8 fdbd 4b62 f7be
00000020: 73e2 73be 89b4 fbbe d0c2 05be 2069 c0be
00000030: edf6 c1be 72a3 99be 5830 f5bd 5704 2abe
00000040: 51fe 7abd e78e 8dbd e39d 0f3e fa52 c33c
00000050: 5fbe b63d 22cc a93d 02b2 20be 2278 f93a
00000060: 2689 9c3d 0393 b2bd ded5 dcbd ce96 69be
00000070: f1c5 3ebe 0730 04be ae44 0e3e ea0c e8bd
00000080: d467 22bd b7bd 0fbf 6aba dbbe 68ae 04bf
00000090: 9c23 0abd 58b9 97be 171d d9be 06c6 83be
000000a0: 74d7 4dbe 3a3a dfbe 923f 393b da72 43be
000000b0: 33e5 0bbe 0a08 bfbe 66a9 20be c6cb 0ebe
000000c0: ce89 3ebe 9fa3 4fbb 6eb4 f23d 0716 c6bd
000000d0: b882 093e 231f 11be e183 38be 8ef4 13be
000000e0: 40ae ee3d 1a4f 88be 085f 98be 99ff 06be
000000f0: 075f 19bc fba4 8d3c e474 3abe cb13 33be
00000100: 508c d33d dbde 3abc 29f0 39be ea4f 2e3f
00000110: da22 10bf df3f 853b 11d3 c43e dbef 203f
00000120: 6659 aa3e c621 9b3e e1a4 e43e d550 243f
00000130: fd0b 7bbe 4570 a93e ff65 143f 01bc 863f
00000140: 9527 8dbd 69b1 e0bd f69c 533d 36bd 17be
00000150: c027 8bbc 900a 4a3d a2ed 46be cf7d cbbe
00000160: ee18 4ebe 1b8d 323d 56fc 4dbd 1358 0cbe
00000170: 7642 7abd f83b 4bbd 0812 9ebd 68f7 8c3d
00000180: 74c5 483f 9e25 493f 5539 233f d46d c63f
00000190: a118 a33e e1c8 9a3e 120c 193f 6bbe 153f
000001a0: a1fc ab3e 9723 c63e 1dd1 303d 4c94 3b3f
000001b0: 01b5 8f3e ae5c bb3e 909a 2a3f 5e21 453f
000001c0: 09b0 64bb 468e e6bc 094e 4c3e c0b4 83bc
000001d0: 2582 9cbb 025d d5bd 09c3 8cbd 8cea 17bd
000001e0: 3e95 363e d261 69bc dcaf debc 5d6e 9abd
000001f0: 5448 4bbd 3219 013e ff70 063e 384b 69be
00000200: 3bff 33bd 3c70 e03f 607b d93f 5bd3 e43e
00000210: 2cfa 20be 3c44 683f 6a81 6f3f 8e2c 593f
00000220: 2fa4 1e3f 5c17 b33e 6ba3 893e 8e61 f23e
00000230: 0750 083f 3056 013f 6f28 dabe 8a69 ccbc
00000240: 9524 e03d f4a0 b7be 2d37 dd3d 6066 c63c
00000250: 0541 ab3d 5bcf 333e 7022 b4bd ca4d ffbd
00000260: 0911 403e b1e4 0bbe 23e8 e7bd 35db 7d3a
00000270: 1ff4 9b3c d457 d43c 0bd4 ee3d 27a4 bc3c
00000280: 25ca ff3e 51b9 97bc 734e 3cbf d7a4 bc3f
00000290: 74c4 91bd c379 a2be 99e8 a03e 44be 623f
000002a0: c7f9 78bd 153b d83d b25e 823d f1bc 243f
000002b0: f8c1 e13e 1c1b 143f a8e3 c73e a581 3f3f
000002c0: 827c 29bc db02 07bd 67a7 d53d 7e21 9fbe
000002d0: 8085 153d 17f8 7bbe 4261 40bd b631 81bd
000002e0: 64f1 25be 7991 45bd 3edb d43c 2852 98be
000002f0: 043e 823d df9d f93d ea42 4abe 8037 b83c
00000300: 2ca1 efbe 8522 e6bc 8362 15be 61f8 c33b
00000310: 7322 08bf 87a7 c1be d0c9 f5be 6a55 cfbe
00000320: 23bd 7ebe 261f 33bd 1477 1dbe 7ff7 ad3d
00000330: ccaf 9fbe d84a a7be 369b f7be ba0d 10bc
00000340: 88b5 6ebd 75fc 1cbe ab45 293d a542 3a3c
00000350: d8d0 fabd 26bb f0bd 120a 59be 8cba 21be
00000360: ee8d 7a3d e953 6e3e 0a0d ea3c 4fd5 8abe
00000370: b5fe 6bbe d67e 123e 3b9b ecbd 413d 85be
00000380: b73b b6be b4b6 b4be 8666 babe 620c 13be
00000390: de4d b7be f7fe 47be b716 1b3e 6c87 dfbe
000003a0: ab9f f8bc 3143 28be e579 3ebe 06a6 35be
000003b0: a37e 84be 6f94 d8be 35f7 5bbe 5bf2 eabe
000003c0: 4645 e53d b7f8 c23c d000 793d d9b5 043e
000003d0: 1870 8bbd 0843 82be 5125 94be ca1e 39be
000003e0: 6c5a 62bd ebb1 48bd ad38 283d d843 a23b
000003f0: d7ad 5fbe 858b 12bd 3aed 62bd edca 21be

conv1.bias f4 [16]
0.22722116 0.12254613 0.22072946 0.1050608 -0.114573136 0.24742784 0.20024703 0.14806831
0.18634936 0.09135154 0.103558004 -0.0053163287 0.056633692 -0.13076906 0.27266046 0.15066999
00000000: aaac 683e 77f9 fa3d e706 623e 1e2a d73d
00000010: 52a5 eabd b95d 7d3e 8f0d 4d3e 389f 173e
00000020: 5ed2 3e3e 8416 bb3d 3816 d43d 9934 aebb
00000030: bbf8 673d 53e8 05be 279a 8b3e 3c49 1a3e

conv2.weight f4 [32, 16, 4, 4]
-0.010633682 -0.052717764 0.046028726 0.057400815 0.042351358 -0.069780216 -0.025462223 0.0096535375
0.021156264 -0.018022448 -0.06095777 -0.009036559 0.08079714 0.045601998 -0.015974037 0.07870473
0.043240294 -0.06774011 -0.28209054 0.03919895 -0.017675048 -0.07346832 -0.02409707 0.030472737
0.06544409 -0.055103276 0.020065477 -0.044191178 -0.015950602 0.026865065 -0.010168878 0.015496243
-0.04765029 -0.03615162 0.019686604 0.025818575 0.011148208 0.034950048 -0.027170416 -0.00054651685
-0.03368649 0.014967783 0.035959024 -0.030062435 0.06896959 -0.03355915 -0.117346615 -0.054595117
-0.08605039 -0.12365016 -0.08771727 -0.05852157 -0.047511 -0.064682044 -0.05112398 -0.06043982
-1.780493e-05 0.015302546 -0.024783658 -0.2089675 0.05182966 0.04222938 -0.030983297 -0.26639813
-0.6154912 -0.43195826 -0.29808265 -0.5323091 -0.5047574 -0.11915789 -0.158846 -0.5024134
-0.4702572 -0.06946971 -0.08695784 -0.3577313 -0.27370483 0.04372158 0.006695995 -0.44968984
-0.007993722 0.0022675665 -0.007637776 -0.14957929 0.012586739 0.064676136 -0.030317537 0.02541856
-0.06409769 -0.0033091267 0.06848355 0.00402087 0.059342083 0.114186496 -0.010066347 -0.156418
0.04326695 0.022047374 0.101658285 0.10932056 0.0219493 0.010163349 -0.027726622 0.07283407
0.07903 0.05936931 0.03194512 0.021727227 0.056779813 -0.039484628 -0.06284048 0.052965093
-0.0093968995 0.028925758 0.0064969915 -0.01459345 0.055728547 -0.016020736 -0.009924563 -0.04602428
0.11303593 0.015805462 -0.019092005 0.090153 0.06497972 -0.011618649 -0.0074003814 -0.00711246
-0.009672151 -0.0009344324 0.04493502 0.036821082 0.038015224 -0.01362533 -0.11463762 -0.05569175
-0.062107243 0.07110406 0.02351517 0.021661075 0.10382909 -0.041794848 0.010351295 0.018456874
-0.1125112 0.039173637 0.019604404 -0.012991801 -0.1933107 -0.040474165 -0.06054886 -0.058964092
-0.18877974 -0.20522791 0.052322235 -0.04864652 -0.17503142 -0.14812057 0.17283249 -0.087264255
0.0020928816 0.043515667 -0.053202596 0.11900187 -0.012704624 -0.13434532 0.03717818 0.013083597
0.056390285 0.03454483 -0.08376047 -0.008807799 0.011798491 0.056277838 -0.07877375 -0.013361917
0.0586662 -0.0642297 -0.06799247 -0.058009557 -0.10896956 0.09525397 -0.05037894 0.07605245
0.020154752 -0.34212834 -0.037019603 -0.010440561 -0.18512435 0.03353504 0.2145309 0.025105612
0.005653807 0.04071716 0.092255525 0.035381027 -0.03377051 -0.053219765 0.023549905 -0.080553085
0.07137455 0.011795991 -0.30397633 0.008680166 -0.13430744 -0.049987882 0.09974488 -0.0408953
-0.18547887 -0.06847911 -0.10119628 -0.51884234 -0.044877417 -0.1177561 -0.08440026 -0.3098345
-0.19286647 -0.052859347 -0.11370867 -0.29949865 -0.1625458 -0.011999288 0.025493544 -0.6630658
0.1098728 0.015075838 0.038118698 0.08606366 -0.0052040243 -0.03267718 0.0787696 -0.010837793
-0.018135533 0.046093713 0.0025732976 0.027679423 0.1052964 -0.036277287 0.055219438 0.06405384
-0.015929544 -0.040224906 -0.0073352414 -0.007689848 0.025375646 -0.08231446 0.05266697 -0.0071458723
0.11756874 -0.10144578 -0.042097617 0.037746392 0.080869325 0.11923435 -0.17020819 -0.12822059
00000000: e538 2ebc 95ee 57bd 9e88 3c3d 1e1d 6b3d
00000010: 9e78 2d3d eee8 8ebd 2796 d0bc df29 1e3c
00000020: e74f ad3c d0a3 93bc dbae 79bd 130e 14bc
00000030: f978 a53d 29c9 3a3d fcdb 82bc f22f a13d
00000040: bc1c 313d 54bb 8abd 2c6e 90be 148f 203d
00000050: 43cb 90bc 8f76 96bd 3867 c5bc f6a1 f93c
00000060: 8d07 863d f9b3 61bd 5b60 a43c cf01 35bd
00000070: d6aa 82bc 2014 dc3c 5e9b 26bc f4e3 7d3c
00000080: f32c 43bd b913 14bd cd45 a13c 7a81 d33c
00000090: f9a6 363c c827 0f3d 7e94 debc 2044 0fba
000000a0: d8fa 09bd 6f3b 753c c549 133d 7f45 f6bc
000000b0: ee3f 8d3d 5275 09bd 6c53 f0bd 219f 5fbd
000000c0: 303b b0bd 4c3c fdbd 1da5 b3bd 50b4 6fbd
000000d0: e59a 42bd 0578 84bd 6167 51bd bf8f 77bd
000000e0: cc5b 95b7 88b7 7a3c 1907 cbbc 94fb 55be
000000f0: 564b 543d b7f8 2c3d afd0 fdbc 5665 88be
00000100: d590 1dbf a229 ddbe 4a9e 98be 6945 08bf
00000110: c837 01bf 0d09 f4bd 87a8 22be 2a9e 00bf
00000120: 8dc5 f0be 2346 8ebd f416 b2bd 8f28 b7be
00000130: 0a23 8cbe 6615 333d 146a db3b bf3d e6be
00000140: 1af8 02bc 749b 143b 4f46 fabb 502b 19be
00000150: 9c38 4e3c ec74 843d 7c5c f8bc 953a d03c
00000160: a645 83bd efdd 58bb 1a41 8c3d 81c1 833b
00000170: af10 733d 9cda e93d 52ed 24bc 0a2c 20be
00000180: af38 313d b29c b43c 3832 d03d 75e3 df3d
00000190: 05cf b33c 2d84 263c f122 e3bc 072a 953d
000001a0: 7bda a13d 3c2d 733d e3d8 023d 4cfd b13c
000001b0: f391 683d a2ba 21bd 82b2 80bd edf1 583d
000001c0: 74f5 19bc b6f5 ec3c b7e4 d43b 5e19 6fbc
000001d0: 9e43 643d eb3d 83bc a29a 22bc f583 3cbd
000001e0: 627f e73d 757a 813c d666 9cbc 23a2 b83d
000001f0: 1614 853d 255c 3ebc e67e f2bb a40f e9bb
00000200: f177 1ebc b2f4 74ba c90d 383d b4d1 163d
00000210: dab5 1b3d c73c 5fbc 21c7 eabd 081d 64bd
00000220: 2a64 7ebd 019f 913d e3a2 c03c 9172 b13c
00000230: 59a4 d43d 1331 2bbd 7a98 293c df32 973c
00000240: 466c e6bd 8974 203d 6a99 a03c 90db 54bc
00000250: 3df3 45be 3dc8 25bd 1502 78bd 5584 71bd
00000260: 7a4f 41be 4427 52be d74f 563d 9341 47bd
00000270: 703b 33be ebac 17be 00fb 303e 9ab7 b2bd
00000280: ba28 093b 7c3d 323d f7ea 59bd 41b7 f33d
00000290: 0e27 50bc d291 09be 2648 183d 955c 563c
000002a0: 80f9 663d e17e 0d3d 9c8a abbd 964e 10bc
000002b0: 754e 413c 9783 663d 2254 a1bd f1eb 5abc
000002c0: f84b 703d dc8a 83bd a33f 8bbd 6e9b 6dbd
000002d0: 6f2b dfbd 8314 c33d 265a 4ebd 63c1 9b3d
000002e0: 941b a53c 722b afbe dea1 17bd e30e 2bbc
000002f0: 3d91 3dbe 0a5c 093d fdad 5b3e 49aa cd3c
00000300: 9243 b93b 09c7 263d 77f0 bc3d b2eb 103d
00000310: f252 0abd f8fc 59bd bbeb c03c 04f9 a4bd
00000320: d22c 923d f943 413c c9a2 9bbe 4137 0e3c
00000330: e487 09be 18c0 4cbd 0b47 cc3d d581 27bd
00000340: 2cee 3dbe c73e 8cbd ff3f cfbd dad2 04bf
00000350: 62d1 37bd 1c2a f1bd 0bda acbd a1a2 9ebe
00000360: ca7e 45be 0b83 58bd 17e0 e8bd e357 99be
00000370: 6872 26be a998 44bc d6d7 d03c aebe 29bf
00000380: fe04 e13d a600 773c 5a22 1c3d 2542 b03d
00000390: 8586 aabb 82d8 05bd f551 a13d 0091 31bc
000003a0: f890 94bc c3cc 3c3d c5a4 283b f5bf e23c
000003b0: a4a5 d73d 7e97 14bd c72d 623d a92e 833d
000003c0: ad7e 82bc dfc2 24bd 775c f0bb 1ffb fbbb
000003d0: 96e0 cf3c 7c94 a8bd 52b9 573d ec27 eabb
000003e0: e1c7 f03d cec2 cfbd 8d6e 2cbd f69b 1a3d
000003f0: d19e a53d 2431 f43d 0e4b 2ebe 424c 03be

conv2.bias f4 [32]
0.09539356 0.03465976 -0.06928378 0.10081589 0.06414527 0.015744537 -0.08174611 0.18781404
-0.09198713 0.0036989478 -0.01944876 0.13020335 0.03075045 -0.08009335 0.11982834 0.10907428
0.014952432 0.0056553683 0.06296988 -0.071387924 -0.029759021 0.11106927 0.0029747952 0.094175324
0.10708445 -0.008018703 0.14163533 0.035221595 0.046440817 -0.04508553 0.1293641 0.024737077
00000000: b35d c33d 64f7 0d3d a8e4 8dbd 9078 ce3d
00000010: 985e 833d b0fa 803c 816a a7bd 5352 403e
00000020: c063 bcbd 0c6a 723b 0253 9fbc 0754 053e
00000030: 5ee8 fb3c fb07 a4bd 9068 f53d 5662 df3d
00000040: 0cfb 743c ab50 b93b 5af6 803d d533 92bd
00000050: 31c9 f3bc 4978 e33d c8f4 423b fede c03d
00000060: 184f db3d e160 03bc da08 113e 8544 103d
00000070: ba38 3e3d 9bab 38bd 0678 043e 69a5 ca3c

fc1.weight f4 [64, 800]
0.007881062 0.022547876 -0.039281182 0.013681161 0.108998954 0.011805729 0.021964213 -0.0114121465
0.0004523124 0.023955634 0.005434009 0.012654948 -0.035217486 0.034438614 -0.0035616441 -0.00021255991
0.045141652 -0.044012222 -0.05373053 0.004688187 -0.1071299 -0.019931598 0.014576152 0.018017424
0.099597685 -0.057407886 -0.075073086 -0.037299335 0.014012352 0.07951438 -0.0042660926 -0.029702367
-0.026128428 -0.08190841 -0.01098694 -0.17803152 -0.07622995 -0.025502136 0.030090185 0.0377284
0.02822737 0.012281538 -0.08338848 -0.033177603 0.006475767 -0.08985276 -0.114121184 -0.15107521
0.009500134 0.03455494 0.0035498515 0.014990696 0.004438879 -0.032743804 -0.007937922 0.0034088858
0.007513901 -0.019763457 -0.035696696 0.0074988157 0.027457079 0.037048046 0.04026187 0.019312348
0.025924863 -0.018587774 -0.01013167 0.014441423 -0.033909034 0.018846564 0.02114417 0.013302235
-0.022941079 -0.030855171 -0.018418152 -0.03182953 0.0056917677 0.0031838147 -0.016535662 0.06181492
0.042311758 0.016663989 -0.030494772 -0.08250116 -0.00663554 0.031099474 -0.00014489402 -0.03498746
-0.041212093 0.03445787 -0.018877221 -0.07949584 -0.051120047 0.014730226 -0.01369131 0.050397906
-0.040821712 0.06812013 0.027529923 0.05558196 -0.011345893 0.017516809 -0.04238937 -0.028447658
0.04106511 -0.004808426 0.039769243 0.01084151 0.0039819116 -0.013366872 -0.09236137 -0.079765074
-0.012947047 -0.008952106 -0.045058172 -0.03437333 -0.05180542 -0.10708648 0.05238383 -0.046886403
0.043337055 -0.008836872 -0.06197539 -0.0053824442 0.06296088 0.05341972 0.075788304 0.12820661
0.16814797 0.11867165 -0.021951318 -0.0003168066 0.0493564 -0.009024755 0.127035 -0.17583974
-0.0999563 0.2990474 0.06461744 -0.106281996 -0.42926458 -0.39043704 -0.37018487 -0.061023843
0.09074474 -0.19967952 -0.2145245 -0.05640299 0.20504664 0.19124946 0.03696089 -0.032905675
0.023479853 -0.016596654 0.019316658 0.025852948 -1.1038665e-05 -0.024318568 0.026834462 -0.014333623
-0.041956812 -0.025893139 -0.05036403 -0.045999706 0.029982284 -0.04690616 0.008133059 -0.038306132
0.004259084 0.02592206 0.009396106 0.014435851 0.01674339 0.02464706 0.005120197 -0.4519356
-0.32305786 -0.13360055 -0.28915927 -0.5567888 -0.14090468 -0.14111848 -0.10079534 0.13189001
-0.110130355 -0.30183864 -0.09822466 -0.161548 -0.15610607 -0.12691568 -0.315539 -0.18826625
-0.072132856 0.14457056 -0.29708198 -0.07805807 -0.22506198 0.12409497 -0.029086558 -0.31400326
0.008012213 0.021692924 -0.025009608 -0.026801212 0.020368021 0.031379286 -0.016285716 0.02129009
-0.02825484 -0.03192416 0.023578249 0.0014674813 -0.012356818 -0.021200806 -0.010424901 -0.024212442
-0.015915912 -0.024890244 0.010333259 1.917407e-05 0.014018139 0.017831422 -0.0023369752 0.0026695207
-0.00057169795 -0.006860273 0.0011766951 -0.0034980364 -0.00056203746 -0.025683261 -0.026983809 -0.024758441
0.0066714063 0.0040087113 0.030990694 -0.022992548 -0.033703208 -0.006614607 0.030172724 0.0010413527
0.003754411 0.02506563 -0.023645319 -0.0141653195 0.036976196 0.020584036 0.0033100024 0.02475104
-0.026369596 0.015968919 0.04652247 -0.017046226 0.045447093 -0.035325594 0.009945324 0.005085654
00000000: 921f 013c 53b6 b83c 4ee5 20bd f326 603c
00000010: d83a df3d d16c 413c 4bee b33c 03fa 3abc
00000020: 5824 ed39 9b3e c43c c50f b23b b356 4f3c
00000030: 3640 10bd 810f 0d3d 796a 69bb 9ee2 5eb9
00000040: 74e6 383d 2946 34bd 8b14 5cbd 5d9f 993b
00000050: ec66 dbbd 9747 a3bc d0d0 6e3c 4799 933c
00000060: dff9 cb3d 8824 6bbd ebbf 99bd 30c7 18bd
00000070: 1094 653c 6fd8 a23d 94ca 8bbb 6152 f3bc
00000080: 490b d6bc 99bf a7bd 9102 34bc e54d 36be
00000090: 731e 9cbd dbe9 d0bc b17f f63c 1889 1a3d
000000a0: 163d e73c 8138 493c 94c7 aabd 3de5 07bd
000000b0: ac32 d43b b904 b8bd 5eb8 e9bd 76b3 1abe
000000c0: 73a6 1b3c 7b89 0d3d a0a4 683b 899b 753c
000000d0: 0474 913b 5e1e 06bd 0f0e 02bc 9d67 5f3b
000000e0: 2c37 f63b f9e6 a1bc b336 12bd a0b8 f53b
000000f0: abed e03c b1bf 173d a1e9 243d ee34 9e3c
00000100: 6160 d43c 6345 98bc 4eff 25bc b89b 6c3c
00000110: 33e4 0abd 1c64 9a3c 8a36 ad3c 9ef1 593c
00000120: eeee bbbc fcc3 fcbc aae1 96bc ae5f 02bd
00000130: 0282 ba3b 8ca7 503b cc75 87bc a431 7d3d
00000140: 184f 2d3d eb82 883c 2cd0 f9bc 5ef6 a8bd
00000150: f26e d9bb 53c4 fe3c b1ee 17b9 034f 0fbd
00000160: 03ce 28bd b223 0d3d 67a4 9abc b7ce a2bd
00000170: 4163 51bd 0c57 713c 8451 60bc 096e 4e3d
00000180: ab34 27bd 9182 8b3d 6f86 e13c e9a9 633d
00000190: 20e4 39bc 697f 8f3c 7aa0 2dbd 100b e9bc
000001a0: e433 283d 0090 9dbb 13e5 223d 97a0 313c
000001b0: b27a 823b ba00 5bbc f527 bdbd df5b a3bd
000001c0: da1f 54bc dbab 12bc eb8e 38bd 0dcb 0cbd
000001d0: ec31 54bd 2850 dbbd 6d90 563d f50b 40bd
000001e0: 3282 313d 87c8 10bc e8d9 7dbd 375f b0bb
000001f0: a2f1 803d a3ce 5a3d e636 9b3d 9848 033e
00000200: fb2e 2c3e 1f0a f33d 40d3 b3bc 1019 a6b9
00000210: f029 4a3d 91dc 13bc 7715 023e 550f 34be
00000220: e3b5 ccbd be1c 993e 2656 843d 60aa d9bd
00000230: 91c8 dbbe 5de7 c7be df88 bdbe 23f4 79bd
00000240: 61d8 b93d ca78 4cbe 4fac 5bbe d206 67bd
00000250: bff7 513e e6d6 433e 4d64 173d 1ac8 06bd
00000260: d258 c03c b5f5 87bc f83d 9e3c 90c9 d33c
00000270: b532 39b7 bc37 c7bc f2d3 db3c 93d7 6abc
00000280: e8da 2bbd d91d d4bc 834a 4ebd 306a 3cbd
00000290: 689d f53c ac20 40bd 8640 053c e4e6 1cbd
000002a0: c98f 8b3b 805a d43c 20f2 193c 5984 6c3c
000002b0: 6f29 893c a2e8 c93c 53c7 a73b 1a64 e7be
000002c0: d767 a5be 95ce 08be af0c 94be b689 0ebf
000002d0: 5149 10be 5d81 10be ca6d cebd 2d0e 073e
000002e0: 068c e1bd 988a 9abe 032a c9bd d76c 25be
000002f0: 45da 1fbe 2ff6 01be 548e a1be dec8 40be
00000300: 64ba 93bd 4e0a 143e 211b 98be e9dc 9fbd
00000310: a676 66be 8125 fe3d ef46 eebc 09c5 a0be
00000320: a845 033c 5cb5 b13c f3e0 ccbc 378e dbbc
00000330: d6da a63c 9187 003d 9f69 85bc 8e68 ae3c
00000340: b276 e7bc e8c2 02bd 2c27 c13c 8058 c03a
00000350: 4074 4abc 50ad adbc 34cd 2abc 2c59 c6bc
00000360: 1662 82bc a0e6 cbbc d44c 293c 00d8 a037
00000370: 56ac 653c 3413 923c f027 19bb 20f3 2e3b
00000380: 00de 15ba 24cc e0bb 563b 9a3a 503f 65bb
00000390: b255 13ba b465 d2bc 260d ddbc 37d2 cabc
000003a0: d09b da3b 825b 833b 32e0 fd3c de5a bcbc
000003b0: 600c 0abd 58bf d8bb ca2c f73c 007e 883a
000003c0: 900c 763b 7056 cd3c d4b3 c1bc a815 68bc
000003d0: 5a74 173d da9f a83c a0ec 583b b1c2 ca3c
000003e0: 0d05 d8bc 40d1 823c 588e 3e3d 87a4 8bbc
000003f0: bb26 3a3d 92b1 10bd b6f1 223c 8fa5 a63b

fc1.bias f4 [64]
0.08286522 -0.082030304 -0.048864424 0.08780632 0.08928223 0.028980242 -0.012884347 0.0161464
-0.042377565 0.044889905 -0.058088366 0.010816508 -0.045033388 -0.028953375 -0.015576088 -0.058576807
-0.026316393 -0.0024366246 -0.05739134 -0.036065303 -0.05573055 0.06607054 0.07344685 -0.042683497
0.11888969 -0.012901784 0.040278435 -0.012231792 -0.060946815 -0.009338454 -0.0150720915 0.06663353
-0.04356663 0.087904416 0.120597415 -0.039709605 0.019540975 0.07951811 -0.05606781 0.09404711
-0.035082106 -0.003403365 0.0007767891 0.07416692 -0.04417825 0.029916374 0.021780608 0.012142926
0.026443783 -0.026650941 0.079284236 -0.0531398 0.034111608 -0.013359827 0.1105234 -0.05000281
0.012673318 -0.033347506 -0.05633584 0.06346374 -0.05590007 -0.0036882758 0.06931454 -0.039682455
00000000: 3eb5 a93d 81ff a7bd 1026 48bd cdd3 b33d
00000010: 9ad9 b63d f967 ed3c de18 53bc 7445 843c
00000020: 1994 2dbd 7ade 373d 11ee 6dbd b937 313c
00000030: ee74 38bd a12f edbc d932 7fbc 3cee 6fbd
00000040: 7a95 d7bc c7af 1fbb 2f13 6bbd 36b9 13bd
00000050: b845 64bd fe4f 873d 4d6b 963d e4d4 2ebd
00000060: 707c f33d 0162 53bc 00fb 243d db67 48bc
00000070: 5ea3 79bd 5100 19bc eff0 76bc 2977 883d
00000080: ec72 32bd 3b07 b43d c7fb f63d 8aa6 22bd
00000090: 6514 a03c 64da a23d 5ca7 65bd c59b c03d
000000a0: 41b2 0fbd fd0a 5fbb 6fa1 4b3a d3e4 973d
000000b0: 41f4 34bd 2f13 f53c 3f6d b23c 20f3 463c
000000c0: a2a0 d83c 1353 dabc c65f a23d 1ea9 59bd
000000d0: 9db8 0b3d 2de3 5abc 185a e23d bfcf 4cbd
000000e0: c0a3 4f3c 6597 08bd 69c0 66bd 47f9 813d
000000f0: 79f7 64bd 00b7 71bb c8f4 8d3d 128a 22bd
