saved_models/dqn_checkpoint_ep100.pth (torch, 981377 bytes, 32 tensors)

conv1.weight f4 [16, 2, 4, 4]
1.2596933 0.58123696 0.6809254 0.8472534 1.0453873 -0.4179897 1.0082737 0.5360556
-0.041412234 -0.0402184 -0.07952477 0.52101403 -0.30149874 0.021301754 -0.3690273 -0.50612825
-0.093538254 0.055604372 0.071020365 -0.21465716 -0.13510942 -0.21362855 -0.5556264 -0.05622651
0.02656001 -0.3457459 -0.29965177 -0.27959082 -0.1472217 -0.244558 -0.42853642 -0.67069626
0.61583084 0.5891276 -0.15422387 1.6454413 0.48886436 0.17948648 -0.64605564 0.5441175
0.42784274 -0.7176071 0.2707805 0.5457726 -0.16713803 0.58263314 -0.7112354 1.5241174
0.09575528 0.16132578 0.21898435 -0.022477549 0.07615513 -0.18328238 0.025415456 -0.07285378
0.16912718 -0.14513576 0.018088091 0.0496306 0.050651386 0.022381539 0.10213836 0.017862054
0.14382863 -0.27957782 0.3328564 2.0054262 -0.014616651 -0.08506401 -0.17899704 -0.60327363
-0.5887953 -0.31766972 0.3665331 0.5923888 0.9929457 0.1414348 -0.25393763 -0.69948244
0.2161789 0.12103765 0.11028606 -0.7551645 0.24239796 0.22230794 0.107239306 0.000822563
0.15980233 -0.06730915 0.015601123 -0.25056347 0.057514332 -0.056372236 0.26314592 0.044346247
1.7806655 -0.41466987 -0.25861436 -0.9332109 0.7193206 0.05487596 -0.37944436 -0.44999152
0.7188238 0.28269994 -0.43645692 -0.4973593 0.48276588 0.049309257 -0.30366918 -0.31860614
0.18049619 -0.054826997 0.09429071 0.3349712 -0.17001934 -0.19784777 -0.5642086 -0.37115178
-0.10575496 0.22844957 0.08308771 0.26499024 0.4815293 0.027111432 0.44242743 -0.25916815
1.8899606 -0.8176672 -0.29026186 -0.9720543 0.17653885 0.23131542 -0.6498039 -0.3967463
-0.76987106 1.0706517 0.20690987 -0.22452974 1.751345 0.5474171 0.893799 -1.2048805
-0.119050406 -0.16666114 0.0816611 0.2072524 -0.21394157 0.2023672 0.20522252 0.076907024
-0.2860473 0.16578847 -0.13879704 0.17029095 -0.09453027 0.34640643 0.1846124 0.28653598
-0.2116234 -0.24197352 0.66683203 -0.5389853 -0.3655975 -0.23056038 -0.050529152 0.123618856
-0.71031624 -0.1371891 0.63061255 1.0830154 -0.36498514 0.10340761 -0.47657508 -0.35167485
0.00514939 -0.03367466 0.12911864 -0.28602043 -0.2671218 -0.14605503 0.108818606 0.24153791
0.22976294 0.24539047 -0.22119033 0.08122372 0.23157175 0.22094586 -0.22666547 0.13011925
0.4977475 0.78064066 0.58186746 0.29564637 0.14958754 1.2482703 0.9556274 0.68791455
0.32771575 0.7665584 0.89032155 0.6550972 0.40076143 0.4225261 0.26845366 1.1054393
0.28372213 0.022420574 0.30413127 0.08327676 0.05291875 -0.010075446 -0.2039143 -0.20762482
0.3787491 -0.07941326 -0.29400864 0.03743997 0.02911363 -0.014904681 0.18497542 0.1937265
-0.32035902 -0.3117987 0.073978424 0.31529775 -0.42872325 -0.20264448 -0.45019132 -0.55487704
-0.5646817 -0.65188104 -0.3851476 -0.5990967 -0.1875217 -0.5017044 -0.3388966 -0.55522275
-0.09581377 -0.064574264 0.05293773 -0.079315476 0.09825685 0.05985837 0.017041296 -0.045181625
-0.043008875 -0.019214671 -0.06920744 0.1092614 0.14402102 0.07236528 -0.14943491 -0.05987538
00000000: a13d a13f f2cb 143f 2151 2e3f 99e5 583f
00000010: 40cf 853f bf02 d6be 1d0f 813f f13a 093f
00000020: e09f 29bd 0dbc 24bd e2dd a2bd 2d61 053f
00000030: 0b5e 9abe 0481 ae3c 25f1 bcbe 9f91 01bf
00000040: fc90 bfbd 69c1 633d 2073 913d 16cf 5bbe
00000050: 205a 0abe 71c1 5abe 883d 0ebf c54d 66bd
00000060: 6194 d93c 9b05 b1be f56b 99be 8726 8fbe
00000070: 49c1 16be 6a6d 7abe 2069 dbbe c0b2 2bbf
00000080: 17a7 1d3f 11d1 163f ddec 1dbe d29d d23f
00000090: 6e4c fa3e 4ecb 373e e763 25bf 494b 0b3f
000000a0: 340e db3e 19b5 37bf bea3 8a3e c1b7 0b3f
000000b0: 3b26 2bbe 7227 153f 8613 36bf 4716 c33f
000000c0: 581b c43d 9632 253e 6f3d 603e d622 b8bc
000000d0: 39f7 9b3d 60ae 3bbe 1334 d03c 5d34 95bd
000000e0: ad2f 2d3e 789e 14be 7a2d 943c 7549 4b3d
000000f0: d477 4f3d 7d59 b73c eb2d d13d 7153 923c
00000100: d047 133e d324 8fbe 276c aa3e e758 0040
00000110: ae7a 6fbc 0a36 aebd 004b 37be 2470 1abf
00000120: 4abb 16bf 9ba5 a2be 3aaa bb3e cba6 173f
00000130: b031 7e3f 49d4 103e 1d04 82be 4811 33bf
00000140: 005e 5d3e 96e2 f73d a8dd e13d 7652 41bf
00000150: 2c37 783e b1a4 633e 48a0 db3d 45a1 573a
00000160: 39a3 233e 61d9 89bd da9b 7f3c db49 80be
00000170: 2694 6b3d 93e6 66bd 10bb 863e 69a4 353d
00000180: d9ec e33f 9c4f d4be 1a69 84be e9e6 6ebf
00000190: 6525 383f 9dc5 603d 8846 c2be 4a65 e6be
000001a0: d604 383f 0cbe 903e 4877 dfbe e1a5 febe
000001b0: 172d f73e 81f8 493d 877a 9bbe 5820 a3be
000001c0: fed3 383e 4692 60bd 7d1b c13d 5881 ab3e
000001d0: 8d19 2ebe 9b98 4abe fa6f 10bf 9b07 bebe
000001e0: 0e96 d8bd afee 693e e429 aa3d cdac 873e
000001f0: 028b f63e cb18 de3c d985 e23e b0b1 84be
00000200: 3bea f13f a352 51bf 349d 94be 8dd8 78bf
00000210: 9ac6 343e f3dd 6c3e 8c59 26bf 5522 cbbe
00000220: 4516 45bf 1d0b 893f 2ee0 533e 20eb 65be
00000230: 132c e03f 8723 0c3f 03d0 643f 8639 9abf
00000240: b3d0 f3bd 38a9 2abe ef3d a73d f939 543e
00000250: 8013 5bbe 5939 4f3e da25 523e 6e81 9d3d
00000260: cb74 92be 74c4 293e d020 0ebe c060 2e3e
00000270: 1699 c1bd 2f5c b13e 080b 3d3e d8b4 923e
00000280: ceb3 58be e8c7 77be 81b5 2a3f f1fa 09bf
00000290: 982f bbbe 0518 6cbe a8f7 4ebd e22b fd3d
000002a0: 49d7 35bf 4d7b 0cbe d36f 213f 40a0 8a3f
000002b0: 55df babe 5ec7 d33d a601 f4be ba0e b4be
000002c0: 37bc a83b 71ee 09bd ad37 043e 4571 92be
000002d0: 30c4 88be 738f 15be 4adc de3d b755 773e
000002e0: fa46 6b3e a447 7b3e b87f 62be 9f58 a63d
000002f0: 2521 6d3e a23f 623e fe1a 68be fb3d 053e
00000300: c3d8 fe3e 11d8 473f 44f5 143f f65e 973e
00000310: 7a2d 193e 52c7 9f3f ffa3 743f 2b1b 303f
00000320: 5cca a73e 2c3d 443f 1dec 633f 73b4 273f
00000330: 9a30 cd3e 5755 d83e c272 893e 097f 8d3f
00000340: 0744 913e 5aab b73c 18b7 9b3e 028d aa3d
00000350: 55c1 583d 7c13 25bc e9ce 50be 9a9b 54be
00000360: 67eb c13e 6ba3 a2bd 4d88 96be a75a 193d
00000370: b57f ee3c c332 74bc 326a 3d3e 3d60 463e
00000380: 1906 a4be 14a4 9fbe 0082 973d b56e a13e
00000390: 9d81 dbbe 0982 4fbe 7a7f e6be 6c0c 0ebf
000003a0: fb8e 10bf ade1 26bf 1132 c5be 675e 19bf
000003b0: b005 40be b36f 00bf db83 adbe 1423 0ebf
000003c0: 033a c4bd 833f 84bd 3cd5 583d 2770 a2bd
000003d0: e33a c93d 0d2e 753d 309a 8b3c 5e10 39bd
000003e0: 132a 30bd 1668 9dbc a1bc 8dbd 71c4 df3d
000003f0: 3f7a 133e 3f34 943d 7705 19be e33f 75bd

conv1.bias f4 [16]
0.036519676 -0.013958987 -0.028526695 0.21135302 0.29663992 0.21070468 0.008412287 -0.09216184
0.20329976 -0.08739389 0.34363216 0.01056887 0.06254952 -0.115414344 -0.10828284 0.027122715
00000000: a895 153d 3cb4 64bc d1b0 e9bc ed6c 583e
00000010: 30e1 973e f8c2 573e b0d3 093c 59bf bcbd
00000020: d02d 503e 91fb b2bd 8ef0 af3e 0e29 2d3c
00000030: f619 803d 5b5e ecbd 65c3 ddbd 7530 de3c

conv2.weight f4 [32, 16, 4, 4]
-0.114292026 -0.1344203 -0.040546436 -0.028498285 -0.40096465 -0.4215036 0.02581632 -0.22744845
-0.52934325 -0.1545131 0.11388561 -0.13698763 -0.2333604 0.1286815 0.04079173 -0.09700145
0.012579286 -0.03882209 -0.17583503 0.16524063 -0.30337608 -0.25382185 0.12564279 -0.6851789
-0.007874232 0.2844263 0.18372644 -0.51486635 0.17276253 0.4849221 -0.22126164 -0.3653016
-0.47986776 -0.3108128 -0.44384626 1.0293863 -0.06680473 0.16970335 0.24792604 -0.27172166
-0.07263219 -0.699794 0.33844823 0.1399547 -0.29610246 0.19927317 -0.07545018 0.009594096
0.3730058 0.54631174 -0.20134053 0.15605627 0.028793376 0.1623717 -0.55221504 -0.1135379
0.4197156 0.36421925 -0.30959153 0.12761495 0.27040482 0.32022765 -0.24697898 0.07739619
0.51702386 -0.12831442 -0.018259184 0.09832212 0.3826445 -0.22867598 -0.059515946 0.13463783
0.45167187 -0.14041305 -0.15349802 -0.13863932 0.1875628 0.03513257 -0.28022307 -0.12721393
-0.31601772 -0.44221786 0.40223837 0.04869591 -0.27920172 -0.0080183325 0.28421894 -0.06872209
-0.3119461 -0.0040532863 -0.026888283 0.051525127 -0.5633104 -0.23439163 -0.01239319 -0.12892829
0.53261113 -0.75896716 -0.07395222 -0.05235501 0.2159413 -0.68196625 -0.21619394 0.15423949
0.48685583 -0.23766339 -0.12435971 -0.04265259 0.74584424 -0.5355452 -0.35761485 -0.24493401
-0.12273079 -0.22047399 0.24732065 0.054475438 -0.010563046 -0.09944544 0.07689731 0.1153603
-0.26923582 -0.20590882 0.04759621 0.09347438 -0.09774737 -0.040596545 -0.006561534 0.17541523
-0.0463526 -0.5061164 0.32092392 -0.009882103 0.15401213 -0.35040468 0.28628072 0.0046843425
-0.426985 -0.061609443 0.04965696 -0.09246099 -0.40240002 -0.19199784 0.15206257 -0.10872775
-0.0069249272 -0.11865134 0.065663084 0.060486984 0.06367791 -0.23922129 0.21705383 0.086247765
-0.16703841 -0.015753172 0.050296478 0.09611002 -0.4604822 -0.13628508 0.01295198 -0.0075499043
-0.39718845 -0.66958356 0.07178058 0.090688564 -0.27819565 -0.47333795 0.16665062 -0.0049356814
-0.25535733 -0.4623375 0.14501557 0.16716279 -0.34650984 -0.20758614 -0.053949643 -0.13282597
-0.04983169 -0.68375075 -0.10969185 -0.385029 -0.11424244 -0.05175226 -0.19439016 0.13489011
0.5516183 0.1594532 -0.41977662 0.30159247 0.88396317 -0.21455553 -0.38470098 -0.4404055
0.59702915 -0.63047284 -0.020189524 -0.5204213 -0.04586663 -0.5063798 0.23194993 -0.30839548
-0.05177871 0.29077825 -0.46796456 -0.49537793 0.9507547 0.3240794 -0.019832242 0.5376621
-0.12927413 -0.5316255 -0.35885525 0.75842136 -0.27722406 -0.16512185 -0.10451107 -0.034987807
0.2647662 -0.3943408 0.47113985 -0.33568677 0.041648813 0.10852627 -0.77891237 -0.521548
-0.1952959 -0.24314779 0.09446403 0.14981301 -0.08720161 -0.0067784996 -0.06747814 -0.055601466
0.01684175 0.03714973 0.10476499 0.11006383 -0.19439304 -0.023730323 0.16186966 0.032630842
0.8632884 -0.42637703 -0.6940736 -0.2153558 0.3734468 -0.2542254 -0.4851603 0.0039348314
0.46725997 0.3115745 -0.28359008 -0.07107082 0.82833767 -0.14735696 -0.18039852 -0.21749608
00000000: f011 eabd 7aa5 09be 0514 26bd 3c75 e9bc
00000010: 3d4b cdbe 52cf d7be bf7c d33c 3fe8 68be
00000020: 0a83 07bf af38 1ebe dc3c e93d 7c46 0cbe
00000030: 07f6 6ebe 15c5 033e 3b15 273d b2a8 c6bd
00000040: 5919 4e3c e903 1fbd 190e 34be d734 293e
00000050: 1c54 9bbe f0f4 81be 81a8 003e e267 2fbf
00000060: ec02 01bc 53a0 913e c922 3c3e 48ce 03bf
00000070: a9e8 303e b647 f83e 6992 62be d008 bbbe
00000080: 3ab1 f5be db22 9fbe d13f e3be eec2 833f
00000090: ebd0 88bd b7c6 2d3e 53e0 7d3e 1a1f 8bbe
000000a0: 30c0 94bd b325 33bf 1649 ad3e 4950 0f3e
000000b0: be9a 97be 440e 4c3e a085 9abd 8e30 1d3c
000000c0: 9efa be3e 16db 0b3f 362c 4ebe 37cd 1f3e
000000d0: 16e0 eb3c c444 263e f75d 0dbf 8f86 e8bd
000000e0: f7e4 d63e f27a ba3e c882 9ebe 7ead 023e
000000f0: 8072 8a3e e1f4 a33e 0fe8 7cbe e581 9e3d
00000100: ad5b 043f db64 03be 4994 95bc 1c5d c93d
00000110: fbe9 c33e 092a 6abe fec6 73bd 80de 093e
00000120: 8941 e73e 70c8 0fbe 962e 1dbe 77f7 0dbe
00000130: 7610 403e 2be7 0f3d 6679 8fbe 5e44 02be
00000140: 13cd a1be 616a e2be 30f2 cd3e 5d75 473d
00000150: 87f3 8ebe 535f 03bc 2585 913e 2bbe 8cbd
00000160: 66b7 9fbe 6ed1 84bb d144 dcbc 030c 533d
00000170: 1c35 10bf 5c04 70be ce0c 4bbc c705 04be
00000180: 3459 083f ac4b 42bf 4374 97bd 3572 56bd
00000190: b71f 5d3e 5795 2ebf f261 5dbe f5f0 1d3e
000001a0: 2b45 f93e 085e 73be 4eb0 febd 7bb4 2ebd
000001b0: a6ef 3e3f 7d19 09bf 4b19 b7be fbcf 7abe
000001c0: 485a fbbd efc3 61be a041 7d3e a321 5f3d
000001d0: a010 2dbc 0daa cbbd 567c 9d3d 0542 ec3d
000001e0: 47d9 89be c3d9 52be 3ef4 423d 7f6f bf3d
000001f0: c62f c8bd 9048 26bd 2302 d7bb 0da0 333e
00000200: 39dc 3dbd d890 01bf 2450 a43e 8be8 21bc
00000210: 5bb5 1d3e 3e68 b3be 6393 923e 1d7f 993b
00000220: c79d dabe 2f5a 7cbd 1965 4b3d 305c bdbd
00000230: 6007 cebe 159b 44be 4ab6 1b3e a8ac debd
00000240: 80ea e2bb 79ff f2bd 5e7a 863d 33c1 773d
00000250: 9069 823d 6df6 74be 5c43 5e3e aba2 b03d
00000260: 1e0c 2bbe cc0c 81bc ae03 4e3d 55d5 c43d
00000270: 53c4 ebbe 518e 0bbe 8b34 543c 3065 f7bb
00000280: 495c cbbe d469 2bbf b201 933d edba b93d
00000290: a96f 8ebe 5a59 f2be 76a6 2a3e 7fbb a1bb
000002a0: 32be 82be 80b7 ecbe f67e 143e b92c 2b3e
000002b0: bd69 b1be 7691 54be 4dfa 5cbd 8803 08be
000002c0: 501c 4cbd 4a0a 2fbf 1fa6 e0bd 8522 c5be
000002d0: f1f7 e9bd 2efa 53bd 370e 47be a220 0a3e
000002e0: db36 0d3f b347 233e f6ec d6be 546a 9a3e
000002f0: 694b 623f 72b4 5bbe 87f7 c4be d47c e1be
00000300: e7d6 183f ab66 21bf 8064 a5bc 553a 05bf
00000310: a6de 3bbd 1ba2 01bf 4884 6d3e 03e6 9dbe
00000320: ea15 54bd e3e0 943e 0d99 efbe 2da2 fdbe
00000330: a964 733f bced a53e 3a77 a2bc 39a4 093f
00000340: 7060 04be 9c18 08bf e0bb b7be e727 423f
00000350: 50f0 8dbe b415 29be e609 d6bd 604f 0fbd
00000360: 6f8f 873e 0ae7 c9be 3e39 f13e 23df abbe
00000370: f297 2a3d 0543 de3d cd66 47bf 2b84 05bf
00000380: a6fb 47be bcfb 78be 5b76 c13d 9568 193e
00000390: c296 b2bd 2d1e debb fb31 8abd 5dbe 63bd
000003a0: b6f7 893c 512a 183d 078f d63d 2569 e13d
000003b0: f80e 47be 1866 c2bc 29c1 253e eba7 053d
000003c0: 7800 5d3f 174e dabe cfae 31bf 3b86 5cbe
000003d0: 6b34 bf3e d529 82be ee66 f8be c2ef 803b
000003e0: b33c ef3e b186 9f3e b832 91be 948d 91bd
000003f0: f00d 543f bee4 16be 64ba 38be 4bb7 5ebe

conv2.bias f4 [32]
0.08406138 0.2612349 -0.08701493 0.0018206204 -0.017754197 0.3204997 -0.05766223 -0.08399714
0.13655604 -0.20065701 -0.071286924 0.31603694 -0.11317483 0.33238998 -0.05952196 0.15334138
-0.035085123 0.058169127 0.02264253 0.042855114 -0.16021651 0.023424849 0.15291245 -0.061459556
0.09604839 -0.10943489 0.32046196 -0.05083489 0.16899833 0.3184431 0.055900835 -0.028981404
00000000: 5f28 ac3d 95c0 853e e234 b2bd e2a1 ee3a
00000010: 4071 91bc 8918 a43e 3b2f 6cbd b106 acbd
00000020: 59d5 0b3e 0879 4dbe e1fe 91bd 98cf a13e
00000030: 35c8 e7bd 052f aa3e 4ccd 73bd 8605 1d3e
00000040: 6bb5 0fbd c042 6e3d d47c b93c d888 2f3d
00000050: cc0f 24be 78e5 bf3c 1595 1c3e 04bd 7bbd
00000060: 05b5 c43d 661f e0bd 9713 a43e 3f38 50bd
00000070: e60d 2d3e f90a a33e 46f8 643d 696a edbc

fc1.weight f4 [64, 800]
-0.6489025 -0.08319741 -0.09280563 0.077295594 0.06150787 -0.39042127 -0.0035484792 -0.07608166
0.1309035 0.10346142 -0.28174734 0.035456944 0.1726906 0.11824942 0.12617299 -0.09425539
-0.2628427 0.07290143 -0.06945327 0.382623 0.43148386 -0.8042273 -0.33543324 0.37355843
-0.36700472 0.34260803 0.18988758 0.080399506 0.004422999 0.07779864 0.011480657 0.0642311
0.045043737 0.08885106 0.06105963 0.002178915 0.07942253 0.048365768 0.06571659 0.0032280039
-0.012158955 0.10056459 0.12127621 0.10716573 -0.1399481 -0.21562664 0.077820994 0.37981808
0.26120257 -0.19900627 0.01322176 -0.008900463 0.010857375 -0.030968629 0.019106336 0.034259398
0.031259183 -0.0254064 0.011764944 -0.0045120167 0.013177965 0.013648312 -0.0046555325 -0.01184216
0.02423868 0.013177583 0.021395843 0.015096562 -0.025769502 0.023227602 0.01864788 -0.015823971
0.010261806 0.013083372 0.027275924 -0.12522298 0.10126423 -0.0364398 -0.086899646 -1.0755559
-0.2442312 0.08438448 0.25612256 0.18070392 -0.90029675 0.0059810597 0.32913497 0.27734014
-0.6150086 -0.35886613 0.023194259 0.15692866 0.08299729 0.017204937 -0.19549026 -0.48397854
0.0060136435 -0.33910415 -0.31000996 -0.42157242 -0.016486658 -0.06860256 -0.40916464 0.07858814
-0.646638 -0.37276557 0.06262314 -0.013501286 0.050985802 -0.029850494 -0.052540846 -0.09862173
0.049172122 -0.0007992776 -0.075404085 0.009720619 0.008566669 -0.039167825 0.17565806 -0.34257546
0.38423327 0.27270344 -0.12756857 0.2592309 1.1494755 0.36633176 0.055131402 0.053448595
-0.0042577833 0.023024518 0.09426409 0.046445765 0.050852265 0.04805938 0.08977649 0.11533841
0.055329874 0.05588486 0.033855766 0.075449064 0.1519715 0.097741626 -0.12814648 -0.07515849
0.05275168 0.14074446 0.041200645 -0.2008405 -0.049895685 0.13338867 -0.0070965416 -0.032069575
0.04724958 -0.03070105 -0.003074785 0.008878332 0.0011378977 0.026847739 -0.019541368 -0.017122202
0.006857516 0.0036024575 0.007896679 -0.027829897 0.023738975 0.023947256 -0.029379126 0.019906603
0.028935375 0.015219219 0.018427595 -0.04055419 -0.008215193 -5.250916e-05 -0.021290759 -0.7510836
-0.42180917 -0.1663885 0.12308183 -0.3767766 -0.56495124 0.001833658 0.27961352 -0.47424325
0.16619816 -0.8144177 -0.3109898 -0.8132837 -0.029486392 -0.14161612 -0.6248173 -0.9369757
-0.18616025 0.31768018 0.20996015 -0.18915738 -1.0307157 -0.3400963 0.29159933 0.528997
-0.75280774 -0.0641938 0.09469 0.061962325 0.055962227 -0.07668231 0.068987176 -0.022697374
-0.12046475 0.051485762 -0.122315526 -0.24844366 -0.025266506 -0.59764564 -0.23550831 -0.12893249
0.106134325 -0.039259575 -0.22774388 -0.032305095 0.50532377 0.13815789 0.036973923 0.57565683
0.5334766 -0.35511553 0.35680756 -0.15041779 -0.21959782 -0.1645784 0.058216836 0.10580507
0.11800406 0.536988 0.14849581 -0.46372107 0.053641483 -0.18369853 -0.31613362 -1.8511623
-0.40660584 -0.18812206 0.6720969 0.5191674 -0.29648304 -0.4449483 -0.7579584 0.020745503
0.5807816 0.18985534 -0.4385257 -0.1286734 -0.04574574 0.066795416 0.010719584 -0.23361413
00000000: 791e 26bf 6763 aabd e110 bebd 274d 9e3d
00000010: adef 7b3d 4ce5 c7be 9a8d 68bb b4d0 9bbd
00000020: 910b 063e 95e3 d33d 3041 90be 4d3b 113d
00000030: ced5 303e c02c f23d 7e33 013e f808 c1bd
00000040: 5293 86be 584d 953d 843d 8ebd 29e7 c33e
00000050: 74eb dc3e d7e1 4dbf e8bd abbe 0d43 bf3e
00000060: 0be8 bbbe 526a af3e e471 423e 7fa8 a43d
00000070: ceee 903b e554 9f3d 5e19 3c3c 988b 833d
00000080: c87f 383d 8bf7 b53d aa19 7a3d 21cc 0e3b
00000090: 48a8 a23d 2f1b 463d 6b96 863d eb8c 533b
000000a0: 5b36 47bc cff4 cd3d a95f f83d b579 db3d
000000b0: 8e4e 0fbe 3bcd 5cbe 9d60 9f3d 8477 c23e
000000c0: 58bc 853e 4dc8 4bbe 15a0 583c 3fd3 11bc
000000d0: 22e3 313c ecb1 fdbc e484 9c3c 9553 0c3d
000000e0: a109 003d 1521 d0bc c0c1 403c 8ad9 93bb
000000f0: 64e8 573c 2b9d 5f3c 708d 98bb 9e05 42bc
00000100: 3290 c63c cae6 573c 5646 af3c 9257 773c
00000110: 901a d3bc d047 be3c 70c3 983c 46a1 81bc
00000120: 2221 283c a45b 563c c271 df3c 743a 00be
00000130: 9f63 cf3d e641 15bd 71f8 b1bd d1ab 89bf
00000140: be17 7abe c5d1 ac3d 7f22 833e 730a 393e
00000150: d979 66bf c4fc c33b 6184 a83e 87ff 8d3e
00000160: 3471 1dbf 4dbd b7be e301 be3c e8b1 203e
00000170: 7cfa a93d 5ef1 8c3c 992e 48be 09cc f7be
00000180: 190e c53b 0f9f adbe a0b9 9ebe 57d8 d7be
00000190: 070f 87bc 807f 8cbd 077e d1be d2f2 a03d
000001a0: 118a 25bf 21db bebe 9040 803d 7f34 5dbc
000001b0: 7dd6 503d 0689 f4bc 1235 57bd 31fa c9bd
000001c0: b568 493d 9d86 51ba 756d 9abd 3b43 1f3c
000001d0: 375b 0c3c 716e 20bd b5df 333e 0d66 afbe
000001e0: 39ba c43e c99f 8b3e 56a1 02be eab9 843e
000001f0: 0322 933f d68f bb3e 77d1 613d eaec 5a3d
00000200: e084 8bbb ea9d bc3c 880d c13d ea3d 3e3d
00000210: 774a 503d ead9 443d bddc b73d 8b36 ec3d
00000220: 94a1 623d 86e7 643d 58ac 0a3d 0a85 9a3d
00000230: 6b9e 1b3e c32c c83d d538 03be b2ec 99bd
00000240: 2512 583d 511f 103e 02c2 283d 22a9 4dbe
00000250: 6b5f 4cbd 0a97 083e 1b8a e8bb 635b 03bd
00000260: c788 413d c580 fbbc 5582 49bb 6c76 113c
00000270: 8325 953a caef db3c 3815 a0bc dc43 8cbc
00000280: 03b5 e03b 3517 6c3b 1361 013c 86fb e3bc
00000290: 3d78 c23c 092d c43c 7eac f0bc 2c13 a33c
000002a0: e109 ed3c 085a 793c 78f5 963c 261c 26bd
000002b0: 0499 06bc 483d 5cb8 f569 aebc 0447 40bf
000002c0: 5ff7 d7be bf61 2abe 5412 fc3d dde8 c0be
000002d0: a5a0 10bf 5a57 f03a 8129 8f3e 03d0 f2be
000002e0: da2f 2a3e ae7d 50bf 0e3a 9fbe 5c33 50bf
000002f0: 728d f1bc d103 11be 07f4 1fbf a4dd 6fbf
00000300: cba0 3ebe faa6 a23e cbff 563e 79b2 41be
00000310: 7eee 83bf 1a21 aebe 824c 953e 596c 073f
00000320: 02b8 40bf 0a78 83bd d5ec c13d 35cc 7d3d
00000330: a638 653d 9d0b 9dbd 2649 8d3d d8ef b9bc
00000340: 39b6 f6bd bce2 523d 9080 fabd 0468 7ebe
00000350: b4fb cebc 4eff 18bf 1729 71be e106 04be
00000360: f45c d93d a6ce 20bd b135 69be 5952 04bd
00000370: e65c 013f 4379 0d3e f871 173d 3f5e 133f
00000380: ec91 083f b4d1 b5be 7baf b63e 1f07 1abe
00000390: 40de 60be 3d87 28be c774 6e3d 54b0 d83d
000003a0: 1dac f13d 0c78 093f 490f 183e d96c edbe
000003b0: 2cb7 5b3d 781b 3cbe 44dc a1be e3f2 ecbf
000003c0: a42e d0be 12a3 40be 8b0e 2c3f 28e8 043f
000003d0: a0cc 97be 43d0 e3be 9009 42bf 79f2 a93c
000003e0: 1aae 143f 7069 423e 7186 e0be f6c2 03be
000003f0: e35f 3bbd 09cc 883d 32a1 2f3c 8b38 6fbe

fc1.bias f4 [64]
0.07853625 -0.022566592 -0.040880498 0.030844841 0.071556196 -0.027041707 -0.05040459 0.18658495
0.089381345 0.11366727 0.027103651 0.07439554 -0.0663205 -0.05675669 -0.001705841 0.19508402
0.027496722 0.017434686 0.05342252 0.106955305 -0.008990487 0.108113825 -0.034153506 -0.061446022
0.09168812 -0.025158618 0.03926146 -0.05855839 0.14505422 -0.053446762 -0.033103585 0.123109296
-0.021328207 -0.038063753 0.027794916 -0.03914243 0.049981337 -0.046993632 -0.048439343 -0.034747582
-0.04369617 -0.0136809 0.0059101023 -0.041268647 0.12936053 0.028339269 -0.03346427 0.058566384
-0.08301529 -0.0068607186 0.0843278 0.03645127 -0.008549946 -0.051275894 -0.015691554 0.06040987
-0.027407104 -0.028088512 -0.013114221 -0.04122387 -0.014742216 -0.055864118 0.024262698 -0.020803127
00000000: 9dd7 a03d 93dd b8bc 4f72 27bd 52ae fc3c
00000010: 0e8c 923d 9286 ddbc 0b75 4ebd 2010 3f3e
00000020: 910d b73d 63ca e83d 7a08 de3c b05c 983d
00000030: 0bd3 87bd b479 68bd 8796 dfba 1bc4 473e
00000040: ce40 e13c 30d3 8e3c 93d1 5a3d 620b db3d
00000050: d64c 13bc c86a dd3d 8ce4 0bbd d3ae 7bbd
00000060: fbc6 bb3d 7219 cebc a0d0 203d ecda 6fbd
00000070: 1889 143e feea 5abd a097 07bd ba20 fc3d
00000080: 7eb8 aebc bde8 1bbd 2ab2 e33c d053 20bd
00000090: 3bb9 4c3d 657c 40bd 5568 46bd 7b53 0ebd
000000a0: c1fa 32bd db25 60bc 88a9 c13b 5009 29bd
000000b0: 1677 043e c127 e83c d511 09bd 4ee3 6f3d
000000c0: ec03 aabd e1cf e0bb 0eb4 ac3d ed4d 153d
000000d0: 1315 0cbc ac06 52bd 938b 80bc 5770 773d
000000e0: dd84 e0bc e119 e6bc 08dd 56bc 5cda 28bd
000000f0: 5689 71bc c6d1 64bd 91c2 c63c 526b aabc

fc4.weight f4 [8, 64]
-0.016981578 -0.08308659 -0.037343815 0.23167376 0.19041099 -0.11529854 -0.105217844 0.29161263
0.48697641 0.20742868 0.072898135 0.08240174 0.060608305 0.0700685 0.013089332 0.34710106
0.010294723 0.104534425 0.13923721 -0.38693458 -0.07881801 0.06559452 0.03729416 -0.09045367
-0.21823336 -0.08490079 -0.013048146 -0.08974991 0.2037711 -0.02269508 0.0070441514 0.16302869
0.07352659 -0.06656888 0.011544786 0.059480324 0.21172088 -0.033067584 -0.030613746 -0.0012900304
0.025090624 -0.03621667 0.042942673 0.07848394 0.36493465 -0.025848076 0.021263307 -0.23436439
-0.06317871 0.022514215 -0.22507723 -0.18373698 -0.090012416 -0.009045197 -0.056272164 0.15111727
-0.01435494 0.08277809 0.042279184 0.21639091 0.038977187 0.068775736 0.0060538626 0.08671947
-0.515384 0.0017475361 0.097576246 0.28303188 0.06554372 -0.075273916 0.031400815 0.24690416
0.69248855 0.120755695 0.0895449 -0.065204725 0.06473114 -0.1077933 0.015895924 0.30826557
0.023551295 0.07253557 0.11349701 0.12118882 0.05357353 0.23695265 0.09339394 -0.07396222
-0.27212006 -0.09924928 0.10414956 -0.010497065 0.16154759 -0.11422239 0.019795533 0.30000085
0.019075409 0.08418838 0.029872159 0.07798492 -0.5616576 -0.10757268 -0.053641725 -0.058417454
-0.042596467 0.1038408 0.09555557 0.07097027 0.32638934 0.11354947 -0.09035883 0.6393331
0.009039364 0.07796737 0.11303301 -0.014244189 -0.09418361 -0.114348166 -0.0785254 0.21856567
0.0007006111 -0.07300186 0.11852211 0.22163361 -0.029306805 -0.06952624 -0.1103155 0.076426834
-0.4337755 0.00086177775 -0.024989672 0.30991232 0.05640016 -0.053983577 -0.040565047 0.16575988
0.08280958 0.3606049 -0.104547605 0.31806186 -0.044176225 0.12521589 -0.010045701 0.19164386
0.0006414337 0.032405287 0.31915408 -0.7612913 0.11274834 0.09373658 -0.0133154765 -0.08278621
-0.087785706 -0.014774979 -0.052665003 0.08144592 0.4597094 0.12103513 0.113062575 0.20176211
0.0012041866 -0.07517862 -0.08479194 -0.07485303 -0.52656513 -0.030172361 -0.010488556 -0.010832528
0.013976763 0.08628689 -0.12577507 0.064504355 0.16025196 0.0039103334 -0.04615085 -0.10374643
0.039620385 0.027592732 0.3817828 0.064281404 -0.11847453 0.015893418 -0.07315497 0.18467408
0.05486836 0.010603454 0.017942563 0.04545339 -0.035253473 0.004644879 -0.04942537 0.040918075
0.33745018 0.10107536 -0.08673255 0.44623917 0.28751022 -0.031936184 0.06955215 0.14601605
0.09504708 0.16569382 0.09708583 0.007613158 -0.012814539 -0.04640488 0.0068980386 0.19148779
0.0894845 0.017667767 0.4308279 -0.13149123 0.05242134 0.18091774 -0.02242999 -0.011410737
-0.3185176 0.009248225 -0.03923396 0.07750669 0.49306402 0.08234319 0.09609382 0.043646112
-0.06926651 -0.03258998 -0.028594024 0.04364396 -0.28562728 0.097979546 0.042734202 0.029432679
-0.08331628 -0.09026243 -0.115359835 0.08637363 0.35265654 0.009138989 -0.11427477 0.28277794
0.00029898903 -0.04334279 -0.39945912 0.27849597 -0.07599928 0.05179526 0.028806182 0.24851428
0.015559346 0.051720172 0.00091961026 -0.007608032 -0.031116841 0.0038994132 -0.06668428 0.05893123
00000000: f31c 8bbc 4d29 aabd d4f5 18bd e33b 6d3e
00000010: 19fb 423e a421 ecbd 747c d7bd 404e 953e
00000020: f954 f93e 2f68 543e 9e4b 953d 3ec2 a83d
00000030: 6a40 783d 1380 8f3d a374 563c 3bb7 b13e
00000040: 33ab 283c 2516 d63d 3394 0e3e 4a1c c6be
00000050: 566b a1bd 6b56 863d c3c1 183d c63f b9bd
00000060: 9178 5fbe 77e0 adbd e4c7 55bc cdce b7bd
00000070: 5fa9 503e 08eb b9bc a0d2 e63b fef0 263e
00000080: 1c95 963d 4455 88bd 5826 3d3c a4a1 733d
00000090: 5ccd 583e e071 07bd aec9 fabc 3d16 a9ba
000000a0: da8a cd3c ee57 14bd a8e4 2f3d 30bc a03d
000000b0: b7d8 ba3e 58bf d3bc 6330 ae3c 38fd 6fbe
000000c0: d763 81bd bb6f b83c a57a 66be 8c25 3cbe
000000d0: 6e58 b8bd 4e32 14bc a47d 66bd 7cbe 1a3e
000000e0: fb30 6bbc 8f87 a93d f02c 2d3d 9495 5d3e
000000f0: 8ba6 1f3d 4bda 8c3d 7b5f c63b fa99 b13d
00000100: 35f0 03bf 950d e53a 0ed6 c73d 8ee9 903e
00000110: c93b 863d 3629 9abd 249e 003d 72d4 7c3e
00000120: ee46 313f c34e f73d 5163 b73d 0e8a 85bd
00000130: c391 843d bcc2 dcbd 2b38 823c fcd4 9d3e
00000140: a5ee c03c 878d 943d 1f71 e83d d831 f83d
00000150: eb6f 5b3d b7a3 723e 5245 bf3d 8179 97bd
00000160: 5253 8bbe 3543 cbbd 5d4c d53d e2fb 2bbc
00000170: bb6c 253e 6eed e9bd 3e2a a23c b699 993e
00000180: 0844 9c3c f56a ac3d 75b6 f43c 8fb6 9f3d
00000190: cbc8 0fbf 114f dcbd 6db7 5bbd 2447 6fbd
000001a0: a279 2ebd 7caa d43d a4b2 c33d dc58 913d
000001b0: 811c a73e a08c e83d 0d0e b9bd 56ab 233f
000001c0: d719 143c 5bad 9f3d da7d e73d 7560 69bc
000001d0: 56e3 c0bd 5f2f eabd edd1 a0bd aecf 5f3e
000001e0: 37a9 373a 0082 95bd b8bb f23d ecf3 623e
000001f0: d314 f0bc c663 8ebd 18ed e1bd ac85 9c3d
00000200: d317 debe ede8 613a 24b7 ccbc d4ac 9e3e
00000210: db03 673d e21d 5dbd 8927 26bd f5bc 293e
00000220: 1298 a93d 35a1 b83e 0e1d d6bd 01d9 a23e
00000230: 21f2 34bd 9838 003e b996 24bc 4a3e 443e
00000240: e325 283a 68bb 043d 2a68 a33e fde3 42bf
00000250: 9ae8 e63d f7f8 bf3d 2829 5abc d18b a9bd
00000260: fec8 b3bd c112 72bc 42b7 57bd 1ecd a63d
00000270: 085f eb3e 44e1 f73d 5a8d e73d ba9a 4e3e
00000280: ccd5 9d3a 40f7 99bd 66a7 adbd 8c4c 99bd
00000290: f9cc 06bf 072c f7bc 31d8 2bbc ea7a 31bc
000002a0: cbfe 643c 2eb7 b03d 2ecb 00be dc1a 843d
000002b0: 1719 243e 4122 803b ac08 3dbd 0279 d4bd
000002c0: fc48 223d 270a e23c 0979 c33e f8a5 833d
000002d0: c6a2 f2bd ea32 823c 46d2 95bd 341b 3d3e
000002e0: a5bd 603d 1cba 2d3c 48fc 923c 552d 3a3d
000002f0: f265 10bd 1234 983b 4272 4abd b699 273d
00000300: 45c6 ac3e 9900 cf3d d6a0 b1bd 7679 e43e
00000310: 8a34 933e 84cf 02bd 5c71 8e3d 3b85 153e
00000320: 0ba8 c23d a4ab 293e f0d4 c63d cc77 f93b
00000330: 12f4 51bc 0b13 3ebd f108 e23b 6015 443e
00000340: a643 b73d febb 903c 7995 dc3e a3a5 06be
00000350: c2b7 563d 8042 393e 19bf b7bc 1af4 3abc
00000360: bd14 a3be de85 173c cab3 20bd d4bb 9e3d
00000370: e372 fc3e 8ca3 a83d d6cc c43d 44c6 323d
00000380: 9adb 8dbd 127d 05bd 043e eabc 02c4 323d
00000390: bd3d 92be 80a9 c83d 0f0a 2f3d cd1c f13c
000003a0: baa1 aabd 82db b8bd c741 ecbd a8e4 b03d
000003b0: 668f b43e b3bb 153c e408 eabd 45c8 903e
000003c0: a1c1 9c39 3688 31bd e885 ccbe 0697 8e3e
000003d0: 83a5 9bbd 4427 543d f1fa eb3c 877a 7e3e
000003e0: a1ec 7e3c 88d8 533d 0012 713a cc4c f9bb
000003f0: bfe8 febc 4c8d 7f3b c591 88bd e061 713d

fc4.bias f4 [8]
0.03610479 0.2061527 0.40279981 0.039203856 -0.27798083 0.078934304 0.22834092 -0.077207044
00000000: 9ee2 133d b219 533e c73b ce3e 3994 203d
00000010: 8153 8ebe 4fa8 a13d 34d2 693e ba1e 9ebd

conv1.weight f4 [16, 2, 4, 4]
1.2642596 0.5929905 0.6844172 0.8504382 1.0523162 -0.4179897 1.0095968 0.5431376
-0.042967096 -0.043836236 -0.07496397 0.5312091 -0.27034077 0.0144396825 -0.3690273 -0.50612825
-0.090218164 0.041536067 0.07074879 -0.21423925 -0.13396092 -0.20491278 -0.533566 -0.05738212
0.0258666 -0.34175873 -0.2727427 -0.27964368 -0.14039156 -0.23824212 -0.40381205 -0.66455066
0.6160781 0.5868436 -0.14024745 1.6436721 0.48856175 0.17894529 -0.64605564 0.5456364
0.4278045 -0.7176071 0.27356976 0.54696125 -0.17493257 0.5801808 -0.7112354 1.5143332
0.09549851 0.1607658 0.21905202 -0.027184654 0.077310786 -0.17974871 0.03568836 -0.07347931
0.16446105 -0.13831455 0.01608006 0.04939825 0.049841166 0.044348955 0.09695895 0.017824631
0.14621371 -0.29378664 0.33114812 2.0009134 -0.022046817 -0.08722838 -0.17088653 -0.5820996
-0.5133928 -0.31789318 0.36808586 0.6009007 0.99446326 0.13748217 -0.25586665 -0.6927456
0.21619768 0.119858235 0.11127807 -0.7453793 0.24610373 0.22557619 0.11591316 0.0011455268
0.15872121 -0.064527914 0.014895028 -0.24721092 0.054723743 -0.053445566 0.2618401 0.042448256
1.7826759 -0.40867624 -0.25410777 -0.89454716 0.71668243 0.053276505 -0.38643065 -0.45407483
0.71917194 0.27862108 -0.4479613 -0.5086539 0.48207656 0.053883087 -0.29145646 -0.28699678
0.18337375 -0.051503275 0.097599536 0.33665293 -0.16707432 -0.18849564 -0.5582298 -0.35933638
-0.10781239 0.23050927 0.087401986 0.27013227 0.486671 0.031149974 0.4487567 -0.25817302
1.8949553 -0.8144415 -0.2877542 -0.98042953 0.17892182 0.23057845 -0.65146536 -0.4095981
-0.75716704 1.0693307 0.20449767 -0.22706077 1.7514315 0.55403394 0.89576954 -1.191726
-0.1144591 -0.16647281 0.08245069 0.20953245 -0.20902626 0.20521317 0.20768413 0.07894227
-0.28215277 0.16796802 -0.13676396 0.17713538 -0.0951627 0.3480042 0.18944743 0.29497543
-0.21847408 -0.23996773 0.66672534 -0.53399616 -0.3652237 -0.23106863 -0.051459085 0.12267956
-0.71031624 -0.13493173 0.6336265 1.0904564 -0.36159897 0.10660231 -0.45858097 -0.36139387
0.0067071104 -0.031872336 0.13643321 -0.27942306 -0.24966922 -0.14433196 0.12401256 0.24155682
0.22553714 0.24238966 -0.2180947 0.08050693 0.23316121 0.21853289 -0.22275661 0.1313995
0.5115515 0.7781892 0.580488 0.29848066 0.15055965 1.2479101 0.9549951 0.68606627
0.32607433 0.7669769 0.89077556 0.6563785 0.39714766 0.41906682 0.2692756 1.1022991
0.28203446 0.023182506 0.30542353 0.08083684 0.054544967 -0.01472035 -0.20061076 -0.22738266
0.37713826 -0.07877325 -0.29406306 0.040185727 0.026942715 -0.014446375 0.18351214 0.18953001
-0.32035902 -0.3117987 0.07501685 0.3125166 -0.42872325 -0.20264448 -0.45019132 -0.55487704
-0.5646817 -0.65188104 -0.3851476 -0.5990967 -0.19672683 -0.5017044 -0.3388966 -0.55522275
-0.092200525 -0.057388585 0.060650032 -0.079315476 0.10238398 0.06150557 0.01791558 -0.06253074
-0.042439323 -0.0036085919 -0.065761656 0.11160866 0.1342181 0.07215488 -0.1311321 -0.06353598
00000000: 42d3 a13f 3ace 173f f735 2f3f 51b6 593f
00000010: 4cb2 863f bf02 d6be 783a 813f 110b 0b3f
00000020: 44fe 2fbd a08d 33bd b686 99bd 52fd 073f
00000030: 1b6a 8abe 6b94 6c3c 25f1 bcbe 9f91 01bf
00000040: 4dc4 b8bd b921 2a3d bee4 903d 8961 5bbe
00000050: 0d2d 09be a8d4 51be c897 08bf 8409 6bbd
00000060: 31e6 d33c 00fb aebe eea4 8bbe 752d 8fbe
00000070: cec2 0fbe bef5 73be 74c0 cebe fe1f 2abf
00000080: 4bb7 1d3f 623b 163f 079d 0fbe d963 d23f
00000090: c424 fa3e 6f3d 373e e763 25bf d4ae 0b3f
000000a0: 3109 db3e 19b5 37bf 5611 8c3e a705 0c3f
000000b0: 8621 33be bb86 143f 8613 36bf acd5 c13f
000000c0: b994 c33d ca9f 243e 2c4f 603e 5ab2 debc
000000d0: 1e55 9e3d 0c10 38be f52d 123d 527c 96bd
000000e0: 7a68 283e 54a2 0dbe 54ba 833c d255 4a3d
000000f0: 4026 4c3d 40a7 353d 6a92 c63d f604 923c
00000100: 0cb9 153e 346b 96be 3f8c a93e f70e 0040
00000110: 879b b4bc cba4 b2bd e1fc 2ebe 7b04 15bf
00000120: b66d 03bf e5c2 a2be c075 bc3e a1d4 193f
00000130: 2595 7e3f 20c8 0c3e f400 83be c757 31bf
00000140: ed62 5d3e 3c78 f53d c2e5 e33d 2ed1 3ebf
00000150: 9e02 7c3e 72fd 663e e163 ed3d 8025 963a
00000160: d087 223e 3627 84bd 470a 743c dc24 7dbe
00000170: 0126 603d bde9 5abd e80f 863e 39de 2d3d
00000180: b92e e43f 033e d1be 6a1a 82be 0b01 65bf
00000190: 8078 373f 7738 5a3d 3dda c5be 7f7c e8be
000001a0: a71b 383f 6ca7 8e3e 2f5b e5be 2437 02bf
000001b0: bdd2 f63e 83b4 5c3d c839 95be 3ef1 92be
000001c0: 54c6 3b3e 19f5 52bd 44e2 c73d c65d ac3e
000001d0: 8815 2bbe 0005 41be 26e8 0ebf f0fa b7be
000001e0: becc dcbd 9f0a 6c3e d0ff b23d c74e 8a3e
000001f0: f12c f93e 3b2e ff3c 70c3 e53e 412f 84be
00000200: e58d f23f 3d7f 50bf 8554 93be 6efd 7abf
00000210: 4837 373e c21c 6c3e 6fc6 26bf d8b6 d1be
00000220: b3d5 41bf d4df 883f d667 513e 9e82 68be
00000230: e82e e03f 2bd5 0d3f 2751 653f 7a8a 98bf
00000240: 8869 eabd d977 2abe e8db a83d ad8f 563e
00000250: fb0a 56be 6723 523e 26ab 543e 7cac a13d
00000260: 5476 90be cfff 2b3e da0b 0cbe fa62 353e
00000270: a9e4 c2bd 9b2d b23e 82fe 413e 0507 973e
00000280: abb7 5fbe 1aba 75be 83ae 2a3f f9b3 08bf
00000290: 9afe babe 419d 6cbe c3c6 52bd 6c3f fb3d
000002a0: 49d7 35bf 8b2b 0abe 5935 223f 1394 8b3f
000002b0: 8023 b9be 5052 da3d 20cb eabe 9e08 b9be
000002c0: 52c7 db3b 918c 02bd 26b5 0b3e 8a10 8fbe
000002d0: 4aa9 7fbe c2cb 13be 4cfa fd3d ac5a 773e
000002e0: 35f3 663e ff34 783e 3854 5fbe d1e0 a43d
000002f0: d0c1 6e3e 16c7 5f3e 4f1a 64be 978d 063e
00000300: 0af5 023f 6837 473f dd9a 143f 75d2 983e
00000310: 4f2c 1a3e 85bb 9f3f 8f7a 743f 0aa2 2f3f
00000320: 37f3 a63e 9958 443f de09 643f 6c08 283f
00000330: f056 cb3e ed8f d63e 7ede 893e 2318 8d3f
00000340: d266 903e 3de9 bd3c 7960 9c3e c98d a53d
00000350: 8b6a 5f3d 9f2d 71bc e86c 4dbe 00d7 68be
00000360: 4418 c13e df53 a1bd 6f8f 96be ca99 243d
00000370: f8b6 dc3c 7db0 6cbc 9bea 3b3e 2814 423e
00000380: 1906 a4be 14a4 9fbe 6fa2 993d 2d02 a03e
00000390: 9d81 dbbe 0982 4fbe 7a7f e6be 6c0c 0ebf
000003a0: fb8e 10bf ade1 26bf 1132 c5be 675e 19bf
000003b0: c272 49be b36f 00bf db83 adbe 1423 0ebf
000003c0: a1d3 bcbd 4b10 6bbd 2b6c 783d 2770 a2bd
000003d0: b1ae d13d 44ed 7b3d b2c3 923c 1e10 80bd
000003e0: dbd4 2dbd 207e 6cbb 0cae 86bd 1593 e43d
000003f0: 7870 093e f0c5 933d 7e47 06be 271f 82bd

conv1.bias f4 [16]
0.04077006 -0.023771446 -0.021920083 0.21318963 0.30137014 0.19912645 0.0037965206 -0.09145168
0.2041678 -0.084723674 0.34772152 0.02167858 0.056038123 -0.11388045 -0.10661011 0.035885196
00000000: 82fe 263d 56bc c2bc bf91 b3bc 624e 5a3e
00000010: 304d 9a3e cee7 4b3e 0ccf 783b 054b bbbd
00000020: 5d11 513e 9b83 adbd 8e08 b23e 4797 b13c
00000030: 3b88 653d 273a e9bd 6756 dabd 5bfc 123d

conv2.weight f4 [32, 16, 4, 4]
-0.09808758 -0.13043466 -0.032381933 -0.04955558 -0.39703768 -0.4205166 0.031327758 -0.2184428
-0.5391251 -0.14585193 0.13202903 -0.12778093 -0.24216677 0.13388975 0.04772429 -0.08966561
0.024349462 -0.033283025 -0.17062682 0.16615635 -0.3029978 -0.24772973 0.12962107 -0.6796658
-0.010886234 0.28819534 0.19185185 -0.5121437 0.16788504 0.4918181 -0.21828409 -0.3627139
-0.47395232 -0.30468205 -0.42928663 1.0292011 -0.07801118 0.1750632 0.2496722 -0.26907828
-0.06747321 -0.69597465 0.3451557 0.14233868 -0.29324475 0.20386189 -0.06966697 0.012713966
0.3777794 0.54663163 -0.20211425 0.15877497 0.030242726 0.16496554 -0.54713535 -0.105484925
0.41557273 0.3664916 -0.3104439 0.128112 0.26823658 0.3215207 -0.24560195 0.07850462
0.52319807 -0.1278057 -0.017976044 0.10339087 0.3838133 -0.22757088 -0.057786454 0.13618901
0.44841143 -0.14166705 -0.15455978 -0.1374676 0.18817902 0.034985658 -0.2767985 -0.12470093
-0.31009802 -0.43388644 0.40509185 0.051206212 -0.2745786 -0.00291184 0.28687122 -0.06724126
-0.3074614 0.00051364116 -0.021549921 0.05379057 -0.55787104 -0.22949326 -0.011481091 -0.12531735
0.53628796 -0.75347376 -0.069278225 -0.04864263 0.21684636 -0.6699701 -0.20744862 0.1629156
0.48780206 -0.23508981 -0.11977025 -0.040773887 0.74645305 -0.53046536 -0.3534702 -0.24265948
-0.121151015 -0.21053231 0.24876021 0.0507361 -0.005772179 -0.10478575 0.07840485 0.113085225
-0.26015994 -0.20330057 0.056502864 0.07811482 -0.090168744 -0.039891932 -0.0030050308 0.16082941
-0.041419957 -0.5002178 0.326913 -0.007086152 0.15926343 -0.34502187 0.29325914 0.00965024
-0.42246628 -0.06309498 0.05885888 -0.08649165 -0.40120348 -0.19176567 0.15494709 -0.105918095
0.0027918806 -0.11683584 0.07596292 0.066967234 0.06524555 -0.2348118 0.2183647 0.08987651
-0.16288371 -0.0141707165 0.046114013 0.098415144 -0.45751375 -0.1294055 0.016375849 0.0030142027
-0.39523098 -0.66070074 0.07959474 0.09680759 -0.27839848 -0.46743685 0.16798772 -0.0031590515
-0.2521592 -0.45548347 0.15446927 0.1710505 -0.34224325 -0.20049734 -0.04833802 -0.124840945
-0.04596698 -0.678187 -0.10575008 -0.37974557 -0.11695281 -0.04541553 -0.18172093 0.14099877
0.5524696 0.16437197 -0.4160858 0.30677074 0.8834746 -0.21264225 -0.3833087 -0.4396843
0.59942883 -0.62958884 -0.018818451 -0.5148303 -0.04932824 -0.49323848 0.24196498 -0.30398756
-0.07043437 0.3037357 -0.44565323 -0.47717083 0.948936 0.33570603 -0.017177178 0.54261607
-0.12158155 -0.52563167 -0.35395396 0.7583878 -0.28039196 -0.16075394 -0.10066639 -0.024897357
0.26858443 -0.3904144 0.4776719 -0.33269656 0.03757949 0.105799764 -0.7703442 -0.52633053
-0.22052054 -0.2288902 0.09662524 0.15539888 -0.088704 -0.0023280543 -0.06596218 -0.050882205
0.019456737 0.041899372 0.10491801 0.112529755 -0.17895225 -0.019201862 0.1644612 0.033260904
0.8670805 -0.42135495 -0.68877715 -0.21060659 0.37240818 -0.24775617 -0.47538283 0.0118366545
0.46614566 0.31891274 -0.27911362 -0.06718349 0.8277116 -0.14439958 -0.17913309 -0.21520767
00000000: 24e2 c8bd aa90 05be eba2 04bd cbfa 4abd
00000010: 8648 cbbe f44d d7be 8951 003d 78af 5fbe
00000020: 1a04 0abf 355a 15be 9e32 073e 01d9 02be
00000030: 91fa 77be 651a 093e 8c7a 433d 9aa2 b7bd
00000040: 8678 c73c c853 08bd ccb8 2ebe e424 2a3e
00000050: 8722 9bbe ddac 7dbe 63bb 043e 94fe 2dbf
00000060: 2d5c 32bc 578e 933e d074 443e d91b 03bf
00000070: 0eea 2b3e 95cf fb3e dd85 5fbe a3b5 b9be
00000080: e1a9 f2be 49ff 9bbe 75cb dbbe ddbc 833f
00000090: 53c4 9fbd c443 333e 12aa 7f3e a1c4 89be
000000a0: 652f 8abd 652b 32bf 3fb8 b03e 3bc1 113e
000000b0: 2d24 96be 2cc1 503e 8ead 8ebd 3d4e 503c
000000c0: 4d6c c13e 0df0 0b3f 0af7 4ebe e895 223e
000000d0: 98bf f73c baec 283e 1011 0cbf 7b08 d8bd
000000e0: f3c5 d43e c9a4 bb3e 81f2 9ebe cb2f 033e
000000f0: 4e56 893e 5c9e a43e 147f 7bbe 08c7 a03d
00000100: 4ff0 053f 7fdf 02be 7f42 93bc 98be d33d
00000110: 2d83 c43e 5708 69be 7db1 6cbd 2275 0b3e
00000120: 2f96 e53e 2b11 11be eb44 1ebe 4ec4 0cbe
00000130: 00b2 403e 1f4d 0f3d 88b8 8dbe 3463 ffbd
00000140: 2bc5 9ebe 5d26 debe 3368 cf3e 9bbd 513d
00000150: 9195 8cbe 92d4 3ebb c9e0 923e c9b5 89bd
00000160: 956b 9dbe e0a5 063a 7689 b0bc 8053 5c3d
00000170: a3d0 0ebf 4800 6bbe 301b 3cbc 3153 00be
00000180: 2b4a 093f a8e3 40bf bee1 8dbd 7f3d 47bd
00000190: f90c 5e3e 2983 2bbf 696d 54be 59d3 263e
000001a0: 31c1 f93e 62bb 70be 1b4a f5bd 8502 27bd
000001b0: 8c17 3f3f 94cc 07bf 0cfa b4be ba7b 78be
000001c0: 061e f8bd c895 57be ffba 7e3e a8d0 4f3d
000001d0: 8c24 bdbb e999 d6bd b992 a03d 3a99 e73d
000001e0: af33 85be 062e 50be 8c6f 673d aafa 9f3d
000001f0: 64aa b8bd b965 23bd 0df0 44bb 77b0 243e
00000200: f9a7 29bd 460e 00bf 2461 a73e f432 e8bb
00000210: f415 233e b5a6 b0be 1026 963e 0a1c 1e3c
00000220: 804d d8be f137 81bd 0216 713d 8922 b1bd
00000230: 8b6a cdbe 385e 44be 73aa 1e3e 96eb d8bd
00000240: fcf7 363b a147 efbd 7392 9b3d 1e26 893d
00000250: 759f 853d 8172 70be ff9a 5f3e 2d11 b83d
00000260: fdca 26be 4b2c 68bc 0ce2 3c3d e18d c93d
00000270: 3e3f eabe e082 04be a526 863c ee89 453b
00000280: b75b cabe af23 29bf 9102 a33d 0f43 c63d
00000290: 3f8a 8ebe e253 efbe f904 2c3e 1708 4fbb
000002a0: 031b 81be 2135 e9be 312d 1e3e dd27 2f3e
000002b0: 823a afbe 2d4f 4dbe 16fe 45bd 9cac ffbd
000002c0: df47 3cbd aa9d 2dbf 7f93 d8bd 036e c2be
000002d0: f484 efbd a305 3abd 0d15 3abe fb61 103e
000002e0: a66e 0d3f 2051 283e 3309 d5be 0e11 9d3e
000002f0: 642b 623f e4be 59be 0a41 c4be 4d1e e1be
00000300: 2b74 193f bc2c 21bf 2729 9abc ebcb 03bf
00000310: 690c 4abd c189 fcbe abc5 773e 42a4 9bbe
00000320: e53f 90bd 3f83 9b3e a92c e4be bc4f f4be
00000330: 78ed 723f a9e1 ab3e 27b7 8cbc e3e8 0a3f
00000340: bfff f8bd cc8f 06bf 7439 b5be b425 423f
00000350: 898f 8fbe ae9c 24be 2e2a cebd 8bf5 cbbc
00000360: e683 893e 65e4 c7be 6991 f43e 3457 aabe
00000370: f4ec 193d 8cad d83d 4735 45bf 99bd 06bf
00000380: 23d0 61be 3162 6abe 74e3 c53d e220 1f3e
00000390: 71aa b5bd 4592 18bb 2e17 87bd dc69 50bd
000003a0: bc63 9f3c ad9e 2b3d 41df d63d 0076 e63d
000003b0: 423f 37be 394d 9dbc 8468 283e 963c 083d
000003c0: fdf8 5d3f d6bb d7be b353 30bf 41a9 57be
000003d0: 49ac be3e cbb3 7dbe 6165 f3be 87ee 413c
000003e0: a5aa ee3e 8848 a33e fbe7 8ebe 7f97 89bd
000003f0: e8e4 533f 7cdd 13be aa6e 37be 665f 5cbe

conv2.bias f4 [32]
0.08279439 0.2600329 -0.08701493 0.0017091086 -0.02524061 0.33021826 -0.05766223 -0.0791077
0.1379242 -0.19878593 -0.07294329 0.32366994 -0.11002595 0.3391073 -0.05952196 0.14973386
-0.035517726 0.055585667 0.02215702 0.043183554 -0.15723166 0.0233838 0.15431732 -0.06317045
0.09428995 -0.11094216 0.32097995 -0.05083489 0.16673933 0.32498747 0.050259583 -0.028981404
00000000: 1b90 a93d 0823 853e e234 b2bd 2b04 e03a
00000010: 65c5 cebc 5e12 a93e 3b2f 6cbd 3803 a2bd
00000020: 003c 0d3e 8a8e 4bbe 4b63 95bd 11b8 a53e
00000030: 4955 e1bd 799f ad3e 4ccd 73bd d553 193e
00000040: 097b 11bd ccad 633d a482 b53c 3de1 303d
00000050: 5601 21be 628f bf3c 5c05 1e3e 825f 81bd
00000060: 171b c13d a535 e3bd 7c57 a43e 3f38 50bd
00000070: b7bd 2a3e c264 a63e fedc 4d3d 696a edbc

fc1.weight f4 [64, 800]
-0.6489025 -0.08319741 -0.09280563 0.077295594 0.06150787 -0.39042127 -0.0035484792 -0.07608166
0.1309035 0.10346142 -0.28174734 0.035456944 0.1726906 0.11824942 0.1289923 -0.09425539
-0.2628427 0.07290143 -0.06945327 0.382623 0.43148386 -0.8042273 -0.33543324 0.37355843
-0.3628338 0.34812897 0.19541374 0.08603147 0.014638933 0.07779864 0.017065044 0.06931892
0.05048137 0.09401549 0.06641579 0.0074439594 0.084426865 0.053300325 0.07074956 0.007935377
-0.0062963837 0.10553268 0.12401414 0.107893035 -0.13449763 -0.21053223 0.077820994 0.38482803
0.2650828 -0.19900627 0.01322176 -0.008900463 0.010857375 -0.030968629 0.019106336 0.034259398
0.031259183 -0.0254064 0.011764944 -0.0045120167 0.013177965 0.013648312 -0.0046555325 -0.01184216
0.02423868 0.013177583 0.021395843 0.015096562 -0.025769502 0.023227602 0.01864788 -0.015823971
0.010261806 0.013083372 0.027275924 -0.12522298 0.10126423 -0.034072716 -0.086899646 -1.0705346
-0.2442312 0.08438448 0.25612256 0.18070392 -0.90029675 0.0059810597 0.32913497 0.27734014
-0.6150086 -0.35886613 0.023194259 0.15692866 0.08299729 0.017204937 -0.1907704 -0.48397854
0.0060136435 -0.33910415 -0.31000996 -0.42157242 -0.016486658 -0.06860256 -0.40916464 0.07858814
-0.646638 -0.37276557 0.06262314 -0.013501286 0.050985802 -0.029850494 -0.052540846 -0.09862173
0.049172122 -0.0007992776 -0.075404085 0.009720619 0.008566669 -0.039167825 0.17565806 -0.34257546
0.38423327 0.27270344 -0.12736703 0.2592309 1.1494755 0.3717307 0.060644682 0.058616277
0.0004981918 0.028788721 0.09965501 0.05170316 0.055851266 0.05284632 0.094288446 0.12046769
0.060443033 0.0610021 0.03878742 0.08028045 0.15739127 0.10231527 -0.12219717 -0.0691737
0.058035526 0.14558312 0.046352748 -0.19626041 -0.049895685 0.13338867 -0.0070965416 -0.032069575
0.04724958 -0.03070105 -0.003074785 0.008878332 0.0011378977 0.026847739 -0.019541368 -0.017122202
0.006857516 0.0036024575 0.007896679 -0.027829897 0.023738975 0.023947256 -0.029379126 0.019906603
0.028935375 0.015219219 0.018427595 -0.04055419 -0.008215193 -5.250916e-05 -0.021290759 -0.7510836
-0.42180917 -0.1663885 0.12308183 -0.3767766 -0.56495124 0.001833658 0.27961352 -0.47424325
0.16619816 -0.8144177 -0.3109898 -0.8132837 -0.029486392 -0.14161612 -0.6248173 -0.9369757
-0.18616025 0.31768018 0.20996015 -0.18915738 -1.0307157 -0.3400963 0.2954811 0.53489274
-0.75280774 -0.0641938 0.09469 0.061962325 0.055962227 -0.07668231 0.07354738 -0.022697374
-0.12046475 0.055242565 -0.120061606 -0.24466017 -0.025266506 -0.59764564 -0.23550831 -0.12893249
0.1067954 -0.039259575 -0.22774388 -0.032305095 0.50532377 0.14341335 0.036973923 0.57565683
0.5389396 -0.35511553 0.35680756 -0.15041779 -0.21959782 -0.16085778 0.058216836 0.10580507
0.11800406 0.536988 0.14849581 -0.46372107 0.053641483 -0.18369853 -0.31613362 -1.8511623
-0.40660584 -0.18812206 0.6720969 0.5191674 -0.29648304 -0.4449483 -0.7579584 0.026936287
0.58671695 0.19549373 -0.4385257 -0.1286734 -0.04574574 0.066795416 0.010719584 -0.23361413
00000000: 791e 26bf 6763 aabd e110 bebd 274d 9e3d
00000010: adef 7b3d 4ce5 c7be 9a8d 68bb b4d0 9bbd
00000020: 910b 063e 95e3 d33d 3041 90be 4d3b 113d
00000030: ced5 303e c02c f23d 8f16 043e f808 c1bd
00000040: 5293 86be 584d 953d 843d 8ebd 29e7 c33e
00000050: 74eb dc3e d7e1 4dbf e8bd abbe 0d43 bf3e
00000060: 5ac5 b9be f63d b23e 8a1a 483e 4431 b03d
00000070: 23d8 6f3c e554 9f3d fecb 8b3c 14f7 8d3d
00000080: 8ec5 4e3d 318b c03d 0005 883d 75ec f33b
00000090: fee7 ac3d 7151 5a3d 25e5 903d 6203 023c
000000a0: e551 cebb 8521 d83d 20fb fd3d 06f7 dc3d
000000b0: bfb9 09be c395 57be 9d60 9f3d 2e08 c53e
000000c0: efb8 873e 4dc8 4bbe 15a0 583c 3fd3 11bc
000000d0: 22e3 313c ecb1 fdbc e484 9c3c 9553 0c3d
000000e0: a109 003d 1521 d0bc c0c1 403c 8ad9 93bb
000000f0: 64e8 573c 2b9d 5f3c 708d 98bb 9e05 42bc
00000100: 3290 c63c cae6 573c 5646 af3c 9257 773c
00000110: 901a d3bc d047 be3c 70c3 983c 46a1 81bc
00000120: 2221 283c a45b 563c c271 df3c 743a 00be
00000130: 9f63 cf3d d58f 0bbd 71f8 b1bd 4707 89bf
00000140: be17 7abe c5d1 ac3d 7f22 833e 730a 393e
00000150: d979 66bf c4fc c33b 6184 a83e 87ff 8d3e
00000160: 3471 1dbf 4dbd b7be e301 be3c e8b1 203e
00000170: 7cfa a93d 5ef1 8c3c 5159 43be 09cc f7be
00000180: 190e c53b 0f9f adbe a0b9 9ebe 57d8 d7be
00000190: 070f 87bc 807f 8cbd 077e d1be d2f2 a03d
000001a0: 118a 25bf 21db bebe 9040 803d 7f34 5dbc
000001b0: 7dd6 503d 0689 f4bc 1235 57bd 31fa c9bd
000001c0: b568 493d 9d86 51ba 756d 9abd 3b43 1f3c
000001d0: 375b 0c3c 716e 20bd b5df 333e 0d66 afbe
000001e0: 39ba c43e c99f 8b3e 816c 02be eab9 843e
000001f0: 0322 933f 7c53 be3e 8f66 783d 9f17 703d
00000200: 1699 023a 53d6 eb3c ed17 cc3d b1c6 533d
00000210: 4cc4 643d 6275 583d 4d1a c13d c4b7 f63d
00000220: 1d93 773d 57dd 793d 8fdf 1e3d 146a a43d
00000230: 2d2b 213e ab8a d13d 8342 fabd f1aa 8dbd
00000240: a9b6 6d3d be13 153e 61dc 3d3d 7df8 48be
00000250: 6b5f 4cbd 0a97 083e 1b8a e8bb 635b 03bd
00000260: c788 413d c580 fbbc 5582 49bb 6c76 113c
00000270: 8325 953a caef db3c 3815 a0bc dc43 8cbc
00000280: 03b5 e03b 3517 6c3b 1361 013c 86fb e3bc
00000290: 3d78 c23c 092d c43c 7eac f0bc 2c13 a33c
000002a0: e109 ed3c 085a 793c 78f5 963c 261c 26bd
000002b0: 0499 06bc 483d 5cb8 f569 aebc 0447 40bf
000002c0: 5ff7 d7be bf61 2abe 5412 fc3d dde8 c0be
000002d0: a5a0 10bf 5a57 f03a 8129 8f3e 03d0 f2be
000002e0: da2f 2a3e ae7d 50bf 0e3a 9fbe 5c33 50bf
000002f0: 728d f1bc d103 11be 07f4 1fbf a4dd 6fbf
00000300: cba0 3ebe faa6 a23e cbff 563e 79b2 41be
00000310: 7eee 83bf 1a21 aebe 4c49 973e bbee 083f
00000320: 02b8 40bf 0a78 83bd d5ec c13d 35cc 7d3d
00000330: a638 653d 9d0b 9dbd 02a0 963d d8ef b9bc
00000340: 39b6 f6bd 0746 623d dce2 f5bd 3288 7abe
00000350: b4fb cebc 4eff 18bf 1729 71be e106 04be
00000360: 8cb7 da3d a6ce 20bd b135 69be 5952 04bd
00000370: e65c 013f f3da 123e f871 173d 3f5e 133f
00000380: f2f7 093f b4d1 b5be 7baf b63e 1f07 1abe
00000390: 40de 60be e7b7 24be c774 6e3d 54b0 d83d
000003a0: 1dac f13d 0c78 093f 490f 183e d96c edbe
000003b0: 2cb7 5b3d 781b 3cbe 44dc a1be e3f2 ecbf
000003c0: a42e d0be 12a3 40be 8b0e 2c3f 28e8 043f
000003d0: a0cc 97be 43d0 e3be 9009 42bf 7da9 dc3c
000003e0: 1533 163f 822f 483e 7186 e0be f6c2 03be
000003f0: e35f 3bbd 09cc 883d 32a1 2f3c 8b38 6fbe

fc1.bias f4 [64]
0.083459415 -0.022566592 -0.040880498 0.030787876 0.073079616 -0.027041707 -0.05040459 0.18539004
0.089381345 0.11499295 0.027103651 0.07315558 -0.0663205 -0.05675669 -0.001705841 0.19415049
0.027496722 0.017434686 0.052463572 0.106955305 -0.008990487 0.10767581 -0.034153506 -0.061446022
0.09168812 -0.025158618 0.03926146 -0.05855839 0.14564449 -0.053446762 -0.033103585 0.1241624
-0.021328207 -0.038063753 0.03493353 -0.03914243 0.049981337 -0.046993632 -0.048439343 -0.034747582
-0.04369617 -0.0136809 0.0059101023 -0.041268647 0.1287071 0.028339269 -0.03346427 0.06550548
-0.08301529 -0.0068607186 0.0843278 0.03645127 -0.008549946 -0.051275894 -0.015691554 0.0607926
-0.027407104 -0.028088512 -0.013114221 -0.039286032 -0.014742216 -0.055864118 0.024262698 -0.020803127
00000000: c5ec aa3d 93dd b8bc 4f72 27bd db36 fc3c
00000010: c4aa 953d 9286 ddbc 0b75 4ebd e3d6 3d3e
00000020: 910d b73d 6c81 eb3d 7a08 de3c 98d2 953d
00000030: 0bd3 87bd b479 68bd 8796 dfba 63cf 463e
00000040: ce40 e13c 30d3 8e3c 0be4 563d 620b db3d
00000050: d64c 13bc 2385 dc3d 8ce4 0bbd d3ae 7bbd
00000060: fbc6 bb3d 7219 cebc a0d0 203d ecda 6fbd
00000070: d423 153e feea 5abd a097 07bd db48 fe3d
00000080: 7eb8 aebc bde8 1bbd 7616 0f3d d053 20bd
00000090: 3bb9 4c3d 657c 40bd 5568 46bd 7b53 0ebd
000000a0: c1fa 32bd db25 60bc 88a9 c13b 5009 29bd
000000b0: cbcb 033e c127 e83c d511 09bd bd27 863d
000000c0: ec03 aabd e1cf e0bb 0eb4 ac3d ed4d 153d
000000d0: 1315 0cbc ac06 52bd 938b 80bc a901 793d
000000e0: dd84 e0bc e119 e6bc 08dd 56bc 64ea 20bd
000000f0: 5689 71bc c6d1 64bd 91c2 c63c 526b aabc
