saved_models/dqn_best_model.pth (torch, 981101 bytes, 32 tensors)

conv1.weight f4 [16, 2, 4, 4]
0	0xbd0ffd24	-0.035153523
1	0xbd253832	-0.040336795
2	0xbe579dec	-0.21056336
3	0xbef38029	-0.47558716
4	0xbe641ecf	-0.22277378
5	0xbe54b47a	-0.20771971
6	0xbdde9b95	-0.10869519
7	0xbe586af6	-0.21134552
8	0x3e6e07c1	0.23245145
9	0xbe1f9ee9	-0.15587963
10	0xbf2ac59e	-0.6670779
11	0xbf345478	-0.7044139
12	0x3e07e391	0.13270403
13	0xbe015e33	-0.1263359
14	0xbef4892f	-0.47760913
15	0xbf27c3a0	-0.65532875
16	0xbe2e7afe	-0.17039105
17	0xbc402220	-0.011726886
18	0x3e07b27b	0.13251679
19	0x3e5d0d7b	0.21587174
20	0x3e823c0a	0.2543643
21	0x3dc5e6ae	0.09663139
22	0xbd1bfef2	-0.03808493
23	0x3dc0a09c	0.09405634
24	0x3d1b75b5	0.03795405
25	0x3cef60b6	0.02922092
26	0x3e8a4b59	0.2701061
27	0x3d39740e	0.045276694
28	0x3e13d562	0.14436868
29	0x3e3bd13b	0.18341534
30	0xbb99074c	-0.0046700593
31	0x3e0317f0	0.128021
32	0x3fb7d2a4	1.4361157
33	0x3fbdabda	1.481807
34	0x3eb84368	0.35988927
35	0x3ef2a3ea	0.47390682
36	0x3db2b549	0.08725984
37	0xbeba2b47	-0.36361143
38	0xbd9f8abb	-0.077901326
39	0xbebd00f3	-0.36914787
40	0xbe295201	-0.16535188
41	0xbe3a07ef	-0.18167089
42	0xbe562962	-0.20914224
43	0xbf0d5e3d	-0.5522192
44	0xbecbde55	-0.39818063
45	0xbe273eb2	-0.1633251
46	0xbec120ac	-0.3772024
47	0xbeb645dc	-0.35600173
48	0xbe78b96d	-0.24289484
49	0xbdd6514a	-0.104647234
50	0xbd2f6634	-0.042822078
51	0x3c35ae94	0.011088986
52	0xbdedae26	-0.11605482
53	0xbd7621cf	-0.060090836
54	0xbc108bd1	-0.008822397
55	0x3e8d531e	0.27602476
56	0x3dd7f745	0.1054521
57	0xbeaa6735	-0.33281866
58	0x3d78cede	0.06074416
59	0xbe02a0b3	-0.12756614
60	0x3d845091	0.06460679
61	0xbe280d5d	-0.16411348
62	0x3da704e0	0.08155227
63	0xbcf4eb22	-0.029897276
64	0xbe6bd292	-0.23029545
65	0xbe51a9aa	-0.20474878
66	0xbf1a6200	-0.60305786
67	0xbf12d8fe	-0.57362354
68	0xbda0f3f0	-0.078590274
69	0xbc9cf73a	-0.019160856
70	0xbea1e92d	-0.31623212
71	0xbd17c6ef	-0.037054952
72	0xbe672399	-0.22572173
73	0x3cd45706	0.025920402
74	0xbf16dcc8	-0.58930635
75	0xbf178025	-0.5917991
76	0xbeca14b8	-0.39468932
77	0xbeaa91b7	-0.33314297
78	0xbefd8a0c	-0.49519384
79	0xbf1027fe	-0.56311023
80	0xbd309d64	-0.04311885
81	0xbe54cf2c	-0.20782155
82	0xbe1ca518	-0.15297353
83	0x3e27fd27	0.16405164
84	0x3d970a5a	0.07375021
85	0x3e450a74	0.19242269
86	0x3b18df8b	0.0023326601
87	0x3d994ed1	0.07485736
88	0x3e63202b	0.2218024
89	0xbdc01b1c	-0.09380171
90	0x3b11369a	0.002215779
91	0x3da1cf58	0.07900876
92	0x3dbc4e05	0.091945685
93	0x3dfe6355	0.1242129
94	0xbe6e6428	-0.23280394
95	0x3e0fca0c	0.14041919
96	0xbe8727a0	-0.2639742
97	0xbec05fb6	-0.37573022
98	0xbed61330	-0.41811514
99	0xbee805c7	-0.45316908
100	0xbedcb6a5	-0.43108097
101	0x3de1d22f	0.110264175
102	0xbc8d9bbe	-0.017286178
103	0xbe1d8efd	-0.15386577
104	0x3d865282	0.06558706
105	0xbede9c7f	-0.43478772
106	0xbf2fe397	-0.6870665
107	0xbed23aad	-0.4106039
108	0xbe3724a0	-0.17885065
109	0xbed2fdc0	-0.4120922
110	0xbf20d483	-0.6282427
111	0xbd6f8d5a	-0.058484413
112	0xbe75f43d	-0.24018951
113	0xbe1736c3	-0.14766984
114	0x3ca41165	0.020027826
115	0x3e700011	0.23437525
116	0x3e1002b5	0.14063533
117	0x3e35f227	0.17768155
118	0x3bbc256d	0.005741766
119	0xbdda589c	-0.10661432
120	0x3d2a7b78	0.041621655
121	0x3d3283b1	0.043582622
122	0x3e1f84ef	0.15578054
123	0xbe41386a	-0.18869177
124	0x3e0f12bd	0.13971992
125	0x3e152d6c	0.14568108
126	0x3d7c587c	0.061607823
127	0x3c88197b	0.016613713
128	0x3eef7fda	0.4677723
129	0xbe8841b1	-0.2661262
130	0x3e0b4cf3	0.13603573
131	0x3fc9ecc6	1.5775383
132	0xbe05def8	-0.13073337
133	0xbdfb6f14	-0.12277046
134	0xbf1bd43f	-0.60870737
135	0x3f9cb635	1.2243105
136	0x3eedf372	0.46474797
137	0x3f94fb97	1.1639279
138	0x3c93a61b	0.018023541
139	0x3e804cdf	0.25058648
140	0x3f87f13f	1.0620497
141	0x3c0df88c	0.008665215
142	0xbca9d481	-0.020731213
143	0x3dd1bd0a	0.102411345
144	0xbe611353	-0.21980028
145	0xbd960626	-0.073253915
146	0xbe1f5cd1	-0.1556275
147	0x3d7a7829	0.06114975
148	0x3cd7b9ff	0.026333807
149	0x3e26ae9c	0.16277546
150	0xbe632319	-0.22181357
151	0xbde97b7e	-0.114005074
152	0x3cdf2b16	0.027242225
153	0x3e0b91fa	0.13629904
154	0x3d6f79d2	0.058465786
155	0xbe1c00a3	-0.15234618
156	0x3d63c183	0.05560447
157	0xbe374441	-0.1789713
158	0xbed5f55e	-0.41788763
159	0xbe8c608a	-0.27417403
160	0xbebd2e76	-0.3694951
161	0xbe6aef87	-0.22942935
162	0xbee1a5d4	-0.4407183
163	0xbec50020	-0.38476658
164	0xbe64843c	-0.22316068
165	0xbed1feea	-0.41014796
166	0x3d5525fc	0.052038178
167	0xbdb90348	-0.09033829
168	0xbeca3860	-0.39496136
169	0xbdee1cb6	-0.1162657
170	0xbe12e973	-0.14346866
171	0xbec0fa2c	-0.37690866
172	0xbec6e043	-0.38842973
173	0xbebe433b	-0.37160668
174	0xbf06ec42	-0.5270425
175	0xbe4b25de	-0.19838664
176	0xbb87a13d	-0.004139094
177	0xbdaf4c13	-0.08559432
178	0xbd8267e9	-0.063674755
179	0x3e024111	0.12720133
180	0xbd7a55eb	-0.061117094
181	0x3d1294e1	0.035786513
182	0x3dd3372c	0.103132576
183	0xbe29adb5	-0.1657017
184	0x3db0e12e	0.086366996
185	0x3a8979bc	0.001048855
186	0xbdb01a07	-0.08598714
187	0xbcfe49c0	-0.031041026
188	0xbc4ad9ab	-0.012380998
189	0xbde6e048	-0.11273247
190	0x3e2748c4	0.16336352
191	0x3d66663b	0.05624984
192	0xbf4db025	-0.803469
193	0x3e828016	0.25488347
194	0x3f319d23	0.69380397
195	0x3f5a8e03	0.8537294
196	0x3f698590	0.91219425
197	0x3edf45ad	0.43607846
198	0x3ed34a9a	0.41267854
199	0x3f3da3f2	0.74078286
200	0x3de00256	0.109379455
201	0x3f3d1eec	0.7387531
202	0x3e8c33a8	0.2738316
203	0x3fa3c082	1.2793124
204	0x3ec6b6a6	0.38811225
205	0x3f8367ed	1.0266091
206	0x3f3ce91d	0.737932
207	0x3f99370b	1.1969923
208	0xbcd052fa	-0.025430191
209	0xbd6e4484	-0.05817081
210	0x3d80e5c7	0.062938266
211	0x3d2ee88d	0.042702246
212	0x3dbde2a3	0.09271743
213	0x3b577236	0.0032874472
214	0xbc8f9ba5	-0.017530272
215	0xbd46a1b3	-0.048494052
216	0x3d87fabd	0.066396214
217	0x3c82f3d6	0.01598541
218	0xbe369e41	-0.17833807
219	0x3c8d10b4	0.017219879
220	0x3de1cff3	0.11025991
221	0xbd86382e	-0.06553684
222	0x3cd801ef	0.02636811
223	0xbda29d46	-0.07940154
224	0x3f10f1a6	0.56618726
225	0x3edff863	0.43744192
226	0x3e3299a2	0.17441419
227	0x3f91d525	1.1393172
228	0x3f171e69	0.5903078
229	0x3e94c140	0.29053688
230	0x3f0da5f5	0.55331355
231	0x3f19f05f	0.601324
232	0x3f2b2cff	0.66865534
233	0x3e6a86c5	0.22902973
234	0x3e840e05	0.25791946
235	0x3f4581f9	0.7715145
236	0x3efe731b	0.49697194
237	0x3fa3bb61	1.2791559
238	0x3f6dd0ce	0.92896736
239	0x3f18ac1f	0.59637636
240	0x3db2ec56	0.08736484
241	0xbd5190d3	-0.051163506
242	0xbc071081	-0.008243681
243	0xbccf4500	-0.025301456
244	0xbe14b29d	-0.1452126
245	0xbe465b20	-0.19370699
246	0x3d062c92	0.03275735
247	0xbdf26060	-0.11834788
248	0xbde4ced5	-0.111722626
249	0x3e257ae9	0.16160168
250	0xbb087576	-0.0020821965
251	0x3c1ec01e	0.009689359
252	0xbe4cd52e	-0.20003197
253	0x3d460d69	0.048352633
254	0xbd9f048a	-0.07764538
255	0x3d92ee9d	0.07174418

conv1.bias f4 [16]
0	0xbd1f6a13	-0.03891952
1	0x3d145aae	0.03621929
2	0x3db3e1d4	0.08783308
3	0x3dc88f63	0.09792974
4	0xbccf532f	-0.02530822
5	0x3e30ed60	0.17278051
6	0xbd9086d3	-0.07056966
7	0x3db5c3b5	0.08875219
8	0x3d837bf7	0.06420129
9	0xbd0d63a7	-0.034518864
10	0x3dfbb8c2	0.12291099
11	0x3ceba935	0.028767208
12	0x3d73c7ad	0.059516598
13	0x3ce69d19	0.028151082
14	0x3d07723f	0.033067938
15	0x3d4fe59d	0.050756086

conv2.weight f4 [32, 16, 4, 4]
0	0xbd1c7ac1	-0.038203005
1	0xbdc5b12c	-0.096529335
2	0xbd0cb346	-0.034350656
3	0xbdbd1d0f	-0.09234058
4	0xbd55124c	-0.052019402
5	0xbd89a70c	-0.06721315
6	0xbda43cfc	-0.08019444
7	0xbd71658c	-0.058934733
8	0xbd58818d	-0.052857924
9	0xbd1adbde	-0.037807338
10	0x3c81fe72	0.0158684
11	0xbe79c011	-0.24389674
12	0xbd9fea1d	-0.078083254
13	0x3e057445	0.13032635
14	0x3d42ee14	0.04759033
15	0xbe6056a4	-0.21908051
16	0x3b9a2770	0.0047044083
17	0xbc8c794b	-0.01714768
18	0x3dba4f07	0.090971045
19	0x3e75080d	0.23928852
20	0x3e70953d	0.2349443
21	0x3e417a14	0.18894225
22	0x3da43583	0.08018019
23	0xbe4e64df	-0.20155667
24	0x3e7673d9	0.2406763
25	0xbe25f0cd	-0.1620514
26	0xbe07beee	-0.13256428
27	0xbe9ce227	-0.3064129
28	0x3dd1ae20	0.1023829
29	0x3df60907	0.120134406
30	0xbe6366b3	-0.22207145
31	0x3d6b0610	0.05737883
32	0xbdad87c2	-0.084731594
33	0xbded7d90	-0.11596215
34	0xbdf671e9	-0.120334454
35	0xbd899af0	-0.06719005
36	0xbd10f309	-0.035388026
37	0xbdf90651	-0.12159408
38	0xbe59cf22	-0.21270421
39	0xbc19befd	-0.009383914
40	0xbe3799c2	-0.17929748
41	0xbe1550bd	-0.1458158
42	0xbdd4db2e	-0.10393368
43	0xbd3c8f8a	-0.046035327
44	0xbdb3fda5	-0.08788613
45	0xbde7f81b	-0.11326619
46	0xbdeb482b	-0.11488374
47	0xbd85b224	-0.06528118
48	0xbc7501bd	-0.014954028
49	0xbdf965d4	-0.12177625
50	0xbdfdc7ec	-0.12391648
51	0xbe4d61e5	-0.20056875
52	0xbde56475	-0.11200801
53	0xbdbddffd	-0.09271238
54	0xbc6c9d3f	-0.014441787
55	0xbcc70c8f	-0.02429798
56	0xbd82bd80	-0.063838005
57	0xbdb94f33	-0.09048309
58	0xbe049347	-0.12946807
59	0x3cbeca0e	0.023289707
60	0xbd82518a	-0.063632086
61	0xbd2e9165	-0.042619128
62	0xbd863f2d	-0.065550186
63	0x3d64712f	0.055772003
64	0x3e6677e1	0.22506668
65	0x3f002bfc	0.50067115
66	0x3d307b11	0.043086115
67	0xbf1d3fc7	-0.6142544
68	0x3e0f530b	0.13996522
69	0x3edc63c9	0.4304488
70	0xbd286350	-0.041110337
71	0xbee1322f	-0.439836
72	0x3f08c955	0.5343221
73	0x3eb3b561	0.3509932
74	0xbe317daa	-0.17333093
75	0xbda1970a	-0.078901365
76	0x3eb4f193	0.35340557
77	0x3ea8e781	0.32989123
78	0x3d56ebe9	0.052471075
79	0x3ed2365b	0.41057095
80	0xbde0d6c0	-0.1097846
81	0xbd931cdf	-0.07183241
82	0xbdadab21	-0.08479906
83	0x3da0aaa8	0.0784505
84	0xbd6cf665	-0.057852168
85	0xbda5967c	-0.08085343
86	0xbd1b3a01	-0.037897114
87	0xbda5fcb8	-0.08104843
88	0xbe2939ac	-0.16525906
89	0xbde3064f	-0.11085188
90	0xbc247d8a	-0.0100396965
91	0xbbbedb49	-0.0058244807
92	0xbe67fd99	-0.22655334
93	0xbe58b7a2	-0.211638
94	0xbd7d3076	-0.061813794
95	0x3d11e0cf	0.035614785
96	0x3e811ca5	0.25217167
97	0x3daa387c	0.08311555
98	0x3d1e4e68	0.038648993
99	0xbe1be627	-0.15224515
100	0x3eb72652	0.35771424
101	0xbd88115c	-0.06643936
102	0xbdc68e41	-0.096951015
103	0xbe114fa5	-0.14190538
104	0x3ec10603	0.376999
105	0x3e2b4fa3	0.16729598
106	0xbddfff63	-0.10937383
107	0xbd3ae036	-0.04562398
108	0x3f1b1163	0.60573405
109	0x3f09cf96	0.53832376
110	0xbe045368	-0.12922442
111	0xbca1203e	-0.019668695
112	0x3e9874cc	0.2977661
113	0x3de3ef03	0.11129572
114	0xbdaf2358	-0.08551663
115	0xbe969ad3	-0.29414997
116	0x3e3167c3	0.17324738
117	0x3c5ba74a	0.013406584
118	0x3c80e9b8	0.015736446
119	0xbe16a120	-0.14709902
120	0x3e82b0fd	0.25525656
121	0x3e8bb1e5	0.2728416
122	0x3e0beef4	0.13665372
123	0xbe63d312	-0.22248486
124	0x3ef8269e	0.48466963
125	0x3e849749	0.2589667
126	0x3de555e3	0.11198022
127	0xbe94e389	-0.29079846
128	0x3ea1f1a6	0.31629676
129	0x3e1d99b2	0.15390661
130	0x3d9accc5	0.07558588
131	0xbd0e189a	-0.03469143
132	0x3e092515	0.13393052
133	0x3d01a5be	0.031652205
134	0x3e10fc6f	0.14158796
135	0x3cc1ef6a	0.023673732
136	0x3dbed58d	0.09318075
137	0x3de746f3	0.11292829
138	0xbde52085	-0.11187843
139	0xbe5801bd	-0.21094413
140	0x3e94a4d7	0.29032013
141	0x3c40f348	0.011776753
142	0xbd618948	-0.055062562
143	0xbe9afa6a	-0.30269176
144	0x3dadb08d	0.0848094
145	0xbe48f416	-0.19624361
146	0xbde7550f	-0.112955205
147	0xbed0418b	-0.40675005
148	0x3e43f6f9	0.19137181
149	0xbc487b2e	-0.0122364
150	0xbe63fe2a	-0.22264925
151	0xbeba8afe	-0.36434168
152	0x3ef59e3e	0.47972292
153	0xbd294e63	-0.04133452
154	0x3dc0a5bf	0.094066136
155	0xbe82485d	-0.25445834
156	0x3c09e62e	0.0084166955
157	0x3ee2d1a4	0.44300568
158	0x3e2770f2	0.16351679
159	0xbd91a3cc	-0.0711132
160	0xbd9a6350	-0.075384736
161	0xbe207bb0	-0.15672183
162	0xbdb25b39	-0.087088056
163	0xbe06b0c3	-0.13153367
164	0xbda4228c	-0.08014402
165	0xbd2c2c39	-0.04203436
166	0xbcd3498b	-0.025791904
167	0xbe03f3af	-0.12885927
168	0xbded701a	-0.11593647
169	0xbe5236ce	-0.20528719
170	0xbdab6c1a	-0.08370228
171	0xbb5dcdab	-0.0033844511
172	0xbe032f27	-0.12810956
173	0xbd19c3b3	-0.03754015
174	0xbd9e5798	-0.07731551
175	0x3d5aae89	0.053389106
176	0x3cf0b8fd	0.029385084
177	0x3db98f76	0.09060566
178	0xbe2c0ded	-0.16802187
179	0xbe8d4e31	-0.27598718
180	0x3e5b4245	0.21411999
181	0x3e3aa534	0.18227082
182	0x3d184da9	0.037183437
183	0x3d3ac85c	0.045601234
184	0x3ece65cd	0.40312043
185	0x3ca82bda	0.020528723
186	0xbe3a9f97	-0.18224941
187	0xbec626dc	-0.38701522
188	0x3ebd1461	0.3692961
189	0xbdb97c77	-0.09056943
190	0xbe6c4880	-0.23074532
191	0xbee20d1d	-0.4415063
192	0x3f0c1706	0.5472263
193	0x3e4da638	0.20082939
194	0xbbc91587	-0.0061365995
195	0xbc809d70	-0.015700072
196	0x3ee7f35f	0.45302865
197	0x3e55a8ed	0.20865221
198	0xbc960728	-0.01831396
199	0xbd5ca120	-0.0538646
200	0x3ee244d5	0.4419314
201	0x3e6655dc	0.2249369
202	0xbdb3cb70	-0.08779037
203	0xbe297835	-0.16549762
204	0x3f107a6a	0.5643679
205	0x3c9f2d43	0.019430762
206	0x3e44e070	0.19226241
207	0xbe60de11	-0.21959712
208	0x3e8dace8	0.2767098
209	0xbcd6878c	-0.02618768
210	0x3d5a10a0	0.05323851
211	0xbe00a1c1	-0.12561704
212	0x3e6e3a7c	0.23264498
213	0x3d778310	0.060427725
214	0x3df7d66a	0.12101443
215	0xbdde7743	-0.10862591
216	0x3ed4f83f	0.41595647
217	0x3e5a57dd	0.2132258
218	0x3e9cf0c3	0.30652437
219	0xbecc1c36	-0.39865273
220	0x3e490e84	0.19634444
221	0x3d5d82dd	0.05407988
222	0x3dc3e036	0.09564249
223	0xbeeb096c	-0.45905626
224	0x3d9f8825	0.077896394
225	0x3d22cdb0	0.03974694
226	0xbe315b75	-0.17320044
227	0xbe096733	-0.13418274
228	0x3d601ac1	0.054713015
229	0x3c8f9487	0.017526878
230	0xbd5cd894	-0.053917482
231	0x3d6b7353	0.05748303
232	0x3b5905c5	0.0033115011
233	0xbd2b6454	-0.041843727
234	0x3d971722	0.07377459
235	0xbaac7e98	-0.0013160286
236	0xbe133298	-0.14374769
237	0xbcae7d94	-0.021300115
238	0x3d1db111	0.03849894
239	0xbd76250a	-0.060093917
240	0x3d2431b5	0.040086467
241	0x3ce4757d	0.027888054
242	0xbdfef367	-0.12448769
243	0xbd05e110	-0.03268534
244	0xbe09df0a	-0.13463989
245	0xbd89459d	-0.06702731
246	0xbcd0c4cf	-0.02548447
247	0x3ad6d116	0.0016389217
248	0xbe14a032	-0.14514235
249	0xbe5d0415	-0.21583588
250	0xbdf9c033	-0.12194862
251	0xbe561eae	-0.20910141
252	0xbe0341f8	-0.12818134
253	0xbe8177d8	-0.25286746
254	0xbc853148	-0.01625885
255	0x3d43c2be	0.047793142

conv2.bias f4 [32]
0	0xbbbd03f1	-0.005768292
1	0xbdc11922	-0.09428622
2	0x3db6e325	0.08930043
3	0x3db297b0	0.08720338
4	0x3e16c2bd	0.14722724
5	0x3daab2a3	0.083348535
6	0x3d26d1e3	0.040727507
7	0xbbb475ea	-0.0055072205
8	0x3da3d7c6	0.0800014
9	0xbd80d676	-0.06290905
10	0xbac57b06	-0.0015066571
11	0x3d47df5d	0.048797
12	0x3e071a82	0.13193706
13	0xba57974e	-0.0008224145
14	0x3d9d18b9	0.07670731
15	0x3dbfacea	0.093591526
16	0x3d3ee7f2	0.04660792
17	0x3cb8fd95	0.022581855
18	0xbdb6b26f	-0.08920752
19	0xbd9eae81	-0.07748128
20	0x3deefef6	0.11669724
21	0x3e11975e	0.14217898
22	0x3d8c917a	0.06863685
23	0x3d1c5615	0.03816803
24	0xbccc8f26	-0.024970602
25	0x3d9ed2f7	0.07755082
26	0xbd86710f	-0.06564533
27	0x3cd770e0	0.02629894
28	0xbd9debeb	-0.077110134
29	0xbd0ed7de	-0.034873836
30	0x3dab83bc	0.08374736
31	0x3ca28bf9	0.019842135

fc1.weight f4 [64, 800]
0	0x3c4477d4	0.01199146
1	0xbcb89ed2	-0.022536669
2	0xbc9c71b1	-0.019097181
3	0xbd095b08	-0.03353408
4	0x3bbe1c0e	0.005801684
5	0xbcfdfde4	-0.031004854
6	0x3c9cb7b1	0.01913056
7	0xbce9b3ea	-0.028528173
8	0xbd1abbba	-0.037776686
9	0xbd602ebe	-0.054732077
10	0xbd0f8072	-0.035034604
11	0xbd14619c	-0.0362259
12	0x3bf78c00	0.007554531
13	0xbd287a79	-0.041132424
14	0xbd298c6b	-0.04139368
15	0xbc3deaaf	-0.011591597
16	0xbd51c9a5	-0.051217694
17	0xbaf6eb40	-0.001883842
18	0xbb3e3c2b	-0.0029027562
19	0xbcb0d8a5	-0.02158768
20	0xbc2e09bd	-0.010622439
21	0xbd1239ad	-0.035699535
22	0x3d04db4f	0.03243571
23	0xbc9469c4	-0.01811684
24	0xbc492a78	-0.012278192
25	0x3d090107	0.033448245
26	0x3c89ad4c	0.016806267
27	0xbcac2b54	-0.021016754
28	0xbd067576	-0.032826863
29	0xbb87a0d0	-0.0041390434
30	0xbd0ee475	-0.034885842
31	0xbcc887d7	-0.024478836
32	0xbbb2d30c	-0.0054572877
33	0x3af711c0	0.0018849894
34	0x3c9faece	0.019492533
35	0x3b9824b0	0.0046430454
36	0x3cc27328	0.023736551
37	0xbcd8f932	-0.026486013
38	0xbc6b88ec	-0.014375906
39	0x3c5f1600	0.013616085
40	0xbcd5c8a0	-0.026096642
41	0x3ce4496a	0.027867038
42	0x3c04ea1c	0.008112457
43	0x3b6990e0	0.003563933
44	0xbcefbfd6	-0.02926628
45	0xbca1a788	-0.019733205
46	0xbc410ebc	-0.011783298
47	0x3d094609	0.033514056
48	0xbc4bf12a	-0.012447635
49	0x3c0693c0	0.008213937
50	0xbd2aae01	-0.04166985
51	0xbd3ee0e4	-0.04660119
52	0xbc98a166	-0.018631648
53	0xbd638c19	-0.05555353
54	0xbc9a0d97	-0.018805308
55	0xbd41c49b	-0.04730664
56	0xbb43e9a4	-0.00298939
57	0x3b72ef5f	0.0037068946
58	0xbd2152cf	-0.039385613
59	0xbd3550b8	-0.044266433
60	0xba077c03	-0.00051683205
61	0xbb25e4e3	-0.002531343
62	0xbd560d11	-0.052258555
63	0xbb9185c2	-0.004440994
64	0xbd084c3e	-0.033275835
65	0xbcc87b7d	-0.024472946
66	0xbc605efd	-0.013694522
67	0xbbe32a4e	-0.0069325333
68	0x3bd83a1e	0.006598725
69	0x3bfa17c8	0.0076322295
70	0xbd3938f6	-0.045220338
71	0xbd55a64c	-0.052160546
72	0xbcb91cec	-0.022596799
73	0xbd3a474c	-0.04547815
74	0xbd009c02	-0.03139878
75	0xbd0171d1	-0.031602684
76	0xbc0dea52	-0.008661823
77	0xbd336aca	-0.043803014
78	0xbd69bbdb	-0.05706392
79	0xbc82f07a	-0.015983809
80	0x3c35fb96	0.011107346
81	0xbbd9162f	-0.006624959
82	0x3c0b74d7	0.0085117435
83	0xbc672e5d	-0.014110175
84	0xbd41a496	-0.047276102
85	0xbcb063f7	-0.021532042
86	0x3c816a0f	0.015797643
87	0xbd0acf24	-0.03388895
88	0xbca687eb	-0.020328483
89	0xbd6c22ab	-0.05765025
90	0x39e0aa82	0.00042851648
91	0xbd3fd2cc	-0.04683189
92	0xbcdfe238	-0.02732955
93	0x3c8916aa	0.01673444
94	0xbcde40ff	-0.027130602
95	0xbcaa5859	-0.02079408
96	0xbb003fa9	-0.0019569194
97	0xbc866772	-0.016406748
98	0xbd6bb057	-0.057541218
99	0x3b03d3a4	0.0020115161
100	0xbc9de4d8	-0.01927416
101	0xbd6b790a	-0.05748848
102	0xbc7b9213	-0.015354651
103	0xbcd39871	-0.025829526
104	0xbc40aeae	-0.011760397
105	0xbb4250c3	-0.0029650189
106	0xbcd41bc9	-0.025892155
107	0xbd32dfe3	-0.043670546
108	0xbc0164fc	-0.007897612
109	0xbd3044cc	-0.04303436
110	0xbd476f8b	-0.04869036
111	0xbd3fd041	-0.046829466
112	0xba82e0b0	-0.0009985175
113	0xbd3a50fb	-0.045487385
114	0xbd772f0e	-0.06034761
115	0xbcd2861f	-0.02569872
116	0xbd32993c	-0.043603167
117	0xbbd6aab7	-0.0065511125
118	0xbd4493d5	-0.047992546
119	0xbc4ba65e	-0.012429802
120	0xbc8107e6	-0.015750837
121	0xbc4922e3	-0.012276384
122	0xbd12f719	-0.035880182
123	0xbb969c9b	-0.0045963055
124	0xbc509650	-0.01273115
125	0xbd779add	-0.060450424
126	0xbc92a35b	-0.01790016
127	0xbcb64d2a	-0.022253592
128	0xbd618843	-0.05506159
129	0xbc3a38a0	-0.0113660395
130	0xba91b635	-0.0011116924
131	0xbd7e1e73	-0.062040757
132	0xbc91b22e	-0.017785158
133	0xbd409344	-0.047015443
134	0xbd38335d	-0.04497086
135	0xbccea610	-0.02522567
136	0xbd6cec58	-0.057842582
137	0xbba336b0	-0.0049808845
138	0xbcc6c9ac	-0.024266087
139	0xbc9fd808	-0.019512191
140	0x3b6b3ae2	0.0035893251
141	0xbd74164b	-0.059591573
142	0xbcf9a2d6	-0.030473154
143	0xbd2b99db	-0.041894775
144	0xbd082a6c	-0.03324358
145	0xbc3ca279	-0.011513346
146	0xbce1a5d4	-0.027544893
147	0xbc58cfe8	-0.013233162
148	0xbd643f73	-0.055724572
149	0xbca0de56	-0.019637268
150	0xbc975e49	-0.018477576
151	0xbb5bb769	-0.003352607
152	0xbd19a8d0	-0.037514508
153	0xbd08d68c	-0.033407733
154	0xbd28e1b5	-0.041230876
155	0x3aadd027	0.0013260887
156	0xbcd8423b	-0.026398769
157	0xbad0c452	-0.0015927649
158	0xba7d769b	-0.00096688577
159	0xbbb0ae70	-0.0053918883
160	0xbd4b6893	-0.049660277
161	0xbc7777aa	-0.015104214
162	0xbcd9548b	-0.026529571
163	0xbcd8a3ae	-0.026445236
164	0xbc75138e	-0.0149582755
165	0xbc5dd811	-0.013540284
166	0x3be30e60	0.006929204
167	0xbbdb364c	-0.0066898223
168	0xbb335c00	-0.0027368069
169	0xbb96353b	-0.0045839823
170	0x3c741c19	0.014899277
171	0xbd012759	-0.031531665
172	0xbbe0cd11	-0.0068603833
173	0xb90e9e00	-0.00013601035
174	0xbbd5299a	-0.0065052034
175	0x3bedc710	0.007256396
176	0x3c6b6c18	0.014369033
177	0x3bd6c840	0.0065546334
178	0xbd0fee54	-0.035139397
179	0x3d02f613	0.031972956
180	0x39a7a300	0.00031974167
181	0xbcb6566e	-0.02225801
182	0xbc952ffd	-0.01821136
183	0x3bad3ea0	0.0052870065
184	0x3c16ea90	0.0092111975
185	0xbce913b2	-0.028451774
186	0x3c804b9e	0.015661057
187	0xbcad0bcd	-0.021123791
188	0xbc1e0e50	-0.009646967
189	0xbb09e4b8	-0.0021040868
190	0xbcf6183b	-0.03004085
191	0xbcaed366	-0.021341037
192	0xbc359662	-0.011083217
193	0x3cd8eb72	0.026479457
194	0xbd6c8027	-0.057739403
195	0xbcc55a1a	-0.024090815
196	0xbc440a40	-0.011965334
197	0x3c5c54e4	0.013447974
198	0xbbefc2c8	-0.007316921
199	0xbcdf68d4	-0.027271666
200	0xbd47e503	-0.048802387
201	0xbc9f20d9	-0.019424843
202	0xbd4246d7	-0.04743084
203	0xbce845a6	-0.028353523
204	0xbc87d61a	-0.016581584
205	0x3bc19a29	0.00590827
206	0xbcd0cc45	-0.025488028
207	0xbd06b2b1	-0.032885257
208	0xbc9f98bc	-0.01948201
209	0xbbedb060	-0.0072536916
210	0xbd46ddd6	-0.048551403
211	0xbd4e75c0	-0.050405264
212	0xbb9c8702	-0.0047768364
213	0xbd467370	-0.048449934
214	0xbc9fb51a	-0.019495536
215	0xbc7784ce	-0.015107347
216	0xbd31ee4b	-0.043440145
217	0xbd440541	-0.047856573
218	0xbd2fce4c	-0.04292135
219	0xbc1e0d4a	-0.009646723
220	0xbc218db9	-0.0098604495
221	0xbcb04d3c	-0.021521203
222	0xbc8bff32	-0.01708946
223	0xbb80473b	-0.0039147413
224	0xbd2dac1a	-0.042400457
225	0xbc264aec	-0.010149699
226	0xbd321835	-0.043480117
227	0xbc7d50b2	-0.015461134
228	0x3c88a11a	0.016678382
229	0x3ce8fd82	0.028441194
230	0xbd033608	-0.03203395
231	0x3ce9deea	0.028548677
232	0x3c1ab286	0.009441977
233	0x3c878674	0.016543604
234	0xbcee01a2	-0.029053513
235	0x3cbe031c	0.023194842
236	0x3ceeb436	0.029138666
237	0x3bb78de0	0.0056016296
238	0xbcdf4c61	-0.0272581
239	0x3b4147d0	0.0029492266
240	0xbcf4e472	-0.029894087
241	0xbc42199e	-0.011846928
242	0x3cdd4626	0.027010988
243	0x3ca5f4ba	0.020258296
244	0xbcd8076f	-0.026370732
245	0x3d024731	0.031806175
246	0xbc894d21	-0.01676041
247	0xbd10b34a	-0.035327233
248	0xbca9c216	-0.02072243
249	0xbba13d24	-0.0049206186
250	0xbd2d488e	-0.04230552
251	0xbd10f694	-0.035391405
252	0xbd29bf90	-0.041442454
253	0xbd220add	-0.03956114
254	0x3b9c9a85	0.0047791624
255	0xbd00a4cc	-0.031407163

fc1.bias f4 [64]
0	0xbcbde8fb	-0.023182383
1	0xbd03ba61	-0.032160167
2	0x3c2c91fd	0.010532853
3	0xbc78b140	-0.015178978
4	0x3d1bf907	0.038079288
5	0x3d4296c5	0.047507066
6	0x3d0cd42a	0.034382023
7	0xbd05be0b	-0.032651942
8	0xbd19f759	-0.037589405
9	0xbd4a3ae9	-0.049372587
10	0xbd0f5058	-0.03498873
11	0x3d13ce0c	0.036085173
12	0xbb1aaa4f	-0.0023600047
13	0xbd059a39	-0.03261778
14	0x3c9966f4	0.01872585
15	0xbd0d927e	-0.034563534
16	0xbce9b449	-0.02852835
17	0xbd178172	-0.036988683
18	0xbd3a6a82	-0.04551173
19	0xbcb90f13	-0.022590196
20	0xbd429d29	-0.04751316
21	0xbd10b9ba	-0.035333373
22	0xbd04b415	-0.032398302
23	0xbd7b456b	-0.0613455
24	0xbd515ee2	-0.051115878
25	0xbbdfd494	-0.006830761
26	0x3d2160ec	0.039399073
27	0xbbd06160	-0.0063592643
28	0xbb90366a	-0.004401018
29	0xbd03a98b	-0.03214411
30	0xbd143f13	-0.036192965
31	0x3da6e89f	0.08149838
32	0xbd6deccc	-0.058087155
33	0xbc9b0d6b	-0.018927297
34	0xbc8fdbf6	-0.01756094
35	0xbd8d17b4	-0.06889287
36	0x3db4b8ff	0.08824348
37	0x3db00e06	0.08596425
38	0xba8eeeec	-0.0010904945
39	0xbd515205	-0.05110361
40	0xbd18f59e	-0.037343614
41	0xbd8f36d3	-0.06992879
42	0x3b7d978a	0.003869506
43	0x3ca9b3b5	0.020715574
44	0x3cf20f95	0.029548446
45	0x3d67b2bc	0.05656694
46	0xbd80ab29	-0.06282646
47	0x3d1ecf99	0.0387722
48	0x3c84ae89	0.016196506
49	0xbd93b5a4	-0.072123796
50	0xbd07a0cd	-0.033112336
51	0xbc9f63ba	-0.019456733
52	0xbd50e181	-0.050996307
53	0xbbd361dc	-0.0064508747
54	0x3cf55472	0.029947493
55	0x3d67199f	0.05642092
56	0x3dac21cc	0.08404884
57	0x3da461fd	0.08026502
58	0x3e1e1522	0.15437749
59	0xbcc05171	-0.023476334
60	0xbd8f51ba	-0.0699801
61	0xbd84c3f1	-0.06482685
62	0xbba35e92	-0.004985639
63	0x3ccb9075	0.024849156

fc4.weight f4 [8, 64]
0	0xbd3bfb60	-0.045894027
1	0xbda33e4e	-0.07970868
2	0x3d4be6b9	0.04978058
3	0x3ce2e2b8	0.027695999
4	0xbea0d89a	-0.31415254
5	0xbd71b1ed	-0.059007574
6	0x3e3b1e58	0.18273294
7	0x3ddd232c	0.10797724
8	0xbbe10712	-0.006867298
9	0xbc8c92db	-0.01715987
10	0xbdbc506d	-0.091950275
11	0xbd8669ba	-0.065631345
12	0x3d634395	0.055484373
13	0x3e4e3288	0.20136464
14	0x3cc7c577	0.02438615
15	0x3cb263b5	0.02177606
16	0xbcd17992	-0.025570665
17	0xbd84eb65	-0.064902104
18	0x3ce5c33c	0.028047197
19	0x3c5bedb9	0.013423377
20	0xbd850084	-0.06494239
21	0x3e0650d7	0.13116775
22	0xbace3d00	-0.0015734732
23	0xbdbde110	-0.09271443
24	0xbd23a8b4	-0.03995581
25	0x3c95c4a3	0.01828224
26	0x3e9166d2	0.28398758
27	0x3e7babd9	0.24577273
28	0x3e48cc23	0.19609122
29	0x3d512bf4	0.051067308
30	0xbda5df54	-0.08099237
31	0x3ddcb7d2	0.107772484
32	0xbd4afd3c	-0.04955791
33	0x3cc52392	0.024064813
34	0x3df98f82	0.12185575
35	0x3e851fc6	0.26000804
36	0xbeb7b9fa	-0.35884076
37	0xbedafbe7	-0.4277031
38	0xbd9b00ba	-0.07568498
39	0xbbccfc1d	-0.00625564
40	0x3dc4a67b	0.09602066
41	0xbd389f49	-0.04507378
42	0x3de59c94	0.112115055
43	0xbe73e1e0	-0.23816633
44	0xbdd5353d	-0.10410545
45	0x3c85a77a	0.01631521
46	0x3dcb8233	0.09936943
47	0x3e7d0c88	0.24711812
48	0x3d71d553	0.059041332
49	0xbc3a24b1	-0.011361287
50	0x3def97d0	0.11698878
51	0xbd62478c	-0.055244014
52	0x3e09b64c	0.13448447
53	0x3d97eecc	0.07418594
54	0xbe6f2641	-0.23354436
55	0x3e1959a1	0.14975597
56	0xbe4c0398	-0.19923246
57	0xbdcb5658	-0.09928578
58	0xbc1a97a0	-0.009435564
59	0xbd8e9b0c	-0.069631666
60	0xbdaf7166	-0.08566551
61	0xbd7c8d9c	-0.061658487
62	0x3d72d572	0.05928559
63	0xbc6a37ad	-0.014295501
64	0xbd62a38c	-0.05533175
65	0xbd7b67b6	-0.061378203
66	0x3de1e642	0.11030246
67	0xbcbc12a6	-0.022958111
68	0xbd8669f7	-0.0656318
69	0xbcd212a6	-0.025643658
70	0xbea9355b	-0.3304852
71	0xbc7e1b42	-0.015509428
72	0x3d1ffd7b	0.039060097
73	0xbd8b8a44	-0.068134815
74	0x3d42b365	0.047534365
75	0xbea382c7	-0.31935713
76	0x3dc52d26	0.09627752
77	0x3e541e41	0.20714666
78	0x3ac0406d	0.0014667638
79	0xbd88606c	-0.06659016
80	0xbd63a891	-0.05558068
81	0xbcb59f79	-0.022170769
82	0xbd3693aa	-0.044574417
83	0x3db39535	0.08768693
84	0xbe036aed	-0.12833758
85	0x3d66dc60	0.05636251
86	0xbdeee774	-0.1166524
87	0x3deee940	0.11665583
88	0xbca875f6	-0.02056406
89	0x3dbaa473	0.091133974
90	0x3e5198ea	0.20468488
91	0xbd6b79ce	-0.05748921
92	0x3e7258c5	0.23666675
93	0xbd80dbda	-0.06291933
94	0xbd8488ea	-0.06471427
95	0xbeb68bf1	-0.35653642
96	0xbcaf4418	-0.021394774
97	0x3d92ad21	0.07161928
98	0xbce7ef63	-0.02831239
99	0x3e6c99f4	0.23105603
100	0x3e6a892f	0.22903894
101	0xbcd9e7b7	-0.026599748
102	0x3c0666a5	0.008203183
103	0x39b4e6a9	0.0003450413
104	0xbd34948c	-0.044086978
105	0x3db947bb	0.090468846
106	0x3c15a991	0.009134666
107	0xbe4b90c4	-0.19879442
108	0x3e0d32b1	0.13788868
109	0xbe69c1f0	-0.22827888
110	0xbc06411a	-0.008194232
111	0x3e3aad58	0.18230188
112	0xbd6dbfe0	-0.058044314
113	0xbd96c685	-0.07362083
114	0x3d199262	0.037493117
115	0xbd089832	-0.03334827
116	0xbc3b8d7b	-0.011447306
117	0x3d1eb57d	0.0387473
118	0xbe312e16	-0.17302737
119	0x3de9273d	0.11384437
120	0xbd38e4a1	-0.045139913
121	0xbeb47621	-0.35246375
122	0x3da426f0	0.08015239
123	0x3dc86470	0.09784782
124	0x3ab54623	0.0013830106
125	0x3da7f67c	0.0820131
126	0xbda50db2	-0.08059253
127	0xbcbfedc7	-0.02342881
128	0xbb8a6fb7	-0.004224743
129	0x3bcd6f3d	0.006269364
130	0x3d15cf47	0.03657463
131	0x3dea7adc	0.11449215
132	0x3e874411	0.26419118
133	0x3e04ab05	0.12955864
134	0x3bc9822e	0.006149552
135	0xbe0465f6	-0.1292952
136	0x3c01257e	0.007882474
137	0x3dbf699e	0.09346317
138	0x3d8c1d07	0.06841474
139	0x3e690dda	0.2275919
140	0x3e8afca1	0.27145866
141	0xbc4f26ac	-0.012643497
142	0xbe521c0b	-0.2051851
143	0x3cdd4e90	0.027015
144	0x3d5be464	0.053684607
145	0xbd8dedda	-0.06930132
146	0xba86a2c4	-0.0010271897
147	0xbe06614e	-0.13123056
148	0xbe02327a	-0.12714568
149	0xbd26e142	-0.040742166
150	0x3d0e99f9	0.03481481
151	0xbcbe8891	-0.02325848
152	0x3dcda2b0	0.10040796
153	0xbc2908cd	-0.01031704
154	0x3a58d956	0.00082721317
155	0xbe025b4e	-0.12730142
156	0x3e4b8ae7	0.19877206
157	0x3d8e422a	0.069462135
158	0xbd557f70	-0.052123487
159	0x3eb992be	0.36244768
160	0x3ca88fa2	0.020576302
161	0xbd0a7db9	-0.033811305
162	0x3d7d65f0	0.061864793
163	0x3e679692	0.22616032
164	0xbd88539b	-0.066565715
165	0xbad9a200	-0.0016604066
166	0x3d323bc0	0.043514013
167	0xbd360922	-0.044442303
168	0x3c57f5f0	0.013181195
169	0x3d8057ca	0.062667444
170	0xbcd9f1a2	-0.026604477
171	0x3dd6f9eb	0.10496887
172	0x3e0d6868	0.13809359
173	0xbea74576	-0.32670182
174	0xbd65c746	-0.056098245
175	0x3e00daa2	0.12583402
176	0x3e3bd158	0.18341577
177	0xbdc5d937	-0.09660571
178	0xbb413ddc	-0.0029486334
179	0x3cf805ba	0.030276168
180	0x3a19b33c	0.0005863195
181	0xbb60d1b3	-0.0034304678
182	0x3dba297d	0.090899445
183	0xba498c96	-0.00076884904
184	0xbed5ba3e	-0.41743654
185	0xbc8c6017	-0.017135663
186	0xbe658436	-0.22413716
187	0xbbd0142f	-0.0063500623
188	0x3c8dd130	0.017311662
189	0x3dd8af74	0.1058034
190	0xbda0d65e	-0.07853387
191	0xbd9d1b98	-0.07671279
192	0xbdee3672	-0.11631478
193	0x3cefb5a7	0.029261423
194	0x3dcd8861	0.10035778
195	0x3e817e40	0.25291634
196	0x3e2afffd	0.16699214
197	0x3e2e6e70	0.17034316
198	0xbe80340f	-0.25039718
199	0x3d44195a	0.04787574
200	0xbd19efa5	-0.03758206
201	0x3d1c9b3b	0.038233977
202	0x3d2e2088	0.042511493
203	0x3e67e4c4	0.22645861
204	0x3da1bc8a	0.07897289
205	0x3ddc3519	0.10752315
206	0xbe405869	-0.18783726
207	0x3db90ae3	0.090352796
208	0xbdc1ca36	-0.09462397
209	0xbcdefb21	-0.027219357
210	0x3ddb3867	0.10704117
211	0xbd886b61	-0.06661106
212	0xbdff5b4e	-0.12468587
213	0xbcea39ef	-0.028592078
214	0xbd67e96c	-0.056619093
215	0x3dab8346	0.08374648
216	0x3d748be4	0.059703723
217	0xbe02c171	-0.12769105
218	0x3ea02bdf	0.3128347
219	0xbddd5e6b	-0.108090244
220	0x3dea0f4d	0.114287
221	0x3ca58fb0	0.020210117
222	0xbd497af0	-0.049189508
223	0xbe2447e0	-0.16043043
224	0xbdb6df3f	-0.089292996
225	0xbe04f46d	-0.12983866
226	0x3e096363	0.1341682
227	0x3e7159b9	0.23569383
228	0xb9acdace	-0.0003296942
229	0xbdad2d64	-0.08455923
230	0x3d6cb13d	0.057786215
231	0x3c7f8dcb	0.015597771
232	0x3ddd3c0c	0.10802469
233	0x3e09c19e	0.13452765
234	0xbee7847f	-0.45218274
235	0xbe086c0b	-0.13322465
236	0x3db8cc7c	0.09023377
237	0xbdceb78e	-0.10093604
238	0xbd56e777	-0.052466836
239	0x3e44f35d	0.1923346
240	0xbe340583	-0.17580228
241	0xbd1e7c59	-0.038692806
242	0x3cec5d60	0.028853118
243	0x3db7919b	0.08963319
244	0xbd3aaddc	-0.04557596
245	0x3d7c293a	0.061562754
246	0xbed28063	-0.41113576
247	0xbd99a17f	-0.07501506
248	0x3e45e26d	0.19324656
249	0xbe87fa4d	-0.26558152
250	0xbdc8b273	-0.097996615
251	0x3c98b492	0.01864079
252	0x3dc5dd04	0.09661296
253	0xbd36f8e4	-0.044670954
254	0xbd31ae5a	-0.043379165
255	0x3d09969f	0.03359091

fc4.bias f4 [8]
0	0xbf051577	-0.5198588
1	0xbe351aeb	-0.1768605
2	0x3d938c52	0.07204498
3	0x3ebb0d60	0.36533642
4	0xbe8e0580	-0.2773857
5	0x3dc8f6cd	0.098126985
6	0xbf25521b	-0.6457841
7	0xbc63f502	-0.013913395

conv1.weight f4 [16, 2, 4, 4]
0	0xbcbad689	-0.022807376
1	0xbd08141e	-0.03322231
2	0xbe4b09be	-0.19827935
3	0xbeef82f6	-0.46779603
4	0xbe5d68a3	-0.21621947
5	0xbe45e4a6	-0.19325504
6	0xbdcfbc82	-0.10143377
7	0xbe58877b	-0.21145432
8	0x3e6aa696	0.2291511
9	0xbe196973	-0.14981632
10	0xbf2ac59e	-0.6670779
11	0xbf345478	-0.7044139
12	0x3e0b9e30	0.13634562
13	0xbe01f6a7	-0.12691747
14	0xbef663a8	-0.48122907
15	0xbf27c3a0	-0.65532875
16	0xbe2f081a	-0.17092934
17	0xbc160c4d	-0.009158206
18	0x3e096987	0.13419162
19	0x3e614a18	0.22000921
20	0x3e825521	0.25455573
21	0x3dcb6fe9	0.099334545
22	0xbd093bf4	-0.03350444
23	0x3dcf23a7	0.10114222
24	0x3d272632	0.04080791
25	0x3d055408	0.03255084
26	0x3e8e9634	0.2784897
27	0x3d5859fd	0.052820195
28	0x3e1727af	0.14761232
29	0x3e3efae9	0.18650402
30	0x386e37c2	5.679555e-05
31	0x3e077711	0.13229014
32	0x3fb66be9	1.4251682
33	0x3fbb07b3	1.4611725
34	0x3eaaf429	0.33389404
35	0x3ef401b4	0.4765755
36	0x3dbfe3f8	0.093696535
37	0xbeba2b47	-0.36361143
38	0xbd987cba	-0.07445665
39	0xbebd00f3	-0.36914787
40	0xbe282847	-0.16421615
41	0xbe404c6d	-0.18779154
42	0xbe562962	-0.20914224
43	0xbf0d5e3d	-0.5522192
44	0xbecac77e	-0.39605325
45	0xbe2c97a6	-0.16854724
46	0xbec120ac	-0.3772024
47	0xbeb645dc	-0.35600173
48	0xbe747ea9	-0.23876442
49	0xbdd48d5b	-0.10378524
50	0xbd40c06f	-0.04705852
51	0x3be3e54a	0.0069548236
52	0xbe04b40f	-0.12959312
53	0xbd857779	-0.06516928
54	0xbc7f4991	-0.015581504
55	0x3e8aa472	0.27078587
56	0x3dcb1e80	0.09917927
57	0xbeb098c9	-0.34491566
58	0x3d6d6d3f	0.057965513
59	0xbe05efd7	-0.13079773
60	0x3d7f2a70	0.06229633
61	0xbe284cec	-0.16435593
62	0x3da73612	0.0816461
63	0xbd07f0b0	-0.03318852
64	0xbe5df2c1	-0.21674635
65	0xbe4f7ec6	-0.20263204
66	0xbf1a6200	-0.60305786
67	0xbf12d8fe	-0.57362354
68	0xbd995d76	-0.074885294
69	0xbc990a8a	-0.018681783
70	0xbea3274e	-0.31865925
71	0xbd2ef86b	-0.04271738
72	0xbe67c515	-0.22633775
73	0x3cdcb758	0.026942894
74	0xbf16dcc8	-0.58930635
75	0xbf178025	-0.5917991
76	0xbec9cf05	-0.39415756
77	0xbead81f9	-0.33888224
78	0xbeff25e6	-0.49833602
79	0xbf1027fe	-0.56311023
80	0xbd37b8a8	-0.044853836
81	0xbe59d799	-0.2127365
82	0xbe1a1046	-0.1504527
83	0x3e2a2c79	0.16618527
84	0x3d95a1b3	0.07306232
85	0x3e44b024	0.19207817
86	0x3b7e9444	0.0038845697
87	0x3d9c5065	0.076325215
88	0x3e63689c	0.22207874
89	0xbdc0c120	-0.09411836
90	0x3b313b23	0.0027043305
91	0x3da3b5c4	0.079936534
92	0x3dbfa1a2	0.09357001
93	0x3dfdcfc6	0.12393145
94	0xbe6e6428	-0.23280394
95	0x3e103d67	0.14085923
96	0xbe80337e	-0.25039285
97	0xbeb9c4e8	-0.3628304
98	0xbed2f670	-0.41203642
99	0xbee48410	-0.44632006
100	0xbed715c3	-0.4200879
101	0x3de822f9	0.113347955
102	0xbc8b5246	-0.017007004
103	0xbe246e1e	-0.16057631
104	0x3d8478d9	0.06468362
105	0xbeddcece	-0.43321842
106	0xbf2fe397	-0.6870665
107	0xbed451e6	-0.41468734
108	0xbe368fab	-0.17828242
109	0xbed51f81	-0.41625598
110	0xbf20d3fb	-0.62823457
111	0xbd732328	-0.0593597
112	0xbe78387d	-0.24240299
113	0xbe18033d	-0.14844985
114	0x3ccae0ae	0.024765339
115	0x3e724b71	0.23661591
116	0x3e108079	0.14111508
117	0x3e3722de	0.17884395
118	0x3c010593	0.007874864
119	0xbdd76d7e	-0.10518931
120	0x3d2bcae5	0.041941542
121	0x3d350914	0.04419811
122	0x3e1feb06	0.15616998
123	0xbe3d40e2	-0.18481782
124	0x3e0ff0ea	0.14056745
125	0x3e162ffd	0.14666744
126	0x3d7ee718	0.062232107
127	0x3c8c8b83	0.017156368
128	0x3eeb88dd	0.46002856
129	0xbe8581e7	-0.2607567
130	0x3e0be07e	0.13659856
131	0x3fc9251f	1.5714453
132	0xbe0ac54c	-0.13551825
133	0xbe03c4e0	-0.1286807
134	0xbf19f051	-0.6013232
135	0x3f9cda6a	1.2254155
136	0x3eedfaa4	0.46480286
137	0x3f94c493	1.162249
138	0x3c62fc40	0.013854086
139	0x3e80e7ba	0.25176793
140	0x3f87a912	1.0598471
141	0x3bc506ce	0.006012774
142	0xbcd751ae	-0.026284065
143	0x3dce6f6f	0.10079848
144	0xbe6111a4	-0.21979386
145	0xbd9099cf	-0.07060587
146	0xbe18d15b	-0.14923613
147	0x3d76b7ea	0.060233988
148	0x3cb231e4	0.021752305
149	0x3e270dfa	0.16313925
150	0xbe654e49	-0.22393145
151	0xbdf59636	-0.11991541
152	0x3ca775cf	0.020441918
153	0x3e04e78e	0.12978956
154	0x3d685c0d	0.05672841
155	0xbe20f72f	-0.15719293
156	0x3d5ac888	0.053413898
157	0xbe3fb1b1	-0.18720128
158	0xbed8aa09	-0.42317227
159	0xbe8ea33b	-0.2785891
160	0xbeb8e48a	-0.3611186
161	0xbe5e8099	-0.21728744
162	0xbedf911e	-0.43665403
163	0xbec50020	-0.38476658
164	0xbe67081f	-0.22561692
165	0xbed1feea	-0.41014796
166	0x3d4f5339	0.050616477
167	0xbdc605c6	-0.0966907
168	0xbeca3860	-0.39496136
169	0xbdecaa9b	-0.11555978
170	0xbe13b250	-0.1442349
171	0xbec12034	-0.37719882
172	0xbec6e043	-0.38842973
173	0xbebe12a0	-0.37123585
174	0xbf06ec42	-0.5270425
175	0xbe4e24bd	-0.20131202
176	0xbbce1b08	-0.0062898435
177	0xbdb2127d	-0.086949326
178	0xbd71d6fe	-0.059042923
179	0x3e03bd9a	0.12865296
180	0xbd823859	-0.06358404
181	0x3d07ffce	0.03320294
182	0x3dd88d05	0.10573772
183	0xbe25b576	-0.16182503
184	0x3db29c40	0.087212086
185	0xbafebfa4	-0.0019435775
186	0xbdb5ed7c	-0.08883187
187	0xbd01f2ce	-0.031725697
188	0xbc6f15a9	-0.0145925665
189	0xbdeaf2e4	-0.11472109
190	0x3e2768b7	0.1634854
191	0x3d64629b	0.0557581
192	0xbf4d0974	-0.8009255
193	0x3e80dd67	0.25168917
194	0x3f300149	0.6875196
195	0x3f594fa7	0.84887165
196	0x3f690872	0.9102851
197	0x3edce990	0.43146944
198	0x3ed2a961	0.4114485
199	0x3f3ec624	0.7452109
200	0x3ddbed6e	0.107386455
201	0x3f3bd376	0.7336954
202	0x3e8d061e	0.2754373
203	0x3fa3cc9f	1.279682
204	0x3ec5b430	0.38614035
205	0x3f833a0c	1.025209
206	0x3f3d77bd	0.7401083
207	0x3f994d69	1.1976749
208	0xbca630cb	-0.020286938
209	0xbd6d0d95	-0.05787428
210	0x3d8209c8	0.06349522
211	0x3d31339e	0.043262117
212	0x3dc609c2	0.0966983
213	0xba4811d7	-0.0007632053
214	0xbc9fddb8	-0.019514903
215	0xbd5b7744	-0.053580537
216	0x3d87d42f	0.06632268
217	0x3c1c2608	0.009530552
218	0xbe3d2500	-0.18471146
219	0x3c411e50	0.011787012
220	0x3ddf257f	0.10895824
221	0xbd901d84	-0.0703688
222	0x3ca87489	0.02056338
223	0xbdae6c1a	-0.085167125
224	0x3f0ffa92	0.56241715
225	0x3edcbb1d	0.43111506
226	0x3e2b1319	0.16706504
227	0x3f9155d9	1.1354324
228	0x3f173a22	0.5907308
229	0x3e9349db	0.28767285
230	0x3f0d8495	0.5528043
231	0x3f1b7885	0.60730773
232	0x3f2b4ee8	0.66917276
233	0x3e676445	0.22596844
234	0x3e844887	0.25836584
235	0x3f458635	0.7715791
236	0x3eff09bd	0.49812117
237	0x3fa3859d	1.277515
238	0x3f6de809	0.9293218
239	0x3f18d869	0.59705216
240	0x3db900d4	0.09033361
241	0xbd4a7516	-0.049428068
242	0xbbbf6262	-0.0058405856
243	0xbcd76479	-0.026293026
244	0xbe179ace	-0.14805147
245	0xbe489454	-0.19587833
246	0x3cfccd89	0.030859726
247	0xbdfdc7be	-0.123916134
248	0xbdf5e575	-0.12006656
249	0x3e205401	0.15657045
250	0xbb91c506	-0.004448536
251	0x3c16d8e1	0.009206981
252	0xbe53d265	-0.20685728
253	0x3d396603	0.0452633
254	0xbda417d2	-0.08012356
255	0x3d92f079	0.07174773

conv1.bias f4 [16]
0	0xbd072e15	-0.03300293
1	0x3cfe090d	0.031010175
2	0x3dbd7c1e	0.09252189
3	0x3dcee07a	0.10101409
4	0xbcef439e	-0.029207047
5	0x3e33197e	0.17490193
6	0xbd9304e3	-0.071786664
7	0x3daca2bf	0.08429479
8	0x3d8482ee	0.06470285
9	0xbd0bf5aa	-0.03416983
10	0x3e028836	0.12747273
11	0x3ce541f3	0.027985549
12	0x3d5b6e90	0.053572237
13	0x3cdb39db	0.026760986
14	0x3d129a5e	0.035791747
15	0x3d5e926b	0.054338854

conv2.weight f4 [32, 16, 4, 4]
0	0xbd226146	-0.03964355
1	0xbdcab58f	-0.09897911
2	0xbd129b92	-0.035792895
3	0xbdc04c48	-0.093895495
4	0xbd55a49e	-0.052158944
5	0xbd8ccf52	-0.06875481
6	0xbda7303a	-0.08163495
7	0xbd76751f	-0.06017029
8	0xbd5e82d3	-0.054323982
9	0xbd2654aa	-0.040608086
10	0x3c71b40a	0.014752397
11	0xbe7b5a19	-0.24546088
12	0xbda60394	-0.08106151
13	0x3e02d304	0.12775809
14	0x3d3afdea	0.045652308
15	0xbe62e29b	-0.22156756
16	0x3b12633f	0.0022336987
17	0xbc8801b0	-0.016602367
18	0x3dbbca99	0.09169502
19	0x3e785b77	0.24253641
20	0x3e6bfd67	0.23045884
21	0x3e3c47fb	0.18386833
22	0x3d9a8dd9	0.075465865
23	0xbe4e185f	-0.20126484
24	0x3e722767	0.23647843
25	0xbe295744	-0.16537195
26	0xbe0a3067	-0.13495027
27	0xbe9dff3c	-0.3085879
28	0x3dd1d927	0.10246497
29	0x3df7c562	0.12098195
30	0xbe5d52e6	-0.21613654
31	0x3d741a5c	0.05959545
32	0xbdb14225	-0.08655194
33	0xbdf3b59f	-0.11899876
34	0xbdfd2b8b	-0.12361821
35	0xbd8e05d4	-0.069347054
36	0xbd18d04a	-0.037308015
37	0xbdfdebac	-0.123984665
38	0xbe5c8572	-0.2153528
39	0xbc41d3c7	-0.011830277
40	0xbe390b44	-0.18070704
41	0xbe17ccef	-0.1482427
42	0xbdd8e293	-0.105900906
43	0xbd4573b9	-0.048206065
44	0xbdb71dc9	-0.08941228
45	0xbdef7b4f	-0.11693441
46	0xbdf0bf20	-0.11755204
47	0xbd89a7ba	-0.067214444
48	0xbc94fb8d	-0.018186355
49	0xbe011a2c	-0.1260764
50	0xbe020935	-0.12698825
51	0xbe4f70ce	-0.20257875
52	0xbdeb2a5c	-0.11482689
53	0xbdc35de7	-0.09539395
54	0xbc88fe6b	-0.016722878
55	0xbcd9c239	-0.02658187
56	0xbd88b207	-0.06674581
57	0xbdbcb49a	-0.092141345
58	0xbe06b53c	-0.13155073
59	0x3ca5abf8	0.020223603
60	0xbd87505a	-0.06607123
61	0xbd369ee3	-0.04458512
62	0xbd8a7af3	-0.06761732
63	0x3d565101	0.052323345
64	0x3e662d9f	0.2247834
65	0x3f013afa	0.50480616
66	0x3d3869dc	0.04502283
67	0xbf1c1e16	-0.6098341
68	0x3e0c8e14	0.13726074
69	0x3edd4d91	0.4322324
70	0xbd19ed73	-0.037579965
71	0xbedf13d7	-0.43569824
72	0x3f07e3f3	0.530822
73	0x3eb1f281	0.34755328
74	0xbe2b8925	-0.16751535
75	0xbd9bc547	-0.07605987
76	0x3eb42b75	0.35189405
77	0x3ea9958a	0.33121902
78	0x3d66d04f	0.056351002
79	0x3ed005d6	0.40629452
80	0xbde3aeba	-0.11117311
81	0xbd99ef8e	-0.075163946
82	0xbdb5629e	-0.088567
83	0x3d9994da	0.07499094
84	0xbd789e75	-0.06069799
85	0xbdab3775	-0.08360187
86	0xbd2a4250	-0.041567147
87	0xbdacfe4c	-0.08446941
88	0xbe2b6fb6	-0.16741833
89	0xbde78513	-0.11304679
90	0xbc66bf3f	-0.014083683
91	0xbc16f650	-0.009213999
92	0xbe69445a	-0.2277998
93	0xbe5b8c08	-0.21440136
94	0xbd86da94	-0.06584659
95	0x3d05318f	0.032517966
96	0x3e80c556	0.25150555
97	0x3db05241	0.08609439
98	0x3d24f5fe	0.04027366
99	0xbe1bd467	-0.15217744
100	0x3eb6e17b	0.35718903
101	0xbd813a36	-0.06309931
102	0xbdbb3700	-0.0914135
103	0xbe0fa418	-0.1402744
104	0x3ec128cc	0.37726438
105	0x3e2d609e	0.16931388
106	0xbdd6e0c2	-0.10492088
107	0xbd2b6ec8	-0.041853696
108	0x3f1b04a2	0.60553944
109	0x3f0a02e1	0.5391064
110	0xbe03d3ea	-0.12873808
111	0xbc923394	-0.01784686
112	0x3e97724c	0.2957939
113	0x3de7f346	0.113256976
114	0xbdacc9de	-0.084369406
115	0xbe95d97f	-0.292675
116	0x3e2fd755	0.17171986
117	0x3c61088f	0.013734951
118	0x3c94b09d	0.018150622
119	0xbe127b5d	-0.14304872
120	0x3e81dea6	0.2536518
121	0x3e8b6aae	0.27229828
122	0x3e0d35f2	0.1379011
123	0xbe62babc	-0.22141546
124	0x3ef7f514	0.48429167
125	0x3e842475	0.25809065
126	0x3de84713	0.11341681
127	0xbe955062	-0.2916289
128	0x3ea04eb5	0.3131005
129	0x3e1afbde	0.15135142
130	0x3d9854ed	0.07438073
131	0xbd0eae89	-0.03483442
132	0x3e06a452	0.1314862
133	0x3ceb8b76	0.028753024
134	0x3e129084	0.14312941
135	0x3cd54c82	0.026037458
136	0x3db3c59e	0.08777927
137	0x3ddd25eb	0.10798248
138	0xbdded694	-0.10880771
139	0xbe54c5cd	-0.2077858
140	0x3e92c182	0.2866326
141	0x3c07937a	0.008274907
142	0xbd53a538	-0.051671237
143	0xbe9b2b43	-0.30306444
144	0x3dad8bca	0.08473928
145	0xbe4e1257	-0.20124184
146	0xbdf37dc8	-0.11889225
147	0xbed03f46	-0.40673274
148	0x3e46b92e	0.19406578
149	0xbc1dc642	-0.009629788
150	0xbe6456e5	-0.22298773
151	0xbebc05b5	-0.36723104
152	0x3ef6702c	0.48132455
153	0xbd1e9e41	-0.03872514
154	0x3dd32763	0.10310247
155	0xbe816a7f	-0.25276563
156	0x3b811c96	0.0039401753
157	0x3ee22b2b	0.4417356
158	0x3e2b396c	0.16721123
159	0xbd8882af	-0.06665551
160	0xbd9c051a	-0.076181605
161	0xbe21a7ae	-0.15786621
162	0xbdb63296	-0.08896367
163	0xbe083716	-0.13302264
164	0xbda59baf	-0.08086335
165	0xbd2e75eb	-0.042592924
166	0xbce2b167	-0.027672483
167	0xbe05f5a7	-0.1308199
168	0xbdf18f50	-0.11794913
169	0xbe539caa	-0.20665231
170	0xbdb197ce	-0.086715326
171	0xbbc2ad34	-0.0059410576
172	0xbe045fb1	-0.12927128
173	0xbd22dc82	-0.039761074
174	0xbda4bd0b	-0.080438696
175	0x3d508cc6	0.050915502
176	0x3cf61e4a	0.03004374
177	0x3dbfc950	0.09364569
178	0xbe2ba356	-0.16761526
179	0xbe8d26c4	-0.27568638
180	0x3e5d66f2	0.21621302
181	0x3e3d9c4a	0.18516651
182	0x3d16ff29	0.036864433
183	0x3d3c2ef4	0.045943215
184	0x3eceb335	0.403711
185	0x3ca6a625	0.020342896
186	0xbe39f181	-0.18158533
187	0xbec598ec	-0.38593233
188	0x3ebcde43	0.36888322
189	0xbdc278ab	-0.09495672
190	0xbe6a2f36	-0.22869572
191	0xbee0547b	-0.43814453
192	0x3f0b747e	0.5447463
193	0x3e4dda88	0.20102894
194	0xbb9b5659	-0.004740518
195	0xbc593d4d	-0.013259244
196	0x3ee5f749	0.44915226
197	0x3e53e8e2	0.20694306
198	0xbc6cf363	-0.014462325
199	0xbd4d4c05	-0.050121326
200	0x3edfb253	0.43690738
201	0x3e61c72e	0.22048637
202	0xbdae6c75	-0.0851678
203	0xbe278b47	-0.16361724
204	0x3f0fd0af	0.561778
205	0x3c93a759	0.018024134
206	0x3e47b2ab	0.1950175
207	0xbe60debe	-0.2195997
208	0x3e8f4004	0.27978528
209	0xbcbbd5d0	-0.022929102
210	0x3d57e064	0.05270423
211	0xbdfd370f	-0.12364017
212	0x3e71b811	0.23605372
213	0x3d87e669	0.06635744
214	0x3dfadd72	0.122492686
215	0xbdddb566	-0.10825615
216	0x3ed64b47	0.41854307
217	0x3e5be058	0.21472299
218	0x3e9d524f	0.3072686
219	0xbecc31ec	-0.39881837
220	0x3e4c1645	0.1993037
221	0x3d54823a	0.051882006
222	0x3dc27c25	0.09496335
223	0xbeeafa15	-0.45893922
224	0x3d9d03fb	0.07666775
225	0x3d1cb907	0.038262393
226	0xbe30231d	-0.17200895
227	0xbe0ae4d8	-0.1356386
228	0x3d54cd69	0.051953707
229	0x3c84eec0	0.016227126
230	0xbd61d97e	-0.055139057
231	0x3d65a06d	0.056061197
232	0xbab45a79	-0.0013759873
233	0xbd2a8d4b	-0.041638654
234	0x3d94daef	0.07268321
235	0xbb8a851f	-0.004227295
236	0xbe14a85b	-0.14517348
237	0xbca51838	-0.02015315
238	0x3d16e4d9	0.03683934
239	0xbd7f3415	-0.06230553
240	0x3d185c90	0.03719765
241	0x3cd17c06	0.025571834
242	0xbe0289e0	-0.12747908
243	0xbd0d19ff	-0.03444862
244	0xbe0d4ee2	-0.13799623
245	0xbd90da93	-0.0707294
246	0xbce78f77	-0.028266652
247	0xb9892d56	-0.00026164454
248	0xbe1711ef	-0.14752935
249	0xbe5f0c35	-0.21782
250	0xbdfe803d	-0.12426803
251	0xbe58a59a	-0.21156922
252	0xbe043ed6	-0.12914595
253	0xbe8196db	-0.25310406
254	0xbc91e65e	-0.017810043
255	0x3d36a4e1	0.044590835

conv2.bias f4 [32]
0	0xbc09794c	-0.008390736
1	0xbdc11922	-0.09428622
2	0x3db6e325	0.08930043
3	0x3db3155a	0.08744307
4	0x3e14e45f	0.14540242
5	0x3daab2a3	0.083348535
6	0x3d20c91c	0.039254293
7	0xbb6041c4	-0.0034218887
8	0x3daacb65	0.08339576
9	0xbd7e2136	-0.06204339
10	0xba320710	-0.00067912135
11	0x3d52d6fa	0.05147455
12	0x3e093e20	0.13402605
13	0x391d9db6	0.00015031439
14	0x3dab4bf4	0.08364096
15	0x3db84018	0.089966
16	0x3d3981e9	0.045289908
17	0x3cc1c01f	0.02365118
18	0xbdbb33ae	-0.091407165
19	0xbda94fe2	-0.082671896
20	0x3de1547f	0.110024445
21	0x3e0d7616	0.13814577
22	0x3d85f964	0.06541708
23	0x3d1b7aa9	0.037958775
24	0xbcbdd482	-0.02317262
25	0x3da16c8e	0.07882033
26	0xbd923338	-0.071386755
27	0x3ce39618	0.027781531
28	0xbda2704a	-0.07931574
29	0xbd0ed7de	-0.034873836
30	0x3db69915	0.08915917
31	0x3c46d95d	0.012136784
