ddpg_checkpoint_ep400.pt (torch, 216765 bytes, 16 tensors)

net.0.weight f4 [128, 4]
0	0xbe8d5ef1	-0.27611497
1	0x3ddd84e4	0.108163625
2	0xbe7cea1c	-0.2469868
3	0xbe71acf8	-0.23601139
4	0x3ddd4bd6	0.1080548
5	0x3e529e9b	0.20568316
6	0x3e666738	0.22500312
7	0x3e02ec19	0.12785377
8	0xbefa9d98	-0.4894836
9	0xbe676e48	-0.22600663
10	0x3dd923ee	0.10602556
11	0xbea91465	-0.33023372
12	0xbd4c076f	-0.049811777
13	0x3e468206	0.19385538
14	0x3ef70a68	0.48250127
15	0x3e651e2f	0.22374795
16	0xbc63bc58	-0.013899885
17	0x3e26135c	0.16218323
18	0xbefc8c85	-0.49325958
19	0xbec33924	-0.38129532
20	0xbe2a7f14	-0.16650039
21	0xbe55258a	-0.20815101
22	0xbdf7db10	-0.1210233
23	0x3e7e5934	0.24838716
24	0x3e8b64e4	0.2722541
25	0x3e795ab0	0.24351001
26	0xbe2b0b8f	-0.16703628
27	0xbe4d6db4	-0.2006138
28	0xbe26fef0	-0.16308188
29	0x3e5c2291	0.21497561
30	0x3e874877	0.26422474
31	0xbe9c5db3	-0.30540237
32	0xbecaf528	-0.39640164
33	0xbee3a382	-0.44460684
34	0xbddc8da0	-0.107692
35	0xbca67da0	-0.020323575
36	0xbe83d7b6	-0.25750512
37	0xbeac0ea6	-0.33604926
38	0x3e7f2cb4	0.24919397
39	0x3eac2ab4	0.3362633
40	0x3ed78510	0.42093706
41	0x3ecb124a	0.3966239
42	0xbeb7f7d1	-0.35931256
43	0x3e944648	0.2895987
44	0xbec6e1c5	-0.38844123
45	0x3e3ce3ce	0.18446276
46	0x3edc1d9d	0.42991343
47	0x3ea82b25	0.32845417
48	0x3e612b68	0.21989214
49	0x3ee4be77	0.44676563
50	0x3ebf296c	0.3733629
51	0x3ebcaf69	0.36852577
52	0x3dc4e1da	0.0961339
53	0x3db9ecd5	0.09078375
54	0x3eaa4ae9	0.33260277
55	0xbee345c7	-0.44389173
56	0x3ec28f44	0.37999928
57	0x3e579a65	0.2105499
58	0x3ed7638f	0.42068145
59	0xbe5b9dc8	-0.21446908
60	0x3db8f0f7	0.090303354
61	0xbdc32878	-0.09529203
62	0xbe9d79d8	-0.30757022
63	0x3eef63f3	0.46755943
64	0x3ec01212	0.37513787
65	0x3e7de8d5	0.2479585
66	0x3ea7a4d3	0.32742938
67	0x3ec6b55f	0.3881025
68	0xbddf14d7	-0.10892647
69	0xbebfdc51	-0.37472776
70	0xbda184a4	-0.07886627
71	0x3e7b7cfa	0.24559394
72	0x3b836fa9	0.0040111137
73	0x3eb3189f	0.34979722
74	0xbee51bea	-0.4474786
75	0xbea4b9e9	-0.32173088
76	0xbd05bcf7	-0.032650914
77	0x3d294f57	0.04133543
78	0x3ed638e8	0.4184029
79	0xbe2f997b	-0.17148392
80	0x3d0151c3	0.031572115
81	0xbe92ffa7	-0.28710672
82	0xbeafb74e	-0.34319538
83	0x3e9203e1	0.28518584
84	0x3ed76020	0.42065525
85	0xbe8c5b8c	-0.27413595
86	0x3e8b4117	0.27198097
87	0xbd9dfdee	-0.07714449
88	0x3dbf4416	0.09339158
89	0x3ee7d49a	0.4527939
90	0xbd8463ab	-0.06464323
91	0x3e28ba97	0.16477428
92	0x3eb1b177	0.34705707
93	0x3e89ea0d	0.2693638
94	0xbd816c42	-0.06319477
95	0x3c57a1ef	0.013161167
96	0xbe19baba	-0.15012637
97	0xbd358edd	-0.0443257
98	0xbe104a5b	-0.14090864
99	0x3eb1d6b7	0.34734127
100	0xbd856f78	-0.065154016
101	0xbde3faf0	-0.11131847
102	0xbe346424	-0.17616326
103	0xbd89b2e0	-0.06723571
104	0xbeb0f353	-0.34560642
105	0x3e213b0a	0.15745178
106	0x3ee1ade4	0.4407798
107	0x3ee58c11	0.44833425
108	0x3ed3ed83	0.41392145
109	0x3d578c4e	0.05262404
110	0xbecb3995	-0.3969237
111	0xbced3950	-0.028957993
112	0x3ec5ae70	0.38609648
113	0xbc97ffaf	-0.018554537
114	0x3daf035a	0.08545561
115	0x3e91ab49	0.28450993
116	0x3db46fce	0.088103876
117	0xbe928a66	-0.28621215
118	0x3e3c2057	0.18371712
119	0x3f055e19	0.52096707
120	0xbe4f2bc0	-0.20231533
121	0x3e2e9f44	0.17052943
122	0xbe611434	-0.21980363
123	0x3ea1b13d	0.31580535
124	0xbe45bf44	-0.19311243
125	0xbb718797	-0.00368545
126	0xbda1826f	-0.07886206
127	0x3e82af53	0.25524387
128	0xbe1606d0	-0.14651036
129	0x3ec22607	0.37919638
130	0xbe9d2531	-0.30692437
131	0x3e07c727	0.13259564
132	0x3e20eaea	0.15714613
133	0x3daa7e9f	0.08324932
134	0xbf07fe12	-0.53122056
135	0x3d2258ad	0.03963535
136	0x3df14532	0.11780776
137	0x3e2a9aed	0.16660662
138	0x3ea39c44	0.3195516
139	0xbed6f26c	-0.41981828
140	0xbefba59a	-0.4914978
141	0xbee66abc	-0.45003307
142	0xbed43d0e	-0.4145283
143	0xbef5c410	-0.48001146
144	0x3af47568	0.0018650712
145	0x3eb3b1e2	0.3509665
146	0x3eba19ff	0.36347958
147	0xbee8da77	-0.45479175
148	0xbe337e44	-0.17528635
149	0xbe87aca6	-0.26498908
150	0x3f06d152	0.5266315
151	0xbf0692d3	-0.52567786
152	0xbabe648c	-0.0014525815
153	0xbe3d0145	-0.18457516
154	0x3eb1acbe	0.34702104
155	0xbdd34759	-0.10316343
156	0x3e931fda	0.28735238
157	0x3dfd4fa1	0.12368704
158	0xbe818619	-0.2529762
159	0x3de6992c	0.11259684
160	0x3ed1d7f4	0.40985072
161	0xbe8d1561	-0.27555373
162	0x3d769802	0.06020356
163	0xbeafaf66	-0.34313506
164	0x3ec7a518	0.38993144
165	0x3e97fdbf	0.2968578
166	0xbeaed353	-0.34145603
167	0x3e767814	0.24069244
168	0xbe881712	-0.265801
169	0xbe43b40b	-0.1911165
170	0xbf06af2a	-0.5261103
171	0x3e6a0f2b	0.22857349
172	0x3ec2a146	0.38013667
173	0x3e8322e9	0.25612572
174	0x3e9d3ef2	0.30712086
175	0xbd109822	-0.035301335
176	0x3dd6d70c	0.10490236
177	0x3e9d91e5	0.3077537
178	0xbe05ff28	-0.13085616
179	0xbe009eaa	-0.12560526
180	0xbe612824	-0.21987969
181	0xbeffe3d4	-0.49978507
182	0xbec5b868	-0.38617253
183	0xbe381018	-0.1797489
184	0xbeb215bb	-0.34782204
185	0x3e112ac3	0.14176469
186	0x3ea69039	0.32531908
187	0xbe808226	-0.25099295
188	0xbec9bbc2	-0.3940106
189	0xbe840aed	-0.25789586
190	0xbe357214	-0.17719299
191	0x3f032502	0.51228344
192	0xbedab6b2	-0.4271751
193	0xbea3d42a	-0.31997806
194	0xbee0df88	-0.4392054
195	0xbb478800	-0.0030446053
196	0x3daecde9	0.08535368
197	0x3e234b59	0.15946712
198	0x3d3a74a1	0.045521382
199	0xbdee77a8	-0.11643916
200	0xbeceaca2	-0.40366083
201	0x3d8dae9a	0.06918068
202	0x3f03a7d1	0.5142794
203	0xbec04a1d	-0.37556544
204	0xbd721c6f	-0.059109148
205	0x3eab8d25	0.33506122
206	0xbdcd6262	-0.10028531
207	0xbee7428d	-0.45167962
208	0xbe58abc5	-0.21159275
209	0x3ee45b82	0.44601065
210	0xbd844291	-0.06458009
211	0xbeeb9d17	-0.46018288
212	0xbddecdda	-0.10879107
213	0xbdd0f8b2	-0.10203685
214	0x3eda559a	0.42643434
215	0x3e917321	0.2840815
216	0xbe815dca	-0.25266868
217	0xbe627280	-0.22113991
218	0xbe3b9894	-0.18319923
219	0xbec44c7e	-0.3833961
220	0xbeb3e927	-0.3513882
221	0xbef80c22	-0.48446757
222	0x3e7199f8	0.2359389
223	0x3e148e03	0.14507298
224	0xbeae6bf0	-0.34066725
225	0xbed7b252	-0.42128235
226	0xbe73d9fc	-0.23813623
227	0xbe836dd2	-0.25669724
228	0x3e9d5e6d	0.30736104
229	0xbeb7a2a2	-0.35866266
230	0x3e47ee14	0.19524413
231	0xbe1679b7	-0.14694868
232	0xbcbfd840	-0.023418546
233	0xbeed8f9e	-0.46398634
234	0xbdc2d600	-0.095134735
235	0xbead5290	-0.33852053
236	0x3eea814a	0.45801765
237	0x3d86c909	0.06581313
238	0xbe0769d2	-0.13223961
239	0x3eb7fa46	0.3593313
240	0x3e577618	0.21041143
241	0xbebfeeaa	-0.37486774
242	0xbe71b9a4	-0.23605973
243	0xbec8ffba	-0.39257604
244	0x3ea53507	0.3226702
245	0x3d1b49a5	0.03791203
246	0xbd6613bc	-0.056171164
247	0xbe1c4eed	-0.15264483
248	0x3ef5471b	0.47905812
249	0xbe07a336	-0.13245854
250	0xbe2c1f04	-0.16808707
251	0x3d420d41	0.04737592
252	0xbe2124cf	-0.15736698
253	0x3e588c90	0.2114737
254	0x3e8084d4	0.2510134
255	0xbf18a903	-0.5963289

net.0.bias f4 [128]
0	0x3ddeea0b	0.10884484
1	0xbed7a0dd	-0.42114916
2	0xbd53c9ec	-0.05170624
3	0xbeb01ebc	-0.34398448
4	0x3ed37f95	0.41308275
5	0xbed8ddfd	-0.42356864
6	0xbe5ac7cc	-0.21365279
7	0x3e48e838	0.19619834
8	0xbe25d2cc	-0.16193694
9	0x3e17dd98	0.14830625
10	0x3d7067e5	0.05869283
11	0x3e58ca9d	0.21171041
12	0xbcd846cf	-0.026400952
13	0xbe97fd16	-0.29685277
14	0xbd7d51e6	-0.061845683
15	0x3d8fd7eb	0.07023605
16	0x3e7c3b91	0.24632098
17	0xbef012c2	-0.4688931
18	0xbe42f8a0	-0.19040155
19	0x3eb10124	0.34571183
20	0x3f0dce81	0.55393225
21	0x3e8738fe	0.2641067
22	0xbe5c9acd	-0.21543427
23	0xbe990de8	-0.29893422
24	0x3e3f2035	0.1866463
25	0xbe87eb08	-0.26546502
26	0xbefa18c3	-0.48847017
27	0x3eb601af	0.3554816
28	0x3c9be275	0.019028882
29	0xbe40676f	-0.18789457
30	0x3eb11a98	0.34590602
31	0xbeb1e832	-0.34747463
32	0xbdb48951	-0.088152535
33	0x3e786b28	0.24259627
34	0xbf00dec4	-0.50339913
35	0x3ebe77f6	0.37200898
36	0xbeda839c	-0.42678535
37	0x3efecec6	0.4976713
38	0x3e901139	0.2813814
39	0x3e813035	0.25232092
40	0x3eb5f468	0.3553803
41	0xbebc8420	-0.36819553
42	0x3ee02d13	0.4378439
43	0xbed1fe76	-0.4101445
44	0xbe346a78	-0.1761874
45	0xbe557470	-0.20845199
46	0x3ed49164	0.41517174
47	0xbea87617	-0.32902595
48	0xbed0a150	-0.40748072
49	0xbeb3b315	-0.35097566
50	0xbe3b485c	-0.18289322
51	0x3e924fef	0.2857661
52	0x3ef3d2f9	0.47621897
53	0x3d55e3d8	0.05221924
54	0x3d3e19c0	0.046411276
55	0xbe822934	-0.2542206
56	0x3e8c11c2	0.27357298
57	0xbe467ad8	-0.19382799
58	0xbe8f5a1e	-0.2799844
59	0x3eed3e6e	0.46336693
60	0xbe2b777c	-0.16744798
61	0x3ef3bdc1	0.47605708
62	0xbe8a4e82	-0.27013022
63	0xbef6d992	-0.48212868
64	0x3eeaf134	0.45887148
65	0xbe4d3e20	-0.2004323
66	0xbecacb5e	-0.39608282
67	0x3eb5033a	0.35354024
68	0xbabe6ec7	-0.0014528864
69	0x3da7534a	0.08170183
70	0xb9c4ed83	-0.00037560993
71	0x3ee6746e	0.45010704
72	0x3ec6822f	0.38771197
73	0x3ea93af7	0.330528
74	0x3e10bdde	0.14134929
75	0xbec999ca	-0.39375144
76	0x3ecee05a	0.40405542
77	0x3e2329f5	0.15933974
78	0xbecaeeff	-0.39635465
79	0xbe88b0af	-0.266973
80	0xbe1d283f	-0.15347384
81	0x3ed5797f	0.41694257
82	0x3e408f06	0.18804559
83	0x3cf58b05	0.029973516
84	0xbe5ecc4f	-0.21757625
85	0x3ea0e38d	0.31423607
86	0xbed297b2	-0.4113136
87	0x3ee1576f	0.4401202
88	0xbe50a4e0	-0.20375395
89	0xbed699ec	-0.41914308
90	0xbe42567e	-0.18978307
91	0x3e876a23	0.26448163
92	0xbe3121c0	-0.17298031
93	0x3ed37fcb	0.41308436
94	0xbeb65b85	-0.356167
95	0xbc8bfdb3	-0.017088747
96	0xbe2edd58	-0.17076623
97	0xbe8327f8	-0.2561643
98	0xbe9f972b	-0.3117002
99	0x3e362640	0.17788029
100	0xbec2da64	-0.38057244
101	0xbeed5f6b	-0.4636186
102	0xbef25f6a	-0.4733842
103	0x3e93629e	0.28786176
104	0x3efdc0de	0.49561208
105	0xbc9d6fae	-0.019218292
106	0x3e97bc8c	0.29636037
107	0xbe19a900	-0.15005875
108	0x3e3bd87c	0.18344301
109	0x3e60fbf2	0.2197111
110	0xbe82afe0	-0.25524807
111	0xbe3976e4	-0.1811176
112	0xbd98634d	-0.07440815
113	0xbcfdf74d	-0.031001711
114	0x3e316ec6	0.17327413
115	0x3e98af06	0.29821032
116	0xbe0dfde8	-0.13866389
117	0x3eeece0e	0.46641582
118	0xbebcf47e	-0.36905283
119	0x3e274f90	0.16338944
120	0x3ecff6fc	0.40618122
121	0xbec91fd3	-0.39282092
122	0xbeec8e2d	-0.46202222
123	0x3d63fe59	0.055662487
124	0x3eb9f698	0.3632095
125	0xbdba2908	-0.09089857
126	0xbeb9140f	-0.36148116
127	0xbeec3274	-0.46132243

net.2.weight f4 [128, 128]
0	0xbdad0ced	-0.08449731
1	0x3d1e8c55	0.03870805
2	0x3d3fd1b2	0.04683084
3	0xbb735ab2	-0.0037132916
4	0x3d9bd3a6	0.07608728
5	0xbd1ed4f4	-0.038777307
6	0x3d3e4892	0.046455927
7	0x3cc253e6	0.023721647
8	0xbd17ac67	-0.03702965
9	0x3c8b4b93	0.01700381
10	0xbc9f2281	-0.019425632
11	0x3db15e35	0.08660547
12	0xbd81b46b	-0.0633324
13	0xbd3059de	-0.043054454
14	0x3d89da6a	0.06731112
15	0x3d4b1e35	0.049589355
16	0xbd0bd58a	-0.034139194
17	0xba3102b8	-0.0006752419
18	0x3cce6631	0.025195213
19	0x3c0f3e30	0.008742854
20	0xbd32ec7b	-0.043682557
21	0xb96c3b27	-0.0002252875
22	0xbce596aa	-0.028025944
23	0xbd809340	-0.06278086
24	0x3dac0798	0.08399886
25	0xbcb588c4	-0.022159941
26	0xbad8f31a	-0.0016551942
27	0xbd64f355	-0.055896122
28	0xbd9b1c8b	-0.075738035
29	0x3d812d24	0.06307438
30	0x3d84308f	0.06454574
31	0x3dba3950	0.09092963
32	0x3bd394aa	0.006456931
33	0x3d43284b	0.04764585
34	0xbcdb53d0	-0.026773363
35	0x3cc12434	0.023576833
36	0xbb255069	-0.002522493
37	0x3d22334e	0.03959971
38	0x395e9d58	0.00021230185
39	0x3d47b7ab	0.048759144
40	0x3d6ec640	0.058294535
41	0xbc7ae2bf	-0.01531285
42	0x3cf64839	0.030063735
43	0xbd6464da	-0.055760242
44	0x3cf251ae	0.029579964
45	0xbd1f2b92	-0.03885991
46	0x3c0906aa	0.008363405
47	0x3dbce193	0.09222712
48	0x3d032df2	0.03202624
49	0x3c863541	0.016382815
50	0x3c3b5528	0.011433877
51	0xbd2f4af2	-0.042796083
52	0xbd8c8cbf	-0.06862783
53	0x3dbf422e	0.09338795
54	0x3d997e0b	0.07494744
55	0x3d2794d1	0.040913407
56	0xbb6d8520	-0.0036242679
57	0xbdac1a67	-0.08403473
58	0xbd818824	-0.06324795
59	0x3d0b1ad3	0.03396113
60	0x3c5385c8	0.012910314
61	0xbd16df96	-0.036834322
62	0x3ba970c2	0.0051709125
63	0xbc5df505	-0.013547187
64	0x3d44a124	0.04800524
65	0xbd422a8f	-0.04740387
66	0x3dbc0bd0	0.091819406
67	0xbd1a1db0	-0.03762597
68	0x3d857a35	0.0651745
69	0xbc8d9ab4	-0.017285682
70	0xbda219f3	-0.07915106
71	0xbc045de9	-0.008079031
72	0x3cd77c8b	0.026304504
73	0xbd4e1bab	-0.050319355
74	0xbc94e14a	-0.018173832
75	0x3d11a9f8	0.035562485
76	0xbd65fe91	-0.056150977
77	0x3d460be6	0.04835119
78	0x3d18494b	0.037179273
79	0x3d2aae3c	0.04167007
80	0x3d7f5962	0.0623411
81	0xbd93faaa	-0.07225545
82	0xbd9c63f7	-0.07636254
83	0xbcf7e4ba	-0.030260433
84	0xbc121b31	-0.008917616
85	0x3d2ffea7	0.042967465
86	0x3d0f32a0	0.03496039
87	0x3d1299cd	0.035791207
88	0xbc1415a0	-0.009038359
89	0xbaa8e394	-0.0012885206
90	0xbc9bb622	-0.019007746
91	0xbdb3b1cf	-0.08774149
92	0xbd0fff68	-0.035155684
93	0x3d3077f2	0.04308314
94	0xbd05fc63	-0.032711398
95	0x3d9fe05e	0.078064665
96	0x3d890db2	0.06692065
97	0x3c8eeb11	0.017446073
98	0x3d9be500	0.07612038
99	0x3a609aec	0.0008568007
100	0xbc30cc2c	-0.010790866
101	0xbd5e0d3d	-0.054211844
102	0xbd3a4ddd	-0.045484412
103	0xbb0c6860	-0.0021424517
104	0x3de2a8ec	0.110673755
105	0x3d366b41	0.04453588
106	0xbd57870c	-0.052619025
107	0x3c9a30ed	0.018822158
108	0xbd436280	-0.04770136
109	0x3c50c0b3	0.012741256
110	0xbd9a3886	-0.07530312
111	0xbc7d9420	-0.01547721
112	0xbd27f8a6	-0.041008614
113	0x3cb7493a	0.022373784
114	0xbcd2c9d1	-0.025731
115	0xbd94bef2	-0.072629824
116	0xbd9f045b	-0.077645026
117	0xbc4a64bb	-0.012353118
118	0x3d6690e0	0.056290507
119	0xbb671e47	-0.003526585
120	0x3dbcb1a0	0.09213567
121	0x3c82d5cf	0.015971093
122	0xbd2ae5b8	-0.041722983
123	0xbc44ea27	-0.012018717
124	0xbd4cec2d	-0.050029922
125	0xbd9d5b77	-0.07683461
126	0xbd6e7cb5	-0.0582244
127	0xbc349902	-0.011022808
128	0xbd3fcaa7	-0.046824124
129	0x3d451db1	0.04812402
130	0xbb93ce8e	-0.004510707
131	0x3caff0d3	0.021477139
132	0x3d222a29	0.03959099
133	0xbdb0d038	-0.086334646
134	0x3d894833	0.06703224
135	0xba4582f3	-0.00075344666
136	0xbd1e8bb5	-0.038707454
137	0xbdd46339	-0.10370488
138	0xbbd96c01	-0.0066351895
139	0xbd97ffa6	-0.07421808
140	0xbd6ee552	-0.058324166
141	0xbdbd8c61	-0.09255291
142	0xbdc91a06	-0.09819417
143	0xbcd5e05a	-0.026107956
144	0xbd4c3805	-0.049858112
145	0x3d7f48de	0.06232535
146	0xbd35dbbb	-0.044399004
147	0xbd21fd33	-0.03954811
148	0xbd7c74d1	-0.061634842
149	0xbcdb8dff	-0.026801107
150	0x3d540a20	0.05176747
151	0xbc75c2e0	-0.015000075
152	0xbd6ef904	-0.05834295
153	0x3bc3c7c0	0.00597474
154	0x3d5ab31d	0.053393472
155	0xbd05ed46	-0.032696985
156	0xbd2a797e	-0.04161977
157	0x3d0838d3	0.033257317
158	0x3c2ea433	0.010659265
159	0xbd69c7de	-0.057075374
160	0xbd722119	-0.059113596
161	0x3d6e5ba2	0.058192857
162	0xbd74b230	-0.059740245
163	0xbda50f5d	-0.08059571
164	0xbdfc2f52	-0.12313713
165	0x3d8a8bd4	0.06764951
166	0xbdd200c1	-0.1025405
167	0x3dc308d1	0.09523166
168	0xbd6c9f3d	-0.05776905
169	0xbcebebac	-0.0287989
170	0x3e07992c	0.13242024
171	0x3c819300	0.015817165
172	0xbc80f21d	-0.015740449
173	0x3d6881e2	0.05676449
174	0x3d24806e	0.040161543
175	0xbd6ffeeb	-0.058592718
176	0xbd3b5e44	-0.045744196
177	0xbcd83658	-0.0263931
178	0xbd06fdc8	-0.03295687
179	0xbdbf4da6	-0.09340982
180	0xbe00bd1c	-0.1257214
181	0xbb9226bd	-0.0044601844
182	0xbd782506	-0.060582183
183	0xbda21afe	-0.079153046
184	0xbd1f3a74	-0.038874105
185	0xbd146fb0	-0.036239326
186	0x3d8c0cc9	0.06838376
187	0xbdb4c5b5	-0.08826772
188	0x3d354806	0.04425814
189	0xbda47456	-0.08030002
190	0x3db212c4	0.086949855
191	0xbd1ee06b	-0.03878824
192	0xbc103250	-0.008801058
193	0xbdde0c34	-0.10842171
194	0x3d675031	0.05647296
195	0x3beafb7e	0.0071710935
196	0x3d2f445a	0.042789795
197	0x3c918a34	0.017766096
198	0xbcea0a27	-0.028569294
199	0x3cbab942	0.022793416
200	0xbb86edfa	-0.0041177245
201	0x3e7f5e9b	0.24938433
202	0xbbe9aedd	-0.007131441
203	0xbd66c09a	-0.056336023
204	0xbd03c37b	-0.032168847
205	0xbccb7f05	-0.024840841
206	0x3dafdfa7	0.0858758
207	0x3d875f92	0.066100255
208	0x3c5d1dd4	0.013495881
209	0x3c85565a	0.016276527
210	0x3d426482	0.047459133
211	0xbc1fde86	-0.009757644
212	0x3d8ab208	0.06772238
213	0xbd6934b6	-0.056935035
214	0xbc6eb208	-0.014568813
215	0x3e42078a	0.18948188
216	0xbd6b8fb4	-0.057510093
217	0x3d076a9d	0.03306066
218	0xbd6bf502	-0.057606705
219	0xbddf4c33	-0.10903206
220	0x3d52c1b1	0.05145425
221	0xbd484594	-0.04889448
222	0xbb553dd7	-0.003253808
223	0x3d854426	0.06507139
224	0xbb22dc38	-0.00248505
225	0xbd16a940	-0.036782503
226	0x3cadc1d6	0.021210592
227	0x3ceb730b	0.02874138
228	0x3cf1e8e2	0.029529992
229	0xbdecfce6	-0.11571674
230	0xbdb52d46	-0.08846526
231	0x3cb7ef64	0.022453018
232	0x3d5cd0bb	0.05391
233	0x3e41c327	0.18922101
234	0x3c91a75f	0.017780004
235	0x3d9b712c	0.07589945
236	0x3dd1be42	0.10241367
237	0xbd927edf	-0.07153105
238	0xbc84d5b0	-0.016215175
239	0xbcf0b7fa	-0.029384602
240	0x3dca2533	0.098703764
241	0xbd90e0c1	-0.070741184
242	0xbd950d6b	-0.0727795
243	0xbd7f2074	-0.06228681
244	0x3d8b5054	0.06802431
245	0xbd4100f8	-0.047120064
246	0xbd8d4077	-0.06897061
247	0xbd82822c	-0.063724846
248	0x3d27df94	0.040984705
249	0x3d3acc33	0.045604896
250	0xbd9edcd5	-0.07756964
251	0x3c0dbbe2	0.008650752
252	0xbd7f9c0c	-0.062404677
253	0xbd1dc66d	-0.03851931
254	0xbd811cfd	-0.06304357
255	0x3d4ff4e5	0.05077066

net.2.bias f4 [128]
0	0x3d843dac	0.064570755
1	0xbda4849f	-0.08033108
2	0x3c91dd11	0.017805608
3	0xbd8ed96a	-0.06975062
4	0xbd98d875	-0.07463161
5	0xbd75ab34	-0.059977725
6	0x3b03d6a9	0.002011696
7	0xbc17e9be	-0.009272037
8	0x3d19fe5c	0.03759609
9	0x3d30547c	0.04304932
10	0x3ccc8bb2	0.024968956
11	0xbd9a21d1	-0.07525981
12	0x3c9d0c6a	0.019170959
13	0xbd08f6c6	-0.033438466
14	0x3c1b017d	0.009460804
15	0xbd54b503	-0.05193044
16	0x3c617689	0.013761171
17	0xbd9fed09	-0.07808883
18	0xbd57216d	-0.05252211
19	0xbcc3077f	-0.023807285
20	0xbdb9e4dc	-0.090768546
21	0xbd6fb4ee	-0.058522157
22	0x3d91be76	0.07116406
23	0x3c761fb0	0.015022203
24	0x3ca24fc7	0.019813431
25	0xbda10a55	-0.07863299
26	0x3c6322a3	0.0138632385
27	0x3c4d97ee	0.01254843
28	0xbd8b96fb	-0.068159066
29	0xbb86dcae	-0.0041156625
30	0x3d9145fc	0.070934266
31	0xba1e91a7	-0.00060489256
32	0xbdb44ff8	-0.08804315
33	0x3b6517cb	0.0034956809
34	0xbd51274b	-0.051062863
35	0x3d135e25	0.035978455
36	0x3d46beda	0.048521854
37	0xbb13d2bb	-0.0022556025
38	0x3d777bb6	0.060420714
39	0xbd586a64	-0.052835837
40	0x3da7ad43	0.08187344
41	0x3d70bac1	0.058771852
42	0x3d816777	0.063185625
43	0x3b324625	0.0027202454
44	0xbd60d18d	-0.054887343
45	0x3ce39d49	0.02778496
46	0x3d47d3aa	0.048785843
47	0x3caf2741	0.021381022
48	0xbb9a28d1	-0.0047045727
49	0xbd38b9fb	-0.04509924
50	0xbd8eb075	-0.0696725
51	0x3b5453fe	0.0032398696
52	0xbbdc8922	-0.0067302147
53	0xbcb7bc04	-0.02242852
54	0xbd01d40c	-0.031696364
55	0xbd35ea3d	-0.04441284
56	0xbb8e707e	-0.004346906
57	0x3cd9f5c7	0.026606454
58	0xbd7f9cd7	-0.062405434
59	0x3d858dff	0.06521224
60	0xbd3d1556	-0.046162926
61	0x3c77f3da	0.015133822
62	0x3ccf6518	0.02531676
63	0x3d9eb8db	0.07750102
64	0x3c19c6aa	0.009385744
65	0x3d6f766c	0.058462545
66	0xbda80702	-0.08204462
67	0xbd1d9532	-0.038472362
68	0x3c780b25	0.015139376
69	0xbda39ca6	-0.07988863
70	0x3db3cea7	0.0877965
71	0x3c7497dc	0.014928784
72	0x3b8ba1d9	0.004261237
73	0xbcf5ff9b	-0.030029109
74	0xbd5fc224	-0.054628506
75	0xbc321308	-0.010868795
76	0xbd989f78	-0.07452291
77	0x3d88d1ed	0.06680665
78	0x3dc57444	0.096413165
79	0x3c55805c	0.013031092
80	0xbd43aef7	-0.04777428
81	0x3db3f1f9	0.08786387
82	0xbd3f45f3	-0.04669757
83	0x3c591913	0.013250607
84	0x3c80faeb	0.015744647
85	0xbd90eb93	-0.07076182
86	0x3cd0942f	0.025461284
87	0x3dbfa745	0.09358076
88	0x3d25260e	0.040319495
89	0x3cec80ba	0.028869975
90	0x3d802dfb	0.0625877
91	0xbc700208	-0.014648922
92	0xbdac3a5e	-0.0840957
93	0x3bbadfc6	0.0057029454
94	0xbc2b9682	-0.010472896
95	0x3c04ab9f	0.008097558
96	0xbd820806	-0.063491866
97	0xbd9ac013	-0.075561665
98	0x3d5b8dc8	0.05360201
99	0x3cc3ab83	0.023885494
100	0xbad5b2c0	-0.0016303882
101	0x3cd0dd80	0.025496244
102	0x3d0792c3	0.033098947
103	0x3d1614e3	0.036641013
104	0x3c668609	0.014070042
105	0x3cb09532	0.021555517
106	0x3d927ad9	0.071523376
107	0x3d0e463d	0.034734953
108	0xbd6bae2d	-0.057539154
109	0xbdb95170	-0.09048736
110	0xbd1c6f10	-0.038191855
111	0xbd68327f	-0.05668878
112	0x3d8732e5	0.06601504
113	0xbc78a4bb	-0.015175994
114	0x3d396e9a	0.045271493
115	0xbd9468c1	-0.07246543
116	0x3d54f43f	0.051990744
117	0x3d74568a	0.059652843
118	0x3d5137d8	0.051078647
119	0x3dde52df	0.1085565
120	0x3aa953f6	0.0012918699
121	0xbb6b93e0	-0.0035946295
122	0x3d4970a2	0.04917968
123	0x3af11915	0.0018394316
124	0xbcc71728	-0.024303034
125	0xbd4f8fa5	-0.0506741
126	0x3d58a785	0.052894134
127	0x3d0bbe1c	0.03411685

net.4.weight f4 [2, 128]
0	0x3c7f5f26	0.01558665
1	0xbc09312a	-0.008373538
2	0x3e0d3d6a	0.13792959
3	0xbbb04b49	-0.0053800684
4	0xbd604f82	-0.054763325
5	0x3da968ea	0.08271964
6	0x3d35c670	0.044378698
7	0x3cbd6eaa	0.023124058
8	0xbc59fc49	-0.013304778
9	0xbc9940da	-0.018707681
10	0x3d644cd6	0.05573734
11	0xbd1d69f3	-0.03843112
12	0x3d97d7a5	0.07414178
13	0x3d6e8c4d	0.05823927
14	0x3c09717c	0.008388873
15	0xbd8642c5	-0.06555704
16	0x3dacc355	0.08435694
17	0xbd1d3fc7	-0.0383909
18	0x3d6e127b	0.058123093
19	0x3d9ad5d6	0.07560317
20	0xbd06b7d9	-0.032890175
21	0x3d3fb8d1	0.046807114
22	0xbd3834e3	-0.04497231
23	0xbd7291a2	-0.059220918
24	0x3cb25246	0.021767747
25	0xbcdb1a73	-0.02674601
26	0xbd949e0e	-0.07256709
27	0x3be229a7	0.006901938
28	0xbc781b10	-0.015143171
29	0x3da05639	0.07828946
30	0xbcb658ed	-0.0222592
31	0xbd3ecd4d	-0.04658251
32	0xbd0955a1	-0.033528928
33	0xbd8ed79e	-0.069747195
34	0x3d67bcb8	0.05657646
35	0xbd6687b8	-0.056281775
36	0xbcd0d6ec	-0.025493108
37	0x3a2f30dd	0.00066830014
38	0xbd4abb72	-0.049495168
39	0x3c96702c	0.018364035
40	0x3dd16328	0.10223991
41	0xbb7bf988	-0.0038448293
42	0x3c847db7	0.016173227
43	0x3d83e413	0.06439986
44	0xbd9ce0ce	-0.076600656
45	0xbd81c7b9	-0.06336922
46	0xbd2d4870	-0.04230541
47	0x3dd354a8	0.10318881
48	0x3d3c9c4f	0.046047505
49	0x3b59f8bb	0.0033259827
50	0xbe01d5f6	-0.12679276
51	0xbd8ff170	-0.070284724
52	0xbcc427e3	-0.0239448
53	0x3d95ca6f	0.07314002
54	0xbd4864c2	-0.048924215
55	0x3d9b037c	0.07569024
56	0xbd14c394	-0.03631933
57	0x3c9db566	0.019251537
58	0x3d8b05bf	0.06788205
59	0xbd91bc04	-0.07115939
60	0x3dd4c83a	0.10389753
61	0xbd9988e9	-0.07496817
62	0x3dc69f2f	0.096983306
63	0x3dc10e5d	0.09426568
64	0xbd0841af	-0.033265766
65	0xbd5a6e52	-0.053327866
66	0xbd48bbcf	-0.049007233
67	0xbd71449d	-0.058903325
68	0x3ba51537	0.0050379294
69	0xbd7aa489	-0.06119207
70	0x3d70570a	0.058676757
71	0x3dce3bde	0.100700125
72	0x3d7d17df	0.061790343
73	0xbb4f06aa	-0.0031589665
74	0xbc2af997	-0.010435483
75	0xbdb39cc1	-0.08770133
76	0xbd94b2d2	-0.0726067
77	0x3cee6b7b	0.029103985
78	0x3d8ad2a1	0.067784555
79	0x3d2e377e	0.04253339
80	0xbd0cc4d6	-0.034367405
81	0x3db0a12c	0.08624491
82	0xbca183d8	-0.019716188
83	0xbcebe88f	-0.028797416
84	0xbd801b88	-0.06255251
85	0x3dcf16ab	0.101117454
86	0xbd1e30ea	-0.038620867
87	0x3e44092d	0.19144125
88	0x3d944377	0.072394304
89	0xbc8d5aa2	-0.017255131
90	0x3da5a7fb	0.0808868
91	0x3cfd0173	0.03088448
92	0xbda8c61a	-0.0824091
93	0x3dfa370a	0.12217529
94	0x3d9d0ce0	0.07668471
95	0xbccdff30	-0.025146097
96	0x3d7b79bf	0.061395403
97	0xbd3c3e22	-0.045957692
98	0xbd59a9f4	-0.053140596
99	0xbd938429	-0.07202942
100	0xbb1b67a0	-0.0023712888
101	0x3db6274a	0.088942125
102	0xbc53839d	-0.012909797
103	0x3cf4ab18	0.02986674
104	0x3d78d5f7	0.060750928
105	0x3d033ed1	0.03204233
106	0xbb996f10	-0.004682429
107	0x3dc87dba	0.097896054
108	0xbc613c3b	-0.01374727
109	0xbd710a04	-0.058847442
110	0x3d5d5a14	0.054040983
111	0x3d776ecb	0.060408395
112	0xbd6bad10	-0.057538092
113	0xbbbd2174	-0.00577181
114	0xbd7273dd	-0.059192527
115	0xbd5a921f	-0.05336201
116	0x3d889abc	0.06670138
117	0x3ce1b4b3	0.027551984
118	0x3d8ff98e	0.07030021
119	0x3d00c303	0.031435978
120	0x3d94283e	0.07234238
121	0xbaf97880	-0.0019033104
122	0xbce75343	-0.028237944
123	0xbc1570f3	-0.0091211675
124	0x3bf373b6	0.0074295653
125	0xbd33ef86	-0.0439296
126	0xbc868e2a	-0.016425211
127	0xbc730f50	-0.014835194
128	0xbbac76e5	-0.005263197
129	0x3e324473	0.17408924
130	0xbd098c58	-0.033581108
131	0x3bfd378a	0.007727568
132	0xbd0779d7	-0.03307518
133	0x3c943bb3	0.018094873
134	0x3d0e7079	0.03477523
135	0x3c138293	0.009003299
136	0x3c4454e0	0.011983126
137	0x3dd80312	0.105474606
138	0x3d215e49	0.039396558
139	0xbcfb6c82	-0.030691389
140	0x3d62a440	0.055332422
141	0x3aedea0b	0.0018151415
142	0x3ba967de	0.0051698526
143	0x3b6805e0	0.0035403892
144	0xbcfb373a	-0.030665983
145	0x3d0f4b4b	0.034983914
146	0x3d8a31b0	0.067477584
147	0x3cd5480c	0.026035331
148	0xbd40e348	-0.047091752
149	0x3d542f7e	0.051803105
150	0x3e0d5ab4	0.13804132
151	0xbd9b7cec	-0.07592186
152	0x3dcbc582	0.09949781
153	0xbe0f66ee	-0.14004108
154	0xbcc87d22	-0.02447373
155	0x3e078d15	0.13237412
156	0xbdfb47e3	-0.12269571
157	0xbad3cd4e	-0.0016159208
158	0x3d8e4ce2	0.06948258
159	0xbc899fd6	-0.016799849
160	0xbcc351b2	-0.023842666
161	0xbc077c83	-0.008269432
162	0x3d4eb6d9	0.050467346
163	0xbce35781	-0.027751686
164	0xbd02a993	-0.0319
165	0x3dee1891	0.116257794
166	0xbd396839	-0.04526541
167	0xbd52f8a5	-0.051506657
168	0xbc01da75	-0.007925619
169	0xbc961805	-0.018322
170	0xbddcf0f1	-0.107881434
171	0xbda65317	-0.08121317
172	0xbd41342f	-0.047168907
173	0xbd435a93	-0.0476938
174	0x3cc184e9	0.023622947
175	0x3a5a5000	0.0008327961
176	0x3da14761	0.078749426
177	0xbd86bdae	-0.06579147
178	0x3de1ec99	0.110314555
179	0xbc998e5d	-0.018744642
180	0x3d73d700	0.05953121
181	0x3d1859c2	0.037194975
182	0x3d0508cf	0.032479104
183	0xbd6d2ed4	-0.057905987
184	0x3e00adfb	0.12566368
185	0xbe163419	-0.14668311
186	0x3d5ec57d	0.05438756
187	0x3d0b3492	0.03398568
188	0x3d5e8b36	0.05433198
189	0x3cda5ec7	0.026656521
190	0xbd847155	-0.06466929
191	0x3db7603b	0.089539014
192	0x3d46afb8	0.048507422
193	0x3d0664f3	0.032811116
194	0x3ddf021d	0.10889075
195	0x3dfd3f2c	0.12365565
196	0x3e8abcc5	0.27097145
197	0x3d533623	0.0515653
198	0xbcf97906	-0.030453216
199	0xbc926fb3	-0.017875528
200	0xbc981814	-0.018566169
201	0x3df607f0	0.12013233
202	0xbdf89a49	-0.121388026
203	0x3d260906	0.04053595
204	0x3c8aa0c8	0.01692237
205	0x3d9117e7	0.07084637
206	0x3be026ac	0.0068405475
207	0x3dcca837	0.09993022
208	0x3e01f929	0.12692703
209	0xbde2e1e6	-0.11078243
210	0x3da29c48	0.079399645
211	0x3c8aa064	0.016922183
212	0xbd269248	-0.04066685
213	0xbd8c43b4	-0.06848851
214	0x3e3b3ad9	0.18284167
215	0xbcbd329b	-0.02309542
216	0xbdae87f1	-0.085220225
217	0xbd47d0a4	-0.04878296
218	0x3cc4e6b8	0.024035797
219	0xbd178dff	-0.037000652
220	0xbd7f5a78	-0.062342137
221	0x3bae3c8a	0.0053172754
222	0xbe44601a	-0.19177285
223	0x3df4a9c6	0.11946444
224	0xbdb51183	-0.08841231
225	0x3d844821	0.0645907
226	0x3d939eca	0.07208021
227	0xbd3c1026	-0.045913838
228	0x3daf7c5d	0.08568642
229	0xbc239be3	-0.009985897
230	0xbd8fc71e	-0.070204005
231	0xbdc03c5a	-0.09386511
232	0xbd7a899b	-0.061166387
233	0xbc87455d	-0.016512567
234	0x3d74ae3e	0.059736483
235	0x3c9f83d8	0.019472048
236	0xbdacc8b8	-0.084367216
237	0x3db94d9a	0.090480044
238	0xbdb7d07b	-0.08975311
239	0x3b0a138b	0.0021068777
240	0x3d7506af	0.059820827
241	0xbd57dc4e	-0.052700333
242	0x3db573a0	0.08859944
243	0x3d6b8c9e	0.05750715
244	0xbc6792be	-0.014134107
245	0xbdb17aa4	-0.0866597
246	0xbd56aa09	-0.052408252
247	0x3dc4e5a0	0.0961411
248	0xbd2220e8	-0.039582163
249	0xbca69a94	-0.02033738
250	0xbaba533c	-0.001421548
251	0x3d4aeffc	0.049545273
252	0x3b815e69	0.003948022
253	0x3dbfc776	0.09364216
254	0x3e0a52d3	0.13508157
255	0x3ba249a0	0.0049526244

net.4.bias f4 [2]
0	0xbd2a28e2	-0.041542895
1	0x3d0583b6	0.032596312

q1.0.weight f4 [128, 6]
0	0x3568ee6c	8.6773684e-07
1	0x33d08b80	9.71113e-08
2	0xb5e3a10e	-1.6959691e-06
3	0x35a96a4d	1.2622419e-06
4	0x368b65a7	4.1543567e-06
5	0x36a8d352	5.031391e-06
6	0xb0d86b09	-1.574649e-09
7	0xb0cc5ec8	-1.4869892e-09
8	0xb0c60508	-1.4407826e-09
9	0xb0cfe77d	-1.5127025e-09
10	0xb1114b2c	-2.1143007e-09
11	0xb114a240	-2.1629063e-09
12	0x3e907612	0.2821508
13	0x3db591b6	0.08865683
14	0xbd53c14f	-0.051698025
15	0x3f15e5b5	0.5855363
16	0x3ca8dd0f	0.020613221
17	0x3bc4a022	0.0060005346
18	0x3688cd53	4.0770187e-06
19	0x36873171	4.0290693e-06
20	0x36b38e82	5.351206e-06
21	0x36690d9c	3.4727627e-06
22	0x368ca748	4.1917992e-06
23	0xb5c11da2	-1.4388245e-06
24	0xb4baf276	-3.4821613e-07
25	0x338c9d18	6.547833e-08
26	0xb8cb7464	-9.701474e-05
27	0x3427d275	1.5629651e-07
28	0x32cf0f68	2.4104978e-08
29	0x32c8e8d2	2.3388939e-08
30	0xb7512fc6	-1.2468494e-05
31	0xb733c4cb	-1.0715051e-05
32	0xb793a874	-1.7602208e-05
33	0xb755c9ec	-1.2742803e-05
34	0x3688e7a2	4.0800815e-06
35	0x35c8a378	1.4948737e-06
36	0xb3660ecb	-5.3564502e-08
37	0xb3808e84	-5.986388e-08
38	0xb3fb80ed	-1.171155e-07
39	0xb36dbd76	-5.5353176e-08
40	0xb3374026	-4.266635e-08
41	0xb289413f	-1.597857e-08
42	0xb72c5ba7	-1.0273338e-05
43	0xb701c5f1	-7.735086e-06
44	0xb6f74472	-7.3691417e-06
45	0xb73d4b4a	-1.12828075e-05
46	0x34b7c230	3.4227696e-07
47	0xb696288f	-4.47507e-06
48	0xb6b7bd49	-5.4758607e-06
49	0xb714ea73	-8.876074e-06
50	0xb73c885b	-1.1237421e-05
51	0xb6d0dbe8	-6.2244835e-06
52	0xb72677ad	-9.922235e-06
53	0xb729c7b8	-1.0119686e-05
54	0x390aba20	0.00013230043
55	0xb941a0b0	-0.00018465775
56	0x39b0dcf8	0.0003373397
57	0x38cf3020	9.879493e-05
58	0x3a98f365	0.0011669217
59	0xb9db1eb4	-0.0004179381
60	0x3e859cc7	0.26096174
61	0x3da54fd2	0.08071865
62	0xbd5572f5	-0.052111585
63	0x3f0953aa	0.53643286
64	0x3c96a4e5	0.018389175
65	0x3b9535f8	0.0045535527
66	0x3e72eafd	0.23722453
67	0x3d9343de	0.07190679
68	0xbd55b61e	-0.052175634
69	0x3ef71578	0.48258567
70	0x3c8292a4	0.015939064
71	0x3b42aec4	0.002970622
72	0x3e89c6eb	0.26909575
73	0x3dab8a0c	0.0837594
74	0xbd54f21d	-0.05198871
75	0x3f0e1f55	0.5551656
76	0x3c9d9aca	0.019238848
77	0x3ba74c53	0.005105534
78	0xb7aa0b52	-2.027085e-05
79	0xb7b5fc1c	-2.1694279e-05
80	0x38da5e83	0.00010412654
81	0xb7fe335a	-3.0303072e-05
82	0xb7a2ea0f	-1.9420897e-05
83	0xb7ea2dad	-2.7916243e-05
84	0x32f6cd0b	2.8731412e-08
85	0x32d0e8e6	2.4320297e-08
86	0x32a77142	1.9492862e-08
87	0x32d4b665	2.4762992e-08
88	0x32ce36e0	2.400651e-08
89	0x324f3d57	1.2062933e-08
90	0xbe448ccc	-0.19194335
91	0x3d97ef66	0.074187085
92	0x3ee4fefb	0.44725785
93	0xbe98e7f7	-0.29864475
94	0xbe2babc4	-0.16764742
95	0xbc8c22e4	-0.01710648
96	0xb2804a28	-1.4934884e-08
97	0xb237321e	-1.0663397e-08
98	0xb2b31999	-2.0849983e-08
99	0xb24c933a	-1.1907838e-08
100	0x331a3e8d	3.591281e-08
101	0xb2b309b3	-2.0842753e-08
102	0x3e5e969d	0.21737142
103	0x3d844f9e	0.06460498
104	0xbd54a08c	-0.051910922
105	0x3ee07e17	0.438462
106	0x3c641c6e	0.013922794
107	0x3adbeb6b	0.0016778534
108	0xba386eda	-0.0007035561
109	0xb9ee5b69	-0.00045463003
110	0xbac5b8ec	-0.0015085018
111	0xba3a44bd	-0.000710558
112	0x395d8c13	0.00021128384
113	0x394be961	0.00019446529
114	0xbb928876	-0.004471834
115	0xb8d34bfd	-0.00010075418
116	0xbb689faf	-0.003549557
117	0xbad285bc	-0.0016061584
118	0xbaa5893b	-0.0012629399
119	0xb9bcbd6d	-0.00035999288
120	0x3abd5094	0.001444357
121	0x3ac66ed8	0.0015139235
122	0x3a90a65e	0.0011035909
123	0x3ad2e586	0.0016090132
124	0x3af68af6	0.0018809724
125	0xba99e0e8	-0.0011740001
126	0xb2ce46a5	-2.4013682e-08
127	0xb28ab128	-1.6145876e-08
128	0xb3500cd7	-4.844045e-08
129	0xb2a1605e	-1.878669e-08
130	0x32f41ef0	2.8419407e-08
131	0x33759a4f	5.718385e-08
132	0x3d855e84	0.06512168
133	0x3c3da121	0.011574061
134	0xbd1fd2c0	-0.039019346
135	0x3e0240d7	0.12720047
136	0xb81b403c	-3.7014703e-05
137	0xbbcfb74d	-0.00633899
138	0x3084f5e2	9.674148e-10
139	0x308da1be	1.030507e-09
140	0x305acd3a	7.959958e-10
141	0x308d8cba	1.0299097e-09
142	0x30a6404a	1.2096362e-09
143	0x30a96128	1.2323982e-09
144	0xb11f7322	-2.320299e-09
145	0xb1e17771	-6.5619408e-09
146	0xb22896f4	-9.81321e-09
147	0x3141a04c	2.8176315e-09
148	0x331cb306	3.64844e-08
149	0x33307bc8	4.109077e-08
150	0xb3419d11	-4.5079165e-08
151	0xb3506c53	-4.8527294e-08
152	0xb386a6f8	-6.270233e-08
153	0xb34bcc6b	-4.7450538e-08
154	0x332561f0	3.850613e-08
155	0x33a39fcc	7.619346e-08
156	0xb1284da4	-2.4491351e-09
157	0xb11bca06	-2.2670306e-09
158	0xb15e8aed	-3.2384222e-09
159	0xb1356c07	-2.6400373e-09
160	0xb12135d9	-2.3459192e-09
161	0xb0058451	-4.857315e-10
162	0x3e803258	0.2503841
163	0x3d9d3f2f	0.07678067
164	0xbd55c8e8	-0.052193552
165	0x3f032569	0.5122896
166	0x3c8da815	0.017292062
167	0x3b7bdcb6	0.0038431115
168	0xb123ba96	-2.3825684e-09
169	0x311d41a8	2.2883828e-09
170	0xb1e645d0	-6.7018178e-09
171	0xb179730e	-3.629967e-09
172	0x32153425	8.684798e-09
173	0x325da406	1.2901188e-08
174	0xba099273	-0.0005247958
175	0xba248740	-0.00062762573
176	0xbbf0653f	-0.007336288
177	0xb997471e	-0.0002885395
178	0x39389ad7	0.0001760529
179	0xb8197f18	-3.6596408e-05
180	0xb1bdcb51	-5.5237384e-09
181	0xb1cac143	-5.900945e-09
182	0xb1c71770	-5.794327e-09
183	0xb1cba792	-5.927128e-09
184	0xb11cbe51	-2.280917e-09
185	0xb1725a62	-3.5267012e-09
186	0xb66e3ced	-3.5500227e-06
187	0xb67b690a	-3.7463055e-06
188	0xb681e15b	-3.8707344e-06
189	0xb6889c3e	-4.071305e-06
190	0x36b29b44	5.3228887e-06
191	0x368c165c	4.174928e-06
192	0x3e6825d3	0.22670679
193	0x3d8b52fd	0.06802938
194	0xbd554d31	-0.05207557
195	0x3eeb1040	0.45910835
196	0x3c739529	0.0148671055
197	0x3b158bf8	0.0022819024
198	0xafcbbbb9	-3.705887e-10
199	0xafa4b797	-2.9961875e-10
200	0xafe71d7d	-4.2039608e-10
201	0xaf896624	-2.499273e-10
202	0x2e6eb0f4	5.42721e-11
203	0x2e0ef594	3.250518e-11
204	0xb880f82e	-6.149743e-05
205	0xb948cdc9	-0.00019150147
206	0xba8a6070	-0.0010557305
207	0x38344785	4.2981952e-05
208	0xb8eb9f41	-0.000112353366
209	0xb964dcee	-0.00021826077
210	0xbea55c90	-0.32297182
211	0x3e03cd26	0.12871227
212	0x3f480e3b	0.78146714
213	0xbf0868f9	-0.53285176
214	0xbe9035b5	-0.28165975
215	0xbceb980a	-0.028759021
216	0xb0acdea4	-1.2577925e-09
217	0xb0923074	-1.0636669e-09
218	0xb1a24d7e	-4.7236304e-09
219	0xb08523ac	-9.687162e-10
220	0x2fd10c3c	3.8025572e-10
221	0xb00b866c	-5.075893e-10
222	0x3eb235f3	0.34806785
223	0x3de90b3a	0.113790944
224	0xbd450324	-0.0480987
225	0x3f3eab3f	0.7448005
226	0x3ce37ed3	0.027770435
227	0x3c2f97ee	0.010717375
228	0xb30523b6	-3.0998955e-08
229	0xb31c2cd2	-3.6362344e-08
230	0xb38ba681	-6.502979e-08
231	0xb2f72cf9	-2.8775036e-08
232	0xb305a84c	-3.111954e-08
233	0xb31af6b2	-3.6080287e-08
234	0x82289fb8	-1.2388528e-37
235	0x841df6a1	-1.8568508e-36
236	0xa17ad011	-8.497867e-19
237	0x8032a8af	-4.652287e-39
238	0x02044a28	9.71911e-38
239	0x803afe58	-5.4177e-39
240	0xb33f7742	-4.4579117e-08
241	0xb39a7dba	-7.194053e-08
242	0xb4098a9f	-1.280955e-07
243	0xb31ec6e4	-3.696813e-08
244	0xb3633065	-5.289657e-08
245	0xb3918786	-6.77674e-08
246	0xbe461142	-0.19342521
247	0xbe7989d9	-0.24368991
248	0x3f82b20d	1.0210587
249	0xbf106b2f	-0.5641355
250	0xbbbecee4	-0.005823003
251	0xbe13cc45	-0.14433391
252	0xb032c5a6	-6.50369e-10
253	0xaf6baa60	-2.1433655e-10
254	0xb132a932	-2.5998586e-09
255	0xb052f81c	-7.675014e-10

q1.0.bias f4 [128]
0	0xb5a839ce	-1.2533799e-06
1	0xb0b2549d	-1.2975253e-09
2	0x3cdd773a	0.02703439
3	0xb47deb28	-2.364801e-07
4	0x31cb9341	5.9248184e-09
5	0x35190aa3	5.701242e-07
6	0x30f267df	1.7637339e-09
7	0xb68c3f20	-4.179674e-06
8	0x36423716	2.8940317e-06
9	0xba79b469	-0.00095254794
10	0x3cca650a	0.024706382
11	0x3cb56242	0.02214158
12	0x3cd1ae2c	0.025595747
13	0xb7b01ec2	-2.0995158e-05
14	0xb1869e12	-3.917884e-09
15	0xbc6105b4	-0.01373427
16	0xb34401a8	-4.5636313e-08
17	0x3ca4179a	0.020030785
18	0xb8aab88d	-8.140607e-05
19	0xb8a73535	-7.973091e-05
20	0xbb6413a3	-0.0034801743
21	0x31d031bc	6.059251e-09
22	0x3ba45e64	0.005016135
23	0x3056338a	7.792599e-10
24	0xb2420a2f	-1.1294602e-08
25	0x32201e50	9.320118e-09
26	0x301a9f25	5.625103e-10
27	0x3cc0fc8d	0.023557926
28	0x30cbeeb7	1.4838041e-09
29	0xb84f7169	-4.9458267e-05
30	0x3055b726	7.774922e-10
31	0xb4fe2ec1	-4.7345205e-07
32	0x3cac3108	0.021019474
33	0x2e2cfaaa	3.9330907e-11
34	0xb9083ab6	-0.00012991842
35	0xbcbf127f	-0.02332425
36	0x2f8c13f9	2.5480043e-10
37	0x3d0d60fd	0.034516323
38	0xb28da800	-1.6490958e-08
39	0x002f0368	4.31749e-39
40	0xb28ccabc	-1.6390338e-08
41	0xbcb16402	-0.021654133
42	0xaebc1f00	-8.554757e-11
43	0x2b3c4df7	6.6899215e-13
44	0x3cc775a5	0.02434809
45	0xb283e9eb	-1.535678e-08
46	0x3c85c8ea	0.016331155
47	0x3cc36e0b	0.023856184
48	0xb64c123a	-3.0408978e-06
49	0xb7190d55	-9.122615e-06
50	0x32f6b160	2.871883e-08
51	0xb7478338	-1.1891876e-05
52	0x2d54771c	1.2077252e-11
53	0xb1ea6228	-6.8214554e-09
54	0xb0cc7b1e	-1.4877946e-09
55	0x3ccec5c3	0.025240785
56	0xbc6062b6	-0.0136954095
57	0xb8f9f86d	-0.00011919518
58	0x3ca68b4c	0.020330094
59	0xb7ce8751	-2.4620125e-05
60	0xba25b7ae	-0.0006321621
61	0xb551ed0c	-7.8203516e-07
62	0xb26a6e2f	-1.36456455e-08
63	0x341c737e	1.4570648e-07
64	0x38c36329	9.3167946e-05
65	0xae1b5102	-3.531487e-11
66	0xac0ec7a8	-2.0290245e-12
67	0xbc0cd83e	-0.008596478
68	0x3cd37a81	0.02581525
69	0x3171604c	3.5124854e-09
70	0x3cc50bc0	0.024053454
71	0x30e27f2f	1.6479812e-09
72	0xb61dd5d9	-2.3519299e-06
73	0x36981242	4.5320785e-06
74	0x80007d4e	-4.4951e-41
75	0x3cc360e1	0.023849906
76	0x3c8e43e1	0.017366352
77	0xbbd498bf	-0.0064879353
78	0xb23a299c	-1.0836086e-08
79	0x2f33e220	1.6360291e-10
80	0xb5f20d58	-1.8034289e-06
81	0x3cd60e70	0.026129931
82	0xbc641f67	-0.0139235025
83	0x3c985ff9	0.01860045
84	0xbcaa6fa0	-0.02080518
85	0x3ca740c7	0.02041663
86	0x346a80f6	2.1839864e-07
87	0xb6c8a089	-5.9791532e-06
88	0x3ce68422	0.028139178
89	0x80007eb0	-4.5447e-41
90	0x3c88cd2f	0.016699402
91	0xb8c5a2a3	-9.4239855e-05
92	0xae6ac039	-5.3376168e-11
93	0x2e6a7f26	5.331837e-11
94	0xb919bbd5	-0.0001466119
95	0xad87de77	-1.5446517e-11
96	0xb2a9cae8	-1.976646e-08
97	0x3d083221	0.03325093
98	0xb2ec10b4	-2.7481612e-08
99	0x3cbc41a8	0.022980526
100	0x00006a6f	3.8181e-41
101	0x32e0bdd4	2.6163356e-08
102	0x31df822b	6.5049526e-09
103	0xb31f5482	-3.709693e-08
104	0xbc57065e	-0.013124077
105	0xb32252a3	-3.7793722e-08
106	0xbccb74e9	-0.02483602
107	0xb2e88ad6	-2.707149e-08
108	0x3cbc8f25	0.023017475
109	0xb6d03927	-6.2055365e-06
110	0xb23c45e7	-1.0958934e-08
111	0x38959d35	7.134156e-05
112	0x3d0420c4	0.03225781
113	0xb0683447	-8.44754e-10
114	0x3ce0c48e	0.027437475
115	0xafc7ecb2	-3.636607e-10
116	0x3d0d79e8	0.034540087
117	0x3ce07123	0.027397698
118	0x368878ca	4.0671775e-06
119	0xbc90dfe2	-0.01768488
120	0x3b8eb6b1	0.0043552746
121	0xb164a886	-3.3274161e-09
122	0x3cf42848	0.029804364
123	0xb5b76c34	-1.3666054e-06
124	0x3c470f5f	0.012149661
125	0x3d0b735e	0.03404557
126	0x372b5d92	1.021418e-05
127	0x38b29f84	8.5174135e-05

q1.2.weight f4 [128, 128]
0	0x3322bc60	3.788989e-08
1	0xaee87566	-1.0570993e-10
2	0x3975a5ec	0.00023426831
3	0xb92f49db	-0.00016716814
4	0xb46d91f1	-2.2125438e-07
5	0x365010ea	3.100426e-06
6	0xaf706e56	-2.1867072e-10
7	0xb504b901	-4.944305e-07
8	0x3497e489	2.8292223e-07
9	0xb820dd00	-3.8352795e-05
10	0x3929401c	0.00016140979
11	0x38a7e258	8.00534e-05
12	0x3946b894	0.00018951512
13	0x37651438	1.3654171e-05
14	0x32153639	8.68527e-09
15	0x39fad5d4	0.0004784303
16	0x32677362	1.3472205e-08
17	0x37822620	1.5514961e-05
18	0x35f52c1f	1.8266763e-06
19	0x3710d725	8.633161e-06
20	0xb8f03796	-0.000114544455
21	0x3630eafa	2.6362818e-06
22	0xba33d6e7	-0.0006860331
23	0x2f810485	2.3468175e-10
24	0x37964e3a	1.791782e-05
25	0xb694ed67	-4.438381e-06
26	0x33bcd9c8	8.7940464e-08
27	0x3902e860	0.00012484333
28	0xaef46590	-1.11138765e-10
29	0x36165ced	2.2405832e-06
30	0x32d1a174	2.4404223e-08
31	0xb0088d3c	-4.967722e-10
32	0x383e5950	4.538271e-05
33	0xa5616148	-1.9548599e-16
34	0x37020621	7.750031e-06
35	0x3a8944eb	0.001047281
36	0x2ec5eb08	9.000273e-11
37	0x39f308d6	0.00046355155
38	0x2e107d5e	3.2853158e-11
39	0xb3a6aeee	-7.761797e-08
40	0xb0dd8558	-1.6117765e-09
41	0x3ae1ce62	0.0017227645
42	0xb43294fa	-1.6631739e-07
43	0x2ffd9e98	4.613312e-10
44	0x391d4e20	0.0001500179
45	0x3252decb	1.2274266e-08
46	0xb8c4a414	-9.37657e-05
47	0x390ce530	0.0001343682
48	0x37e66610	2.7465663e-05
49	0x35f4bef4	1.8234991e-06
50	0xb223cb82	-9.534121e-09
51	0x390bac24	0.000133202
52	0xb394f2ee	-6.935976e-08
53	0x3486b894	2.5093743e-07
54	0xb25ed0af	-1.296955e-08
55	0x393afee8	0.00017833302
56	0x39fefa53	0.0004863316
57	0x32ad2700	2.0157586e-08
58	0x37cd7de0	2.449652e-05
59	0xb86370c2	-5.422603e-05
60	0x37170504	9.001469e-06
61	0xb6507940	-3.1064992e-06
62	0x3200d801	7.499694e-09
63	0xb4dab89d	-4.0739988e-07
64	0xb65aa84b	-3.258249e-06
65	0xa6a4fe32	-1.1448686e-15
66	0xa5adbb0e	-3.013747e-16
67	0x3a1e3706	0.0006035421
68	0x394df678	0.0001964214
69	0xad298b19	-9.637424e-12
70	0x391379e4	0.0001406442
71	0x36009542	1.9160366e-06
72	0x357e0471	9.4628837e-07
73	0x36372d30	2.7295428e-06
74	0x36b94738	5.5217206e-06
75	0x390cab74	0.00013415312
76	0xb88749d0	-6.45105e-05
77	0xb89132f2	-6.923628e-05
78	0xb04b9348	-7.406027e-10
79	0xa9223f79	-3.602628e-14
80	0xb50acff0	-5.1711595e-07
81	0x395846a8	0.00020625687
82	0x3a10ae2e	0.0005519119
83	0xb7e62dc0	-2.743944e-05
84	0x3a7be484	0.00096089416
85	0x37e35320	2.7099217e-05
86	0x327dca74	1.4772571e-08
87	0x36235e14	2.4343653e-06
88	0x398ca392	0.0002682475
89	0xa9355066	-4.0259808e-14
90	0xb8afb184	-8.377715e-05
91	0x359d329f	1.1712144e-06
92	0xb60281b0	-1.9446998e-06
93	0x3750e70e	1.2451563e-05
94	0x37b038f8	2.1007363e-05
95	0x0c834c0b	2.0229513e-31
96	0x3170a9ff	3.5021228e-09
97	0x39dee916	0.00042516802
98	0xb682cb46	-3.897966e-06
99	0x38df5f38	0.000106512045
100	0x80004243	-2.377e-41
101	0x2b7d0b80	8.9899616e-13
102	0x328bf746	1.6294177e-08
103	0xb2b01978	-2.0500678e-08
104	0x39ce1f5a	0.0003931474
105	0x32f2f336	2.8283107e-08
106	0x3b03587b	0.0020041752
107	0xaf8545de	-2.4242203e-10
108	0x38e1ccd8	0.00010766991
109	0x3682b4b3	3.895338e-06
110	0x335a3c28	5.0811792e-08
111	0x35380b4c	6.856178e-07
112	0x39cf24ba	0.0003950948
113	0x3036b8bc	6.647374e-10
114	0x398165ba	0.0002468059
115	0x343e9e60	1.7752745e-07
116	0x39f3a006	0.00046467799
117	0x3980cbea	0.0002456599
118	0x34a9756a	3.1564133e-07
119	0x3a72c8c1	0.0009261482
120	0xba1eada5	-0.0006053097
121	0x31a9542e	4.9281175e-09
122	0x39a759fe	0.00031919772
123	0xb5f07c72	-1.7917612e-06
124	0xb90c74c0	-0.00013394933
125	0x39ebf8d2	0.00045008078
126	0xb519bdcc	-5.727313e-07
127	0x35f0711a	1.791431e-06
128	0x355a46b4	8.1314215e-07
129	0x272ce33a	2.3992975e-15
130	0xb9ab673e	-0.00032692583
131	0xb5d95bfc	-1.6194531e-06
132	0x32789557	1.4469456e-08
133	0xb62c3aa0	-2.5664121e-06
134	0x31ffe46b	7.447445e-09
135	0xb531dc3e	-6.6258133e-07
136	0x355fefd2	8.342296e-07
137	0xb946e494	-0.00018967903
138	0xba674684	-0.00088224583
139	0xbabffba4	-0.0014647138
140	0xba3050b9	-0.0006725896
141	0x3760d868	1.3401826e-05
142	0x323514e4	1.0540337e-08
143	0x3d5d77e2	0.054069407
144	0x31518948	3.0491538e-09
145	0xbafbf7fd	-0.0019223687
146	0xb8d61d64	-0.000102097896
147	0xb93ab8d6	-0.00017807199
148	0x3b468161	0.0030289518
149	0x2fb915d0	3.3666803e-10
150	0xbb9cc5a5	-0.0047843033
151	0xaf175f92	-1.3767323e-10
152	0x3169820a	3.3979881e-09
153	0xb16221f0	-3.290662e-09
154	0xae50b5e8	-4.745529e-11
155	0xba965759	-0.0011470123
156	0x31862331	3.903914e-09
157	0xb882e758	-6.241974e-05
158	0x2c92fc93	4.177611e-12
159	0x34292cb2	1.5755612e-07
160	0xbae0407c	-0.0017109062
161	0xaabbef4c	-3.3383918e-13
162	0xb8b6dac0	-8.719182e-05
163	0x3dc107aa	0.0942529
164	0xae8580cc	-6.071019e-11
165	0x3ad82346	0.0016490004
166	0x2f9c1340	2.8389913e-10
167	0x8036474c	-4.984693e-39
168	0x3289555a	1.5987712e-08
169	0x3ded6af4	0.11592665
170	0xad6f35e0	-1.359754e-11
171	0xa8a9d667	-1.8855751e-14
172	0xba7d214d	-0.0009656146
173	0x31252a7c	2.403481e-09
174	0xbb2ff59b	-0.0026849273
175	0xba8d4b48	-0.0010779882
176	0xb684336d	-3.9398933e-06
177	0x3727ed68	1.0009251e-05
178	0xb52e4292	-6.4916924e-07
179	0xb831577e	-4.2281572e-05
180	0x2c0f22be	2.0340808e-12
181	0xb40e0416	-1.3226267e-07
182	0x2b88538b	9.686569e-13
183	0xba465cb4	-0.00075669144
184	0x3d5e65d3	0.054296326
185	0xb9303dbc	-0.00016807666
186	0xbaf3b39d	-0.0018592958
187	0xb71def27	-9.413611e-06
188	0x39ecda9c	0.00045176304
189	0xb6250c41	-2.4594049e-06
190	0x31ef3b7e	6.962579e-09
191	0x336c2760	5.4983843e-08
192	0xb80c7595	-3.3488108e-05
193	0x2c2d9d41	2.4672072e-12
194	0x2a5e3080	1.9734388e-13
195	0x3d57f235	0.05272122
196	0xba22653e	-0.0006194896
197	0x2fd89f78	3.940348e-10
198	0xba876a00	-0.0010331273
199	0xb175a1a9	-3.5744085e-09
200	0xb4d50a78	-3.968196e-07
201	0xb65889a2	-3.226662e-06
202	0x0000772a	4.2748e-41
203	0xba8d90db	-0.0010800617
204	0xbb224aca	-0.0024763816
205	0x3cca4fa5	0.02469618
206	0xb4632fc7	-2.1158404e-07
207	0x2ecd480d	9.3351195e-11
208	0x372c70a6	1.0278227e-05
209	0xba0ead72	-0.00054427155
210	0x3d65af70	0.056075513
211	0xbb11b6c6	-0.0022234186
212	0x3dac8cb9	0.08425278
213	0xbaf14f4c	-0.0018410473
214	0xb50c2ada	-5.221642e-07
215	0xb686f1df	-4.0216687e-06
216	0xb859d858	-5.1938317e-05
217	0x8000a5b5	-5.9444e-41
218	0xbb2b1d7b	-0.00261101
219	0xb96533cd	-0.00021858439
220	0x2ceb1f35	6.6825664e-12
221	0x139a092a	3.88841e-27
222	0xb879239b	-5.9399386e-05
223	0x9760d6e0	-7.2649514e-25
224	0xb3028f33	-3.0398223e-08
225	0x3aa8127a	0.0012822889
226	0xb35dd122	-5.1645777e-08
227	0xbaa753a5	-0.0012766017
228	0x000016e9	8.219e-42
229	0x331198c5	3.3899386e-08
230	0xb2273759	-9.733264e-09
231	0xb1cb4c54	-5.916755e-09
232	0x3d52ec2f	0.051494773
233	0x324491f8	1.1441891e-08
234	0x3e071f63	0.13195567
235	0x326d5990	1.381558e-08
236	0xbaa65126	-0.0012688979
237	0x368b28f1	4.147289e-06
238	0xb11e2c5c	-2.3017241e-09
239	0x39173789	0.0001442117
240	0x3a86c5a2	0.0010282288
241	0x2fbb1ec6	3.4036968e-10
242	0xb9693ad4	-0.00022242527
243	0x3036799c	6.638403e-10
244	0x3adb6615	0.0016738797
245	0xb96ff4d4	-0.00022884022
246	0xb7dbe8ec	-2.6215297e-05
247	0x3d90e67a	0.0707521
248	0xbb9f3bf2	-0.004859441
249	0x32854c1a	1.5517845e-08
250	0x39c155e7	0.0003687583
251	0xb4f8e16b	-4.6357613e-07
252	0xbb659287	-0.0035029964
253	0x3ac9d98d	0.0015399918
254	0xb8b758c0	-8.742651e-05
255	0x38b4a226	8.613271e-05

q1.2.bias f4 [128]
0	0xb9bd58a0	-0.0003611492
1	0xbac49263	-0.001499724
2	0xabe06030	-1.5942855e-12
3	0x35a54841	1.2314487e-06
4	0xb0776cee	-9.0012875e-10
5	0x3bea3103	0.007146956
6	0x3485cffd	2.4924512e-07
7	0x3bfd0726	0.0077217994
8	0x35daa670	1.6290705e-06
9	0x3bfb7627	0.007673997
10	0x2ff3bff8	4.4337845e-10
11	0x345db486	2.0647903e-07
12	0xba326e30	-0.00068065803
13	0x3be7ad21	0.007070199
14	0xb3a80e65	-7.825728e-08
15	0x3bd76569	0.0065733683
16	0x378c6787	1.673751e-05
17	0xb88079f7	-6.126233e-05
18	0x342296bb	1.5142261e-07
19	0x36242a6c	2.4462597e-06
20	0xba30b268	-0.0006740452
21	0x3c437d20	0.011931688
22	0x3409f029	1.2846489e-07
23	0x3c0f6501	0.008752109
24	0xb7824907	-1.5531214e-05
25	0x3a7e3ae4	0.00096981064
26	0xb1042d28	-1.9234196e-09
27	0xba26b4f6	-0.0006359363
28	0x3bfaf986	0.00765914
29	0x30b28000	1.2987584e-09
30	0xb6194a48	-2.2842014e-06
31	0xb51bbcc0	-5.8016667e-07
32	0x3bc652f6	0.00605237
33	0xb2900965	-1.6768078e-08
34	0x37c66120	2.3648667e-05
35	0xb7655bda	-1.36708495e-05
36	0xb3b2d60c	-8.327706e-08
37	0x3bd469f8	0.006482359
38	0x3ba0c31b	0.004906071
39	0xba00b0eb	-0.00049091753
40	0x30cef148	1.5057049e-09
41	0xb5ad37d0	-1.2905748e-06
42	0x33e692e4	1.0736929e-07
43	0x3913a131	0.00014079061
44	0x3a77fbe8	0.0009459839
45	0x38e8f764	0.00011108702
46	0x3635c551	2.7085955e-06
47	0x33346f9c	4.2011024e-08
48	0xb24a6964	-1.1781911e-08
49	0xb996d348	-0.00028767646
50	0x3bf2d76f	0.0074109356
51	0x374b7386	1.212664e-05
52	0xb816a30b	-3.5914632e-05
53	0xb96ff406	-0.00022883722
54	0xafbe325e	-3.4596587e-10
55	0x3afed556	0.0019442241
56	0x3870fe15	5.745709e-05
57	0x3382a560	6.083678e-08
58	0x3bd4c46d	0.0064931423
59	0x3bd1f683	0.0064075603
60	0x36ba6ed0	5.5561322e-06
61	0x3bc5b72a	0.0060337977
62	0x345a5c36	2.0336378e-07
63	0xb1366826	-2.6543687e-09
64	0x3089fda8	1.0040155e-09
65	0xb9e9f282	-0.00044621906
66	0xb3c6148b	-9.22383e-08
67	0x39916616	0.00027732615
68	0x3c05edb7	0.008174351
69	0xb1512bcd	-3.04384e-09
70	0x359ad51e	1.1535919e-06
71	0x3a024c41	0.0004970469
72	0x2f226d60	1.4772672e-10
73	0x3668bd9a	3.4681057e-06
74	0xb1d5bf70	-6.22088e-09
75	0xb47e6976	-2.369396e-07
76	0x321ce7c7	9.133095e-09
77	0x3708d0c5	8.15484e-06
78	0xb606c496	-2.0081984e-06
79	0x3bed87de	0.0072488626
80	0x3b8f1fd9	0.00436781
81	0x3bfb1bd1	0.007663228
82	0xb7da50f0	-2.6025315e-05
83	0x34b093b0	3.2890011e-07
84	0x3c053ace	0.008131696
85	0x3be8623e	0.0070917895
86	0xb44bb7d5	-1.8972726e-07
87	0x359adeb5	1.153871e-06
88	0x333d298b	4.4042775e-08
89	0x37909a26	1.7237919e-05
90	0x37759344	1.4637426e-05
91	0xb6a3989a	-4.8755437e-06
92	0x38898d4c	6.558988e-05
93	0x327caf90	1.4708249e-08
94	0xb2b36fea	-2.0889235e-08
95	0x3864da50	5.4562755e-05
96	0x3bf38d5c	0.007432623
97	0x3bfdde84	0.007747473
98	0x345c6b79	2.0528195e-07
99	0xb51e9f3a	-5.909129e-07
100	0x38cdf0f3	9.820042e-05
101	0x31652bcc	3.3348782e-09
102	0x3ab15a54	0.0013530948
103	0xac3e3880	-2.7031988e-12
104	0x36b8bf5d	5.505905e-06
105	0x3615a7a7	2.2300317e-06
106	0x3a4a971b	0.0007728205
107	0xb8104d64	-3.440435e-05
108	0x33a2c426	7.579392e-08
109	0x32a725fe	1.9458636e-08
110	0x3baf9d50	0.0053593293
111	0xb2ff4378	-2.9716588e-08
112	0x3bee8971	0.007279568
113	0x340ab91e	1.2919597e-07
114	0x30b9d868	1.3522028e-09
115	0xb7c5af8e	-2.3565979e-05
116	0x362f9c5d	2.6168047e-06
117	0xb80fc79c	-3.4279758e-05
118	0xb762f25e	-1.352708e-05
119	0x33b71ad8	8.5264844e-08
120	0x3bffb2db	0.0078033037
121	0x31bdc9f0	5.5235816e-09
122	0x3705cfaf	7.975773e-06
123	0x3bee2638	0.0072677396
124	0xb6eb2e5e	-7.0089436e-06
125	0xb2480072	-1.1641633e-08
126	0x3bf0d4ae	0.007349572
127	0x37a2547d	1.9351248e-05
