DQN/saved_models/dqn_checkpoint_ep50.pth (torch, 981331 bytes, 32 tensors)

conv1.weight f4 [16, 2, 4, 4]
000000 37 54 a1 3e c2 0a 6d be 62 12 7e be 2f 75 70 be
       0.31509563 -0.23148635 -0.248117 -0.23482202
000010 46 71 35 be 6a 2b 00 be c1 31 aa 3f 5d f4 7f be
       -0.17718992 -0.12516561 1.3296434 -0.24995561
000020 89 dd 40 be ba 12 50 be 17 82 56 3f 37 2d 75 be
       -0.18834509 -0.20319644 0.8379225 -0.2394303
000030 1b fd d8 bd d6 01 d8 bd d7 ce 45 be cf e9 c4 3c
       -0.10595151 -0.10547225 -0.19317184 0.02403727
000040 6a 83 4f bd 33 3b 06 bd 22 f1 68 bc 0e 7f 35 3d
       -0.050662436 -0.0327713 -0.014217647 0.044310622
000050 2c f9 c2 be 57 7a c2 3d 72 22 a1 3c 4e 63 e3 be
       -0.38080728 0.09495991 0.019669745 -0.444117
000060 d3 a9 83 3d b9 dd 58 3d ee 4c a8 bd 1a 37 0b be
       0.06428876 0.052945826 -0.08217798 -0.13595238
000070 98 b6 7c 3d 78 b3 a4 3d 24 f2 29 3e 7e d0 4d 3e
       0.061697572 0.080420434 0.16596276 0.20099065
000080 70 cb 83 be f4 51 8f bc cf 25 11 3e c7 4a 98 3e
       -0.25741148 -0.017495133 0.14174579 0.2974455
000090 7d 3c e8 bd 78 60 bd 3c 4a 2b 1a 3d 13 db eb bd
       -0.11339662 0.023117289 0.03763894 -0.115163945
0000a0 ff a2 2b be ad 04 a6 3e 24 ad f8 3e 16 0c 47 be
       -0.16761397 0.32425442 0.48569596 -0.19438204
0000b0 04 2f 3a be 19 1c 07 be 87 79 23 be 8f 4d 2f 40
       -0.18181998 -0.13194312 -0.15964328 2.7391088
0000c0 09 c2 2c bd 1d 14 90 bd 8d 57 97 3b 68 97 b5 be
       -0.042177234 -0.07035086 0.004618591 -0.35467076
0000d0 29 d9 31 bf c4 e7 73 be 7e b3 7b 3d 6d d5 35 bf
       -0.69471985 -0.2381888 0.061450474 -0.71028787
0000e0 e6 47 a8 bc 8e 2d cb bd 30 e0 64 3d ec a4 e2 bc
       -0.020542096 -0.09920798 0.055877864 -0.027666532
0000f0 ae aa ff 3b 34 88 15 3d da ca a4 bd f8 ea ec 3d
       0.007802329 0.036506847 -0.08046503 0.11568254
000100 54 a3 e8 3d 5e 86 bf 3e a0 17 04 3f 4a 52 e7 be
       0.11359277 0.37407202 0.5159855 -0.4517997
000110 92 33 b9 3e bc b6 3c 3f 02 80 9f 3f f4 35 04 40
       0.36172158 0.7371633 1.246094 2.065793
000120 ce 94 67 3e ed 2e 5b 3e 8e 0d 2d 3f 96 61 af 3f
       0.22615358 0.2140462 0.6759881 1.3701656
000130 d7 58 aa ba 07 e5 85 bd 20 b0 5d be 81 5f 1e 3f
       -0.0012996447 -0.06537824 -0.21649218 0.6186448
000140 70 d1 fd 3d a2 4b 33 3d e8 82 f4 bd b1 13 72 3e
       0.12393463 0.0437733 -0.11939031 0.23640324
000150 9d 92 23 3e 1b b8 29 be 99 ee 38 3d 03 b3 ab 3e
       0.15973897 -0.16574137 0.04514942 0.33535013
000160 0a b3 b5 bd 45 fe 5f 3e b5 73 21 3e 29 85 9d 3e
       -0.088720396 0.2187434 0.15766795 0.30765656
000170 af e4 aa bd 74 f2 18 3e 03 e0 99 bd eb e2 56 3e
       -0.08344399 0.14936239 -0.0751343 0.20985
000180 42 d8 ae bd ca 1d 05 bf a4 71 15 bf a6 1d 16 bf
       -0.08537342 -0.5199858 -0.58376527 -0.5863899
000190 c8 01 94 bd e7 1a e4 be 82 fd ba be 1d cc 48 bf
       -0.07226902 -0.44551775 -0.36521536 -0.7843645
0001a0 c7 4d 44 3e ac 46 4d be 2c d3 e0 be 2c 3a 43 bf
       0.19170295 -0.2004649 -0.4391111 -0.7626064
0001b0 95 4c 79 bd 2a a5 c5 3d 03 87 7c bf 5b b7 3c bf
       -0.06086405 0.09650643 -0.9864351 -0.7371728
0001c0 63 73 7d 3e 92 92 d3 bc 75 4f 6b 3e 74 dd ac 3d
       0.24751048 -0.025826726 0.22979529 0.08440676
0001d0 e0 f1 08 be de 6d 85 3e 37 e6 58 3e bf 55 e1 bd
       -0.13373518 0.26060385 0.2118157 -0.11002683
0001e0 c8 48 cd bb b5 a9 04 3e d3 eb 58 3d 50 65 86 bd
       -0.0062647797 0.12955363 0.052959275 -0.065622926
0001f0 8a cd fa 3d 2b f1 05 3e a6 b7 5b 3e 82 59 c1 3d
       0.12246235 0.1308028 0.21456775 0.094409004
000200 5c b6 50 3e 5e 95 68 3e 87 df 19 3f 9a 3c 50 3f
       0.20382065 0.22713229 0.601067 0.8134247
000210 e0 49 61 3e c8 b2 0a 3f 1c 1d b4 3e 01 3c eb 3f
       0.22000837 0.5417905 0.3517846 1.8377687
000220 14 c7 c8 be b0 93 2b 3f 33 ab 12 3f cd f5 da 3f
       -0.39214385 0.6702223 0.5729248 1.7106262
000230 aa 3b 81 ba 83 bc 86 bf 7a 78 20 3f fa 52 af 3f
       -0.00098597 -1.0526279 0.6268383 1.3697197
000240 fa f4 18 be 0d 41 83 3d 1c 41 08 be d7 87 83 bd
       -0.14937201 0.06408892 -0.13306087 -0.06422394
000250 85 ac 87 3d cb 34 9f bd 92 9e 0e bd f8 8f e3 3b
       0.06624702 -0.07773741 -0.034819193 0.0069446526
000260 36 ce 3f bd 88 45 e1 bd 5d db ab 3d 65 8c b3 bc
       -0.046827517 -0.1099959 0.083914496 -0.021917531
000270 5b c5 97 bc bc 9d 3d bd 98 f6 ad 3d 9e 84 6d be
       -0.018526724 -0.046293005 0.084943 -0.2319512
000280 ff 03 57 3e a1 1b e3 3e 59 63 45 3f 20 f1 e4 3f
       0.20997618 0.44357017 0.7710472 1.7886086
000290 f3 f7 8d bc ad 8f 6c be 46 32 94 be 2f a4 00 bd
       -0.017330145 -0.23101683 -0.28944606 -0.031406578
0002a0 c5 73 d2 3e 03 c0 05 be 09 51 89 be b5 53 8c 3e
       0.4110395 -0.13061528 -0.26819637 0.27407613
0002b0 43 b8 f4 3d 09 17 31 3f c8 2a 77 3e 7d ff 6f 3f
       0.11949208 0.69175774 0.24137414 0.9374922
0002c0 86 5c 85 3b d1 ee b0 3c 4a a6 bc bb cf 1b b8 bd
       0.0040698675 0.021598252 -0.005757128 -0.08989679
0002d0 cd 98 c7 bd e8 18 b0 bd 12 58 b6 bd bc 69 8e be
       -0.09745941 -0.085985005 -0.08903517 -0.27815044
0002e0 24 fa 85 3d 61 15 87 3d ca 11 e4 3c 6e 06 9e 3d
       0.06541851 0.065958746 0.027840514 0.0771607
0002f0 d0 d9 c5 3d c6 30 34 3e cd a6 7f bd 60 cd c3 bc
       0.09660685 0.1759673 -0.062414933 -0.023901641
000300 e0 b4 4e bc 13 55 c6 bd c6 55 1f be 64 86 60 bd
       -0.012616366 -0.09684195 -0.15560064 -0.054815665
000310 fc 07 f5 bd 09 30 92 bd 35 5a 0e be 1e 61 00 be
       -0.119644135 -0.07138068 -0.13901599 -0.12537047
000320 a1 14 84 bd 40 fe 17 bb 9f b1 b6 bd e9 c9 93 3d
       -0.06449247 -0.0023192316 -0.08920597 0.07216246
000330 fc b3 6a 3d a0 55 85 bc 18 09 40 bd c8 e6 b8 bc
       0.057300553 -0.01627618 -0.046883672 -0.022570983
000340 e0 5f fb bc 02 f2 e5 bd 9a f7 fc bd 2e b6 72 bd
       -0.030685365 -0.112278 -0.12351914 -0.05925577
000350 b4 e2 21 be c2 12 2e be e0 39 a6 bc 11 f8 1f be
       -0.15809137 -0.16999343 -0.020291269 -0.15621974
000360 d8 f9 d4 bd ff 7e 39 bd b6 4e e5 3d f0 ef 69 bc
       -0.103992164 -0.04528713 0.111966535 -0.014278397
000370 e0 9c d3 3b 29 05 c3 3d e4 2e fc bd 2e 6e 84 bd
       0.00645791 0.095224686 -0.12313631 -0.064663276
000380 b1 a9 88 be ce 7f ed be cd 56 cb be fa 66 bd be
       -0.26691964 -0.4638657 -0.3971466 -0.36992627
000390 0d 08 7d be 5c c4 9c be a1 ab 0c be ac 98 02 bf
       -0.24710102 -0.3061856 -0.13737346 -0.5101421
0003a0 c9 07 a3 be 0b 43 5c bf 43 44 10 bf fb cf c5 be
       -0.31841877 -0.860398 -0.5635416 -0.3863524
0003b0 cb f3 b7 be cd d5 46 bf 7a b8 64 be 90 eb 4e be
       -0.35928187 -0.77669984 -0.22335997 -0.20207047
0003c0 fa d0 5f 3e 5d 46 07 3e 53 bc 2f 3c 17 7a a3 bd
       0.21857062 0.13210435 0.010726052 -0.07982271
0003d0 b1 6c 70 3e 80 22 63 3d f1 04 11 be c2 e2 d4 3d
       0.23478962 0.055452824 -0.14162041 0.10394813
0003e0 39 a1 8a 3e af 13 ab bc bd b4 b8 bc 73 bc 44 bc
       0.27076128 -0.02088341 -0.02254712 -0.01200782
0003f0 67 5d 3a bd 08 61 b6 3d 98 99 c8 be f7 fe 12 be
       -0.04549923 0.08905226 -0.39179683 -0.14355074

conv1.bias f4 [16]
000000 a6 28 06 be c8 5a a7 3c 40 8c 6a 3d 94 77 b4 3e
       -0.13101444 0.02042903 0.05726266 0.3524748
000010 39 a8 3d 3e 51 e4 02 3d ad 5f 30 be d9 fc b9 3e
       0.18521203 0.03195602 -0.17223997 0.3632572
000020 4f ad de bb 2c 89 44 3e 31 64 be 3c ed 66 1f 3e
       -0.0067955623 0.19192952 0.023241134 0.15566607
000030 eb d0 e3 3d 36 20 06 3c 29 d8 49 3d 2e 84 79 3c
       0.11123832 0.008186391 0.049278412 0.015229268

conv2.weight f4 [32, 16, 4, 4]
000000 46 b1 43 bc fb ba fd 3c 90 e6 c8 bc a9 3f 82 bd
       -0.011944121 0.030972948 -0.024524003 -0.063597985
000010 a9 dd c2 3c 29 bd ff 3c 30 f4 b2 bc 7f f6 1a 3d
       0.023787336 0.031218128 -0.021844953 0.037832733
000020 40 5b c1 3b 3e 4e 63 bd e4 14 67 3d 74 22 05 3d
       0.0059007704 -0.05549454 0.056416407 0.03250356
000030 b4 91 2b 3d c2 f0 f3 3b 92 ab 44 bd 21 b9 24 3d
       0.041887 0.007444472 -0.048015185 0.040215615
000040 47 01 8c bc 7b 83 76 bd 1e d4 4e bd fc 27 ac bc
       -0.017090453 -0.060183983 -0.05049526 -0.02101516
000050 31 75 87 bd 5f dd 5d 3c d8 f8 70 bd 69 b7 f8 bc
       -0.06614149 0.0135415485 -0.058831066 -0.030360894
000060 62 03 4a bd b8 7e 2b 3c 9d f2 03 bd 0f 2b f8 bc
       -0.049319632 0.010467224 -0.032213796 -0.03029397
000070 54 23 84 bd ad 16 a4 3d fa 5f 1e bc c0 20 b6 bc
       -0.06452051 0.080121376 -0.009666437 -0.022232413
000080 02 d2 2f bd e3 d7 27 3d 57 86 50 3c 81 ee 36 bd
       -0.04292489 0.04097737 0.012727342 -0.04466105
000090 7a 2a 0a bd d3 5d e7 bc 0b 02 51 bd 62 08 92 bd
       -0.033731915 -0.028242981 -0.05102734 -0.07130505
0000a0 6f b1 55 bd b4 08 a5 37 71 0c a6 bb 6e a1 b0 bd
       -0.052171167 1.9673585e-05 -0.005067401 -0.0862454
0000b0 01 92 54 bb 5e 70 73 bd 49 b9 d5 bc b7 67 65 bc
       -0.0032435658 -0.059433334 -0.026089327 -0.014001778
0000c0 f2 d3 46 3c 85 57 27 bc 11 7f 2c bd d9 d6 59 bd
       0.012135493 -0.010213737 -0.042113367 -0.05318341
0000d0 4c 89 09 3c f1 4a a7 bd 98 fb 32 3d 66 b1 28 bd
       0.0083945505 -0.08168591 0.04369697 -0.041184805
0000e0 c2 67 c1 bd 95 04 e4 3c 7f f8 23 3d 05 9d 8c 3b
       -0.09443618 0.027834216 0.040031906 0.004291179
0000f0 d8 a2 73 bb ab f4 60 bd bd 3f a7 bd 37 4b 63 bd
       -0.003717592 -0.054920834 -0.08166454 -0.055491652
000100 14 86 7d bd d6 83 3f bc 93 23 9e bc c2 67 19 3c
       -0.061895445 -0.011689147 -0.019304072 0.009363117
000110 5d 49 12 bb 82 66 8f bd f4 dd ae bd f3 f5 01 bd
       -0.002232156 -0.07001974 -0.08538428 -0.031728696
000120 95 4e 98 3c 48 2d 51 bc 98 c9 b4 bd 38 a4 ff bb
       0.018592158 -0.012767144 -0.088275135 -0.007801559
000130 cf 61 9d bc bf 9f 94 bd 4e 42 17 bd ad 42 01 bd
       -0.019211678 -0.07257032 -0.036928467 -0.031557728
000140 52 4d ab 3c bf 42 c7 3c b4 6a 9c 3c 45 c7 89 bd
       0.020910893 0.02432382 0.019093849 -0.06727461
000150 79 95 17 bd cf dd 23 3d 4c 09 1a 3c b8 4c d1 ba
       -0.037007783 0.040006455 0.009401631 -0.0015968299
000160 4f 53 5b bd a1 12 13 bd 6e 95 95 bb 48 ea 48 bd
       -0.053546246 -0.035906438 -0.0045649325 -0.049051553
000170 d3 a1 15 bd a0 a6 67 bd b7 57 87 3d b0 2a ee bc
       -0.03653128 -0.05655539 0.06608527 -0.02907309
000180 8c c9 a3 3c 50 d8 95 3b 16 6b 27 bd 58 80 31 bc
       0.019993566 0.0045729056 -0.04087361 -0.010833822
000190 72 17 70 bd 68 be 95 3c 4e 3d 04 3d 30 d7 f1 bc
       -0.05861611 0.01827927 0.032285027 -0.029521555
0001a0 80 17 1a 3d 60 80 67 bb a8 f3 55 3d 84 ae c6 bc
       0.037620068 -0.003532432 0.05223432 -0.024253137
0001b0 3c 4b b2 3c 30 a2 5a 3c ec 86 34 3d 0c e7 0f bd
       0.02176439 0.013344333 0.044073984 -0.035132453
0001c0 94 e5 b5 bc 55 ab ed bc 2a c8 97 bc 90 78 3d bd
       -0.022204198 -0.029012362 -0.018528063 -0.046257555
0001d0 6d f5 65 bc b2 7f af 3c 85 25 cc bd 94 0a 72 bc
       -0.014035565 0.021423195 -0.09968094 -0.01477303
0001e0 2b 64 82 bd cf 45 c1 bd 0b cd 18 bc b5 48 a3 bd
       -0.06366762 -0.09437143 -0.00932623 -0.07972852
0001f0 e2 31 c5 3c f0 b6 83 bd c3 69 2c bd 07 a3 45 bd
       0.024071638 -0.06431377 -0.04209305 -0.048251178
000200 2e 93 4a bd 80 2b df bb aa 17 77 bd 6a d0 e1 3c
       -0.049456768 -0.0068106055 -0.060325302 0.0275652
000210 d9 e8 c9 bc 90 1e 44 bc 71 3d e1 bc a8 3e 12 3d
       -0.024647163 -0.011970177 -0.027495118 0.035704285
000220 dc c2 40 bd 80 3f 77 bc e8 f0 0d 3d 1c 35 f4 bc
       -0.047060832 -0.015090823 0.034653574 -0.02981048
000230 df 8f 42 3d b0 21 fc 3c fb de 2b 3d 88 0e 4e 3d
       0.047500487 0.030777782 0.041960698 0.050306827
000240 4c 81 72 bd c8 12 9b 3c df c0 ad bd 48 71 4f bd
       -0.05920534 0.018929854 -0.08484053 -0.050645143
000250 e5 00 5f bd 06 7f a1 bd 79 a1 61 bd d4 d9 aa bc
       -0.054444212 -0.07885556 -0.055085633 -0.020855822
000260 f2 c6 8e bc 21 68 3d bd 69 2a c2 bd 1a 4d 85 3c
       -0.017428849 -0.046241883 -0.09480745 0.016272116
000270 4a ad 9c bd 0d a1 95 bd ed 0d 10 bd d2 6b a2 bd
       -0.0765024 -0.073061086 -0.03516953 -0.07930721
000280 10 9c a5 b9 e7 2f 12 bd 9c ae 24 bd 45 30 a2 ba
       -0.00031587528 -0.035690214 -0.040205583 -0.0012374005
000290 0e e6 9c bc a6 33 0c 3d f8 22 e6 bc 99 8e ee 3b
       -0.019152667 0.034228943 -0.028092846 0.0072801826
0002a0 1b 2d 4c bc e3 0b 14 3d c4 7d 90 bc f9 3c 05 3d
       -0.012461926 0.03614415 -0.017638095 0.03252885
0002b0 ab 3f c3 bb d9 6b ce bb 21 2a 0c bd 44 07 57 bd
       -0.0059585175 -0.0062994775 -0.034219865 -0.052497163
0002c0 ee 92 8b bc 6e 25 98 bd 93 d2 97 bd 25 97 53 bd
       -0.017037835 -0.07429014 -0.07413211 -0.051657815
0002d0 4f 03 35 ba b4 77 69 bd eb 0b 9b bd e4 31 65 bd
       -0.0006905095 -0.056998923 -0.075706325 -0.055955783
0002e0 d7 5e ab bd 19 11 a7 3b f5 8f d6 bd 1e 35 37 bb
       -0.08367699 0.0050984737 -0.104766764 -0.0027955244
0002f0 ce f5 91 bc fe 10 8e bd c6 9f a0 b9 07 ad cf bd
       -0.017817404 -0.06936835 -0.0003063662 -0.10140424
000300 be ad 6e bd e3 24 ab bd f2 89 77 bd c8 c2 f4 3c
       -0.058271162 -0.08356645 -0.06043429 0.029878035
000310 7c a1 06 bc ef 34 a8 3c 45 65 f8 bb 79 73 06 3d
       -0.008217212 0.020533053 -0.0075804316 0.032824967
000320 0f 0d 34 bd 34 81 9c bd 22 89 1a bd ee f2 3c bd
       -0.043957766 -0.07641831 -0.037728436 -0.046130113
000330 bd d4 f8 bc f1 5b 8c bb f9 59 b5 bd e0 56 fb bb
       -0.030374879 -0.004283421 -0.088550515 -0.0076702684
000340 01 b7 90 bc d7 89 08 bd 77 d2 48 bd f7 5d d1 bc
       -0.017665388 -0.03333458 -0.04902884 -0.025557501
000350 2f 45 1c bc 85 9d 01 3d e9 6e 6f bc 16 84 79 ba
       -0.009537979 0.031644363 -0.014613845 -0.00095182785
000360 94 b8 40 3c 7a 84 55 bd 35 03 3c bd 74 79 39 bb
       0.011762757 -0.052128293 -0.045901496 -0.0028301151
000370 9d 9c 34 bd e8 24 b9 bc de 8d 07 bb 40 3c fc bc
       -0.04409467 -0.022600606 -0.0020683925 -0.030790448
000380 14 6e 9b bc 06 bd cb 3c 72 0b b5 bd 13 ce 23 3d
       -0.018973388 0.024870407 -0.08840074 0.03999145
000390 55 4c 6e 3d a8 46 d6 bc f1 62 8a bd bc 8c 10 3b
       0.058178265 -0.026156738 -0.06757153 0.002205654
0003a0 02 06 99 3b 3a 04 f1 bc b0 a0 3c bd 4b 02 e1 b9
       0.0046699056 -0.02942096 -0.04605168 -0.00042917053
0003b0 50 ea 6a bc d7 e0 56 bd cb 0f 6e 3d 4d ed 65 3d
       -0.014338091 -0.052460518 0.05812053 0.05613451
0003c0 32 45 74 3b 70 11 51 bd fd 9e 29 bd 6f 98 15 bd
       0.003727269 -0.05104202 -0.04141139 -0.036522325
0003d0 b1 07 69 bd 72 b1 50 bd 83 cd e7 bc fe 8e 7e bd
       -0.0568921 -0.050950475 -0.028296238 -0.062148087
0003e0 74 2e 10 bc c9 79 2d bc 23 7e 4e bd 0e d4 1d 3d
       -0.008800138 -0.010588118 -0.050413262 0.03853231
0003f0 32 ae 58 3d c3 75 b2 bc 8f 13 fe 3b 08 a5 6f bc
       0.0529005 -0.021784669 0.0077537964 -0.014626749

conv2.bias f4 [32]
000000 91 2a a2 bd 7a 0e 38 bd f6 7d 2b bb 85 b2 03 be
       -0.07918275 -0.04493568 -0.0026167608 -0.12861069
000010 20 73 37 3e 13 8d 50 3e 7f c6 4d 3e f3 92 af 3d
       0.1791501 0.20366316 0.20095252 0.0857295
000020 5c bf 6a 3e 54 91 81 3c f5 27 51 bc b9 78 89 3d
       0.2292456 0.015816368 -0.012765874 0.06712479
000030 7f 99 6d bd 5e 4b a8 bd 7d 98 70 3c b2 13 4d 3e
       -0.058007713 -0.082175 0.014684794 0.20027044
000040 ad ee b1 bd 5e 7e af bd 5e bb 99 bd de 7c f5 3d
       -0.08688102 -0.085690245 -0.075064406 0.11986707
000050 c5 6f dc 3c 39 22 cd 3d 73 7f 60 3d 28 79 04 bc
       0.026908765 0.10016293 0.054809045 -0.0080855265
000060 e2 ba f5 3c d8 ec 4c bb f6 bc ce bd b6 bf 3c 3e
       0.02999634 -0.00312691 -0.10094635 0.18432507
000070 2d 33 e9 3d 09 83 57 3c cf 29 6d 3e 8b 01 59 bd
       0.11386714 0.0131538 0.2316048 -0.052979987

fc1.weight f4 [64, 800]
000000 76 5e d9 bc b6 c5 85 3c e7 02 0f bd c0 52 8b 3c
       -0.0265343 0.016329627 -0.034914877 0.017007232
000010 40 d0 0a 3c 68 d4 2f bc 99 07 bd bc 9f 56 0e 3d
       0.008472502 -0.010731794 -0.023074912 0.034750577
000020 68 d2 94 3c 02 66 9b 3c dc 8a f0 bb 9c 89 9b 3c
       0.018166736 0.01896954 -0.007340772 0.018986516
000030 90 6e 85 bc 13 b1 a7 bc 28 02 c3 3c 60 eb 00 bb
       -0.016288072 -0.020470178 0.02380474 -0.0019671544
000040 40 4e 93 ba 6a 1b ef 3c 1c b7 63 bc f8 0c e9 bb
       -0.001123853 0.029187877 -0.013898637 -0.0071121417
000050 18 3c b9 3b c0 64 9c 3c 30 0b c2 3c a6 85 f8 3c
       0.0056529157 0.01909101 0.023686975 0.030337166
000060 08 b6 dd bc f0 b5 88 3b 7b 2b 81 bd a8 8c 6d bd
       -0.027064338 0.0041720793 -0.06307121 -0.05799547
000070 09 5b de bc ad ff 57 bc 22 47 63 bd fc 2b ad bc
       -0.027143018 -0.013183516 -0.05548776 -0.021139137
000080 c3 8f a2 bc 75 b5 f3 bc ce a8 be 3c ac 67 81 bc
       -0.019843942 -0.029749611 0.023273852 -0.015796505
000090 72 4d b1 ba c8 28 7b bc 81 a1 03 b9 64 c5 6f 3c
       -0.0013527109 -0.015329547 -0.00012553298 0.014634464
0000a0 15 58 9f bc 38 50 23 3c b4 bd 55 bc 3f e1 05 bc
       -0.01945118 0.009967856 -0.013045717 -0.008171379
0000b0 14 9c 63 bd 8b 38 80 bc 81 46 13 bb 3d dd 30 bc
       -0.05556877 -0.015651962 -0.0022472444 -0.010794935
0000c0 d1 bb 8b bc 9a fc 5d bc 40 1b b0 3b c0 b3 77 3c
       -0.017057331 -0.013548994 0.005374342 0.015118539
0000d0 40 8f 76 3c 9f 06 8a bc 5a 36 0e bc d0 e0 12 bc
       0.015048802 -0.01684886 -0.008679951 -0.008964732
0000e0 29 cf 04 3d 18 57 f4 3b d8 02 3f bc ea 25 d2 bc
       0.032424126 0.0074566714 -0.011658393 -0.025652844
0000f0 c4 cd 9c bc d8 26 d2 bb 50 38 25 3c a0 bd 97 3b
       -0.019141085 -0.006413322 0.010084227 0.0046307594
000100 48 35 4d bc 5e 2e e2 3c b0 6c c6 3b a8 9f f7 bc
       -0.01252491 0.02761 0.006055437 -0.030227497
000110 f0 6e 83 3c 7c ca f3 bc 28 97 ac 3c a0 b6 61 3c
       0.01604411 -0.029759638 0.02106817 0.013776451
000120 56 9b ee bc db ba 0f bd b0 01 fe 3b 60 e8 52 bc
       -0.029126804 -0.03509031 0.007751666 -0.012872785
000130 a0 12 a6 3a 3e e9 de bc 44 0a 02 3c e4 c2 27 bc
       0.0012670346 -0.027210828 0.007937018 -0.010239337
000140 ba 90 02 bd 3c 2d 0c 3c f8 99 84 3b 64 e6 1c 3c
       -0.031876303 0.008555707 0.004046675 0.009576414
000150 8a 0a 0f bd 79 cc b2 bc 93 98 03 3d 70 fa 6c bc
       -0.03492216 -0.021826016 0.032127928 -0.014464006
000160 56 1f d9 3c d4 4d 08 bd 9c 7c 3b bc ce 42 e4 3c
       0.0265042 -0.033277348 -0.011443283 0.027863886
000170 2b 7c 01 3d 4c aa 14 3c 39 4f 99 bc 64 27 0c bd
       0.031612556 0.009073805 -0.018714534 -0.034217253
000180 0e 59 be bc 78 f6 29 3c 6c 8a c7 bb b8 af 7e bc
       -0.023235824 0.010373704 -0.006089499 -0.015544824
000190 26 46 80 bc 3b 84 35 bd e9 84 df bb 55 a8 2b bd
       -0.01565845 -0.044315558 -0.006821264 -0.04190858
0001a0 e3 4a 42 bd f6 46 5c bc fe 65 4a bd 71 35 f6 3a
       -0.0474347 -0.013444653 -0.049413674 0.0018784237
0001b0 c7 1c 6e bd d2 96 a1 bb e0 5b d5 bc 01 3c 7e bd
       -0.058132913 -0.0049313093 -0.026044786 -0.062068943
0001c0 99 ba 5a bc cf 52 c8 bb 69 d4 02 bb df ee a3 38
       -0.013350152 -0.006113387 -0.0019963032 7.816939e-05
0001d0 9e 89 b4 bc 5a 81 13 3b 49 6f 4c bd a0 a9 4b bb
       -0.022038277 0.002250752 -0.049910817 -0.0031076446
0001e0 06 17 ce bc 92 25 bd bc 8a 0d 46 bd 0a 92 4f bd
       -0.025157463 -0.023089204 -0.048352756 -0.050676383
0001f0 88 51 00 bd 38 13 56 bc 5d 9b 9d bc b6 e5 bc bc
       -0.031327754 -0.013066106 -0.019239122 -0.023058753
000200 38 66 50 39 f5 81 56 bd 83 5b 7a bd c6 c7 55 bd
       0.00019874505 -0.05237003 -0.06112243 -0.052192472
000210 bf 94 c6 bc ce 33 82 bd 50 a8 1e bd 94 34 68 bd
       -0.02424085 -0.06357537 -0.038734734 -0.056690767
000220 f2 a1 a9 ba 78 8d 45 bd 81 50 c3 bc 40 78 5b bc
       -0.001294194 -0.04823062 -0.023842098 -0.013395369
000230 b8 be 31 bd 47 ad 46 bd 33 c6 e4 bc 72 73 ad bc
       -0.043394774 -0.048505094 -0.02792654 -0.021173213
000240 ee 80 58 bd 10 b7 09 bd 4c 4d bd bc d6 73 f4 bc
       -0.052857332 -0.033621848 -0.023108147 -0.029840391
000250 11 73 7f bc c2 58 6e bd 04 ba c3 bc 44 27 f4 bc
       -0.015591399 -0.058190115 -0.02389241 -0.02980388
000260 76 ec 96 bc 95 df 9e bc 7a bf af bb cf 46 41 bd
       -0.0184233 -0.019393722 -0.005363402 -0.04718667
000270 dc 97 83 3a f6 bd 38 bd 0e 5f 67 bd 49 7b de bc
       0.0010039764 -0.045103036 -0.056487136 -0.027158396
000280 2e c5 6b bc f5 f8 db bb 86 4b 16 bb 77 63 29 3b
       -0.014390273 -0.0067130276 -0.00229332 0.002584664
000290 ea 44 92 bc f2 93 69 bd c6 d2 cb bc 6a 65 48 bd
       -0.017855126 -0.057025857 -0.024880778 -0.04892484
0002a0 52 5f ea bb 71 e0 98 bc 65 40 7a bd b8 ca 04 bd
       -0.0071524763 -0.01866171 -0.061096568 -0.03241989
0002b0 f0 e4 66 bd 52 a3 0b bd 2d ea 0e bc c4 e9 31 bd
       -0.056370676 -0.0340913 -0.008722824 -0.043435827
0002c0 ce d4 cb bb 9f b1 e5 3a 5a 48 56 bc ba eb 2a 3b
       -0.0062204367 0.0017524249 -0.013078773 0.0026080445
0002d0 8a 0c dd bb be a3 62 bd 6d 01 25 bd 6f 9c 39 bc
       -0.0067458795 -0.055331938 -0.040284563 -0.011328801
0002e0 a4 e7 f7 bc 8b ba 1c bd ca c9 e6 bc 85 e7 6d bd
       -0.030261822 -0.03826384 -0.028172392 -0.058082122
0002f0 fc 9d bc 3c 4c 07 a4 bb 84 23 86 38 08 2b 85 bd
       0.023024552 -0.0050057527 6.396233e-05 -0.06502348
000300 21 85 0f bd 6d f7 ad 3a c2 bf f3 3a b0 78 0a bc
       -0.03503907 0.0013272591 0.0018596577 -0.008451626
000310 c8 c3 f3 bc b1 82 1a bc ca 3a a7 3a c1 29 91 bc
       -0.029756442 -0.009430573 0.0012758609 -0.017720105
000320 be 6b b8 bc 03 1e 12 bd 1b a8 66 bd b9 6b 94 bc
       -0.022512313 -0.035673153 -0.05631266 -0.018117772
000330 71 8d 12 bd 25 5a fc bc 4a e2 33 bd 4b 85 49 bd
       -0.03577942 -0.030804703 -0.043916978 -0.049199384
000340 e9 0e 6b bd 29 91 51 bc 48 b9 63 bd f6 ef b4 bc
       -0.057387266 -0.012790957 -0.05559662 -0.022087079
000350 1d 31 66 bd 1f dd eb bc e3 04 e5 bc 57 9c de bc
       -0.05619918 -0.028791962 -0.027956432 -0.027174158
000360 dd a4 21 bd 60 37 60 bd 34 9c 6e bd d8 3c 58 bd
       -0.039463867 -0.05474031 -0.058254436 -0.0527924
000370 3e 1c 48 bd cb e6 ff bb 4b 65 1b bd 7f eb f6 bc
       -0.04885506 -0.007809495 -0.037938397 -0.03014159
000380 1d 53 47 bd 62 ab 84 bd f0 ba a0 bc 62 d8 24 bc
       -0.048663247 -0.06478001 -0.019620389 -0.010061355
000390 b4 c4 39 bd 35 b9 16 bd c3 e0 69 bc fc a7 c7 bc
       -0.045353606 -0.03679772 -0.014274779 -0.024372093
0003a0 52 41 9f 3a 30 89 76 bc 91 a7 01 bd 5b 09 71 bd
       0.0012150204 -0.0150473565 -0.031653944 -0.058846813
0003b0 9f 45 5b bd 8d ea 59 bd f1 b5 e3 bc de 64 45 bd
       -0.053533193 -0.0532022 -0.027796717 -0.048191898
0003c0 19 cc 09 bd 0b ea 5e bd 8d 9f 87 bd a1 6a 56 bd
       -0.03364191 -0.05442242 -0.06622229 -0.052347783
0003d0 46 1d 6f bd b8 00 3a bd 61 c1 f6 bc 76 be 4b bc
       -0.058377527 -0.04541084 -0.030121507 -0.012435546
0003e0 62 12 29 bd d2 76 a0 bc 7d 33 80 bd e9 c7 4a bd
       -0.041277297 -0.019587908 -0.062598206 -0.049507055
0003f0 20 6e 19 bd 18 8b 83 bc 36 55 0b 3b 48 3e 6f bd
       -0.03745854 -0.016057536 0.0021260506 -0.058409005

fc1.bias f4 [64]
000000 b6 9f 85 bd 5d 18 7a bd f2 b7 68 bd 8c 7c c0 3c
       -0.06524603 -0.06105839 -0.05681605 0.023496889
000010 67 53 1d bd 29 a0 fc 3d 4d 38 21 bd f9 78 87 bb
       -0.038409617 0.123352356 -0.039360333 -0.004134294
000020 59 30 25 bd 26 94 fb bc 78 bf 06 3e d2 7b 0a 3d
       -0.04032931 -0.030710291 0.13158977 0.03380949
000030 60 da b2 bc c7 58 d9 3d ae f5 b9 3c 70 0b 40 bd
       -0.021832645 0.10612636 0.022700157 -0.046885908
000040 51 dc f4 bc c7 9f 45 bd 72 e5 e1 bc a9 cb 82 3e
       -0.029890211 -0.04824808 -0.027575228 0.25546005
000050 47 df 0b 3d 07 92 79 bd 88 ec 58 bc eb d4 50 bd
       0.03414848 -0.06093028 -0.013239987 -0.050984304
000060 d7 df 1b bd c2 9e 32 3b fa b2 01 3e 73 f0 23 bd
       -0.038055267 0.0027255272 0.1266593 -0.040024232
000070 76 a2 1a 3d e2 85 5a 3e ca d5 4c bd b7 76 2b 3c
       0.03775259 0.21340135 -0.050008573 0.010465316
000080 af 9f 6a bb a9 74 1f bd 6b fc a4 3c e6 0d 68 3c
       -0.0035800745 -0.038929615 0.020139894 0.01416347
000090 eb 69 ce 3c ed 7c 47 bd f7 70 80 3d 7e 2b f5 bc
       0.02519699 -0.048703123 0.06271546 -0.029927965
0000a0 19 fe 3c bd 83 c0 0b bd fa ba 04 3c c7 9c 85 bd
       -0.046140764 -0.03411914 0.008101219 -0.065240435
0000b0 d8 f3 74 bc d4 f7 ec 3d 55 33 b5 bc 72 c5 6d bd
       -0.014950715 0.11570707 -0.022119204 -0.058049627
0000c0 34 af 95 3a 54 12 1b bc 61 39 03 3d 5a 06 78 bc
       0.0011420012 -0.009464819 0.032037143 -0.015138233
0000d0 f0 d5 83 3c 78 6a ae 3d a3 4a 86 bb a1 0f 49 bc
       0.016093224 0.08516401 -0.004098253 -0.012271793
0000e0 d1 ac d2 3d a2 ed f8 bc 12 57 05 3d 64 fe da ba
       0.10286868 -0.03038675 0.03255374 -0.0016707894
0000f0 5a 4f c0 bc 49 15 a1 3c 6a 10 f9 bc 36 94 0b bc
       -0.023475338 0.01966347 -0.030403335 -0.008519223

fc4.weight f4 [8, 64]
000000 36 ad c1 3d 04 cf 79 bd 6b e5 1b be 1f 74 ee 3c
       0.094568655 -0.06098844 -0.15224235 0.029108105
000010 e5 52 ca 39 7d 75 17 3e 65 ea dc 3d 4a 12 39 3d
       0.00038590204 0.14790912 0.10786895 0.045183457
000020 81 af 81 3b 84 d5 7f bc 23 29 b2 bd 9a a1 20 3d
       0.0039576893 -0.015614871 -0.086992525 0.039216615
000030 e0 d7 b3 3d 65 e1 4b 3e 9a 92 29 3c 78 69 db bd
       0.08781409 0.199102 0.010349894 -0.10713476
000040 4c b5 ff 3d 79 98 9f 3c e0 e8 81 3c 90 89 de be
       0.124857515 0.019481884 0.015858114 -0.43464327
000050 8b 09 fd bd 9e 2d e8 bd 28 cc 15 be 84 7d 69 3d
       -0.12355336 -0.11336826 -0.1462866 0.057004467
000060 8f 7b 6e bd b7 5b b2 bb cd 16 27 3c 5c fc 87 3d
       -0.058223303 -0.005443062 0.010198307 0.066399306
000070 8f 2b b1 bd 9d 2c 93 bc df 8d 1f bd fc 49 d1 3c
       -0.08650886 -0.01796561 -0.03895366 0.025547974
000080 3c 71 da bd b6 48 ee 3d 00 37 cd 3d 00 a0 ef 3d
       -0.10666129 0.11634962 0.10020256 0.117004395
000090 95 b1 df bc 73 17 a0 bd 76 09 5b be 77 e3 50 3e
       -0.027306357 -0.078169726 -0.21390328 0.20399271
0000a0 3a e3 b8 bc a8 61 83 bc f5 38 d0 bd 82 32 65 3e
       -0.022569288 -0.016037777 -0.10167114 0.22382548
0000b0 3f ec b3 bd e3 50 df 3e 52 2d 7d 3e 3a 95 f3 bd
       -0.08785295 0.436164 0.2472432 -0.11893697
0000c0 4a 44 25 bb a9 09 a6 bd 8e e7 0b be b0 17 13 3d
       -0.0025217705 -0.08107311 -0.1366255 0.035911262
0000d0 9f eb f5 bd d4 37 19 3e ab 7c d3 bc 04 2f b6 3d
       -0.12007832 0.14962703 -0.025816282 0.08895686
0000e0 af a5 33 3e e2 be 8b bd 64 36 5a bd 7e 91 95 bc
       0.17543672 -0.068235174 -0.053274527 -0.018257853
0000f0 c4 c7 86 bd 8d ac aa 3d 54 c0 4a bd a4 c8 7a bd
       -0.06581071 0.08333693 -0.049499825 -0.061226502
000100 00 53 50 3a 94 c4 e9 3d ce db fe 3d 71 04 ea bd
       0.0007946938 0.114144474 0.12444268 -0.114266284
000110 a5 f5 bf bb e1 86 df bd 3a 01 f8 bc b6 f1 bd 3d
       -0.0058581405 -0.10914398 -0.030274022 0.09274618
000120 f8 ff 9a bd 8c cb aa 3d 3f 53 93 3e b6 3e c8 3d
       -0.075683534 0.08339605 0.2877445 0.09777586
000130 48 b7 b1 3c 96 94 37 bd 53 c1 ac 3d e8 6c aa 3d
       0.02169384 -0.044819437 0.08435311 0.083215535
000140 cb 4f 94 3d 23 0e 1c bc 68 89 97 bd db 31 3d be
       0.07241782 -0.009524855 -0.07399255 -0.1847605
000150 db ed 51 3c 20 f4 1d 3c 76 6c ca 3d 3a 1b 7c 3d
       0.012813057 0.0096407235 0.098839685 0.061549403
000160 7b 3e 31 3d a7 05 8f bd fe 95 c5 be 3c 7a a5 bd
       0.043272477 -0.069835 -0.38590997 -0.08079955
000170 c7 87 1e 3d e1 f9 25 be 0d 7a ac 3d 00 2f 8b 3d
       0.038703706 -0.16208602 0.08421717 0.06796074
000180 44 b4 50 3d d6 ba 40 3d 24 17 56 bb 64 3e 8f bc
       0.050953165 0.04705318 -0.0032667601 -0.017485805
000190 b9 ad f4 bc 7d 7c 85 bd e1 40 aa bd a9 c7 ce 3e
       -0.029867994 -0.06517885 -0.08313156 0.40386704
0001a0 ab c8 0b 3d 17 08 ce 3c 65 56 1a be c1 7a f8 3d
       0.03412692 0.025150342 -0.1507202 0.121327884
0001b0 20 fe f8 3b 2e 41 a2 be e0 54 35 3c b0 45 40 ba
       0.0075986534 -0.31690353 0.011067599 -0.0007334603
0001c0 48 fe bd bc 58 5a ec 3d 8b 4e fc 3b a4 67 44 3d
       -0.02319254 0.11540669 0.0076997927 0.047950402
0001d0 1b 57 dc bd a8 b5 88 3e fa 4a 39 3d e4 eb dc 3d
       -0.107588015 0.26701093 0.04523752 0.1078718
0001e0 65 e1 6d 3d c4 ad 8a 3d 43 5a b7 3c f1 8b e8 3c
       0.05807628 0.067714244 0.022381907 0.028387042
0001f0 c6 ff b9 3c 62 12 c8 3d 04 9c 7e 3d b6 19 2c bd
       0.02270497 0.09769131 0.062160507 -0.042016707
000200 46 9a fa bd 98 df 29 bd c0 13 8f 3d bf db 09 3d
       -0.122364566 -0.041473 0.06986189 0.03365683
000210 6f f6 d4 3d 72 d6 97 bd 7c 67 2d bd 90 1c dd bd
       0.10398566 -0.07413949 -0.04233502 -0.107964635
000220 9e 5e 83 bd 82 e0 b7 bd b5 2b a6 be 24 e3 ed bd
       -0.06414531 -0.08978368 -0.3245522 -0.11615589
000230 b8 c7 87 bd b1 9a 46 3e ed 6f 6c 3b 12 9d c9 3d
       -0.0662989 0.19394948 0.0036077455 0.09844412
000240 20 64 98 3d ae 96 9d bd 5f 6a 1a 3d d8 b7 cf be
       0.07440972 -0.076947555 0.0376991 -0.4056995
000250 f6 ac d0 bd 3d 74 80 bb 0f 55 68 bd 98 f9 47 bb
       -0.1018924 -0.0039201067 -0.056721743 -0.003051376
000260 20 dc a8 3d 82 fa b2 3d bf 72 9c 3e b8 8b bd 3d
       0.082451105 0.08739187 0.30556294 0.09255165
000270 c7 bd bd 3e 4f e7 12 3e 65 57 c0 bd 50 0d 08 3d
       0.3705885 0.1434605 -0.09391669 0.03321582
000280 17 e9 10 bc 7a c4 9e 3c 39 37 df 3d 12 8e c3 3d
       -0.008844635 0.019380797 0.10899205 0.09548582
000290 0f 6e bd 3d c1 7b 24 bd 71 42 be 3d 33 5a 92 3e
       0.09249508 -0.040157083 0.092900164 0.28584442
0002a0 1e d6 5e bb 54 df 72 3d f8 94 c6 bd 43 e8 b4 3e
       -0.0034002136 0.059295014 -0.09696382 0.35333452
0002b0 36 f9 ac 3d 85 23 81 3d 9f b9 00 be a3 d0 ae 3d
       0.08445971 0.06305603 -0.12570809 0.08535888
0002c0 16 dc e7 3d 51 71 d1 3d a3 23 68 bd 5b 35 66 3d
       0.11321275 0.102266915 -0.05667461 0.056203227
0002d0 d3 f2 a8 3d ae e9 27 3e 84 95 cc 3d 0a e5 e6 3d
       0.0824944 0.16397735 0.09989455 0.112741545
0002e0 fd 77 55 3e 2f d0 12 3c b6 d7 8c bd 79 1f 8c bd
       0.20846553 0.008960768 -0.06877081 -0.068419404
0002f0 0b b3 88 3d 7f 4b 86 3b 80 38 eb bb 30 94 7e bd
       0.06674775 0.0040983553 -0.007178366 -0.06215304
000300 4c da 55 bd 2e 4e c3 bd 5d 84 71 bd 9a 98 06 3d
       -0.052210137 -0.09536396 -0.058964122 0.032860376
000310 25 08 b1 3d ed 8e c4 3d 1e b9 a6 3d 15 0e 17 bd
       0.086441316 0.095975734 0.08140777 -0.036878664
000320 75 6a 91 bd 8f 83 08 be 9d 9d 49 3e 13 87 7e 3d
       -0.07100383 -0.13331436 0.19689031 0.062140536
000330 e5 87 0e be c7 55 36 be a4 c2 e9 bc 12 38 f5 bd
       -0.13919027 -0.17806159 -0.028535195 -0.11973585
000340 19 91 7c 3d af 39 3f bd 7e 23 bd bd 1e d4 16 3d
       0.061661813 -0.04668587 -0.09235285 0.036823384
000350 01 ec f2 3c 14 7d 0e bd b0 94 cd 3d bd 18 58 3d
       0.029653551 -0.034787253 0.100381255 0.052757967
000360 b0 9b 40 bd c3 3b a2 3d 30 f5 be 3e 68 7d 7d bc
       -0.047023475 0.07921555 0.37296438 -0.015471794
000370 5f 82 06 be 20 ec 1a bf a8 05 bc bc b8 b4 bf 3d
       -0.1313567 -0.6051655 -0.022951916 0.09360641
000380 54 12 08 3d d2 f6 a3 3d 94 cd 14 bd b8 23 31 3d
       0.033220604 0.080060616 -0.036328867 0.043246955
000390 81 3e 8c 3d 45 a1 73 bc aa 91 5a 3e a3 ab 55 3d
       0.06847859 -0.014869993 0.21344629 0.05216564
0003a0 94 ab 41 3c 90 51 a0 3d 29 4b ba 3d 45 fc 9d 3e
       0.011820693 0.07828057 0.09096367 0.3085653
0003b0 ef 9b 8b bc c8 c1 9c be 62 cc 26 3e 22 7d e7 bd
       -0.017042128 -0.30616593 0.16288903 -0.11303164
0003c0 71 6d ed 3d c4 38 9a 3d 04 f8 9d bd 24 6a 51 3d
       0.1159314 0.075303584 -0.07713321 0.051126614
0003d0 2e 83 0e 3d a7 88 8a bd 7d 6a 98 b9 83 4b fd bd
       0.03479307 -0.067643456 -0.0002907104 -0.12367918
0003e0 56 bf 4c 3d a4 ff 8d 3d 2c a9 a6 3d f3 23 1b 3d
       0.04998716 0.06933525 0.08137736 0.03787608
0003f0 57 5e e1 3c cd e0 df 3d 49 d6 c8 3c 71 48 cd 3c
       0.027510805 0.10931549 0.024516242 0.025058957

fc4.bias f4 [8]
000000 7e af 18 3b 40 f3 0f 3e 33 fd a2 3d 35 ec 1c bd
       0.002329796 0.14057636 0.0795845 -0.038311202
000010 66 25 02 bd 56 d7 cc 3d 00 b7 24 bd 9c 31 03 be
       -0.031773947 0.100020096 -0.040213585 -0.12811893

conv1.weight f4 [16, 2, 4, 4]
000000 47 4d 5a 3d c2 0a 6d be 62 12 7e be 2f 75 70 be
       0.053296354 -0.23148635 -0.248117 -0.23482202
000010 46 71 35 be 9c 18 00 be c9 34 8e 3f 5d f4 7f be
       -0.17718992 -0.12509388 1.1109859 -0.24995561
000020 89 dd 40 be ba 12 50 be 94 61 79 3f 37 2d 75 be
       -0.18834509 -0.20319644 0.9741452 -0.2394303
000030 51 5c 1b be 9a d7 01 be d7 ce 45 be 24 28 6b bd
       -0.15171935 -0.12679902 -0.19317184 -0.057411328
000040 1f 12 0e be 6b b5 4e bd f3 21 b6 bd 5b bd 80 3d
       -0.138741 -0.050465982 -0.08893194 0.06286117
000050 b6 0f bf be a7 f8 d1 3d d5 2c a9 3c e1 c9 b6 be
       -0.37316674 0.10252505 0.02065126 -0.35700896
000060 cb 78 8c 3d 4f ad 3f 3d 59 6f c1 bd 53 fb a7 bd
       0.06858977 0.04679614 -0.09445066 -0.08202233
000070 94 a4 dd 3d 7b a2 4e 3d e7 c0 3a 3e 3a 47 52 3e
       0.108224064 0.050447922 0.18237649 0.20534983
000080 70 cb 83 be 8f aa 92 3d 29 b0 49 3e 54 f1 c4 3e
       -0.25741148 0.07161438 0.19696106 0.3846537
000090 1e 40 31 bd 18 cb 88 bd 43 f4 e7 bd 46 ea 23 bd
       -0.043274038 -0.06679362 -0.11325886 -0.040018342
0000a0 03 49 1c be 3d 2c 69 3e 53 96 d9 3e 16 0c 47 be
       -0.15262227 0.22770782 0.424975 -0.19438204
0000b0 30 6e ff bd 62 01 66 bd 87 79 23 be e7 69 31 40
       -0.124721885 -0.056153663 -0.15964328 2.7720888
0000c0 7b 7b af bc ea b0 8d bc bd 70 27 3c c2 f8 b9 be
       -0.021421185 -0.017296273 0.01021975 -0.363226
0000d0 65 20 1c bf a2 a4 15 be 4f fd 6d 3d fd 29 20 bf
       -0.6098693 -0.14613584 0.058102902 -0.6256407
0000e0 66 95 4b bc 55 be 6a bd 34 66 61 3d ae f1 69 bd
       -0.012425756 -0.05731042 0.05502911 -0.05711525
0000f0 c6 f3 19 bb e7 df 45 3d 0c 8f a4 bd 90 1a fe bb
       -0.0023491248 0.048309233 -0.080350965 -0.0077546313
000100 46 c5 61 3c 20 7a 41 3c 36 e8 bc bc 73 ed 2c bf
       0.013779944 0.011808902 -0.023059946 -0.6754982
000110 ec 9d 61 3e d2 4d f8 3e 14 53 78 3f 31 5f d6 3f
       0.22032899 0.48496872 0.9700177 1.67478
000120 99 69 45 3e 60 c6 49 3e cd d9 39 3f 7d 1e e0 3f
       0.19278564 0.1970458 0.7259796 1.7509304
000130 5b 40 a3 3c 54 c0 3d bd 7a f4 67 be ad ea 1c 3f
       0.019928148 -0.046325997 -0.22651854 0.61295587
000140 4d 9e 03 3e 22 1d 67 3d d5 cb 06 bd 5e df 7f 3e
       0.12853356 0.056424268 -0.032909233 0.24987552
000150 9f 6d 44 3e ff 27 0d be 57 b8 4b 3d 15 dd a9 3e
       0.19182442 -0.13784789 0.049736347 0.33176485
000160 4a cc 81 bd f9 0d 73 3e 06 8b 2a 3e 2c 59 9e 3e
       -0.06337793 0.23735799 0.16654596 0.30927408
000170 e4 b6 2e bd 53 0a 1b 3e 97 4d 14 be d1 f9 63 3e
       -0.042654887 0.15140657 -0.14482723 0.22263266
000180 fe 01 32 3c c8 23 89 be bb 29 cc be b7 28 c6 be
       0.010864733 -0.2678511 -0.39875588 -0.38702938
000190 a1 98 fe bc e8 b7 b5 be 54 bd bb be ab fd 43 bf
       -0.031078639 -0.35491872 -0.36667883 -0.7655894
0001a0 db 8e 32 3e db a0 5f be 43 c5 11 bf 6e 79 3d bf
       0.17437308 -0.21838705 -0.5694162 -0.7401341
0001b0 43 17 a6 bd 96 5a 11 3d a7 23 71 bf bd cf 42 bf
       -0.081099056 0.03548678 -0.94195026 -0.76098233
0001c0 e3 ed 76 3e 9a 91 09 bd f6 5f 5e 3e 8c 9e c2 3d
       0.24114184 -0.033586122 0.21716294 0.09502897
0001d0 3b 72 0c be 30 b4 82 3e e7 91 54 3e db c7 d0 bd
       -0.1371545 0.25528097 0.20758782 -0.101943694
0001e0 3a 0c 2e bc 37 c9 06 3e 43 ee 5b 3d a0 9d aa bd
       -0.010623032 0.13162695 0.05369402 -0.08330846
0001f0 10 75 f2 3d 60 86 0a 3e 2f f8 5f 3e be 11 09 3d
       0.11838734 0.13527822 0.21872018 0.033464186
000200 fa 93 bc 3d fb d1 7c bd ba 14 65 3e a7 8d 41 3e
       0.09207912 -0.06172369 0.22371188 0.18901692
000210 c4 23 13 3e c0 77 b5 3e c4 bb 29 3e fb d2 ce 3f
       0.14369112 0.35442924 0.16575533 1.6158136
000220 14 c7 c8 be 2e 46 25 3f 01 0f 1c 3f b8 68 f5 3f
       -0.39214385 0.6456021 0.60960394 1.9172583
000230 7f 76 cb 3d 83 bc 86 bf 61 0f 2e 3f 08 7a b2 3f
       0.09934711 -1.0526279 0.67992216 1.3943491
000240 10 02 18 be 38 cd ad 3d 8a 1a 1d be 98 82 3b bd
       -0.14844537 0.08486408 -0.15342155 -0.04577884
000250 0a 6a 59 3d 73 c0 8e bd bb 01 8b bd f8 fe 34 3c
       0.053079642 -0.069703005 -0.067874394 0.011047117
000260 f3 a7 6b bd 4a 63 e8 bd fb fe a3 3d cf 27 0e bd
       -0.057533216 -0.11347063 0.08007618 -0.034705933
000270 42 38 83 bc 47 38 57 bd da 8b a7 3d 85 0a f6 be
       -0.016018037 -0.052543905 0.081809714 -0.480549
000280 f8 7e 11 3e eb ce d1 3e 3d ca 31 3f f1 cd d2 3f
       0.14208591 0.40978178 0.69449216 1.6469098
000290 c9 c1 7e bc 70 37 fb bd ab 30 50 be 9c a1 2a bd
       -0.015549132 -0.12266433 -0.20331065 -0.04165803
0002a0 7f 25 fe 3e 4d a0 29 be 85 8f 74 be 8f 54 39 3e
       0.49637982 -0.16565056 -0.23882873 0.18098663
0002b0 ce c4 28 3e 0c 34 35 3f 2a ee 87 3e 0b f4 80 3f
       0.16481325 0.7078254 0.26548892 1.0074476
0002c0 60 15 12 3d 1b 96 1f 3d 48 86 80 3c a5 73 28 be
       0.035664916 0.03896151 0.01568903 -0.16450365
0002d0 00 90 d8 bd 51 8e c2 bd d4 33 70 bd d0 61 b0 be
       -0.10574341 -0.09499801 -0.058643177 -0.34449625
0002e0 27 ba 62 3d b6 59 8a 3d ff 1b c3 3c b9 6c 1f bb
       0.05535331 0.06755392 0.02381706 -0.0024326278
0002f0 c4 7e 9f 3d ca 36 2f 3e 6d 7c 09 be 80 d6 e4 bd
       0.077878505 0.17110744 -0.13426371 -0.11173725
000300 e0 b4 4e bc 13 55 c6 bd c6 55 1f be 64 86 60 bd
       -0.012616366 -0.09684195 -0.15560064 -0.054815665
000310 fc 07 f5 bd 09 30 92 bd 35 5a 0e be 1e 61 00 be
       -0.119644135 -0.07138068 -0.13901599 -0.12537047
000320 a1 14 84 bd 40 fe 17 bb 9f b1 b6 bd e9 c9 93 3d
       -0.06449247 -0.0023192316 -0.08920597 0.07216246
000330 fc b3 6a 3d a0 55 85 bc 18 09 40 bd c8 e6 b8 bc
       0.057300553 -0.01627618 -0.046883672 -0.022570983
000340 e0 5f fb bc 02 f2 e5 bd 9a f7 fc bd 2e b6 72 bd
       -0.030685365 -0.112278 -0.12351914 -0.05925577
000350 b4 e2 21 be c2 12 2e be e0 39 a6 bc 11 f8 1f be
       -0.15809137 -0.16999343 -0.020291269 -0.15621974
000360 d8 f9 d4 bd ff 7e 39 bd b6 4e e5 3d f0 ef 69 bc
       -0.103992164 -0.04528713 0.111966535 -0.014278397
000370 e0 9c d3 3b 29 05 c3 3d e4 2e fc bd 2e 6e 84 bd
       0.00645791 0.095224686 -0.12313631 -0.064663276
000380 18 1d 18 be a2 c2 c7 be ab fe 86 be 7c ff fa be
       -0.14854848 -0.3901568 -0.2636617 -0.49023044
000390 44 97 9b be 9a 34 cc be 6f 9b 53 be 04 3f 02 bf
       -0.30388844 -0.39883882 -0.20664762 -0.50877404
0003a0 79 a7 9c be 88 53 65 bf c0 70 12 bf 71 1d e3 be
       -0.30596521 -0.89580584 -0.5720329 -0.443584
0003b0 32 9d b7 be 67 d1 49 bf 35 a1 81 be 0f ed 5b be
       -0.35862118 -0.7883515 -0.25318304 -0.2147715
0003c0 67 b6 56 3e db fc f7 3d 01 9d 36 bb a9 16 b4 bd
       0.20968018 0.12108775 -0.0027864578 -0.087933846
0003d0 09 f0 69 3e df f1 36 3d c8 eb 0e be 4a c9 c4 3d
       0.22845472 0.04466426 -0.13957131 0.09608705
0003e0 ef 22 8d 3e 0e d1 b2 bc fa ab d7 bc b5 f4 66 bd
       0.27565715 -0.0218282 -0.026327122 -0.056385715
0003f0 47 d8 50 bd cf 45 c5 3d 5f 59 b8 be 62 5f 3d be
       -0.05098751 0.096324556 -0.36005685 -0.18493417

conv1.bias f4 [16]
000000 53 2a de bd 87 34 38 3c 80 e9 ee 3d 93 20 ad 3e
       -0.108479165 0.011242992 0.1166563 0.33813915
000010 a0 8d 38 3e d1 17 e5 3c ad 5f 30 be 53 37 b5 3e
       0.18022776 0.027965458 -0.17223997 0.35393772
000020 40 b7 33 ba c8 59 3a 3e 87 b4 b1 3c 36 3a 25 3e
       -0.00068556145 0.18198311 0.021692527 0.16135487
000030 36 32 ad 3d 70 fe 41 3c 14 9c 36 3d d2 75 a8 3c
       0.084568426 0.011840448 0.04458244 0.020563994

conv2.weight f4 [32, 16, 4, 4]
000000 46 b1 43 bc fb ba fd 3c 90 e6 c8 bc a9 3f 82 bd
       -0.011944121 0.030972948 -0.024524003 -0.063597985
000010 a9 dd c2 3c 29 bd ff 3c 30 f4 b2 bc 7f f6 1a 3d
       0.023787336 0.031218128 -0.021844953 0.037832733
000020 40 5b c1 3b 3e 4e 63 bd e4 14 67 3d 74 22 05 3d
       0.0059007704 -0.05549454 0.056416407 0.03250356
000030 b4 91 2b 3d c2 f0 f3 3b 92 ab 44 bd 21 b9 24 3d
       0.041887 0.007444472 -0.048015185 0.040215615
000040 47 01 8c bc 7b 83 76 bd 1e d4 4e bd fc 27 ac bc
       -0.017090453 -0.060183983 -0.05049526 -0.02101516
000050 31 75 87 bd 5f dd 5d 3c d8 f8 70 bd 69 b7 f8 bc
       -0.06614149 0.0135415485 -0.058831066 -0.030360894
000060 62 03 4a bd b8 7e 2b 3c 9d f2 03 bd 0f 2b f8 bc
       -0.049319632 0.010467224 -0.032213796 -0.03029397
000070 54 23 84 bd ad 16 a4 3d fa 5f 1e bc c0 20 b6 bc
       -0.06452051 0.080121376 -0.009666437 -0.022232413
000080 02 d2 2f bd e3 d7 27 3d 57 86 50 3c 81 ee 36 bd
       -0.04292489 0.04097737 0.012727342 -0.04466105
000090 7a 2a 0a bd d3 5d e7 bc 0b 02 51 bd 62 08 92 bd
       -0.033731915 -0.028242981 -0.05102734 -0.07130505
0000a0 6f b1 55 bd b4 08 a5 37 71 0c a6 bb 6e a1 b0 bd
       -0.052171167 1.9673585e-05 -0.005067401 -0.0862454
0000b0 01 92 54 bb 5e 70 73 bd 49 b9 d5 bc b7 67 65 bc
       -0.0032435658 -0.059433334 -0.026089327 -0.014001778
0000c0 f2 d3 46 3c 85 57 27 bc 11 7f 2c bd d9 d6 59 bd
       0.012135493 -0.010213737 -0.042113367 -0.05318341
0000d0 4c 89 09 3c f1 4a a7 bd 98 fb 32 3d 66 b1 28 bd
       0.0083945505 -0.08168591 0.04369697 -0.041184805
0000e0 c2 67 c1 bd 95 04 e4 3c 7f f8 23 3d 05 9d 8c 3b
       -0.09443618 0.027834216 0.040031906 0.004291179
0000f0 d8 a2 73 bb ab f4 60 bd bd 3f a7 bd 37 4b 63 bd
       -0.003717592 -0.054920834 -0.08166454 -0.055491652
000100 14 86 7d bd d6 83 3f bc 93 23 9e bc c2 67 19 3c
       -0.061895445 -0.011689147 -0.019304072 0.009363117
000110 5d 49 12 bb 82 66 8f bd f4 dd ae bd f3 f5 01 bd
       -0.002232156 -0.07001974 -0.08538428 -0.031728696
000120 95 4e 98 3c 48 2d 51 bc 98 c9 b4 bd 38 a4 ff bb
       0.018592158 -0.012767144 -0.088275135 -0.007801559
000130 cf 61 9d bc bf 9f 94 bd 4e 42 17 bd ad 42 01 bd
       -0.019211678 -0.07257032 -0.036928467 -0.031557728
000140 52 4d ab 3c bf 42 c7 3c b4 6a 9c 3c 45 c7 89 bd
       0.020910893 0.02432382 0.019093849 -0.06727461
000150 79 95 17 bd cf dd 23 3d 4c 09 1a 3c b8 4c d1 ba
       -0.037007783 0.040006455 0.009401631 -0.0015968299
000160 4f 53 5b bd a1 12 13 bd 6e 95 95 bb 48 ea 48 bd
       -0.053546246 -0.035906438 -0.0045649325 -0.049051553
000170 d3 a1 15 bd a0 a6 67 bd b7 57 87 3d b0 2a ee bc
       -0.03653128 -0.05655539 0.06608527 -0.02907309
000180 8c c9 a3 3c 50 d8 95 3b 16 6b 27 bd 58 80 31 bc
       0.019993566 0.0045729056 -0.04087361 -0.010833822
000190 72 17 70 bd 68 be 95 3c 4e 3d 04 3d 30 d7 f1 bc
       -0.05861611 0.01827927 0.032285027 -0.029521555
0001a0 80 17 1a 3d 60 80 67 bb a8 f3 55 3d 84 ae c6 bc
       0.037620068 -0.003532432 0.05223432 -0.024253137
0001b0 3c 4b b2 3c 30 a2 5a 3c ec 86 34 3d 0c e7 0f bd
       0.02176439 0.013344333 0.044073984 -0.035132453
0001c0 94 e5 b5 bc 55 ab ed bc 2a c8 97 bc 90 78 3d bd
       -0.022204198 -0.029012362 -0.018528063 -0.046257555
0001d0 6d f5 65 bc b2 7f af 3c 85 25 cc bd 94 0a 72 bc
       -0.014035565 0.021423195 -0.09968094 -0.01477303
0001e0 2b 64 82 bd cf 45 c1 bd 0b cd 18 bc b5 48 a3 bd
       -0.06366762 -0.09437143 -0.00932623 -0.07972852
0001f0 e2 31 c5 3c f0 b6 83 bd c3 69 2c bd 07 a3 45 bd
       0.024071638 -0.06431377 -0.04209305 -0.048251178
000200 2e 93 4a bd 80 2b df bb aa 17 77 bd 6a d0 e1 3c
       -0.049456768 -0.0068106055 -0.060325302 0.0275652
000210 d9 e8 c9 bc 90 1e 44 bc 71 3d e1 bc a8 3e 12 3d
       -0.024647163 -0.011970177 -0.027495118 0.035704285
000220 dc c2 40 bd 80 3f 77 bc e8 f0 0d 3d 1c 35 f4 bc
       -0.047060832 -0.015090823 0.034653574 -0.02981048
000230 df 8f 42 3d b0 21 fc 3c fb de 2b 3d 88 0e 4e 3d
       0.047500487 0.030777782 0.041960698 0.050306827
000240 4c 81 72 bd c8 12 9b 3c df c0 ad bd 48 71 4f bd
       -0.05920534 0.018929854 -0.08484053 -0.050645143
000250 e5 00 5f bd 06 7f a1 bd 79 a1 61 bd d4 d9 aa bc
       -0.054444212 -0.07885556 -0.055085633 -0.020855822
000260 f2 c6 8e bc 21 68 3d bd 69 2a c2 bd 1a 4d 85 3c
       -0.017428849 -0.046241883 -0.09480745 0.016272116
000270 4a ad 9c bd 0d a1 95 bd ed 0d 10 bd d2 6b a2 bd
       -0.0765024 -0.073061086 -0.03516953 -0.07930721
000280 10 9c a5 b9 e7 2f 12 bd 9c ae 24 bd 45 30 a2 ba
       -0.00031587528 -0.035690214 -0.040205583 -0.0012374005
000290 0e e6 9c bc a6 33 0c 3d f8 22 e6 bc 99 8e ee 3b
       -0.019152667 0.034228943 -0.028092846 0.0072801826
0002a0 1b 2d 4c bc e3 0b 14 3d c4 7d 90 bc f9 3c 05 3d
       -0.012461926 0.03614415 -0.017638095 0.03252885
0002b0 ab 3f c3 bb d9 6b ce bb 21 2a 0c bd 44 07 57 bd
       -0.0059585175 -0.0062994775 -0.034219865 -0.052497163
0002c0 ee 92 8b bc 6e 25 98 bd 93 d2 97 bd 25 97 53 bd
       -0.017037835 -0.07429014 -0.07413211 -0.051657815
0002d0 4f 03 35 ba b4 77 69 bd eb 0b 9b bd e4 31 65 bd
       -0.0006905095 -0.056998923 -0.075706325 -0.055955783
0002e0 d7 5e ab bd 19 11 a7 3b f5 8f d6 bd 1e 35 37 bb
       -0.08367699 0.0050984737 -0.104766764 -0.0027955244
0002f0 ce f5 91 bc fe 10 8e bd c6 9f a0 b9 07 ad cf bd
       -0.017817404 -0.06936835 -0.0003063662 -0.10140424
000300 be ad 6e bd e3 24 ab bd f2 89 77 bd c8 c2 f4 3c
       -0.058271162 -0.08356645 -0.06043429 0.029878035
000310 7c a1 06 bc ef 34 a8 3c 45 65 f8 bb 79 73 06 3d
       -0.008217212 0.020533053 -0.0075804316 0.032824967
000320 0f 0d 34 bd 34 81 9c bd 22 89 1a bd ee f2 3c bd
       -0.043957766 -0.07641831 -0.037728436 -0.046130113
000330 bd d4 f8 bc f1 5b 8c bb f9 59 b5 bd e0 56 fb bb
       -0.030374879 -0.004283421 -0.088550515 -0.0076702684
000340 01 b7 90 bc d7 89 08 bd 77 d2 48 bd f7 5d d1 bc
       -0.017665388 -0.03333458 -0.04902884 -0.025557501
000350 2f 45 1c bc 85 9d 01 3d e9 6e 6f bc 16 84 79 ba
       -0.009537979 0.031644363 -0.014613845 -0.00095182785
000360 94 b8 40 3c 7a 84 55 bd 35 03 3c bd 74 79 39 bb
       0.011762757 -0.052128293 -0.045901496 -0.0028301151
000370 9d 9c 34 bd e8 24 b9 bc de 8d 07 bb 40 3c fc bc
       -0.04409467 -0.022600606 -0.0020683925 -0.030790448
000380 14 6e 9b bc 06 bd cb 3c 72 0b b5 bd 13 ce 23 3d
       -0.018973388 0.024870407 -0.08840074 0.03999145
000390 55 4c 6e 3d a8 46 d6 bc f1 62 8a bd bc 8c 10 3b
       0.058178265 -0.026156738 -0.06757153 0.002205654
0003a0 02 06 99 3b 3a 04 f1 bc b0 a0 3c bd 4b 02 e1 b9
       0.0046699056 -0.02942096 -0.04605168 -0.00042917053
0003b0 50 ea 6a bc d7 e0 56 bd cb 0f 6e 3d 4d ed 65 3d
       -0.014338091 -0.052460518 0.05812053 0.05613451
0003c0 32 45 74 3b 70 11 51 bd fd 9e 29 bd 6f 98 15 bd
       0.003727269 -0.05104202 -0.04141139 -0.036522325
0003d0 b1 07 69 bd 72 b1 50 bd 83 cd e7 bc fe 8e 7e bd
       -0.0568921 -0.050950475 -0.028296238 -0.062148087
0003e0 74 2e 10 bc c9 79 2d bc 23 7e 4e bd 0e d4 1d 3d
       -0.008800138 -0.010588118 -0.050413262 0.03853231
0003f0 32 ae 58 3d c3 75 b2 bc 8f 13 fe 3b 08 a5 6f bc
       0.0529005 -0.021784669 0.0077537964 -0.014626749

conv2.bias f4 [32]
000000 91 2a a2 bd 67 2f 47 bd f6 7d 2b bb 85 b2 03 be
       -0.07918275 -0.04862919 -0.0026167608 -0.12861069
000010 b1 10 2e 3e de f9 47 3e 24 e3 42 3e 10 d5 90 3d
       0.16998555 0.1952891 0.1903196 0.070718884
000020 04 c7 6b 3e c8 95 03 3c ca a1 85 bd 63 55 4b 3d
       0.23025137 0.008031316 -0.065249994 0.049641978
000030 7f 99 6d bd 5e 4b a8 bd 6c f3 77 3c 69 9d 47 3e
       -0.058007713 -0.082175 0.01513372 0.19493641
000040 ad ee b1 bd 5e 7e af bd 5e bb 99 bd a0 62 e9 3d
       -0.08688102 -0.085690245 -0.075064406 0.11395764
000050 c5 6f dc 3c 53 21 be 3d 76 57 a0 3d 58 93 15 bc
       0.026908765 0.092837 0.07829182 -0.009129368
000060 b7 dc 03 3d d8 ec 4c bb f6 bc ce bd 0e a2 29 3e
       0.032192912 -0.00312691 -0.10094635 0.16565725
000070 e2 fa b7 3d 10 54 86 3c 84 68 5e 3e 4c c3 54 bd
       0.08983399 0.016397506 0.21719557 -0.051944062
