DQN/saved_models/dqn_checkpoint_ep200.pth (torch, 981377 bytes, 32 tensors)

conv1.weight f4 [16, 2, 4, 4]
0	0xbf0a977b	-0.5413739
1	0xbed922e0	-0.4240942
2	0x3de3e720	0.11128068
3	0x3f324be3	0.69647044
4	0xbf0353f5	-0.51299983
5	0xbf04186b	-0.5159976
6	0xbeff5c82	-0.49875265
7	0x3e754a78	0.23954189
8	0xbe3e41a3	-0.18579726
9	0xbeede7e6	-0.46465987
10	0xbf07d334	-0.53056645
11	0xbf0211e0	-0.50808525
12	0xbf0091ef	-0.50222677
13	0xbf75a3f7	-0.95953315
14	0x3e83cf19	0.2574394
15	0xbf07aed0	-0.5300112
16	0xbdcc57aa	-0.09977658
17	0xbd9c3962	-0.076281324
18	0xbec91f55	-0.39281717
19	0xbefc4468	-0.4927094
20	0xbf4ea259	-0.8071647
21	0xbf4a2f7d	-0.7897871
22	0xbf4e1a02	-0.80508435
23	0xbf37ed41	-0.71846396
24	0xbf335892	-0.7005702
25	0xbf4162f1	-0.755416
26	0xbf2a5e92	-0.6655055
27	0xbee8c20b	-0.45460543
28	0xbf2e111f	-0.67994875
29	0xbf6b5499	-0.9192596
30	0xbe8d2519	-0.27567366
31	0xbe9f0326	-0.3105709
32	0x3ef986b4	0.48735583
33	0x3f314310	0.69242954
34	0x3f5d0269	0.863318
35	0x3f5bf26f	0.859168
36	0x3f7c975f	0.98668474
37	0x3dfa50f0	0.12222469
38	0x3e5a1774	0.21298009
39	0x3d82aebc	0.06380984
40	0x3fca51f6	1.5806262
41	0xbe3991f5	-0.18122084
42	0x3da6bb19	0.08141155
43	0xbf43a519	-0.76423794
44	0x3f3ced61	0.7379971
45	0xbedfd969	-0.43720558
46	0xbf323f78	-0.69628096
47	0xbf21a358	-0.6313987
48	0xbee822c6	-0.4533903
49	0x3ea6c6f1	0.32573655
50	0xbe8cb451	-0.2748132
51	0xbf268794	-0.65050626
52	0xbf218e4c	-0.6310775
53	0x3ebb9868	0.36639714
54	0xbf8522f3	-1.0401291
55	0xbed00a8a	-0.4063304
56	0xbe2a068f	-0.16604064
57	0xbee4c33b	-0.446802
58	0xbe2ac284	-0.16675764
59	0x3cc11ab2	0.0235723
60	0xbf4281d4	-0.7597935
61	0x3bac1d03	0.005252482
62	0xbf0c7b44	-0.5487559
63	0xbf096603	-0.5367128
64	0xbf29028f	-0.6601953
65	0xbf2a0d5d	-0.6642664
66	0x3ef1db1c	0.4723748
67	0x3f382f83	0.719475
68	0xbd7d4cec	-0.061840937
69	0xbe1d4b41	-0.15360738
70	0x3e33960b	0.17537706
71	0x3eff272a	0.49834567
72	0xbe7b2849	-0.24527086
73	0xbf0a911c	-0.5412767
74	0xbf2ac60f	-0.66708463
75	0x3e27d062	0.16388085
76	0xbfa16e67	-1.2611817
77	0xbf36cce4	-0.7140639
78	0x3dbfb512	0.09360708
79	0x3eb0554b	0.34440073
80	0xbf28e5ae	-0.65975463
81	0x3e1e8adb	0.15482657
82	0xbeb15a00	-0.34638977
83	0x3d54ed72	0.051984258
84	0x3e446358	0.19178522
85	0x3f09c294	0.5381253
86	0xbf8dc4df	-1.1075705
87	0xbd3ce589	-0.04611734
88	0x3de15a8c	0.110035986
89	0xbfb118e9	-1.3835727
90	0xbd7b744f	-0.061390217
91	0x3e8df8ab	0.2772878
92	0x3d046b61	0.032328967
93	0xbfb5e099	-1.4209167
94	0x3a4acde6	0.000773637
95	0xbf8c3d6b	-1.0956243
96	0x3f7c6622	0.9859334
97	0x3f0b03da	0.5430275
98	0x3f31f856	0.69519556
99	0x3f0edc4a	0.55804884
100	0x3f4f4159	0.8095909
101	0x3f2e343b	0.6804845
102	0xbbd089e3	-0.0063640936
103	0x3f8ffb7b	1.1248621
104	0x3e89d06c	0.26916826
105	0xbdf8d560	-0.12150073
106	0x3f5c1713	0.8597271
107	0x3f43c56d	0.7647312
108	0x3e4650a3	0.19366698
109	0x3f94b2ac	1.1617026
110	0x3f243fcb	0.6415984
111	0x3fa6b7d2	1.3024848
112	0xbf268248	-0.65042543
113	0xbf9008df	-1.1252707
114	0xbdc5d4ef	-0.096597545
115	0x3d170609	0.03687099
116	0xbd8ca339	-0.0686707
117	0xbf8a5a0e	-1.0808733
118	0xbee160d9	-0.440192
119	0xbf515659	-0.8177238
120	0xbe701067	-0.23443757
121	0xbf79190b	-0.9730384
122	0x3d219944	0.039452806
123	0xbf8f5743	-1.1198505
124	0x3de93034	0.11386147
125	0xbe8ea36d	-0.2785906
126	0x3d8a62b9	0.06757111
127	0x3eb43977	0.35200092
128	0xbf29b218	-0.66287374
129	0xbf30e6fd	-0.6910246
130	0x3d90d8f8	0.070726335
131	0xbf23e4a2	-0.6402074
132	0xbf320736	-0.69542253
133	0x3cba8b47	0.02277149
134	0x3bcc70d0	0.0062390342
135	0x3cb2bbc0	0.021818042
136	0xbe18e6c8	-0.14931786
137	0xbf317f40	-0.69334793
138	0xbf5e7418	-0.86895895
139	0xbecc5946	-0.3991186
140	0x3d0801bb	0.033204775
141	0xbf2d2323	-0.6763174
142	0xbee9119a	-0.4552124
143	0xbe44ed7d	-0.1923122
144	0xbf1afc4b	-0.6054122
145	0xbe60f905	-0.21969993
146	0xbe94ae3c	-0.2903918
147	0x3e3e8a56	0.18607458
148	0xbd33c709	-0.043890987
149	0xbecbe70e	-0.39824718
150	0xbdb6f69d	-0.089337565
151	0xbe61f1e9	-0.22064938
152	0xbe68eb24	-0.22745949
153	0xbe78a40b	-0.24281327
154	0xbe667d96	-0.22508845
155	0x3cb89d6e	0.022536006
156	0xbcb7ac9b	-0.022421172
157	0xbe73eeca	-0.2382156
158	0x3e6b86cf	0.23000644
159	0x3f4c1800	0.7972412
160	0xbe000083	-0.12500195
161	0x3dc6a252	0.09698929
162	0xbef71db5	-0.48264852
163	0xbefa9703	-0.48943338
164	0x3f1603d6	0.58599603
165	0x3e9be399	0.3044708
166	0xbd28a6d2	-0.041174717
167	0x3e0024c1	0.1251402
168	0x3e9fff28	0.31249356
169	0x3efd3ca9	0.49460343
170	0x3e2c45ec	0.16823548
171	0x3f790666	0.9727539
172	0x3f2fc3d0	0.6865816
173	0xbedbbc11	-0.4291692
174	0x3ee32e59	0.44371298
175	0x3fa9a99f	1.3254889
176	0xbef2d427	-0.47427484
177	0xbf148317	-0.5801253
178	0xbedaacca	-0.42709953
179	0xbec331c1	-0.38123897
180	0xbf2dfbfb	-0.67962617
181	0xbef45446	-0.47720546
182	0x3db2f12b	0.087374054
183	0x3c99156b	0.01868697
184	0xbeec8603	-0.46195993
185	0xbf7218e9	-0.9456926
186	0xbf83f81d	-1.0310093
187	0xbe06ccbc	-0.13164037
188	0xbf88dda0	-1.0692635
189	0xbe885305	-0.2662584
190	0x3da77cb9	0.08178086
191	0x3ea11b24	0.3146602
192	0xbf4b5099	-0.7941986
193	0x3e8594f5	0.26090208
194	0xbf16e990	-0.5895014
195	0xbf4679ab	-0.775294
196	0x3ecaa3de	0.39578146
197	0xbdb6721f	-0.089084856
198	0x3dbe7d5d	0.09301255
199	0x3e8978d6	0.26850003
200	0x3dab1264	0.08353117
201	0xbf41492e	-0.7550229
202	0x3dc4184d	0.095749475
203	0x3f0efde0	0.5585613
204	0x3f23fc4e	0.6405686
205	0xbe88e4c4	-0.26737034
206	0xbf440ef7	-0.76585335
207	0xbf402bbe	-0.75066745
208	0xbedd145c	-0.43179595
209	0xbf53288d	-0.8248375
210	0x3dadf852	0.08494629
211	0xbf7a7ecf	-0.97849745
212	0x3cc6becd	0.024260903
213	0xbe8e5fd0	-0.27807474
214	0xbf3e43ad	-0.74322015
215	0xbdddb0bc	-0.10824725
216	0x3eac286a	0.33624583
217	0x3e8dc4a8	0.276891
218	0xbec3de53	-0.38255557
219	0x3e5669a7	0.2093874
220	0x3ebe15f6	0.3712613
221	0x3f1be457	0.60895294
222	0xbf275e79	-0.6537853
223	0x3da48f4a	0.08035143
224	0x3f2ea16c	0.6821506
225	0x3ef7d508	0.48404717
226	0xbece6375	-0.40310255
227	0xbee6303d	-0.44958678
228	0x3db400b0	0.08789194
229	0xbd846dbf	-0.06466245
230	0x3e1335a0	0.14375925
231	0xbe014620	-0.12624407
232	0x3f82e276	1.022536
233	0xbe61da37	-0.22055899
234	0xbeb1b834	-0.34710848
235	0x3ed17721	0.409112
236	0x3dbc08b6	0.09181349
237	0x3f9d8a3d	1.2307812
238	0xbfae086b	-1.3596319
239	0x3f4e029b	0.80472726
240	0xbf885662	-1.0651362
241	0xbe2da4ba	-0.1695737
242	0xbf5fe04b	-0.8745162
243	0x3dbbc9a3	0.091693185
244	0x3df9265e	0.12165521
245	0xbf176f59	-0.5915428
246	0xbf1b4a17	-0.6065993
247	0xbe9f9b34	-0.31173098
248	0xbfa0dc46	-1.2567222
249	0x3dbd6c5c	0.092491835
250	0x3eab4985	0.33454528
251	0xbf2cac62	-0.67450535
252	0xbfb26d22	-1.3939555
253	0x3eadd9f8	0.3395536
254	0xbe5b5589	-0.21419348
255	0x3d041d3e	0.03225445

conv1.bias f4 [16]
0	0x3ebd5585	0.3697931
1	0xbe5c461a	-0.21511117
2	0xbefeca32	-0.49763638
3	0xbeb126dc	-0.3459996
4	0xbe3797af	-0.17928956
5	0xbea513f2	-0.3224178
6	0xbecc2240	-0.3986988
7	0xbefb0af2	-0.49031788
8	0xbf1a48d7	-0.60267395
9	0xbeb89030	-0.36047506
10	0xbdd7a346	-0.10529189
11	0xbe8d35dd	-0.27580157
12	0xbd86fb2c	-0.06590876
13	0xbeed8895	-0.46393266
14	0x3e7b4751	0.24538924
15	0x3e728a93	0.23685674

conv2.weight f4 [32, 16, 4, 4]
0	0xbed11f28	-0.40844083
1	0x3e6adf37	0.22936712
2	0xbdfa3f10	-0.122190595
3	0x3ee9e99d	0.45686045
4	0xbd22bb03	-0.03972913
5	0xbd960d4b	-0.07326754
6	0x3de6b56e	0.11265074
7	0x3e826533	0.25467834
8	0x3b080f5b	0.0020761106
9	0x3d0a6865	0.033790965
10	0xbd06f68c	-0.03294997
11	0xbe1531d7	-0.14569794
12	0x3e934dd1	0.28770307
13	0xbd56a358	-0.05240187
14	0x3cd34412	0.025789294
15	0xbd436e53	-0.047712635
16	0x3e88b30e	0.26699108
17	0xbf10bedf	-0.56541246
18	0xbf1a06dd	-0.6016672
19	0x3e60780d	0.21920796
20	0xbf7fc6ac	-0.99912524
21	0x3ed51e66	0.41624755
22	0xbf55c012	-0.834962
23	0xbdffd031	-0.12490881
24	0x3dac4ad6	0.08412711
25	0xbf2e6435	-0.68121654
26	0x3cf64e38	0.030066594
27	0x3eb85181	0.35999683
28	0x3d3e640b	0.046482127
29	0x3e2f1d54	0.17101032
30	0xc00354d1	-2.0520518
31	0xbee74e5b	-0.45176968
32	0x3e049986	0.1294919
33	0x3b1591c0	0.002282247
34	0xbebfa0eb	-0.37427458
35	0x38671f96	5.510411e-05
36	0xbf89829f	-1.0742987
37	0xbf464f8f	-0.77465147
38	0x3e80d96a	0.25165874
39	0x3e03ce91	0.12871768
40	0x3ed97bb4	0.4247719
41	0xbf9b532d	-1.2134758
42	0x3f2e3bd6	0.6806005
43	0x3e0066de	0.1253924
44	0xbfb326d6	-1.3996227
45	0xc0112754	-2.2680254
46	0x3f80d96c	1.0066352
47	0x3f095df8	0.5365901
48	0xbff52305	-1.9151312
49	0x3f838230	1.0274105
50	0x3e4eeab8	0.20206726
51	0x3e818801	0.25299075
52	0xc016ea9c	-2.3580694
53	0xbecd435a	-0.40090448
54	0x3e937b13	0.28804836
55	0x3ec1535f	0.3775892
56	0xbedf0e7f	-0.43565747
57	0xbf20aa81	-0.6276017
58	0xbe169094	-0.1470359
59	0x3dff9500	0.12479591
60	0x3e96c145	0.29444328
61	0xbfa149e0	-1.260067
62	0xbd2fb07d	-0.04289292
63	0x3f4f3c92	0.809518
64	0xbf1d945b	-0.615545
65	0xbf132b84	-0.57488275
66	0xbf55e49d	-0.8355196
67	0xbdbdd9ce	-0.092700586
68	0x3e1f8bfc	0.15580744
69	0xbf895eed	-1.0732094
70	0xbf8a696a	-1.081342
71	0x3d3507c0	0.044196844
72	0xbf8d2de5	-1.1029631
73	0x3f1f827f	0.62308496
74	0x3ef93c2e	0.48678726
75	0xbe1f9c72	-0.15587023
76	0xbf84237d	-1.032333
77	0x3df12cfa	0.11776157
78	0xbe43d388	-0.19123662
79	0xbede8ab2	-0.4346519
80	0xbe612b17	-0.21989094
81	0xbe850fc5	-0.25988594
82	0x3ec4db29	0.38448456
83	0xbf2aa2cf	-0.66654676
84	0xbf53d9f3	-0.8275444
85	0xbf4611bb	-0.77370805
86	0xbe393ba9	-0.18089165
87	0x3e804c62	0.25058275
88	0xbdee23fa	-0.11627956
89	0xbe8479bf	-0.25874135
90	0xbe17de28	-0.1483084
91	0x3f9d57e5	1.2292448
92	0xbe1cdf11	-0.15319468
93	0xbe98ce47	-0.29844877
94	0xbe4e04c3	-0.20119004
95	0x400ca9a9	2.1978552
96	0xbf30558a	-0.6888052
97	0x3eff0899	0.49811247
98	0xbf5da618	-0.86581564
99	0xbfc3b73e	-1.5290296
100	0xbfe29993	-1.7703117
101	0x3ed7e11f	0.4216394
102	0xbfc55e3b	-1.5419382
103	0xbf862ae6	-1.0481842
104	0xbefac640	-0.48979378
105	0xbf7024de	-0.93806255
106	0xbf20384a	-0.6258589
107	0x3f015eff	0.5053558
108	0x3e9081d2	0.28224045
109	0xbd825f06	-0.063657805
110	0xbfc6211a	-1.5478852
111	0x3ee37556	0.44425458
112	0xbf67e9db	-0.9059121
113	0x3de7f262	0.11325528
114	0x3f142690	0.5787134
115	0xbf8f9e19	-1.1220123
116	0xc0594398	-3.3947506
117	0xbf1347e9	-0.575316
118	0xbee6b4b2	-0.45059735
119	0xbeaaf01f	-0.33386323
120	0xbf691e4f	-0.9106187
121	0x3e330815	0.17483552
122	0xbe9d60b5	-0.30737844
123	0xbeae366c	-0.34025896
124	0x3e6c8549	0.23097719
125	0xbea381fa	-0.31935102
126	0xbf07753e	-0.5291327
127	0x3f07f465	0.5310729
128	0xbe32714f	-0.17426036
129	0x3ec6758d	0.3876156
130	0x3f5207a7	0.82042927
131	0x3ebd6121	0.36988166
132	0xbea4cf57	-0.32189438
133	0x3f8e7432	1.112921
134	0xbf11bd93	-0.5692989
135	0xbe2dfaaf	-0.1699016
136	0xbfa249f7	-1.2678822
137	0xbee8e50c	-0.4548725
138	0x3f2b1a45	0.6683696
139	0x3eac1551	0.33610013
140	0xbe6b2f49	-0.22967257
141	0xbec65541	-0.3873692
142	0xbfb39a76	-1.4031513
143	0x3f46ce04	0.77658105
144	0xbfd56380	-1.667099
145	0xbd5cf976	-0.053948842
146	0x3de048c7	0.10951381
147	0xbf362997	-0.7115721
148	0x3f13e2b5	0.577678
149	0x3f217491	0.6306849
150	0xc02ecbf6	-2.7311988
151	0x3ed1c584	0.40971005
152	0xbfca3bdc	-1.5799518
153	0xc009b6f0	-2.1517906
154	0x3e77aea7	0.24187718
155	0xbf43309e	-0.7624606
156	0x3e0ece68	0.13945925
157	0xbecebd31	-0.40378717
158	0xbfacbadb	-1.3494524
159	0x3cc3eeb2	0.02391753
160	0xbf170774	-0.5899575
161	0xbe80198a	-0.25019485
162	0xbf9543c1	-1.1661302
163	0xbd32cbbe	-0.043651335
164	0xbf7620fa	-0.9614407
165	0x3f870e9a	1.0551331
166	0x3f8609c6	1.0471733
167	0xbe8d227a	-0.27565366
168	0x3db4abe5	0.08821849
169	0xbe8d79ae	-0.27631897
170	0x3ef86f46	0.48522395
171	0x3e7dca81	0.2478428
172	0x3f291b49	0.6605726
173	0x3ef1c26f	0.47218654
174	0xbf5dac2b	-0.8659083
175	0xbeca0a4b	-0.39460978
176	0xc0031d51	-2.0486643
177	0xbf72f893	-0.94910544
178	0xbf6b468e	-0.9190453
179	0x3ee6d287	0.45082495
180	0xbf0e7402	-0.55645764
181	0x3d5b66ff	0.05356502
182	0xbc5704e5	-0.013123726
183	0xbe511c62	-0.20420983
184	0x3eddb145	0.43299308
185	0x3f62c9c8	0.88589144
186	0xbe7d4ebb	-0.24737065
187	0xbfa163f8	-1.2608633
188	0xbf86c937	-1.0530156
189	0x3e4ccc78	0.19999874
190	0x3f69137a	0.91045344
191	0x3e966aab	0.29378256
192	0x3dbc8770	0.0920552
193	0xbe3d7049	-0.18499865
194	0xbecf16c3	-0.40447053
195	0x3d3ec028	0.046569973
196	0x3dab5e30	0.08367574
197	0xbc334858	-0.010942541
198	0x3dfc7011	0.123260625
199	0xbd66b22d	-0.056322265
200	0xbe59870b	-0.21242921
201	0xbd772622	-0.0603391
202	0x3b994633	0.004677558
203	0x3da21b79	0.07915396
204	0xbf03b448	-0.5144696
205	0x3d3f845c	0.046757087
206	0xbd2e3c2d	-0.042537857
207	0x3d40cc3e	0.04706978
208	0xbf75d3df	-0.96026415
209	0xbe7306e5	-0.23733099
210	0x3f5a801e	0.8535174
211	0xbf12e8a8	-0.57386255
212	0xbfb71645	-1.4303671
213	0x3e016f09	0.12640013
214	0xbe8c2a26	-0.27375907
215	0x3d9ecb18	0.07753581
216	0xbd9dac9f	-0.076989405
217	0xbee3f5e4	-0.44523537
218	0xbf047460	-0.51740074
219	0x3e2ccfee	0.16876194
220	0xbd8e614e	-0.06952153
221	0xbf0c10dc	-0.54713225
222	0xbe3c8ad8	-0.1841234
223	0x3ef2588d	0.47333184
224	0xbdd568b6	-0.10420363
225	0xbf6c728a	-0.9236227
226	0xbf0f340c	-0.5593879
227	0x3f19fee8	0.6015458
228	0xbf055a15	-0.5209058
229	0xbe4d8729	-0.20071091
230	0x3dd320d3	0.10308995
231	0x3e95b86a	0.2924226
232	0x3c861bc4	0.016370662
233	0x3ce9a119	0.0285192
234	0x3d837987	0.06419664
235	0x3aac1c7c	0.0013131048
236	0xbd9ede45	-0.07757238
237	0x3e0b8a75	0.13627036
238	0x3cc3546f	0.023843972
239	0x3e2e4aac	0.17020673
240	0x3b171aa4	0.002305665
241	0x3e49dc8a	0.19713035
242	0x3daa2452	0.08307709
243	0x3f87651f	1.0577735
244	0xbe8f7396	-0.28017873
245	0x3de222d2	0.11041798
246	0x3c2ea9fc	0.010660645
247	0x3e82dfd8	0.25561404
248	0xbe88533c	-0.26626003
249	0xbe0a7686	-0.13521776
250	0xbc8a773f	-0.016902564
251	0x3cb0bcdd	0.021574432
252	0x3ca87104	0.020561703
253	0xbdfc7265	-0.123265065
254	0xbe006de1	-0.12541915
255	0xbe063628	-0.13106596

conv2.bias f4 [32]
0	0x3e426d9f	0.1898713
1	0x3e58fe5d	0.21190782
2	0xbe116a0f	-0.14200614
3	0x3e582aa5	0.21110018
4	0xbe392267	-0.1807953
5	0x3e1337a1	0.1437669
6	0xbe41060a	-0.1884996
7	0xbf3f25be	-0.74666965
8	0x3e072d67	0.13200913
9	0x3dc42534	0.095774084
10	0x3d6d04f9	0.05786607
11	0x3dda35cf	0.106547944
12	0xbdab29d5	-0.08357588
13	0x3d905f3f	0.07049417
14	0xbe677c14	-0.22605926
15	0xbcd49ec1	-0.025954606
16	0x3e82346a	0.25430614
17	0x3e92e195	0.2868773
18	0x3e241882	0.16024974
19	0x3c6a6882	0.014307143
20	0xbdee84fa	-0.11646457
21	0xbf058074	-0.5214913
22	0x3e458cf7	0.19292055
23	0x3e640a42	0.22269538
24	0xbef151c6	-0.471327
25	0xbd9b3bba	-0.07579751
26	0xbe602d27	-0.21892224
27	0x3e5457d6	0.20736632
28	0x3e41e51e	0.18935058
29	0xbdd7c3cd	-0.10535393
30	0x3f015166	0.5051483
31	0xbc7b32e9	-0.015331962

fc1.weight f4 [64, 800]
0	0xbe306b41	-0.17228414
1	0xbdf45334	-0.11929932
2	0xbdc823ce	-0.09772454
3	0x3efbe22d	0.49195996
4	0x3ea1c180	0.3159294
5	0xbef150f2	-0.4713207
6	0x3e4ccad5	0.1999925
7	0xbe0c5a6e	-0.13706371
8	0x3f7cf691	0.9881373
9	0xbf35479c	-0.7081239
10	0x3e5151bd	0.20441337
11	0xbe3758d5	-0.1790498
12	0x3eba25d3	0.36356983
13	0xbe2bb2db	-0.16767447
14	0xbe132ae8	-0.14371836
15	0xbea998e5	-0.33124462
16	0xbd96099e	-0.07326053
17	0xbb5b6780	-0.003347844
18	0x3cc8e72a	0.02452429
19	0x3f03018e	0.5117425
20	0x3d63b165	0.0555891
21	0x3ba7c0db	0.0051194257
22	0x3d7311b5	0.05934306
23	0xbe7185f7	-0.2358626
24	0xbd87840d	-0.066169836
25	0xbef6beb9	-0.48192385
26	0xbd9215de	-0.07133077
27	0xbdf7466b	-0.12073978
28	0xbd727e6f	-0.059202608
29	0xbcf2e21d	-0.029648835
30	0xbf096ce3	-0.5368177
31	0xbf4af25e	-0.7927607
32	0xbe944257	-0.28956863
33	0xbed6902b	-0.41906866
34	0xbe724459	-0.23658885
35	0xbeeb2b33	-0.45931396
36	0xbe00a0be	-0.12561318
37	0xbf16547e	-0.58722675
38	0x3e704392	0.23463276
39	0x3ce3bcc7	0.027799977
40	0xbf1717d2	-0.5902072
41	0xbea9a3f6	-0.33132905
42	0xbda079c7	-0.07835727
43	0xbdcd60ac	-0.10028204
44	0xbe6a7c7a	-0.22899047
45	0xbeaf5733	-0.34246215
46	0x3e85b260	0.26112652
47	0xbf189919	-0.5960861
48	0xbe964991	-0.29353002
49	0xbf785cfb	-0.97016877
50	0x3c8c08e9	0.017094092
51	0x3d0887cc	0.03333263
52	0x3d7de959	0.061990116
53	0x3c12bc27	0.008955992
54	0xbd8d0abb	-0.06886812
55	0xbd94c1a3	-0.07263496
56	0x3cd1c97c	0.02560877
57	0xbdc00979	-0.09376807
58	0x3a64a659	0.00087222975
59	0xbd9a1702	-0.0752392
60	0x3c5f8590	0.013642684
61	0xbd11412c	-0.035462543
62	0xbc296392	-0.010338681
63	0xbc65b0ca	-0.014019201
64	0xbc19d071	-0.009388075
65	0x3d02df1d	0.03195106
66	0x3cc48020	0.023986876
67	0xbad95b00	-0.0016582906
68	0xbce700de	-0.028198656
69	0xbc4c5655	-0.012471755
70	0xbcbb5a0c	-0.022870086
71	0x3d299319	0.04140005
72	0xbb6174f5	-0.0034401987
73	0xbbd7e944	-0.0065890867
74	0xbc8ecff1	-0.017433139
75	0x3ea54293	0.32277355
76	0xbf266343	-0.6499521
77	0x3e8eb2c2	0.27870756
78	0xbe83088c	-0.25592458
79	0xbf94666d	-1.1593758
80	0xbdadcd70	-0.0848645
81	0x3e5de13f	0.21667956
82	0xbf188129	-0.5957208
83	0xbf00dce6	-0.50337064
84	0xbdf812e9	-0.12112982
85	0x3f4554a8	0.770823
86	0x3e83629a	0.25661165
87	0xbefc0eba	-0.49229985
88	0x3f0a5699	0.5403839
89	0xbf12c4bf	-0.5733146
90	0x3d7cf5ab	0.061757725
91	0x3da28f52	0.079374924
92	0x3dae8f0f	0.0852338
93	0x3d709150	0.05873233
94	0xbe0f176e	-0.13973781
95	0x3dbe9d1a	0.093073085
96	0x3db79725	0.089643754
97	0x3d7f1002	0.062271126
98	0xbd6c5d76	-0.05770632
99	0x3cf3e506	0.029772293
100	0xbd7c3c1f	-0.061580773
101	0xbef99013	-0.48742732
102	0xbf33e48c	-0.7027061
103	0xbf141c47	-0.5785565
104	0x3eba6af1	0.36409715
105	0xbb97d3ad	-0.004633388
106	0xbe1ae971	-0.15128113
107	0xbfbf80d0	-1.4961185
108	0x3e9f3963	0.3109847
109	0x3cc74464	0.024324603
110	0xbe2c9af4	-0.16855985
111	0x3e9ca967	0.30597994
112	0x3e4ddeaa	0.20104471
113	0x3e8be2a8	0.27321362
114	0xbda8fffe	-0.08251952
115	0x3e00708f	0.12542938
116	0xbca16975	-0.019703606
117	0xbdb62d29	-0.08895332
118	0xbead08da	-0.33795816
119	0x3d730f89	0.059340987
120	0xbce40227	-0.027833058
121	0x3e849348	0.25893617
122	0xbe026b8c	-0.12736338
123	0xbe9263a6	-0.2859165
124	0x3ec327c4	0.38116276
125	0x3e5566d5	0.20840009
126	0x3f963a61	1.1736566
127	0xbe3468f1	-0.17618157
128	0x3f063810	0.52429295
129	0xbfce3aaa	-1.6111653
130	0xbf340472	-0.70319283
131	0x3e9e59b7	0.30927822
132	0xbe7149da	-0.23563328
133	0x3ed26550	0.4109292
134	0x3e197079	0.14984311
135	0x3e4f3362	0.20234445
136	0x3f968857	1.1760358
137	0xbece6ae9	-0.4031594
138	0xbee9d202	-0.45668036
139	0xbe7e7c25	-0.24852045
140	0xbf5e7415	-0.8689588
141	0xbdb95529	-0.09049446
142	0xbec60902	-0.38678747
143	0xbe8ea4b7	-0.27860042
144	0x3c149293	0.009068149
145	0x3e359dfc	0.17736048
146	0x3db9fc52	0.090813294
147	0xbf45ee74	-0.77316976
148	0xbf494064	-0.7861388
149	0x3f09af40	0.53783035
150	0x3fd8e292	1.6944144
151	0xbf74b1e4	-0.9558394
152	0xbed3e613	-0.4138647
153	0x3e11e125	0.14246042
154	0xbe2850de	-0.16437098
155	0x3ef9eab9	0.48811892
156	0x3f87a0ce	1.0595949
157	0xbf00711f	-0.5017261
158	0x3da06f6f	0.07833754
159	0xbf06d522	-0.52668965
160	0xbeef2bda	-0.46713144
161	0xbe1c7ee8	-0.15282786
162	0xbe40760f	-0.18795036
163	0x3deea1fe	0.11651991
164	0x3cdad729	0.026713924
165	0xbd70cec7	-0.05879095
166	0xbe5b5a9c	-0.21421283
167	0xbc40d0be	-0.011768518
168	0xbe457d1c	-0.19286007
169	0x3ee76cf1	0.45200303
170	0xbe6f2d52	-0.23357132
171	0x3e0b6a85	0.13614853
172	0xbdaaa073	-0.083313845
173	0xbe5ec8f5	-0.21756347
174	0x3f07a709	0.5298925
175	0xbdda7603	-0.1066704
176	0x3e2d28a5	0.16910036
177	0xbe4449e4	-0.19168812
178	0x3e1736f8	0.14767063
179	0xbd5d5afa	-0.05404184
180	0xbe27d9ef	-0.16391729
181	0x3c4c2b6e	0.012461526
182	0xbede33e2	-0.43398958
183	0x3e827167	0.25477144
184	0xbdaa3fb1	-0.083129294
185	0xbe9d87b6	-0.30767602
186	0xbeec875e	-0.46197027
187	0xbe0f84e0	-0.14015532
188	0xbde5647b	-0.11200806
189	0x3dfdf090	0.12399399
190	0xbedc67f2	-0.43048054
191	0xbe5ecc90	-0.21757722
192	0x3b9c5775	0.004771168
193	0x3e0707fc	0.1318664
194	0x3c22ee5c	0.009944525
195	0xbe38d471	-0.1804979
196	0x3d5b227e	0.05349969
197	0xbefee393	-0.49783
198	0x3e3193fb	0.17341606
199	0xbe519f28	-0.2047087
200	0xbcdb98e2	-0.026806299
201	0x3dcdf1b7	0.10055869
202	0x3f99f907	1.2029122
203	0xbea923ab	-0.33035025
204	0x3e081134	0.13287812
205	0x3db93001	0.09042359
206	0x3f82f054	1.0229592
207	0x3f1a18a5	0.60193855
208	0x3d5aa08c	0.053375766
209	0xbe8afdb4	-0.27146685
210	0x3f6b4c87	0.91913646
211	0x3e1b4083	0.15161328
212	0xbd07f66e	-0.033193998
213	0xbf4b182d	-0.79333764
214	0xbcc936fe	-0.024562355
215	0xbef6fc18	-0.48239207
216	0x3d92741d	0.07151053
217	0xbe454ffe	-0.19268796
218	0xbe8c3d1c	-0.27390373
219	0xbdc2f28d	-0.09518919
220	0xbf0705f7	-0.52743477
221	0xbde8394f	-0.11339056
222	0xbd4d950b	-0.050190967
223	0xbd9bcd9e	-0.07607578
224	0xbf067972	-0.5252906
225	0xbdb42b01	-0.08797265
226	0x3eeb0d99	0.45908812
227	0x3fa02d05	1.2513739
228	0x3eb2ec22	0.3494578
229	0xbefc3427	-0.4925854
230	0x3d25672e	0.040381603
231	0x3e781371	0.24226166
232	0xbfc95e73	-1.5731949
233	0xbe98c09e	-0.29834455
234	0x3dbda8ed	0.09260736
235	0x3e8f9733	0.28045043
236	0xbd0198ab	-0.031639736
237	0xbf7cf404	-0.9880984
238	0xbebd7b1c	-0.37007987
239	0xbf04c850	-0.5186815
240	0xbf9ebd89	-1.2401592
241	0x3ed23914	0.41059172
242	0x3e561bd5	0.20909055
243	0xbd8b5e61	-0.06805111
244	0x3d3b967c	0.04579781
245	0xbf75c7bf	-0.96007913
246	0xbdefc432	-0.11707343
247	0xbf0408ec	-0.51576114
248	0x3e37208c	0.1788351
249	0x3e8a210c	0.26978338
250	0xbe16c283	-0.14722638
251	0xbe665e6e	-0.2249696
252	0xbd861b30	-0.06548154
253	0xbf075409	-0.528626
254	0xbedd650c	-0.43241155
255	0x3e0811b3	0.13288002

fc1.bias f4 [64]
0	0x3d22b65b	0.03972469
1	0x3b4c55d8	0.0031179097
2	0xbc563f4e	-0.013076616
3	0xbcddb7d1	-0.02706519
4	0xbd003d14	-0.03130825
5	0x3eac7adc	0.33687484
6	0xbc781ae9	-0.015143135
7	0xbcbebb49	-0.023282664
8	0xbd36c078	-0.044617146
9	0xbcb6b9ac	-0.022305332
10	0xbd04ab1b	-0.03238974
11	0xbbb4b749	-0.0055150134
12	0x3c0b7c88	0.008513577
13	0xbd409b91	-0.04702336
14	0xbc63000e	-0.0138549935
15	0xbd2c3aed	-0.042048384
16	0xbd3eefd4	-0.046615437
17	0x3eb55e6c	0.354236
18	0xbd06338c	-0.032764003
19	0xbcdd2f90	-0.027000219
20	0xbd027361	-0.031848315
21	0xbccb75af	-0.02483639
22	0xbd913abe	-0.07091282
23	0xbd46c963	-0.0485319
24	0xbcef4a8c	-0.029210351
25	0xbc894b7c	-0.016759627
26	0xbc9ace62	-0.01889724
27	0x3c42a77d	0.011880753
28	0xbc519df3	-0.012794006
29	0xbd5b8793	-0.05359609
30	0xbd2101a1	-0.039308194
31	0xbd0bd81a	-0.034141637
32	0xbd151767	-0.03639927
33	0xbd1d527c	-0.03840874
34	0xbd15c59e	-0.036565416
35	0xbc4d5e20	-0.012534648
36	0xbd4f1b2f	-0.050563034
37	0xbc1b2ae6	-0.009470677
38	0xbc3b7915	-0.011442442
39	0xbd25be52	-0.040464707
40	0x3ed09fb8	0.40746856
41	0xbd12bc50	-0.03582412
42	0xbc418e7a	-0.011813754
43	0xbd57eee4	-0.05271806
44	0xbce36d02	-0.02776194
45	0x3f001423	0.50030726
46	0xbd548b83	-0.05189086
47	0xbd10224c	-0.035188958
48	0x3c3a27e6	0.011362052
49	0xbcdaf672	-0.026728842
50	0x3f03cb24	0.51481843
51	0xbc120996	-0.008913418
52	0xbd594a62	-0.053049453
53	0xbd4b7183	-0.0496688
54	0x3eec6bdd	0.46176043
55	0x3e26078b	0.16213815
56	0xbccb3f24	-0.024810381
57	0xbc3f9d6d	-0.011695248
58	0xbd16379c	-0.036674127
59	0x3cf7c81b	0.030246785
60	0x3de35c54	0.111015946
61	0xbd3c7216	-0.04600724
62	0xbd4bb349	-0.049731527
63	0xbc6213de	-0.013798682

fc4.weight f4 [8, 64]
0	0x3c84634f	0.016160635
1	0xbd0e649f	-0.03476393
2	0xbdcaf2aa	-0.09909566
3	0xbdfc5f02	-0.12322809
4	0x3d1148c8	0.0354698
5	0x3d57c6a9	0.05267969
6	0xbd079cb0	-0.033108413
7	0xbcccb4dd	-0.024988586
8	0xbe5e5bad	-0.21714659
9	0x3d300013	0.04296882
10	0xbd417b7a	-0.047236897
11	0x3db80d36	0.08986895
12	0xbb9f0aa5	-0.004853564
13	0x3d9d9b0a	0.07695587
14	0xbd316aa2	-0.043314584
15	0xbbab9700	-0.0052365065
16	0xbdcb1062	-0.09915234
17	0xbcf29642	-0.029612664
18	0x3d82a2f1	0.06378735
19	0x3b5293d9	0.003213158
20	0x3d8861b3	0.0665926
21	0x3cb34c80	0.021887064
22	0xbd8c04fd	-0.06836889
23	0x3dc51422	0.09622981
24	0x3d48fa88	0.04906705
25	0xbd2572e4	-0.04039277
26	0xbd150759	-0.03638396
27	0xbe235fc2	-0.15954497
28	0x3d3527ec	0.044227526
29	0x3d1b2bb0	0.03788346
30	0x3dc27fa0	0.09496999
31	0x3bb8dc60	0.005641505
32	0x3deaa18c	0.11456594
33	0x3c802d4d	0.015646601
34	0x3de539fe	0.11192702
35	0xbd4c4bde	-0.04987704
36	0xbdaee194	-0.08539119
37	0x3db85709	0.09000976
38	0xbde89f86	-0.11358552
39	0xbd6e9ee8	-0.058257014
40	0x3f072ed2	0.5280582
41	0x3d968442	0.07349445
42	0x3cd555c0	0.026041865
43	0xbd9e87b2	-0.077407256
44	0x3d697229	0.056993637
45	0x3e8ff69d	0.28117839
46	0x3dcf36d8	0.101178825
47	0x3ea520c0	0.3225155
48	0xbc82a237	-0.01594649
49	0x3da6337a	0.08115287
50	0x3ec5604d	0.38550034
51	0xbca2002f	-0.019775478
52	0x3d2bfa30	0.041986644
53	0x3d68f12a	0.056870617
54	0x3f4fa77c	0.81114936
55	0x3e0a5648	0.13509476
56	0x3dbf516a	0.093417004
57	0xbcba33a3	-0.0227297
58	0xbde2ce7b	-0.11074539
59	0xbd57dec9	-0.0527027
60	0x3e97a845	0.29620567
61	0x3d07dc42	0.03316904
62	0x3ccd4b88	0.02506043
63	0xbdd7e602	-0.105419174
64	0x3ce680e1	0.028137626
65	0x3d8ad702	0.06779291
66	0xbdc56d0a	-0.09639938
67	0xbdb9621e	-0.090519175
68	0xbd01d77c	-0.031699643
69	0xbe7c36e4	-0.24630314
70	0xbd7b806d	-0.061401773
71	0x3d9cf9b4	0.076648146
72	0x3d5329f9	0.0515537
73	0x3c66ba17	0.014082453
74	0xbc84657a	-0.016161669
75	0x3db8635e	0.09003328
76	0xbde60291	-0.11230958
77	0xbc2aa1ae	-0.010414524
78	0x3d9d0dbe	0.07668637
79	0xbde7ef58	-0.11324948
80	0xbd6f821e	-0.0584737
81	0xbdd70f7e	-0.10501002
82	0x3d4dbed2	0.05023081
83	0xbe0099cc	-0.12558669
84	0xbd0f1f48	-0.03494194
85	0xbda87fbc	-0.082274884
86	0xbdb0a609	-0.08625419
87	0xbd31ecce	-0.043438725
88	0xbda7a039	-0.08184857
89	0xbe0db098	-0.13836896
90	0x3dc40ae5	0.095723905
91	0xbeda99fa	-0.426956
92	0xbc2bb1fb	-0.010479446
93	0x3d811191	0.06302179
94	0xbdae4eee	-0.085111484
95	0xbdca0c42	-0.09865619
96	0xbb18999f	-0.0023284925
97	0x3af24920	0.0018484928
98	0xbd700616	-0.058599554
99	0x3ce2f60e	0.027705219
100	0xbb9e609e	-0.004833295
101	0xbdab0d4d	-0.08352146
102	0x3deb6483	0.114937805
103	0xbc642cd8	-0.013926707
104	0x3f7ac0ae	0.97950256
105	0xbd098699	-0.033575628
106	0xbc1f799d	-0.009733585
107	0xbd8dca01	-0.06923295
108	0xbc975194	-0.018471517
109	0x3ee62c4a	0.44955665
110	0x3dd8739e	0.10568927
111	0x3ea0f0ec	0.3143381
112	0xbde15814	-0.11003128
113	0xbd31fd64	-0.043454543
114	0x3ec971c8	0.3934462
115	0x3d8f1fcf	0.06988489
116	0x3dd98cd8	0.10622567
117	0xbdcaec7c	-0.09908387
118	0x3f2e391f	0.6805591
119	0xbdac2ed1	-0.08407367
120	0x3dd7707a	0.105195
121	0x3c83abc9	0.016073124
122	0x3d008a0e	0.03138166
123	0x3da5a9f6	0.08089058
124	0x3e3cf377	0.1845225
125	0x3db0a7e6	0.08625774
126	0x3ce3ab5e	0.027791675
127	0x3daf8e36	0.085720465
128	0xbc98016c	-0.018555366
129	0x3b50d2b8	0.003186388
130	0x3d7a1cbe	0.061062567
131	0xbd85d54e	-0.06534825
132	0xbd8aafe2	-0.06771828
133	0x3dffbe61	0.12487484
134	0x3d07c6a8	0.033148438
135	0x3db35d5f	0.087580435
136	0x3e32d7ad	0.17465086
137	0xbd28233f	-0.04104924
138	0x3c2cedc8	0.010554738
139	0x3cde2a66	0.027119827
140	0xbda78253	-0.08179154
141	0x3d5eafc0	0.054366827
142	0xbdbd156c	-0.092326015
143	0x3d82e65c	0.06391594
144	0x3d6c4408	0.057682067
145	0x3cd6e2e8	0.026231244
146	0x3d6eea47	0.058328893
147	0x3d17a7e1	0.037025336
148	0x3c22bc97	0.009932659
149	0xbd49dbe4	-0.04928197
150	0xbd3e4d0f	-0.046460208
151	0xbb7c9cf9	-0.0038545711
152	0x3ca059eb	0.019574126
153	0xbbe6f405	-0.0070481324
154	0x3c526baa	0.012843052
155	0x3ee542e7	0.44777605
156	0xbe00131e	-0.12507293
157	0xbdbb4842	-0.091446415
158	0xbc2b11f0	-0.010441288
159	0xbd555a4c	-0.052088067
160	0x3b2362b0	0.0024930649
161	0xbc042273	-0.008064854
162	0xbe654de5	-0.22392996
163	0x3daf2636	0.0855221
164	0x3cb692e7	0.022286845
165	0x3b81691c	0.0039492976
166	0xbdc80075	-0.09765712
167	0x3d72a785	0.05924179
168	0x3f214864	0.63001084
169	0x3df345f6	0.11878578
170	0x3dfee84c	0.12446651
171	0x3d133172	0.035935827
172	0xbd9f8a98	-0.077901065
173	0x3f3e9bc2	0.7445642
174	0x3df8d3ca	0.121497706
175	0xbe8e7b37	-0.2782838
176	0xbcd7ebc7	-0.026357545
177	0xbcf2773d	-0.029597873
178	0x3f3b9a05	0.7328189
179	0xbd153d50	-0.036435425
180	0x3db6f372	0.08933152
181	0xbd95df57	-0.07317989
182	0x3e52a2f8	0.2056998
183	0x3e469078	0.19391048
184	0x3dc513e1	0.09622932
185	0x3d8caa34	0.06868401
186	0xbda2c81c	-0.07948324
187	0x3d8515ce	0.064982995
188	0xbb801ee8	-0.0039099343
189	0xbbcefcc8	-0.006316755
190	0xbdd74236	-0.105106756
191	0xbd2b3660	-0.041799903
192	0x3cb48668	0.022036746
193	0xbd9d58fc	-0.07682988
194	0x3dc5f1ad	0.096652366
195	0x3dbcdf48	0.09222275
196	0x3cf0e672	0.02940676
197	0x3c98cd9d	0.018652732
198	0xbd62fffd	-0.05541991
199	0xbd0a7dea	-0.033811487
200	0x3ec19292	0.37807137
201	0xbe047dcb	-0.12938611
202	0x3b7225d5	0.003694882
203	0xbdc5215c	-0.096255034
204	0x3db1b152	0.08676399
205	0xbdc81400	-0.0976944
206	0xbde4d7d1	-0.11173976
207	0x3dd8a290	0.10577881
208	0x3d328c9a	0.04359112
209	0xbc2da147	-0.010597534
210	0xbd132fda	-0.035934307
211	0x3dcde127	0.1005271
212	0x3dab4e23	0.08364513
213	0x3c7ea440	0.01554209
214	0x3d2c3d32	0.042050548
215	0x3de1f576	0.11033146
216	0xbd6e36b6	-0.058157645
217	0x3db3bd2b	0.08776315
218	0x3d67022d	0.05639856
219	0x3d013b74	0.03155084
220	0x3dce3783	0.10069182
221	0xbd413b44	-0.04717566
222	0x3dab5a62	0.083668485
223	0x3ddeb604	0.108745605
224	0x3d9dac69	0.076989
225	0xbcaaca15	-0.020848313
226	0x3e8e2fea	0.2777093
227	0x3d245826	0.040123127
228	0xbcd17281	-0.025567295
229	0xbdd298ea	-0.10283072
230	0xbd6237bb	-0.05522893
231	0x3c7ce79d	0.01543608
232	0x3f105171	0.5637427
233	0x3dcc9010	0.09988415
234	0x3dcd0076	0.100098535
235	0xbd98ccf6	-0.07460968
236	0xbca15c6b	-0.019697389
237	0x3e688824	0.22708184
238	0xbdb100c8	-0.08642727
239	0x3e4b784d	0.1987011
240	0xbe0100e0	-0.1259799
241	0x3c6f35aa	0.014600197
242	0x3f4f8ff2	0.8107902
243	0xbdb69bb1	-0.089164145
244	0xbd71c30c	-0.0590239
245	0x3b937e34	0.0045011286
246	0x3f2b347c	0.6687696
247	0xbb91b501	-0.004446626
248	0x3dcbea28	0.09956771
249	0xbe1e1878	-0.15439022
250	0xbd76a433	-0.060215186
251	0x3cdecbec	0.027196847
252	0xbf731f2b	-0.94969434
253	0xbd753e05	-0.0598736
254	0xba807c00	-0.000980258
255	0x3d25fdb4	0.040525153

fc4.bias f4 [8]
0	0x3fa4f0e1	1.288601
1	0xbefc27fb	-0.49249253
2	0x3f753dc2	0.9579736
3	0xbea1f558	-0.31632495
4	0x3ef8a899	0.4856613
5	0x3fee73d9	1.8629104
6	0x3f6cc99d	0.9249514
7	0xbec244b2	-0.37943035

conv1.weight f4 [16, 2, 4, 4]
0	0xbf0a977b	-0.5413739
1	0xbed922e0	-0.4240942
2	0x3dec358a	0.11533649
3	0x3f341df2	0.7035819
4	0xbf0353f5	-0.51299983
5	0xbf04186b	-0.5159976
6	0xbeff5c82	-0.49875265
7	0x3e77317e	0.24139974
8	0xbe3194da	-0.17341939
9	0xbeede7e6	-0.46465987
10	0xbf07d334	-0.53056645
11	0xbf0211e0	-0.50808525
12	0xbefeb47a	-0.49747068
13	0xbf6e235a	-0.9302269
14	0x3e8edc74	0.27902567
15	0xbf07aed0	-0.5300112
16	0xbdbf8669	-0.093518086
17	0xbd98af86	-0.074553534
18	0xbeacbdcf	-0.33738562
19	0xbedb48c8	-0.42828965
20	0xbf4ea259	-0.8071647
21	0xbf4a2f7d	-0.7897871
22	0xbf4e1a02	-0.80508435
23	0xbf37ed41	-0.71846396
24	0xbf335892	-0.7005702
25	0xbf4162f1	-0.755416
26	0xbf2a5e92	-0.6655055
27	0xbee8c20b	-0.45460543
28	0xbf2e111f	-0.67994875
29	0xbf639ffd	-0.88916
30	0xbe82523d	-0.25453368
31	0xbe9153af	-0.28384158
32	0x3efc9178	0.49329734
33	0x3f418ef1	0.75608736
34	0x3f65bc77	0.897407
35	0x3f6c00bd	0.92188627
36	0x3f80be77	1.0058125
37	0x3dfe5b07	0.12419706
38	0x3e558143	0.2085009
39	0x3d69e35f	0.057101604
40	0x3fcaa135	1.5830446
41	0xbe2bd975	-0.16782172
42	0x3d93ab1c	0.07210371
43	0xbf43a519	-0.76423794
44	0x3f3c7266	0.7361206
45	0xbed526f6	-0.41631287
46	0xbf323f78	-0.69628096
47	0xbf21a358	-0.6313987
48	0xbed98fd9	-0.4249256
49	0x3ea9662b	0.3308576
50	0xbe8d2314	-0.27565825
51	0xbf21b4c4	-0.6316645
52	0xbf218e4c	-0.6310775
53	0x3ebaff7b	0.3652304
54	0xbf84d406	-1.0377204
55	0xbec5b027	-0.38610956
56	0xbe6e8c83	-0.23295788
57	0xbed4c6c2	-0.4155789
58	0xbe32eb3d	-0.17472549
59	0x3ccf2ba4	0.025289364
60	0xbf41521c	-0.75515914
61	0x3d8c2cc2	0.068444744
62	0xbf0dd3a5	-0.5540107
63	0xbf1093ce	-0.5647553
64	0xbf29028f	-0.6601953
65	0xbf2a0d5d	-0.6642664
66	0x3eea34c1	0.45743373
67	0x3f3ae5ce	0.73006904
68	0xbd7d4cec	-0.061840937
69	0xbe1d4b41	-0.15360738
70	0x3e3a7c9e	0.182116
71	0x3f00d5ac	0.5032604
72	0xbe7b2849	-0.24527086
73	0xbf0a911c	-0.5412767
74	0xbf2ac60f	-0.66708463
75	0x3e2724c1	0.16322614
76	0xbfa16e67	-1.2611817
77	0xbf36cce4	-0.7140639
78	0x3dfd9cbf	0.123834126
79	0x3eb72b9e	0.35775465
80	0xbf28e5ae	-0.65975463
81	0x3e1d1978	0.15341747
82	0xbeb15a00	-0.34638977
83	0x3daf62c2	0.085637584
84	0x3e66d91e	0.22543761
85	0x3f09577c	0.53649116
86	0xbf8dc4df	-1.1075705
87	0xbdbeaa91	-0.09309877
88	0x3e0fc5c9	0.14040293
89	0xbfb118e9	-1.3835727
90	0xbd70f6ed	-0.058829237
91	0x3e8aa7b4	0.27081072
92	0x3d3f96d2	0.046774693
93	0xbfb5e099	-1.4209167
94	0x3a4acde6	0.000773637
95	0xbf8c3d6b	-1.0956243
96	0x3f7def6f	0.9919347
97	0x3f0b83e3	0.5449812
98	0x3f31ec8a	0.69501555
99	0x3f0facdc	0.5612314
100	0x3f4ea776	0.80724275
101	0x3f2d2b7c	0.67644477
102	0xbba79138	-0.005113747
103	0x3f8fc65e	1.1232412
104	0x3e75a8f0	0.23990226
105	0xbdf046b2	-0.11732234
106	0x3f5b0843	0.8555948
107	0x3f4307fb	0.7618405
108	0x3e495f96	0.1966537
109	0x3f945d46	1.1590965
110	0x3f2550b4	0.6457627
111	0x3fa70dbd	1.3051068
112	0xbf1e30f8	-0.6179347
113	0xbf9008df	-1.1252707
114	0xbdcb1f07	-0.09918027
115	0x3d1b5f40	0.037932634
116	0xbd80aa54	-0.062824875
117	0xbf8a5a0e	-1.0808733
118	0xbed71490	-0.42007875
119	0xbf4d1aa5	-0.8011878
120	0xbe6d7e31	-0.2319267
121	0xbf79190b	-0.9730384
122	0x3d9e80b7	0.07739394
123	0xbf8f5743	-1.1198505
124	0x3d0b23c7	0.033969667
125	0xbe3cc32e	-0.1843383
126	0x3da12200	0.07867813
127	0x3eb9054b	0.3613685
128	0xbf29b218	-0.66287374
129	0xbf30e6fd	-0.6910246
130	0xbd3dd001	-0.046340946
131	0xbf23e4a2	-0.6402074
132	0xbf34748a	-0.70490324
133	0x3d4a3470	0.049366415
134	0x3d996266	0.07489471
135	0xbaf4a4af	-0.0018664802
136	0xbe203cc6	-0.15648183
137	0xbf317f40	-0.69334793
138	0xbf5e7418	-0.86895895
139	0xbecc185c	-0.39862335
140	0x3c452398	0.012032412
141	0xbf1692f1	-0.58817965
142	0xbee9119a	-0.4552124
143	0xbe44ed7d	-0.1923122
144	0xbf1afc4b	-0.6054122
145	0xbe60f905	-0.21969993
146	0xbe94ae3c	-0.2903918
147	0x3e44643e	0.19178864
148	0xbd2e89e2	-0.042611964
149	0xbecbe70e	-0.39824718
150	0xbdb6f69d	-0.089337565
151	0xbe61f1e9	-0.22064938
152	0xbe68eb24	-0.22745949
153	0xbe7754c3	-0.24153428
154	0xbe6b2097	-0.22961651
155	0x3cb89d6e	0.022536006
156	0xbcb7ac9b	-0.022421172
157	0xbe73eeca	-0.2382156
158	0x3e738887	0.2378255
159	0x3f4c2efb	0.79759187
160	0xbde8e06d	-0.11370931
161	0x3dde807a	0.10864349
162	0xbef71db5	-0.48264852
163	0xbefa9703	-0.48943338
164	0x3f16a569	0.58846146
165	0x3e97395d	0.29535952
166	0xbd0d7696	-0.03453692
167	0x3def5e1c	0.11687872
168	0x3e8e0718	0.27739787
169	0x3efc314c	0.4925636
170	0x3e29cced	0.16582079
171	0x3f7ced66	0.9879974
172	0x3f2edae5	0.68302757
173	0xbecbeeec	-0.3983072
174	0x3eea909c	0.45813453
175	0x3fac9843	1.3483967
176	0xbef4d001	-0.47814944
177	0xbf11a9ee	-0.5689992
178	0xbed009c1	-0.40632442
179	0xbeba14ab	-0.36343893
180	0xbf2dfbfb	-0.67962617
181	0xbef45446	-0.47720546
182	0x3da81dd5	0.08208815
183	0x3d35e2f9	0.04440591
184	0xbeec8603	-0.46195993
185	0xbf7218e9	-0.9456926
186	0xbf83f81d	-1.0310093
187	0xbe021d03	-0.1270638
188	0xbf88dda0	-1.0692635
189	0xbe63a9c1	-0.22232725
190	0xbbc882cd	-0.0061191083
191	0x3e9f59cd	0.311232
192	0xbf4b5099	-0.7941986
193	0x3e8f2223	0.27955732
194	0xbf16e990	-0.5895014
195	0xbf4679ab	-0.775294
196	0x3ed3709c	0.41296852
197	0xbd9fda39	-0.078052945
198	0x3dc90eb1	0.09817255
199	0x3e8bd762	0.27312762
200	0x3da9804c	0.08276424
201	0xbf41492e	-0.7550229
202	0x3dd6a9e2	0.10481621
203	0x3f149705	0.5804294
204	0x3f23d91b	0.6400315
205	0xbe88e4c4	-0.26737034
206	0xbf440ef7	-0.76585335
207	0xbf402bbe	-0.75066745
208	0xbedd145c	-0.43179595
209	0xbf53288d	-0.8248375
210	0x3dd2eb7d	0.10298822
211	0xbf7a7ecf	-0.97849745
212	0x3ce80cca	0.02832641
213	0xbe924e1f	-0.28575227
214	0xbf3e43ad	-0.74322015
215	0xbdadcf2e	-0.08486782
216	0x3eac87e8	0.33697438
217	0x3e911b49	0.2834113
218	0xbec3de53	-0.38255557
219	0x3e6bc3f0	0.23023963
220	0x3ec11788	0.37713265
221	0x3f1bcf34	0.6086304
222	0xbf275e79	-0.6537853
223	0x3db69839	0.08915753
224	0x3f2f3d66	0.6845306
225	0x3efa0503	0.4883195
226	0xbec654f6	-0.38736695
227	0xbee9b4c5	-0.4564573
228	0x3da047bf	0.078261845
229	0xbd178a75	-0.036997277
230	0x3e1b76d7	0.15182053
231	0xbdfd259d	-0.1236069
232	0x3f84c079	1.0371238
233	0xbe5dc9cc	-0.2165901
234	0xbeaea2c7	-0.34108564
235	0x3ed3d106	0.4137041
236	0x3defb135	0.117037214
237	0x3f9d8436	1.2305973
238	0xbfae086b	-1.3596319
239	0x3f506965	0.8141082
240	0xbf885662	-1.0651362
241	0xbe433709	-0.19063963
242	0xbf5fe04b	-0.8745162
243	0x3dc6d9ff	0.09709548
244	0x3e1719de	0.14755961
245	0xbf11771d	-0.5682238
246	0xbf132ae3	-0.57487315
247	0xbe9998c7	-0.29999372
248	0xbfa0dc46	-1.2567222
249	0x3da1d1e9	0.07901365
250	0x3e7c145d	0.24617143
251	0xbf2cac62	-0.67450535
252	0xbfb26d22	-1.3939555
253	0x3e97f9fc	0.2968291
254	0xbdf3522a	-0.11880906
255	0xbc92745d	-0.017877752

conv1.bias f4 [16]
0	0x3ebb7046	0.36609095
1	0xbe5cb4b7	-0.21553312
2	0xbef6cdc6	-0.48203868
3	0xbead0fdb	-0.3380116
4	0xbe3904f6	-0.18068299
5	0xbea3b8ff	-0.31977078
6	0xbecb40df	-0.3969793
7	0xbefa8d35	-0.48935857
8	0xbf1b0128	-0.6054864
9	0xbeb9325d	-0.36171237
10	0xbdd83767	-0.10557442
11	0xbe8677c0	-0.26263237
12	0xbd86fb2c	-0.06590876
13	0xbeed37aa	-0.4633153
14	0x3e7997e4	0.24374348
15	0x3e706886	0.23477373

conv2.weight f4 [32, 16, 4, 4]
0	0xbed5eb27	-0.4178097
1	0x3e254bf4	0.16142255
2	0xbde8ae7e	-0.11361407
3	0x3eecc0cd	0.46240845
4	0xbcdbbe9a	-0.026824284
5	0xbd750590	-0.059819758
6	0x3e030b97	0.1279739
7	0x3e8469a1	0.25861838
8	0x3c1d130d	0.009587062
9	0x3d21e465	0.039524455
10	0xbcef394d	-0.029202128
11	0xbe0287a2	-0.12747052
12	0x3e9622fb	0.29323563
13	0xbd2fd383	-0.042926323
14	0x3cf1a92c	0.029499613
15	0xbd22951a	-0.039692976
16	0x3e8e49f8	0.2779081
17	0xbf24dbbe	-0.643978
18	0xbf148db0	-0.580287
19	0x3e6bb337	0.23017584
20	0xbf79b726	-0.9754509
21	0x3e9c4afb	0.30525956
22	0xbf627604	-0.8846133
23	0xbe093bdc	-0.13401741
24	0x3dbe72e5	0.09299258
25	0xbf2c6faf	-0.67357916
26	0x3d1bd85f	0.038048144
27	0x3ebc9172	0.36829716
28	0x3d1f1b1e	0.03884422
29	0x3e365b1d	0.17808194
30	0xc003c12d	-2.0586655
31	0xbeeafacc	-0.45894468
32	0x3e1a9868	0.15097201
33	0x3dcf6b56	0.101278946
34	0xbec1b24d	-0.37831345
35	0xbb81807c	-0.003952084
36	0xbf8a9f3f	-1.0829848
37	0xbf422796	-0.75841653
38	0x3e817460	0.252841
39	0x3dd8d069	0.10586626
40	0x3edd4499	0.43216398
41	0xbf9a0b1c	-1.203464
42	0x3f32a1d2	0.6977817
43	0x3e0064f8	0.12538517
44	0xbfb9b0d5	-1.450709
45	0xc0112754	-2.2680254
46	0x3f7fdfb5	0.99950725
47	0x3f0dd1e5	0.553984
48	0xbfff96a4	-1.9967847
49	0x3f87aca9	1.0599567
50	0x3e579311	0.21052195
51	0x3e8c1dba	0.2736643
52	0xc014b017	-2.3232477
53	0xbec39eb1	-0.3820701
54	0x3e98da40	0.29854012
55	0x3ec18a1a	0.37800676
56	0xbeda3214	-0.42616332
57	0xbf1d1107	-0.61354107
58	0xbe0c8e70	-0.1372621
59	0x3e0e34d4	0.1388734
60	0x3e98022d	0.2968916
61	0xbfa149e0	-1.260067
62	0xbccb0f69	-0.024787622
63	0x3f4dc7f9	0.8038326
64	0xbf308661	-0.68955046
65	0xbeefec6a	-0.46860057
66	0xbf4d9eed	-0.80320626
67	0xbe0616b9	-0.13094606
68	0x3dbe1e7f	0.092831604
69	0xbf84e151	-1.0381261
70	0xbf8a3ced	-1.0799843
71	0x3e37eb4a	0.1796085
72	0xbf8d2de5	-1.1029631
73	0x3f2272db	0.63456506
74	0x3ed91073	0.42395362
75	0xbe466413	-0.19374113
76	0xbf84237d	-1.032333
77	0x3e82dc69	0.25558785
78	0xbe822960	-0.25422192
79	0xbee98442	-0.45608717
80	0xbe612b17	-0.21989094
81	0xbe67f26d	-0.22651072
82	0x3ecdd37e	0.40200418
83	0xbf2aa2cf	-0.66654676
84	0xbf53d9f3	-0.8275444
85	0xbf4611bb	-0.77370805
86	0xbe39f3cb	-0.18159406
87	0x3e7f5785	0.2493573
88	0xbe4d4892	-0.20047215
89	0xbe8479bf	-0.25874135
90	0xbe118ca2	-0.14213803
91	0x3f9be97e	1.2180631
92	0xbe13cbc3	-0.14433198
93	0xbe92fb50	-0.2870736
94	0xbe2d9cef	-0.16954397
95	0x400c6ebe	2.1942592
96	0xbf30f3a2	-0.69121754
97	0x3f099f70	0.5375891
98	0xbf5da618	-0.86581564
99	0xbfbe3ddc	-1.4862628
100	0xbfd03c35	-1.6268374
101	0x3ed99580	0.42496872
102	0xbfc7156f	-1.5553416
103	0xbf840932	-1.0315306
104	0xbf0cfdda	-0.55074847
105	0xbf65aef3	-0.89720076
106	0xbf1d3625	-0.61410743
107	0x3f04a506	0.51814306
108	0x3e942083	0.28931054
109	0xbd43cbee	-0.047801904
110	0xbfca2375	-1.5792071
111	0x3ee53ff4	0.44775355
112	0xbf590c0c	-0.8478401
113	0x3e886254	0.26637518
114	0x3f1c9d59	0.61177593
115	0xbf8f9e19	-1.1220123
116	0xc05afe0c	-3.4217558
117	0xbf3da3b2	-0.74077904
118	0xbeda9dc5	-0.42698494
119	0xbeab6ada	-0.3347996
120	0xbf691e4f	-0.9106187
121	0x3e46f6c5	0.19430073
122	0xbea7f148	-0.3280127
123	0xbe9c2791	-0.30498937
124	0x3e6e5cd8	0.23277605
125	0xbea381fa	-0.31935102
126	0xbef5e47a	-0.48025876
127	0x3f10effb	0.5661618
128	0xbddd882b	-0.108169876
129	0x3ebec694	0.37260878
130	0x3f57fad3	0.843671
131	0x3ec59afc	0.38594806
132	0xbea70d46	-0.32627314
133	0x3f84f3a2	1.0386851
134	0xbeccd72e	-0.4000792
135	0xbdea1cb9	-0.1143126
136	0xbfad1f7c	-1.3525233
137	0xbee3ab5f	-0.44466683
138	0x3f2f5397	0.6848692
139	0x3eb4b516	0.35294408
140	0xbe6e3b0a	-0.23264709
141	0xbebd1b7d	-0.36935034
142	0xbfaac950	-1.3342686
143	0x3f4714e9	0.7776628
144	0xbfeb25ad	-1.8370873
145	0xbdc596cc	-0.09647903
146	0x3df147b1	0.11781252
147	0xbf293196	-0.6609129
148	0x3f2222e5	0.63334495
149	0x3f04aafb	0.51823395
150	0xc02e28cb	-2.7212398
151	0x3ed835c3	0.42228517
152	0xbfc35431	-1.5260068
153	0xc009b6f0	-2.1517906
154	0x3e7f56ca	0.24935451
155	0xbf428890	-0.7598963
156	0x3e12ad32	0.14323881
157	0xbecec9b6	-0.40388268
158	0xbfacbadb	-1.3494524
159	0x3d939236	0.07205622
160	0xbf06fb5f	-0.5272731
161	0xbe80198a	-0.25019485
162	0xbf9543c1	-1.1661302
163	0xbd32cbbe	-0.043651335
164	0xbf7620fa	-0.9614407
165	0x3f870e9a	1.0551331
166	0x3f8609c6	1.0471733
167	0xbe8d227a	-0.27565366
168	0x3d77e8b7	0.06052467
169	0xbe871f06	-0.26390857
170	0x3f00aaa2	0.50260365
171	0x3e7dca81	0.2478428
172	0x3f2b33d8	0.6687598
173	0x3ef0d12e	0.4703459
174	0xbf5f2463	-0.87164897
175	0xbeca0a4b	-0.39460978
176	0xbff6871a	-1.925998
177	0xbf7df37a	-0.9919964
178	0xbf6b73b0	-0.919734
179	0x3edd1d6c	0.4318651
180	0xbf0e7402	-0.55645764
181	0x3d912a81	0.07088185
182	0xbc873b49	-0.016507762
183	0xbe54946d	-0.20759745
184	0x3eddeb96	0.433438
185	0x3f64277f	0.89122766
186	0xbe72fb9e	-0.23728797
187	0xbfa163f8	-1.2608633
188	0xbf86c937	-1.0530156
189	0x3e4ccc78	0.19999874
190	0x3f6971d6	0.91189325
191	0x3e8ec0f6	0.27881593
192	0x3dbc8770	0.0920552
193	0xbe3d7049	-0.18499865
194	0xbecf16c3	-0.40447053
195	0x3d3ec028	0.046569973
196	0x3dab5e30	0.08367574
197	0xbc334858	-0.010942541
198	0x3dfc7011	0.123260625
199	0xbd66b22d	-0.056322265
200	0xbe59870b	-0.21242921
201	0xbd772622	-0.0603391
202	0x3b994633	0.004677558
203	0x3da21b79	0.07915396
204	0xbf03b448	-0.5144696
205	0x3d3f845c	0.046757087
206	0xbd2e3c2d	-0.042537857
207	0x3d40cc3e	0.04706978
208	0xbf6cb8a4	-0.9246924
209	0xbe56d50f	-0.20979713
210	0x3f612fe1	0.8796368
211	0xbf12e8a8	-0.57386255
212	0xbfbc2dd2	-1.4701483
213	0xbd296bcd	-0.041362572
214	0xbe7ddad0	-0.24790502
215	0x3dedb004	0.11605838
216	0xbe262e3c	-0.16228575
217	0xbee3f5e4	-0.44523537
218	0xbf08c48f	-0.53424925
219	0x3e351f7e	0.17687795
220	0xbd7f40f9	-0.062317822
221	0xbf078c0c	-0.5294807
222	0xbe0a70b0	-0.1351955
223	0x3f053cc0	0.5204582
224	0xbdd6f770	-0.10496414
225	0xbf6bf352	-0.9216815
226	0xbf086997	-0.5328612
227	0x3f20facc	0.62882686
228	0xbf0ce4c3	-0.5503656
229	0xbe3c7c12	-0.18406704
230	0x3de26902	0.11055185
231	0x3e9956af	0.29948947
232	0x3cdba9e5	0.02681441
233	0x3d163046	0.03666713
234	0x3d90632f	0.07050168
235	0x3ca79cdc	0.020460539
236	0xbd9b2ad9	-0.07576532
237	0x3e148afb	0.14506142
238	0x3cf4530f	0.029824762
239	0x3e38ca9e	0.18046042
240	0x3c868c40	0.016424298
241	0x3e53e36d	0.20692225
242	0x3db1cbaf	0.08681428
243	0x3f87b4a4	1.0602002
244	0xbe866b3b	-0.26253685
245	0x3dfd6a49	0.12373788
246	0x3bef196b	0.007296731
247	0x3e84bb14	0.2592398
248	0xbe81c2f4	-0.2534405
249	0xbdfd0674	-0.123547465
250	0xbc07b3de	-0.00828263
251	0x3d164688	0.036688358
252	0x3cd8b4e4	0.026453443
253	0xbdd98d2a	-0.10622628
254	0xbde4a84f	-0.11164915
255	0xbdf6cbb1	-0.1205057

conv2.bias f4 [32]
0	0x3e3da218	0.18518865
1	0x3e522505	0.20521934
2	0xbe116a0f	-0.14200614
3	0x3e5c8792	0.21536091
4	0xbe3ae51a	-0.18251458
5	0x3e0ead65	0.13933332
6	0xbe40c632	-0.18825606
7	0xbf3f25be	-0.74666965
8	0x3e04da1c	0.12973827
9	0x3dc55efb	0.09637257
10	0x3d8a9657	0.06766956
11	0x3dd74fb3	0.10513248
12	0xbdab29d5	-0.08357588
13	0x3d8bf3e4	0.06833628
14	0xbe677c14	-0.22605926
15	0xbce8f065	-0.028434942
16	0x3e810699	0.25200346
17	0x3e904474	0.28177226
18	0x3e1d1a64	0.15342098
19	0x3c0556fb	0.008138414
20	0xbdee84fa	-0.11646457
21	0xbf00d9b3	-0.5033218
22	0x3e40c24b	0.18824117
23	0x3e64f6a4	0.22359711
24	0xbee92ed5	-0.45543543
25	0xbd9b3bba	-0.07579751
26	0xbe602d27	-0.21892224
27	0x3e54a6e4	0.20766789
28	0x3e3e9883	0.18612866
29	0xbdd7c298	-0.10535163
30	0x3f019dba	0.50631297
31	0xbc739843	-0.014867845
