DQN/saved_models/dqn_checkpoint_ep0.pth (torch, 981285 bytes, 32 tensors)

conv1.weight f4 [16, 2, 4, 4]
-0.12834801 -0.19973113 0.12266154 -0.10822622 -0.07101336 -0.120238446 0.09341911 -0.13199435
0.13505597 -0.17346866 0.119298674 -0.1723768 -0.115465164 0.13145433 -0.12191307 -0.11109503
0.021353913 -0.017972225 0.16039926 0.09215222 -0.17063926 0.08365929 0.062320475 -0.020424124
-0.06158257 0.06734811 -0.071850605 0.072323665 -0.08767363 0.04045858 0.17831828 -0.12391706
-0.06979236 0.11481693 0.04770923 0.06986957 -0.08914575 0.009699145 0.057829075 0.09725451
0.044733334 -0.06753059 -0.12947527 -0.019267578 0.090465054 -0.016598934 -0.15964328 0.17664634
-0.00840518 -0.009825999 -0.0037887644 -0.065330215 -0.17868511 -0.11993847 0.11284544 -0.09550089
0.07125434 0.14979258 0.16251855 0.071603924 0.050369766 0.06443311 -0.017236969 -0.0576869
-0.04686465 0.08308541 0.09074498 -0.111381225 0.12132189 -0.060859732 -0.11232042 -0.06196437
0.09219591 -0.030738 0.03940649 0.043781273 0.055366844 -0.055328358 0.11859696 0.036809854
0.17782988 0.1736587 -0.10525421 0.14776334 0.16575916 -0.089315444 0.07078177 0.1826247
-0.112193204 0.16977671 0.14963847 0.16076751 -0.07517192 0.13711728 -0.08044257 0.14217576
-0.12397571 -0.19697687 -0.12954836 -0.020486519 -0.11356722 -0.15285294 -0.0124930795 -0.10897046
-0.056388 0.13347062 -0.042445574 -0.032092944 0.018581688 0.052601043 -0.080321856 -0.038718667
0.16779532 -0.12693234 0.12551136 0.04740287 -0.15929125 0.16284807 0.108909056 -0.09776229
-0.056650385 0.039186664 -0.070110306 -0.05811974 0.02808285 0.023965554 0.08565553 0.0062775435
-0.024704376 -0.075736634 -0.025930565 0.021878997 0.12416761 -0.1605151 -0.01841454 0.04366984
0.12735282 0.050141774 -0.01548151 0.06328684 -0.1537817 -0.18460645 -0.16849758 0.023454018
-0.12022863 0.07820668 -0.12547056 0.12422452 0.16624299 -0.098784655 -0.008814415 0.07215913
-0.013167378 -0.07953801 0.122379184 -0.0012913541 0.13953511 -0.024402708 0.12133918 -0.113964304
0.071149 -0.09624239 0.109376274 0.400003 0.038351774 -0.1555704 -0.029932559 -0.0976529
0.19071586 -0.06956242 -0.023529053 -0.08970807 -0.029501572 0.13306962 0.098041184 -0.16714056
-0.19067158 -0.082615875 -0.26272503 -0.20010363 -0.07126679 -0.16610193 -0.102833524 0.051094484
0.008458803 -0.026004847 0.05321222 -0.015170878 0.111239776 0.1689821 0.062892266 -0.017987294
-0.012616366 -0.09684195 -0.15560064 -0.054815665 -0.119644135 -0.07138068 -0.13901599 -0.12537047
-0.06449247 -0.0023192316 -0.08920597 0.07216246 0.057300553 -0.01627618 -0.046883672 -0.022570983
-0.030685365 -0.112278 -0.12351914 -0.05925577 -0.15809137 -0.16999343 -0.020291269 -0.15621974
-0.103992164 -0.04528713 0.111966535 -0.014278397 0.00645791 0.095224686 -0.12313631 -0.064663276
-0.09095767 0.09034803 0.052428186 -6.093851e-05 -0.179615 0.109150626 0.12276732 0.058427267
-0.15823275 -0.04293369 -0.110693395 0.089565516 -0.007205425 -0.13722709 -0.10166141 0.012090429
0.152139 0.058125228 -0.053729247 -0.13487548 0.15051208 -0.033529915 -0.14883718 0.042345308
0.17560257 -0.086473465 0.0014009704 -0.013711499 -0.14255022 -0.0085818665 -0.17062494 -0.13310902
00000000: a96d 03be 5186 4cbe f935 fb3d b5a5 ddbd
00000010: 746f 91bd 933f f6bd 8552 bf3d 8729 07be
00000020: 1d4c 0a3e c5a1 31be dd52 f43d 8b83 30be
00000030: 0079 ecbd f79b 063e 8fad f9bd cb85 e3bd
00000040: 67ee ae3c 7d3a 93bc b43f 243e 4eba bc3d
00000050: 0fbc 2ebe 9055 ab3d c143 7f3d 7e50 a7bc
00000060: 013e 7cbd ceed 893d 6926 93bd 6e1e 943d
00000070: 3b8e b3bd e5b7 253d 1199 363e 3ac8 fdbd
00000080: 4cef 8ebd 2325 eb3d c16a 433d c717 8f3d
00000090: 0c92 b6bd 2ae9 1e3c 2ede 6c3d 5f2d c73d
000000a0: 4d3a 373d 7a4d 8abd 2a95 04be 0ad7 9dbc
000000b0: be45 b93d 7dfa 87bc 8779 23be c7e2 343e
000000c0: e1b5 09bc 3afd 20bc eb4c 78bb d9cb 85bd
000000d0: 3bf9 36be 4da2 f5bd 831b e73d f895 c3bd
000000e0: cced 913d 3a63 193e 436b 263e 14a5 923d
000000f0: 8750 4e3d 82f5 833d 8b34 8dbc 1949 6cbd
00000100: 26f5 3fbd af28 aa3d 81d8 b93d d71b e4bd
00000110: 9c77 f83d 0e48 79bd 4008 e6bd 5ace 7dbd
00000120: 36d1 bc3d 42ce fbbc b368 213d fe53 333d
00000130: 58c8 623d fd9f 62bd f7e2 f23d eec5 163d
00000140: 0919 363e 96d3 313e 858f d7bd 464f 173e
00000150: c5bc 293e 04eb b6bd 08f6 903d f801 3b3e
00000160: 8dc5 e5bd f2d9 2d3e d43a 193e 3da0 243e
00000170: bcf3 99bd 7968 0c3e 13bf a4bd 8696 113e
00000180: fae6 fdbd 4eb4 49be 53a8 04be 58d3 a7bc
00000190: ee95 e8bd 7b85 1cbe c6af 4cbc e82b dfbd
000001a0: 1af7 66bd 86ac 083e 69db 2dbd e473 03bd
000001b0: a038 983c 3174 573d c97f a4bd 7797 1ebd
000001c0: 89d2 2b3e 8dfa 01be 0d86 003e 8329 423d
000001d0: 3f1d 23be a5c1 263e b60b df3d 9837 c8bd
000001e0: 3c0a 68bd 3282 203d fe95 8fbd f70e 6ebd
000001f0: 010e e63c 6953 c43c 2b6c af3d dab3 cd3b
00000200: d560 cabc cf1b 9bbd 566c d4bc 953b b33c
00000210: 974b fe3d 125e 24be 17da 96bc 25df 323d
00000220: c768 023e 7661 4d3d 29a6 7dbc 889c 813d
00000230: f378 1dbe 7909 3dbe a18a 2cbe a422 c03c
00000240: 6e3a f6bd d32a a03d 5b7b 00be 6d69 fe3d
00000250: 9a3b 2a3e 9c4f cabd 566a 10bc 2ac8 933d
00000260: fcbb 57bc d3e4 a2bd f0a1 fa3d a742 a9ba
00000270: 4be2 0e3e 30e8 c7bc ad80 f83d 1e66 e9bd
00000280: 91b6 913d bb1a c5bd ab00 e03d 31cd cc3e
00000290: c016 1d3d d94d 1fbe 2035 f5bc 3efe c7bd
000002a0: 054b 433e be76 8ebd 00c0 c0bc ddb8 b7bd
000002b0: 48ad f1bc 6743 083e d1c9 c83d e526 2bbe
000002c0: 693f 43be 8332 a9bd e583 86be f7e7 4cbe
000002d0: 53f4 91bd a016 2abe 629a d2bd 7348 513d
000002e0: cb96 0a3c 1e08 d5bc 0ff5 593d 468f 78bc
000002f0: aed1 e33d a509 2d3e a9cd 803d 175a 93bc
00000300: e0b4 4ebc 1355 c6bd c655 1fbe 6486 60bd
00000310: fc07 f5bd 0930 92bd 355a 0ebe 1e61 00be
00000320: a114 84bd 40fe 17bb 9fb1 b6bd e9c9 933d
00000330: fcb3 6a3d a055 85bc 1809 40bd c8e6 b8bc
00000340: e05f fbbc 02f2 e5bd 9af7 fcbd 2eb6 72bd
00000350: b4e2 21be c212 2ebe e039 a6bc 11f8 1fbe
00000360: d8f9 d4bd ff7e 39bd b64e e53d f0ef 69bc
00000370: e09c d33b 2905 c33d e42e fcbd 2e6e 84bd
00000380: 0448 babd 6308 b93d f0be 563d 3a98 7fb8
00000390: ffec 37be 5d8a df3d 6f6d fb3d 6e51 6f3d
000003a0: c407 22be 3ddb 2fbd 38b3 e2bd 206e b73d
000003b0: 7c1b ecbb 4285 0cbe db33 d0bd ef16 463c
000003c0: 53ca 1b3e b814 6e3d 3313 5cbd cc1c 0abe
000003d0: d71f 1a3e aa56 09bd c668 18be 4672 2d3d
000003e0: 29d1 333e 0019 b1bd c4a0 b73a 32a6 60bc
000003f0: aff8 11be f59a 0cbc 4eb8 2ebe bb4d 08be

conv1.bias f4 [16]
-0.14514504 -0.10902725 0.06777491 0.16081288 0.0763473 -0.14998253 -0.17223997 0.17147283
-0.12957057 0.09995742 -0.10159859 0.035981037 -0.13844763 -0.08589863 -0.09322989 -0.11291025
00000000: e7a0 14be ae49 dfbd 92cd 8a3d 22ac 243e
00000010: f95b 9c3d 0595 19be ad5f 30be 9396 2f3e
00000020: 26ae 04be 7ab6 cc3d ec12 d0bd da60 133d
00000030: 37c5 0dbe 9feb afbd 50ef bebd 7d3d e7bd

conv2.weight f4 [32, 16, 4, 4]
-0.011181869 0.030905373 -0.024524003 -0.05391904 0.03955563 0.03236998 -0.021844953 0.037002318
0.0059007704 -0.029529847 0.056416407 0.033911362 0.05664271 0.0075741485 -0.048015185 0.042479843
-0.000918068 -0.03759414 -0.040973276 -0.018861987 -0.032542475 0.017525986 -0.03928291 -0.021587491
-0.027319163 0.042663895 -0.007323861 0.008767359 -0.050536186 0.0511399 0.006545238 0.008230627
-0.004948534 0.059742503 0.041644596 -0.03307572 -0.011321604 0.001606904 -0.0056910887 -0.03665571
-0.012978986 0.024331518 0.038047962 -0.048933282 0.026389748 -0.017390616 0.006649323 0.02088055
0.05299165 0.026169397 -0.019365631 -0.016184099 0.038782842 -0.051626027 0.05653312 -0.0062266663
-0.058281377 0.058211245 0.050406553 0.040142685 0.034251213 -0.027781315 -0.040028155 -0.009191029
-0.024532415 0.0062149987 0.018532 0.041597843 0.02166649 -0.060680427 -0.059221223 0.00361979
0.03038828 0.010429986 -0.061208956 0.027822025 0.004981436 -0.03515102 -0.011905499 -0.0035715997
0.037397824 0.037304528 0.03089302 -0.059146166 -0.032085165 0.04214178 0.028261073 0.011649422
-0.05347669 -0.023547634 -0.000568904 -0.04835701 -0.036382772 -0.05655539 0.061561644 -0.0477563
0.019993566 0.0045729056 -0.04087361 -0.010833822 -0.05861611 0.01827927 0.032285027 -0.029521555
0.037620068 -0.003532432 0.05223432 -0.024253137 0.02176439 0.013344333 0.044073984 -0.035132453
0.021563604 0.0038738623 0.01287245 -0.014302939 -0.03613294 0.053594418 -0.061090067 0.011704192
-0.04409658 -0.055634104 0.017259367 -0.05941215 0.015283719 -0.0267656 -0.019640848 -0.005174719
-0.049456768 -0.0068106055 -0.060325302 0.032849975 -0.01638244 -0.011970177 -0.027576074 0.035704285
-0.046984926 -0.015090823 0.034653574 -0.02981048 0.04640484 0.030777782 0.0422306 0.050306827
-0.016819052 0.047732033 -0.059316553 -0.016693696 -0.025771819 -0.049359627 -0.015674196 0.009959936
0.015147939 -0.018820688 -0.0536504 0.050524183 -0.046598062 -0.04858982 5.8978796e-05 -0.048942655
-0.005689837 -0.05182782 -0.040201925 0.007222824 -0.03579074 0.04572721 -0.02773761 0.021529317
-0.0195738 0.06163413 0.0071905702 0.04260186 0.0056167617 0.016075365 -0.034941733 -0.053688124
0.025441028 -0.04685951 -0.041546375 -0.019860126 0.025800824 -0.03637553 -0.038529105 -0.022250697
-0.051384956 -0.004886903 -0.060996056 0.034900077 0.02041594 -0.036788113 0.032426886 -0.05876959
-0.0433715 -0.053245135 -0.035994917 0.04354219 -0.002001889 0.04021761 0.020072505 0.038004264
-0.02340252 -0.05247721 -0.0025325343 -0.047218606 -0.03829637 0.019200727 -0.048653513 -0.0076702684
-0.032062933 -0.03751345 -0.038140133 -0.0122889355 -0.019720756 0.03704811 -0.0030292422 0.007339731
0.037542596 -0.052128293 -0.03589809 -3.8325787e-05 -0.020165741 -0.022600606 0.00033902377 -0.0053857267
-0.020770691 0.039724246 -0.05879782 0.037278168 0.039805688 -0.02486822 -0.049862407 0.0281953
0.0068031624 -0.017981581 -0.047649167 0.030153684 -0.010735936 -0.05237346 0.02803269 0.06212823
0.001327604 -0.050108083 -0.0022129864 -0.03136372 -0.059353076 -0.050950475 -0.008391917 -0.062090956
-0.02636291 0.019309424 -0.02503515 0.051976644 0.033974335 -0.050750658 0.010690764 -0.011509843
00000000: 2834 37bc 442d fd3c 90e6 c8bc 36da 5cbd
00000010: 1605 223d 6296 043d 30f4 b2bc be8f 173d
00000020: 405b c13b 94e8 f1bc e414 673d a4e6 0a3d
00000030: 3002 683d 9030 f83b 92ab 44bd 58ff 2d3d
00000040: 80aa 70ba 50fc 19bd 98d3 27bd 7484 9abc
00000050: 424b 05bd a892 8f3c 1ee7 20bd 40d8 b0bc
00000060: 70cc dfbc 56c0 2e3d 00fd efbb f8a4 0f3c
00000070: 08ff 4ebd 1278 513d 7079 d63b c0d9 063c
00000080: 5027 a2bb 8eb4 743d 8693 2a3d 687a 07bd
00000090: 407e 39bc c09e d23a 507c babb 4c24 16bd
000000a0: d0a5 54bc e452 c73c 2ed8 1b3d 446e 48bd
000000b0: 502f d83c c476 8ebc 90e2 d93b b00d ab3c
000000c0: c60d 593d 3461 d63c aca4 9ebc 8494 84bc
000000d0: c2da 1e3d d075 53bd 468f 673d 1009 ccbb
000000e0: 74b8 6ebd ea6e 6e3d 1a77 4e3d a86c 243d
000000f0: 004b 0c3d a495 e3bc 90f4 23bd f895 16bc
00000100: 34f8 c8bc 30a7 cb3b 6cd0 973c 8062 2a3d
00000110: ec7d b13c 0a8c 78bd f491 72bd 003a 6d3b
00000120: d8f0 f83c 88e2 2a3c 3eb6 7abd 04eb e33c
00000130: 503b a33b 84fa 0fbd 480f 43bc 8011 6abb
00000140: 762e 193d a2cc 183d 5c13 fd3c 4043 72bd
00000150: bc6b 03bd dc9c 2c3d c483 e73c 38dd 3e3c
00000160: 600a 5bbd f8e6 c0bc 8022 15ba 0012 46bd
00000170: 1a06 15bd a0a6 67bd 1028 7c3d 1c9c 43bd
00000180: 8cc9 a33c 50d8 953b 166b 27bd 5880 31bc
00000190: 7217 70bd 68be 953c 4e3d 043d 30d7 f1bc
000001a0: 8017 1a3d 6080 67bb a8f3 553d 84ae c6bc
000001b0: 3c4b b23c 30a2 5a3c ec86 343d 0ce7 0fbd
000001c0: 28a6 b03c a0e0 7d3b f8e6 523c e056 6abc
000001d0: 2200 14bd d285 5b3d 9439 7abd f0c2 3f3c
000001e0: 9e9e 34bd 96e0 63bd 8463 8d3c 285a 73bd
000001f0: 9068 7a3c 8843 dbbc d8e5 a0bc b090 a9bb
00000200: 2e93 4abd 802b dfbb aa17 77bd b28d 063d
00000210: 7834 86bc 901e 44bc 38e7 e1bc a83e 123d
00000220: 4473 40bd 803f 77bc e8f0 0d3d 1c35 f4bc
00000230: 0013 3e3d b021 fc3c fef9 2c3d 880e 4e3d
00000240: 1cc8 89bc aa82 433d eaf5 72bd 38c1 88bc
00000250: 6c1f d3bc 522d 4abd 2c67 80bc 002f 233c
00000260: 102f 783c d82d 9abc 86c0 5bbd 72f2 4e3d
00000270: 9cdd 3ebd 1e06 47bd 0060 7738 1878 48bd
00000280: d071 babb 6849 54bd c6aa 24bd 70ad ec3b
00000290: 5099 12bd 744c 3b3d fc39 e3bc 405e b03c
000002a0: 3c59 a0bc 1274 7c3d e09e eb3b 4a7f 2e3d
000002b0: d00c b83b 7cb0 833c 101f 0fbd 14e8 5bbd
000002c0: b469 d03c c2ef 3fbd 882c 2abd b4b1 a2bc
000002d0: 405c d33c 82fe 14bd b2d0 1dbd 1847 b6bc
000002e0: 0879 52bd 5022 a0bb 00d7 79bd 62f3 0e3d
000002f0: 543f a73c 22af 16bd 0ed2 043d 62b8 70bd
00000300: 50a6 31bd 9217 5abd 686f 13bd 4c59 323d
00000310: 2032 03bb 38bb 243d 186f a43c 5caa 1b3d
00000320: a4b6 bfbc 58f2 56bd e0f8 25bb 4c68 41bd
00000330: a8dc 1cbd d84a 9d3c e848 47bd e056 fbbb
00000340: 6c54 03bd b4a7 19bd d438 1cbd 8857 49bc
00000350: 6c8d a1bc c2bf 173d 4086 46bb 2082 f03b
00000360: 44c6 193d 7a84 55bd e009 13bd 00c0 20b8
00000370: a032 a5bc e824 b9bc 00bf b139 c07a b0bb
00000380: 4c27 aabc e4b5 223d fcd5 70bd feb0 183d
00000390: 4a0b 233d 70b8 cbbc 863c 4cbd d4f9 e63c
000003a0: 10ed de3b 1c4e 93bc c62b 43bd dc04 f73c
000003b0: c8e5 2fbc 8e85 56bd d0a4 e53c 2c7a 7e3d
000003c0: 0003 ae3a 223e 4dbd c007 11bb 3e77 00bd
000003d0: 361c 73bd 72b1 50bd 407e 09bc 1653 7ebd
000003e0: 08f7 d7bc cc2e 9e3c 8416 cdbc 76e5 543d
000003f0: ac28 0b3d ecdf 4fbd 5028 2f3c c893 3cbc

conv2.bias f4 [32]
-0.046870805 -0.039088015 0.019204507 -0.06234114 0.063672364 0.035701007 0.025142565 0.025014866
0.045397375 -0.022208594 -0.03482554 -0.028023168 -0.049403578 -0.038577784 0.03442519 0.068348534
-0.06601791 -0.0420421 -0.044131953 -0.030531354 0.05188523 0.054664817 0.03443109 -0.03861212
0.012994852 0.0052995603 -0.05605109 0.016323015 0.04615105 -0.007066147 0.06455447 -0.041024856
00000000: 9afb 3fbd c11a 20bd c552 9d3c 6c59 7fbd
00000010: a866 823d 383b 123d c8f7 cd3c faeb cc3c
00000020: 99f2 393d ccee b5bc 3aa5 0ebd d890 e5bc
00000030: 685b 4abd bd03 1ebd 6e01 0d3d 51fa 8b3d
00000040: 6634 87bd 5634 2cbd b5c3 34bd e41c fabc
00000050: 9b85 543d 37e8 5f3d 9d07 0d3d be27 1ebd
00000060: 5ce8 543c efa7 ad3b d495 65bd d8b7 853c
00000070: e208 3d3d 238b e7bb 2235 843d ae09 28bd

fc1.weight f4 [64, 800]
-0.0265343 0.016329627 -0.034914877 0.017007232 0.008472502 -0.010731794 -0.023074912 0.034750577
0.018166736 0.01896954 -0.007340772 0.018986516 -0.016288072 -0.020470178 0.02380474 -0.0019671544
-0.001123853 0.029187877 -0.013898637 -0.0071121417 0.0056529157 0.01909101 0.023686975 0.030337166
-0.027064338 0.0041720793 -0.03146552 -0.02640462 0.0037131384 0.01634476 -0.023884878 -0.021139137
0.011800401 -0.029749611 0.023273852 0.015527297 0.0301441 -0.015329547 0.030935142 0.014634464
0.0121370405 0.03521728 0.01826524 0.02254185 -0.024985041 0.015684206 0.029507514 0.020905998
-0.017057331 -0.013548994 0.005374342 0.015118539 0.015048802 -0.01684886 -0.008679951 -0.008964732
0.032424126 0.0074566714 -0.011658393 -0.025652844 -0.019141085 -0.006413322 0.010084227 0.0046307594
-0.01252491 0.02761 0.006055437 -0.030227497 0.01604411 -0.029759638 0.02106817 0.013776451
-0.029126804 -0.03509031 0.007751666 -0.012872785 0.0012670346 -0.027210828 0.007937018 -0.010239337
-0.031876303 0.008555707 0.004046675 0.009576414 -0.03492216 -0.021826016 0.032127928 -0.014464006
0.0265042 -0.033277348 -0.011443283 0.027863886 0.031612556 0.009073805 -0.018714534 -0.034217253
-0.023235824 0.010373704 -0.006089499 -0.015544824 -0.009721184 -0.01266912 0.02445893 -0.010340216
-0.01579484 0.017919146 -0.017773971 0.033458468 -0.026644392 0.026724763 -0.026044786 -0.030408863
0.01826794 0.025415547 0.029660325 0.03154655 0.009542871 0.033910427 -0.018490367 0.028533217
-0.025157463 0.008134898 -0.016638502 -0.019065596 0.0002419874 0.01862951 0.012450643 0.008643817
0.031904716 -0.020689066 -0.029416036 -0.02049187 0.007468354 -0.031865425 -0.0070457235 -0.024991881
0.030413177 -0.016523082 0.007865954 0.018297672 -0.011685055 -0.016804965 0.003776323 0.010530345
-0.021166328 -0.0019570552 0.008611195 0.001890257 0.016110443 -0.026491264 0.0077531114 0.0018053725
0.013220057 0.0122303255 0.026264418 -0.015604889 0.032672014 -0.013441466 -0.024814263 0.0045046695
0.017287552 0.02491228 0.029392418 0.034250256 0.01381788 -0.025382983 0.006798465 -0.01725681
0.02452711 0.012998726 -0.029382952 -0.0011002384 -0.024962772 -0.0024152473 0.022951677 -0.011789536
0.023650087 0.033413265 0.018365435 0.032322247 0.024906535 -0.023892645 -0.00865821 0.019892968
-0.030261822 -0.006611349 -0.028172392 -0.02643222 0.023024552 -0.0050057527 0.031708825 -0.033422004
-0.0036196522 0.03286169 0.033050712 0.023191608 0.0019461848 0.02231542 0.032764476 0.013583917
0.0091885105 -0.0039778426 -0.024607586 0.013593491 -0.0040944815 0.0009083748 -0.012209719 -0.017487854
-0.025671048 0.018899228 -0.02388744 0.009623136 -0.024488188 0.0029232837 0.0037315674 0.0045375414
-0.007752968 -0.02303078 -0.026543763 -0.021100208 -0.017183613 0.023897428 -0.006209003 0.0015791878
-0.016970597 -0.033106215 0.012044203 0.021634072 -0.0136965085 -0.005121529 0.017406214 0.007291518
0.032907885 0.016625378 2.2437423e-05 -0.02715927 -0.021873582 -0.021507058 0.003875956 -0.01651435
-0.0019544475 -0.02278149 -0.03454155 -0.02067166 -0.02671642 -0.013670484 0.0014816448 0.019218534
-0.009634294 0.012088753 -0.030988831 -0.017895034 -0.005849907 0.015492376 0.033746798 -0.026796088
00000000: 765e d9bc b6c5 853c e702 0fbd c052 8b3c
00000010: 40d0 0a3c 68d4 2fbc 9907 bdbc 9f56 0e3d
00000020: 68d2 943c 0266 9b3c dc8a f0bb 9c89 9b3c
00000030: 906e 85bc 13b1 a7bc 2802 c33c 60eb 00bb
00000040: 404e 93ba 6a1b ef3c 1cb7 63bc f80c e9bb
00000050: 183c b93b c064 9c3c 300b c23c a685 f83c
00000060: 08b6 ddbc f0b5 883b fde1 00bd 804e d8bc
00000070: 2058 733b 72e5 853c 38aa c3bc fc2b adbc
00000080: 7856 413c 75b5 f3bc cea8 be3c 3466 7e3c
00000090: c2f0 f63c c828 7bbc b26b fd3c 64c5 6f3c
000000a0: 70da 463c ff3f 103d fca0 953c b0a9 b83c
000000b0: 6ead ccbc 2a7c 803c beb9 f13c 0e43 ab3c
000000c0: d1bb 8bbc 9afc 5dbc 401b b03b c0b3 773c
000000d0: 408f 763c 9f06 8abc 5a36 0ebc d0e0 12bc
000000e0: 29cf 043d 1857 f43b d802 3fbc ea25 d2bc
000000f0: c4cd 9cbc d826 d2bb 5038 253c a0bd 973b
00000100: 4835 4dbc 5e2e e23c b06c c63b a89f f7bc
00000110: f06e 833c 7cca f3bc 2897 ac3c a0b6 613c
00000120: 569b eebc dbba 0fbd b001 fe3b 60e8 52bc
00000130: a012 a63a 3ee9 debc 440a 023c e4c2 27bc
00000140: ba90 02bd 3c2d 0c3c f899 843b 64e6 1c3c
00000150: 8a0a 0fbd 79cc b2bc 9398 033d 70fa 6cbc
00000160: 561f d93c d44d 08bd 9c7c 3bbc ce42 e43c
00000170: 2b7c 013d 4caa 143c 394f 99bc 6427 0cbd
00000180: 0e59 bebc 78f6 293c 6c8a c7bb b8af 7ebc
00000190: 9a45 1fbc 2492 4fbc 185e c83c 026a 29bc
000001a0: 2e64 81bc 2ccb 923c b89a 91bc bf0b 093d
000001b0: 5745 dabc e4ed da3c e05b d5bc 021c f9bc
000001c0: a6a6 953c 4434 d03c 36fa f23c f536 013d
000001d0: b459 1c3c a9e5 0a3d 1c79 97bc 7ebe e93c
000001e0: 0617 cebc 3c48 053c 784d 88bc 742f 9cbc
000001f0: 00be 7d39 ea9c 983c c8fd 4b3c cc9e 0d3c
00000200: 85ae 023d 1e7c a9bc e6f9 f0bc 91de a7bc
00000210: 18b9 f43b 5285 02bd d0df e6bb c6bb ccbc
00000220: 0e25 f93c 6a5b 87bc 34e0 003c 00e5 953c
00000230: ac72 3fbc 91aa 89bc 307c 773b 7887 2c3c
00000240: 0265 adbc f041 00bb f815 0d3c 80c2 f73a
00000250: 0cfa 833c 3504 d9bc d00d fe3b 40a2 ec3a
00000260: f098 583c b461 483c 7a28 d73c a6ab 7fbc
00000270: 17d3 053d 9839 5cbc 4847 cbbc e89b 933b
00000280: a09e 8d3c d614 cc3c 5ec8 f03c ff49 0c3d
00000290: 6464 623c f9ef cfbc a8c5 de3b 275e 8dbc
000002a0: 14ed c83c 9cf8 543c 84b4 f0bc e035 90ba
000002b0: ba7e ccbc 2049 1ebb 2805 bc3c e628 41bc
000002c0: d4bd c13c 59dc 083d 1c73 963c 5564 043d
000002d0: ca08 cc3c 82ba c3bc 2adb 0dbc 94f6 a23c
000002e0: a4e7 f7bc 04a4 d8bb cac9 e6bc 6288 d8bc
000002f0: fc9d bc3c 4c07 a4bb 1de1 013d 83e5 08bd
00000300: b037 6dbb fb99 063d 2f60 073d 54fc bd3c
00000310: 2017 ff3a d4ce b63c 0b34 063d 148f 5e3c
00000320: 688b 163c 9058 82bb d995 c9bc 3cb7 5e3c
00000330: 002b 86bb 0020 6e3a 460b 48bc b042 8fbc
00000340: 174c d2bc 8ed2 9a3c 98af c3bc 5caa 1d3c
00000350: 749b c8bc 9094 3f3b 508d 743b a8af 943b
00000360: 9c0c febb 0cab bcbc 4e72 d9bc 58da acbc
00000370: a6c4 8cbc 8ac4 c33c e474 cbbb c0fc ce3a
00000380: ec05 8bbc 629a 07bd 0c55 453c f039 b13c
00000390: 5267 60bc 80d2 a7bb 7a97 8e3c b0ed ee3b
000003a0: 6bca 063d f231 883c 0038 bc37 1e7d debc
000003b0: 3a30 b3bc 922f b0bc c003 7e3b 1a49 87bc
000003c0: 3016 00bb 3fa0 babc 717b 0dbd 9d57 a9bc
000003d0: 65dc dabc 2afa 5fbc c033 c23a 3070 9d3c
000003e0: 28d9 1dbc e80f 463c 4adc fdbc 9b98 92bc
000003f0: 94b0 bfbb bcd3 7d3c 153a 0a3d 7883 dbbc

fc1.bias f4 [64]
-0.033596497 -0.032020155 -0.031340986 0.023496889 -0.006661331 0.001631007 -0.0076059396 -0.004134294
-0.01624668 -0.030710291 0.029905386 0.03380949 -0.021832645 0.010482828 0.022700157 -0.025095515
-0.029890211 -0.023915783 -0.027575228 0.050125483 0.043807793 -0.03019652 -0.013239987 -0.022511467
-0.038055267 0.0027255272 0.046082184 -0.040024232 0.018211437 0.022255508 -0.029948961 0.010465316
0.026848271 -0.038929615 0.020139894 0.01416347 0.02519699 -0.02127654 0.0018258689 0.017800104
-0.017418126 -0.03411914 0.03313859 -0.025873894 -0.014950715 0.048249006 -0.020392716 -0.014708228
0.0011420012 -0.009464819 0.032037143 -0.015138233 0.016093224 0.011051882 -0.004098253 0.019459667
0.04781594 -0.001161389 0.03255374 -0.0016707894 -0.023475338 0.01966347 0.0009954795 0.004719107
00000000: 7b9c 09bd 9127 03bd 685f 00bd 8c7c c03c
00000010: 4b47 dabb 83c7 d53a 3f3b f9bb f978 87bb
00000020: c217 85bc 2694 fbbc 24fc f43c d27b 0a3d
00000030: 60da b2bc 2bc0 2b3c aef5 b93c 1c95 cdbc
00000040: 51dc f4bc 08eb c3bc 72e5 e1bc 6150 4d3d
00000050: cd6f 333d b15e f7bc 88ec 58bc f869 b8bc
00000060: d7df 1bbd c29e 323b acc0 3c3d 73f0 23bd
00000070: 2730 953c 2f51 b63c 8657 f5bc b776 2b3c
00000080: e8f0 db3c a974 1fbd 6bfc a43c e60d 683c
00000090: eb69 ce3c 234c aebc fe51 ef3a 86d1 913c
000000a0: 75b0 8ebc 83c0 0bbd 55bc 073d 7df5 d3bc
000000b0: d8f3 74bc c0a0 453d a00e a7bc c8fa 70bc
000000c0: 34af 953a 5412 1bbc 6139 033d 5a06 78bc
000000d0: f0d5 833c f412 353c a34a 86bb e169 9f3c
000000e0: a6da 433d c039 98ba 1257 053d 64fe daba
000000f0: 5a4f c0bc 4915 a13c c07a 823a bda2 9a3b

fc4.weight f4 [8, 64]
0.094568655 -0.06098844 -0.120562404 0.029108105 0.00038590204 -0.04007954 0.10786895 0.045183457
0.0475903 -0.015614871 -0.14914285 0.039216615 0.08781409 0.05856728 0.010349894 -0.10713476
0.124857515 0.04887405 0.015858114 -0.041076552 -0.14481124 -0.11336826 -0.1462866 0.088739574
-0.058223303 -0.005443062 0.019571966 0.066399306 -0.123756155 -0.0046627843 -0.0137741715 0.025547974
-0.10666129 0.11634962 0.10020256 0.117004395 -0.027306357 -0.109921366 -0.13071829 0.01588766
0.008372471 -0.016037777 -0.105610415 0.00072668394 -0.08785295 -0.036700815 -0.011387904 -0.06530954
-0.0025217705 -0.08107311 -0.1366255 0.035911262 -0.12007832 -0.0016236048 -0.025816282 0.08895686
-0.045133147 -0.09993127 -0.053274527 -0.018257853 -0.06581071 0.08333693 -0.049499825 -0.09470268
0.0007946938 0.114144474 0.08767706 -0.114266284 -0.037458424 -0.057514478 -0.030274022 0.09274618
-0.11811027 0.08339605 0.07395015 0.09777586 0.02169384 -0.04024153 0.08435311 0.083215535
0.07241782 0.013067067 -0.07399255 -0.098871954 -0.0093132965 0.0096407235 0.098839685 0.09193419
0.043272477 -0.069835 -0.09951068 -0.08079955 0.027905798 -0.06092959 0.11655724 0.06796074
0.050953165 0.04705318 -0.0032667601 -0.017485805 -0.029867994 -0.035390213 -0.13826558 -0.10902615
0.06586954 0.025150342 -0.12405227 -0.04681271 0.0075986534 -0.08140512 -0.0765671 0.0123707745
-0.02319254 0.11540669 0.0076997927 0.047950402 -0.107588015 0.054270074 0.04523752 0.1078718
-0.112922974 0.09940007 0.022381907 0.028387042 0.02270497 0.09769131 0.062160507 -0.07009431
-0.122364566 -0.041473 0.10264595 0.03365683 0.10398566 -0.1099595 -0.04233502 -0.107964635
-0.09590992 -0.08978368 -0.020283833 -0.11615589 -0.0662989 0.0032496948 0.0036077455 0.09844412
0.07440972 -0.045185313 0.0376991 -0.06949944 -0.12284408 -0.018335313 -0.056721743 0.028678358
0.082451105 0.08739187 -0.07972128 0.09255165 -0.07052469 0.03142177 -0.11876835 0.03321582
0.021270081 0.019380797 0.10899205 0.09548582 0.09249508 -0.07188964 -0.062996134 0.044283476
-0.03505951 0.059295014 -0.09696382 0.11060989 0.08445971 -0.083239995 -0.090456344 0.028329907
0.11321275 0.102266915 -0.05667461 0.056203227 0.0824944 -0.015077263 0.09989455 0.112741545
0.001949786 -0.020917073 -0.06877081 -0.068419404 0.06674775 0.0040983553 -0.007178366 -0.09329811
-0.052210137 -0.09536396 -0.027234837 0.032860376 0.086441316 -0.05533305 0.11308997 -0.036878664
-0.09222056 -0.13331436 -0.10945127 0.062140536 -0.13919027 -0.032667216 -0.028535195 -0.11973585
0.061661813 -0.013054103 -0.09235285 -0.04371513 0.0107786795 -0.034787253 0.100381255 0.021158889
-0.047023475 0.07921555 0.08936283 -0.015471794 -0.11055208 -0.121407196 -0.06195025 0.09360641
0.033220604 0.080060616 -0.036328867 0.043246955 0.06847859 -0.043369815 -0.05730443 -0.13023217
0.041426957 0.07828057 0.087531686 -0.018627835 -0.017042128 -0.036575753 0.023295587 -0.043037593
0.1159314 0.075303584 -0.07713321 0.051126614 0.03479307 0.046453834 -0.0002907104 -0.12367918
-0.07464376 0.10089302 0.08137736 0.03787608 0.027510805 0.10931549 0.036338568 -0.0014143761
00000000: 36ad c13d 04cf 79bd 6ce9 f6bd 1f74 ee3c
00000010: e552 ca39 722a 24bd 65ea dc3d 4a12 393d
00000020: 0cee 423d 84d5 7fbc e7b8 18be 9aa1 203d
00000030: e0d7 b33d 3fe4 6f3d 9a92 293c 7869 dbbd
00000040: 4cb5 ff3d 2830 483d e0e8 813c e33f 28bd
00000050: 6649 14be 9e2d e8bd 28cc 15be 18bd b53d
00000060: 8f7b 6ebd b75b b2bb 6355 a03c 5cfc 873d
00000070: de73 fdbd 45ca 98bb 10ad 61bc fc49 d13c
00000080: 3c71 dabd b648 ee3d 0037 cd3d 00a0 ef3d
00000090: 95b1 dfbc 741e e1bd 04db 05be d726 823c
000000a0: b02c 093c a861 83bc 464a d8bd ef7e 3e3a
000000b0: 3fec b3bd 9853 16bd 5594 3abc 02c1 85bd
000000c0: 4a44 25bb a909 a6bd 8ee7 0bbe b017 133d
000000d0: 9feb f5bd 23cf d4ba ab7c d3bc 042f b63d
000000e0: 89dd 38bd c4a8 ccbd 6436 5abd 7e91 95bc
000000f0: c4c7 86bd 8dac aa3d 54c0 4abd 7bf3 c1bd
00000100: 0053 503a 94c4 e93d 0890 b33d 7104 eabd
00000110: 016e 19bd 4d94 6bbd 3a01 f8bc b6f1 bd3d
00000120: cce3 f1bd 8ccb aa3d 2d73 973d b63e c83d
00000130: 48b7 b13c 4dd4 24bd 53c1 ac3d e86c aa3d
00000140: cb4f 943d 4017 563c 6889 97bd 617d cabd
00000150: cc96 18bc 20f4 1d3c 766c ca3d fe47 bc3d
00000160: 7b3e 313d a705 8fbd 41cc cbbd 3c7a a5bd
00000170: b39a e43c 4e91 79bd 90b5 ee3d 002f 8b3d
00000180: 44b4 503d d6ba 403d 2417 56bb 643e 8fbc
00000190: b9ad f4bc 54f5 10bd 7e95 0dbe 1a49 dfbd
000001a0: 9ce6 863d 1708 ce3c 1e0f febd afbe 3fbd
000001b0: 20fe f83b bab7 a6bd 36cf 9cbd caae 4a3c
000001c0: 48fe bdbc 585a ec3d 8b4e fc3b a467 443d
000001d0: 1b57 dcbd 4c4a 5e3d fa4a 393d e4eb dc3d
000001e0: 2944 e7bd 4492 cb3d 435a b73c f18b e83c
000001f0: c6ff b93c 6212 c83d 049c 7e3d 9b8d 8fbd
00000200: 469a fabd 98df 29bd 0a38 d23d bfdb 093d
00000210: 6ff6 d43d 7232 e1bd 7c67 2dbd 901c ddbd
00000220: 6c6c c4bd 82e0 b7bd 482a a6bc 24e3 edbd
00000230: b8c7 87bd d5f8 543b ed6f 6c3b 129d c93d
00000240: 2064 983d 3c14 39bd 5f6a 1a3d b955 8ebd
00000250: ad95 fbbd f033 96bc 0f55 68bd e0ee ea3c
00000260: 20dc a83d 82fa b23d e944 a3bd b88b bd3d
00000270: 406f 90bd 1db4 003d d23c f3bd 500d 083d
00000280: 983e ae3c 7ac4 9e3c 3937 df3d 128e c33d
00000290: 0f6e bd3d e03a 93bd 1e04 81bd 9762 353d
000002a0: 909a 0fbd 54df 723d f894 c6bd 7087 e23d
000002b0: 36f9 ac3d bb79 aabd 2d41 b9bd 1f14 e83c
000002c0: 16dc e73d 5171 d13d a323 68bd 5b35 663d
000002d0: d3f2 a83d a006 77bc 8495 cc3d 0ae5 e63d
000002e0: f68f ff3a 485a abbc b6d7 8cbd 791f 8cbd
000002f0: 0bb3 883d 7f4b 863b 8038 ebbb 1413 bfbd
00000300: 4cda 55bd 2e4e c3bd 981b dfbc 9a98 063d
00000310: 2508 b13d e9a4 62bd b79b e73d 150e 17bd
00000320: 22de bcbd 8f83 08be fd27 e0bd 1387 7e3d
00000330: e587 0ebe 0fce 05bd a4c2 e9bc 1238 f5bd
00000340: 1991 7c3d e0e0 55bc 7e23 bdbd a30e 33bd
00000350: 0f99 303c 147d 0ebd b094 cd3d 6855 ad3c
00000360: b09b 40bd c33b a23d dc03 b73d 687d 7dbc
00000370: 2169 e2bd 56a4 f8bd 8cbf 7dbd b8b4 bf3d
00000380: 5412 083d d2f6 a33d 94cd 14bd b823 313d
00000390: 813e 8c3d 8ca4 31bd 0db8 6abd 955b 05be
000003a0: 50af 293d 9051 a03d d043 b33d 6799 98bc
000003b0: ef9b 8bbc 75d0 15bd 63d6 be3c 3048 30bd
000003c0: 716d ed3d c438 9a3d 04f8 9dbd 246a 513d
000003d0: 2e83 0e3d 6046 3e3d 7d6a 98b9 834b fdbd
000003e0: d4de 98bd 00a1 ce3d 2ca9 a63d f323 1b3d
000003f0: 575e e13c cde0 df3d c0d7 143d 9662 b9ba

fc4.bias f4 [8]
0.04795127 0.09024384 0.10176399 -0.09272621 -0.029480046 0.0011629987 0.0044176397 -0.07370236
00000000: 8d68 443d c3d1 b83d a469 d03d 3de7 bdbd
00000010: 2380 f1bc c36f 983a d9c1 903b 43f1 96bd

conv1.weight f4 [16, 2, 4, 4]
-0.12470332 -0.1635291 0.1114458 -0.08937739 -0.085114904 -0.10915146 0.06754266 -0.088201106
0.14118136 -0.17346866 0.17045744 -0.1723768 -0.115465164 0.13517623 -0.08125465 -0.082602344
-0.022122145 -0.011754647 0.15094303 0.10737504 -0.17063926 0.046703085 0.07126017 0.0069487095
-0.08960806 0.06201908 -0.083781004 0.07233706 -0.05419282 -0.07385968 0.16733314 -0.1175013
-0.018291876 0.15040164 -0.046002313 -0.051351786 -0.056532644 0.021875232 0.08615638 0.105730936
0.0622399 -0.06753059 -0.12947527 -0.037715197 0.08728285 0.004819408 -0.15964328 -0.08012786
0.006025359 0.0053121 0.012466535 -0.056592807 -0.17360453 -0.0993161 0.116644934 -0.07740867
0.09063353 0.17224498 0.17024706 0.097154304 0.066370115 0.08872007 -0.0033900887 -0.0407885
-0.044155583 0.11418088 0.09667309 -0.084145024 0.12350939 -0.023886725 -0.13520122 -0.09181809
0.110149905 0.005478114 0.062041238 -0.053875722 0.04609461 -0.04380396 0.11998446 0.078854665
0.17059098 0.1686591 -0.10353828 0.14089261 0.16045453 -0.097668305 0.06357661 0.17454125
-0.116006285 0.16887577 0.15391971 0.15647526 -0.078676045 0.12549914 -0.082520515 0.13477619
-0.1362654 -0.1721679 -0.12204598 -0.05318416 -0.120180994 -0.12227766 0.019402117 -0.16123444
-0.035279393 0.17027526 -0.019019455 -0.08903627 0.011149153 0.05092381 -0.1484105 0.009331971
0.16944204 -0.13021767 0.12883063 0.044279516 -0.13440596 0.16595887 0.11335908 -0.08935684
-0.061183803 0.04025629 -0.0775726 -0.061824307 0.039619938 0.031130806 0.08510767 0.0011292398
0.009877026 -0.056910127 -0.04677114 0.07329281 0.16347261 -0.14404319 0.019409135 -0.16273424
0.15616293 0.080764726 0.063547745 0.06354308 -0.13428706 -0.14728518 -0.09466671 -0.016378954
-0.11801484 0.08235259 -0.123073325 0.12614511 0.16724698 -0.09588075 -0.009930655 0.080889925
-0.004439786 -0.07364108 0.1213163 0.0024310797 0.1365603 -0.0069458485 0.11360745 -0.093625896
0.094725475 -0.09624239 0.1271274 0.14843847 0.060458556 -0.1555704 -0.029932559 -0.0976529
0.15282421 -0.06956242 0.011788994 -0.08970807 -0.029501572 0.15558673 0.14330791 -0.16714056
-0.028386742 -0.090838745 -0.02816908 -0.16695799 0.019209981 -0.07720736 -0.09061779 0.022653848
-0.05288502 -0.14786305 0.06572555 -0.049668625 0.11889054 0.1647005 0.07533841 -0.078840315
-0.012616366 -0.09684195 -0.15560064 -0.054815665 -0.119644135 -0.07138068 -0.13901599 -0.12537047
-0.06449247 -0.0023192316 -0.08920597 0.085219696 0.057300553 -0.01627618 -0.046883672 -0.022570983
-0.030685365 -0.112278 -0.12351914 -0.05925577 -0.15809137 -0.16999343 -0.020291269 -0.15621974
-0.103992164 -0.013181493 0.111966535 -0.014278397 0.00645791 0.108281925 -0.12313631 -0.064663276
-0.096816875 0.12653176 0.111084566 0.011606678 -0.17349552 0.118636474 0.1423751 0.023076326
-0.15693791 -0.026342496 -0.10880972 0.17500536 0.023499817 -0.15610549 -0.04224865 0.053980947
0.15671821 0.05721441 -0.055454142 -0.12845527 0.14828987 -0.030137882 -0.1563396 0.036330715
0.17433058 -0.08702119 -0.0005195439 -0.011821538 -0.14291388 -0.0033991188 -0.16874428 -0.13879755
00000000: 7464 ffbd 2c74 27be b23d e43d 7e0b b7bd
00000010: b950 aebd cd8a dfbd ce53 8a3d c8a2 b4bd
00000020: d991 103e c5a1 31be 658c 2e3e 8b83 30be
00000030: 0079 ecbd a36b 0a3e d768 a6bd 6b2b a9bd
00000040: 8039 b5bc 9096 40bc cf90 1a3e 72e7 db3d
00000050: 0fbc 2ebe bc4b 3f3d daf0 913d 00b2 e33b
00000060: 6e84 b7bd b807 7e3d 6095 abbd 7425 943d
00000070: 4af9 5dbd be43 97bd 6159 2b3e 86a4 f0bd
00000080: d8d8 95bc e302 1a3e ec6c 3cbd 4056 52bd
00000090: c68e 67bd b033 b33c c272 b03d 7689 d83d
000000a0: 44ef 7e3d 7a4d 8abd 2a95 04be 407b 1abd
000000b0: 5ac1 b23d 20ec 9d3b 8779 23be 131a a4bd
000000c0: 6070 c53b 2011 ae3b 7040 4c3c dccd 67bd
000000d0: 63c5 31be 3d66 cbbd 8ae3 ee3d 7088 9ebd
000000e0: 129e b93d fd60 303e 3f55 2e3e d6f8 c63d
000000f0: 0eed 873d deb2 b53d 402c 5ebb d811 27bd
00000100: 7cdc 34bd aad7 e93d 8afc c53d 3a54 acbd
00000110: 7ef2 fc3d 18ae c3bc 3072 0abe 1f0b bcbd
00000120: 4696 e13d c081 b33b f41e 7e3d caac 5cbd
00000130: b4cd 3c3d c86b 33bd 6aba f53d 8e7e a13d
00000140: 67af 2e3e f9b4 2c3e e10b d4bd 2746 103e
00000150: 314e 243e 5206 c8bd 7434 823d f1ba 323e
00000160: b494 edbd c5ed 2c3e 219d 1d3e 0d3b 203e
00000170: e820 a1bd d982 003e 8400 a9bd c502 0a3e
00000180: 2889 0bbe c84c 30be 3ef3 f9bd a2d7 59bd
00000190: 7421 f6bd b66c fabd 30f1 9e3c a41a 25be
000001a0: 2081 10bd a35c 2e3e b0ce 9bbc a658 b6bd
000001b0: f0aa 363c 7c95 503d ecf8 17be 20e5 183c
000001c0: 3782 2d3e c857 05be 2dec 033e 705e 353d
000001d0: b7a1 09be 1ff1 293e ce28 e83d b800 b7bd
000001e0: de9b 7abd c8e3 243d 62de 9ebd 7c3b 7dbd
000001f0: 8448 223d 0806 ff3c ee4c ae3d 0003 943a
00000200: 40d3 213c 981a 69bd 1893 3fbd 8a1a 963d
00000210: 5d65 273e 0f80 13be e8ff 9e3c cea3 26be
00000220: 2de9 1f3e fa67 a53d 5225 823d e022 823d
00000230: 8c82 09be edd1 16be 9fe0 c1bd 282d 86bc
00000240: c4b1 f1bd 7aa8 a83d de0d fcbd 2f2c 013e
00000250: cb42 2b3e 205d c4bd 30b4 22bc 9ea9 a53d
00000260: a07b 91bb 22d1 96bd ae74 f83d c052 1f3b
00000270: 77d6 0b3e 009a e3bb 06ab e83d efbe bfbd
00000280: 6eff c13d bb1a c5bd af2d 023e 4100 183e
00000290: 64a3 773d d94d 1fbe 2035 f5bc 3efe c7bd
000002a0: f37d 1c3e be76 8ebd a026 413c ddb8 b7bd
000002b0: 48ad f1bc 2152 1f3e 4fbf 123e e526 2bbe
000002c0: 508b e8bc aa09 babd d8c2 e6bc 09f7 2abe
000002d0: 405e 9d3c e41e 9ebd d295 b9bd 9094 b93c
000002e0: f69d 58bd 6969 17be 1e9b 863d 5471 4bbd
000002f0: e27c f33d 3fa7 283e 064b 9a3d 0877 a1bd
00000300: e0b4 4ebc 1355 c6bd c655 1fbe 6486 60bd
00000310: fc07 f5bd 0930 92bd 355a 0ebe 1e61 00be
00000320: a114 84bd 40fe 17bb 9fb1 b6bd aa87 ae3d
00000330: fcb3 6a3d a055 85bc 1809 40bd c8e6 b8bc
00000340: e05f fbbc 02f2 e5bd 9af7 fcbd 2eb6 72bd
00000350: b4e2 21be c212 2ebe e039 a6bc 11f8 1fbe
00000360: d8f9 d4bd 30f7 57bc b64e e53d f0ef 69bc
00000370: e09c d33b eac2 dd3d e42e fcbd 2e6e 84bd
00000380: ed47 c6bd 8b91 013e 4e80 e33d f029 3e3c
00000390: cfa8 31be aef7 f23d c7ca 113e 900a bd3c
000003a0: 55b4 20be 38cc d7bc a1d7 debd 9b34 333e
000003b0: b082 c03c 1eda 1fbe ec0c 2dbd 201b 5d3d
000003c0: bd7a 203e a859 6a3d e223 63bd c789 03be
000003d0: 4dd9 173e b8e3 f6bc 7d17 20be 84cf 143d
000003e0: b783 323e 2a38 b2bd 0032 08ba 20af 41bc
000003f0: 0458 12be c0c3 5ebb 4dcb 2cbe f220 0ebe

conv1.bias f4 [16]
-0.15120837 -0.08534458 0.061921895 0.16153769 0.078721926 -0.14404628 -0.15918289 0.16693743
-0.13068068 0.100000784 -0.08581612 0.045624614 -0.13914084 -0.066433586 -0.07844732 -0.11464153
00000000: 5ed6 1abe 24c9 aebd d0a1 7d3d 236a 253e
00000010: f638 a13d de80 13be d700 23be a5f1 2a3e
00000020: 28d1 05be 36cd cc3d 5dc0 afbd e0e0 3a3d
00000030: f07a 0ebe 550e 88bd fda8 a0bd 2ec9 eabd

conv2.weight f4 [32, 16, 4, 4]
-0.011181869 0.030905373 -0.024524003 -0.05391904 0.03955563 0.03236998 -0.021844953 0.037002318
0.0059007704 -0.029529847 0.056416407 0.033911362 0.05664271 0.0075741485 -0.048015185 0.042479843
-0.000918068 -0.03759414 -0.040973276 -0.018861987 -0.032542475 0.017525986 -0.03928291 -0.021587491
-0.027319163 0.042663895 -0.007323861 0.008767359 -0.050536186 0.0511399 0.006545238 0.008230627
-0.004948534 0.059742503 0.041644596 -0.03307572 -0.011321604 0.001606904 -0.0056910887 -0.03665571
-0.012978986 0.024331518 0.038047962 -0.048933282 0.026389748 -0.017390616 0.006649323 0.02088055
0.05299165 0.026169397 -0.019365631 -0.016184099 0.038782842 -0.051626027 0.05653312 -0.0062266663
-0.058281377 0.058211245 0.050406553 0.040142685 0.034251213 -0.027781315 -0.040028155 -0.009191029
-0.024532415 0.0062149987 0.018532 0.041597843 0.02166649 -0.060680427 -0.059221223 0.00361979
0.03038828 0.010429986 -0.061208956 0.027822025 0.004981436 -0.03515102 -0.011905499 -0.0035715997
0.037397824 0.037304528 0.03089302 -0.059146166 -0.032085165 0.04214178 0.028261073 0.011649422
-0.05347669 -0.023547634 -0.000568904 -0.04835701 -0.036382772 -0.05655539 0.061561644 -0.0477563
0.019993566 0.0045729056 -0.04087361 -0.010833822 -0.05861611 0.01827927 0.032285027 -0.029521555
0.037620068 -0.003532432 0.05223432 -0.024253137 0.02176439 0.013344333 0.044073984 -0.035132453
0.021563604 0.0038738623 0.01287245 -0.014302939 -0.03613294 0.053594418 -0.061090067 0.011704192
-0.04409658 -0.055634104 0.017259367 -0.05941215 0.015283719 -0.0267656 -0.019640848 -0.005174719
-0.049456768 -0.0068106055 -0.060325302 0.032849975 -0.01638244 -0.011970177 -0.027576074 0.035704285
-0.046984926 -0.015090823 0.034653574 -0.02981048 0.04640484 0.030777782 0.0422306 0.050306827
-0.016819052 0.047732033 -0.059316553 -0.016693696 -0.025771819 -0.049359627 -0.015674196 0.009959936
0.015147939 -0.018820688 -0.0536504 0.050524183 -0.046598062 -0.04858982 5.8978796e-05 -0.048942655
-0.005689837 -0.05182782 -0.040201925 0.007222824 -0.03579074 0.04572721 -0.02773761 0.021529317
-0.0195738 0.06163413 0.0071905702 0.04260186 0.0056167617 0.016075365 -0.034941733 -0.053688124
0.025441028 -0.04685951 -0.041546375 -0.019860126 0.025800824 -0.03637553 -0.038529105 -0.022250697
-0.051384956 -0.004886903 -0.060996056 0.034900077 0.02041594 -0.036788113 0.032426886 -0.05876959
-0.0433715 -0.053245135 -0.035994917 0.04354219 -0.002001889 0.04021761 0.020072505 0.038004264
-0.02340252 -0.05247721 -0.0025325343 -0.047218606 -0.03829637 0.019200727 -0.048653513 -0.0076702684
-0.032062933 -0.03751345 -0.038140133 -0.0122889355 -0.019720756 0.03704811 -0.0030292422 0.007339731
0.037542596 -0.052128293 -0.03589809 -3.8325787e-05 -0.020165741 -0.022600606 0.00033902377 -0.0053857267
-0.020770691 0.039724246 -0.05879782 0.037278168 0.039805688 -0.02486822 -0.049862407 0.0281953
0.0068031624 -0.017981581 -0.047649167 0.030153684 -0.010735936 -0.05237346 0.02803269 0.06212823
0.001327604 -0.050108083 -0.0022129864 -0.03136372 -0.059353076 -0.050950475 -0.008391917 -0.062090956
-0.02636291 0.019309424 -0.02503515 0.051976644 0.033974335 -0.050750658 0.010690764 -0.011509843
00000000: 2834 37bc 442d fd3c 90e6 c8bc 36da 5cbd
00000010: 1605 223d 6296 043d 30f4 b2bc be8f 173d
00000020: 405b c13b 94e8 f1bc e414 673d a4e6 0a3d
00000030: 3002 683d 9030 f83b 92ab 44bd 58ff 2d3d
00000040: 80aa 70ba 50fc 19bd 98d3 27bd 7484 9abc
00000050: 424b 05bd a892 8f3c 1ee7 20bd 40d8 b0bc
00000060: 70cc dfbc 56c0 2e3d 00fd efbb f8a4 0f3c
00000070: 08ff 4ebd 1278 513d 7079 d63b c0d9 063c
00000080: 5027 a2bb 8eb4 743d 8693 2a3d 687a 07bd
00000090: 407e 39bc c09e d23a 507c babb 4c24 16bd
000000a0: d0a5 54bc e452 c73c 2ed8 1b3d 446e 48bd
000000b0: 502f d83c c476 8ebc 90e2 d93b b00d ab3c
000000c0: c60d 593d 3461 d63c aca4 9ebc 8494 84bc
000000d0: c2da 1e3d d075 53bd 468f 673d 1009 ccbb
000000e0: 74b8 6ebd ea6e 6e3d 1a77 4e3d a86c 243d
000000f0: 004b 0c3d a495 e3bc 90f4 23bd f895 16bc
00000100: 34f8 c8bc 30a7 cb3b 6cd0 973c 8062 2a3d
00000110: ec7d b13c 0a8c 78bd f491 72bd 003a 6d3b
00000120: d8f0 f83c 88e2 2a3c 3eb6 7abd 04eb e33c
00000130: 503b a33b 84fa 0fbd 480f 43bc 8011 6abb
00000140: 762e 193d a2cc 183d 5c13 fd3c 4043 72bd
00000150: bc6b 03bd dc9c 2c3d c483 e73c 38dd 3e3c
00000160: 600a 5bbd f8e6 c0bc 8022 15ba 0012 46bd
00000170: 1a06 15bd a0a6 67bd 1028 7c3d 1c9c 43bd
00000180: 8cc9 a33c 50d8 953b 166b 27bd 5880 31bc
00000190: 7217 70bd 68be 953c 4e3d 043d 30d7 f1bc
000001a0: 8017 1a3d 6080 67bb a8f3 553d 84ae c6bc
000001b0: 3c4b b23c 30a2 5a3c ec86 343d 0ce7 0fbd
000001c0: 28a6 b03c a0e0 7d3b f8e6 523c e056 6abc
000001d0: 2200 14bd d285 5b3d 9439 7abd f0c2 3f3c
000001e0: 9e9e 34bd 96e0 63bd 8463 8d3c 285a 73bd
000001f0: 9068 7a3c 8843 dbbc d8e5 a0bc b090 a9bb
00000200: 2e93 4abd 802b dfbb aa17 77bd b28d 063d
00000210: 7834 86bc 901e 44bc 38e7 e1bc a83e 123d
00000220: 4473 40bd 803f 77bc e8f0 0d3d 1c35 f4bc
00000230: 0013 3e3d b021 fc3c fef9 2c3d 880e 4e3d
00000240: 1cc8 89bc aa82 433d eaf5 72bd 38c1 88bc
00000250: 6c1f d3bc 522d 4abd 2c67 80bc 002f 233c
00000260: 102f 783c d82d 9abc 86c0 5bbd 72f2 4e3d
00000270: 9cdd 3ebd 1e06 47bd 0060 7738 1878 48bd
00000280: d071 babb 6849 54bd c6aa 24bd 70ad ec3b
00000290: 5099 12bd 744c 3b3d fc39 e3bc 405e b03c
000002a0: 3c59 a0bc 1274 7c3d e09e eb3b 4a7f 2e3d
000002b0: d00c b83b 7cb0 833c 101f 0fbd 14e8 5bbd
000002c0: b469 d03c c2ef 3fbd 882c 2abd b4b1 a2bc
000002d0: 405c d33c 82fe 14bd b2d0 1dbd 1847 b6bc
000002e0: 0879 52bd 5022 a0bb 00d7 79bd 62f3 0e3d
000002f0: 543f a73c 22af 16bd 0ed2 043d 62b8 70bd
00000300: 50a6 31bd 9217 5abd 686f 13bd 4c59 323d
00000310: 2032 03bb 38bb 243d 186f a43c 5caa 1b3d
00000320: a4b6 bfbc 58f2 56bd e0f8 25bb 4c68 41bd
00000330: a8dc 1cbd d84a 9d3c e848 47bd e056 fbbb
00000340: 6c54 03bd b4a7 19bd d438 1cbd 8857 49bc
00000350: 6c8d a1bc c2bf 173d 4086 46bb 2082 f03b
00000360: 44c6 193d 7a84 55bd e009 13bd 00c0 20b8
00000370: a032 a5bc e824 b9bc 00bf b139 c07a b0bb
00000380: 4c27 aabc e4b5 223d fcd5 70bd feb0 183d
00000390: 4a0b 233d 70b8 cbbc 863c 4cbd d4f9 e63c
000003a0: 10ed de3b 1c4e 93bc c62b 43bd dc04 f73c
000003b0: c8e5 2fbc 8e85 56bd d0a4 e53c 2c7a 7e3d
000003c0: 0003 ae3a 223e 4dbd c007 11bb 3e77 00bd
000003d0: 361c 73bd 72b1 50bd 407e 09bc 1653 7ebd
000003e0: 08f7 d7bc cc2e 9e3c 8416 cdbc 76e5 543d
000003f0: ac28 0b3d ecdf 4fbd 5028 2f3c c893 3cbc

conv2.bias f4 [32]
-0.046870805 -0.049624518 0.014627039 -0.056342363 0.061528906 0.019568093 0.021168329 0.011920415
0.033840127 -0.028174333 -0.028891414 -0.029527947 -0.03813532 -0.04665471 0.022667296 0.058692433
-0.060012497 -0.034580715 -0.04011698 -0.041620903 0.055872753 0.054446094 0.030602463 -0.047816463
0.0026740804 0.011823736 -0.05605109 -0.00509274 0.030024402 -0.012627184 0.053261474 -0.044856384
00000000: 9afb 3fbd 1443 4bbd 40a6 6f3c 40c7 66bd
00000010: bc05 7c3d 444d a03c 3469 ad3c d84d 433c
00000020: f29b 0a3d dccd e6bc b0ad ecbc 98e4 f1bc
00000030: c833 1cbd 0219 3fbd c4b0 b93c 7a67 703d
00000040: aacf 75bd 82a4 0dbd b451 24bd ae7a 2abd
00000050: d4da 643d de02 5f3d 04b2 fa3c 32db 43bd
00000060: a03f 2f3b 58b8 413c d495 65bd 00e1 a6bb
00000070: bcf5 f53c 40e2 4ebc b428 5a3d 54bb 37bd

fc1.weight f4 [64, 800]
-0.0265343 0.016329627 -0.034914877 0.017007232 0.008472502 -0.010731794 -0.023074912 0.034750577
0.018166736 0.01896954 -0.007340772 0.018986516 -0.016288072 -0.020470178 0.02380474 -0.0019671544
-0.001123853 0.029187877 -0.013898637 -0.0071121417 0.0056529157 0.01909101 0.023686975 0.030337166
-0.027064338 0.0041720793 -0.03146552 -0.02640462 0.0037131384 0.01634476 -0.023884878 -0.021139137
0.011800401 -0.029749611 0.023273852 0.015527297 0.0301441 -0.015329547 0.030935142 0.014634464
0.0121370405 0.03521728 0.01826524 0.02254185 -0.024985041 0.015684206 0.029507514 0.020905998
-0.017057331 -0.013548994 0.005374342 0.015118539 0.015048802 -0.01684886 -0.008679951 -0.008964732
0.032424126 0.0074566714 -0.011658393 -0.025652844 -0.019141085 -0.006413322 0.010084227 0.0046307594
-0.01252491 0.02761 0.006055437 -0.030227497 0.01604411 -0.029759638 0.02106817 0.013776451
-0.029126804 -0.03509031 0.007751666 -0.012872785 0.0012670346 -0.027210828 0.007937018 -0.010239337
-0.031876303 0.008555707 0.004046675 0.009576414 -0.03492216 -0.021826016 0.032127928 -0.014464006
0.0265042 -0.033277348 -0.011443283 0.027863886 0.031612556 0.009073805 -0.018714534 -0.034217253
-0.023235824 0.010373704 -0.006089499 -0.015544824 -0.009721184 -0.01266912 0.02445893 -0.010340216
-0.01579484 0.017919146 -0.017773971 0.033458468 -0.026644392 0.026724763 -0.026044786 -0.030408863
0.01826794 0.025415547 0.029660325 0.03154655 0.009542871 0.033910427 -0.018490367 0.028533217
-0.025157463 0.008134898 -0.016638502 -0.019065596 0.0002419874 0.01862951 0.012450643 0.008643817
0.031904716 -0.020689066 -0.029416036 -0.02049187 0.007468354 -0.031865425 -0.0070457235 -0.024991881
0.030413177 -0.016523082 0.007865954 0.018297672 -0.011685055 -0.016804965 0.003776323 0.010530345
-0.021166328 -0.0019570552 0.008611195 0.001890257 0.016110443 -0.026491264 0.0077531114 0.0018053725
0.013220057 0.0122303255 0.026264418 -0.015604889 0.032672014 -0.013441466 -0.024814263 0.0045046695
0.017287552 0.02491228 0.029392418 0.034250256 0.01381788 -0.025382983 0.006798465 -0.01725681
0.02452711 0.012998726 -0.029382952 -0.0011002384 -0.024962772 -0.0024152473 0.022951677 -0.011789536
0.023650087 0.033413265 0.018365435 0.032322247 0.024906535 -0.023892645 -0.00865821 0.019892968
-0.030261822 -0.006611349 -0.028172392 -0.02643222 0.023024552 -0.0050057527 0.031708825 -0.033422004
-0.0036196522 0.03286169 0.033050712 0.023191608 0.0019461848 0.02231542 0.032764476 0.013583917
0.0091885105 -0.0039778426 -0.024607586 0.013593491 -0.0040944815 0.0009083748 -0.012209719 -0.017487854
-0.025671048 0.018899228 -0.02388744 0.009623136 -0.024488188 0.0029232837 0.0037315674 0.0045375414
-0.007752968 -0.02303078 -0.026543763 -0.021100208 -0.017183613 0.023897428 -0.006209003 0.0015791878
-0.016970597 -0.033106215 0.012044203 0.021634072 -0.0136965085 -0.005121529 0.017406214 0.007291518
0.032907885 0.016625378 2.2437423e-05 -0.02715927 -0.021873582 -0.021507058 0.003875956 -0.01651435
-0.0019544475 -0.02278149 -0.03454155 -0.02067166 -0.02671642 -0.013670484 0.0014816448 0.019218534
-0.009634294 0.012088753 -0.030988831 -0.017895034 -0.005849907 0.015492376 0.033746798 -0.026796088
00000000: 765e d9bc b6c5 853c e702 0fbd c052 8b3c
00000010: 40d0 0a3c 68d4 2fbc 9907 bdbc 9f56 0e3d
00000020: 68d2 943c 0266 9b3c dc8a f0bb 9c89 9b3c
00000030: 906e 85bc 13b1 a7bc 2802 c33c 60eb 00bb
00000040: 404e 93ba 6a1b ef3c 1cb7 63bc f80c e9bb
00000050: 183c b93b c064 9c3c 300b c23c a685 f83c
00000060: 08b6 ddbc f0b5 883b fde1 00bd 804e d8bc
00000070: 2058 733b 72e5 853c 38aa c3bc fc2b adbc
00000080: 7856 413c 75b5 f3bc cea8 be3c 3466 7e3c
00000090: c2f0 f63c c828 7bbc b26b fd3c 64c5 6f3c
000000a0: 70da 463c ff3f 103d fca0 953c b0a9 b83c
000000b0: 6ead ccbc 2a7c 803c beb9 f13c 0e43 ab3c
000000c0: d1bb 8bbc 9afc 5dbc 401b b03b c0b3 773c
000000d0: 408f 763c 9f06 8abc 5a36 0ebc d0e0 12bc
000000e0: 29cf 043d 1857 f43b d802 3fbc ea25 d2bc
000000f0: c4cd 9cbc d826 d2bb 5038 253c a0bd 973b
00000100: 4835 4dbc 5e2e e23c b06c c63b a89f f7bc
00000110: f06e 833c 7cca f3bc 2897 ac3c a0b6 613c
00000120: 569b eebc dbba 0fbd b001 fe3b 60e8 52bc
00000130: a012 a63a 3ee9 debc 440a 023c e4c2 27bc
00000140: ba90 02bd 3c2d 0c3c f899 843b 64e6 1c3c
00000150: 8a0a 0fbd 79cc b2bc 9398 033d 70fa 6cbc
00000160: 561f d93c d44d 08bd 9c7c 3bbc ce42 e43c
00000170: 2b7c 013d 4caa 143c 394f 99bc 6427 0cbd
00000180: 0e59 bebc 78f6 293c 6c8a c7bb b8af 7ebc
00000190: 9a45 1fbc 2492 4fbc 185e c83c 026a 29bc
000001a0: 2e64 81bc 2ccb 923c b89a 91bc bf0b 093d
000001b0: 5745 dabc e4ed da3c e05b d5bc 021c f9bc
000001c0: a6a6 953c 4434 d03c 36fa f23c f536 013d
000001d0: b459 1c3c a9e5 0a3d 1c79 97bc 7ebe e93c
000001e0: 0617 cebc 3c48 053c 784d 88bc 742f 9cbc
000001f0: 00be 7d39 ea9c 983c c8fd 4b3c cc9e 0d3c
00000200: 85ae 023d 1e7c a9bc e6f9 f0bc 91de a7bc
00000210: 18b9 f43b 5285 02bd d0df e6bb c6bb ccbc
00000220: 0e25 f93c 6a5b 87bc 34e0 003c 00e5 953c
00000230: ac72 3fbc 91aa 89bc 307c 773b 7887 2c3c
00000240: 0265 adbc f041 00bb f815 0d3c 80c2 f73a
00000250: 0cfa 833c 3504 d9bc d00d fe3b 40a2 ec3a
00000260: f098 583c b461 483c 7a28 d73c a6ab 7fbc
00000270: 17d3 053d 9839 5cbc 4847 cbbc e89b 933b
00000280: a09e 8d3c d614 cc3c 5ec8 f03c ff49 0c3d
00000290: 6464 623c f9ef cfbc a8c5 de3b 275e 8dbc
000002a0: 14ed c83c 9cf8 543c 84b4 f0bc e035 90ba
000002b0: ba7e ccbc 2049 1ebb 2805 bc3c e628 41bc
000002c0: d4bd c13c 59dc 083d 1c73 963c 5564 043d
000002d0: ca08 cc3c 82ba c3bc 2adb 0dbc 94f6 a23c
000002e0: a4e7 f7bc 04a4 d8bb cac9 e6bc 6288 d8bc
000002f0: fc9d bc3c 4c07 a4bb 1de1 013d 83e5 08bd
00000300: b037 6dbb fb99 063d 2f60 073d 54fc bd3c
00000310: 2017 ff3a d4ce b63c 0b34 063d 148f 5e3c
00000320: 688b 163c 9058 82bb d995 c9bc 3cb7 5e3c
00000330: 002b 86bb 0020 6e3a 460b 48bc b042 8fbc
00000340: 174c d2bc 8ed2 9a3c 98af c3bc 5caa 1d3c
00000350: 749b c8bc 9094 3f3b 508d 743b a8af 943b
00000360: 9c0c febb 0cab bcbc 4e72 d9bc 58da acbc
00000370: a6c4 8cbc 8ac4 c33c e474 cbbb c0fc ce3a
00000380: ec05 8bbc 629a 07bd 0c55 453c f039 b13c
00000390: 5267 60bc 80d2 a7bb 7a97 8e3c b0ed ee3b
000003a0: 6bca 063d f231 883c 0038 bc37 1e7d debc
000003b0: 3a30 b3bc 922f b0bc c003 7e3b 1a49 87bc
000003c0: 3016 00bb 3fa0 babc 717b 0dbd 9d57 a9bc
000003d0: 65dc dabc 2afa 5fbc c033 c23a 3070 9d3c
000003e0: 28d9 1dbc e80f 463c 4adc fdbc 9b98 92bc
000003f0: 94b0 bfbb bcd3 7d3c 153a 0a3d 7883 dbbc
