DRL-based-path-finding/saved_models/dqn_checkpoint_ep50.pth (torch, 981331 bytes, 32 tensors)

conv1.weight f4 [16, 2, 4, 4]
00000000: 2b30 58be 3340 b1be 933c d4be 80b4 d3be
00000010: 8722 a2be e749 16bf 7596 f1bd 7121 c0be
00000020: 26d0 27bf bc94 efbe 2df2 04be 7ca5 0fbf
00000030: e4d0 f2be 57e8 90bd 6b65 98be 9c98 43be
00000040: d0ce 243d f164 54be a4a5 363e f19c 0f3e
00000050: b4ac 3c3e 386b b4bd 361d d4bc 44b2 943d
00000060: 4c01 323e 58fa 353c dcd4 70bd 5190 003e
00000070: 9e9b b33d 4ee2 463e 7e45 0b3d dd7d d8bd
00000080: 5450 373f bfc8 3f3e 3988 d6be a21b 073f
00000090: 94b1 6f3f 2572 fe3e a122 7e3f e963 433f
000000a0: e8aa 263f 0aa7 533f c9b1 b83e f918 3d3f
000000b0: 9ea4 223f 567b 083e 1a12 713e bf65 ac3f
000000c0: 5c8f e93d 5949 f03d 394f cd3d 70f6 d23d
000000d0: 5a28 543d d94e 753d 3673 e23d 2080 053e
000000e0: 85c9 b2bd c46c ccbd ac60 a7bd 1bab 103e
000000f0: 2c47 583b 11b2 c33d d8a5 8ebd d960 8bbc
00000100: 1865 d5be 7e31 c3be f773 d0be 4469 a7be
00000110: 97ec fc3e a2ab d5be 6a42 9cbd b594 d7be
00000120: 73ac a53f 29f0 66be 1a82 d7be bb88 633e
00000130: c91b 563d e203 c6bd dcff e7be 2f5e e4be
00000140: 88b4 07bd df37 02be 56fc 1d3e 7119 85bb
00000150: 042a bf3d 8284 6ebd d95f 063e 019e d8bc
00000160: 75ca 223e 4d56 8abd 3844 e8bd 2572 82be
00000170: f863 0abe 432e 1a3e 4db4 3abe 3178 18be
00000180: 2f95 86be cd75 97bd 9feb 81be 2e0e c1be
00000190: bd72 ecbe 6623 f1be 579f fdbe a496 83be
000001a0: ee5d 0bbf 23e3 fbbe 1b69 79be 0f01 2cbf
000001b0: 2b27 a2be 2886 a13c 1f5a f3be a9ac 96be
000001c0: c1ea 3bbc dd0b 593d 7032 203e 1fcf 3c3e
000001d0: c088 2f3e 90be 2dbe d806 593e 0233 a53c
000001e0: c611 36be 616f febd 721a 50be 6588 2bbe
000001f0: 49a2 04bd b162 3a3e 832e 123e 0675 2c3e
00000200: 0821 113f 60fb 993e b754 493f 0ce3 ba3f
00000210: 1171 bbbe 63ca 78be a9f0 d43e 6d47 c7be
00000220: ba7b 403f c202 b9be 3bec 273e bfbd f0be
00000230: 97f3 92be feb0 f2be 1995 fa3e f194 c1bd
00000240: e08d 13bd cd3d 063e eeaf 1b3d d965 d63d
00000250: 5e7a 93bc fa0b 1f3e 5204 cc3b a0ab 543d
00000260: 5789 9f3e b1f9 4b3d b720 30be ffdf b33d
00000270: 1784 533e 0ce5 4a3d 9fa4 783d 58a0 463e
00000280: 4606 b7be c3aa a23e de85 9bbb d214 e9be
00000290: 4c6d 023f c276 1f3f 1236 7cbc 4c96 95be
000002a0: a81b 3cbf c53c b23e 5e8f abbe 71c6 35be
000002b0: 68b6 fa3f d1eb 173f db5d 02be 1382 df3e
000002c0: ebf9 44be 6616 8ebd b204 8fbc e860 843d
000002d0: 83f6 04bd f676 ad3c 8b07 d03d dfb5 07bd
000002e0: 8d56 9e3d 58dc 063c ca83 733d 0abb dd3d
000002f0: 589d f73c 32a5 ecbe cf72 05bd ab92 673c
00000300: 8475 cebd 054c 6a3f 8df1 923e 79c1 13be
00000310: af6b 383f f93a 6d3e 522d 503e df83 0dbe
00000320: 7b8f b13f 8b91 013f 24c2 243e 7043 08be
00000330: c07e b4bc 1a20 9e3f bb23 a13d 1b83 9cbe
00000340: fad5 d2bd 57bc 4f3e 2624 e43b 2b9f b03c
00000350: 82eb 9cbd b28e 4bbe b382 90bc 7637 62bd
00000360: 3cb5 0d3d 3524 50be 7ff4 0c3b 4f40 ae3c
00000370: 2f16 45bd 04a9 13bd cfbd 10be 66bc ca3c
00000380: 6c4d d8be f9d3 1cbd 24dd afbe c074 8abe
00000390: 247d 00bf c681 b4be 6ce5 7dbe 008a 6fbe
000003a0: f6ea d0be cb59 e43e 40e1 18be 3656 5ebe
000003b0: 9f00 e63f e247 2f3f 345a 0bbf a254 613d
000003c0: b90c 33bd 9b29 13be f176 76bd b421 08be
000003d0: 5e7d 553e d9b6 2bbd 49d8 dcbd 795a 4cbe
000003e0: 08bc 593e d550 483e 20eb 2b3d 90b9 08bc
000003f0: c56e 6f3e 6e6a 523e 72c9 febc 9434 3c3e
-0.21112125 -0.34619293 -0.41452464 -0.41348648 -0.31666967 -0.58706516 -0.117962755 -0.37525514
-0.65551984 -0.46793163 -0.12983008 -0.56111884 -0.47424996 -0.07075565 -0.29764876 -0.19101185
0.040236294 -0.20741631 0.17836624 0.14024712 0.18425256 -0.08809513 -0.025892835 0.07260564
0.17383307 0.01110705 -0.05879675 0.12555052 0.08769916 0.19422266 0.03400182 -0.105708815
0.71606946 0.18728922 -0.41900805 0.5277654 0.9363034 0.4969646 0.9927159 0.76324326
0.6510453 0.82676756 0.3607314 0.7386623 0.63532436 0.13328299 0.23542061 1.346855
0.11404297 0.1173274 0.10024876 0.103009105 0.051796295 0.059889648 0.11057131 0.13037157
-0.08729843 -0.09981683 -0.081727356 0.14127772 0.0033001406 0.09555448 -0.06965226 -0.017013954
-0.4167869 -0.38123697 -0.40713474 -0.326975 0.49399254 -0.41732508 -0.07629855 -0.42105642
1.2943252 -0.22552551 -0.42091447 0.22220127 0.05227259 -0.09668709 -0.45312393 -0.44603106
-0.033131152 -0.12716626 0.1542829 -0.0040618707 0.09334186 -0.058231838 0.131225 -0.02644253
0.15897544 -0.06754742 -0.11341137 -0.2547771 -0.13514698 0.1505671 -0.18232842 -0.148896
-0.26285693 -0.073955156 -0.25375077 -0.3770613 -0.46181288 -0.4709732 -0.4953563 -0.25700867
-0.544402 -0.4919673 -0.24356501 -0.67189115 -0.31670508 0.019717291 -0.47529694 -0.29428604
-0.011469544 0.05298983 0.1564424 0.18438385 0.1714201 -0.16967225 0.21194017 0.020165924
-0.17780218 -0.124235876 -0.20322588 -0.16751249 -0.03238133 0.1820171 0.14275555 0.16841516
0.56691027 0.30074596 0.7864489 1.4600539 -0.366097 -0.24295954 0.4158986 -0.3892168
0.7518879 -0.36134917 0.16398709 -0.47019765 -0.2870147 -0.4740066 0.48941877 -0.094522364
-0.036023974 0.13109513 0.038009576 0.10468645 -0.018002685 0.15531912 0.006226101 0.051921487
0.3115947 0.04979867 -0.1719998 0.08782958 0.20655857 0.049534842 0.06070387 0.19397104
-0.35746974 0.31770906 -0.004746183 -0.45523697 0.50948024 0.62290585 -0.015393751 -0.2921623
-0.734797 0.34811988 -0.33507818 -0.1775148 1.9586916 0.593442 -0.12731116 0.43653926
-0.19235961 -0.06937866 -0.017458294 0.06463796 -0.032461654 0.021174889 0.10157689 -0.03313243
0.07731352 0.008231245 0.059451856 0.108266905 0.030226395 -0.46219784 -0.032580193 0.014134089
-0.10081008 0.91522247 0.28699914 -0.14429273 0.7203931 0.23167028 0.20329788 -0.13819836
1.3871912 0.50612706 0.16089684 -0.13306975 -0.022033095 1.2353547 0.07868143 -0.30568776
-0.10294719 0.2028669 0.006962317 0.021560272 -0.07662107 -0.19878653 -0.017640447 -0.055228673
0.034596667 -0.20326312 0.0021508036 0.0212709 -0.04811686 -0.036049858 -0.14134906 0.024748039
-0.42246568 -0.03828809 -0.34348404 -0.27042198 -0.5019095 -0.3525526 -0.24794549 -0.23392487
-0.4080426 0.44599757 -0.14929676 -0.21712574 1.796894 0.6846906 -0.54434514 0.055012353
-0.043713305 -0.1437134 -0.060172025 -0.13294107 0.20848605 -0.041922424 -0.107834406 -0.19956388
0.21263134 0.19562085 0.04197228 -0.008345023 0.23382099 0.20548412 -0.031101916 0.18379432

conv1.bias f4 [16]
00000000: 2475 233e 083b 343e 117b 823e 8b50 8a3e
00000010: 90fd d13d 0324 a73d 111a aa3c 6356 dd3d
00000020: 1bab a23e 31e4 2c3e c6cf 943e 2a36 ad3d
00000030: 5cb6 ed3d a40b 4abd d342 553e 8032 383e
0.15962654 0.17600644 0.25484517 0.27014574 0.10253441 0.081611656 0.020764383 0.108074926
0.31771168 0.16883923 0.2906477 0.084575966 0.11607048 -0.049327508 0.20826273 0.17988014

conv2.weight f4 [32, 16, 4, 4]
00000000: dcad 98bd 094c a73c 949b 36bd 95a5 1abd
00000010: ef90 a73b d4c9 98bd 3b0c 2c3d 544e a9bd
00000020: 2178 8ebc 5462 63bd ae66 a43c 1b1a 28bd
00000030: db9b 72bd e832 343d 663f ac3c 2d71 f9bc
00000040: b14b 97bd 30a0 71bd e890 b0bd 4f08 023b
00000050: af69 80bd 9920 c3bd e7f4 5cbd fc8f 6bbd
00000060: 63e5 36bd 0e91 01bd 2850 ad3c 1a48 98bd
00000070: 2d7b e63c 9473 78bd 0d43 283d 1344 cb3c
00000080: 6fb2 52bd 7ad3 47bc 6c73 b93c 6217 a2bc
00000090: 697b 9cbd d7b3 52bd 778e 323d bdeb 7bbd
000000a0: eec7 e63a daad 46bd bf9f 4cbd 0225 fc3c
000000b0: a5f3 0e3d 0820 623d 791e 593b 3c53 a0bd
000000c0: 4e32 35bc 350a bbbc ef66 34bc 1556 79bd
000000d0: be28 94bd 1d73 b1bd 4f33 88bd 7d6c f0bc
000000e0: 88cf 94bc a211 21bd f725 c33c a225 66bd
000000f0: e572 b03b 5dcd 633c fa42 70bb 239f 5cbc
00000100: 7dda 19bd 08a6 963c 83e1 86bc 8357 da3c
00000110: 9017 d5bb 6bf4 073d ceb8 3b3d bc02 2c3d
00000120: f53d ab3c 3769 c3bc b288 c4bd ba97 8cbd
00000130: 2d81 a0bd 901a cf3c cf56 20bc d1ae 40bd
00000140: 4aae f5bc c734 a2bc 5ecb 1cbd 5549 71bd
00000150: 68b2 41bd cc23 cb3c 6ce4 97bc 045e b3bd
00000160: fc9d 87bd 8323 d0bd 4c59 13bd 67f5 ca3c
00000170: 8091 21ba c060 e63c 91ed ad3c 502f 50bc
00000180: 0dc8 473d 1072 56bd bc56 183b e283 0c3d
00000190: 1a20 7fbd 42d9 40bd c84a 1a3d c51e 403b
000001a0: 9ffe dabb fa33 94bd a240 60bc 41ec 7bbc
000001b0: 08a5 74bb 350c 9fbd 0419 6cbc 1ffa 04bd
000001c0: 4cbb 303c 317e 2b3d 62cb a5bd ff39 a6bd
000001d0: 9936 21bd eefd 47bd 4ecb 2bbd 13b2 103d
000001e0: c55d f0bd ee5e 55bd 4e96 84bc b86f 12bd
000001f0: 3ae6 86bd f87e ed3c fe0d c2bc 7755 5d3c
00000200: 1f14 a4bc d150 aabd 333f c83c 520f bd3c
00000210: cbd2 523c 5ee3 08bd 5976 d9bd bbf1 223b
00000220: aa3b 363b 9030 9e3c fd28 80bc a13c 9ebb
00000230: 579c 3c3d 6abc cdbc 66ac 8abd 848e e8bc
00000240: 3e2d 39bd 6582 31bd 5408 71bd a082 32bd
00000250: bc69 84bd 9df3 76bd d515 6bbb 1a20 493d
00000260: 824d 49bd e699 57bd 1a4b 9cbd 8e94 953b
00000270: 84e6 59bd a37c 89bd 6dd9 82bd 88cc 84bd
00000280: a068 333d c0d2 463d 8273 783c ec21 933b
00000290: 088b a1bd 482d bfbd 865e 9bbd 576b 7ebc
000002a0: 3325 11bd 5b72 19bd 950d d2b9 3cd5 9ebc
000002b0: 562b d3bd aca9 81bd 8889 7abd 5811 cbbb
000002c0: 7a52 f13c 9295 013c 158b 94ba bc48 863d
000002d0: 058b 90bd 64c9 33bd ed55 d5bc ff61 ddbc
000002e0: 0e1b 123b 29a4 cf3c fd73 f83b 5502 58bd
000002f0: 844f c1bc 0b51 35bd b8c5 c1bd 432d 60bd
00000300: 503e 8bbc c0a6 2dbb 9068 6f3a 16f0 28bd
00000310: 562c 7fbd 42b5 8bbd ceda 89bd 8bdb 83bd
00000320: 4af5 e03b 4ffb 49bc 25a7 313d a0af a7bc
00000330: f3cf f9bb b030 75bd 6cae 65bd c221 62bd
00000340: 720c 18bc 1113 6e3d 3b29 053d 9825 053c
00000350: 66be 25bc 6b63 93bd 2d73 e0bd 982f 95bd
00000360: de16 2e3b 3b81 2ebd 27d5 a1bc c293 f3bb
00000370: e86c 78bd 9796 3fbb b0c4 113d ad8b 1abe
00000380: 210b b8bc f5bc fabc e8e3 c7ba 9377 553b
00000390: 4340 02bb dde6 cabc 8681 4ebd 0d2a 8cbd
000003a0: 37fa 0e3d d82b 89bd af02 c73c 32eb 53bd
000003b0: 4960 f5bc 92c8 1a3d 01d9 2bbd 625e 033b
000003c0: a651 42bd 51f3 dbbc 4afc 0bbd 4235 65bb
000003d0: 71ff afbc 7e60 c0bd 7a47 56bc db25 9dbd
000003e0: 5cff 40bd 63e9 aa3c 0703 283d 933a 98bd
000003f0: 697a 4fbd 6f07 ecbd a259 58bd 8b0c 643d
-0.07455036 0.020421999 -0.044581965 -0.037755568 0.005113713 -0.07460371 0.04200385 -0.08266893
-0.017391266 -0.055513695 0.020068493 -0.04104052 -0.059230667 0.04399386 0.021026324 -0.030449474
-0.07387484 -0.058990657 -0.08621389 0.0019841378 -0.062701575 -0.09527702 -0.053944495 -0.05751036
-0.044652354 -0.031632476 0.021156386 -0.07435627 0.028134907 -0.0606571 0.04107957 0.024812734
-0.0514397 -0.012196416 0.022638045 -0.01978654 -0.07640726 -0.05144104 0.043592896 -0.061504114
0.0017607191 -0.04850564 -0.049957033 0.030779365 0.034900326 0.05520633 0.0033129735 -0.07828376
-0.011059357 -0.022832016 -0.011010869 -0.06087311 -0.072343335 -0.08664534 -0.06650411 -0.029348606
-0.018165365 -0.039323457 0.023821814 -0.056188233 0.0053847902 0.013903943 -0.0036661015 -0.0134656755
-0.037561882 0.018389717 -0.016464954 0.026653057 -0.006503053 0.03319208 0.04583054 0.041994795
0.020903567 -0.023853881 -0.09596385 -0.06864877 -0.07837138 0.02528122 -0.009786322 -0.047041718
-0.029990334 -0.019800557 -0.038279884 -0.058907825 -0.047289282 0.024797343 -0.018541537 -0.087581664
-0.0662193 -0.10163023 -0.035973832 0.02477522 -0.0006163344 0.028122306 0.021231445 -0.012706593
0.048774768 -0.052354872 0.0023245057 0.03430546 -0.062286474 -0.047082193 0.037668973 0.0029315215
-0.006683185 -0.07236476 -0.013687285 -0.015376152 -0.0037329812 -0.07766 -0.014410261 -0.032465097
0.010786843 0.041868392 -0.08095433 -0.081165306 -0.03935871 -0.04882615 -0.041941933 0.035326075
-0.11736635 -0.052092485 -0.016184952 -0.035751075 -0.06586881 0.028991207 -0.023688313 0.013509146
-0.020029126 -0.08316196 0.024444198 0.023078594 0.01286764 -0.03341996 -0.10618276 0.002486332
0.0027806559 0.019310266 -0.015644545 -0.004829005 0.046047535 -0.025114257 -0.06771164 -0.02838827
-0.045209162 -0.043337245 -0.058845833 -0.043581605 -0.0646548 -0.06029092 -0.0035871167 0.04910288
-0.049146183 -0.052637003 -0.07631512 0.0045648282 -0.053198352 -0.06713226 -0.06389127 -0.06484324
0.04380095 0.04854083 0.015164258 0.004490128 -0.07887846 -0.093348086 -0.07586388 -0.0155285215
-0.035435867 -0.037462573 -0.0004006444 -0.019388787 -0.10311 -0.063311905 -0.061166316 -0.006197136
0.029458273 0.0079091955 -0.0011332954 0.06556842 -0.07057766 -0.043893233 -0.02604195 -0.027024267
0.0022293958 0.025346832 0.0075821863 -0.0527366 -0.023597486 -0.04426674 -0.0946154 -0.054730665
-0.016997486 -0.0026497096 0.00091327075 -0.04124459 -0.06229814 -0.068216816 -0.06731187 -0.06438359
0.0068651782 -0.012327983 0.043372292 -0.020469487 -0.0076236664 -0.059860885 -0.056074545 -0.055207975
-0.009280311 0.058123652 0.032510024 0.008126639 -0.010116195 -0.07196697 -0.10959468 -0.072844684
0.0026563923 -0.042603713 -0.01975496 -0.0074333856 -0.060650736 -0.0029234046 0.035587966 -0.15092345
-0.022466244 -0.03060768 -0.0015250416 0.0032572492 -0.0019874729 -0.024768287 -0.050416492 -0.06843958
0.034906592 -0.06697816 0.024293272 -0.05173797 -0.029953139 0.037788935 -0.041954998 0.002004527
-0.047441147 -0.02684942 -0.03417615 -0.003497437 -0.021484109 -0.093934044 -0.013078565 -0.07673236
-0.04711853 0.02086324 0.041018512 -0.07433047 -0.05065385 -0.11524855 -0.052819856 0.055676024

conv2.bias f4 [32]
00000000: 8b9e 4fbd a4d6 90bd 8e69 b23c 4f69 ef3d
00000010: 3ef2 433d 507f 143e 3d10 843d 23c8 1cbd
00000020: 5933 c73d 1b82 4a3c 9d5d e4bc 8bd9 023e
00000030: f749 d43d 8a2e 9ebd 1b63 213e 5fb5 b13d
00000040: a7e7 3a3d 3500 1a3e db88 fe3d 5774 56bd
00000050: fd87 1fbc 338a 643d 216a 283e 7797 f63d
00000060: e9a4 8a3b 5859 e3bc 3bd6 fa3c a491 903d
00000070: ff7e 423c e274 9ebd fa59 443d 9bf2 c6bd
-0.050688308 -0.070721895 0.021778848 0.11690008 0.047838442 0.14501691 0.0644841 -0.038276803
0.09726591 0.012360121 -0.02787667 0.12778299 0.1036567 -0.0772372 0.15760462 0.08677172
0.045631077 0.15039141 0.12428447 -0.052357044 -0.009737012 0.05579586 0.16446735 0.120406084
0.0042310846 -0.027752563 0.030619731 0.07059029 0.011871099 -0.077371374 0.04793737 -0.09714242

fc1.weight f4 [64, 800]
00000000: 0457 59bd 8782 69bc aefb 76bd 0d77 17bc
00000010: ea94 1dbd 32ea 85bd 187b 15bd eee7 4fbd
00000020: d13f 72bd 2f30 aabc 0e6d 86bd ce12 4bbd
00000030: c6d7 26bd 3983 a5bc 876f 2abd d974 70bd
00000040: d6c1 0bbd 895f 87bc 6e5f 9bbc b84e a7bc
00000050: 19bf 8ebd 9c00 d5bb 6f00 20bd c00b d2bb
00000060: 6a8e 93bc 3122 5fbc 165c 853c c9b1 663a
00000070: 54a9 c7bc 0e9f 5bbc e34d 293c aa0d 88bc
00000080: a13f 1dbd 105c f8bc 28c6 793c 9e7e 2ebd
00000090: bdf0 a6bc 3dfc 063d 5cef 843c 6485 e4bb
000000a0: cbc4 82bc 197a 963c 7d78 e1bb ecaf 6fbc
000000b0: 5c14 70bd f164 31bd 5cff 00bd 98cc d73b
000000c0: dbcc a5bd 746e b1bc 694f dabc bd09 17bd
000000d0: 66d5 59bd fd1b 15bd 9933 c63b 97ba 0fbd
000000e0: 8dee e0bc 37ca cebc 1a07 0ebd 16ce 46bd
000000f0: 48a7 8c3c c8e7 623b 3dc4 0abd a7d0 91bc
00000100: 3075 39bd 5c8f b9bc 8456 cbbc fb50 edbc
00000110: 6e24 14bc 3a8a 2ebd 7781 06bb c39a 3cbc
00000120: 0d2d 1bbd e4f0 693a 5415 893c 9a7a a53e
00000130: a01b 0b3d da7a 93bd 501d 4abd a65f a93d
00000140: 5df4 b43e c46c ccbd faaf 713e 5a91 55bd
00000150: 7c2b d5bd 7292 ea3c 5218 8cbd 0f4a adbd
00000160: d6c8 aabd a29c 883d 6c18 fc3e d100 e9bd
00000170: f2fe 573d 1fbb 663c 48b6 253e db7c 9eb9
00000180: f989 ac3d dba9 ac3d f477 9d3e 0a2a 9a3d
00000190: 04c0 4c3e d145 043e 091d 60bd 3c9c 5a3c
000001a0: 8f21 9a3d ca44 a23e 80d0 923e a9b7 943c
000001b0: 4f46 6cbd b67b 6e3d 5703 b9bb 44ce e63d
000001c0: ea46 18bd a4f4 40be 79da 3b3d 0ef2 213e
000001d0: a536 80bd 2f83 12bd bfd1 ffbe d7a3 f4be
000001e0: b2ed 67bd 1951 b2bb 9a61 bf3e 36c8 813e
000001f0: de51 22bf 2717 29bc 4bf7 b13c d08a 52bc
00000200: 297e acbc ecab 643d 5aea 763d 8b01 2b3d
00000210: c1bf 69bc 6c05 b13b 7303 8c3b abef 253d
00000220: 84de e3bd efdb 513e 9bf8 b0bd 6952 45be
00000230: c84f 743d 5dcd e63c af9d 023e a9c4 583e
00000240: 5ddc 533d 1e2f f3bd c2d4 313e 1b6f 053f
00000250: 30ce ec3e 5129 ce3d 0db3 cabd 22de 503e
00000260: ef9f 4f3e 0170 803e 6c48 4d3e 34ca d8bd
00000270: bcde bf3d 50ee c5bc e914 68bc 4e4c 85be
00000280: a7d5 853c e0b9 ae39 718e 4b3e 68ee 46bc
00000290: 5277 9d3d 5f6b 8abe 6629 66bc efa8 833d
000002a0: 66b1 5e3d fe23 273e bdf0 86bb 0150 273e
000002b0: 69d9 ef3c c425 963e 088a 8b3e c4a8 d0bc
000002c0: 74fa dabc 92ee a43d 5d4a d2bb ec95 a73c
000002d0: 119a f63c 7e76 67bd 82cc a93b b313 12bd
000002e0: 5271 973c 22f3 f13c d535 0bbb 1725 46bb
000002f0: 0216 2ebd 95a9 a8bc 95ca 36bd f8f0 533c
00000300: 33f9 e23c 628a 50bc 1374 fdbc 23c6 9c3c
00000310: 8d75 b0bd b21a 7f3c cdf5 57bc 32eb 49bc
00000320: 279d 63be 1cdb 50bd e32f 723d 052c 113d
00000330: 9ab7 2b3e da02 863d d4e1 89bd 809d a93d
00000340: 9448 75bb 9441 9c3c 86b5 793c 0748 2bbe
00000350: fb68 413d ee5c 5f3d 82ef 403e 54ba 0cbc
00000360: 318b 17bc 3d40 f6bd 85e5 8f3c b5e5 393e
00000370: f361 b33b 01a7 723d 5df7 b2bd 5490 1dbd
00000380: 7821 7b3e 387b c6bd ee47 8d3e 6374 febd
00000390: e5a4 babd 61e7 ce3e 6a9a a0be c614 793e
000003a0: 0e4a 0fbd f821 8dbe 2ea0 b13d c424 90be
000003b0: 9e8e 52be 547d 5b3c 06a1 0abe eaf7 7d3e
000003c0: 1c09 483e 248f 283d c071 2e3e 704f b63e
000003d0: 8147 683e 0fc9 323d 56ad ee3e 9e26 b93d
000003e0: 6d9a 023c dabf 873e f449 523c b091 2d3b
000003f0: 624d ec3c 86e0 c3bc 9120 0fbd 985b 57bd
-0.0530615 -0.014252312 -0.060298614 -0.0092446925 -0.038472094 -0.0653881 -0.036494344 -0.050758295
-0.05914289 -0.020774929 -0.06563769 -0.04957848 -0.04073312 -0.020204173 -0.041610267 -0.058705185
-0.034120403 -0.016525047 -0.018966403 -0.020423278 -0.06970043 -0.006500317 -0.039062914 -0.006410092
-0.018012244 -0.013618992 0.016279262 0.0008800296 -0.024372734 -0.013404621 0.010333511 -0.016608078
-0.03839076 -0.030317336 0.015244998 -0.04260122 -0.020378465 0.032955397 0.016227417 -0.006973909
-0.015962979 0.018368768 -0.0068808184 -0.014629345 -0.058613166 -0.043309156 -0.03149353 0.006585669
-0.08095714 -0.021659113 -0.026649194 -0.03687452 -0.05318203 -0.036403645 0.0060486314 -0.035090055
-0.0274575 -0.025242908 -0.03467474 -0.048536383 0.01716961 0.0034623016 -0.033878554 -0.017799689
-0.045277774 -0.022651367 -0.024821527 -0.028969279 -0.009041889 -0.042612292 -0.0020523944 -0.011511507
-0.03788476 0.000892414 0.016733803 0.323201 0.033961892 -0.072011665 -0.04934436 0.082701966
0.35342684 -0.09981683 0.23602286 -0.05214057 -0.104086846 0.028634284 -0.06840576 -0.08461391
-0.08339088 0.066705 0.49237382 -0.11377109 0.05273337 0.014082699 0.16182816 -0.00030229133
0.08424754 0.08430835 0.3075558 0.075275496 0.19995123 0.12917258 -0.05471519 0.013342913
0.07525932 0.31693107 0.28674698 0.018153982 -0.05768424 0.05822345 -0.00564615 0.11269811
-0.037177004 -0.18843323 0.04586265 0.15814993 -0.062604226 -0.035769638 -0.4996471 -0.4778125
-0.05662317 -0.0054417965 0.37379152 0.2534806 -0.6340617 -0.010320461 0.021724364 -0.012850478
-0.021056252 0.05582802 0.06028209 0.04174952 -0.014266909 0.0054022577 0.004272872 0.04051177
-0.11126426 0.20494054 -0.08641168 -0.19269718 0.059646398 0.028174097 0.12755464 0.2116877
0.051723827 -0.11874221 0.17366317 0.5212266 0.4625106 0.10066474 -0.098974325 0.20397237
0.20275854 0.25085452 0.20047158 -0.10585442 0.09368655 -0.024161488 -0.014165142 -0.26034778
0.016337229 0.00033326354 0.19878556 -0.012141801 0.07688774 -0.27035043 -0.014047956 0.06428706
0.0543684 0.16322324 -0.0041180537 0.16339113 0.029278474 0.29325688 0.27253747 -0.025471099
-0.026730753 0.08053316 -0.006417556 0.02045723 0.030102761 -0.056509487 0.00518185 -0.035663318
0.018486653 0.02953488 -0.0021241803 -0.003023451 -0.042501457 -0.020588676 -0.04462679 0.012935869
0.027706718 -0.0127283055 -0.030939138 0.019137448 -0.08616171 0.0155703295 -0.013181162 -0.012324141
-0.22227918 -0.05099021 0.0591277 0.03544237 0.16769257 0.06543513 -0.067325264 0.08281994
-0.0037427293 0.019074239 0.0152410325 -0.16726695 0.047219258 0.054531984 0.18841365 -0.008589346
-0.009249494 -0.12023971 0.017565498 0.18154033 0.005474323 0.0592413 -0.08738587 -0.03846772
0.24524486 -0.09691471 0.2759394 -0.12424543 -0.091134824 0.40410903 -0.3136781 0.2432433
-0.034982733 -0.2756498 0.0867313 -0.2815305 -0.20562217 0.01339658 -0.13537988 0.24801603
0.19534725 0.041152135 0.1703558 0.3560748 0.22683527 0.043648776 0.4661662 0.09040569
0.007971388 0.2651356 0.012835015 0.0026484542 0.028845493 -0.023910772 -0.034943167 -0.052577585

fc1.bias f4 [64]
00000000: 156d 553d ebf6 0abd beff 06b8 1461 dbbb
00000010: 8edc ca3c 290d bf3d 2678 aabc b208 513b
00000020: 8079 24bd 1634 6a3c a79a 71bd bc78 03bd
00000030: 4bbe 173c 6b81 75bd 0fac 3bbd 0031 38bc
00000040: e0c2 55bd b79d 213e ec80 223b 047f 1cbd
00000050: c02c 663c 0a08 e9bb fe6e 5ebd aba6 79bd
00000060: e0e4 583d 9ee4 50bc d38d df3d 991b ecbb
00000070: 6249 aabc 80c2 203e 09f8 08bb 2337 1c3e
00000080: 5d18 1a3d 43a4 173e 5792 1fbd 6319 9cbc
00000090: cd26 6ebd e5ac 45bd 48ea b4bc 113c 9d3c
000000a0: c621 1cbc afe1 d33c 80bf 2b3e 24c8 863c
000000b0: 59a3 e13d 66a4 a33b 6dc6 fabc 170d cc3c
000000c0: e313 a43c 0b19 0ebd 61b3 223e cb40 c13c
000000d0: 9eb2 70bd 84ae 00bc d891 203c 0bd3 59bd
000000e0: a23e 143e df31 33bd 9eb2 6f3a 659c bbbb
000000f0: d694 123d 189f 68bd cfe4 d13d 51b0 093e
0.05210598 -0.033926886 -3.2186268e-05 -0.006694922 0.024763372 0.09328682 -0.020809244 0.0031896052
-0.040154934 0.014294645 -0.05898538 -0.032097563 0.009261678 -0.059937876 -0.045818385 -0.011242151
-0.0521878 0.1578282 0.0024796082 -0.03820707 0.014048755 -0.007111554 -0.05430507 -0.060949963
0.052952647 -0.012749819 0.10915723 -0.0072054383 -0.020786945 0.15699196 -0.0020899794 0.15255408
0.03762089 0.14808755 -0.03895792 -0.019055074 -0.058142472 -0.04826059 -0.02208437 0.019193681
-0.009529537 0.02586445 0.1677227 0.016452856 0.11017484 0.004993963 -0.030612195 0.024908585
0.020029014 -0.03469185 0.1588874 0.023590466 -0.058764093 -0.007854108 0.009800397 -0.053179782
0.14477018 -0.043748733 0.00091437425 -0.005725431 0.035786472 -0.05679235 0.1024872 0.13446166

fc4.weight f4 [8, 64]
00000000: bfa5 733e b590 223d 942b 803d 3590 85bd
00000010: 86cf e83d c42f ee3d 9eee ecbd e0c4 513c
00000020: 500b bd3b 33f1 8cbc fa51 1c3a de2d 9c3d
00000030: eb10 013a 64c9 713d c820 993c 26ca 12bd
00000040: 3232 cc3c 18ef adbe 7085 15bc 792f 00be
00000050: d110 823d 4743 e93d cba3 4dbd 6659 cbbd
00000060: 294e 1bbe 872b 4b3d 5105 04be 59ad 563e
00000070: 3546 bd3d 3f55 c3be 31e8 543d 9974 b1bd
00000080: b381 4ebe 7287 6b3c f529 413d af13 bdbc
00000090: 3ec5 a2bd a440 183d cc96 cab7 1c72 663d
000000a0: c2cb a03d aa66 e63d ffda 2fbe 6dea 2abc
000000b0: 9bcb 2bbe 8977 dc3d 83c4 22bd 2318 87bb
000000c0: 1f25 28bd d0c5 013c 16bb b9be 61d7 c53d
000000d0: 30e1 9bbd 1cc6 d43d e0f7 cebd 7464 bebd
000000e0: 190f 91bd a0c2 8a3d 5aaa 6cbd 35d0 033e
000000f0: ea06 dabd 79d3 043d b1fc 743e 52fc ad3e
00000100: d6e8 143e 7545 b33d c0b4 05be 9727 00bc
00000110: d8ec e23d 84bd 9dbe b5b5 87bc c0cf 25bd
00000120: 2007 b83c 6036 873d 8e17 b83d 723e 00be
00000130: bba2 c83d 965d 843d 0896 cb3d dda6 303c
00000140: ec17 bcbd f5e6 4abe d083 e33c d3d0 523d
00000150: 0f03 d03d e612 903d 1a21 a6bc b872 f2bc
00000160: 2151 ac3d f2e4 d83b 4395 c03e d5a4 963e
00000170: c65f ee3d 2aaf 3a3e f5b5 d53c 3bc0 a3be
00000180: fc6c 3a3e a45e d6be 4c5a 0a3d b69b c03c
00000190: 1e31 ccbd ef14 0b3e d9ac c53d 61fe babd
000001a0: 6699 d43d 731f 3c3d f225 afbe 658f 333d
000001b0: 1682 66bd 50c3 fdbd 961c 403d 9b28 96bd
000001c0: 5c5a 11be 3e8e 89bd 08cf 9cbe f86a d23c
000001d0: 96ae 8cbb b32c 3ebb 7ae4 85bd b846 3c3d
000001e0: ddab 1dbe 08ec 24bd 02f2 a2bd c751 8e3e
000001f0: 604c ae3d 335b c7bd 2234 cfbd a903 97bd
00000200: f3cb 18bd 7854 9b3b bcb7 f8bc c050 7bbd
00000210: f8f2 51bd cf2e 073e 0a6c c7bd 3947 d23c
00000220: e25f 9fbd 3400 2cbc fb01 b9bd 03a3 ca3d
00000230: a199 d5bc 4ad4 e6bd 6004 263d 586a a73d
00000240: 0eaa 73bd 650b 643d 64bd 8d3d 4daf b63d
00000250: 8c71 cf3d 933d c33c 13b4 903d 9b72 de3c
00000260: 9cbc 053d 1570 9d3d 0a76 10bf c92c 4f3e
00000270: d4ed b83d 27a1 a7be 7768 80bd 3ed2 01bd
00000280: 28ce 753e 24db 9cbe 8032 d4ba 08d1 bebc
00000290: e04e 683c 9690 043c b039 9dbd 838f b73d
000002a0: b173 943c cfda f3bd 0e6a b2be 7b22 d4bc
000002b0: f58c 0ebd e6c8 3c3c 5bdb 243d 50ad babc
000002c0: 603e 763d e016 71bc e0df 8fbd 1d5a d63d
000002d0: 6b5d 4fbd ed64 8fbc ebaa 33bc 8892 0cbd
000002e0: 59c1 87bd d404 76bd 7fd4 05be 1dec 453e
000002f0: 9c6a 15be 99e1 093e 9333 d63d 293f c53c
00000300: fc6c 103d 1b95 af3d 7d6a c33d cd35 82bd
00000310: c763 bdbc b6c0 7f3e 0ba7 093c 5053 2b3b
00000320: 408d d6bb b5f7 183d 5e25 59bb 8bd4 dc3d
00000330: fd26 eebc 1659 e0bd 4891 b93c 415d c239
00000340: 0e6b d0bc 502c 40be a8d6 b0bd 64a2 873d
00000350: 90ef 303c dabf bf3c b8bf 9bbd 4626 82bd
00000360: 0199 803e bec7 ad3d 9f36 fd3d c55f 463e
00000370: 502c e1bd 0595 84be 3f9a a2bb 0f00 0e3e
00000380: 9baa 86bd 0b08 d3bd 7e63 cebd 2f28 69bc
00000390: 3294 87bd b376 113d efa2 99bd 77e0 543d
000003a0: d492 cc3d c0ec 973d 2aa3 39bd 7e8d 1b3d
000003b0: d5d2 ed3d 1d58 8f3c b15c 9f3d f475 eb3c
000003c0: 13a9 f6bd 90c8 7dbc b2b1 c23b 5bc1 4bbd
000003d0: 86ae acbd c34d 3d3c e6f6 973d 9eb3 923d
000003e0: ce45 febe 05e5 31bd bcd3 853d 3e95 a53e
000003f0: 5297 c23d a2ce d03c 35f7 1b3c a08c 17bf
0.23793696 0.039688785 0.06258312 -0.06521646 0.11367707 0.11630204 -0.1156895 0.012803286
0.005769171 -0.017204857 0.0005963143 0.07625936 0.00049234804 0.05902995 0.01869239 -0.035837315
0.024926279 -0.33971477 -0.009126052 -0.1251811 0.06350864 0.11389785 -0.050205033 -0.09929161
-0.15166534 0.049602058 -0.12892653 0.20964564 0.092419066 -0.38150975 0.051979247 -0.08664817
-0.20166664 0.014375554 0.047159154 -0.023080675 -0.07947777 0.03717102 -2.4150497e-05 0.056261167
0.07851364 0.1125005 -0.17173384 -0.010431868 -0.16776888 0.10764987 -0.03973819 -0.0041227504
-0.041051026 0.007920697 -0.36275548 0.09660221 -0.076113105 0.10389349 -0.10105872 -0.09296504
-0.07082958 0.06775403 -0.057779647 0.12872393 -0.1064585 0.03242824 0.23924519 0.33981568
0.14541945 0.08753482 -0.13057232 -0.007821939 0.110803306 -0.3080865 -0.016566137 -0.04048133
0.022464335 0.06602168 0.08988868 -0.12523821 0.097966634 0.064631626 0.099407256 0.010781971
-0.0918425 -0.19814666 0.027772814 0.05146868 0.101568334 0.070348546 -0.020279456 -0.029595718
0.084139116 0.0066190893 0.37613878 0.29422632 0.11639361 0.18230882 0.02608774 -0.31982598
0.18205637 -0.4186908 0.03377752 0.023511749 -0.09970306 0.13582204 0.09652109 -0.0913055
0.10380821 0.04592843 -0.34208637 0.043837924 -0.056276403 -0.123907685 0.04690226 -0.07331964
-0.14194626 -0.06716584 -0.30626702 0.025685772 -0.004293273 -0.0029018342 -0.06537719 0.04596588
-0.15397592 -0.04026416 -0.079563156 0.27796766 0.08510661 -0.09734192 -0.101173654 -0.07373745
-0.037303876 0.004740294 -0.030361049 -0.061356306 -0.051257104 0.1320145 -0.09737404 0.025668727
-0.0778196 -0.010498095 -0.09033581 0.09894373 -0.026074233 -0.1127096 0.040531516 0.0817458
-0.05948835 0.05567493 0.06920889 0.08920155 0.10129079 0.023833072 0.070655964 0.027154258
0.032650575 0.076873936 -0.56430113 0.20231928 0.09029737 -0.32740137 -0.06269925 -0.031694643
0.24004424 -0.3063594 -0.0016189367 -0.023293033 0.0141789615 0.008091113 -0.07677019 0.089629196
0.018121572 -0.11906969 -0.34846538 -0.025895348 -0.034802396 0.011522507 0.040248256 -0.02278772
0.06011808 -0.0147149265 -0.07025123 0.104664065 -0.0506262 -0.01750418 -0.010966043 -0.03431943
-0.06628675 -0.0600632 -0.13069342 0.19328351 -0.1459145 0.13464965 0.10459056 0.024077969
0.035260186 0.085733615 0.095417954 -0.06357918 -0.023118867 0.24975857 0.008401643 0.0026142187
-0.0065476 0.037345607 -0.0033133845 0.10782727 -0.029071325 -0.10954492 0.022652283 0.00037072043
-0.025441673 -0.18766904 -0.086346924 0.066227704 0.010799304 0.023406912 -0.07604927 -0.06354956
0.25116733 0.084853634 0.12363934 0.1937247 -0.1099478 -0.25894943 -0.004962235 0.1386721
-0.06575509 -0.103042684 -0.100775704 -0.014230772 -0.06620063 0.03551359 -0.0750178 0.05197188
0.09988943 0.07418203 -0.04532162 0.037976734 0.11612479 0.01749807 0.07781351 0.028742768
-0.12043967 -0.015489712 0.005941593 -0.049744945 -0.08431725 0.011554184 0.07420139 0.071631655
-0.49662632 -0.0434313 0.06534526 0.32340425 0.09501518 0.025489155 0.009519388 -0.5919895

fc4.bias f4 [8]
00000000: e208 6e3c 408d 1cbd b660 0b39 01a4 2ebe
00000010: aa64 4dbe 659e c13c 4b7f 0b3e dba2 55bd
0.014528485 -0.038220644 0.000132921 -0.1705475 -0.20057932 0.023635099 0.13622777 -0.052157264

conv1.weight f4 [16, 2, 4, 4]
00000000: 8306 32be 8a76 87be ec84 b3be 0587 d9be
00000010: f2ff 9dbe e749 16bf 309d ecbd 666f cebe
00000020: 26d0 27bf d8bf f3be 56d7 1abe 25a0 11bf
00000030: e4d0 f2be 8c0e abbd c159 a2be 3230 4ebe
00000040: 9414 1c3d 2d5c 4ebe 9b35 393e 5774 133e
00000050: eb8b 3f3e a081 b0bd 184e c6bc 7273 9a3d
00000060: e7fb 333e 0c2d 753c 48d0 7dbd 08b8 043e
00000070: 8d57 b33d 24fa 463e b94f f33c 6730 d9bd
00000080: f3bb 203f 9275 943d c01f cbbe 2498 fa3e
00000090: aeaf 683f 6490 fd3e 3ffc 7f3f e0ac 483f
000000a0: 8434 1f3f 5d44 5a3f 6c75 cc3e 129e 463f
000000b0: 7610 1c3f 25c2 0b3e 8a71 793e 2e97 ae3f
000000c0: 24fc f43d 17bd eb3d 0eaf c83d 5c61 ca3d
000000d0: 7489 5a3d a86f 733d f542 e13d 8ec3 013e
000000e0: 9de0 babd b6d9 cdbd 561c a8bd f42d 0f3e
000000f0: f8eb a53a a49a c63d 121c 8bbd 52fc 6cbc
00000100: c59c dbbe f4ec a6be fc8d c0be c147 acbe
00000110: c136 f03e 8789 cbbe 773b 12bd 8264 d4be
00000120: 32d0 aa3f 44a7 69be 9c30 d4be f5ff 5c3e
00000130: 424e a43c 9060 38be 136d ecbe 65f1 f1be
00000140: 75fd 54bd 1981 11be 93b8 163e 8481 06bd
00000150: 285c bb3d 3905 84bd dd8c 013e 36b5 eabc
00000160: e1b5 253e 89f0 80bd b68d eebd f211 80be
00000170: ece1 0cbe db56 163e 26d8 43be 6c60 25be
00000180: 3de9 3ebe 44a9 53bc dc67 48be ede3 a1be
00000190: 1fad e5be 469a ddbe f882 edbe cacd 73be
000001a0: 4b52 00bf 485c efbe b0c2 85be 5b77 2cbf
000001b0: 304e a6be e696 393c 51b3 01bf 3203 a4be
000001c0: aae6 2abc f082 693d be6e 1e3e a8ed 3a3e
000001d0: a153 2e3e dd6a 2bbe de75 583e 5514 ab3c
000001e0: 9ece 33be 0232 fcbd f73c 4fbe c035 23be
000001f0: 0ca3 0cbd aa91 383e 7e60 0e3e b41e 273e
00000200: 18d4 1a3f 1bf6 a03e 1b58 3d3f 7b7f b63f
00000210: 7d08 abbe c5f8 52be 826e e23e 2a65 e7be
00000220: 3cd3 4f3f 810f bcbe 0aef fa3d 7053 e4be
00000230: 0ce4 bbbe af53 e7be 1569 f03e 3be7 e2bd
00000240: 61f5 9bbc 27be 053e 1fef 0c3d 9f61 bb3d
00000250: 39d2 cb3b 90a5 303e 702b 2e3c c648 3d3d
00000260: a336 993e d094 623d a8c0 24be 6b05 a43d
00000270: d9e8 513e 8d61 a33c 63c6 663d 9146 3b3e
00000280: 90ef a5be 7080 c23e 2da8 983d c907 ddbe
00000290: 84ca ec3e ab05 2b3f d9b1 6a3c f04a 8ebe
000002a0: c817 56bf 09a8 b73e 3ac1 8fbe 13ed 68be
000002b0: 13f6 fb3f 940c 253f 63e0 75be f55e e03e
000002c0: 027b 1fbe df47 81bd 7557 9ebc 3605 7e3d
000002d0: d7a2 b3bc e694 503c dc76 d13d 04b2 e1bc
000002e0: ebe0 a33d f79d 243d 2ffe 603d 2419 a83d
000002f0: 3455 b93c dbde bdbe f78d 16bd 835c 123c
00000300: 8475 cebd f1e9 4f3f 3c1d a83e c99c 99bd
00000310: 8ef6 1d3f e362 513e 05ab 763e ae4e edbd
00000320: 7ef1 af3f ed2a 0b3f 4554 5e3e f983 3abe
00000330: e6e4 bbbd 300a a03f 3215 ae3d 1b83 9cbe
00000340: 500e 93bd c95c 4e3e 3a95 d23a 4a8a b03c
00000350: 3804 92bd 4717 22be 3331 c23a 0707 afbd
00000360: 2685 ef3c 24b0 43be bb75 613a d5ac 2a3c
00000370: b116 29bd 64c5 73bd bef7 fbbd ed1b 8cbc
00000380: 9b51 e2be 3ab9 683d d312 85be 8550 27be
00000390: c476 e2be 3d8a a5be c908 9fbe 1984 96be
000003a0: f75e edbe 55bf d83e a44e 40be 811a 67be
000003b0: ebaf e73f e85c 393f 03df fdbe b289 823d
000003c0: 6fb9 2abc f0f6 1bbe 28ec 73bd 4362 1dbe
000003d0: d6a7 523e 0162 6bbd 12ab d1bd 9440 36be
000003e0: 17a2 5c3e 222c 423e 7cb6 2b3d 42d0 e0bb
000003f0: 2d3e 693e a1ab 583e aa86 58bd 03be 293e
-0.17385297 -0.26457626 -0.3506235 -0.42485824 -0.30859333 -0.58706516 -0.11553419 -0.40319365
-0.65551984 -0.47607303 -0.15121207 -0.56884986 -0.47424996 -0.08352384 -0.31709102 -0.20135573
0.038105562 -0.2015235 0.18086855 0.14399849 0.18705718 -0.08618474 -0.02420716 0.07541551
0.17576562 0.014964353 -0.06196621 0.12960827 0.08756933 0.19431359 0.0297011 -0.10604935
0.6278679 0.07248987 -0.3967266 0.489442 0.90893066 0.49524224 0.9999427 0.78388786
0.6218951 0.85260564 0.39933336 0.77584946 0.6096262 0.13648279 0.24359718 1.3639886
0.119621545 0.115106754 0.09799014 0.09881851 0.05335374 0.059432656 0.10999099 0.12672254
-0.09124873 -0.10051291 -0.0820853 0.13982373 0.0012658825 0.09697464 -0.06792463 -0.014464455
-0.42893043 -0.32602656 -0.37608325 -0.33648494 0.46916774 -0.39753363 -0.03570124 -0.4148293
1.3344786 -0.22817713 -0.41443336 0.21582015 0.020056847 -0.18005586 -0.46176967 -0.47254482
-0.051999528 -0.14209403 0.14718847 -0.03283836 0.09148437 -0.06446309 0.12651391 -0.028650861
0.16182663 -0.062958784 -0.11648123 -0.2501369 -0.13758057 0.1468157 -0.19125423 -0.16150063
-0.18643661 -0.012918774 -0.19570869 -0.31619206 -0.44858643 -0.43281764 -0.46388984 -0.23808971
-0.5012557 -0.46750093 -0.26125097 -0.6736962 -0.32481527 0.011327481 -0.5066424 -0.32033688
-0.010430971 0.057009637 0.15471932 0.18254721 0.1702409 -0.16739984 0.21138713 0.020883719
-0.17559287 -0.12314226 -0.202381 -0.15938473 -0.03433518 0.18024316 0.13903996 0.16320306
0.6047988 0.31437764 0.73962563 1.4257654 -0.33404914 -0.2060271 0.44224936 -0.4519437
0.81181693 -0.3673058 0.12252624 -0.44594908 -0.36697423 -0.45181033 0.4695517 -0.1107926
-0.019037904 0.13060819 0.03440773 0.09149479 0.006220129 0.17250657 0.0106304735 0.04621198
0.29924497 0.0553177 -0.16089118 0.08008846 0.2049898 0.019943977 0.05634154 0.18288638
-0.32409334 0.37988615 0.07453952 -0.43170002 0.46248257 0.66805524 0.014324629 -0.27791548
-0.8363004 0.35870388 -0.28077108 -0.22746687 1.9684471 0.6447232 -0.24011378 0.43822446
-0.15574268 -0.063125364 -0.019328812 0.06201669 -0.021928234 0.012730813 0.10227749 -0.027550705
0.08001884 0.04018971 0.05492991 0.0820792 0.022623636 -0.37084088 -0.036756482 0.008933189
-0.10081008 0.8121634 0.32834804 -0.075006075 0.6170434 0.20447879 0.24088676 -0.115872726
1.3745573 0.54362375 0.21711834 -0.18214406 -0.09174518 1.2503109 0.085001364 -0.30568776
-0.07180464 0.20152582 0.0016066201 0.021550316 -0.07129711 -0.15829192 0.0014815688 -0.08546262
0.029238295 -0.19110161 0.0008600612 0.010417183 -0.041281406 -0.05951442 -0.123031124 -0.01710316
-0.44202885 0.05681727 -0.25990924 -0.1633931 -0.44231236 -0.3233203 -0.3106139 -0.29397658
-0.46361515 0.42333475 -0.18779999 -0.22568704 1.8100561 0.7240739 -0.49584207 0.063739195
-0.010420187 -0.15230918 -0.059551388 -0.15369515 0.20571837 -0.05746651 -0.10237707 -0.17798072
0.21546207 0.18962148 0.041922078 -0.0068607638 0.22777624 0.21159221 -0.0528628 0.1657639

conv1.bias f4 [16]
00000000: fdae 273e 90af 313e 7d11 803e 4b03 893e
00000010: 224e e93d b3d2 aa3d b1bb 9e3c eeb7 e23d
00000020: fc85 a13e 2eb5 283e dbec 923e b2b6 b63d
00000030: 5a7f f43d 2a38 52bd f413 573e b1be 363e
0.16375346 0.17352128 0.25013342 0.26760325 0.11391856 0.08340969 0.019376608 0.11070238
0.31547534 0.16475365 0.2869633 0.08921565 0.11938353 -0.051323093 0.21003705 0.1784618

conv2.weight f4 [32, 16, 4, 4]
00000000: dcad 98bd 094c a73c 949b 36bd 95a5 1abd
00000010: ef90 a73b d4c9 98bd 3b0c 2c3d 544e a9bd
00000020: 2178 8ebc 5462 63bd ae66 a43c 1b1a 28bd
00000030: db9b 72bd e832 343d 663f ac3c 2d71 f9bc
00000040: b14b 97bd 30a0 71bd e890 b0bd 4f08 023b
00000050: af69 80bd 9920 c3bd e7f4 5cbd fc8f 6bbd
00000060: 63e5 36bd 0e91 01bd 2850 ad3c 1a48 98bd
00000070: 2d7b e63c 9473 78bd 0d43 283d 1344 cb3c
00000080: 6fb2 52bd 7ad3 47bc 6c73 b93c 6217 a2bc
00000090: 697b 9cbd d7b3 52bd 778e 323d bdeb 7bbd
000000a0: eec7 e63a daad 46bd bf9f 4cbd 0225 fc3c
000000b0: a5f3 0e3d 0820 623d 791e 593b 3c53 a0bd
000000c0: 4e32 35bc 350a bbbc ef66 34bc 1556 79bd
000000d0: be28 94bd 1d73 b1bd 4f33 88bd 7d6c f0bc
000000e0: 88cf 94bc a211 21bd f725 c33c a225 66bd
000000f0: e572 b03b 5dcd 633c fa42 70bb 239f 5cbc
00000100: 7dda 19bd 08a6 963c 83e1 86bc 8357 da3c
00000110: 9017 d5bb 6bf4 073d ceb8 3b3d bc02 2c3d
00000120: f53d ab3c 3769 c3bc b288 c4bd ba97 8cbd
00000130: 2d81 a0bd 901a cf3c cf56 20bc d1ae 40bd
00000140: 4aae f5bc c734 a2bc 5ecb 1cbd 5549 71bd
00000150: 68b2 41bd cc23 cb3c 6ce4 97bc 045e b3bd
00000160: fc9d 87bd 8323 d0bd 4c59 13bd 67f5 ca3c
00000170: 8091 21ba c060 e63c 91ed ad3c 502f 50bc
00000180: 0dc8 473d 1072 56bd bc56 183b e283 0c3d
00000190: 1a20 7fbd 42d9 40bd c84a 1a3d c51e 403b
000001a0: 9ffe dabb fa33 94bd a240 60bc 41ec 7bbc
000001b0: 08a5 74bb 350c 9fbd 0419 6cbc 1ffa 04bd
000001c0: 4cbb 303c 317e 2b3d 62cb a5bd ff39 a6bd
000001d0: 9936 21bd eefd 47bd 4ecb 2bbd 13b2 103d
000001e0: c55d f0bd ee5e 55bd 4e96 84bc b86f 12bd
000001f0: 3ae6 86bd f87e ed3c fe0d c2bc 7755 5d3c
00000200: 1f14 a4bc d150 aabd 333f c83c 520f bd3c
00000210: cbd2 523c 5ee3 08bd 5976 d9bd bbf1 223b
00000220: aa3b 363b 9030 9e3c fd28 80bc a13c 9ebb
00000230: 579c 3c3d 6abc cdbc 66ac 8abd 848e e8bc
00000240: 3e2d 39bd 6582 31bd 5408 71bd a082 32bd
00000250: bc69 84bd 9df3 76bd d515 6bbb 1a20 493d
00000260: 824d 49bd e699 57bd 1a4b 9cbd 8e94 953b
00000270: 84e6 59bd a37c 89bd 6dd9 82bd 88cc 84bd
00000280: a068 333d c0d2 463d 8273 783c ec21 933b
00000290: 088b a1bd 482d bfbd 865e 9bbd 576b 7ebc
000002a0: 3325 11bd 5b72 19bd 950d d2b9 3cd5 9ebc
000002b0: 562b d3bd aca9 81bd 8889 7abd 5811 cbbb
000002c0: 7a52 f13c 9295 013c 158b 94ba bc48 863d
000002d0: 058b 90bd 64c9 33bd ed55 d5bc ff61 ddbc
000002e0: 0e1b 123b 29a4 cf3c fd73 f83b 5502 58bd
000002f0: 844f c1bc 0b51 35bd b8c5 c1bd 432d 60bd
00000300: 503e 8bbc c0a6 2dbb 9068 6f3a 16f0 28bd
00000310: 562c 7fbd 42b5 8bbd ceda 89bd 8bdb 83bd
00000320: 4af5 e03b 4ffb 49bc 25a7 313d a0af a7bc
00000330: f3cf f9bb b030 75bd 6cae 65bd c221 62bd
00000340: 720c 18bc 1113 6e3d 3b29 053d 9825 053c
00000350: 66be 25bc 6b63 93bd 2d73 e0bd 982f 95bd
00000360: de16 2e3b 3b81 2ebd 27d5 a1bc c293 f3bb
00000370: e86c 78bd 9796 3fbb b0c4 113d ad8b 1abe
00000380: 210b b8bc f5bc fabc e8e3 c7ba 9377 553b
00000390: 4340 02bb dde6 cabc 8681 4ebd 0d2a 8cbd
000003a0: 37fa 0e3d d82b 89bd af02 c73c 32eb 53bd
000003b0: 4960 f5bc 92c8 1a3d 01d9 2bbd 625e 033b
000003c0: a651 42bd 51f3 dbbc 4afc 0bbd 4235 65bb
000003d0: 71ff afbc 7e60 c0bd 7a47 56bc db25 9dbd
000003e0: 5cff 40bd 63e9 aa3c 0703 283d 933a 98bd
000003f0: 697a 4fbd 6f07 ecbd a259 58bd 8b0c 643d
-0.07455036 0.020421999 -0.044581965 -0.037755568 0.005113713 -0.07460371 0.04200385 -0.08266893
-0.017391266 -0.055513695 0.020068493 -0.04104052 -0.059230667 0.04399386 0.021026324 -0.030449474
-0.07387484 -0.058990657 -0.08621389 0.0019841378 -0.062701575 -0.09527702 -0.053944495 -0.05751036
-0.044652354 -0.031632476 0.021156386 -0.07435627 0.028134907 -0.0606571 0.04107957 0.024812734
-0.0514397 -0.012196416 0.022638045 -0.01978654 -0.07640726 -0.05144104 0.043592896 -0.061504114
0.0017607191 -0.04850564 -0.049957033 0.030779365 0.034900326 0.05520633 0.0033129735 -0.07828376
-0.011059357 -0.022832016 -0.011010869 -0.06087311 -0.072343335 -0.08664534 -0.06650411 -0.029348606
-0.018165365 -0.039323457 0.023821814 -0.056188233 0.0053847902 0.013903943 -0.0036661015 -0.0134656755
-0.037561882 0.018389717 -0.016464954 0.026653057 -0.006503053 0.03319208 0.04583054 0.041994795
0.020903567 -0.023853881 -0.09596385 -0.06864877 -0.07837138 0.02528122 -0.009786322 -0.047041718
-0.029990334 -0.019800557 -0.038279884 -0.058907825 -0.047289282 0.024797343 -0.018541537 -0.087581664
-0.0662193 -0.10163023 -0.035973832 0.02477522 -0.0006163344 0.028122306 0.021231445 -0.012706593
0.048774768 -0.052354872 0.0023245057 0.03430546 -0.062286474 -0.047082193 0.037668973 0.0029315215
-0.006683185 -0.07236476 -0.013687285 -0.015376152 -0.0037329812 -0.07766 -0.014410261 -0.032465097
0.010786843 0.041868392 -0.08095433 -0.081165306 -0.03935871 -0.04882615 -0.041941933 0.035326075
-0.11736635 -0.052092485 -0.016184952 -0.035751075 -0.06586881 0.028991207 -0.023688313 0.013509146
-0.020029126 -0.08316196 0.024444198 0.023078594 0.01286764 -0.03341996 -0.10618276 0.002486332
0.0027806559 0.019310266 -0.015644545 -0.004829005 0.046047535 -0.025114257 -0.06771164 -0.02838827
-0.045209162 -0.043337245 -0.058845833 -0.043581605 -0.0646548 -0.06029092 -0.0035871167 0.04910288
-0.049146183 -0.052637003 -0.07631512 0.0045648282 -0.053198352 -0.06713226 -0.06389127 -0.06484324
0.04380095 0.04854083 0.015164258 0.004490128 -0.07887846 -0.093348086 -0.07586388 -0.0155285215
-0.035435867 -0.037462573 -0.0004006444 -0.019388787 -0.10311 -0.063311905 -0.061166316 -0.006197136
0.029458273 0.0079091955 -0.0011332954 0.06556842 -0.07057766 -0.043893233 -0.02604195 -0.027024267
0.0022293958 0.025346832 0.0075821863 -0.0527366 -0.023597486 -0.04426674 -0.0946154 -0.054730665
-0.016997486 -0.0026497096 0.00091327075 -0.04124459 -0.06229814 -0.068216816 -0.06731187 -0.06438359
0.0068651782 -0.012327983 0.043372292 -0.020469487 -0.0076236664 -0.059860885 -0.056074545 -0.055207975
-0.009280311 0.058123652 0.032510024 0.008126639 -0.010116195 -0.07196697 -0.10959468 -0.072844684
0.0026563923 -0.042603713 -0.01975496 -0.0074333856 -0.060650736 -0.0029234046 0.035587966 -0.15092345
-0.022466244 -0.03060768 -0.0015250416 0.0032572492 -0.0019874729 -0.024768287 -0.050416492 -0.06843958
0.034906592 -0.06697816 0.024293272 -0.05173797 -0.029953139 0.037788935 -0.041954998 0.002004527
-0.047441147 -0.02684942 -0.03417615 -0.003497437 -0.021484109 -0.093934044 -0.013078565 -0.07673236
-0.04711853 0.02086324 0.041018512 -0.07433047 -0.05065385 -0.11524855 -0.052819856 0.055676024

conv2.bias f4 [32]
00000000: 8b9e 4fbd a4d6 90bd 8e69 b23c 15f6 ea3d
00000010: b0b0 383d 5460 0b3e 8388 813d 23c8 1cbd
00000020: f080 ce3d 9703 6d3c 9d5d e4bc 1c6b e83d
00000030: 51c1 da3d 8a2e 9ebd 18d3 243e 1479 6a3d
00000040: 92c6 3b3d 3fee 1b3e c005 ec3d 5774 56bd
00000050: fd87 1fbc 7ac9 5f3d bd79 2e3e 22f5 f33d
00000060: aa33 79bb 5859 e3bc 02e4 0a3d 0dc1 913d
00000070: 4f69 823c e274 9ebd 5147 313d 9bf2 c6bd
-0.050688308 -0.070721895 0.021778848 0.11472718 0.045090377 0.13610965 0.06324866 -0.038276803
0.100831866 0.014466188 -0.02787667 0.113485545 0.106814034 -0.0772372 0.16096151 0.057244375
0.04584367 0.15227602 0.11524534 -0.052357044 -0.009737012 0.054635502 0.17038627 0.1191199
-0.003802518 -0.027752563 0.03390885 0.071169 0.015919356 -0.077371374 0.043280903 -0.09714242

fc1.weight f4 [64, 800]
00000000: 0457 59bd 8782 69bc aefb 76bd 0d77 17bc
00000010: ea94 1dbd 32ea 85bd 187b 15bd eee7 4fbd
00000020: d13f 72bd 2f30 aabc 0e6d 86bd ce12 4bbd
00000030: c6d7 26bd 3983 a5bc 876f 2abd d974 70bd
00000040: d6c1 0bbd 895f 87bc 6e5f 9bbc b84e a7bc
00000050: 19bf 8ebd 9c00 d5bb 6f00 20bd c00b d2bb
00000060: 6a8e 93bc 3122 5fbc 165c 853c c9b1 663a
00000070: 54a9 c7bc 0e9f 5bbc e34d 293c aa0d 88bc
00000080: a13f 1dbd 105c f8bc 28c6 793c 9e7e 2ebd
00000090: bdf0 a6bc 3dfc 063d 5cef 843c 6485 e4bb
000000a0: cbc4 82bc 197a 963c 7d78 e1bb ecaf 6fbc
000000b0: 5c14 70bd f164 31bd 5cff 00bd 98cc d73b
000000c0: dbcc a5bd 746e b1bc 694f dabc bd09 17bd
000000d0: 66d5 59bd fd1b 15bd 9933 c63b 97ba 0fbd
000000e0: 8dee e0bc 37ca cebc 1a07 0ebd 16ce 46bd
000000f0: 48a7 8c3c c8e7 623b 3dc4 0abd a7d0 91bc
00000100: 3075 39bd 5c8f b9bc 8456 cbbc fb50 edbc
00000110: 6e24 14bc 3a8a 2ebd 7781 06bb c39a 3cbc
00000120: 0d2d 1bbd e4f0 693a 5415 893c a5aa 9c3e
00000130: c5a4 ba3c ff99 78bd 915b 33bd 8673 e03d
00000140: 68ef ac3e 2fc7 cbbd 5f6c 793e 28df 60bd
00000150: 242c ddbd 38e8 793c 5a81 89bd de2c a7bd
00000160: b1ac b3bd 2116 843d 64a9 fd3e f582 e0bd
00000170: 55de 6f3d 067b 813c e87b 2a3e 52c1 1c3d
00000180: a9ac d23d c3d7 9c3d 6c28 ab3e 6bae a83d
00000190: 6339 443e 1632 1c3e d508 0cbd 1bef 603c
000001a0: 7444 af3d 0659 9e3e 173e 933e f916 043d
000001b0: f7eb 70bd 3339 3d3d 873d 42bb 611c de3d
000001c0: bd9a 16bd c98c 40be a472 1f3d e26c 2e3e
000001d0: e178 76bd 5122 18bd 36bb febe d35d f4be
000001e0: f2fa 51bd 31c9 643b b50b ba3e 5925 833e
000001f0: fcc2 22bf fb68 24bc e6c9 4c3d 7c03 56b9
00000200: 1d28 0cbc 9898 933d c2be 773d 0d1d 483d
00000210: db6f f4ba a0e1 9d3c 9b95 223c 9330 0d3d
00000220: 448d fabd e674 4e3e 5ccd aebd 503f 4ebe
00000230: 9ea7 983d 260a 053d 10ab 0b3e 8289 683e
00000240: b66c 663d 8ff2 d8bd 6149 363e abcd 073f
00000250: e902 f33e 1513 d13d 95da ecbd 14a8 523e
00000260: f95a 523e 5850 723e 7bd6 5c3e 7202 ecbd
00000270: 1be1 d03d 9306 d3bb 9ad6 893b e743 82be
00000280: 4f87 c53c 15fd b83b 5ff8 5a3e 1b6f 36bb
00000290: fc09 993d 1efe 85be 90e3 8fbb b006 803d
000002a0: edb0 4e3d 2024 1d3e 3611 623c 9cc4 283e
000002b0: 5d87 e43c da6b 963e a918 8a3e c4a8 d0bc
000002c0: 74fa dabc 92ee a43d 5d4a d2bb ec95 a73c
000002d0: 119a f63c 7e76 67bd 82cc a93b b313 12bd
000002e0: 5271 973c 22f3 f13c d535 0bbb 1725 46bb
000002f0: 0216 2ebd 95a9 a8bc 95ca 36bd f8f0 533c
00000300: 33f9 e23c 628a 50bc 1374 fdbc 23c6 9c3c
00000310: 8d75 b0bd b21a 7f3c cdf5 57bc 32eb 49bc
00000320: a229 51be 232b f6bc 4a9d 703d a5e9 7f3c
00000330: a950 1a3e c7ef a43d 507a 87bd 274a bb3d
00000340: 1d16 c43a 3f1d bd3c 3033 b83c bf4c 16be
00000350: f424 5b3d 5a89 803d c484 413e 64bf d7bb
00000360: 4f25 93bb 0b44 03be 91e6 d33b fa70 2f3e
00000370: f6c8 8f3c dd7e 7e3d 2c3e a7bd a417 09bd
00000380: 296d 853e 69ac e8bd 9f8a 8b3e 3f95 debd
00000390: 9e07 a6bd 807d cf3e 9484 a1be c07d 833e
000003a0: ddf4 91bb 4867 8ebe 603f bc3d 9ff2 8abe
000003b0: 6d68 50be 5fa4 9c3c f62d 0cbe 82f9 7a3e
000003c0: 954e 613e 9d16 643d cbfb 2a3e f90e b73e
000003d0: 9f26 643e 5b5c 803d 95de f53e 3a53 af3d
000003e0: 2c6b 4e3c b99c 833e f449 523c b091 2d3b
000003f0: 624d ec3c 86e0 c3bc 9120 0fbd 985b 57bd
-0.0530615 -0.014252312 -0.060298614 -0.0092446925 -0.038472094 -0.0653881 -0.036494344 -0.050758295
-0.05914289 -0.020774929 -0.06563769 -0.04957848 -0.04073312 -0.020204173 -0.041610267 -0.058705185
-0.034120403 -0.016525047 -0.018966403 -0.020423278 -0.06970043 -0.006500317 -0.039062914 -0.006410092
-0.018012244 -0.013618992 0.016279262 0.0008800296 -0.024372734 -0.013404621 0.010333511 -0.016608078
-0.03839076 -0.030317336 0.015244998 -0.04260122 -0.020378465 0.032955397 0.016227417 -0.006973909
-0.015962979 0.018368768 -0.0068808184 -0.014629345 -0.058613166 -0.043309156 -0.03149353 0.006585669
-0.08095714 -0.021659113 -0.026649194 -0.03687452 -0.05318203 -0.036403645 0.0060486314 -0.035090055
-0.0274575 -0.025242908 -0.03467474 -0.048536383 0.01716961 0.0034623016 -0.033878554 -0.017799689
-0.045277774 -0.022651367 -0.024821527 -0.028969279 -0.009041889 -0.042612292 -0.0020523944 -0.011511507
-0.03788476 0.000892414 0.016733803 0.3059894 0.022783646 -0.060693737 -0.043788496 0.10959534
0.33776402 -0.09950101 0.24357747 -0.05490032 -0.10799435 0.015253119 -0.06714125 -0.081628546
-0.08773173 0.06449533 0.49543297 -0.10962478 0.05856164 0.015805732 0.16648829 0.038270302
0.102868386 0.07658341 0.33429277 0.082363926 0.19162516 0.15253481 -0.03418811 0.013728882
0.08557978 0.30927294 0.28758308 0.03224847 -0.058818784 0.046197128 -0.0029638724 0.108452566
-0.036768664 -0.18803705 0.03892769 0.17033723 -0.060173873 -0.0371421 -0.49752206 -0.47727832
-0.05126471 0.0034909958 0.36337057 0.25614432 -0.6357877 -0.010034795 0.049997233 -0.00020409928
-0.008554486 0.07206839 0.060484655 0.04885583 -0.0018649058 0.019272625 0.009923364 0.034470152
-0.122339755 0.2016178 -0.08535263 -0.2014134 0.074538454 0.03248038 0.13639474 0.22708705
0.05625602 -0.105931394 0.1780143 0.530482 0.47463158 0.10208718 -0.11565129 0.20571929
0.20542516 0.23663461 0.21566193 -0.11523904 0.101991855 -0.0064399927 0.0042064907 -0.2544243
0.024112372 0.005645404 0.21383809 -0.002783722 0.074726075 -0.2617044 -0.0043911412 0.062512755
0.0504617 0.15345812 0.013798049 0.1648125 0.027896577 0.2937916 0.2697194 -0.025471099
-0.026730753 0.08053316 -0.006417556 0.02045723 0.030102761 -0.056509487 0.00518185 -0.035663318
0.018486653 0.02953488 -0.0021241803 -0.003023451 -0.042501457 -0.020588676 -0.04462679 0.012935869
0.027706718 -0.0127283055 -0.030939138 0.019137448 -0.08616171 0.0155703295 -0.013181162 -0.012324141
-0.20426038 -0.030049866 0.058743753 0.01561967 0.15069832 0.080535464 -0.06615126 0.09145003
0.0014960204 0.023085235 0.022485346 -0.14677714 0.053502038 0.06276198 0.18898302 -0.006584095
-0.0044905315 -0.12818925 0.0064666946 0.17132941 0.01755188 0.062132705 -0.08166155 -0.03346981
0.26059845 -0.1136101 0.27254197 -0.1086831 -0.081069216 0.40525436 -0.31546462 0.25681877
-0.004454239 -0.27813172 0.09191775 -0.2713823 -0.20352335 0.019121347 -0.13689408 0.24509242
0.22002633 0.05568563 0.16697614 0.3575361 0.22280358 0.062676154 0.4802138 0.08560796
0.012598794 0.25705507 0.012835015 0.0026484542 0.028845493 -0.023910772 -0.034943167 -0.052577585

fc1.bias f4 [64]
00000000: 567f 673d ebf6 0abd beff 06b8 1461 dbbb
00000010: 8edc ca3c d9da d83d 2678 aabc b208 513b
00000020: 8079 24bd 1634 6a3c a79a 71bd bc78 03bd
00000030: 4bbe 173c 6b81 75bd 0fac 3bbd 0031 38bc
00000040: e0c2 55bd 2b37 273e ec80 223b 047f 1cbd
00000050: c02c 663c 0a08 e9bb fe6e 5ebd aba6 79bd
00000060: cbe1 633d 9ee4 50bc c7a9 e73d 4732 25bc
00000070: 6249 aabc b347 1b3e 09f8 08bb 2a4a 223e
00000080: 0eba 353d c310 1d3e 5792 1fbd 6319 9cbc
00000090: cd26 6ebd e5ac 45bd 48ea b4bc 113c 9d3c
000000a0: c621 1cbc afe1 d33c d56c 393e 24c8 863c
000000b0: 62e0 d53d 66a4 a33b 6dc6 fabc 170d cc3c
000000c0: e313 a43c 0b19 0ebd 5e1d 1d3e cb40 c13c
000000d0: 9eb2 70bd 84ae 00bc d891 203c 0bd3 59bd
000000e0: 1422 113e df31 33bd 9eb2 6f3a 0644 6fbc
000000f0: d694 123d 189f 68bd d6a6 c73d 5116 053e
0.05651792 -0.033926886 -3.2186268e-05 -0.006694922 0.024763372 0.10588617 -0.020809244 0.0031896052
-0.040154934 0.014294645 -0.05898538 -0.032097563 0.009261678 -0.059937876 -0.045818385 -0.011242151
-0.0521878 0.16329639 0.0024796082 -0.03820707 0.014048755 -0.007111554 -0.05430507 -0.060949963
0.055635255 -0.012749819 0.11311679 -0.010082788 -0.020786945 0.1516407 -0.0020899794 0.15848604
0.04436689 0.15338425 -0.03895792 -0.019055074 -0.058142472 -0.04826059 -0.02208437 0.019193681
-0.009529537 0.02586445 0.18107922 0.016452856 0.10443188 0.004993963 -0.030612195 0.024908585
0.020029014 -0.03469185 0.15343234 0.023590466 -0.058764093 -0.007854108 0.009800397 -0.053179782
0.14173156 -0.043748733 0.00091437425 -0.01460362 0.035786472 -0.05679235 0.09748618 0.12996794
