DRL-based-path-finding/saved_models/dqn_final_model.pth (torch, 981147 bytes, 32 tensors)

conv1.weight f4 [16, 2, 4, 4]
-0.14287177 0.90558887 0.70660126 1.3232673 -0.28752837 -0.15473422 -0.036978193 0.9286718
-0.22901784 -0.14790195 -0.32531208 0.4372309 0.54569507 0.42930964 -0.15777498 0.07838975
0.021896726 -0.077808306 -0.07757992 -0.03946481 -0.020318573 0.06491995 -0.08959556 -0.21377064
0.015115909 -0.1420099 0.115828075 0.08066825 0.07256906 0.13612238 -0.092669904 -0.05334963
-0.34311506 -0.2760429 -0.29036644 -0.4581711 -0.2539001 -0.34196025 -0.371309 0.6403182
-0.44310412 -0.06413686 0.06696223 -0.14022769 -0.36906958 -0.39788473 0.42451563 -0.5775688
-0.047262184 -0.10412303 -0.13671716 -0.08712242 0.08068393 0.059783146 0.030164568 -0.028858243
-0.09637326 -0.18806142 -0.08753105 0.120103374 0.14223441 -0.12363289 -0.073754035 -0.4356397
-0.3362824 -0.3975716 -0.2595045 -0.39752215 -0.4807297 -0.3203033 -0.38504428 -0.558857
-0.22981842 -0.47118035 -0.31413975 -0.4387535 -0.5515407 -0.55097467 -0.5583542 -0.63181955
0.06668953 0.14520596 0.10426768 0.13897201 0.031390514 0.10413424 0.1695731 -0.12380088
0.18706377 -0.030094402 0.1280821 -0.009638302 0.045359086 0.054521 0.0013383512 0.014222067
0.31339303 -0.22664586 -0.09410391 0.87516797 -0.098205104 0.16994354 -0.2227538 -0.29360875
0.43498087 -0.33485484 -0.12331705 -0.16943209 0.36073923 0.049295235 0.43711072 0.636966
-0.16701588 0.26149032 0.13868497 0.16063005 0.012341745 0.14064813 0.19177322 -0.046399456
0.06554529 -0.022261951 -0.38238445 0.11949763 0.089378916 0.009561971 0.10088545 -0.4574966
0.9105105 0.3307632 0.402387 0.8077556 0.64722073 -0.4456324 0.53046954 0.88125396
0.40849906 0.08450878 0.31909505 -0.031209974 0.35411644 -0.14596823 0.7917148 1.1498291
-0.19554722 0.042358976 -0.18890788 0.03323876 -0.02800739 0.13083859 -0.15651387 -0.091231465
0.09239789 -0.17896989 0.05128281 -0.029090824 0.015588968 -0.11283042 -0.07548217 0.069943234
0.79037046 0.0745281 0.18588911 0.6364925 0.37296948 0.12849443 0.20486493 -0.35839254
0.36012235 0.50482875 0.011911019 0.71002644 0.3372888 0.09244671 1.1773517 2.1150827
-0.08525339 0.061132602 -0.1210839 -0.05125289 -0.011181778 -0.051723786 0.0066604693 -0.02520835
-0.01764396 0.18984388 0.108889595 0.20132703 -0.038504384 0.031183133 0.018042615 -0.104538746
-0.32968727 0.474089 -0.18615475 -0.29751694 1.1120108 0.5678171 0.46166468 0.02206218
0.22567657 -0.3327364 0.29821408 -0.03059393 -0.25553718 -0.19417946 0.27265805 -0.397528
-0.15648195 -0.18074092 -0.18254723 -0.11501327 0.07605904 0.0783673 -0.18726437 0.16642366
0.08837558 -0.18216783 -0.18508126 -0.06541756 -0.04767342 -0.027617738 -0.055353124 -0.11904968
0.2380479 0.24332228 0.5882843 1.2404445 -0.07081091 -0.15710193 1.0620724 1.9394759
0.348443 -0.2838932 0.02898894 0.9140342 0.35164154 0.30774006 -0.35639238 0.5900219
0.05526534 -0.19750811 -0.07344851 -0.02378622 0.11601896 0.08556791 0.061794892 -0.24237193
0.011034578 0.11081695 0.15869962 -0.02719898 0.10692097 0.016423011 -0.0036228262 0.19346069
00000000: fa4c 12be acd4 673f d2e3 343f d360 a93f
00000010: eb36 93be a672 1ebe 7276 17bd 6fbd 6d3f
00000020: a783 6abe 9c73 17be 4e8f a6be bbdc df3e
00000030: acb2 0b3f 79ce db3e c48f 21be ce8a a03d
00000040: c360 b33c f659 9fbd 39e2 9ebd daa5 21bd
00000050: 2373 a6bc c0f4 843d e17d b7bd b1e6 5abe
00000060: b8a8 773c 0b6b 11be 4537 ed3d 6535 a53d
00000070: 169f 943d aa63 0b3e b8c9 bdbd 2485 5abd
00000080: c7ac afbe 7f55 8dbe e9aa 94be 6795 eabe
00000090: 32ff 81be 6a15 afbe 371c bebe e5eb 233f
000000a0: 8bde e2be 305a 83bd 7e23 893d d997 0fbe
000000b0: b0f6 bcbe 8cb7 cbbe 1d5a d93e 8ddb 13bf
000000c0: fe95 41bd 753e d5bd 95ff 0bbe 3d6d b2bd
000000d0: 9e3d a53d 2cdf 743d af1b f73c 1f68 ecbc
000000e0: 585f c5bd 2c93 40be 7b43 b3bd c2f8 f53d
000000f0: e6a5 113e 3e33 fdbd 5b0c 97bd 2b0c dfbe
00000100: 352d acbe 818e cbbe c6dd 84be 0688 cbbe
00000110: 3422 f6be cbfe a3be 8624 c5be 4111 0fbf
00000120: 8555 6bbe 8d3e f1be edd6 a0be 4ca4 e0be
00000130: c531 0dbf ad0c 0dbf 4df0 0ebf edbe 21bf
00000140: 8594 883d dfb0 143e 4b8a d53d ae4e 0e3e
00000150: 5793 003d 5544 d53d 92a4 2d3e 518b fdbd
00000160: a58d 3f3e 8988 f6bc f427 033e f8e9 1dbc
00000170: 73ca 393d 6951 5f3d 9d6b af3a ac03 693c
00000180: 0d75 a03e da15 68be 8db9 c0bd 020b 603f
00000190: c21f c9bd ae05 2e3e 9219 64be e353 96be
000001a0: d0b5 de3e 1872 abbe a68d fcbd 9b7f 2dbe
000001b0: d0b2 b83e cde9 493d facc df3e 3410 233f
000001c0: 3606 2bbe 0fe2 853e 6f03 0e3e 347c 243e
000001d0: 0835 4a3c 1006 103e 3360 443e 5b0d 3ebd
000001e0: 9c3c 863d b25e b6bc e5c7 c3be 2cbb f43d
000001f0: 4b0c b73d d0a9 1c3c 089d ce3d ff3c eabe
00000200: 3717 693f cb59 a93e ab05 ce3e 12c9 4e3f
00000210: 42b0 253f ee29 e4be dacc 073f dc99 613f
00000220: ca26 d13e f012 ad3d 6d60 a33e 0fac ffbc
00000230: c04e b53e b278 15be d2ad 4a3f 9a2d 933f
00000240: 883d 48be 9b80 2d3d 1171 41be 5e25 083d
00000250: c16f e5bc 8dfa 053e 2c45 20be 90d7 babd
00000260: 1b3b bd3d e243 37be ec0d 523d e14f eebc
00000270: df68 7f3c a313 e7bd 6596 9abd 663e 8f3d
00000280: b855 4a3f 30a2 983d b759 3e3e 2cf1 223f
00000290: dbf5 be3e 0b94 033e 1dc8 513e 3a7f b7be
000002a0: f561 b83e 753c 013f 6f26 433c 4bc4 353f
000002b0: 1eb1 ac3e b354 bd3d 76b3 963f 845d 0740
000002c0: 5499 aebd 2e66 7a3d d6fa f7bd 8dee 51bd
000002d0: c733 37bc 52dc 53bd 1140 da3b be81 cebc
000002e0: 118a 90bc 6f66 423e 8201 df3d ac28 4e3e
000002f0: c6b6 1dbd c573 ff3c 1bce 933c 6918 d6bd
00000300: c5cc a8be cbbb f23e 5a9f 3ebe 2454 98be
00000310: 5f56 8e3f 765c 113f 505f ec3e bfbb b43c
00000320: c217 673e 6d5c aabe 84af 983e 1fa0 fabc
00000330: c5d5 82be fbd6 46be d699 8b3e ca88 cbbe
00000340: ce3c 20be 2614 39be a9ed 3abe 148c ebbd
00000350: d8c4 9b3d 097f a03d 3bc2 3fbe f76a 2a3e
00000360: 42fe b43d 348a 3abe f185 3dbe a4f9 85bd
00000370: 3445 43bd 983e e2bc f5b9 62bd 52d0 f3bd
00000380: d4c2 733e 7a29 793e cd99 163f e3c6 9e3f
00000390: 4f05 91bd 54df 20be fdf1 873f bf40 f83f
000003a0: 1f67 b23e 735a 91be 377a ed3c 25fe 693f
000003b0: 5c0a b43e 1b90 9d3e 1079 b6be ad0b 173f
000003c0: e95d 623d 913f 4abe 2c6c 96bd 52db c2bc
000003d0: 599b ed3d 3a3e af3d a41c 7d3d 5930 78be
000003e0: 60ca 343c fff3 e23d 2782 223e 65d0 debc
000003f0: 62f9 da3d 8d89 863c f06c 6dbb 8f1a 463e

conv1.bias f4 [16]
0.08821801 0.2949032 0.26724866 -0.06617034 0.24046855 0.03445562 0.17469539 -0.039289918
-0.019348178 0.070409834 -0.013068916 0.3308807 0.23898785 0.2656493 0.15461403 0.20320271
00000000: a5ab b43d 8dfd 963e d1d4 883e 5184 87bd
00000010: 633d 763e 5621 0d3d 59e3 323e 77ee 20bd
00000020: 1280 9ebc 0833 903d 021f 56bc 3269 a93e
00000030: 3bb9 743e 2f03 883e 2453 1e3e 5f14 503e

conv2.weight f4 [32, 16, 4, 4]
-0.14859809 -0.07245147 -0.12421563 -0.07867768 -0.050722454 -0.030825092 0.0125370305 0.00994525
0.031047026 0.014412482 -0.010319043 -0.077498116 -0.044399764 0.017202854 0.016605416 -0.040880162
0.08004073 -0.02007702 0.07279002 0.067502774 0.089365385 0.02629125 -0.008709954 0.024838492
-0.004019668 0.042089514 0.029792964 0.09083537 0.036452916 0.019542813 -0.016414786 0.049760997
0.0988215 0.040933087 -0.011959731 0.04033856 0.002903282 -0.02064494 -0.023218054 -0.0010498409
0.064699896 0.009282768 0.09363534 0.009651637 0.021693928 0.10036567 0.011079426 0.11962423
-0.10280767 -0.04982962 0.0011481211 0.0062634535 -0.14183414 -0.083000176 0.056348633 -0.055165544
-0.12501226 0.0006189984 -0.103874974 -0.016361695 -0.085782796 -0.059545025 -0.0115100425 0.009137735
-0.061396677 -0.10926595 0.016110219 -0.04350631 -0.08265425 -0.10509575 0.0039812913 -0.011442788
-0.090822585 -0.1087873 -0.08329081 -0.09051784 -0.13714945 -0.025135962 -0.07375308 -0.092009835
-0.14982893 -0.14527656 -0.067352064 -0.058138162 -0.1659814 -0.15108176 -0.10934302 -0.18009086
-0.12985356 -0.15483595 -0.08406701 -0.12638864 0.00040597387 -0.10046639 -0.13241264 -0.28128767
-0.08553963 -0.066016406 0.016731726 0.019168327 -0.08631223 -0.032375015 -0.0052027926 -0.039182574
-0.0031096444 0.01658265 -0.00059923297 -0.041343242 0.029184278 0.06075343 -0.003975543 0.0061989618
-0.14480184 -0.16563557 -0.19930512 -0.23223522 -0.11907881 -0.008075498 -0.1328075 -0.23448355
-0.13886245 -0.06745177 -0.11616561 -0.04909397 -0.12250057 -0.14765394 -0.13441212 -0.30239454
-0.038789786 -0.11090708 -0.14062127 -0.10081304 -0.06312024 -0.061728727 0.02955179 0.03679833
-0.057657186 -0.08748476 -0.04141738 -0.11631281 -0.078260265 0.033898883 0.004133122 0.05506239
-0.2316751 -0.057094004 -0.08670031 -0.042121004 -0.1295618 -0.057820514 -0.009630924 -0.037491966
-0.10046683 -0.047904998 0.010654378 -0.010726517 -0.012242261 -0.085829705 0.011195011 -0.00720501
-0.32734233 -0.16589364 -0.12917453 -0.18251953 -0.24406575 -0.21369243 -0.11552353 -0.1826178
-0.11899021 -0.07738184 -0.12312565 -0.10044298 -0.0068348283 -0.027601022 -0.18945123 -0.22028816
0.03170737 0.05929348 0.08827333 -0.024465593 -0.0063959053 0.054742597 -0.041426368 0.015058138
0.028098132 -0.015710652 0.042690102 0.07511842 0.08891442 0.026273115 0.033400904 0.048860747
0.09070369 -0.016815582 0.063460864 0.07442843 0.0872909 -0.034538973 0.039519597 0.09304746
0.06522398 -0.03366215 0.05124807 0.013244133 0.05945243 0.07315917 0.088108666 0.027066467
0.030784957 0.029568553 0.070026234 -0.00041808304 0.08472857 0.021278424 -0.028655132 0.086093254
0.05681712 0.06047905 0.040138822 0.010920325 -0.0051998524 0.018622775 0.06936494 0.059590396
0.029534495 0.012143806 0.002772429 -0.022130053 0.018216848 0.02816057 -0.017892806 -0.004472008
-0.0014801229 -0.03805335 -0.04331021 0.039344583 0.012563998 0.057772987 -0.025532117 -0.020535601
0.0014253422 0.012574429 0.030020477 0.008771649 0.042385254 0.006734 0.06942492 0.054365326
0.024230596 -0.011923248 -0.046316233 -0.03844032 0.042380575 -0.017404957 -0.011474408 -0.04476134
00000000: 192a 18be 7061 94bd c464 febd c321 a1bd
00000010: 59c2 4fbd e784 fcbc 1e68 4d3c 67f1 223c
00000020: 5556 fe3c 5522 6c3c 3411 29bc 55b7 9ebd
00000030: 87dc 35bd 00ed 8c3c 1508 883c f571 27bd
00000040: 65ec a33d 9078 a4bc ef12 953d e53e 8a3d
00000050: 3305 b73d bf60 d73c 32b4 0ebc 187a cb3c
00000060: 6bb7 83bb 0e66 2c3d 6010 f43c e507 ba3d
00000070: a74f 153d 4018 a03c 4d78 86bc 30d2 4b3d
00000080: ed62 ca3d 74a9 273d bff2 43bc 0c3a 253d
00000090: fd44 3e3b 941f a9bc ca33 bebc d19a 89ba
000000a0: 6181 843d c016 183c e3c3 bf3d e621 1e3c
000000b0: 77b7 b13c 848c cd3d 7b86 353c 8cfd f43d
000000c0: d48c d2bd 251a 4cbd 8d7c 963a a83d cd3b
000000d0: f83c 11be fffb a9bd d3cd 663d 44f5 61bd
000000e0: 3703 00be 4844 223a 67bc d4bd f608 86bc
000000f0: e4ae afbd 7ce5 73bd 9e94 3cbc 70b6 153c
00000100: 157b 7bbd d4c6 dfbd 94f9 833c ac33 32bd
00000110: a246 a9bd 713c d7bd 7e75 823b 887a 3bbc
00000120: 3101 babd e0cb debd 5f94 aabd 6b61 b9bd
00000130: e870 0cbe efe9 cdbc db0b 97bd a76f bcbd
00000140: c16c 19be 61c3 14be e1ef 89bd 4822 6ebd
00000150: 07f7 29be 2db5 1abe 3cef dfbd bd69 38be
00000160: 55f8 04be 518d 1ebe 532b acbd 066c 01be
00000170: e4d8 d439 53c1 cdbd 2e97 07be f004 90be
00000180: 672f afbd 9c33 87bd f910 893c e506 9d3c
00000190: 77c4 b0bd aa9b 04bd 307c aabb e87d 20bd
000001a0: 2dcb 4bbb 56d8 873c d815 1dba 8857 29bd
000001b0: de13 ef3c 97d8 783d 4645 82bb a920 cb3b
000001c0: ef46 14be 5f9c 29be a416 4cbe 12cf 6dbe
000001d0: 97df f3bd 184f 04bc b0fe 07be 751c 70be
000001e0: f531 0ebe 2724 8abd 3ce8 edbd c216 49bd
000001f0: 94e1 fabd 9832 17be 55a3 09be 75d3 9abe
00000200: 0ae2 1ebd 4023 e3bd 06ff 0fbe 1177 cebd
00000210: 2f45 81bd 43d7 7cbd 9816 f23c d8b9 163d
00000220: f129 6cbd 362b b3bd 45a5 29bd 6935 eebd
00000230: eb46 a0bd 8ed9 0a3d 246f 873b 1a89 613d
00000240: 3d3c 6dbe 67db 69bd ef8f b1bd 1387 2cbd
00000250: d9ab 04be 34d5 6cbd 06cb 1dbc 2d91 19bd
00000260: 8ec1 cdbd 0838 44bd b38f 2e3c 46be 2fbc
00000270: c493 48bc 7cc7 afbd 486b 373c 0118 ecbb
00000280: 6a99 a7be 06e0 29be 5446 04be 66e6 3abe
00000290: 5fec 79be 30d2 5abe 9a97 ecbd 2900 3bbe
000002a0: 24b1 f3bd 5f7a 9ebd 4d29 fcbd 0db5 cdbd
000002b0: b2f6 dfbb 8a1b e2bc 81ff 41be 3893 61be
000002c0: 96df 013d b8dd 723d a6c8 b43d 116c c8bc
000002d0: be94 d1bb c639 603d b2ae 29bd 69b6 763c
000002e0: 0e2e e63c a0b3 80bc d1db 2e3d b0d7 993d
000002f0: c318 b63d b73a d73c 63cf 083d 3522 483d
00000300: dbc2 b93d d5c0 89bc c5f7 813d ef6d 983d
00000310: 92c5 b23d bd78 0dbd 4ddf 213d ab8f be3d
00000320: 2694 853d 53e1 09bd 7fe9 513d ecfd 583c
00000330: 6484 733d 7ad4 953d 5172 b43d 7fba dd3c
00000340: bc30 fc3c c039 f23c ea69 8f3d 2832 dbb9
00000350: 2c86 ad3d 1750 ae3c 2bbe eabc a951 b03d
00000360: 12b9 683d e1b8 773d 9b68 243d 2aeb 323c
00000370: 8663 aabb ca8e 983c 350f 8e3d 0f15 743d
00000380: 53f2 f13c d0f6 463c a4b1 353b 164a b5bc
00000390: 803b 953c ffb0 e63c ef93 92bc ec89 92bb
000003a0: af00 c2ba d4dd 1bbd 0c66 31bd c927 213d
000003b0: 3ad9 4d3c 5ea3 6c3d bb28 d1bc 473a a8bc
000003c0: 8cd2 ba3a fa04 4e3c 81ed f53c f6b6 0f3c
000003d0: 299c 2d3d e3a8 dc3b a72e 8e3d 2dae 5e3d
000003e0: 3e7f c63c ba59 43bc 17b6 3dbd 9973 1dbd
000003f0: 4197 2d3d d794 8ebc 28ff 3bbc ab57 37bd

conv2.bias f4 [32]
0.10640133 -0.05769033 0.0152772125 -0.017412778 0.059977222 0.13563627 0.07450982 0.10811258
0.089761615 -0.043250687 0.0017891447 0.008997409 0.1137742 0.033227216 0.048009668 0.044248607
0.036747452 0.06834082 0.029141748 -0.05761939 0.069758445 0.0129746245 0.03982904 0.004030065
0.056530982 0.11648989 0.029562466 0.08971993 0.0333746 0.04097161 -0.06558941 0.102882355
00000000: f1e8 d93d b24c 6cbd 464d 7a3c 3ea5 8ebc
00000010: adaa 753d 3ce4 0a3e 9b98 983d 216a dd3d
00000020: f0d4 b73d a227 31bd bc81 ea3a de69 133c
00000030: 7302 e93d 4319 083d c9a5 443d 073e 353d
00000040: 7f84 163d 46f6 8b3d adba ee3c 4f02 6cbd
00000050: 84dd 8e3d 8593 543c c723 233d a30e 843b
00000060: 088d 673d 4092 ee3d fc2c f23c 15bf b73d
00000070: ceb3 083d d9d1 273d be53 86bd fcb3 d23d

fc1.weight f4 [64, 800]
-0.044933964 -0.046125952 0.0011213053 -0.04278479 -0.025016272 -0.025154654 -0.0570517 -0.022352349
-0.0435125 -0.028264739 -0.04557398 -0.003989604 -0.038818873 -0.027146092 0.0023021176 -0.0047333436
-0.042728845 -0.035678267 -0.057361376 -0.00722916 -0.03879032 0.005902996 -0.060202703 -0.055826478
-0.032739084 0.020933527 0.03459933 -0.0072441082 0.021131035 0.025231477 -0.0050817225 -0.0019731969
0.019835632 -0.03063257 -0.00618854 -0.005407352 0.0051157326 -0.0071326215 -0.013400052 0.00051411614
-0.029324716 0.02568851 -0.024144506 0.023552213 0.03386527 -0.014988972 -0.012069304 0.03129181
-0.005498361 0.011330273 -0.002561014 0.004811364 -0.034911215 -0.031352144 -0.059983604 -0.0023458458
-0.034670934 -0.020157892 -0.03922716 -0.004239156 -0.038951416 -0.016801052 0.004551653 -0.029551564
0.013292979 -0.046438705 0.010145373 0.009645368 -0.030968674 -0.0321947 -0.033996917 0.004911432
-0.0073629455 -0.03608186 -0.013431698 -0.030122219 -0.027156569 0.019051958 0.029580656 0.019859642
-0.009435648 -0.02485972 0.03428362 0.028994668 -0.016731082 -0.015081227 0.019124921 0.014023121
-0.030245468 0.016726676 0.0058287084 -0.01792388 -0.0028070658 0.0015664175 -0.027052596 0.009192392
0.033603925 -0.01783466 0.014155503 -0.021148905 -0.024531761 -0.016909067 -0.056078378 -0.039521486
-0.036765162 -0.02120955 0.0061453013 0.0034688148 0.006650001 -0.001242506 -0.014099307 -0.01540513
-0.011873 -0.055669192 -0.055653706 -0.04552864 -0.031747192 0.009101027 -0.010826622 0.0070642317
-0.010887242 -0.007387988 -0.057977483 0.000636642 -0.042625044 0.008666858 -0.00942958 -0.044828363
0.000982552 -0.017611565 0.00023361828 -0.018678853 -0.05468815 -0.00356446 -0.02933707 -0.053068217
-0.04611047 0.008119383 0.009187821 0.0051765703 -0.034296867 0.0011464709 -0.020216731 -0.05762174
-0.022434464 -0.013728507 -0.00027788023 0.002766768 -0.031970084 -0.0128898015 -0.020124862 0.0064014997
-0.0051421598 0.0069919815 -0.024433905 -0.015066451 0.012998103 0.0018507927 -0.015628839 0.0072603156
-0.04018039 -0.0026504134 -0.0039724824 -0.013119993 -0.024524106 -0.018606048 -0.058183137 -0.024049029
-0.0008379224 -0.00024979425 -0.059904553 -0.014278968 -0.025771178 -0.040108103 -0.0042693852 0.0039805295
-0.025171233 -0.053150304 -0.051598296 -0.012190501 -0.0049320855 -0.0406193 -0.033148527 -0.05618045
-0.03413981 -0.0072825653 -0.051271457 -0.04287277 -0.027381182 -0.03459449 -0.0552642 -0.03665542
-0.039755486 -0.00285991 -0.019240271 0.005679677 -0.026238952 -0.03149199 -0.049333725 -0.050333634
-0.03640104 -0.012439718 -0.027122658 -0.036996886 -0.0095389895 -0.03808275 -0.025027648 -0.035196647
-0.010514748 -0.03571891 -0.05928858 -0.021172391 -0.035802294 -0.026604867 0.014909536 -0.061146725
-0.02597824 0.012581815 -0.014782628 -0.05429365 0.0019948664 -0.0536899 -0.017917592 -0.042950764
-0.035592455 0.006135229 -0.002443105 0.0167652 0.02820154 0.013979077 0.027516384 0.007219296
-0.032033592 -0.029409163 0.012328085 -0.032835077 -0.034755684 0.006321177 -0.034328308 -0.013998166
-0.02839011 0.02456382 -0.0039136335 -0.0010990389 -0.016086623 0.026417486 -0.034561105 0.0317904
-0.013452074 0.0054025725 0.0028825887 -0.043072294 -0.04212317 -0.0035019154 -0.05546881 -0.047934446
00000000: ad0c 38bd 91ee 3cbd c3f8 923a 1b3f 2fbd
00000010: edee ccbc 2211 cebc 0baf 69bd 461c b7bc
00000020: 2a3a 32bd 748b e7bc c8ab 3abd 39bb 82bb
00000030: 8a00 1fbd 7b61 debc 20df 163b 2a1a 9bbb
00000040: 7104 2fbd 6023 12bd c3f3 6abd 97e2 ecbb
00000050: 99e2 1ebd eb6d c13b 1c97 76bd 4eaa 64bd
00000060: 6b19 06bd ca7c ab3c 07b8 0d3d fc5f edbb
00000070: fe1a ad3c 3eb2 ce3c 9484 a6bb c050 01bb
00000080: 567e a23c 28f1 fabc 3cc9 cabb 2830 b1bb
00000090: e0a1 a73b c4b8 e9bb e48b 5bbc c0c5 063a
000000a0: 633a f0bc b670 d23c b3ca c5bc 92f0 c03c
000000b0: 4fb6 0a3d 4e94 75bc 54be 45bc d72b 003d
000000c0: 982b b4bb 9ca2 393c afd6 27bb a6a8 9d3b
000000d0: 10ff 0ebd 1b6b 00bd 5eb1 75bd c3bc 19bb
000000e0: 1c03 0ebd 2a22 a5bc a9ac 20bd 9ee8 8abb
000000f0: 858b 1fbd 5ca2 89bc 0826 953b 1f16 f2bc
00000100: ccca 593c 8336 3ebd c738 263c 9b07 1e3c
00000110: 04b2 fdbc 97de 03bd 5a40 0bbd 14f0 a03b
00000120: dd44 f1bb 93ca 13bd a010 5cbc dfc2 f6bc
00000130: 7477 debc da12 9c3c 2253 f23c b0b0 a23c
00000140: fa97 1abc 9da6 cbbc fb6c 0c3d 3a86 ed3c
00000150: 9f0f 89bc 4017 77bc deab 9c3c 3cc1 653c
00000160: 58c5 f7bc 6206 893c c0fe be3b 1ad5 92bc
00000170: c0f6 37bb 4050 cd3a 689d ddbc b09b 163c
00000180: 45a4 093d fe19 92bc 7cec 673c 7840 adbc
00000190: d5f6 c8bc e284 8abc 71b2 65bd 48e1 21bd
000001a0: 1197 16bd a6bf adbc 865e c93b 0e55 633b
000001b0: 40e8 d93b 95db a2ba c800 67bc cc65 7cbc
000001c0: f986 42bc 6105 64bd 24f5 63bd 3d7c 3abd
000001d0: 5809 02bd 791c 153c 2562 31bc 127b e73b
000001e0: 6760 32bc ef16 f2bb cc79 6dbd 52e4 263a
000001f0: 9997 2ebd 70ff 0d3c 867e 1abc f29d 37bd
00000200: f9c8 803a 2146 90bc 6ef7 7439 6504 99bc
00000210: ae00 60bd b799 69bb 4c54 f0bc 0f5e 59bd
00000220: 55de 3cbd 2907 053c 8488 163c 38a0 a93b
00000230: df7a 0cbd 2e45 963a 8f9d a5bc c604 6cbd
00000240: 7bc8 b7bc 88ed 60bc 74b0 91b9 aa52 353b
00000250: 10f3 02bd bf2f 53bc e5dc a4bc acc3 d13b
00000260: 907f a8bb fe1c e53b 9d29 c8bc 47d9 76bc
00000270: fff5 543c 4c96 f23a 0d08 80bc f1e7 ed3b
00000280: 3194 24bd 8fb2 2dbb 992b 82bb 3df5 56bc
00000290: c7e6 c8bc b66b 98bc 7151 6ebd 7802 c5bc
000002a0: 05a8 5bba d1f6 82b9 7a5e 75bd 55f2 69bc
000002b0: 141e d3bc 6548 24bd 33e6 8bbb 1a6f 823b
000002c0: e733 cebc 22b4 59bd bc58 53bd abba 47bc
000002d0: 559d a1bb 6c60 26bd c0c6 07bd 791d 66bd
000002e0: 2fd6 0bbd 96a2 eebb 0502 52bd 5c9b 2fbd
000002f0: 804e e0bc f4b2 0dbd b75c 62bd fe23 16bd
00000300: a6d6 22bd 546d 3bbb c69d 9dbc 951c ba3b
00000310: 12f3 d6bc bffd 00bd 2912 4abd a42a 4ebd
00000320: 4219 15bd f5cf 4bbc 5630 debc 0c8a 17bd
00000330: 6c49 1cbc a8fc 1bbd c806 cdbc 5c2a 10bd
00000340: 0d46 2cbc fe4d 12bd 95d8 72bd b971 adbc
00000350: 6da5 12bd 73f2 d9bc 2047 743c fd74 7abd
00000360: 51d0 d4bc f523 4e3c d632 72bc 0563 5ebd
00000370: 4ebc 023b f1e9 5bbd eac7 92bc 24ed 2fbd
00000380: 65c9 11bd 080a c93b 801c 20bb 2c57 893c
00000390: ea06 e73c 8008 653c 0a6a e13c d88f ec3b
000003a0: a835 03bd 7ceb f0bc bcfb 493c 137e 06bd
000003b0: fa5b 0ebd e021 cf3b d79b 0cbd 9058 65bc
000003c0: 6092 e8bc 103a c93c f03d 80bb a00d 90ba
000003d0: 18c8 83bc 7c69 d83c f28f 0dbd a736 023d
000003e0: 1666 5cbc 1008 b13b d0e9 3c3b 936c 30bd
000003f0: 5889 2cbd 6480 65bb 4333 63bd e956 44bd

fc1.bias f4 [64]
-0.055706773 -0.021911973 0.0019491042 0.09443049 -0.04101809 -0.028259229 0.11403856 0.037310872
0.019167753 0.08942478 0.047553174 -0.045688394 -0.02730715 -0.005994832 -0.0666415 0.034846593
-0.03642372 0.03479582 -0.055539172 0.079141386 -0.04622288 0.028963307 0.02223819 0.0065176883
0.00972645 -0.03183264 -0.0008772998 0.049438536 0.04268079 0.021575991 -0.05658537 -0.022601027
-0.058932293 -0.021957267 0.041034807 0.023253595 -0.040611804 -0.035983246 -0.042273548 0.001714499
0.061838854 0.007163557 -0.06877602 0.013483167 0.007814885 -0.035770077 -0.06890795 -0.012057537
0.022188293 -0.029920794 -0.059409667 0.11544986 -0.02479165 -0.049489122 -0.038138457 -0.03319667
-0.021650393 0.018118726 0.055614118 0.005036283 -0.0639667 0.0080613885 -0.02387185 -0.0012028774
00000000: c92c 64bd bd80 b3bc 1679 ff3a c664 c13d
00000010: 9602 28bd e67f e7bc 0c8d e93d 49d3 183d
00000020: b105 9d3c 5724 b73d 1ec7 423d c123 3bbd
00000030: 3fb3 dfbc 4c70 c4bb 577b 88bd 4dbb 0e3d
00000040: 0a31 15bd 1086 0e3d 0b7d 63bd e114 a23d
00000050: 3454 3dbd 7544 ed3c dd2c b63c 5592 d53b
00000060: b05b 1f3c f162 02bd 98fa 65ba 1080 4a3d
00000070: 0dd2 2e3d 22c0 b03c 10c6 67bd ca25 b9bc
00000080: fd62 71bd badf b3bc 1d14 283d 537e be3c
00000090: 9058 26bd 2b63 13bd 0727 2dbd 0ab9 e03a
000000a0: bd4a 7d3d 46bc ea3b 71da 8cbd 80e8 5c3c
000000b0: 010a 003c a583 12bd 9c1f 8dbd fa8c 45bc
000000c0: 39c4 b53c 741c f5bc 8d57 73bd fa70 ec3d
000000d0: dc17 cbbc 1bb5 4abd 1237 1cbd 3bf9 07bd
000000e0: 2a5c b1bc b96d 943c a1cb 633d 6707 a53b
000000f0: f900 83bd ea13 043c e68e c3bc dea9 9dba

fc4.weight f4 [8, 64]
0.03592767 0.0123988325 0.040375378 0.09526562 0.057013378 -0.011964327 0.1429012 -0.12739043
0.11361538 0.016002692 -0.3841889 -0.037753776 -0.10435476 0.036826573 0.078254506 0.024482047
-0.01897353 0.224215 0.052324317 0.020161 -0.00012701725 -0.017571975 0.054935843 0.3131482
0.068968154 -0.014077754 0.0624086 0.0409772 0.07985792 -0.017603697 -0.06950177 -0.08931781
-0.08360288 0.1058297 0.20825386 0.07611117 -0.03608341 -0.08767594 -0.037402872 0.053484242
-0.14984603 0.038905334 0.07197663 0.1010238 0.052102156 0.03298684 0.020453226 -0.020885035
0.034750108 -0.03297128 0.0188907 0.1808596 -0.087401934 -0.0015703903 -0.043265045 0.030123636
0.053698614 -0.10959851 -0.2560798 -0.09424788 0.016442835 0.0027833018 -0.07271949 0.055141233
0.1051005 -0.025909804 0.015123172 0.089580946 -0.014639765 -0.059944563 -0.022989355 -0.193291
0.019998057 0.0037427004 0.019569295 0.040150642 -0.11140217 0.095942035 -0.04992985 -0.164935
-0.024682447 0.05715447 -0.021653486 0.18817836 0.06642988 0.0074746194 0.031693257 0.08475213
-0.16649343 0.0029657625 -0.08055828 0.17509285 -0.11447169 0.06695586 -0.08336842 0.06130305
-0.06577988 -0.10660248 -0.19365016 -0.072412804 -0.044217043 -0.049823936 0.0036067446 0.07865376
-0.31741115 0.30063507 0.10186854 0.098606244 0.11407366 -0.07346383 0.04872147 0.10783732
-0.08596222 -0.059045885 0.0149093075 0.15056902 0.016170382 -0.013425988 0.01730831 -0.06399119
0.0131276725 0.07721042 -0.25084087 -0.0793717 -0.009383955 0.09147983 -0.05720596 -0.058429267
-0.11910792 0.106859595 -0.08668103 0.27653438 -0.060529545 0.011948004 0.09910828 -0.05621169
0.0077530723 0.0019890286 0.040638145 -0.027226672 0.07303658 0.00036105848 0.103783615 0.3390957
0.023557171 -0.0027734675 -0.047330033 -0.029712783 -0.046210974 -0.103006795 -0.038343813 0.10944096
0.051119305 0.05775917 -0.12086892 0.16808869 -0.06704528 0.046919275 -0.02139233 0.05469771
0.08763847 -0.10372849 -0.36996916 0.08131925 -0.07884679 0.059521902 0.10534575 -0.02339886
-0.25113624 0.2619777 -0.08813311 0.20722501 -0.04139612 -0.04935843 -0.040377256 0.045101315
-0.11885707 0.0053709666 -0.030171502 0.039806098 -0.0077105626 -0.0618045 -0.04573777 -0.09114428
-0.030183991 -0.057812817 -0.41528216 0.009177301 0.096594796 0.02202655 0.029912353 0.06009626
0.10612555 0.037532736 0.05209802 0.19039424 0.022510441 -0.1045566 0.18941113 -0.35759312
0.042914473 0.101110056 -0.24175678 0.09255946 0.10706746 -0.03622996 0.035708994 -0.0754656
-0.0554958 -0.15568468 -0.031476784 0.20565331 0.10450451 -0.04099732 -0.041166462 0.2595602
0.079233825 -0.014924696 0.055435177 -0.022540694 -0.07046542 -0.00886985 -0.04928218 0.07133502
-0.00750393 0.089021556 -0.17367549 0.03583626 -0.020415526 -0.056141555 0.10493099 -0.02714382
0.019603567 0.16033505 -0.05414726 -0.21012972 -0.0046828194 0.08075899 0.04569275 0.08915882
0.009473015 0.015030591 0.07392417 0.14673297 0.060164146 0.032876678 -0.03211956 -0.08258313
-0.0742053 0.07923705 0.05858196 -0.0765374 0.11205183 -0.01216954 0.08731219 0.07983133
00000000: e428 133d 7924 4b3c a760 253d 9f1a c33d
00000010: dc86 693d 0606 44bc b154 123e a372 02be
00000020: 2eaf e83d 1418 833c 68b4 c4be b4a3 1abd
00000030: f3b7 d5bd 76d7 163d e643 a03d 938e c83c
00000040: 606e 9bbc 9e98 653e 0652 563d ae28 a53c
00000050: ef2f 05b9 1af3 8fbc 6804 613d f654 a03e
00000060: 2d3f 8d3d 61a6 66bc 29a0 7f3d b5d7 273d
00000070: 8d8c a33d a135 90bc f256 8ebd 42ec b6bd
00000080: fd37 abbd 3ebd d83d 8040 553e 2ce0 9b3d
00000090: 33cc 13bd 718f b3bd c133 19bd 4b12 5b3d
000000a0: 3d71 19be 335b 1f3d 7c68 933d 91e5 ce3d
000000b0: 1269 553d 351d 073d 868d a73c 1817 abbc
000000c0: 2156 0e3d e50c 07bd abc0 9a3c 4233 393e
000000d0: c9ff b2bd 8ed5 cdba b036 31bd d8c5 f63c
000000e0: 14f3 5b3d 2f75 e0bd e41c 83be 0805 c1bd
000000f0: 20b3 863c 0e68 363b f5ed 94bd c6db 613d
00000100: ee3e d73d cc40 d4bc 2ec7 773c 3776 b73d
00000110: a0db 6fbc 6e88 75bd 2c54 bcbc 13ee 45be
00000120: f7d2 a33c 1848 753b c94f a03c 0075 243d
00000130: d226 e4bd 427d c43d 3e83 4cbd b8e4 28be
00000140: d832 cabc ce1a 6a3d a762 b1bc d4b1 403e
00000150: 640c 883d a7ed f43b cad0 013d 8692 ad3d
00000160: 417d 2abe 3d5d 423b bdfb a4bd 8a4b 333e
00000170: 2270 eabd 2720 893d 10bd aabd e818 7b3d
00000180: 9ab7 86bd 6752 dabd 3a4c 46be 2a4d 94bd
00000190: ee1c 35bd 2f14 4cbd 225f 6c3b 3915 a13d
000001a0: b783 a2be d7ec 993e 74a0 d03d 12f2 c93d
000001b0: 739f e93d 3474 96bd 2a90 473d d0d9 dc3d
000001c0: f60c b0bd 19da 71bd 2b46 743c c42e 1a3e
000001d0: c077 843c adf8 5bbc 28ca 8d3c d00d 83bd
000001e0: 7315 573c 7f20 9e3d 376e 80be a18d a2bd
000001f0: 29bf 19bc c759 bb3d cc50 6abd 8753 6fbd
00000200: daee f3bd 34d9 da3d d385 b1bd ea95 8d3e
00000210: d4ed 77bd 90c1 433c 48f9 ca3d 3b3e 66bd
00000220: 7c0d fe3b 5d5a 023b 2f74 263d 780a dfbc
00000230: 3494 953d 734c bd39 818c d43d f49d ad3e
00000240: f8fa c03c 10c3 35bb 23dd 41bd 3968 f3bc
00000250: b847 3dbd 3af5 d2bd 670e 1dbd 9522 e03d
00000260: 7a62 513d e194 6c3d 208a f7bd 711f 2c3e
00000270: 094f 89bd 6d2e 403d f83e afbc b50a 603d
00000280: cc7b b33d 9a6f d4bd 996c bdbe b58a a63d
00000290: 6d7a a1bd 3dcd 733d 83bf d73d f7ae bfbc
000002a0: ee94 80be f121 863e 227f b4bd cb32 543e
000002b0: fa8e 29bd 112c 4abd 9f62 25bd 28bc 383d
000002c0: 566b f3bd effe af3b 3a2a f7bc b80b 233d
000002d0: e3a8 fcbb b726 7dbd 8757 3bbd daa9 babd
000002e0: 6b44 f7bc 22cd 6cbd dd9f d4be 645c 163c
000002f0: 7ed3 c53d 0671 b43c c00a f53c 7f27 763d
00000300: 5a58 d93d edbb 193d bc64 553d b5f6 423e
00000310: d167 b83c c521 d6bd fef4 413e 7216 b7be
00000320: 16c7 2f3d ca12 cf3d 178f 77be d08f bd3d
00000330: 2f46 db3d de65 14bd 9843 123d b58d 9abd
00000340: 904f 63bd ce6b 1fbe cded 00bd c896 523e
00000350: 7606 d63d ceec 27bd 2a9e 28bd 13e5 843e
00000360: 5845 a23d b686 74bc ff0f 633d 43a7 b8bc
00000370: 2d50 90bd d952 11bc 1cdc 49bd 1818 923d
00000380: 87e3 f5bb ef50 b63d fdd7 31be 0bc9 123d
00000390: 763e a7bc b0f4 65bd 0fe6 d63d b75c debc
000003a0: a997 a03c df2e 243e 84c9 5dbd 3f2c 57be
000003b0: 5672 99bb f864 a53d 5228 3b3d e698 b63d
000003c0: b434 1b3c de42 763c 8e65 973d 2b41 163e
000003d0: ae6e 763d b2a9 063d cd8f 03bd 5821 a9bd
000003e0: f3f8 97bd 0947 a23d a3f3 6f3d a4bf 9cbd
000003f0: 6e7b e53d c062 47bc bcd0 b23d 9c7e a33d

fc4.bias f4 [8]
0.01755094 0.00054981274 -0.047633983 0.21254739 0.13302283 0.076722465 -0.041456304 0.22486709
00000000: fdc6 8f3c 4f21 103a da1b 43bd 06a6 593e
00000010: 2337 083e ab20 9d3d 16ce 29bd 8f43 663e

conv1.weight f4 [16, 2, 4, 4]
-0.14208926 0.904562 0.7042709 1.3221774 -0.29261085 -0.15394892 -0.038122237 0.92801344
-0.23418725 -0.14880784 -0.32531154 0.4403022 0.5439803 0.4256008 -0.15387541 0.082251966
0.020965602 -0.079781376 -0.07914326 -0.04044852 -0.019414004 0.065472364 -0.0894081 -0.21318068
0.01712091 -0.14362074 0.11632231 0.08130535 0.07196591 0.13452668 -0.093588024 -0.053681273
-0.34187084 -0.28195944 -0.29539463 -0.45645186 -0.25352985 -0.34628174 -0.37774786 0.63457346
-0.44310412 -0.059196945 0.071971714 -0.14019582 -0.36961055 -0.3946279 0.42732587 -0.5775688
-0.047693074 -0.10392365 -0.13546163 -0.08634856 0.080227375 0.05929587 0.029962795 -0.0287577
-0.09645865 -0.18793045 -0.08730055 0.1200941 0.14273721 -0.12267422 -0.07393613 -0.43685356
-0.33757082 -0.3997945 -0.25987908 -0.3978786 -0.48407605 -0.31941935 -0.38330612 -0.56172127
-0.22424214 -0.47860706 -0.3115529 -0.4390515 -0.5515407 -0.5560165 -0.55720526 -0.63181955
0.0667973 0.14556372 0.104610175 0.13989837 0.031607125 0.104274265 0.16932024 -0.12468598
0.18712033 -0.029864725 0.12803806 -0.010572462 0.045414157 0.055015936 0.0017181447 0.014819437
0.31261867 -0.23153491 -0.09856126 0.8679005 -0.089993514 0.16776876 -0.2227538 -0.29434916
0.43657556 -0.33484662 -0.123892084 -0.16950792 0.36122113 0.04637846 0.43722048 0.6400786
-0.16640273 0.26122358 0.13833827 0.16078413 0.011812269 0.14070863 0.19118641 -0.046911914
0.06596367 -0.018370915 -0.3771525 0.11929096 0.08959592 0.0099859545 0.10125594 -0.46024612
0.91003615 0.33084926 0.40170088 0.80664057 0.6480766 -0.44853127 0.5330652 0.8839779
0.40712678 0.08229019 0.31767586 -0.03192063 0.3540245 -0.14679831 0.78968096 1.1500491
-0.19536996 0.041926224 -0.19047719 0.032041986 -0.028206578 0.1304978 -0.15665369 -0.09077785
0.09241708 -0.17840846 0.052153368 -0.029080288 0.015196757 -0.11336494 -0.07589473 0.06938155
0.79208034 0.07654914 0.18538027 0.6363299 0.37403175 0.12916799 0.20735945 -0.35839254
0.3579429 0.5019589 0.010425651 0.708997 0.33721015 0.09166902 1.1762195 2.1148515
-0.08501889 0.06096812 -0.12089568 -0.04993014 -0.012020603 -0.05242571 0.0065709585 -0.025380077
-0.01717654 0.19049256 0.10931501 0.20111546 -0.039199233 0.030075455 0.017550318 -0.10760671
-0.32699662 0.4734282 -0.18316342 -0.29676795 1.1129413 0.57158744 0.46702915 0.021773478
0.2308053 -0.3327364 0.2990057 -0.042325154 -0.25630718 -0.19441092 0.26896703 -0.397528
-0.15879208 -0.18267739 -0.18162408 -0.115679845 0.07636068 0.0782786 -0.18723078 0.16618195
0.08880582 -0.17812392 -0.18524462 -0.06677265 -0.047719177 -0.027317267 -0.054444313 -0.11890014
0.23431693 0.24220772 0.58797 1.2400353 -0.073159575 -0.15754315 1.0621051 1.9405521
0.34658134 -0.28475276 0.028816255 0.9152343 0.35036668 0.30663633 -0.357185 0.5911726
0.054415844 -0.19604924 -0.074338354 -0.025441477 0.11575624 0.08526355 0.062917225 -0.24241555
0.010499354 0.1101472 0.15919381 -0.027160008 0.10582677 0.015102705 -0.0045470884 0.19285786
00000000: d97f 11be 6091 673f 194b 343f 1c3d a93f
00000010: 17d1 95be c9a4 1dbe 1026 1cbd 4a92 6d3f
00000020: c8ce 6fbe 1561 18be 3c8f a6be 4a6f e13e
00000030: 4b42 0b3f 59e8 d93e 8491 1dbe b873 a83d
00000040: 0ec0 ab3c 6b64 a3bd dd15 a2bd 59ad 25bd
00000050: 1e0a 9fbc 6016 863d 981b b7bd 094c 5abe
00000060: 2741 8c3c 5111 13be 643a ee3d 6b83 a63d
00000070: dd62 933d 5dc1 093e 14ab bfbd e5e0 5bbd
00000080: b209 afbe fd5c 90be f73d 97be 0fb4 e9be
00000090: aace 81be d74b b1be 2b68 c1be 6873 223f
000000a0: 8bde e2be 7f78 72bd e865 933d 7e8f 0fbe
000000b0: 983d bdbe ab0c cabe 75ca da3e 8ddb 13bf
000000c0: d059 43bd ecd5 d4bd 74b6 0abe 84d7 b0bd
000000d0: 404e a43d 3ae0 723d 8974 f53c 4595 ebbc
000000e0: 1d8c c5bd d770 40be a1ca b2bd e5f3 f53d
000000f0: b429 123e 9f3c fbbd d36b 97bd 45ab dfbe
00000100: 15d6 acbe ddb1 ccbe df0e 85be beb6 cbbe
00000110: d1d8 f7be ef8a a3be b340 c4be f7cc 0fbf
00000120: bb9f 65be fc0b f5be dd83 9fbe 5ccb e0be
00000130: c531 0dbf 1957 0ebf 01a5 0ebf edbe 21bf
00000140: 06cd 883d a80e 153e dc3d d63d 8541 0f3e
00000150: 7976 013d bf8d d53d 4962 2d3e 5d5b ffbd
00000160: 799c 3f3e dea6 f4bc 691c 033e 1f38 2dbc
00000170: 3204 3a3d 6458 613d 5f33 e13a 39cd 723c
00000180: 8e0f a03e 7d17 6dbe 7cda c9bd ba2e 5e3f
00000190: 854e b8bd 93cb 2b3e 9219 64be efb4 96be
000001a0: d586 df3e 0471 abbe 22bb fdbd 7c93 2dbe
000001b0: faf1 b83e 57f7 3d3d 5ddb df3e 31dc 233f
000001c0: 7a65 2abe 19bf 853e 8ca8 0d3e 98a4 243e
000001d0: 3f88 413c ec15 103e 5fc6 433e b526 40bd
000001e0: f617 873d 9a7e 96bc 221a c1be d24e f43d
000001f0: 117e b73d 219c 233c 465f cf3d 61a5 ebbe
00000200: 21f8 683f 1365 a93e bdab cd3e ff7f 4e3f
00000210: 59e8 253f e4a5 e5be f676 083f 604c 623f
00000220: ec72 d03e c287 a83d 69a6 a23e 35bf 02bd
00000230: b342 b53e 4c52 16be 8828 4a3f cf34 933f
00000240: 100f 48be d5ba 2b3d 740c 43be 753e 033d
00000250: 7b11 e7bc 37a1 053e d369 20be bde9 b9bd
00000260: 2b45 bd3d b5b0 36be c59e 553d c939 eebc
00000270: d2fb 783c e12b e8bd b26e 9bbd ea17 8e3d
00000280: c7c5 4a3f ccc5 9c3d 53d4 3d3e 84e6 223f
00000290: 1781 bf3e 9d44 043e 0956 543e 3a7f b7be
000002a0: 4b44 b73e 6180 003f 5ad0 2a3c d480 353f
000002b0: cfa6 ac3e f8bc bb3d 5c8e 963f ba59 0740
000002c0: 621e aebd b5b9 793d 2798 f7bd 8c83 4cbd
000002d0: 10f2 44bc 57bc 56bd 3251 d73b e1e9 cfbc
000002e0: d1b5 8cbc 7b10 433e 8ce0 df3d 36f1 4d3e
000002f0: 608f 20bd cd60 f63c afc5 8f3c e860 dcbd
00000300: 1a6c a7be 2e65 f23e 318f 3bbe f8f1 97be
00000310: dc74 8e3f 8e53 123f 721e ef3e 4b5e b23c
00000320: 3958 6c3e 6d5c aabe 4617 993e 245d 2dbd
00000330: b23a 83be a813 47be 0cb6 893e ca88 cbbe
00000340: 649a 22be c80f 3bbe aafb 39be 8ee9 ecbd
00000350: fd62 9c3d 8850 a03d 6db9 3fbe 9a2b 2a3e
00000360: d3df b53d 1e66 36be c4b0 3dbe 19c0 88bd
00000370: 2f75 43bd 76c8 dfbc 0001 5fbd eb81 f3bd
00000380: c7f0 6f3e 4d05 783e 3485 163f 7ab9 9e3f
00000390: b0d4 95bd fe52 21be 0ff3 873f 0364 f83f
000003a0: 1c73 b13e 1dcb 91be 1110 ec3c cc4c 6a3f
000003b0: 4363 b33e 70ff 9c3e f4e0 b6be 1657 173f
000003c0: 26e3 5e3d 22c1 48be b53e 98bd a56a d0bc
000003d0: 9c11 ed3d a89e ae3d bfda 803d c83b 78be
000003e0: 7c05 2c3c db94 e13d b403 233e aa7e debc
000003f0: b5bb d83d 5671 773c beff 94bb 887c 453e

conv1.bias f4 [16]
0.08748756 0.29632556 0.26925156 -0.06822877 0.24031048 0.035160214 0.17507799 -0.040294062
-0.019568704 0.06932028 -0.012372285 0.33293885 0.24085933 0.26816693 0.15571152 0.20482922
00000000: ae2c b33d fcb7 973e 57db 893e 86bb 8bbd
00000010: f313 763e 2804 103d a547 333e 630b 25bd
00000020: 8c4e a0bc caf7 8d3d 20b5 4abc f676 aa3e
00000030: d4a3 763e 2d4d 893e d772 1f3e c0be 513e

conv2.weight f4 [32, 16, 4, 4]
-0.14845929 -0.07264085 -0.12427891 -0.078626685 -0.050744902 -0.03084317 0.012382264 0.009952323
0.031004325 0.014145967 -0.010031934 -0.07724535 -0.04432 0.017158633 0.016623095 -0.040708113
0.0801235 -0.019964363 0.072938226 0.06754034 0.089184545 0.026140196 -0.008725702 0.024887644
-0.0042177592 0.04188887 0.029599058 0.09083199 0.036827426 0.019795809 -0.01648144 0.04972171
0.09891225 0.040970944 -0.0118166385 0.0404346 0.0030034455 -0.020529937 -0.023124605 -0.0010118978
0.06472298 0.009301572 0.09376287 0.009634056 0.021687394 0.100379035 0.011050291 0.1196768
-0.10245562 -0.049494863 0.002006778 0.006420363 -0.14182954 -0.082716934 0.056799863 -0.05425793
-0.12559916 0.00048440992 -0.10395737 -0.01672149 -0.08547662 -0.059761457 -0.011761487 0.008700115
-0.061368883 -0.10941407 0.016068904 -0.043529168 -0.08266358 -0.10509972 0.0039041745 -0.01145212
-0.090534136 -0.10871909 -0.08327886 -0.090475224 -0.1370221 -0.025189633 -0.07387302 -0.09178664
-0.15007581 -0.14539084 -0.067267284 -0.0582549 -0.16581175 -0.1513436 -0.10987301 -0.18040532
-0.12962657 -0.15440987 -0.083841644 -0.12622893 0.0004015093 -0.10049692 -0.13134955 -0.28089714
-0.08547808 -0.066110454 0.016565466 0.019165434 -0.08635131 -0.032476462 -0.005320648 -0.039125316
-0.002939035 0.01657258 -0.0007605908 -0.041254707 0.02946434 0.060947943 -0.0040759156 0.006449104
-0.14488608 -0.16585085 -0.19985957 -0.2319007 -0.11881472 -0.007955326 -0.13303407 -0.2351359
-0.13818073 -0.06705222 -0.11584665 -0.048900716 -0.12269094 -0.14756829 -0.13361982 -0.30175543
-0.03878057 -0.11104603 -0.14138357 -0.101516925 -0.06266401 -0.061059736 0.029460793 0.036450252
-0.056907255 -0.086636834 -0.04162639 -0.116327845 -0.07834002 0.033944115 0.0039612586 0.05578267
-0.23164351 -0.056887854 -0.08668382 -0.041797325 -0.12969035 -0.057792056 -0.009919566 -0.037170842
-0.10007212 -0.047556356 0.010379478 -0.010914329 -0.01134169 -0.08571411 0.011327689 -0.0074627567
-0.3270572 -0.16609414 -0.12915474 -0.18225905 -0.24345261 -0.21342841 -0.11546643 -0.18262768
-0.1189108 -0.07735016 -0.12289812 -0.10030661 -0.0072100745 -0.027955195 -0.18947166 -0.21949665
0.03182425 0.059221365 0.08829914 -0.02440068 -0.0063212416 0.054818545 -0.041320503 0.015187223
0.028013626 -0.015901227 0.042809654 0.07533689 0.08884671 0.026142305 0.033372477 0.04899806
0.09078627 -0.016776258 0.063440986 0.07441436 0.08747439 -0.03441674 0.039545882 0.09307237
0.065265395 -0.033535253 0.051313598 0.013356183 0.05936539 0.073137686 0.088196024 0.02722067
0.030908866 0.029510297 0.06996263 -0.00037240863 0.084880196 0.021320974 -0.028649332 0.08624323
0.05680453 0.060406856 0.040211886 0.011183231 -0.0051995683 0.018539272 0.06944068 0.059848797
0.029482542 0.011826929 0.0024999352 -0.022394205 0.0184546 0.028341873 -0.017831536 -0.004451098
-0.0014668108 -0.037731424 -0.0428284 0.03939723 0.01237923 0.05765728 -0.025556628 -0.020303348
0.0013062754 0.012560401 0.030205788 0.0086476775 0.042245135 0.006579016 0.06953219 0.05427132
0.02404551 -0.011925228 -0.04617633 -0.0385307 0.04244783 -0.017157672 -0.011259878 -0.04486779
00000000: b605 18be bac4 94bd f185 febd 0707 a1bd
00000010: e3d9 4fbd d1aa fcbc fbde 4a3c 110f 233c
00000020: c8fc fd3c 7cc4 673c fb5c 24bc cf32 9ebd
00000030: e388 35bd 4390 8c3c 282d 883c 8dbd 26bd
00000040: ca17 a43d 4e8c a3bc a360 953d 9752 8a3d
00000050: 63a6 b63d f723 d63c 3ff6 0ebc 2ce1 cb3c
00000060: 2135 8abb aa93 2b3d b979 f23c 1f06 ba3d
00000070: 5bd8 163d d22a a23c 1604 87bc fea8 4b3d
00000080: 8192 ca3d 26d1 273d 939a 41bc c09e 253d
00000090: 74d5 443b 662e a8bc d06f bdbc a8a1 84ba
000000a0: 7b8d 843d 9f65 183c bf06 c03d 29d8 1d3c
000000b0: c3a9 b13c 8693 cd3d 480c 353c 1c19 f53d
000000c0: 41d4 d1bd 20bb 4abd 2684 033b e961 d23b
000000d0: c33b 11be 7f67 a9bd f9a6 683d 903d 5ebd
000000e0: 119d 00be 66f8 fd39 9ae7 d4bd 82fb 88bc
000000f0: 5e0e afbd 6ec8 74bd 41b3 40bc ed8a 0e3c
00000100: f05d 7bbd 7c14 e0bd efa2 833c a44b 32bd
00000110: 864b a9bd 863e d7bd 2edd 7f3b aca1 3bbc
00000120: f669 b9bd 1da8 debd 1b8e aabd 134b b9bd
00000130: 854f 0cbe 7d5a cebc bd4a 97bd a2fa bbbd
00000140: 79ad 19be 56e1 14be 6ec3 89bd b19c 6ebd
00000150: 8eca 29be d1f9 1abe 1a05 e1bd 2cbc 38be
00000160: d4bc 04be 9f1d 1ebe 2bb5 abbd 2842 01be
00000170: ab81 d239 54d1 cdbd 7f80 06be c0d1 8fbe
00000180: 220f afbd eb64 87bd 4db4 873c d400 9d3c
00000190: f5d8 b0bd 0a06 05bd d558 aebb de41 20bd
000001a0: d39c 40bb 38c3 873c 6262 47ba b2fa 28bd
000001b0: 335f f13c 8da4 793d 428f 85bb 0153 d33b
000001c0: 045d 14be ced4 29be fda7 4cbe 6177 6dbe
000001d0: 2255 f3bd 0e57 02bc 153a 08be 77c7 70be
000001e0: 407f 0dbe ad52 89bd 0241 edbd 1e4c 48bd
000001f0: 6345 fbbd 241c 17be a2d3 08be b07f 9abe
00000200: 60d8 1ebd 1a6c e3bd dbc6 10be 1be8 cfbd
00000210: fd55 80bd c619 7abd c357 f13c dc4c 153d
00000220: 9517 69bd a76e b1bd 6f80 2abd 4b3d eebd
00000230: bb70 a0bd fc08 0b3d 72cd 813b 5e7c 643d
00000240: f533 6dbe 3d03 69bd 4987 b1bd ac33 2bbd
00000250: 8ccd 04be 5db7 6cbd ad85 22bc 7440 18bd
00000260: 9df2 ccbd 74ca 42bd b00e 2a3c 04d2 32bc
00000270: 7fd2 39bc e18a afbd c597 393c 248a f4bb
00000280: 0b74 a7be 9514 2abe 2441 04be 1ea2 3abe
00000290: a44b 79be fa8c 5abe aa79 ecbd c002 3bbe
000002a0: 8187 f3bd c369 9ebd 02b2 fbbd 8d6d cdbd
000002b0: 7d42 ecbb 4b02 e5bc dc04 42be bbc3 60be
000002c0: 255a 023d 1a92 723d 2ed6 b43d efe3 c7bc
000002d0: 6b22 cfbb 6989 603d b03f 29bd d5d3 783c
000002e0: d57c e53c 4a43 82bc 2d59 2f3d 3a4a 9a3d
000002f0: 44f5 b53d 6328 d63c 94b1 083d 31b2 483d
00000300: 27ee b93d 5d6e 89bc 59ed 813d 8e66 983d
00000310: c625 b33d 91f8 0cbd ddfa 213d ba9c be3d
00000320: dda9 853d 435c 09bd 352e 523d e4d3 5a3c
00000330: 2029 733d 36c9 953d 1ea0 b43d e2fd de3c
00000340: 9734 fd3c 94bf f13c 9148 8f3d d73f c3b9
00000350: abd5 ad3d 53a9 ae3c 01b2 eabc 4aa0 b03d
00000360: deab 683d 2e6d 773d 38b5 243d df39 373c
00000370: 2461 aabb acdf 973c ea36 8e3d 0324 753d
00000380: 5f85 f13c bcc5 413c f4d5 233b 0d74 b7bc
00000390: 1a2e 973c 372d e83c 7113 92bc 84da 91bb
000003a0: 0142 c0ba 448c 1abd d56c 2fbd fd5e 213d
000003b0: 41d2 4a3c 0a2a 6c3d 225c d1bc 3553 a6bc
000003c0: 5437 ab3a 24ca 4d3c 2172 f73c fdae 0d3c
000003d0: 3c09 2d3d c994 d73b e566 8e3d 9b4b 5e3d
000003e0: 17fb c43c 0862 43bc 6423 3dbd 5ed2 1dbd
000003f0: c7dd 2d3d 3f8e 8cbc 5a7b 38bc 4ac7 37bd

conv2.bias f4 [32]
0.10642788 -0.05769033 0.015097896 -0.017412778 0.058743898 0.13620242 0.07463408 0.10786755
0.089761615 -0.043250687 0.0005308425 0.009168494 0.11412751 0.03347808 0.04801858 0.04319313
0.036747452 0.06808921 0.029141748 -0.05761939 0.06994617 0.0129746245 0.040045854 0.004030065
0.056530982 0.11638789 0.028447766 0.08971993 0.032987166 0.04100623 -0.065756835 0.10275414
00000000: dcf6 d93d b24c 6cbd 2a5d 773c 3ea5 8ebc
00000010: 719d 703d a678 0b3e c1d9 983d a9e9 dc3d
00000020: f0d4 b73d a227 31bd 3d28 0b3a 7337 163c
00000030: afbb e93d 5020 093d 21af 443d 48eb 303d
00000040: 7f84 163d 5b72 8b3d adba ee3c 4f02 6cbd
00000050: f03f 8f3d 8593 543c 1f07 243d a30e 843b
00000060: 088d 673d c65c ee3d 4a0b e93c 15bf b73d
00000070: 8d1d 073d 26f6 273d 85ab 86bd c370 d23d

fc1.weight f4 [64, 800]
-0.044933964 -0.046125952 0.0011213053 -0.04278479 -0.025016272 -0.025154654 -0.0570517 -0.022352349
-0.0435125 -0.028264739 -0.04557398 -0.003989604 -0.038818873 -0.027146092 0.0023021176 -0.0047333436
-0.042728845 -0.035678267 -0.057361376 -0.00722916 -0.03879032 0.005902996 -0.060202703 -0.055826478
-0.032739084 0.020933527 0.03459933 -0.0072441082 0.021131035 0.025231477 -0.0050817225 -0.0019731969
0.019835632 -0.03063257 -0.00618854 -0.005407352 0.0051157326 -0.0071326215 -0.013400052 0.00051411614
-0.029324716 0.02568851 -0.024144506 0.023552213 0.03386527 -0.014988972 -0.012069304 0.03129181
-0.005498361 0.011330273 -0.002561014 0.004811364 -0.034911215 -0.031352144 -0.059983604 -0.0023458458
-0.034670934 -0.020157892 -0.03922716 -0.004239156 -0.038951416 -0.016801052 0.004551653 -0.029551564
0.013292979 -0.046438705 0.010145373 0.009645368 -0.030968674 -0.0321947 -0.033996917 0.004911432
-0.0073629455 -0.03608186 -0.013431698 -0.030122219 -0.027156569 0.019051958 0.029580656 0.019859642
-0.009435648 -0.02485972 0.03428362 0.028994668 -0.016731082 -0.015081227 0.019124921 0.014023121
-0.030245468 0.016726676 0.0058287084 -0.01792388 -0.0028070658 0.0015664175 -0.027052596 0.009192392
0.033603925 -0.01783466 0.014155503 -0.021148905 -0.024531761 -0.016909067 -0.056078378 -0.039521486
-0.036765162 -0.02120955 0.0061453013 0.0034688148 0.006650001 -0.001242506 -0.014099307 -0.01540513
-0.011873 -0.055669192 -0.055653706 -0.04552864 -0.031747192 0.009101027 -0.010826622 0.0070642317
-0.010887242 -0.007387988 -0.057977483 0.000636642 -0.042625044 0.008666858 -0.00942958 -0.044828363
0.000982552 -0.017611565 0.00023361828 -0.018678853 -0.05468815 -0.00356446 -0.02933707 -0.053068217
-0.04611047 0.008119383 0.009187821 0.0051765703 -0.034296867 0.0011464709 -0.020216731 -0.05762174
-0.022434464 -0.013728507 -0.00027788023 0.002766768 -0.031970084 -0.0128898015 -0.020124862 0.0064014997
-0.0051421598 0.0069919815 -0.024433905 -0.015066451 0.012998103 0.0018507927 -0.015628839 0.0072603156
-0.04018039 -0.0026504134 -0.0039724824 -0.013119993 -0.024524106 -0.018606048 -0.058183137 -0.024049029
-0.0008379224 -0.00024979425 -0.059904553 -0.014278968 -0.025771178 -0.040108103 -0.0042693852 0.0039805295
-0.025171233 -0.053150304 -0.051598296 -0.012190501 -0.0049320855 -0.0406193 -0.033148527 -0.05618045
-0.03413981 -0.0072825653 -0.051271457 -0.04287277 -0.027381182 -0.03459449 -0.0552642 -0.03665542
-0.039755486 -0.00285991 -0.019240271 0.005679677 -0.026238952 -0.03149199 -0.049333725 -0.050333634
-0.03640104 -0.012439718 -0.027122658 -0.036996886 -0.0095389895 -0.03808275 -0.025027648 -0.035196647
-0.010514748 -0.03571891 -0.05928858 -0.021172391 -0.035802294 -0.026604867 0.014909536 -0.061146725
-0.02597824 0.012581815 -0.014782628 -0.05429365 0.0019948664 -0.0536899 -0.017917592 -0.042950764
-0.035592455 0.006135229 -0.002443105 0.0167652 0.02820154 0.013979077 0.027516384 0.007219296
-0.032033592 -0.029409163 0.012328085 -0.032835077 -0.034755684 0.006321177 -0.034328308 -0.013998166
-0.02839011 0.02456382 -0.0039136335 -0.0010990389 -0.016086623 0.026417486 -0.034561105 0.0317904
-0.013452074 0.0054025725 0.0028825887 -0.043072294 -0.04212317 -0.0035019154 -0.05546881 -0.047934446
00000000: ad0c 38bd 91ee 3cbd c3f8 923a 1b3f 2fbd
00000010: edee ccbc 2211 cebc 0baf 69bd 461c b7bc
00000020: 2a3a 32bd 748b e7bc c8ab 3abd 39bb 82bb
00000030: 8a00 1fbd 7b61 debc 20df 163b 2a1a 9bbb
00000040: 7104 2fbd 6023 12bd c3f3 6abd 97e2 ecbb
00000050: 99e2 1ebd eb6d c13b 1c97 76bd 4eaa 64bd
00000060: 6b19 06bd ca7c ab3c 07b8 0d3d fc5f edbb
00000070: fe1a ad3c 3eb2 ce3c 9484 a6bb c050 01bb
00000080: 567e a23c 28f1 fabc 3cc9 cabb 2830 b1bb
00000090: e0a1 a73b c4b8 e9bb e48b 5bbc c0c5 063a
000000a0: 633a f0bc b670 d23c b3ca c5bc 92f0 c03c
000000b0: 4fb6 0a3d 4e94 75bc 54be 45bc d72b 003d
000000c0: 982b b4bb 9ca2 393c afd6 27bb a6a8 9d3b
000000d0: 10ff 0ebd 1b6b 00bd 5eb1 75bd c3bc 19bb
000000e0: 1c03 0ebd 2a22 a5bc a9ac 20bd 9ee8 8abb
000000f0: 858b 1fbd 5ca2 89bc 0826 953b 1f16 f2bc
00000100: ccca 593c 8336 3ebd c738 263c 9b07 1e3c
00000110: 04b2 fdbc 97de 03bd 5a40 0bbd 14f0 a03b
00000120: dd44 f1bb 93ca 13bd a010 5cbc dfc2 f6bc
00000130: 7477 debc da12 9c3c 2253 f23c b0b0 a23c
00000140: fa97 1abc 9da6 cbbc fb6c 0c3d 3a86 ed3c
00000150: 9f0f 89bc 4017 77bc deab 9c3c 3cc1 653c
00000160: 58c5 f7bc 6206 893c c0fe be3b 1ad5 92bc
00000170: c0f6 37bb 4050 cd3a 689d ddbc b09b 163c
00000180: 45a4 093d fe19 92bc 7cec 673c 7840 adbc
00000190: d5f6 c8bc e284 8abc 71b2 65bd 48e1 21bd
000001a0: 1197 16bd a6bf adbc 865e c93b 0e55 633b
000001b0: 40e8 d93b 95db a2ba c800 67bc cc65 7cbc
000001c0: f986 42bc 6105 64bd 24f5 63bd 3d7c 3abd
000001d0: 5809 02bd 791c 153c 2562 31bc 127b e73b
000001e0: 6760 32bc ef16 f2bb cc79 6dbd 52e4 263a
000001f0: 9997 2ebd 70ff 0d3c 867e 1abc f29d 37bd
00000200: f9c8 803a 2146 90bc 6ef7 7439 6504 99bc
00000210: ae00 60bd b799 69bb 4c54 f0bc 0f5e 59bd
00000220: 55de 3cbd 2907 053c 8488 163c 38a0 a93b
00000230: df7a 0cbd 2e45 963a 8f9d a5bc c604 6cbd
00000240: 7bc8 b7bc 88ed 60bc 74b0 91b9 aa52 353b
00000250: 10f3 02bd bf2f 53bc e5dc a4bc acc3 d13b
00000260: 907f a8bb fe1c e53b 9d29 c8bc 47d9 76bc
00000270: fff5 543c 4c96 f23a 0d08 80bc f1e7 ed3b
00000280: 3194 24bd 8fb2 2dbb 992b 82bb 3df5 56bc
00000290: c7e6 c8bc b66b 98bc 7151 6ebd 7802 c5bc
000002a0: 05a8 5bba d1f6 82b9 7a5e 75bd 55f2 69bc
000002b0: 141e d3bc 6548 24bd 33e6 8bbb 1a6f 823b
000002c0: e733 cebc 22b4 59bd bc58 53bd abba 47bc
000002d0: 559d a1bb 6c60 26bd c0c6 07bd 791d 66bd
000002e0: 2fd6 0bbd 96a2 eebb 0502 52bd 5c9b 2fbd
000002f0: 804e e0bc f4b2 0dbd b75c 62bd fe23 16bd
00000300: a6d6 22bd 546d 3bbb c69d 9dbc 951c ba3b
00000310: 12f3 d6bc bffd 00bd 2912 4abd a42a 4ebd
00000320: 4219 15bd f5cf 4bbc 5630 debc 0c8a 17bd
00000330: 6c49 1cbc a8fc 1bbd c806 cdbc 5c2a 10bd
00000340: 0d46 2cbc fe4d 12bd 95d8 72bd b971 adbc
00000350: 6da5 12bd 73f2 d9bc 2047 743c fd74 7abd
00000360: 51d0 d4bc f523 4e3c d632 72bc 0563 5ebd
00000370: 4ebc 023b f1e9 5bbd eac7 92bc 24ed 2fbd
00000380: 65c9 11bd 080a c93b 801c 20bb 2c57 893c
00000390: ea06 e73c 8008 653c 0a6a e13c d88f ec3b
000003a0: a835 03bd 7ceb f0bc bcfb 493c 137e 06bd
000003b0: fa5b 0ebd e021 cf3b d79b 0cbd 9058 65bc
000003c0: 6092 e8bc 103a c93c f03d 80bb a00d 90ba
000003d0: 18c8 83bc 7c69 d83c f28f 0dbd a736 023d
000003e0: 1666 5cbc 1008 b13b d0e9 3c3b 936c 30bd
000003f0: 5889 2cbd 6480 65bb 4333 63bd e956 44bd

fc1.bias f4 [64]
-0.055706773 -0.021911973 0.0019491042 0.09377727 -0.04101809 -0.028259229 0.113751255 0.037310872
0.019167753 0.091129385 0.047553174 -0.045688394 -0.02730715 -0.005994832 -0.0666415 0.034846593
-0.03642372 0.03584625 -0.055539172 0.07871218 -0.04622288 0.028963307 0.02223819 0.0062706545
0.010236411 -0.03183264 -0.0008772998 0.04920048 0.04268079 0.021575991 -0.05658537 -0.022601027
-0.058932293 -0.021957267 0.041034807 0.023253595 -0.040611804 -0.035983246 -0.042273548 0.001714499
0.061838854 0.006844071 -0.06877602 0.014616051 0.007814885 -0.035770077 -0.06890795 -0.012057537
0.022188293 -0.029920794 -0.059409667 0.11514793 -0.02479165 -0.049489122 -0.038138457 -0.03319667
-0.021650393 0.018118726 0.055614118 0.005036283 -0.0639667 0.0080613885 -0.02387185 -0.0012028774
00000000: c92c 64bd bd80 b3bc 1679 ff3a 4c0e c03d
00000010: 9602 28bd e67f e7bc 6bf6 e83d 49d3 183d
00000020: b105 9d3c 0ba2 ba3d 1ec7 423d c123 3bbd
00000030: 3fb3 dfbc 4c70 c4bb 577b 88bd 4dbb 0e3d
00000040: 0a31 15bd 84d3 123d 0b7d 63bd da33 a13d
00000050: 3454 3dbd 7544 ed3c dd2c b63c 107a cd3b
00000060: 9fb6 273c f162 02bd 98fa 65ba 7186 493d
00000070: 0dd2 2e3d 22c0 b03c 10c6 67bd ca25 b9bc
00000080: fd62 71bd badf b3bc 1d14 283d 537e be3c
00000090: 9058 26bd 2b63 13bd 0727 2dbd 0ab9 e03a
000000a0: bd4a 7d3d 3b44 e03b 71da 8cbd 2978 6f3c
000000b0: 010a 003c a583 12bd 9c1f 8dbd fa8c 45bc
000000c0: 39c4 b53c 741c f5bc 8d57 73bd aed2 eb3d
000000d0: dc17 cbbc 1bb5 4abd 1237 1cbd 3bf9 07bd
000000e0: 2a5c b1bc b96d 943c a1cb 633d 6707 a53b
000000f0: f900 83bd ea13 043c e68e c3bc dea9 9dba
