DRL-based-path-finding/saved_models/dqn_checkpoint_ep300.pth (torch, 981377 bytes, 32 tensors)

conv1.weight f4 [16, 2, 4, 4]
0	0xbe94350a	-0.28946716
1	0xbec7b4cc	-0.39005125
2	0xbf0601fe	-0.5234679
3	0xbe66aea4	-0.22527558
4	0xbeb5a8b6	-0.3548028
5	0xbf1ab008	-0.6042485
6	0xbcdb9443	-0.026804095
7	0xbe3d3fc4	-0.18481356
8	0xbf27d026	-0.65551984
9	0xbef27524	-0.47354996
10	0xbdd11c0e	-0.10210429
11	0xbeefeac6	-0.46858805
12	0xbef2d0e4	-0.47424996
13	0xbd44d964	-0.048058882
14	0xbe9e3bd2	-0.30905014
15	0xbe160d4c	-0.1465351
16	0x3d66babe	0.056330435
17	0xbe54aea2	-0.20769742
18	0x3e3a7946	0.18210325
19	0x3e0b76da	0.13619557
20	0x3e3bb4bb	0.18330662
21	0xbdd30b7d	-0.103049256
22	0xbd07aae7	-0.03312197
23	0x3d66b873	0.05632825
24	0x3e493a6e	0.19651195
25	0xbb4b01c9	-0.0030976406
26	0xbd9bd099	-0.07608146
27	0x3de9faa8	0.11424762
28	0x3dc6b12a	0.0970176
29	0x3e2df10d	0.16986485
30	0x3c8d421a	0.017243434
31	0xbe0c263c	-0.1368646
32	0x3f5fac4d	0.87372285
33	0x3e589db6	0.21153912
34	0xbed7c4d8	-0.42142367
35	0x3ecdb003	0.4017335
36	0x3f658843	0.89661044
37	0x3ee3381b	0.44378743
38	0x3f61fba8	0.8827462
39	0x3f1d1861	0.61365324
40	0x3f136bc3	0.57586306
41	0x3f3c12f2	0.7346641
42	0x3e8dd3f5	0.27700773
43	0x3f1dea15	0.61685306
44	0x3f2423bd	0.6411703
45	0x3d7bb9d0	0.0614565
46	0x3e54bbf7	0.20774828
47	0x3fa251a7	1.2681168
48	0x3daedbaa	0.08537991
49	0x3de02f07	0.1094647
50	0x3dbb527d	0.09146593
51	0x3de0b861	0.109726675
52	0x3d2d4a9f	0.042307492
53	0x3d0d3d91	0.034482542
54	0x3dda7319	0.106664844
55	0x3e16c5f4	0.1472395
56	0xbddc77ee	-0.10765062
57	0xbde3c7b6	-0.11122076
58	0xbdd82c23	-0.105552934
59	0x3e1d3476	0.15352044
60	0xbb86a330	-0.004108809
61	0x3dc45a17	0.09587496
62	0xbd94075e	-0.07227968
63	0xbc3ffa2f	-0.011717363
64	0xbedbe107	-0.4294512
65	0xbf1b5fb3	-0.606929
66	0xbebf02c4	-0.37306798
67	0x3ed3511f	0.41272828
68	0x3f154fdb	0.58324975
69	0xbe7d2dc4	-0.2472449
70	0xbd84419e	-0.06457828
71	0xbdbea2a6	-0.093083665
72	0x3f73e73c	0.9527471
73	0xbebf1ae6	-0.3732521
74	0xbeff208a	-0.49829513
75	0x3ebb6e95	0.36607805
76	0x3d4689ff	0.048471447
77	0xbe0cf046	-0.13763532
78	0xbecaeab7	-0.39632198
79	0xbf1f3ca9	-0.62201935
80	0x3d32ffb3	0.043700885
81	0xbcb22a77	-0.021748764
82	0x3e16653e	0.14687058
83	0x3b599381	0.0033199491
84	0x3d527254	0.051378563
85	0x3a521f69	0.0008015545
86	0x3e5c6952	0.21524552
87	0x3d24e5ca	0.040258206
88	0x3e11bab2	0.14231375
89	0xbe0d84fb	-0.1382026
90	0xbdfa5314	-0.12222877
91	0xbeba483d	-0.36383238
92	0xbe0daa44	-0.13834482
93	0x3e1e9bc6	0.1548911
94	0xbe70b213	-0.2350543
95	0xbd76a138	-0.060212344
96	0xbed41c72	-0.41427952
97	0xbe797e3b	-0.2436456
98	0xbe66b90e	-0.2253153
99	0xbeb43c32	-0.35202175
100	0xbf002466	-0.5005554
101	0xbf004bfa	-0.5011593
102	0xbed175d9	-0.40910223
103	0xbe5fa9cb	-0.21842115
104	0xbf19c32d	-0.6006344
105	0xbeeddc44	-0.46457112
106	0xbe49b4c7	-0.19697867
107	0xbeb40a53	-0.35164127
108	0xbec69c10	-0.3879094
109	0x3cca3915	0.024685422
110	0xbeebba1a	-0.46040422
111	0xbe7f59dc	-0.24936622
112	0xbcb5158d	-0.022105003
113	0x3d1849a5	0.037179608
114	0x3e1bbd32	0.15208891
115	0x3e328fd3	0.17437677
116	0x3e21b7e4	0.15792805
117	0xbe07d71d	-0.13265653
118	0x3e606ea3	0.21917205
119	0x3c66e82c	0.01409344
120	0xbe4c4858	-0.19949472
121	0xbe04b7e3	-0.12960772
122	0xbe6d6a8e	-0.23185179
123	0xbe384f4d	-0.17999001
124	0xbd8b03ba	-0.0678782
125	0x3e39d572	0.18147829
126	0x3e0f974e	0.14022562
127	0x3e4a581a	0.1976017
128	0x3f88d2aa	1.068929
129	0x3f3f1d7a	0.7465435
130	0x3f220b3d	0.632984
131	0x3f77aa5e	0.96744335
132	0xbe731cb3	-0.23741417
133	0xbe4186e1	-0.18899108
134	0x3e73836d	0.23780604
135	0xbec7d999	-0.390332
136	0x3f3f26cc	0.74668574
137	0xbec70705	-0.38872543
138	0x3e73e77a	0.2381877
139	0xbef5717a	-0.47938138
140	0xbe866324	-0.26247513
141	0xbebfe4e9	-0.37479332
142	0x3f00fd37	0.50386375
143	0xbd1f9ce8	-0.038967997
144	0xbd3fe2d0	-0.046847165
145	0x3ddc0407	0.10742956
146	0xbcf21584	-0.029551275
147	0x3df23e50	0.118282914
148	0x3cca7783	0.02471519
149	0x3dd368a2	0.103226915
150	0xbcb5c903	-0.022190576
151	0xbcb94928	-0.022617891
152	0x3e9fe5fd	0.31230155
153	0x3d726fad	0.059188534
154	0xbe4a3f2b	-0.19750659
155	0x3e01bdb7	0.12670027
156	0x3e3289e7	0.17435418
157	0x3d10eb6d	0.03538077
158	0x3d6c834a	0.057742395
159	0x3e535e9f	0.20641564
160	0xbe9190b3	-0.2843071
161	0x3df498b2	0.11943187
162	0xbd7db5ab	-0.06194083
163	0xbed037be	-0.40667528
164	0x3ee51e1b	0.4474953
165	0x3f15db59	0.5853782
166	0xbc862300	-0.016374111
167	0xbea84003	-0.32861337
168	0xbf3ba1fe	-0.73294055
169	0x3e98a0ab	0.2981008
170	0xbe8676b3	-0.26262435
171	0xbdbf7049	-0.093475886
172	0x3fe25007	1.7680672
173	0x3ee53af5	0.44771543
174	0xbe5fc6fe	-0.21853253
175	0x3ec5baba	0.38619024
176	0xbea51201	-0.32240298
177	0xbdead972	-0.11467256
178	0x3bdea204	0.006794216
179	0x3da8328d	0.08212767
180	0xbc6abb6c	-0.014326911
181	0x3d5eda31	0.054407302
182	0x3d892040	0.06695604
183	0xbd53970b	-0.051657718
184	0x3dccd235	0.10001031
185	0xbd97207c	-0.07379243
186	0x3d6f4457	0.058414783
187	0x3d6abf0a	0.057311095
188	0x3c91ff32	0.017821882
189	0xbf0ab0fd	-0.5417631
190	0xbdfbea27	-0.123005204
191	0xbc48ca59	-0.012255275
192	0xbdbf9114	-0.09353843
193	0x3f6ed76a	0.93297446
194	0xbcc458e6	-0.023968171
195	0xbe22f8e1	-0.15915252
196	0x3f2ec089	0.68262535
197	0x3e2cdb20	0.16880465
198	0x3d237208	0.03990367
199	0xbe8a1101	-0.26966098
200	0x3faf0f34	1.3676515
201	0x3ee296c5	0.44255653
202	0x3d69273b	0.05692218
203	0xbd4a3a75	-0.049372155
204	0xbe9e09b2	-0.30866772
205	0x3f8d6ad3	1.1048225
206	0x3e15e555	0.14638264
207	0xbe9c831b	-0.30568776
208	0x3e04dfef	0.12976049
209	0x3e842b8d	0.25814477
210	0x3c6b8fc7	0.014377541
211	0xba7cee7e	-0.0009648575
212	0xbcb2676d	-0.021777833
213	0xbed217cd	-0.41033784
214	0x3d90ee06	0.07076649
215	0x3c101066	0.008792972
216	0x3d9a3358	0.07529324
217	0xbe7a9bbe	-0.24473473
218	0x3d89b502	0.067239776
219	0xbc782cf6	-0.015147438
220	0xbdaa3b9b	-0.0831215
221	0xbd817abf	-0.0632224
222	0xbe87bc7e	-0.26510996
223	0xbd3955d7	-0.04524788
224	0xbf125a29	-0.57168823
225	0xbdc2a6f3	-0.09504499
226	0x3dc70aae	0.09718834
227	0xbdcc6da1	-0.099818476
228	0xbee7a37e	-0.45241922
229	0xbedc7dc0	-0.4306469
230	0xbe006819	-0.1253971
231	0xbcafd7b5	-0.021465162
232	0xbee6b417	-0.45059273
233	0x3eebeb06	0.46077746
234	0xbdf1faa6	-0.118153855
235	0x3cc0cf25	0.023536274
236	0x3fc968f9	1.573516
237	0x3f170853	0.58997077
238	0xbf044554	-0.51668286
239	0x3e105023	0.1409307
240	0xbdc321e2	-0.09527947
241	0xbe5040c7	-0.2033721
242	0xbdeb2ecb	-0.114835344
243	0xbe34911c	-0.1763348
244	0x3e23a620	0.1598134
245	0x3db89938	0.09013599
246	0xbe0e1bca	-0.13877788
247	0xbe91361c	-0.28361595
248	0x3e2b0ac8	0.16703331
249	0x3e1552e0	0.14582396
250	0xbd0f2a98	-0.03495273
251	0xbded5b5d	-0.11589692
252	0x3e0141da	0.12622777
253	0x3e20db90	0.15708756
254	0xbd5a77ab	-0.05333678
255	0x3eacadee	0.33726448

conv1.bias f4 [16]
0	0x3e22c2ff	0.15894698
1	0x3e1dd8a1	0.15414669
2	0x3eae14d5	0.3400027
3	0x3e90759b	0.28214726
4	0x3d841662	0.06449582
5	0x3dc9d069	0.09854204
6	0x3aea6286	0.0017882145
7	0x3d9d2199	0.07672424
8	0x3e9a0fb8	0.30090117
9	0x3e1db7f5	0.15402205
10	0x3e83f6c8	0.25774217
11	0x3b4a759c	0.0030892855
12	0x3de4fba5	0.1118081
13	0xbd60072a	-0.054694332
14	0x3e3cf393	0.18452291
15	0x3e161c5a	0.14659253

conv2.weight f4 [32, 16, 4, 4]
0	0xbd98addc	-0.07455036
1	0x3ca74c09	0.020421999
2	0xbd369b94	-0.044581965
3	0xbd1aa595	-0.037755568
4	0x3ba790ef	0.005113713
5	0xbd98c9d4	-0.07460371
6	0x3d2c0c3b	0.04200385
7	0xbda94e54	-0.08266893
8	0xbc8e7821	-0.017391266
9	0xbd636254	-0.055513695
10	0x3ca466ae	0.020068493
11	0xbd281a1b	-0.04104052
12	0xbd729bdb	-0.059230667
13	0x3d3432e8	0.04399386
14	0x3cac3f66	0.021026324
15	0xbcf9712d	-0.030449474
16	0xbd974bb1	-0.07387484
17	0xbd71a030	-0.058990657
18	0xbdb090e8	-0.08621389
19	0x3b02084f	0.0019841378
20	0xbd8069af	-0.062701575
21	0xbdc32099	-0.09527702
22	0xbd5cf4e7	-0.053944495
23	0xbd6b8ffc	-0.05751036
24	0xbd36e563	-0.044652354
25	0xbd01910e	-0.031632476
26	0x3cad5028	0.021156386
27	0xbd98481a	-0.07435627
28	0x3ce67b2d	0.028134907
29	0xbd787394	-0.0606571
30	0x3d28430d	0.04107957
31	0x3ccb4413	0.024812734
32	0xbd52b26f	-0.0514397
33	0xbc47d37a	-0.012196416
34	0x3cb9736c	0.022638045
35	0xbca21762	-0.01978654
36	0xbd9c7b69	-0.07640726
37	0xbd52b3d7	-0.05144104
38	0x3d328e77	0.043592896
39	0xbd7bebbd	-0.061504114
40	0x3ae6c7ee	0.0017607191
41	0xbd46adda	-0.04850564
42	0xbd4c9fbf	-0.049957033
43	0x3cfc2502	0.030779365
44	0x3d0ef3a5	0.034900326
45	0x3d622008	0.05520633
46	0x3b591e79	0.0033129735
47	0xbda0533c	-0.07828376
48	0xbc35324e	-0.011059357
49	0xbcbb0a35	-0.022832016
50	0xbc3466ef	-0.011010869
51	0xbd795615	-0.06087311
52	0xbd9428be	-0.072343335
53	0xbdb1731d	-0.08664534
54	0xbd88334f	-0.06650411
55	0xbcf06c7d	-0.029348606
56	0xbc94cf88	-0.018165365
57	0xbd2111a2	-0.039323457
58	0x3cc325f7	0.023821814
59	0xbd6625a2	-0.056188233
60	0x3bb072e5	0.0053847902
61	0x3c63cd5d	0.013903943
62	0xbb7042fa	-0.0036661015
63	0xbc5c9f23	-0.0134656755
64	0xbd19da7d	-0.037561882
65	0x3c96a608	0.018389717
66	0xbc86e183	-0.016464954
67	0x3cda5783	0.026653057
68	0xbbd51790	-0.006503053
69	0x3d07f46b	0.03319208
70	0x3d3bb8ce	0.04583054
71	0x3d2c02bc	0.041994795
72	0x3cab3df5	0.020903567
73	0xbcc36937	-0.023853881
74	0xbdc488b2	-0.09596385
75	0xbd8c97ba	-0.06864877
76	0xbda0812d	-0.07837138
77	0x3ccf1a90	0.02528122
78	0xbc2056cf	-0.009786322
79	0xbd40aed1	-0.047041718
80	0xbcf5ae4a	-0.029990334
81	0xbca234c7	-0.019800557
82	0xbd1ccb5e	-0.038279884
83	0xbd714955	-0.058907825
84	0xbd41b268	-0.047289282
85	0x3ccb23cc	0.024797343
86	0xbc97e46c	-0.018541537
87	0xbdb35e04	-0.087581664
88	0xbd879dfc	-0.0662193
89	0xbdd02383	-0.10163023
90	0xbd13594c	-0.035973832
91	0x3ccaf567	0.02477522
92	0xba219180	-0.0006163344
93	0x3ce660c0	0.028122306
94	0x3caded91	0.021231445
95	0xbc502f50	-0.012706593
96	0x3d47c80d	0.048774768
97	0xbd567210	-0.052354872
98	0x3b1856bc	0.0023245057
99	0x3d0c83e2	0.03430546
100	0xbd7f201a	-0.062286474
101	0xbd40d942	-0.047082193
102	0x3d1a4ac8	0.037668973
103	0x3b401ec5	0.0029315215
104	0xbbdafe9f	-0.006683185
105	0xbd9433fa	-0.07236476
106	0xbc6040a2	-0.013687285
107	0xbc7bec41	-0.015376152
108	0xbb74a508	-0.0037329812
109	0xbd9f0c35	-0.07766
110	0xbc6c1904	-0.014410261
111	0xbd04fa1f	-0.032465097
112	0x3c30bb4c	0.010786843
113	0x3d2b7e31	0.041868392
114	0xbda5cb62	-0.08095433
115	0xbda639ff	-0.081165306
116	0xbd213699	-0.03935871
117	0xbd47fdee	-0.04882615
118	0xbd2bcb4e	-0.041941933
119	0x3d10b213	0.035326075
120	0xbdf05dc5	-0.11736635
121	0xbd555eee	-0.052092485
122	0xbc84964e	-0.016184952
123	0xbd126fb8	-0.035751075
124	0xbd86e63a	-0.06586881
125	0x3ced7ef8	0.028991207
126	0xbcc20dfe	-0.023688313
127	0x3c5d5577	0.013509146
128	0xbca4141f	-0.020029126
129	0xbdaa50d1	-0.08316196
130	0x3cc83f33	0.024444198
131	0x3cbd0f52	0.023078594
132	0x3c52d2cb	0.01286764
133	0xbd08e35e	-0.03341996
134	0xbdd97659	-0.10618276
135	0x3b22f1bb	0.002486332
136	0x3b363baa	0.0027806559
137	0x3c9e3090	0.019310266
138	0xbc8028fd	-0.015644545
139	0xbb9e3ca1	-0.004829005
140	0x3d3c9c57	0.046047535
141	0xbccdbc6a	-0.025114257
142	0xbd8aac66	-0.06771164
143	0xbce88e84	-0.02838827
144	0xbd392d3e	-0.045209162
145	0xbd318265	-0.043337245
146	0xbd710854	-0.058845833
147	0xbd3282a0	-0.043581605
148	0xbd8469bc	-0.0646548
149	0xbd76f39d	-0.06029092
150	0xbb6b15d5	-0.0035871167
151	0x3d49201a	0.04910288
152	0xbd494d82	-0.049146183
153	0xbd5799e6	-0.052637003
154	0xbd9c4b1a	-0.07631512
155	0x3b95948e	0.0045648282
156	0xbd59e684	-0.053198352
157	0xbd897ca3	-0.06713226
158	0xbd82d96d	-0.06389127
159	0xbd84cc88	-0.06484324
160	0x3d3368a0	0.04380095
161	0x3d46d2c0	0.04854083
162	0x3c787382	0.015164258
163	0x3b9321ec	0.004490128
164	0xbda18b08	-0.07887846
165	0xbdbf2d48	-0.093348086
166	0xbd9b5e86	-0.07586388
167	0xbc7e6b57	-0.0155285215
168	0xbd112533	-0.035435867
169	0xbd19725b	-0.037462573
170	0xb9d20d95	-0.0004006444
171	0xbc9ed53c	-0.019388787
172	0xbdd32b56	-0.10311
173	0xbd81a9ac	-0.063311905
174	0xbd7a8988	-0.061166316
175	0xbbcb1158	-0.006197136
176	0x3cf1527a	0.029458273
177	0x3c019592	0.0079091955
178	0xba948b15	-0.0011332954
179	0x3d8648bc	0.06556842
180	0xbd908b05	-0.07057766
181	0xbd33c964	-0.043893233
182	0xbcd555ed	-0.02604195
183	0xbcdd61ff	-0.027024267
184	0x3b121b0e	0.0022293958
185	0x3ccfa429	0.025346832
186	0x3bf873fd	0.0075821863
187	0xbd580255	-0.0527366
188	0xbcc14f84	-0.023597486
189	0xbd35510b	-0.04426674
190	0xbdc1c5b8	-0.0946154
191	0xbd602d43	-0.054730665
192	0xbc8b3e50	-0.016997486
193	0xbb2da6c0	-0.0026497096
194	0x3a6f6890	0.00091327075
195	0xbd28f016	-0.04124459
196	0xbd7f2c56	-0.06229814
197	0xbd8bb542	-0.068216816
198	0xbd89dace	-0.06731187
199	0xbd83db8b	-0.06438359
200	0x3be0f54a	0.0068651782
201	0xbc49fb4f	-0.012327983
202	0x3d31a725	0.043372292
203	0xbca7afa0	-0.020469487
204	0xbbf9cff3	-0.0076236664
205	0xbd7530b0	-0.059860885
206	0xbd65ae6c	-0.056074545
207	0xbd6221c2	-0.055207975
208	0xbc180c72	-0.009280311
209	0x3d6e1311	0.058123652
210	0x3d05293b	0.032510024
211	0x3c052598	0.008126639
212	0xbc25be66	-0.010116195
213	0xbd93636b	-0.07196697
214	0xbde0732d	-0.10959468
215	0xbd952f98	-0.072844684
216	0x3b2e16de	0.0026563923
217	0xbd2e813b	-0.042603713
218	0xbca1d527	-0.01975496
219	0xbbf393c2	-0.0074333856
220	0xbd786ce8	-0.060650736
221	0xbb3f9697	-0.0029234046
222	0x3d11c4b0	0.035587966
223	0xbe1a8bad	-0.15092345
224	0xbcb80b21	-0.022466244
225	0xbcfabcf5	-0.03060768
226	0xbac7e3e8	-0.0015250416
227	0x3b557793	0.0032572492
228	0xbb024043	-0.0019874729
229	0xbccae6dd	-0.024768287
230	0xbd4e8186	-0.050416492
231	0xbd8c2a0d	-0.06843958
232	0x3d0efa37	0.034906592
233	0xbd892bd8	-0.06697816
234	0x3cc702af	0.024293272
235	0xbd53eb32	-0.05173797
236	0xbcf56049	-0.029953139
237	0x3d1ac892	0.037788935
238	0xbd2bd901	-0.041954998
239	0x3b035e62	0.002004527
240	0xbd4251a6	-0.047441147
241	0xbcdbf351	-0.02684942
242	0xbd0bfc4a	-0.03417615
243	0xbb653542	-0.003497437
244	0xbcafff71	-0.021484109
245	0xbdc0607e	-0.093934044
246	0xbc56477a	-0.013078565
247	0xbd9d25db	-0.07673236
248	0xbd40ff5c	-0.04711853
249	0x3caae963	0.02086324
250	0x3d280307	0.041018512
251	0xbd983a93	-0.07433047
252	0xbd4f7a69	-0.05065385
253	0xbdec076f	-0.11524855
254	0xbd5859a2	-0.052819856
255	0x3d640c8b	0.055676024

conv2.bias f4 [32]
0	0xbd4f9e8b	-0.050688308
1	0xbd90d6a4	-0.070721895
2	0x3cb2698e	0.021778848
3	0x3e0fa4a4	0.14027649
4	0x3d123e13	0.03570373
5	0x3e21bd43	0.15794854
6	0x3d4de308	0.050265342
7	0xbd1cc823	-0.038276803
8	0x3db0a54f	0.0862528
9	0x39eecaae	0.00045545906
10	0xbce45d9d	-0.02787667
11	0x3e237893	0.15963964
12	0x3dc5c247	0.09656196
13	0xbd9e2e8a	-0.0772372
14	0x3e29e5f4	0.16591626
15	0x3e095046	0.13409528
16	0x3dc9916a	0.09842189
17	0x3e1921ab	0.1495425
18	0x3e05cbad	0.13065977
19	0xbd567457	-0.052357044
20	0xbc1f87fd	-0.009737012
21	0x3d49ef31	0.049300376
22	0x3e1c6a8b	0.15275018
23	0x3d575d1b	0.052579027
24	0x3c34d92a	0.011038104
25	0xbce35958	-0.027752563
26	0x3d6b5b13	0.057459902
27	0x3d695e02	0.05697442
28	0xbc26a662	-0.010171505
29	0xbd9e74e2	-0.077371374
30	0x3d39a2a8	0.045321137
31	0xbdc6f29b	-0.09714242

fc1.weight f4 [64, 800]
0	0xbd595704	-0.0530615
1	0xbc698287	-0.014252312
2	0xbd76fbae	-0.060298614
3	0xbc17770d	-0.0092446925
4	0xbd1d94ea	-0.038472094
5	0xbd85ea32	-0.0653881
6	0xbd157b18	-0.036494344
7	0xbd4fe7ee	-0.050758295
8	0xbd723fd1	-0.05914289
9	0xbcaa302f	-0.020774929
10	0xbd866d0e	-0.06563769
11	0xbd4b12ce	-0.04957848
12	0xbd26d7c6	-0.04073312
13	0xbca58339	-0.020204173
14	0xbd2a6f87	-0.041610267
15	0xbd7074d9	-0.058705185
16	0xbd0bc1d6	-0.034120403
17	0xbc875f89	-0.016525047
18	0xbc9b5f6e	-0.018966403
19	0xbca74eb8	-0.020423278
20	0xbd8ebf19	-0.06970043
21	0xbbd5009c	-0.006500317
22	0xbd20006f	-0.039062914
23	0xbbd20bc0	-0.006410092
24	0xbc938e6a	-0.018012244
25	0xbc5f2231	-0.013618992
26	0x3c855c16	0.016279262
27	0x3a66b1c9	0.0008800296
28	0xbcc7a954	-0.024372734
29	0xbc5b9f0e	-0.013404621
30	0x3c294de3	0.010333511
31	0xbc880daa	-0.016608078
32	0xbd1d3fa1	-0.03839076
33	0xbcf85c10	-0.030317336
34	0x3c79c628	0.015244998
35	0xbd2e7e9e	-0.04260122
36	0xbca6f0bd	-0.020378465
37	0x3d06fc3d	0.032955397
38	0x3c84ef5c	0.016227417
39	0xbbe48564	-0.006973909
40	0xbc82c4cb	-0.015962979
41	0x3c967a19	0.018368768
42	0xbbe1787d	-0.0068808184
43	0xbc6fafec	-0.014629345
44	0xbd70145c	-0.058613166
45	0xbd3164f1	-0.043309156
46	0xbd00ff5c	-0.03149353
47	0x3bd7cc98	0.006585669
48	0xbda5ccdb	-0.08095714
49	0xbcb16e74	-0.021659113
50	0xbcda4f69	-0.026649194
51	0xbd1709bd	-0.03687452
52	0xbd59d566	-0.05318203
53	0xbd151bfd	-0.036403645
54	0x3bc63399	0.0060486314
55	0xbd0fba97	-0.035090055
56	0xbce0ee8d	-0.0274575
57	0xbcceca37	-0.025242908
58	0xbd0e071a	-0.03467474
59	0xbd46ce16	-0.048536383
60	0x3c8ca748	0.01716961
61	0x3b62e7c8	0.0034623016
62	0xbd0ac43d	-0.033878554
63	0xbc91d0a7	-0.017799689
64	0xbd397530	-0.045277774
65	0xbcb98f5c	-0.022651367
66	0xbccb5684	-0.024821527
67	0xbced50fb	-0.028969279
68	0xbc14246e	-0.009041889
69	0xbd2e8a3a	-0.042612292
70	0xbb068177	-0.0020523944
71	0xbc3c9ac3	-0.011511507
72	0xbd1b2d0d	-0.03788476
73	0x3a69f0e4	0.000892414
74	0x3c891554	0.016733803
75	0x3ea51bdc	0.32247818
76	0xbc9511cc	-0.018196963
77	0xbdd3f36d	-0.10349164
78	0xbd8b95ec	-0.06815705
79	0xbdbd7694	-0.092511326
80	0x3e61f23b	0.2206506
81	0xbe102860	-0.14077902
82	0x3e8536f8	0.260185
83	0xbd1e6560	-0.038670897
84	0xbe6a7fa4	-0.22900254
85	0x3c3c8292	0.01150574
86	0xbd46a439	-0.04849646
87	0xbda5d1aa	-0.08096631
88	0xbcb5c52c	-0.022188745
89	0xbd164f16	-0.036696516
90	0x3ef3380c	0.47503698
91	0xbd98be6d	-0.07458196
92	0x3d8a193e	0.06743096
93	0x3dc1023b	0.094242536
94	0x3d9a84b2	0.07544841
95	0xbdf43091	-0.11923326
96	0x3d85769a	0.06516762
97	0x3d23520f	0.03987318
98	0x3e9793dc	0.29604995
99	0x3dc469c6	0.09590487
100	0x3e6b5ae8	0.22983897
101	0x3e284943	0.16434197
102	0xbc2d85c1	-0.010590971
103	0x3d822cd5	0.06356207
104	0xbd1d203d	-0.038360823
105	0x3e8a10ce	0.26965946
106	0x3e9e62ae	0.30934662
107	0x3cbf65d8	0.023363993
108	0xbd8efd71	-0.06981934
109	0xbcd6517a	-0.026161898
110	0xbca769cd	-0.020436192
111	0x3dc38771	0.09547318
112	0xbd4d0589	-0.050054107
113	0xbe4c6690	-0.19961
114	0x3c8dc9de	0.017308172
115	0x3e14b384	0.14521605
116	0xbda2702c	-0.07931551
117	0xbd1e4119	-0.0386363
118	0xbef66960	-0.4812727
119	0xbeede59f	-0.4646425
120	0xbd8638a2	-0.065537706
121	0xbb489705	-0.0030607593
122	0x3eb72eef	0.35777995
123	0x3e8b0e04	0.2715913
124	0xbf135e5e	-0.5756587
125	0x395d329c	0.00021095056
126	0x3d5a69a3	0.0533234
127	0xbd29e3b1	-0.04147691
128	0xbd38eda8	-0.04514852
129	0xbc865209	-0.01639654
130	0x3d70e95c	0.0588163
131	0x3dc56eae	0.09640251
132	0x3cbe5a46	0.023236405
133	0x3bfeea9b	0.007779432
134	0xbd849ecb	-0.064756
135	0xbd145c98	-0.036221117
136	0xbdfc71d5	-0.12326399
137	0x3e70929b	0.23493426
138	0xbdacf9fe	-0.0844612
139	0xbe67df8d	-0.22643872
140	0xbb70758c	-0.0036691157
141	0x3d0c3f9d	0.034240354
142	0x3dc5bbfc	0.09654996
143	0x3e31f575	0.1737879
144	0x3d184978	0.03717944
145	0xbe029584	-0.12752348
146	0x3e5d0f92	0.21587971
147	0x3f02b5fb	0.5105893
148	0x3ecdb299	0.40175322
149	0x3da0dc84	0.0785456
150	0xbdd3d747	-0.10343795
151	0x3e55f99c	0.20896
152	0x3e871696	0.2638442
153	0x3e7d15df	0.24715374
154	0x3d0f15bc	0.034932837
155	0xbdeb4128	-0.11487037
156	0x3e1b5f53	0.15173082
157	0xbab64b2e	-0.0013907903
158	0x3bac9d7d	0.0052677975
159	0xbec06d8b	-0.37583575
160	0x3cfe4fdd	0.031043941
161	0x3d14beb4	0.03631468
162	0x3e51cc84	0.20488173
163	0xb9c86994	-0.00038225634
164	0x3d826b4a	0.0636812
165	0xbe7c4176	-0.24634346
166	0x3c1b616a	0.009483675
167	0x3d39f68a	0.045401134
168	0x3b954e39	0.004556444
169	0x3e2df9ad	0.16989775
170	0xbd4b758a	-0.04967264
171	0x3e39e881	0.181551
172	0x3ca750ae	0.020424213
173	0x3e8df8d4	0.27728903
174	0x3e940df7	0.28916904
175	0xbcd0a8c4	-0.025471099
176	0xbcdafa74	-0.026730753
177	0x3da4ee92	0.08053316
178	0xbbd24a5d	-0.006417556
179	0x3ca795ec	0.02045723
180	0x3cf69a11	0.030102761
181	0xbd67767e	-0.056509487
182	0x3ba9cc82	0.00518185
183	0xbd1213b3	-0.035663318
184	0x3c977152	0.018486653
185	0x3cf1f322	0.02953488
186	0xbb0b35d5	-0.0021241803
187	0xbb462517	-0.003023451
188	0xbd2e1602	-0.042501457
189	0xbca8a995	-0.020588676
190	0xbd36ca95	-0.04462679
191	0x3c53f0f8	0.012935869
192	0x3ce2f933	0.027706718
193	0xbc508a62	-0.0127283055
194	0xbcfd7413	-0.030939138
195	0x3c9cc623	0.019137448
196	0xbdb0758d	-0.08616171
197	0x3c7f1ab2	0.0155703295
198	0xbc57f5cd	-0.013181162
199	0xbc49eb32	-0.012324141
200	0xbe9ec433	-0.31009063
201	0xbd0e102f	-0.034683403
202	0x3e0e9e95	0.13927682
203	0x3d67e50d	0.056614924
204	0xbcebdd47	-0.028792037
205	0x3d85142f	0.0649799
206	0xbca40ba7	-0.020025088
207	0x3d3db96b	0.046319406
208	0xbd5e4ceb	-0.054272573
209	0xbd347d62	-0.044064887
210	0x3dd59a46	0.10429816
211	0xbdcdf5ac	-0.10056624
212	0x3d8ecb06	0.069723174
213	0xbb0f768c	-0.0021890728
214	0x3e24e41b	0.1610264
215	0xbc2af797	-0.010435007
216	0xbd1010d0	-0.035172284
217	0xbe0a3925	-0.13498361
218	0x3d450778	0.048102826
219	0x3e1bba63	0.1520782
220	0xbd7a4683	-0.0611024
221	0x3dde24f6	0.108468935
222	0xbdd246f7	-0.10267442
223	0x3d1febf4	0.03904338
224	0x3ea7b540	0.3275547
225	0xbee81960	-0.4533186
226	0x3d431917	0.04763135
227	0xbe0db2e0	-0.13837767
228	0x3ea6ab3f	0.32552525
229	0x3ebc98f3	0.3683544
230	0xbe658799	-0.22415008
231	0x3e7fab98	0.24967802
232	0xbd1ec60c	-0.03876309
233	0xbe11bac6	-0.14231405
234	0x3c8a583b	0.016887775
235	0xbe893a1b	-0.26802143
236	0xbe6f8042	-0.2338877
237	0x3ccae1b8	0.024765834
238	0xbdea31d5	-0.11435286
239	0x3e5f2389	0.217909
240	0x3e3f6b0e	0.18693182
241	0x3beec3f5	0.0072865435
242	0x3e3c092c	0.18362874
243	0x3e999600	0.29997253
244	0x3e727a1a	0.2367939
245	0x3cb00c4d	0.02149024
246	0x3ebb3e54	0.3657099
247	0x3e2a8c4b	0.1665508
248	0xbd0205ac	-0.03174369
249	0x3e8083c5	0.25100532
250	0x3c5249f4	0.012835015
251	0x3b2d91b0	0.0026484542
252	0x3cec4d62	0.028845493
253	0xbcc3e086	-0.023910772
254	0xbd0f2091	-0.034943167
255	0xbd575b98	-0.052577585

fc1.bias f4 [64]
0	0x3dc3ea32	0.095661536
1	0xbd0af6eb	-0.033926886
2	0xbd022e6c	-0.031782553
3	0xbbdb6114	-0.006694922
4	0x3ccadc8e	0.024763372
5	0x3dbaa467	0.091133885
6	0xbcaa7826	-0.020809244
7	0x3b5108b2	0.0031896052
8	0xbd247980	-0.040154934
9	0x3c6a3416	0.014294645
10	0xbd719aa7	-0.05898538
11	0xbd0378bc	-0.032097563
12	0xbca46788	-0.020068899
13	0xbd75816b	-0.059937876
14	0xbd3bac0f	-0.045818385
15	0xbc383100	-0.011242151
16	0xbd55c2e0	-0.0521878
17	0x3e16a733	0.14712219
18	0x3b2280ec	0.0024796082
19	0xbd1c7f04	-0.03820707
20	0x3c662cc0	0.014048755
21	0xbbe9080a	-0.007111554
22	0xbd5e6efe	-0.05430507
23	0xbd79a6ab	-0.060949963
24	0x3d5a5a10	0.053308547
25	0xbc50e49e	-0.012749819
26	0x3dc25465	0.09488753
27	0x3b9bcda9	0.004754741
28	0xbcaa4962	-0.020786945
29	0x3e0eef9f	0.13958596
30	0xbb08f809	-0.0020899794
31	0x3e09c709	0.13454832
32	0x3d318082	0.043335445
33	0x3e0557d7	0.1302179
34	0xbd1f9257	-0.03895792
35	0xbc9c1963	-0.019055074
36	0xbd6e26cd	-0.058142472
37	0xbd45ace5	-0.04826059
38	0xbcb4ea48	-0.02208437
39	0x3c9d3c11	0.019193681
40	0xbc1c21c6	-0.009529537
41	0x3cd3e1af	0.02586445
42	0x3e11a1fa	0.14221945
43	0x3c86c824	0.016452856
44	0x3dc17936	0.09446947
45	0x3ba3a466	0.004993963
46	0xbd7e5a78	-0.062097996
47	0x3ccc0d17	0.024908585
48	0x3ca413e3	0.020029014
49	0xbd0e190b	-0.03469185
50	0x3e08a0a6	0.13342533
51	0x3cc140cb	0.023590466
52	0xbd70b29e	-0.058764093
53	0xbc00ae84	-0.007854108
54	0x3c2091d8	0.009800397
55	0xbd59d30b	-0.053179782
56	0x3df0aefe	0.11752127
57	0xbd3331df	-0.043748733
58	0x3a6fb29e	0.00091437425
59	0x3d4bddeb	0.049772184
60	0x3d1294d6	0.035786472
61	0xbd689f18	-0.05679235
62	0x3dbd4cca	0.09243162
63	0x3de9b365	0.1141117

fc4.weight f4 [8, 64]
0	0x3e6a8ced	0.22905321
1	0x3d2290b5	0.039688785
2	0x3d802b94	0.06258312
3	0xbd859035	-0.06521646
4	0x3de8cf86	0.11367707
5	0x3e8c6eff	0.27428433
6	0xbdecee9e	-0.1156895
7	0x3c51c4e0	0.012803286
8	0x3bbd0b50	0.005769171
9	0xbc8cf133	-0.017204857
10	0x3a1c51fa	0.0005963143
11	0x3d9c2dde	0.07625936
12	0xbcfe26c2	-0.03102434
13	0x3d71c964	0.05902995
14	0x3c9920c8	0.01869239
15	0xbd12ca26	-0.035837315
16	0x3ccc3232	0.024926279
17	0xbe875c10	-0.26437426
18	0xbc158570	-0.009126052
19	0xbe002f79	-0.1251811
20	0x3d8210d1	0.06350864
21	0x3de94347	0.11389785
22	0xbd4da3cb	-0.050205033
23	0xbdcb5966	-0.09929161
24	0xbda18fa5	-0.07888726
25	0x3d4b2b87	0.049602058
26	0x3d9b4785	0.07582001
27	0x3dfc4f0a	0.12319763
28	0x3dbd4635	0.092419066
29	0xbe8e9900	-0.27851105
30	0x3d54e831	0.051979247
31	0xbca684dc	-0.020327024
32	0xbe0c100c	-0.13677996
33	0x3e038b31	0.12846066
34	0x3d4129f5	0.047159154
35	0xbcbd13af	-0.023080675
36	0xbda2c53e	-0.07947777
37	0x3d1840a4	0.03717102
38	0xb7ca96cc	-2.4150497e-05
39	0x3d66721c	0.056261167
40	0x3da0cbc2	0.07851364
41	0x3de666aa	0.1125005
42	0xbe1f215a	-0.15540066
43	0xbc2aea6d	-0.010431868
44	0xbd1772e9	-0.03697482
45	0x3ddc7789	0.10764987
46	0xbd22c483	-0.03973819
47	0xbb871823	-0.0041227504
48	0xbd28251f	-0.041051026
49	0x3c01c5d0	0.007920697
50	0xbed7e78e	-0.4216885
51	0x3dc5d761	0.09660221
52	0xbd9be130	-0.076113105
53	0x3dd4c61c	0.10389349
54	0xbdcef7e0	-0.10105872
55	0xbdbe6474	-0.09296504
56	0xbda35ac5	-0.07976297
57	0x3d8ac2a0	0.06775403
58	0xbd6caa5a	-0.057779647
59	0x3d89905c	0.067169875
60	0xbdda06ea	-0.1064585
61	0x3d04d379	0.03242824
62	0x3e8cb53d	0.27482024
63	0x3e962d63	0.29331502
64	0x3e6bc86e	0.23025677
65	0x3db34575	0.08753482
66	0xbe05b4c0	-0.13057232
67	0xbc002797	-0.007821939
68	0x3de2ecd8	0.110803306
69	0xbe106fab	-0.14105098
70	0xbc87b5b5	-0.016566137
71	0xbd25cfc0	-0.04048133
72	0x3cb80720	0.022464335
73	0x3d873660	0.06602168
74	0x3db8178e	0.08988868
75	0xbe003e72	-0.12523821
76	0x3dc8a2bb	0.097966634
77	0x3d845d96	0.064631626
78	0x3dcb9608	0.099407256
79	0x3c30a6dd	0.010781971
80	0xbdbc17ec	-0.0918425
81	0xbe7ebd63	-0.24876933
82	0x3ce383d0	0.027772814
83	0x3d52d0d3	0.05146868
84	0x3dd0030f	0.101568334
85	0x3d9012e6	0.070348546
86	0xbca6211a	-0.020279456
87	0xbcf272b8	-0.029595718
88	0x3d5e076c	0.054206297
89	0x3bd8e4f2	0.0066190893
90	0x3ec2023e	0.37892336
91	0x3e95c0eb	0.29248747
92	0x3dee5fc6	0.11639361
93	0x3e22ee61	0.15911247
94	0x3cd5b5f5	0.02608774
95	0xbea6d32c	-0.32582986
96	0x3d04eb31	0.03245086
97	0xbecd074d	-0.40044633
98	0x3d0a5a4c	0.03377752
99	0x3cc09bb6	0.023511749
100	0xbdcc311e	-0.09970306
101	0x3e0b14ef	0.13582204
102	0x3dc5acd9	0.09652109
103	0xbdbafe61	-0.0913055
104	0x3dd49966	0.10380821
105	0x3d3c1f73	0.04592843
106	0xbec836a5	-0.3910419
107	0x3d338f65	0.043837924
108	0xbe2969be	-0.16544244
109	0xbdfdc350	-0.123907685
110	0x3c8089b0	0.015690655
111	0xbd96289b	-0.07331964
112	0xbe115a5c	-0.14194626
113	0xbd898e3e	-0.06716584
114	0xbe9c7f2a	-0.30565768
115	0x3cd26af8	0.025685772
116	0xbb8cae96	-0.004293273
117	0xbb3e2cb3	-0.0029018342
118	0xbd85e47a	-0.06537719
119	0x3d3c46b8	0.04596588
120	0xbe4c7100	-0.19964981
121	0xbd24ec08	-0.04026416
122	0xbda2f202	-0.079563156
123	0x3e83026e	0.2558779
124	0x3dae4c60	0.08510661
125	0xbdc75b33	-0.09734192
126	0xbde03da7	-0.10949259
127	0xbe81634c	-0.2527107
128	0xbc789bd3	-0.01517387
129	0x3b9b5478	0.004740294
130	0xbcf8b7bc	-0.030361049
131	0xbd7b50c0	-0.061356306
132	0xbd51f2f8	-0.051257104
133	0x3e6eae75	0.23308738
134	0xbdc76c0a	-0.09737404
135	0x3cd24739	0.025668727
136	0xbd9f5fe2	-0.0778196
137	0xbc2c0034	-0.010498095
138	0xbdb901fb	-0.09033581
139	0x3dcaa303	0.09894373
140	0xbcd599a1	-0.026074233
141	0xbde6d44a	-0.1127096
142	0x3d260460	0.040531516
143	0x3da76a58	0.0817458
144	0xbd73aa0e	-0.05948835
145	0xbd51571f	-0.051108476
146	0x3d8dbd64	0.06920889
147	0x3db6af4d	0.08920155
148	0x3dcf718c	0.10129079
149	0x3cc33d93	0.023833072
150	0x3d90b413	0.070655964
151	0x3cde729b	0.027154258
152	0x3db941a7	0.09045725
153	0x3d9d7015	0.076873936
154	0xbf120d9f	-0.57052034
155	0x3e4c8079	0.19970883
156	0x3db8edd4	0.09029737
157	0xbebf21e9	-0.3733056
158	0xbd806877	-0.06269925
159	0xbcbfd2f2	-0.023416016
160	0x3e75ec01	0.2401581
161	0xbeb7431e	-0.35793394
162	0xbad43280	-0.0016189367
163	0xbcbed108	-0.023293033
164	0x3c684ee0	0.0141789615
165	0x3c049096	0.008091113
166	0xbd9d39b0	-0.07677019
167	0x3db78f83	0.089629196
168	0x3c9473b1	0.018121572
169	0xbdf3dacf	-0.11906969
170	0xbea0e1ec	-0.31422365
171	0xbcd4227b	-0.025895348
172	0xbe0c431c	-0.13697475
173	0x3c3cc8e6	0.011522507
174	0x3d24db5b	0.040248256
175	0xbcbaad50	-0.02278772
176	0x3d763e60	0.06011808
177	0xbc7116e0	-0.0147149265
178	0xbd0c742c	-0.034290478
179	0x3dd65a1d	0.104664065
180	0xbd4f5d6b	-0.0506262
181	0xbc8f64ed	-0.01750418
182	0xbc33aaeb	-0.010966043
183	0xbd0c9288	-0.03431943
184	0xbd08a2e9	-0.03335849
185	0xbd7604d4	-0.0600632
186	0xbe05d47f	-0.13069342
187	0x3e8df565	0.27726284
188	0xbe156a9c	-0.1459145
189	0x3e09e199	0.13464965
190	0x3e26323e	0.16230103
191	0x3d267ecd	0.04064827
192	0x3db91d0f	0.090387456
193	0x3daf951b	0.085733615
194	0x3dc36a7d	0.095417954
195	0xbd8235cd	-0.06357918
196	0xbcbd63c7	-0.023118867
197	0x3e98686c	0.29767168
198	0x3c09a70b	0.008401643
199	0x3b2b5350	0.0026142187
200	0xbbd68d40	-0.0065476
201	0x3d18f7b5	0.037345607
202	0xbb59255e	-0.0033133845
203	0x3ddcd48b	0.10782727
204	0xbcee26fd	-0.029071325
205	0xbde05916	-0.10954492
206	0x3cb99148	0.022652283
207	0x39c25d41	0.00037072043
208	0xbcd06b0e	-0.025441673
209	0xbe66a795	-0.22524865
210	0xbdb0d6a8	-0.086346924
211	0x3d87a264	0.066227704
212	0x3c30ef90	0.010799304
213	0x3cbfbfda	0.023406912
214	0xbd9bbfb8	-0.07604927
215	0xbd822646	-0.06354956
216	0x3e915936	0.28388375
217	0x3dadc7be	0.084853634
218	0x3e89f8e8	0.26947713
219	0x3e1ad07f	0.15118597
220	0xbde12c50	-0.1099478
221	0xbe84682f	-0.25860736
222	0xbba29a3f	-0.004962235
223	0x3e05ed97	0.13078915
224	0xbdd48c00	-0.103782654
225	0xbdb9ce96	-0.09072606
226	0xbdce637e	-0.100775704
227	0xbc69282f	-0.014230772
228	0xbd879432	-0.06620063
229	0x3d1176b3	0.03551359
230	0xbd99a2ef	-0.0750178
231	0x3d54e077	0.05197188
232	0x3dcc92d4	0.09988943
233	0x3d97ecc0	0.07418203
234	0xbd670109	-0.05639747
235	0x3d1b8d7e	0.037976734
236	0x3e125bde	0.14292857
237	0x3c8f581d	0.01749807
238	0x3ddcc92b	0.10780557
239	0x3ceb75f4	0.028742768
240	0xbdf6a913	-0.12043967
241	0xbc7dc890	-0.015489712
242	0x3c08aa14	0.008341331
243	0xbd4bc15b	-0.049744945
244	0xbdacae86	-0.08431725
245	0x3c3d4dc3	0.011554184
246	0x3d97f6e6	0.07420139
247	0x3d92b39e	0.071631655
248	0xbf054656	-0.5206045
249	0xbd31e505	-0.0434313
250	0x3d85d3bc	0.06534526
251	0x3e3f0e39	0.1865777
252	0x3dc29752	0.09501518
253	0x3cd0cea2	0.025489155
254	0x3d5014a2	0.050800927
255	0xbf08659e	-0.53280056

fc4.bias f4 [8]
0	0x3d9be1c8	0.07611424
1	0x3da6d955	0.081469215
2	0xbe361b2f	-0.17783807
3	0xbd95a795	-0.07307354
4	0xbeca54ad	-0.39517727
5	0x3da0229d	0.07819102
6	0x3e6acc2d	0.2292945
7	0xbdbfa01f	-0.093567125

conv1.weight f4 [16, 2, 4, 4]
0	0xbe96c4ed	-0.29447117
1	0xbec96122	-0.3933192
2	0xbf0601fe	-0.5234679
3	0xbe657228	-0.22406828
4	0xbeb627b1	-0.35577157
5	0xbf1ab008	-0.6042485
6	0xbd006a98	-0.031351656
7	0xbe3bd955	-0.18344624
8	0xbf27d026	-0.65551984
9	0xbef1c6ee	-0.47222084
10	0xbdce751f	-0.10080933
11	0xbef0a746	-0.4700262
12	0xbef2d0e4	-0.47424996
13	0xbd61f9b4	-0.055169776
14	0xbe9f1ca0	-0.31076527
15	0xbe14d29b	-0.14533465
16	0x3d63a4e3	0.05557717
17	0xbe59a329	-0.21253647
18	0x3e3ab30f	0.18232368
19	0x3e095610	0.13411736
20	0x3e3bad9d	0.18327947
21	0xbdd57b3a	-0.10423894
22	0xbd11d64d	-0.035604764
23	0x3d5bbb1a	0.05364523
24	0x3e49fd4c	0.19725531
25	0xbb927d15	-0.0044704773
26	0xbd9864e5	-0.07441119
27	0x3de8aa90	0.11360657
28	0x3dc9503c	0.098297566
29	0x3e2d9ff3	0.16955547
30	0x3c7b375d	0.015333024
31	0xbe0b893a	-0.13626567
32	0x3f602900	0.8756256
33	0x3e5d7b78	0.21629131
34	0xbed75514	-0.42057097
35	0x3ecb5371	0.39712098
36	0x3f6635c2	0.8992578
37	0x3ee5e46c	0.44900835
38	0x3f62b9b7	0.8856463
39	0x3f1c3997	0.61025375
40	0x3f134ddc	0.5754068
41	0x3f3cebca	0.73797286
42	0x3e8ebee1	0.27880004
43	0x3f1dabdd	0.6159037
44	0x3f24443f	0.64166635
45	0x3d87af1c	0.06625196
46	0x3e530f5e	0.20611331
47	0x3fa21865	1.2663695
48	0x3db043bc	0.08606669
49	0x3de43a84	0.111439735
50	0x3dbe9e0f	0.09307491
51	0x3de2b435	0.11069528
52	0x3d301aad	0.04299419
53	0x3d1824da	0.03714452
54	0x3ddd1688	0.10795313
55	0x3e18a440	0.14906406
56	0xbddcdcb9	-0.10784287
57	0xbde02f6a	-0.109465435
58	0xbdd360b6	-0.103211805
59	0x3e1ec0f5	0.15503295
60	0xbb7eb1db	-0.0038863334
61	0x3dc777b1	0.09739626
62	0xbd92f48f	-0.07175552
63	0xbc25da47	-0.010122842
64	0xbee3b849	-0.44476536
65	0xbf184eb9	-0.5949512
66	0xbec89acc	-0.391806
67	0x3ec22e66	0.37926024
68	0x3f16a581	0.5884629
69	0xbe84003d	-0.25781432
70	0xbd8cf479	-0.06882567
71	0xbdf5e978	-0.12007421
72	0x3f7b4c9d	0.9816378
73	0xbec316ee	-0.3810343
74	0xbefc831d	-0.49318781
75	0x3eb355ec	0.3502649
76	0x3d5673b1	0.052356426
77	0xbe125257	-0.14289223
78	0xbecdaf68	-0.40172887
79	0xbf213645	-0.62973434
80	0x3d27764b	0.040884297
81	0xbcde92b6	-0.027169567
82	0x3e17f4b0	0.14839435
83	0x3bd3f1ec	0.0064680483
84	0x3d5ba657	0.05362543
85	0x3ac295b1	0.0014845637
86	0x3e5897b1	0.21151616
87	0x3d164cd9	0.03669438
88	0x3e1555b8	0.1458348
89	0xbe08626f	-0.133188
90	0xbdf90b58	-0.12160367
91	0xbeba28f4	-0.3635937
92	0xbe09d7c3	-0.13461213
93	0x3e1f4156	0.15552267
94	0xbe75d665	-0.24007566
95	0xbd6fed14	-0.058575705
96	0xbed27325	-0.41103473
97	0xbe77e528	-0.2420851
98	0xbe710fd7	-0.23541199
99	0xbeb5d67c	-0.355152
100	0xbf00b849	-0.50281197
101	0xbf02729e	-0.5095614
102	0xbed3c97c	-0.41364658
103	0xbe5f68be	-0.218173
104	0xbf186d0d	-0.595414
105	0xbef572be	-0.47939104
106	0xbe50a3a0	-0.20374918
107	0xbebf7cab	-0.37399802
108	0xbec54a06	-0.38533038
109	0x3cb76e4f	0.022391466
110	0xbeeb2e83	-0.45933923
111	0xbe7d725a	-0.24750653
112	0xbcb670fc	-0.022270672
113	0x3d0e2c42	0.034710176
114	0x3e1a1a8a	0.15049186
115	0x3e32672f	0.17422174
116	0x3e232a0d	0.1593401
117	0xbe06c9a9	-0.13162865
118	0x3e60c3f0	0.21949744
119	0x3c629703	0.013829949
120	0xbe4cd7b4	-0.20004159
121	0xbe06b7d3	-0.13156061
122	0xbe701225	-0.23444422
123	0xbe390d71	-0.18071534
124	0xbd85ac50	-0.065270066
125	0x3e3c20bf	0.18371867
126	0x3e0f9d8d	0.14024945
127	0x3e4cb814	0.19992095
128	0x3f868250	1.0508518
129	0x3f41dcef	0.7572774
130	0x3f2647b5	0.64953166
131	0x3f7afe19	0.9804397
132	0xbe81289f	-0.25226304
133	0xbe4149c5	-0.18875797
134	0x3e7846a4	0.24245697
135	0xbec93be3	-0.39303502
136	0x3f3a4c9c	0.72773147
137	0xbec603f3	-0.38674888
138	0x3e7a6707	0.24453364
139	0xbef5717a	-0.47938138
140	0xbe89087e	-0.26764292
141	0xbeb955f9	-0.36198404
142	0x3f025b9f	0.5092105
143	0xbd30b386	-0.043139957
144	0xbd3d4a7b	-0.04621361
145	0x3de65c2d	0.1124805
146	0xbcecad32	-0.02889118
147	0x3df319e8	0.118701756
148	0x3c8b9a27	0.017041279
149	0x3dd1d26e	0.102452144
150	0xbca5c99b	-0.020237735
151	0xbcb95536	-0.02262364
152	0x3ea163ad	0.3152136
153	0x3d7f28a7	0.06229463
154	0xbe4a4255	-0.19751866
155	0x3dfb55f3	0.12272253
156	0x3e30d2fd	0.17267986
157	0x3ceb7d9f	0.028746424
158	0x3d6a23c9	0.057163034
159	0x3e4a7ac7	0.19773398
160	0xbe9285c5	-0.28617683
161	0x3e072f17	0.13201557
162	0xbd6ef085	-0.058334846
163	0xbecf1e75	-0.40452924
164	0x3ee736e8	0.45159078
165	0x3f17ca9d	0.5929354
166	0xbcbfe2a7	-0.023423506
167	0xbea84003	-0.32861337
168	0xbf39df1f	-0.7260608
169	0x3e9be0bc	0.30444896
170	0xbe876b38	-0.2644899
171	0xbdd680a4	-0.10473755
172	0x3fe2d7bd	1.7722088
173	0x3ee931c7	0.4554579
174	0xbe5f8932	-0.2182968
175	0x3ec62380	0.3869896
176	0xbea3789c	-0.31927955
177	0xbde61aca	-0.11235578
178	0x3bcdc800	0.0062799454
179	0x3da24853	0.07923951
180	0xbc76112a	-0.015018741
181	0x3d6a8a49	0.057260785
182	0x3d86d101	0.06582833
183	0xbd5036b1	-0.050833408
184	0x3dc6d519	0.09708614
185	0xbd98cd88	-0.07461077
186	0x3d685e91	0.05673081
187	0x3d636193	0.055512976
188	0x3c981328	0.018563822
189	0xbf0b4011	-0.5439463
190	0xbdfbed29	-0.12301094
191	0xbc33c3e1	-0.010971994
192	0xbdf96bec	-0.121787876
193	0x3f6d3fe4	0.92675614
194	0xbc555694	-0.01302113
195	0xbe0d15c4	-0.13777834
196	0x3f31bd65	0.6942962
197	0x3e3892cd	0.1802475
198	0x3d30ff46	0.043212198
199	0xbe8a1101	-0.26966098
200	0x3fb0b51a	1.3805268
201	0x3ee6fae2	0.45113283
202	0x3d54be9c	0.05193959
203	0xbd8aa792	-0.06770243
204	0xbe9ea7f4	-0.30987513
205	0x3f8ed4c8	1.1158686
206	0x3e0dd42b	0.13850467
207	0xbe9c831b	-0.30568776
208	0x3e07582b	0.13217227
209	0x3e85e03d	0.26147643
210	0x3c762c20	0.015025169
211	0xbb2aa498	-0.0026038047
212	0xbcb5637b	-0.022142163
213	0xbecf8515	-0.4053122
214	0x3d9ce4d0	0.0766083
215	0x3c2072f1	0.009793029
216	0x3d9889e3	0.07448175
217	0xbe79d174	-0.24396306
218	0x3d877894	0.06614795
219	0xbc6eb9a9	-0.014570632
220	0xbda604e1	-0.08106399
221	0xbd6efc50	-0.058346093
222	0xbe870f8f	-0.26379058
223	0xbd387a72	-0.045038648
224	0xbf0c0ec2	-0.5471002
225	0xbdc4a1b3	-0.09601154
226	0x3dba10c5	0.0908523
227	0xbddc8ee5	-0.107694425
228	0xbee5a49e	-0.44852155
229	0xbedb40e8	-0.42822957
230	0xbe08a0fc	-0.1334266
231	0xbd0044d7	-0.03131565
232	0xbee56cef	-0.44809672
233	0x3eec9abb	0.462118
234	0xbe0d7f1b	-0.13818018
235	0x3c6f3752	0.014600592
236	0x3fca9805	1.5827643
237	0x3f16249c	0.5864961
238	0xbf044554	-0.51668286
239	0x3e1d8c08	0.15385449
240	0xbdc1120f	-0.094272725
241	0xbe4d76fd	-0.20064922
242	0xbddf329d	-0.108983256
243	0xbe3056a5	-0.17220552
244	0x3e242fc7	0.1603385
245	0x3db433d2	0.087989464
246	0xbe0f0ee3	-0.13970523
247	0xbe914d41	-0.28379253
248	0x3e32efca	0.17474285
249	0x3e16f49b	0.14741747
250	0xbd18855d	-0.03723656
251	0xbde41522	-0.11136843
252	0x3e01834f	0.12647747
253	0x3e2605ce	0.16213152
254	0xbd748fa8	-0.059707314
255	0x3eabd21a	0.33558732

conv1.bias f4 [16]
0	0x3e235a60	0.15952444
1	0x3e1d56f2	0.15365198
2	0x3eaf2e32	0.34214932
3	0x3e909d6a	0.28245097
4	0x3d811960	0.06303668
5	0x3dc94cc2	0.098290935
6	0x3ba40d72	0.0050064856
7	0x3da444ad	0.08020911
8	0x3e9ac3c4	0.30227482
9	0x3e1e24c2	0.1544371
10	0x3e839f9d	0.25707713
11	0x3b625a9f	0.0034538878
12	0x3de2fdd9	0.11083574
13	0xbd6d1e6b	-0.057890337
14	0x3e396964	0.1810661
15	0x3e15f0d7	0.14642654

conv2.weight f4 [32, 16, 4, 4]
0	0xbd98addc	-0.07455036
1	0x3ca74c09	0.020421999
2	0xbd369b94	-0.044581965
3	0xbd1aa595	-0.037755568
4	0x3ba790ef	0.005113713
5	0xbd98c9d4	-0.07460371
6	0x3d2c0c3b	0.04200385
7	0xbda94e54	-0.08266893
8	0xbc8e7821	-0.017391266
9	0xbd636254	-0.055513695
10	0x3ca466ae	0.020068493
11	0xbd281a1b	-0.04104052
12	0xbd729bdb	-0.059230667
13	0x3d3432e8	0.04399386
14	0x3cac3f66	0.021026324
15	0xbcf9712d	-0.030449474
16	0xbd974bb1	-0.07387484
17	0xbd71a030	-0.058990657
18	0xbdb090e8	-0.08621389
19	0x3b02084f	0.0019841378
20	0xbd8069af	-0.062701575
21	0xbdc32099	-0.09527702
22	0xbd5cf4e7	-0.053944495
23	0xbd6b8ffc	-0.05751036
24	0xbd36e563	-0.044652354
25	0xbd01910e	-0.031632476
26	0x3cad5028	0.021156386
27	0xbd98481a	-0.07435627
28	0x3ce67b2d	0.028134907
29	0xbd787394	-0.0606571
30	0x3d28430d	0.04107957
31	0x3ccb4413	0.024812734
32	0xbd52b26f	-0.0514397
33	0xbc47d37a	-0.012196416
34	0x3cb9736c	0.022638045
35	0xbca21762	-0.01978654
36	0xbd9c7b69	-0.07640726
37	0xbd52b3d7	-0.05144104
38	0x3d328e77	0.043592896
39	0xbd7bebbd	-0.061504114
40	0x3ae6c7ee	0.0017607191
41	0xbd46adda	-0.04850564
42	0xbd4c9fbf	-0.049957033
43	0x3cfc2502	0.030779365
44	0x3d0ef3a5	0.034900326
45	0x3d622008	0.05520633
46	0x3b591e79	0.0033129735
47	0xbda0533c	-0.07828376
48	0xbc35324e	-0.011059357
49	0xbcbb0a35	-0.022832016
50	0xbc3466ef	-0.011010869
51	0xbd795615	-0.06087311
52	0xbd9428be	-0.072343335
53	0xbdb1731d	-0.08664534
54	0xbd88334f	-0.06650411
55	0xbcf06c7d	-0.029348606
56	0xbc94cf88	-0.018165365
57	0xbd2111a2	-0.039323457
58	0x3cc325f7	0.023821814
59	0xbd6625a2	-0.056188233
60	0x3bb072e5	0.0053847902
61	0x3c63cd5d	0.013903943
62	0xbb7042fa	-0.0036661015
63	0xbc5c9f23	-0.0134656755
64	0xbd19da7d	-0.037561882
65	0x3c96a608	0.018389717
66	0xbc86e183	-0.016464954
67	0x3cda5783	0.026653057
68	0xbbd51790	-0.006503053
69	0x3d07f46b	0.03319208
70	0x3d3bb8ce	0.04583054
71	0x3d2c02bc	0.041994795
72	0x3cab3df5	0.020903567
73	0xbcc36937	-0.023853881
74	0xbdc488b2	-0.09596385
75	0xbd8c97ba	-0.06864877
76	0xbda0812d	-0.07837138
77	0x3ccf1a90	0.02528122
78	0xbc2056cf	-0.009786322
79	0xbd40aed1	-0.047041718
80	0xbcf5ae4a	-0.029990334
81	0xbca234c7	-0.019800557
82	0xbd1ccb5e	-0.038279884
83	0xbd714955	-0.058907825
84	0xbd41b268	-0.047289282
85	0x3ccb23cc	0.024797343
86	0xbc97e46c	-0.018541537
87	0xbdb35e04	-0.087581664
88	0xbd879dfc	-0.0662193
89	0xbdd02383	-0.10163023
90	0xbd13594c	-0.035973832
91	0x3ccaf567	0.02477522
92	0xba219180	-0.0006163344
93	0x3ce660c0	0.028122306
94	0x3caded91	0.021231445
95	0xbc502f50	-0.012706593
96	0x3d47c80d	0.048774768
97	0xbd567210	-0.052354872
98	0x3b1856bc	0.0023245057
99	0x3d0c83e2	0.03430546
100	0xbd7f201a	-0.062286474
101	0xbd40d942	-0.047082193
102	0x3d1a4ac8	0.037668973
103	0x3b401ec5	0.0029315215
104	0xbbdafe9f	-0.006683185
105	0xbd9433fa	-0.07236476
106	0xbc6040a2	-0.013687285
107	0xbc7bec41	-0.015376152
108	0xbb74a508	-0.0037329812
109	0xbd9f0c35	-0.07766
110	0xbc6c1904	-0.014410261
111	0xbd04fa1f	-0.032465097
112	0x3c30bb4c	0.010786843
113	0x3d2b7e31	0.041868392
114	0xbda5cb62	-0.08095433
115	0xbda639ff	-0.081165306
116	0xbd213699	-0.03935871
117	0xbd47fdee	-0.04882615
118	0xbd2bcb4e	-0.041941933
119	0x3d10b213	0.035326075
120	0xbdf05dc5	-0.11736635
121	0xbd555eee	-0.052092485
122	0xbc84964e	-0.016184952
123	0xbd126fb8	-0.035751075
124	0xbd86e63a	-0.06586881
125	0x3ced7ef8	0.028991207
126	0xbcc20dfe	-0.023688313
127	0x3c5d5577	0.013509146
128	0xbca4141f	-0.020029126
129	0xbdaa50d1	-0.08316196
130	0x3cc83f33	0.024444198
131	0x3cbd0f52	0.023078594
132	0x3c52d2cb	0.01286764
133	0xbd08e35e	-0.03341996
134	0xbdd97659	-0.10618276
135	0x3b22f1bb	0.002486332
136	0x3b363baa	0.0027806559
137	0x3c9e3090	0.019310266
138	0xbc8028fd	-0.015644545
139	0xbb9e3ca1	-0.004829005
140	0x3d3c9c57	0.046047535
141	0xbccdbc6a	-0.025114257
142	0xbd8aac66	-0.06771164
143	0xbce88e84	-0.02838827
144	0xbd392d3e	-0.045209162
145	0xbd318265	-0.043337245
146	0xbd710854	-0.058845833
147	0xbd3282a0	-0.043581605
148	0xbd8469bc	-0.0646548
149	0xbd76f39d	-0.06029092
150	0xbb6b15d5	-0.0035871167
151	0x3d49201a	0.04910288
152	0xbd494d82	-0.049146183
153	0xbd5799e6	-0.052637003
154	0xbd9c4b1a	-0.07631512
155	0x3b95948e	0.0045648282
156	0xbd59e684	-0.053198352
157	0xbd897ca3	-0.06713226
158	0xbd82d96d	-0.06389127
159	0xbd84cc88	-0.06484324
160	0x3d3368a0	0.04380095
161	0x3d46d2c0	0.04854083
162	0x3c787382	0.015164258
163	0x3b9321ec	0.004490128
164	0xbda18b08	-0.07887846
165	0xbdbf2d48	-0.093348086
166	0xbd9b5e86	-0.07586388
167	0xbc7e6b57	-0.0155285215
168	0xbd112533	-0.035435867
169	0xbd19725b	-0.037462573
170	0xb9d20d95	-0.0004006444
171	0xbc9ed53c	-0.019388787
172	0xbdd32b56	-0.10311
173	0xbd81a9ac	-0.063311905
174	0xbd7a8988	-0.061166316
175	0xbbcb1158	-0.006197136
176	0x3cf1527a	0.029458273
177	0x3c019592	0.0079091955
178	0xba948b15	-0.0011332954
179	0x3d8648bc	0.06556842
180	0xbd908b05	-0.07057766
181	0xbd33c964	-0.043893233
182	0xbcd555ed	-0.02604195
183	0xbcdd61ff	-0.027024267
184	0x3b121b0e	0.0022293958
185	0x3ccfa429	0.025346832
186	0x3bf873fd	0.0075821863
187	0xbd580255	-0.0527366
188	0xbcc14f84	-0.023597486
189	0xbd35510b	-0.04426674
190	0xbdc1c5b8	-0.0946154
191	0xbd602d43	-0.054730665
192	0xbc8b3e50	-0.016997486
193	0xbb2da6c0	-0.0026497096
194	0x3a6f6890	0.00091327075
195	0xbd28f016	-0.04124459
196	0xbd7f2c56	-0.06229814
197	0xbd8bb542	-0.068216816
198	0xbd89dace	-0.06731187
199	0xbd83db8b	-0.06438359
200	0x3be0f54a	0.0068651782
201	0xbc49fb4f	-0.012327983
202	0x3d31a725	0.043372292
203	0xbca7afa0	-0.020469487
204	0xbbf9cff3	-0.0076236664
205	0xbd7530b0	-0.059860885
206	0xbd65ae6c	-0.056074545
207	0xbd6221c2	-0.055207975
208	0xbc180c72	-0.009280311
209	0x3d6e1311	0.058123652
210	0x3d05293b	0.032510024
211	0x3c052598	0.008126639
212	0xbc25be66	-0.010116195
213	0xbd93636b	-0.07196697
214	0xbde0732d	-0.10959468
215	0xbd952f98	-0.072844684
216	0x3b2e16de	0.0026563923
217	0xbd2e813b	-0.042603713
218	0xbca1d527	-0.01975496
219	0xbbf393c2	-0.0074333856
220	0xbd786ce8	-0.060650736
221	0xbb3f9697	-0.0029234046
222	0x3d11c4b0	0.035587966
223	0xbe1a8bad	-0.15092345
224	0xbcb80b21	-0.022466244
225	0xbcfabcf5	-0.03060768
226	0xbac7e3e8	-0.0015250416
227	0x3b557793	0.0032572492
228	0xbb024043	-0.0019874729
229	0xbccae6dd	-0.024768287
230	0xbd4e8186	-0.050416492
231	0xbd8c2a0d	-0.06843958
232	0x3d0efa37	0.034906592
233	0xbd892bd8	-0.06697816
234	0x3cc702af	0.024293272
235	0xbd53eb32	-0.05173797
236	0xbcf56049	-0.029953139
237	0x3d1ac892	0.037788935
238	0xbd2bd901	-0.041954998
239	0x3b035e62	0.002004527
240	0xbd4251a6	-0.047441147
241	0xbcdbf351	-0.02684942
242	0xbd0bfc4a	-0.03417615
243	0xbb653542	-0.003497437
244	0xbcafff71	-0.021484109
245	0xbdc0607e	-0.093934044
246	0xbc56477a	-0.013078565
247	0xbd9d25db	-0.07673236
248	0xbd40ff5c	-0.04711853
249	0x3caae963	0.02086324
250	0x3d280307	0.041018512
251	0xbd983a93	-0.07433047
252	0xbd4f7a69	-0.05065385
253	0xbdec076f	-0.11524855
254	0xbd5859a2	-0.052819856
255	0x3d640c8b	0.055676024

conv2.bias f4 [32]
0	0xbd4f9e8b	-0.050688308
1	0xbd90d6a4	-0.070721895
2	0x3cb2698e	0.021778848
3	0x3e0f4f06	0.13994989
4	0x3d18660a	0.037206687
5	0x3e214053	0.15747194
6	0x3d4ad079	0.04951522
7	0xbd1cc823	-0.038276803
8	0x3db4a1ef	0.08819949
9	0x3b27fa34	0.002563131
10	0xbce45d9d	-0.02787667
11	0x3e2474b8	0.1606015
12	0x3dc740d2	0.0972916
13	0xbd9e2e8a	-0.0772372
14	0x3e28c51d	0.16481443
15	0x3e0c7033	0.13714676
16	0x3dcaf0d0	0.099092126
17	0x3e1a764d	0.1508419
18	0x3e0556cf	0.13021396
19	0xbd567457	-0.052357044
20	0xbc1f87fd	-0.009737012
21	0x3d57d6eb	0.052695196
22	0x3e1e44ac	0.15455884
23	0x3d5a54a5	0.05330338
24	0x3c2a18d2	0.010381894
25	0xbce35958	-0.027752563
26	0x3d4cb2a8	0.049975067
27	0x3d5c1152	0.053727455
28	0xbc2a1aa0	-0.010382324
29	0xbd9e74e2	-0.077371374
30	0x3d381dd2	0.044950314
31	0xbdc6f29b	-0.09714242
