DRL-based-path-finding/saved_models/dqn_checkpoint_ep100.pth (torch, 981377 bytes, 32 tensors)

conv1.weight f4 [16, 2, 4, 4]
00000000: 451d 9bbe 8220 cbbe fe01 06bf 7fdc 9fbe
00000010: 3ca8 96be 08b0 1abf 13f1 a3bd 0038 6cbe
00000020: 26d0 27bf f60c e6be e17d f6bd 36da 01bf
00000030: e4d0 f2be 166e c2bc 08c7 9dbe 15e2 14be
00000040: fa2f 2d3d a3ef 4cbe e3dd 3e3e 0d0a 153e
00000050: d01b 383e 3996 b7bd e2c4 94bc e2a0 933d
00000060: 2392 373e c5d5 0d3c 6210 7dbd 1132 013e
00000070: af4c b63d 98a5 3f3e 398e cc3c 44fd f4bd
00000080: cb53 553f 6e80 873e 1f73 ddbe 17e2 dd3e
00000090: 3484 6b3f 1764 f53e 370f 703f fb50 283f
000000a0: ffc9 173f 3de3 3e3f 2cdf 9c3e 97c6 233f
000000b0: be6b 233f 60c9 083d 234c 6a3e 03a7 a43f
000000c0: 8cf0 c53d 84ea e13d 89e5 af3d 60bd a43d
000000d0: 0fc3 533d 9ff1 643d 996e c23d dc5a f03d
000000e0: 83b0 c3bd de54 e0bd 9ae2 c7bd a1f3 fb3d
000000f0: c1e8 1dbb ebe3 ad3d b225 81bd 5613 c7bc
00000100: 2b63 ebbe d574 e1be 96d7 eabe ab83 5e3e
00000110: c673 073f 16a8 e2be 4bd9 04be b154 95be
00000120: 0836 833f 9382 a2be d613 e6be ace4 bd3e
00000130: de4d 8c3d f7ed cfbd 1aa0 f6be 7025 0abf
00000140: 69a0 5abc 0feb 8bbd a4c8 213e 5a01 60bc
00000150: 5047 9e3d 2bf1 1cbd 7b25 353e 46b1 243d
00000160: e846 143e 5b96 d5bd aa35 0ebe a1e0 90be
00000170: eee0 dabd f77f 1e3e a204 57be 01d9 e3bd
00000180: 0f72 b4be 4eab 21be aa98 78be 0f8e c5be
00000190: e614 e0be 364b 04bf ace2 03bf 5451 8bbe
000001a0: b0e9 1abf 94a9 0bbf 9c7d 70be c385 2bbf
000001b0: 1737 a9be e128 2c3d 08a8 edbe e936 80be
000001c0: d807 c5bc b5e2 503d 9241 1e3e aa84 363e
000001d0: 257f 1a3e e52a 30be ecad 493e d0f2 4e3c
000001e0: 8823 39be 9c4c 01be 548c 5bbe 3f82 2cbe
000001f0: 8c26 5ebd 288f 383e c379 073e 4a0a 223e
00000200: 1424 5b3f 21c8 143f f2fd 563f 130b 903f
00000210: 6c40 aabe 8233 86be 4d55 9d3e 3002 95be
00000220: b06d 2b3f 9d4c 86be 2025 873e 77ef f5be
00000230: e48a 9ebe cb21 adbe 56f8 063f 094d 0abe
00000240: ad6e 4bbd 6e01 173e 03b7 863c 36fd b63d
00000250: 0ec8 af3c a40a 0a3e ccd9 2c3b 2dd0 46bc
00000260: 4a94 a83e bb2c 433d 4945 40be e5a8 de3d
00000270: 0613 4b3e fe9a 4f3d 9f68 9b3d 31df 743e
00000280: b392 bfbe d872 3f3e b9af 48bd 632c e3be
00000290: c47a fc3e adb0 1e3f 364e 97bd 0340 a8be
000002a0: 65b4 5bbf 07a8 883e 972f 98be 7939 f1bd
000002b0: 22af eb3f 810b e93e 658e 56be b11e ba3e
000002c0: c10a 90be 31c5 81bd f96e debc b529 8d3d
000002d0: dc10 48bc 165f 003d aad2 b53d 9707 68bc
000002e0: 54d2 d23d 1a9d 84bd aad6 723d 6570 a13d
000002f0: 5991 173d fdbc ebbe 637f a1bd ab73 c83c
00000300: f019 d8bd d79f 993f 19de 353e c036 0cbe
00000310: 674e 293f c861 743e 6012 2a3e 5b65 80be
00000320: 6816 ac3f 67f9 e23e 0909 cf3c a1ff a9bd
00000330: 08df b9bd d15d 913f 050d 5b3d 1b83 9cbe
00000340: 294f 063d 1295 443e 36b1 2c3c c427 123d
00000350: 8e38 a2bb d5a5 d2bd e8fd b5bc cf85 eabd
00000360: 1e6d 313d e648 56be a2e6 493c f315 603c
00000370: 6c55 64bd 107b 12bc f3a5 75be a90d 623d
00000380: 33cf 0bbf db44 25be c6fa 09be 38f3 53be
00000390: 5d82 c7be 62d4 d9be 42e3 06be 43db e5bd
000003a0: fa83 c7be c5f0 f03e ac39 1dbe 01c4 a4bd
000003b0: b0ae d23f 3c9f 223f 31a7 f9be 1435 883d
000003c0: a82a a6bd 18de 2cbe 5166 89bd 3592 16be
000003d0: 59ba 373e 2065 07bc 5fe4 01be 6485 4fbe
000003e0: b017 463e 1b53 213e aae9 b0bc 0d20 a3bd
000003f0: 5596 353e fab2 383e fc8c a5bd adbb 7f3e
-0.30295768 -0.3967324 -0.5234679 -0.31222913 -0.29425228 -0.6042485 -0.08004966 -0.23068237
-0.65551984 -0.44931763 -0.12035728 -0.5072359 -0.47424996 -0.023734134 -0.3081591 -0.14539368
0.042282082 -0.20013289 0.1863933 0.14554615 0.1797936 -0.089641996 -0.018160287 0.0720842
0.1792684 0.008656924 -0.061783202 0.12616755 0.08901345 0.18715513 0.02497016 -0.11962369
0.8333098 0.26465172 -0.43251893 0.43336555 0.919986 0.47927925 0.93773216 0.65748566
0.59292597 0.7456549 0.30639017 0.639749 0.63836277 0.03339517 0.22880606 1.2863468
0.09665021 0.110310584 0.08588702 0.08043933 0.051699694 0.05589449 0.09493751 0.1173608
-0.09555151 -0.10953687 -0.09760018 0.12302328 -0.002409503 0.084907375 -0.06306018 -0.024301212
-0.45974097 -0.44034448 -0.45867604 0.21729915 0.5291103 -0.44268864 -0.12973516 -0.29166177
1.0250864 -0.31740245 -0.4493701 0.37088525 0.068507895 -0.1015281 -0.48169023 -0.53963375
-0.013343909 -0.06831943 0.15799195 -0.013672197 0.077284455 -0.038315933 0.17690079 0.040208124
0.14480174 -0.10429069 -0.13887659 -0.28296378 -0.10687433 0.15478502 -0.20997861 -0.111253746
-0.3524327 -0.15788004 -0.24276987 -0.38584945 -0.43765944 -0.5167726 -0.5151775 -0.27210486
-0.6051283 -0.5455563 -0.23485416 -0.6700098 -0.33049843 0.042031173 -0.4641726 -0.25041893
-0.024051592 0.050997455 0.154547 0.17824045 0.15087564 -0.17203863 0.19695252 0.012631133
-0.1807996 -0.1262688 -0.2144025 -0.1684656 -0.05423598 0.1802336 0.13230042 0.15824237
0.85601926 0.5811787 0.8398124 1.125338 -0.33252275 -0.26211172 0.30729142 -0.2910323
0.66964245 -0.26230326 0.26395512 -0.4803426 -0.3096534 -0.33814844 0.5272268 -0.13505949
-0.049666096 0.14746639 0.016444689 0.08935015 0.021457698 0.13480622 0.0026374934 -0.012134594
0.32925636 0.04765008 -0.1877643 0.10872058 0.19831476 0.05068492 0.07588314 0.23913266
-0.3741661 0.18696153 -0.048995707 -0.44369802 0.49312413 0.61988336 -0.073879644 -0.32861337
-0.85822135 0.26690695 -0.29723808 -0.1177854 1.8412821 0.4551659 -0.20952757 0.3635154
-0.28133205 -0.063364394 -0.027152525 0.068927206 -0.012211051 0.03134068 0.088780716 -0.014161966
0.10294023 -0.06475277 0.05928675 0.07882766 0.03700385 -0.46042624 -0.07885625 0.024469217
-0.10551822 1.2001904 0.17760505 -0.1369276 0.6613526 0.23865426 0.16608572 -0.25077328
1.3444338 0.44330904 0.025272863 -0.083007105 -0.09075743 1.1356755 0.053479213 -0.30568776
0.032790337 0.19197491 0.010540297 0.035682455 -0.0049505895 -0.10285536 -0.022215798 -0.11451303
0.043316953 -0.20926246 0.012323054 0.013677108 -0.055745527 -0.008940473 -0.23989086 0.05518881
-0.54613036 -0.16139548 -0.13474569 -0.2069825 -0.38966647 -0.42544848 -0.1317263 -0.112234615
-0.38967878 0.47058693 -0.15354031 -0.08045197 1.645956 0.6352422 -0.4876037 0.06650749
-0.08113605 -0.16881597 -0.067089684 -0.14704211 0.1794218 -0.008263856 -0.12684773 -0.20265728
0.19344974 0.15754358 -0.021595795 -0.079650976 0.17733128 0.18037024 -0.08083531 0.24973936

conv1.bias f4 [16]
00000000: 4e0a 323e 12bb 1a3e 69b4 8d3e 2d89 823e
00000010: ef93 ab3d 6ebd a83d 0218 663b bf67 a53d
00000020: 7921 a43e 1fa7 163e 3efb 873e 6db2 f93c
00000030: f736 0b3e 2a2f e1bc 71e9 413e 7ddd 1b3e
0.17386743 0.15110424 0.27676705 0.25495282 0.083778255 0.08239256 0.0035109525 0.080764286
0.32056788 0.14712189 0.2655887 0.030480588 0.13595186 -0.02748831 0.18936707 0.1522121

conv2.weight f4 [32, 16, 4, 4]
00000000: dcad 98bd 094c a73c 949b 36bd 95a5 1abd
00000010: ef90 a73b d4c9 98bd 3b0c 2c3d 544e a9bd
00000020: 2178 8ebc 5462 63bd ae66 a43c 1b1a 28bd
00000030: db9b 72bd e832 343d 663f ac3c 2d71 f9bc
00000040: b14b 97bd 30a0 71bd e890 b0bd 4f08 023b
00000050: af69 80bd 9920 c3bd e7f4 5cbd fc8f 6bbd
00000060: 63e5 36bd 0e91 01bd 2850 ad3c 1a48 98bd
00000070: 2d7b e63c 9473 78bd 0d43 283d 1344 cb3c
00000080: 6fb2 52bd 7ad3 47bc 6c73 b93c 6217 a2bc
00000090: 697b 9cbd d7b3 52bd 778e 323d bdeb 7bbd
000000a0: eec7 e63a daad 46bd bf9f 4cbd 0225 fc3c
000000b0: a5f3 0e3d 0820 623d 791e 593b 3c53 a0bd
000000c0: 4e32 35bc 350a bbbc ef66 34bc 1556 79bd
000000d0: be28 94bd 1d73 b1bd 4f33 88bd 7d6c f0bc
000000e0: 88cf 94bc a211 21bd f725 c33c a225 66bd
000000f0: e572 b03b 5dcd 633c fa42 70bb 239f 5cbc
00000100: 7dda 19bd 08a6 963c 83e1 86bc 8357 da3c
00000110: 9017 d5bb 6bf4 073d ceb8 3b3d bc02 2c3d
00000120: f53d ab3c 3769 c3bc b288 c4bd ba97 8cbd
00000130: 2d81 a0bd 901a cf3c cf56 20bc d1ae 40bd
00000140: 4aae f5bc c734 a2bc 5ecb 1cbd 5549 71bd
00000150: 68b2 41bd cc23 cb3c 6ce4 97bc 045e b3bd
00000160: fc9d 87bd 8323 d0bd 4c59 13bd 67f5 ca3c
00000170: 8091 21ba c060 e63c 91ed ad3c 502f 50bc
00000180: 0dc8 473d 1072 56bd bc56 183b e283 0c3d
00000190: 1a20 7fbd 42d9 40bd c84a 1a3d c51e 403b
000001a0: 9ffe dabb fa33 94bd a240 60bc 41ec 7bbc
000001b0: 08a5 74bb 350c 9fbd 0419 6cbc 1ffa 04bd
000001c0: 4cbb 303c 317e 2b3d 62cb a5bd ff39 a6bd
000001d0: 9936 21bd eefd 47bd 4ecb 2bbd 13b2 103d
000001e0: c55d f0bd ee5e 55bd 4e96 84bc b86f 12bd
000001f0: 3ae6 86bd f87e ed3c fe0d c2bc 7755 5d3c
00000200: 1f14 a4bc d150 aabd 333f c83c 520f bd3c
00000210: cbd2 523c 5ee3 08bd 5976 d9bd bbf1 223b
00000220: aa3b 363b 9030 9e3c fd28 80bc a13c 9ebb
00000230: 579c 3c3d 6abc cdbc 66ac 8abd 848e e8bc
00000240: 3e2d 39bd 6582 31bd 5408 71bd a082 32bd
00000250: bc69 84bd 9df3 76bd d515 6bbb 1a20 493d
00000260: 824d 49bd e699 57bd 1a4b 9cbd 8e94 953b
00000270: 84e6 59bd a37c 89bd 6dd9 82bd 88cc 84bd
00000280: a068 333d c0d2 463d 8273 783c ec21 933b
00000290: 088b a1bd 482d bfbd 865e 9bbd 576b 7ebc
000002a0: 3325 11bd 5b72 19bd 950d d2b9 3cd5 9ebc
000002b0: 562b d3bd aca9 81bd 8889 7abd 5811 cbbb
000002c0: 7a52 f13c 9295 013c 158b 94ba bc48 863d
000002d0: 058b 90bd 64c9 33bd ed55 d5bc ff61 ddbc
000002e0: 0e1b 123b 29a4 cf3c fd73 f83b 5502 58bd
000002f0: 844f c1bc 0b51 35bd b8c5 c1bd 432d 60bd
00000300: 503e 8bbc c0a6 2dbb 9068 6f3a 16f0 28bd
00000310: 562c 7fbd 42b5 8bbd ceda 89bd 8bdb 83bd
00000320: 4af5 e03b 4ffb 49bc 25a7 313d a0af a7bc
00000330: f3cf f9bb b030 75bd 6cae 65bd c221 62bd
00000340: 720c 18bc 1113 6e3d 3b29 053d 9825 053c
00000350: 66be 25bc 6b63 93bd 2d73 e0bd 982f 95bd
00000360: de16 2e3b 3b81 2ebd 27d5 a1bc c293 f3bb
00000370: e86c 78bd 9796 3fbb b0c4 113d ad8b 1abe
00000380: 210b b8bc f5bc fabc e8e3 c7ba 9377 553b
00000390: 4340 02bb dde6 cabc 8681 4ebd 0d2a 8cbd
000003a0: 37fa 0e3d d82b 89bd af02 c73c 32eb 53bd
000003b0: 4960 f5bc 92c8 1a3d 01d9 2bbd 625e 033b
000003c0: a651 42bd 51f3 dbbc 4afc 0bbd 4235 65bb
000003d0: 71ff afbc 7e60 c0bd 7a47 56bc db25 9dbd
000003e0: 5cff 40bd 63e9 aa3c 0703 283d 933a 98bd
000003f0: 697a 4fbd 6f07 ecbd a259 58bd 8b0c 643d
-0.07455036 0.020421999 -0.044581965 -0.037755568 0.005113713 -0.07460371 0.04200385 -0.08266893
-0.017391266 -0.055513695 0.020068493 -0.04104052 -0.059230667 0.04399386 0.021026324 -0.030449474
-0.07387484 -0.058990657 -0.08621389 0.0019841378 -0.062701575 -0.09527702 -0.053944495 -0.05751036
-0.044652354 -0.031632476 0.021156386 -0.07435627 0.028134907 -0.0606571 0.04107957 0.024812734
-0.0514397 -0.012196416 0.022638045 -0.01978654 -0.07640726 -0.05144104 0.043592896 -0.061504114
0.0017607191 -0.04850564 -0.049957033 0.030779365 0.034900326 0.05520633 0.0033129735 -0.07828376
-0.011059357 -0.022832016 -0.011010869 -0.06087311 -0.072343335 -0.08664534 -0.06650411 -0.029348606
-0.018165365 -0.039323457 0.023821814 -0.056188233 0.0053847902 0.013903943 -0.0036661015 -0.0134656755
-0.037561882 0.018389717 -0.016464954 0.026653057 -0.006503053 0.03319208 0.04583054 0.041994795
0.020903567 -0.023853881 -0.09596385 -0.06864877 -0.07837138 0.02528122 -0.009786322 -0.047041718
-0.029990334 -0.019800557 -0.038279884 -0.058907825 -0.047289282 0.024797343 -0.018541537 -0.087581664
-0.0662193 -0.10163023 -0.035973832 0.02477522 -0.0006163344 0.028122306 0.021231445 -0.012706593
0.048774768 -0.052354872 0.0023245057 0.03430546 -0.062286474 -0.047082193 0.037668973 0.0029315215
-0.006683185 -0.07236476 -0.013687285 -0.015376152 -0.0037329812 -0.07766 -0.014410261 -0.032465097
0.010786843 0.041868392 -0.08095433 -0.081165306 -0.03935871 -0.04882615 -0.041941933 0.035326075
-0.11736635 -0.052092485 -0.016184952 -0.035751075 -0.06586881 0.028991207 -0.023688313 0.013509146
-0.020029126 -0.08316196 0.024444198 0.023078594 0.01286764 -0.03341996 -0.10618276 0.002486332
0.0027806559 0.019310266 -0.015644545 -0.004829005 0.046047535 -0.025114257 -0.06771164 -0.02838827
-0.045209162 -0.043337245 -0.058845833 -0.043581605 -0.0646548 -0.06029092 -0.0035871167 0.04910288
-0.049146183 -0.052637003 -0.07631512 0.0045648282 -0.053198352 -0.06713226 -0.06389127 -0.06484324
0.04380095 0.04854083 0.015164258 0.004490128 -0.07887846 -0.093348086 -0.07586388 -0.0155285215
-0.035435867 -0.037462573 -0.0004006444 -0.019388787 -0.10311 -0.063311905 -0.061166316 -0.006197136
0.029458273 0.0079091955 -0.0011332954 0.06556842 -0.07057766 -0.043893233 -0.02604195 -0.027024267
0.0022293958 0.025346832 0.0075821863 -0.0527366 -0.023597486 -0.04426674 -0.0946154 -0.054730665
-0.016997486 -0.0026497096 0.00091327075 -0.04124459 -0.06229814 -0.068216816 -0.06731187 -0.06438359
0.0068651782 -0.012327983 0.043372292 -0.020469487 -0.0076236664 -0.059860885 -0.056074545 -0.055207975
-0.009280311 0.058123652 0.032510024 0.008126639 -0.010116195 -0.07196697 -0.10959468 -0.072844684
0.0026563923 -0.042603713 -0.01975496 -0.0074333856 -0.060650736 -0.0029234046 0.035587966 -0.15092345
-0.022466244 -0.03060768 -0.0015250416 0.0032572492 -0.0019874729 -0.024768287 -0.050416492 -0.06843958
0.034906592 -0.06697816 0.024293272 -0.05173797 -0.029953139 0.037788935 -0.041954998 0.002004527
-0.047441147 -0.02684942 -0.03417615 -0.003497437 -0.021484109 -0.093934044 -0.013078565 -0.07673236
-0.04711853 0.02086324 0.041018512 -0.07433047 -0.05065385 -0.11524855 -0.052819856 0.055676024

conv2.bias f4 [32]
00000000: 8b9e 4fbd a4d6 90bd 8e69 b23c 0b2b 093e
00000010: 90a6 fd3c 7277 253e 359b 773d 23c8 1cbd
00000020: 1839 c13d ddec 7f3b 9d5d e4bc 432b 153e
00000030: 2b0c bb3d 8a2e 9ebd 4ca2 183e eee6 fb3d
00000040: b2bc 373d 8f0c 103e b066 f73d 5774 56bd
00000050: fd87 1fbc 5c0a 663d 13aa 1c3e 0a55 a73d
00000060: 6a5d ce3b 5859 e3bc 762a 4e3c 6d5a 6c3d
00000070: 0970 24bb e274 9ebd 250c 9c3d 9bf2 c6bd
-0.050688308 -0.070721895 0.021778848 0.13395326 0.030963212 0.16158846 0.06045075 -0.038276803
0.09434718 0.0039051094 -0.02787667 0.14567284 0.0913318 -0.0772372 0.14905661 0.12299906
0.04485769 0.1406729 0.12080133 -0.052357044 -0.009737012 0.056162223 0.15299253 0.08170517
0.006297757 -0.027752563 0.012583366 0.057703424 -0.0025091192 -0.077371374 0.07619504 -0.09714242

fc1.weight f4 [64, 800]
00000000: 0457 59bd 8782 69bc aefb 76bd 0d77 17bc
00000010: ea94 1dbd 32ea 85bd 187b 15bd eee7 4fbd
00000020: d13f 72bd 2f30 aabc 0e6d 86bd ce12 4bbd
00000030: c6d7 26bd 3983 a5bc 876f 2abd d974 70bd
00000040: d6c1 0bbd 895f 87bc 6e5f 9bbc b84e a7bc
00000050: 19bf 8ebd 9c00 d5bb 6f00 20bd c00b d2bb
00000060: 6a8e 93bc 3122 5fbc 165c 853c c9b1 663a
00000070: 54a9 c7bc 0e9f 5bbc e34d 293c aa0d 88bc
00000080: a13f 1dbd 105c f8bc 28c6 793c 9e7e 2ebd
00000090: bdf0 a6bc 3dfc 063d 5cef 843c 6485 e4bb
000000a0: cbc4 82bc 197a 963c 7d78 e1bb ecaf 6fbc
000000b0: 5c14 70bd f164 31bd 5cff 00bd 98cc d73b
000000c0: dbcc a5bd 746e b1bc 694f dabc bd09 17bd
000000d0: 66d5 59bd fd1b 15bd 9933 c63b 97ba 0fbd
000000e0: 8dee e0bc 37ca cebc 1a07 0ebd 16ce 46bd
000000f0: 48a7 8c3c c8e7 623b 3dc4 0abd a7d0 91bc
00000100: 3075 39bd 5c8f b9bc 8456 cbbc fb50 edbc
00000110: 6e24 14bc 3a8a 2ebd 7781 06bb c39a 3cbc
00000120: 0d2d 1bbd e4f0 693a 5415 893c ab23 8a3e
00000130: 3a61 21be 6943 50bd 386d a53d b00a c73d
00000140: e1e1 7a3e a285 0dbe 82ab 993e 79af 793d
00000150: 99b1 953c e481 f13c 35ef bebd d484 05be
00000160: 52a2 2dbd 93d3 133d f03f f73e e51d b9bd
00000170: c21f 023d bb24 963d 50bd e83d b7b5 24bd
00000180: c420 253d bae2 783d 0609 973e e180 6c3d
00000190: a376 2f3e 793f b03d 8322 72bd f85f 043c
000001a0: c892 6a3d d808 8e3e a684 973e 80ab 5d3b
000001b0: c643 79bd 3069 6d3d 9e73 babb ce00 073e
000001c0: c2ce f2bc 4fc1 51be 0efb ee39 7191 283e
000001d0: 199e 3bbd 114b 17bd 9caf f7be 1dff 03bf
000001e0: ebdc 5cbd 9c64 a5bb dc11 b43e 166b 803e
000001f0: 0a48 25bf a818 a1bd d670 f939 3d90 20bd
00000200: 70ab 22bd 0068 c03c 4094 4d3d 3ec6 953d
00000210: aee0 b2bc aa1a 87bc 060c cbbc 3279 3b3c
00000220: 0eb9 c1bd e8ca 693e 4c9f b3bd 7929 5bbe
00000230: 6202 f03c c7e7 063d 8e1d 0b3e 17c9 3c3e
00000240: 8aa0 82bb 3cb0 06be 16a1 503e 4de1 083f
00000250: 3094 d53e ff5c 8b3d 89f5 3a3c fc6b 713e
00000260: b61f 3e3e 12f6 3b3e e495 623e cb0d 94bd
00000270: 4bfc bc3d 41ff b4bd 9e25 81bd f4f4 99be
00000280: 15d2 3b3c 428b 613d 28f9 593e 924a 59bc
00000290: 70c6 8a3d a85d 74be 1a19 b83b ac5d 793d
000002a0: 31cd 223d 217d 273e c65a a7bc cfab 423e
000002b0: bed0 873c 39d9 843e a4ed 733e c4a8 d0bc
000002c0: 74fa dabc 92ee a43d 5d4a d2bb ec95 a73c
000002d0: 119a f63c 7e76 67bd 82cc a93b b313 12bd
000002e0: 5271 973c 22f3 f13c d535 0bbb 1725 46bb
000002f0: 0216 2ebd 95a9 a8bc 95ca 36bd f8f0 533c
00000300: 33f9 e23c 628a 50bc 1374 fdbc 23c6 9c3c
00000310: 8d75 b0bd b21a 7f3c cdf5 57bc 32eb 49bc
00000320: e7a7 4bbd 7e78 1b3d 96a1 cc3d 3173 4639
00000330: adb2 b13d 91c5 943d a3a5 b1bd 4d6a 543d
00000340: 5995 cc3c dd35 323b 3847 4d3d dc3d fbbd
00000350: 9c42 933d 5456 1f3d 3d1b 203e 8633 2e3d
00000360: 0a37 3ebd 3f97 29be 1bb6 e03c 8809 333e
00000370: 06a9 1fbc 6bf2 263d a137 1abe 81a2 5cbd
00000380: 0f0f 623e 0711 ae3c 3789 993e a850 eebd
00000390: 34ab 33be 9877 993e 89f4 80be 16fb 3d3e
000003a0: 3178 d3bd 7cf4 97be 00e6 113c 3223 90be
000003b0: bdc8 6bbe 08d5 4f3b bf45 c1bd 2713 443e
000003c0: 2191 543e c22b a5bc ab87 043e 1667 ae3e
000003d0: 6a9d 343e 9a4f 543d 2e83 c93e 54a2 c33d
000003e0: 20cf 3cbd eca9 463e f449 523c b091 2d3b
000003f0: 624d ec3c 86e0 c3bc 9120 0fbd 985b 57bd
-0.0530615 -0.014252312 -0.060298614 -0.0092446925 -0.038472094 -0.0653881 -0.036494344 -0.050758295
-0.05914289 -0.020774929 -0.06563769 -0.04957848 -0.04073312 -0.020204173 -0.041610267 -0.058705185
-0.034120403 -0.016525047 -0.018966403 -0.020423278 -0.06970043 -0.006500317 -0.039062914 -0.006410092
-0.018012244 -0.013618992 0.016279262 0.0008800296 -0.024372734 -0.013404621 0.010333511 -0.016608078
-0.03839076 -0.030317336 0.015244998 -0.04260122 -0.020378465 0.032955397 0.016227417 -0.006973909
-0.015962979 0.018368768 -0.0068808184 -0.014629345 -0.058613166 -0.043309156 -0.03149353 0.006585669
-0.08095714 -0.021659113 -0.026649194 -0.03687452 -0.05318203 -0.036403645 0.0060486314 -0.035090055
-0.0274575 -0.025242908 -0.03467474 -0.048536383 0.01716961 0.0034623016 -0.033878554 -0.017799689
-0.045277774 -0.022651367 -0.024821527 -0.028969279 -0.009041889 -0.042612292 -0.0020523944 -0.011511507
-0.03788476 0.000892414 0.016733803 0.26980338 -0.15759745 -0.050845537 0.080774724 0.09718835
0.24500228 -0.13820508 0.30013663 0.06095836 0.018273162 0.029480882 -0.09322969 -0.13038951
-0.04239113 0.036090445 0.48290968 -0.09038905 0.031768568 0.073312245 0.113642335 -0.04021236
0.04031445 0.0607631 0.29499072 0.057740096 0.171351 0.086058564 -0.059114944 0.008079521
0.057268888 0.27741122 0.2959339 0.0033824146 -0.06085565 0.057961643 -0.005690052 0.131839
-0.029639605 -0.20483898 0.00045581948 0.16461731 -0.04580507 -0.036936823 -0.48376167 -0.51561147
-0.05392162 -0.005047394 0.35169876 0.250817 -0.6456305 -0.07866031 0.0004757705 -0.039200056
-0.039714277 0.023487091 0.05019021 0.07313202 -0.021835651 -0.016492207 -0.024786007 0.011442469
-0.094591245 0.22831309 -0.08770618 -0.2140254 0.029298011 0.032935884 0.13585493 0.18436085
-0.003986423 -0.13153166 0.2037395 0.5346878 0.4171462 0.06804847 0.011411079 0.23576349
0.18566784 0.18355587 0.22127491 -0.07229193 0.092278086 -0.08837748 -0.06306003 -0.30069697
0.011463662 0.055064447 0.21286452 -0.013262408 0.0677613 -0.23863852 0.0056182267 0.060880348
0.039746467 0.16356327 -0.020429026 0.19010852 0.016579028 0.25946978 0.23821121 -0.025471099
-0.026730753 0.08053316 -0.006417556 0.02045723 0.030102761 -0.056509487 0.00518185 -0.035663318
0.018486653 0.02953488 -0.0021241803 -0.003023451 -0.042501457 -0.020588676 -0.04462679 0.012935869
0.027706718 -0.0127283055 -0.030939138 0.019137448 -0.08616171 0.0155703295 -0.013181162 -0.012324141
-0.04972067 0.037956707 0.099917576 0.00018925664 0.08676658 0.07264245 -0.08674171 0.05185919
0.024973558 0.002719275 0.050116748 -0.12267658 0.07190439 0.03890069 0.1563539 0.042529605
-0.046439208 -0.16561602 0.027430585 0.17484105 -0.009744888 0.04075853 -0.15060283 -0.053865913
0.22076057 0.021248354 0.299875 -0.11636478 -0.17545778 0.29974055 -0.25186566 0.18552813
-0.10325659 -0.29678714 0.008904934 -0.28151852 -0.23025794 0.003171267 -0.09437131 0.19147931
0.20758487 -0.020162467 0.12942378 0.34063023 0.17638174 0.051833726 0.39357895 0.09552446
-0.046095967 0.19400758 0.012835015 0.0026484542 0.028845493 -0.023910772 -0.034943167 -0.052577585

fc1.bias f4 [64]
00000000: c97b 933d ebf6 0abd beff 06b8 1461 dbbb
00000010: 8edc ca3c 3a2e ce3d 2678 aabc b208 513b
00000020: 8079 24bd 1634 6a3c a79a 71bd bc78 03bd
00000030: 8867 a4bc 6b81 75bd 0fac 3bbd 0031 38bc
00000040: e0c2 55bd 8719 1a3e ec80 223b 047f 1cbd
00000050: c02c 663c 0a08 e9bb fe6e 5ebd aba6 79bd
00000060: bbd6 473d 9ee4 50bc 5e92 d13d 384a 603b
00000070: 6249 aabc 9fef 0e3e 09f8 08bb 09c7 093e
00000080: 6c50 e63c e172 063e 5792 1fbd 6319 9cbc
00000090: cd26 6ebd e5ac 45bd 48ea b4bc 113c 9d3c
000000a0: c621 1cbc afe1 d33c faa1 113e 24c8 863c
000000b0: e3fb b13d 66a4 a33b 8e55 7ebd 170d cc3c
000000c0: e313 a43c 0b19 0ebd a6a0 083e cb40 c13c
000000d0: 9eb2 70bd 84ae 00bc d891 203c 0bd3 59bd
000000e0: feae f03d df31 33bd 9eb2 6f3a 3e4b 543d
000000f0: d694 123d 189f 68bd 4c99 e53d 34d0 d83d
0.072013445 -0.033926886 -3.2186268e-05 -0.006694922 0.024763372 0.10067411 -0.020809244 0.0031896052
-0.040154934 0.014294645 -0.05898538 -0.032097563 -0.020068899 -0.059937876 -0.045818385 -0.011242151
-0.0521878 0.150488 0.0024796082 -0.03820707 0.014048755 -0.007111554 -0.05430507 -0.060949963
0.048788767 -0.012749819 0.102329955 0.0034223925 -0.020786945 0.13958596 -0.0020899794 0.13454832
0.02811452 0.1312976 -0.03895792 -0.019055074 -0.058142472 -0.04826059 -0.02208437 0.019193681
-0.009529537 0.02586445 0.14221945 0.016452856 0.08690622 0.004993963 -0.06209331 0.024908585
0.020029014 -0.03469185 0.13342533 0.023590466 -0.058764093 -0.007854108 0.009800397 -0.053179782
0.11752127 -0.043748733 0.00091437425 0.05182957 0.035786472 -0.05679235 0.1121088 0.105865866

fc4.weight f4 [8, 64]
00000000: 6665 593e b590 223d 942b 803d 3590 85bd
00000010: 86cf e83d 9e9b 8f3e 9eee ecbd e0c4 513c
00000020: 500b bd3b 33f1 8cbc fa51 1c3a de2d 9c3d
00000030: c226 febc 64c9 713d c820 993c 26ca 12bd
00000040: 3232 cc3c eab7 b4be 7085 15bc 792f 00be
00000050: d110 823d 4743 e93d cba3 4dbd 6659 cbbd
00000060: c22d e6bd 872b 4b3d d7c8 bd3d d88b 263e
00000070: 3546 bd3d 0099 8ebe 31e8 543d dc84 a6bc
00000080: 4846 6fbe 2c8b 033e f529 413d af13 bdbc
00000090: 3ec5 a2bd a440 183d cc96 cab7 1c72 663d
000000a0: c2cb a03d aa66 e63d 5a21 1fbe 6dea 2abc
000000b0: dbca 01bd 8977 dc3d 83c4 22bd 2318 87bb
000000c0: 1f25 28bd d0c5 013c 8ee7 d7be 61d7 c53d
000000d0: 30e1 9bbd 1cc6 d43d e0f7 cebd 7464 bebd
000000e0: c55a a3bd a0c2 8a3d 5aaa 6cbd edad dc3d
000000f0: ea06 dabd 79d3 043d 117b 703e ad51 a23e
00000100: 55a1 1f3e 7545 b33d c0b4 05be 9727 00bc
00000110: d8ec e23d e231 02be b5b5 87bc c0cf 25bd
00000120: 2007 b83c 6036 873d 8e17 b83d 723e 00be
00000130: bba2 c83d 965d 843d 0896 cb3d dda6 303c
00000140: ec17 bcbd 7484 64be d083 e33c d3d0 523d
00000150: 0f03 d03d e612 903d 1a21 a6bc b872 f2bc
00000160: 5cee 323d f2e4 d83b b797 c73e 8aa3 963e
00000170: c65f ee3d 61ee 223e f5b5 d53c 2cd3 a6be
00000180: b50f dd3d 0a08 cdbe 4c5a 0a3d b69b c03c
00000190: 1e31 ccbd ef14 0b3e d9ac c53d 61fe babd
000001a0: 6699 d43d 731f 3c3d a536 c8be 658f 333d
000001b0: fa6a f7bd 50c3 fdbd 7793 803c 9b28 96bd
000001c0: 5c5a 11be 3e8e 89bd 2a7f 9cbe f86a d23c
000001d0: 96ae 8cbb b32c 3ebb 7ae4 85bd b846 3c3d
000001e0: 0071 4cbe 08ec 24bd 02f2 a2bd 2589 aa3e
000001f0: 604c ae3d 335b c7bd bbf3 babd 667e 28be
00000200: bec1 0dbc 7854 9b3b bcb7 f8bc c050 7bbd
00000210: f8f2 51bd 0941 6c3e 0a6c c7bd 3947 d23c
00000220: e25f 9fbd 3400 2cbc fb01 b9bd 03a3 ca3d
00000230: a199 d5bc 4ad4 e6bd 6004 263d 586a a73d
00000240: 0eaa 73bd 3180 1e3d 64bd 8d3d 4daf b63d
00000250: 8c71 cf3d 933d c33c 13b4 903d 9b72 de3c
00000260: 33ed 573d 1570 9d3d 163d 14bf 7fbb 4f3e
00000270: d4ed b83d e921 bfbe 7768 80bd f2d2 bfbc
00000280: 085c 763e 4f45 b7be 8032 d4ba 08d1 bebc
00000290: e04e 683c 9690 043c b039 9dbd 838f b73d
000002a0: b173 943c cfda f3bd ece1 a0be 7b22 d4bc
000002b0: 6cde f7bd e6c8 3c3c 5bdb 243d 50ad babc
000002c0: 603e 763d e016 71bc 2c74 0cbd 1d5a d63d
000002d0: 6b5d 4fbd ed64 8fbc ebaa 33bc 8892 0cbd
000002e0: e9a2 08bd d404 76bd 7fd4 05be 1dcd 8a3e
000002f0: 9c6a 15be 99e1 093e 6a64 083e 3d8d af3d
00000300: 6b6d ca3c 1b95 af3d 7d6a c33d cd35 82bd
00000310: c763 bdbc 5527 8a3e 0ba7 093c 5053 2b3b
00000320: 408d d6bb b5f7 183d 5e25 59bb 8bd4 dc3d
00000330: fd26 eebc 1659 e0bd 4891 b93c 415d c239
00000340: 0e6b d0bc d59f 50be a8d6 b0bd 64a2 873d
00000350: 90ef 303c dabf bf3c b8bf 9bbd 4626 82bd
00000360: a5b0 873e bec7 ad3d ec88 843e a48d 3f3e
00000370: 502c e1bd 2f68 84be 3f9a a2bb 97ed 053e
00000380: 8773 eabd beda b9bd 7e63 cebd 2f28 69bc
00000390: 3294 87bd b376 113d efa2 99bd 77e0 543d
000003a0: d492 cc3d c0ec 973d 0901 67bd 7e8d 1b3d
000003b0: 1270 043e 1d58 8f3c d6c6 dc3d f475 eb3c
000003c0: 13a9 f6bd 90c8 7dbc 14aa 083c 5bc1 4bbd
000003d0: 86ae acbd c34d 3d3c e6f6 973d 9eb3 923d
000003e0: 5646 05bf 05e5 31bd bcd3 853d 3d97 7a3e
000003f0: 5297 c23d a2ce d03c 5bf2 6c3c c8b2 0fbf
0.21230087 0.039688785 0.06258312 -0.06521646 0.11367707 0.28048414 -0.1156895 0.012803286
0.005769171 -0.017204857 0.0005963143 0.07625936 -0.03102434 0.05902995 0.01869239 -0.035837315
0.024926279 -0.35296565 -0.009126052 -0.1251811 0.06350864 0.11389785 -0.050205033 -0.09929161
-0.11239196 0.049602058 0.09266823 0.16264284 0.092419066 -0.27851105 0.051979247 -0.020327024
-0.23366654 0.12846059 0.047159154 -0.023080675 -0.07947777 0.03717102 -2.4150497e-05 0.056261167
0.07851364 0.1125005 -0.15540066 -0.010431868 -0.0316876 0.10764987 -0.03973819 -0.0041227504
-0.041051026 0.007920697 -0.4216885 0.09660221 -0.076113105 0.10389349 -0.10105872 -0.09296504
-0.07976297 0.06775403 -0.057779647 0.10775361 -0.1064585 0.03242824 0.23484446 0.3170294
0.15588887 0.08753482 -0.13057232 -0.007821939 0.110803306 -0.12714341 -0.016566137 -0.04048133
0.022464335 0.06602168 0.08988868 -0.12523821 0.097966634 0.064631626 0.099407256 0.010781971
-0.0918425 -0.22316152 0.027772814 0.05146868 0.101568334 0.070348546 -0.020279456 -0.029595718
0.04368435 0.0066190893 0.38982937 0.29421645 0.11639361 0.15911247 0.02608774 -0.32582986
0.107940115 -0.40045196 0.03377752 0.023511749 -0.09970306 0.13582204 0.09652109 -0.0913055
0.10380821 0.04592843 -0.3910419 0.043837924 -0.12080951 -0.123907685 0.015695317 -0.07331964
-0.14194626 -0.06716584 -0.30565768 0.025685772 -0.004293273 -0.0029018342 -0.06537719 0.04596588
-0.19964981 -0.04026416 -0.079563156 0.33307758 0.08510661 -0.09734192 -0.09128519 -0.16454467
-0.008652149 0.004740294 -0.030361049 -0.061356306 -0.051257104 0.23071684 -0.09737404 0.025668727
-0.0778196 -0.010498095 -0.09033581 0.09894373 -0.026074233 -0.1127096 0.040531516 0.0817458
-0.05948835 0.03869647 0.06920889 0.08920155 0.10129079 0.023833072 0.070655964 0.027154258
0.052716445 0.076873936 -0.5790571 0.20286368 0.09029737 -0.3733056 -0.06269925 -0.023416016
0.24058545 -0.35795066 -0.0016189367 -0.023293033 0.0141789615 0.008091113 -0.07677019 0.089629196
0.018121572 -0.11906969 -0.31422365 -0.025895348 -0.121029705 0.011522507 0.040248256 -0.02278772
0.06011808 -0.0147149265 -0.034290478 0.104664065 -0.0506262 -0.01750418 -0.010966043 -0.03431943
-0.03335849 -0.0600632 -0.13069342 0.27109614 -0.1459145 0.13464965 0.13319555 0.08571861
0.024710378 0.085733615 0.095417954 -0.06357918 -0.023118867 0.26983133 0.008401643 0.0026142187
-0.0065476 0.037345607 -0.0033133845 0.10782727 -0.029071325 -0.10954492 0.022652283 0.00037072043
-0.025441673 -0.20373471 -0.086346924 0.066227704 0.010799304 0.023406912 -0.07604927 -0.06354956
0.26501957 0.084853634 0.25885713 0.18706375 -0.1099478 -0.25860736 -0.004962235 0.13078915
-0.11447816 -0.09074925 -0.100775704 -0.014230772 -0.06620063 0.03551359 -0.0750178 0.05197188
0.09988943 0.07418203 -0.05639747 0.037976734 0.12933376 0.01749807 0.107801124 0.028742768
-0.12043967 -0.015489712 0.008341331 -0.049744945 -0.08431725 0.011554184 0.07420139 0.071631655
-0.5206045 -0.0434313 0.06534526 0.24471755 0.09501518 0.025489155 0.014462079 -0.56132174

fc4.bias f4 [8]
00000000: b096 3c3a 8a1a e3bc 4a7b c0bb be79 30be
00000010: e7a9 f0bd f846 04bb dda5 423e 52af 2abd
0.0007194085 -0.027722616 -0.005874072 -0.17233941 -0.11751156 -0.0020183902 0.19008584 -0.041671105

conv1.weight f4 [16, 2, 4, 4]
00000000: b370 99be f76e cebe fe01 06bf f51c a1be
00000010: 4249 98be 08b0 1abf 955c 9fbd fba7 7bbe
00000020: 26d0 27bf 8b0f e5be 7926 edbd b786 00bf
00000030: e4d0 f2be 8974 afbc 664a 9cbe 2f48 10be
00000040: 0da5 323d ffdd 4cbe 978a 3c3e 0b41 143e
00000050: e679 3c3e 4309 b7bd 18f2 97bc 8ce9 8f3d
00000060: 543b 353e 11d6 f83b ceb4 7bbd 94d0 fc3d
00000070: f06d b53d e90e 413e b334 f23c f414 f4bd
00000080: 102f 553f 51f0 8d3e 1f73 ddbe e755 e13e
00000090: 2170 6c3f e173 f83e f409 713f be55 2a3f
000000a0: 879e 173f 2bc9 3e3f cdd1 9c3e cf94 233f
000000b0: ea64 243f 07be 073d 50be 673e 8173 a43f
000000c0: 9350 c43d 6a44 e13d 15ae b13d 1089 ab3d
000000d0: 89d9 483d 6a2c 603d 8041 c63d 3581 f63d
000000e0: 2f84 c0bd cefb dfbd 6951 c3bd efb4 fd3d
000000f0: b9b1 14bb 5200 ad3d 56ca 83bd fae8 c7bc
00000100: 2683 efbe 8412 e0be 96d7 eabe ad0b 503e
00000110: 357f 083f 5626 e1be 90a1 0cbe 2ae0 93be
00000120: 4a13 843f 02ca a0be 6d60 eabe 4ba4 b93e
00000130: 5ca6 933d cf57 cdbd 8c79 fbbe d82b 03bf
00000140: cede 54bc dba8 97bd 787f 213e 20e7 60bc
00000150: 5f05 a63d 3a68 24bd ed89 323e 9a1d 303d
00000160: 8028 153e fd06 dabd 475a 0fbe 45b1 90be
00000170: 099a ddbd d556 203e f872 54be bf55 f0bd
00000180: 119e b5be b8e6 22be 49f5 75be a095 c4be
00000190: 9c9d e2be db8d 03bf ba14 05bf e65c 8abe
000001a0: b431 1bbf 6541 0bbf 807e 66be c385 2bbf
000001b0: 308c a9be 5c1b 183d d0dc ebbe 143b 7ebe
000001c0: 98a9 bebc c5ff 563d f93e 1e3e 3467 363e
000001d0: 1887 1d3e 3d3e 30be 0b50 4a3e ef13 473c
000001e0: a452 38be 2f95 febd c1ba 5abe f82b 2dbe
000001f0: 572a 55bd ca9b 393e 6b08 083e d9fe 203e
00000200: 2ee3 543f dfa5 0d3f ad2d 5b3f fef7 933f
00000210: 0731 a6be a55a 8abe 462e 9d3e f615 95be
00000220: dec5 2f3f ffdd 78be 416b 853e c7fd f5be
00000230: ca2d a0be f18d aabe 5a6b 063f 902d f4bd
00000240: e88a 50bd 5071 163e 7a37 3e3c 8fa2 ba3d
00000250: 1ace 9b3c a64d 063e c20c 5e3b 9ee8 44bc
00000260: e19d a73e 42ee 463d 373b 43be 0b17 e53d
00000270: b120 4c3e e329 563d a944 983d 31cc 723e
00000280: 3c4d b8be 93a8 3d3e b270 5cbd 70d8 e7be
00000290: 1d29 003f 1e8b 1e3f 7629 89bd 0340 a8be
000002a0: a17b 5ebf 2d15 863e 946a 99be cb47 f4bd
000002b0: 0615 ec3f bd3a e23e becb 54be 94e6 b73e
000002c0: c19e 8ebe 6c28 81bd fcb3 dbbc 3a50 8d3d
000002d0: 2414 5fbc 306d de3c c6de ba3d 48a4 41bc
000002e0: 6040 d23d fff7 86bd 7cb4 6f3d 0720 a33d
000002f0: c5c7 1b3d 6660 efbe 6dd1 a3bd 7843 b53c
00000300: f019 d8bd 2c29 993f b1e2 413e 2e18 16be
00000310: a43f 2a3f 8055 783e 742c 2e3e 5b65 80be
00000320: 3922 ae3f 6e85 e43e 4494 bd3c a2bb a7bd
00000330: c18c a5bd 19a1 923f 523b 623d 1b83 9cbe
00000340: 0db8 983c 3bc6 473e c3eb 0f3c 4b5e 253d
00000350: b727 bf3b c6a8 9bbd 7877 eabc c13b ebbd
00000360: f4ac 2e3d 8fa5 54be 678f 393c 1ecc 813c
00000370: 2518 61bd 993c 2dbc b206 6bbe 548c 703d
00000380: d96d 0bbf 5c00 2fbe a354 2abe 21b7 59be
00000390: 5657 c7be 5494 d7be 29f4 0abe 4965 dcbd
000003a0: e151 c2be c231 f03e 0a88 23be 4f0f 9dbd
000003b0: 21d5 d23f b8a2 203f f422 f6be da2d 5a3d
000003c0: b7a9 a7bd 6c67 28be 45cb 8cbd ed2e 15be
000003d0: 9833 393e 32b0 65bc 96ad 02be 5abe 4dbe
000003e0: 26c8 473e 1483 223e 3e11 bbbc 9d91 98bd
000003f0: 8c5d 3a3e 294d 3a3e 00a1 a5bd 1633 7c3e
-0.29968795 -0.40319034 -0.5234679 -0.31467405 -0.2974339 -0.6042485 -0.077813305 -0.24575798
-0.65551984 -0.4473842 -0.11579604 -0.5020556 -0.47424996 -0.021417873 -0.30525512 -0.14090036
0.043614436 -0.2000656 0.18412243 0.14477937 0.18405876 -0.089373134 -0.018548056 0.070269674
0.17698413 0.007593878 -0.061451726 0.123444706 0.088588595 0.18853344 0.029566145 -0.11918059
0.83274937 0.2772241 -0.43251893 0.4401085 0.92358595 0.4852591 0.9415581 0.6653708
0.5922627 0.7452571 0.30628815 0.6389894 0.6421648 0.03314021 0.22631192 1.2847749
0.09585681 0.10999377 0.08675782 0.08375752 0.049035583 0.054729857 0.09680462 0.12036363
-0.09400212 -0.109367 -0.09537012 0.12388026 -0.0022688939 0.08447327 -0.06435077 -0.024403084
-0.46779746 -0.43764126 -0.45867604 0.20316954 0.533191 -0.4397456 -0.13733506 -0.2888196
1.0318387 -0.3140412 -0.45776692 0.36258158 0.07209465 -0.10026514 -0.4911617 -0.51238775
-0.012992574 -0.074052535 0.15771282 -0.0137269795 0.08106493 -0.04013846 0.17435427 0.04299698
0.14566231 -0.10645864 -0.13999282 -0.28260246 -0.108203955 0.15658124 -0.20746982 -0.11735105
-0.35472158 -0.15908325 -0.2401935 -0.38395405 -0.4426087 -0.5138833 -0.5198475 -0.27024
-0.60622716 -0.5439666 -0.22509193 -0.6700098 -0.33114767 0.037135467 -0.46066904 -0.24827224
-0.023274228 0.052490015 0.1545371 0.17812806 0.15383565 -0.17211242 0.19757096 0.012150749
-0.18000275 -0.12430798 -0.21360303 -0.16911304 -0.05204233 0.18125835 0.13284461 0.15722217
0.8315915 0.55331224 0.8561657 1.1560056 -0.3245928 -0.2702228 0.30699366 -0.29118317
0.68661296 -0.24303435 0.2605839 -0.4804518 -0.31284934 -0.33311418 0.52507555 -0.11922753
-0.05091372 0.14691663 0.011609906 0.09113037 0.019019175 0.13115558 0.0033882116 -0.012018351
0.3273764 0.048567064 -0.19065557 0.11186036 0.19934346 0.05228604 0.07434971 0.23710705
-0.35996425 0.18521337 -0.053818412 -0.45282316 0.50062734 0.61931026 -0.06697361 -0.32861337
-0.8690739 0.2618803 -0.29964125 -0.11927756 1.8443916 0.4418544 -0.20780846 0.35918105
-0.27855495 -0.06306538 -0.026819222 0.069000676 -0.013615642 0.027151674 0.09124522 -0.011818953
0.10266185 -0.0659027 0.058521733 0.07965093 0.038032312 -0.46753234 -0.07998929 0.022126898
-0.10551822 1.196569 0.18934132 -0.14657661 0.6650336 0.24251366 0.17009145 -0.25077328
1.3604194 0.4463305 0.023141988 -0.08190085 -0.08083487 1.1455413 0.055232354 -0.30568776
0.01864245 0.19509213 0.008784237 0.040373128 0.005833592 -0.0760055 -0.02862142 -0.114860065
0.04264541 -0.2076628 0.011325694 0.015844401 -0.054954667 -0.01057353 -0.22951773 0.058727577
-0.5446449 -0.17089981 -0.16633849 -0.21261264 -0.3893382 -0.42105353 -0.13569702 -0.10761506
-0.37953094 0.46912962 -0.15969864 -0.076689355 1.6471292 0.6274829 -0.48073542 0.053266384
-0.081866674 -0.16445702 -0.06874708 -0.14568682 0.18086088 -0.014019059 -0.1276153 -0.20092145
0.19509944 0.15870315 -0.02283537 -0.074496485 0.18199748 0.18193497 -0.08087349 0.24628863

conv1.bias f4 [16]
00000000: 5217 303e cbe5 183e 8f34 8c3e 5f75 823e
00000010: 4313 a83d b382 af3d 7fad e93b 6e40 a53d
00000020: f5de a33e 3191 1a3e 312c 873e 9d30 d13c
00000030: 8144 063e 65eb e8bc ad3c 3f3e b385 1a3e
0.17196396 0.14931409 0.2738385 0.25480172 0.08206799 0.08569851 0.007131278 0.080689296
0.3200604 0.15094449 0.26400903 0.025535876 0.1311207 -0.028432557 0.1867549 0.15090065

conv2.weight f4 [32, 16, 4, 4]
00000000: dcad 98bd 094c a73c 949b 36bd 95a5 1abd
00000010: ef90 a73b d4c9 98bd 3b0c 2c3d 544e a9bd
00000020: 2178 8ebc 5462 63bd ae66 a43c 1b1a 28bd
00000030: db9b 72bd e832 343d 663f ac3c 2d71 f9bc
00000040: b14b 97bd 30a0 71bd e890 b0bd 4f08 023b
00000050: af69 80bd 9920 c3bd e7f4 5cbd fc8f 6bbd
00000060: 63e5 36bd 0e91 01bd 2850 ad3c 1a48 98bd
00000070: 2d7b e63c 9473 78bd 0d43 283d 1344 cb3c
00000080: 6fb2 52bd 7ad3 47bc 6c73 b93c 6217 a2bc
00000090: 697b 9cbd d7b3 52bd 778e 323d bdeb 7bbd
000000a0: eec7 e63a daad 46bd bf9f 4cbd 0225 fc3c
000000b0: a5f3 0e3d 0820 623d 791e 593b 3c53 a0bd
000000c0: 4e32 35bc 350a bbbc ef66 34bc 1556 79bd
000000d0: be28 94bd 1d73 b1bd 4f33 88bd 7d6c f0bc
000000e0: 88cf 94bc a211 21bd f725 c33c a225 66bd
000000f0: e572 b03b 5dcd 633c fa42 70bb 239f 5cbc
00000100: 7dda 19bd 08a6 963c 83e1 86bc 8357 da3c
00000110: 9017 d5bb 6bf4 073d ceb8 3b3d bc02 2c3d
00000120: f53d ab3c 3769 c3bc b288 c4bd ba97 8cbd
00000130: 2d81 a0bd 901a cf3c cf56 20bc d1ae 40bd
00000140: 4aae f5bc c734 a2bc 5ecb 1cbd 5549 71bd
00000150: 68b2 41bd cc23 cb3c 6ce4 97bc 045e b3bd
00000160: fc9d 87bd 8323 d0bd 4c59 13bd 67f5 ca3c
00000170: 8091 21ba c060 e63c 91ed ad3c 502f 50bc
00000180: 0dc8 473d 1072 56bd bc56 183b e283 0c3d
00000190: 1a20 7fbd 42d9 40bd c84a 1a3d c51e 403b
000001a0: 9ffe dabb fa33 94bd a240 60bc 41ec 7bbc
000001b0: 08a5 74bb 350c 9fbd 0419 6cbc 1ffa 04bd
000001c0: 4cbb 303c 317e 2b3d 62cb a5bd ff39 a6bd
000001d0: 9936 21bd eefd 47bd 4ecb 2bbd 13b2 103d
000001e0: c55d f0bd ee5e 55bd 4e96 84bc b86f 12bd
000001f0: 3ae6 86bd f87e ed3c fe0d c2bc 7755 5d3c
00000200: 1f14 a4bc d150 aabd 333f c83c 520f bd3c
00000210: cbd2 523c 5ee3 08bd 5976 d9bd bbf1 223b
00000220: aa3b 363b 9030 9e3c fd28 80bc a13c 9ebb
00000230: 579c 3c3d 6abc cdbc 66ac 8abd 848e e8bc
00000240: 3e2d 39bd 6582 31bd 5408 71bd a082 32bd
00000250: bc69 84bd 9df3 76bd d515 6bbb 1a20 493d
00000260: 824d 49bd e699 57bd 1a4b 9cbd 8e94 953b
00000270: 84e6 59bd a37c 89bd 6dd9 82bd 88cc 84bd
00000280: a068 333d c0d2 463d 8273 783c ec21 933b
00000290: 088b a1bd 482d bfbd 865e 9bbd 576b 7ebc
000002a0: 3325 11bd 5b72 19bd 950d d2b9 3cd5 9ebc
000002b0: 562b d3bd aca9 81bd 8889 7abd 5811 cbbb
000002c0: 7a52 f13c 9295 013c 158b 94ba bc48 863d
000002d0: 058b 90bd 64c9 33bd ed55 d5bc ff61 ddbc
000002e0: 0e1b 123b 29a4 cf3c fd73 f83b 5502 58bd
000002f0: 844f c1bc 0b51 35bd b8c5 c1bd 432d 60bd
00000300: 503e 8bbc c0a6 2dbb 9068 6f3a 16f0 28bd
00000310: 562c 7fbd 42b5 8bbd ceda 89bd 8bdb 83bd
00000320: 4af5 e03b 4ffb 49bc 25a7 313d a0af a7bc
00000330: f3cf f9bb b030 75bd 6cae 65bd c221 62bd
00000340: 720c 18bc 1113 6e3d 3b29 053d 9825 053c
00000350: 66be 25bc 6b63 93bd 2d73 e0bd 982f 95bd
00000360: de16 2e3b 3b81 2ebd 27d5 a1bc c293 f3bb
00000370: e86c 78bd 9796 3fbb b0c4 113d ad8b 1abe
00000380: 210b b8bc f5bc fabc e8e3 c7ba 9377 553b
00000390: 4340 02bb dde6 cabc 8681 4ebd 0d2a 8cbd
000003a0: 37fa 0e3d d82b 89bd af02 c73c 32eb 53bd
000003b0: 4960 f5bc 92c8 1a3d 01d9 2bbd 625e 033b
000003c0: a651 42bd 51f3 dbbc 4afc 0bbd 4235 65bb
000003d0: 71ff afbc 7e60 c0bd 7a47 56bc db25 9dbd
000003e0: 5cff 40bd 63e9 aa3c 0703 283d 933a 98bd
000003f0: 697a 4fbd 6f07 ecbd a259 58bd 8b0c 643d
-0.07455036 0.020421999 -0.044581965 -0.037755568 0.005113713 -0.07460371 0.04200385 -0.08266893
-0.017391266 -0.055513695 0.020068493 -0.04104052 -0.059230667 0.04399386 0.021026324 -0.030449474
-0.07387484 -0.058990657 -0.08621389 0.0019841378 -0.062701575 -0.09527702 -0.053944495 -0.05751036
-0.044652354 -0.031632476 0.021156386 -0.07435627 0.028134907 -0.0606571 0.04107957 0.024812734
-0.0514397 -0.012196416 0.022638045 -0.01978654 -0.07640726 -0.05144104 0.043592896 -0.061504114
0.0017607191 -0.04850564 -0.049957033 0.030779365 0.034900326 0.05520633 0.0033129735 -0.07828376
-0.011059357 -0.022832016 -0.011010869 -0.06087311 -0.072343335 -0.08664534 -0.06650411 -0.029348606
-0.018165365 -0.039323457 0.023821814 -0.056188233 0.0053847902 0.013903943 -0.0036661015 -0.0134656755
-0.037561882 0.018389717 -0.016464954 0.026653057 -0.006503053 0.03319208 0.04583054 0.041994795
0.020903567 -0.023853881 -0.09596385 -0.06864877 -0.07837138 0.02528122 -0.009786322 -0.047041718
-0.029990334 -0.019800557 -0.038279884 -0.058907825 -0.047289282 0.024797343 -0.018541537 -0.087581664
-0.0662193 -0.10163023 -0.035973832 0.02477522 -0.0006163344 0.028122306 0.021231445 -0.012706593
0.048774768 -0.052354872 0.0023245057 0.03430546 -0.062286474 -0.047082193 0.037668973 0.0029315215
-0.006683185 -0.07236476 -0.013687285 -0.015376152 -0.0037329812 -0.07766 -0.014410261 -0.032465097
0.010786843 0.041868392 -0.08095433 -0.081165306 -0.03935871 -0.04882615 -0.041941933 0.035326075
-0.11736635 -0.052092485 -0.016184952 -0.035751075 -0.06586881 0.028991207 -0.023688313 0.013509146
-0.020029126 -0.08316196 0.024444198 0.023078594 0.01286764 -0.03341996 -0.10618276 0.002486332
0.0027806559 0.019310266 -0.015644545 -0.004829005 0.046047535 -0.025114257 -0.06771164 -0.02838827
-0.045209162 -0.043337245 -0.058845833 -0.043581605 -0.0646548 -0.06029092 -0.0035871167 0.04910288
-0.049146183 -0.052637003 -0.07631512 0.0045648282 -0.053198352 -0.06713226 -0.06389127 -0.06484324
0.04380095 0.04854083 0.015164258 0.004490128 -0.07887846 -0.093348086 -0.07586388 -0.0155285215
-0.035435867 -0.037462573 -0.0004006444 -0.019388787 -0.10311 -0.063311905 -0.061166316 -0.006197136
0.029458273 0.0079091955 -0.0011332954 0.06556842 -0.07057766 -0.043893233 -0.02604195 -0.027024267
0.0022293958 0.025346832 0.0075821863 -0.0527366 -0.023597486 -0.04426674 -0.0946154 -0.054730665
-0.016997486 -0.0026497096 0.00091327075 -0.04124459 -0.06229814 -0.068216816 -0.06731187 -0.06438359
0.0068651782 -0.012327983 0.043372292 -0.020469487 -0.0076236664 -0.059860885 -0.056074545 -0.055207975
-0.009280311 0.058123652 0.032510024 0.008126639 -0.010116195 -0.07196697 -0.10959468 -0.072844684
0.0026563923 -0.042603713 -0.01975496 -0.0074333856 -0.060650736 -0.0029234046 0.035587966 -0.15092345
-0.022466244 -0.03060768 -0.0015250416 0.0032572492 -0.0019874729 -0.024768287 -0.050416492 -0.06843958
0.034906592 -0.06697816 0.024293272 -0.05173797 -0.029953139 0.037788935 -0.041954998 0.002004527
-0.047441147 -0.02684942 -0.03417615 -0.003497437 -0.021484109 -0.093934044 -0.013078565 -0.07673236
-0.04711853 0.02086324 0.041018512 -0.07433047 -0.05065385 -0.11524855 -0.052819856 0.055676024

conv2.bias f4 [32]
00000000: 8b9e 4fbd a4d6 90bd 8e69 b23c 192c 093e
00000010: c125 ff3c d955 253e 95ac 723d 23c8 1cbd
00000020: 79c5 c03d 2430 9a3b 9d5d e4bc e0e3 123e
00000030: be02 be3d 8a2e 9ebd 0bdc 183e bf45 fe3d
00000040: 1a05 3b3d 3258 103e cf10 f93d 5774 56bd
00000050: fd87 1fbc 2f34 653d 0c63 1d3e ddce a63d
00000060: c033 b63b 5859 e3bc 54bc 593c e8b0 713d
00000070: 1c79 9aba e274 9ebd 0428 9b3d 9bf2 c6bd
-0.050688308 -0.070721895 0.021778848 0.13395728 0.031145932 0.1614603 0.05924662 -0.038276803
0.09412665 0.004705446 -0.02787667 0.1434474 0.09277867 -0.0772372 0.1492769 0.12415647
0.045659162 0.14096144 0.12161409 -0.052357044 -0.009737012 0.05595797 0.15369815 0.08144925
0.0055603683 -0.027752563 0.01328953 0.0590066 -0.0011785361 -0.077371374 0.07575992 -0.09714242

fc1.weight f4 [64, 800]
00000000: 0457 59bd 8782 69bc aefb 76bd 0d77 17bc
00000010: ea94 1dbd 32ea 85bd 187b 15bd eee7 4fbd
00000020: d13f 72bd 2f30 aabc 0e6d 86bd ce12 4bbd
00000030: c6d7 26bd 3983 a5bc 876f 2abd d974 70bd
00000040: d6c1 0bbd 895f 87bc 6e5f 9bbc b84e a7bc
00000050: 19bf 8ebd 9c00 d5bb 6f00 20bd c00b d2bb
00000060: 6a8e 93bc 3122 5fbc 165c 853c c9b1 663a
00000070: 54a9 c7bc 0e9f 5bbc e34d 293c aa0d 88bc
00000080: a13f 1dbd 105c f8bc 28c6 793c 9e7e 2ebd
00000090: bdf0 a6bc 3dfc 063d 5cef 843c 6485 e4bb
000000a0: cbc4 82bc 197a 963c 7d78 e1bb ecaf 6fbc
000000b0: 5c14 70bd f164 31bd 5cff 00bd 98cc d73b
000000c0: dbcc a5bd 746e b1bc 694f dabc bd09 17bd
000000d0: 66d5 59bd fd1b 15bd 9933 c63b 97ba 0fbd
000000e0: 8dee e0bc 37ca cebc 1a07 0ebd 16ce 46bd
000000f0: 48a7 8c3c c8e7 623b 3dc4 0abd a7d0 91bc
00000100: 3075 39bd 5c8f b9bc 8456 cbbc fb50 edbc
00000110: 6e24 14bc 3a8a 2ebd 7781 06bb c39a 3cbc
00000120: 0d2d 1bbd e4f0 693a 5415 893c 95f1 8e3e
00000130: beab 1bbe b568 4ebd c333 b13d f085 cc3d
00000140: 8b69 763e a257 0ebe 264f 9c3e 8d91 963d
00000150: 4f02 813c 6392 983c 8a38 c8bd bf33 f6bd
00000160: faa5 0dbd b53b df3c fe63 f23e e68b cabd
00000170: f80c 0a3d 42e1 a93d 7bf4 dd3d 1be5 05bd
00000180: 8e27 143d f15b 6d3d 5e67 983e f090 523d
00000190: 3552 353e b5bd af3d 3940 7ebd e47a 8d3b
000001a0: e1c7 7e3d 723b 8e3e 643a 943e 2b9f dd3a
000001b0: 038f 6dbd 7bc5 6e3d a492 55bc 5c03 fc3d
000001c0: 1bff 08bd 3a31 4ebe 65db 3bbb 85a9 273e
000001d0: a448 57bd 9779 21bd 2fb3 f5be 0509 05bf
000001e0: ff09 5cbd 7d7e dabb fe5a b13e b952 813e
000001f0: 3c57 26bf e5c7 8bbd 74cc 3fba 9de4 36bd
00000200: 9df0 3fbd c660 d43c 8f5a 5b3d 087b 913d
00000210: 2cd6 d9bc b72d 8abc 78c6 ccbc 374b 163c
00000220: fba1 c8bd 4fbc 653e 154b b7bd 1919 5ebe
00000230: 6c0b ec3c 0ddf e03c d8e3 073e 1442 383e
00000240: 7b14 32bc 1ebc 04be e11c 4e3e 13e7 083f
00000250: 9289 d43e 2530 7e3d 81de 663c b42a 773e
00000260: 8332 433e 3919 453e d3ef 643e 2f6e 90bd
00000270: 2ea7 b83d 068e b3bd cc63 78bd af7e 98be
00000280: 6334 4f3c b3bc 4f3d acea 543e ff95 81bc
00000290: aba8 8a3d 5d8a 77be 3b27 a53a 6f7d 6b3d
000002a0: 1526 213d fd21 243e 1375 8bbc 05ed 3b3e
000002b0: 6e01 373c c204 843e 065c 703e c4a8 d0bc
000002c0: 74fa dabc 92ee a43d 5d4a d2bb ec95 a73c
000002d0: 119a f63c 7e76 67bd 82cc a93b b313 12bd
000002e0: 5271 973c 22f3 f13c d535 0bbb 1725 46bb
000002f0: 0216 2ebd 95a9 a8bc 95ca 36bd f8f0 533c
00000300: 33f9 e23c 628a 50bc 1374 fdbc 23c6 9c3c
00000310: 8d75 b0bd b21a 7f3c cdf5 57bc 32eb 49bc
00000320: 4d27 88bd 2c1c d93c 8f17 d03d 2126 363c
00000330: 05bd bb3d 35a3 983d 350d bbbd a39a 563d
00000340: 250d ce3c 1621 733a 1f34 453d 059e 00be
00000350: c43a 8d3d 4971 303d 9907 253e 5638 0f3d
00000360: 4e3d 52bd 6a0e 26be 329c f23c 919b 3a3e
00000370: ba87 2dbc e628 ed3c 0902 20be 6610 62bd
00000380: 6323 613e 6037 673c 5dd4 9c3e 4e43 dcbd
00000390: deb0 29be 4742 993e e3ea 81be 43ae 383e
000003a0: cd59 b8bd 4359 8cbe 1047 f43b 6e67 8fbe
000003b0: 6361 76be 8bbf 033c 6321 b0bd 00cc 463e
000003c0: 8481 543e 2fbb dbbc d57c 043e 1a6f af3e
000003d0: d365 2f3e d3f2 563d cad4 c73e 5a27 b33d
000003e0: 6b65 3ebd 07b6 453e f449 523c b091 2d3b
000003f0: 624d ec3c 86e0 c3bc 9120 0fbd 985b 57bd
-0.0530615 -0.014252312 -0.060298614 -0.0092446925 -0.038472094 -0.0653881 -0.036494344 -0.050758295
-0.05914289 -0.020774929 -0.06563769 -0.04957848 -0.04073312 -0.020204173 -0.041610267 -0.058705185
-0.034120403 -0.016525047 -0.018966403 -0.020423278 -0.06970043 -0.006500317 -0.039062914 -0.006410092
-0.018012244 -0.013618992 0.016279262 0.0008800296 -0.024372734 -0.013404621 0.010333511 -0.016608078
-0.03839076 -0.030317336 0.015244998 -0.04260122 -0.020378465 0.032955397 0.016227417 -0.006973909
-0.015962979 0.018368768 -0.0068808184 -0.014629345 -0.058613166 -0.043309156 -0.03149353 0.006585669
-0.08095714 -0.021659113 -0.026649194 -0.03687452 -0.05318203 -0.036403645 0.0060486314 -0.035090055
-0.0274575 -0.025242908 -0.03467474 -0.048536383 0.01716961 0.0034623016 -0.033878554 -0.017799689
-0.045277774 -0.022651367 -0.024821527 -0.028969279 -0.009041889 -0.042612292 -0.0020523944 -0.011511507
-0.03788476 0.000892414 0.016733803 0.27918687 -0.15202233 -0.050392825 0.08652451 0.09986484
0.24063699 -0.13900617 0.30529135 0.0735198 0.015748171 0.01862449 -0.09776409 -0.120215885
-0.034582116 0.02725015 0.47341913 -0.09889965 0.033703774 0.08294918 0.108376466 -0.032689195
0.036170535 0.05794901 0.29766363 0.051407754 0.1770714 0.085811056 -0.062072966 0.004317628
0.062202338 0.27779728 0.289508 0.0016908398 -0.057997715 0.0582938 -0.01303545 0.12305328
-0.033446413 -0.20135966 -0.0028664705 0.1637326 -0.05255951 -0.039422598 -0.4798827 -0.5196689
-0.05372047 -0.0066679106 0.34639734 0.25258425 -0.6497686 -0.06825236 -0.00073165377 -0.044651616
-0.046860326 0.025925051 0.05355316 0.071035445 -0.026591383 -0.016867502 -0.024996981 0.009173206
-0.0979652 0.22435115 -0.08949868 -0.21689261 0.02881404 0.027450109 0.13270509 0.17993957
-0.010869141 -0.12962386 0.20128204 0.5347759 0.41511208 0.062057633 0.014091135 0.24137384
0.19062237 0.19247903 0.2235711 -0.07052266 0.09016262 -0.08767323 -0.06064205 -0.29784152
0.012646767 0.050717067 0.20792645 -0.015818594 0.06770452 -0.24173875 0.0012600193 0.05749267
0.03934296 0.1602859 -0.017023599 0.18352135 0.011169774 0.2578488 0.23472604 -0.025471099
-0.026730753 0.08053316 -0.006417556 0.02045723 0.030102761 -0.056509487 0.00518185 -0.035663318
0.018486653 0.02953488 -0.0021241803 -0.003023451 -0.042501457 -0.020588676 -0.04462679 0.012935869
0.027706718 -0.0127283055 -0.030939138 0.019137448 -0.08616171 0.0155703295 -0.013181162 -0.012324141
-0.06648121 0.026502691 0.101607434 0.011117489 0.09166912 0.07453004 -0.091333784 0.052393567
0.025152752 0.00092746445 0.04814541 -0.1256028 0.06895974 0.043076787 0.1611618 0.034965836
-0.051327996 -0.16216436 0.029615495 0.18223406 -0.010591442 0.028950166 -0.15625776 -0.05519142
0.21986155 0.0141123235 0.3063077 -0.10755025 -0.16571376 0.29933378 -0.25374517 0.18035226
-0.09001503 -0.2741185 0.0074547604 -0.28008598 -0.24060588 0.008041273 -0.08600118 0.19413757
0.20752531 -0.026822655 0.12938245 0.3426445 0.17128687 0.05247767 0.39029533 0.0874774
-0.04648344 0.19307719 0.012835015 0.0026484542 0.028845493 -0.023910772 -0.034943167 -0.052577585

fc1.bias f4 [64]
00000000: b2c1 8c3d ebf6 0abd beff 06b8 1461 dbbb
00000010: 8edc ca3c f121 cd3d 2678 aabc b208 513b
00000020: 8079 24bd 1634 6a3c a79a 71bd bc78 03bd
00000030: 8867 a4bc 6b81 75bd 0fac 3bbd 0031 38bc
00000040: e0c2 55bd 73c4 193e ec80 223b 047f 1cbd
00000050: c02c 663c 0a08 e9bb fe6e 5ebd aba6 79bd
00000060: baf9 423d 9ee4 50bc 7fff d33d e34c a23b
00000070: 6249 aabc 9fef 0e3e 09f8 08bb 09c7 093e
00000080: ede1 e93c 8b94 073e 5792 1fbd 6319 9cbc
00000090: cd26 6ebd e5ac 45bd 48ea b4bc 113c 9d3c
000000a0: c621 1cbc afe1 d33c faa1 113e 24c8 863c
000000b0: 8e54 b33d 66a4 a33b 6dc6 fabc 170d cc3c
000000c0: e313 a43c 0b19 0ebd a6a0 083e cb40 c13c
000000d0: 9eb2 70bd 84ae 00bc d891 203c 0bd3 59bd
000000e0: feae f03d df31 33bd 9eb2 6f3a 8be0 4f3d
000000f0: d694 123d 189f 68bd 6d8f e83d 3bc9 d93d
0.06872882 -0.033926886 -3.2186268e-05 -0.006694922 0.024763372 0.100162394 -0.020809244 0.0031896052
-0.040154934 0.014294645 -0.05898538 -0.032097563 -0.020068899 -0.059937876 -0.045818385 -0.011242151
-0.0521878 0.15016346 0.0024796082 -0.03820707 0.014048755 -0.007111554 -0.05430507 -0.060949963
0.04760144 -0.012749819 0.103514664 0.0049530133 -0.020786945 0.13958596 -0.0020899794 0.13454832
0.028550113 0.13240258 -0.03895792 -0.019055074 -0.058142472 -0.04826059 -0.02208437 0.019193681
-0.009529537 0.02586445 0.14221945 0.016452856 0.08756362 0.004993963 -0.030612195 0.024908585
0.020029014 -0.03469185 0.13342533 0.023590466 -0.058764093 -0.007854108 0.009800397 -0.053179782
0.11752127 -0.043748733 0.00091437425 0.05075125 0.035786472 -0.05679235 0.11355481 0.10634085
