DRL-based-path-finding/saved_models/dqn_checkpoint_ep150.pth (torch, 981377 bytes, 32 tensors)

conv1.weight f4 [16, 2, 4, 4]
000000 b1 d7 8c be 4d 08 bc be fe 01 06 bf 92 84 7a be
       -0.2750831 -0.36725083 -0.5234679 -0.24464634
000010 a2 83 a6 be 08 b0 1a bf e0 80 82 bd c9 76 52 be
       -0.32522303 -0.6042485 -0.06372237 -0.20553125
000020 26 d0 27 bf 2f ed f6 be 6f 9e e9 bd 92 a2 ec be
       -0.65551984 -0.48227832 -0.11407172 -0.4621778
000030 e4 d0 f2 be ff 73 43 bd 41 69 a3 be 5b 9b 33 be
       -0.47424996 -0.047718044 -0.3191624 -0.17539732
000040 b4 5c 4a 3d 57 df 5c be 93 f4 40 3e aa e3 13 3e
       0.049404815 -0.21569572 0.18843298 0.14442316
000050 4c ac 3d 3e 96 f1 c3 bd e4 34 df bc 86 db 8b 3d
       0.18522757 -0.09567563 -0.0272469 0.0682898
000060 5b 74 3f 3e fe fc f9 3a 35 7e 92 bd 5a 29 f6 3d
       0.1869673 0.001907259 -0.07152978 0.12019606
000070 a8 99 b8 3d 1d be 3b 3e 63 ed a9 3b 8d e8 02 be
       0.090136826 0.18334241 0.0051857694 -0.12784024
000080 70 2c 56 3f e7 4d 41 3e 1f 73 dd be 5b f8 ce 3e
       0.83661556 0.18877374 -0.43251893 0.40423855
000090 3a 8d 70 3f 84 a1 e9 3e d3 74 67 3f 21 75 24 3f
       0.93965495 0.4563104 0.90412635 0.64241225
0000a0 d5 35 19 3f 87 83 3f 3f 05 42 98 3e 5f 0d 27 3f
       0.59847766 0.7481007 0.2973787 0.6525478
0000b0 79 00 22 3f 22 b7 53 3d 03 03 77 3e fd d4 a9 3f
       0.6328197 0.05168832 0.24122243 1.3268124
0000c0 8f 2c bf 3d 55 82 ee 3d d8 42 aa 3d d8 e4 ab 3d
       0.09334671 0.116459526 0.08313531 0.08393258
0000d0 56 ef 43 3d 68 82 69 3d 01 d7 d2 3d 9c ad 04 3e
       0.04783567 0.05700913 0.10294915 0.12956852
0000e0 af 60 d1 bd ac ec de bd f7 e8 d4 bd a8 60 09 3e
       -0.10223519 -0.10884985 -0.10395997 0.13415778
0000f0 34 50 df bb 9a 46 b0 3d ca 48 87 bd 0d f9 21 bc
       -0.006814981 0.08607216 -0.0660568 -0.0098860385
000100 1a 7f ed be c0 2a e3 be 96 d7 ea be 5c d0 a4 3e
       -0.46386033 -0.44368553 -0.45867604 0.32190216
000110 5e 75 17 3f f6 c1 e2 be 29 f3 ef bd db 78 39 be
       0.59163463 -0.44288605 -0.11716301 -0.18112509
000120 ef 0e 8b 3f 6a 83 c5 be 38 3a e8 be 51 d8 b6 3e
       1.0863932 -0.38576823 -0.45356917 0.3571191
000130 6b 12 46 3d cb 10 fb bd 52 f6 ca be e6 63 1a bf
       0.04835741 -0.122590624 -0.39641052 -0.6030868
000140 c0 fd 45 bc b1 0a 10 bd af a6 19 3e 47 4b 92 bc
       -0.0120844245 -0.035166446 0.15004991 -0.01785816
000150 33 ee 61 3d f0 cf 5f bd a9 31 26 3e a8 c5 cf 3c
       0.055158805 -0.054641664 0.16229881 0.025362805
000160 5d e3 1d 3e c1 ce de bd 9a d8 0b be b6 a2 9f be
       0.15418763 -0.10879279 -0.13656846 -0.31178826
000170 cd af c7 bd 8a b7 14 3e 18 57 69 be 44 43 fe bd
       -0.09750328 0.1452314 -0.2278713 -0.12415174
000180 f0 38 b2 be 3f 16 28 be af b2 62 be bb 3c bb be
       -0.34809065 -0.16414736 -0.22138475 -0.3656977
000190 9a 60 e5 be 79 ca 06 bf 8b 8a e5 be 26 08 81 be
       -0.44800264 -0.526527 -0.44832262 -0.2520153
0001a0 38 06 0e bf ee a8 02 bf da 65 5e be c3 85 2b bf
       -0.5547824 -0.51039016 -0.21718541 -0.6700098
0001b0 d7 b4 b0 be 20 64 b9 3c 34 af e9 be 2e 5e 81 be
       -0.3451297 0.022630751 -0.45641482 -0.25267166
0001c0 b7 21 f6 bc 1d d3 35 3d 36 02 1d 3e 3e 85 38 3e
       -0.030045373 0.044390786 0.15332875 0.18019578
0001d0 67 a2 14 3e fd 44 32 be 5e 66 4b 3e 83 1b 73 3c
       0.14515077 -0.1740913 0.19863269 0.014838102
0001e0 d1 e7 3f be d4 1d 02 be 2f 2f 6a be b6 34 39 be
       -0.18740775 -0.12706691 -0.22869562 -0.18086514
0001f0 01 5c 7a bd 5c 97 41 3e 43 78 fa 3d d3 ab 22 3e
       -0.061122898 0.18905395 0.12229969 0.15885858
000200 bd c2 75 3f cb f9 14 3f f4 36 3a 3f 72 d9 84 3f
       0.9600027 0.58193654 0.727401 1.0378859
000210 ad c1 97 be b5 48 4d be 7c 53 92 3e 79 a2 ad be
       -0.2963995 -0.20047267 0.2857932 -0.3391302
000220 a7 81 3d 3f 5a 61 97 be 4b 84 ab 3e 70 6a f5 be
       0.7402596 -0.2956646 0.3349937 -0.47932768
000230 cd 55 9d be 2f b8 d2 be 73 31 09 3f 94 ac 8f bd
       -0.30729523 -0.41156146 0.5359108 -0.070153385
000240 78 d0 88 bd 6e 60 11 3e 9b 6d 0a 3c 3e 62 c1 3d
       -0.06680387 0.14196941 0.008448984 0.09442566
000250 cb c2 bd bb ae 16 03 3e 80 d8 57 bb 1b 44 b4 bc
       -0.0057910434 0.1280162 -0.003293544 -0.022005131
000260 ea 19 a0 3e 16 f8 81 3d 0c c7 3a be ff 0d 09 3e
       0.3126977 0.06346147 -0.18239993 0.13384245
000270 5e f0 3e 3e 23 90 13 3d ed 70 bb 3d b4 13 5e 3e
       0.1864638 0.03602613 0.09152398 0.21687204
000280 33 b1 a2 be 81 63 12 3e eb 63 20 bd 17 9f de be
       -0.31775817 0.1429577 -0.03915779 -0.4348075
000290 88 a2 02 3f 32 8a 1f 3f 1f 25 fd bb 03 40 a8 be
       0.51029253 0.62320244 -0.0077253724 -0.32861337
0002a0 84 b4 3f bf 6b 11 9f 3e 8c dc 90 be 06 d8 09 be
       -0.7488482 0.31067976 -0.28293264 -0.13461313
0002b0 ff ea ec 3f 22 ac fb 3e d7 e7 45 be 6b 04 d2 3e
       1.8509215 0.49154764 -0.19326721 0.41018996
0002c0 26 1a 96 be d6 aa 95 bd 04 13 f7 bc ae 4d 74 3d
       -0.29316825 -0.07307975 -0.030160435 0.059644394
0002d0 07 99 89 bc 73 7b 48 3d 99 6c a7 3d 48 ca 1c bc
       -0.016796602 0.048945855 0.0817501 -0.009569712
0002e0 fb 0a ad 3d ce 7f 8f bd d7 c8 54 3d 1e c9 c0 3d
       0.0844936 -0.07006799 0.05194935 0.0941336
0002f0 44 66 c4 3c 3c 20 fc be 0a f7 b3 bd f2 34 20 3d
       0.023974545 -0.49243343 -0.08787353 0.039112993
000300 f0 19 d8 bd b8 f1 8b 3f fa de a3 3d 75 97 1e be
       -0.10551822 1.0933142 0.08001514 -0.15487464
000310 01 62 39 3f d3 c9 5d 3e 38 90 08 3e 5b 65 80 be
       0.7241517 0.21659021 0.13336265 -0.25077328
000320 a3 aa bc 3f 83 6e e8 3e ae 9b 3e 3d 64 a2 09 be
       1.4739574 0.45396814 0.046535186 -0.13440853
000330 b2 96 d0 bd a5 75 98 3f 9a 06 ca 3d 1b 83 9c be
       -0.10184993 1.1910902 0.098645404 -0.30568776
000340 d6 95 b0 3d 1f 8f 54 3e 51 91 36 3c f2 7a 0f 3c
       0.08622329 0.20757721 0.011143045 0.00875734
000350 6a 18 db bc ae 8c a6 be 9a 6d b6 3c d5 fd d2 bd
       -0.02674504 -0.32529205 0.022269059 -0.10302321
000360 63 90 61 3d 01 4c 5b be 4e b2 bb 3c 30 33 81 3c
       0.05506934 -0.21415712 0.02291217 0.015771478
000370 47 a5 90 bd ed 79 0a bd 1a c8 88 be 89 d3 a1 3b
       -0.07062774 -0.033807684 -0.26715165 0.004938547
000380 c3 d1 0b bf d4 2c 9e bd 41 4f 4e 3d e1 be 3b be
       -0.54616946 -0.07723394 0.05036855 -0.18334533
000390 b4 40 c3 be 95 b4 ec be 93 53 bd bd 5b 7b d4 bd
       -0.38135302 -0.46231523 -0.09244456 -0.10375091
0003a0 24 ff db be 55 62 ea 3e bc 0b 34 be bf 94 85 bd
       -0.42968094 0.45778146 -0.17582601 -0.06522512
0003b0 dc 63 d6 3f 18 b4 22 3f 54 45 04 bf 75 6b ac 3d
       1.6749225 0.6355605 -0.51668286 0.08418933
0003c0 d1 7d 72 bd fe 61 22 be 87 8d 83 bd d9 73 16 be
       -0.05920202 -0.15857694 -0.064234786 -0.1469263
0003d0 ed ef 1d 3e 11 ea c8 3c e7 ea fa bd 85 47 4a be
       0.15423556 0.024525674 -0.12251835 -0.19753845
0003e0 f1 6f 4d 3e 36 ae 23 3e 39 5c 1b bd b8 d9 c2 bd
       0.20062234 0.15984425 -0.037929747 -0.09514183
0003f0 74 78 10 3e e9 f8 35 3e 94 68 bb bd 8b dd 85 3e
       0.14108449 0.17770733 -0.09150806 0.26145586

conv1.bias f4 [16]
000000 f9 8d 2e 3e f2 31 0e 3e 23 ac 8a 3e 42 bb 89 3e
       0.17046346 0.1388624 0.27084455 0.2690068
000010 b0 c8 99 3d 6c 9c a0 3d 8a f4 d2 bb 6f 89 96 3d
       0.07508981 0.07842335 -0.0064378427 0.07350432
000020 17 e0 9e 3e 86 93 0d 3e f4 44 80 3e a4 3c b8 3c
       0.31030342 0.13825807 0.25052607 0.022489853
000030 44 d8 fa 3d 7b 04 1a bd 7b 12 3f 3e 43 31 0c 3e
       0.12248281 -0.03760193 0.18659393 0.13690667

conv2.weight f4 [32, 16, 4, 4]
000000 dc ad 98 bd 09 4c a7 3c 94 9b 36 bd 95 a5 1a bd
       -0.07455036 0.020421999 -0.044581965 -0.037755568
000010 ef 90 a7 3b d4 c9 98 bd 3b 0c 2c 3d 54 4e a9 bd
       0.005113713 -0.07460371 0.04200385 -0.08266893
000020 21 78 8e bc 54 62 63 bd ae 66 a4 3c 1b 1a 28 bd
       -0.017391266 -0.055513695 0.020068493 -0.04104052
000030 db 9b 72 bd e8 32 34 3d 66 3f ac 3c 2d 71 f9 bc
       -0.059230667 0.04399386 0.021026324 -0.030449474
000040 b1 4b 97 bd 30 a0 71 bd e8 90 b0 bd 4f 08 02 3b
       -0.07387484 -0.058990657 -0.08621389 0.0019841378
000050 af 69 80 bd 99 20 c3 bd e7 f4 5c bd fc 8f 6b bd
       -0.062701575 -0.09527702 -0.053944495 -0.05751036
000060 63 e5 36 bd 0e 91 01 bd 28 50 ad 3c 1a 48 98 bd
       -0.044652354 -0.031632476 0.021156386 -0.07435627
000070 2d 7b e6 3c 94 73 78 bd 0d 43 28 3d 13 44 cb 3c
       0.028134907 -0.0606571 0.04107957 0.024812734
000080 6f b2 52 bd 7a d3 47 bc 6c 73 b9 3c 62 17 a2 bc
       -0.0514397 -0.012196416 0.022638045 -0.01978654
000090 69 7b 9c bd d7 b3 52 bd 77 8e 32 3d bd eb 7b bd
       -0.07640726 -0.05144104 0.043592896 -0.061504114
0000a0 ee c7 e6 3a da ad 46 bd bf 9f 4c bd 02 25 fc 3c
       0.0017607191 -0.04850564 -0.049957033 0.030779365
0000b0 a5 f3 0e 3d 08 20 62 3d 79 1e 59 3b 3c 53 a0 bd
       0.034900326 0.05520633 0.0033129735 -0.07828376
0000c0 4e 32 35 bc 35 0a bb bc ef 66 34 bc 15 56 79 bd
       -0.011059357 -0.022832016 -0.011010869 -0.06087311
0000d0 be 28 94 bd 1d 73 b1 bd 4f 33 88 bd 7d 6c f0 bc
       -0.072343335 -0.08664534 -0.06650411 -0.029348606
0000e0 88 cf 94 bc a2 11 21 bd f7 25 c3 3c a2 25 66 bd
       -0.018165365 -0.039323457 0.023821814 -0.056188233
0000f0 e5 72 b0 3b 5d cd 63 3c fa 42 70 bb 23 9f 5c bc
       0.0053847902 0.013903943 -0.0036661015 -0.0134656755
000100 7d da 19 bd 08 a6 96 3c 83 e1 86 bc 83 57 da 3c
       -0.037561882 0.018389717 -0.016464954 0.026653057
000110 90 17 d5 bb 6b f4 07 3d ce b8 3b 3d bc 02 2c 3d
       -0.006503053 0.03319208 0.04583054 0.041994795
000120 f5 3d ab 3c 37 69 c3 bc b2 88 c4 bd ba 97 8c bd
       0.020903567 -0.023853881 -0.09596385 -0.06864877
000130 2d 81 a0 bd 90 1a cf 3c cf 56 20 bc d1 ae 40 bd
       -0.07837138 0.02528122 -0.009786322 -0.047041718
000140 4a ae f5 bc c7 34 a2 bc 5e cb 1c bd 55 49 71 bd
       -0.029990334 -0.019800557 -0.038279884 -0.058907825
000150 68 b2 41 bd cc 23 cb 3c 6c e4 97 bc 04 5e b3 bd
       -0.047289282 0.024797343 -0.018541537 -0.087581664
000160 fc 9d 87 bd 83 23 d0 bd 4c 59 13 bd 67 f5 ca 3c
       -0.0662193 -0.10163023 -0.035973832 0.02477522
000170 80 91 21 ba c0 60 e6 3c 91 ed ad 3c 50 2f 50 bc
       -0.0006163344 0.028122306 0.021231445 -0.012706593
000180 0d c8 47 3d 10 72 56 bd bc 56 18 3b e2 83 0c 3d
       0.048774768 -0.052354872 0.0023245057 0.03430546
000190 1a 20 7f bd 42 d9 40 bd c8 4a 1a 3d c5 1e 40 3b
       -0.062286474 -0.047082193 0.037668973 0.0029315215
0001a0 9f fe da bb fa 33 94 bd a2 40 60 bc 41 ec 7b bc
       -0.006683185 -0.07236476 -0.013687285 -0.015376152
0001b0 08 a5 74 bb 35 0c 9f bd 04 19 6c bc 1f fa 04 bd
       -0.0037329812 -0.07766 -0.014410261 -0.032465097
0001c0 4c bb 30 3c 31 7e 2b 3d 62 cb a5 bd ff 39 a6 bd
       0.010786843 0.041868392 -0.08095433 -0.081165306
0001d0 99 36 21 bd ee fd 47 bd 4e cb 2b bd 13 b2 10 3d
       -0.03935871 -0.04882615 -0.041941933 0.035326075
0001e0 c5 5d f0 bd ee 5e 55 bd 4e 96 84 bc b8 6f 12 bd
       -0.11736635 -0.052092485 -0.016184952 -0.035751075
0001f0 3a e6 86 bd f8 7e ed 3c fe 0d c2 bc 77 55 5d 3c
       -0.06586881 0.028991207 -0.023688313 0.013509146
000200 1f 14 a4 bc d1 50 aa bd 33 3f c8 3c 52 0f bd 3c
       -0.020029126 -0.08316196 0.024444198 0.023078594
000210 cb d2 52 3c 5e e3 08 bd 59 76 d9 bd bb f1 22 3b
       0.01286764 -0.03341996 -0.10618276 0.002486332
000220 aa 3b 36 3b 90 30 9e 3c fd 28 80 bc a1 3c 9e bb
       0.0027806559 0.019310266 -0.015644545 -0.004829005
000230 57 9c 3c 3d 6a bc cd bc 66 ac 8a bd 84 8e e8 bc
       0.046047535 -0.025114257 -0.06771164 -0.02838827
000240 3e 2d 39 bd 65 82 31 bd 54 08 71 bd a0 82 32 bd
       -0.045209162 -0.043337245 -0.058845833 -0.043581605
000250 bc 69 84 bd 9d f3 76 bd d5 15 6b bb 1a 20 49 3d
       -0.0646548 -0.06029092 -0.0035871167 0.04910288
000260 82 4d 49 bd e6 99 57 bd 1a 4b 9c bd 8e 94 95 3b
       -0.049146183 -0.052637003 -0.07631512 0.0045648282
000270 84 e6 59 bd a3 7c 89 bd 6d d9 82 bd 88 cc 84 bd
       -0.053198352 -0.06713226 -0.06389127 -0.06484324
000280 a0 68 33 3d c0 d2 46 3d 82 73 78 3c ec 21 93 3b
       0.04380095 0.04854083 0.015164258 0.004490128
000290 08 8b a1 bd 48 2d bf bd 86 5e 9b bd 57 6b 7e bc
       -0.07887846 -0.093348086 -0.07586388 -0.0155285215
0002a0 33 25 11 bd 5b 72 19 bd 95 0d d2 b9 3c d5 9e bc
       -0.035435867 -0.037462573 -0.0004006444 -0.019388787
0002b0 56 2b d3 bd ac a9 81 bd 88 89 7a bd 58 11 cb bb
       -0.10311 -0.063311905 -0.061166316 -0.006197136
0002c0 7a 52 f1 3c 92 95 01 3c 15 8b 94 ba bc 48 86 3d
       0.029458273 0.0079091955 -0.0011332954 0.06556842
0002d0 05 8b 90 bd 64 c9 33 bd ed 55 d5 bc ff 61 dd bc
       -0.07057766 -0.043893233 -0.02604195 -0.027024267
0002e0 0e 1b 12 3b 29 a4 cf 3c fd 73 f8 3b 55 02 58 bd
       0.0022293958 0.025346832 0.0075821863 -0.0527366
0002f0 84 4f c1 bc 0b 51 35 bd b8 c5 c1 bd 43 2d 60 bd
       -0.023597486 -0.04426674 -0.0946154 -0.054730665
000300 50 3e 8b bc c0 a6 2d bb 90 68 6f 3a 16 f0 28 bd
       -0.016997486 -0.0026497096 0.00091327075 -0.04124459
000310 56 2c 7f bd 42 b5 8b bd ce da 89 bd 8b db 83 bd
       -0.06229814 -0.068216816 -0.06731187 -0.06438359
000320 4a f5 e0 3b 4f fb 49 bc 25 a7 31 3d a0 af a7 bc
       0.0068651782 -0.012327983 0.043372292 -0.020469487
000330 f3 cf f9 bb b0 30 75 bd 6c ae 65 bd c2 21 62 bd
       -0.0076236664 -0.059860885 -0.056074545 -0.055207975
000340 72 0c 18 bc 11 13 6e 3d 3b 29 05 3d 98 25 05 3c
       -0.009280311 0.058123652 0.032510024 0.008126639
000350 66 be 25 bc 6b 63 93 bd 2d 73 e0 bd 98 2f 95 bd
       -0.010116195 -0.07196697 -0.10959468 -0.072844684
000360 de 16 2e 3b 3b 81 2e bd 27 d5 a1 bc c2 93 f3 bb
       0.0026563923 -0.042603713 -0.01975496 -0.0074333856
000370 e8 6c 78 bd 97 96 3f bb b0 c4 11 3d ad 8b 1a be
       -0.060650736 -0.0029234046 0.035587966 -0.15092345
000380 21 0b b8 bc f5 bc fa bc e8 e3 c7 ba 93 77 55 3b
       -0.022466244 -0.03060768 -0.0015250416 0.0032572492
000390 43 40 02 bb dd e6 ca bc 86 81 4e bd 0d 2a 8c bd
       -0.0019874729 -0.024768287 -0.050416492 -0.06843958
0003a0 37 fa 0e 3d d8 2b 89 bd af 02 c7 3c 32 eb 53 bd
       0.034906592 -0.06697816 0.024293272 -0.05173797
0003b0 49 60 f5 bc 92 c8 1a 3d 01 d9 2b bd 62 5e 03 3b
       -0.029953139 0.037788935 -0.041954998 0.002004527
0003c0 a6 51 42 bd 51 f3 db bc 4a fc 0b bd 42 35 65 bb
       -0.047441147 -0.02684942 -0.03417615 -0.003497437
0003d0 71 ff af bc 7e 60 c0 bd 7a 47 56 bc db 25 9d bd
       -0.021484109 -0.093934044 -0.013078565 -0.07673236
0003e0 5c ff 40 bd 63 e9 aa 3c 07 03 28 3d 93 3a 98 bd
       -0.04711853 0.02086324 0.041018512 -0.07433047
0003f0 69 7a 4f bd 6f 07 ec bd a2 59 58 bd 8b 0c 64 3d
       -0.05065385 -0.11524855 -0.052819856 0.055676024

conv2.bias f4 [32]
000000 8b 9e 4f bd a4 d6 90 bd 8e 69 b2 3c 0e 24 07 3e
       -0.050688308 -0.070721895 0.021778848 0.13197348
000010 0b f4 14 3d 8b 95 27 3e 5a d4 7e 3d 23 c8 1c bd
       0.03636555 0.1636564 0.062214233 -0.038276803
000020 54 f5 c3 3d 7d ca 89 3b 9d 5d e4 bc c3 f4 1e 3e
       0.09568277 0.0042050467 -0.02787667 0.15523057
000030 a1 52 c9 3d 8a 2e 9e bd 2a 08 1b 3e 73 67 01 3e
       0.09830213 -0.0772372 0.15139833 0.12637119
000040 13 9c 4a 3d 62 c4 0f 3e 4c af f5 3d 57 74 56 bd
       0.04946525 0.14039758 0.11996326 -0.052357044
000050 fd 87 1f bc 56 8e 32 3d d6 bd 1a 3e 6b 94 81 3d
       -0.009737012 0.043592773 0.15111479 0.063271366
000060 55 69 36 3b 58 59 e3 bc a7 fc 44 3c 99 cc 3a 3d
       0.002783378 -0.027752563 0.012023128 0.045605276
000070 af 73 26 bc e2 74 9e bd 8e af 91 3d 9b f2 c6 bd
       -0.010159417 -0.077371374 0.071135625 -0.09714242

fc1.weight f4 [64, 800]
000000 04 57 59 bd 87 82 69 bc ae fb 76 bd 0d 77 17 bc
       -0.0530615 -0.014252312 -0.060298614 -0.0092446925
000010 ea 94 1d bd 32 ea 85 bd 18 7b 15 bd ee e7 4f bd
       -0.038472094 -0.0653881 -0.036494344 -0.050758295
000020 d1 3f 72 bd 2f 30 aa bc 0e 6d 86 bd ce 12 4b bd
       -0.05914289 -0.020774929 -0.06563769 -0.04957848
000030 c6 d7 26 bd 39 83 a5 bc 87 6f 2a bd d9 74 70 bd
       -0.04073312 -0.020204173 -0.041610267 -0.058705185
000040 d6 c1 0b bd 89 5f 87 bc 6e 5f 9b bc b8 4e a7 bc
       -0.034120403 -0.016525047 -0.018966403 -0.020423278
000050 19 bf 8e bd 9c 00 d5 bb 6f 00 20 bd c0 0b d2 bb
       -0.06970043 -0.006500317 -0.039062914 -0.006410092
000060 6a 8e 93 bc 31 22 5f bc 16 5c 85 3c c9 b1 66 3a
       -0.018012244 -0.013618992 0.016279262 0.0008800296
000070 54 a9 c7 bc 0e 9f 5b bc e3 4d 29 3c aa 0d 88 bc
       -0.024372734 -0.013404621 0.010333511 -0.016608078
000080 a1 3f 1d bd 10 5c f8 bc 28 c6 79 3c 9e 7e 2e bd
       -0.03839076 -0.030317336 0.015244998 -0.04260122
000090 bd f0 a6 bc 3d fc 06 3d 5c ef 84 3c 64 85 e4 bb
       -0.020378465 0.032955397 0.016227417 -0.006973909
0000a0 cb c4 82 bc 19 7a 96 3c 7d 78 e1 bb ec af 6f bc
       -0.015962979 0.018368768 -0.0068808184 -0.014629345
0000b0 5c 14 70 bd f1 64 31 bd 5c ff 00 bd 98 cc d7 3b
       -0.058613166 -0.043309156 -0.03149353 0.006585669
0000c0 db cc a5 bd 74 6e b1 bc 69 4f da bc bd 09 17 bd
       -0.08095714 -0.021659113 -0.026649194 -0.03687452
0000d0 66 d5 59 bd fd 1b 15 bd 99 33 c6 3b 97 ba 0f bd
       -0.05318203 -0.036403645 0.0060486314 -0.035090055
0000e0 8d ee e0 bc 37 ca ce bc 1a 07 0e bd 16 ce 46 bd
       -0.0274575 -0.025242908 -0.03467474 -0.048536383
0000f0 48 a7 8c 3c c8 e7 62 3b 3d c4 0a bd a7 d0 91 bc
       0.01716961 0.0034623016 -0.033878554 -0.017799689
000100 30 75 39 bd 5c 8f b9 bc 84 56 cb bc fb 50 ed bc
       -0.045277774 -0.022651367 -0.024821527 -0.028969279
000110 6e 24 14 bc 3a 8a 2e bd 77 81 06 bb c3 9a 3c bc
       -0.009041889 -0.042612292 -0.0020523944 -0.011511507
000120 0d 2d 1b bd e4 f0 69 3a 54 15 89 3c 0b fe 90 3e
       -0.03788476 0.000892414 0.016733803 0.2831882
000130 95 dd 1c be 7f f3 61 bd fb aa 64 3d 13 ee 03 bd
       -0.15318902 -0.055163857 0.055827122 -0.032209467
000140 31 a5 8c 3e 49 e0 02 be 11 c3 a2 3e 2f 65 ad 3c
       0.2746978 -0.1278087 0.3178945 0.021166412
000150 3b 09 da bd 81 6a aa 3c f4 28 95 bd 1f 20 cc bd
       -0.10646292 0.020802738 -0.07283202 -0.09967064
000160 45 20 52 bd 5f 13 47 bc 75 2c fb 3e 15 19 93 bd
       -0.051300306 -0.0121506145 0.49057356 -0.071825184
000170 66 9e 79 3d 69 3d ad 3d f2 09 d2 3d 88 b1 b5 3b
       0.060942076 0.08458979 0.10255803 0.005544845
000180 a5 68 6e 3d c3 0f 24 3d 75 95 8d 3e 14 ae 6a 3d
       0.058205266 0.040054094 0.2765309 0.05729492
000190 e1 8f 4d 3e 82 ba c6 3d fe 6d 08 bd 86 d8 6c 3d
       0.20074417 0.09703542 -0.03330802 0.05782368
0001a0 95 4b 11 3d a3 ed 93 3e a4 65 9c 3e fa d2 17 3d
       0.03547247 0.2889224 0.30546296 0.037066437
0001b0 84 10 46 bd 04 50 8d 3c 85 48 47 3a a9 30 e9 3d
       -0.048355594 0.017250068 0.0007602054 0.11386234
0001c0 aa 3f a6 bc a6 8c 53 be 2d 86 3a bc 3a 5c 44 3e
       -0.02029403 -0.20659122 -0.011384529 0.19175807
0001d0 92 3a 5b bd 8f e2 2f bd dd 04 00 bf 77 f5 01 bf
       -0.053522654 -0.042940672 -0.5000742 -0.50765175
0001e0 cd c5 27 bd af 39 a1 3c f1 c8 bc 3e 9b a2 8a 3e
       -0.040960122 0.019680826 0.36872056 0.27077183
0001f0 35 fa 1a bf ec a8 2f bd 59 a3 0f 3b 62 f8 45 bd
       -0.60538036 -0.042885706 0.002191743 -0.04833258
000200 40 71 6c bc 0c 97 29 3d e6 1e 83 3d 88 5a 9a 3d
       -0.014431298 0.041403815 0.06402378 0.07536799
000210 c4 aa b6 bb a2 6d 81 bb e4 be 2b bd 4f ae ac 3c
       -0.005574556 -0.003949837 -0.041930094 0.02107921
000220 34 43 d6 bd 01 3b 78 3e fc aa 9d bd 38 f6 4e be
       -0.10462037 0.24241258 -0.07698628 -0.20211112
000230 a4 5e f3 3c 8b 33 c6 3c c3 f2 ec 3d a6 63 34 3e
       0.029708214 0.0241945 0.115697406 0.17616138
000240 44 49 ae 3b 9c d0 08 be b4 e9 57 3e a7 02 05 3f
       0.0053187925 -0.13360828 0.21085244 0.5195717
000250 12 fb d4 3e fa e0 a5 3d 10 78 99 bc f8 2c 46 3e
       0.415978 0.080995515 -0.018734008 0.19353092
000260 09 98 17 3e 6e 77 1b 3e b7 b9 29 3e 27 80 97 bd
       0.1480409 0.15182278 0.16574751 -0.0739749
000270 60 86 ac 3d 28 69 8a bd d7 17 21 bd bf 2c a5 be
       0.084240675 -0.06758338 -0.039329376 -0.322607
000280 f9 a5 2d 3d 79 a6 49 3d 72 5d 57 3e ff 8c 74 bb
       0.042394612 0.049231026 0.2103174 -0.0037315486
000290 1a 31 81 3d 6b 88 6e be 3a 08 86 3c 63 ea 6c 3d
       0.063081935 -0.23294227 0.016361345 0.057840716
0002a0 e0 23 69 3c a7 ba 21 3e 06 82 ed bc ba 76 48 3e
       0.014229745 0.15793858 -0.028992664 0.1957654
0002b0 bb f2 96 3c 04 df 88 3e 3b e2 84 3e c4 a8 d0 bc
       0.01842629 0.26732647 0.2595385 -0.025471099
0002c0 74 fa da bc 92 ee a4 3d 5d 4a d2 bb ec 95 a7 3c
       -0.026730753 0.08053316 -0.006417556 0.02045723
0002d0 11 9a f6 3c 7e 76 67 bd 82 cc a9 3b b3 13 12 bd
       0.030102761 -0.056509487 0.00518185 -0.035663318
0002e0 52 71 97 3c 22 f3 f1 3c d5 35 0b bb 17 25 46 bb
       0.018486653 0.02953488 -0.0021241803 -0.003023451
0002f0 02 16 2e bd 95 a9 a8 bc 95 ca 36 bd f8 f0 53 3c
       -0.042501457 -0.020588676 -0.04462679 0.012935869
000300 33 f9 e2 3c 62 8a 50 bc 13 74 fd bc 23 c6 9c 3c
       0.027706718 -0.0127283055 -0.030939138 0.019137448
000310 8d 75 b0 bd b2 1a 7f 3c cd f5 57 bc 32 eb 49 bc
       -0.08616171 0.0155703295 -0.013181162 -0.012324141
000320 3a 23 a5 bd d2 f9 f5 3b 3d fe 7b 3d 24 58 89 3b
       -0.080633596 0.0075065875 0.061521757 0.0041914154
000330 99 61 43 3d 6a 36 2f 3d de 92 d6 bd 61 fc 4b 3d
       0.0477005 0.042776503 -0.104772314 0.049801234
000340 8d 32 11 bc 49 99 40 bd 26 04 39 3d b9 b5 f0 bd
       -0.00886215 -0.047021184 0.045169972 -0.11753411
000350 f4 2a 93 3d 25 02 e4 3b 72 38 c8 3d 8a 12 8b 3c
       0.07185927 0.0069582635 0.09776391 0.016976614
000360 fb 87 e4 bc d1 a5 17 be 02 34 05 3d fa 6d 23 3e
       -0.027896872 -0.14809348 0.0325203 0.15959921
000370 f9 f5 65 bd 1a 16 39 3d ff 15 00 be 5a 5c 05 bd
       -0.05614278 0.045187093 -0.12508391 -0.032558776
000380 42 c6 85 3e ba ef 72 bd 74 83 38 3e 05 de 1e be
       0.2612782 -0.059310652 0.18018895 -0.15514381
000390 b3 12 3b be 74 0d 58 3e 33 70 90 be 6b c4 30 3e
       -0.18268852 0.21098882 -0.282106 0.17262428
0003a0 5d de a5 bd f4 f9 c9 be 8a 0b a2 bd fb 76 85 be
       -0.08099053 -0.39448512 -0.07912357 -0.26067337
0003b0 06 df 51 be b9 24 c1 3c a0 de 16 be 8c 22 4d 3e
       -0.20495233 0.023577081 -0.14733362 0.2003271
0003c0 f1 15 4e 3e 2d 16 cd bb 16 cf 30 3e f7 d0 a4 3e
       0.20125557 -0.006258747 0.17266497 0.32190678
0003d0 6c f6 62 3e 19 69 fe 3c a8 22 b1 3e 60 d1 0e 3e
       0.22164315 0.031055974 0.34596753 0.13947058
0003e0 28 67 36 bd c0 6b 7d 3e f4 49 52 3c b0 91 2d 3b
       -0.04453197 0.24748135 0.012835015 0.0026484542
0003f0 62 4d ec 3c 86 e0 c3 bc 91 20 0f bd 98 5b 57 bd
       0.028845493 -0.023910772 -0.034943167 -0.052577585

fc1.bias f4 [64]
000000 59 10 93 3d eb f6 0a bd 65 97 00 bd 14 61 db bb
       0.071808524 -0.033926886 -0.03139438 -0.006694922
000010 8e dc ca 3c 4d 92 bc 3d 26 78 aa bc b2 08 51 3b
       0.024763372 0.09207592 -0.020809244 0.0031896052
000020 80 79 24 bd 16 34 6a 3c a7 9a 71 bd bc 78 03 bd
       -0.040154934 0.014294645 -0.05898538 -0.032097563
000030 88 67 a4 bc 6b 81 75 bd 0f ac 3b bd 00 31 38 bc
       -0.020068899 -0.059937876 -0.045818385 -0.011242151
000040 e0 c2 55 bd a4 23 1d 3e ec 80 22 3b 04 7f 1c bd
       -0.0521878 0.15345627 0.0024796082 -0.03820707
000050 c0 2c 66 3c 0a 08 e9 bb fe 6e 5e bd ab a6 79 bd
       0.014048755 -0.007111554 -0.05430507 -0.060949963
000060 6e 97 4f 3d 9e e4 50 bc 65 54 c2 3d 78 24 f0 3b
       0.050681524 -0.012749819 0.09488753 0.007328566
000070 62 49 aa bc 9f ef 0e 3e 09 f8 08 bb 09 c7 09 3e
       -0.020786945 0.13958596 -0.0020899794 0.13454832
000080 37 10 17 3d d7 57 05 3e 57 92 1f bd 63 19 9c bc
       0.036880698 0.1302179 -0.03895792 -0.019055074
000090 cd 26 6e bd e5 ac 45 bd 48 ea b4 bc 11 3c 9d 3c
       -0.058142472 -0.04826059 -0.02208437 0.019193681
0000a0 c6 21 1c bc af e1 d3 3c fa a1 11 3e 24 c8 86 3c
       -0.009529537 0.02586445 0.14221945 0.016452856
0000b0 74 71 b7 3d 66 a4 a3 3b 78 5a 7e bd 17 0d cc 3c
       0.08957186 0.004993963 -0.062097996 0.024908585
0000c0 e3 13 a4 3c 0b 19 0e bd a6 a0 08 3e cb 40 c1 3c
       0.020029014 -0.03469185 0.13342533 0.023590466
0000d0 9e b2 70 bd 84 ae 00 bc d8 91 20 3c 0b d3 59 bd
       -0.058764093 -0.007854108 0.009800397 -0.053179782
0000e0 fe ae f0 3d df 31 33 bd 9e b2 6f 3a 2f 54 39 3d
       0.11752127 -0.043748733 0.00091437425 0.0452463
0000f0 d6 94 12 3d 18 9f 68 bd f0 07 e3 3d 26 e3 d8 3d
       0.035786472 -0.05679235 0.11085498 0.105902

fc4.weight f4 [8, 64]
000000 74 15 51 3e b5 90 22 3d 94 2b 80 3d 35 90 85 bd
       0.2041834 0.039688785 0.06258312 -0.06521646
000010 86 cf e8 3d 80 c5 8c 3e 9e ee ec bd e0 c4 51 3c
       0.11367707 0.2749443 -0.1156895 0.012803286
000020 50 0b bd 3b 33 f1 8c bc fa 51 1c 3a de 2d 9c 3d
       0.005769171 -0.017204857 0.0005963143 0.07625936
000030 c2 26 fe bc 64 c9 71 3d c8 20 99 3c 26 ca 12 bd
       -0.03102434 0.05902995 0.01869239 -0.035837315
000040 32 32 cc 3c 03 63 a2 be 70 85 15 bc 79 2f 00 be
       0.024926279 -0.31716165 -0.009126052 -0.1251811
000050 d1 10 82 3d 47 43 e9 3d cb a3 4d bd 66 59 cb bd
       0.06350864 0.11389785 -0.050205033 -0.09929161
000060 4e 60 ac bd 87 2b 4b 3d 85 47 9b 3d d7 1f 1a 3e
       -0.08416806 0.049602058 0.07582001 0.15051208
000070 35 46 bd 3d 00 99 8e be 31 e8 54 3d dc 84 a6 bc
       0.092419066 -0.27851105 0.051979247 -0.020327024
000080 ac 0a eb bd 31 8b 03 3e f5 29 41 3d af 13 bd bc
       -0.11476645 0.12846066 0.047159154 -0.023080675
000090 3e c5 a2 bd a4 40 18 3d cc 96 ca b7 1c 72 66 3d
       -0.07947777 0.03717102 -2.4150497e-05 0.056261167
0000a0 c2 cb a0 3d aa 66 e6 3d 5a 21 1f be 6d ea 2a bc
       0.07851364 0.1125005 -0.15540066 -0.010431868
0000b0 95 02 19 bd 89 77 dc 3d 83 c4 22 bd 23 18 87 bb
       -0.037355978 0.10764987 -0.03973819 -0.0041227504
0000c0 1f 25 28 bd d0 c5 01 3c 8e e7 d7 be 61 d7 c5 3d
       -0.041051026 0.007920697 -0.4216885 0.09660221
0000d0 30 e1 9b bd 1c c6 d4 3d e0 f7 ce bd 74 64 be bd
       -0.076113105 0.10389349 -0.10105872 -0.09296504
0000e0 c5 5a a3 bd a0 c2 8a 3d 5a aa 6c bd 2b aa 85 3d
       -0.07976297 0.06775403 -0.057779647 0.065265976
0000f0 ea 06 da bd 79 d3 04 3d 17 1e 76 3e 74 2c 9c 3e
       -0.1064585 0.03242824 0.24034916 0.30502665
000100 ef 9e 23 3e 75 45 b3 3d c0 b4 05 be 97 27 00 bc
       0.15978597 0.08753482 -0.13057232 -0.007821939
000110 d8 ec e2 3d ed 71 0f be b5 b5 87 bc c0 cf 25 bd
       0.110803306 -0.14008303 -0.016566137 -0.04048133
000120 20 07 b8 3c 60 36 87 3d 8e 17 b8 3d 72 3e 00 be
       0.022464335 0.06602168 0.08988868 -0.12523821
000130 bb a2 c8 3d 96 5d 84 3d 08 96 cb 3d dd a6 30 3c
       0.097966634 0.064631626 0.099407256 0.010781971
000140 ec 17 bc bd b2 6b 59 be d0 83 e3 3c d3 d0 52 3d
       -0.0918425 -0.21232489 0.027772814 0.05146868
000150 0f 03 d0 3d e6 12 90 3d 1a 21 a6 bc b8 72 f2 bc
       0.101568334 0.070348546 -0.020279456 -0.029595718
000160 31 ee 30 3d f2 e4 d8 3b 3e 02 c2 3e 96 6c 9d 3e
       0.043195907 0.0066190893 0.37892336 0.30746907
000170 c6 5f ee 3d 61 ee 22 3e f5 b5 d5 3c 2c d3 a6 be
       0.11639361 0.15911247 0.02608774 -0.32582986
000180 b0 d7 08 3e 4d 07 cd be 4c 5a 0a 3d b6 9b c0 3c
       0.13363528 -0.40044633 0.03377752 0.023511749
000190 1e 31 cc bd ef 14 0b 3e d9 ac c5 3d 61 fe ba bd
       -0.09970306 0.13582204 0.09652109 -0.0913055
0001a0 66 99 d4 3d 73 1f 3c 3d a5 36 c8 be 65 8f 33 3d
       0.10380821 0.04592843 -0.3910419 0.043837924
0001b0 ae 72 06 be 50 c3 fd bd b0 89 80 3c 9b 28 96 bd
       -0.13129684 -0.123907685 0.015690655 -0.07331964
0001c0 5c 5a 11 be 3e 8e 89 bd 2a 7f 9c be f8 6a d2 3c
       -0.14194626 -0.06716584 -0.30565768 0.025685772
0001d0 96 ae 8c bb b3 2c 3e bb 7a e4 85 bd b8 46 3c 3d
       -0.004293273 -0.0029018342 -0.06537719 0.04596588
0001e0 00 71 4c be 08 ec 24 bd 02 f2 a2 bd 1d 8b 88 3e
       -0.19964981 -0.04026416 -0.079563156 0.26668635
0001f0 60 4c ae 3d 33 5b c7 bd 6e 9a c0 bd f8 c9 3f be
       0.08510661 -0.09734192 -0.09404455 -0.18729389
000200 be 20 20 bb 78 54 9b 3b bc b7 f8 bc c0 50 7b bd
       -0.0024433578 0.004740294 -0.030361049 -0.061356306
000210 f8 f2 51 bd f2 0d 6f 3e 0a 6c c7 bd 39 47 d2 3c
       -0.051257104 0.23345163 -0.09737404 0.025668727
000220 e2 5f 9f bd 34 00 2c bc fb 01 b9 bd 03 a3 ca 3d
       -0.0778196 -0.010498095 -0.09033581 0.09894373
000230 a1 99 d5 bc 4a d4 e6 bd 60 04 26 3d 58 6a a7 3d
       -0.026074233 -0.1127096 0.040531516 0.0817458
000240 0e aa 73 bd 48 16 9e 3c 64 bd 8d 3d 4d af b6 3d
       -0.05948835 0.019297734 0.06920889 0.08920155
000250 8c 71 cf 3d 93 3d c3 3c 13 b4 90 3d 9b 72 de 3c
       0.10129079 0.023833072 0.070655964 0.027154258
000260 cc 20 65 3d 15 70 9d 3d 9f 0d 12 bf 34 e6 4d 3e
       0.05593948 0.076873936 -0.57052034 0.20107347
000270 d4 ed b8 3d e9 21 bf be 77 68 80 bd f2 d2 bf bc
       0.09029737 -0.3733056 -0.06269925 -0.023416016
000280 53 8d 6e 3e 1e 43 b7 be 80 32 d4 ba 08 d1 be bc
       0.23296098 -0.35793394 -0.0016189367 -0.023293033
000290 e0 4e 68 3c 96 90 04 3c b0 39 9d bd 83 8f b7 3d
       0.0141789615 0.008091113 -0.07677019 0.089629196
0002a0 b1 73 94 3c cf da f3 bd ec e1 a0 be 7b 22 d4 bc
       0.018121572 -0.11906969 -0.31422365 -0.025895348
0002b0 3a 8a 0d be e6 c8 3c 3c 5b db 24 3d 50 ad ba bc
       -0.1382226 0.011522507 0.040248256 -0.02278772
0002c0 60 3e 76 3d e0 16 71 bc 2c 74 0c bd 1d 5a d6 3d
       0.06011808 -0.0147149265 -0.034290478 0.104664065
0002d0 6b 5d 4f bd ed 64 8f bc eb aa 33 bc 88 92 0c bd
       -0.0506262 -0.01750418 -0.010966043 -0.03431943
0002e0 e9 a2 08 bd d4 04 76 bd 7f d4 05 be a8 b4 77 3e
       -0.03335849 -0.0600632 -0.13069342 0.24190009
0002f0 9c 6a 15 be 99 e1 09 3e ce 7a 18 3e d8 6d 42 3d
       -0.1459145 0.13464965 0.14890596 0.047468036
000300 7f 1e 47 3d 1b 95 af 3d 7d 6a c3 3d cd 35 82 bd
       0.048613068 0.085733615 0.095417954 -0.06357918
000310 c7 63 bd bc 17 84 98 3e 0b a7 09 3c 50 53 2b 3b
       -0.023118867 0.29788277 0.008401643 0.0026142187
000320 40 8d d6 bb b5 f7 18 3d 5e 25 59 bb 8b d4 dc 3d
       -0.0065476 0.037345607 -0.0033133845 0.10782727
000330 fd 26 ee bc 16 59 e0 bd 48 91 b9 3c 41 5d c2 39
       -0.029071325 -0.10954492 0.022652283 0.00037072043
000340 0e 6b d0 bc 62 ef 65 be a8 d6 b0 bd 64 a2 87 3d
       -0.025441673 -0.22454599 -0.086346924 0.066227704
000350 90 ef 30 3c da bf bf 3c b8 bf 9b bd 46 26 82 bd
       0.010799304 0.023406912 -0.07604927 -0.06354956
000360 b9 17 93 3e be c7 ad 3d e8 f8 89 3e df 55 44 3e
       0.28729036 0.084853634 0.26947713 0.19173382
000370 50 2c e1 bd 2f 68 84 be 3f 9a a2 bb 97 ed 05 3e
       -0.1099478 -0.25860736 -0.004962235 0.13078915
000380 a2 34 02 be 96 ce b9 bd 7e 63 ce bd 2f 28 69 bc
       -0.1271539 -0.09072606 -0.100775704 -0.014230772
000390 32 94 87 bd b3 76 11 3d ef a2 99 bd 77 e0 54 3d
       -0.06620063 0.03551359 -0.0750178 0.05197188
0003a0 d4 92 cc 3d c0 ec 97 3d 09 01 67 bd 7e 8d 1b 3d
       0.09988943 0.07418203 -0.05639747 0.037976734
0003b0 f3 26 02 3e 1d 58 8f 3c 2b c9 dc 3d f4 75 eb 3c
       0.1271017 0.01749807 0.10780557 0.028742768
0003c0 13 a9 f6 bd 90 c8 7d bc 14 aa 08 3c 5b c1 4b bd
       -0.12043967 -0.015489712 0.008341331 -0.049744945
0003d0 86 ae ac bd c3 4d 3d 3c e6 f6 97 3d 9e b3 92 3d
       -0.08431725 0.011554184 0.07420139 0.071631655
0003e0 56 46 05 bf 05 e5 31 bd bc d3 85 3d 88 04 79 3e
       -0.5206045 -0.0434313 0.06534526 0.24318135
0003f0 52 97 c2 3d a2 ce d0 3c 32 b5 dc 3c 87 18 11 bf
       0.09501518 0.025489155 0.02694187 -0.5667805

fc4.bias f4 [8]
000000 e0 c2 6a bc 51 4f f5 ba 62 3d 04 39 71 76 37 be
       -0.014328688 -0.0018715655 0.00012611368 -0.17916276
000010 06 09 1d be 23 c6 be 3c ac 04 52 3e 7f 4d 0a bd
       -0.15335473 0.023287838 0.20509595 -0.033765312

conv1.weight f4 [16, 2, 4, 4]
000000 c5 9b 8e be 5e 72 be be fe 01 06 bf 9f 96 81 be
       -0.27853218 -0.3719663 -0.5234679 -0.25310227
000010 e5 d1 a4 be 08 b0 1a bf 6c 5a 81 bd 5e 29 4e be
       -0.32191387 -0.6042485 -0.06316075 -0.20132968
000020 26 d0 27 bf d9 03 f3 be f0 ac e4 bd 71 5f e7 be
       -0.65551984 -0.47463873 -0.11165798 -0.45190004
000030 e4 d0 f2 be b2 47 1e bd 39 f7 9f be 03 0e 30 be
       -0.47424996 -0.038642593 -0.31243303 -0.17192845
000040 8e ad 4a 3d 25 82 5c be bd c6 41 3e 28 4e 15 3e
       0.04948192 -0.21534021 0.18923469 0.14580595
000050 62 e4 3c 3e df 8f c1 bd 29 a5 d1 bc 1f 98 8c 3d
       0.18446496 -0.09451269 -0.02559145 0.06864952
000060 b2 ec 3e 3e 87 71 75 3b f4 b1 90 bd 61 09 f9 3d
       0.1864498 0.00374517 -0.07065192 0.12159992
000070 e0 82 ba 3d 60 54 3e 3e 99 21 da 3b 9a 52 01 be
       0.09106994 0.18586874 0.006656837 -0.12629166
000080 c2 0a 57 3f e9 e0 46 3e 1f 73 dd be 4d 40 cf 3e
       0.8400079 0.19421734 -0.43251893 0.40478745
000090 89 b5 70 3f 87 58 ea 3e 0d 57 68 3f de 56 24 3f
       0.94027 0.45770666 0.9075783 0.6419505
0000a0 62 ed 18 3f 54 1d 3e 3f 19 e4 97 3e a9 e5 25 3f
       0.5973722 0.742635 0.29666212 0.6480356
0000b0 d0 b2 21 3f 98 03 33 3d fc 09 72 3e 6f 22 a9 3f
       0.6316347 0.0437046 0.23636621 1.3213633
0000c0 ef 2d bf 3d b3 c0 ed 3d df 73 a7 3d b5 49 a3 3d
       0.09334933 0.1160902 0.081763975 0.07973043
0000d0 50 eb 43 3d de 7c 64 3d 4e 57 cd 3d 27 28 02 3e
       0.047831833 0.055783145 0.10026418 0.1271063
0000e0 dc 31 d6 bd 74 ca e1 bd a9 7e d4 bd 83 2b 08 3e
       -0.10458729 -0.11024943 -0.10375721 0.13297848
0000f0 70 6e 08 bc 4e ad ad 3d 19 ae 84 bd 02 97 20 bc
       -0.008327112 0.08480321 -0.06478519 -0.009801628
000100 22 a3 f0 be 6b 2a e3 be 96 d7 ea be ab 4e a9 3e
       -0.4699946 -0.443683 -0.45867604 0.3306783
000110 2d 6a 14 3f 36 58 e2 be 35 10 ee bd fd 73 49 be
       0.5797451 -0.44207925 -0.11624185 -0.19673152
000120 10 d2 8a 3f 72 93 c2 be 8c 6c e7 be 72 3d b3 3e
       1.0845356 -0.38003117 -0.45200002 0.35007817
000130 5f c7 4e 3d a5 81 f6 bd 84 33 c8 be 2b 3e 1b bf
       0.050483104 -0.120364465 -0.39101803 -0.60641736
000140 94 89 20 bc 6b 94 17 bd 63 98 19 3e c9 a0 9b bc
       -0.009798426 -0.037006777 0.14999537 -0.018997567
000150 91 dc 61 3d 74 98 5f bd 17 9c 26 3e 7e ce e2 3c
       0.05514199 -0.05458875 0.16270481 0.027686354
000160 66 4c 1d 3e 03 31 df bd 9b b0 0e be 87 6f 9f be
       0.15361175 -0.1089802 -0.13934557 -0.31139776
000170 9b fc c9 bd dc f7 15 3e 3b 12 69 be 58 a5 f6 bd
       -0.09862634 0.14645332 -0.2276086 -0.120432556
000180 fc 7e b3 be fe 5d 27 be 59 76 68 be d4 b8 bc be
       -0.3505782 -0.16344449 -0.22701396 -0.36859763
000190 28 4c e6 be b2 b2 06 bf 28 8f e8 be 59 3c 81 be
       -0.44979978 -0.5261642 -0.4542172 -0.25241354
0001a0 39 18 0f bf 45 b5 04 bf 9c 4f 60 be c3 85 2b bf
       -0.55896336 -0.51839095 -0.21905369 -0.6700098
0001b0 98 6f b4 be 51 b1 eb 3c 01 86 e4 be a7 72 7c be
       -0.3524139 0.028771074 -0.44633487 -0.24653111
0001c0 e2 a5 eb bc 21 c9 37 3d 3c 85 1e 3e b2 4b 38 3e
       -0.028765623 0.044869546 0.15480512 0.17997625
0001d0 11 8d 14 3e f8 15 31 be a5 6c 4b 3e cc 4b 80 3c
       0.14506938 -0.17293537 0.19865663 0.015661143
0001e0 6d 62 40 be d7 c7 01 be d9 63 68 be b8 75 37 be
       -0.18787546 -0.12673889 -0.22694339 -0.17916
0001f0 3f 5d 72 bd a1 4d 42 3e a0 3c ff 3d f8 32 24 3e
       -0.059170958 0.18974926 0.12462735 0.16035068
000200 d1 6b 76 3f 65 45 17 3f 95 b2 3c 3f ba 6d 85 3f
       0.96258265 0.5909026 0.73709995 1.0424111
000210 a0 d2 9c be f9 fa 55 be 17 06 90 3e 65 4d b0 be
       -0.30629444 -0.2089652 0.28129646 -0.34434047
000220 28 9f 39 3f d6 fe 95 be e2 6a ac 3e 18 b2 f4 be
       0.7250848 -0.29295987 0.33675295 -0.47792125
000230 ec 6d 9d be b5 c5 d1 be 65 55 0a 3f 3c 70 90 bd
       -0.30747926 -0.4097115 0.5403655 -0.07052657
000240 6f 99 8d bd bd 18 13 3e 67 6b 50 3c 87 70 c1 3d
       -0.06914031 0.14364906 0.012720919 0.09445291
000250 94 02 b9 bb bf 99 04 3e 48 cb 29 ba ed e5 a2 bc
       -0.0056460593 0.12949274 -0.00064771296 -0.019885028
000260 89 d5 a1 3e 06 75 7a 3d 45 c6 3b be f7 8c ff 3d
       0.31608227 0.06114676 -0.18337353 0.12478059
000270 8c 75 40 3e e4 52 19 3d 0a 33 c0 3d 39 f7 61 3e
       0.1879484 0.037432566 0.09384735 0.22066964
000280 0f ab a1 be 19 66 13 3e a9 03 2a bd 30 e0 e0 be
       -0.3157582 0.14394416 -0.041507397 -0.4392104
000290 7d 04 03 3f c8 8c 1f 3f c9 94 67 bc 03 40 a8 be
       0.51178724 0.6232419 -0.014134594 -0.32861337
0002a0 f5 9e 42 bf b2 a5 9d 3e aa 4e 90 be b4 a7 0b be
       -0.760238 0.30790478 -0.28185016 -0.13638192
0002b0 bf 67 ec 3f 77 5d f6 3e 4c 6a 47 be e2 e9 d1 3e
       1.8469161 0.48118183 -0.19474143 0.4099875
0002c0 4f 70 95 be ed 8c 8f bd 77 5c f0 bc 72 9a 78 3d
       -0.29187247 -0.07009301 -0.029340966 0.060694166
0002d0 56 58 87 bc 28 32 3f 3d 33 7a a6 3d c7 c5 3b bc
       -0.016521614 0.046678692 0.081287764 -0.011460728
0002e0 7c c8 b4 3d 79 45 90 bd d9 2c 57 3d 10 d1 c3 3d
       0.08827302 -0.07044501 0.052533004 0.0956136
0002f0 77 a4 dd 3c 23 4b fa be 2f f5 b1 bd 00 34 1a 3d
       0.027055962 -0.4888545 -0.08689343 0.037647247
000300 f0 19 d8 bd 2c 72 8f 3f 7d 58 c6 3d 39 75 17 be
       -0.10551822 1.1206717 0.096848466 -0.1479081
000310 93 1e 35 3f e0 a4 59 3e 75 d6 10 3e 5b 65 80 be
       0.7074978 0.21254301 0.14144309 -0.25077328
000320 cc a2 bb 3f d2 f4 e5 3e e1 0e 3c 3d ad e1 09 be
       1.4659057 0.44913346 0.045912627 -0.13464995
000330 13 a8 be bd 0f fd 97 3f 13 b7 af 3d 1b 83 9c be
       -0.09309401 1.1874102 0.085798405 -0.30568776
000340 a4 be aa 3d 5c 9c 4d 3e 9f 23 45 3c 03 ce 0e 3c
       0.08337143 0.20079178 0.0120324185 0.008716109
000350 26 47 d2 bc 3d 50 a0 be 8f 01 65 3c de ed e1 bd
       -0.025668692 -0.31311217 0.013977422 -0.11031698
000360 89 e7 63 3d ad ef 5b be 6e 0d b0 3c 49 de 60 3c
       0.05564073 -0.21478148 0.021490779 0.013724872
000370 54 8f 90 bd d0 4b fc bc 2b a2 86 be 9e 52 22 3c
       -0.07058588 -0.030797869 -0.262956 0.009907393
000380 56 05 0c bf cf 87 a1 bd bd e3 16 3d 30 87 3c be
       -0.5469564 -0.078872316 0.036838282 -0.18410945
000390 c6 1a c3 be 2c 5c eb be aa 20 b6 bd 9a 62 d9 bd
       -0.38106364 -0.4596876 -0.08892949 -0.1061451
0003a0 bc 07 dc be 76 ff ea 3e c6 ed 33 be 35 eb 72 bd
       -0.4297465 0.45898026 -0.17571172 -0.059306342
0003b0 15 77 d6 3f cf 52 23 3f 54 45 04 bf dc c6 b6 3d
       1.6755091 0.6379823 -0.51668286 0.08924648
0003c0 4b 13 77 bd 72 c2 22 be a3 52 80 bd 80 42 16 be
       -0.060321134 -0.15894488 -0.06265762 -0.14673805
0003d0 e0 e8 1c 3e 8d c1 aa 3c 5f e2 f8 bd ed 09 4b be
       0.1532321 0.020844245 -0.12152552 -0.19828005
0003e0 fb 70 4f 3e c7 77 24 3e d9 0d 1a bd 4e cc c3 bd
       0.20257942 0.16061316 -0.037610862 -0.095604524
0003f0 a5 de 11 3e de c8 36 3e e4 a5 b9 bd 78 13 84 3e
       0.14245088 0.17850062 -0.09064844 0.25796103

conv1.bias f4 [16]
000000 fa 56 2e 3e 23 a3 12 3e ae 66 89 3e 8e 3f 87 3e
       0.17025366 0.14320044 0.2683615 0.26415676
000010 5c b2 9c 3d 89 00 9b 3d cf 5f ed bb f9 ca 94 3d
       0.07651207 0.075684614 -0.0072440873 0.072652765
000020 d5 02 a1 3e 8a 7b 10 3e d5 c4 82 3e c3 a5 e1 3c
       0.31447473 0.14109626 0.25540796 0.027544862
000030 23 34 01 3e a5 a3 0a bd 88 e8 3d 3e 85 bd 11 3e
       0.12617545 -0.03384747 0.18545735 0.14232452

conv2.weight f4 [32, 16, 4, 4]
000000 dc ad 98 bd 09 4c a7 3c 94 9b 36 bd 95 a5 1a bd
       -0.07455036 0.020421999 -0.044581965 -0.037755568
000010 ef 90 a7 3b d4 c9 98 bd 3b 0c 2c 3d 54 4e a9 bd
       0.005113713 -0.07460371 0.04200385 -0.08266893
000020 21 78 8e bc 54 62 63 bd ae 66 a4 3c 1b 1a 28 bd
       -0.017391266 -0.055513695 0.020068493 -0.04104052
000030 db 9b 72 bd e8 32 34 3d 66 3f ac 3c 2d 71 f9 bc
       -0.059230667 0.04399386 0.021026324 -0.030449474
000040 b1 4b 97 bd 30 a0 71 bd e8 90 b0 bd 4f 08 02 3b
       -0.07387484 -0.058990657 -0.08621389 0.0019841378
000050 af 69 80 bd 99 20 c3 bd e7 f4 5c bd fc 8f 6b bd
       -0.062701575 -0.09527702 -0.053944495 -0.05751036
000060 63 e5 36 bd 0e 91 01 bd 28 50 ad 3c 1a 48 98 bd
       -0.044652354 -0.031632476 0.021156386 -0.07435627
000070 2d 7b e6 3c 94 73 78 bd 0d 43 28 3d 13 44 cb 3c
       0.028134907 -0.0606571 0.04107957 0.024812734
000080 6f b2 52 bd 7a d3 47 bc 6c 73 b9 3c 62 17 a2 bc
       -0.0514397 -0.012196416 0.022638045 -0.01978654
000090 69 7b 9c bd d7 b3 52 bd 77 8e 32 3d bd eb 7b bd
       -0.07640726 -0.05144104 0.043592896 -0.061504114
0000a0 ee c7 e6 3a da ad 46 bd bf 9f 4c bd 02 25 fc 3c
       0.0017607191 -0.04850564 -0.049957033 0.030779365
0000b0 a5 f3 0e 3d 08 20 62 3d 79 1e 59 3b 3c 53 a0 bd
       0.034900326 0.05520633 0.0033129735 -0.07828376
0000c0 4e 32 35 bc 35 0a bb bc ef 66 34 bc 15 56 79 bd
       -0.011059357 -0.022832016 -0.011010869 -0.06087311
0000d0 be 28 94 bd 1d 73 b1 bd 4f 33 88 bd 7d 6c f0 bc
       -0.072343335 -0.08664534 -0.06650411 -0.029348606
0000e0 88 cf 94 bc a2 11 21 bd f7 25 c3 3c a2 25 66 bd
       -0.018165365 -0.039323457 0.023821814 -0.056188233
0000f0 e5 72 b0 3b 5d cd 63 3c fa 42 70 bb 23 9f 5c bc
       0.0053847902 0.013903943 -0.0036661015 -0.0134656755
000100 7d da 19 bd 08 a6 96 3c 83 e1 86 bc 83 57 da 3c
       -0.037561882 0.018389717 -0.016464954 0.026653057
000110 90 17 d5 bb 6b f4 07 3d ce b8 3b 3d bc 02 2c 3d
       -0.006503053 0.03319208 0.04583054 0.041994795
000120 f5 3d ab 3c 37 69 c3 bc b2 88 c4 bd ba 97 8c bd
       0.020903567 -0.023853881 -0.09596385 -0.06864877
000130 2d 81 a0 bd 90 1a cf 3c cf 56 20 bc d1 ae 40 bd
       -0.07837138 0.02528122 -0.009786322 -0.047041718
000140 4a ae f5 bc c7 34 a2 bc 5e cb 1c bd 55 49 71 bd
       -0.029990334 -0.019800557 -0.038279884 -0.058907825
000150 68 b2 41 bd cc 23 cb 3c 6c e4 97 bc 04 5e b3 bd
       -0.047289282 0.024797343 -0.018541537 -0.087581664
000160 fc 9d 87 bd 83 23 d0 bd 4c 59 13 bd 67 f5 ca 3c
       -0.0662193 -0.10163023 -0.035973832 0.02477522
000170 80 91 21 ba c0 60 e6 3c 91 ed ad 3c 50 2f 50 bc
       -0.0006163344 0.028122306 0.021231445 -0.012706593
000180 0d c8 47 3d 10 72 56 bd bc 56 18 3b e2 83 0c 3d
       0.048774768 -0.052354872 0.0023245057 0.03430546
000190 1a 20 7f bd 42 d9 40 bd c8 4a 1a 3d c5 1e 40 3b
       -0.062286474 -0.047082193 0.037668973 0.0029315215
0001a0 9f fe da bb fa 33 94 bd a2 40 60 bc 41 ec 7b bc
       -0.006683185 -0.07236476 -0.013687285 -0.015376152
0001b0 08 a5 74 bb 35 0c 9f bd 04 19 6c bc 1f fa 04 bd
       -0.0037329812 -0.07766 -0.014410261 -0.032465097
0001c0 4c bb 30 3c 31 7e 2b 3d 62 cb a5 bd ff 39 a6 bd
       0.010786843 0.041868392 -0.08095433 -0.081165306
0001d0 99 36 21 bd ee fd 47 bd 4e cb 2b bd 13 b2 10 3d
       -0.03935871 -0.04882615 -0.041941933 0.035326075
0001e0 c5 5d f0 bd ee 5e 55 bd 4e 96 84 bc b8 6f 12 bd
       -0.11736635 -0.052092485 -0.016184952 -0.035751075
0001f0 3a e6 86 bd f8 7e ed 3c fe 0d c2 bc 77 55 5d 3c
       -0.06586881 0.028991207 -0.023688313 0.013509146
000200 1f 14 a4 bc d1 50 aa bd 33 3f c8 3c 52 0f bd 3c
       -0.020029126 -0.08316196 0.024444198 0.023078594
000210 cb d2 52 3c 5e e3 08 bd 59 76 d9 bd bb f1 22 3b
       0.01286764 -0.03341996 -0.10618276 0.002486332
000220 aa 3b 36 3b 90 30 9e 3c fd 28 80 bc a1 3c 9e bb
       0.0027806559 0.019310266 -0.015644545 -0.004829005
000230 57 9c 3c 3d 6a bc cd bc 66 ac 8a bd 84 8e e8 bc
       0.046047535 -0.025114257 -0.06771164 -0.02838827
000240 3e 2d 39 bd 65 82 31 bd 54 08 71 bd a0 82 32 bd
       -0.045209162 -0.043337245 -0.058845833 -0.043581605
000250 bc 69 84 bd 9d f3 76 bd d5 15 6b bb 1a 20 49 3d
       -0.0646548 -0.06029092 -0.0035871167 0.04910288
000260 82 4d 49 bd e6 99 57 bd 1a 4b 9c bd 8e 94 95 3b
       -0.049146183 -0.052637003 -0.07631512 0.0045648282
000270 84 e6 59 bd a3 7c 89 bd 6d d9 82 bd 88 cc 84 bd
       -0.053198352 -0.06713226 -0.06389127 -0.06484324
000280 a0 68 33 3d c0 d2 46 3d 82 73 78 3c ec 21 93 3b
       0.04380095 0.04854083 0.015164258 0.004490128
000290 08 8b a1 bd 48 2d bf bd 86 5e 9b bd 57 6b 7e bc
       -0.07887846 -0.093348086 -0.07586388 -0.0155285215
0002a0 33 25 11 bd 5b 72 19 bd 95 0d d2 b9 3c d5 9e bc
       -0.035435867 -0.037462573 -0.0004006444 -0.019388787
0002b0 56 2b d3 bd ac a9 81 bd 88 89 7a bd 58 11 cb bb
       -0.10311 -0.063311905 -0.061166316 -0.006197136
0002c0 7a 52 f1 3c 92 95 01 3c 15 8b 94 ba bc 48 86 3d
       0.029458273 0.0079091955 -0.0011332954 0.06556842
0002d0 05 8b 90 bd 64 c9 33 bd ed 55 d5 bc ff 61 dd bc
       -0.07057766 -0.043893233 -0.02604195 -0.027024267
0002e0 0e 1b 12 3b 29 a4 cf 3c fd 73 f8 3b 55 02 58 bd
       0.0022293958 0.025346832 0.0075821863 -0.0527366
0002f0 84 4f c1 bc 0b 51 35 bd b8 c5 c1 bd 43 2d 60 bd
       -0.023597486 -0.04426674 -0.0946154 -0.054730665
000300 50 3e 8b bc c0 a6 2d bb 90 68 6f 3a 16 f0 28 bd
       -0.016997486 -0.0026497096 0.00091327075 -0.04124459
000310 56 2c 7f bd 42 b5 8b bd ce da 89 bd 8b db 83 bd
       -0.06229814 -0.068216816 -0.06731187 -0.06438359
000320 4a f5 e0 3b 4f fb 49 bc 25 a7 31 3d a0 af a7 bc
       0.0068651782 -0.012327983 0.043372292 -0.020469487
000330 f3 cf f9 bb b0 30 75 bd 6c ae 65 bd c2 21 62 bd
       -0.0076236664 -0.059860885 -0.056074545 -0.055207975
000340 72 0c 18 bc 11 13 6e 3d 3b 29 05 3d 98 25 05 3c
       -0.009280311 0.058123652 0.032510024 0.008126639
000350 66 be 25 bc 6b 63 93 bd 2d 73 e0 bd 98 2f 95 bd
       -0.010116195 -0.07196697 -0.10959468 -0.072844684
000360 de 16 2e 3b 3b 81 2e bd 27 d5 a1 bc c2 93 f3 bb
       0.0026563923 -0.042603713 -0.01975496 -0.0074333856
000370 e8 6c 78 bd 97 96 3f bb b0 c4 11 3d ad 8b 1a be
       -0.060650736 -0.0029234046 0.035587966 -0.15092345
000380 21 0b b8 bc f5 bc fa bc e8 e3 c7 ba 93 77 55 3b
       -0.022466244 -0.03060768 -0.0015250416 0.0032572492
000390 43 40 02 bb dd e6 ca bc 86 81 4e bd 0d 2a 8c bd
       -0.0019874729 -0.024768287 -0.050416492 -0.06843958
0003a0 37 fa 0e 3d d8 2b 89 bd af 02 c7 3c 32 eb 53 bd
       0.034906592 -0.06697816 0.024293272 -0.05173797
0003b0 49 60 f5 bc 92 c8 1a 3d 01 d9 2b bd 62 5e 03 3b
       -0.029953139 0.037788935 -0.041954998 0.002004527
0003c0 a6 51 42 bd 51 f3 db bc 4a fc 0b bd 42 35 65 bb
       -0.047441147 -0.02684942 -0.03417615 -0.003497437
0003d0 71 ff af bc 7e 60 c0 bd 7a 47 56 bc db 25 9d bd
       -0.021484109 -0.093934044 -0.013078565 -0.07673236
0003e0 5c ff 40 bd 63 e9 aa 3c 07 03 28 3d 93 3a 98 bd
       -0.04711853 0.02086324 0.041018512 -0.07433047
0003f0 69 7a 4f bd 6f 07 ec bd a2 59 58 bd 8b 0c 64 3d
       -0.05065385 -0.11524855 -0.052819856 0.055676024

conv2.bias f4 [32]
000000 8b 9e 4f bd a4 d6 90 bd 8e 69 b2 3c 75 f5 06 3e
       -0.050688308 -0.070721895 0.021778848 0.13179572
000010 fa 4b 0d 3d 71 7c 27 3e 0f 35 80 3d 23 c8 1c bd
       0.034496285 0.16356064 0.0626012 -0.038276803
000020 73 95 c4 3d f0 fb ba 3b 9d 5d e4 bc be bd 1e 3e
       0.09598818 0.005706303 -0.02787667 0.15502068
000030 1d 84 ca 3d 8a 2e 9e bd 2d 57 1a 3e b2 9a 00 3e
       0.0988848 -0.0772372 0.15072317 0.12559012
000040 cb bf 45 3d 99 14 10 3e 69 40 f3 3d 57 74 56 bd
       0.04827861 0.14070357 0.1187752 -0.052357044
000050 fd 87 1f bc b7 ce 3b 3d fb d2 1b 3e a8 89 89 3d
       -0.009737012 0.045851436 0.15217201 0.06715709
000060 3e 03 10 3b 58 59 e3 bc 3f 78 37 3c 4f 3e 44 3d
       0.0021974589 -0.027752563 0.0111981025 0.047910985
000070 24 d0 27 bc e2 74 9e bd f5 25 95 3d 9b f2 c6 bd
       -0.010242496 -0.077371374 0.0728263 -0.09714242
