DRL-based-path-finding/saved_models/dqn_checkpoint_ep0.pth (torch, 981285 bytes, 32 tensors)

conv1.weight f4 [16, 2, 4, 4]
0	0xbde2e590	-0.11078942
1	0x3df88532	0.1213478
2	0xbd208cfc	-0.039196953
3	0x3e0ea698	0.13930738
4	0xbd9253a5	-0.0714486
5	0xbe2da9ad	-0.16959257
6	0x3b7d3cd8	0.0038641002
7	0xbe08f172	-0.13373354
8	0x3e22d6ef	0.15902303
9	0x3d817f46	0.063231036
10	0xbe0704e9	-0.13185467
11	0x3e282350	0.1641972
12	0xbde8ae38	-0.113613546
13	0x3d9cea1b	0.076618396
14	0x3c504b51	0.012713269
15	0x3de728a1	0.11287046
16	0xbde85556	-0.113444015
17	0x3d5aae36	0.053388797
18	0x3d9bb21b	0.0760233
19	0x3e1ea0a7	0.15490972
20	0x3d602c08	0.05472949
21	0x3e33f5f5	0.17574294
22	0xbe10e9fc	-0.14151758
23	0xbdf0f290	-0.11765015
24	0xbd92d536	-0.07169573
25	0xbda1f932	-0.07908858
26	0xbd3d3832	-0.04619617
27	0xbdefce27	-0.11709242
28	0x3e1af1be	0.1513128
29	0x3e232886	0.15933427
30	0x3e05f1d7	0.13080536
31	0x3e2938a7	0.16525517
32	0x3dbb46e2	0.09144379
33	0xbda55128	-0.0807212
34	0xbe178e38	-0.14800346
35	0x3de6a0b8	0.112611234
36	0x3d4f6b3c	0.050639376
37	0x3e008c8a	0.12553611
38	0xbe29a41a	-0.16566506
39	0xbd90744e	-0.07053433
40	0xbda9895d	-0.08278153
41	0x3ddf369c	0.10899088
42	0x3be38f52	0.0069445753
43	0xbe0bca84	-0.13651472
44	0xbdf5fbac	-0.12010893
45	0xbdb96515	-0.09052483
46	0xbda48aa6	-0.080342576
47	0xbdeafee9	-0.114744015
48	0x3de7493a	0.11293264
49	0xbbbd258e	-0.005772299
50	0xbd0f3f0b	-0.03497223
51	0xbd053445	-0.03252055
52	0x3da1671a	0.07880993
53	0x3d9384f8	0.07203096
54	0x3d181080	0.03712511
55	0xbd04262d	-0.03226297
56	0x3d545385	0.051837463
57	0xbe120d06	-0.1426278
58	0xbdd4196d	-0.10356412
59	0xbe2e6dc7	-0.17034064
60	0xbd80acae	-0.06282936
61	0x3ceda468	0.02900906
62	0xbdf24b9b	-0.11830827
63	0x3e2d32b2	0.1691387
64	0xbdc6bcd0	-0.09703982
65	0xbd8eddca	-0.06975897
66	0xbd8b2e2b	-0.06795915
67	0xbcb94708	-0.022616878
68	0xbe1752c3	-0.14777665
69	0x3dbeaa59	0.09309835
70	0x3dbe1192	0.09280695
71	0xbda56656	-0.0807616
72	0x3e0d228b	0.13782708
73	0xbdefdd70	-0.11712158
74	0x3e17ad2b	0.14812152
75	0xbdcf7423	-0.10129573
76	0xbc15aea4	-0.009135876
77	0xbd8f0a58	-0.06984395
78	0x3dd5a633	0.104320906
79	0xbe08ef7d	-0.13372608
80	0xbc9e26cd	-0.019305611
81	0xbd8b482c	-0.06800875
82	0x3e2d959e	0.16951606
83	0x3e1e952e	0.15486595
84	0x3d6aa6e6	0.057288073
85	0xbe120129	-0.14258255
86	0xbd3b21a1	-0.045686368
87	0x3d8e13b7	0.06937354
88	0x3e2c6807	0.16836558
89	0x3da1670c	0.07880983
90	0xbde740c8	-0.11291653
91	0xbd50eb70	-0.05100578
92	0x3e1fc6ef	0.15603231
93	0xbe197a37	-0.14988028
94	0x3e0502d2	0.12989357
95	0xbdef9a48	-0.11699349
96	0x3dae2a8e	0.085042104
97	0xbdd60299	-0.10449714
98	0xbadd1f9d	-0.0016870383
99	0x3e21a822	0.15786794
100	0x3e0f76bf	0.14010142
101	0x3e08a1ac	0.13342923
102	0xbdcf56e7	-0.10123997
103	0x3e1f67e3	0.15566973
104	0xbe1fce32	-0.15606001
105	0x3d8ea3cf	0.06964838
106	0xbe1717d4	-0.14755183
107	0x3d516716	0.0511237
108	0xbde89bd8	-0.1135785
109	0xbe18855a	-0.1489462
110	0xbde9308d	-0.113862135
111	0x3dea002a	0.114258125
112	0xbde033ba	-0.10947366
113	0x3dd83a29	0.10557968
114	0xbe1c3665	-0.15255125
115	0xbe1b9dcc	-0.15196913
116	0x3d1d7801	0.038444523
117	0xbd582e82	-0.05277873
118	0xbe15d8ea	-0.14633527
119	0x3cfd257a	0.03090166
120	0xbe2e46d6	-0.1701921
121	0xbe2e3b9f	-0.17014931
122	0xbe195d1f	-0.14976929
123	0xbe334cc1	-0.17509748
124	0xbcb7e20c	-0.022446655
125	0xbe00743d	-0.12544341
126	0x3e1832c0	0.1486311
127	0xbdea2404	-0.11432651
128	0x3d81ee7f	0.06344318
129	0xbe1111e2	-0.14166978
130	0xbdf8c973	-0.121477984
131	0x3d8f6b69	0.07002909
132	0xbe199b05	-0.15000542
133	0xbe0194e2	-0.1265445
134	0x3c53440e	0.0128946435
135	0x3d10ba52	0.03533394
136	0xbe181da2	-0.14855054
137	0x3b2d7b5a	0.0026471228
138	0xbd07ff78	-0.03320262
139	0x3d85bee7	0.06530552
140	0x3dacf4df	0.08445143
141	0x3d35b4a6	0.044361733
142	0x3bdcdbbb	0.006740061
143	0xbe2235a0	-0.15840769
144	0xbe16de0e	-0.14733145
145	0x3dd3c379	0.10340018
146	0x3d9d20c4	0.07672265
147	0x3e008001	0.1254883
148	0x3e13ed86	0.14446077
149	0x3dbae10f	0.09124958
150	0xbe126d4c	-0.14299506
151	0x3d6d1e67	0.057890322
152	0xbdf4f4c2	-0.11960746
153	0x3defc22c	0.11706957
154	0x3d3c140c	0.045917556
155	0xbe00e2e4	-0.12586552
156	0xbe200e2e	-0.15630409
157	0x3d994b2e	0.074850425
158	0xbdad188e	-0.08451949
159	0x3d439609	0.047750507
160	0xbe1b8463	-0.1518722
161	0x3d6d6bb2	0.057964034
162	0xbddaa492	-0.106759205
163	0x3d937732	0.07200469
164	0x3dabb70b	0.08384522
165	0x3c0d416a	0.008621553
166	0xbd443677	-0.047903504
167	0xbe1152df	-0.14191769
168	0xbda3c091	-0.079957135
169	0xbe416c19	-0.18888892
170	0xbcd2624c	-0.025681637
171	0x3df94f13	0.12173285
172	0x3d857e82	0.0651827
173	0x3d0c2df0	0.034223497
174	0xbd8253ef	-0.06363665
175	0x3dfd0f74	0.12356463
176	0x3b98534e	0.0046486026
177	0xbe0c4558	-0.13698328
178	0xbe00124d	-0.12506981
179	0x3dda42ed	0.10657296
180	0x3d7e5caf	0.06210011
181	0x3be105a9	0.00686713
182	0x3e16e088	0.1473409
183	0xbe2af707	-0.16695796
184	0x3dcd1b65	0.10014991
185	0x3d49965e	0.049215667
186	0xbdbe57bc	-0.09294078
187	0x3df117c7	0.11772113
188	0xbd9244aa	-0.07142003
189	0xbe07eaf9	-0.13273229
190	0x3e1d3012	0.15350369
191	0x3d0cfbaf	0.03441971
192	0xbdac7ffb	-0.08422848
193	0xbdb645e6	-0.08900051
194	0x3db455e8	0.08805448
195	0x3dbdeee5	0.09274081
196	0x3e0d382c	0.13790959
197	0x3d1c7bdf	0.03820407
198	0xbdc5025e	-0.09619592
199	0x3db952fe	0.09049033
200	0x3db36cee	0.08761011
201	0x3e058608	0.1303941
202	0x3debb78d	0.11509619
203	0xbdb45e1b	-0.08807012
204	0xbdbce8b3	-0.09224071
205	0x3b6f6010	0.0036525764
206	0x3e1c2fc4	0.15252596
207	0xbd414ab0	-0.04719037
208	0xbe19a894	-0.15005714
209	0xbda54822	-0.08070399
210	0xbdbdec38	-0.09273571
211	0x3d11bf04	0.035582557
212	0x3e075179	0.13214673
213	0x3da9ab06	0.08284573
214	0x3d866c07	0.06563573
215	0xbd319496	-0.043354593
216	0x3d93360c	0.07188043
217	0x3dec79ce	0.1154667
218	0x3c074230	0.008255526
219	0xbe137ac7	-0.14402305
220	0x3dd8408e	0.10559188
221	0x3da64862	0.08119275
222	0x3d9c87ea	0.07643111
223	0xbc516b5b	-0.012781943
224	0xbe04d3e0	-0.12971449
225	0xbe09ae2e	-0.1344535
226	0x3d5cb2dc	0.05388151
227	0x3da2fb7c	0.07958123
228	0x3e02fdc1	0.12792112
229	0xbd186fa5	-0.037215848
230	0x3bc11ebb	0.005893556
231	0xbc89c0eb	-0.016815623
232	0x3d90774b	0.07054003
233	0x3da2e0a1	0.07953001
234	0xbe03846b	-0.12843482
235	0xbdc1e4af	-0.09467446
236	0xbdaf88d0	-0.08571017
237	0x3e21087e	0.15725896
238	0xbe1eab61	-0.15495063
239	0x3e0e031c	0.13868374
240	0xbdbe218b	-0.092837416
241	0xbceddf2a	-0.029037077
242	0xbd8f8779	-0.07008261
243	0x3cb3b2c0	0.02193582
244	0x3e1e7af4	0.1547659
245	0x3d83e3a6	0.06439905
246	0xbd4e7f10	-0.050414145
247	0xbd946f4d	-0.072477914
248	0xbdfb628e	-0.12274657
249	0x3ceb6a0f	0.028737096
250	0x3d906a09	0.070514746
251	0xba92771a	-0.0011174411
252	0x3d232132	0.03982658
253	0x3dd76aa0	0.10518384
254	0xbd3fc3ec	-0.046817705
255	0x3db0c831	0.086319335

conv1.bias f4 [16]
0	0xbe268c64	-0.16264492
1	0xbdf9160b	-0.121624075
2	0xbc69580b	-0.0142421825
3	0xbb77d647	-0.0037816928
4	0xbcb19024	-0.021675177
5	0x3e30aeb5	0.17254145
6	0xbd6c39b1	-0.057672206
7	0x3dc778c6	0.097398326
8	0xbd9de29c	-0.07709238
9	0x3e344dd9	0.17607822
10	0x3e308596	0.17238459
11	0x3d66b924	0.056328908
12	0x3e0549cc	0.13016433
13	0x3d7425d5	0.059606392
14	0xbb499e79	-0.0030764623
15	0x3c4c0b8f	0.012453928

conv2.weight f4 [32, 16, 4, 4]
0	0xbd2a2a8a	-0.041544475
1	0xbca7cc63	-0.020483201
2	0xbd1c3abb	-0.038141947
3	0x3d901cb2	0.07036723
4	0x3b334f5f	0.0027360541
5	0x3c7d287b	0.015451546
6	0x3d892981	0.06697369
7	0xbd48bae2	-0.04900635
8	0x3cc30655	0.02380673
9	0x3d569717	0.052390184
10	0x3cf8a48f	0.030351905
11	0x3c96c9b7	0.018406732
12	0xbd4f799b	-0.05065308
13	0xbccd8a5e	-0.025090393
14	0xbc201ee9	-0.009772995
15	0xbbb9f9e3	-0.005675541
16	0xbc3b44d6	-0.011429986
17	0x3d102c23	0.035198342
18	0x3c876518	0.016527697
19	0xbd2a9b20	-0.041651845
20	0xbc03e01a	-0.008049035
21	0x3b06d71c	0.0020574993
22	0xbb1dc685	-0.0024074626
23	0x3d24f597	0.040273275
24	0xbd346fba	-0.044051863
25	0x3d0c8949	0.034310613
26	0x3babb947	0.0052405926
27	0x3ceb0068	0.028686717
28	0xbd422e9b	-0.047407728
29	0xbbbc0259	-0.0057375845
30	0xbccec732	-0.025241468
31	0xbbda0aab	-0.0066541038
32	0xbb38d154	-0.002820094
33	0x3d2909a4	0.04126896
34	0xbd5129b2	-0.051065154
35	0x3bdc71e2	0.006727443
36	0x3c23a443	0.0099878935
37	0xbcc6c61e	-0.024264392
38	0xbd12be83	-0.035826217
39	0xbc518873	-0.01278888
40	0x3cf73a5a	0.030179191
41	0xbab7b247	-0.0014014923
42	0x3d7c5510	0.06160456
43	0x3c4c38b5	0.012464692
44	0xbcbf4d5a	-0.023352314
45	0x3c084a84	0.008318547
46	0x3a2ae6a2	0.00065193523
47	0x3c81e51d	0.01585632
48	0x3c069012	0.00821306
49	0x3c9877a6	0.01861174
50	0xbd34b964	-0.044122115
51	0x3cdf9c0f	0.027296094
52	0x3ba73d6d	0.005103758
53	0x3d7315ca	0.05934695
54	0x3c9ff132	0.01952419
55	0xbccb527d	-0.024819607
56	0xbcece0bb	-0.028915754
57	0x3d72b599	0.059255216
58	0xbcbdfacd	-0.02319088
59	0x3d83a8a9	0.06428654
60	0xbc1494b1	-0.009068654
61	0x3cab71c3	0.02092827
62	0x3c95e47c	0.018297426
63	0xbd563074	-0.052292302
64	0xbc85157b	-0.016245594
65	0x3cd97618	0.02654557
66	0xbca92396	-0.020646852
67	0xbd021750	-0.031760514
68	0xbaeead35	-0.0018209579
69	0xbc00d9b6	-0.007864406
70	0xbc8c77f1	-0.017147036
71	0xbd6c2a88	-0.05765775
72	0xbcc85e49	-0.024459021
73	0x3d6f3bf2	0.058406778
74	0x3d676e52	0.056501694
75	0x3c140d54	0.009036381
76	0x3b143fab	0.0022620957
77	0x3ca40411	0.02002147
78	0xbc041245	-0.008060996
79	0xbd5588b1	-0.052132312
80	0x3ce1a758	0.027545616
81	0xbcac6d1c	-0.021048121
82	0xbb322dfa	-0.0027188049
83	0xbcd6c243	-0.026215678
84	0x3d615755	0.055014927
85	0x3d470420	0.04858792
86	0xbbb55f8d	-0.005535072
87	0xbd1340dc	-0.035950527
88	0x3d534dcc	0.051587865
89	0x3d694c39	0.056957457
90	0x3ccb4fb2	0.024818275
91	0x3c8948d8	0.016758367
92	0xbbfe9b5e	-0.007769986
93	0x3b53a64f	0.0032295173
94	0x3d7afdf4	0.061277345
95	0x3d4c8777	0.049933877
96	0xbcd2fc48	-0.025755063
97	0x3d09347b	0.033497315
98	0xbc46b528	-0.012128152
99	0xbc00e7d9	-0.007867777
100	0xbc458b63	-0.012057158
101	0x3d28be9e	0.04119741
102	0xbc9c1a32	-0.01905546
103	0x3c89225c	0.016740017
104	0x3d0bba1c	0.034113035
105	0x3d382e3f	0.04496598
106	0xbc8d0f27	-0.01721914
107	0x3abec47d	0.0014554408
108	0xbad12804	-0.001595736
109	0x3d03e80c	0.03220372
110	0xbd283c97	-0.041073408
111	0xbd619514	-0.055073813
112	0x3d04c795	0.0324169
113	0x3bfdfbc9	0.0077509624
114	0x3d5990da	0.053116657
115	0x3d42905a	0.047500946
116	0xbd05489e	-0.032539956
117	0x3ccb0035	0.024780372
118	0xbd2b4027	-0.041809227
119	0x3d03bcfe	0.03216266
120	0x3c48de05	0.012259965
121	0x3d53db90	0.051723063
122	0xbcf56838	-0.029956922
123	0x3d5d878c	0.054084346
124	0xbb4c0a62	-0.0031134118
125	0x3c10ccb0	0.008837864
126	0xbc7986d3	-0.0152298985
127	0xbc9f634b	-0.019456526
128	0xb942d1ce	-0.0001857944
129	0xbd4c6927	-0.04990497
130	0x3b30bc1a	0.0026967586
131	0xbca3e7c1	-0.02000797
132	0x3cfecbfc	0.031103127
133	0x3ce43856	0.027858894
134	0xbc793af8	-0.015211813
135	0xbd016af8	-0.031596154
136	0x3c899284	0.016793497
137	0xbc809a80	-0.015698671
138	0x3cc1055f	0.023562131
139	0xbc14c29b	-0.009079601
140	0xbd2fd54d	-0.04292803
141	0x3c9c7811	0.01910022
142	0x3d85c3e8	0.06531507
143	0xbb95bb45	-0.0045694434
144	0x3cdf2b8b	0.027242443
145	0x3d40f9e9	0.047113333
146	0xbbf61bd1	-0.00751064
147	0x3d60babe	0.05486559
148	0xb9aaf48f	-0.00032607137
149	0xbc45ed8a	-0.0120805595
150	0x3d2c1fc0	0.042022467
151	0xbc7ead2b	-0.015544216
152	0xbcc86b36	-0.024465185
153	0xbd26e922	-0.040749677
154	0xbd4f3435	-0.050586898
155	0xbd607653	-0.054800343
156	0x3d30a0c5	0.04312207
157	0xbd63319d	-0.055467237
158	0x3cfc0711	0.030765088
159	0xbc216040	-0.009849608
160	0xbc13aad6	-0.009012898
161	0xbd2e97f0	-0.042625368
162	0xbcf2c89d	-0.029636675
163	0x3d66c36a	0.056338705
164	0x3cf1c9a0	0.029515088
165	0xbd2b6738	-0.041846484
166	0xbd78b066	-0.0607151
167	0xbc708aee	-0.014681561
168	0x3d452b38	0.04813692
169	0xbd197365	-0.037463564
170	0x3d76184e	0.060081773
171	0x3d1ae00d	0.037811328
172	0x3ca798db	0.02045863
173	0x3c4f18ed	0.01264022
174	0x3d78d295	0.0607477
175	0x3bd2ebf6	0.00643682
176	0xb9d6e5f7	-0.00040988598
177	0xbc85c4ef	-0.016329257
178	0x3d35b846	0.04436519
179	0xbd4513a0	-0.04811442
180	0xbc6f8b00	-0.0146205425
181	0x3d5b865b	0.05359493
182	0xbc9ba59d	-0.018999869
183	0xbd08d971	-0.033410493
184	0x3cf5e57b	0.030016651
185	0x3d23da55	0.04000314
186	0x3d11e99c	0.035623178
187	0xbd058ecc	-0.032606885
188	0x3cddd685	0.02707983
189	0xbcb335b7	-0.0218762
190	0xbcd81dda	-0.026381422
191	0xbc622185	-0.013801937
192	0x3ca44d07	0.02005626
193	0x3c689ed7	0.014198027
194	0x3cd3c29d	0.025849635
195	0x3d77c09c	0.06048642
196	0xbcc3eeb9	-0.023917543
197	0x3bfd8894	0.0077372286
198	0x3d25220e	0.04031568
199	0xbd64c59b	-0.055852514
200	0x3d50076f	0.05078834
201	0xbd0afb6b	-0.033931177
202	0x39f2deeb	0.00046323924
203	0xbcc87b72	-0.024472926
204	0x3d29be55	0.04144128
205	0xbd703694	-0.0586458
206	0xbc533f28	-0.012893476
207	0x3d11f306	0.035632156
208	0xba382626	-0.00070247275
209	0x3d4f8855	0.050667126
210	0xbd140ec3	-0.03614689
211	0xbc76719d	-0.015041736
212	0x3d4a40e9	0.04937831
213	0xbcbefb42	-0.023313168
214	0x3d67cdf6	0.056592904
215	0xbc06e627	-0.0082335835
216	0xbd7a1fa3	-0.061065327
217	0x3d159615	0.036520083
218	0xbd07dad6	-0.033167683
219	0xbc512abe	-0.012766538
220	0xbc304e0c	-0.010760795
221	0xbd029fea	-0.031890787
222	0xbd4bc3e4	-0.049747363
223	0xbc0f24fa	-0.008736843
224	0x3d662882	0.056190975
225	0x3d24a7e1	0.040199164
226	0xbc6c62dd	-0.014427868
227	0xbca8babb	-0.020596853
228	0xbd7bd871	-0.06148571
229	0xbc793511	-0.015210406
230	0x3d0b92a5	0.034075398
231	0x3c49db7a	0.012320394
232	0xbc46c625	-0.012132202
233	0x3d0673fc	0.032825455
234	0xbbe61818	-0.007021915
235	0xbbff30d7	-0.0077878046
236	0x3cae3ff8	0.021270737
237	0xbd1ec1b3	-0.038758945
238	0x3cb96ad2	0.022633944
239	0xbcb64900	-0.022251606
240	0xbd4d56de	-0.05013167
241	0xbcd9689d	-0.026539141
242	0x3c86de71	0.01646349
243	0xbcb70dc0	-0.022345424
244	0xbb2d4000	-0.0026435852
245	0xbc6c915a	-0.014438951
246	0x3d067cfb	0.032834034
247	0x3d55be32	0.052183338
248	0xbc337b92	-0.010954754
249	0x3d449c17	0.04800042
250	0x3d714f6d	0.058913637
251	0xbc9f3667	-0.01943512
252	0xbd42c7bc	-0.047553763
253	0xbcb84d9f	-0.02249795
254	0xbc45dadc	-0.012076106
255	0x3d4b9873	0.049705934

conv2.bias f4 [32]
0	0x3d75c1e7	0.059999373
1	0xbd657722	-0.056021817
2	0x3aac55a2	0.0013148079
3	0x3c7d8c87	0.015475399
4	0x3d6d942a	0.05800263
5	0xbc514138	-0.012771897
6	0x3d6d9c17	0.058010187
7	0x3c263bc8	0.010146089
8	0xbd8c9bc9	-0.06865651
9	0xbc9c0fd4	-0.019050516
10	0x3d088e3d	0.033338774
11	0x3c5fe9b8	0.013666563
12	0x3ca03bbb	0.019559732
13	0x3bf801c9	0.007568572
14	0xbc294a3a	-0.010332638
15	0x3d4d2eec	0.050093576
16	0x3d46efb5	0.048568446
17	0xbd347f12	-0.044066496
18	0xbd2d3b5a	-0.04229293
19	0xbc9d69c4	-0.019215472
20	0xbcb3f0b1	-0.021965357
21	0x3d1aeed7	0.03782543
22	0x3c5a0f0a	0.01330925
23	0x3d75420e	0.059877448
24	0xbc720e18	-0.014773868
25	0xbb901dd0	-0.004398085
26	0x3caf924b	0.021432063
27	0x3cea3c0a	0.028593082
28	0x3ce17237	0.027520282
29	0xbd6a471a	-0.057196714
30	0x3ce466fb	0.027881136
31	0xbd5dab96	-0.054118715

fc1.weight f4 [64, 800]
0	0x3c4e23c5	0.01258177
1	0x3a38bd20	0.0007047225
2	0xbc790f7b	-0.015201445
3	0xbca3d58b	-0.019999286
4	0x3b236118	0.0024929699
5	0x3cbb34a3	0.022852248
6	0xbb04994c	-0.0020232974
7	0xbca6ea9e	-0.020375546
8	0x3d24851c	0.040166005
9	0x3d03db5c	0.03219162
10	0x3c846585	0.01616169
11	0x3cd9df51	0.026595743
12	0x3c603e3a	0.013686711
13	0xba9957e4	-0.0011699167
14	0xbc9decdd	-0.019277984
15	0xbc4d652e	-0.01253633
16	0xbc9f3307	-0.019433511
17	0x3d072589	0.03299478
18	0xbb49ac9d	-0.0030773052
19	0xbb0030e7	-0.0019560398
20	0x3c00aaf9	0.007853263
21	0xbc629955	-0.0138305025
22	0x3ceb36bd	0.028712625
23	0x3d2d0710	0.042243063
24	0x3c3dc49a	0.011582518
25	0xbbcedec4	-0.006313177
26	0x3c93e10c	0.018051647
27	0x3cbbca32	0.022923563
28	0x3c8e656e	0.01738235
29	0xbc8bef72	-0.01708195
30	0x3cb99842	0.02265561
31	0xbced1c20	-0.028944075
32	0x3c0cbc5c	0.00858983
33	0xbd0b2137	-0.033967223
34	0x3c25d4d8	0.010121547
35	0x3c215880	0.00984776
36	0x3ce0787a	0.027401198
37	0x3b3189b0	0.0027090125
38	0xbcb0883e	-0.02154934
39	0xbc97f642	-0.018550042
40	0xbd0e276d	-0.034705568
41	0x3c8aab34	0.01692734
42	0xbc98d001	-0.018653871
43	0xbcedd6f2	-0.029033158
44	0x3c02db04	0.007986788
45	0x3b577f70	0.0032882355
46	0xbc85f16e	-0.016350474
47	0x3ce4c5b2	0.0279263
48	0xbd0fc771	-0.03510231
49	0xbcd8538e	-0.02640703
50	0xbc94d00b	-0.018165609
51	0xbcc4d017	-0.024025006
52	0x3ca8d8cd	0.020611191
53	0xbc5a1610	-0.013310924
54	0x3d0b447e	0.034000866
55	0x3cfd4b89	0.030919807
56	0x3d2d0f8b	0.04225115
57	0x3c2324da	0.009957517
58	0x3d29eeb9	0.04148743
59	0x3b78bf7d	0.0037955933
60	0x3bebab3b	0.007192043
61	0x3c585ef7	0.013206235
62	0x3cc442e7	0.023957683
63	0x3d071723	0.03298105
64	0xbbccaa25	-0.0062458687
65	0x3d0b787d	0.034050453
66	0xbcf9cc01	-0.030492784
67	0xbcc9db2e	-0.024640646
68	0xbc9c69be	-0.01909339
69	0x3cfe3a11	0.031033548
70	0xba6e15ac	-0.0009082209
71	0x3c3953a5	0.011311446
72	0xbc92f445	-0.017938742
73	0xbb8f4866	-0.0043726442
74	0x3c718a03	0.014742377
75	0x3c5592d0	0.013035491
76	0x3bda3d08	0.0066601075
77	0xbc8ccdc7	-0.017187966
78	0x3c101e34	0.0087962635
79	0xba50edc0	-0.0007969998
80	0x3bbdfda0	0.0057980567
81	0xbc5c11b2	-0.013431953
82	0x3c400618	0.011720203
83	0xbc51f3b4	-0.012814451
84	0xbc38eb32	-0.011286544
85	0x3c9d0d2f	0.019171325
86	0xb9c18000	-0.00036907196
87	0x3c6bb7f0	0.014387116
88	0xbceea226	-0.029130053
89	0x3d0eddfe	0.034879677
90	0x3c34cd10	0.011035219
91	0xbc15365a	-0.009107197
92	0xbcb425de	-0.021990713
93	0xbc91804e	-0.017761376
94	0x3d054245	0.032533903
95	0x3cb3f0be	0.02196538
96	0xbcdb6b4b	-0.02678456
97	0x3d10086b	0.035164278
98	0xbcae091c	-0.021244578
99	0xbae408e0	-0.0017397664
100	0xbc3d2450	-0.011544302
101	0x3d0f4801	0.034980778
102	0x3d0d10cc	0.034439847
103	0xbcacdb21	-0.021100583
104	0xbc330fd9	-0.010929071
105	0x3c346145	0.011009519
106	0x3d303a20	0.043024182
107	0xbcaaa4a3	-0.020830458
108	0x3c63dfbb	0.013908322
109	0x3d1d4ed9	0.038405273
110	0x3d0f0105	0.03491308
111	0x3c8a115f	0.016853986
112	0x3ca56b75	0.020192841
113	0x3cc2b4a8	0.023767784
114	0x3cb1a192	0.021683488
115	0x3d19028e	0.037355952
116	0x3c916d8c	0.017752431
117	0x3d0aab22	0.03385461
118	0xbc8aab6d	-0.016927445
119	0x3cadd618	0.021220252
120	0x3b6e9da2	0.0036409874
121	0xb9b3f312	-0.00034322642
122	0xbc35eda5	-0.011104022
123	0xbc1b2264	-0.009468649
124	0x3d0ff7a1	0.035148267
125	0xbce4da17	-0.027936025
126	0xbca5fb8b	-0.020261547
127	0xbcf7462a	-0.030184824
128	0x3cbaa1b0	0.022782177
129	0xbb8b6e04	-0.0042550582
130	0xbd0c5995	-0.03426512
131	0x39892080	0.0002615489
132	0xbd003d97	-0.031308737
133	0xbb198590	-0.0023425557
134	0x3cd936d0	0.026515394
135	0xbc178316	-0.009247562
136	0xbcbc7de6	-0.023009252
137	0x3b0a1560	0.002106987
138	0xbb867eb0	-0.004104458
139	0x3bdcf1b0	0.0067426786
140	0x3b212fa0	0.0024595037
141	0x3cf29412	0.029611621
142	0x3cd4ccbc	0.025976531
143	0xbcdac624	-0.026705809
144	0x3b181a50	0.0023209043
145	0xbcb7e3ac	-0.02244743
146	0x3bc2b788	0.005942289
147	0xbd07d636	-0.03316327
148	0x3cc2d0ba	0.02378117
149	0xbc611c26	-0.013739621
150	0x3cbbcee9	0.02292581
151	0x3c946084	0.018112428
152	0x3d07db44	0.033168092
153	0x3bc7bb60	0.006095335
154	0x3d30189d	0.042992223
155	0x3d1868bd	0.03720926
156	0x3ce294da	0.027658869
157	0xbc1c2dea	-0.009532431
158	0xbbe2bef6	-0.006919737
159	0xbc47c526	-0.012193
160	0xbb9fc551	-0.004875817
161	0x3c81e3bc	0.015855663
162	0x3c9fab21	0.01949078
163	0x3d3f9c49	0.046779905
164	0x3d03318d	0.032029677
165	0x3ccc36ef	0.024928538
166	0x3d13a0d9	0.03604207
167	0xbc8fea05	-0.017567644
168	0xbb17a470	-0.0023138784
169	0xbb1aed5b	-0.002364001
170	0x3cbbdce7	0.022932483
171	0x3bd7fc8d	0.0065913857
172	0x3b1edead	0.0024241612
173	0xbbfdcd0c	-0.0077453908
174	0xbc7783c9	-0.015107104
175	0x3d071ba5	0.03298535
176	0x3ca02225	0.019547531
177	0x3d031a1b	0.032007318
178	0x3cb64a36	0.022252183
179	0xbb3de371	-0.0028974677
180	0xbb66359d	-0.003512717
181	0x3cd4e75e	0.02598923
182	0x3bdb410a	0.006691103
183	0x3c8f5413	0.017496144
184	0xbb156959	-0.0022798388
185	0x3d0b80c9	0.034058366
186	0xbb824506	-0.0039755134
187	0x39cce692	0.000390817
188	0x3cb4c8ab	0.022068342
189	0x3d0b6d9f	0.03404009
190	0x3d22e641	0.03977037
191	0x3c9181a8	0.01776202
192	0x3c151fb5	0.009101798
193	0x3d02e553	0.031956982
194	0x3c2dde8a	0.0106121395
195	0xbb3e4230	-0.002903115
196	0x3b8905d4	0.004181603
197	0xbb60c9d6	-0.003429999
198	0x3d2f7a67	0.04284134
199	0xbbda92c2	-0.006670327
200	0x3bb01998	0.0053741448
201	0xbc9cd076	-0.01914237
202	0x3cf80cba	0.030279506
203	0x3bfe2f88	0.007757131
204	0x3ca3e206	0.020005237
205	0xbbca4758	-0.0061730556
206	0xbc43de46	-0.01195485
207	0x3c599a84	0.013281468
208	0xbbdbdf68	-0.0067099817
209	0xbd0ee68f	-0.034887847
210	0x3c545a44	0.012960974
211	0xbc21710c	-0.009853613
212	0x3ce44516	0.027864974
213	0x3c4119a8	0.011785902
214	0x3c89cefc	0.01682233
215	0x3ca3552b	0.019938072
216	0x3cceb7b2	0.025234077
217	0x3c3928a4	0.011301193
218	0xbc789fb2	-0.015174793
219	0xbd006796	-0.031348787
220	0x3caa2cd0	0.020773321
221	0x3cab4682	0.020907644
222	0xbc13ec30	-0.009028479
223	0xbd04f794	-0.03246267
224	0x3d0904a1	0.03345168
225	0xbc4f36d2	-0.0126473475
226	0x3c729010	0.014804855
227	0xbc282814	-0.010263462
228	0x3c9af340	0.018914819
229	0xbbca9994	-0.0061828587
230	0xbbeabeb4	-0.007163847
231	0x3c9efe3a	0.019408334
232	0x3c1fcbe0	0.009753197
233	0x3b70a260	0.0036717877
234	0xbcff74e4	-0.031183667
235	0x3c94911a	0.018135596
236	0xbc8b0bf8	-0.01697348
237	0x3c30fcf0	0.0108024925
238	0x3c6db2c8	0.014507957
239	0xbc97c01b	-0.01852422
240	0x3cf4aa96	0.029866498
241	0x3c1380d0	0.009002879
242	0x3bea7320	0.0071548373
243	0xbca5d511	-0.0202432
244	0x3c713f40	0.014724553
245	0xbc1453f0	-0.009053215
246	0xbb89f72c	-0.0042103734
247	0x3d0e10a7	0.03468385
248	0x3cce33e6	0.025171231
249	0xbc55b062	-0.013042541
250	0xbba5e401	-0.0050625806
251	0x3c92c64b	0.01791682
252	0x3c40f391	0.011776821
253	0x3c7676ab	0.015042941
254	0x3be4fb9d	0.0069880025
255	0x3d32f98d	0.04369502

fc1.bias f4 [64]
0	0x3d07a8cb	0.033119958
1	0x3c9c8a96	0.019109052
2	0x3d2934cf	0.041310128
3	0xbba3c4ec	-0.00499784
4	0xbc40b8d9	-0.011762821
5	0x3aa01780	0.0012214035
6	0xbbe788e5	-0.0070658796
7	0x3c3d82f4	0.011566866
8	0xbd03e1ef	-0.03219789
9	0xbba8665c	-0.0051391553
10	0xbbe0b26d	-0.0068572075
11	0xbabcfa6a	-0.0014417891
12	0x3d0b8ad4	0.034067944
13	0x3d2569c1	0.040384058
14	0xbceba919	-0.028767155
15	0xbc7c104a	-0.015384743
16	0x3d0fb103	0.03508092
17	0x3a0e0581	0.000541769
18	0xbcf79939	-0.03022443
19	0xbb984f2a	-0.004648109
20	0xbcbffe3e	-0.023436662
21	0x3b9d92e4	0.0048087705
22	0x3c593f82	0.01325977
23	0xbcb8b276	-0.022546034
24	0xbcb6c908	-0.022312656
25	0x3d069c82	0.0328641
26	0x3c93c34d	0.018037463
27	0x3ca2a194	0.019852437
28	0x3c209936	0.009802153
29	0x3cd42ff2	0.025901768
30	0xbc47b726	-0.012189662
31	0x3ca7758e	0.020441797
32	0xbc63b95e	-0.013899175
33	0x3d2eac1c	0.042644605
34	0x3cc11d45	0.023573527
35	0x3cbd2b0a	0.023091812
36	0xbb8e321c	-0.0043394696
37	0x3c7e8ca9	0.015536466
38	0x3d0c06b5	0.034186084
39	0x3c198230	0.009369418
40	0x3c93b45b	0.018030336
41	0x3cd3c596	0.025851052
42	0xbc655ee0	-0.013999671
43	0x3cd13f26	0.025542807
44	0xbc8c98a6	-0.017162632
45	0x3bb8c39f	0.005638554
46	0xbc4bf80e	-0.012449278
47	0x3d0aed5e	0.033917777
48	0x3d0d485a	0.034492828
49	0x3bcf46b6	0.006325568
50	0xbcf1d8c2	-0.029522303
51	0x3d06fdc5	0.032956857
52	0x3d2ea7b4	0.042640403
53	0x3cc8215e	0.024429973
54	0x3cd26086	0.025680792
55	0x3c717400	0.014737129
56	0xbc5c3d54	-0.013442356
57	0x3c2eb46b	0.010663132
58	0xbc5768a4	-0.013147507
59	0x3cc8a71e	0.02449375
60	0x3bbe7a5f	0.0058129276
61	0x3d0df6c2	0.034659155
62	0x3d07bdd4	0.03314002
63	0x3a971a86	0.001152829

fc4.weight f4 [8, 64]
0	0xbd73f78e	-0.05956226
1	0xbdc42f77	-0.09579366
2	0x3d2c0f8e	0.04200702
3	0xbd96491e	-0.07338165
4	0x3d86a1f8	0.06573862
5	0xbd82e53e	-0.06391381
6	0x3dd844c0	0.10559988
7	0xbcb0e926	-0.021595549
8	0xbd4ade4c	-0.049528405
9	0x3dd60cbe	0.10451649
10	0xbde223bb	-0.11041971
11	0xbe056bb4	-0.13029367
12	0xbd916bfe	-0.07100676
13	0x3d7bcdf7	0.06147572
14	0x3db3379a	0.087508395
15	0x3d210998	0.03931579
16	0xbdd697c6	-0.10478167
17	0xbde5ffad	-0.11230407
18	0xbd82643c	-0.063667744
19	0x3b439c86	0.0029847934
20	0x3d0eea48	0.034891397
21	0xbd6e5d55	-0.058194477
22	0xbd8fbc40	-0.07018328
23	0x3d9c367b	0.07627579
24	0x3da6b2a4	0.08139542
25	0x3d89d41f	0.06729912
26	0xbe071bd2	-0.13194206
27	0xbdca7ed6	-0.09887473
28	0x3dcb284b	0.09919795
29	0x3dd64659	0.104626365
30	0xbd4672d4	-0.048449352
31	0x3dc3908e	0.09549056
32	0x3c82ca30	0.015965551
33	0x3dc02a84	0.09383109
34	0xbd7009b2	-0.058602996
35	0x3cad6108	0.021164432
36	0x3d84a7ba	0.06477304
37	0x3d3f6915	0.046731073
38	0xbd78f435	-0.06077977
39	0xbd58862c	-0.05286233
40	0x3d56cf2f	0.05244368
41	0x3d5b5eba	0.053557135
42	0x3d7d8b61	0.0619005
43	0xbe0f24a0	-0.13978815
44	0xbe078cc9	-0.13237299
45	0xbd893dda	-0.067012504
46	0xbc6da50f	-0.014504685
47	0x3c46847d	0.012116549
48	0xbdccbc04	-0.09996799
49	0x3dceecf2	0.101037875
50	0xbd59e83f	-0.053200003
51	0xbdead967	-0.114672475
52	0x3dcdc6df	0.10047697
53	0x3cfedfea	0.03111263
54	0xbdd6cba7	-0.10488062
55	0x3d9d6e64	0.07687071
56	0xbd676364	-0.05649127
57	0x3da6eb7a	0.08150382
58	0xbca19410	-0.019723922
59	0xbde4c497	-0.11170309
60	0xbd9f98c9	-0.07792813
61	0xbd8f35ff	-0.06992721
62	0x3d9a8a64	0.07545927
63	0xbc980b5e	-0.018560108
64	0xbdcb712b	-0.099336945
65	0x3d5ead03	0.054364216
66	0xbcfd0429	-0.030885773
67	0xbdebf676	-0.11521618
68	0xbda3c0f2	-0.07995786
69	0xbdbe2b00	-0.09285545
70	0xbcb15cf8	-0.021650776
71	0x3da5e3c8	0.081000865
72	0xbd429a48	-0.047510415
73	0xbd284224	-0.0410787
74	0xbdb6c4ab	-0.0892423
75	0x3d16a7e7	0.036781218
76	0x3d773671	0.060354654
77	0x3dc59b45	0.09648756
78	0x3cab1150	0.020882279
79	0x3d74c600	0.05975914
80	0x3d79e5b8	0.061010092
81	0x3d6dfb22	0.058100827
82	0x3db49924	0.08818272
83	0xbd20326a	-0.03911058
84	0x3b918a00	0.0044414997
85	0xbd7a4c49	-0.061107907
86	0x3d452234	0.04812832
87	0xbcb15da2	-0.021651093
88	0x3dd45fea	0.10369857
89	0xbde898a3	-0.11357238
90	0x3d24b9ca	0.040216245
91	0xbd27ae99	-0.040937994
92	0x3d49d084	0.04927112
93	0x3d20d74a	0.039267816
94	0xbd3edd1c	-0.046597585
95	0x3d9d4c1a	0.07680531
96	0x3cc32420	0.023820937
97	0xbe0438d2	-0.129123
98	0x3d9c3fa0	0.07629323
99	0xbdf143e0	-0.11780524
100	0xbdf53300	-0.11972618
101	0x3c905536	0.017618757
102	0xbdfe48db	-0.1241624
103	0x3dc230d0	0.094819665
104	0x3d92bc09	0.07164771
105	0xbc87bbd0	-0.016569048
106	0x3da311fe	0.07962416
107	0xbdc47c4a	-0.09594019
108	0x3d55c02b	0.05218522
109	0xbe018aef	-0.12650655
110	0xbd5ce48d	-0.0539289
111	0x3c27fbae	0.010252876
112	0xbe0ddf35	-0.13854678
113	0x3ca6e079	0.020370709
114	0xbdcae9d4	-0.099078804
115	0xbdaddf78	-0.08489889
116	0xbd718968	-0.05896893
117	0x3d95095d	0.072771765
118	0xbcdc0317	-0.026856942
119	0x3de73558	0.112894714
120	0xbdd047a0	-0.101699114
121	0xbba525db	-0.005039913
122	0x3d47a76c	0.04874365
123	0xba6ad3f1	-0.00089579733
124	0xbd373f39	-0.04473803
125	0xbbefe6e4	-0.0073212255
126	0xbc7267fa	-0.014795298
127	0x3d596d58	0.053082794
128	0xbe05f6fe	-0.13082501
129	0xbddf0a7b	-0.10890671
130	0x3d86c286	0.06580071
131	0x3cd4fbe8	0.025999025
132	0xbd165107	-0.036698367
133	0xbd93126e	-0.071812496
134	0x3de2e172	0.110781565
135	0x3d30a43d	0.04312538
136	0xbc9d7898	-0.019222543
137	0xbda4b2c2	-0.08041908
138	0xbbdc5ca6	-0.0067249117
139	0x3d297ad4	0.041376904
140	0xbdfd6e77	-0.12374585
141	0xbe04ed08	-0.12981045
142	0x3d5f2dd4	0.054487064
143	0x3d6f592c	0.05843465
144	0x3d0b48f8	0.034005135
145	0xbd4bc1c4	-0.049745336
146	0xbbbd0fe0	-0.0057697147
147	0xbd8951a9	-0.067050286
148	0x3de05554	0.10953775
149	0x3c0e3fea	0.0086822305
150	0xbd8e05c6	-0.06934695
151	0xbd6aa003	-0.057281505
152	0x3c73fc02	0.014891626
153	0x3cf3f771	0.029781075
154	0x3d091a3a	0.033472277
155	0xbd5d95d9	-0.054097984
156	0x3b732bb2	0.0037104902
157	0x3cd92bba	0.026510108
158	0xbd7ef208	-0.062242538
159	0x3d519218	0.051164716
160	0xbdc27c1e	-0.0949633
161	0xbdfdb2ca	-0.12387617
162	0xbd715913	-0.05892284
163	0x39fa3800	0.0004772544
164	0x3db3a6b2	0.08772029
165	0xbd5b586f	-0.053551134
166	0x3c88e84e	0.016712334
167	0x3abbff00	0.0014342964
168	0xbd17e015	-0.037078936
169	0x3b615667	0.0034383775
170	0xbdda7547	-0.106669
171	0x3c8005bf	0.01562774
172	0xbda1491e	-0.07875274
173	0xbda94dd9	-0.082668014
174	0xbde2ff8d	-0.11083899
175	0x3c38e72b	0.0112855835
176	0xbe022a80	-0.12711525
177	0x3da9d9c3	0.08293488
178	0x3cd6f153	0.02623812
179	0x3d430af8	0.047617882
180	0xbd3d7ce4	-0.046261683
181	0x3dcc05dd	0.09962056
182	0x3d9962a5	0.07489518
183	0xbdbae192	-0.091250554
184	0xbda00dbd	-0.0781512
185	0x3d3b470b	0.04572205
186	0xbdd6c0d4	-0.10485998
187	0xbd2b5fef	-0.041839536
188	0x3de9d17a	0.114169076
189	0xbc8b9e6f	-0.01704332
190	0xbd9cc88c	-0.07655439
191	0x3ded1841	0.11576892
192	0x3d33d808	0.043907195
193	0xbdf48837	-0.119400434
194	0x3c2bad88	0.010478385
195	0x3d4da3a0	0.050204873
196	0xbe1016d9	-0.14071216
197	0xbdf4599e	-0.119311556
198	0x3defe0e2	0.11712815
199	0x3d941223	0.07230022
200	0x3d9754f6	0.07389252
201	0xbd8e46a0	-0.069470644
202	0xbcad8155	-0.021179834
203	0xbbab3f4a	-0.0052260505
204	0x3cca7652	0.024714623
205	0xbdeb150a	-0.11478622
206	0xbd341e90	-0.04397446
207	0xbd7f6340	-0.06235051
208	0x3da5afeb	0.08090194
209	0x3d11986c	0.03554575
210	0xbdaf9432	-0.08573188
211	0x3db396b0	0.08768976
212	0x3de1f538	0.110331
213	0xbc2350db	-0.009968008
214	0x3c416fcb	0.011806439
215	0x3db27dd1	0.08715404
216	0xbdbc3983	-0.09190657
217	0xbc48b83e	-0.012250958
218	0xbc2f1262	-0.010685535
219	0x3d877928	0.066149056
220	0x3c152f4e	0.009105517
221	0x3d81ae44	0.06332067
222	0x3c6dfde0	0.014525861
223	0x3bed0ca0	0.007234171
224	0xbd8696ce	-0.065717325
225	0xbdb3379f	-0.08750843
226	0x3c117897	0.0088788485
227	0xbdac2f82	-0.08407499
228	0xbd67f724	-0.056632176
229	0x3d724f15	0.05915745
230	0x3c45f1ad	0.012081546
231	0x3d72539c	0.059161767
232	0x3da4bf56	0.08044307
233	0x3d28e8b0	0.041237533
234	0xbc409536	-0.011754325
235	0x3d5b7582	0.05357886
236	0xbd11295e	-0.03543984
237	0x3d343352	0.043994255
238	0xbcfe2f16	-0.031028312
239	0x3d73d18d	0.059526015
240	0x3da0745d	0.078346945
241	0x3da78bd3	0.08180966
242	0x3d8bdeaf	0.06829583
243	0x3cf9f445	0.030511985
244	0xbe146646	-0.14492139
245	0x3b934d51	0.004495301
246	0xbde72a94	-0.11287418
247	0xbdf25866	-0.11833267
248	0x3c6834f0	0.0141727775
249	0xbd948c5f	-0.07253336
250	0x3d497d34	0.04919167
251	0x3d0506fb	0.03247736
252	0xba835eb3	-0.0010022729
253	0xbdfe016b	-0.12402614
254	0x3d316d38	0.04331705
255	0xbd2529f7	-0.040323224

fc4.bias f4 [8]
0	0xbd5b8135	-0.05359002
1	0x3d592cc9	0.053021226
2	0x3d9b9201	0.075962074
3	0xbdb8404d	-0.089966394
4	0x3dcdb7e6	0.100448415
5	0xbd4e1539	-0.05031321
6	0xbd6b74e0	-0.057484508
7	0xbd726203	-0.059175503

conv1.weight f4 [16, 2, 4, 4]
0	0xbde2e590	-0.11078942
1	0x3e0e27a1	0.13882305
2	0xbd208cfc	-0.039196953
3	0x3e16b76b	0.14718406
4	0xbd9253a5	-0.0714486
5	0xbe2da9ad	-0.16959257
6	0xbb7b7640	-0.0038370043
7	0xbe08f172	-0.13373354
8	0x3e30f95f	0.17282628
9	0x3d9a527a	0.075352624
10	0xbe0704e9	-0.13185467
11	0x3e2f2195	0.17102654
12	0xbde87155	-0.11349741
13	0x3d999782	0.07499601
14	0x3c686090	0.014183179
15	0x3df746de	0.12074064
16	0xbde85556	-0.113444015
17	0x3d650228	0.05591026
18	0x3d9658aa	0.0734113
19	0x3e15e56d	0.146383
20	0x3d602c08	0.05472949
21	0x3e2f00ab	0.17090099
22	0xbe139eb7	-0.14416014
23	0xbe03c9e2	-0.12869981
24	0xbd92d536	-0.07169573
25	0xbda1f932	-0.07908858
26	0xbd559020	-0.0521394
27	0xbe03293a	-0.12808695
28	0x3e14d69d	0.14534993
29	0x3e1915df	0.1494975
30	0x3dffc782	0.12489225
31	0x3e20bed1	0.1569779
32	0x3dbb46e2	0.09144379
33	0xbda55128	-0.0807212
34	0xbe178e38	-0.14800346
35	0x3dfb43e2	0.12268807
36	0x3d4f6b3c	0.050639376
37	0x3e0c0173	0.13672428
38	0xbe29a41a	-0.16566506
39	0xbd90744e	-0.07053433
40	0xbda9895d	-0.08278153
41	0x3deef61a	0.11668034
42	0x3c50b430	0.012738273
43	0xbe0bca84	-0.13651472
44	0xbdf5fbac	-0.12010893
45	0xbdb96515	-0.09052483
46	0xbda48aa6	-0.080342576
47	0xbdeafee9	-0.114744015
48	0x3de7493a	0.11293264
49	0x3c387310	0.011257902
50	0xbd11cde4	-0.035596743
51	0xbd0c39b8	-0.034234732
52	0x3da1671a	0.07880993
53	0x3d900240	0.07031679
54	0x3d181080	0.03712511
55	0xbd0b2ba0	-0.03397715
56	0x3d51c4ac	0.05121295
57	0xbe120d06	-0.1426278
58	0xbdd4196d	-0.10356412
59	0xbe2e6dc7	-0.17034064
60	0xbd80acae	-0.06282936
61	0x3ceda468	0.02900906
62	0xbdf24b9b	-0.11830827
63	0x3e240531	0.16017605
64	0xbdc1111e	-0.09427093
65	0xbd54432a	-0.051821865
66	0xbd7659ca	-0.060144223
67	0xbcb94708	-0.022616878
68	0xbe16955b	-0.14705412
69	0x3de73efa	0.11291309
70	0x3dc13e7a	0.094357446
71	0xbda56656	-0.0807616
72	0x3e0ae02f	0.13562082
73	0xbddd7d28	-0.10814887
74	0x3e22b8ab	0.15890758
75	0xbdcf7423	-0.10129573
76	0xbc92d4d0	-0.017923743
77	0xbd9599bb	-0.073047124
78	0x3df19062	0.11795117
79	0xbe010012	-0.12597683
80	0xbcd472f0	-0.025933713
81	0xbd8c90cc	-0.06863555
82	0x3e255bcd	0.161483
83	0x3e18ccfb	0.14921944
84	0x3d85a534	0.065256506
85	0xbe0136a7	-0.12618504
86	0xbd3beeec	-0.04588215
87	0x3d7cc46c	0.06171076
88	0x3e22ed51	0.15910842
89	0x3d9082ec	0.07056221
90	0xbdc12849	-0.09431512
91	0xbd6857a8	-0.05672422
92	0x3e25bc97	0.16185223
93	0xbe200d5e	-0.15630099
94	0x3dfc85fe	0.123302445
95	0xbde8dd44	-0.11370328
96	0x3dcf9e0a	0.101375654
97	0xbdc8a66f	-0.0979737
98	0x3c4db7d0	0.012556031
99	0x3e24b203	0.16083531
100	0x3e21e2f3	0.1580923
101	0x3e194bc7	0.14970313
102	0xbdcf56e7	-0.10123997
103	0x3e212a79	0.15738858
104	0xbe17aa2c	-0.14811009
105	0x3d96db06	0.07365994
106	0xbe1717d4	-0.14755183
107	0x3d79be90	0.06097275
108	0xbdf024b4	-0.117257506
109	0xbe18855a	-0.1489462
110	0xbde9308d	-0.113862135
111	0x3dfe3836	0.12413065
112	0xbde7b2ec	-0.113134235
113	0x3ddc02b6	0.107427046
114	0xbe0c4c83	-0.13701062
115	0xbe1b9dcc	-0.15196913
116	0x3ce54c78	0.027990565
117	0xbd582e82	-0.05277873
118	0xbe15d8ea	-0.14633527
119	0x3d2a4474	0.04156919
120	0xbe2e46d6	-0.1701921
121	0xbe2e3b9f	-0.17014931
122	0xbe11eea8	-0.14251196
123	0xbe334cc1	-0.17509748
124	0xbcca9f48	-0.024734154
125	0xbdf00a90	-0.11720765
126	0x3e0f60a1	0.14001705
127	0xbdd7c79d	-0.1053612
128	0x3d63277c	0.055457577
129	0xbe1111e2	-0.14166978
130	0xbdf8c973	-0.121477984
131	0x3da53a0a	0.08067711
132	0xbe2093de	-0.15681407
133	0xbe044407	-0.12916575
134	0x3c818450	0.015810162
135	0x3d162b24	0.036662236
136	0xbe181da2	-0.14855054
137	0x3c181ee0	0.009284705
138	0xbd0983dc	-0.033573017
139	0x3d8fa824	0.07014492
140	0x3dca9cb2	0.098931685
141	0x3d39ac84	0.04533054
142	0x3be99e00	0.007129431
143	0xbe2235a0	-0.15840769
144	0xbe16de0e	-0.14733145
145	0x3de6a9aa	0.112628296
146	0x3dc5c7c6	0.096572444
147	0x3e00d2c9	0.12580408
148	0x3e1ca3db	0.15296881
149	0x3dc2327a	0.09482284
150	0xbe03f2df	-0.12885617
151	0x3d7fefa8	0.062484413
152	0xbddf7c2d	-0.109123565
153	0x3df8e9a6	0.1215394
154	0x3d32c8ac	0.043648407
155	0xbddb3b2d	-0.10704646
156	0xbe200e2e	-0.15630409
157	0x3db2241a	0.08698292
158	0xbd9023b1	-0.070380576
159	0x3d5e7298	0.054308504
160	0xbe23d230	-0.15998149
161	0x3d714740	0.05890584
162	0xbdd3cbda	-0.10341616
163	0x3da3f3d2	0.080054894
164	0x3d9990ca	0.074983194
165	0x3afde480	0.0019370466
166	0xbd3f0a70	-0.046640813
167	0xbe0a5028	-0.1350714
168	0xbdb36ce8	-0.087610066
169	0xbe307019	-0.17230262
170	0xbcac1278	-0.0210049
171	0x3e013323	0.12617163
172	0x3d7f2c18	0.06229791
173	0x3d16d210	0.036821425
174	0xbd7a5fbc	-0.061126456
175	0x3e04e74f	0.12978862
176	0xbba406e0	-0.0050057024
177	0xbe160aea	-0.14652601
178	0xbe055bea	-0.13023344
179	0x3dd3c072	0.103394404
180	0x3d86a27e	0.06573962
181	0xbb081840	-0.0020766407
182	0x3e0dd721	0.13851596
183	0xbe33bd5f	-0.17552708
184	0x3db7ebd2	0.08980526
185	0x3d1ffd30	0.039059818
186	0xbdd0d06c	-0.10196003
187	0x3de80f26	0.11331014
188	0xbd86a77d	-0.065749146
189	0xbe07cc75	-0.13261588
190	0x3e174d3f	0.14775561
191	0x3cd2dcf8	0.025740132
192	0xbd9bc6ec	-0.07606301
193	0xbdb645e6	-0.08900051
194	0x3db0a8aa	0.0862592
195	0x3dd0924e	0.101841554
196	0x3e03932f	0.12849115
197	0x3cd5cea0	0.026099503
198	0xbdc5025e	-0.09619592
199	0x3dc2d816	0.09513871
200	0x3d9fd4c6	0.07804255
201	0x3e0281ab	0.12744777
202	0x3dea8ca6	0.11452608
203	0xbdb45e1b	-0.08807012
204	0xbdbce8b3	-0.09224071
205	0x3cc3fe88	0.02392508
206	0x3e1d427b	0.15357392
207	0xbd414ab0	-0.04719037
208	0xbe19a894	-0.15005714
209	0xbda54822	-0.08070399
210	0xbdcf1bb5	-0.101127066
211	0x3d2e49ec	0.042550966
212	0x3e1a8b63	0.15092234
213	0x3d9cd3f6	0.07657616
214	0x3d7d0940	0.0617764
215	0xbd26b60c	-0.040700957
216	0x3d8bc578	0.068247736
217	0x3de1d1de	0.11026357
218	0x3b6a1400	0.0035717487
219	0xbe137ac7	-0.14402305
220	0x3dcb560a	0.0992852
221	0x3db8d3a6	0.09024744
222	0x3daad1b6	0.083407804
223	0xbc150340	-0.009095013
224	0xbe0c7b50	-0.13718915
225	0xbe0642bc	-0.13111395
226	0x3d638b8c	0.055553004
227	0x3dac3022	0.08407618
228	0x3e03e649	0.12880816
229	0xbd388464	-0.045048133
230	0x3c155530	0.009114549
231	0xbc233ad0	-0.009962752
232	0x3d870782	0.06593229
233	0x3d9c3422	0.07627131
234	0xbe0a5400	-0.13508606
235	0xbdb437ec	-0.08799729
236	0xbdbf92af	-0.093541496
237	0x3e159a07	0.14609538
238	0xbe1eab61	-0.15495063
239	0x3e142017	0.14465366
240	0xbdbbb448	-0.09165245
241	0xbd1bb7e4	-0.03801717
242	0xbda09d88	-0.07842547
243	0x3d0b37dc	0.03398882
244	0x3e14c2eb	0.1452748
245	0x3d8460da	0.064637855
246	0xbd68c334	-0.056826785
247	0xbda5f06f	-0.081025
248	0xbde41c53	-0.11138215
249	0x3d059b54	0.032618836
250	0x3d7db5c4	0.061940923
251	0xbbbc2460	-0.005741641
252	0x3d01b94c	0.031670853
253	0x3dca8ac2	0.09889747
254	0xbd599f7c	-0.05313061
255	0x3db2a1d6	0.08722274

conv1.bias f4 [16]
0	0xbe2b649e	-0.16737601
1	0xbe05abcf	-0.13053821
2	0xbcb91b20	-0.022595942
3	0xbc144c80	-0.009051442
4	0xbc5a89b0	-0.013338491
5	0x3e2450b1	0.16046406
6	0xbd67119e	-0.056413285
7	0x3daf2732	0.08552398
8	0xbdab6597	-0.08368986
9	0x3e28a927	0.16470776
10	0x3e24005f	0.16015767
11	0x3d352a90	0.044230044
12	0x3e01bf07	0.12670527
13	0x3d9c0556	0.07618205
14	0xbc00c5f0	-0.007859692
15	0x3a99d780	0.0011737198

conv2.weight f4 [32, 16, 4, 4]
0	0xbd4d4e50	-0.050123513
1	0xbd01b7e6	-0.03166952
2	0xbd2de43c	-0.04245399
3	0x3d7f33e2	0.06230534
4	0xbb4161c0	-0.0029507726
5	0x3c39b9c8	0.011335798
6	0x3d6fc6b2	0.0585391
7	0xbd71ee1e	-0.059064977
8	0x3c9a1e24	0.0188132
9	0x3d4f6d40	0.0506413
10	0x3cd175dc	0.025568895
11	0x3ca10b1c	0.019658618
12	0xbd39f9e2	-0.045404322
13	0xbca7f6ec	-0.020503484
14	0xbca9ca64	-0.02072639
15	0xbbd84f50	-0.0066012517
16	0xbca6cca8	-0.02036126
17	0x3cbec3b4	0.023286678
18	0x3bcd41e0	0.0062639564
19	0xbce48d28	-0.02789934
20	0xbc9d8034	-0.019226171
21	0x3b4f7a60	0.0031658635
22	0x3c88b788	0.016689077
23	0x3ced320c	0.028954528
24	0xbd35282e	-0.04422777
25	0x3cf606cc	0.030032538
26	0xbb8fa7f0	-0.0043840334
27	0x3ce3a3d8	0.027788088
28	0xbd644da0	-0.05573809
29	0xbc82c420	-0.01596266
30	0xbcb62858	-0.022236034
31	0x38880800	6.4864755e-05
32	0xbc49cc38	-0.012316756
33	0x3cfc0980	0.030766249
34	0xbd781248	-0.06056431
35	0x3affbbc0	0.001951091
36	0xbb263260	-0.0025359616
37	0xbd12d294	-0.035845354
38	0xbd2e793c	-0.042596087
39	0xbcba408c	-0.022735856
40	0x3d13e1e2	0.03610409
41	0x3bfabe20	0.007652059
42	0x3d7113a8	0.058856636
43	0x3b96b690	0.0045994
44	0xbcfd6f28	-0.030936792
45	0xbb205300	-0.0024463534
46	0xbbcbef90	-0.0062236264
47	0x3bcac8a0	0.006188467
48	0xbb41a840	-0.0029549748
49	0x3c921cac	0.017835937
50	0xbd455024	-0.04817213
51	0x3c83c598	0.016085431
52	0x3cb27754	0.021785416
53	0x3d42fa2c	0.047601864
54	0x3c6cbbd8	0.014449082
55	0xbc820208	-0.01587011
56	0xbd108986	-0.035287403
57	0x3d59db8e	0.0531879
58	0xbc8834cc	-0.016626738
59	0x3d6ad0da	0.057328083
60	0xbc380660	-0.011231989
61	0x3c44acd8	0.0120041
62	0x3bf6ebb0	0.0075354204
63	0xbd327e82	-0.04357768
64	0xbce22778	-0.02760671
65	0x3c87ecd0	0.016592413
66	0xbd00951c	-0.0313922
67	0xbd1a6798	-0.03769645
68	0xbc57dd88	-0.013175376
69	0xbc98e508	-0.018663898
70	0xbcdd0814	-0.026981391
71	0xbd768424	-0.060184613
72	0xbcfd3f30	-0.03091392
73	0x3d6a8a44	0.057260767
74	0x3d44d3dc	0.048053607
75	0x3c0a90d8	0.008457385
76	0xbc0524d8	-0.00812646
77	0x3c7604f0	0.015015826
78	0xbc9db89c	-0.019253068
79	0xbd5afef6	-0.053465806
80	0x3ccef5b4	0.025263645
81	0xbcfdb8a8	-0.03097184
82	0xbbe0b180	-0.006857097
83	0xbcf64664	-0.030062862
84	0x3d37be4c	0.044859216
85	0x3d316dc8	0.043317586
86	0xbc4f4c58	-0.012652479
87	0xbd2f1742	-0.04274679
88	0x3d42a132	0.04751701
89	0x3d4a8f2a	0.04945294
90	0x3c7349a0	0.014849097
91	0x3bc90de0	0.006135687
92	0xbc3469a0	-0.011011511
93	0xbb845710	-0.004038699
94	0x3d640ea0	0.05567801
95	0x3d49dd56	0.049283348
96	0xbd0d6c9a	-0.0345274
97	0x3ce35314	0.027749576
98	0xbcbce1f8	-0.023056969
99	0xbc7cc100	-0.015426874
100	0xbcb914fc	-0.022593014
101	0x3cfa83a4	0.03058035
102	0xbcd082c8	-0.025452986
103	0x3be6f300	0.007048011
104	0x3d03395a	0.032037117
105	0x3d1a236c	0.037631437
106	0xbcb368cc	-0.021900557
107	0xbbfbba80	-0.0076821446
108	0xbbd96a10	-0.006634958
109	0x3cabe648	0.02098383
110	0xbd44f648	-0.048086435
111	0xbd7983b2	-0.06091661
112	0x3cea05a8	0.02856715
113	0x3bb81f90	0.005618997
114	0x3d31d67a	0.04341743
115	0x3d33bcf2	0.043881364
116	0xbd2db526	-0.042409085
117	0x3c81685c	0.015796833
118	0xbd523b1a	-0.051325895
119	0x3cde8edc	0.02716773
120	0x3c0bbf40	0.008529484
121	0x3d2e16ea	0.04250232
122	0xbd19c364	-0.037539855
123	0x3d36c300	0.04461956
124	0xbc4ed278	-0.012623422
125	0x3b91e3e0	0.0044522136
126	0xbcb369c8	-0.021901026
127	0xbcb1ad58	-0.021689102
128	0xbc3bd060	-0.011463255
129	0xbd73d38e	-0.059527926
130	0xbb714600	-0.0036815405
131	0xbcf7460c	-0.030184768
132	0x3d09430c	0.033511207
133	0x3c886d60	0.016653717
134	0xbcddc8c8	-0.027073279
135	0xbd0a35f2	-0.033742853
136	0x3c187278	0.009304635
137	0xbca84fac	-0.020545803
138	0x3d159024	0.036514416
139	0xbca4491c	-0.020054393
140	0xbd3e8584	-0.04651405
141	0x3c4bfb90	0.012450114
142	0x3d650f40	0.055922747
143	0xbc50bae0	-0.012739867
144	0x3cc53b18	0.02407603
145	0x3d2eab90	0.042644083
146	0xbc90c334	-0.017671205
147	0x3d3e3124	0.046433583
148	0xbb6c4640	-0.0036052614
149	0xbc86ef50	-0.016471535
150	0x3d26f518	0.040761083
151	0xbcbd8638	-0.02313529
152	0xbd08cc96	-0.033398233
153	0xbd3af5ac	-0.045644447
154	0xbd746fe6	-0.059677027
155	0xbd5ca480	-0.053867817
156	0x3d088fb4	0.03334017
157	0xbd6ce74a	-0.057837762
158	0x3ce22160	0.027603805
159	0xbca1861c	-0.019717269
160	0xbc452a90	-0.0120340735
161	0xbd54e124	-0.051972523
162	0xbd10fae8	-0.035395533
163	0x3d4c613a	0.04989741
164	0x3cb6d788	0.02231957
165	0xbd3f2ad4	-0.046671703
166	0xbd737f84	-0.05944778
167	0xbcc9f0a4	-0.02465088
168	0x3d38618a	0.045014895
169	0xbd3d1338	-0.046160907
170	0x3d5cfcf2	0.053952165
171	0x3ce8f810	0.028438598
172	0x3c8f7714	0.017512836
173	0x3b4e3ea0	0.0031470433
174	0x3d5e90a4	0.05433716
175	0x3c0899b0	0.008337423
176	0xba81eec0	-0.0009913072
177	0xbcdfd420	-0.027322829
178	0x3d08d776	0.033408605
179	0xbd487f2e	-0.048949413
180	0xbccd8da4	-0.025091954
181	0x3d56139e	0.052264802
182	0xbcf02b70	-0.029317588
183	0xbd18b7e0	-0.037284732
184	0x3ca63348	0.020288125
185	0x3d115432	0.035480686
186	0x3ceb8254	0.028748669
187	0xbd31e5fe	-0.04343223
188	0x3c97db40	0.018537164
189	0xbd04a9cc	-0.032388493
190	0xbd0300d0	-0.031983197
191	0xbc6ea0b8	-0.0145646855
192	0x3c2e40b8	0.010635547
193	0x3c4e9c40	0.012610495
194	0x3cc0190c	0.023449443
195	0x3d4d40ba	0.050110556
196	0xbcd542fc	-0.026032917
197	0xbb3ac840	-0.0028500706
198	0x3d129064	0.035782233
199	0xbd715042	-0.05891443
200	0x3d2618f2	0.040551133
201	0xbd33b3cc	-0.04387264
202	0xbc1eae40	-0.009685099
203	0xbce0fd88	-0.027464643
204	0x3d1abdf4	0.03777881
205	0xbd77c5fa	-0.06049154
206	0xbcb02f54	-0.021506943
207	0x3ceb590c	0.028728984
208	0xbb83b4f0	-0.004019372
209	0x3d27e3e4	0.040988818
210	0xbd1ba2ce	-0.03799706
211	0xbca76894	-0.020435609
212	0x3d3022a6	0.043001793
213	0xbce265a4	-0.027636357
214	0x3d3c93fa	0.04603956
215	0xbca2dcdc	-0.019880705
216	0xbd74409c	-0.05963193
217	0x3cf16290	0.029465944
218	0xbd1754a6	-0.03694596
219	0xbc0a9450	-0.008458212
220	0xbcadf5c4	-0.021235354
221	0xbd19bba2	-0.037532456
222	0xbd59ba6e	-0.05315631
223	0xbc56dda8	-0.01311437
224	0x3d3c5e26	0.045988224
225	0x3cf1c1f4	0.02951143
226	0xbcae60ac	-0.021286331
227	0xbcf71ef4	-0.030166127
228	0xbd305aac	-0.04305522
229	0xbc767a38	-0.015043788
230	0x3cb758ec	0.022381268
231	0x3a2c0500	0.00065620244
232	0xbcab4c84	-0.020910509
233	0x3cad8d04	0.021185406
234	0xbc6d4e60	-0.014484018
235	0x3bf5e960	0.007504627
236	0x3c580480	0.013184667
237	0xbd26a8b8	-0.040688246
238	0x3cbd7f5c	0.023132019
239	0xbd047c80	-0.032345295
240	0xbd727cde	-0.059201114
241	0xbd19ed3c	-0.03757976
242	0x3bc49050	0.0059986487
243	0xbd01e100	-0.031708717
244	0xbc40fc28	-0.011778869
245	0xbc992138	-0.018692598
246	0x3d032dce	0.032026105
247	0x3d2b4d9c	0.04182206
248	0xbca2608c	-0.019821428
249	0x3d1c6a90	0.038187563
250	0x3d4761c2	0.048677213
251	0xbcc104d4	-0.023561873
252	0xbd2908d4	-0.041268185
253	0xbd055b66	-0.032557867
254	0xbcb88a94	-0.022527017
255	0x3d243026	0.04008498

conv2.bias f4 [32]
0	0x3d4c4b7e	0.049876682
1	0xbd657722	-0.056021817
2	0xbb9bb180	-0.0047513843
3	0x3cba32b8	0.022729263
4	0x3d4b1774	0.049582914
5	0xbc514138	-0.012771897
6	0x3d3ad042	0.045608766
7	0xbb2f38c0	-0.0026736706
8	0xbd792caa	-0.06083361
9	0xbc9c0fd4	-0.019050516
10	0x3cc7f270	0.024407595
11	0xbbc22dc0	-0.005925864
12	0x3c4b9f98	0.012428187
13	0xb9b17e00	-0.00033853948
14	0xbcb63044	-0.022239812
15	0x3d2672e2	0.040636905
16	0x3d1f6f94	0.03892477
17	0xbd290004	-0.04125978
18	0xbd2d3b5a	-0.04229293
19	0xbceee218	-0.029160544
20	0xbcea2bf4	-0.028585412
21	0x3ced06b0	0.028933853
22	0x3b32b460	0.0027268156
23	0x3d625882	0.05526019
24	0xbcb38278	-0.021912798
25	0xbb901dd0	-0.004398085
26	0x3c4e8d60	0.012606949
27	0x3c833404	0.016016014
28	0x3c836eb0	0.01604399
29	0xbd727aa6	-0.059198998
30	0x3d1338f6	0.035942994
31	0xbd5dab96	-0.054118715
