DRL-based-path-finding/saved_models/dqn_best_model.pth (torch, 981101 bytes, 32 tensors)

conv1.weight f4 [16, 2, 4, 4]
-0.09601829 0.935868 0.74674845 1.3737508 -0.32063523 -0.11421643 -0.037024297 0.96141934
-0.2775706 -0.18363474 -0.2402204 0.42963484 0.5387761 0.41454378 -0.23377664 0.07760591
0.024650963 -0.082733415 -0.052417558 -0.021451324 -0.014059043 0.050808776 -0.10773969 -0.22039923
0.008292496 -0.1365501 0.12191767 0.07535967 0.09076131 0.14743313 -0.058849916 -0.053540394
-0.31334352 -0.31473336 -0.30207127 -0.3879228 -0.35789272 -0.2789185 -0.38561764 0.6862231
-0.43734336 -0.11674021 0.045726866 -0.17795157 -0.35485244 -0.37774432 0.41953775 -0.5775688
-0.038978647 -0.096892804 -0.1446306 -0.0875173 0.084749825 0.05933173 0.03698166 -0.016835444
-0.09029535 -0.1977564 -0.07898601 0.110794015 0.15368623 -0.11671634 -0.08123113 -0.44006518
-0.3507675 -0.388317 -0.28216445 -0.37972102 -0.4689241 -0.39449212 -0.33582708 -0.5109359
-0.35913095 -0.44311386 -0.3628179 -0.5380526 -0.52444685 -0.5182603 -0.46894494 -0.63181955
0.065726556 0.1483957 0.11531064 0.13480699 0.04021793 0.106797695 0.15415424 -0.13592122
0.19578785 -0.021995284 0.12824963 -0.007801188 0.047367115 0.057717998 -9.1877126e-05 0.027401812
0.24426287 -0.31372875 -0.14128134 0.9891213 -0.17458436 0.084517404 -0.2227538 -0.21813478
0.4867575 -0.20951551 -0.112861544 -0.19765924 0.29945475 0.025312275 0.43847427 0.48127493
-0.15488933 0.25265434 0.1433594 0.16780052 0.0036991576 0.14501354 0.19101682 -0.05378808
0.06625248 -0.02071635 -0.50052774 0.10928989 0.09169062 0.010068406 0.11067794 -0.39450815
0.82186 0.33401543 0.3800356 0.83414483 0.64998 -0.42308536 0.54157305 0.87729925
0.4669366 0.12845145 0.3396261 0.016024522 0.3445401 -0.15468428 0.85134995 1.1732236
-0.19483556 0.051939413 -0.17584373 0.04590228 -0.013570695 0.14128415 -0.14633131 -0.08772879
0.09793757 -0.16462998 0.050139565 -0.02286933 0.021064214 -0.10900963 -0.08261027 0.06977048
0.66478163 0.05284709 0.16552672 0.6660727 0.35640803 0.10219468 0.18222947 -0.3269319
0.45087847 0.54190993 -0.04203399 0.72087663 0.33071864 0.09824288 1.207764 2.150637
-0.0776149 0.062341683 -0.08580743 -0.026055256 0.028955586 -0.018036759 0.03280517 -0.02812998
-0.01982144 0.18056251 0.10746955 0.2022323 -0.036342464 0.030889783 0.023187902 -0.09168609
-0.3206409 0.5022621 -0.18227372 -0.27208176 0.93682045 0.5889868 0.37104243 -0.09999486
0.24091434 -0.3327364 0.3897166 -0.13301545 -0.26010737 -0.14218183 0.26015624 -0.397528
-0.12481294 -0.21244007 -0.15743992 -0.10148649 0.07556503 0.07006441 -0.1522827 0.14306337
0.086940095 -0.14798959 -0.19747126 -0.046388317 -0.076711744 -0.029127207 -0.06671284 -0.09757432
0.24616453 0.27011448 0.590037 1.2726411 -0.11038733 -0.1553554 1.0871872 1.9903883
0.36324194 -0.32262072 0.056947164 0.9120512 0.3306806 0.29120296 -0.30765587 0.601326
0.054065958 -0.22346318 -0.054982718 -0.021067584 0.11262442 0.07999371 0.069351494 -0.24209185
0.018134834 0.1107864 0.16905048 -0.033038314 0.12359145 0.03392633 -0.014906341 0.2027632
00000000: 3da5 c4bd 0c95 6f3f e82a 3f3f 11d7 af3f
00000010: 4d2a a4be 4eea e9bd caa6 17bd 941f 763f
00000020: bc1d 8ebe bf0a 3cbe 56fc 75be 19f9 db3e
00000030: 3bed 093f 153f d43e 2563 6fbe d9ef 9e3d
00000040: d1f0 c93c 2370 a9bd cbb3 56bd b0ba afbc
00000050: e657 66bc dd1c 503d a0a6 dcbd 56b0 61be
00000060: 40dd 073c cad3 0bbe f9af f93d 2c56 9a3d
00000070: 11e1 b93d b6f8 163e 9c0c 71bd 2c4d 5bbd
00000080: 906e a0be bb24 a1be 16a9 9abe d19d c6be
00000090: b73d b7be 68ce 8ebe ad6f c5be 51ac 2f3f
000000a0: 78eb dfbe 7e15 efbd 184c 3b3d f038 36be
000000b0: 38af b5be b467 c1be a7cd d63e 8ddb 13bf
000000c0: 13a8 1fbd bc6f c6bd 0b1a 14be 453c b3bd
000000d0: 5191 ad3d d405 733d 157a 173d 7cea 89bc
000000e0: c5ec b8bd a780 4abe 6bc3 a1bd f9e7 e23d
000000f0: ec5f 1d3e fa08 efbd 825c a6bd 3950 e1be
00000100: cc97 b3be 7cd1 c6be dc77 90be cb6a c2be
00000110: d216 f0be dffa c9be 87f1 abbe b2cc 02bf
00000120: 03e0 b7be d2df e2be 45c3 b9be d1bd 09bf
00000130: 2642 06bf b5ac 04bf 8d19 f0be edbe 21bf
00000140: a59b 863d 0bf5 173e fc27 ec3d d80a 0a3e
00000150: 8ebb 243d c0b8 da3d 9cda 1d3e ef2e 0bbe
00000160: 9c7c 483e 742f b4bc df53 033e 1ca1 ffbb
00000170: 0504 423d b569 6c3d 28ae c0b8 c479 e03c
00000180: 0c20 7a3e 0ea1 a0be 0eac 10be 0e37 7d3f
00000190: 3ec6 32be 7617 ad3d 9219 64be b95e 5fbe
000001a0: 4738 f93e 3c8b 56be f423 e7bd 2f67 4abe
000001b0: 2252 993e b05b cf3c b37f e03e ab69 f63e
000001c0: 4f9b 1ebe e95b 813e cecc 123e e6d3 2b3e
000001d0: 916d 723b 6e7e 143e ea99 433e e450 5cbd
000001e0: 61af 873d 56b5 a9bc 9622 00bf 61d3 df3d
000001f0: 4bc8 bb3d f5f5 243c 1eab e23d f9fc c9be
00000200: 6b65 523f 1204 ab3e 0794 c23e 848a 553f
00000210: 1765 263f a59e d8be 88a4 0a3f af96 603f
00000220: 5012 ef3e c788 033e 79e3 ad3e dc45 833c
00000230: 8f67 b03e 8e65 1ebe 12f2 593f 312c 963f
00000240: f982 47be 6cbe 543d 6110 34be 0704 3c3d
00000250: 9f57 5ebc cbac 103e e0d7 15be 27ab b3bd
00000260: 7e93 c83d c394 28be 255f 4d3d 7658 bbbc
00000270: dc8e ac3c 7140 dfbd 932f a9bd d3e3 8e3d
00000280: 212f 2a3f 3176 583d d67f 293e be83 2a3f
00000290: 1d7b b63e 724b d13d 5d9a 3a3e 9e63 a7be
000002a0: 8bd9 e63e 9cba 0a3f d52b 2cbd 5f8b 383f
000002b0: f453 a93e 9033 c93d 0398 9a3f 09a4 0940
000002c0: 90f4 9ebd fe59 7f3d cebb afbd d571 d5bc
000002d0: 4434 ed3c d3c1 93bc b75e 063d d870 e6bc
000002e0: 9360 a2bc 61e5 383e ff18 dc3d fc15 4f3e
000002f0: d6db 14bd 920c fd3c 8ef4 bd3c ebc5 bbbd
00000300: 0b2b a4be 4094 003f f6a5 3abe 4d4e 8bbe
00000310: 77d3 6f3f d7c7 163f 46f9 bd3e 1bca ccbd
00000320: 40b2 763e 6d5c aabe ef88 c73e 3435 08be
00000330: cb2c 85be 1d98 11be 3333 853e ca88 cbbe
00000340: ed9d ffbd e489 59be ee37 21be 26d8 cfbd
00000350: d7c1 9a3d ee7d 8f3d ffef 1bbe 347f 123e
00000360: a60d b23d 958a 17be e835 4abe ad01 3ebd
00000370: 0c1b 9dbd 2e9c eebc bea0 88bd 0cd5 c7bd
00000380: 8e12 7c3e 724c 8a3e aa0c 173f e7e5 a23f
00000390: c112 e2bd 7c15 1fbe f328 8b3f 0bc5 fe3f
000003a0: d9fa b93e 8b2e a5be 6e41 693d 307c 693f
000003b0: f84e a93e 8e18 953e 1285 9dbe 80f0 193f
000003c0: 4474 5d3d 88d3 64be 8f35 61bd ed95 acbc
000003d0: a2a7 e63d bed3 a33d 2808 8e3d ede6 77be
000003e0: 818f 943c fbe3 e23d 921b 2d3e 2f53 07bd
000003f0: 841d fd3d 56f6 0a3d ba39 74bc 28a1 4f3e

conv1.bias f4 [16]
0.089516476 0.284108 0.24961136 -0.06764087 0.22911161 0.02854553 0.180683 -0.051599544
-0.012173209 0.063517004 -0.015569713 0.31729066 0.22674769 0.259426 0.15518168 0.20424388
00000000: 6a54 b73d 9b76 913e 1f9a 7f3e 4c87 8abd
00000010: 3c9c 6a3e 51d8 e93c f704 393e 0b5a 53bd
00000020: 2472 47bc 3415 823d 1c18 7fbc ec73 a23e
00000030: 8c30 683e 7cd3 843e f2e7 1e3e 4f25 513e

conv2.weight f4 [32, 16, 4, 4]
-0.15201534 -0.07543283 -0.13052502 -0.07957068 -0.061108746 -0.03692564 0.012574011 0.009853578
0.033884842 0.009649796 -0.023557043 -0.089812756 -0.0658645 0.0014599725 0.024549013 -0.037208468
0.06860745 -0.024422403 0.067325786 0.06547045 0.08184161 0.01873707 -0.0055411244 0.022213673
-0.013758881 0.03304958 0.019503834 0.08753541 0.026349364 0.008112598 -0.02747398 0.041449808
0.09004975 0.035734605 -0.01642877 0.03254085 -0.000111612666 -0.022790719 -0.02698347 -0.004483386
0.06327112 0.0063402755 0.090520434 0.0033996506 0.017417375 0.096664794 0.010155009 0.112000175
-0.07673227 -0.060579333 0.0013163785 -0.019454136 -0.13942747 -0.07763257 0.058392286 -0.058641776
-0.11952913 0.0033178576 -0.112839416 -0.011932886 -0.096957475 -0.06522023 -0.012739393 -0.029758763
-0.041416675 -0.11714267 0.010724473 -0.04739886 -0.090905614 -0.11238071 -0.0062780515 -0.0127281165
-0.0949723 -0.11718982 -0.09084433 -0.09988 -0.13914363 -0.02948593 -0.0768707 -0.09474276
-0.09400119 -0.14494723 -0.06421124 -0.05397352 -0.16422947 -0.15296817 -0.10916597 -0.18534535
-0.13188645 -0.15674117 -0.11252328 -0.1491274 0.006616333 -0.09627284 -0.12468213 -0.2832852
-0.098009765 -0.068957485 0.011288476 0.02189523 -0.09620489 -0.038185738 -0.0057418672 -0.0426563
-0.0103133535 0.004886697 -0.0038110476 -0.040310264 0.027488966 0.054971356 -0.013345573 0.0068572615
-0.11263606 -0.16152354 -0.18986192 -0.22954467 -0.11479744 -0.013459403 -0.1628215 -0.22977349
-0.1305518 -0.05752038 -0.11799853 -0.07926154 -0.12216888 -0.15111674 -0.125689 -0.2985476
0.013200786 -0.112351604 -0.14087246 -0.10950179 -0.061010856 -0.061255205 -0.020147502 -0.019302797
-0.05246609 -0.07987925 -0.04066483 -0.11954051 -0.07467589 0.037138753 -0.00027083707 0.053482432
-0.24666862 -0.06569406 -0.09650603 -0.06326475 -0.13326801 -0.065177254 -0.028132303 -0.033010714
-0.100849286 -0.049482476 -0.008033227 -0.005215075 0.0034408595 -0.08602326 0.009663332 -0.018306874
-0.24912092 -0.16516761 -0.119106665 -0.1765688 -0.23780379 -0.21267177 -0.109162286 -0.17812839
-0.11100538 -0.079482324 -0.12248802 -0.100280315 -0.008042382 -0.030904735 -0.18362571 -0.22523251
0.021872466 0.05287113 0.082023405 -0.028296085 -0.012457385 0.049597643 -0.049018584 0.012738657
0.022537746 -0.019228896 0.0421 0.06930152 0.07748426 0.017084148 0.031063726 0.047704734
0.082659155 -0.019799458 0.059152458 0.06835547 0.085087165 -0.03736605 0.031805012 0.08490435
0.0624537 -0.034860305 0.049797624 0.008907576 0.052751347 0.06739218 0.08318761 0.023053963
0.024088852 0.02555288 0.0667275 0.0006355365 0.08088537 0.017069701 -0.034905475 0.08197597
0.053491924 0.05856147 0.0381722 0.008744537 -0.016028974 0.009702342 0.066248596 0.05845898
0.017127788 0.004108882 -0.0026285178 -0.024031833 0.009081098 0.024471672 -0.02970855 -0.018591372
-0.0059230877 -0.046260897 -0.040276293 0.03909192 0.0032825503 0.05587849 -0.023841364 -0.022288207
-0.0071533355 0.0076725124 0.027230816 0.011592958 0.03759631 0.0009412411 0.070438035 0.04554215
0.01847321 -0.018190153 -0.056881905 -0.04687764 0.033254094 -0.018800115 -0.012643755 -0.055459406
00000000: e9a9 1bbe 877c 9abd 5aa8 05be f4f5 a2bd
00000010: 2a4d 7abd 573f 17bd 3a03 4e3c e770 213c
00000020: d5ca 0a3d 2e1a 1e3c b3fa c0bc c0ef b7bd
00000030: f8e3 86bd 8c5c bf3a 031b c93c e867 18bd
00000040: 1082 8c3d 7e11 c8bc 1ae2 893d 5f15 863d
00000050: 939c a73d 7c7e 993c 5292 b5bb 73f9 b53c
00000060: ee6c 61bc ff5e 073d 81c6 9f3c c445 b33d
00000070: 9fda d73c b4ea 043c 1d11 e1bc 46c7 293d
00000080: 016c b83d 735e 123d a195 86bc 8e49 053d
00000090: 9811 eab8 9ab3 babc 700c ddbc 5ee9 92bb
000000a0: 4a94 813d 16c2 cf3b c762 b93d accc 5e3b
000000b0: e2ae 8e3c 31f8 c53d 3261 263c 5960 e53d
000000c0: cf25 9dbd 0922 78bd 558a ac3a 485e 9fbc
000000d0: 13c6 0ebe d3fd 9ebd c02c 6f3d 5c32 70bd
000000e0: b0cb f4bd 6a70 593b 5a18 e7bd 2782 43bc
000000f0: a491 c6bd 2f92 85bd e3b8 50bc a6c8 f3bc
00000100: 88a4 29bd 7fe8 efbd b3b5 2f3c 4f25 42bd
00000110: b92c babd dc27 e6bd 1db8 cdbb 9789 50bc
00000120: d680 c2bd 3701 f0bd 980c babd e38d ccbd
00000130: ab7b 0ebe 7a8c f1bc 636e 9dbd 7e08 c2bd
00000140: b283 c0bd 0c6d 14be 2f81 83bd 5613 5dbd
00000150: c52b 28be b0a3 1cbe 6892 dfbd 2ccb 3dbe
00000160: 3e0d 07be c280 20be 9b72 e6bd dab4 18be
00000170: d3cd d83b b22a c5bd 5859 ffbd c20a 91be
00000180: 58b9 c8bd 9539 8dbd 4df3 383c a05d b33c
00000190: 1207 c5bd a668 1cbd 4626 bcbb 5fb8 2ebd
000001a0: 57f9 28bc 9620 a03b c5c2 79bb 601c 25bd
000001b0: 8a30 e13c a529 613d 64a7 5abc e1b2 e03b
000001c0: bcad e6bd 6d66 25be 2a6b 42be c20d 6bbe
000001d0: ec1a ebbd d484 5cbc aeba 26be be49 6bbe
000001e0: 5faf 05be 7d9a 6bbd 37a9 f1bd e053 a2bd
000001f0: ae33 fabd 59be 1abe 9eb4 00be 3bdb 98be
00000200: 1c48 583c 9918 e6bd df40 10be 7942 e0bd
00000210: 85e6 79bd bde6 7abd 600c a5bc e620 9ebc
00000220: afe6 56bd bb97 a3bd 2a90 26bd a8d1 f4bd
00000230: acef 98bd ce1e 183d 23ff 8db9 6510 5b3d
00000240: b396 7cbe 9b8a 86bd f4a4 c5bd f390 81bd
00000250: 6977 08be a77b 85bd b775 e6bc 3e36 07bd
00000260: 128a cebd 23ae 4abd cc9d 03bc 38e3 aabb
00000270: 0b80 613b f72c b0bd f452 1e3c 4cf8 95bc
00000280: 8e19 7fbe b321 29be 32ee f3bd 74ce 34be
00000290: d682 73be a1c6 59be 7a90 dfbd 4a67 36be
000002a0: ca56 e3bd a1c7 a2bd 00db fabd c45f cdbd
000002b0: 32c4 03bc ed2b fdbc 6108 3cbe 5aa3 66be
000002c0: e32d b33c 668f 583d e3fb a73d 31cd e7bc
000002d0: 0f1a 4cbc e626 4b3d b6c7 48bd cdb5 503c
000002e0: 14a1 b83c eb85 9dbc 0d71 2c3d f5ed 8d3d
000002f0: 11b0 9e3d 0ef4 8b3c 5b79 fe3c 0a66 433d
00000300: 3449 a93d 7932 a2bc d949 723d f4fd 8b3d
00000310: 2e42 ae3d 250d 19bd f945 023d 55e2 ad3d
00000320: 73cf 7f3d aec9 0ebd 98f8 4b3d 15f1 113c
00000330: cc11 583d e904 8a3d 445e aa3d aadb bc3c
00000340: fc55 c53c 4654 d13c 6da8 883d 229a 263a
00000350: 3ba7 a53d c2d5 8b3c 0bf9 0ebd 04e3 a73d
00000360: 591a 5b3d 27de 6f3d 745a 1c3d 3f45 0f3c
00000370: 324f 83bc 92f6 1e3c 58ad 873d af72 6f3d
00000380: 934f 8c3c cda3 863b 3643 2cbb 68de c4bc
00000390: e3c8 143c d178 c83c 585f f3bc ef4c 98bc
000003a0: 7616 c2bb 117c 3dbd c1f8 24bd d91e 203d
000003b0: 0e20 573b d8e0 643d f74e c3bc c295 b6bc
000003c0: 8766 eabb b369 fb3b 2913 df3c 64f0 3d3c
000003d0: 97fe 193d 9fbd 763a d141 903d 688a 3a3d
000003e0: 2155 973c 8403 95bc 00fd 68bd c502 40bd
000003f0: 7235 083d b302 9abc c127 4fbc 6729 63bd

conv2.bias f4 [32]
0.10048504 -0.05769033 0.015524775 -0.017412778 0.054891787 0.12734674 0.07706336 0.11087986
0.089761615 -0.043250687 0.012593537 -0.0011915779 0.118801415 0.03440897 0.04865552 0.038680576
0.037762716 0.065201044 0.029141748 -0.05761939 0.061783504 0.04434769 0.038667448 0.004030065
0.056530982 0.11062731 0.039386623 0.08971993 0.032352604 0.05155103 -0.06514074 0.09484642
00000000: 1acb cd3d b24c 6cbd a05b 7e3c 3ea5 8ebc
00000010: 36d6 603d 2f67 023e 65d3 9d3d fb14 e33d
00000020: f0d4 b73d a227 31bd 1f55 4e3c b82e 9cba
00000030: 284e f33d 6cf0 0c3d 034b 473d 866f 1e3d
00000040: 14ad 1a3d 2088 853d adba ee3c 4f02 6cbd
00000050: b310 7d3d eca5 353d c261 1e3d a30e 843b
00000060: 088d 673d 9290 e23d de53 213d 15bf b73d
00000070: 2a84 043d 2c27 533d 8268 85bd d73e c23d

fc1.weight f4 [64, 800]
-0.044933964 -0.046125952 0.0011213053 -0.04278479 -0.025016272 -0.025154654 -0.0570517 -0.022352349
-0.0435125 -0.028264739 -0.04557398 -0.003989604 -0.038818873 -0.027146092 0.0023021176 -0.0047333436
-0.042728845 -0.035678267 -0.057361376 -0.00722916 -0.03879032 0.005902996 -0.060202703 -0.055826478
-0.032739084 0.020933527 0.03459933 -0.0072441082 0.021131035 0.025231477 -0.0050817225 -0.0019731969
0.019835632 -0.03063257 -0.00618854 -0.005407352 0.0051157326 -0.0071326215 -0.013400052 0.00051411614
-0.029324716 0.02568851 -0.024144506 0.023552213 0.03386527 -0.014988972 -0.012069304 0.03129181
-0.005498361 0.011330273 -0.002561014 0.004811364 -0.034911215 -0.031352144 -0.059983604 -0.0023458458
-0.034670934 -0.020157892 -0.03922716 -0.004239156 -0.038951416 -0.016801052 0.004551653 -0.029551564
0.013292979 -0.046438705 0.010145373 0.009645368 -0.030968674 -0.0321947 -0.033996917 0.004911432
-0.0073629455 -0.03608186 -0.013431698 -0.030122219 -0.027156569 0.019051958 0.029580656 0.019859642
-0.009435648 -0.02485972 0.03428362 0.028994668 -0.016731082 -0.015081227 0.019124921 0.014023121
-0.030245468 0.016726676 0.0058287084 -0.01792388 -0.0028070658 0.0015664175 -0.027052596 0.009192392
0.033603925 -0.01783466 0.014155503 -0.021148905 -0.024531761 -0.016909067 -0.056078378 -0.039521486
-0.036765162 -0.02120955 0.0061453013 0.0034688148 0.006650001 -0.001242506 -0.014099307 -0.01540513
-0.011873 -0.055669192 -0.055653706 -0.04552864 -0.031747192 0.009101027 -0.010826622 0.0070642317
-0.010887242 -0.007387988 -0.057977483 0.000636642 -0.042625044 0.008666858 -0.00942958 -0.044828363
0.000982552 -0.017611565 0.00023361828 -0.018678853 -0.05468815 -0.00356446 -0.02933707 -0.053068217
-0.04611047 0.008119383 0.009187821 0.0051765703 -0.034296867 0.0011464709 -0.020216731 -0.05762174
-0.022434464 -0.013728507 -0.00027788023 0.002766768 -0.031970084 -0.0128898015 -0.020124862 0.0064014997
-0.0051421598 0.0069919815 -0.024433905 -0.015066451 0.012998103 0.0018507927 -0.015628839 0.0072603156
-0.04018039 -0.0026504134 -0.0039724824 -0.013119993 -0.024524106 -0.018606048 -0.058183137 -0.024049029
-0.0008379224 -0.00024979425 -0.059904553 -0.014278968 -0.025771178 -0.040108103 -0.0042693852 0.0039805295
-0.025171233 -0.053150304 -0.051598296 -0.012190501 -0.0049320855 -0.0406193 -0.033148527 -0.05618045
-0.03413981 -0.0072825653 -0.051271457 -0.04287277 -0.027381182 -0.03459449 -0.0552642 -0.03665542
-0.039755486 -0.00285991 -0.019240271 0.005679677 -0.026238952 -0.03149199 -0.049333725 -0.050333634
-0.03640104 -0.012439718 -0.027122658 -0.036996886 -0.0095389895 -0.03808275 -0.025027648 -0.035196647
-0.010514748 -0.03571891 -0.05928858 -0.021172391 -0.035802294 -0.026604867 0.014909536 -0.061146725
-0.02597824 0.012581815 -0.014782628 -0.05429365 0.0019948664 -0.0536899 -0.017917592 -0.042950764
-0.035592455 0.006135229 -0.002443105 0.0167652 0.02820154 0.013979077 0.027516384 0.007219296
-0.032033592 -0.029409163 0.012328085 -0.032835077 -0.034755684 0.006321177 -0.034328308 -0.013998166
-0.02839011 0.02456382 -0.0039136335 -0.0010990389 -0.016086623 0.026417486 -0.034561105 0.0317904
-0.013452074 0.0054025725 0.0028825887 -0.043072294 -0.04212317 -0.0035019154 -0.05546881 -0.047934446
00000000: ad0c 38bd 91ee 3cbd c3f8 923a 1b3f 2fbd
00000010: edee ccbc 2211 cebc 0baf 69bd 461c b7bc
00000020: 2a3a 32bd 748b e7bc c8ab 3abd 39bb 82bb
00000030: 8a00 1fbd 7b61 debc 20df 163b 2a1a 9bbb
00000040: 7104 2fbd 6023 12bd c3f3 6abd 97e2 ecbb
00000050: 99e2 1ebd eb6d c13b 1c97 76bd 4eaa 64bd
00000060: 6b19 06bd ca7c ab3c 07b8 0d3d fc5f edbb
00000070: fe1a ad3c 3eb2 ce3c 9484 a6bb c050 01bb
00000080: 567e a23c 28f1 fabc 3cc9 cabb 2830 b1bb
00000090: e0a1 a73b c4b8 e9bb e48b 5bbc c0c5 063a
000000a0: 633a f0bc b670 d23c b3ca c5bc 92f0 c03c
000000b0: 4fb6 0a3d 4e94 75bc 54be 45bc d72b 003d
000000c0: 982b b4bb 9ca2 393c afd6 27bb a6a8 9d3b
000000d0: 10ff 0ebd 1b6b 00bd 5eb1 75bd c3bc 19bb
000000e0: 1c03 0ebd 2a22 a5bc a9ac 20bd 9ee8 8abb
000000f0: 858b 1fbd 5ca2 89bc 0826 953b 1f16 f2bc
00000100: ccca 593c 8336 3ebd c738 263c 9b07 1e3c
00000110: 04b2 fdbc 97de 03bd 5a40 0bbd 14f0 a03b
00000120: dd44 f1bb 93ca 13bd a010 5cbc dfc2 f6bc
00000130: 7477 debc da12 9c3c 2253 f23c b0b0 a23c
00000140: fa97 1abc 9da6 cbbc fb6c 0c3d 3a86 ed3c
00000150: 9f0f 89bc 4017 77bc deab 9c3c 3cc1 653c
00000160: 58c5 f7bc 6206 893c c0fe be3b 1ad5 92bc
00000170: c0f6 37bb 4050 cd3a 689d ddbc b09b 163c
00000180: 45a4 093d fe19 92bc 7cec 673c 7840 adbc
00000190: d5f6 c8bc e284 8abc 71b2 65bd 48e1 21bd
000001a0: 1197 16bd a6bf adbc 865e c93b 0e55 633b
000001b0: 40e8 d93b 95db a2ba c800 67bc cc65 7cbc
000001c0: f986 42bc 6105 64bd 24f5 63bd 3d7c 3abd
000001d0: 5809 02bd 791c 153c 2562 31bc 127b e73b
000001e0: 6760 32bc ef16 f2bb cc79 6dbd 52e4 263a
000001f0: 9997 2ebd 70ff 0d3c 867e 1abc f29d 37bd
00000200: f9c8 803a 2146 90bc 6ef7 7439 6504 99bc
00000210: ae00 60bd b799 69bb 4c54 f0bc 0f5e 59bd
00000220: 55de 3cbd 2907 053c 8488 163c 38a0 a93b
00000230: df7a 0cbd 2e45 963a 8f9d a5bc c604 6cbd
00000240: 7bc8 b7bc 88ed 60bc 74b0 91b9 aa52 353b
00000250: 10f3 02bd bf2f 53bc e5dc a4bc acc3 d13b
00000260: 907f a8bb fe1c e53b 9d29 c8bc 47d9 76bc
00000270: fff5 543c 4c96 f23a 0d08 80bc f1e7 ed3b
00000280: 3194 24bd 8fb2 2dbb 992b 82bb 3df5 56bc
00000290: c7e6 c8bc b66b 98bc 7151 6ebd 7802 c5bc
000002a0: 05a8 5bba d1f6 82b9 7a5e 75bd 55f2 69bc
000002b0: 141e d3bc 6548 24bd 33e6 8bbb 1a6f 823b
000002c0: e733 cebc 22b4 59bd bc58 53bd abba 47bc
000002d0: 559d a1bb 6c60 26bd c0c6 07bd 791d 66bd
000002e0: 2fd6 0bbd 96a2 eebb 0502 52bd 5c9b 2fbd
000002f0: 804e e0bc f4b2 0dbd b75c 62bd fe23 16bd
00000300: a6d6 22bd 546d 3bbb c69d 9dbc 951c ba3b
00000310: 12f3 d6bc bffd 00bd 2912 4abd a42a 4ebd
00000320: 4219 15bd f5cf 4bbc 5630 debc 0c8a 17bd
00000330: 6c49 1cbc a8fc 1bbd c806 cdbc 5c2a 10bd
00000340: 0d46 2cbc fe4d 12bd 95d8 72bd b971 adbc
00000350: 6da5 12bd 73f2 d9bc 2047 743c fd74 7abd
00000360: 51d0 d4bc f523 4e3c d632 72bc 0563 5ebd
00000370: 4ebc 023b f1e9 5bbd eac7 92bc 24ed 2fbd
00000380: 65c9 11bd 080a c93b 801c 20bb 2c57 893c
00000390: ea06 e73c 8008 653c 0a6a e13c d88f ec3b
000003a0: a835 03bd 7ceb f0bc bcfb 493c 137e 06bd
000003b0: fa5b 0ebd e021 cf3b d79b 0cbd 9058 65bc
000003c0: 6092 e8bc 103a c93c f03d 80bb a00d 90ba
000003d0: 18c8 83bc 7c69 d83c f28f 0dbd a736 023d
000003e0: 1666 5cbc 1008 b13b d0e9 3c3b 936c 30bd
000003f0: 5889 2cbd 6480 65bb 4333 63bd e956 44bd

fc1.bias f4 [64]
-0.055706773 -0.021911973 0.0019491042 0.08833658 -0.04101809 -0.028259229 0.1047016 0.037310872
0.019167753 0.07704055 0.047553174 -0.045688394 -0.02730715 -0.005994832 -0.0666415 0.034846593
-0.03642372 0.046620473 -0.055539172 0.06374552 -0.044019308 0.028963307 0.02223819 0.0016337592
0.015884578 -0.03183264 -0.0008772998 0.07065842 0.04268079 0.021575991 -0.05658537 -0.022601027
-0.058932293 -0.021957267 0.041034807 0.023253595 -0.040611804 -0.035983246 -0.042273548 0.001714499
0.061838854 0.0047181705 -0.06877602 0.020148268 0.007814885 -0.03577004 -0.06890795 -0.012057537
0.022188293 -0.029920794 -0.059409667 0.11141734 -0.02479165 -0.049489122 -0.038138457 -0.03319667
-0.021650393 0.018118726 0.055614118 0.005036283 -0.0639667 0.0080613885 -0.02387185 -0.0012028774
00000000: c92c 64bd bd80 b3bc 1679 ff3a cfe9 b43d
00000010: 9602 28bd e67f e7bc cb6d d63d 49d3 183d
00000020: b105 9d3c 70c7 9d3d 1ec7 423d c123 3bbd
00000030: 3fb3 dfbc 4c70 c4bb 577b 88bd 4dbb 0e3d
00000040: 0a31 15bd 1cf5 3e3d 0b7d 63bd 038d 823d
00000050: 974d 34bd 7544 ed3c dd2c b63c dd23 d63a
00000060: 6020 823c f162 02bd 98fa 65ba 5db5 903d
00000070: 0dd2 2e3d 22c0 b03c 10c6 67bd ca25 b9bc
00000080: fd62 71bd badf b3bc 1d14 283d 537e be3c
00000090: 9058 26bd 2b63 13bd 0727 2dbd 0ab9 e03a
000000a0: bd4a 7d3d e29a 9a3b 71da 8cbd fb0d a53c
000000b0: 010a 003c 9b83 12bd 9c1f 8dbd fa8c 45bc
000000c0: 39c4 b53c 741c f5bc 8d57 73bd c62e e43d
000000d0: dc17 cbbc 1bb5 4abd 1237 1cbd 3bf9 07bd
000000e0: 2a5c b1bc b96d 943c a1cb 633d 6707 a53b
000000f0: f900 83bd ea13 043c e68e c3bc dea9 9dba

fc4.weight f4 [8, 64]
0.03592767 0.0123988325 0.040375378 0.08687851 0.057013378 -0.011964327 0.13808161 -0.12739043
0.11361538 0.00035067528 -0.3841889 -0.037753776 -0.10435476 0.036826573 0.078254506 0.024482047
-0.01897353 0.26041088 0.052324317 0.02604374 0.0014436574 -0.017571975 0.054935843 0.2421955
0.086130254 -0.014077754 0.0624086 0.08307001 0.07985792 -0.017603697 -0.06950177 -0.08931781
-0.08360288 0.1058297 0.20825386 0.07611117 -0.03608341 -0.08767594 -0.037402872 0.053484242
-0.14984603 -0.03369796 0.07197663 0.10834863 0.052102156 0.032986846 0.020453226 -0.020885035
0.034750108 -0.03297128 0.0188907 0.17045096 -0.087401934 -0.0015703903 -0.043265045 0.030123636
0.053698614 -0.10959851 -0.2560798 -0.09424788 0.016442835 0.0027833018 -0.07271949 0.055141233
0.1051005 -0.025909804 0.015123172 0.07781123 -0.014639765 -0.059944563 -0.010059045 -0.193291
0.019998057 -0.0027034616 0.019569295 0.040150642 -0.11140217 0.095942035 -0.04992985 -0.164935
-0.024682447 -0.0024248387 -0.021653486 0.17941809 0.06642988 0.0074746194 0.031693257 0.043316096
-0.18877937 0.0029657625 -0.08055828 0.18602082 -0.11447169 0.06695586 -0.08336842 0.06130305
-0.06577988 -0.10660248 -0.19365016 -0.072412804 -0.044217043 -0.049823936 0.0036067446 0.07865376
-0.31741115 0.3019581 0.10186854 0.10298845 0.11407366 -0.07346381 0.04872147 0.10783732
-0.08596222 -0.059045885 0.0149093075 0.15858878 0.016170382 -0.013425988 0.01730831 -0.06399119
0.0131276725 0.07721042 -0.25084087 -0.0793717 -0.009383955 0.09147983 -0.05720596 -0.058429267
-0.11910792 0.106859595 -0.08668103 0.2760838 -0.060529545 0.011948004 0.07142985 -0.05621169
0.0077530723 -0.017064197 0.040638145 -0.027226672 0.07303658 0.00036105848 0.103783615 0.3390957
0.023557171 -0.005626703 -0.047330033 -0.026936391 -0.046210974 -0.103006795 -0.038343813 -0.0036346493
-0.05763778 0.05775917 -0.12086892 0.12956725 -0.06704528 0.046919275 -0.02139233 0.05469771
0.08763847 -0.10372849 -0.36996916 0.08131925 -0.07884679 0.059521902 0.10534575 -0.02339886
-0.25113624 0.28931427 -0.08813311 0.20494153 -0.04139612 -0.04935843 -0.040377256 0.045101315
-0.11885707 0.0053709666 -0.030171502 0.028743029 -0.0077105626 -0.0618045 -0.04573777 -0.09114428
-0.030183991 -0.057812817 -0.41528216 0.009177301 0.096594796 0.02202655 0.029912353 0.06009626
0.10612555 0.037532736 0.05209802 0.2126604 0.022510441 -0.1045566 0.19721916 -0.35759312
0.042914473 0.11000128 -0.24175678 0.09255946 0.10706746 -0.03622996 0.035708994 -0.0754656
-0.0554958 -0.14787537 -0.031476784 0.21301018 0.10450451 -0.04099732 -0.041166462 0.23909622
0.022851886 -0.014924696 0.055435177 -0.10253148 -0.07046542 -0.00886985 -0.04928218 0.07133502
-0.00750393 0.089021556 -0.17367549 0.03583626 -0.020415526 -0.056141555 0.10493099 -0.02714382
0.019603567 0.16961788 -0.05414726 -0.21021843 -0.0046828194 0.08075899 0.04569275 0.08915882
0.009473015 0.015030591 0.07392417 0.14990161 0.060164146 0.032876678 -0.03211956 -0.08258313
-0.0742053 0.07923705 0.05858196 -0.0765374 0.11205183 -0.01216954 0.08731219 0.07983133
00000000: e428 133d 7924 4b3c a760 253d 5ced b13d
00000010: dc86 693d 0606 44bc 4465 0d3e a372 02be
00000020: 2eaf e83d d7da b739 68b4 c4be b4a3 1abd
00000030: f3b7 d5bd 76d7 163d e643 a03d 938e c83c
00000040: 606e 9bbc 9354 853e 0652 563d ae59 d53c
00000050: 1b39 bd3a 1af3 8fbc 6804 613d 1902 783e
00000060: 0f65 b03d 61a6 66bc 29a0 7f3d 9c20 aa3d
00000070: 8d8c a33d a135 90bc f256 8ebd 42ec b6bd
00000080: fd37 abbd 3ebd d83d 8040 553e 2ce0 9b3d
00000090: 33cc 13bd 718f b3bd c133 19bd 4b12 5b3d
000000a0: 3d71 19be df06 0abd 7c68 933d e3e5 dd3d
000000b0: 1269 553d 371d 073d 868d a73c 1817 abbc
000000c0: 2156 0e3d e50c 07bd abc0 9a3c b28a 2e3e
000000d0: c9ff b2bd 8ed5 cdba b036 31bd d8c5 f63c
000000e0: 14f3 5b3d 2f75 e0bd e41c 83be 0805 c1bd
000000f0: 20b3 863c 0e68 363b f5ed 94bd c6db 613d
00000100: ee3e d73d cc40 d4bc 2ec7 773c 7f5b 9f3d
00000110: a0db 6fbc 6e88 75bd b1ce 24bc 13ee 45be
00000120: f7d2 a33c 8f2c 31bb c94f a03c 0075 243d
00000130: d226 e4bd 427d c43d 3e83 4cbd b8e4 28be
00000140: d832 cabc 0bea 1ebb a762 b1bc 60b9 373e
00000150: 640c 883d a7ed f43b cad0 013d 386c 313d
00000160: 614f 41be 3d5d 423b bdfb a4bd 3e7c 3e3e
00000170: 2270 eabd 2720 893d 10bd aabd e818 7b3d
00000180: 9ab7 86bd 6752 dabd 3a4c 46be 2a4d 94bd
00000190: ee1c 35bd 2f14 4cbd 225f 6c3b 3915 a13d
000001a0: b783 a2be 419a 9a3e 74a0 d03d 9ceb d23d
000001b0: 739f e93d 3274 96bd 2a90 473d d0d9 dc3d
000001c0: f60c b0bd 19da 71bd 2b46 743c 1965 223e
000001d0: c077 843c adf8 5bbc 28ca 8d3c d00d 83bd
000001e0: 7315 573c 7f20 9e3d 376e 80be a18d a2bd
000001f0: 29bf 19bc c759 bb3d cc50 6abd 8753 6fbd
00000200: daee f3bd 34d9 da3d d385 b1bd db5a 8d3e
00000210: d4ed 77bd 90c1 433c d049 923d 3b3e 66bd
00000220: 7c0d fe3b 37ca 8bbc 2f74 263d 780a dfbc
00000230: 3494 953d 734c bd39 818c d43d f49d ad3e
00000240: f8fa c03c 3560 b8bb 23dd 41bd b5a9 dcbc
00000250: b847 3dbd 3af5 d2bd 670e 1dbd 4c33 6ebb
00000260: 9815 6cbd e194 6c3d 208a f7bd 47ad 043e
00000270: 094f 89bd 6d2e 403d f83e afbc b50a 603d
00000280: cc7b b33d 9a6f d4bd 996c bdbe b58a a63d
00000290: 6d7a a1bd 3dcd 733d 83bf d73d f7ae bfbc
000002a0: ee94 80be 0021 943e 227f b4bd 31dc 513e
000002b0: fa8e 29bd 112c 4abd 9f62 25bd 28bc 383d
000002c0: 566b f3bd effe af3b 3a2a f7bc 8076 eb3c
000002d0: e3a8 fcbb b726 7dbd 8757 3bbd daa9 babd
000002e0: 6b44 f7bc 22cd 6cbd dd9f d4be 645c 163c
000002f0: 7ed3 c53d 0671 b43c c00a f53c 7f27 763d
00000300: 5a58 d93d edbb 193d bc64 553d a6c3 593e
00000310: d167 b83c c521 d6bd d2f3 493e 7216 b7be
00000320: 16c7 2f3d 5a48 e13d 178f 77be d08f bd3d
00000330: 2f46 db3d de65 14bd 9843 123d b58d 9abd
00000340: 904f 63bd a46c 17be cded 00bd 571f 5a3e
00000350: 7606 d63d ceec 27bd 2a9e 28bd a4d5 743e
00000360: e133 bb3c b686 74bc ff0f 633d 06fc d1bd
00000370: 2d50 90bd d952 11bc 1cdc 49bd 1818 923d
00000380: 87e3 f5bb ef50 b63d fdd7 31be 0bc9 123d
00000390: 763e a7bc b0f4 65bd 0fe6 d63d b75c debc
000003a0: a997 a03c 4fb0 2d3e 84c9 5dbd 8043 57be
000003b0: 5672 99bb f864 a53d 5228 3b3d e698 b63d
000003c0: b434 1b3c de42 763c 8e65 973d cf7f 193e
000003d0: ae6e 763d b2a9 063d cd8f 03bd 5821 a9bd
000003e0: f3f8 97bd 0947 a23d a3f3 6f3d a4bf 9cbd
000003f0: 6e7b e53d c062 47bc bcd0 b23d 9c7e a33d

fc4.bias f4 [8]
0.03005205 -0.032145284 -0.035408277 0.19297169 0.15260972 0.047884583 -0.038964905 0.21306805
00000000: b72f f63c c6aa 03bd 4508 11bd 5f9a 453e
00000010: b945 1c3e a022 443d aa99 1fbd 832e 5a3e

conv1.weight f4 [16, 2, 4, 4]
-0.10777128 0.94329697 0.75195473 1.3683302 -0.32083285 -0.109351784 -0.034566544 0.95175225
-0.2637818 -0.19087298 -0.22473396 0.42862836 0.53643787 0.41813177 -0.2551687 0.08221221
0.025663033 -0.084360264 -0.048887737 -0.018095983 -0.012747819 0.05424283 -0.105087005 -0.21941864
0.00792583 -0.13549605 0.12312789 0.07659799 0.08846023 0.14764398 -0.054937027 -0.052088264
-0.3085522 -0.31185812 -0.3062585 -0.3903803 -0.35620973 -0.24849758 -0.38181433 0.70841426
-0.43641382 -0.11077486 0.053204343 -0.15884271 -0.35598963 -0.3783432 0.40775365 -0.5775688
-0.038591504 -0.0958562 -0.14325933 -0.08753032 0.08589379 0.06009231 0.036093608 -0.016579479
-0.08864468 -0.19648823 -0.081413455 0.11045081 0.15523948 -0.11454458 -0.08034108 -0.4400039
-0.3447948 -0.3826515 -0.27957654 -0.37978208 -0.45949498 -0.4052048 -0.3362468 -0.50149035
-0.35797077 -0.4434322 -0.3576 -0.54358524 -0.52444685 -0.51939064 -0.45744833 -0.63181955
0.06752734 0.14983565 0.115421906 0.1347713 0.04122903 0.10653099 0.15214941 -0.13884436
0.1979938 -0.019539408 0.1301507 -0.007538841 0.04830481 0.058647275 -0.00025841486 0.025576018
0.23890714 -0.3234044 -0.14535078 1.0099479 -0.17545931 0.08341104 -0.2227538 -0.20856068
0.49340355 -0.20996697 -0.11920755 -0.18960084 0.30613577 0.026938703 0.40452233 0.46905297
-0.15633482 0.25135434 0.14569949 0.1693969 -0.0007788405 0.14383973 0.19021288 -0.051463507
0.06509485 -0.022072216 -0.5238825 0.10723062 0.08981526 0.009220359 0.1096503 -0.37848
0.8188702 0.32891154 0.37792945 0.8348392 0.64415693 -0.41994733 0.5393754 0.87185013
0.46130142 0.1323621 0.33604592 0.006581202 0.34455824 -0.15435982 0.8552047 1.1709398
-0.19616401 0.05109728 -0.1779017 0.047439966 -0.014310329 0.1429297 -0.14402895 -0.08552365
0.095197685 -0.1659483 0.048595782 -0.02093481 0.018492505 -0.112531476 -0.084704384 0.07168796
0.6553571 0.050168652 0.16593891 0.66869986 0.34986603 0.098517746 0.1830252 -0.3269319
0.44950548 0.5455649 -0.056718864 0.7154381 0.3333666 0.103518836 1.2055764 2.1449945
-0.076226085 0.0613236 -0.0847876 -0.023979887 0.027620485 -0.016902652 0.036599737 -0.025462735
-0.022098409 0.17871726 0.107082665 0.20562905 -0.039363902 0.027658444 0.02114659 -0.09278257
-0.31944007 0.50429434 -0.15520905 -0.2695976 0.93047035 0.5837587 0.36659354 -0.09278427
0.23315959 -0.3327364 0.38010103 -0.12788576 -0.25985464 -0.14305907 0.269544 -0.397528
-0.1259563 -0.21538815 -0.15549056 -0.10322994 0.0774642 0.071332864 -0.14647833 0.14373542
0.08711939 -0.15152727 -0.19975735 -0.044907086 -0.0776021 -0.030812621 -0.06568666 -0.09427403
0.25113115 0.26892328 0.58700216 1.2693354 -0.106476404 -0.15027489 1.0911899 1.9841025
0.3596655 -0.32230452 0.05856928 0.9064805 0.33183748 0.2934512 -0.304894 0.600398
0.05395814 -0.23023176 -0.054310557 -0.019987697 0.111264475 0.0819218 0.07087241 -0.2403734
0.017807098 0.11197242 0.16730724 -0.035509087 0.12267971 0.034220308 -0.014550317 0.20408061
00000000: 30b7 dcbd e97b 713f 1b80 403f 7225 af3f
00000010: 3444 a4be d4f3 dfbd a695 0dbd 09a6 733f
00000020: 680e 87be 3574 43be a920 66be 2d75 db3e
00000030: fe53 093f 5e15 d63e 79a5 82be e05e a83d
00000040: 483b d23c 13c5 acbd 823e 48bd 073e 94bc
00000050: 3adc 50bc bb2d 5e3d db37 d7bd 48af 60be
00000060: 57db 013c 7abf 0abe 7a2a fc3d 68df 9c3d
00000070: a32a b53d fc2f 173e a605 61bd 815a 55bd
00000080: 8efa 9dbe deab 9fbe eacd 9cbe eddf c7be
00000090: 1f61 b6be 2676 7ebe 2b7d c3be a35a 353f
000000a0: a271 dfbe eedd e2bd ccec 593d aaa7 22be
000000b0: 4644 b6be 33b6 c1be 16c5 d03e 8ddb 13bf
000000c0: 2012 1ebd 4150 c4bd 93b2 12be 1943 b3bd
000000d0: 15e9 af3d 5b23 763d e4d6 133d b0d1 87bc
000000e0: 588b b5bd 3634 49be 19bc a6bd 0934 e23d
000000f0: 19f7 1e3e 5996 eabd dd89 a4bd 3148 e1be
00000100: f288 b0be e6ea c3be a824 8fbe cc72 c2be
00000110: ed42 ebbe 0177 cfbe 8a28 acbe ac61 00bf
00000120: f247 b7be 8c09 e3be 5917 b7be 6728 0bbf
00000130: 2642 06bf c9f6 04bf ab36 eabe edbe 21bf
00000140: c64b 8a3d 846e 193e 5262 ec3d 7d01 0a3e
00000150: c5df 283d eb2c da3d 0ecd 1b3e 372d 0ebe
00000160: e3be 4a3e 1c11 a0bc 3a46 053e 6208 f7bb
00000170: 44db 453d 2038 703d db7b 87b9 cc84 d13c
00000180: 13a4 743e 4395 a5be d6d6 14be f945 813f
00000190: 9bab 33be 68d3 aa3d 9219 64be ee90 55be
000001a0: 649f fc3e 9501 57be 1723 f4bd b926 42be
000001b0: d4bd 9c3e 8eae dc3c 8d1d cf3e b627 f03e
000001c0: 3c16 20be 84b1 803e 3f32 153e 6276 2d3e
000001d0: 1a2b 4cba b94a 133e 2ac7 423e 66cb 52bd
000001e0: 7350 853d cbd0 b4bc 2a1d 06bf ba9b db3d
000001f0: 10f1 b73d fd10 173c 5690 e03d 21c8 c1be
00000200: 7aa1 513f 1867 a83e f87f c13e 06b8 553f
00000210: 78e7 243f 5603 d7be 8214 0a3f 9231 5f3f
00000220: b32f ec3e ee89 073e 360e ac3e 20a7 d73b
00000230: f069 b03e 8010 1ebe b2ee 5a3f 5be1 953f
00000240: 38df 48be 624b 513d dd2b 36be 6950 423d
00000250: df75 6abc 2a5c 123e 537c 13be 0627 afbd
00000260: 01f7 c23d 5aee 29be 5f0c 473d 7b7f abbc
00000270: 987d 973c e776 e6bd 7e79 adbd 23d1 923d
00000280: 7cc5 273f a57d 4d3d e4eb 293e ea2f 2b3f
00000290: a421 b33e acc3 c93d f56a 3b3e 9e63 a7be
000002a0: 9525 e63e 24aa 0b3f 0a52 68bd f426 373f
000002b0: 07af aa3e af01 d43d 5450 9a3f 9747 0940
000002c0: 6c1c 9cbd 752e 7b3d 1fa5 adbd 7871 c4bc
000002d0: 5b44 e23c 6e77 8abc 9be9 153d 3a97 d0bc
000002e0: b907 b5bc a801 373e 284e db3d 6c90 523e
000002f0: 0b3c 21bd f693 e23c 9d3b ad3c ca04 bebd
00000300: a68d a3be 6f19 013f 1fef 1ebe b208 8abe
00000310: 4e33 6e3f 3671 153f 26b2 bb3e ae05 bebd
00000320: 63c1 6e3e 6d5c aabe 9a9c c23e 7cf4 02be
00000330: ab0b 85be 147e 12be ac01 8a3e ca88 cbbe
00000340: b0fa 00be b68e 5cbe eb38 1fbe 386a d3bd
00000350: 8da5 9e3d f716 923d 6afe 15be 612f 133e
00000360: a76b b23d f729 1bbe 318d 4cbe 7ef0 37bd
00000370: daed 9ebd c06a fcbc ba86 86bd be12 c1bd
00000380: 4394 803e 50b0 893e c645 163f 9579 a23f
00000390: 4d10 dabd a9e1 19be 1cac 8b3f 12f7 fd3f
000003a0: 1426 b83e 1905 a5be 57e6 6f3d 1b0f 683f
000003b0: 9ae6 a93e 3c3f 963e 111b 9cbe afb3 193f
000003c0: 3603 5d3d e0c1 6bbe bf74 5ebd 3dbd a3bc
000003d0: a1de e33d 9ec6 a73d 8e25 913d 7224 76be
000003e0: 31e0 913c cc51 e53d 9752 2b3e fa71 11bd
000003f0: 803f fb3d 982a 0c3d 7464 6ebc 82fa 503e

conv1.bias f4 [16]
0.08488364 0.285176 0.24915856 -0.06788659 0.22628745 0.021825815 0.1801573 -0.055520136
-0.012192693 0.05778475 -0.019507673 0.31728268 0.22738138 0.26018065 0.1567365 0.20458175
00000000: 79d7 ad3d 9702 923e 6c23 7f3e 2008 8bbd
00000010: e6b7 673e 0dcc b23c 287b 383e 1569 63bd
00000020: dcc3 47bc b4af 6c3d 8ece 9fbc e072 a23e
00000030: aad6 683e 6636 853e 887f 203e e17d 513e

conv2.weight f4 [32, 16, 4, 4]
-0.15066041 -0.073752135 -0.12882008 -0.078008085 -0.05916805 -0.03456276 0.014135262 0.011240426
0.035894196 0.011240416 -0.023089433 -0.08924864 -0.06560471 0.0021631145 0.026290214 -0.035234682
0.06975138 -0.023018846 0.06838755 0.066783644 0.083308466 0.020461565 -0.003350235 0.023628255
-0.012935535 0.03414985 0.020965064 0.08914268 0.02727129 0.0084587475 -0.026870912 0.042345405
0.09127223 0.037076723 -0.015185578 0.033746783 0.0012243042 -0.021399986 -0.02580954 -0.0029718657
0.06496485 0.007885906 0.09190513 0.004750167 0.01922973 0.09821719 0.011739619 0.11318508
-0.075139575 -0.059866343 0.0017823369 -0.020445248 -0.13755299 -0.07706539 0.05942341 -0.05767935
-0.117654495 0.004613862 -0.11116271 -0.008627426 -0.09535031 -0.06486649 -0.011529121 -0.029655088
-0.039586052 -0.1158737 0.012427007 -0.046081416 -0.08977076 -0.11120267 -0.0046753543 -0.010979473
-0.09360338 -0.115959026 -0.08903727 -0.09884864 -0.13685834 -0.027401995 -0.07498352 -0.09381241
-0.09212584 -0.14364338 -0.06204359 -0.052307315 -0.16268733 -0.15199777 -0.10683665 -0.18359704
-0.13032527 -0.1560777 -0.11394708 -0.14955941 0.008637165 -0.09490062 -0.12412672 -0.282865
-0.096983954 -0.06790055 0.012260485 0.023122732 -0.095466726 -0.036904063 -0.004141426 -0.0416728
-0.010136379 0.0059170243 -0.0018444195 -0.03926308 0.028298158 0.05634605 -0.012279745 0.0076372474
-0.11151223 -0.16042084 -0.18673143 -0.2282512 -0.1140551 -0.012972252 -0.1632575 -0.227601
-0.12859207 -0.056227434 -0.11846403 -0.08034826 -0.11992167 -0.1492608 -0.12411171 -0.2983179
0.014949183 -0.112120904 -0.13873899 -0.107926615 -0.06068065 -0.062072925 -0.022023126 -0.020704169
-0.051286176 -0.07910868 -0.039169677 -0.11987362 -0.07299039 0.039487645 0.0021740373 0.053921856
-0.245221 -0.0643431 -0.0945428 -0.06300837 -0.13291062 -0.06470037 -0.026721722 -0.030993527
-0.10070833 -0.048987325 -0.007172439 -0.0018686263 0.004950359 -0.08444669 0.012134682 -0.016721308
-0.24776927 -0.1637023 -0.11803385 -0.17535453 -0.2367803 -0.21098362 -0.10748628 -0.17681924
-0.108731315 -0.07707021 -0.120798714 -0.099788435 -0.005793914 -0.02896225 -0.18171099 -0.22549762
0.023174329 0.05416361 0.083575346 -0.026993124 -0.010901377 0.051189937 -0.04791416 0.013965684
0.02437803 -0.017393108 0.04350629 0.07025893 0.07863647 0.018518385 0.032420285 0.0490933
0.08386859 -0.018533785 0.060560208 0.06987059 0.086533554 -0.0361108 0.03280303 0.0859686
0.06416001 -0.03324593 0.051154166 0.009958839 0.054114435 0.068868525 0.08482105 0.024302803
0.025321824 0.026915375 0.06843649 0.0021070444 0.08246922 0.018664096 -0.033676032 0.082919925
0.055282973 0.06044593 0.03946829 0.00963366 -0.014810444 0.011250351 0.067654006 0.05958799
0.018187867 0.00517383 -0.0014941881 -0.022458548 0.009977749 0.025325214 -0.029672889 -0.018006118
-0.0049210275 -0.04500217 -0.038779292 0.04000288 0.0043276 0.057729248 -0.02169393 -0.020847185
-0.00599972 0.009023486 0.02840739 0.013317679 0.039249778 0.0022043106 0.07202841 0.046946123
0.019757865 -0.017524967 -0.0564224 -0.045477584 0.03431801 -0.018145312 -0.012242876 -0.054287337
00000000: b946 1abe 5c0b 97bd 69e9 03be b4c2 9fbd
00000010: 325a 72bd ae91 0dbd 9697 673c c429 383c
00000020: cb05 133d b929 383c 0d26 bdbc fec7 b6bd
00000030: c35b 86bd 0ac3 0d3b 935e d73c 3e52 10bd
00000040: d0d9 8e3d 0592 bcbc c60e 8c3d ddc5 883d
00000050: a19d aa3d 039f a73c 9e8f 5bbb 0b90 c13c
00000060: 91ef 53bc b7e0 0b3d edbe ab3c 7090 b63d
00000070: 0a68 df3c 8f96 0a3c 6320 dcbc 6072 2d3d
00000080: efec ba3d c3dd 173d eecc 78bc 113a 0a3d
00000090: d578 a03a 064f afbc 876e d3bc a2c3 42bb
000000a0: 4b0c 853d e333 013c c238 bc3d 4aa7 9b3b
000000b0: ab87 9d3c 1826 c93d 8857 403c 94cd e73d
000000c0: c7e2 99bd 6936 75bd 4d9d e93a cb7c a7bc
000000d0: b1da 0cbe 76d4 9dbd f665 733d 2f41 6cbd
000000e0: d7f4 f0bd e12f 973b 46a9 e3bd 0c5a 0dbc
000000f0: 0647 c3bd b9d8 84bd a3e4 3cbc 3aef f2bc
00000100: fc24 22bd 314f edbd a59a 4b3c debf 3cbd
00000110: bbd9 b7bd 3abe e3bd b733 99bb 3fe3 33bc
00000120: 21b3 bfbd ed7b edbd 2c59 b6bd 2871 cabd
00000130: 9824 0cbe 267a e0bc f690 99bd b920 c0bd
00000140: 79ac bcbd 4017 13be 6b21 7ebd 3240 56bd
00000150: 8297 26be 4ea5 1bbe 2ccd dabd dd00 3cbe
00000160: fd73 05be d5d2 1fbe 165d e9bd 1a26 19be
00000170: e582 0d3c 425b c2bd 2636 febd aed3 90be
00000180: 869f c6bd 720f 8bbd 34e0 483c e26b bd3c
00000190: 0f84 c3bd b728 17bd cdb4 87bb 19b1 2abd
000001a0: 0e13 26bc 99e3 c13b 73c0 f1ba 53d2 20bd
000001b0: 8ad1 e73c 1ecb 663d fc30 49bc e041 fa3b
000001c0: 8660 e4bd 5c45 24be 8636 3fbe afba 69be
000001d0: b895 e9bd 9289 54bc f92c 27be 3d10 69be
000001e0: a4ad 03be bd4e 66bd 459d f2bd a18d a4bd
000001f0: 7e99 f5bd d3d7 18be 482e febd 20bd 98be
00000200: 6bed 743c a59f e5bd 9811 0ebe a108 ddbd
00000210: 468c 78bd 2e40 7ebd d869 b4bc ca9b a9bc
00000220: 7411 52bd bb03 a2bd 6270 20bd 4d80 f5bd
00000230: fc7b 95bd ccbd 213d 4b7a 0e3b 2add 5c3d
00000240: 371b 7bbe 51c6 83bd a89f c1bd 880a 81bd
00000250: b919 08be a181 84bd 83e7 dabc 23e6 fdbc
00000260: 2b40 cebd efa6 48bd c706 ebbb b2ec f4ba
00000270: 9f36 a23b 63f2 acbd 8cd0 463c 20fb 88bc
00000280: 3ab7 7dbe 93a1 27be bbbb f1bd 2390 33be
00000290: 8976 72be 170c 58be c421 dcbd 1a10 35be
000002a0: 86ae debd fcd6 9dbd 5165 f7bd e15d ccbd
000002b0: e0da bdbb 3e42 edbc 7212 3abe d9e8 66be
000002c0: 17d8 bd3c a9da 5d3d 8d29 ab3d af20 ddbc
000002d0: b09b 32bc 8aac 513d a341 44bd 53d0 643c
000002e0: 6fb4 c73c fe7b 8ebc a733 323d eae3 8f3d
000002f0: 280c a13d deb3 973c 22cb 043d 0e16 493d
00000300: 4cc3 ab3d 2ad4 97bc fb0d 783d 5018 8f3d
00000310: 8138 b13d ebe8 13bd 785c 063d 4e10 b03d
00000320: 5366 833d e22c 08bd 0887 513d 662a 233c
00000330: 19a7 5d3d f10a 8d3d a9b6 ad3d ac16 c73c
00000340: b76f cf3c a27d dc3c 6e28 8c3d 5716 0a3b
00000350: 9fe5 a83d 72e5 983c e1ef 09bd ecd1 a93d
00000360: 6670 623d 2796 773d 80a9 213d 80d6 1d3c
00000370: 81a7 72bc 6453 383c 2f8e 8a3d 8912 743d
00000380: b9fe 943c 3b89 a93b a2d8 c3ba fdfa b7bc
00000390: b679 233c d376 cf3c 8f14 f3bc 9181 93bc
000003a0: 9240 a1bb 3254 38bd 09d7 1ebd 0fda 233d
000003b0: 8ace 8d3b 8175 6c3d 78b7 b1bc b7c7 aabc
000003c0: 4d99 c4bb 3ed7 133c 9db6 e83c 6532 5a3c
000003d0: 60c4 203d 3276 103b a283 933d 944a 403d
000003e0: 3fdb a13c 8590 8fbc 2d1b 67bd b446 3abd
000003f0: 0b91 0c3d 7aa5 94bc 5896 48bc 665c 5ebd

conv2.bias f4 [32]
0.102360636 -0.05769033 0.015741434 -0.017412778 0.057654817 0.12934615 0.079613894 0.111268215
0.089761615 -0.043250687 0.011221362 -0.0017156904 0.11841998 0.032706674 0.0498926 0.038585838
0.03804285 0.06604926 0.029141748 -0.05761939 0.06347867 0.04434769 0.038948383 0.004030065
0.056530982 0.11140479 0.037508443 0.08971993 0.03228378 0.050102886 -0.06503653 0.09620004
00000000: 74a2 d13d b24c 6cbd 2ef4 803c 3ea5 8ebc
00000010: 7527 6c3d 5173 043e 9c0c a33d 97e0 e33d
00000020: f0d4 b73d a227 31bd ced9 373c 04e1 e0ba
00000030: 2d86 f23d 6ff7 053d 2f5c 4c3d 2f0c 1e3d
00000040: d2d2 1b3d d644 873d adba ee3c 4f02 6cbd
00000050: 1b01 823d eca5 353d 5788 1f3d a30e 843b
00000060: 088d 673d 3228 e43d 74a2 193d 15bf b73d
00000070: ff3b 043d af38 4d3d df31 85bd 8704 c53d

fc1.weight f4 [64, 800]
-0.044933964 -0.046125952 0.0011213053 -0.04278479 -0.025016272 -0.025154654 -0.0570517 -0.022352349
-0.0435125 -0.028264739 -0.04557398 -0.003989604 -0.038818873 -0.027146092 0.0023021176 -0.0047333436
-0.042728845 -0.035678267 -0.057361376 -0.00722916 -0.03879032 0.005902996 -0.060202703 -0.055826478
-0.032739084 0.020933527 0.03459933 -0.0072441082 0.021131035 0.025231477 -0.0050817225 -0.0019731969
0.019835632 -0.03063257 -0.00618854 -0.005407352 0.0051157326 -0.0071326215 -0.013400052 0.00051411614
-0.029324716 0.02568851 -0.024144506 0.023552213 0.03386527 -0.014988972 -0.012069304 0.03129181
-0.005498361 0.011330273 -0.002561014 0.004811364 -0.034911215 -0.031352144 -0.059983604 -0.0023458458
-0.034670934 -0.020157892 -0.03922716 -0.004239156 -0.038951416 -0.016801052 0.004551653 -0.029551564
0.013292979 -0.046438705 0.010145373 0.009645368 -0.030968674 -0.0321947 -0.033996917 0.004911432
-0.0073629455 -0.03608186 -0.013431698 -0.030122219 -0.027156569 0.019051958 0.029580656 0.019859642
-0.009435648 -0.02485972 0.03428362 0.028994668 -0.016731082 -0.015081227 0.019124921 0.014023121
-0.030245468 0.016726676 0.0058287084 -0.01792388 -0.0028070658 0.0015664175 -0.027052596 0.009192392
0.033603925 -0.01783466 0.014155503 -0.021148905 -0.024531761 -0.016909067 -0.056078378 -0.039521486
-0.036765162 -0.02120955 0.0061453013 0.0034688148 0.006650001 -0.001242506 -0.014099307 -0.01540513
-0.011873 -0.055669192 -0.055653706 -0.04552864 -0.031747192 0.009101027 -0.010826622 0.0070642317
-0.010887242 -0.007387988 -0.057977483 0.000636642 -0.042625044 0.008666858 -0.00942958 -0.044828363
0.000982552 -0.017611565 0.00023361828 -0.018678853 -0.05468815 -0.00356446 -0.02933707 -0.053068217
-0.04611047 0.008119383 0.009187821 0.0051765703 -0.034296867 0.0011464709 -0.020216731 -0.05762174
-0.022434464 -0.013728507 -0.00027788023 0.002766768 -0.031970084 -0.0128898015 -0.020124862 0.0064014997
-0.0051421598 0.0069919815 -0.024433905 -0.015066451 0.012998103 0.0018507927 -0.015628839 0.0072603156
-0.04018039 -0.0026504134 -0.0039724824 -0.013119993 -0.024524106 -0.018606048 -0.058183137 -0.024049029
-0.0008379224 -0.00024979425 -0.059904553 -0.014278968 -0.025771178 -0.040108103 -0.0042693852 0.0039805295
-0.025171233 -0.053150304 -0.051598296 -0.012190501 -0.0049320855 -0.0406193 -0.033148527 -0.05618045
-0.03413981 -0.0072825653 -0.051271457 -0.04287277 -0.027381182 -0.03459449 -0.0552642 -0.03665542
-0.039755486 -0.00285991 -0.019240271 0.005679677 -0.026238952 -0.03149199 -0.049333725 -0.050333634
-0.03640104 -0.012439718 -0.027122658 -0.036996886 -0.0095389895 -0.03808275 -0.025027648 -0.035196647
-0.010514748 -0.03571891 -0.05928858 -0.021172391 -0.035802294 -0.026604867 0.014909536 -0.061146725
-0.02597824 0.012581815 -0.014782628 -0.05429365 0.0019948664 -0.0536899 -0.017917592 -0.042950764
-0.035592455 0.006135229 -0.002443105 0.0167652 0.02820154 0.013979077 0.027516384 0.007219296
-0.032033592 -0.029409163 0.012328085 -0.032835077 -0.034755684 0.006321177 -0.034328308 -0.013998166
-0.02839011 0.02456382 -0.0039136335 -0.0010990389 -0.016086623 0.026417486 -0.034561105 0.0317904
-0.013452074 0.0054025725 0.0028825887 -0.043072294 -0.04212317 -0.0035019154 -0.05546881 -0.047934446
00000000: ad0c 38bd 91ee 3cbd c3f8 923a 1b3f 2fbd
00000010: edee ccbc 2211 cebc 0baf 69bd 461c b7bc
00000020: 2a3a 32bd 748b e7bc c8ab 3abd 39bb 82bb
00000030: 8a00 1fbd 7b61 debc 20df 163b 2a1a 9bbb
00000040: 7104 2fbd 6023 12bd c3f3 6abd 97e2 ecbb
00000050: 99e2 1ebd eb6d c13b 1c97 76bd 4eaa 64bd
00000060: 6b19 06bd ca7c ab3c 07b8 0d3d fc5f edbb
00000070: fe1a ad3c 3eb2 ce3c 9484 a6bb c050 01bb
00000080: 567e a23c 28f1 fabc 3cc9 cabb 2830 b1bb
00000090: e0a1 a73b c4b8 e9bb e48b 5bbc c0c5 063a
000000a0: 633a f0bc b670 d23c b3ca c5bc 92f0 c03c
000000b0: 4fb6 0a3d 4e94 75bc 54be 45bc d72b 003d
000000c0: 982b b4bb 9ca2 393c afd6 27bb a6a8 9d3b
000000d0: 10ff 0ebd 1b6b 00bd 5eb1 75bd c3bc 19bb
000000e0: 1c03 0ebd 2a22 a5bc a9ac 20bd 9ee8 8abb
000000f0: 858b 1fbd 5ca2 89bc 0826 953b 1f16 f2bc
00000100: ccca 593c 8336 3ebd c738 263c 9b07 1e3c
00000110: 04b2 fdbc 97de 03bd 5a40 0bbd 14f0 a03b
00000120: dd44 f1bb 93ca 13bd a010 5cbc dfc2 f6bc
00000130: 7477 debc da12 9c3c 2253 f23c b0b0 a23c
00000140: fa97 1abc 9da6 cbbc fb6c 0c3d 3a86 ed3c
00000150: 9f0f 89bc 4017 77bc deab 9c3c 3cc1 653c
00000160: 58c5 f7bc 6206 893c c0fe be3b 1ad5 92bc
00000170: c0f6 37bb 4050 cd3a 689d ddbc b09b 163c
00000180: 45a4 093d fe19 92bc 7cec 673c 7840 adbc
00000190: d5f6 c8bc e284 8abc 71b2 65bd 48e1 21bd
000001a0: 1197 16bd a6bf adbc 865e c93b 0e55 633b
000001b0: 40e8 d93b 95db a2ba c800 67bc cc65 7cbc
000001c0: f986 42bc 6105 64bd 24f5 63bd 3d7c 3abd
000001d0: 5809 02bd 791c 153c 2562 31bc 127b e73b
000001e0: 6760 32bc ef16 f2bb cc79 6dbd 52e4 263a
000001f0: 9997 2ebd 70ff 0d3c 867e 1abc f29d 37bd
00000200: f9c8 803a 2146 90bc 6ef7 7439 6504 99bc
00000210: ae00 60bd b799 69bb 4c54 f0bc 0f5e 59bd
00000220: 55de 3cbd 2907 053c 8488 163c 38a0 a93b
00000230: df7a 0cbd 2e45 963a 8f9d a5bc c604 6cbd
00000240: 7bc8 b7bc 88ed 60bc 74b0 91b9 aa52 353b
00000250: 10f3 02bd bf2f 53bc e5dc a4bc acc3 d13b
00000260: 907f a8bb fe1c e53b 9d29 c8bc 47d9 76bc
00000270: fff5 543c 4c96 f23a 0d08 80bc f1e7 ed3b
00000280: 3194 24bd 8fb2 2dbb 992b 82bb 3df5 56bc
00000290: c7e6 c8bc b66b 98bc 7151 6ebd 7802 c5bc
000002a0: 05a8 5bba d1f6 82b9 7a5e 75bd 55f2 69bc
000002b0: 141e d3bc 6548 24bd 33e6 8bbb 1a6f 823b
000002c0: e733 cebc 22b4 59bd bc58 53bd abba 47bc
000002d0: 559d a1bb 6c60 26bd c0c6 07bd 791d 66bd
000002e0: 2fd6 0bbd 96a2 eebb 0502 52bd 5c9b 2fbd
000002f0: 804e e0bc f4b2 0dbd b75c 62bd fe23 16bd
00000300: a6d6 22bd 546d 3bbb c69d 9dbc 951c ba3b
00000310: 12f3 d6bc bffd 00bd 2912 4abd a42a 4ebd
00000320: 4219 15bd f5cf 4bbc 5630 debc 0c8a 17bd
00000330: 6c49 1cbc a8fc 1bbd c806 cdbc 5c2a 10bd
00000340: 0d46 2cbc fe4d 12bd 95d8 72bd b971 adbc
00000350: 6da5 12bd 73f2 d9bc 2047 743c fd74 7abd
00000360: 51d0 d4bc f523 4e3c d632 72bc 0563 5ebd
00000370: 4ebc 023b f1e9 5bbd eac7 92bc 24ed 2fbd
00000380: 65c9 11bd 080a c93b 801c 20bb 2c57 893c
00000390: ea06 e73c 8008 653c 0a6a e13c d88f ec3b
000003a0: a835 03bd 7ceb f0bc bcfb 493c 137e 06bd
000003b0: fa5b 0ebd e021 cf3b d79b 0cbd 9058 65bc
000003c0: 6092 e8bc 103a c93c f03d 80bb a00d 90ba
000003d0: 18c8 83bc 7c69 d83c f28f 0dbd a736 023d
000003e0: 1666 5cbc 1008 b13b d0e9 3c3b 936c 30bd
000003f0: 5889 2cbd 6480 65bb 4333 63bd e956 44bd

fc1.bias f4 [64]
-0.055706773 -0.021911973 0.0019491042 0.08876289 -0.04101809 -0.028259229 0.10456747 0.037310872
0.019167753 0.0814551 0.047553174 -0.045688394 -0.02730715 -0.005994832 -0.0666415 0.034846593
-0.03642372 0.04734064 -0.055539172 0.06586569 -0.015892232 0.028963307 0.02223819 0.0022305972
0.014448457 -0.03183264 -0.0008772948 0.068310045 0.04268079 0.021575991 -0.05658537 -0.022601027
-0.058932293 -0.021957267 0.041034807 0.023253595 -0.040611804 -0.035983246 -0.042273548 0.001714499
0.061838854 0.0068444894 -0.06877602 0.019560097 0.007814885 -0.0357516 -0.06890795 -0.012057537
0.022188293 -0.029920794 -0.059409667 0.113452025 -0.02479165 -0.049489122 -0.038138457 -0.03319667
-0.021650393 0.018118726 0.055614118 0.005036283 -0.0639667 0.0080613885 -0.02387185 -0.0012028774
00000000: c92c 64bd bd80 b3bc 1679 ff3a 51c9 b53d
00000010: 9602 28bd e67f e7bc 7827 d63d 49d3 183d
00000020: b105 9d3c eed1 a63d 1ec7 423d c123 3bbd
00000030: 3fb3 dfbc 4c70 c4bb 577b 88bd 4dbb 0e3d
00000040: 0a31 15bd 42e8 413d 0b7d 63bd 97e4 863d
00000050: 6d30 82bc 7544 ed3c dd2c b63c 362f 123b
00000060: 39b9 6c3c f162 02bd 42fa 65ba 23e6 8b3d
00000070: 0dd2 2e3d 22c0 b03c 10c6 67bd ca25 b9bc
00000080: fd62 71bd badf b3bc 1d14 283d 537e be3c
00000090: 9058 26bd 2b63 13bd 0727 2dbd 0ab9 e03a
000000a0: bd4a 7d3d bd47 e03b 71da 8cbd 7f3c a03c
000000b0: 010a 003c 4570 12bd 9c1f 8dbd fa8c 45bc
000000c0: 39c4 b53c 741c f5bc 8d57 73bd 8959 e83d
000000d0: dc17 cbbc 1bb5 4abd 1237 1cbd 3bf9 07bd
000000e0: 2a5c b1bc b96d 943c a1cb 633d 6707 a53b
000000f0: f900 83bd ea13 043c e68e c3bc dea9 9dba
