DRL-based-path-finding/saved_models/dqn_checkpoint_ep250.pth (torch, 981377 bytes, 32 tensors)

conv1.weight f4 [16, 2, 4, 4]
0	0xbe855c5b	-0.26047024
1	0xbeae23a6	-0.34011573
2	0xbf0601fe	-0.5234679
3	0xbe674f9c	-0.22588962
4	0xbeb18000	-0.3466797
5	0xbf1ab008	-0.6042485
6	0xbd31692e	-0.043313198
7	0xbe523f1b	-0.20531885
8	0xbf27d026	-0.65551984
9	0xbef7b2a8	-0.4837849
10	0xbde181a7	-0.11011057
11	0xbefcbab9	-0.49361208
12	0xbef2d0e4	-0.47424996
13	0xbda6aa62	-0.08137967
14	0xbea4b404	-0.3216859
15	0xbe2be44d	-0.16786309
16	0x3d5f8b1f	0.054576036
17	0xbe5a751a	-0.21333733
18	0x3e3df666	0.18551025
19	0x3e0a8041	0.13525487
20	0x3e3eaf37	0.18621527
21	0xbdbf5bc5	-0.093436755
22	0xbd1f5fe6	-0.038909815
23	0x3d7035b1	0.058644954
24	0x3e47883d	0.19485565
25	0x386f5d37	5.7068853e-05
26	0xbd8ef24c	-0.06979808
27	0x3de50297	0.111821346
28	0x3dc154e6	0.09440021
29	0x3e33def9	0.17565526
30	0x3c203c6c	0.009780031
31	0xbe026b21	-0.12736179
32	0x3f5237ea	0.8211657
33	0x3e28c782	0.16482356
34	0xbedaad9a	-0.42710572
35	0x3ec90d98	0.39268184
36	0x3f676ecd	0.90403444
37	0x3ee3648d	0.44412652
38	0x3f61d470	0.8821478
39	0x3f1d917d	0.6155012
40	0x3f1635cb	0.5867583
41	0x3f3fad79	0.74874073
42	0x3e92fee7	0.287101
43	0x3f22588d	0.6341637
44	0x3f255797	0.64586776
45	0x3dbdebfb	0.09273525
46	0x3e6f87b8	0.23391616
47	0x3fa62d2d	1.2982537
48	0x3dbf6917	0.09346216
49	0x3de760fa	0.11297794
50	0x3dbe3c6e	0.0928887
51	0x3dd8652c	0.10566172
52	0x3d4d5406	0.05012896
53	0x3d41ef6e	0.04734748
54	0x3de9ab59	0.11409635
55	0x3e140665	0.14455564
56	0xbdd96cc6	-0.1061645
57	0xbde30701	-0.1108532
58	0xbdd638e8	-0.10460073
59	0x3e19b560	0.15010595
60	0xbb1185f6	-0.002220509
61	0x3dbf8965	0.09352378
62	0xbd89dd98	-0.06731719
63	0xbbf9a25c	-0.0076182317
64	0xbee6fb6f	-0.45113704
65	0xbf0cbbd9	-0.5497413
66	0xbe7ca0cc	-0.24670714
67	0x3ecce7ec	0.40020692
68	0x3f1be270	0.6089239
69	0xbe845800	-0.2584839
70	0xbd867431	-0.065651305
71	0xbdd9eacd	-0.10640488
72	0x3f8a536d	1.080671
73	0xbecc9279	-0.399555
74	0xbefe2be2	-0.49642855
75	0x3ec5db43	0.38643846
76	0x3d462e0a	0.04838375
77	0xbe068854	-0.13137943
78	0xbecef160	-0.4041853
79	0xbf20eabf	-0.62858194
80	0x3c3b1d2b	0.011420528
81	0xbd1195be	-0.035543196
82	0x3e1df752	0.15426376
83	0x3a9a69f9	0.001178085
84	0x3d7882c9	0.0606716
85	0xbcb2b9a8	-0.021817043
86	0x3e3e1ff4	0.18566877
87	0x3cd6ed80	0.026236296
88	0x3e1f0dd4	0.15532619
89	0xbdf29f34	-0.11846772
90	0xbdfbe992	-0.123004094
91	0xbeb29c1c	-0.34884727
92	0xbdea58ee	-0.11442743
93	0x3e242812	0.1603091
94	0xbe669837	-0.22519003
95	0xbdb2cd7b	-0.087305985
96	0xbebd418e	-0.36964077
97	0xbe21d081	-0.15802194
98	0xbe26a9c7	-0.16275702
99	0xbea4cb22	-0.32186228
100	0xbefb24a4	-0.49051392
101	0xbef41aae	-0.47676605
102	0xbed1649e	-0.40897077
103	0xbe56f2f2	-0.20991114
104	0xbf18245d	-0.59430486
105	0xbef6e482	-0.48221213
106	0xbe5c4dfc	-0.21514124
107	0xbf2b85c3	-0.6700098
108	0xbeafd2ce	-0.3434052
109	0x3aceb9be	0.0015771908
110	0xbef5e30a	-0.4802478
111	0xbe849666	-0.25895995
112	0xbcc715da	-0.024302412
113	0x3d2854a0	0.04109633
114	0x3e180e34	0.14849168
115	0x3e393a64	0.1808868
116	0x3e1c3568	0.15254748
117	0xbe198804	-0.14993292
118	0x3e54651e	0.20741698
119	0x3c605ee2	0.013694497
120	0xbe45816a	-0.19287649
121	0xbdfc4f68	-0.12319833
122	0xbe6d97f2	-0.23202494
123	0xbe3b34d8	-0.18281877
124	0xbd6f5b31	-0.058436576
125	0x3e4675b5	0.19380839
126	0x3e0bc84d	0.13650627
127	0x3e3796d6	0.17928633
128	0x3f80ada5	1.0052992
129	0x3f2ad9f6	0.6673883
130	0x3f222ebe	0.6335257
131	0x3f72793e	0.9471625
132	0xbe774bd6	-0.24150023
133	0xbe0fdc98	-0.14048994
134	0x3e9829d9	0.29719427
135	0xbecc1524	-0.3985988
136	0x3f47aa8c	0.7799461
137	0xbec1f5fb	-0.3788298
138	0x3e8bde2e	0.27317947
139	0xbef5717a	-0.47938138
140	0xbe894394	-0.2680937
141	0xbea39514	-0.31949675
142	0x3f02cab7	0.5109057
143	0xbd82cec9	-0.063870974
144	0xbd449bc2	-0.048000105
145	0x3e00523e	0.12531373
146	0xbcaefcae	-0.021360721
147	0x3de5c2ad	0.11218772
148	0x3c8084e1	0.015688362
149	0x3dd76173	0.10516634
150	0xbc956b6e	-0.018239703
151	0xbc96e34d	-0.018418932
152	0x3e98f1d6	0.29872006
153	0x3d7cc298	0.061709017
154	0xbe4424db	-0.19154684
155	0x3e052cf8	0.13005435
156	0x3e3bc3f9	0.18336476
157	0x3c85f133	0.016350364
158	0x3d84690f	0.06465351
159	0x3e564cc2	0.20927718
160	0xbea65f84	-0.32494748
161	0x3e0b5ac0	0.13608837
162	0xbd6f4fbe	-0.058425657
163	0xbed05568	-0.4069016
164	0x3ef203b4	0.4726845
165	0x3f1e6f80	0.61888885
166	0xbabbf576	-0.0014340121
167	0xbea84003	-0.32861337
168	0xbf1e5549	-0.61848885
169	0x3ea8e691	0.32988408
170	0xbe9d92c1	-0.30776027
171	0xbdf7b5bc	-0.1209521
172	0x3fe98b49	1.8245631
173	0x3f01c066	0.506842
174	0xbe577e33	-0.21044235
175	0x3ec2993e	0.3800754
176	0xbe97cd78	-0.29648948
177	0xbdd51f16	-0.1040632
178	0xbbcb0581	-0.0061957245
179	0x3d98565b	0.07438346
180	0xbc6ca10e	-0.014442695
181	0x3d4673f0	0.04845041
182	0x3d8eae05	0.06966785
183	0xbd048cea	-0.03236095
184	0x3da6f08f	0.08151352
185	0xbd9bbdf4	-0.0760459
186	0x3d8aedd8	0.06783646
187	0x3d83d894	0.064377934
188	0x3c838536	0.01605473
189	0xbf011fd6	-0.504392
190	0xbddb533d	-0.10709236
191	0x3c454346	0.012039965
192	0xbe0aebb7	-0.1356648
193	0x3f60bf94	0.87792325
194	0xbdef5b43	-0.11687329
195	0xbe249ee5	-0.16076238
196	0x3f381917	0.71913284
197	0x3e3f40b6	0.18677029
198	0x3d84245f	0.0645225
199	0xbe60fffc	-0.2197265
200	0x3fb74f98	1.4321165
201	0x3ef2b0c1	0.47400478
202	0x3d3a69d4	0.04551108
203	0xbe3b60ec	-0.18298692
204	0xbe828656	-0.25493115
205	0x3f9263c8	1.1436701
206	0x3dfbcc71	0.122948535
207	0xbe9c831b	-0.30568776
208	0x3e0c8aef	0.13724874
209	0x3e8456a5	0.25847355
210	0x3b976cf1	0.004621141
211	0xbad25b9e	-0.0016049033
212	0xbd007f0f	-0.031371173
213	0xbec7e301	-0.39040378
214	0x3d9af27a	0.0756578
215	0x3c14629a	0.009056712
216	0x3d86eb2e	0.06587826
217	0xbe7fc0d0	-0.24975896
218	0x3d428e27	0.04749885
219	0x3c1010dd	0.008793083
220	0xbdb82f49	-0.08993394
221	0xbd7141fd	-0.058900822
222	0xbe8c2073	-0.27368507
223	0xbcdb8fde	-0.026802
224	0xbf0bf8fb	-0.5467679
225	0xbd985a1e	-0.074390635
226	0x3dfa4ef3	0.122220896
227	0xbd8a2fce	-0.06747399
228	0xbedfc3fa	-0.43704206
229	0xbee2b678	-0.44279838
230	0xbda5a478	-0.080880105
231	0xbcad51ea	-0.021157224
232	0xbeca0336	-0.39455575
233	0x3eef21d0	0.46705484
234	0xbe0a4215	-0.13501771
235	0xbc80801a	-0.015686084
236	0x3fd1f8e2	1.6404078
237	0x3f1f4221	0.6221028
238	0xbf044554	-0.51668286
239	0x3dd76743	0.105177425
240	0xbd94a96a	-0.07258876
241	0xbe37d0ba	-0.17950717
242	0xbdc8cbae	-0.09804474
243	0xbe28788a	-0.16452232
244	0x3e33b0bf	0.17547892
245	0x3d6da587	0.058019187
246	0xbe01d02a	-0.12677065
247	0xbe823f21	-0.2543879
248	0x3e4146a4	0.18874604
249	0x3e1905ef	0.1494367
250	0xbc95f76c	-0.018306457
251	0xbdcf9757	-0.10136288
252	0x3e1ad707	0.15121089
253	0x3e2a52d7	0.16633163
254	0xbd57e4de	-0.0527085
255	0x3ea0db3a	0.31417257

conv1.bias f4 [16]
0	0x3e28bdac	0.16478604
1	0x3e1e1612	0.15438107
2	0x3eac4820	0.33648777
3	0x3e8e9b95	0.27853075
4	0x3d644e10	0.05573851
5	0x3dca15ed	0.09867463
6	0x3c24385a	0.010023201
7	0x3db98170	0.09057891
8	0x3e993d2e	0.2992949
9	0x3e2004fa	0.15626898
10	0x3e83e022	0.25756937
11	0xbc346dfe	-0.011012552
12	0x3de0b5fc	0.10972211
13	0xbd877708	-0.066145
14	0x3e3f61f2	0.18689707
15	0x3e180f4c	0.14849585

conv2.weight f4 [32, 16, 4, 4]
0	0xbd98addc	-0.07455036
1	0x3ca74c09	0.020421999
2	0xbd369b94	-0.044581965
3	0xbd1aa595	-0.037755568
4	0x3ba790ef	0.005113713
5	0xbd98c9d4	-0.07460371
6	0x3d2c0c3b	0.04200385
7	0xbda94e54	-0.08266893
8	0xbc8e7821	-0.017391266
9	0xbd636254	-0.055513695
10	0x3ca466ae	0.020068493
11	0xbd281a1b	-0.04104052
12	0xbd729bdb	-0.059230667
13	0x3d3432e8	0.04399386
14	0x3cac3f66	0.021026324
15	0xbcf9712d	-0.030449474
16	0xbd974bb1	-0.07387484
17	0xbd71a030	-0.058990657
18	0xbdb090e8	-0.08621389
19	0x3b02084f	0.0019841378
20	0xbd8069af	-0.062701575
21	0xbdc32099	-0.09527702
22	0xbd5cf4e7	-0.053944495
23	0xbd6b8ffc	-0.05751036
24	0xbd36e563	-0.044652354
25	0xbd01910e	-0.031632476
26	0x3cad5028	0.021156386
27	0xbd98481a	-0.07435627
28	0x3ce67b2d	0.028134907
29	0xbd787394	-0.0606571
30	0x3d28430d	0.04107957
31	0x3ccb4413	0.024812734
32	0xbd52b26f	-0.0514397
33	0xbc47d37a	-0.012196416
34	0x3cb9736c	0.022638045
35	0xbca21762	-0.01978654
36	0xbd9c7b69	-0.07640726
37	0xbd52b3d7	-0.05144104
38	0x3d328e77	0.043592896
39	0xbd7bebbd	-0.061504114
40	0x3ae6c7ee	0.0017607191
41	0xbd46adda	-0.04850564
42	0xbd4c9fbf	-0.049957033
43	0x3cfc2502	0.030779365
44	0x3d0ef3a5	0.034900326
45	0x3d622008	0.05520633
46	0x3b591e79	0.0033129735
47	0xbda0533c	-0.07828376
48	0xbc35324e	-0.011059357
49	0xbcbb0a35	-0.022832016
50	0xbc3466ef	-0.011010869
51	0xbd795615	-0.06087311
52	0xbd9428be	-0.072343335
53	0xbdb1731d	-0.08664534
54	0xbd88334f	-0.06650411
55	0xbcf06c7d	-0.029348606
56	0xbc94cf88	-0.018165365
57	0xbd2111a2	-0.039323457
58	0x3cc325f7	0.023821814
59	0xbd6625a2	-0.056188233
60	0x3bb072e5	0.0053847902
61	0x3c63cd5d	0.013903943
62	0xbb7042fa	-0.0036661015
63	0xbc5c9f23	-0.0134656755
64	0xbd19da7d	-0.037561882
65	0x3c96a608	0.018389717
66	0xbc86e183	-0.016464954
67	0x3cda5783	0.026653057
68	0xbbd51790	-0.006503053
69	0x3d07f46b	0.03319208
70	0x3d3bb8ce	0.04583054
71	0x3d2c02bc	0.041994795
72	0x3cab3df5	0.020903567
73	0xbcc36937	-0.023853881
74	0xbdc488b2	-0.09596385
75	0xbd8c97ba	-0.06864877
76	0xbda0812d	-0.07837138
77	0x3ccf1a90	0.02528122
78	0xbc2056cf	-0.009786322
79	0xbd40aed1	-0.047041718
80	0xbcf5ae4a	-0.029990334
81	0xbca234c7	-0.019800557
82	0xbd1ccb5e	-0.038279884
83	0xbd714955	-0.058907825
84	0xbd41b268	-0.047289282
85	0x3ccb23cc	0.024797343
86	0xbc97e46c	-0.018541537
87	0xbdb35e04	-0.087581664
88	0xbd879dfc	-0.0662193
89	0xbdd02383	-0.10163023
90	0xbd13594c	-0.035973832
91	0x3ccaf567	0.02477522
92	0xba219180	-0.0006163344
93	0x3ce660c0	0.028122306
94	0x3caded91	0.021231445
95	0xbc502f50	-0.012706593
96	0x3d47c80d	0.048774768
97	0xbd567210	-0.052354872
98	0x3b1856bc	0.0023245057
99	0x3d0c83e2	0.03430546
100	0xbd7f201a	-0.062286474
101	0xbd40d942	-0.047082193
102	0x3d1a4ac8	0.037668973
103	0x3b401ec5	0.0029315215
104	0xbbdafe9f	-0.006683185
105	0xbd9433fa	-0.07236476
106	0xbc6040a2	-0.013687285
107	0xbc7bec41	-0.015376152
108	0xbb74a508	-0.0037329812
109	0xbd9f0c35	-0.07766
110	0xbc6c1904	-0.014410261
111	0xbd04fa1f	-0.032465097
112	0x3c30bb4c	0.010786843
113	0x3d2b7e31	0.041868392
114	0xbda5cb62	-0.08095433
115	0xbda639ff	-0.081165306
116	0xbd213699	-0.03935871
117	0xbd47fdee	-0.04882615
118	0xbd2bcb4e	-0.041941933
119	0x3d10b213	0.035326075
120	0xbdf05dc5	-0.11736635
121	0xbd555eee	-0.052092485
122	0xbc84964e	-0.016184952
123	0xbd126fb8	-0.035751075
124	0xbd86e63a	-0.06586881
125	0x3ced7ef8	0.028991207
126	0xbcc20dfe	-0.023688313
127	0x3c5d5577	0.013509146
128	0xbca4141f	-0.020029126
129	0xbdaa50d1	-0.08316196
130	0x3cc83f33	0.024444198
131	0x3cbd0f52	0.023078594
132	0x3c52d2cb	0.01286764
133	0xbd08e35e	-0.03341996
134	0xbdd97659	-0.10618276
135	0x3b22f1bb	0.002486332
136	0x3b363baa	0.0027806559
137	0x3c9e3090	0.019310266
138	0xbc8028fd	-0.015644545
139	0xbb9e3ca1	-0.004829005
140	0x3d3c9c57	0.046047535
141	0xbccdbc6a	-0.025114257
142	0xbd8aac66	-0.06771164
143	0xbce88e84	-0.02838827
144	0xbd392d3e	-0.045209162
145	0xbd318265	-0.043337245
146	0xbd710854	-0.058845833
147	0xbd3282a0	-0.043581605
148	0xbd8469bc	-0.0646548
149	0xbd76f39d	-0.06029092
150	0xbb6b15d5	-0.0035871167
151	0x3d49201a	0.04910288
152	0xbd494d82	-0.049146183
153	0xbd5799e6	-0.052637003
154	0xbd9c4b1a	-0.07631512
155	0x3b95948e	0.0045648282
156	0xbd59e684	-0.053198352
157	0xbd897ca3	-0.06713226
158	0xbd82d96d	-0.06389127
159	0xbd84cc88	-0.06484324
160	0x3d3368a0	0.04380095
161	0x3d46d2c0	0.04854083
162	0x3c787382	0.015164258
163	0x3b9321ec	0.004490128
164	0xbda18b08	-0.07887846
165	0xbdbf2d48	-0.093348086
166	0xbd9b5e86	-0.07586388
167	0xbc7e6b57	-0.0155285215
168	0xbd112533	-0.035435867
169	0xbd19725b	-0.037462573
170	0xb9d20d95	-0.0004006444
171	0xbc9ed53c	-0.019388787
172	0xbdd32b56	-0.10311
173	0xbd81a9ac	-0.063311905
174	0xbd7a8988	-0.061166316
175	0xbbcb1158	-0.006197136
176	0x3cf1527a	0.029458273
177	0x3c019592	0.0079091955
178	0xba948b15	-0.0011332954
179	0x3d8648bc	0.06556842
180	0xbd908b05	-0.07057766
181	0xbd33c964	-0.043893233
182	0xbcd555ed	-0.02604195
183	0xbcdd61ff	-0.027024267
184	0x3b121b0e	0.0022293958
185	0x3ccfa429	0.025346832
186	0x3bf873fd	0.0075821863
187	0xbd580255	-0.0527366
188	0xbcc14f84	-0.023597486
189	0xbd35510b	-0.04426674
190	0xbdc1c5b8	-0.0946154
191	0xbd602d43	-0.054730665
192	0xbc8b3e50	-0.016997486
193	0xbb2da6c0	-0.0026497096
194	0x3a6f6890	0.00091327075
195	0xbd28f016	-0.04124459
196	0xbd7f2c56	-0.06229814
197	0xbd8bb542	-0.068216816
198	0xbd89dace	-0.06731187
199	0xbd83db8b	-0.06438359
200	0x3be0f54a	0.0068651782
201	0xbc49fb4f	-0.012327983
202	0x3d31a725	0.043372292
203	0xbca7afa0	-0.020469487
204	0xbbf9cff3	-0.0076236664
205	0xbd7530b0	-0.059860885
206	0xbd65ae6c	-0.056074545
207	0xbd6221c2	-0.055207975
208	0xbc180c72	-0.009280311
209	0x3d6e1311	0.058123652
210	0x3d05293b	0.032510024
211	0x3c052598	0.008126639
212	0xbc25be66	-0.010116195
213	0xbd93636b	-0.07196697
214	0xbde0732d	-0.10959468
215	0xbd952f98	-0.072844684
216	0x3b2e16de	0.0026563923
217	0xbd2e813b	-0.042603713
218	0xbca1d527	-0.01975496
219	0xbbf393c2	-0.0074333856
220	0xbd786ce8	-0.060650736
221	0xbb3f9697	-0.0029234046
222	0x3d11c4b0	0.035587966
223	0xbe1a8bad	-0.15092345
224	0xbcb80b21	-0.022466244
225	0xbcfabcf5	-0.03060768
226	0xbac7e3e8	-0.0015250416
227	0x3b557793	0.0032572492
228	0xbb024043	-0.0019874729
229	0xbccae6dd	-0.024768287
230	0xbd4e8186	-0.050416492
231	0xbd8c2a0d	-0.06843958
232	0x3d0efa37	0.034906592
233	0xbd892bd8	-0.06697816
234	0x3cc702af	0.024293272
235	0xbd53eb32	-0.05173797
236	0xbcf56049	-0.029953139
237	0x3d1ac892	0.037788935
238	0xbd2bd901	-0.041954998
239	0x3b035e62	0.002004527
240	0xbd4251a6	-0.047441147
241	0xbcdbf351	-0.02684942
242	0xbd0bfc4a	-0.03417615
243	0xbb653542	-0.003497437
244	0xbcafff71	-0.021484109
245	0xbdc0607e	-0.093934044
246	0xbc56477a	-0.013078565
247	0xbd9d25db	-0.07673236
248	0xbd40ff5c	-0.04711853
249	0x3caae963	0.02086324
250	0x3d280307	0.041018512
251	0xbd983a93	-0.07433047
252	0xbd4f7a69	-0.05065385
253	0xbdec076f	-0.11524855
254	0xbd5859a2	-0.052819856
255	0x3d640c8b	0.055676024

conv2.bias f4 [32]
0	0xbd4f9e8b	-0.050688308
1	0xbd90d6a4	-0.070721895
2	0x3cb2698e	0.021778848
3	0x3e0ba4f9	0.13637151
4	0x3d04e2fd	0.032443035
5	0x3e248d5b	0.16069548
6	0x3d4ca43e	0.04996132
7	0xbd1cc823	-0.038276803
8	0x3dba11ee	0.09085451
9	0x3c0c3c5c	0.008559313
10	0xbce45d9d	-0.02787667
11	0x3e22b58c	0.15889567
12	0x3dc50880	0.09620762
13	0xbd9e2e8a	-0.0772372
14	0x3e22188a	0.15829673
15	0x3e043dcc	0.12914199
16	0x3db13be9	0.08654005
17	0x3e181f35	0.14855655
18	0x3e032abf	0.12809275
19	0xbd567457	-0.052357044
20	0xbc1f87fd	-0.009737012
21	0x3d255c5a	0.040371276
22	0x3e206e15	0.15666993
23	0x3d643abb	0.055720072
24	0x3bdfb1a3	0.006826596
25	0xbce35958	-0.027752563
26	0x3bcb9635	0.0062129744
27	0x3d272311	0.040804926
28	0xbc584cad	-0.013201875
29	0xbd9e74e2	-0.077371374
30	0x3d27eeac	0.0409991
31	0xbdc6f29b	-0.09714242

fc1.weight f4 [64, 800]
0	0xbd595704	-0.0530615
1	0xbc698287	-0.014252312
2	0xbd76fbae	-0.060298614
3	0xbc17770d	-0.0092446925
4	0xbd1d94ea	-0.038472094
5	0xbd85ea32	-0.0653881
6	0xbd157b18	-0.036494344
7	0xbd4fe7ee	-0.050758295
8	0xbd723fd1	-0.05914289
9	0xbcaa302f	-0.020774929
10	0xbd866d0e	-0.06563769
11	0xbd4b12ce	-0.04957848
12	0xbd26d7c6	-0.04073312
13	0xbca58339	-0.020204173
14	0xbd2a6f87	-0.041610267
15	0xbd7074d9	-0.058705185
16	0xbd0bc1d6	-0.034120403
17	0xbc875f89	-0.016525047
18	0xbc9b5f6e	-0.018966403
19	0xbca74eb8	-0.020423278
20	0xbd8ebf19	-0.06970043
21	0xbbd5009c	-0.006500317
22	0xbd20006f	-0.039062914
23	0xbbd20bc0	-0.006410092
24	0xbc938e6a	-0.018012244
25	0xbc5f2231	-0.013618992
26	0x3c855c16	0.016279262
27	0x3a66b1c9	0.0008800296
28	0xbcc7a954	-0.024372734
29	0xbc5b9f0e	-0.013404621
30	0x3c294de3	0.010333511
31	0xbc880daa	-0.016608078
32	0xbd1d3fa1	-0.03839076
33	0xbcf85c10	-0.030317336
34	0x3c79c628	0.015244998
35	0xbd2e7e9e	-0.04260122
36	0xbca6f0bd	-0.020378465
37	0x3d06fc3d	0.032955397
38	0x3c84ef5c	0.016227417
39	0xbbe48564	-0.006973909
40	0xbc82c4cb	-0.015962979
41	0x3c967a19	0.018368768
42	0xbbe1787d	-0.0068808184
43	0xbc6fafec	-0.014629345
44	0xbd70145c	-0.058613166
45	0xbd3164f1	-0.043309156
46	0xbd00ff5c	-0.03149353
47	0x3bd7cc98	0.006585669
48	0xbda5ccdb	-0.08095714
49	0xbcb16e74	-0.021659113
50	0xbcda4f69	-0.026649194
51	0xbd1709bd	-0.03687452
52	0xbd59d566	-0.05318203
53	0xbd151bfd	-0.036403645
54	0x3bc63399	0.0060486314
55	0xbd0fba97	-0.035090055
56	0xbce0ee8d	-0.0274575
57	0xbcceca37	-0.025242908
58	0xbd0e071a	-0.03467474
59	0xbd46ce16	-0.048536383
60	0x3c8ca748	0.01716961
61	0x3b62e7c8	0.0034623016
62	0xbd0ac43d	-0.033878554
63	0xbc91d0a7	-0.017799689
64	0xbd397530	-0.045277774
65	0xbcb98f5c	-0.022651367
66	0xbccb5684	-0.024821527
67	0xbced50fb	-0.028969279
68	0xbc14246e	-0.009041889
69	0xbd2e8a3a	-0.042612292
70	0xbb068177	-0.0020523944
71	0xbc3c9ac3	-0.011511507
72	0xbd1b2d0d	-0.03788476
73	0x3a69f0e4	0.000892414
74	0x3c891554	0.016733803
75	0x3ea21140	0.31653786
76	0xbd97f737	-0.07420199
77	0xbdfa2b50	-0.122152925
78	0xbd88737c	-0.06662652
79	0xbdd13a51	-0.10216201
80	0x3e7fb051	0.24969603
81	0xbe0e563d	-0.13900085
82	0x3e893d2f	0.26804492
83	0xbcbccc67	-0.023046685
84	0xbe475980	-0.19467735
85	0x3c39b60c	0.011334907
86	0xbd840ab0	-0.06447351
87	0xbdbdb315	-0.09262673
88	0xbd27245c	-0.04080616
89	0xbcc209bc	-0.023686282
90	0x3ef40368	0.4765885
91	0xbd9c7ed9	-0.07641382
92	0x3d932c1d	0.07186148
93	0x3db730c1	0.08944846
94	0x3d9dae5c	0.07699272
95	0xbddcc1da	-0.10779162
96	0x3d776320	0.060397267
97	0x3d53be14	0.051694945
98	0x3e9197bd	0.2843608
99	0x3da81177	0.08206456
100	0x3e5c9a12	0.21543148
101	0x3e0886bc	0.13332647
102	0xbca92216	-0.020646136
103	0x3db31b1e	0.087454066
104	0xbc256bef	-0.010096534
105	0x3e8d41d9	0.275893
106	0x3ea0413c	0.3129977
107	0x3d04b580	0.032399654
108	0xbd395572	-0.045247503
109	0xbc807515	-0.015680829
110	0xbc71b087	-0.01475156
111	0x3dd28dc4	0.10280946
112	0xbd15a60d	-0.03653531
113	0xbe4e6d74	-0.2015894
114	0xbb1a708d	-0.002356562
115	0x3e20243d	0.15638824
116	0xbd96f81e	-0.07371543
117	0xbd16b021	-0.036789063
118	0xbefecf66	-0.49767607
119	0xbefc1aa9	-0.4923909
120	0xbd43fb2b	-0.047846954
121	0xbbafdb68	-0.0053667314
122	0x3eb9da5d	0.3629941
123	0x3e80cf48	0.25158143
124	0xbf19105f	-0.59790605
125	0xbba764cd	-0.005108452
126	0x3cb8b14b	0.022545477
127	0xbd6ce6d2	-0.057837315
128	0xbc9a5e5c	-0.018843822
129	0x3c229e2d	0.009925407
130	0x3d59b558	0.05315146
131	0x3d9aca03	0.07558062
132	0x3c635556	0.013875326
133	0x3c68130d	0.014164698
134	0xbd68e805	-0.056861896
135	0xbcaa02f1	-0.020753356
136	0xbdf628db	-0.12019511
137	0x3e747921	0.23874332
138	0xbd9de74f	-0.07710134
139	0xbe5c6e32	-0.21526411
140	0x3cbc44d0	0.022982031
141	0x3d16c08d	0.036804724
142	0x3dd1c563	0.10242727
143	0x3e300ee6	0.17193183
144	0x3cd8ae0b	0.026450178
145	0xbde660d3	-0.112489365
146	0x3e596ddc	0.21233314
147	0x3f065d1a	0.5248581
148	0x3ecd4b27	0.400964
149	0x3d958d4b	0.0730234
150	0xbdceac30	-0.10091436
151	0x3e2c6a70	0.16837478
152	0x3e4834f6	0.19551453
153	0x3e3bd6ed	0.18343706
154	0x3d5fcebe	0.054640524
155	0xbddc5cc2	-0.1075988
156	0x3dfb2d8c	0.12264547
157	0xbccfa78b	-0.025348445
158	0xbb2face6	-0.0026805936
159	0xbeb784e6	-0.3584358
160	0x3d009990	0.03139645
161	0x3d12a357	0.035800304
162	0x3e59948b	0.21248071
163	0x3bf61209	0.007509474
164	0x3d7580a3	0.05993713
165	0xbe7b125e	-0.24518725
166	0x3c4007b1	0.011720584
167	0x3d763db5	0.060117442
168	0x3bd32899	0.0064440486
169	0x3e25e6ab	0.16201274
170	0xbce7ef70	-0.028312415
171	0x3e48cfaa	0.19610468
172	0x3ccb3d38	0.024809465
173	0x3e8ab2e6	0.27089614
174	0x3e8b2e5a	0.271838
175	0xbcd0a8c4	-0.025471099
176	0xbcdafa74	-0.026730753
177	0x3da4ee92	0.08053316
178	0xbbd24a5d	-0.006417556
179	0x3ca795ec	0.02045723
180	0x3cf69a11	0.030102761
181	0xbd67767e	-0.056509487
182	0x3ba9cc82	0.00518185
183	0xbd1213b3	-0.035663318
184	0x3c977152	0.018486653
185	0x3cf1f322	0.02953488
186	0xbb0b35d5	-0.0021241803
187	0xbb462517	-0.003023451
188	0xbd2e1602	-0.042501457
189	0xbca8a995	-0.020588676
190	0xbd36ca95	-0.04462679
191	0x3c53f0f8	0.012935869
192	0x3ce2f933	0.027706718
193	0xbc508a62	-0.0127283055
194	0xbcfd7413	-0.030939138
195	0x3c9cc623	0.019137448
196	0xbdb0758d	-0.08616171
197	0x3c7f1ab2	0.0155703295
198	0xbc57f5cd	-0.013181162
199	0xbc49eb32	-0.012324141
200	0xbe921b11	-0.28536275
201	0xbd83a87d	-0.06428621
202	0x3ddbd528	0.10734016
203	0x3d4701f6	0.048585854
204	0xbc91f40d	-0.017816568
205	0x3d379bec	0.044826433
206	0xbd34b9c8	-0.044122487
207	0x3d666d03	0.056256305
208	0xbd23c741	-0.039984945
209	0xbd871353	-0.06595483
210	0x3dbb566a	0.091473415
211	0xbdef5cb4	-0.116876036
212	0x3d8b4959	0.06801099
213	0xbcd17b33	-0.025571441
214	0x3de66931	0.112505324
215	0xbc2c5341	-0.010517896
216	0xbcbde85a	-0.023182083
217	0xbdfde707	-0.123975806
218	0x3cf215fe	0.029551502
219	0x3dce92e3	0.1008661
220	0xbd850b85	-0.06496338
221	0x3dcb9a08	0.099414885
222	0xbdd52a9e	-0.10408519
223	0x3c3acd6a	0.011401514
224	0x3e97c8ad	0.2964529
225	0xbec47932	-0.38373715
226	0x3cbbdc67	0.022932244
227	0xbe50eeff	-0.2040367
228	0x3df5ca7c	0.120015115
229	0x3e874cb8	0.2642572
230	0xbe801c54	-0.25021613
231	0x3e632594	0.22182304
232	0xbd9f51de	-0.07779287
233	0xbe8d4517	-0.27591774
234	0xbd8754de	-0.06607984
235	0xbe829084	-0.25500882
236	0xbe4bbb51	-0.19895674
237	0x3bdfe894	0.0068331454
238	0xbe2353d2	-0.15949944
239	0x3e343f07	0.17602168
240	0x3e3e9fbb	0.1861562
241	0x3c506cd4	0.012721259
242	0x3e4308bb	0.19046299
243	0x3e9a0305	0.3008043
244	0x3e7076ab	0.23482768
245	0x3be922b2	0.0071147317
246	0x3eba7d09	0.3642352
247	0x3e2e597c	0.17026323
248	0xbd28e3f1	-0.041233007
249	0x3e875e26	0.26439017
250	0x3c5249f4	0.012835015
251	0x3b2d91b0	0.0026484542
252	0x3cec4d62	0.028845493
253	0xbcc3e086	-0.023910772
254	0xbd0f2091	-0.034943167
255	0xbd575b98	-0.052577585

fc1.bias f4 [64]
0	0x3db3d6f1	0.08781231
1	0xbd0af6eb	-0.033926886
2	0xbd022e6c	-0.031782553
3	0xbbdb6114	-0.006694922
4	0x3ccadc8e	0.024763372
5	0x3dbaa467	0.091133885
6	0xbcaa7826	-0.020809244
7	0x3b5108b2	0.0031896052
8	0xbd247980	-0.040154934
9	0x3c6a3416	0.014294645
10	0xbd719aa7	-0.05898538
11	0xbd0378bc	-0.032097563
12	0xbca46788	-0.020068899
13	0xbd75816b	-0.059937876
14	0xbd3bac0f	-0.045818385
15	0xbc383100	-0.011242151
16	0xbd55c2e0	-0.0521878
17	0x3e192fc9	0.14959635
18	0x3b2280ec	0.0024796082
19	0xbd1c7f04	-0.03820707
20	0x3c662cc0	0.014048755
21	0xbbe9080a	-0.007111554
22	0xbd5e6efe	-0.05430507
23	0xbd79a6ab	-0.060949963
24	0x3d3f217c	0.046662793
25	0xbc50e49e	-0.012749819
26	0x3dc25465	0.09488753
27	0x3bb919cb	0.0056488267
28	0xbcaa4962	-0.020786945
29	0x3e0eef9f	0.13958596
30	0xbb08f809	-0.0020899794
31	0x3e09c709	0.13454832
32	0x3d3b7df4	0.045774415
33	0x3e0557d7	0.1302179
34	0xbd1f9257	-0.03895792
35	0xbc9c1963	-0.019055074
36	0xbd6e26cd	-0.058142472
37	0xbd45ace5	-0.04826059
38	0xbcb4ea48	-0.02208437
39	0x3c9d3c11	0.019193681
40	0xbc1c21c6	-0.009529537
41	0x3cd3e1af	0.02586445
42	0x3e11a1fa	0.14221945
43	0x3c86c824	0.016452856
44	0x3dcc568d	0.09977446
45	0x3ba3a466	0.004993963
46	0xbd7e5a78	-0.062097996
47	0x3ccc0d17	0.024908585
48	0x3ca413e3	0.020029014
49	0xbd0e190b	-0.03469185
50	0x3e08a0a6	0.13342533
51	0x3cc140cb	0.023590466
52	0xbd70b29e	-0.058764093
53	0xbc00ae84	-0.007854108
54	0x3c2091d8	0.009800397
55	0xbd59d30b	-0.053179782
56	0x3df0aefe	0.11752127
57	0xbd3331df	-0.043748733
58	0x3a6fb29e	0.00091437425
59	0x3d3135fd	0.043264378
60	0x3d1294d6	0.035786472
61	0xbd689f18	-0.05679235
62	0x3dc007f6	0.093765184
63	0x3de70dce	0.1128193

fc4.weight f4 [8, 64]
0	0x3e57e780	0.21084404
1	0x3d2290b5	0.039688785
2	0x3d802b94	0.06258312
3	0xbd859035	-0.06521646
4	0x3de8cf86	0.11367707
5	0x3e8c6eff	0.27428433
6	0xbdecee9e	-0.1156895
7	0x3c51c4e0	0.012803286
8	0x3bbd0b50	0.005769171
9	0xbc8cf133	-0.017204857
10	0x3a1c51fa	0.0005963143
11	0x3d9c2dde	0.07625936
12	0xbcfe26c2	-0.03102434
13	0x3d71c964	0.05902995
14	0x3c9920c8	0.01869239
15	0xbd12ca26	-0.035837315
16	0x3ccc3232	0.024926279
17	0xbe894f72	-0.26818424
18	0xbc158570	-0.009126052
19	0xbe002f79	-0.1251811
20	0x3d8210d1	0.06350864
21	0x3de94347	0.11389785
22	0xbd4da3cb	-0.050205033
23	0xbdcb5966	-0.09929161
24	0xbda1a2a5	-0.0789235
25	0x3d4b2b87	0.049602058
26	0x3d9b4785	0.07582001
27	0x3e03762a	0.12838045
28	0x3dbd4635	0.092419066
29	0xbe8e9900	-0.27851105
30	0x3d54e831	0.051979247
31	0xbca684dc	-0.020327024
32	0xbe0ca6e0	-0.13735533
33	0x3e038b31	0.12846066
34	0x3d4129f5	0.047159154
35	0xbcbd13af	-0.023080675
36	0xbda2c53e	-0.07947777
37	0x3d1840a4	0.03717102
38	0xb7ca96cc	-2.4150497e-05
39	0x3d66721c	0.056261167
40	0x3da0cbc2	0.07851364
41	0x3de666aa	0.1125005
42	0xbe1f215a	-0.15540066
43	0xbc2aea6d	-0.010431868
44	0xbd35971c	-0.044333562
45	0x3ddc7789	0.10764987
46	0xbd22c483	-0.03973819
47	0xbb871823	-0.0041227504
48	0xbd28251f	-0.041051026
49	0x3c01c5d0	0.007920697
50	0xbed7e78e	-0.4216885
51	0x3dc5d761	0.09660221
52	0xbd9be130	-0.076113105
53	0x3dd4c61c	0.10389349
54	0xbdcef7e0	-0.10105872
55	0xbdbe6474	-0.09296504
56	0xbda35ac5	-0.07976297
57	0x3d8ac2a0	0.06775403
58	0xbd6caa5a	-0.057779647
59	0x3d06d3a5	0.032916684
60	0xbdda06ea	-0.1064585
61	0x3d04d379	0.03242824
62	0x3e869f60	0.26293468
63	0x3e95d15e	0.29261297
64	0x3e50731f	0.20356415
65	0x3db34575	0.08753482
66	0xbe05b4c0	-0.13057232
67	0xbc002797	-0.007821939
68	0x3de2ecd8	0.110803306
69	0xbe106fab	-0.14105098
70	0xbc87b5b5	-0.016566137
71	0xbd25cfc0	-0.04048133
72	0x3cb80720	0.022464335
73	0x3d873660	0.06602168
74	0x3db8178e	0.08988868
75	0xbe003e72	-0.12523821
76	0x3dc8a2bb	0.097966634
77	0x3d845d96	0.064631626
78	0x3dcb9608	0.099407256
79	0x3c30a6dd	0.010781971
80	0xbdbc17ec	-0.0918425
81	0xbe73f474	-0.2382372
82	0x3ce383d0	0.027772814
83	0x3d52d0d3	0.05146868
84	0x3dd0030f	0.101568334
85	0x3d9012e6	0.070348546
86	0xbca6211a	-0.020279456
87	0xbcf272b8	-0.029595718
88	0x3d543d13	0.051816057
89	0x3bd8e4f2	0.0066190893
90	0x3ec2023e	0.37892336
91	0x3e98640f	0.2976384
92	0x3dee5fc6	0.11639361
93	0x3e22ee61	0.15911247
94	0x3cd5b5f5	0.02608774
95	0xbea6d32c	-0.32582986
96	0x3d937d7a	0.07201667
97	0xbecd074d	-0.40044633
98	0x3d0a5a4c	0.03377752
99	0x3cc09bb6	0.023511749
100	0xbdcc311e	-0.09970306
101	0x3e0b14ef	0.13582204
102	0x3dc5acd9	0.09652109
103	0xbdbafe61	-0.0913055
104	0x3dd49966	0.10380821
105	0x3d3c1f73	0.04592843
106	0xbec836a5	-0.3910419
107	0x3d338f65	0.043837924
108	0xbe244d67	-0.16045152
109	0xbdfdc350	-0.123907685
110	0x3c8089b0	0.015690655
111	0xbd96289b	-0.07331964
112	0xbe115a5c	-0.14194626
113	0xbd898e3e	-0.06716584
114	0xbe9c7f2a	-0.30565768
115	0x3cd26af8	0.025685772
116	0xbb8cae96	-0.004293273
117	0xbb3e2cb3	-0.0029018342
118	0xbd85e47a	-0.06537719
119	0x3d3c46b8	0.04596588
120	0xbe4c7100	-0.19964981
121	0xbd24ec08	-0.04026416
122	0xbda2f202	-0.079563156
123	0x3e52f9e2	0.20603135
124	0x3dae4c60	0.08510661
125	0xbdc75b33	-0.09734192
126	0xbdeace5e	-0.11465143
127	0xbe71203c	-0.23547453
128	0xbc059032	-0.008152055
129	0x3b9b5478	0.004740294
130	0xbcf8b7bc	-0.030361049
131	0xbd7b50c0	-0.061356306
132	0xbd51f2f8	-0.051257104
133	0x3e6eae75	0.23308738
134	0xbdc76c0a	-0.09737404
135	0x3cd24739	0.025668727
136	0xbd9f5fe2	-0.0778196
137	0xbc2c0034	-0.010498095
138	0xbdb901fb	-0.09033581
139	0x3dcaa303	0.09894373
140	0xbcd599a1	-0.026074233
141	0xbde6d44a	-0.1127096
142	0x3d260460	0.040531516
143	0x3da76a58	0.0817458
144	0xbd73aa0e	-0.05948835
145	0xbd14e129	-0.036347542
146	0x3d8dbd64	0.06920889
147	0x3db6af4d	0.08920155
148	0x3dcf718c	0.10129079
149	0x3cc33d93	0.023833072
150	0x3d90b413	0.070655964
151	0x3cde729b	0.027154258
152	0x3d8244f2	0.063608065
153	0x3d9d7015	0.076873936
154	0xbf120d9f	-0.57052034
155	0x3e4c36b9	0.1994275
156	0x3db8edd4	0.09029737
157	0xbebf21e9	-0.3733056
158	0xbd806877	-0.06269925
159	0xbcbfd2f2	-0.023416016
160	0x3e8e3e2a	0.27781802
161	0xbeb7431e	-0.35793394
162	0xbad43280	-0.0016189367
163	0xbcbed108	-0.023293033
164	0x3c684ee0	0.0141789615
165	0x3c049096	0.008091113
166	0xbd9d39b0	-0.07677019
167	0x3db78f83	0.089629196
168	0x3c9473b1	0.018121572
169	0xbdf3dacf	-0.11906969
170	0xbea0e1ec	-0.31422365
171	0xbcd4227b	-0.025895348
172	0xbe0c4761	-0.13699104
173	0x3c3cc8e6	0.011522507
174	0x3d24db5b	0.040248256
175	0xbcbaad50	-0.02278772
176	0x3d763e60	0.06011808
177	0xbc7116e0	-0.0147149265
178	0xbd0c742c	-0.034290478
179	0x3dd65a1d	0.104664065
180	0xbd4f5d6b	-0.0506262
181	0xbc8f64ed	-0.01750418
182	0xbc33aaeb	-0.010966043
183	0xbd0c9288	-0.03431943
184	0xbd08a2e9	-0.03335849
185	0xbd7604d4	-0.0600632
186	0xbe05d47f	-0.13069342
187	0x3e7df9f1	0.24802376
188	0xbe156a9c	-0.1459145
189	0x3e09e199	0.13464965
190	0x3e1b0f08	0.15142453
191	0x3d44a85d	0.048012126
192	0x3d9a3eb6	0.075314924
193	0x3daf951b	0.085733615
194	0x3dc36a7d	0.095417954
195	0xbd8235cd	-0.06357918
196	0xbcbd63c7	-0.023118867
197	0x3e98686c	0.29767168
198	0x3c09a70b	0.008401643
199	0x3b2b5350	0.0026142187
200	0xbbd68d40	-0.0065476
201	0x3d18f7b5	0.037345607
202	0xbb59255e	-0.0033133845
203	0x3ddcd48b	0.10782727
204	0xbcee26fd	-0.029071325
205	0xbde05916	-0.10954492
206	0x3cb99148	0.022652283
207	0x39c25d41	0.00037072043
208	0xbcd06b0e	-0.025441673
209	0xbe50181d	-0.20321698
210	0xbdb0d6a8	-0.086346924
211	0x3d87a264	0.066227704
212	0x3c30ef90	0.010799304
213	0x3cbfbfda	0.023406912
214	0xbd9bbfb8	-0.07604927
215	0xbd822646	-0.06354956
216	0x3e950dca	0.29112083
217	0x3dadc7be	0.084853634
218	0x3e89f8e8	0.26947713
219	0x3e2abd39	0.16673745
220	0xbde12c50	-0.1099478
221	0xbe84682f	-0.25860736
222	0xbba29a3f	-0.004962235
223	0x3e05ed97	0.13078915
224	0xbdda4316	-0.10657327
225	0xbdb9ce96	-0.09072606
226	0xbdce637e	-0.100775704
227	0xbc69282f	-0.014230772
228	0xbd879432	-0.06620063
229	0x3d1176b3	0.03551359
230	0xbd99a2ef	-0.0750178
231	0x3d54e077	0.05197188
232	0x3dcc92d4	0.09988943
233	0x3d97ecc0	0.07418203
234	0xbd670109	-0.05639747
235	0x3d1b8d7e	0.037976734
236	0x3e11ac59	0.14225902
237	0x3c8f581d	0.01749807
238	0x3ddcc92b	0.10780557
239	0x3ceb75f4	0.028742768
240	0xbdf6a913	-0.12043967
241	0xbc7dc890	-0.015489712
242	0x3c08aa14	0.008341331
243	0xbd4bc15b	-0.049744945
244	0xbdacae86	-0.08431725
245	0x3c3d4dc3	0.011554184
246	0x3d97f6e6	0.07420139
247	0x3d92b39e	0.071631655
248	0xbf054656	-0.5206045
249	0xbd31e505	-0.0434313
250	0x3d85d3bc	0.06534526
251	0x3e2be9e6	0.16788444
252	0x3dc29752	0.09501518
253	0x3cd0cea2	0.025489155
254	0x3d3f01b3	0.04663248
255	0xbf0aa04e	-0.54150856

fc4.bias f4 [8]
0	0x3c90356f	0.017603604
1	0x3d5565f0	0.05209917
2	0xbdc17bfe	-0.09447478
3	0xbe072284	-0.1319676
4	0xbe8d5f95	-0.27611986
5	0x3d0f34a3	0.034962308
6	0x3e7194ec	0.23591965
7	0xbd69fb0a	-0.057124175

conv1.weight f4 [16, 2, 4, 4]
0	0xbe85ea6e	-0.26155418
1	0xbeb14b1a	-0.3462761
2	0xbf0601fe	-0.5234679
3	0xbe6f0fe4	-0.23345906
4	0xbeb26ecf	-0.34850165
5	0xbf1ab008	-0.6042485
6	0xbd2bfb0f	-0.041987475
7	0xbe54a543	-0.20766167
8	0xbf27d026	-0.65551984
9	0xbef962bc	-0.4870814
10	0xbddd4bda	-0.10805483
11	0xbefc4951	-0.49274686
12	0xbef2d0e4	-0.47424996
13	0xbda2ef43	-0.07955792
14	0xbea1f479	-0.3163183
15	0xbe2b8366	-0.16749343
16	0x3d5e6eab	0.05430476
17	0xbe581ed9	-0.21105517
18	0x3e3d442b	0.18483035
19	0x3e099780	0.13436699
20	0x3e3ce15d	0.18445344
21	0xbdbf52dd	-0.09341977
22	0xbd1cd022	-0.03828443
23	0x3d7635a6	0.060109757
24	0x3e46141f	0.19343613
25	0x3a888485	0.001041547
26	0xbd8eb683	-0.06968405
27	0x3de7fa43	0.113270305
28	0x3dbf401f	0.09338402
29	0x3e33c211	0.17554499
30	0x3c28fed9	0.010314667
31	0xbe012cd1	-0.12614752
32	0x3f516ba6	0.81804883
33	0x3e280ccf	0.16411136
34	0xbedb1c5d	-0.42795077
35	0x3ec94dae	0.39317077
36	0x3f670860	0.90247154
37	0x3ee2c2e5	0.44289318
38	0x3f616851	0.880498
39	0x3f1d75be	0.61507785
40	0x3f16aa57	0.5885367
41	0x3f3f301a	0.7468277
42	0x3e918498	0.28421474
43	0x3f219153	0.6311237
44	0x3f257fd6	0.6464819
45	0x3dbbccdd	0.09169934
46	0x3e6c4a1c	0.23075145
47	0x3fa5c899	1.2951843
48	0x3dbc2da7	0.09188395
49	0x3de67af7	0.112539224
50	0x3dc09416	0.09403245
51	0x3dd8c7da	0.10584994
52	0x3d5490bb	0.05189584
53	0x3d3adbd1	0.04561979
54	0x3de71393	0.1128303
55	0x3e13d4d2	0.14436653
56	0xbdd7aa66	-0.10530548
57	0xbde3b899	-0.111191936
58	0xbdd80cd0	-0.10549319
59	0x3e1919df	0.14951275
60	0xba11ba92	-0.0005559112
61	0x3dbdffec	0.09277329
62	0xbd8d57d7	-0.0690152
63	0xbc1dcadf	-0.009630888
64	0xbee31079	-0.44348505
65	0xbf0cbbd9	-0.5497413
66	0xbe855ea0	-0.26048756
67	0x3ed0f7f5	0.40814176
68	0x3f171262	0.59012425
69	0xbe7c3e87	-0.24633227
70	0xbd84dd19	-0.064874835
71	0xbdc96506	-0.09833722
72	0x3f8980bd	1.0742413
73	0xbecf0330	-0.4043212
74	0xbefb71ab	-0.4911016
75	0x3ecc60dc	0.39917648
76	0x3d427446	0.04747417
77	0xbe07f53b	-0.13277142
78	0xbec6a864	-0.38800347
79	0xbf1c56b5	-0.61069804
80	0x3c554451	0.013016776
81	0xbcfbbc03	-0.0307293
82	0x3e21b03c	0.15789884
83	0xbb3201a7	-0.002716163
84	0x3d7ad9b9	0.061242793
85	0xbcb93f69	-0.022613244
86	0x3e3ffa43	0.18747811
87	0x3cf04642	0.029330377
88	0x3e1f8975	0.1557978
89	0xbdf5fd5c	-0.12011215
90	0xbdfbe4b0	-0.12299478
91	0xbeaf8aa9	-0.34285477
92	0xbdeabc6c	-0.1146172
93	0x3e21ea43	0.1581202
94	0xbe640564	-0.22267681
95	0xbdacc008	-0.084350646
96	0xbebdc5e9	-0.37065056
97	0xbe226225	-0.15857752
98	0xbe288650	-0.16457486
99	0xbea39b16	-0.3195426
100	0xbefb9351	-0.4913583
101	0xbef7f76f	-0.48430964
102	0xbed57a07	-0.41694662
103	0xbe58db38	-0.21177375
104	0xbf182957	-0.5943808
105	0xbefa6ffb	-0.4891356
106	0xbe593555	-0.21211751
107	0xbf2b85c3	-0.6700098
108	0xbeb155ff	-0.34635922
109	0x3b10bbab	0.0022084515
110	0xbef45001	-0.47717288
111	0xbe83c419	-0.25735548
112	0xbcc020fa	-0.023453224
113	0x3d2bd5ee	0.041952066
114	0x3e17b6a2	0.14815763
115	0x3e37847d	0.17921634
116	0x3e1be900	0.15225601
117	0xbe1ae5fc	-0.15126795
118	0x3e539238	0.20661247
119	0x3c514263	0.0127721755
120	0xbe4556ef	-0.19271444
121	0xbdfca7a5	-0.12336663
122	0xbe6ca404	-0.23109442
123	0xbe39d231	-0.18146588
124	0xbd72b14f	-0.059251126
125	0x3e441c85	0.19151504
126	0x3e0c2021	0.13684131
127	0x3e35c62c	0.17751378
128	0x3f809dab	1.0048116
129	0x3f290264	0.6601927
130	0x3f203c81	0.6259232
131	0x3f6f55b8	0.9349017
132	0xbe7883d1	-0.24269034
133	0xbe129270	-0.14313674
134	0x3e92dfe3	0.28686437
135	0xbecd260a	-0.40068084
136	0x3f4945d6	0.78622186
137	0xbec21205	-0.37904373
138	0x3e8ba408	0.27273583
139	0xbef5717a	-0.47938138
140	0xbe8ab7fd	-0.27093497
141	0xbe9b9510	-0.30387163
142	0x3f010257	0.50394195
143	0xbd9cabcd	-0.07649956
144	0xbd4d9f96	-0.05020102
145	0x3dff4294	0.12463871
146	0xbcd80b06	-0.026372444
147	0x3de2f2cb	0.11081465
148	0x3c9a5fd6	0.018844526
149	0x3dd4d2a4	0.10391739
150	0xbca25d6b	-0.019819936
151	0xbcb99f97	-0.022659106
152	0x3e992fa1	0.2991915
153	0x3d755a67	0.059900668
154	0xbe44d264	-0.19220883
155	0x3e0468b2	0.12930563
156	0x3e3de66e	0.18544933
157	0x3cab4584	0.020907171
158	0x3d88dd43	0.06682827
159	0x3e5d1b07	0.21592341
160	0xbea5e04c	-0.32397687
161	0x3e0ec775	0.13943274
162	0xbd87e809	-0.06636054
163	0xbecfd19a	-0.405896
164	0x3ef549a0	0.47907734
165	0x3f1d8b62	0.61540806
166	0xbc7fd440	-0.015614569
167	0xbea84003	-0.32861337
168	0xbf1e9ff9	-0.6196285
169	0x3ea8a70e	0.32939953
170	0xbea0625a	-0.31325036
171	0xbe022792	-0.12710407
172	0x3fea1097	1.8286313
173	0x3f014257	0.5049185
174	0xbe5672b5	-0.20942195
175	0x3ec4de73	0.38450965
176	0xbe965931	-0.29364923
177	0xbdd19b0f	-0.10234653
178	0xbbb0213f	-0.005375057
179	0x3d9c0165	0.076174535
180	0xbc5e04a3	-0.01355091
181	0x3d45ece9	0.04832164
182	0x3d8e1e5a	0.06939383
183	0xbd09fe0c	-0.033689544
184	0x3db44559	0.088022895
185	0xbd9d0e78	-0.07668775
186	0x3d8febef	0.07027423
187	0x3d806277	0.06268781
188	0x3c8c53f3	0.017129874
189	0xbefc9006	-0.4932863
190	0xbdd98a34	-0.10622063
191	0x3c8049b4	0.015660144
192	0xbe0aebb7	-0.1356648
193	0x3f6321a6	0.8872322
194	0xbdfa79cd	-0.12230263
195	0xbe145ab3	-0.14487724
196	0x3f38476d	0.7198399
197	0x3e3c0a88	0.18363392
198	0x3d733144	0.059373155
199	0xbe5fc964	-0.21854168
200	0x3fb7aae5	1.4349028
201	0x3eef1745	0.4669744
202	0x3d11f48c	0.03563361
203	0xbe32f460	-0.17476034
204	0xbe8088b6	-0.25104302
205	0x3f9272d6	1.1441295
206	0x3ddfb7d0	0.10923731
207	0xbe9c831b	-0.30568776
208	0x3e07c038	0.1325692
209	0x3e82670a	0.25469238
210	0x3baf5acd	0.0053514005
211	0x3acf7844	0.0015828689
212	0xbd15c65c	-0.036566123
213	0xbec41f6c	-0.38305223
214	0x3d8fe84a	0.070267275
215	0x3c309594	0.01077785
216	0x3d7ffc39	0.062496398
217	0xbe7f9330	-0.24958491
218	0x3d4864c0	0.048924208
219	0x3c22cfb6	0.009937217
220	0xbdb13d40	-0.08654261
221	0xbd6faa61	-0.058512095
222	0xbe8dbed7	-0.27684662
223	0xbce379b7	-0.027768
224	0xbf0d1dc7	-0.5512356
225	0xbdae06e3	-0.08497407
226	0x3dd970f0	0.10617244
227	0xbd88f137	-0.06686633
228	0xbede2557	-0.43387863
229	0xbee4f58a	-0.4471858
230	0xbd9bd2e7	-0.07608586
231	0xbcf4b6a7	-0.029872252
232	0xbec7bdae	-0.39011902
233	0x3ef201a6	0.47266883
234	0xbdfc5c79	-0.12322325
235	0xbcad6457	-0.02116601
236	0x3fd2360b	1.6422743
237	0x3f1f1af2	0.6215049
238	0xbf044554	-0.51668286
239	0x3dec3afc	0.11534688
240	0xbd9507c2	-0.0727687
241	0xbe398179	-0.18115796
242	0xbdc88350	-0.09790671
243	0xbe29af75	-0.16570838
244	0x3e31658b	0.17323892
245	0x3d6bf873	0.057609987
246	0xbe004faa	-0.1253039
247	0xbe825a7c	-0.2545966
248	0x3e4117b6	0.18856701
249	0x3e17f888	0.14840901
250	0xbc3cf4a7	-0.011532939
251	0xbdc891e7	-0.09793454
252	0x3e1cd740	0.15316486
253	0x3e271df1	0.16320015
254	0xbd4b6317	-0.049655046
255	0x3ea0b075	0.31384626

conv1.bias f4 [16]
0	0x3e261b53	0.16221361
1	0x3e1e813f	0.15478991
2	0x3eac7ca0	0.3368883
3	0x3e8e2812	0.27764946
4	0x3d5dc213	0.05414016
5	0x3dc6f629	0.0971492
6	0x3c02058b	0.007935892
7	0x3db5e9da	0.08882494
8	0x3e99d5c2	0.30045897
9	0x3e20079d	0.15627904
10	0x3e84c603	0.2593232
11	0xbc6a687e	-0.014307139
12	0x3de8981a	0.11357136
13	0xbd80b0a2	-0.0628369
14	0x3e3fa343	0.18714623
15	0x3e18678e	0.14883253

conv2.weight f4 [32, 16, 4, 4]
0	0xbd98addc	-0.07455036
1	0x3ca74c09	0.020421999
2	0xbd369b94	-0.044581965
3	0xbd1aa595	-0.037755568
4	0x3ba790ef	0.005113713
5	0xbd98c9d4	-0.07460371
6	0x3d2c0c3b	0.04200385
7	0xbda94e54	-0.08266893
8	0xbc8e7821	-0.017391266
9	0xbd636254	-0.055513695
10	0x3ca466ae	0.020068493
11	0xbd281a1b	-0.04104052
12	0xbd729bdb	-0.059230667
13	0x3d3432e8	0.04399386
14	0x3cac3f66	0.021026324
15	0xbcf9712d	-0.030449474
16	0xbd974bb1	-0.07387484
17	0xbd71a030	-0.058990657
18	0xbdb090e8	-0.08621389
19	0x3b02084f	0.0019841378
20	0xbd8069af	-0.062701575
21	0xbdc32099	-0.09527702
22	0xbd5cf4e7	-0.053944495
23	0xbd6b8ffc	-0.05751036
24	0xbd36e563	-0.044652354
25	0xbd01910e	-0.031632476
26	0x3cad5028	0.021156386
27	0xbd98481a	-0.07435627
28	0x3ce67b2d	0.028134907
29	0xbd787394	-0.0606571
30	0x3d28430d	0.04107957
31	0x3ccb4413	0.024812734
32	0xbd52b26f	-0.0514397
33	0xbc47d37a	-0.012196416
34	0x3cb9736c	0.022638045
35	0xbca21762	-0.01978654
36	0xbd9c7b69	-0.07640726
37	0xbd52b3d7	-0.05144104
38	0x3d328e77	0.043592896
39	0xbd7bebbd	-0.061504114
40	0x3ae6c7ee	0.0017607191
41	0xbd46adda	-0.04850564
42	0xbd4c9fbf	-0.049957033
43	0x3cfc2502	0.030779365
44	0x3d0ef3a5	0.034900326
45	0x3d622008	0.05520633
46	0x3b591e79	0.0033129735
47	0xbda0533c	-0.07828376
48	0xbc35324e	-0.011059357
49	0xbcbb0a35	-0.022832016
50	0xbc3466ef	-0.011010869
51	0xbd795615	-0.06087311
52	0xbd9428be	-0.072343335
53	0xbdb1731d	-0.08664534
54	0xbd88334f	-0.06650411
55	0xbcf06c7d	-0.029348606
56	0xbc94cf88	-0.018165365
57	0xbd2111a2	-0.039323457
58	0x3cc325f7	0.023821814
59	0xbd6625a2	-0.056188233
60	0x3bb072e5	0.0053847902
61	0x3c63cd5d	0.013903943
62	0xbb7042fa	-0.0036661015
63	0xbc5c9f23	-0.0134656755
64	0xbd19da7d	-0.037561882
65	0x3c96a608	0.018389717
66	0xbc86e183	-0.016464954
67	0x3cda5783	0.026653057
68	0xbbd51790	-0.006503053
69	0x3d07f46b	0.03319208
70	0x3d3bb8ce	0.04583054
71	0x3d2c02bc	0.041994795
72	0x3cab3df5	0.020903567
73	0xbcc36937	-0.023853881
74	0xbdc488b2	-0.09596385
75	0xbd8c97ba	-0.06864877
76	0xbda0812d	-0.07837138
77	0x3ccf1a90	0.02528122
78	0xbc2056cf	-0.009786322
79	0xbd40aed1	-0.047041718
80	0xbcf5ae4a	-0.029990334
81	0xbca234c7	-0.019800557
82	0xbd1ccb5e	-0.038279884
83	0xbd714955	-0.058907825
84	0xbd41b268	-0.047289282
85	0x3ccb23cc	0.024797343
86	0xbc97e46c	-0.018541537
87	0xbdb35e04	-0.087581664
88	0xbd879dfc	-0.0662193
89	0xbdd02383	-0.10163023
90	0xbd13594c	-0.035973832
91	0x3ccaf567	0.02477522
92	0xba219180	-0.0006163344
93	0x3ce660c0	0.028122306
94	0x3caded91	0.021231445
95	0xbc502f50	-0.012706593
96	0x3d47c80d	0.048774768
97	0xbd567210	-0.052354872
98	0x3b1856bc	0.0023245057
99	0x3d0c83e2	0.03430546
100	0xbd7f201a	-0.062286474
101	0xbd40d942	-0.047082193
102	0x3d1a4ac8	0.037668973
103	0x3b401ec5	0.0029315215
104	0xbbdafe9f	-0.006683185
105	0xbd9433fa	-0.07236476
106	0xbc6040a2	-0.013687285
107	0xbc7bec41	-0.015376152
108	0xbb74a508	-0.0037329812
109	0xbd9f0c35	-0.07766
110	0xbc6c1904	-0.014410261
111	0xbd04fa1f	-0.032465097
112	0x3c30bb4c	0.010786843
113	0x3d2b7e31	0.041868392
114	0xbda5cb62	-0.08095433
115	0xbda639ff	-0.081165306
116	0xbd213699	-0.03935871
117	0xbd47fdee	-0.04882615
118	0xbd2bcb4e	-0.041941933
119	0x3d10b213	0.035326075
120	0xbdf05dc5	-0.11736635
121	0xbd555eee	-0.052092485
122	0xbc84964e	-0.016184952
123	0xbd126fb8	-0.035751075
124	0xbd86e63a	-0.06586881
125	0x3ced7ef8	0.028991207
126	0xbcc20dfe	-0.023688313
127	0x3c5d5577	0.013509146
128	0xbca4141f	-0.020029126
129	0xbdaa50d1	-0.08316196
130	0x3cc83f33	0.024444198
131	0x3cbd0f52	0.023078594
132	0x3c52d2cb	0.01286764
133	0xbd08e35e	-0.03341996
134	0xbdd97659	-0.10618276
135	0x3b22f1bb	0.002486332
136	0x3b363baa	0.0027806559
137	0x3c9e3090	0.019310266
138	0xbc8028fd	-0.015644545
139	0xbb9e3ca1	-0.004829005
140	0x3d3c9c57	0.046047535
141	0xbccdbc6a	-0.025114257
142	0xbd8aac66	-0.06771164
143	0xbce88e84	-0.02838827
144	0xbd392d3e	-0.045209162
145	0xbd318265	-0.043337245
146	0xbd710854	-0.058845833
147	0xbd3282a0	-0.043581605
148	0xbd8469bc	-0.0646548
149	0xbd76f39d	-0.06029092
150	0xbb6b15d5	-0.0035871167
151	0x3d49201a	0.04910288
152	0xbd494d82	-0.049146183
153	0xbd5799e6	-0.052637003
154	0xbd9c4b1a	-0.07631512
155	0x3b95948e	0.0045648282
156	0xbd59e684	-0.053198352
157	0xbd897ca3	-0.06713226
158	0xbd82d96d	-0.06389127
159	0xbd84cc88	-0.06484324
160	0x3d3368a0	0.04380095
161	0x3d46d2c0	0.04854083
162	0x3c787382	0.015164258
163	0x3b9321ec	0.004490128
164	0xbda18b08	-0.07887846
165	0xbdbf2d48	-0.093348086
166	0xbd9b5e86	-0.07586388
167	0xbc7e6b57	-0.0155285215
168	0xbd112533	-0.035435867
169	0xbd19725b	-0.037462573
170	0xb9d20d95	-0.0004006444
171	0xbc9ed53c	-0.019388787
172	0xbdd32b56	-0.10311
173	0xbd81a9ac	-0.063311905
174	0xbd7a8988	-0.061166316
175	0xbbcb1158	-0.006197136
176	0x3cf1527a	0.029458273
177	0x3c019592	0.0079091955
178	0xba948b15	-0.0011332954
179	0x3d8648bc	0.06556842
180	0xbd908b05	-0.07057766
181	0xbd33c964	-0.043893233
182	0xbcd555ed	-0.02604195
183	0xbcdd61ff	-0.027024267
184	0x3b121b0e	0.0022293958
185	0x3ccfa429	0.025346832
186	0x3bf873fd	0.0075821863
187	0xbd580255	-0.0527366
188	0xbcc14f84	-0.023597486
189	0xbd35510b	-0.04426674
190	0xbdc1c5b8	-0.0946154
191	0xbd602d43	-0.054730665
192	0xbc8b3e50	-0.016997486
193	0xbb2da6c0	-0.0026497096
194	0x3a6f6890	0.00091327075
195	0xbd28f016	-0.04124459
196	0xbd7f2c56	-0.06229814
197	0xbd8bb542	-0.068216816
198	0xbd89dace	-0.06731187
199	0xbd83db8b	-0.06438359
200	0x3be0f54a	0.0068651782
201	0xbc49fb4f	-0.012327983
202	0x3d31a725	0.043372292
203	0xbca7afa0	-0.020469487
204	0xbbf9cff3	-0.0076236664
205	0xbd7530b0	-0.059860885
206	0xbd65ae6c	-0.056074545
207	0xbd6221c2	-0.055207975
208	0xbc180c72	-0.009280311
209	0x3d6e1311	0.058123652
210	0x3d05293b	0.032510024
211	0x3c052598	0.008126639
212	0xbc25be66	-0.010116195
213	0xbd93636b	-0.07196697
214	0xbde0732d	-0.10959468
215	0xbd952f98	-0.072844684
216	0x3b2e16de	0.0026563923
217	0xbd2e813b	-0.042603713
218	0xbca1d527	-0.01975496
219	0xbbf393c2	-0.0074333856
220	0xbd786ce8	-0.060650736
221	0xbb3f9697	-0.0029234046
222	0x3d11c4b0	0.035587966
223	0xbe1a8bad	-0.15092345
224	0xbcb80b21	-0.022466244
225	0xbcfabcf5	-0.03060768
226	0xbac7e3e8	-0.0015250416
227	0x3b557793	0.0032572492
228	0xbb024043	-0.0019874729
229	0xbccae6dd	-0.024768287
230	0xbd4e8186	-0.050416492
231	0xbd8c2a0d	-0.06843958
232	0x3d0efa37	0.034906592
233	0xbd892bd8	-0.06697816
234	0x3cc702af	0.024293272
235	0xbd53eb32	-0.05173797
236	0xbcf56049	-0.029953139
237	0x3d1ac892	0.037788935
238	0xbd2bd901	-0.041954998
239	0x3b035e62	0.002004527
240	0xbd4251a6	-0.047441147
241	0xbcdbf351	-0.02684942
242	0xbd0bfc4a	-0.03417615
243	0xbb653542	-0.003497437
244	0xbcafff71	-0.021484109
245	0xbdc0607e	-0.093934044
246	0xbc56477a	-0.013078565
247	0xbd9d25db	-0.07673236
248	0xbd40ff5c	-0.04711853
249	0x3caae963	0.02086324
250	0x3d280307	0.041018512
251	0xbd983a93	-0.07433047
252	0xbd4f7a69	-0.05065385
253	0xbdec076f	-0.11524855
254	0xbd5859a2	-0.052819856
255	0x3d640c8b	0.055676024

conv2.bias f4 [32]
0	0xbd4f9e8b	-0.050688308
1	0xbd90d6a4	-0.070721895
2	0x3cb2698e	0.021778848
3	0x3e0b77ef	0.1361997
4	0x3d065638	0.03279707
5	0x3e238fc3	0.1597281
6	0x3d4c1b2d	0.049830604
7	0xbd1cc823	-0.038276803
8	0x3db79bec	0.089652866
9	0x3c159812	0.009130495
10	0xbce45d9d	-0.02787667
11	0x3e21f6b1	0.15816762
12	0x3dc69cbc	0.096978635
13	0xbd9e2e8a	-0.0772372
14	0x3e2102d8	0.15723741
15	0x3e045751	0.12923934
16	0x3db0fdb6	0.086421415
17	0x3e180b73	0.14848118
18	0x3e04766c	0.129358
19	0xbd567457	-0.052357044
20	0xbc1f87fd	-0.009737012
21	0x3d2aa580	0.04166174
22	0x3e208b7b	0.15678208
23	0x3d60ac2e	0.054851703
24	0x3bde8be0	0.0067915767
25	0xbce35958	-0.027752563
26	0x3a721efe	0.00092361856
27	0x3d2673b6	0.040637694
28	0xbc58bfd1	-0.013229326
29	0xbd9e74e2	-0.077371374
30	0x3d336ff9	0.043807957
31	0xbdc6f29b	-0.09714242
