DRL-based-path-finding/saved_models/dqn_best_model.pth (torch, 981101 bytes, 32 tensors)

conv1.weight f4 [16, 2, 4, 4]
00000000: 5d52 86be 67c5 afbe fe01 06bf 51d2 65be
00000010: 5d72 b2be 08b0 1abf d228 3abd 545e 52be
00000020: 26d0 27bf 99a1 f7be 8462 e6bd fbb4 fcbe
00000030: e4d0 f2be 6414 a9bd 11be a3be 7d74 2cbe
00000040: 149e 5d3d 1d3c 5bbe aee2 3d3e 721f 0a3e
00000050: 939b 3d3e eb81 c0bd 5ff5 1fbd 6e63 733d
00000060: b399 463e 9490 9439 369a 8ebd 75df e63d
00000070: 3fbc bf3d 7239 343e dc70 213c 1927 02be
00000080: fc4f 523f ce8c 293e 6701 dbbe d920 c83e
00000090: 2ea9 673f f106 e43e d56a 623f 4af5 1d3f
000000a0: a08a 163f 0aad 3f3f 4f79 933e 14b5 223f
000000b0: 2a76 253f 5c6f bf3d 068c 6f3e 4710 a63f
000000c0: d2f9 bf3d b2a6 e73d 6617 bf3d 67dd d83d
000000d0: 9a23 523d ac49 403d 5917 e93d 22e5 133e
000000e0: b234 d8bd 8fa1 e3bd 2870 d6bd fd6d 193e
000000f0: a656 e1ba 8287 be3d ea2e 8abd 1cc3 febb
00000100: ed4a e3be d9bb 0cbf fefd 85be 888f ca3e
00000110: bc5f 1b3f 4650 7ebe f20c 90bd bb0f efbd
00000120: d80b 8b3f f07a cebe f853 fdbe 9533 c73e
00000130: 69f7 423d 0523 08be c198 cdbe 5913 1fbf
00000140: 2d31 3e3c 65af 02bd 6724 1f3e e86e 723a
00000150: 215d 733d c858 c1bc bda1 3d3e 5dcd d93c
00000160: 62f3 1e3e b392 edbd 6308 fdbd 46a3 b0be
00000170: d665 eabd d511 233e de96 66be c429 b7bd
00000180: 98d2 bdbe ffde 21be f4b2 25be 5d88 a3be
00000190: 7d40 fcbe 013c f6be 7dc3 d5be d86a 55be
000001a0: 1f6f 17bf 37eb f7be 209c 5dbe c385 2bbf
000001b0: 3279 b1be 107a ac3a d111 f6be 8472 84be
000001c0: 74bf c3bc bac0 293d 0ca5 183e d01b 393e
000001d0: 00ac 1b3e cbc4 1abe 2f8a 543e 82f7 673c
000001e0: c922 46be 7f37 fdbd 0aa4 6cbe 6d4c 3abe
000001f0: deca 70bd 41df 453e aa76 0c3e 7e3e 373e
00000200: d1a6 803f 2207 2b3f d1ba 223f b273 713f
00000210: 08a4 76be 48e2 0fbe 7c0f 983e 6a9b ccbe
00000220: 7eda 473f e708 c2be 1f37 8d3e 7a71 f5be
00000230: 3143 8abe 5664 9fbe 9ab2 023f 8973 92bd
00000240: 143f 4ebd af84 ff3d b936 cebc 98ec e33d
00000250: 69d7 773c 93e7 d73d f8c5 9cbc a5a4 a1bc
00000260: 7a0f 983e 08a3 7a3d e8bd 43be 53f8 033e
00000270: a89c 3b3e 84c8 863c f7b6 863d 142f 573e
00000280: 5b77 a5be 922d 0d3e 147f 78bd 0b44 d0be
00000290: ded5 f53e b2c1 1f3f c7c5 09bc 0340 a8be
000002a0: 20d0 1ebf 4639 ac3e f59a 9fbe 083d 02be
000002b0: 09c5 e93f 92e3 013f 8bf5 56be a7eb c33e
000002c0: 099c 96be 75de d2bd 1a6a bdbb 473b 9a3d
000002d0: 107e 62bc f2c9 433d 235d 8e3d 31a4 07bd
000002e0: 6248 a93d a0c1 9ebd ece3 8b3d ed5f 813d
000002f0: 2334 853c 7f39 febe eb3e d9bd fb80 583c
00000300: b7eb 0abe e96e 623f 9471 f1bd f6ba 15be
00000310: 33b9 383f 5a33 403e bb46 7f3d d8b2 5cbe
00000320: c091 b73f 6219 f53e 00fd 313d ae65 33be
00000330: 146b 82be 86e8 923f 2dcd f63d 1b83 9cbe
00000340: 10f6 0b3e 3e70 843e e3c9 aa3b cf9b 83ba
00000350: 5a06 03bd c7cf c5be 9774 983d b4c9 163c
00000360: 919b 833d 3eb6 7ebe 07ff 413d 952f 153c
00000370: 3762 b4bd 7619 70bd 91de 8bbe 5020 d6bc
00000380: 228d 0cbf 35cc a5bd dfea e13d 0c2c 8bbd
00000390: 295a e1be 8809 e3be 0d45 aebd b00d 07bd
000003a0: 5ae5 c6be 9a86 f23e d499 04be 84d4 b5bc
000003b0: 603d d23f ae88 1e3f 5445 04bf 3284 f03d
000003c0: 4ea3 92bd d930 39be 1431 c5bd 1468 28be
000003d0: 6d25 323e b677 683d 716e 01be 4cf5 81be
000003e0: 86ac 413e 3faa 183e 6e5c 86bc 24c5 d1bd
000003f0: 8206 1a3e 5ad1 283e 0615 51bd a980 9f3e
-0.26234713 -0.34330294 -0.5234679 -0.2244351 -0.34852877 -0.6042485 -0.045449086 -0.20543796
-0.65551984 -0.48365477 -0.11249259 -0.49356827 -0.47424996 -0.08255842 -0.31980947 -0.16841312
0.054105833 -0.2140965 0.18543503 0.13488558 0.18516378 -0.0939978 -0.039052363 0.059420995
0.19394569 0.0002833648 -0.06963007 0.1127309 0.09362077 0.17600039 0.009853568 -0.12710227
0.82153296 0.16557619 -0.42774507 0.3908756 0.9049252 0.44536546 0.8844426 0.61702406
0.58805275 0.7487341 0.2880349 0.63557553 0.6463343 0.09347412 0.23393258 1.2973717
0.09373821 0.113110915 0.09330635 0.10589104 0.051303484 0.04694526 0.11381406 0.14442876
-0.10556926 -0.11114799 -0.10470611 0.14983363 -0.0017191961 0.0930319 -0.067472294 -0.0077747237
-0.443931 -0.5497413 -0.26170343 0.3956263 0.60692954 -0.2483531 -0.07033719 -0.11672922
1.086299 -0.4032817 -0.49478126 0.3890654 0.04759923 -0.13294609 -0.40155604 -0.621389
0.011608404 -0.03190555 0.1554123 0.00092480937 0.059414987 -0.023601905 0.1851873 0.026587183
0.1552253 -0.11600246 -0.12355115 -0.34499568 -0.11445205 0.15924771 -0.22518489 -0.08943513
-0.37074733 -0.15807723 -0.16181546 -0.31939974 -0.4926795 -0.48092654 -0.41750708 -0.20841539
-0.5915393 -0.48421642 -0.21641588 -0.6700098 -0.34662777 0.0013158936 -0.48060468 -0.25868618
-0.023895003 0.041443564 0.1490671 0.18077016 0.15202332 -0.15114133 0.20755838 0.014158132
-0.19349207 -0.12364101 -0.23109451 -0.18193217 -0.05878722 0.19323446 0.13717142 0.17894933
1.0050908 0.6680776 0.6356631 0.9431716 -0.2408601 -0.14051163 0.29699314 -0.39962322
0.7806777 -0.37897417 0.27581117 -0.47938138 -0.27004388 -0.31131238 0.51053774 -0.07150943
-0.050353125 0.12476479 -0.025172578 0.11129111 0.015127041 0.10542216 -0.019137368 -0.019731829
0.29699308 0.061190635 -0.19115412 0.12887697 0.18321478 0.016453035 0.065778665 0.21014053
-0.32317623 0.13786915 -0.060668066 -0.40676913 0.4801473 0.6240493 -0.00840897 -0.32861337
-0.62036324 0.33637446 -0.3117291 -0.12718594 1.8263255 0.5073787 -0.20992105 0.38265726
-0.2941592 -0.102963366 -0.0057804706 0.075308375 -0.013824001 0.047800012 0.06951358 -0.03311557
0.08265759 -0.07751775 0.06830582 0.063171245 0.016260212 -0.4965324 -0.10607704 0.013214345
-0.1356648 0.88450485 -0.117892414 -0.14622101 0.7215759 0.18769589 0.062323313 -0.21552598
1.4341354 0.47870928 0.04345417 -0.17519256 -0.2547232 1.147721 0.12050853 -0.30568776
0.13668084 0.25866884 0.005212055 -0.0010040941 -0.03198848 -0.38635084 0.07444113 0.009203363
0.06426156 -0.24874207 0.047362354 0.009105583 -0.088077955 -0.05861803 -0.27318242 -0.026138455
-0.5490285 -0.0809559 0.11031126 -0.06795511 -0.440141 -0.4434321 -0.08509264 -0.032972038
-0.38846856 0.47368318 -0.12949306 -0.022196062 1.642498 0.61927307 -0.51668286 0.11743964
-0.07160054 -0.1808504 -0.096285015 -0.16445953 0.1739709 0.05675479 -0.12639786 -0.2538246
0.18913469 0.14908694 -0.016401496 -0.1024268 0.15041545 0.16486111 -0.05104544 0.31152847

conv1.bias f4 [16]
00000000: 1240 293e c4d5 1c3e b82e ab3e c886 8e3e
00000010: 5ff7 5e3d cbb1 c43d e82e 263c 5a6e b03d
00000020: 6e3b 9a3e b387 1e3e 4c9b 833e d315 29bc
00000030: 49bc e33d 938b 83bd e16d 3f3e c9ad 163e
0.16528347 0.1531592 0.3343408 0.27837205 0.05443513 0.09604224 0.010143019 0.08614798
0.30123466 0.15481453 0.2570442 -0.010320145 0.11119897 -0.06423106 0.18694259 0.14714731

conv2.weight f4 [32, 16, 4, 4]
00000000: dcad 98bd 094c a73c 949b 36bd 95a5 1abd
00000010: ef90 a73b d4c9 98bd 3b0c 2c3d 544e a9bd
00000020: 2178 8ebc 5462 63bd ae66 a43c 1b1a 28bd
00000030: db9b 72bd e832 343d 663f ac3c 2d71 f9bc
00000040: b14b 97bd 30a0 71bd e890 b0bd 4f08 023b
00000050: af69 80bd 9920 c3bd e7f4 5cbd fc8f 6bbd
00000060: 63e5 36bd 0e91 01bd 2850 ad3c 1a48 98bd
00000070: 2d7b e63c 9473 78bd 0d43 283d 1344 cb3c
00000080: 6fb2 52bd 7ad3 47bc 6c73 b93c 6217 a2bc
00000090: 697b 9cbd d7b3 52bd 778e 323d bdeb 7bbd
000000a0: eec7 e63a daad 46bd bf9f 4cbd 0225 fc3c
000000b0: a5f3 0e3d 0820 623d 791e 593b 3c53 a0bd
000000c0: 4e32 35bc 350a bbbc ef66 34bc 1556 79bd
000000d0: be28 94bd 1d73 b1bd 4f33 88bd 7d6c f0bc
000000e0: 88cf 94bc a211 21bd f725 c33c a225 66bd
000000f0: e572 b03b 5dcd 633c fa42 70bb 239f 5cbc
00000100: 7dda 19bd 08a6 963c 83e1 86bc 8357 da3c
00000110: 9017 d5bb 6bf4 073d ceb8 3b3d bc02 2c3d
00000120: f53d ab3c 3769 c3bc b288 c4bd ba97 8cbd
00000130: 2d81 a0bd 901a cf3c cf56 20bc d1ae 40bd
00000140: 4aae f5bc c734 a2bc 5ecb 1cbd 5549 71bd
00000150: 68b2 41bd cc23 cb3c 6ce4 97bc 045e b3bd
00000160: fc9d 87bd 8323 d0bd 4c59 13bd 67f5 ca3c
00000170: 8091 21ba c060 e63c 91ed ad3c 502f 50bc
00000180: 0dc8 473d 1072 56bd bc56 183b e283 0c3d
00000190: 1a20 7fbd 42d9 40bd c84a 1a3d c51e 403b
000001a0: 9ffe dabb fa33 94bd a240 60bc 41ec 7bbc
000001b0: 08a5 74bb 350c 9fbd 0419 6cbc 1ffa 04bd
000001c0: 4cbb 303c 317e 2b3d 62cb a5bd ff39 a6bd
000001d0: 9936 21bd eefd 47bd 4ecb 2bbd 13b2 103d
000001e0: c55d f0bd ee5e 55bd 4e96 84bc b86f 12bd
000001f0: 3ae6 86bd f87e ed3c fe0d c2bc 7755 5d3c
00000200: 1f14 a4bc d150 aabd 333f c83c 520f bd3c
00000210: cbd2 523c 5ee3 08bd 5976 d9bd bbf1 223b
00000220: aa3b 363b 9030 9e3c fd28 80bc a13c 9ebb
00000230: 579c 3c3d 6abc cdbc 66ac 8abd 848e e8bc
00000240: 3e2d 39bd 6582 31bd 5408 71bd a082 32bd
00000250: bc69 84bd 9df3 76bd d515 6bbb 1a20 493d
00000260: 824d 49bd e699 57bd 1a4b 9cbd 8e94 953b
00000270: 84e6 59bd a37c 89bd 6dd9 82bd 88cc 84bd
00000280: a068 333d c0d2 463d 8273 783c ec21 933b
00000290: 088b a1bd 482d bfbd 865e 9bbd 576b 7ebc
000002a0: 3325 11bd 5b72 19bd 950d d2b9 3cd5 9ebc
000002b0: 562b d3bd aca9 81bd 8889 7abd 5811 cbbb
000002c0: 7a52 f13c 9295 013c 158b 94ba bc48 863d
000002d0: 058b 90bd 64c9 33bd ed55 d5bc ff61 ddbc
000002e0: 0e1b 123b 29a4 cf3c fd73 f83b 5502 58bd
000002f0: 844f c1bc 0b51 35bd b8c5 c1bd 432d 60bd
00000300: 503e 8bbc c0a6 2dbb 9068 6f3a 16f0 28bd
00000310: 562c 7fbd 42b5 8bbd ceda 89bd 8bdb 83bd
00000320: 4af5 e03b 4ffb 49bc 25a7 313d a0af a7bc
00000330: f3cf f9bb b030 75bd 6cae 65bd c221 62bd
00000340: 720c 18bc 1113 6e3d 3b29 053d 9825 053c
00000350: 66be 25bc 6b63 93bd 2d73 e0bd 982f 95bd
00000360: de16 2e3b 3b81 2ebd 27d5 a1bc c293 f3bb
00000370: e86c 78bd 9796 3fbb b0c4 113d ad8b 1abe
00000380: 210b b8bc f5bc fabc e8e3 c7ba 9377 553b
00000390: 4340 02bb dde6 cabc 8681 4ebd 0d2a 8cbd
000003a0: 37fa 0e3d d82b 89bd af02 c73c 32eb 53bd
000003b0: 4960 f5bc 92c8 1a3d 01d9 2bbd 625e 033b
000003c0: a651 42bd 51f3 dbbc 4afc 0bbd 4235 65bb
000003d0: 71ff afbc 7e60 c0bd 7a47 56bc db25 9dbd
000003e0: 5cff 40bd 63e9 aa3c 0703 283d 933a 98bd
000003f0: 697a 4fbd 6f07 ecbd a259 58bd 8b0c 643d
-0.07455036 0.020421999 -0.044581965 -0.037755568 0.005113713 -0.07460371 0.04200385 -0.08266893
-0.017391266 -0.055513695 0.020068493 -0.04104052 -0.059230667 0.04399386 0.021026324 -0.030449474
-0.07387484 -0.058990657 -0.08621389 0.0019841378 -0.062701575 -0.09527702 -0.053944495 -0.05751036
-0.044652354 -0.031632476 0.021156386 -0.07435627 0.028134907 -0.0606571 0.04107957 0.024812734
-0.0514397 -0.012196416 0.022638045 -0.01978654 -0.07640726 -0.05144104 0.043592896 -0.061504114
0.0017607191 -0.04850564 -0.049957033 0.030779365 0.034900326 0.05520633 0.0033129735 -0.07828376
-0.011059357 -0.022832016 -0.011010869 -0.06087311 -0.072343335 -0.08664534 -0.06650411 -0.029348606
-0.018165365 -0.039323457 0.023821814 -0.056188233 0.0053847902 0.013903943 -0.0036661015 -0.0134656755
-0.037561882 0.018389717 -0.016464954 0.026653057 -0.006503053 0.03319208 0.04583054 0.041994795
0.020903567 -0.023853881 -0.09596385 -0.06864877 -0.07837138 0.02528122 -0.009786322 -0.047041718
-0.029990334 -0.019800557 -0.038279884 -0.058907825 -0.047289282 0.024797343 -0.018541537 -0.087581664
-0.0662193 -0.10163023 -0.035973832 0.02477522 -0.0006163344 0.028122306 0.021231445 -0.012706593
0.048774768 -0.052354872 0.0023245057 0.03430546 -0.062286474 -0.047082193 0.037668973 0.0029315215
-0.006683185 -0.07236476 -0.013687285 -0.015376152 -0.0037329812 -0.07766 -0.014410261 -0.032465097
0.010786843 0.041868392 -0.08095433 -0.081165306 -0.03935871 -0.04882615 -0.041941933 0.035326075
-0.11736635 -0.052092485 -0.016184952 -0.035751075 -0.06586881 0.028991207 -0.023688313 0.013509146
-0.020029126 -0.08316196 0.024444198 0.023078594 0.01286764 -0.03341996 -0.10618276 0.002486332
0.0027806559 0.019310266 -0.015644545 -0.004829005 0.046047535 -0.025114257 -0.06771164 -0.02838827
-0.045209162 -0.043337245 -0.058845833 -0.043581605 -0.0646548 -0.06029092 -0.0035871167 0.04910288
-0.049146183 -0.052637003 -0.07631512 0.0045648282 -0.053198352 -0.06713226 -0.06389127 -0.06484324
0.04380095 0.04854083 0.015164258 0.004490128 -0.07887846 -0.093348086 -0.07586388 -0.0155285215
-0.035435867 -0.037462573 -0.0004006444 -0.019388787 -0.10311 -0.063311905 -0.061166316 -0.006197136
0.029458273 0.0079091955 -0.0011332954 0.06556842 -0.07057766 -0.043893233 -0.02604195 -0.027024267
0.0022293958 0.025346832 0.0075821863 -0.0527366 -0.023597486 -0.04426674 -0.0946154 -0.054730665
-0.016997486 -0.0026497096 0.00091327075 -0.04124459 -0.06229814 -0.068216816 -0.06731187 -0.06438359
0.0068651782 -0.012327983 0.043372292 -0.020469487 -0.0076236664 -0.059860885 -0.056074545 -0.055207975
-0.009280311 0.058123652 0.032510024 0.008126639 -0.010116195 -0.07196697 -0.10959468 -0.072844684
0.0026563923 -0.042603713 -0.01975496 -0.0074333856 -0.060650736 -0.0029234046 0.035587966 -0.15092345
-0.022466244 -0.03060768 -0.0015250416 0.0032572492 -0.0019874729 -0.024768287 -0.050416492 -0.06843958
0.034906592 -0.06697816 0.024293272 -0.05173797 -0.029953139 0.037788935 -0.041954998 0.002004527
-0.047441147 -0.02684942 -0.03417615 -0.003497437 -0.021484109 -0.093934044 -0.013078565 -0.07673236
-0.04711853 0.02086324 0.041018512 -0.07433047 -0.05065385 -0.11524855 -0.052819856 0.055676024

conv2.bias f4 [32]
00000000: 8b9e 4fbd a4d6 90bd 8e69 b23c 4f68 0b3e
00000010: 89e4 043d 5214 243e b9e2 4b3d 23c8 1cbd
00000020: 0de8 bb3d 317c 423c 9d5d e4bc 85fc 223e
00000030: 9c04 c63d 8a2e 9ebd f632 223e 3e65 043e
00000040: 4017 b23d 5e84 183e e065 033e 5774 56bd
00000050: fd87 1fbc 9138 2e3d 1ae3 203e eb6d 643d
00000060: 3f33 d53b 5859 e3bc b81f 223b 5dab 2d3d
00000070: 1c58 52bc e274 9ebd 75e9 2d3d 9bf2 c6bd
-0.050688308 -0.070721895 0.021778848 0.1361401 0.03244451 0.16023377 0.049776766 -0.038276803
0.091751195 0.01187043 -0.02787667 0.15916641 0.09668848 -0.0772372 0.15839753 0.12929246
0.08695841 0.14894244 0.12831831 -0.052357044 -0.009737012 0.042534415 0.15711632 0.05576889
0.006506353 -0.027752563 0.0024738144 0.042399753 -0.01283839 -0.077371374 0.04245897 -0.09714242

fc1.weight f4 [64, 800]
00000000: 0457 59bd 8782 69bc aefb 76bd 0d77 17bc
00000010: ea94 1dbd 32ea 85bd 187b 15bd eee7 4fbd
00000020: d13f 72bd 2f30 aabc 0e6d 86bd ce12 4bbd
00000030: c6d7 26bd 3983 a5bc 876f 2abd d974 70bd
00000040: d6c1 0bbd 895f 87bc 6e5f 9bbc b84e a7bc
00000050: 19bf 8ebd 9c00 d5bb 6f00 20bd c00b d2bb
00000060: 6a8e 93bc 3122 5fbc 165c 853c c9b1 663a
00000070: 54a9 c7bc 0e9f 5bbc e34d 293c aa0d 88bc
00000080: a13f 1dbd 105c f8bc 28c6 793c 9e7e 2ebd
00000090: bdf0 a6bc 3dfc 063d 5cef 843c 6485 e4bb
000000a0: cbc4 82bc 197a 963c 7d78 e1bb ecaf 6fbc
000000b0: 5c14 70bd f164 31bd 5cff 00bd 98cc d73b
000000c0: dbcc a5bd 746e b1bc 694f dabc bd09 17bd
000000d0: 66d5 59bd fd1b 15bd 9933 c63b 97ba 0fbd
000000e0: 8dee e0bc 37ca cebc 1a07 0ebd 16ce 46bd
000000f0: 48a7 8c3c c8e7 623b 3dc4 0abd a7d0 91bc
00000100: 3075 39bd 5c8f b9bc 8456 cbbc fb50 edbc
00000110: 6e24 14bc 3a8a 2ebd 7781 06bb c39a 3cbc
00000120: 0d2d 1bbd e4f0 693a 5415 893c 7c3c a43e
00000130: d685 97bd 15ab fcbd ae92 90bd 5e44 d2bd
00000140: 5cc8 803e f4f0 0dbe 5cdf 883e def7 c8bc
00000150: 80df 42be 424f 483c 9e90 88bd b7c9 c1bd
00000160: 5c7c 2bbd e135 b6bc 01ef f43e 896f 9cbd
00000170: da88 913d a6a5 b73d e4f7 a73d 6a3f d5bd
00000180: 6761 7a3d 31d1 4e3d 2e0e 913e cbab a63d
00000190: 52c2 5c3e a422 073e 7445 bebc 5b85 a53d
000001a0: bbc4 54bc d07f 8d3e 78bc 9f3e 5dc4 023d
000001b0: 7db8 3cbd 890f 62bc 7c4d 4ebc 2f06 d33d
000001c0: 622e 13bd d7a6 4dbe 6cb7 c9ba f23c 223e
000001d0: cee9 95bd 5cac 14bd b923 febe eb6b fbbe
000001e0: 3b41 41bd 1f6b a7bb b6a9 b93e 4e75 803e
000001f0: b441 19bf aac2 30bb 2b38 c33c 20c4 68bd
00000200: f92c b5bc 8d15 f43b 6962 5b3d 6609 993d
00000210: dc15 4c3c c2e0 4e3c 5cc3 6ebd 9b72 97bc
00000220: 119f f6bd 3104 743e a06d 9ebd dc94 5cbe
00000230: 9968 c13c 8c85 153d 3ce1 d23d 31ae 313e
00000240: cb46 da3c 5548 e7bd 5111 593e 0f62 063f
00000250: 2536 ce3e b4f0 963d 5974 c9bd 8ec9 2d3e
00000260: 37a5 473e 2a7d 3b3e 24c7 6a3d 6887 dabd
00000270: 82d4 f63d d90d e3bc f45b cebb e89b b7be
00000280: a4ae 033d fa7a 0f3d 0dfe 573e 35c4 b53b
00000290: 062c 753d 34a5 79be b70e 413c e46d 793d
000002a0: 4141 fc3b 0525 263e 2b04 e5bc cd2a 493e
000002b0: bca1 d13c 8bfc 8a3e 742d 8b3e c4a8 d0bc
000002c0: 74fa dabc 92ee a43d 5d4a d2bb ec95 a73c
000002d0: 119a f63c 7e76 67bd 82cc a93b b313 12bd
000002e0: 5271 973c 22f3 f13c d535 0bbb 1725 46bb
000002f0: 0216 2ebd 95a9 a8bc 95ca 36bd f8f0 533c
00000300: 33f9 e23c 628a 50bc 1374 fdbc 23c6 9c3c
00000310: 8d75 b0bd b21a 7f3c cdf5 57bc 32eb 49bc
00000320: b1ad 90be 1d46 87bd 5692 db3d 3127 5e3d
00000330: 5aca e2bb ce7c 3f3d a3fb 35bd 07e4 663d
00000340: 48cf 16bd 9f26 77bd ffa2 b83d f3da f4bd
00000350: 5b44 893d 4ed8 d1bc 5c2c e73d 363d fcbb
00000360: de28 c2bc 3d31 00be 3787 ee3c f3b4 dd3d
00000370: ad4c 83bd ad9c cc3d 6208 d6bd 76ac 083c
00000380: 9d7e 953e e047 c3be 7327 da3c cd28 4abe
00000390: 37c2 fe3d 409c 8a3e e904 81be 9d66 5d3e
000003a0: 3461 a8bd c502 8dbe d800 7abd 3217 82be
000003b0: 6f4c 4ebe 34e1 6e3b 2149 24be 3035 343e
000003c0: fbee 413e 6ffd 513c 86bb 3f3e 0651 9a3e
000003d0: 98ea 6d3e ece4 123c db8c ba3e 44b1 2d3e
000003e0: e9e5 22bd 611b 873e f449 523c b091 2d3b
000003f0: 624d ec3c 86e0 c3bc 9120 0fbd 985b 57bd
-0.0530615 -0.014252312 -0.060298614 -0.0092446925 -0.038472094 -0.0653881 -0.036494344 -0.050758295
-0.05914289 -0.020774929 -0.06563769 -0.04957848 -0.04073312 -0.020204173 -0.041610267 -0.058705185
-0.034120403 -0.016525047 -0.018966403 -0.020423278 -0.06970043 -0.006500317 -0.039062914 -0.006410092
-0.018012244 -0.013618992 0.016279262 0.0008800296 -0.024372734 -0.013404621 0.010333511 -0.016608078
-0.03839076 -0.030317336 0.015244998 -0.04260122 -0.020378465 0.032955397 0.016227417 -0.006973909
-0.015962979 0.018368768 -0.0068808184 -0.014629345 -0.058613166 -0.043309156 -0.03149353 0.006585669
-0.08095714 -0.021659113 -0.026649194 -0.03687452 -0.05318203 -0.036403645 0.0060486314 -0.035090055
-0.0274575 -0.025242908 -0.03467474 -0.048536383 0.01716961 0.0034623016 -0.033878554 -0.017799689
-0.045277774 -0.022651367 -0.024821527 -0.028969279 -0.009041889 -0.042612292 -0.0020523944 -0.011511507
-0.03788476 0.000892414 0.016733803 0.32077396 -0.07398574 -0.12337319 -0.07059227 -0.10266946
0.25152862 -0.13861448 0.2673291 -0.024532255 -0.19030571 0.012225928 -0.066682085 -0.09462302
-0.041866645 -0.022242488 0.47838596 -0.07638461 0.071061805 0.08967142 0.08201578 -0.10412486
0.061128046 0.05049247 0.2833113 0.08138236 0.21558502 0.13196808 -0.023226477 0.08082076
-0.012986357 0.27636576 0.31198478 0.031925548 -0.04607438 -0.013797649 -0.012591716 0.10303914
-0.035932906 -0.20083176 -0.0015389747 0.15843561 -0.07319985 -0.036297187 -0.4963663 -0.49105772
-0.04718135 -0.0051092054 0.36262292 0.25089496 -0.5986588 -0.0026971498 0.023830494 -0.056827664
-0.022116171 0.007448858 0.053560648 0.07472496 0.012456384 0.012626829 -0.058291778 -0.018487265
-0.12042058 0.23829724 -0.07735753 -0.2154116 0.023609446 0.036504313 0.10296866 0.17351605
0.026645085 -0.11293093 0.21198012 0.52493376 0.40275684 0.07370129 -0.09836645 0.16971418
0.19496618 0.18309465 0.05731882 -0.10670358 0.120522514 -0.027716564 -0.0062975828 -0.35861135
0.032148972 0.03502939 0.21093006 0.0055470713 0.059856437 -0.24379426 0.011783293 0.060895815
0.0076982086 0.1622506 -0.027956089 0.19645233 0.025589816 0.271458 0.27183115 -0.025471099
-0.026730753 0.08053316 -0.006417556 0.02045723 0.030102761 -0.056509487 0.00518185 -0.035663318
0.018486653 0.02953488 -0.0021241803 -0.003023451 -0.042501457 -0.020588676 -0.04462679 0.012935869
0.027706718 -0.0127283055 -0.030939138 0.019137448 -0.08616171 0.0155703295 -0.013181162 -0.012324141
-0.28257516 -0.0660517 0.10721271 0.054236595 -0.006921095 0.046749882 -0.044429433 0.056369808
-0.036818773 -0.060339566 0.09015464 -0.11955824 0.06702491 -0.025615837 0.11287758 -0.0076977266
-0.023701128 -0.12518783 0.02911721 0.10825529 -0.06411109 0.09990821 -0.10450818 0.008341899
0.2919816 -0.38140774 0.026630139 -0.19742127 0.12439387 0.27072334 -0.2519906 0.21621175
-0.08221665 -0.27541175 -0.06103596 -0.25408322 -0.20146345 0.003645015 -0.16043521 0.17598414
0.1893882 0.012816771 0.18723878 0.3013994 0.23234022 0.008965712 0.3643559 0.16962153
-0.03977004 0.26388076 0.012835015 0.0026484542 0.028845493 -0.023910772 -0.034943167 -0.052577585

fc1.bias f4 [64]
00000000: f072 b33d ebf6 0abd 6c2e 02bd 1461 dbbb
00000010: 8edc ca3c 67a4 ba3d 2678 aabc b208 513b
00000020: 8079 24bd 1634 6a3c a79a 71bd bc78 03bd
00000030: 8867 a4bc 6b81 75bd 0fac 3bbd 0031 38bc
00000040: e0c2 55bd 0c78 183e ec80 223b 047f 1cbd
00000050: c02c 663c 0a08 e9bb fe6e 5ebd aba6 79bd
00000060: 925c 423d 9ee4 50bc 6554 c23d b320 c43b
00000070: 6249 aabc 9fef 0e3e 09f8 08bb 09c7 093e
00000080: 1865 423d d757 053e 5792 1fbd 6319 9cbc
00000090: cd26 6ebd e5ac 45bd 48ea b4bc 113c 9d3c
000000a0: c621 1cbc afe1 d33c faa1 113e 24c8 863c
000000b0: b395 cc3d 66a4 a33b 785a 7ebd 170d cc3c
000000c0: e313 a43c 0b19 0ebd a6a0 083e cb40 c13c
000000d0: 9eb2 70bd 84ae 00bc d891 203c 0bd3 59bd
000000e0: feae f03d df31 33bd 9eb2 6f3a b760 323d
000000f0: d694 123d 189f 68bd 445c c13d ae7a e73d
0.08762157 -0.033926886 -0.031782553 -0.006694922 0.024763372 0.091133885 -0.020809244 0.0031896052
-0.040154934 0.014294645 -0.05898538 -0.032097563 -0.020068899 -0.059937876 -0.045818385 -0.011242151
-0.0521878 0.14889544 0.0024796082 -0.03820707 0.014048755 -0.007111554 -0.05430507 -0.060949963
0.047451563 -0.012749819 0.09488753 0.0059853434 -0.020786945 0.13958596 -0.0020899794 0.13454832
0.04745969 0.1302179 -0.03895792 -0.019055074 -0.058142472 -0.04826059 -0.02208437 0.019193681
-0.009529537 0.02586445 0.14221945 0.016452856 0.0998949 0.004993963 -0.062097996 0.024908585
0.020029014 -0.03469185 0.13342533 0.023590466 -0.058764093 -0.007854108 0.009800397 -0.053179782
0.11752127 -0.043748733 0.00091437425 0.043549266 0.035786472 -0.05679235 0.094414264 0.11302696

fc4.weight f4 [8, 64]
00000000: 2288 573e b590 223d 942b 803d 3590 85bd
00000010: 86cf e83d ff6e 8c3e 9eee ecbd e0c4 513c
00000020: 500b bd3b 33f1 8cbc fa51 1c3a de2d 9c3d
00000030: c226 febc 64c9 713d c820 993c 26ca 12bd
00000040: 3232 cc3c a35b 8bbe 7085 15bc 792f 00be
00000050: d110 823d 4743 e93d cba3 4dbd 6659 cbbd
00000060: 29d7 a0bd 872b 4b3d 8547 9b3d 04b8 013e
00000070: 3546 bd3d 0099 8ebe 31e8 543d dc84 a6bc
00000080: 6a6c 11be 318b 033e f529 413d af13 bdbc
00000090: 3ec5 a2bd a440 183d cc96 cab7 1c72 663d
000000a0: c2cb a03d aa66 e63d 5a21 1fbe 6dea 2abc
000000b0: dbdc 36bd 8977 dc3d 83c4 22bd 2318 87bb
000000c0: 1f25 28bd d0c5 013c 8ee7 d7be 61d7 c53d
000000d0: 30e1 9bbd 1cc6 d43d e0f7 cebd 7464 bebd
000000e0: c55a a3bd a0c2 8a3d 5aaa 6cbd 8210 cb3c
000000f0: ea06 dabd 79d3 043d d574 863e 4892 953e
00000100: 5c44 4e3e 7545 b33d c0b4 05be 9727 00bc
00000110: d8ec e23d ab6f 10be b5b5 87bc c0cf 25bd
00000120: 2007 b83c 6036 873d 8e17 b83d 723e 00be
00000130: bba2 c83d 965d 843d 0896 cb3d dda6 303c
00000140: ec17 bcbd 60dc 71be d083 e33c d3d0 523d
00000150: 0f03 d03d e612 903d 1a21 a6bc b872 f2bc
00000160: a394 4c3d f2e4 d83b 3e02 c23e cd68 973e
00000170: c65f ee3d 61ee 223e f5b5 d53c 2cd3 a6be
00000180: 39a2 9b3d 4d07 cdbe 4c5a 0a3d b69b c03c
00000190: 1e31 ccbd ef14 0b3e d9ac c53d 61fe babd
000001a0: 6699 d43d 731f 3c3d a536 c8be 658f 333d
000001b0: 5b41 25be 50c3 fdbd b089 803c 9b28 96bd
000001c0: 5c5a 11be 3e8e 89bd 2a7f 9cbe f86a d23c
000001d0: 96ae 8cbb b32c 3ebb 7ae4 85bd b846 3c3d
000001e0: 0071 4cbe 08ec 24bd 02f2 a2bd c03c 503e
000001f0: 604c ae3d 335b c7bd 46d5 ebbd 2767 72be
00000200: ed0b 02bc 7854 9b3b bcb7 f8bc c050 7bbd
00000210: f8f2 51bd 75ae 6e3e 0a6c c7bd 3947 d23c
00000220: e25f 9fbd 3400 2cbc fb01 b9bd 03a3 ca3d
00000230: a199 d5bc 4ad4 e6bd 6004 263d 586a a73d
00000240: 0eaa 73bd 6d19 1abd 64bd 8d3d 4daf b63d
00000250: 8c71 cf3d 933d c33c 13b4 903d 9b72 de3c
00000260: 9dbb 843d 1570 9d3d 9f0d 12bf 127a 4c3e
00000270: d4ed b83d e921 bfbe 7768 80bd f2d2 bfbc
00000280: 33dc 8f3e 1e43 b7be 8032 d4ba 08d1 bebc
00000290: e04e 683c 9690 043c b039 9dbd 838f b73d
000002a0: b173 943c cfda f3bd ece1 a0be 7b22 d4bc
000002b0: 2ebc 0bbe e6c8 3c3c 5bdb 243d 50ad babc
000002c0: 603e 763d e016 71bc 2c74 0cbd 1d5a d63d
000002d0: 6b5d 4fbd ed64 8fbc ebaa 33bc 8892 0cbd
000002e0: e9a2 08bd d404 76bd 7fd4 05be 0d11 7d3e
000002f0: 9c6a 15be 99e1 093e 6afe 1a3e 35e0 473d
00000300: ccf5 9b3d 1b95 af3d 7d6a c33d cd35 82bd
00000310: c763 bdbc 6c68 983e 0ba7 093c 5053 2b3b
00000320: 408d d6bb b5f7 183d 5e25 59bb 8bd4 dc3d
00000330: fd26 eebc 1659 e0bd 4891 b93c 415d c239
00000340: 0e6b d0bc d6e0 4fbe a8d6 b0bd 64a2 873d
00000350: 90ef 303c dabf bf3c b8bf 9bbd 4626 82bd
00000360: 5e24 943e bec7 ad3d e8f8 893e 672c 283e
00000370: 502c e1bd 2f68 84be 3f9a a2bb 97ed 053e
00000380: 33c3 d4bd 96ce b9bd 7e63 cebd 2f28 69bc
00000390: 3294 87bd b376 113d efa2 99bd 77e0 543d
000003a0: d492 cc3d c0ec 973d 0901 67bd 7e8d 1b3d
000003b0: 46e5 113e 1d58 8f3c 2bc9 dc3d f475 eb3c
000003c0: 13a9 f6bd 90c8 7dbc 14aa 083c 5bc1 4bbd
000003d0: 86ae acbd c34d 3d3c e6f6 973d 9eb3 923d
000003e0: 5646 05bf 05e5 31bd bcd3 853d d608 283e
000003f0: 5297 c23d a2ce d03c a67a 343d 9e89 0abf
0.21048024 0.039688785 0.06258312 -0.06521646 0.11367707 0.27428433 -0.1156895 0.012803286
0.005769171 -0.017204857 0.0005963143 0.07625936 -0.03102434 0.05902995 0.01869239 -0.035837315
0.024926279 -0.2721835 -0.009126052 -0.1251811 0.06350864 0.11389785 -0.050205033 -0.09929161
-0.078535385 0.049602058 0.07582001 0.12667853 0.092419066 -0.27851105 0.051979247 -0.020327024
-0.14201513 0.12846066 0.047159154 -0.023080675 -0.07947777 0.03717102 -2.4150497e-05 0.056261167
0.07851364 0.1125005 -0.15540066 -0.010431868 -0.044644218 0.10764987 -0.03973819 -0.0041227504
-0.041051026 0.007920697 -0.4216885 0.09660221 -0.076113105 0.10389349 -0.10105872 -0.09296504
-0.07976297 0.06775403 -0.057779647 0.024788145 -0.1064585 0.03242824 0.2626101 0.29213166
0.20143265 0.08753482 -0.13057232 -0.007821939 0.110803306 -0.14105098 -0.016566137 -0.04048133
0.022464335 0.06602168 0.08988868 -0.12523821 0.097966634 0.064631626 0.099407256 0.010781971
-0.0918425 -0.23619223 0.027772814 0.05146868 0.101568334 0.070348546 -0.020279456 -0.029595718
0.04994644 0.0066190893 0.37892336 0.29572144 0.11639361 0.15911247 0.02608774 -0.32582986
0.07599301 -0.40044633 0.03377752 0.023511749 -0.09970306 0.13582204 0.09652109 -0.0913055
0.10380821 0.04592843 -0.3910419 0.043837924 -0.16138212 -0.123907685 0.015690655 -0.07331964
-0.14194626 -0.06716584 -0.30565768 0.025685772 -0.004293273 -0.0029018342 -0.06537719 0.04596588
-0.19964981 -0.04026416 -0.079563156 0.20335674 0.08510661 -0.09734192 -0.11515288 -0.23672162
-0.007937414 0.004740294 -0.030361049 -0.061356306 -0.051257104 0.23308738 -0.09737404 0.025668727
-0.0778196 -0.010498095 -0.09033581 0.09894373 -0.026074233 -0.1127096 0.040531516 0.0817458
-0.05948835 -0.037621904 0.06920889 0.08920155 0.10129079 0.023833072 0.070655964 0.027154258
0.06481097 0.076873936 -0.57052034 0.19968441 0.09029737 -0.3733056 -0.06269925 -0.023416016
0.28097686 -0.35793394 -0.0016189367 -0.023293033 0.0141789615 0.008091113 -0.07677019 0.089629196
0.018121572 -0.11906969 -0.31422365 -0.025895348 -0.13646004 0.011522507 0.040248256 -0.02278772
0.06011808 -0.0147149265 -0.034290478 0.104664065 -0.0506262 -0.01750418 -0.010966043 -0.03431943
-0.03335849 -0.0600632 -0.13069342 0.24713536 -0.1459145 0.13464965 0.15136114 0.048797805
0.076152414 0.085733615 0.095417954 -0.06357918 -0.023118867 0.29767168 0.008401643 0.0026142187
-0.0065476 0.037345607 -0.0033133845 0.10782727 -0.029071325 -0.10954492 0.022652283 0.00037072043
-0.025441673 -0.20300612 -0.086346924 0.066227704 0.010799304 0.023406912 -0.07604927 -0.06354956
0.28933996 0.084853634 0.26947713 0.16423188 -0.1099478 -0.25860736 -0.004962235 0.13078915
-0.10388794 -0.09072606 -0.100775704 -0.014230772 -0.06620063 0.03551359 -0.0750178 0.05197188
0.09988943 0.07418203 -0.05639747 0.037976734 0.14247617 0.01749807 0.10780557 0.028742768
-0.12043967 -0.015489712 0.008341331 -0.049744945 -0.08431725 0.011554184 0.07420139 0.071631655
-0.5206045 -0.0434313 0.06534526 0.1640962 0.09501518 0.025489155 0.04406228 -0.5411624

fc4.bias f4 [8]
00000000: 85fa 903c 7f11 4f3d abaa bdbd 4044 07be
00000010: d0ab 8bbe a180 0d3d c36e 703e c215 68bd
0.017697582 0.050553795 -0.09261068 -0.13209629 -0.2727952 0.0345465 0.23479752 -0.056661375

conv1.weight f4 [16, 2, 4, 4]
00000000: 6eea 85be 1a4b b1be fe01 06bf e40f 6fbe
00000010: cf6e b2be 08b0 1abf 0ffb 2bbd 43a5 54be
00000020: 26d0 27bf bc62 f9be da4b ddbd 5149 fcbe
00000030: e4d0 f2be 43ef a2bd 79f4 a1be 6683 2bbe
00000040: ab6e 5e3d d91e 58be 2b44 3d3e 8097 093e
00000050: 5de1 3c3e dd52 bfbd 22d0 1cbd a635 763d
00000060: 1f14 463e 8584 883a 83b6 8ebd 43fa e73d
00000070: 1f40 bf3d 11c2 333e d9fe 283c d12c 01be
00000080: a66b 513f cf0c 283e 5d1c dbbe ae4d c93e
00000090: 6008 673f e5c2 e23e 5168 613f be75 1d3f
000000a0: 57aa 163f 1a30 3f3f 9884 913e 5391 213f
000000b0: d67f 253f ddcc bb3d 1c4a 6c3e 99c8 a53f
000000c0: a72d bc3d f77a e63d 1694 c03d dac7 d83d
000000d0: bb90 543d d1db 3a3d 9313 e73d d2d4 133e
000000e0: 66aa d7bd 99b8 e3bd d00c d8bd df19 193e
000000f0: 92ba 11ba ecff bd3d d757 8dbd dfca 1dbc
00000100: 7910 e3be d9bb 0cbf a05e 85be f5f7 d03e
00000110: 6212 173f 873e 7cbe 19dd 84bd 0665 c9bd
00000120: bd80 893f 3003 cfbe ab71 fbbe dc60 cc3e
00000130: 4674 423d 3bf5 07be 64a8 c6be b556 1cbf
00000140: 5144 553c 03bc fbbc 3cb0 213e a701 32bb
00000150: b9d9 7a3d 693f b9bc 43fa 3f3e 4246 f03c
00000160: 7589 1f3e 5cfd f5bd b0e4 fbbd a98a afbe
00000170: 6cbc eabd 43ea 213e 6405 64be 08c0 acbd
00000180: e9c5 bdbe 2562 22be 5086 28be 169b a3be
00000190: 5193 fbbe 6ff7 f7be 077a d5be 38db 58be
000001a0: 5729 18bf fb6f fabe 5535 59be c385 2bbf
000001b0: ff55 b1be abbb 103b 0150 f4be 19c4 83be
000001c0: fa20 c0bc eed5 2b3d a2b6 173e 7d84 373e
000001d0: 00e9 1b3e fce5 1abe 3892 533e 6342 513c
000001e0: ef56 45be a5a7 fcbd 04a4 6cbe 31d2 39be
000001f0: 4fb1 72bd 851c 443e 2120 0c3e 2cc6 353e
00000200: ab9d 803f 6402 293f 813c 203f b855 6f3f
00000210: d183 78be 7092 12be e3df 923e 0a26 cdbe
00000220: d645 493f 0512 c2be 08a4 8b3e 7a71 f5be
00000230: fdb7 8abe 1095 9bbe 5702 013f cdab 9cbd
00000240: 969f 4dbd 9442 ff3d 060b d8bc cbf2 e23d
00000250: d65f 9a3c a4d2 d43d 6b5d a2bc 979f b9bc
00000260: a12f 993e 675a 753d 64d2 44be b268 043e
00000270: 6ee6 3d3e 8445 ab3c 43dd 883d 071b 5d3e
00000280: 4ce0 a5be 75c7 0e3e 09e8 87bd 9ad1 cfbe
00000290: a049 f53e 628b 1d3f 40d4 7fbc 0340 a8be
000002a0: f99f 1ebf 0ea7 a83e 5a62 a0be 9227 02be
000002b0: 9710 ea3f 5742 013f b572 56be 73de c43e
000002c0: 3159 96be 0f9b d1bd 3f21 b0bb 6501 9c3d
000002d0: a304 5ebc e9ec 453d 5a1e 8e3d 0cfe 09bd
000002e0: 5945 b43d 780e 9dbd efeb 8f3d 7762 803d
000002f0: f353 8c3c 0690 fcbe 348a d9bd b449 803c
00000300: b7eb 0abe a621 633f cd79 fabd b35a 14be
00000310: 6d47 383f 880a 3c3e 4431 733d 64c9 5fbe
00000320: e5aa b73f 4517 ef3e 8cf4 113d 60f4 32be
00000330: b688 80be d672 923f d0b7 df3d 1b83 9cbe
00000340: 38c0 073e 0a67 823e cd5a af3b 4478 cf3a
00000350: 5cc6 15bd 6c1f c4be 4ae8 8f3d 9495 303c
00000360: 39fc 7f3d 3093 7fbe c064 483d b6cf 223c
00000370: 403d b1bd 61aa 6fbd d7be 8dbe b779 e3bc
00000380: c71d 0dbf e306 aebd f070 d93d 37f1 88bd
00000390: 5725 debe 8af5 e4be e7d2 9bbd a7b6 f4bc
000003a0: aebd c7be a601 f23e 795c fcbd 5764 adbc
000003b0: 0b36 d23f f21a 1f3f 5445 04bf fc3a ec3d
000003c0: c207 95bd 7981 39be 5083 c8bd 75af 29be
000003d0: 8b65 313e 73f8 6b3d aa4f 00be 7c5a 82be
000003e0: b617 413e 88f8 173e a7f4 3cbc e791 c8bd
000003f0: 40d7 1c3e f11d 273e 1763 4bbd 75b0 a03e
-0.26155418 -0.3462761 -0.5234679 -0.23345906 -0.34850165 -0.6042485 -0.041987475 -0.20766167
-0.65551984 -0.4870814 -0.10805483 -0.49274686 -0.47424996 -0.07955792 -0.3163183 -0.16749343
0.05430476 -0.21105517 0.18483035 0.13436699 0.18445344 -0.09341977 -0.03828443 0.060109757
0.19343613 0.001041547 -0.06968405 0.113270305 0.09338402 0.17554499 0.010314667 -0.12614752
0.81804883 0.16411136 -0.42795077 0.39317077 0.90247154 0.44289318 0.880498 0.61507785
0.5885367 0.7468277 0.28421474 0.6311237 0.6464819 0.09169934 0.23075145 1.2951843
0.09188395 0.112539224 0.09403245 0.10584994 0.05189584 0.04561979 0.1128303 0.14436653
-0.10530548 -0.111191936 -0.10549319 0.14951275 -0.0005559112 0.09277329 -0.0690152 -0.009630888
-0.44348505 -0.5497413 -0.26048756 0.40814176 0.59012425 -0.24633227 -0.064874835 -0.09833722
1.0742413 -0.4043212 -0.4911016 0.39917648 0.04747417 -0.13277142 -0.38800347 -0.61069804
0.013016776 -0.0307293 0.15789884 -0.002716163 0.061242793 -0.022613244 0.18747811 0.029330377
0.1557978 -0.12011215 -0.12299478 -0.34285477 -0.1146172 0.1581202 -0.22267681 -0.084350646
-0.37065056 -0.15857752 -0.16457486 -0.3195426 -0.4913583 -0.48430964 -0.41694662 -0.21177375
-0.5943808 -0.4891356 -0.21211751 -0.6700098 -0.34635922 0.0022084515 -0.47717288 -0.25735548
-0.023453224 0.041952066 0.14815763 0.17921634 0.15225601 -0.15126795 0.20661247 0.0127721755
-0.19271444 -0.12336663 -0.23109442 -0.18146588 -0.059251126 0.19151504 0.13684131 0.17751378
1.0048116 0.6601927 0.6259232 0.9349017 -0.24269034 -0.14313674 0.28686437 -0.40068084
0.78622186 -0.37904373 0.27273583 -0.47938138 -0.27093497 -0.30387163 0.50394195 -0.07649956
-0.05020102 0.12463871 -0.026372444 0.11081465 0.018844526 0.10391739 -0.019819936 -0.022659106
0.2991915 0.059900668 -0.19220883 0.12930563 0.18544933 0.020907171 0.06682827 0.21592341
-0.32397687 0.13943274 -0.06636054 -0.405896 0.47907734 0.61540806 -0.015614569 -0.32861337
-0.6196285 0.32939953 -0.31325036 -0.12710407 1.8286313 0.5049185 -0.20942195 0.38450965
-0.29364923 -0.10234653 -0.005375057 0.076174535 -0.01355091 0.04832164 0.06939383 -0.033689544
0.088022895 -0.07668775 0.07027423 0.06268781 0.017129874 -0.4932863 -0.10622063 0.015660144
-0.1356648 0.8872322 -0.12230263 -0.14487724 0.7198399 0.18363392 0.059373155 -0.21854168
1.4349028 0.4669744 0.03563361 -0.17476034 -0.25104302 1.1441295 0.10923731 -0.30568776
0.1325692 0.25469238 0.0053514005 0.0015828689 -0.036566123 -0.38305223 0.070267275 0.01077785
0.062496398 -0.24958491 0.048924208 0.009937217 -0.08654261 -0.058512095 -0.27684662 -0.027768
-0.5512356 -0.08497407 0.10617244 -0.06686633 -0.43387863 -0.4471858 -0.07608586 -0.029872252
-0.39011902 0.47266883 -0.12322325 -0.02116601 1.6422743 0.6215049 -0.51668286 0.11534688
-0.0727687 -0.18115796 -0.09790671 -0.16570838 0.17323892 0.057609987 -0.1253039 -0.2545966
0.18856701 0.14840901 -0.011532939 -0.09793454 0.15316486 0.16320015 -0.049655046 0.31384626

conv1.bias f4 [16]
00000000: 531b 263e 3f81 1e3e a07c ac3e 1228 8e3e
00000010: 13c2 5d3d 29f6 c63d 8b05 023c dae9 b53d
00000020: c2d5 993e 9d07 203e 03c6 843e 7e68 6abc
00000030: 1a98 e83d a2b0 80bd 43a3 3f3e 8e67 183e
0.16221361 0.15478991 0.3368883 0.27764946 0.05414016 0.0971492 0.007935892 0.08882494
0.30045897 0.15627904 0.2593232 -0.014307139 0.11357136 -0.0628369 0.18714623 0.14883253

conv2.weight f4 [32, 16, 4, 4]
00000000: dcad 98bd 094c a73c 949b 36bd 95a5 1abd
00000010: ef90 a73b d4c9 98bd 3b0c 2c3d 544e a9bd
00000020: 2178 8ebc 5462 63bd ae66 a43c 1b1a 28bd
00000030: db9b 72bd e832 343d 663f ac3c 2d71 f9bc
00000040: b14b 97bd 30a0 71bd e890 b0bd 4f08 023b
00000050: af69 80bd 9920 c3bd e7f4 5cbd fc8f 6bbd
00000060: 63e5 36bd 0e91 01bd 2850 ad3c 1a48 98bd
00000070: 2d7b e63c 9473 78bd 0d43 283d 1344 cb3c
00000080: 6fb2 52bd 7ad3 47bc 6c73 b93c 6217 a2bc
00000090: 697b 9cbd d7b3 52bd 778e 323d bdeb 7bbd
000000a0: eec7 e63a daad 46bd bf9f 4cbd 0225 fc3c
000000b0: a5f3 0e3d 0820 623d 791e 593b 3c53 a0bd
000000c0: 4e32 35bc 350a bbbc ef66 34bc 1556 79bd
000000d0: be28 94bd 1d73 b1bd 4f33 88bd 7d6c f0bc
000000e0: 88cf 94bc a211 21bd f725 c33c a225 66bd
000000f0: e572 b03b 5dcd 633c fa42 70bb 239f 5cbc
00000100: 7dda 19bd 08a6 963c 83e1 86bc 8357 da3c
00000110: 9017 d5bb 6bf4 073d ceb8 3b3d bc02 2c3d
00000120: f53d ab3c 3769 c3bc b288 c4bd ba97 8cbd
00000130: 2d81 a0bd 901a cf3c cf56 20bc d1ae 40bd
00000140: 4aae f5bc c734 a2bc 5ecb 1cbd 5549 71bd
00000150: 68b2 41bd cc23 cb3c 6ce4 97bc 045e b3bd
00000160: fc9d 87bd 8323 d0bd 4c59 13bd 67f5 ca3c
00000170: 8091 21ba c060 e63c 91ed ad3c 502f 50bc
00000180: 0dc8 473d 1072 56bd bc56 183b e283 0c3d
00000190: 1a20 7fbd 42d9 40bd c84a 1a3d c51e 403b
000001a0: 9ffe dabb fa33 94bd a240 60bc 41ec 7bbc
000001b0: 08a5 74bb 350c 9fbd 0419 6cbc 1ffa 04bd
000001c0: 4cbb 303c 317e 2b3d 62cb a5bd ff39 a6bd
000001d0: 9936 21bd eefd 47bd 4ecb 2bbd 13b2 103d
000001e0: c55d f0bd ee5e 55bd 4e96 84bc b86f 12bd
000001f0: 3ae6 86bd f87e ed3c fe0d c2bc 7755 5d3c
00000200: 1f14 a4bc d150 aabd 333f c83c 520f bd3c
00000210: cbd2 523c 5ee3 08bd 5976 d9bd bbf1 223b
00000220: aa3b 363b 9030 9e3c fd28 80bc a13c 9ebb
00000230: 579c 3c3d 6abc cdbc 66ac 8abd 848e e8bc
00000240: 3e2d 39bd 6582 31bd 5408 71bd a082 32bd
00000250: bc69 84bd 9df3 76bd d515 6bbb 1a20 493d
00000260: 824d 49bd e699 57bd 1a4b 9cbd 8e94 953b
00000270: 84e6 59bd a37c 89bd 6dd9 82bd 88cc 84bd
00000280: a068 333d c0d2 463d 8273 783c ec21 933b
00000290: 088b a1bd 482d bfbd 865e 9bbd 576b 7ebc
000002a0: 3325 11bd 5b72 19bd 950d d2b9 3cd5 9ebc
000002b0: 562b d3bd aca9 81bd 8889 7abd 5811 cbbb
000002c0: 7a52 f13c 9295 013c 158b 94ba bc48 863d
000002d0: 058b 90bd 64c9 33bd ed55 d5bc ff61 ddbc
000002e0: 0e1b 123b 29a4 cf3c fd73 f83b 5502 58bd
000002f0: 844f c1bc 0b51 35bd b8c5 c1bd 432d 60bd
00000300: 503e 8bbc c0a6 2dbb 9068 6f3a 16f0 28bd
00000310: 562c 7fbd 42b5 8bbd ceda 89bd 8bdb 83bd
00000320: 4af5 e03b 4ffb 49bc 25a7 313d a0af a7bc
00000330: f3cf f9bb b030 75bd 6cae 65bd c221 62bd
00000340: 720c 18bc 1113 6e3d 3b29 053d 9825 053c
00000350: 66be 25bc 6b63 93bd 2d73 e0bd 982f 95bd
00000360: de16 2e3b 3b81 2ebd 27d5 a1bc c293 f3bb
00000370: e86c 78bd 9796 3fbb b0c4 113d ad8b 1abe
00000380: 210b b8bc f5bc fabc e8e3 c7ba 9377 553b
00000390: 4340 02bb dde6 cabc 8681 4ebd 0d2a 8cbd
000003a0: 37fa 0e3d d82b 89bd af02 c73c 32eb 53bd
000003b0: 4960 f5bc 92c8 1a3d 01d9 2bbd 625e 033b
000003c0: a651 42bd 51f3 dbbc 4afc 0bbd 4235 65bb
000003d0: 71ff afbc 7e60 c0bd 7a47 56bc db25 9dbd
000003e0: 5cff 40bd 63e9 aa3c 0703 283d 933a 98bd
000003f0: 697a 4fbd 6f07 ecbd a259 58bd 8b0c 643d
-0.07455036 0.020421999 -0.044581965 -0.037755568 0.005113713 -0.07460371 0.04200385 -0.08266893
-0.017391266 -0.055513695 0.020068493 -0.04104052 -0.059230667 0.04399386 0.021026324 -0.030449474
-0.07387484 -0.058990657 -0.08621389 0.0019841378 -0.062701575 -0.09527702 -0.053944495 -0.05751036
-0.044652354 -0.031632476 0.021156386 -0.07435627 0.028134907 -0.0606571 0.04107957 0.024812734
-0.0514397 -0.012196416 0.022638045 -0.01978654 -0.07640726 -0.05144104 0.043592896 -0.061504114
0.0017607191 -0.04850564 -0.049957033 0.030779365 0.034900326 0.05520633 0.0033129735 -0.07828376
-0.011059357 -0.022832016 -0.011010869 -0.06087311 -0.072343335 -0.08664534 -0.06650411 -0.029348606
-0.018165365 -0.039323457 0.023821814 -0.056188233 0.0053847902 0.013903943 -0.0036661015 -0.0134656755
-0.037561882 0.018389717 -0.016464954 0.026653057 -0.006503053 0.03319208 0.04583054 0.041994795
0.020903567 -0.023853881 -0.09596385 -0.06864877 -0.07837138 0.02528122 -0.009786322 -0.047041718
-0.029990334 -0.019800557 -0.038279884 -0.058907825 -0.047289282 0.024797343 -0.018541537 -0.087581664
-0.0662193 -0.10163023 -0.035973832 0.02477522 -0.0006163344 0.028122306 0.021231445 -0.012706593
0.048774768 -0.052354872 0.0023245057 0.03430546 -0.062286474 -0.047082193 0.037668973 0.0029315215
-0.006683185 -0.07236476 -0.013687285 -0.015376152 -0.0037329812 -0.07766 -0.014410261 -0.032465097
0.010786843 0.041868392 -0.08095433 -0.081165306 -0.03935871 -0.04882615 -0.041941933 0.035326075
-0.11736635 -0.052092485 -0.016184952 -0.035751075 -0.06586881 0.028991207 -0.023688313 0.013509146
-0.020029126 -0.08316196 0.024444198 0.023078594 0.01286764 -0.03341996 -0.10618276 0.002486332
0.0027806559 0.019310266 -0.015644545 -0.004829005 0.046047535 -0.025114257 -0.06771164 -0.02838827
-0.045209162 -0.043337245 -0.058845833 -0.043581605 -0.0646548 -0.06029092 -0.0035871167 0.04910288
-0.049146183 -0.052637003 -0.07631512 0.0045648282 -0.053198352 -0.06713226 -0.06389127 -0.06484324
0.04380095 0.04854083 0.015164258 0.004490128 -0.07887846 -0.093348086 -0.07586388 -0.0155285215
-0.035435867 -0.037462573 -0.0004006444 -0.019388787 -0.10311 -0.063311905 -0.061166316 -0.006197136
0.029458273 0.0079091955 -0.0011332954 0.06556842 -0.07057766 -0.043893233 -0.02604195 -0.027024267
0.0022293958 0.025346832 0.0075821863 -0.0527366 -0.023597486 -0.04426674 -0.0946154 -0.054730665
-0.016997486 -0.0026497096 0.00091327075 -0.04124459 -0.06229814 -0.068216816 -0.06731187 -0.06438359
0.0068651782 -0.012327983 0.043372292 -0.020469487 -0.0076236664 -0.059860885 -0.056074545 -0.055207975
-0.009280311 0.058123652 0.032510024 0.008126639 -0.010116195 -0.07196697 -0.10959468 -0.072844684
0.0026563923 -0.042603713 -0.01975496 -0.0074333856 -0.060650736 -0.0029234046 0.035587966 -0.15092345
-0.022466244 -0.03060768 -0.0015250416 0.0032572492 -0.0019874729 -0.024768287 -0.050416492 -0.06843958
0.034906592 -0.06697816 0.024293272 -0.05173797 -0.029953139 0.037788935 -0.041954998 0.002004527
-0.047441147 -0.02684942 -0.03417615 -0.003497437 -0.021484109 -0.093934044 -0.013078565 -0.07673236
-0.04711853 0.02086324 0.041018512 -0.07433047 -0.05065385 -0.11524855 -0.052819856 0.055676024

conv2.bias f4 [32]
00000000: 8b9e 4fbd a4d6 90bd 8e69 b23c ef77 0b3e
00000010: 3856 063d c38f 233e 2d1b 4c3d 23c8 1cbd
00000020: ec9b b73d 1298 153c 9d5d e4bc b1f6 213e
00000030: bc9c c63d 8a2e 9ebd d802 213e 5157 043e
00000040: b6fd b03d 730b 183e 6c76 043e 5774 56bd
00000050: fd87 1fbc 80a5 2a3d 7b8b 203e 2eac 603d
00000060: e08b de3b 5859 e3bc fe1e 723a b673 263d
00000070: d1bf 58bc e274 9ebd f96f 333d 9bf2 c6bd
-0.050688308 -0.070721895 0.021778848 0.1361997 0.03279707 0.1597281 0.049830604 -0.038276803
0.089652866 0.009130495 -0.02787667 0.15816762 0.096978635 -0.0772372 0.15723741 0.12923934
0.086421415 0.14848118 0.129358 -0.052357044 -0.009737012 0.04166174 0.15678208 0.054851703
0.0067915767 -0.027752563 0.00092361856 0.040637694 -0.013229326 -0.077371374 0.043807957 -0.09714242

fc1.weight f4 [64, 800]
00000000: 0457 59bd 8782 69bc aefb 76bd 0d77 17bc
00000010: ea94 1dbd 32ea 85bd 187b 15bd eee7 4fbd
00000020: d13f 72bd 2f30 aabc 0e6d 86bd ce12 4bbd
00000030: c6d7 26bd 3983 a5bc 876f 2abd d974 70bd
00000040: d6c1 0bbd 895f 87bc 6e5f 9bbc b84e a7bc
00000050: 19bf 8ebd 9c00 d5bb 6f00 20bd c00b d2bb
00000060: 6a8e 93bc 3122 5fbc 165c 853c c9b1 663a
00000070: 54a9 c7bc 0e9f 5bbc e34d 293c aa0d 88bc
00000080: a13f 1dbd 105c f8bc 28c6 793c 9e7e 2ebd
00000090: bdf0 a6bc 3dfc 063d 5cef 843c 6485 e4bb
000000a0: cbc4 82bc 197a 963c 7d78 e1bb ecaf 6fbc
000000b0: 5c14 70bd f164 31bd 5cff 00bd 98cc d73b
000000c0: dbcc a5bd 746e b1bc 694f dabc bd09 17bd
000000d0: 66d5 59bd fd1b 15bd 9933 c63b 97ba 0fbd
000000e0: 8dee e0bc 37ca cebc 1a07 0ebd 16ce 46bd
000000f0: 48a7 8c3c c8e7 623b 3dc4 0abd a7d0 91bc
00000100: 3075 39bd 5c8f b9bc 8456 cbbc fb50 edbc
00000110: 6e24 14bc 3a8a 2ebd 7781 06bb c39a 3cbc
00000120: 0d2d 1bbd e4f0 693a 5415 893c 20c6 a43e
00000130: 4a30 9bbd 8025 f8bd 94eb 8bbd 3cc9 bebd
00000140: 1ac5 803e b98e 0fbe e459 873e dd86 debc
00000150: 7940 3fbe 3435 753c 92ca 8abd c1e8 c8bd
00000160: fc11 34bd 6685 b4bc 825b f63e 32b4 9abd
00000170: 9f02 8b3d 1a1d b23d 66ff a63d a054 cabd
00000180: 3b54 833d 26ac 4d3d 4ebb 903e 029e a73d
00000190: 23d0 5b3e cc48 053e b04a c9bc fbf8 933d
000001a0: ebad a2bc 02e1 8c3e df64 9f3e dd9f f93c
000001b0: 88bd 4bbd 1455 92bc 44fb 28bc c3f4 d53d
000001c0: e501 12bd 78b5 4ebe 8e24 9abb 5091 243e
000001d0: 89ae 92bd f472 12bd 438b fdbe f245 fcbe
000001e0: 58b0 34bd 6827 43bb 8f63 ba3e 767d 803e
000001f0: 87f4 19bf 59dc 10bb ad8d da3c cfb6 57bd
00000200: df59 b5bc ab4f 4b3b 1cc7 5a3d ddaf 983d
00000210: c572 4a3c 12a0 3d3c 4148 80bd 4158 8bbc
00000220: 5f09 f5bd 1991 733e 4de3 9ebd e446 61be
00000230: 767d d43c ea35 1d3d 906d d73d cb23 353e
00000240: 675e c83c 907a e4bd bf28 5a3e a5cf 063f
00000250: 4827 cf3e 727b 953d 1e5c c4bd 0a70 323e
00000260: 6f2c 4e3e cb53 423e 7ce4 833d a300 dbbd
00000270: a94d f73d c570 e3bc e1e2 0dbc 0387 b8be
00000280: 5de0 013d b401 0f3d ca30 573e 9ae1 423b
00000290: 8bde 663d 7120 78be abdf 383c c894 7b3d
000002a0: 61c6 f03b fce9 223e d38f d7bc b118 4a3e
000002b0: 9e33 d93c 2157 8b3e adca 893e c4a8 d0bc
000002c0: 74fa dabc 92ee a43d 5d4a d2bb ec95 a73c
000002d0: 119a f63c 7e76 67bd 82cc a93b b313 12bd
000002e0: 5271 973c 22f3 f13c d535 0bbb 1725 46bb
000002f0: 0216 2ebd 95a9 a8bc 95ca 36bd f8f0 533c
00000300: 33f9 e23c 628a 50bc 1374 fdbc 23c6 9c3c
00000310: 8d75 b0bd b21a 7f3c cdf5 57bc 32eb 49bc
00000320: e5fc 8cbe 77ef 7dbd 2b8b e13d fd46 743d
00000330: dc6a ef3a d83a 523d 48bf 25bd ca60 6d3d
00000340: 9935 f9bc ee8b 62bd 601d ba3d 1ebc fbbd
00000350: c043 8c3d 3cb5 cdbc 43bb e93d 095d 61bb
00000360: 761f d6bc 4f10 04be 0179 ce3c b19f da3d
00000370: 57b6 78bd 7027 ce3d e5c6 d6bd 56b3 ad3b
00000380: 699b 923e 019c bfbe dc34 293d 13ce 3abe
00000390: 9bb2 073e 930d 903e 0a58 81be e0c9 5b3e
000003a0: 1278 aabd bd46 8bbe 60c5 6abd d579 82be
000003b0: ac84 52be 2773 e1ba 5788 24be 75fd 293e
000003c0: b85d 463e 674d 203c a9c7 393e e1a8 9b3e
000003d0: 6dd6 613e 7f10 543c 505e ba3e d10a 2b3e
000003e0: 41fa 1cbd 87cf 833e f449 523c b091 2d3b
000003f0: 624d ec3c 86e0 c3bc 9120 0fbd 985b 57bd
-0.0530615 -0.014252312 -0.060298614 -0.0092446925 -0.038472094 -0.0653881 -0.036494344 -0.050758295
-0.05914289 -0.020774929 -0.06563769 -0.04957848 -0.04073312 -0.020204173 -0.041610267 -0.058705185
-0.034120403 -0.016525047 -0.018966403 -0.020423278 -0.06970043 -0.006500317 -0.039062914 -0.006410092
-0.018012244 -0.013618992 0.016279262 0.0008800296 -0.024372734 -0.013404621 0.010333511 -0.016608078
-0.03839076 -0.030317336 0.015244998 -0.04260122 -0.020378465 0.032955397 0.016227417 -0.006973909
-0.015962979 0.018368768 -0.0068808184 -0.014629345 -0.058613166 -0.043309156 -0.03149353 0.006585669
-0.08095714 -0.021659113 -0.026649194 -0.03687452 -0.05318203 -0.036403645 0.0060486314 -0.035090055
-0.0274575 -0.025242908 -0.03467474 -0.048536383 0.01716961 0.0034623016 -0.033878554 -0.017799689
-0.045277774 -0.022651367 -0.024821527 -0.028969279 -0.009041889 -0.042612292 -0.0020523944 -0.011511507
-0.03788476 0.000892414 0.016733803 0.32182407 -0.0757757 -0.121165276 -0.06832042 -0.09315726
0.25150377 -0.14019288 0.2643577 -0.027163917 -0.18676938 0.014966298 -0.067769185 -0.09810019
-0.043962464 -0.022036266 0.4811669 -0.07553901 0.06787609 0.08696957 0.08154182 -0.09879422
0.0641255 0.050213 0.28267902 0.081844345 0.21466117 0.13016051 -0.024571747 0.07225224
-0.019858321 0.27515417 0.31131646 0.030471737 -0.049741298 -0.017862834 -0.010313813 0.10447075
-0.035646338 -0.20186412 -0.0047040647 0.16071057 -0.07162196 -0.03575416 -0.4952031 -0.49272114
-0.044113487 -0.0029778127 0.36404082 0.2509572 -0.60138744 -0.0022103994 0.026678884 -0.052664574
-0.02213758 0.0031022828 0.05341254 0.07455418 0.012356465 0.011573808 -0.06263781 -0.017009856
-0.11964678 0.23785819 -0.07758198 -0.21999699 0.02593873 0.038381495 0.10518944 0.17689435
0.024459077 -0.111561894 0.21304606 0.5266059 0.40459657 0.07298936 -0.095878825 0.17425552
0.20134138 0.18977277 0.06440064 -0.10693481 0.120753594 -0.027763734 -0.008660049 -0.36040506
0.03170811 0.034913734 0.21014705 0.002973652 0.056364577 -0.24231125 0.011283795 0.061421186
0.0073478674 0.1590957 -0.026313698 0.19735982 0.02651387 0.27214912 0.26912442 -0.025471099
-0.026730753 0.08053316 -0.006417556 0.02045723 0.030102761 -0.056509487 0.00518185 -0.035663318
0.018486653 0.02953488 -0.0021241803 -0.003023451 -0.042501457 -0.020588676 -0.04462679 0.012935869
0.027706718 -0.0127283055 -0.030939138 0.019137448 -0.08616171 0.0155703295 -0.013181162 -0.012324141
-0.27536693 -0.06199595 0.11012872 0.059638012 0.00182661 0.05132565 -0.040465623 0.057953633
-0.030421065 -0.05530923 0.09087634 -0.1229174 0.0684886 -0.025110833 0.114126705 -0.0034387729
-0.026138049 -0.12896846 0.025204184 0.1067499 -0.060720768 0.10066116 -0.10487155 0.0053009195
0.28634194 -0.3742371 0.041310176 -0.18242674 0.13251726 0.28135356 -0.2526248 0.21463728
-0.08323683 -0.27202407 -0.057317138 -0.25483575 -0.20558423 -0.0017200456 -0.16067635 0.16600592
0.19371688 0.009784079 0.1814257 0.30402282 0.22054453 0.012943386 0.3640008 0.16703345
-0.0383246 0.25744268 0.012835015 0.0026484542 0.028845493 -0.023910772 -0.034943167 -0.052577585

fc1.bias f4 [64]
00000000: abc9 b63d ebf6 0abd 6c2e 02bd 1461 dbbb
00000010: 8edc ca3c 67a4 ba3d 2678 aabc b208 513b
00000020: 8079 24bd 1634 6a3c a79a 71bd bc78 03bd
00000030: 8867 a4bc 6b81 75bd 0fac 3bbd 0031 38bc
00000040: e0c2 55bd 6aac 1a3e ec80 223b 047f 1cbd
00000050: c02c 663c 0a08 e9bb fe6e 5ebd aba6 79bd
00000060: 6de1 423d 9ee4 50bc 6554 c23d 43ab e33b
00000070: 6249 aabc 9fef 0e3e 09f8 08bb 09c7 093e
00000080: f69d 423d d757 053e 5792 1fbd 6319 9cbc
00000090: cd26 6ebd e5ac 45bd 48ea b4bc 113c 9d3c
000000a0: c621 1cbc afe1 d33c faa1 113e 24c8 863c
000000b0: 7e71 cd3d 66a4 a33b 785a 7ebd 170d cc3c
000000c0: e313 a43c 0b19 0ebd a6a0 083e cb40 c13c
000000d0: 9eb2 70bd 84ae 00bc d891 203c 0bd3 59bd
000000e0: feae f03d df31 33bd 9eb2 6f3a f549 373d
000000f0: d694 123d 189f 68bd bd3e be3d 866a e73d
0.08925184 -0.033926886 -0.031782553 -0.006694922 0.024763372 0.091133885 -0.020809244 0.0031896052
-0.040154934 0.014294645 -0.05898538 -0.032097563 -0.020068899 -0.059937876 -0.045818385 -0.011242151
-0.0521878 0.15104833 0.0024796082 -0.03820707 0.014048755 -0.007111554 -0.05430507 -0.060949963
0.047578264 -0.012749819 0.09488753 0.006947906 -0.020786945 0.13958596 -0.0020899794 0.13454832
0.047513925 0.1302179 -0.03895792 -0.019055074 -0.058142472 -0.04826059 -0.02208437 0.019193681
-0.009529537 0.02586445 0.14221945 0.016452856 0.100314125 0.004993963 -0.062097996 0.024908585
0.020029014 -0.03469185 0.13342533 0.023590466 -0.058764093 -0.007854108 0.009800397 -0.053179782
0.11752127 -0.043748733 0.00091437425 0.044748265 0.035786472 -0.05679235 0.0928931 0.112996146
