DRL-based-path-finding/saved_models/dqn_checkpoint_ep50.pth (torch, 981331 bytes, 32 tensors)

conv1.weight f4 [16, 2, 4, 4]
-0.26051277 -0.09021787 0.2930565 0.46600673 -0.041771874 -0.021108532 0.22098333 -0.17745252
0.56098133 0.21451499 -0.2362758 0.67328423 0.19475569 0.10729916 0.14613004 1.3628196
-0.063623324 0.06782187 -0.034980487 0.29300478 0.10658129 0.16332646 -0.26590893 0.002788605
-0.05185995 0.044695333 0.11703738 -0.10775735 -0.16958714 0.11026207 0.15119387 0.1415915
0.74355376 0.0033365022 -0.42040193 0.8709452 1.2384672 -0.2553048 0.040047858 0.2809045
1.1127895 0.6838612 -0.088182874 -0.25330082 0.12187919 0.44891185 0.17944808 0.08964805
0.049840067 0.053532794 0.06733565 0.051316746 -0.09210696 0.22115947 -0.01169562 0.06556273
0.072069235 0.018027112 0.12947053 -0.17138721 -0.15633775 0.0754588 0.19266695 0.11043045
0.47523767 -0.25037915 0.40086088 0.16796115 0.73129016 1.170634 0.39575025 0.47756296
0.8087347 -0.17113629 0.6650354 -0.1257822 0.118193924 0.09444936 0.9897195 -0.3239463
-0.0010993994 0.00016226033 0.08014696 0.029556066 -0.030992175 -0.107775286 0.027731506 -0.012980026
0.1299457 -0.082900204 -0.24054483 0.0051605077 0.14088698 -0.08481417 -0.0070500122 0.02590789
0.2961532 -0.2144496 -0.20226233 -0.1866914 -0.03261769 -0.19764052 -0.071867324 -0.21354859
-0.21980208 -0.12161071 -0.21627948 -0.2156038 0.14060046 -0.32670897 -0.19271265 -0.24070512
-0.21827807 0.16885497 0.0064962804 0.02643485 -0.025542265 0.014105215 -0.22869518 -0.23869467
-0.33050627 -0.32667044 -0.22908343 -0.26376933 -0.2797148 0.049444027 0.18817616 -0.10468515
-0.1574762 -0.2173601 0.6328834 -0.09408347 0.02983523 -0.4028583 -0.25164363 -0.2161231
-0.21575609 0.08094728 -0.34541762 -0.17776215 -0.081583805 0.18520357 -0.24215177 -0.18692635
-0.26269177 0.1540696 0.108406074 0.15523931 -0.015322137 0.07677841 0.073364355 -0.01684168
-0.100115195 0.25054923 -0.43422443 -0.43617955 -0.027055753 0.048235502 -0.44395933 -0.10933772
-0.21412268 -0.020922784 -0.14570472 -0.3406658 -0.21587011 -0.40318453 -0.26232716 -0.43055332
-0.25015333 0.15945895 -0.52649987 0.1982329 -0.2401555 -0.0413179 -0.18216595 -0.006682668
0.023260856 -0.27009574 -0.105838306 0.12695102 0.045590743 0.013996597 0.1359415 -0.254766
0.17884092 0.04358579 -0.15403464 0.12341423 -0.086702764 -0.2086081 0.16947186 0.056240365
0.4795915 0.28763992 0.46043247 0.7724874 0.5525624 0.56244093 -0.113868594 0.6891933
0.47145522 0.63910466 0.47866592 0.7216003 -1.0477567 -1.0417817 0.70418084 0.20152679
-0.45765445 -0.18301977 0.0107689835 0.033719894 -0.048778165 -0.08596049 0.113082975 -0.08556794
-0.04311881 0.17153874 0.04155469 -0.05930436 0.19902216 0.09228379 0.02287364 -0.00069250865
-0.37831926 -0.2340365 -0.13967337 -0.23906481 0.41797388 0.02654325 0.03242599 0.47459492
-0.2347615 -0.1542467 -0.22665714 1.0232596 -0.58772343 0.42267364 -0.52702564 0.6683579
-0.027976682 -0.09842435 -0.06542859 0.04630105 0.19205576 0.15085524 -0.0496916 -0.025297571
-0.021735396 0.031126084 0.033378486 -0.20302331 -0.04270524 0.15960339 -0.089239515 0.029199088
00000000: ee61 85be 26c4 b8bd 800b 963e 6f98 ee3e
00000010: fc18 2bbd cdeb acbc 7449 623e 1db6 35be
00000020: 799c 0f3f d1a9 5b3e 49f2 71be 5b5c 2c3f
00000030: 096e 473e a9bf db3d 1da3 153e df70 ae3f
00000040: f24c 82bd 31e6 8a3d b347 0fbd b904 963e
00000050: 4b47 da3d 0d3f 273e 3725 88be 07c1 363b
00000060: 196b 54bd 7412 373d 4bb1 ef3d e3af dcbd
00000070: 40a8 2dbe 15d1 e13d 91d2 1a3e 5dfd 103e
00000080: 8a59 3e3f 38a9 5a3b ec3e d7be 44f6 5e3f
00000090: 1886 9e3f 50b7 82be 3909 243d b7d2 8f3e
000000a0: e36f 8e3f 8711 2f3f 3999 b4bd a5b0 81be
000000b0: cc9b f93d c6d7 e53e 3dc1 373e 6699 b73d
000000c0: 1925 4c3d 3445 5b3d 46e7 893d 8231 523d
000000d0: 93a2 bcbd a177 623e fc9e 3fbc c145 863d
000000e0: 0999 933d 98ad 933c ec93 043e 2180 2fbe
000000f0: 0117 20be 258a 9a3d 7c4a 453e 5c29 e23d
00000100: 5a52 f33e b231 80be a33d cd3e 02fe 2b3e
00000110: d535 3b3f 56d7 953f c79f ca3e 2283 f43e
00000120: 3d09 4f3f 5a3e 2fbe c33f 2a3f 0dcd 00be
00000130: a80f f23d ab6e c13d 425e 7d3f 4adc a5be
00000140: b919 90ba 6d24 2a39 1724 a43d 901f f23c
00000150: 4de3 fdbc 4ab9 dcbd 2f2d e33c 2daa 54bc
00000160: 7c10 053e 95c7 a9bd 6251 76be 7a19 a93b
00000170: ad44 103e 0db3 adbd ca03 e7bb c93c d43c
00000180: 64a1 973e ad98 5bbe db1d 4fbe 082c 3fbe
00000190: 209a 05bd 4762 4abe 2d2f 93bd 7bac 5abe
000001a0: cc13 61be 090f f9bd 5e78 5dbe 3ec7 5cbe
000001b0: 91f9 0f3e 6646 a7be 7756 45be 677b 76be
000001c0: 4984 5fbe 51e8 2c3e c0de d43b e68d d83c
000001d0: 033e d1bc 8f19 673c 122f 6abe 606c 74be
000001e0: 1e38 a9be 5941 a7be d994 6abe c60c 87be
000001f0: c736 8fbe d285 4a3d 40b1 403e 2b65 d6bd
00000200: 7141 21be a593 5ebe a604 223f d6ae c0bd
00000210: 0369 f43c 7143 cebe 6fd7 80be 604f 5dbe
00000220: 2aef 5cbe b0c7 a53d 94da b0be 4807 36be
00000230: 6915 a7bd 01a6 3d3e a2f6 77be 9f69 3fbe
00000240: 897f 86be 6cc4 1d3e 0104 de3d 0ef7 1e3e
00000250: b309 7bbc 003e 9d3d 0d40 963d 90f7 89bc
00000260: 3209 cdbd fd47 803e aa52 debe ed52 dfbe
00000270: 07a4 ddbc 9792 453d a34e e3be 74ec dfbd
00000280: fa42 5bbe 4266 abbc 9e33 15be bf6b aebe
00000290: 0e0d 5dbe 346e cebe bf4f 86be 7c71 dcbe
000002a0: 1914 80be 3549 233e b2c8 06bf 91fd 4a3e
000002b0: 53eb 75be f53c 29bd b689 3abe 48fa dabb
000002c0: 8d8d be3c fd49 8abe c1c1 d8bd 73ff 013e
000002d0: 5cbd 3a3d fc51 653c 4034 0b3e b070 82be
000002e0: 1322 373e 0387 323d 42bb 1dbe 9ac0 fc3d
000002f0: 3891 b1bd 5d9d 55be 088a 2d3e 4c5c 663d
00000300: 048d f53e 8a45 933e cebd eb3e bcc1 453f
00000310: bb74 0d3f 21fc 0f3f f033 e9bd f96e 303f
00000320: 9462 f13e 5d9c 233f b313 f53e ccba 383f
00000330: e41c 86bf 1a59 85bf 3245 343f 0a5d 4e3e
00000340: af51 eabe 8969 3bbe 6470 303c df1d 0a3d
00000350: 9dcb 47bd 0e0c b0bd 0c98 e73d 3e3e afbd
00000360: 599d 30bd daa7 2f3e 4035 2a3d 21e9 72bd
00000370: 77cc 4b3e 49ff bc3d 8061 bb3c 7889 35ba
00000380: 10b3 c1be 44a7 6fbe 8906 0fbe 68cd 74be
00000390: ac00 d63e 3b71 d93c 1dd1 043d 1bfe f23e
000003a0: 5265 70be d9f2 1dbe cf18 68be 2cfa 823f
000003b0: 0b75 16bf ae68 d83e 27eb 06bf 8119 2b3f
000003c0: 5b2f e5bc b592 c9bd 6dff 85bd 2ba6 3d3d
000003d0: 44aa 443e cc79 1a3e 6b89 4bbd da3c cfbc
000003e0: 6e0e b2bc 21fc fe3c e1b7 083d 58e5 4fbe
000003f0: b1eb 2ebd 126f 233e 35c3 b6bd ed32 ef3c

conv1.bias f4 [16]
-0.068782516 -0.03646776 0.021515206 0.0064336276 -0.040873304 0.21916197 0.057721402 0.1521264
0.013139783 0.16581523 0.2289284 0.087663025 0.16740851 0.01168046 0.11060213 0.0441789
00000000: d9dd 8cbd 385f 15bd a840 b03c 2ed1 d23b
00000010: c46a 27bd ff6b 603e 476d 6c3d 06c7 1b3e
00000020: 3f48 573c 78cb 293e 356c 6a3e ac88 b33d
00000030: 236d 2b3e 665f 3f3c 5f83 e23d eff4 343d

conv2.weight f4 [32, 16, 4, 4]
-0.115274735 -0.06954255 -0.052974366 -0.03803703 -0.057141032 -0.11292757 -0.029668 -0.13503596
-0.16428378 0.05435358 0.032197397 0.073168695 0.3464767 -0.2420951 -0.044867806 -0.08777071
-0.14370057 -0.0049097887 -0.06490138 -0.044089183 -0.059452854 -0.059582666 -0.08735305 -0.057419874
-0.052391905 0.010547446 -0.049839713 0.07792676 -0.1107747 -0.16989397 -0.0946581 -0.12115025
-0.05726296 -0.019635173 -0.100885555 -0.09235606 -0.029048948 -0.055978645 -0.09878096 -0.077046104
-0.03201427 -0.07846926 0.052546613 -0.05645331 -0.12863034 -0.020361615 -0.008672067 -0.061643273
-0.03702998 -0.02456652 -0.023453452 -0.023554234 -0.09169096 0.012155352 -0.0013442854 -0.10817627
-0.0081778 -0.032494403 -0.057971954 -0.016728804 -0.07458926 -0.072677635 -0.07898625 -0.10728202
-0.06986508 -0.056406952 -0.03553453 -0.1374468 -0.033910245 -0.0891394 -0.1096883 -0.0913591
-0.036883596 -0.031502113 -0.00014575338 0.012053113 -0.040922903 0.046085935 -0.046934854 -0.020490475
-0.012635449 -0.06109378 -0.040837582 -0.0840248 0.0181378 0.006286013 -0.061131224 -0.08336005
0.01033319 0.0067565856 -0.0081342235 -0.037057117 -0.043915015 -0.02590459 0.009212941 0.011606013
-0.10157744 -0.04180672 -0.0970882 -0.079422064 -0.11226853 -0.041672595 -0.15740389 -0.031392824
-0.0741151 0.0066856006 -0.005978196 -0.068013735 -0.109285034 0.023515401 -0.14547402 -0.10189725
-0.015772887 -0.047382914 0.0016101102 0.018041786 -0.07824457 -0.0317423 -0.08603218 -0.040060624
-0.030154655 -0.0006849335 -0.078667894 0.00052224105 -0.06284089 -0.039600585 -0.05911248 -0.081009865
-0.060909458 -0.107019216 -0.04097414 -0.12024316 0.002127397 -0.06159299 -0.071727715 -0.114721805
-0.06371906 -0.10920711 -0.10150938 -0.07840277 -0.17766011 -0.1595096 0.04630337 -0.063546225
-0.0117570255 0.006320236 -0.04464467 -0.0088857785 -0.03879352 -0.058014795 -0.010962065 -0.06099342
-0.05787064 -0.055850208 -0.11379696 -0.07618641 -0.013552698 -0.11321349 0.014488175 -0.07050029
-0.04496111 -0.08137346 -0.07967446 0.018481981 -0.008943779 -0.08252696 -0.085515015 -0.06542162
-0.00061034836 -0.07319472 0.026444413 -0.007899318 -0.014288753 -0.037543345 0.011193775 -0.040425453
-0.065044425 -0.05395876 -0.008143703 -0.04861418 -0.07362436 0.014235444 -0.07380937 -0.072224855
-0.04964263 0.008369882 -0.025839169 -0.09181653 -0.051969115 -0.08803122 -0.07885207 -0.09907284
-0.031589057 -0.03306041 -0.0072888015 -0.008423703 -0.06815598 -0.038802184 -0.00465748 -0.08436327
0.0137330685 -0.101938255 -0.039213076 -0.07777866 -0.009312169 -0.103619546 -0.074139655 -0.008905493
-0.043080043 0.0054869056 -0.1089586 -0.05000794 -0.008874678 -0.0771701 0.022084974 -0.087388836
-0.13355368 -0.038339153 -0.09230227 -0.13523841 -0.048502855 -0.067625515 -0.09506708 -0.07861403
-0.015402801 -0.0009314334 -0.054596357 -0.077808574 -0.115113534 -0.12916517 0.02404262 -0.052091278
-0.03732353 0.03089864 -0.10203398 -0.077137485 -0.046743166 -0.13546585 -0.029916976 -0.10824303
-0.108900234 -0.066484354 -0.04362963 -0.06503739 -0.082922556 -0.11561121 -0.0022094117 -0.0053542163
-0.09493191 -0.013702998 0.035377353 -0.05361384 -0.057864975 -0.085495025 -0.046401627 -0.013752897
00000000: 2915 ecbd 536c 8ebd a6fb 58bd b7cc 1bbd
00000010: b70c 6abd 9246 e7bd 4e0a f3bc de46 0abe
00000020: 023a 28be dca1 5e3d 6be1 033d 78d9 953d
00000030: 6565 b13e c7e7 77be 4ec7 37bd 21c1 b3bd
00000040: 3e26 13be 4be2 a0bb 04eb 84bd dc96 34bd
00000050: d684 73bd f40c 74bd 28e6 b2bd 1a31 6bbd
00000060: e598 56bd 32cf 2c3c ba24 4cbd 1198 9f3d
00000070: d9dd e2bd aff8 2dbe 1bdc c1bd 9f1d f8bd
00000080: 918c 6abd f1d9 a0bc 169d cebd 2d25 bdbd
00000090: 0ff8 edbc dd49 65bd ac4d cabd 59ca 9dbd
000000a0: 6521 03bd 7eb4 a0bd 1e3b 573d 963b 67bd
000000b0: acb7 03be 67cd a6bc 4915 0ebc a87d 7cbd
000000c0: c0ac 17bd ba3f c9bc 7421 c0bc cff4 c0bc
000000d0: 78c8 bbbd 3e27 473c bc32 b0ba 858b ddbd
000000e0: 2efc 05bc da18 05bd 0074 6dbd d80a 89bc
000000f0: 41c2 98bd 03d8 94bd 8bc3 a1bd adb6 dbbd
00000100: 6c15 8fbd fa0a 67bd a88c 11bd dbbe 0cbe
00000110: 78e5 0abd b88e b6bd 42a4 e0bd 7b1a bbbd
00000120: 4113 17bd 5c08 01bd 60d5 18b9 6c7a 453c
00000130: c69e 27bd 9bc4 3c3d c33e 40bd a4db a7bc
00000140: ea04 4fbc 793d 7abd 4f45 27bd 3215 acbd
00000150: b995 943c e6fa cd3b bc64 7abd adb8 aabd
00000160: 8a4c 293c 5966 dd3b 6845 05bc 34c9 17bd
00000170: 3be0 33bd dd35 d4bc e0f1 163c 2627 3e3c
00000180: d507 d0bd 863d 2bbd 2ed6 c6bd 09a8 a2bd
00000190: 0bed e5bd e2b0 2abd 7c2e 21be c395 00bd
000001a0: a8c9 97bd e212 db3b bee4 c3bb c94a 8bbd
000001b0: d5d0 dfbd 5fa3 c03c 24f7 14be 81af d0bd
000001c0: 2436 81bc 9614 42bd 550a d33a 5ecc 933c
000001d0: b03e a0bd 3704 02bd a431 b0bd 9c16 24bd
000001e0: e506 f7bc 1c8d 33ba a21c a1bd 01e7 083a
000001f0: b9b2 80bd 3934 22bd ee1f 72bd 80e8 a5bd
00000200: 327c 79bd e42c dbbd 80d4 27bd 0c42 f6bd
00000210: cd6b 0b3b ee48 7cbd fbe5 92bd 44f3 eabd
00000220: 237f 82bd faa7 dfbd 26e4 cfbd a291 a0bd
00000230: 88ec 35be 7c56 23be 9aa8 3d3d 8624 82bd
00000240: 8aa0 40bc fb19 cf3b 54dd 36bd a895 11bc
00000250: f4e5 1ebd eca0 6dbd 3c9a 33bc 3dd4 79bd
00000260: c409 6dbd 30c3 64bd 610e e9bd 9f07 9cbd
00000270: 230c 5ebc 79dc e7bd cf5f 6d3c 7562 90bd
00000280: 2429 38bd 21a7 a6bd 5d2c a3bd 8667 973c
00000290: ee88 12bc e503 a9bd 7f22 afbd c5fb 85bd
000002a0: c9ff 1fba 1de7 95bd f4a1 d83c 246c 01bc
000002b0: 601b 6abc 0dc7 19bd 1866 373c 2995 25bd
000002c0: 0336 85bd dc03 5dbd 2b6d 05bc aa1f 47bd
000002d0: 5ec8 96bd c83b 693c 5e29 97bd a0ea 93bd
000002e0: 1256 4bbd d421 093c aaac d3bc 4e0a bcbd
000002f0: 91dd 54bd b649 b4bd 327d a1bd b3e6 cabd
00000300: 8763 01bd 5a6a 07bd e6d6 eebb 9203 0abc
00000310: 5d95 8bbd 0aef 1ebd c69d 98bb a6c6 acbd
00000320: aa00 613c 01c5 d0bd e49d 20bd 6b4a 9fbd
00000330: 1192 18bc 7c36 d4bd 88d6 97bd 58e8 11bc
00000340: b374 30bd 80cb b33b b025 dfbd 20d5 4cbd
00000350: 1967 11bc 5b0b 9ebd 8ceb b43c ebf8 b2bd
00000360: 4cc2 08be 8409 1dbd f908 bdbd f07b 0abe
00000370: eeaa 46bd 3f7f 8abd 87b2 c2bd 6400 a1bd
00000380: 085c 7cbc 702b 74ba 6ea0 5fbd 1a5a 9fbd
00000390: a5c0 ebbd e043 04be 07f5 c43c aa5d 55bd
000003a0: 8fe0 18bd 251f fd3c 31f7 d0bd 42fa 9dbd
000003b0: c375 3fbd 8fb7 0abe 7214 f5bc 86ae ddbd
000003c0: 1607 dfbd f328 88bd fcb4 32bd 5332 85bd
000003d0: 4dd3 a9bd 92c5 ecbd c7cb 10bb 6c72 afbb
000003e0: a96b c2bd 8a82 60bc d8e7 103d 309a 5bbd
000003f0: d303 6dbd 0418 afbd a20f 3ebd d553 61bc

conv2.bias f4 [32]
0.050592568 -0.07140335 0.03224873 -0.01712476 0.1762278 -0.028037632 0.16698527 0.05305942
-0.06960972 0.14541781 0.09021841 0.18988767 -0.015948944 -0.02600199 -0.015381325 0.14099814
0.13018146 0.048897512 -0.07394834 0.05981858 0.02733866 0.11762875 0.070976906 0.15388384
0.15706441 -0.03970917 0.12318053 0.13325304 0.14310308 0.07945772 0.016813636 -0.097884715
00000000: 273a 4f3d eb3b 92bd 3f17 043d 3a49 8cbc
00000010: 0f75 343e 2daf e5bc 30fe 2a3e d654 593d
00000020: 8a8f 8ebd 68e8 143e 6ec4 b83d ea71 423e
00000030: 5ca7 82bc 2002 d5bc f401 7cbc d161 103e
00000040: 4a4e 053e c248 483d 3a72 97bd 5404 753d
00000050: 53f5 df3c 58e7 f03d 575c 913d ba93 1d3e
00000060: 7ed5 203e 15a6 22bd 1346 fc3d 7c73 083e
00000070: 9d89 123e bbba a23d c0bc 893c c877 c8bd

fc1.weight f4 [64, 800]
0.009717605 0.025853587 -0.041942652 -0.032775443 0.0009418006 0.05268887 -0.025673868 -0.026601005
0.002847738 0.027113749 -0.033603583 0.04969288 0.017427795 0.014647944 -0.049573556 -0.063386954
-0.053320486 -0.0019223895 -0.006281116 -0.007524953 0.033843424 -0.05267064 -0.040716156 0.063387804
-0.08249243 0.007840454 0.018051647 0.043435626 0.01738235 -0.01708195 0.02265561 -0.028944075
0.00858983 -0.033967223 0.010121547 0.0024309298 0.027401198 0.0027090125 -0.02154934 -0.018550042
-0.015029337 0.025350433 -0.013798136 -0.029033158 0.007986788 0.0032882355 -0.016350474 0.03605191
-0.03510231 -0.02640703 0.2993001 -0.13306816 -0.53901744 -0.29183742 0.156825 -0.23536438
-0.030551841 -0.10648108 -0.11301227 -0.45907038 0.10241192 0.06656175 -0.2849698 0.1997089
0.015036257 -0.34382397 0.07096279 -0.12790585 0.09221978 0.050477754 0.07020463 -0.025759269
-0.050073653 -0.19079605 0.25661078 0.013035491 0.0066601075 -0.017187966 0.0087962635 -0.0007969998
0.0057980567 -0.013431953 0.011720203 -0.012814451 -0.011286544 0.019609202 -0.00036907196 0.014387116
-0.029130053 0.03531612 0.011035219 -0.009107197 -0.021990713 -0.014758886 0.032533903 0.02196538
-0.02678456 0.035164278 -0.021244578 -0.0017397664 0.09532235 0.05381884 0.05485178 -0.12476729
0.13451004 0.09824477 0.11575865 0.0659829 0.011787107 0.22116388 0.13271894 0.07288807
0.08995488 0.095564164 0.212387 0.14814255 0.11828514 0.09723345 0.025730014 0.12592071
0.16043846 0.085160546 0.034240376 0.039997824 -0.03792625 -0.027936025 -0.017994542 -0.030184824
0.022782177 -0.0042550582 -0.03426512 0.0002615489 -0.031308737 -0.0023425557 0.026515394 -0.009247562
-0.023009252 0.002106987 -0.004104458 0.0067426786 0.0024595037 0.029611621 0.025976531 -0.026705809
0.0023209043 -0.02244743 0.005942289 -0.03316327 0.02378117 -0.013739621 0.1754402 0.07444018
0.09374139 -0.040213473 0.09862489 0.13235062 0.10341747 0.085618205 0.006077896 0.11918098
0.10350169 0.09680175 0.1022062 0.107818045 0.18993588 0.16114473 0.12603816 0.047186125
0.044008914 0.1062695 0.19564904 0.08920599 0.065653004 0.08910647 -0.35454452 0.0131851025
-0.08392348 0.27011043 -0.10167306 -0.1639611 0.06790692 0.029312264 0.09586332 -0.11459753
-0.19398151 0.023779033 -0.08480968 0.056344613 0.08622325 -0.013327387 0.017020863 -0.01901309
0.0864639 0.07281594 0.30391508 0.06453561 0.1377737 -0.0037495708 -0.008963724 -0.050588746
0.0053741448 -0.01914237 0.030279506 0.007757131 0.020005237 -0.0061730556 -0.01195485 0.013281468
-0.0067099817 -0.034887847 0.012960974 -0.009853613 0.027864974 0.011785902 0.01682233 0.020389207
0.025234077 0.011301193 -0.015174793 -0.031348787 0.020773321 0.020907644 -0.0075661335 -0.03246267
0.03345168 0.023070924 0.08983408 0.0036664424 0.07858328 0.0044932067 0.0009528913 0.04091312
0.027837673 0.04570104 0.07354078 0.14484492 0.079368345 0.051525563 0.019422418 0.015250421
0.14522067 0.117342174 -0.13035761 0.09617041 -0.4806633 0.20866248 -0.00081679947 -0.114612915
0.099794865 0.03441332 -0.06596617 0.23520748 -0.063976996 -0.061948147 -0.49376658 -0.11977921
00000000: 9736 1f3c e7ca d33c 0fcc 2bbd 8b3f 06bd
00000010: 2be3 763a 49d0 573d 0152 d2bc 5aea d9bc
00000020: 1ea1 3a3b a71d de3c e9a3 09bd c38a 4b3d
00000030: bcc4 8e3c eefd 6f3c a40d 4bbd 05d1 81bd
00000040: 9566 5abd b0f8 fbba d2d1 cdbb e293 f6bb
00000050: 679f 0a3d 2bbd 57bd fcc5 26bd 77d1 813d
00000060: cbf1 a8bd 3f75 003c 0ce1 933c 8ee9 313d
00000070: 6e65 8e3c 72ef 8bbc 4298 b93c 201c edbc
00000080: 5cbc 0c3c 3721 0bbd d8d4 253c 3c50 1f3b
00000090: 7a78 e03c b089 313b 3e88 b0bc 42f6 97bc
000000a0: 9c3d 76bc b6ab cf3c 9411 62bc f2d6 edbc
000000b0: 04db 023c 707f 573b 6ef1 85bc 2bab 133d
000000c0: 71c7 0fbd 8e53 d8bc dd3d 993e 0543 08be
000000d0: 0cfd 09bf b76b 95be bc96 203e 5c03 71be
000000e0: db47 fabc c112 dabd fa72 e7bd 460b ebbe
000000f0: 57bd d13d 8751 883d 90e7 91be 7d80 4c3e
00000100: a25a 763c b209 b0be f054 913d c0f9 02be
00000110: b9dd bc3d c3c1 4e3d 72c7 8f3d 1a05 d3bc
00000120: 081a 4dbd 0a60 43be 7d62 833e d092 553c
00000130: 083d da3b c7cd 8cbc 341e 103c c0ed 50ba
00000140: a0fd bd3b b211 5cbc 1806 403c b4f3 51bc
00000150: 32eb 38bc 7aa3 a03c 0080 c1b9 f0b7 6b3c
00000160: 26a2 eebc a3a7 103d 10cd 343c 5a36 15bc
00000170: de25 b4bc 41cf 71bc 4542 053d bef0 b33c
00000180: 4b6b dbbc 6b08 103d 1c09 aebc e008 e4ba
00000190: 5d38 c33d 2571 5c3d 43ac 603d fe85 ffbd
000001a0: 00bd 093e 8e34 c93d df12 ed3d 0b22 873d
000001b0: b61e 413c c978 623e 79e7 073e 5746 953d
000001c0: 443a b83d 25b7 c33d fa7b 593e aeb2 173e
000001d0: 7b3f f23d 5522 c73d c0c7 d23c 5cf1 003e
000001e0: fb49 243e a768 ae3d a33f 0c3d c2d4 233d
000001f0: 8e58 1bbd 17da e4bc 4a69 93bc 2a46 f7bc
00000200: b0a1 ba3c 046e 8bbb 9559 0cbd 8020 8939
00000210: 973d 00bd 9085 19bb d036 d93c 1683 17bc
00000220: e67d bcbc 6015 0a3b b07e 86bb b0f1 dc3b
00000230: a02f 213b 1294 f23c bccc d43c 24c6 dabc
00000240: 501a 183b ace3 b7bc 88b7 c23b 36d6 07bd
00000250: bad0 c23c 261c 61bc 99a6 333e 1874 983d
00000260: 7cfb bf3d e2b6 24bd d9fb c93d ec86 073e
00000270: 8acc d33d 9958 af3d 1629 c73b 2815 f43d
00000280: b2f8 d33d ff3f c63d 7c51 d13d b5cf dc3d
00000290: 8d7e 423e 2003 253e 2610 013e 3d46 413d
000002a0: b142 343d d3a3 d93d 3958 483e a1b1 b63d
000002b0: 1575 863d 747d b63d dc86 b5be 5406 583c
000002c0: 13e0 abbd ea4b 8a3e f739 d0bd 6be5 27be
000002d0: c912 8b3d 4620 f03c fd53 c43d 1cb2 eabd
000002e0: 17a3 46be 3fcc c23c b3b0 adbd 9cc9 663d
000002f0: d195 b03d 1d5b 5abc 566f 8b3c 57c1 9bbc
00000300: fc13 b13d 8620 953d c29a 9b3e 3f2b 843d
00000310: 8c14 0d3e 5cbb 75bb 95dc 12bc 2536 4fbd
00000320: 9819 b03b 76d0 9cbc ba0c f83c 882f fe3b
00000330: 06e2 a33c 5847 cabb 46de 43bc 849a 593c
00000340: 68df dbbb 8fe6 0ebd 445a 543c 0c71 21bc
00000350: 1645 e43c a819 413c fcce 893c 4407 a73c
00000360: b2b7 ce3c a428 393c b29f 78bc 9667 00bd
00000370: d02c aa3c 8246 ab3c 54ed f7bb 94f7 04bd
00000380: a104 093d 3cff bc3c eefa b73d b248 703b
00000390: 45f0 a03d c03b 933b 74cb 793a 8494 273d
000003a0: d50b e43c 0431 3b3d 8c9c 963d 3a52 143e
000003b0: df8b a23d 780c 533d c31b 9f3c e7dc 793c
000003c0: bab4 143e 1851 f03d 777c 05be fef4 c43d
000003d0: 8019 f6be 9eab 553e 7c1e 56ba 2dba eabd
000003e0: 4061 cc3d fbf4 0c3d 4519 87bd 3bda 703e
000003f0: 5f06 83bd 57bd 7dbd f9ce fcbe cd4e f5bd

fc1.bias f4 [64]
0.14652051 -0.013182189 0.035730798 -0.038947675 0.026682626 -0.017308373 -0.008457868 7.003849e-05
-0.05134737 -0.023249473 0.10981009 0.065559946 0.14061594 0.043745738 -0.04915335 -0.037084576
0.11866075 0.09357884 -0.05830133 -0.029673703 -0.051773354 -0.023527458 -0.01695893 -0.05404989
-0.020591125 0.10427904 0.11604835 0.019413162 -0.021805456 0.025247624 -0.033272248 -0.0006554919
-0.037218086 0.06823281 -0.009020073 -0.006088222 0.05080243 -0.016554888 0.1321262 -0.020875337
-0.012876073 -0.006299864 -0.014101975 0.11795234 0.100685865 0.0015201493 -0.04139377 0.10855652
0.13549414 0.005886338 0.035179786 0.14307895 0.13663897 0.023990696 -0.01186201 -0.0058662607
-0.04561398 -0.015051854 -0.03634312 0.024054479 -0.02638621 0.11896641 0.016971875 -0.019947054
00000000: 7909 163e 1cfa 57bc 755a 123d 9987 1fbd
00000010: 8695 da3c 4aca 8dbc df92 0abc a1e1 9238
00000020: 9f51 52bd ae75 bebc 1de4 e03d 4b44 863d
00000030: a0fd 0f3e bb2e 333d 0655 49bd ffe5 17bd
00000040: 6804 f33d 43a6 bf3d 60cd 6ebd 4416 f3bc
00000050: 4c10 54bd a8bc c0bc 74ed 8abc 6b63 5dbd
00000060: b8ae a8bc 4090 d53d c2aa ed3d 5a08 9f3c
00000070: 5ba1 b2bc 1bd4 ce3c 7b48 08bd 51d5 2bba
00000080: fe71 18bd a5bd 8b3d eec8 13bc b57f c7bb
00000090: 3516 503d 1e9e 87bc 174c 073e c102 abbc
000000a0: 2af6 52bc 176f cebb f80b 67bc ff90 f13d
000000b0: 6434 ce3d bf3f c73a 848c 29bd e152 de3d
000000c0: fabe 0a3e 2fe2 c03b ae18 103d 4a83 123e
000000d0: 16eb 0b3e 2388 c43c e058 42bc c339 c0bb
000000e0: bad5 3abd 0d9c 76bc 86dc 14bd e60d c53c
000000f0: e527 d8bc a9a4 f33d 9a08 8b3c 0168 a3bc

fc4.weight f4 [8, 64]
-0.03493038 -0.096358016 0.030072398 -0.028272193 0.16466574 -0.08421509 0.10559988 0.21536444
-0.049528405 0.08873087 -0.08852667 -0.10291804 -0.1315195 0.120532416 0.064802304 0.03931579
-0.29259688 -0.33815604 -0.032453086 0.010021858 0.0036692517 -0.025515467 0.00054640375 0.07583662
0.12442517 0.3514211 -0.15472817 -0.09931394 0.098760225 0.104096055 -0.030876787 0.071992286
-0.0074000764 0.25758836 -0.059356134 -0.010309403 0.2697275 0.029819814 -0.07361627 -0.021492107
0.05183219 0.053118102 0.1026088 -0.20389917 -0.32022706 -0.07343286 0.010266909 0.27212077
-0.09726744 0.10059867 0.036873695 -0.30455142 0.17597975 0.030673366 -0.074161515 0.06967117
-0.024923515 0.08106461 -0.019723922 -0.11214226 -0.07841589 0.05783178 0.06025887 -0.013707756
-0.14063984 0.08546404 -0.03217624 -0.088260636 -0.088447794 -0.07256653 -0.021650776 0.28555122
-0.039597236 -0.0410787 -0.41578007 -0.036094896 0.07252241 0.2581324 -0.0017841818 0.05975914
0.017383525 0.08650111 0.056973565 -0.04214901 0.03573308 -0.037533745 0.08315217 -0.02209032
0.30370814 -0.21032678 -0.00034094043 -0.04137723 0.0488323 0.038727745 -0.046597585 0.101321146
0.023820937 -0.11980678 0.07553592 -0.11780524 0.16275878 0.01717373 -0.29415432 0.03276509
0.07103069 -0.017008211 0.16468827 -0.24101192 -0.07787034 -0.12360183 -0.055357613 0.09106034
-0.41744226 0.019931452 -0.35410237 -0.32909843 -0.09580352 0.07233254 -0.05916792 0.112894714
-0.101699114 -0.024135312 0.04874365 -0.0013350165 -0.045227412 0.11618415 0.024802363 0.019393325
-0.24623139 -0.10946903 0.063550256 0.009823402 -0.07737751 -0.051575802 0.110781565 0.27320763
-0.019222543 -0.08041908 -0.23596714 0.0487661 -0.44770792 0.03800097 0.031791165 0.05843465
0.043960404 -0.24941583 -0.03697566 -0.070880026 0.14046706 0.05342415 -0.09134584 -0.03718722
0.2056084 0.26511532 0.016274668 -0.054537214 -0.027910842 0.025978785 -0.062242538 0.074645996
-0.0949633 -0.007136091 -0.03182907 0.013203713 0.45881972 -0.053993296 -0.003789151 0.04537075
-0.022435253 0.002999265 -0.14246434 -0.15432183 -0.17912515 -0.08566294 -0.1160913 0.13418958
-0.10085728 0.082495674 0.31331795 -0.12465144 -0.059496913 0.09918133 0.042695332 -0.091250554
-0.109501496 0.045282796 -0.10485998 -0.042278722 0.08285366 -0.016115878 -0.0026636694 0.052779485
0.20010975 -0.11996514 0.0021183607 0.06883503 0.040646184 -0.09902149 0.11712815 0.31308207
0.07389252 -0.069470644 -0.06801479 0.13060935 -0.15895721 -0.1930603 -0.021270499 -0.049917884
0.19345775 0.0017604618 -0.11693515 0.07905953 0.14118245 0.026789583 -0.00065328594 0.08671488
0.03236539 -0.27323693 -0.26697674 0.06570985 0.008668327 0.062789574 0.014525861 0.030726824
-0.065717325 0.21734329 0.008119013 -0.08407499 0.14172259 0.05871504 -0.39799428 -0.0704079
0.0798297 0.040798437 0.05106046 -0.00041130598 -0.3072875 0.033216402 -0.042559158 0.58214474
0.16420932 0.08137046 0.1822484 -0.13798968 -0.557381 0.004056032 -0.11343588 -0.11833267
0.0141727775 -0.10468623 0.04919167 0.032038193 -0.0014900885 0.20710418 0.020570705 -0.05959643
00000000: 2813 0fbd 5a57 c5bd 645a f63c 169b e7bc
00000010: 239e 283e f678 acbd c044 d83d 7f88 5c3e
00000020: 4cde 4abd 88b8 b53d 794d b5bd b1c6 d2bd
00000030: 0cad 06be b3d9 f63d 12b7 843d 9809 213d
00000040: 42cf 95be ca22 adbe 87ed 04bd b832 243c
00000050: d477 703b d005 d1bc 893c 0f3a 3b50 9b3d
00000060: a0d2 fe3d 77ed b33e 1071 1ebe 1b65 cbbd
00000070: cd42 ca3d 5030 d53d 51f1 fcbc b170 933d
00000080: 577c f2bb 9fe2 833e 6b1f 73bd c5e8 28bc
00000090: b919 8a3e af48 f43c 21c4 96bd 3710 b0bc
000000a0: fe4d 543d 5e92 593d 9024 d23d f2ca 50be
000000b0: cdf4 a3be f863 96bd 8a36 283c 6a53 8b3e
000000c0: 2734 c7bd ad06 ce3d df08 173d 2aee 9bbe
000000d0: 0934 343e b646 fb3c fee1 97bd c2af 8e3d
000000e0: 662c ccbc 3405 a63d 1094 a1bc d7aa e5bd
000000f0: 8398 a0bd 04e1 6c3d 01d2 763d 7f96 60bc
00000100: e403 10be c507 af3d 3ccb 03bd fec1 b4bd
00000110: 1e24 b5bd c39d 94bd f85c b1bc c533 923e
00000120: b630 22bd 2442 28bd 20e1 d4be 3ed8 13bd
00000130: a186 943d ee29 843e 35db e9ba 00c6 743d
00000140: e567 8e3c 7e27 b13d 1d5d 693d 71a4 2cbd
00000150: da5c 123d fcbc 19bd af4b aa3d c2f6 b4bc
00000160: a27f 9b3e e75f 57be 40c0 b2b9 2c7b 29bd
00000170: 6104 483d fca0 1e3d 1cdd 3ebd 7681 cf3d
00000180: 2024 c33c 425d f5bd 94b2 9a3d e043 f1bd
00000190: 3daa 263e ecaf 8c3c 659b 96be b034 063d
000001a0: 8a78 913d ce54 8bbc 0ba4 283e d4cb 76be
000001b0: 7c7a 9fbd f522 fdbd aabe 62bd d87d ba3d
000001c0: feba d5be 4947 a33c e84c b5be 977f a8be
000001d0: a334 c4bd 1523 943d 105a 72bd 5835 e73d
000001e0: a047 d0bd 6bb7 c5bc 6ca7 473d b8fb aeba
000001f0: 6140 39bd f5f1 ed3d 532e cb3c c0de 9e3c
00000200: 1524 7cbe 4c31 e0bd a326 823d 56f2 203c
00000210: 1a78 9ebd 2641 53bd 72e1 e23d dfe1 8b3e
00000220: 9878 9dbc c2b2 a4bd 5fa1 71be f6be 473d
00000230: f939 e5be e8a6 1b3d 7437 023d 2c59 6f3d
00000240: d30f 343d dd66 7fbe ca73 17bd 8c29 91bd
00000250: 99d6 0f3e 48d3 5a3d 8713 bbbd a051 18bd
00000260: 028b 523e 32bd 873e 7452 853c 6a62 5fbd
00000270: 47a5 e4bc 76d1 d43c 08f2 7ebd 00e0 983d
00000280: 1e7c c2bd dfd5 e9bb 335f 02bd 6354 583c
00000290: 6bea ea3e 1328 5dbd 6853 78bb aed6 393d
000002a0: 23ca b7bc 518f 443b 2ce2 11be 8b06 1ebe
000002b0: 956c 37be 0d70 afbd 47c1 edbd fe68 093e
000002c0: 438e cebd 7ef3 a83d 366b a03e 4149 ffbd
000002d0: 09b3 73bd 951f cb3d 4de1 2e3d 92e1 babd
000002e0: 5242 e0bd 747a 393d d4c0 d6bd 742c 2dbd
000002f0: 2eaf a93d 7205 84bc f590 2ebb 4d2f 583d
00000300: 92e9 4c3e 49b0 f5bd 32d4 0a3b 61f9 8c3d
00000310: 9d7c 263d c7cb cabd e2e0 ef3d 4b4c a03e
00000320: f654 973d a046 8ebd 574b 8bbd 75be 053e
00000330: aec5 22be 99b1 45be 783f aebc b276 4cbd
00000340: ca19 463e 4cbf e63a b27b efbd f6e9 a13d
00000350: 2292 103e d475 db3c 4741 2bba 9297 b13d
00000360: 9291 043d b6e5 8bbe 2db1 88be e392 863d
00000370: 9905 0e3c d297 803d e0fd 6d3c d2b6 fb3c
00000380: ce96 86bd 3d8f 5e3e 9c05 053c 822f acbd
00000390: ba1f 113e 2f7f 703d e8c5 cbbe 0432 90bd
000003a0: c17d a33d 431c 273d c624 513d 8ea4 d7b9
000003b0: ca54 9dbe ec0d 083d 8352 2ebd 7007 153f
000003c0: 7d26 283e 8ea5 a63d 539f 3a3e 2b4d 0dbe
000003d0: 85b0 0ebf 76e8 843b 1251 e8bd 6658 f2bd
000003e0: f034 683c bc65 d6bd 347d 493d 7b3a 033d
000003f0: 134f c3ba 1e13 543e e583 a83c 631b 74bd

fc4.bias f4 [8]
-0.07853901 0.005726511 -0.0044333017 -0.14575037 0.0004955022 -0.10192459 -0.11299927 -0.061833736
00000000: 0fd9 a0bd 75a5 bb3b 3b45 91bb 963f 15be
00000010: 97e4 013a d7bd d0bd 296c e7bd 5f45 7dbd

conv1.weight f4 [16, 2, 4, 4]
-0.2378175 -0.021446636 0.26681575 0.2846483 -0.052636407 -0.048878092 0.2257555 -0.17745252
0.49237826 0.24288626 -0.24904278 0.63212353 0.16899133 0.09935304 0.187697 1.3125379
-0.105126195 0.073342524 -0.08831284 0.28513452 0.11907779 0.20780675 -0.21283124 0.010871185
-0.05779995 0.043084458 0.10610687 -0.11211157 -0.11962943 0.10369456 0.14419465 0.1696261
0.59027284 -0.18353064 -0.42040193 0.51107174 1.1425889 -0.22740617 0.13636786 0.3927687
1.1399353 0.69459695 -0.09536229 -0.15540543 0.11040725 0.44564283 0.18835688 -0.109253936
0.07965055 0.05422181 0.057212524 0.04754186 -0.09411183 0.2428027 0.00831634 0.07656345
0.069101915 0.017061265 0.118303835 -0.18030083 -0.15200543 0.09937948 0.19983572 0.13578917
0.31763026 -0.25037915 0.29139987 -0.032219455 0.6042802 1.0576179 0.34332132 0.3041223
0.7609315 -0.16225846 0.69659007 -0.09870023 0.101883925 0.085665874 0.980875 -0.3239463
-0.015208367 -0.027061945 0.06130202 0.021209484 -0.010597964 -0.12330683 0.048055965 0.03802366
0.14467052 -0.06373207 -0.21878278 -0.008817155 0.18303753 -0.07033633 -0.0018145816 0.047173236
0.14817609 -0.21444955 -0.06465208 -0.06337144 -0.018362716 -0.16018641 -0.13288845 -0.21354859
-0.21979982 -0.036180824 -0.21627948 -0.2156038 0.1334388 -0.32670897 -0.16080956 -0.18663925
-0.18118191 0.14412881 0.0045365854 0.061695993 -0.010664438 0.014329883 -0.25470445 -0.20885019
-0.3151614 -0.29744685 -0.2439708 -0.22859351 -0.1783953 -0.16022444 0.19143015 -0.08103477
-0.2230619 -0.23287399 0.58336353 -0.08046911 0.070482865 -0.4013103 -0.23574583 -0.19533455
-0.21575609 -0.14954835 -0.35219693 -0.13554597 -0.15686502 0.17105493 -0.22570577 -0.25476685
-0.3184558 0.14800385 0.10878431 0.16562982 -0.027775174 0.052983597 0.04669362 -0.009838165
-0.096927494 0.25362304 -0.3279204 -0.3849969 -0.13507782 0.07008281 -0.32202002 -0.08496107
-0.18823679 0.005454788 -0.18735813 -0.28671438 -0.22139457 -0.34742135 -0.23369539 -0.34229147
-0.22254409 0.13748854 -0.49761942 0.14117175 -0.22584227 -0.060786437 -0.16504276 0.051832154
0.019485068 -0.28714702 -0.14042845 0.1151154 0.032786194 -0.0049433336 0.0993733 -0.26511598
0.15174237 0.032387756 -0.17700621 0.11136323 -0.10630753 -0.2311125 0.16132246 0.044028312
0.39826435 0.21194136 0.37027133 0.5111005 0.59852576 0.5638287 -0.0823932 0.66125834
0.5039511 0.6466663 0.525112 0.77320564 -1.0477567 -1.0417817 0.7109046 0.17020425
-0.5375673 -0.33528838 -0.0007941313 0.038761873 -0.060457565 -0.1066283 0.12232485 -0.07348491
-0.018266335 0.17239702 0.036358763 -0.05453796 0.21377923 0.10007484 0.011461139 -0.007957392
-0.3295359 -0.3112909 -0.12044019 -0.14886451 0.3989745 -0.049542647 -0.010716835 0.21219559
-0.13447066 -0.23963767 -0.11159962 0.891182 -0.57049936 0.41643828 -0.5596321 0.56036764
0.011092642 -0.10899738 -0.080755554 0.036804713 0.18563135 0.09270868 -0.051669292 -0.025582965
-0.041421104 0.02657558 0.00047646603 -0.17286314 -0.07775209 0.16493765 -0.058136985 0.06437593
00000000: 6e86 73be dbb0 afbc 139c 883e 6cbd 913e
00000010: 4699 57bd 6534 48bd 732c 673e 1db6 35be
00000020: 0119 fc3e 2db7 783e 1205 7fbe d9d2 213f
00000030: 100c 2d3e 9b79 cb3d a433 403e 3e01 a83f
00000040: 674c d7bd 9b34 963d 5ddd b4bd 27fd 913e
00000050: 0edf f33d 4bcb 543e 6ff0 59be 0e1d 323c
00000060: a4bf 6cbd 5479 303d 8f4e d93d c09a e5bd
00000070: 4600 f5bd d05d d43d c3a7 133e 77b2 2d3e
00000080: 1f1c 173f 75ef 3bbe ec3e d7be 99d5 023f
00000090: 5a40 923f 2add 68be 04a4 0b3e fb18 c93e
000000a0: 66e9 913f 1bd1 313f 4e4d c3bd 9a22 1fbe
000000b0: 321d e23d 4c2b e43e a0e0 403e 87c0 dfbd
000000c0: d41f a33d b017 5e3d ae57 6a3d 41bb 423d
000000d0: b4bd c0bd 45a1 783e 4241 083c 4ccd 9c3d
000000e0: 4e85 8d3d 11c4 8b3c 4849 f23d c8a0 38be
000000f0: 50a7 1bbe 7887 cb3d bca1 4c3e 510c 0b3e
00000100: 6fa0 a23e b231 80be 5d32 953e 8cf8 03bd
00000110: 1bb2 1a3f 0660 873f d0c7 af3e ebb5 9b3e
00000120: 68cc 423f 1527 26be ba53 323f 5923 cabd
00000130: 85a8 d03d 9771 af3d a01a 7b3f 4adc a5be
00000140: 842c 79bc 03b1 ddbc d417 7b3d 83bf ad3c
00000150: 15a3 2dbc 4b88 fcbd 55d6 443d b3be 1b3d
00000160: 8224 143e f685 82bd 9808 60be d475 10bc
00000170: 316e 3b3e 7e0c 90bd 41d7 edba b938 413d
00000180: 79bb 173e aa98 5bbe 4f68 84bd e3c8 81bd
00000190: 686d 96bc e807 24be e913 08be 7bac 5abe
000001a0: 3413 61be 5832 14bd 5e78 5dbe 3ec7 5cbe
000001b0: 2ea4 083e 6646 a7be 43ab 24be 5c1e 3fbe
000001c0: c087 39be 8196 133e a3a7 943b f0b4 7c3d
000001d0: e5b9 2ebc e3c7 6a3c 9f68 82be d3dc 55be
000001e0: d65c a1be f44a 98be 7bd3 79be 6b14 6abe
000001f0: 42ad 36be e011 24be 4406 443e 8ff5 a5bd
00000200: 576a 64be 8576 6ebe 5057 153f fdcc a4bd
00000210: 5259 903d 8b78 cdbe 5b67 71be c805 48be
00000220: 2aef 5cbe 3423 19be 2853 b4be 90cc 0abe
00000230: 39a1 20be 0629 2f3e 6a1f 67be cd70 82be
00000240: a30c a3be 528e 173e 4fca de3d dd9a 293e
00000250: c388 e3bc 5405 593d cf41 3f3d 4130 21bc
00000260: ec81 c6bd e1da 813e 2fe5 a7be 501e c5be
00000270: d751 0abe 9487 8f3d cfdf a4be 1200 aebd
00000280: 25c1 40be 14be b23b cfda 3fbe 3acc 92be
00000290: 42b5 62be 36e1 b1be d84d 6fbe d440 afbe
000002a0: 99e2 63be ccc9 0c3e f9c7 febe 548f 103e
000002b0: 3243 67be 33fb 78bd f800 29be f44d 543d
000002c0: 269f 9f3c ef04 93be 7acc 0fbe 9fc1 eb3d
000002d0: d14a 063d b0fb a1bb 3b84 cb3d 48bd 87be
000002e0: 5a62 1b3e 06a9 043d 1e41 35be 6812 e43d
000002f0: c3b7 d9bd c1a8 6cbe b731 253e 0857 343d
00000300: 4ee9 cb3e 2807 593e 3494 bd3e 7bd7 023f
00000310: fc38 193f 1457 103f c4bd a8bd 3a48 293f
00000320: f002 013f ec8b 253f bd6d 063f cef0 453f
00000330: e41c 86bf 1a59 85bf d8fd 353f 064a 2e3e
00000340: 039e 09bf ebaa abbe 402d 50ba c5c4 1e3d
00000350: 5aa2 77bd f05f dabd 7385 fa3d 427f 96bd
00000360: 48a3 95bc d888 303e edec 143d 3263 5fbd
00000370: f1e8 5a3e 0af4 cc3d 80c7 3b3c b95f 02bc
00000380: eeb8 a8be 8561 9fbe 59a9 f6bd f06f 18be
00000390: 6346 cc3e 3bed 4abd aa95 2fbc cd49 593e
000003a0: adb2 09be 9463 75be 578e e4bd 8124 643f
000003b0: 3f0c 12bf 6637 d53e 0d44 0fbf 4174 0f3f
000003c0: eabd 353c 053a dfbd 2b63 a5bd 8ac0 163d
000003d0: 2516 3e3e 0cde bd3d 2ea3 53bd 5e93 d1bc
000003e0: 2da9 29bd 08b5 d93c 30ce f939 0903 31be
000003f0: 7d3c 9fbd 6ae5 283e 0c21 6ebd 87d7 833d

conv1.bias f4 [16]
-0.08352057 -0.04894888 0.0066189948 0.011786558 -0.027396582 0.2161699 0.04075177 0.14114137
0.0038599176 0.17546517 0.23049596 0.09927551 0.16732723 0.027571682 0.09093993 0.029491922
00000000: d50c abbd 9f7e 48bd 27e4 d83b 681c 413c
00000010: cc6e e0bc a45b 5d3e 54eb 263d 5d87 103e
00000020: acf6 7c3b 24ad 333e 2207 6c3e f550 cb3d
00000030: d457 2b3e 02de e13c b73e ba3d 0b99 f13c

conv2.weight f4 [32, 16, 4, 4]
-0.115274735 -0.06954255 -0.052974366 -0.03803703 -0.057141032 -0.11292757 -0.029668 -0.13503596
-0.16428378 0.05435358 0.032197397 0.073168695 0.3464767 -0.2420951 -0.044867806 -0.08777071
-0.14370057 -0.0049097887 -0.06490138 -0.044089183 -0.059452854 -0.059582666 -0.08735305 -0.057419874
-0.052391905 0.010547446 -0.049839713 0.07792676 -0.1107747 -0.16989397 -0.0946581 -0.12115025
-0.05726296 -0.019635173 -0.100885555 -0.09235606 -0.029048948 -0.055978645 -0.09878096 -0.077046104
-0.03201427 -0.07846926 0.052546613 -0.05645331 -0.12863034 -0.020361615 -0.008672067 -0.061643273
-0.03702998 -0.02456652 -0.023453452 -0.023554234 -0.09169096 0.012155352 -0.0013442854 -0.10817627
-0.0081778 -0.032494403 -0.057971954 -0.016728804 -0.07458926 -0.072677635 -0.07898625 -0.10728202
-0.06986508 -0.056406952 -0.03553453 -0.1374468 -0.033910245 -0.0891394 -0.1096883 -0.0913591
-0.036883596 -0.031502113 -0.00014575338 0.012053113 -0.040922903 0.046085935 -0.046934854 -0.020490475
-0.012635449 -0.06109378 -0.040837582 -0.0840248 0.0181378 0.006286013 -0.061131224 -0.08336005
0.01033319 0.0067565856 -0.0081342235 -0.037057117 -0.043915015 -0.02590459 0.009212941 0.011606013
-0.10157744 -0.04180672 -0.0970882 -0.079422064 -0.11226853 -0.041672595 -0.15740389 -0.031392824
-0.0741151 0.0066856006 -0.005978196 -0.068013735 -0.109285034 0.023515401 -0.14547402 -0.10189725
-0.015772887 -0.047382914 0.0016101102 0.018041786 -0.07824457 -0.0317423 -0.08603218 -0.040060624
-0.030154655 -0.0006849335 -0.078667894 0.00052224105 -0.06284089 -0.039600585 -0.05911248 -0.081009865
-0.060909458 -0.107019216 -0.04097414 -0.12024316 0.002127397 -0.06159299 -0.071727715 -0.114721805
-0.06371906 -0.10920711 -0.10150938 -0.07840277 -0.17766011 -0.1595096 0.04630337 -0.063546225
-0.0117570255 0.006320236 -0.04464467 -0.0088857785 -0.03879352 -0.058014795 -0.010962065 -0.06099342
-0.05787064 -0.055850208 -0.11379696 -0.07618641 -0.013552698 -0.11321349 0.014488175 -0.07050029
-0.04496111 -0.08137346 -0.07967446 0.018481981 -0.008943779 -0.08252696 -0.085515015 -0.06542162
-0.00061034836 -0.07319472 0.026444413 -0.007899318 -0.014288753 -0.037543345 0.011193775 -0.040425453
-0.065044425 -0.05395876 -0.008143703 -0.04861418 -0.07362436 0.014235444 -0.07380937 -0.072224855
-0.04964263 0.008369882 -0.025839169 -0.09181653 -0.051969115 -0.08803122 -0.07885207 -0.09907284
-0.031589057 -0.03306041 -0.0072888015 -0.008423703 -0.06815598 -0.038802184 -0.00465748 -0.08436327
0.0137330685 -0.101938255 -0.039213076 -0.07777866 -0.009312169 -0.103619546 -0.074139655 -0.008905493
-0.043080043 0.0054869056 -0.1089586 -0.05000794 -0.008874678 -0.0771701 0.022084974 -0.087388836
-0.13355368 -0.038339153 -0.09230227 -0.13523841 -0.048502855 -0.067625515 -0.09506708 -0.07861403
-0.015402801 -0.0009314334 -0.054596357 -0.077808574 -0.115113534 -0.12916517 0.02404262 -0.052091278
-0.03732353 0.03089864 -0.10203398 -0.077137485 -0.046743166 -0.13546585 -0.029916976 -0.10824303
-0.108900234 -0.066484354 -0.04362963 -0.06503739 -0.082922556 -0.11561121 -0.0022094117 -0.0053542163
-0.09493191 -0.013702998 0.035377353 -0.05361384 -0.057864975 -0.085495025 -0.046401627 -0.013752897
00000000: 2915 ecbd 536c 8ebd a6fb 58bd b7cc 1bbd
00000010: b70c 6abd 9246 e7bd 4e0a f3bc de46 0abe
00000020: 023a 28be dca1 5e3d 6be1 033d 78d9 953d
00000030: 6565 b13e c7e7 77be 4ec7 37bd 21c1 b3bd
00000040: 3e26 13be 4be2 a0bb 04eb 84bd dc96 34bd
00000050: d684 73bd f40c 74bd 28e6 b2bd 1a31 6bbd
00000060: e598 56bd 32cf 2c3c ba24 4cbd 1198 9f3d
00000070: d9dd e2bd aff8 2dbe 1bdc c1bd 9f1d f8bd
00000080: 918c 6abd f1d9 a0bc 169d cebd 2d25 bdbd
00000090: 0ff8 edbc dd49 65bd ac4d cabd 59ca 9dbd
000000a0: 6521 03bd 7eb4 a0bd 1e3b 573d 963b 67bd
000000b0: acb7 03be 67cd a6bc 4915 0ebc a87d 7cbd
000000c0: c0ac 17bd ba3f c9bc 7421 c0bc cff4 c0bc
000000d0: 78c8 bbbd 3e27 473c bc32 b0ba 858b ddbd
000000e0: 2efc 05bc da18 05bd 0074 6dbd d80a 89bc
000000f0: 41c2 98bd 03d8 94bd 8bc3 a1bd adb6 dbbd
00000100: 6c15 8fbd fa0a 67bd a88c 11bd dbbe 0cbe
00000110: 78e5 0abd b88e b6bd 42a4 e0bd 7b1a bbbd
00000120: 4113 17bd 5c08 01bd 60d5 18b9 6c7a 453c
00000130: c69e 27bd 9bc4 3c3d c33e 40bd a4db a7bc
00000140: ea04 4fbc 793d 7abd 4f45 27bd 3215 acbd
00000150: b995 943c e6fa cd3b bc64 7abd adb8 aabd
00000160: 8a4c 293c 5966 dd3b 6845 05bc 34c9 17bd
00000170: 3be0 33bd dd35 d4bc e0f1 163c 2627 3e3c
00000180: d507 d0bd 863d 2bbd 2ed6 c6bd 09a8 a2bd
00000190: 0bed e5bd e2b0 2abd 7c2e 21be c395 00bd
000001a0: a8c9 97bd e212 db3b bee4 c3bb c94a 8bbd
000001b0: d5d0 dfbd 5fa3 c03c 24f7 14be 81af d0bd
000001c0: 2436 81bc 9614 42bd 550a d33a 5ecc 933c
000001d0: b03e a0bd 3704 02bd a431 b0bd 9c16 24bd
000001e0: e506 f7bc 1c8d 33ba a21c a1bd 01e7 083a
000001f0: b9b2 80bd 3934 22bd ee1f 72bd 80e8 a5bd
00000200: 327c 79bd e42c dbbd 80d4 27bd 0c42 f6bd
00000210: cd6b 0b3b ee48 7cbd fbe5 92bd 44f3 eabd
00000220: 237f 82bd faa7 dfbd 26e4 cfbd a291 a0bd
00000230: 88ec 35be 7c56 23be 9aa8 3d3d 8624 82bd
00000240: 8aa0 40bc fb19 cf3b 54dd 36bd a895 11bc
00000250: f4e5 1ebd eca0 6dbd 3c9a 33bc 3dd4 79bd
00000260: c409 6dbd 30c3 64bd 610e e9bd 9f07 9cbd
00000270: 230c 5ebc 79dc e7bd cf5f 6d3c 7562 90bd
00000280: 2429 38bd 21a7 a6bd 5d2c a3bd 8667 973c
00000290: ee88 12bc e503 a9bd 7f22 afbd c5fb 85bd
000002a0: c9ff 1fba 1de7 95bd f4a1 d83c 246c 01bc
000002b0: 601b 6abc 0dc7 19bd 1866 373c 2995 25bd
000002c0: 0336 85bd dc03 5dbd 2b6d 05bc aa1f 47bd
000002d0: 5ec8 96bd c83b 693c 5e29 97bd a0ea 93bd
000002e0: 1256 4bbd d421 093c aaac d3bc 4e0a bcbd
000002f0: 91dd 54bd b649 b4bd 327d a1bd b3e6 cabd
00000300: 8763 01bd 5a6a 07bd e6d6 eebb 9203 0abc
00000310: 5d95 8bbd 0aef 1ebd c69d 98bb a6c6 acbd
00000320: aa00 613c 01c5 d0bd e49d 20bd 6b4a 9fbd
00000330: 1192 18bc 7c36 d4bd 88d6 97bd 58e8 11bc
00000340: b374 30bd 80cb b33b b025 dfbd 20d5 4cbd
00000350: 1967 11bc 5b0b 9ebd 8ceb b43c ebf8 b2bd
00000360: 4cc2 08be 8409 1dbd f908 bdbd f07b 0abe
00000370: eeaa 46bd 3f7f 8abd 87b2 c2bd 6400 a1bd
00000380: 085c 7cbc 702b 74ba 6ea0 5fbd 1a5a 9fbd
00000390: a5c0 ebbd e043 04be 07f5 c43c aa5d 55bd
000003a0: 8fe0 18bd 251f fd3c 31f7 d0bd 42fa 9dbd
000003b0: c375 3fbd 8fb7 0abe 7214 f5bc 86ae ddbd
000003c0: 1607 dfbd f328 88bd fcb4 32bd 5332 85bd
000003d0: 4dd3 a9bd 92c5 ecbd c7cb 10bb 6c72 afbb
000003e0: a96b c2bd 8a82 60bc d8e7 103d 309a 5bbd
000003f0: d303 6dbd 0418 afbd a20f 3ebd d553 61bc

conv2.bias f4 [32]
0.050592568 -0.07140335 0.025774661 -0.01712476 0.15710336 -0.028037632 0.15246588 0.04787401
-0.06960972 0.12612301 0.09270896 0.15279673 -0.015948944 -0.02600199 -0.015381325 0.13438468
0.120239824 0.036597665 -0.07394834 0.04930897 0.020344645 0.09833343 0.06615892 0.14170977
0.13620031 -0.03970917 0.10767938 0.12199759 0.13200827 0.075435035 0.016813636 -0.097884715
00000000: 273a 4f3d eb3b 92bd 6225 d33c 3a49 8cbc
00000010: b4df 203e 2daf e5bc 0420 1c3e 8a17 443d
00000020: 8a8f 8ebd 6426 013e 32de bd3d bf76 1c3e
00000030: 5ca7 82bc 2002 d5bc f401 7cbc 239c 093e
00000040: 4c40 f63d 6fe7 153d 3a72 97bd 34f8 493d
00000050: d0a9 a63c 0a63 c93d 547e 873d 5e1c 113e
00000060: 1878 0b3e 15a6 22bd 0287 dc3d dfd9 f93d
00000070: 2d2d 073e af7d 9a3d c0bc 893c c877 c8bd

fc1.weight f4 [64, 800]
0.009717605 0.025853587 -0.041942652 -0.032775443 0.0009418006 0.05268887 -0.025673868 -0.026601005
0.002847738 0.027113749 -0.033603583 0.04969288 0.017427795 0.014647944 -0.049573556 -0.063386954
-0.053320486 -0.0019223895 -0.006281116 -0.007524953 0.033843424 -0.05267064 -0.040716156 0.063387804
-0.08249243 0.007840454 0.018051647 0.043435626 0.01738235 -0.01708195 0.02265561 -0.028944075
0.00858983 -0.033967223 0.010121547 0.0024309298 0.027401198 0.0027090125 -0.02154934 -0.018550042
-0.015029337 0.025350433 -0.013798136 -0.029033158 0.007986788 0.0032882355 -0.016350474 0.03605191
-0.03510231 -0.02640703 0.28481942 -0.13306816 -0.53901744 -0.29799896 0.20342922 -0.20901996
-0.030566908 -0.109057106 -0.14306551 -0.32431227 0.12310536 0.06656175 -0.2849698 0.1997089
0.017428141 -0.22166923 -0.016382955 -0.1890898 0.091175064 0.01796624 0.037234496 -0.0859331
-0.013141602 -0.24740733 0.16070563 0.013035491 0.0066601075 -0.017187966 0.0087962635 -0.0007969998
0.0057980567 -0.013431953 0.011720203 -0.012814451 -0.011286544 0.019609202 -0.00036907196 0.014387116
-0.029130053 0.03531612 0.011035219 -0.009107197 -0.021990713 -0.014758886 0.032533903 0.02196538
-0.02678456 0.035164278 -0.021244578 -0.0017397664 0.059282523 0.04155639 0.041506603 -0.059701197
0.13643894 0.096576124 0.11415177 0.056948088 0.027218767 0.19169046 0.12882124 0.07233319
0.09103312 0.0967896 0.20179553 0.14548036 0.11721539 0.103896335 0.029983638 0.12945941
0.1501709 0.07611556 0.0528541 0.03865161 0.06216246 -0.027936025 -0.017994542 -0.030184824
0.022782177 -0.0042550582 -0.03426512 0.0002615489 -0.031308737 -0.0023425557 0.026515394 -0.009247562
-0.023009252 0.002106987 -0.004104458 0.0067426786 0.0024595037 0.029611621 0.025976531 -0.026705809
0.0023209043 -0.02244743 0.005942289 -0.03316327 0.02378117 -0.013739621 0.14274052 0.06269042
0.062197752 -0.011376558 0.11425058 0.12765262 0.10255608 0.07873582 0.010705354 0.11271354
0.09889387 0.09565193 0.10279753 0.108325444 0.18931015 0.15598157 0.123808905 0.05693414
0.046748508 0.09696763 0.18220584 0.080869 0.08394646 0.082433775 -0.17323647 -0.032166723
-0.093690775 0.22675487 -0.025673592 -0.11483487 0.054099 0.008319061 0.07149738 -0.053629078
-0.14466184 0.024573024 -0.08919327 0.054018464 0.08885524 0.07461894 0.018120823 -0.018845761
0.08333045 0.07278565 0.27571008 0.06387213 0.12625375 -0.00010100024 -0.004625597 -0.063169956
0.0053741448 -0.01914237 0.030279506 0.007757131 0.020005237 -0.0061730556 -0.01195485 0.013281468
-0.0067099817 -0.034887847 0.012960974 -0.009853613 0.027864974 0.011785902 0.01682233 0.020389207
0.025234077 0.011301193 -0.015174793 -0.031348787 0.020773321 0.020907644 -0.0075661335 -0.03246267
0.03345168 0.026287643 0.09043878 0.007719635 0.052045137 0.0015360916 0.0126387 0.048405256
0.042701457 0.031858638 0.056978233 0.14368945 0.080945 0.054023057 0.020990536 -0.0010516563
0.13397415 0.11190321 -0.11638184 0.09751536 -0.39992708 0.1841045 -0.013361498 -0.08382359
0.09295036 0.016625963 -0.03169572 0.090963416 -0.0903032 -0.115138784 -0.45639446 -0.1302107
00000000: 9736 1f3c e7ca d33c 0fcc 2bbd 8b3f 06bd
00000010: 2be3 763a 49d0 573d 0152 d2bc 5aea d9bc
00000020: 1ea1 3a3b a71d de3c e9a3 09bd c38a 4b3d
00000030: bcc4 8e3c eefd 6f3c a40d 4bbd 05d1 81bd
00000040: 9566 5abd b0f8 fbba d2d1 cdbb e293 f6bb
00000050: 679f 0a3d 2bbd 57bd fcc5 26bd 77d1 813d
00000060: cbf1 a8bd 3f75 003c 0ce1 933c 8ee9 313d
00000070: 6e65 8e3c 72ef 8bbc 4298 b93c 201c edbc
00000080: 5cbc 0c3c 3721 0bbd d8d4 253c 3c50 1f3b
00000090: 7a78 e03c b089 313b 3e88 b0bc 42f6 97bc
000000a0: 9c3d 76bc b6ab cf3c 9411 62bc f2d6 edbc
000000b0: 04db 023c 707f 573b 6ef1 85bc 2bab 133d
000000c0: 71c7 0fbd 8e53 d8bc dad3 913e 0543 08be
000000d0: 0cfd 09bf 5293 98be c04f 503e 5409 56be
000000e0: 7467 fabc 5559 dfbd c47f 12be 420c a6be
000000f0: aa1e fc3d 8751 883d 90e7 91be 7d80 4c3e
00000100: 76c5 8e3c 42fd 62be 8c35 86bc c2a0 41be
00000110: feb9 ba3d f02d 933c 3383 183d b1fd afbd
00000120: e04f 57bc 5958 7dbe 0490 243e d092 553c
00000130: 083d da3b c7cd 8cbc 341e 103c c0ed 50ba
00000140: a0fd bd3b b211 5cbc 1806 403c b4f3 51bc
00000150: 32eb 38bc 7aa3 a03c 0080 c1b9 f0b7 6b3c
00000160: 26a2 eebc a3a7 103d 10cd 343c 5a36 15bc
00000170: de25 b4bc 41cf 71bc 4542 053d bef0 b33c
00000180: 4b6b dbbc 6b08 103d 1c09 aebc e008 e4ba
00000190: 3bd2 723d 0837 2a3d d402 2a3d 3e89 74bd
000001a0: a6b6 0b3e b4c9 c53d 67c8 e93d 6642 693d
000001b0: e4f9 de3c 814a 443e b7e9 033e 6c23 943d
000001c0: 936f ba3d a039 c63d 7da3 4e3e cef8 143e
000001d0: 9f0e f03d 9ac7 d43d 3fa0 f53c 0291 043e
000001e0: 67c6 193e 7ae2 9b3d 8a7d 583d 2751 1e3d
000001f0: 109e 7e3d 17da e4bc 4a69 93bc 2a46 f7bc
00000200: b0a1 ba3c 046e 8bbb 9559 0cbd 8020 8939
00000210: 973d 00bd 9085 19bb d036 d93c 1683 17bc
00000220: e67d bcbc 6015 0a3b b07e 86bb b0f1 dc3b
00000230: a02f 213b 1294 f23c bccc d43c 24c6 dabc
00000240: 501a 183b ace3 b7bc 88b7 c23b 36d6 07bd
00000250: bad0 c23c 261c 61bc 922a 123e d663 803d
00000260: 12c3 7e3d be64 3abc 35fc e93d 5eb7 023e
00000270: ec08 d23d 3f40 a13d 8265 2f3c 5bd6 e63d
00000280: df88 ca3d 29e5 c33d 8387 d23d bbd9 dd3d
00000290: 85da 413e a2b9 1f3e 868f fd3d c633 693d
000002a0: 5d7b 3f3d f796 c63d 2b94 3a3e a59e a53d
000002b0: 1fec ab3d 0ad3 a83d e764 31be 41c1 03bd
000002c0: f3e0 bfbd 6e32 683e 6d51 d2bc 8b2e ebbd
000002d0: ea96 5d3d ac4c 083c 386d 923d 2aaa 5bbd
000002e0: 3c22 14be 5e4d c93c f6aa b6bd 7742 5d3d
000002f0: bcf9 b53d d1d1 983d 1f72 943c 6d62 9abc
00000300: 28a9 aa3d a510 953d df29 8d3e 64cf 823d
00000310: aa48 013e 17d0 d3b8 5292 97bb 405f 81bd
00000320: 9819 b03b 76d0 9cbc ba0c f83c 882f fe3b
00000330: 06e2 a33c 5847 cabb 46de 43bc 849a 593c
00000340: 68df dbbb 8fe6 0ebd 445a 543c 0c71 21bc
00000350: 1645 e43c a819 413c fcce 893c 4407 a73c
00000360: b2b7 ce3c a428 393c b29f 78bc 9667 00bd
00000370: d02c aa3c 8246 ab3c 54ed f7bb 94f7 04bd
00000380: a104 093d 2f59 d73c f837 b93d fef4 fc3b
00000390: 482d 553d ae56 c93a 8d12 4f3c 9744 463d
000003a0: b9e7 2e3d 347e 023d 0262 693d 5423 133e
000003b0: 7ec6 a53d 4847 5d3d 58f4 ab3c bbd7 89ba
000003c0: 8530 093e 832d e53d 9a59 eebd 22b6 c73d
000003d0: 3ec3 ccbe e485 3c3e 2fea 5abc b4ab abbd
000003e0: c25c be3d 2c33 883c 5fd3 01bd 074b ba3d
000003f0: e2f0 b8bd e2cd ebbd 89ac e9be f455 05be

fc1.bias f4 [64]
0.14650448 -0.013182189 0.035730798 -0.038947675 0.03022019 -0.017308373 -0.008457868 0.0043284115
-0.05134737 -0.023249473 0.09929276 0.065805845 0.14176556 0.06034597 -0.04915335 -0.037084576
0.11836967 0.09013209 -0.05830133 -0.029673703 -0.051773354 -0.023527458 -0.01695893 -0.05404989
-0.022758929 0.09666279 0.11276191 0.019413162 -0.021805456 0.025247624 -0.033272248 -0.0006554919
-0.037218086 0.06881075 -0.009020073 -0.006088222 0.057843402 -0.016554888 0.14962898 -0.020875337
-0.012876073 -0.006299864 -0.007777636 0.12754549 0.091068774 0.0015201493 -0.04139377 0.10401056
0.12914497 0.005886338 0.033631604 0.13962427 0.14138274 0.023990696 -0.01186201 -0.0058662607
-0.04561398 -0.015051854 -0.03634312 0.024054479 -0.02638621 0.11664582 0.016971875 -0.019947054
00000000: 4505 163e 1cfa 57bc 755a 123d 9987 1fbd
00000010: 5590 f73c 4aca 8dbc df92 0abc 59d5 8d3b
00000020: 9f51 52bd ae75 bebc 015a cb3d 37c5 863d
00000030: fe2a 113e 562d 773d 0655 49bd ffe5 17bd
00000040: cc6b f23d 2c97 b83d 60cd 6ebd 4416 f3bc
00000050: 4c10 54bd a8bc c0bc 74ed 8abc 6b63 5dbd
00000060: ef70 babc 24f7 c53d b7ef e63d 5a08 9f3c
00000070: 5ba1 b2bc 1bd4 ce3c 7b48 08bd 51d5 2bba
00000080: fe71 18bd a7ec 8c3d eec8 13bc b57f c7bb
00000090: 34ed 6c3d 1e9e 87bc 5738 193e c102 abbc
000000a0: 2af6 52bc 176f cebb 8adb febb 499b 023e
000000b0: 4482 ba3d bf3f c73a 848c 29bd 7d03 d53d
000000c0: 943e 043e 2fe2 c03b 4bc1 093d aaf9 0e3e
000000d0: a3c6 103e 2388 c43c e058 42bc c339 c0bb
000000e0: bad5 3abd 0d9c 76bc 86dc 14bd e60d c53c
000000f0: e527 d8bc 01e4 ee3d 9a08 8b3c 0168 a3bc
