DRL-based-path-finding/saved_models/dqn_checkpoint_ep300.pth (torch, 981377 bytes, 32 tensors)

conv1.weight f4 [16, 2, 4, 4]
0	0xbe67d3f8	-0.22639453
1	0xbd1b4854	-0.037910774
2	0x3ec7fdec	0.39060915
3	0x3f34ad2c	0.7057674
4	0xbd6c3069	-0.057663355
5	0x3d5ba16d	0.053620744
6	0x3e6a476f	0.22878812
7	0xbe5a56ac	-0.21322125
8	0x3f023957	0.50868744
9	0x3e6df735	0.23238833
10	0xbe5a194b	-0.21298711
11	0x3f0a65aa	0.5406138
12	0x3e825d1a	0.25461656
13	0x3e30c6c1	0.17263319
14	0xba2305c2	-0.00062188145
15	0x3fe242ff	1.7676696
16	0xbdd84b86	-0.1056128
17	0x3d5ebecf	0.054381188
18	0xbcf50254	-0.029908337
19	0x3e81877c	0.2529868
20	0x3dafaab5	0.08577482
21	0x3d82537a	0.06363578
22	0xbe493fa0	-0.19653177
23	0xbb861eef	-0.004093043
24	0xbd2803d6	-0.041019283
25	0x3d0fbf28	0.03509441
26	0x3de76a19	0.112995334
27	0xbd57c506	-0.05267813
28	0xbe40bc41	-0.18821813
29	0x3e28c59e	0.16481635
30	0x3e0a301b	0.13494913
31	0x3dcbc0e1	0.09948898
32	0x3f8280b7	1.0195531
33	0x3eacc89e	0.3374681
34	0xbe96ec93	-0.29477367
35	0x3f91e64b	1.1398405
36	0x3f864e4b	1.0492643
37	0xbeb4b172	-0.3529163
38	0xbc7c4b84	-0.015398864
39	0x3d991190	0.07474053
40	0x3f72b98a	0.9481436
41	0x3f2604ff	0.64851373
42	0xbd41bb0a	-0.047297515
43	0xbe9f555b	-0.3111981
44	0x3e044649	0.12917437
45	0x3ed3c091	0.41357854
46	0xbe287afd	-0.16453166
47	0x3e4bf368	0.19917071
48	0x3d600ea9	0.05470148
49	0xbb9ce7c2	-0.00478837
50	0x3d775fbc	0.060394034
51	0x3ce9b1ba	0.02852713
52	0xbe78c239	-0.2429284
53	0x3db6209e	0.0889294
54	0xbd26cb28	-0.04072109
55	0x3d9aacd1	0.07552493
56	0x3db89ae9	0.09013922
57	0x3c05b7c0	0.008161485
58	0x3e1afdfc	0.1513595
59	0xbe221f13	-0.15832166
60	0xbd7ab75d	-0.061210025
61	0x3dac7e86	0.0842257
62	0x3e63066e	0.22170421
63	0x3dd6486a	0.10463031
64	0x3f52ea8b	0.82389134
65	0xbe7cee41	-0.24700262
66	0x3f068139	0.5254093
67	0x3f1fd516	0.6243452
68	0x3f2a602d	0.66553
69	0x3f85b7ea	1.0446751
70	0x3eda01aa	0.42579395
71	0x3ebec83d	0.37262145
72	0x3f145890	0.57947636
73	0xbe811b6b	-0.2521623
74	0x3f1c9110	0.6115885
75	0xbd17109f	-0.036881085
76	0x3e6f4fd9	0.23370303
77	0x3d821f17	0.06353586
78	0x3f2c4b25	0.6730216
79	0xbebb14ea	-0.36539394
80	0x3c9d3cf9	0.019194113
81	0xbc23373c	-0.009961899
82	0x3d8ca779	0.068678804
83	0x3d69e633	0.0571043
84	0xbd46bcbc	-0.048519835
85	0xbdf40a75	-0.11916057
86	0xbdbad192	-0.091220036
87	0xbd567167	-0.052354243
88	0x3e4a5a4f	0.19761012
89	0xbcd86699	-0.02641611
90	0xbe6af2db	-0.22944205
91	0x3cbe4503	0.023226267
92	0x3b14e003	0.002271653
93	0xbd98e058	-0.07464665
94	0xbc62017e	-0.013794301
95	0x3db000e8	0.08593923
96	0x3f5b2473	0.8560249
97	0xbe7d883b	-0.24758999
98	0xbc85e2ef	-0.016343562
99	0xbe09aba0	-0.13444376
100	0xbd29b0a8	-0.04142824
101	0xbe31b073	-0.17352466
102	0x3be73262	0.0070555666
103	0xbdb6f8e8	-0.08934194
104	0xbe827467	-0.25479433
105	0xbe7d8e69	-0.24761356
106	0xbe3bca69	-0.18338932
107	0xbd93ae7d	-0.072110154
108	0x3e086fe6	0.13323936
109	0x3e0249ac	0.12723416
110	0xbe77c5c7	-0.2419654
111	0xbea363de	-0.3191213
112	0xbe805e1b	-0.25071797
113	0x3e5028b6	0.2032803
114	0x3d351dad	0.044217754
115	0xbc12a3f0	-0.008950219
116	0x3d323e44	0.043516412
117	0x3e01242a	0.12611452
118	0xbcc8988e	-0.024486806
119	0xbe296e8c	-0.16546077
120	0xbe9164de	-0.28397268
121	0xbebd17ea	-0.36932307
122	0xbe221bff	-0.15830992
123	0xbcb28cbf	-0.021795629
124	0xbd4709cc	-0.048593327
125	0x3df80660	0.12110591
126	0x3e58c3b3	0.21168403
127	0xbd822dae	-0.06356369
128	0xbe42348b	-0.18965356
129	0xbe515948	-0.20444214
130	0x3f2c4f93	0.6730892
131	0xbe53606e	-0.20642254
132	0xbcfe91a5	-0.031075308
133	0xbece4371	-0.4028583
134	0xbe80d76f	-0.25164363
135	0xbe7a2743	-0.2442904
136	0xbe7a3e3b	-0.24437802
137	0xbd498044	-0.04919459
138	0xbec1d45b	-0.37857327
139	0x3d6b7fc3	0.05749489
140	0xbdcd318b	-0.10019215
141	0x3e18b695	0.149134
142	0xbec332ea	-0.38124782
143	0x3e0275a0	0.12740183
144	0xbe6e2176	-0.23254952
145	0x3e951319	0.29116133
146	0x3dc5cc9f	0.09658169
147	0x3e23076f	0.15920804
148	0x3b853aa4	0.0040658284
149	0x3e39c529	0.18141617
150	0x3d9afff5	0.07568351
151	0xbceec471	-0.029146405
152	0xbdf4b643	-0.11948826
153	0x3e75bfb1	0.23998906
154	0xbf15dac7	-0.5853695
155	0xbf12bcb0	-0.57319164
156	0x3c8eacb3	0.017416334
157	0x3d6615be	0.05617308
158	0xbf0be7ae	-0.5465039
159	0xbd4a8ea4	-0.04945244
160	0xbebdc086	-0.37060946
161	0xbe17b024	-0.14813286
162	0xbe9cbc74	-0.30612528
163	0xbed57600	-0.4169159
164	0xbe685df7	-0.22692095
165	0xbee961d1	-0.4558244
166	0xbe83f6a5	-0.25774112
167	0xbf0d7554	-0.55257154
168	0xbe8159fe	-0.2526397
169	0x3e674be9	0.22587551
170	0xbf0a4e12	-0.54025376
171	0x3e0afc60	0.13572836
172	0xbe808048	-0.2509787
173	0xbc820bc6	-0.015874755
174	0x3e6e52f4	0.23273832
175	0xbe96d1df	-0.29456994
176	0x3bf3503c	0.007425336
177	0xbe9738d4	-0.29535544
178	0xbdb3edf4	-0.0878562
179	0x3e08e154	0.13367206
180	0x3d7b440a	0.061344184
181	0x3d6426e9	0.05570117
182	0x3e46d707	0.19417964
183	0xbe703011	-0.23455836
184	0x3e267d52	0.16258743
185	0x3d1fabf3	0.038982343
186	0xbe2e61ed	-0.17029543
187	0x3dbf934b	0.09354266
188	0xbd9bcb12	-0.07607092
189	0xbe3d9a15	-0.18515809
190	0x3e27b8d8	0.16379106
191	0x3d2e6bc5	0.042583246
192	0x3f1d04c8	0.6133542
193	0x3ebef3cf	0.37295386
194	0x3f035d6d	0.5131443
195	0x3f878747	1.0588158
196	0x3ec13229	0.37733582
197	0x3ef3682a	0.47540408
198	0xbdda5327	-0.10660391
199	0x3ee4e038	0.44702315
200	0x3ec2eedf	0.3807287
201	0x3f12e8fa	0.57386744
202	0x3ee8dcf0	0.45481062
203	0x3f25860d	0.6465767
204	0xbf981ef3	-1.1884445
205	0xbf8ef51c	-1.1168551
206	0x3f42d7df	0.76110643
207	0x3eefd763	0.46844015
208	0xbeb3d172	-0.35120732
209	0xbe0ee1bc	-0.13953298
210	0xbc418352	-0.011811094
211	0x3ce2d2a5	0.027688334
212	0xbe082593	-0.13295583
213	0xbe1bae18	-0.1520313
214	0x3d0da806	0.034584068
215	0xbe0def53	-0.13860826
216	0xbdc05510	-0.093912244
217	0x3e1c7734	0.15279847
218	0x3d928abd	0.071553685
219	0xbde551e0	-0.11197257
220	0x3e06167b	0.13094513
221	0x3dc47be1	0.095939405
222	0x3c9f1355	0.019418398
223	0x3d14e954	0.03635533
224	0xbec94c66	-0.393161
225	0xbd23a7f9	-0.039955113
226	0xbdb35924	-0.087572366
227	0xbd3ccfd2	-0.04609663
228	0x3e9e6942	0.3093968
229	0x3d66fe41	0.05639482
230	0x3aa00a79	0.0012210152
231	0x3ecbce26	0.39805716
232	0xbc8d19fd	-0.017224306
233	0xbe108adc	-0.1411547
234	0xbeafd0d5	-0.34339014
235	0x3f6291f5	0.8850396
236	0xbf31a281	-0.69388586
237	0x3efcbb83	0.4936181
238	0x3d98c4fc	0.07459447
239	0x3fa1b1c8	1.263238
240	0xbd308226	-0.04309287
241	0xbe0d956f	-0.13826536
242	0xbdd26a05	-0.10274128
243	0x3cdf8955	0.027287165
244	0x3e43a58a	0.19106117
245	0x3e3b2d9a	0.18279114
246	0xbd7d0f62	-0.06178225
247	0xbcfeaa6c	-0.031087123
248	0x3c98454f	0.018587736
249	0x3d1b65d3	0.037938904
250	0x3cb0ce14	0.02158264
251	0xbe89151c	-0.26773918
252	0xbd4743c4	-0.04864861
253	0x3df784d7	0.12085884
254	0xbe12e339	-0.14344491
255	0xbc1b3757	-0.009473643

conv1.bias f4 [16]
0	0xbd885789	-0.06657321
1	0xbd0982b1	-0.033571903
2	0x3cc1432a	0.023591597
3	0x3c07374f	0.008252933
4	0xbd96b0e6	-0.073579594
5	0x3e59ab2a	0.212567
6	0x3da7d7e1	0.081954725
7	0x3e0f4c9a	0.13994065
8	0xbb58e4d9	-0.0033095388
9	0x3e26310e	0.1622965
10	0x3e7cfcbe	0.24705788
11	0x3d3bb204	0.045824066
12	0x3e400d13	0.18754987
13	0xbce5410e	-0.027985122
14	0x3dde031d	0.108404376
15	0x3d56f352	0.052478142

conv2.weight f4 [32, 16, 4, 4]
0	0xbdec1529	-0.115274735
1	0xbd8e6c53	-0.06954255
2	0xbd58fba6	-0.052974366
3	0xbd1bccb7	-0.03803703
4	0xbd6a0cb7	-0.057141032
5	0xbde74692	-0.11292757
6	0xbcf30a4e	-0.029668
7	0xbe0a46de	-0.13503596
8	0xbe283a02	-0.16428378
9	0x3d5ea1dc	0.05435358
10	0x3d03e16b	0.032197397
11	0x3d95d978	0.073168695
12	0x3eb16565	0.3464767
13	0xbe77e7c7	-0.2420951
14	0xbd37c74e	-0.044867806
15	0xbdb3c121	-0.08777071
16	0xbe13263e	-0.14370057
17	0xbba0e24b	-0.0049097887
18	0xbd84eb04	-0.06490138
19	0xbd3496dc	-0.044089183
20	0xbd7384d6	-0.059452854
21	0xbd740cf4	-0.059582666
22	0xbdb2e628	-0.08735305
23	0xbd6b311a	-0.057419874
24	0xbd5698e5	-0.052391905
25	0x3c2ccf32	0.010547446
26	0xbd4c24ba	-0.049839713
27	0x3d9f9811	0.07792676
28	0xbde2ddd9	-0.1107747
29	0xbe2df8af	-0.16989397
30	0xbdc1dc1b	-0.0946581
31	0xbdf81d9f	-0.12115025
32	0xbd6a8c91	-0.05726296
33	0xbca0d9f1	-0.019635173
34	0xbdce9d16	-0.100885555
35	0xbdbd252d	-0.09235606
36	0xbcedf80f	-0.029048948
37	0xbd6549dd	-0.055978645
38	0xbdca4dac	-0.09878096
39	0xbd9dca59	-0.077046104
40	0xbd032165	-0.03201427
41	0xbda0b47e	-0.07846926
42	0x3d573b1e	0.052546613
43	0xbd673b96	-0.05645331
44	0xbe03b7ac	-0.12863034
45	0xbca6cd67	-0.020361615
46	0xbc0e1549	-0.008672067
47	0xbd7c7da8	-0.061643273
48	0xbd17acc0	-0.03702998
49	0xbcc93fba	-0.02456652
50	0xbcc02174	-0.023453452
51	0xbcc0f4cf	-0.023554234
52	0xbdbbc878	-0.09169096
53	0x3c47273e	0.012155352
54	0xbab032bc	-0.0013442854
55	0xbddd8b85	-0.10817627
56	0xbc05fc2e	-0.0081778
57	0xbd0518da	-0.032494403
58	0xbd6d7400	-0.057971954
59	0xbc890ad8	-0.016728804
60	0xbd98c241	-0.07458926
61	0xbd94d803	-0.072677635
62	0xbda1c38b	-0.07898625
63	0xbddbb6ad	-0.10728202
64	0xbd8f156c	-0.06986508
65	0xbd670afa	-0.056406952
66	0xbd118ca8	-0.03553453
67	0xbe0cbedb	-0.1374468
68	0xbd0ae578	-0.033910245
69	0xbdb68eb8	-0.0891394
70	0xbde0a442	-0.1096883
71	0xbdbb1a7b	-0.0913591
72	0xbd171341	-0.036883596
73	0xbd01085c	-0.031502113
74	0xb918d560	-0.00014575338
75	0x3c457a6c	0.012053113
76	0xbd279ec6	-0.040922903
77	0x3d3cc49b	0.046085935
78	0xbd403ec3	-0.046934854
79	0xbca7dba4	-0.020490475
80	0xbc4f04ea	-0.012635449
81	0xbd7a3d79	-0.06109378
82	0xbd27454f	-0.040837582
83	0xbdac1532	-0.0840248
84	0x3c9495b9	0.0181378
85	0x3bcdfae6	0.006286013
86	0xbd7a64bc	-0.061131224
87	0xbdaab8ad	-0.08336005
88	0x3c294c8a	0.01033319
89	0x3bdd6659	0.0067565856
90	0xbc054568	-0.0081342235
91	0xbd17c934	-0.037057117
92	0xbd33e03b	-0.043915015
93	0xbcd435dd	-0.02590459
94	0x3c16f1e0	0.009212941
95	0x3c3e2726	0.011606013
96	0xbdd007d5	-0.10157744
97	0xbd2b3d86	-0.04180672
98	0xbdc6d62e	-0.0970882
99	0xbda2a809	-0.079422064
100	0xbde5ed0b	-0.11226853
101	0xbd2ab0e2	-0.041672595
102	0xbe212e7c	-0.15740389
103	0xbd0095c3	-0.031392824
104	0xbd97c9a8	-0.0741151
105	0x3bdb12e2	0.0066856006
106	0xbbc3e4be	-0.005978196
107	0xbd8b4ac9	-0.068013735
108	0xbddfd0d5	-0.109285034
109	0x3cc0a35f	0.023515401
110	0xbe14f724	-0.14547402
111	0xbdd0af81	-0.10189725
112	0xbc813624	-0.015772887
113	0xbd421496	-0.047382914
114	0x3ad30a55	0.0016101102
115	0x3c93cc5e	0.018041786
116	0xbda03eb0	-0.07824457
117	0xbd020437	-0.0317423
118	0xbdb031a4	-0.08603218
119	0xbd24169c	-0.040060624
120	0xbcf706e5	-0.030154655
121	0xba338d1c	-0.0006849335
122	0xbda11ca2	-0.078667894
123	0x3a08e701	0.00052224105
124	0xbd80b2b9	-0.06284089
125	0xbd223439	-0.039600585
126	0xbd721fee	-0.05911248
127	0xbda5e880	-0.081009865
128	0xbd797c32	-0.060909458
129	0xbddb2ce4	-0.107019216
130	0xbd27d480	-0.04097414
131	0xbdf6420c	-0.12024316
132	0x3b0b6bcd	0.002127397
133	0xbd7c48ee	-0.06159299
134	0xbd92e5fb	-0.071727715
135	0xbdeaf344	-0.114721805
136	0xbd827f23	-0.06371906
137	0xbddfa7fa	-0.10920711
138	0xbdcfe426	-0.10150938
139	0xbda091a2	-0.07840277
140	0xbe35ec88	-0.17766011
141	0xbe23567c	-0.1595096
142	0x3d3da89a	0.04630337
143	0xbd822486	-0.063546225
144	0xbc40a08a	-0.0117570255
145	0x3bcf19fb	0.006320236
146	0xbd36dd54	-0.04464467
147	0xbc1195a8	-0.0088857785
148	0xbd1ee5f4	-0.03879352
149	0xbd6da0ec	-0.058014795
150	0xbc339a3c	-0.010962065
151	0xbd79d43d	-0.06099342
152	0xbd6d09c4	-0.05787064
153	0xbd64c330	-0.055850208
154	0xbde90e61	-0.11379696
155	0xbd9c079f	-0.07618641
156	0xbc5e0c23	-0.013552698
157	0xbde7dc79	-0.11321349
158	0x3c6d5fcf	0.014488175
159	0xbd906275	-0.07050029
160	0xbd382924	-0.04496111
161	0xbda6a721	-0.08137346
162	0xbda32c5d	-0.07967446
163	0x3c976786	0.018481981
164	0xbc1288ee	-0.008943779
165	0xbda903e5	-0.08252696
166	0xbdaf227f	-0.085515015
167	0xbd85fbc5	-0.06542162
168	0xba1fffc9	-0.00061034836
169	0xbd95e71d	-0.07319472
170	0x3cd8a1f4	0.026444413
171	0xbc016c24	-0.007899318
172	0xbc6a1b60	-0.014288753
173	0xbd19c70d	-0.037543345
174	0x3c376618	0.011193775
175	0xbd259529	-0.040425453
176	0xbd853603	-0.065044425
177	0xbd5d03dc	-0.05395876
178	0xbc056d2b	-0.008143703
179	0xbd471faa	-0.04861418
180	0xbd96c85e	-0.07362436
181	0x3c693bc8	0.014235444
182	0xbd97295e	-0.07380937
183	0xbd93eaa0	-0.072224855
184	0xbd4b5612	-0.04964263
185	0x3c0921d4	0.008369882
186	0xbcd3acaa	-0.025839169
187	0xbdbc0a4e	-0.09181653
188	0xbd54dd91	-0.051969115
189	0xbdb449b6	-0.08803122
190	0xbda17d32	-0.07885207
191	0xbdcae6b3	-0.09907284
192	0xbd016387	-0.031589057
193	0xbd076a5a	-0.03306041
194	0xbbeed6e6	-0.0072888015
195	0xbc0a0392	-0.008423703
196	0xbd8b955d	-0.06815598
197	0xbd1eef0a	-0.038802184
198	0xbb989dc6	-0.00465748
199	0xbdacc6a6	-0.08436327
200	0x3c6100aa	0.0137330685
201	0xbdd0c501	-0.101938255
202	0xbd209de4	-0.039213076
203	0xbd9f4a6b	-0.07777866
204	0xbc189211	-0.009312169
205	0xbdd4367c	-0.103619546
206	0xbd97d688	-0.074139655
207	0xbc11e858	-0.008905493
208	0xbd3074b3	-0.043080043
209	0x3bb3cb80	0.0054869056
210	0xbddf25b0	-0.1089586
211	0xbd4cd520	-0.05000794
212	0xbc116719	-0.008874678
213	0xbd9e0b5b	-0.0771701
214	0x3cb4eb8c	0.022084974
215	0xbdb2f8eb	-0.087388836
216	0xbe08c24c	-0.13355368
217	0xbd1d0984	-0.038339153
218	0xbdbd08f9	-0.09230227
219	0xbe0a7bf0	-0.13523841
220	0xbd46aaee	-0.048502855
221	0xbd8a7f3f	-0.067625515
222	0xbdc2b287	-0.09506708
223	0xbda10064	-0.07861403
224	0xbc7c5c08	-0.015402801
225	0xba742b70	-0.0009314334
226	0xbd5fa06e	-0.054596357
227	0xbd9f5a1a	-0.077808574
228	0xbdebc0a5	-0.115113534
229	0xbe0443e0	-0.12916517
230	0x3cc4f507	0.02404262
231	0xbd555daa	-0.052091278
232	0xbd18e08f	-0.03732353
233	0x3cfd1f25	0.03089864
234	0xbdd0f731	-0.10203398
235	0xbd9dfa42	-0.077137485
236	0xbd3f75c3	-0.046743166
237	0xbe0ab78f	-0.13546585
238	0xbcf51472	-0.029916976
239	0xbdddae86	-0.10824303
240	0xbddf0716	-0.108900234
241	0xbd8828f3	-0.066484354
242	0xbd32b4fc	-0.04362963
243	0xbd853253	-0.06503739
244	0xbda9d34d	-0.082922556
245	0xbdecc592	-0.11561121
246	0xbb10cbc7	-0.0022094117
247	0xbbaf726c	-0.0053542163
248	0xbdc26ba9	-0.09493191
249	0xbc60828a	-0.013702998
250	0x3d10e7d8	0.035377353
251	0xbd5b9a30	-0.05361384
252	0xbd6d03d3	-0.057864975
253	0xbdaf1804	-0.085495025
254	0xbd3e0fa2	-0.046401627
255	0xbc6153d5	-0.013752897

conv2.bias f4 [32]
0	0x3d4f3a27	0.050592568
1	0xbd923beb	-0.07140335
2	0x3cee1de9	0.029066997
3	0xbc8c493a	-0.01712476
4	0x3e39e57b	0.18153946
5	0xbce5af2d	-0.028037632
6	0x3e2984dd	0.1655459
7	0x3d417e98	0.04723987
8	0xbd8e8f8a	-0.06960972
9	0x3e16d502	0.14729694
10	0x3da33a6a	0.07970126
11	0x3e604431	0.21901013
12	0xbc82a75c	-0.015948944
13	0xbcd50220	-0.02600199
14	0xbc7c01f4	-0.015381325
15	0x3de51643	0.11185887
16	0x3e0eafe6	0.13934287
17	0x3d88dd24	0.06682804
18	0xbd97723a	-0.07394834
19	0x3d99d72a	0.075117424
20	0x3cbbb659	0.022914099
21	0x3e292e4b	0.16521566
22	0x3daac104	0.08337596
23	0x3e1fdc04	0.15611273
24	0x3e158936	0.14603123
25	0xbd22a615	-0.03970917
26	0x3decdb7b	0.115653
27	0x3ddb9f2c	0.10723719
28	0x3e2ccbdc	0.16874641
29	0x3d9787ca	0.073989466
30	0x3c89bcc0	0.016813636
31	0xbdc877c8	-0.097884715

fc1.weight f4 [64, 800]
0	0x3c1f3697	0.009717605
1	0x3cd3cae7	0.025853587
2	0xbd2bcc0f	-0.041942652
3	0xbd063f8b	-0.032775443
4	0x3a76e32b	0.0009418006
5	0x3d57d049	0.05268887
6	0xbcd25201	-0.025673868
7	0xbcd9ea5a	-0.026601005
8	0x3b3aa11e	0.002847738
9	0x3cde1da7	0.027113749
10	0xbd09a3e9	-0.033603583
11	0x3d4b8ac3	0.04969288
12	0x3c8ec4bc	0.017427795
13	0x3c6ffdee	0.014647944
14	0xbd4b0da4	-0.049573556
15	0xbd81d105	-0.063386954
16	0xbd5a6695	-0.053320486
17	0xbafbf8b0	-0.0019223895
18	0xbbcdd1d2	-0.006281116
19	0xbbf693e2	-0.007524953
20	0x3d0a9f67	0.033843424
21	0xbd57bd2b	-0.05267064
22	0xbd26c5fc	-0.040716156
23	0x3d81d177	0.063387804
24	0xbda8f1cb	-0.08249243
25	0x3c00753f	0.007840454
26	0x3c93e10c	0.018051647
27	0x3d31e98e	0.043435626
28	0x3c8e656e	0.01738235
29	0xbc8bef72	-0.01708195
30	0x3cb99842	0.02265561
31	0xbced1c20	-0.028944075
32	0x3c0cbc5c	0.00858983
33	0xbd0b2137	-0.033967223
34	0x3c25d4d8	0.010121547
35	0x3b1f503c	0.0024309298
36	0x3ce0787a	0.027401198
37	0x3b3189b0	0.0027090125
38	0xbcb0883e	-0.02154934
39	0xbc97f642	-0.018550042
40	0xbc763d9c	-0.015029337
41	0x3ccfabb6	0.025350433
42	0xbc621194	-0.013798136
43	0xbcedd6f2	-0.029033158
44	0x3c02db04	0.007986788
45	0x3b577f70	0.0032882355
46	0xbc85f16e	-0.016350474
47	0x3d13ab2b	0.03605191
48	0xbd0fc771	-0.03510231
49	0xbcd8538e	-0.02640703
50	0x3ea3f48f	0.3202252
51	0xbe234de4	-0.15947682
52	0xbf09fd0c	-0.53901744
53	0xbea08845	-0.31353965
54	0x3e2e3c79	0.17015256
55	0xbe53f4c9	-0.20698847
56	0xbd174977	-0.036935296
57	0xbd8faaab	-0.07014974
58	0xbd989428	-0.074501336
59	0xbf0dc743	-0.55382174
60	0x3d7123f6	0.058872186
61	0x3d84d3ac	0.06485686
62	0xbe8b54b8	-0.27213073
63	0x3e4a7758	0.19772089
64	0xbe792759	-0.24331416
65	0xbee9df8e	-0.4567837
66	0x3d92fc16	0.07176988
67	0xbd664a53	-0.056223225
68	0x3d641763	0.055686366
69	0xbe58d214	-0.21173888
70	0x3c190fe9	0.009342172
71	0x3deab09b	0.11459466
72	0xbe05f57f	-0.1308193
73	0xbe4b13c8	-0.19831765
74	0x3ee000ff	0.4375076
75	0x3c5592d0	0.013035491
76	0x3bda3d08	0.0066601075
77	0xbc8ccdc7	-0.017187966
78	0x3c101e34	0.0087962635
79	0xba50edc0	-0.0007969998
80	0x3bbdfda0	0.0057980567
81	0xbc5c11b2	-0.013431953
82	0x3c400618	0.011720203
83	0xbc51f3b4	-0.012814451
84	0xbc38eb32	-0.011286544
85	0x3ca0a37a	0.019609202
86	0xb9c18000	-0.00036907196
87	0x3c6bb7f0	0.014387116
88	0xbceea226	-0.029130053
89	0x3d10a7a3	0.03531612
90	0x3c34cd10	0.011035219
91	0xbc15365a	-0.009107197
92	0xbcb425de	-0.021990713
93	0xbc71cf41	-0.014758886
94	0x3d054245	0.032533903
95	0x3cb3f0be	0.02196538
96	0xbcdb6b4b	-0.02678456
97	0x3d10086b	0.035164278
98	0xbcae091c	-0.021244578
99	0xbae408e0	-0.0017397664
100	0x3def3262	0.11679532
101	0x3d46c4d9	0.048527572
102	0xbc98edd9	-0.018668102
103	0xbe781312	-0.24226025
104	0x3e54d065	0.20782621
105	0x3d522b7d	0.051311005
106	0x3da7cd35	0.08193437
107	0x3d0f2996	0.03495177
108	0x38cdc44e	9.811726e-05
109	0x3e406bba	0.18791094
110	0x3dcee131	0.101015456
111	0x3d238f72	0.039931722
112	0x3d55aa8b	0.052164596
113	0x3d775841	0.0603869
114	0x3e603ea2	0.21898893
115	0x3dfa8862	0.12233044
116	0x3dbba42e	0.09162174
117	0x3d786be3	0.060649764
118	0xbc7d8f58	-0.01547607
119	0x3e5c4ee2	0.21514466
120	0x3cded9cc	0.027203463
121	0x3cc2aeb2	0.023764942
122	0xbcb8f5a7	-0.022578074
123	0xbb0a4788	-0.0021099765
124	0xbea4727d	-0.32118598
125	0xbce4da17	-0.027936025
126	0xbc93694a	-0.017994542
127	0xbcf7462a	-0.030184824
128	0x3cbaa1b0	0.022782177
129	0xbb8b6e04	-0.0042550582
130	0xbd0c5995	-0.03426512
131	0x39892080	0.0002615489
132	0xbd003d97	-0.031308737
133	0xbb198590	-0.0023425557
134	0x3cd936d0	0.026515394
135	0xbc178316	-0.009247562
136	0xbcbc7de6	-0.023009252
137	0x3b0a1560	0.002106987
138	0xbb867eb0	-0.004104458
139	0x3bdcf1b0	0.0067426786
140	0x3b212fa0	0.0024595037
141	0x3cf29412	0.029611621
142	0x3cd4ccbc	0.025976531
143	0xbcdac624	-0.026705809
144	0x3b181a50	0.0023209043
145	0xbcb7e3ac	-0.02244743
146	0x3bc2b788	0.005942289
147	0xbd07d636	-0.03316327
148	0x3cc2d0ba	0.02378117
149	0xbc611c26	-0.013739621
150	0x3e27f290	0.16401124
151	0x3d7d88bd	0.061897982
152	0x3d110639	0.035406325
153	0xbe1b7b04	-0.15183645
154	0x3e028ddd	0.12749429
155	0x3db8dc1e	0.09026359
156	0x3d8edba1	0.06975485
157	0x3d6457a4	0.055747643
158	0xbbad3b0e	-0.005286581
159	0x3dd22e8c	0.10262784
160	0x3d94c951	0.072649606
161	0x3d888af7	0.066671304
162	0x3d87f8f4	0.06639281
163	0x3d969a42	0.07353641
164	0x3e48645e	0.19569537
165	0x3e0dee99	0.13860549
166	0x3dd66026	0.104675576
167	0x3c5b1a05	0.013372903
168	0x3bb923d7	0.0056500244
169	0x3e327352	0.17426804
170	0x3d8c4d3e	0.0685067
171	0x3c5314c1	0.012883366
172	0xbbfbc5e1	-0.007683501
173	0x3d52280b	0.05130772
174	0xbf2dc3f8	-0.6787715
175	0x3d754d4c	0.05988817
176	0xbd17564c	-0.036947533
177	0x3e8f0335	0.27932134
178	0xbe4c750e	-0.19966528
179	0xbe547d71	-0.20750977
180	0x3d133071	0.03593487
181	0x3c7bb716	0.015363475
182	0x3daedbeb	0.0853804
183	0xbdc805ae	-0.09766708
184	0xbe3bbfcd	-0.18334885
185	0x3c1404cb	0.009034346
186	0xbdca6633	-0.09882774
187	0x3d40b4b3	0.04704733
188	0x3d9c1321	0.07620836
189	0xbd9cc40a	-0.07654579
190	0x3c876a57	0.016530199
191	0xbd1ac814	-0.037788466
192	0x3da07ca3	0.078362726
193	0x3d65ed47	0.05613449
194	0x3e18c01b	0.14917032
195	0xbc4e867d	-0.012605307
196	0x3dd6bf6a	0.10485728
197	0x3d07f1fd	0.033189762
198	0xbca46449	-0.020067351
199	0xbe88ea4e	-0.2674126
200	0x3bb01998	0.0053741448
201	0xbc9cd076	-0.01914237
202	0x3cf80cba	0.030279506
203	0x3bfe2f88	0.007757131
204	0x3ca3e206	0.020005237
205	0xbbca4758	-0.0061730556
206	0xbc43de46	-0.01195485
207	0x3c599a84	0.013281468
208	0xbbdbdf68	-0.0067099817
209	0xbd0ee68f	-0.034887847
210	0x3c545a44	0.012960974
211	0xbc21710c	-0.009853613
212	0x3ce44516	0.027864974
213	0x3c4119a8	0.011785902
214	0x3c89cefc	0.01682233
215	0x3ca70744	0.020389207
216	0x3cceb7b2	0.025234077
217	0x3c3928a4	0.011301193
218	0xbc789fb2	-0.015174793
219	0xbd006796	-0.031348787
220	0x3caa2cd0	0.020773321
221	0x3cab4682	0.020907644
222	0xbbf7ed54	-0.0075661335
223	0xbd04f794	-0.03246267
224	0x3d0904a1	0.03345168
225	0xbd2a2f30	-0.041548908
226	0x3cccb2a1	0.02498752
227	0xbcfba3d7	-0.030717773
228	0x3e15538f	0.14582656
229	0xbcc958a6	-0.024578404
230	0xbc841708	-0.016124263
231	0x3c94905b	0.01813524
232	0x3bb18c31	0.0054183234
233	0xba979046	-0.0011563383
234	0x3cea0f21	0.028571667
235	0x3df63556	0.12021892
236	0x3d6903cd	0.05688839
237	0x3cdbfcb8	0.026853904
238	0x3b419de7	0.002954358
239	0xbbc7e7ed	-0.0061006458
240	0x3dea3a31	0.114368804
241	0x3dc769c6	0.097369716
242	0xbe14a0f9	-0.14514531
243	0x3d8ac573	0.06775942
244	0xbeebcac1	-0.46053126
245	0x3e1e4769	0.15456928
246	0xbc709266	-0.014683342
247	0xbe4d92c9	-0.20075525
248	0x3d9e10f9	0.07718081
249	0x3d934846	0.071915194
250	0xbe35a497	-0.17738567
251	0x3e4be09d	0.19909902
252	0xbe44c928	-0.1921736
253	0xbe8361fc	-0.25660694
254	0xbf1fb8d2	-0.6239139
255	0xbdfd947d	-0.123818375

fc1.bias f4 [64]
0	0x3df16f4c	0.11788806
1	0xbc57fa1c	-0.013182189
2	0x3d125a75	0.035730798
3	0xbd1f8799	-0.038947675
4	0x3cf3ec23	0.029775685
5	0xbc8dca4a	-0.017308373
6	0xbc0a92df	-0.008457868
7	0x3c6238cd	0.013807488
8	0xbd52519f	-0.05134737
9	0xbcbe75ae	-0.023249473
10	0x3df5c388	0.12000185
11	0x3d5affa7	0.053466465
12	0x3ddd8404	0.108161956
13	0x3c823f33	0.015899276
14	0xbd495506	-0.04915335
15	0xbd17e5ff	-0.037084576
16	0x3da1993c	0.07890555
17	0x3d4576f0	0.04820913
18	0xbd6ecd60	-0.05830133
19	0xbcf31644	-0.029673703
20	0xbd54104c	-0.051773354
21	0xbcc0bca8	-0.023527458
22	0xbc8aed74	-0.01695893
23	0xbd5d636b	-0.05404989
24	0xbcd6403d	-0.026153678
25	0x3da24088	0.079224646
26	0x3d6e89ea	0.058236994
27	0x3c9f085a	0.019413162
28	0xbcb2a15b	-0.021805456
29	0xbbc8877c	-0.0061196666
30	0xbd08487b	-0.033272248
31	0xba2bd551	-0.0006554919
32	0xbd1871fe	-0.037218086
33	0x3d913991	0.07091058
34	0xbc13c8ee	-0.009020073
35	0xbbc77fb5	-0.006088222
36	0x3d88c7ab	0.06678709
37	0xbc879e1e	-0.016554888
38	0x3e00482a	0.12527528
39	0xbcab02c1	-0.020875337
40	0xbc52f62a	-0.012876073
41	0xbbce6f17	-0.006299864
42	0xbbdc8ffb	-0.006731031
43	0x3dbdfcf4	0.092767626
44	0x3d9129bd	0.07088039
45	0x3ac73fbf	0.0015201493
46	0xbd298c84	-0.04139377
47	0x3e11382a	0.14181581
48	0x3e0030d9	0.12518634
49	0x3bc0e22f	0.005886338
50	0x3ce3296e	0.027729716
51	0x3df3cb06	0.11903958
52	0x3de3d2b3	0.11124172
53	0x3cc48823	0.023990696
54	0xbc4258e0	-0.01186201
55	0xbbc039c3	-0.0058662607
56	0xbd3ad5ba	-0.04561398
57	0xbc769c0d	-0.015051854
58	0xbd14dc86	-0.03634312
59	0x3cc50de6	0.024054479
60	0xbcd827e5	-0.02638621
61	0x3dc24fb1	0.09487856
62	0x3c8b089a	0.016971875
63	0xbca36801	-0.019947054

fc4.weight f4 [8, 64]
0	0xbe192328	-0.14954817
1	0xbdc5575a	-0.096358016
2	0x3cf65a64	0.030072398
3	0xbce79b16	-0.028272193
4	0x3eb396b4	0.35075915
5	0xbdac78f6	-0.08421509
6	0x3dd844c0	0.10559988
7	0x3e9953da	0.29946786
8	0xbd4ade4c	-0.049528405
9	0x3db5b888	0.08873087
10	0xbe16d1dd	-0.14728494
11	0xbe3ed196	-0.18634638
12	0xbdc16c7a	-0.094445184
13	0x3d67f3d5	0.05662902
14	0x3d84b712	0.064802304
15	0x3d210998	0.03931579
16	0xbeceaa34	-0.4036423
17	0xbf02cf8a	-0.5109793
18	0xbd04ed87	-0.032453086
19	0x3c2432b8	0.010021858
20	0x3b7077d4	0.0036692517
21	0xbcd105d0	-0.025515467
22	0x3a0f3c89	0.00054640375
23	0x3d9b503b	0.07583662
24	0x3e1403ad	0.14454527
25	0x3eb6de5a	0.35716516
26	0xbe01e2ea	-0.12684217
27	0xbdcb651b	-0.09931394
28	0x3dca42cd	0.098760225
29	0x3dd53050	0.104096055
30	0xbcfcf151	-0.030876787
31	0x3d9370b1	0.071992286
32	0xbbf27c57	-0.0074000764
33	0x3e8cb182	0.27479178
34	0xbd731f6b	-0.059356134
35	0xbc28e8c5	-0.010309403
36	0x3e7cc6e4	0.24685246
37	0x3cf448af	0.029819814
38	0xbdb7beb0	-0.08971918
39	0xbcb01037	-0.021492107
40	0x3d544dfe	0.05183219
41	0x3d59925e	0.053118102
42	0x3dfbc53c	0.12293479
43	0xbec46ed0	-0.38365793
44	0xbece8631	-0.40336755
45	0xbd9663f8	-0.07343286
46	0x3c28368a	0.010266909
47	0x3e6fd573	0.23421268
48	0xbc9dae49	-0.019248145
49	0x3dce06ad	0.10059867
50	0x3e1bf938	0.15231788
51	0xbeb99fc1	-0.36254695
52	0x3e46535a	0.19367734
53	0x3cfb46b6	0.030673366
54	0xbd97e1fe	-0.074161515
55	0x3d8eafc2	0.06967117
56	0xbccc2c66	-0.024923515
57	0x3da60534	0.08106461
58	0xbca19410	-0.019723922
59	0xbde5aad7	-0.11214226
60	0xbda09883	-0.07841589
61	0x3d07af18	0.033125967
62	0x3d76d201	0.06025887
63	0xbc60967f	-0.013707756
64	0x3df139e2	0.117786184
65	0x3daf07c5	0.08546404
66	0xbd03cb3c	-0.03217624
67	0xbdb4c1fe	-0.088260636
68	0xbda8fd1f	-0.08251404
69	0xbd949dc3	-0.07256653
70	0xbcb15cf8	-0.021650776
71	0x3e84c21f	0.25929353
72	0xbd2230b6	-0.039597236
73	0xbd284224	-0.0410787
74	0xbef0b052	-0.47009522
75	0xbdb220f5	-0.08697692
76	0x3ebb2868	0.36554265
77	0x3e81e89a	0.25372773
78	0xbae9db35	-0.0017841818
79	0x3d74c600	0.05975914
80	0x3ddb0ff5	0.10696403
81	0x3e74cc60	0.23906088
82	0x3d695d1d	0.056973565
83	0xbd2ca471	-0.04214901
84	0x3d125cda	0.03573308
85	0xbd19bcfc	-0.037533745
86	0x3daa4baf	0.08315217
87	0xbcb4f6c2	-0.02209032
88	0x3e724336	0.23658451
89	0xbe07b38f	-0.1325209
90	0xbd6faf98	-0.05851707
91	0xbd297b2c	-0.04137723
92	0x3d480461	0.0488323
93	0x3d1ea0fc	0.038727745
94	0xbd3edd1c	-0.046597585
95	0x3dcf8176	0.101321146
96	0x3cc32420	0.023820937
97	0xbdebd667	-0.115155034
98	0x3d9ab294	0.07553592
99	0xbdf143e0	-0.11780524
100	0x3e2c3d0f	0.16820167
101	0x3c8cafec	0.01717373
102	0xbea7d201	-0.32777408
103	0x3d0634b0	0.03276509
104	0x3d91788a	0.07103069
105	0xbc8b54ce	-0.017008211
106	0x3e5f80ca	0.21826473
107	0xbe486b7f	-0.19572257
108	0xbd9fabec	-0.07796463
109	0xbdfd22f5	-0.12360183
110	0xbd62beaa	-0.055357613
111	0x3e31c80d	0.1736147
112	0xbef48b0b	-0.4776233
113	0x3ca34749	0.019931452
114	0xbe6f8c06	-0.23393258
115	0xbeab7bf8	-0.33493018
116	0xbe166dd8	-0.1469034
117	0x3d942315	0.07233254
118	0xbd725a10	-0.05916792
119	0x3de73558	0.112894714
120	0xbdd047a0	-0.101699114
121	0xbcc5b76b	-0.024135312
122	0x3d47a76c	0.04874365
123	0xbaaefbb8	-0.0013350165
124	0xbd394061	-0.045227412
125	0x3dac7762	0.08421208
126	0x3ccb2e53	0.024802363
127	0x3c9edec0	0.019393325
128	0xbeb3691b	-0.35041127
129	0xbde0314c	-0.10946903
130	0x3d8226a3	0.063550256
131	0x3c20f256	0.009823402
132	0x3da1ffbd	0.07910106
133	0xbd534126	-0.051575802
134	0x3de2e172	0.110781565
135	0x3e5318bb	0.20614903
136	0xbc9d7898	-0.019222543
137	0xbda4b2c2	-0.08041908
138	0xbdfe6e36	-0.12423365
139	0xbe25a58c	-0.16176432
140	0xbec29b2a	-0.38009006
141	0xbcafb645	-0.021449218
142	0x3d023774	0.031791165
143	0x3d6f592c	0.05843465
144	0x3e03ca62	0.12870172
145	0xbe81699d	-0.2527589
146	0xbd1773ca	-0.03697566
147	0xbd91298c	-0.070880026
148	0x3e0fd699	0.14046706
149	0x3d5ad348	0.05342415
150	0xbdbb1387	-0.09134584
151	0xbd1851a0	-0.03718722
152	0x3e6ddb72	0.23228243
153	0x3e3b0c7f	0.18266486
154	0x3d0429a6	0.03226628
155	0xbd5f626a	-0.054537214
156	0xbce4a547	-0.027910842
157	0x3cd4d176	0.025978785
158	0xbd7ef208	-0.062242538
159	0x3d98e000	0.074645996
160	0xbdc27c1e	-0.0949633
161	0x39ed9a30	0.0004531904
162	0xbd025f33	-0.03182907
163	0x3c585463	0.013203713
164	0x3ee35666	0.44401854
165	0xbd5d2813	-0.053993296
166	0xbd0bf58c	-0.03416972
167	0x3d39d6ae	0.04537075
168	0xbcb7ca23	-0.022435253
169	0x3b448f51	0.002999265
170	0x3d0c2112	0.034211226
171	0xbe3bdcfe	-0.1834602
172	0xbdb6f0d8	-0.08932656
173	0xbdaf700d	-0.08566294
174	0xbdedc147	-0.1160913
175	0x3d583237	0.052782264
176	0x3d438657	0.04773554
177	0x3da8f37e	0.082495674
178	0x3f10fb49	0.5663343
179	0xbe18798f	-0.14890121
180	0xbd1210f1	-0.035660688
181	0x3dcb1f95	0.09918133
182	0x3d2ee14d	0.042695332
183	0xbdbae192	-0.091250554
184	0xbde04252	-0.109501496
185	0x3d397a74	0.045282796
186	0xbdd6c0d4	-0.10485998
187	0xbd2d2c74	-0.042278722
188	0x3da9af2e	0.08285366
189	0xbdcfe048	-0.101502
190	0xbb2e90f5	-0.0026636694
191	0x3d582f4d	0.052779485
192	0x3dc127e8	0.0943144
193	0xbdf5b049	-0.11996514
194	0x3b0ad432	0.0021183607
195	0x3d8cf961	0.06883503
196	0x3d8f39d8	0.06993455
197	0xbdcacbc7	-0.09902149
198	0x3defe0e2	0.11712815
199	0x3e7e41cc	0.24829787
200	0x3d9754f6	0.07389252
201	0xbd8e46a0	-0.069470644
202	0xbe256a95	-0.16153939
203	0x3e2eb1a0	0.17059946
204	0xbe599457	-0.21247993
205	0xbe2020cc	-0.15637511
206	0xbcae3f78	-0.021270499
207	0xbd4c76b2	-0.049917884
208	0x3e3b68c2	0.1830168
209	0xb9fbebe7	-0.00048050212
210	0xbdef7bb2	-0.11693515
211	0x3da1e9f6	0.07905953
212	0x3e109222	0.14118245
213	0x3cdb75d4	0.026789583
214	0xba2b4147	-0.00065328594
215	0x3db19792	0.08671488
216	0x3c67c9aa	0.014147202
217	0xbebf67ae	-0.3738379
218	0xbe9a7568	-0.301677
219	0x3d8692e3	0.06570985
220	0x3c0e0599	0.008668327
221	0x3d2c64d3	0.04208834
222	0x3c6dfde0	0.014525861
223	0x3cfbb6d2	0.030726824
224	0xbd8696ce	-0.065717325
225	0x3e16195c	0.14658111
226	0x3c05059c	0.008119013
227	0xbdac2f82	-0.08407499
228	0x3e7548d1	0.23953559
229	0x3d707f2f	0.05871504
230	0xbee2cc7b	-0.4429663
231	0xbd903204	-0.0704079
232	0x3da37dc1	0.0798297
233	0x3d271c43	0.040798437
234	0xbda625ea	-0.081127
235	0x3d8e0323	0.06934192
236	0xbe88ee7e	-0.26744455
237	0x3d080dec	0.033216402
238	0xbd2e5283	-0.042559158
239	0x3ebec105	0.37256637
240	0x3e62f605	0.22164162
241	0x3da6a58e	0.08137046
242	0x3db36f9a	0.08761521
243	0xbe0a9fd0	-0.13537526
244	0xbf2613a4	-0.6487372
245	0x3b84e876	0.004056032
246	0xbde85112	-0.11343588
247	0xbdf25866	-0.11833267
248	0x3c6834f0	0.0141727775
249	0xbdd665bc	-0.10468623
250	0x3d497d34	0.04919167
251	0x3d033a7b	0.032038193
252	0xbac34f13	-0.0014900885
253	0x3e8e490b	0.27790102
254	0x3ca883e5	0.020570705
255	0xbd741b63	-0.05959643

fc4.bias f4 [8]
0	0xbdd016bc	-0.10160586
1	0xbc8ca3d3	-0.017167961
2	0x3d80426e	0.062626705
3	0xbe8d84de	-0.27640432
4	0xbe368fd1	-0.17828299
5	0xbd8bf580	-0.06833935
6	0xbe02c50c	-0.1277048
7	0xbdbf1f2d	-0.09332118

conv1.weight f4 [16, 2, 4, 4]
0	0xbe677f29	-0.22607102
1	0xbd1f09a2	-0.038827546
2	0x3ec8c6f8	0.392143
3	0x3f34595b	0.70448846
4	0xbd58f168	-0.052964598
5	0x3d5a689a	0.053322412
6	0x3e6b200b	0.22961442
7	0xbe5a56ac	-0.21322125
8	0x3f02d05e	0.51099193
9	0x3e6d5067	0.23175202
10	0xbe5d7cfa	-0.21629706
11	0x3f0a36df	0.53989977
12	0x3e782a42	0.2423487
13	0x3e30915c	0.1724295
14	0x3b49a164	0.0030766362
15	0x3fe2d9fa	1.7722771
16	0xbdd9c8f9	-0.106340356
17	0x3d6232e5	0.055224318
18	0xbcfa358b	-0.03054311
19	0x3e82ac92	0.25522286
20	0x3db0f658	0.08640736
21	0x3d818b25	0.06325368
22	0xbe479ab4	-0.19492608
23	0xbaf34722	-0.0018560628
24	0xbd2273dc	-0.039661273
25	0x3d1455f2	0.036214776
26	0x3de900e3	0.11377122
27	0xbd4bf401	-0.049793247
28	0xbe3b3ff5	-0.18286116
29	0x3e2c5999	0.16831054
30	0x3e0a5906	0.13510522
31	0x3dccaca0	0.09993863
32	0x3f824c88	1.0179605
33	0x3eab7f0f	0.33495376
34	0xbe99ed5c	-0.30063903
35	0x3f917550	1.1363926
36	0x3f865ad3	1.0496467
37	0xbeb4c866	-0.35309142
38	0xbc577458	-0.013150297
39	0x3d9bd33e	0.076086506
40	0x3f722775	0.94591457
41	0x3f261584	0.6487658
42	0xbd3e0619	-0.046392534
43	0xbe9fdc07	-0.31222555
44	0x3e0303e5	0.12794454
45	0x3ed312de	0.41225332
46	0xbe2e44f8	-0.17018497
47	0x3e4ff8b5	0.20309718
48	0x3d5d99c7	0.05410173
49	0xbb7f3bea	-0.0038945624
50	0x3d70acde	0.05875861
51	0x3d053b3d	0.032527197
52	0xbe7a2fe1	-0.24432327
53	0x3db5eaba	0.08882661
54	0xbd2f2b29	-0.04276577
55	0x3d9ce271	0.07660378
56	0x3db67b17	0.08910196
57	0x3c08d0f8	0.008350603
58	0x3e1a2eb7	0.15056883
59	0xbe1d1731	-0.15340878
60	0xbd81f7bb	-0.06346079
61	0x3db0996d	0.08623014
62	0x3e62d2c0	0.22150707
63	0x3dd6ee2a	0.10494645
64	0x3f51aa96	0.8190092
65	0xbe7e50f5	-0.2483557
66	0x3f05efae	0.5231885
67	0x3f207e71	0.62692934
68	0x3f2bbf0c	0.6708839
69	0x3f85e3c1	1.046013
70	0x3ed71470	0.4200778
71	0x3ec10be6	0.3770439
72	0x3f132928	0.57484674
73	0xbe77f9ca	-0.2421638
74	0x3f1c8265	0.61136466
75	0xbd122d2e	-0.035687618
76	0x3e706f8a	0.23480049
77	0x3d800016	0.062500164
78	0x3f2a5856	0.6654104
79	0xbebb14ea	-0.36539394
80	0x3c9ccf01	0.019141676
81	0xbc25c0e8	-0.010116793
82	0x3d8c0f1a	0.06838818
83	0x3d66f9e5	0.05639066
84	0xbd46a510	-0.04849726
85	0xbdf8cf05	-0.12148861
86	0xbdba1e35	-0.09087793
87	0xbd55f00f	-0.05223089
88	0x3e4ae41e	0.19813582
89	0xbcdc9206	-0.026925098
90	0xbe6ceea8	-0.23137915
91	0x3cbe798b	0.023251316
92	0x3b546792	0.0032410366
93	0xbd977b92	-0.07396616
94	0xbc75b2f3	-0.014996278
95	0x3db19462	0.0867088
96	0x3f5b70d3	0.8571903
97	0xbe7d883b	-0.24758999
98	0xbc657656	-0.014005264
99	0xbe0697cf	-0.13143848
100	0xbd3acb20	-0.04560387
101	0xbe37dfa7	-0.1795641
102	0x3c3a0fbe	0.011356292
103	0xbdab6fe1	-0.083709486
104	0xbe827467	-0.25479433
105	0xbe7d8e69	-0.24761356
106	0xbe3b9c68	-0.18321383
107	0xbd77ac13	-0.060466837
108	0x3e069fe5	0.13146932
109	0x3e0281c6	0.12744817
110	0xbe77c5c7	-0.2419654
111	0xbea363de	-0.3191213
112	0xbe800e7d	-0.25011054
113	0x3e4fc8aa	0.20291391
114	0x3d38579b	0.045005422
115	0xbc13cc70	-0.00902091
116	0x3d3499d5	0.04409202
117	0x3e004cda	0.12529317
118	0xbcd4747b	-0.025934448
119	0xbe301e9c	-0.17199177
120	0xbe9197e0	-0.28436184
121	0xbebdc881	-0.37067035
122	0xbe2312cd	-0.1592514
123	0xbc919369	-0.017770486
124	0xbd5b235e	-0.053500526
125	0x3df95ea3	0.12176254
126	0x3e595d99	0.21227111
127	0xbd808755	-0.062758125
128	0xbe3f3d88	-0.18675816
129	0xbe512c62	-0.20427087
130	0x3f2c7d12	0.6737834
131	0xbe53f54d	-0.20699044
132	0xbcf32e2c	-0.029685102
133	0xbece4371	-0.4028583
134	0xbe80d76f	-0.25164363
135	0xbe7a2743	-0.2442904
136	0xbe7a3e3b	-0.24437802
137	0xbd23867c	-0.039923176
138	0xbec1d45b	-0.37857327
139	0x3d5b7b5f	0.053584453
140	0xbdd0ddf8	-0.10198587
141	0x3e172e3f	0.14763735
142	0xbec332ea	-0.38124782
143	0x3e002184	0.12512785
144	0xbe6ea763	-0.2330604
145	0x3e945e9f	0.2897844
146	0x3dc60ed4	0.09670797
147	0x3e234f6c	0.15948266
148	0x3aa9304b	0.0012908069
149	0x3e38ecbb	0.18059056
150	0x3d9c2005	0.07623295
151	0xbceea663	-0.029132074
152	0xbdf801b6	-0.12109701
153	0x3e75212c	0.23938435
154	0xbf15a5a2	-0.5845586
155	0xbf12081c	-0.57043624
156	0x3c784ce8	0.015155055
157	0x3d651a3f	0.055933233
158	0xbf09c76f	-0.53819937
159	0xbd552b20	-0.05204308
160	0xbebd2e5a	-0.36949426
161	0xbe17d6b3	-0.14827995
162	0xbe9cd7ff	-0.30633542
163	0xbed3c578	-0.41361594
164	0xbe63ff1d	-0.22265287
165	0xbee78671	-0.45219758
166	0xbe8236ee	-0.25432533
167	0xbf0d7554	-0.55257154
168	0xbe847370	-0.25869322
169	0x3e6648eb	0.22488753
170	0xbf0a4e12	-0.54025376
171	0x3e0786ff	0.1323509
172	0xbe7e44f7	-0.24830996
173	0xbc7cdded	-0.015433771
174	0x3e67f6e1	0.2265277
175	0xbe98bdd7	-0.29832336
176	0x3bd4d317	0.0064948904
177	0xbe97959b	-0.29606327
178	0xbdb453c8	-0.088050425
179	0x3e085c1c	0.13316387
180	0x3d7bc08e	0.06146293
181	0x3d624bbd	0.05524801
182	0x3e465012	0.19366482
183	0xbe707c08	-0.23484814
184	0x3e2686dc	0.16262382
185	0x3d1f09be	0.03882765
186	0xbe2e0025	-0.16992243
187	0x3dbf20d5	0.09332434
188	0xbd9fa2e4	-0.07794741
189	0xbe3d914a	-0.18512455
190	0x3e273a2d	0.16330786
191	0x3d2c3586	0.04204323
192	0x3f1d1bdf	0.6137065
193	0x3ebe3da0	0.3715639
194	0x3f03911a	0.5139328
195	0x3f874641	1.0568315
196	0x3ec0e002	0.37670904
197	0x3ef3584f	0.47528312
198	0xbdd98229	-0.10620529
199	0x3ee57ce2	0.4482184
200	0x3ec4c346	0.38430232
201	0x3f131111	0.57447916
202	0x3ee8c121	0.45459846
203	0x3f265a0a	0.6498114
204	0xbf981ef3	-1.1884445
205	0xbf8e98b1	-1.1140348
206	0x3f44ab81	0.76824194
207	0x3ef39415	0.47573915
208	0xbeb2565b	-0.3483151
209	0xbe0e4975	-0.13895209
210	0xbc45a405	-0.012063031
211	0x3cde58ff	0.027142046
212	0xbe091b9f	-0.13389443
213	0xbe1f55ca	-0.1556007
214	0x3d10ba2c	0.035333797
215	0xbe0e4754	-0.13894397
216	0xbdbe6bac	-0.092978805
217	0x3e1bd725	0.1521879
218	0x3d92a9db	0.071613036
219	0xbde01e10	-0.10943234
220	0x3e071514	0.13191634
221	0x3dc56880	0.096390724
222	0x3c9c1269	0.019051747
223	0x3d15bdf5	0.03655811
224	0xbec60e5a	-0.38682824
225	0xbd13a8b4	-0.03604956
226	0xbdad18d0	-0.08451998
227	0xbd2d1adc	-0.042261943
228	0x3e9e873e	0.30962557
229	0x3d57474b	0.052558225
230	0x3bbeba85	0.0058205747
231	0x3ecbc84f	0.3980126
232	0xbc58c940	-0.0132315755
233	0xbe048bd5	-0.12943967
234	0xbeb3600b	-0.35034212
235	0x3f627736	0.8846315
236	0xbf31a281	-0.69388586
237	0x3eff9dde	0.4992513
238	0x3db2b754	0.08726373
239	0x3fa1ab84	1.2630467
240	0xbd2dc3ad	-0.04242294
241	0xbe099953	-0.13437395
242	0xbdd06cfb	-0.101770364
243	0x3ce8eaaa	0.028432209
244	0x3e423aca	0.18967739
245	0x3e3b33bb	0.18281452
246	0xbd8288d7	-0.063737564
247	0xbcfe1cd9	-0.031019615
248	0x3c9d9054	0.01923386
249	0x3d20335a	0.039111473
250	0x3cc05812	0.023479495
251	0xbe86e4cd	-0.26346436
252	0xbd4b8e10	-0.04969603
253	0x3df8b09a	0.12143059
254	0xbe12d6b2	-0.14339712
255	0xbc154f38	-0.0091131255

conv1.bias f4 [16]
0	0xbd8e1121	-0.06936861
1	0xbd056a36	-0.032571994
2	0x3caba097	0.020950599
3	0x3bfb9868	0.0076780804
4	0xbd9904e1	-0.07471634
5	0x3e5d3597	0.21602474
6	0x3dabe468	0.083931744
7	0x3e0f8480	0.14015388
8	0xbb22cb7f	-0.0024840531
9	0x3e26d19d	0.16290899
10	0x3e7e045c	0.2480635
11	0x3d35c19b	0.04437409
12	0x3e412e7f	0.18865393
13	0xbceb2c3b	-0.028707614
14	0x3de06b4c	0.10957965
15	0x3d57cf8f	0.052688178

conv2.weight f4 [32, 16, 4, 4]
0	0xbdec1529	-0.115274735
1	0xbd8e6c53	-0.06954255
2	0xbd58fba6	-0.052974366
3	0xbd1bccb7	-0.03803703
4	0xbd6a0cb7	-0.057141032
5	0xbde74692	-0.11292757
6	0xbcf30a4e	-0.029668
7	0xbe0a46de	-0.13503596
8	0xbe283a02	-0.16428378
9	0x3d5ea1dc	0.05435358
10	0x3d03e16b	0.032197397
11	0x3d95d978	0.073168695
12	0x3eb16565	0.3464767
13	0xbe77e7c7	-0.2420951
14	0xbd37c74e	-0.044867806
15	0xbdb3c121	-0.08777071
16	0xbe13263e	-0.14370057
17	0xbba0e24b	-0.0049097887
18	0xbd84eb04	-0.06490138
19	0xbd3496dc	-0.044089183
20	0xbd7384d6	-0.059452854
21	0xbd740cf4	-0.059582666
22	0xbdb2e628	-0.08735305
23	0xbd6b311a	-0.057419874
24	0xbd5698e5	-0.052391905
25	0x3c2ccf32	0.010547446
26	0xbd4c24ba	-0.049839713
27	0x3d9f9811	0.07792676
28	0xbde2ddd9	-0.1107747
29	0xbe2df8af	-0.16989397
30	0xbdc1dc1b	-0.0946581
31	0xbdf81d9f	-0.12115025
32	0xbd6a8c91	-0.05726296
33	0xbca0d9f1	-0.019635173
34	0xbdce9d16	-0.100885555
35	0xbdbd252d	-0.09235606
36	0xbcedf80f	-0.029048948
37	0xbd6549dd	-0.055978645
38	0xbdca4dac	-0.09878096
39	0xbd9dca59	-0.077046104
40	0xbd032165	-0.03201427
41	0xbda0b47e	-0.07846926
42	0x3d573b1e	0.052546613
43	0xbd673b96	-0.05645331
44	0xbe03b7ac	-0.12863034
45	0xbca6cd67	-0.020361615
46	0xbc0e1549	-0.008672067
47	0xbd7c7da8	-0.061643273
48	0xbd17acc0	-0.03702998
49	0xbcc93fba	-0.02456652
50	0xbcc02174	-0.023453452
51	0xbcc0f4cf	-0.023554234
52	0xbdbbc878	-0.09169096
53	0x3c47273e	0.012155352
54	0xbab032bc	-0.0013442854
55	0xbddd8b85	-0.10817627
56	0xbc05fc2e	-0.0081778
57	0xbd0518da	-0.032494403
58	0xbd6d7400	-0.057971954
59	0xbc890ad8	-0.016728804
60	0xbd98c241	-0.07458926
61	0xbd94d803	-0.072677635
62	0xbda1c38b	-0.07898625
63	0xbddbb6ad	-0.10728202
64	0xbd8f156c	-0.06986508
65	0xbd670afa	-0.056406952
66	0xbd118ca8	-0.03553453
67	0xbe0cbedb	-0.1374468
68	0xbd0ae578	-0.033910245
69	0xbdb68eb8	-0.0891394
70	0xbde0a442	-0.1096883
71	0xbdbb1a7b	-0.0913591
72	0xbd171341	-0.036883596
73	0xbd01085c	-0.031502113
74	0xb918d560	-0.00014575338
75	0x3c457a6c	0.012053113
76	0xbd279ec6	-0.040922903
77	0x3d3cc49b	0.046085935
78	0xbd403ec3	-0.046934854
79	0xbca7dba4	-0.020490475
80	0xbc4f04ea	-0.012635449
81	0xbd7a3d79	-0.06109378
82	0xbd27454f	-0.040837582
83	0xbdac1532	-0.0840248
84	0x3c9495b9	0.0181378
85	0x3bcdfae6	0.006286013
86	0xbd7a64bc	-0.061131224
87	0xbdaab8ad	-0.08336005
88	0x3c294c8a	0.01033319
89	0x3bdd6659	0.0067565856
90	0xbc054568	-0.0081342235
91	0xbd17c934	-0.037057117
92	0xbd33e03b	-0.043915015
93	0xbcd435dd	-0.02590459
94	0x3c16f1e0	0.009212941
95	0x3c3e2726	0.011606013
96	0xbdd007d5	-0.10157744
97	0xbd2b3d86	-0.04180672
98	0xbdc6d62e	-0.0970882
99	0xbda2a809	-0.079422064
100	0xbde5ed0b	-0.11226853
101	0xbd2ab0e2	-0.041672595
102	0xbe212e7c	-0.15740389
103	0xbd0095c3	-0.031392824
104	0xbd97c9a8	-0.0741151
105	0x3bdb12e2	0.0066856006
106	0xbbc3e4be	-0.005978196
107	0xbd8b4ac9	-0.068013735
108	0xbddfd0d5	-0.109285034
109	0x3cc0a35f	0.023515401
110	0xbe14f724	-0.14547402
111	0xbdd0af81	-0.10189725
112	0xbc813624	-0.015772887
113	0xbd421496	-0.047382914
114	0x3ad30a55	0.0016101102
115	0x3c93cc5e	0.018041786
116	0xbda03eb0	-0.07824457
117	0xbd020437	-0.0317423
118	0xbdb031a4	-0.08603218
119	0xbd24169c	-0.040060624
120	0xbcf706e5	-0.030154655
121	0xba338d1c	-0.0006849335
122	0xbda11ca2	-0.078667894
123	0x3a08e701	0.00052224105
124	0xbd80b2b9	-0.06284089
125	0xbd223439	-0.039600585
126	0xbd721fee	-0.05911248
127	0xbda5e880	-0.081009865
128	0xbd797c32	-0.060909458
129	0xbddb2ce4	-0.107019216
130	0xbd27d480	-0.04097414
131	0xbdf6420c	-0.12024316
132	0x3b0b6bcd	0.002127397
133	0xbd7c48ee	-0.06159299
134	0xbd92e5fb	-0.071727715
135	0xbdeaf344	-0.114721805
136	0xbd827f23	-0.06371906
137	0xbddfa7fa	-0.10920711
138	0xbdcfe426	-0.10150938
139	0xbda091a2	-0.07840277
140	0xbe35ec88	-0.17766011
141	0xbe23567c	-0.1595096
142	0x3d3da89a	0.04630337
143	0xbd822486	-0.063546225
144	0xbc40a08a	-0.0117570255
145	0x3bcf19fb	0.006320236
146	0xbd36dd54	-0.04464467
147	0xbc1195a8	-0.0088857785
148	0xbd1ee5f4	-0.03879352
149	0xbd6da0ec	-0.058014795
150	0xbc339a3c	-0.010962065
151	0xbd79d43d	-0.06099342
152	0xbd6d09c4	-0.05787064
153	0xbd64c330	-0.055850208
154	0xbde90e61	-0.11379696
155	0xbd9c079f	-0.07618641
156	0xbc5e0c23	-0.013552698
157	0xbde7dc79	-0.11321349
158	0x3c6d5fcf	0.014488175
159	0xbd906275	-0.07050029
160	0xbd382924	-0.04496111
161	0xbda6a721	-0.08137346
162	0xbda32c5d	-0.07967446
163	0x3c976786	0.018481981
164	0xbc1288ee	-0.008943779
165	0xbda903e5	-0.08252696
166	0xbdaf227f	-0.085515015
167	0xbd85fbc5	-0.06542162
168	0xba1fffc9	-0.00061034836
169	0xbd95e71d	-0.07319472
170	0x3cd8a1f4	0.026444413
171	0xbc016c24	-0.007899318
172	0xbc6a1b60	-0.014288753
173	0xbd19c70d	-0.037543345
174	0x3c376618	0.011193775
175	0xbd259529	-0.040425453
176	0xbd853603	-0.065044425
177	0xbd5d03dc	-0.05395876
178	0xbc056d2b	-0.008143703
179	0xbd471faa	-0.04861418
180	0xbd96c85e	-0.07362436
181	0x3c693bc8	0.014235444
182	0xbd97295e	-0.07380937
183	0xbd93eaa0	-0.072224855
184	0xbd4b5612	-0.04964263
185	0x3c0921d4	0.008369882
186	0xbcd3acaa	-0.025839169
187	0xbdbc0a4e	-0.09181653
188	0xbd54dd91	-0.051969115
189	0xbdb449b6	-0.08803122
190	0xbda17d32	-0.07885207
191	0xbdcae6b3	-0.09907284
192	0xbd016387	-0.031589057
193	0xbd076a5a	-0.03306041
194	0xbbeed6e6	-0.0072888015
195	0xbc0a0392	-0.008423703
196	0xbd8b955d	-0.06815598
197	0xbd1eef0a	-0.038802184
198	0xbb989dc6	-0.00465748
199	0xbdacc6a6	-0.08436327
200	0x3c6100aa	0.0137330685
201	0xbdd0c501	-0.101938255
202	0xbd209de4	-0.039213076
203	0xbd9f4a6b	-0.07777866
204	0xbc189211	-0.009312169
205	0xbdd4367c	-0.103619546
206	0xbd97d688	-0.074139655
207	0xbc11e858	-0.008905493
208	0xbd3074b3	-0.043080043
209	0x3bb3cb80	0.0054869056
210	0xbddf25b0	-0.1089586
211	0xbd4cd520	-0.05000794
212	0xbc116719	-0.008874678
213	0xbd9e0b5b	-0.0771701
214	0x3cb4eb8c	0.022084974
215	0xbdb2f8eb	-0.087388836
216	0xbe08c24c	-0.13355368
217	0xbd1d0984	-0.038339153
218	0xbdbd08f9	-0.09230227
219	0xbe0a7bf0	-0.13523841
220	0xbd46aaee	-0.048502855
221	0xbd8a7f3f	-0.067625515
222	0xbdc2b287	-0.09506708
223	0xbda10064	-0.07861403
224	0xbc7c5c08	-0.015402801
225	0xba742b70	-0.0009314334
226	0xbd5fa06e	-0.054596357
227	0xbd9f5a1a	-0.077808574
228	0xbdebc0a5	-0.115113534
229	0xbe0443e0	-0.12916517
230	0x3cc4f507	0.02404262
231	0xbd555daa	-0.052091278
232	0xbd18e08f	-0.03732353
233	0x3cfd1f25	0.03089864
234	0xbdd0f731	-0.10203398
235	0xbd9dfa42	-0.077137485
236	0xbd3f75c3	-0.046743166
237	0xbe0ab78f	-0.13546585
238	0xbcf51472	-0.029916976
239	0xbdddae86	-0.10824303
240	0xbddf0716	-0.108900234
241	0xbd8828f3	-0.066484354
242	0xbd32b4fc	-0.04362963
243	0xbd853253	-0.06503739
244	0xbda9d34d	-0.082922556
245	0xbdecc592	-0.11561121
246	0xbb10cbc7	-0.0022094117
247	0xbbaf726c	-0.0053542163
248	0xbdc26ba9	-0.09493191
249	0xbc60828a	-0.013702998
250	0x3d10e7d8	0.035377353
251	0xbd5b9a30	-0.05361384
252	0xbd6d03d3	-0.057864975
253	0xbdaf1804	-0.085495025
254	0xbd3e0fa2	-0.046401627
255	0xbc6153d5	-0.013752897

conv2.bias f4 [32]
0	0x3d4f3a27	0.050592568
1	0xbd923beb	-0.07140335
2	0x3cea9b37	0.028638465
3	0xbc8c493a	-0.01712476
4	0x3e3982fb	0.18116371
5	0xbce5af2d	-0.028037632
6	0x3e28b751	0.1647618
7	0x3d3b66f0	0.045752466
8	0xbd8e8f8a	-0.06960972
9	0x3e172a62	0.14762262
10	0x3da204be	0.07911061
11	0x3e60d0f4	0.2195471
12	0xbc82a75c	-0.015948944
13	0xbcd50220	-0.02600199
14	0xbc7c01f4	-0.015381325
15	0x3de56880	0.112015724
16	0x3e0e49d0	0.13895345
17	0x3d89ccd5	0.06728522
18	0xbd97723a	-0.07394834
19	0x3d9a01b3	0.07519855
20	0x3cc7205c	0.024307422
21	0x3e28e88d	0.16494961
22	0x3da8ce62	0.082424894
23	0x3e1ed677	0.155115
24	0x3e155b98	0.14585721
25	0xbd22a615	-0.03970917
26	0x3def624a	0.11688669
27	0x3ddcd0ad	0.10781989
28	0x3e2d3f3a	0.1691865
29	0x3d971b12	0.0737821
30	0x3c89bcc0	0.016813636
31	0xbdc877c8	-0.097884715
