DRL-based-path-finding/saved_models/dqn_best_model.pth (torch, 981101 bytes, 32 tensors)

conv1.weight f4 [16, 2, 4, 4]
-0.35445422 0.04091942 -0.0129366405 0.18928434 -0.3877047 -0.30372283 -0.34468645 -0.21304311
-0.24658279 -0.31347695 -0.033171296 -0.08924326 -0.084164664 -0.09996691 0.037686996 -0.45055935
-0.079494365 -0.12248694 -0.14907551 -0.12613311 -0.06384066 0.09068401 0.17244469 0.013374208
-0.0017811777 -0.05782892 0.08127442 -0.11436831 0.027249439 -0.04063049 0.07588011 0.04418234
-0.24487185 -0.13072287 -0.2135432 0.12674223 -0.33803585 -0.3373277 -0.34660482 -0.34632877
-0.14202549 -0.36823022 -0.0029978207 -0.41746342 -0.16247053 0.20742369 0.12384504 -0.13266093
-0.026584327 0.04901005 0.0045862678 0.05158837 0.09652448 0.017481968 -0.2570931 0.12619917
0.09769957 -0.1333208 0.13405074 0.059621565 0.18414555 -0.059424944 0.18029258 0.124363616
1.53945 0.47459182 0.60665244 -0.106838845 -0.09073014 -0.23050681 0.2539844 0.0077704415
-0.23878457 -0.1696054 -0.40086383 -0.0038896627 0.21245441 -0.035216745 -0.2468785 0.9675107
0.029538615 -0.06649047 -0.008323534 0.15429735 -0.12276332 -0.0028116992 -0.02231571 0.06204917
-0.12272015 -0.15254045 -0.15787904 0.02327973 -0.021671725 0.064692974 0.17996272 0.039747074
-0.03270826 -0.05459952 -0.21730779 -0.03709761 -0.27226192 -0.09333455 -0.25432807 -0.26719594
-0.14485128 0.58701706 -0.07952666 0.17237999 -0.08077099 -0.022959685 -0.21694598 1.1577648
0.1936624 0.0132756615 0.04367089 0.00980548 0.13134085 0.11893183 -0.09971456 -0.0103723025
-0.14288284 -0.1612867 0.18984838 0.102648035 0.15519974 0.21959236 -0.015170342 0.16469653
1.4545586 -0.10074281 0.16588393 -0.1607597 0.38868755 -0.09419912 -0.2964113 0.15343069
-0.15256406 -0.09985333 -0.16509835 0.12675731 -0.10772068 -0.05964416 -0.23621848 -0.2954341
-0.054136027 0.16473654 0.028596107 0.036620058 -0.06419547 -0.14529392 0.021075968 0.012027224
-0.06769913 -0.067522295 0.047690783 -0.016933097 -0.1071021 0.061467487 -0.10106044 -0.012998531
-0.07505426 -0.0704409 0.19433922 -0.38159126 -0.0803188 -0.0003763748 -0.13406734 -0.14113846
-0.21911591 0.021572502 -0.11361931 -0.30892214 -0.23532079 -0.11953013 -0.4684886 -0.4656018
0.022062952 0.07871853 -0.09417402 -0.1167609 -0.03810105 -0.34162417 0.15159774 -0.21035214
-0.029709743 -0.16820608 -0.22336525 0.06935356 0.048200563 -0.13866591 -0.107599705 -0.00585354
0.6068137 0.087641194 -0.1728006 -0.15617572 0.43603075 0.17421137 -0.21816544 -0.17218757
0.4236512 0.24175589 -0.15637891 -0.15557687 0.112049975 1.1571277 0.3836071 -0.7418942
-0.13620736 -0.35845196 0.07117738 -0.02953069 -0.1324068 -0.22935908 -0.11593795 -0.07688684
-0.093916476 -0.012541191 0.0011923624 -0.10599027 -0.24627559 0.013485227 -0.07940446 -0.17043494
0.48661122 -0.29836777 -0.40386578 0.06413453 0.6185257 0.15938766 0.08835627 0.3024122
0.72691387 -0.014620807 0.17296031 0.45123821 0.45886436 1.3179411 -1.2892172 1.2770976
0.06849408 -0.17066313 0.105194755 0.08691964 -0.032077737 -0.055291932 0.13602865 0.024302557
-0.07517019 0.03410145 -0.1271252 -0.10464002 0.07507021 -0.04645433 -0.0740054 -0.34443614
00000000: 067b b5be 1f9b 273d 34f4 53bc c1d3 413e
00000010: 3b81 c6be 8f81 9bbe be7a b0be f927 5abe
00000020: 3380 7cbe 0d80 a0be a0de 07bd 2cc5 b6bd
00000030: 865e acbd 74bb ccbd ae5d 1a3d b7af e6be
00000040: f1cd a2bd 6fda fabd 40a7 18be 0a29 01be
00000050: e4be 82bd 8ab8 b93d 5795 303e 7e1f 5b3c
00000060: 6876 e9ba 05de 6cbd 3473 a63d ef39 eabd
00000070: 373a df3c 286c 26bd 0867 9b3d 8bf8 343d
00000080: b0bf 7abe 37dc 05be 12ab 5abe b7c8 013e
00000090: 0913 adbe 37b6 acbe 3076 b1be 0152 b1be
000000a0: 216f 11be ac88 bcbe 1677 44bb c4bd d5be
000000b0: ad5e 26be e066 543e 78a2 fd3d 44d8 07be
000000c0: 60c7 d9bc c3be 483d 6748 963b 544e 533d
000000d0: a0ae c53d 5836 8f3c b5a1 83be 5b3a 013e
000000e0: b616 c83d 3f85 08be 9944 093e be35 743d
000000f0: a790 3c3e 9267 73bd 9e9e 383e 5ab2 fe3d
00000100: b30c c53f b3fd f23e 934d 1b3f 53ce dabd
00000110: b9d0 b9bd fa09 6cbe 3e0a 823e 309f fe3b
00000120: f183 74be 0aad 2dbe 063e cdbe b6e9 7ebb
00000130: a68d 593e 6f3f 10bd b8cd 7cbe c8ae 773f
00000140: f7fa f13c 282c 88bd 6f5f 08bc 2000 1e3e
00000150: 566b fbbd 7c44 38bb 70cf b6bc 4527 7e3d
00000160: b454 fbbd 9033 1cbe 0bab 21be 22b5 be3c
00000170: e788 b1bc c07d 843d 2648 383e d4cd 223d
00000180: 19f9 05bd bfa3 5fbd ef85 5ebe aaf3 17bd
00000190: ea65 8bbe 2f26 bfbd 4a37 82be e8cd 88be
000001a0: e553 14be c046 163f e0de a2bd 6184 303e
000001b0: 436b a5bd f315 bcbc 1627 5ebe a331 943f
000001c0: 704f 463e 2982 593c 3fe0 323d 2aa7 203c
000001d0: 377e 063e 8892 f33d 2637 ccbd 97f0 29bc
000001e0: e14f 12be 5728 25be 9d67 423e 2239 d23d
000001f0: aeec 1e3e d2dc 603e 078d 78bc 35a6 283e
00000200: fa2e ba3f 3f52 cebd 7add 293e 319e 24be
00000210: 0e02 c73e 78eb c0bd 39c3 97be ef1c 1d3e
00000220: c139 1cbe e77f ccbd 8b0f 29be abcc 013e
00000230: a99c dcbd 6f4d 74bd 42e3 71be 2343 97be
00000240: bdbd 5dbd b2b0 283e 6242 ea3c eafe 153d
00000250: ea78 83bd eec7 14be 82a7 ac3c d50d 453c
00000260: d7a5 8abd 2149 8abd 6957 433d 47b7 8abc
00000270: 5958 dbbd 55c5 7b3d c7f8 cebd caf7 54bc
00000280: 0cb6 99bd 5243 90bd dc00 473e ee5f c3be
00000290: 2f7e a4bd 2c54 c5b9 f348 09be 9a86 10be
000002a0: ec5f 60be d1b8 b03c 3eb1 e8bd 0b2b 9ebe
000002b0: eff7 70be 36cc f4bd bddd efbe 5c63 eebe
000002c0: 5dbd b43c 2e37 a13d 4fde c0bd 5720 efbd
000002d0: d90f 1cbd 5de9 aebe 703c 1b3e 8d66 57be
000002e0: d961 f3bc 373e 2cbe dcb9 64be 3d09 8e3d
000002f0: f46d 453d 70fe 0dbe 3c5d dcbd 0dcf bfbb
00000300: 2558 1b3f 3a7d b33d a4f2 30be 87ec 1fbe
00000310: 6c3f df3e 7764 323e c366 5fbe f051 30be
00000320: cfe8 d83e db8e 773e cb21 20be 8b4f 1fbe
00000330: 757a e53d c31c 943f 2668 c43e c7ec 3dbf
00000340: f179 0bbe 0487 b7be 72c5 913d 58ea f1bc
00000350: a695 07be 1bdd 6abe e070 edbd d976 9dbd
00000360: 4857 c0bd 9179 4dbc 0b49 9c3a 6d11 d9bd
00000370: ab2f 7cbe 24f1 5c3c ce9e a2bd 7f86 2ebe
00000380: 1b25 f93e a9c3 98be 7fc7 cebe f758 833d
00000390: b357 1e3f 8536 233e 22f4 b43d c6d5 9a3e
000003a0: 0717 3a3f 1c8c 6fbc 821c 313e b208 e73e
000003b0: 45f0 ea3e 4bb2 a83f 1205 a5bf ef77 a33f
000003c0: a046 8c3d 51c2 2ebe 5970 d73d ed02 b23d
000003d0: f263 03bd cb79 62bd 184b 0b3e 2816 c73c
000003e0: d4f2 99bd f6ad 0b3d 1c2d 02be 824d d6bd
000003f0: 69be 993d e546 3ebd 2590 97bd ef59 b0be

conv1.bias f4 [16]
0.24337485 0.111569986 0.02095977 0.004573143 0.04886383 0.2032499 0.1837569 -0.03297436
0.06881785 -0.043681394 0.19301178 0.10643191 0.03068255 -0.0061526177 0.24989286 0.13436769
00000000: 4237 793e ce7e e43d d3b3 ab3c 4eda 953b
00000010: 7025 483d be20 503e c52a 3c3e 1f10 07bd
00000020: 5ff0 8c3d 43eb 32bd e1a4 453e f9f8 d93d
00000030: f959 fb3c e69b c9bb eae3 7f3e af97 093e

conv2.weight f4 [32, 16, 4, 4]
-0.010088534 0.03486795 0.026820006 -0.024533164 0.06090665 5.0144252e-05 -0.016191827 0.03009207
0.047184076 0.015257129 -0.024562472 0.04482378 0.08981712 0.0019508352 0.038238745 0.08093169
-0.056363363 0.0078014224 -0.059238713 -0.030824302 -0.029734196 0.06196209 0.038970303 0.023379853
0.023173934 0.01458843 -0.0005602555 0.0664581 -0.005299917 0.06665202 0.081244506 -0.015473805
0.18005483 0.13877678 0.1504845 0.0984339 -0.04584241 -0.02731408 -0.03761648 0.04910301
-0.14313075 -0.0336616 0.014772587 0.028223224 -0.25100046 -0.1086647 -0.098873645 -0.029020382
-0.03159285 0.04268987 -0.020212376 0.042394243 -0.009170885 -0.045425583 -0.02290426 0.04684932
0.037024185 0.05392065 0.037549347 0.024529774 0.03954236 0.041118886 -0.012095025 0.026149623
0.052953452 0.02399093 0.07543029 0.07148977 -0.09096347 -0.098973386 -0.03857724 0.02291777
-0.19499107 -0.1242807 -0.07581077 -0.04706566 -0.24080928 -0.09455509 -0.044624895 -0.019115184
0.044847198 0.013575338 -0.009720182 0.058211703 0.049989253 -0.030470857 -0.019967183 0.036259267
0.06306676 0.032261312 0.06834594 0.037403163 0.055313203 0.0688742 0.081079274 0.0391044
-0.17291056 -0.03603373 0.052028105 0.0317869 -0.05137731 -0.12062768 -0.0012399055 -0.0047129937
-0.12037755 -0.019775657 -0.046511184 -0.031069811 0.03258422 0.026821984 0.03507964 0.017911384
-0.1352369 -0.041855555 0.038776387 0.05851116 -0.21735406 -0.11886011 -0.05668231 -0.0022541846
-0.29224342 -0.24128824 -0.19069375 -0.14491437 -0.045499522 -0.16638497 -0.27644908 -0.20585355
-0.058189765 0.03796579 -0.014066854 -0.07279544 -0.024658578 -0.027921507 0.008107582 -0.024044944
0.025762336 -0.032810915 0.045446973 -0.04263557 0.060420264 0.061899904 0.07031417 0.007742545
-0.065221794 -0.07114581 0.016996743 -0.053382594 -0.18700401 -0.07372273 -0.00996066 0.0070054936
-0.21255893 -0.14331129 -0.0637485 -0.10443759 -0.2958981 -0.10115723 -0.06797895 -0.1081464
-0.02874553 0.060218267 -0.011370179 0.008682901 -0.019293128 -0.009696349 -0.043598603 -0.0217327
-0.010914289 -0.044181507 0.05414831 -0.017818674 -0.056160253 0.029049503 -0.061625812 0.036682498
0.006694005 -0.07656718 -0.12262818 -0.15733677 -0.04749255 -0.058334902 -0.09996452 -0.13831428
0.0129799945 0.0014412877 -0.07669491 -0.07476692 -0.022092521 0.012572608 0.052866675 0.0297024
-0.06688161 -0.00024282001 0.027067259 -0.08079404 -0.06292854 -0.0046526124 -0.019164039 -0.06913209
-0.121418916 -0.13269725 -0.092979744 0.0074308976 -0.17068654 0.007450648 -0.19244689 -0.12554695
-0.08419211 -0.04236753 -0.0063865436 -0.01689699 -0.12930028 -0.033090957 -0.012398937 -0.03562349
-0.12555778 -0.08962675 -0.038589425 0.027707145 -0.19444975 -0.050171863 0.007850901 -0.0413675
0.052760147 -0.050267 0.0046226964 0.027614381 0.07587491 0.058318585 -0.019062782 -0.051424697
0.007763867 -0.03589822 0.0749108 0.047709674 0.09084367 0.043941885 -0.022004697 0.01903627
0.06658609 -0.010328569 -0.03472798 0.06396113 0.00800548 0.07837369 0.06551097 0.04405189
-0.013619734 -0.032119107 0.047720484 0.01976329 -0.016974112 0.040909767 0.074426614 0.016036239
00000000: 614a 25bc b2d1 0e3d a1b5 db3c c6f9 c8bc
00000010: 4079 793d fb51 5238 b9a4 84bc a583 f63c
00000020: 1744 413d 0af9 793c 3d37 c9bc 2499 373d
00000030: 0af2 b73d 2bb3 ff3a 3ba0 1c3d 84bf a53d
00000040: 45dd 66bd 13a3 ff3b 4ba4 72bd 3f83 fcbc
00000050: 2195 f3bc f6cb 7d3d 539f 1f3d 1b87 bf3c
00000060: 43d7 bd3c 4f04 6f3c 1cde 12ba 2f1b 883d
00000070: edaa adbb db80 883d 8563 a63d d885 7dbc
00000080: 4b60 383e 801b 0e3e 9c18 1a3e b697 c93d
00000090: 40c5 3bbd c7c1 dfbc bd13 1abd 3d20 493d
000000a0: de90 12be bfe0 09bd b908 723c 6434 e73c
000000b0: 2283 80be 998b debd 447e cabd 27bc edbc
000000c0: 8167 01bd 93db 2e3d 6d94 a5bc 96a5 2d3d
000000d0: 7b41 16bc 2d10 3abd b7a1 bbbc 13e5 3f3d
000000e0: aca6 173d e6db 5c3d 58cd 193d aaf2 c83c
000000f0: 2bf7 213d 476c 283d 362a 46bc bc37 d63c
00000100: b8e5 583d a088 c43c 327b 9a3d 3b69 923d
00000110: 0e4b babd 8fb2 cabd 2b03 1ebd 0cbe bb3c
00000120: bdab 47be e186 febd ad42 9bbd ecc7 40bd
00000130: b596 76be 19a6 c1bd 98c8 36bd 7297 9cbc
00000140: b2b1 373d 186b 5e3c 6641 1fbc 656f 6e3d
00000150: 88c1 4c3d 059e f9bc 3892 a3bc 9984 143d
00000160: 2529 813d 7024 043d f5f8 8b3d 0f34 193d
00000170: 1990 623d eb0d 8d3d e40c a63d ef2b 203d
00000180: 770f 31be 1b98 13bd 6c1b 553d fb32 023d
00000190: 0471 52bd a50b f7bd 5384 a2ba 756f 9abb
000001a0: 8188 f6bd 8f00 a2bc 8382 3ebd 1e86 febc
000001b0: 0877 053d c7b9 db3c abaf 0f3d e5ba 923c
000001c0: 8b7b 0abe bb70 2bbd fdd3 1e3d 66a9 6f3d
000001d0: 1092 5ebe ee6c f3bd b62b 68bd f1ba 13bb
000001e0: eea0 95be 4414 77be 3945 43be 6f64 14be
000001f0: b55d 3abd d260 2abe bc8a 8dbe 46cb 52be
00000200: 6458 6ebd 0482 1b3d a978 66bc c715 95bd
00000210: c900 cabc a5bb e4bc aad5 043c e7f9 c4bc
00000220: 890b d33c bd64 06bd 9b26 3a3d a3a2 2ebd
00000230: 3d7b 773d c18a 7d3d e000 903d 2db5 fd3b
00000240: 0193 85bd e5b4 91bd c13c 8b3c b5a7 5abd
00000250: fb7d 3fbe f1fb 96bd 0932 23bc 578e e53b
00000260: 0ca9 59be 32c0 12be 938e 82bd 60e3 d5bd
00000270: f57f 97be 862b cfbd 8c38 8bbd dc7b ddbd
00000280: bf7b ebbc 6ea7 763d fd49 3abc ba42 0e3c
00000290: 9f0c 9ebc 6fdd 1ebc 7394 32bd c608 b2bc
000002a0: d9d1 32bc abf7 34bd 9eca 5d3d 78f8 91bc
000002b0: 4b08 66bd 39f9 ed3c 596b 7cbd 6340 163d
000002c0: 6259 db3b 41cf 9cbd 7c24 fbbd e41c 21be
000002d0: 8c87 42bd 94f0 6ebd 33ba ccbd 42a2 0dbe
000002e0: 0baa 543c 97e9 bc3a 3912 9dbd 661f 99bd
000002f0: 60fb b4bc 57fd 4d3c ba8a 583d 7352 f33c
00000300: 3af9 88bd 809d 7eb9 28bc dd3c 5877 a5bd
00000310: aee0 80bd f174 98bb e7fd 9cbc 2095 8dbd
00000320: 7baa f8bd cae1 07be 2a6c bebd e37e f33b
00000330: 74c8 2ebe 9124 f43b cc10 45be 618f 00be
00000340: ea6c acbd 9389 2dbd 3646 d1bb 8e6b 8abc
00000350: 4b67 04be 628a 07bd e924 4bbc f0e9 11bd
00000360: 3892 00be 3b8e b7bd f20f 1ebd 18fa e23c
00000370: d61d 47be 0381 4dbd 11a1 003c f870 29bd
00000380: 061b 583d c5e4 4dbd fd79 973b 8e37 e23c
00000390: 4e64 9b3d 78df 6e3d 8d29 9cbc b4a2 52bd
000003a0: 0968 fe3b 030a 13bd d56a 993d 386b 433d
000003b0: 3f0c ba3d 68fc 333d 3243 b4bc f4f1 9b3c
000003c0: 4a5e 883d 2939 29bc ed3e 0ebd 0efe 823d
000003d0: 6b29 033c 6382 a03d 9e2a 863d c16f 343d
000003e0: 4e25 5fbc 538f 03bd 8e76 433d a0e6 a13c
000003f0: 4b0d 8bbc 0091 273d fb6c 983d 6e5e 833c

conv2.bias f4 [32]
0.07578529 -0.078769535 0.031246394 -0.034829088 0.06470518 -0.08163915 -0.035459403 0.07871292
0.044070322 -0.05898733 -0.06734381 0.16349985 0.08209013 0.033283256 0.08437957 0.048597038
0.16408604 -0.03885628 0.057281878 -0.05382132 0.0661666 0.0028461632 0.09263115 0.08935898
0.09536103 0.118379585 0.18292093 0.05650454 0.07912154 0.02224655 0.01566938 0.041000105
00000000: 5135 9b3d ec51 a1bd 70f8 ff3c f2a8 0ebd
00000010: 2684 843d 6d32 a7bd e13d 11bd 3d34 a13d
00000020: 1583 343d b39c 71bd 8deb 89bd 816c 273e
00000030: df1e a83d 0654 083d 32cf ac3d b00d 473d
00000040: 2c06 283e c327 1fbd 67a0 6a3d bf73 5cbd
00000050: 5b82 873d b286 3a3b 66b5 bd3d d701 b73d
00000060: a54c c33d ff70 f23d a04f 3b3e 4e71 673d
00000070: 790a a23d 663e b63c 125d 803c baef 273d

fc1.weight f4 [64, 800]
0.044087738 -0.012758591 -0.07469324 -0.0019908915 -0.0010434617 0.009789445 -0.008397055 0.041338023
0.044100467 0.030876258 -0.014126422 0.00711546 0.05618808 0.016028324 0.03699031 0.043233566
0.07896933 -0.0008127755 0.034983013 0.04637852 0.00011738694 0.015935136 -0.005794412 0.053129293
0.064147346 0.023997467 -0.024861168 0.015787542 -0.025483515 -0.03309653 -0.033992454 0.0041147918
0.021308005 0.008625194 -0.006846141 -0.015198896 0.005468607 -0.005357623 -0.017998746 -0.020651257
0.015624467 0.011326212 0.007489126 -0.0024788752 -0.012573818 -0.016348068 0.019662682 -0.012421362
-0.022038588 -0.017018823 0.08251946 0.23157744 -0.059924774 -0.0027364865 0.56873107 -0.1169129
-0.016607609 0.012931118 0.010520303 -0.17821836 0.11542231 0.07666951 -0.044907592 0.36661518
-0.17810419 0.113051094 -0.11604786 0.07272105 -0.107454404 0.3849061 0.4230304 0.042927615
0.31543484 0.20420758 -0.09874537 0.027286677 0.045648742 -0.02672905 -0.010127874 0.044345308
0.052324045 0.02427211 0.029033484 0.0369949 -0.0018181823 0.01854779 0.039143138 0.03269893
0.036947712 0.03584868 -0.028125633 0.009567688 -0.013808041 0.0593974 0.036683574 0.01878349
0.0399014 0.026985968 0.04335294 0.065794304 -0.22151488 0.020659816 0.06454364 0.009887831
0.047606803 0.16430001 0.0781156 0.058594506 0.013337331 0.049621534 0.06345518 0.07749448
0.016850254 0.025667837 0.022223607 -0.026407573 0.18095073 0.04725856 0.043127645 0.029883696
-0.0657824 0.08470203 -0.014762531 0.05146181 0.03734682 0.050850138 0.032926157 0.04355791
0.0020348488 0.017591057 0.0028019943 0.04546313 0.0135276355 -0.0120950565 -0.010557046 -0.016839687
0.034834992 -0.038291473 0.0024703543 -0.003777065 0.04328158 -0.007063119 -0.012619231 -0.028584452
0.1284244 -0.0040603145 0.02462998 -0.02007724 0.05382616 0.021131374 0.032467443 -0.027405307
-0.03116346 0.00032815748 0.026805762 -0.030395528 -0.023721563 0.00059622823 0.003112875 0.031105
0.025124691 -0.040046047 -0.03711305 -0.005118428 0.0043445257 -0.027333122 0.004426652 0.014052767
-0.034167055 0.03394105 0.0024508238 0.033885624 0.02100055 -0.027575407 -0.032838188 0.012634996
0.005575966 -0.0021858823 -0.01339489 -0.017806761 0.024265599 -0.0002780692 0.018509885 0.029097471
0.005218855 -0.04312268 -0.0109596765 0.0026831052 0.055000603 0.0009428522 0.04762664 0.07667931
-0.0062490976 -0.0053831856 0.025043536 0.015488082 0.016730012 -0.048364397 0.002843594 -0.012195769
-0.13762595 -0.14481075 0.21343902 -0.02142037 0.6221551 -0.09256596 -0.049389593 0.2000977
-0.2101697 -0.02797124 0.31329527 0.17998359 -0.023982767 -0.23852028 -0.10054995 0.14150073
0.02732189 -0.1409263 -0.18530688 -0.1665966 -0.25253525 0.10496768 -0.014922966 -0.09589087
-0.18985367 -0.23451467 -0.12618025 -0.11566605 0.008527013 0.0884988 0.08377823 -0.09884169
0.070688464 0.08927138 0.096077636 -0.040506557 0.16719565 0.0054606916 0.040679444 0.04231238
-0.1325856 0.052365504 0.02984052 0.024132049 0.044940647 -0.11774813 -0.0217827 -0.07207579
0.005130194 0.051534902 -0.0041550603 -0.024836443 -0.028112223 -0.027370326 0.0016086064 -0.005369816
00000000: 5895 343d 6909 51bc c5f8 98bd 9e79 02bb
00000010: c4c4 88ba e963 203c cd93 09bc 0f52 293d
00000020: b1a2 343d 35f0 fc3c 8272 67bc ce28 e93b
00000030: 7925 663d d54d 833c 2783 173d ae15 313d
00000040: acba a13d 7110 55ba 594a 0f3d 67f7 3d3d
00000050: a22d f638 678a 823c 0ddf bdbb 1a9e 593d
00000060: af5f 833d 5696 c43c a6a9 cbbc e054 813c
00000070: cec2 d0bc 3a90 07bd ac3b 0bbd 60d5 863b
00000080: 208e ae3c b050 0d3c 9855 e0bb ca04 79bc
00000090: 0032 b33b 008f afbb 1b72 93bc d32c a9bc
000000a0: c4fd 7f3c 9491 393c 5867 f53b a074 22bb
000000b0: 6a02 4ebc 62ec 85bc a213 a13c f882 4bbc
000000c0: 458a b4bc 0f6b 8bbc f6ff a83d a322 6d3e
000000d0: ae73 75bd a056 33bb 5c98 113f 0870 efbd
000000e0: ae0c 88bc 0add 533c 595d 2c3c e07e 36be
000000f0: 8862 ec3d e704 9d3d 06f1 37bd fcb4 bb3e
00000100: f260 36be 5587 e73d 80aa edbd c6ee 943d
00000110: 0e11 dcbd 6a12 c53e 7197 d83e ded4 2f3d
00000120: ad80 a13e cb1b 513e 033b cabd 4f88 df3c
00000130: 2dfa 3a3d e1f6 dabc 62ef 25bc 6da3 353d
00000140: bd51 563d 4ed6 c63c a1d7 ed3c f787 173d
00000150: 1350 eeba 89f1 973c 8e54 203d 50ef 053d
00000160: 7c56 173d 11d6 123d ba67 e6bc cbc1 1c3c
00000170: 1f3b 62bc b04a 733d 8441 163d d5df 993c
00000180: a76f 233d ad11 dd3c da92 313d 2abf 863d
00000190: ccd4 62be c63e a93c 752f 843d 9200 223c
000001a0: 5aff 423d 433e 283e 12fb 9f3d cb00 703d
000001b0: d284 5a3c f33f 4b3d caf4 813d 6db5 9e3d
000001c0: 8b09 8a3c 5b45 d23c 480e b63c b254 d8bc
000001d0: 264b 393e 3192 413d 9da6 303d a7ce f43c
000001e0: ecb8 86bd 4278 ad3d 8bde 71bc 9ec9 523d
000001f0: fbf8 183d 3c48 503d 94dd 063d c769 323d
00000200: 195b 053b 1f1b 903c aaa1 373b 8c37 3a3d
00000210: 04a3 5d3c 582a 46bc 76f7 2cbc 62f3 89bc
00000220: 23af 0e3d 85d7 1cbd abe5 213b a388 77bb
00000230: 0748 313d bd71 e7bb e4c0 4ebc f129 eabc
00000240: b081 033e 630c 85bb d0c4 c93c 0679 a4bc
00000250: d278 5c3d b41b ad3c 95fc 043d 1881 e0bc
00000260: 834a ffbc 8d0c ac39 c297 db3c 0b00 f9bc
00000270: b953 c2bc 334c 1c3a 6001 4c3b eacf fe3c
00000280: 4cd2 cd3c 5307 24bd db03 18bd 7cb8 a7bb
00000290: 865c 8e3b b6e9 dfbc 730d 913b 943d 663c
000002a0: c1f2 0bbd c505 0b3d 009e 203b a7cb 0a3d
000002b0: 5809 ac3c d2e5 e1bc 5681 06bd 0403 4f3c
000002c0: 98b6 b63b 0541 0fbb 3e76 5bbc 7cdf 91bc
000002d0: a6c8 c63c d1c9 91b9 0ba2 973c d25d ee3c
000002e0: ee02 ab3b 68a1 30bd 3790 33bc 09d7 2f3b
000002f0: 5048 613d bd29 773a 2714 433d 0b0a 9d3d
00000300: 3bc5 ccbb 6f65 b0bb 1a28 cd3c b9c1 7d3c
00000310: 610d 893c bf19 46bd 975b 3a3b c3d0 47bc
00000320: d1ed 0cbe 4549 14be c28f 5a3e c679 afbc
00000330: 8e45 1f3f 3993 bdbd be4c 4abd 69e6 4c3e
00000340: ba36 57be f123 e5bc 3d68 a03e 9e4d 383e
00000350: 8277 c4bc a93e 74be 22ed cdbd 91e5 103e
00000360: 28d2 df3c fc4e 10be 16c1 3dbe 4d98 2abe
00000370: 4d4c 81be 4cf9 d63d 757f 74bc 6f62 c4bd
00000380: 0069 42be 9d24 70be 6535 01be 52e2 ecbd
00000390: e2b4 0b3c dc3e b53d ec93 ab3d 836d cabd
000003a0: 1dc5 903d ead3 b63d 5ac4 c43d 34ea 25bd
000003b0: 5635 2b3e 9aef b23b 7d9f 263d bf4f 2d3d
000003c0: 85c4 07be 367d 563d 1b74 f43c 93b0 c53c
000003d0: af13 383d ee25 f1bd a271 b2bc 799c 93bd
000003e0: 301b a83b 4316 533d 2c27 88bb cc75 cbbc
000003f0: 9b4b e6bc bc37 e0bc e0d7 d23a 48f5 afbb

fc1.bias f4 [64]
0.0028333042 -0.015646158 0.10920889 0.000821512 -0.0270914 0.06523312 -0.02772217 0.01306651
-0.044991415 0.074782595 0.0938124 -0.0138872145 -0.039002545 -0.028049111 -0.007995148 -0.006790162
-0.041084528 -0.037588824 -0.013956923 -0.013631225 0.042258237 0.05684523 0.053117644 -0.03548669
0.031081447 -0.05760011 -0.00970086 0.037998013 0.00063021143 0.08257313 -0.014306142 0.0070437514
0.089283004 0.060944933 0.010621691 -0.0006124066 0.028561108 0.0531329 -0.05009276 0.11561561
0.08545736 -0.034592967 0.0165633 -0.023582082 -0.0020733802 -0.02261196 0.043437317 0.09742733
0.05326776 0.0461783 -0.025795441 0.13045618 0.0044096257 0.06600553 -0.05955187 0.010732149
-0.025811074 -0.029546915 -0.06596841 -0.01178013 -0.00052422035 -0.043113198 -0.016288565 -0.03573324
00000000: f5ae 393b 5f2c 80bc e9a8 df3d bd5a 573a
00000010: c9ee ddbc f198 853d 9b19 e3bc ea14 563c
00000020: eb48 38bd 9e27 993d b720 c03d 3387 63bc
00000030: 22c1 1fbd 40c7 e5bc 15fe 02bc 0280 debb
00000040: 4048 28bd bdf6 19bd 94ab 64bc 8055 5fbc
00000050: f916 2d3d 8bd6 683d e391 593d 7e5a 11bd
00000060: 859e fe3c 18ee 6bbd 5bf0 1ebc cea3 1b3d
00000070: c634 253a 1a1c a93d 4f64 6abc 45cf e63b
00000080: 02da b63d 65a1 793d 9a06 2e3c e989 20ba
00000090: fcf8 e93c e2a1 593d 112e 4dbd e0c7 ec3d
000000a0: 4504 af3d 5bb1 0dbd c2af 873c 362f c1bc
000000b0: 8ce1 07bb b83c b9bc 54eb 313d fb87 c73d
000000c0: 4b2f 5a3d 7525 3d3d f650 d3bc 4e96 053e
000000d0: 9f7e 903b e82d 873d a9ec 73bd e5d5 2f3c
000000e0: bf71 d3bc 5f0c f2bc 721a 87bd 7201 41bc
000000f0: d56b 09ba 7797 30bd 996f 85bc 055d 12bd

fc4.weight f4 [8, 64]
0.26289386 -0.06384661 -0.168948 -0.041878927 0.06370677 -0.0714635 -0.07245074 -0.08794251
-0.12495713 -0.13799499 -0.4094361 0.09637826 -0.079920456 -0.10254733 0.033139367 0.0065278374
-0.020110566 0.11306701 0.014073611 -0.030798007 -0.037976958 -0.06640765 -0.07043139 0.047651604
-0.09439492 -0.116628006 0.05615593 0.054516964 -0.11637519 -0.38478592 -0.04990222 0.21994507
-0.22096509 0.043432068 -0.15568139 0.185426 -0.058788493 -0.2442119 0.037575513 0.124998264
-0.23729207 -0.069459006 -0.11012966 -0.1059886 0.1087427 -0.009541107 0.119993955 -0.29345536
0.3713245 0.17978828 0.06218155 -0.17228824 0.070400394 0.08607627 -0.08078996 -0.06832127
-0.09028062 0.06537223 0.010509091 -0.03890512 -0.06588533 -0.05772998 0.10824822 -0.07318904
-0.035737064 0.08409103 -0.18922333 0.08329803 0.085440844 0.1322793 -0.08648796 -0.048952583
0.0055985227 -0.12388958 -0.10158427 0.035359282 0.10483898 0.040863194 -0.123018235 -0.13251959
-0.089278266 0.07348877 0.22424538 0.076542795 -0.057976905 -0.081718706 -0.26920488 0.054535985
-0.111401886 -0.035014536 0.027438829 0.11604907 0.105629325 0.062471937 -0.03864439 0.24659406
-0.1512687 0.19685847 0.15248871 -0.015412281 0.010370572 0.22596507 -0.020799723 0.123078674
-0.29255405 0.05491346 0.0042045927 -0.05643097 0.07171361 -0.0801246 -0.04624149 -0.2894
-0.28323054 -0.054126732 0.10489341 -0.12082714 0.19888724 -0.04721416 0.07733486 -0.09937052
-0.05802442 -0.12585707 0.08296495 0.07325095 -0.027538056 0.1500618 -0.02646266 0.1066696
0.04648696 0.02131632 0.18970461 0.09413919 0.04145047 0.021953115 0.09371665 0.01795949
0.05373163 -0.013998493 0.019464588 -0.012042213 -0.015601708 0.056784485 -0.078859575 0.0401684
-0.08823255 -0.0138366725 -0.111346416 0.039893597 0.041944746 0.22573015 -0.16533533 -0.096514955
-0.17070885 0.066764295 0.08633738 0.15375325 0.00972255 -0.12731704 0.03738692 0.096377626
0.03706694 -0.0072701476 0.1473018 -0.016818985 0.050477356 -0.11116471 0.102012694 0.12412375
-0.12134988 -0.07040149 0.11416066 0.10325154 -0.02740352 0.07293019 -0.08140713 -0.22538823
0.33961087 0.18600129 0.09343533 -0.24148922 0.07661775 0.10094294 -0.06397082 0.017331293
0.0838533 0.27055466 -0.065319195 -0.08976762 -0.017985301 -0.022076111 -0.11207117 0.09749868
0.11596085 -0.009805635 -0.41138023 -0.106744096 -0.004391089 0.23713365 -0.11975464 -0.043456934
-0.012438676 0.10883531 0.046581645 -0.103114344 0.07645401 0.079847775 0.07581465 0.006833371
-0.0480465 -0.023915077 0.109168984 0.11484179 0.18395607 -0.20147137 0.23595406 0.028164461
-0.13370016 0.04936509 -0.06699075 0.23223728 0.01241459 0.2706335 0.08113987 0.1431459
-0.33971325 -0.124158695 -0.027551547 0.012544658 -0.009504959 0.2795916 0.07132502 -0.0045648473
0.013176247 -0.046966057 -0.08972098 0.09460101 0.06458861 0.09016101 -0.10293657 0.020738466
-0.12232181 -0.0951655 0.027977722 -0.157465 0.07453041 -0.5726348 -0.11270008 0.10363655
-0.10674371 0.08866462 -0.010918045 0.008700855 -0.006865526 0.062879115 0.018108591 0.01665378
00000000: 069a 863e 03c2 82bd b400 2dbe 3d89 2bbd
00000010: b278 823d 755b 92bd 0e61 94bd 341b b4bd
00000020: 86e9 ffbd 8f4e 0dbe 9ca1 d1be f761 c53d
00000030: 56ad a3bd 5604 d2bd 25bd 073d 78e7 d53b
00000040: eabe a4bc ad8f e73d 0195 663c 1a4c fcbc
00000050: ba8d 1bbd bc00 88bd 553e 90bd 542e 433d
00000060: 2052 c1bd aada eebd c303 663d 2e4d 5f3d
00000070: 1e56 eebd a902 c5be 4566 4cbd 4839 613e
00000080: ac44 62be d3e5 313d f16a 1fbe 50e0 3d3e
00000090: 34cc 70bd af12 7abe c8e8 193d 17ff ff3d
000000a0: b1fc 72be 8640 8ebd a98b e1bd 8d10 d9bd
000000b0: 7eb4 de3d 4e52 1cbc 64bf f53d c83f 96be
000000c0: 3f1e be3e 6b1a 383e 15b2 7e3d 546c 30be
000000d0: 152e 903d c148 b03d 3575 a5bd 06ec 8bbd
000000e0: 0ce5 b8bd e0e1 853d 532e 2c3c fa5a 1fbd
000000f0: e3ee 86bd 4676 6cbd 3eb1 dd3d 23e4 95bd
00000100: 0761 12bd eb37 ac3d c3c3 41be 2898 aa3d
00000110: 9cfb ae3d 3a74 073e 9920 b1bd 8182 48bd
00000120: d073 b73b d2b9 fdbd 6a0b d0bd e5d4 103d
00000130: d2b5 d63d 2a60 273d fcf0 fbbd 37b3 07be
00000140: 86d7 b6bd 4881 963d 95a0 653e 78c2 9c3d
00000150: 3179 6dbd 235c a7bd 39d5 89be 2061 5f3d
00000160: ac26 e4bd 676b 0fbd 65c7 e03c 23ab ed3d
00000170: 3054 d83d 93e2 7f3d 9449 1ebd 2783 7c3e
00000180: 2fe6 1abe 4495 493e 0026 1c3e cb83 7cbc
00000190: 55e9 293c 6363 673e 2e64 aabc ac10 fc3d
000001a0: a5c9 95be f0ec 603d aec6 893b 2924 67bd
000001b0: 96de 923d 5e18 a4bd b767 3dbd 3d2c 94be
000001c0: 9803 91be feb3 5dbd 5bd2 d63d 3874 f7bd
000001d0: 19a9 4b3e a363 41bd bd61 9e3d c582 cbbd
000001e0: 04ab 6dbd ade0 00be 87e9 a93d 9804 963d
000001f0: 7d97 e1bc cda9 193e 38c8 d8bc 9775 da3d
00000200: 1c69 3e3d 909f ae3c ed41 423e 0ccc c03d
00000210: f8c7 293d 05d7 b33c 84ee bf3d c81f 933c
00000220: b315 5c3d ef59 65bc 3374 9f3c b44c 45bc
00000230: 4e9e 7fbc d996 683d 2181 a1bd 9f87 243d
00000240: 44b3 b4bd 36b3 62bc 9709 e4bd 7867 233d
00000250: 41ce 2b3d ce25 673e aa4d 29be a2a9 c5bd
00000260: 4dce 2ebe b8bb 883d a7d1 b03d 7e71 1d3e
00000270: 554b 1f3c 665f 02be 0723 193d a261 c53d
00000280: 81d3 173d 6b3a eebb 48d6 163e f8c7 89bc
00000290: 58c1 4e3d 53aa e3bd 08ec d03d 9834 fe3d
000002a0: 4986 f8bd a82e 90bd 10cd e93d 8b75 d33d
000002b0: 597d e0bc 6c5c 953d c8b8 a6bd 2ccc 66be
000002c0: 7ae1 ad3e 1f77 3e3e 065b bf3d f348 77be
000002d0: c4e9 9c3d 2cbb ce3d 2203 83bd 5bfa 8d3c
000002e0: 47bb ab3d 2486 8a3e 12c6 85bd 16d8 b7bd
000002f0: e955 93bc f6d8 b4bc 9285 e5bd 63ad c73d
00000300: e27c ed3d d0a7 20bc 6ea0 d2be a69c dabd
00000310: 20e3 8fbb 2ad3 723e ec41 f5bd e6ff 31bd
00000320: 97cb 4bbc 0ce5 de3d 65cc 3e3d 9d2d d3bd
00000330: ec93 9c3d 3b87 a33d b644 9b3d 78ea df3b
00000340: 68cc 44bd 8de9 c3bc fd93 df3d 2c32 eb3d
00000350: fb5e 3c3e 834e 4ebe f19d 713e 28b9 e63c
00000360: b2e8 08be 0c33 4a3d 7232 89bd 9ccf 6d3e
00000370: 9166 4b3c 7990 8a3e a92c a63d d794 123e
00000380: e5ee adbe ea46 febd c8b3 e1bc 1c88 4d3c
00000390: b0ba 1bbc a126 8f3e da12 923d b794 95bb
000003a0: 2fe1 573c 7b5f 40bd a2bf b7bd 2dbe c13d
000003b0: 0847 843d 56a6 b83d 69d0 d2bd b7e3 a93c
000003c0: db83 fabd 21e6 c2bd 8931 e53c 813e 21be
000003d0: 66a3 983d 3298 12bf 4dcf e6bd 663f d43d
000003e0: 729c dabd cc95 b53d 9ae1 32bc 088e 0e3c
000003f0: 35f8 e0bb c4c6 803d 7858 943c 826d 883c

fc4.bias f4 [8]
0.002114093 0.10751515 0.09971385 0.053330477 -0.056889195 -0.0655436 0.02177028 0.0955146
00000000: 988c 0a3b e730 dc3d c636 cc3d 0f71 5a3d
00000010: a504 69bd b93b 86bd 9657 b23c 299d c33d

conv1.weight f4 [16, 2, 4, 4]
-0.35368884 0.041887518 -0.009010352 0.19058055 -0.38910306 -0.3037358 -0.34468645 -0.2159225
-0.24706753 -0.31347558 -0.031916518 -0.09145163 -0.084042765 -0.098488286 0.048739307 -0.45055935
-0.07727682 -0.119202234 -0.14497547 -0.11987533 -0.063191056 0.09312191 0.1765495 0.01692643
0.0003042336 -0.05463113 0.084854625 -0.11124046 0.028797356 -0.039921746 0.07925266 0.04841117
-0.22934353 -0.122529976 -0.19875722 0.12650777 -0.33970323 -0.3373277 -0.34660482 -0.34632877
-0.1376471 -0.3671855 -0.0039509186 -0.41729566 -0.1593361 0.20797499 0.13445486 -0.1283685
-0.025451897 0.051329736 0.009434543 0.058164056 0.0992179 0.020145949 -0.25484318 0.13083082
0.09709966 -0.13121313 0.1369589 0.06391301 0.18664342 -0.055650465 0.18289259 0.12712389
1.5219405 0.46223292 0.5936115 -0.106838845 -0.08838082 -0.23216487 0.25415114 0.012700628
-0.23878457 -0.16949172 -0.40086383 -0.0021106668 0.21217576 -0.036211297 -0.2468785 0.9609637
0.031077877 -0.067363426 -0.010371025 0.15457836 -0.12656556 -0.001649897 -0.02185101 0.062403653
-0.12443849 -0.15593387 -0.1635485 0.024289902 -0.02018809 0.06380168 0.1814656 0.037292298
-0.016642611 -0.047217682 -0.21730779 -0.037047606 -0.27226192 -0.0928658 -0.25432807 -0.26719594
-0.14947079 0.5800473 -0.080265336 0.1647412 -0.07976959 -0.024085855 -0.21766378 1.1460118
0.19557837 0.014730293 0.045731362 0.012181301 0.1331929 0.12194297 -0.09647598 -0.009111583
-0.14209385 -0.16084869 0.19200976 0.10736974 0.15746127 0.22233023 -0.011739145 0.16763005
1.433017 -0.084592685 0.14753857 -0.16444659 0.3843195 -0.09419845 -0.2964113 0.1588967
-0.15075314 -0.10181754 -0.17300609 0.12927982 -0.10184918 -0.057988588 -0.23621848 -0.2954341
-0.053026807 0.16573067 0.03020852 0.03206889 -0.0640014 -0.15155086 0.02199489 0.013831205
-0.07058769 -0.067773454 0.04968896 -0.017988868 -0.10383006 0.06454707 -0.10642282 -0.01360882
-0.07202325 -0.070954815 0.19515327 -0.38159126 -0.07776302 -0.0022802593 -0.1322891 -0.1401131
-0.22554341 0.018714078 -0.115789704 -0.3052258 -0.23814249 -0.12001275 -0.4684886 -0.4656018
0.021645855 0.08014344 -0.09495294 -0.11451067 -0.037308056 -0.34226826 0.15420982 -0.21065332
-0.029171571 -0.16853681 -0.22130516 0.07377532 0.04806415 -0.13866591 -0.10560758 -0.0053938166
0.59036326 0.08066842 -0.16934797 -0.1495827 0.4330326 0.17681016 -0.21849889 -0.16906334
0.42520544 0.2442272 -0.15515721 -0.15052997 0.113123536 1.153529 0.37288392 -0.75346696
-0.13538216 -0.3590143 0.07154453 -0.034958705 -0.13388239 -0.23541667 -0.1201885 -0.07872609
-0.090189494 -0.015690915 -0.0024753087 -0.11213877 -0.24659836 0.01664774 -0.08153608 -0.17506553
0.4788615 -0.297358 -0.39702362 0.05992235 0.6170499 0.16019355 0.087321855 0.30145922
0.72793674 -0.016097724 0.17345633 0.45260614 0.4606314 1.3162222 -1.2892172 1.268324
0.06893331 -0.16791415 0.1041119 0.08747965 -0.034264393 -0.06032972 0.13472323 0.021669412
-0.076078475 0.033892322 -0.12754045 -0.10579642 0.075301826 -0.046452414 -0.07402412 -0.34987837
00000000: b416 b5be 3f92 2b3d 28a0 13bc 8c27 433e
00000010: 8438 c7be 4283 9bbe be7a b0be ca1a 5dbe
00000020: 45ff 7cbe df7f a0be e5ba 02bd fe4a bbbd
00000030: 9d1e acbd 3ab4 c9bd dea2 473d b7af e6be
00000040: 4f43 9ebd 4d20 f4bd 7374 14be 3281 f5bd
00000050: 506a 81bd b3b6 be3d 64c9 343e 4ca9 8a3c
00000060: 8b81 9f39 e4c4 5fbd 43c8 ad3d 0ad2 e3bd
00000070: 6fe8 eb3c fc84 23bd 384f a23d ca4a 463d
00000080: 08d9 6abe fff0 fabd 0387 4bbe 418b 013e
00000090: 95ed adbe 37b6 acbe 3076 b1be 0152 b1be
000000a0: 5df3 0cbe bdff bbbe b576 81bb c7a7 d5be
000000b0: 0129 23be 65f7 543e 89ae 093e 0873 03be
000000c0: 7f80 d0bc 213f 523d 5793 1a3c 6f3d 6e3d
000000d0: c132 cb3d 1e09 a53c ce7a 82be 84f8 053e
000000e0: 30dc c63d bc5c 06be f43e 0c3e d3e4 823d
000000f0: 741f 3f3e bef1 63bd 3248 3b3e c42c 023e
00000100: f2ce c23f cba9 ec3e ecf6 173f 53ce dabd
00000110: 0101 b5bd a1bc 6dbe 1920 823e 4b16 503c
00000120: f183 74be 3d8f 2dbe 063e cdbe 1d53 0abb
00000130: 9a44 593e 4c52 14bd b8cd 7cbe b801 763f
00000140: 0897 fe3c d6f5 89bd 3beb 29bc ca49 1e3e
00000150: 679a 01be 5b41 d8ba e400 b3bc f99a 7f3d
00000160: 9bd9 febd 21ad 1fbe 4279 27be 9efb c63c
00000170: 7e61 a5bc 75aa 823d 1ed2 393e cfbf 183d
00000180: 1656 88bc 5467 41bd ef85 5ebe 3bbf 17bd
00000190: ea65 8bbe 6d30 bebd 4a37 82be e8cd 88be
000001a0: df0e 19be fb7d 143f 2762 a4bd ebb1 283e
000001b0: 3d5e a3bd b34f c5bc 41e3 5ebe 84b0 923f
000001c0: b245 483e 5457 713c cf50 3b3d 1494 473c
000001d0: b863 083e 3cbd f93d 3395 c5bd c048 15bc
000001e0: 0d81 11be 85b5 24be 359e 443e abe4 db3d
000001f0: 873d 213e 89aa 633e 8b55 40bc 36a7 2b3e
00000200: 1a6d b73f ee3e adbd 5a14 173e b064 28be
00000210: 87c5 c43e 1eeb c0bd 39c3 97be d1b5 223e
00000220: 085f 1abe b785 d0bd 8228 31be ee61 043e
00000230: 4e96 d0bd 7185 6dbd 42e3 71be 2343 97be
00000240: a332 59bd 4db5 293e dc77 f73c ab5a 033d
00000250: 2a13 83bd 2630 1bbe a12e b43c 479c 623c
00000260: 4790 90bd cfcc 8abd a786 4b3d 645d 93bc
00000270: dba4 d4bd 4131 843d 35f4 d9bd 87f7 5ebc
00000280: ed80 93bd c250 91bd 42d6 473e ee5f c3be
00000290: 3842 9fbd 6770 15bb cb76 07be cf79 0fbe
000002a0: daf4 66be 444e 993c 2723 edbd 8e46 9cbe
000002b0: a0db 73be 3fc9 f5bd bddd efbe 5c63 eebe
000002c0: a652 b13c 3e22 a43d b076 c2bd 9284 eabd
000002d0: 55d0 18bd c93d afbe 2ee9 1d3e 81b5 57be
000002e0: 38f9 eebc ea94 2cbe d29d 62be 8417 973d
000002f0: eade 443d 70fe 0dbe c948 d8bd 9dbe b0bb
00000300: 0c22 173f 7c35 a53d 8e69 2dbe 352c 19be
00000310: 73b6 dd3e b90d 353e 2cbe 5fbe f11e 2dbe
00000320: 87b4 d93e b216 7a3e 88e1 1ebe 8724 1abe
00000330: 50ad e73d d7a6 933f a4ea be3e 36e3 40bf
00000340: 9fa1 0abe b9d0 b7be f085 923d dc30 0fbd
00000350: 7718 09be 1111 71be 6325 f6bd 253b a1bd
00000360: 45b5 b8bd 3c8a 80bc ca38 22bb 03a9 e5bd
00000370: 4884 7cbe d760 883c 63fc a6bd 6144 33be
00000380: 562d f53e 4f3f 98be ae46 cbbe 2371 753d
00000390: fbf6 1d3f c709 243e cdd5 b23d dd58 9a3e
000003a0: 105a 3a3f 60df 83bc 899e 313e febb e73e
000003b0: e1d7 eb3e f879 a83f 1205 a5bf 7158 a23f
000003c0: e82c 8d3d b0f1 2bbe 9f38 d53d 8828 b33d
000003d0: d258 0cbd 4c1c 77bd e3f4 093e 0d84 b13c
000003e0: 08cf 9bbd add2 0a3d f799 02be cbab d8bd
000003f0: d837 9a3d e344 3ebd f599 97bd 4223 b3be

conv1.bias f4 [16]
0.24775805 0.11301355 0.021516444 0.005314648 0.05019805 0.20278993 0.1846193 -0.033082273
0.06953573 -0.043421663 0.19351879 0.10682595 0.0314594 -0.004447792 0.25116512 0.13486171
00000000: 49b4 7d3e a673 e73d 4143 b03c 8026 ae3b
00000010: 789c 4d3d 2aa8 4f3e d70c 3d3e 4781 07bd
00000020: c068 8e3d eada 31bd ca29 463e 90c7 da3d
00000030: 92db 003d c9be 91bb b798 803e 3019 0a3e

conv2.weight f4 [32, 16, 4, 4]
-0.007722127 0.03714811 0.02968218 -0.022409627 0.063102536 0.0018624004 -0.0143850725 0.03239226
0.049563523 0.017703364 -0.022333989 0.047275487 0.091944024 0.0040886956 0.039973743 0.08295111
-0.054652855 0.010112691 -0.05722569 -0.028394958 -0.02762853 0.06431395 0.04074139 0.02608444
0.025038004 0.01664581 0.0016851226 0.06881858 -0.003301338 0.06887268 0.083470576 -0.013513056
0.1833886 0.14030159 0.15166646 0.10166902 -0.044539455 -0.025146246 -0.036472235 0.051183537
-0.14180979 -0.030920679 0.017031126 0.03081023 -0.2489166 -0.10719996 -0.09603513 -0.027607733
-0.030318633 0.044758674 -0.017711388 0.044504166 -0.0071238205 -0.04364537 -0.021019902 0.04889979
0.038434204 0.05529768 0.039816406 0.026652092 0.041083157 0.04315686 -0.010453733 0.027993942
0.05772194 0.025095211 0.07719166 0.073258035 -0.088936836 -0.095844015 -0.0364655 0.026388358
-0.19204772 -0.1219685 -0.07342955 -0.04411631 -0.23828563 -0.091212966 -0.041340034 -0.016420117
0.047281474 0.014805953 -0.00750509 0.05943389 0.05199547 -0.029145759 -0.017739376 0.037634585
0.065259285 0.034378026 0.06974802 0.039703656 0.05763322 0.07085105 0.08272034 0.040926065
-0.16990565 -0.034991875 0.05374515 0.032836225 -0.048892867 -0.11872443 0.0011401491 -0.0033121358
-0.11833467 -0.017739726 -0.044566054 -0.02969264 0.03428081 0.029082203 0.036964487 0.020264203
-0.13344108 -0.041708857 0.039404612 0.059102926 -0.21671705 -0.118083864 -0.055585563 -0.0017425255
-0.29155108 -0.24027233 -0.1901925 -0.1433996 -0.04514492 -0.16583443 -0.27513668 -0.2038814
-0.055012725 0.03992984 -0.011471405 -0.070901856 -0.023038097 -0.02557996 0.010293464 -0.021211928
0.028103165 -0.030455558 0.04694576 -0.040221024 0.06252594 0.06419139 0.072928034 0.010167853
-0.06290232 -0.06943232 0.019057598 -0.051695693 -0.18562496 -0.0719568 -0.0072918884 0.008186266
-0.21037185 -0.14164676 -0.061293717 -0.102208704 -0.2939056 -0.09971077 -0.06552127 -0.10656866
-0.026024051 0.06226814 -0.010018467 0.010745415 -0.017495688 -0.007357412 -0.042490643 -0.019347103
-0.008842505 -0.04186251 0.05625145 -0.015753053 -0.054248605 0.031084698 -0.059501562 0.038577855
0.008969455 -0.071193844 -0.12124414 -0.15842846 -0.044997096 -0.0558908 -0.09907602 -0.13578954
0.01543544 0.004189911 -0.07338247 -0.07145067 -0.01966451 0.014779141 0.05486627 0.031483334
-0.06479988 0.0014820637 0.02885835 -0.07921877 -0.06138894 -0.0025102403 -0.016982881 -0.067534536
-0.119529456 -0.1308683 -0.09111147 0.0100775305 -0.16967247 0.00846125 -0.19012536 -0.12357903
-0.08192567 -0.039812144 -0.0039026493 -0.013948949 -0.12675829 -0.029038068 -0.008691442 -0.032030348
-0.12277278 -0.087803565 -0.03442332 0.03133824 -0.1913151 -0.046514455 0.012260956 -0.038180124
0.05458229 -0.048801117 0.0058098123 0.028755978 0.07800379 0.060428873 -0.017029814 -0.050495636
0.009589171 -0.03400073 0.07637349 0.049003948 0.09308736 0.04595106 -0.019717377 0.021425392
0.06835426 -0.008669592 -0.033110384 0.06499052 0.009992047 0.07998312 0.066862315 0.045813195
-0.0117671 -0.030702796 0.049540207 0.021152081 -0.0152742965 0.04289507 0.075629294 0.018047877
00000000: e509 fdbb 9e28 183d 0b28 f33c 6594 b7bc
00000010: e73b 813d ca1b f43a 5eaf 6bbc bfad 043d
00000020: 1f03 4b3d a506 913c c5f5 b6bc f1a3 413d
00000030: 264d bc3d 77fa 853b 82bb 233d 46e2 a93d
00000040: acdb 5fbd b3af 253c 7c65 6abd 8b9c e8bc
00000050: 3a55 e2bc 08b7 833d 72e0 263d 09af d53c
00000060: 801c cd3c cb5c 883c 55df dc3a c1f0 8c3d
00000070: 435b 58bb 1f0d 8d3d 9ff2 aa3d dd65 5dbc
00000080: 39ca 3b3e 38ab 0f3e 744e 1b3e d937 d03d
00000090: 016f 36bd 80ff cdbc e963 15bd d4a5 513d
000000a0: 9636 11be 5d4d fdbc dc84 8b3c bc65 fc3c
000000b0: fee3 7ebe a78b dbbd 11ae c4bd 9d29 e2bc
000000c0: c85e f8bc df54 373d 7917 91bc 004a 363d
000000d0: f06e e9bb 7dc5 32bd ee31 acbc 254b 483d
000000e0: 2f6d 1d3d d27f 623d 8716 233d 7d55 da3c
000000f0: d046 283d 3fc5 303d 2246 2bbc 8d53 e53c
00000100: d76d 6c3d 7994 cd3c a916 9e3d 4f08 963d
00000110: 8424 b6bd de49 c4bd d95c 15bd 662c d83c
00000120: 28a8 44be 9fca f9bd 3b62 96bd 4eb3 34bd
00000130: 2601 74be ddcd babd 2b54 29bd 7b83 86bc
00000140: 38aa 413d ab94 723c 42ed f5bb f370 733d
00000150: 34f9 543d 16c3 eebc 2b52 91bc b926 1a3d
00000160: a9a6 853d f9cf 0c3d 0dd8 8e3d 4da0 223d
00000170: d010 6c3d 5b1a 913d 4869 a93d 17a2 273d
00000180: bffb 2dbe a453 0fbd e023 5c3d 477f 063d
00000190: e343 48bd cb25 f3bd 0e71 953a 6b10 59bb
000001a0: 7359 f2bd e752 91bc e58a 36bd fb3d f3bc
000001b0: 096a 0c3d cd3d ee3c 1368 173d 1d01 a63c
000001c0: c7a4 08be e8d6 2abd bb66 213d e915 723d
000001d0: 13eb 5dbe f4d5 f1bd b0ad 63bd 7465 e4ba
000001e0: 2f46 95be f309 76be d3c1 42be 58d7 12be
000001f0: e1e9 38bd 80d0 29be b7de 8cbe 49c6 50be
00000200: 0655 61bd 798d 233d 8ff2 3bbc fe34 91bd
00000210: 64ba bcbc 108d d1bc eba5 283c a3c4 adbc
00000220: 9c38 e63c ef7d f9bc 324a 403d cdbe 24bd
00000230: 9a0d 803d c776 833d 4b5b 953d 1197 263c
00000240: eed2 80bd 8832 8ebd ae1e 9c3c ddbe 53bd
00000250: 7814 3ebe 165e 93bd cbf0 eebb b01f 063c
00000260: b86b 57be d90b 11be 1f0f 7bbd cc52 d1bd
00000270: cb7a 96be 2935 ccbd 0430 86bd ab40 dabd
00000280: 6430 d5bc e10c 7f3d 7f24 24bc 8a0d 303c
00000290: 1e53 8fbc 7216 f1bb ab0a 2ebd d17d 9ebc
000002a0: 27e0 10bc 0678 2bbd ec67 663d 8c0c 81bc
000002b0: c933 5ebd 56a5 fe3c e9b7 73bd d003 1e3d
000002c0: 9ff4 123c 14ce 91bd d94e f8bd 123b 22be
000002d0: e04e 38bd c0ed 64bd 5ee8 cabd 6a0c 0bbe
000002e0: ede4 7c3c 854b 893b 8c49 96bd bb54 92bd
000002f0: 7717 a1bc 3624 723c 74bb 603d abf4 003d
00000300: cdb5 84bd ce41 c23a 5968 ec3c 733d a2bd
00000310: f872 7bbd d882 24bb af1f 8bbc 8c4f 8abd
00000320: dccb f4bd 5702 06be a698 babd 3a1c 253c
00000330: 9fbe 2dbe 0ea1 0a3c 39b0 42be 0117 fdbd
00000340: a5c8 a7bd 0f12 23bd 97c3 7fbb 228a 64bc
00000350: edcc 01be 3ee1 edbc 8d66 0ebc 4132 03bd
00000360: 4c70 fbbd 5bd2 b3bd 78ff 0cbd 875c 003d
00000370: 1be8 43be f185 3ebd 2de2 483c c362 1cbd
00000380: ae91 5f3d aee3 47bd 3d60 be3b a891 eb3c
00000390: 73c0 9f3d 4484 773d 1c82 8bbc 83d4 4ebd
000003a0: e61b 1d3c 5944 0bbd b469 9c3d 5db8 483d
000003b0: 96a4 be3d 2e37 3c3d 5686 a1bc 4e84 af3c
000003c0: 51fd 8b3d e80a 0ebc c19e 07bd c019 853d
000003d0: afb5 233c 31ce a33d 1cef 883d 9ea6 3b3d
000003e0: cbca 40bc 6e84 fbbc acea 4a3d 2147 ad3c
000003f0: 0b41 7abc beb2 2f3d 88e3 9a3d 24d9 933c

conv2.bias f4 [32]
0.07882614 -0.078769535 0.0328783 -0.034829088 0.064948715 -0.08163915 -0.035459403 0.08008477
0.040465266 -0.058852155 -0.06734381 0.15047158 0.08275751 0.035884745 0.08460458 0.050781913
0.1667829 -0.040706843 0.0647053 -0.05382132 0.067680225 0.0012728655 0.09570821 0.09090419
0.09442227 0.119453296 0.18554513 0.057202008 0.076588824 0.020726552 0.016291423 0.042454753
00000000: 996f a13d ec51 a1bd 65ab 063d f2a8 0ebd
00000010: d503 853d 6d32 a7bd e13d 11bd 7c03 a43d
00000020: e8be 253d f50e 71bd 8deb 89bd 3915 1a3e
00000030: c57c a93d e2fb 123d 2b45 ad3d b200 503d
00000040: 23c9 2a3e 38bc 26bd 3684 843d bf73 5cbd
00000050: ee9b 8a3d 47d6 a63a aa02 c43d fa2b ba3d
00000060: 7760 c13d eea3 f43d 8bff 3d3e a74c 6a3d
00000070: 9ada 9c3d bbca a93c 9775 853c 09e5 2d3d

fc1.weight f4 [64, 800]
0.051145434 -0.0110896565 -0.07378897 -0.0014443336 -0.0002661583 0.012037111 -0.008529764 0.042031314
0.044100493 0.031637054 -0.01473805 0.007114714 0.056188416 0.016518336 0.03799957 0.04311459
0.07943952 -0.0005897325 0.035876 0.04723129 0.0015926865 0.015918085 -0.004701051 0.054320157
0.06555977 0.023997467 -0.024861168 0.015787542 -0.025483515 -0.03309653 -0.033992454 0.0041147918
0.021308005 0.008625194 -0.006846141 -0.015198896 0.005468607 -0.005357623 -0.017998746 -0.020651257
0.015624467 0.011326212 0.007489126 -0.0024788752 -0.012573818 -0.016348068 0.019662682 -0.012421362
-0.022038588 -0.017018823 0.08243681 0.23237516 -0.059370425 -0.0043019694 0.5683774 -0.111748576
-0.016594278 0.0064243195 0.0086159175 -0.18082716 0.11760155 0.07458338 -0.050650053 0.3639362
-0.178814 0.116752155 -0.11328108 0.071415365 -0.11280044 0.3877269 0.41682836 0.04047183
0.31402543 0.19956468 -0.10342071 0.027286677 0.045648742 -0.02672905 -0.010127874 0.044345308
0.052324045 0.02427211 0.029033484 0.0369949 -0.0018181823 0.01854779 0.039143138 0.03269893
0.036947712 0.03584868 -0.028125633 0.009567688 -0.013808041 0.0593974 0.036683574 0.01878349
0.0399014 0.026985968 0.04335294 0.065794304 -0.2169586 0.024417594 0.06454364 0.009705682
0.047606803 0.16430001 0.0781156 0.058594506 0.013814482 0.050351895 0.06345906 0.07749448
0.017571423 0.025667837 0.023185449 -0.025158327 0.18095073 0.048008 0.043127645 0.03033187
-0.06469327 0.08470203 -0.013579696 0.05222173 0.039093576 0.050850138 0.032926157 0.04355791
0.0020348488 0.017591057 0.0028019943 0.04546313 0.0135276355 -0.0120950565 -0.010557046 -0.016839687
0.034834992 -0.038291473 0.0024703543 -0.003777065 0.04328158 -0.007063119 -0.012619231 -0.028584452
0.1284244 -0.0040603145 0.02462998 -0.02007724 0.05382616 0.021131374 0.032467443 -0.027405307
-0.03116346 0.00032815748 0.026805762 -0.030395528 -0.023721563 0.00059622823 0.003112875 0.031105
0.025124691 -0.040046047 -0.03711305 -0.005118428 0.0043445257 -0.027333122 0.004426652 0.014052767
-0.034167055 0.03394105 0.0024508238 0.033885624 0.02100055 -0.027575407 -0.032838188 0.01632679
0.005575966 -0.0021139425 -0.01339489 -0.017806761 0.024265599 -0.0002780692 0.018509885 0.029097471
0.0057690525 -0.042142063 -0.0109596765 0.0026831052 0.055308007 0.0009428522 0.047106173 0.07667931
-0.0062490976 -0.0051129647 0.025540315 0.015488082 0.016730012 -0.048364397 0.0036348756 -0.011734346
-0.13996537 -0.1490855 0.21716805 -0.017062325 0.6221259 -0.10233178 -0.059188146 0.19855233
-0.21136826 -0.028192163 0.30468512 0.17607799 -0.024502017 -0.238785 -0.10083722 0.13851804
0.029158153 -0.14092581 -0.18531188 -0.16605046 -0.2531389 0.10577061 -0.014534539 -0.094015785
-0.18990105 -0.2332694 -0.12621708 -0.11566605 0.008527013 0.0884988 0.083791055 -0.09884169
0.070688464 0.08927138 0.096077636 -0.040506557 0.16719565 0.0054606916 0.040679444 0.04231238
-0.13299826 0.052365504 0.02984052 0.024132049 0.044940647 -0.11741853 -0.0217827 -0.07207579
0.005130194 0.051534902 -0.0041550603 -0.024836443 -0.028112223 -0.027370326 0.0016086064 -0.005369816
00000000: e07d 513d 64b1 35bc ac1e 97bd cb4f bdba
00000010: 2a8b 8bb9 4e37 453c 6cc0 0bbc 0729 2c3d
00000020: b8a2 343d db95 013d dd77 71bc 8c22 e93b
00000030: d325 663d 7651 873c 70a5 1b3d ed98 303d
00000040: 30b1 a23d 4798 1aba b6f2 123d 9975 413d
00000050: b1c1 d03a a566 823c 460b 9abb d07e 5e3d
00000060: 3344 863d 5696 c43c a6a9 cbbc e054 813c
00000070: cec2 d0bc 3a90 07bd ac3b 0bbd 60d5 863b
00000080: 208e ae3c b050 0d3c 9855 e0bb ca04 79bc
00000090: 0032 b33b 008f afbb 1b72 93bc d32c a9bc
000000a0: c4fd 7f3c 9491 393c 5867 f53b a074 22bb
000000b0: 6a02 4ebc 62ec 85bc a213 a13c f882 4bbc
000000c0: 458a b4bc 0f6b 8bbc a1d4 a83d c1f3 6d3e
000000d0: 672e 73bd 89f7 8cbb 2e81 113f 70dc e4bd
000000e0: b9f0 87bc 1983 d23b c729 0d3c c12a 39be
000000f0: 15d9 f03d 2cbf 983d 6e76 4fbd d855 ba3e
00000100: 041b 37be c11b ef3d e9ff e7bd 3842 923d
00000110: eb03 e7bd 2484 c63e 876a d53e cac5 253d
00000120: f1c7 a03e af5a 4c3e 3dce d3bd 4f88 df3c
00000130: 2dfa 3a3d e1f6 dabc 62ef 25bc 6da3 353d
00000140: bd51 563d 4ed6 c63c a1d7 ed3c f787 173d
00000150: 1350 eeba 89f1 973c 8e54 203d 50ef 053d
00000160: 7c56 173d 11d6 123d ba67 e6bc cbc1 1c3c
00000170: 1f3b 62bc b04a 733d 8441 163d d5df 993c
00000180: a76f 233d ad11 dd3c da92 313d 2abf 863d
00000190: 652a 5ebe 6807 c83c 752f 843d 9504 1f3c
000001a0: 5aff 423d 433e 283e 12fb 9f3d cb00 703d
000001b0: 2356 623c ca3d 4e3d d3f6 813d 6db5 9e3d
000001c0: f2f1 8f3c 5b45 d23c 69ef bd3c d618 cebc
000001d0: 264b 393e 09a4 443d 9da6 303d 8b7a f83c
000001e0: e87d 84bd 4278 ad3d 607d 5ebc 74e6 553d
000001f0: 9620 203d 3c48 503d 94dd 063d c769 323d
00000200: 195b 053b 1f1b 903c aaa1 373b 8c37 3a3d
00000210: 04a3 5d3c 582a 46bc 76f7 2cbc 62f3 89bc
00000220: 23af 0e3d 85d7 1cbd abe5 213b a388 77bb
00000230: 0748 313d bd71 e7bb e4c0 4ebc f129 eabc
00000240: b081 033e 630c 85bb d0c4 c93c 0679 a4bc
00000250: d278 5c3d b41b ad3c 95fc 043d 1881 e0bc
00000260: 834a ffbc 8d0c ac39 c297 db3c 0b00 f9bc
00000270: b953 c2bc 334c 1c3a 6001 4c3b eacf fe3c
00000280: 4cd2 cd3c 5307 24bd db03 18bd 7cb8 a7bb
00000290: 865c 8e3b b6e9 dfbc 730d 913b 943d 663c
000002a0: c1f2 0bbd c505 0b3d 009e 203b a7cb 0a3d
000002b0: 5809 ac3c d2e5 e1bc 5681 06bd c3bf 853c
000002c0: 98b6 b63b 128a 0abb 3e76 5bbc 7cdf 91bc
000002d0: a6c8 c63c d1c9 91b9 0ba2 973c d25d ee3c
000002e0: 520a bd3b 289d 2cbd 3790 33bc 09d7 2f3b
000002f0: a68a 623d bd29 773a 67f2 403d 0b0a 9d3d
00000300: 3bc5 ccbb a88a a7bb ec39 d13c b9c1 7d3c
00000310: 610d 893c bf19 46bd 1837 6e3b 6a41 40bc
00000320: 1553 0fbe dfa9 18be 4d61 5e3e 4ac6 8bbc
00000330: a543 1f3f 5393 d1bd 456f 72bd 4d51 4b3e
00000340: ec70 58be 40f3 e6bc b0ff 9b3e ca4d 343e
00000350: 74b8 c8bc 0e84 74be bf83 cebd acd7 0d3e
00000360: 14dd ee3c db4e 10be 66c2 3dbe 2209 2abe
00000370: 6c9b 81be 439e d83d 4622 6ebc 598b c0bd
00000380: 6c75 42be 2cde 6ebe 0d3f 01be 52e2 ecbd
00000390: e2b4 0b3c dc3e b53d a59a ab3d 836d cabd
000003a0: 1dc5 903d ead3 b63d 5ac4 c43d 34ea 25bd
000003b0: 5635 2b3e 9aef b23b 7d9f 263d bf4f 2d3d
000003c0: b230 08be 367d 563d 1b74 f43c 93b0 c53c
000003d0: af13 383d 2079 f0bd a271 b2bc 799c 93bd
000003e0: 301b a83b 4316 533d 2c27 88bb cc75 cbbc
000003f0: 9b4b e6bc bc37 e0bc e0d7 d23a 48f5 afbb

fc1.bias f4 [64]
0.0042200317 -0.015646158 0.10920889 0.000821512 -0.0270914 0.06520464 -0.02772217 0.01306651
-0.044991415 0.074782595 0.0938124 -0.0138872145 -0.039002545 -0.028049111 -0.007995148 -0.006790162
-0.041084528 -0.037588824 -0.014863471 -0.013631225 0.038963716 0.05684523 0.053117644 -0.03548669
0.031081447 -0.05760011 -0.00970086 0.03840009 0.00063021143 0.08257313 -0.014306142 0.0085556945
0.089283004 0.06310751 0.011816042 -0.0038422788 0.028561108 0.04850317 -0.05009276 0.12145667
0.08545736 -0.034592967 0.0165633 -0.023582082 -0.0020733802 -0.02261196 0.04074304 0.09742733
0.05326776 0.04589302 -0.025795441 0.13045618 0.0020393059 0.06600553 -0.05955187 0.010732149
-0.025811074 -0.029905925 -0.06596841 -0.01178013 -0.00052422035 -0.043113198 -0.016288565 -0.03573324
00000000: 3148 8a3b 5f2c 80bc e9a8 df3d bd5a 573a
00000010: c9ee ddbc 038a 853d 9b19 e3bc ea14 563c
00000020: eb48 38bd 9e27 993d b720 c03d 3387 63bc
00000030: 22c1 1fbd 40c7 e5bc 15fe 02bc 0280 debb
00000040: 4048 28bd bdf6 19bd ea85 73bc 8055 5fbc
00000050: 6b98 1f3d 8bd6 683d e391 593d 7e5a 11bd
00000060: 859e fe3c 18ee 6bbd 5bf0 1ebc 6a49 1d3d
00000070: c634 253a 1a1c a93d 4f64 6abc 2f2d 0c3c
00000080: 02da b63d 833e 813d 1298 413c bece 7bbb
00000090: fcf8 e93c 43ab 463d 112e 4dbd 46be f83d
000000a0: 4504 af3d 5bb1 0dbd c2af 873c 362f c1bc
000000b0: 8ce1 07bb b83c b9bc 2de2 263d fb87 c73d
000000c0: 4b2f 5a3d 52fa 3b3d f650 d3bc 4e96 053e
000000d0: e0a5 053b e82d 873d a9ec 73bd e5d5 2f3c
000000e0: bf71 d3bc 45fd f4bc 721a 87bd 7201 41bc
000000f0: d56b 09ba 7797 30bd 996f 85bc 055d 12bd
